weights/finetune.pth (torch, 946022 bytes, 26 tensors)

layer1.0.weight f4 [16, 1, 3, 3]
000000 52 cd 66 3e 0d ae 02 3e 59 03 25 bd 8a 7c a5 3e
       0.22539261 0.12761708 -0.040286396 0.32321578
000010 18 a8 af 3e a8 4f 8f be 4b b7 4c be be 9a 4e be
       0.34307933 -0.2799046 -0.19991796 -0.20176217
000020 50 02 d6 3c ad ce 7a 3e 88 d2 e9 bd ef 80 88 be
       0.02612415 0.24492903 -0.11417109 -0.2666087
000030 92 73 a5 bd 99 d2 83 3e 3f 12 a4 3c 58 8f 3a bd
       -0.08078684 0.2574661 0.020028232 -0.04554686
000040 6c 42 fc 3d 9c e6 90 be e6 5e f7 bd 3c c1 0e ba
       0.123173565 -0.2830094 -0.12078647 -0.0005445664
000050 94 73 93 be 0a 7c 52 3d 52 b3 74 3d 1c d4 d2 3b
       -0.28799117 0.051387824 0.059741326 0.006433977
000060 0b 89 86 be df 27 84 be 98 02 a4 3e fe 39 90 3e
       -0.2627643 -0.2581167 0.3203323 0.28169245
000070 d3 c4 13 3e 58 63 85 3e 2f 83 8e 3e 03 e6 53 be
       0.14430551 0.26052356 0.2783446 -0.20693211
000080 0f 38 b0 be 69 35 57 3e 7d 65 66 3e 32 e0 a1 3d
       -0.3441777 0.21016468 0.22499652 0.0790409
000090 90 60 45 3e e0 cf 45 3e 6d 0e 54 bc 7f 68 06 3e
       0.19275117 0.1931758 -0.0129428925 0.131258
0000a0 cb b2 38 be dc 08 58 3e 4c 2f a1 bd 68 ec e7 3d
       -0.18036954 0.2109713 -0.07870349 0.11324388
0000b0 44 fd a3 bd 22 e6 a9 bc 05 15 aa be 20 9b 03 bd
       -0.08007291 -0.020739619 -0.33219162 -0.03213036
0000c0 2d 8f cc 3c 5d b0 c6 bd 6f 23 5f 3a b3 64 db bc
       0.024970615 -0.097016074 0.0008512055 -0.026781416
0000d0 92 78 a6 bd 1c 25 87 bb 23 ed d6 bd 02 9c 66 be
       -0.08128466 -0.004124297 -0.10494449 -0.2252045
0000e0 0f 7b 73 be 74 49 89 be 2a 41 2b 3e f4 e3 88 3e
       -0.23777412 -0.26813853 0.16724077 0.26736414
0000f0 a9 ef 47 bc 85 b2 83 bb 09 bb 7a be 33 d6 c9 3d
       -0.0122031355 -0.004019084 -0.24485411 0.098553084
000100 14 0e 3c 3e cf 1a 81 be 0a c1 e0 3d da cf 22 be
       0.18364745 -0.25215766 0.10974319 -0.15899602
000110 d3 ce 98 3e 0f 3e b8 3d b2 18 11 3e e1 16 b3 3d
       0.29845294 0.08996212 0.14169577 0.08744598
000120 ab b8 9b bc 87 a0 8e be 04 11 62 be d4 a4 82 3e
       -0.019008955 -0.27856848 -0.22076803 0.2551638
000130 b4 17 62 bd 15 36 63 3e 5f f9 6a 3e 55 c4 9f ba
       -0.055198386 0.221886 0.2294669 -0.0012189249
000140 06 ba 3f 3e 59 a3 ad 3e 47 37 87 bc 85 18 6f be
       0.18723306 0.33913687 -0.01650585 -0.23349197
000150 d1 0e 6f 3e cb 75 df 3d 33 05 87 3d 62 2b 92 be
       0.23345496 0.10911139 0.065927885 -0.28548723
000160 e9 35 8e 3e 97 2b 8c 3d 91 0d 63 3e f6 23 ad 3e
       0.27775505 0.068442516 0.22173144 0.338165
000170 57 83 57 3e 5c 41 00 3e 20 a1 97 3e bd 10 9e bc
       0.21046196 0.12524933 0.29615116 -0.01929509
000180 04 53 fe 3d 15 83 31 3d 9b 56 a2 3e ce 5e a7 bd
       0.12418178 0.0433379 0.317067 -0.081723794
000190 93 8b 64 3e 13 22 19 be 99 47 20 3e 8b 5a e4 bd
       0.22318868 -0.14954405 0.15652312 -0.11150082
0001a0 6b 84 06 bd 7b 45 a3 3e 3f a8 19 bd 8b 16 36 bd
       -0.032841127 0.31888947 -0.037513968 -0.044455092
0001b0 47 42 87 bd 20 8d 82 3e 5f 15 ac bd fc b6 8a 3e
       -0.06604438 0.25498295 -0.08402514 0.2709273
0001c0 df e5 78 be 73 60 e9 3d a1 c1 19 3e db bb 24 3e
       -0.24306439 0.11395349 0.1501527 0.16087286
0001d0 a8 30 4c 3e ad ab b7 be 81 87 fb bd 8b 1c 41 be
       0.19940436 -0.35873166 -0.12281705 -0.18858545
0001e0 3d 9c 8f 3e b9 b9 49 3d a8 07 05 be 77 09 66 3d
       0.28048888 0.049249385 -0.12991202 0.05616137
0001f0 47 43 6f bd 45 df 65 3e 37 10 13 be 15 fa 9f bd
       -0.05841377 0.22448452 -0.14361654 -0.07811371
000200 06 29 f9 bd 2d b4 b0 be f1 a6 22 bd 86 ae 99 be
       -0.12166028 -0.34512463 -0.03970999 -0.30015963
000210 05 e8 78 be 14 94 ad be de e0 a0 3e 7f 81 c0 3d
       -0.24307258 -0.33902037 0.3142156 0.093996994
000220 52 d4 97 be 3f 0b c6 bc fa 93 50 be ff 2b ff bd
       -0.29654175 -0.024175284 -0.20368949 -0.124595635
000230 80 9b 88 3d 01 ec 50 be 1d 60 5a 3e c3 bc 2c be
       0.06670284 -0.20402528 0.21325727 -0.16868882

layer1.0.bias f4 [16]
000000 80 09 7b be 0f 50 94 be 2a 56 85 be 01 f5 59 3c
       -0.24515343 -0.2896733 -0.260423 0.013303042
000010 9e 30 7e be c2 f5 bd bc 32 57 a5 be 69 37 3d bd
       -0.24823233 -0.023188476 -0.32293087 -0.04619542
000020 59 1c 5f 3d 32 ec 1c bd ef aa 7b be d2 f8 24 3e
       0.054470394 -0.03831119 -0.24576925 0.16110542
000030 bc 14 b8 bd 05 3b 69 3e ad 81 2d be d7 a0 9a be
       -0.0898833 0.2277642 -0.16943999 -0.30200836

layer1.1.weight f4 [16]
000000 08 e7 86 3f f3 4d 7d 3f 50 0b 81 3f f2 0b 7e 3f
       1.0539255 0.98947066 1.0081577 0.9923698
000010 4f 6f 7b 3f a0 5a 7e 3f 52 70 78 3f bd d4 7d 3f
       0.9821672 0.9935703 0.9704639 0.9915274
000020 55 04 84 3f 56 39 86 3f 5a c6 82 3f 6a 41 7d 3f
       1.0313822 1.0486248 1.0216782 0.9892794
000030 9b da 7d 3f 38 92 7c 3f 78 81 81 3f ac 2c 83 3f
       0.9916169 0.9866061 1.0117636 1.0248008

layer1.1.bias f4 [16]
000000 b8 d7 fb bb af a8 fd bb 9d 8d 9d ba 23 82 b6 bc
       -0.007685628 -0.007741056 -0.0012020353 -0.02227885
000010 c1 5e 4b bb 4d 02 22 bc 61 e3 93 bb eb 53 6a bc
       -0.003103182 -0.009888244 -0.0045131897 -0.014302234
000020 f2 73 ca 3b ee 82 d5 ba a7 3b 35 39 e0 ce a1 bc
       0.0061783725 -0.001628963 0.00017283727 -0.019751966
000030 f5 12 34 bc c2 f0 d1 bc c7 cf 99 3c ae a3 88 3c
       -0.010990848 -0.025627498 0.018775834 0.016679611

layer2.0.weight f4 [16, 16, 3, 3]
000000 85 4b 1f bc e9 83 91 bd b3 40 74 bc 32 10 03 be
       -0.009722595 -0.07105238 -0.014908004 -0.12799147
000010 89 b7 72 bd 80 62 a4 3c e1 e4 59 3d 63 dc 58 3d
       -0.059257064 0.0200665 0.05319679 0.052944552
000020 52 b9 9b 3d 7f 48 ce bc e0 d5 fa 3a 77 46 76 3d
       0.076037064 -0.025181053 0.0019137226 0.060125794
000030 c6 81 98 3c 0f 19 04 bd ea f5 d7 bc 37 c3 1a 3d
       0.018616568 -0.03225046 -0.026362378 0.037783828
000040 b0 e2 90 bd 9d e0 49 bd de 45 2f 3d e7 37 8e bb
       -0.07074487 -0.049286474 0.04279124 -0.00434016
000050 d3 2b bd bd d9 9c 9c 3c d2 48 72 bd bd eb 84 bd
       -0.092368744 0.01911776 -0.059151478 -0.06490276
000060 46 cc 83 bd 97 9c 21 3d 5f 50 96 bd 36 25 16 bd
       -0.064354464 0.039455976 -0.07339548 -0.03665658
000070 2c fa a9 bd a4 5e 83 bd 49 11 0b bc ac a6 0f 3b
       -0.082996696 -0.06414536 -0.008488008 0.0021919413
000080 09 eb 5a bd 73 74 24 bc c7 4d 3a bd b7 08 13 bc
       -0.053446803 -0.010037529 -0.04548433 -0.008974246
000090 d1 4f 62 bd 27 11 0b bd 94 96 45 3d 02 b3 fb bc
       -0.0552519 -0.033951905 0.048239306 -0.030725006
0000a0 39 0a 4f 3d 86 d4 bc bd 41 43 5f 3d 52 35 23 3d
       0.05054686 -0.09220223 0.054507498 0.039845772
0000b0 10 be 14 3d cf e6 72 bd 98 56 5a bd 60 a1 ac 3d
       0.03631407 -0.059302147 -0.05330524 0.08429217
0000c0 ce 11 19 bd 5c e6 90 bd 47 3c 21 3c 36 42 e3 bc
       -0.037370495 -0.070751876 0.009841031 -0.027741533
0000d0 7a c0 23 bd b6 10 a5 3c b3 43 41 bd 97 74 ad bc
       -0.03997848 0.02014957 -0.047183704 -0.021173758
0000e0 90 85 61 3d af 67 89 3d 88 98 a7 3c 7d e0 1d bd
       0.055059016 0.06709229 0.020458475 -0.038544167
0000f0 9b 41 6d 3d 64 bb 40 3d 03 25 17 bb 7b 74 db 3b
       0.057923894 0.04705371 -0.0023062832 0.006697235
000100 50 2b 60 3d e8 2d 05 bd 10 65 83 3d 52 bf 05 bd
       0.054728806 -0.032514483 0.064157605 -0.03265316
000110 45 84 99 bd 7c a4 48 3d ae 4e 78 3d d3 3c 0a 3d
       -0.074959315 0.04898499 0.06062191 0.033749413
000120 cc f5 b8 3d 5f c7 c0 3d da b7 81 3d aa 6a e0 3c
       0.09031257 0.09413027 0.06333895 0.027394611
000130 65 7a c7 3d c9 38 5c 3c c8 72 2d 3d f8 9e 49 bd
       0.09740142 0.013441273 0.042345792 -0.04922387
000140 83 b5 52 3d c4 80 cd bc b2 87 ea bc de a4 af 3b
       0.051442634 -0.025085814 -0.028629158 0.00536023
000150 45 ef ae bc e2 83 0e 3d 7c fc 27 bd 7e 3e 73 bd
       -0.021354327 0.034793742 -0.041012272 -0.05938577
000160 20 3a ad 3d f0 3b ac bd 87 d0 60 bd d0 0e 95 bd
       0.08458352 -0.0840987 -0.054886367 -0.07278216
000170 7b bf 00 bd 6c 6e 28 bd 4b 45 4f bd b3 64 e0 bc
       -0.03143261 -0.04112093 -0.050603192 -0.027391767
000180 3d 17 a3 3d cb e2 bf 3c 66 a8 01 3d 68 77 55 3d
       0.07963417 0.023423573 0.031654738 0.052115828
000190 3d b5 69 3d 22 ee be bd 35 4e b2 3b cd 0d a7 bd
       0.057057608 -0.09322764 0.005441452 -0.08156929
0001a0 26 92 60 3d af b2 a1 bd 05 1e 35 3d 66 d3 9e bd
       0.054826878 -0.07895409 0.044218082 -0.07755165
0001b0 c9 b6 f5 3b 98 ae 32 3d cf f6 08 3c d0 52 97 bd
       0.0074985963 0.043623537 0.008359625 -0.07388842
0001c0 3c 28 89 3d f0 ba 9f bd a9 26 16 bd b8 78 8f 3c
       0.06697127 -0.077993274 -0.036657963 0.017513618
0001d0 e8 24 cb 3c 54 a0 65 3d 40 31 05 bd 0f ba 2e 3c
       0.024797872 0.056061104 -0.03251767 0.010664477
0001e0 91 9b 75 38 76 93 4c 3a fd 5d 71 bd be d9 8f 3d
       5.8557434e-05 0.0007803956 -0.058927525 0.07023953
0001f0 b9 22 fd 3c 32 96 9a 3d ec b9 26 3d 21 0c 89 bd
       0.030900346 0.07548179 0.040704653 -0.066917665
000200 a2 8c a5 bd a7 77 a7 bc d2 c2 8d bd 8b 01 e1 bd
       -0.08083464 -0.020442797 -0.06921925 -0.109866224
000210 49 87 10 bd 92 6d a6 bd 08 1f b3 bd 23 f0 ad bd
       -0.035285268 -0.08126368 -0.08746153 -0.08493068
000220 66 8e 7b 3c 6b 6a 80 bc 32 6d dc bc 09 a4 c4 3c
       0.015353775 -0.015675744 -0.026907537 0.024004
000230 74 e9 87 3d 98 a8 90 bd f4 c3 28 bd c6 8c cb bc
       0.066363245 -0.07063407 -0.0412025 -0.0248474
000240 81 7d 12 bd 0a 76 8e bd 00 10 e1 3b e3 66 a5 3d
       -0.03576422 -0.06956108 0.0068683624 0.08076265
000250 4b 4c e0 3c 4a ef 3c 3d a9 d0 bf 3d 03 c1 7f 3d
       0.02738013 0.04612664 0.09365971 0.06243993
000260 42 f6 6e bd 90 bc f2 bc ec 2e 0f bd 52 78 7e bd
       -0.05834032 -0.02963093 -0.034956858 -0.062126465
000270 e2 be 15 3d 68 41 61 3c 5e 43 70 3c 1f 80 28 bd
       0.036558993 0.013748504 0.014664499 -0.04113781
000280 aa 51 a5 bc e2 24 6d bd d0 30 80 3d eb 70 77 3d
       -0.020180542 -0.057896502 0.0625931 0.06041042
000290 ed d2 09 bd ed 6d 4b 3d de 95 5f 3d ba 4b 71 3d
       -0.03364842 0.04966538 0.054586284 0.05891011
0002a0 d7 f4 d8 bc 13 5e 76 bc 87 7e 75 3c f2 43 28 3d
       -0.026483936 -0.0150370775 0.01498378 0.041080423
0002b0 a9 ba 70 bd 7a 89 4a bd 0a 43 1f 3d 12 ff 70 3d
       -0.058771763 -0.049447514 0.038882293 0.058837004
0002c0 eb 4e 17 bd df 41 8e 3d e5 7d 59 3d 61 2c 35 bd
       -0.036940496 0.06946158 0.053098578 -0.044231776
0002d0 50 a2 df bc b9 90 9e bd 4b 61 90 3d 30 3b b0 bc
       -0.027299076 -0.077424474 0.07049807 -0.021512598
0002e0 75 1b 24 bd ee de 78 3c e5 c2 14 bd 85 54 31 3d
       -0.040065248 0.015189869 -0.03631868 0.043293495
0002f0 57 f6 de 3c 12 2e 64 3d 71 1b 9f bd 83 40 0f bd
       0.027217073 0.055708 -0.07768906 -0.034973633
000300 e7 e1 26 bd 34 a6 0c bd 4e 86 b4 bd ec b2 f2 bc
       -0.04074278 -0.03433819 -0.08814679 -0.029626332
000310 b6 59 99 bd ad 5f 88 bd 48 cf 8b 3c 46 71 66 3d
       -0.07487814 -0.06658874 0.017066613 0.05626037
000320 1a a2 4e bd 8b 20 9a bd 47 92 b1 bd 6c c0 7a bd
       -0.05044756 -0.07525738 -0.08670478 -0.061218664
000330 bd c6 7d bd 11 bf e7 bd 91 9c 43 bd 86 05 87 bc
       -0.06195711 -0.1131574 -0.047756735 -0.016482126
000340 ca 4e 54 bd d0 37 bf bb 53 40 ab bc 89 1f d6 bb
       -0.05183295 -0.005835511 -0.020904696 -0.006534521
000350 98 28 97 bd f0 77 4b bd fc 74 04 3d 7f 33 2a bc
       -0.073807895 -0.04967493 0.032338127 -0.010388254
000360 10 9c cd 3c 6d 00 40 3d c3 5b 15 3d 14 44 02 3d
       0.02509883 0.046875406 0.036464464 0.031803206
000370 f5 1d b3 3d c3 24 d9 3b ec 14 45 ba 42 58 c0 3d
       0.08745948 0.006626697 -0.0007518071 0.09391834
000380 3b af da 3c 36 11 c3 3c 55 c1 75 bc d5 98 8b bd
       0.026694885 0.023811918 -0.014999707 -0.0681626
000390 94 e4 a1 3d 6f 3f 18 3d 33 9c 3e 3d 28 fa a2 3d
       0.07904926 0.03716987 0.046535682 0.0795787
0003a0 59 a2 ca 3b 83 d3 bd bc 1c 0d 0d 3d 38 cb a1 bd
       0.006183904 -0.023172146 0.03443633 -0.07900089
0003b0 50 64 b7 bd ea 4f f2 3c e2 23 98 3d fa 3c 76 bd
       -0.0895468 0.029579122 0.07428719 -0.060116746
0003c0 38 80 ad 3d 95 b1 ab 3d 29 84 99 3d d2 f5 81 3d
       0.084717214 0.083834805 0.07495911 0.06345715
0003d0 8d 5e 68 3d 12 05 2f bd 6a 61 08 bd e6 d6 c9 3d
       0.056730796 -0.042729445 -0.033296026 0.09855442
0003e0 b8 19 71 3b 5a 17 a6 bc 2c 22 fc 3c b9 b4 68 3d
       0.0036789011 -0.020274807 0.030778013 0.056812976
0003f0 64 66 b2 bc 3d 6a 99 3d 08 1b 2c bd 77 7e 34 bd
       -0.02177734 0.074909665 -0.042017967 -0.04406592

layer2.0.bias f4 [16]
000000 81 78 85 bd bc 64 eb 3c a7 d4 6e bd ed 0b ac bd
       -0.06517125 0.028734557 -0.05830827 -0.08400712
000010 bc 05 2c bd de 7b 31 bd f0 b7 8b 3d 83 03 61 bc
       -0.041997656 -0.04333102 0.06822193 -0.013733747
000020 2a 14 2e bd 9d ba 08 3d 4b fd 91 bd 59 f6 2b 3d
       -0.0424997 0.033381093 -0.0712839 0.041982982
000030 ce 87 24 3d 1d b9 5a 3d 69 8f 1f bd 70 c6 c9 3c
       0.040168576 0.053399194 -0.038955126 0.024630755

layer2.1.weight f4 [16]
000000 3e 06 83 3f 3d c6 82 3f 78 da 81 3f 92 57 7f 3f
       1.023628 1.0216748 1.0144796 0.99742997
000010 b5 1d 86 3f 39 6b 7a 3f 33 a2 75 3f 50 48 7d 3f
       1.0477816 0.9781986 0.9595062 0.98938465
000020 7c 44 80 3f b1 5b 79 3f b9 30 81 3f 66 d7 7f 3f
       1.00209 0.97405535 1.0092994 0.99938047
000030 15 9d 7d 3f ff de 7e 3f d4 8d 83 3f c5 37 7b 3f
       0.99067813 0.99559015 1.0277658 0.9813197

layer2.1.bias f4 [16]
000000 ad 6f a1 bb 12 8a 18 bc 35 16 86 3b 4c e8 59 3b
       -0.004926643 -0.009310262 0.0040920028 0.0033250032
000010 64 d0 78 3b df 8c d3 bc 82 86 45 bd d7 73 1a bc
       0.0037966007 -0.025824009 -0.04822398 -0.009427032
000020 8f b6 60 bc df 25 8c bb 1e f5 6a b8 ab 52 2f bc
       -0.0137154 -0.0042769755 -5.601823e-05 -0.010700862
000030 7a 9e 8d 3b ed 92 39 3b 3a 11 9f 3b df 44 c8 bc
       0.0043218704 0.0028316334 0.0048543485 -0.024446903

layer3.0.weight f4 [64, 16, 3, 3]
000000 1e 62 3a 3c fa af 0a 3d db ca 0e 3d 2f 79 3b 3d
       0.011375932 0.03385923 0.034861427 0.045769867
000010 2e f6 41 bb dd 6e 41 bd af b6 20 bd c9 8b 51 bd
       -0.0029596197 -0.047224868 -0.03923672 -0.0511587
000020 7b 6c 14 3d 6f 9b 93 3c 5b 52 da 3c 1e c6 de 3c
       0.036236268 0.018018452 0.026650598 0.027194079
000030 c3 90 87 bd 9a 7c 4b 3c d2 d7 43 3d 40 a1 6f 3d
       -0.06619408 0.012419844 0.047813244 0.05850339
000040 71 cd 26 bd 85 2c a8 3d b4 19 f6 3c f2 bc 51 bd
       -0.040723268 0.082116164 0.030041553 -0.051205583
000050 b1 1c 86 bc 44 6b e6 3c c3 3e b1 bd 6d f6 a8 bc
       -0.016371103 0.02812732 -0.08654549 -0.020625317
000060 bd ec 9c bd 21 09 7a bd d3 ff 16 3d 32 cf 20 3d
       -0.07662342 -0.061043862 0.036865067 0.039260097
000070 5e 78 5e bc 0e 8c 38 3d fd 22 88 3d 43 64 39 bc
       -0.013578502 0.04505544 0.066472985 -0.011315408
000080 09 2d 28 ba a1 c7 95 3d d3 cf a8 3d a7 21 a7 bd
       -0.0006415402 0.07313467 0.08242764 -0.081607156
000090 ae 78 3d bd 9d 52 a6 bc da 8a 75 bd af 59 9b bc
       -0.046257667 -0.020303065 -0.059946872 -0.018963663
0000a0 b3 c5 ba 3d 66 73 a4 3c c2 74 08 bd 94 b7 49 bd
       0.091197394 0.020074558 -0.033314474 -0.04924734
0000b0 27 65 1f bd 38 8b c8 3d e8 83 9a 3d 84 20 89 bd
       -0.038914826 0.09792179 0.0754469 -0.06695655
0000c0 58 75 aa 3d 11 e5 8c bd b8 16 fb bc d6 97 81 ba
       0.08323163 -0.068796284 -0.030650482 -0.000988717
0000d0 f1 a8 5d 3d d3 26 e2 bc a7 a5 53 bd 2a a3 f2 bc
       0.054116193 -0.027606403 -0.05167165 -0.029618818
0000e0 8e dd d2 bc b6 5d 66 3c 0c 34 cf bc ea 38 a6 3d
       -0.025740411 0.014060428 -0.025293373 0.08116324
0000f0 79 3d 0d bc 47 b6 f4 bc 50 fa af bc 87 f9 b7 3c
       -0.008620613 -0.029872073 -0.021481663 0.022457851
000100 9d a6 f1 bc 6c 48 bc bd 36 3f 7c bd 63 7b cd bc
       -0.029498393 -0.09193501 -0.06158372 -0.02508325
000110 81 c8 ef bc dd f2 be bd a0 01 c7 bd ef f2 09 3d
       -0.029270412 -0.09323666 -0.09717107 0.033678945
000120 68 42 69 3d 90 e2 ac 3c 47 96 a8 3d a9 41 9c bd
       0.056948096 0.021104127 0.08231788 -0.07629711
000130 40 e9 09 bd 11 a4 ad 3d f2 b7 9f bd e4 7f f4 bc
       -0.03366971 0.08478559 -0.07798757 -0.02984614
000140 8f 8a ac 3d 13 9e f2 3c 90 5c d4 bb 73 11 dd bc
       0.084248655 0.029616391 -0.006480761 -0.02698586
000150 b6 a8 41 3d a9 67 4c 3d b8 18 04 3d 39 68 5b 3d
       0.047280036 0.049903546 0.032250136 0.05356619
000160 78 91 2f bd 73 21 9c bc f4 62 9a 3c fa 03 7e 3c
       -0.04286334 -0.019058919 0.018846013 0.015503878
000170 76 67 3c bd ec 05 8f 3c 49 44 37 3d f6 e7 02 bd
       -0.045997106 0.017458878 0.044742856 -0.031959496
000180 ac c6 56 3d 4e a1 c2 bd af fd a3 3c 3e 30 9f 3d
       0.052435562 -0.09503423 0.020018427 0.07772873
000190 b0 c1 91 bd 21 39 a0 3d 09 92 2e 3c 79 af 0c bd
       -0.07117021 0.078233965 0.010654935 -0.03434703
0001a0 8f e7 46 3d d8 d7 6f 3d f5 17 7a 3d 67 c4 84 3c
       0.048560675 0.058555454 0.061058003 0.016206933
0001b0 01 8b c0 3c 63 2f 0d 3d 59 26 ad 3a d8 e5 03 3c
       0.023503782 0.03446902 0.0013210281 0.0080504045
0001c0 c6 c6 9a 3d 45 a5 9c 3d 43 d0 92 bd de 2a 08 3c
       0.07557444 0.0764871 -0.07168629 0.008311002
0001d0 2b 46 ac bd 58 41 da bc 16 a3 b5 bd 99 3e 1d 3d
       -0.08411821 -0.026642486 -0.08868997 0.038389776
0001e0 b8 d8 83 3d e1 35 7e bc fa e5 77 bd ca 2f 0b bd
       0.0643782 -0.015515775 -0.060522057 -0.033981122
0001f0 a9 66 91 3d 84 5c 87 bd 0f 04 ac bd 27 b5 cb bb
       0.07099659 -0.06609443 -0.083992116 -0.0062166634
000200 e4 85 2c 3d 55 a2 70 bc af f9 c6 bc e8 4d 80 bd
       0.042119876 -0.0146871405 -0.02428898 -0.062648594
000210 9f c8 e8 b9 c0 ce 0f bb e5 75 f7 bc 6b be ac bc
       -0.00044399963 -0.00219433 -0.030207584 -0.021086892
000220 34 e5 da bb 34 29 08 bb 22 3a 55 bc 03 fc c4 bc
       -0.006680155 -0.0020776512 -0.013014348 -0.02404595
000230 76 02 3a 3d 1b ba 28 3c 8e bd 99 bd c7 fc 8c 3c
       0.045412503 0.010298277 -0.07506858 0.017210377
000240 52 be 46 bc fc 40 d1 3c d3 f6 4e 3d 16 2d 55 bd
       -0.012130337 0.025543682 0.05052836 -0.05204495
000250 bf e4 d0 3c 1a c6 09 bd 87 ad 8d bc ba 53 8b 3d
       0.0254997 -0.03363619 -0.017294658 0.06803079
000260 5f 0b 5b 3d 74 40 4b 3d 83 6c 3c 3d 46 c5 46 3d
       0.05347764 0.049622014 0.046001922 0.04852798
000270 c3 95 c1 bd ce 2f 85 3d a8 2f 9a 3d 69 3a 62 bc
       -0.09452393 0.06503259 0.07528621 -0.013807871
000280 ea 5e 94 3d 0a 1b 13 bd 65 7a 9a 3d da 50 f7 bc
       0.07244666 -0.03591446 0.07542876 -0.03018992
000290 6a e3 89 bd 52 f5 8d 3d 38 2e 27 bc 29 c0 f1 3a
       -0.06732829 0.06931557 -0.0102038905 0.0018444109
0002a0 80 1e 7d 3b dd 44 a1 bc b7 15 f4 3c 6d 37 85 3d
       0.0038622916 -0.019686157 0.02979551 0.06504712
0002b0 ff f1 16 3d 6a e6 d2 3c 61 9c cc 3c 34 a3 8f 3d
       0.03685188 0.025744636 0.024976911 0.070135504
0002c0 c2 4e 6a 3d bf f8 b3 3d 77 b7 6b 3d 4d 60 81 bd
       0.057204016 0.08787679 0.057548013 -0.06317196
0002d0 06 ad ed 3b 81 20 bd 3d 6b b5 39 3c 21 7f c7 3d
       0.007253292 0.09234715 0.011334757 0.09741045
0002e0 60 6b aa 3d 91 37 55 bd f4 21 f0 3c 7f f2 81 3d
       0.083212614 -0.052054945 0.029313065 0.063450806
0002f0 49 dd 0b 3d 2c 94 a5 3d ca 18 16 bd 2a df b7 3c
       0.03414658 0.08084902 -0.036644734 0.02244528
000300 86 2c 8c bd a3 89 46 3d e6 f7 07 3d cc c9 60 3d
       -0.0684443 0.048471104 0.0331954 0.05487995
000310 35 92 82 bd ae 06 9f bd 77 e5 f5 bc 70 5a 89 bd
       -0.06375543 -0.07764946 -0.030016644 -0.06706703
000320 04 82 f8 3c a3 94 0b bd 9b 88 77 bc 70 53 90 3c
       0.030335434 -0.034077298 -0.015108253 0.017617911
000330 51 aa a7 bd fa 60 47 bd ec 2f 89 3c d4 f1 5b bd
       -0.08186782 -0.04867647 0.016746484 -0.053697422
000340 d0 46 2a 3d 14 e7 e6 3c 3d f6 b9 3d 8a 0d 0d 3d
       0.04157144 0.028186359 0.09080169 0.03443674
000350 03 29 ac 3d e5 42 17 bd 24 aa 1d ba dd 0c d9 3c
       0.0840626 -0.03692903 -0.00060144276 0.026495392
000360 b7 b6 81 3c e8 78 a8 bd cc 52 47 3d fd 3d a0 bd
       0.015834196 -0.08226186 0.048662946 -0.07824323
000370 1d 68 a9 bd b8 4b d2 bc ef 3d 2b 3d 11 b4 87 3d
       -0.08271811 -0.025670871 0.04180711 0.06626142
000380 7d bc 7b bd 83 ac fa b9 5e 79 e6 bc c8 af bc b9
       -0.061459053 -0.00047812247 -0.028134044 -0.00035989122
000390 f5 c4 07 bc 7d b3 80 3d 3c 8f 17 bd 5a e2 81 bc
       -0.008286704 0.06284235 -0.037001833 -0.015855003
0003a0 00 bd 9e 3d b0 c0 a3 bd 4c c0 ed 3c 92 c2 e1 3c
       0.07750893 -0.079957366 0.029022358 0.027558599
0003b0 2a 47 18 bc d5 27 88 bc 13 5e 5e 3d d6 09 06 bd
       -0.009294311 -0.016620556 0.054288935 -0.032724224
0003c0 e2 2c d5 bc a7 f6 0b bc 44 d8 dc 3c 03 73 93 bd
       -0.026022378 -0.008542693 0.026958592 -0.07199671
0003d0 f6 50 13 3d fd 6a 71 3d c2 f6 e4 3c c7 1d 53 bd
       0.035965882 0.058939923 0.027949695 -0.05154207
0003e0 06 1b 0f bc 64 a8 0e bb f3 e0 69 3d fe 93 88 3d
       -0.00873447 -0.002176785 0.057099294 0.06668852
0003f0 cf 85 81 3d d9 a0 03 bc 5a dd 4f 3d f8 0a b5 3d
       0.0632435 -0.008033955 0.050748207 0.08839983

layer3.0.bias f4 [64]
000000 08 b1 2c bd fe c2 35 3d 87 6a 71 3c 61 f3 3b bd
       -0.042161018 0.044375412 0.014734871 -0.0458864
000010 30 44 8e bc 8e 5d 97 bd 74 1c db 3c 8d c7 9c bd
       -0.017366499 -0.07390891 0.026746966 -0.07655249
000020 04 03 07 3d a6 13 7d bd 6a 35 19 3c 80 8f a9 bb
       0.03296186 -0.061786316 0.009351114 -0.0051745772
000030 80 6c 9a 3b 2d 7f 2a bc ed 5b 8e 3d c7 1b 91 3d
       0.0047126412 -0.010406298 0.06951127 0.07085376
000040 39 71 60 bc 06 34 61 bc 48 c6 25 bd fc c9 c2 3c
       -0.013698869 -0.0137453135 -0.0404723 0.023777954
000050 e4 35 9d bd b8 7e 83 3d 84 4a 21 3d b4 2b 2e ba
       -0.076762944 0.06420654 0.039377704 -0.00066440855
000060 ca aa 96 bd d4 ff 82 bd 15 1b 3d bd b3 66 4f 3d
       -0.07356794 -0.063964516 -0.046168406 0.05063505
000070 3c f8 2b 3d 01 f4 13 3d 69 98 a5 3d 97 d8 b7 3d
       0.04198478 0.036121372 0.080857106 0.08976858
000080 cf ab 04 bc 32 ff 9a 3d 03 c9 85 bc 8c a7 82 bd
       -0.008097603 0.07568206 -0.016331201 -0.06379613
000090 67 11 42 3d 5c 6d 58 3c c2 33 f5 bc a6 29 f8 3c
       0.047379877 0.013209667 -0.029931907 0.030293297
0000a0 7b 12 8c bc 88 69 aa ba c5 5d aa bd 3e ec 11 bd
       -0.017098656 -0.0013001421 -0.08318666 -0.03562569
0000b0 30 0a 99 3d aa 8f 9d 3d ce 48 7b bc fb 91 a3 3d
       0.07472646 0.07693417 -0.015337182 0.07986828
0000c0 9e ce 5e 3d a7 43 fa bc 4d 0d 90 3c d3 2b 90 bd
       0.054396264 -0.030549837 0.017584467 -0.07039609
0000d0 c4 7a ad 3c 77 8f 6a bd a9 96 ee 3c 77 cc b9 3d
       0.021176703 -0.057265725 0.029124575 0.09072202
0000e0 0d 74 0c bc 09 1c 30 bd 3c 61 82 3d 3a 7e 95 3d
       -0.008572591 -0.042995486 0.06366202 0.072994664
0000f0 69 92 8d bd a1 54 52 bd ba c5 73 bd c4 16 89 3d
       -0.06912691 -0.05135024 -0.05951474 0.06693795

layer3.1.weight f4 [64]
000000 44 ed 7d 3f 42 75 80 3f f5 6e 87 3f ec 8f 81 3f
       0.99190164 1.0035784 1.0580736 1.0122046
000010 4f 60 7e 3f 4c c6 7d 3f 47 19 81 3f 9b 4d 7d 3f
       0.99365705 0.991307 1.0085839 0.9894654
000020 a5 ff 79 3f fa 9d 7d 3f cc 89 80 3f e2 ac 77 3f
       0.9765571 0.9906918 1.0042052 0.96748173
000030 d8 70 7c 3f 2d b9 80 3f b3 c2 80 3f 35 47 7e 3f
       0.98609686 1.0056511 1.0059417 0.99327403
000040 4f 46 80 3f 38 1c 84 3f 22 fc 81 3f 78 df 7f 3f
       1.0021456 1.0321112 1.015507 0.9995036
000050 9f 5a 80 3f 31 07 80 3f 26 2e 82 3f 9d 0f 80 3f
       1.0027655 1.0002195 1.0170333 1.0004765
000060 df ec 7a 3f f9 89 7b 3f 61 2f 80 3f 08 c5 80 3f
       0.98017687 0.98257405 1.0014459 1.0060129
000070 60 bd 7d 3f fb 98 83 3f 38 3f 7e 3f 81 22 7c 3f
       0.9911709 1.0281061 0.99315214 0.9849015
000080 f0 7f 80 3f f8 88 7e 3f 82 37 80 3f b6 4b 7e 3f
       1.0039043 0.9942775 1.001694 0.99334276
000090 29 52 83 3f 79 de 7f 3f cd 8c 8b 3f 8b 95 80 3f
       1.0259448 0.9994884 1.0902344 1.0045637
0000a0 b6 7e 7a 3f 7e e4 7c 3f 50 19 7b 3f bd 49 7f 3f
       0.97849596 0.9878615 0.980855 0.9972189
0000b0 c0 30 82 3f 58 5d 7b 3f 11 5f 7e 3f 3d 5d 7b 3f
       1.0171127 0.98189306 0.9936381 0.98189145
0000c0 3f 33 7c 3f a0 8b 7b 3f 36 7e 80 3f 90 68 82 3f
       0.98515695 0.98259926 1.0038517 1.018816
0000d0 94 2d 7d 3f c8 71 7e 3f 7b c7 80 3f 6f 13 7e 3f
       0.9889767 0.99392366 1.0060877 0.99248403
0000e0 1e 1d 81 3f 7d 57 80 3f 36 89 78 3f 11 b3 7b 3f
       1.0087011 1.0026699 0.9708437 0.9832011
0000f0 12 1b 81 3f 1a af 82 3f 01 e5 81 3f 27 8e 80 3f
       1.0086386 1.0209687 1.0148011 1.0043381

layer3.1.bias f4 [64]
000000 87 87 30 39 92 02 ab 3b 58 12 2f 3c d4 2d d5 3a
       0.00016835156 0.0052188123 0.010685526 0.0016264268
000010 84 c9 97 bc bf 6b c6 bb 91 21 0d 3c 45 55 53 bc
       -0.018528707 -0.006055325 0.00861396 -0.012898748
000020 3e 99 c3 bc f5 61 a2 bb 24 04 4d bc e6 1e e4 bc
       -0.023876783 -0.004955525 -0.012513194 -0.027846765
000030 f7 61 8d bc 6f 2e 19 bc 10 a6 16 3a d4 d9 26 bc
       -0.017258627 -0.00934945 0.0005746791 -0.01018377
000040 ba b5 ea 3a 0c 5c 9b 3a 57 93 2a bc e1 d6 1b bc
       0.0017906942 0.0011852994 -0.010411105 -0.00951168
000050 fe 23 3d bc 43 11 9d bc 7e f0 c6 bb 74 2f 38 bc
       -0.011544226 -0.01917327 -0.0060711494 -0.011241782
000060 4d 2a d0 bc 9c f7 fa bb f6 f1 02 bb b0 46 22 3b
       -0.025410796 -0.007658912 -0.0019980646 0.0024761371
000070 7f 1c 45 bc 7e 72 e1 bc 76 a6 38 bc 77 5d a8 bb
       -0.01203072 -0.027520414 -0.011270156 -0.005138095
000080 83 6f 2a bb 43 7c 81 bc 33 82 d7 bc bf a1 63 bc
       -0.0026006408 -0.015806323 -0.026307201 -0.013893544
000090 c9 34 60 3b cb 41 8d bb 5b 3f b8 3b b6 86 2f bb
       0.003421115 -0.0043108216 0.005622787 -0.0026783175
0000a0 d5 20 81 bc 26 08 62 bc 50 ce 80 bc 62 4f 0f 3b
       -0.015762726 -0.013795888 -0.015723377 0.0021867384
0000b0 13 f3 25 3b ed aa 94 bc 47 d7 88 bc d8 c7 91 3b
       0.0025321885 -0.01814791 -0.016704215 0.004448872
0000c0 8e 0b 64 bc 3f 57 f6 bb bd 62 fe bb 24 77 77 bc
       -0.0139187705 -0.0075177248 -0.0077632354 -0.015104089
0000d0 65 bf 92 bc a2 e9 c1 bc fe 9b 2d 3c 62 32 ac bb
       -0.01791353 -0.023670975 0.0105962735 -0.0052550295
0000e0 e0 1e de 3b 36 9e 8f bc bc 6d c0 bc 0e eb a2 bc
       0.006778583 -0.017531496 -0.023489825 -0.019887473
0000f0 9f 5b aa 39 ff 34 f3 bb 8b 89 94 3b 6d e5 ca bb
       0.0003249319 -0.007422089 0.004532998 -0.0061919005

layer4.0.weight f4 [64, 64, 3, 3]
000000 b5 4f 4d bc bd 8b a2 bc 08 43 32 bd 97 0f 50 37
       -0.012531211 -0.019842023 -0.043520957 1.2401396e-05
000010 0f dd 02 bb e7 16 27 3c dc b3 20 3d fb cd 04 3d
       -0.0019968187 0.010198331 0.039234027 0.032423
000020 d0 3a dc bc 58 37 05 3c 22 f3 11 bd 30 b5 82 3c
       -0.026883513 0.008130871 -0.03563226 0.015955538
000030 72 4c cc bc ec dc 28 bc c4 c0 13 bd 6d 53 36 3d
       -0.024938796 -0.010306578 -0.036072508 0.044513155
000040 c7 61 ef bc e3 7b 02 3c 50 a7 b8 bc c0 01 96 3c
       -0.029221429 0.007964107 -0.022540718 0.018311381
000050 86 e4 f5 bc fc 01 ed bc d3 b4 7f 3b bb 8b cf bc
       -0.030016195 -0.02893161 0.0039017692 -0.025335183
000060 34 51 ad 3c f9 74 29 bd 5c ce 28 3c 06 0a 53 bd
       0.021156885 -0.04137132 0.010303106 -0.05152323
000070 a7 36 a8 bc 5e c2 e8 bc 42 0f 19 bd 69 fd c7 3c
       -0.020533873 -0.028412994 -0.037368067 0.024412828
000080 c5 eb 55 bd ad b9 42 3c e3 18 7d 3c 69 a9 77 3c
       -0.0522268 0.011885089 0.015447828 0.015116074
000090 dc 71 19 3d 4e 27 a7 3c b2 b8 33 bb 8d 23 3b 3d
       0.0374621 0.020404484 -0.002742332 0.0456882
0000a0 c2 32 f0 bc 9c 74 06 3c a5 c4 a5 38 66 a1 27 3d
       -0.029321078 0.008206513 7.904441e-05 0.040925406
0000b0 65 90 60 bc b8 70 77 bb f2 11 78 bb fe 4f 18 bc
       -0.013706301 -0.0037756395 -0.0037852493 -0.009296415
0000c0 13 d9 23 bd 1f 69 1d bc 65 50 e3 3c 43 d2 0c 3d
       -0.04000194 -0.009607582 0.027748296 0.03438021
0000d0 ad 41 6a 3c b5 93 34 3c fe e9 f6 bc 5c 4c d9 bc
       0.014297885 0.011021544 -0.030140873 -0.026525669
0000e0 33 21 75 bc ba 78 3a 3d cc e2 09 3d fc e5 75 3c
       -0.014961529 0.04552529 0.033663556 0.015008446
0000f0 78 94 71 3d 95 aa e3 bc 3a 12 26 3c 86 3f ec 3c
       0.05897948 -0.0277913 0.0101361815 0.028838884
000100 84 9a 97 bc 27 30 a5 bc a5 d0 00 bd d5 68 44 bb
       -0.018506296 -0.020164562 -0.03144898 -0.0029969711
000110 5f c0 a1 bc a9 d5 51 bc 5f b6 bd 3c 36 9f 14 bd
       -0.01974505 -0.012807288 0.02315825 -0.036284648
000120 b8 73 1c 3d 46 b0 00 3c 9b 47 9b bc 21 e7 05 bd
       0.038196295 0.007854527 -0.018955043 -0.032691125
000130 eb 49 58 3c a6 cf ac 3b 27 91 df 3c 36 0a 52 3b
       0.013201217 0.005273777 0.027290894 0.0032049543
000140 d0 d7 9c bb 3e a0 42 3d 82 e6 b6 3c 7e a8 15 bd
       -0.004786469 0.0475161 0.022326712 -0.03653764
000150 cf 11 2c 3d 4a d0 c3 bc ee cb 07 bd fb ea 2c 3c
       0.04200917 -0.02390303 -0.033153467 0.010554071
000160 94 27 b4 bc ef d6 1a 3d 00 54 45 bb 5a c4 89 3c
       -0.021991529 0.037802633 -0.0030109882 0.01681726
000170 0d da 4e 3c 32 df aa 3b 5a 38 38 bd 84 55 f4 3b
       0.01262523 0.0052145952 -0.044975616 0.0074564833
000180 3c c6 d5 3c 14 10 50 3c b7 17 9a 3c 7c c7 7d 3c
       0.026095502 0.012699146 0.018810136 0.015489455
000190 df 03 d7 bc 4a 86 6b bc 0b 63 92 3c 6a 44 64 3b
       -0.026246963 -0.014375279 0.017869493 0.0034830817
0001a0 8f 53 3f 3d 94 7e 87 bc ea 75 7f 3c 80 42 79 bc
       0.046710547 -0.01653985 0.015592078 -0.015213609
0001b0 fb 6e 1d bd 4f f0 08 bd dc d7 14 3d 7a 01 c6 bc
       -0.038435917 -0.0334323 0.036338672 -0.024170626
0001c0 d5 79 00 bc 70 27 8f bc d9 9c 44 bd c6 ce ea bb
       -0.007841547 -0.01747486 -0.048001144 -0.0071657626
0001d0 fe cb 2d bd 7f 2b 40 3c fc 19 54 3b 27 66 03 bd
       -0.04243087 0.01172912 0.003236412 -0.032079842
0001e0 eb 8c 45 bc cd ae ff 3c f3 03 6b 3c 6f 62 b3 3c
       -0.012057523 0.031211281 0.014344203 0.021897523
0001f0 62 36 1d 3c 98 db 65 3d af ae 40 3d d4 f9 c0 bc
       0.009595485 0.056117624 0.04704159 -0.023556627
000200 97 8a 41 3c 4d c6 8a 3c e1 4b 94 3c 51 c3 dd bb
       0.011812828 0.01694026 0.018102588 -0.0067676683
000210 56 ac 04 3d 31 34 0f 3c 9e e0 c4 3c 73 d6 36 bb
       0.032390915 0.008740471 0.024032887 -0.0027898818
000220 e9 4c 32 bc 0e ff 13 bb 38 1f 38 bc ea f3 5d 3d
       -0.010882595 -0.0022582444 -0.011237912 0.054187693
000230 6b 71 9d 3c 36 4b d7 bb 03 8c 22 3d ee 9f 07 3c
       0.019219121 -0.006570245 0.039684307 0.008277876
000240 06 82 c9 3c a2 87 8d bc ff f2 17 3c 2b 3c 22 3d
       0.024598133 -0.017276589 0.009274243 0.039608162
000250 38 03 f6 3c dd 1c 3e 3b 80 4f 66 bb 2b 0c 3e 3d
       0.030030832 0.0029008903 -0.00351426 0.046398323
000260 85 16 70 3c c9 6c 81 3c 84 99 7e 3c 5e 94 44 bd
       0.014653807 0.015798943 0.015539531 -0.047993056
000270 d9 60 3f bd de fa 88 bb ef d1 f9 bc 05 10 c2 3c
       -0.04672322 -0.0041802963 -0.030495612 0.02368928
000280 4d a4 d2 3c c8 25 7f 3d 60 2f 9f 3b de 9f 4c 3c
       0.02571311 0.06229189 0.0048579425 0.012489287
000290 c3 ce 50 3d c0 b4 28 3c b4 d8 d9 bc 5d 05 1c 3d
       0.050978433 0.010297 -0.02659259 0.038091052
0002a0 3b b4 c7 3c 14 96 11 bd d0 b1 21 bd 68 14 01 3d
       0.024377933 -0.035543516 -0.039476216 0.0315136
0002b0 1c d1 d4 bc 87 8c 15 3d c8 0b de 3c d2 30 4f 3d
       -0.025978617 0.03651097 0.027105227 0.050583668
0002c0 89 fe 1a 3b a4 9c e7 bc 9e ef bf 3b 35 16 c8 3b
       0.002365025 -0.028272934 0.005857422 0.006106163
0002d0 88 7e 2f bc 54 75 ad 3b 75 79 39 3b 87 22 80 bc
       -0.01071132 0.0052935276 0.0028301154 -0.015641464
0002e0 83 48 57 3c 04 d4 03 3c 49 ff 4b 3d d7 aa 37 3b
       0.013139847 0.008046154 0.049804006 0.0028025412
0002f0 18 cd 12 3d 73 ad 9e bc 50 23 28 bd 50 b4 f3 3c
       0.035840124 -0.019369816 -0.0410493 0.029749066
000300 17 7d c3 3b 75 5d a3 3b ea f8 da 3c 6e 60 24 3b
       0.0059658396 0.004985506 0.02673002 0.002508189
000310 9b 43 90 3b 10 78 44 bb 83 0b a8 3c 83 66 a9 3c
       0.0044025904 -0.002997879 0.020513302 0.020678764
000320 7d bb d8 bc b3 4d e6 ba 0c f3 76 bb 4c bd af bb
       -0.026456589 -0.0017570764 -0.0037681488 -0.005363142
000330 a7 4a e3 3c fe 1c 24 3b 3c 85 3c bc 42 e1 38 bd
       0.027745558 0.0025041695 -0.011506375 -0.045136698
000340 dc b9 b3 bc 73 f5 d6 bc 99 9a 85 3b b3 03 0d bd
       -0.02193921 -0.026240086 0.0040772674 -0.034427356
000350 fc 81 ca 3c 36 dc 28 3c c1 e3 6a 3c 88 f3 a8 3c
       0.024720185 0.010306409 0.014336527 0.020623937
000360 42 4b dc bc 42 db 77 3c 7b f5 98 bc c4 77 0a 3b
       -0.026891354 0.015127959 -0.018671742 0.0021128515
000370 ef 76 c2 3b c0 7e db 3c fd e0 5b bd a5 be 70 3c
       0.005934588 0.026793838 -0.053681362 0.014693891
000380 82 a7 03 3d 10 3d 0f bd a8 24 10 3c 42 37 e2 3c
       0.03214217 -0.034970343 0.008797802 0.02761424
000390 38 ea 9c 3a cb 29 a5 bc 66 ea c2 3c 92 8f 62 3b
       0.0011971658 -0.02016153 0.02379341 0.0034570438
0003a0 94 ad 5f bd 92 2d 06 3a e1 a8 ca bb 12 a0 64 bc
       -0.054608896 0.0005118485 -0.0061846827 -0.013954179
0003b0 49 cf db bc 09 0e bc ba ee 59 a8 3c 6f 67 b9 3c
       -0.02683224 -0.0014347445 0.020550694 0.022632329
0003c0 f4 68 8a 3d e0 dd 60 3d 27 fa 01 3d d4 59 26 bd
       0.067582995 0.054899096 0.031732704 -0.04061301
0003d0 9d d7 1e 3d 40 6f 67 3c c2 0b 06 3d 04 71 6c 3c
       0.038779844 0.014125645 0.032726057 0.014431242
0003e0 36 98 85 3a 66 1a af 3c 01 da c6 bc d6 22 1f 3d
       0.0010192457 0.021374892 -0.024273874 0.03885158
0003f0 a0 ea 81 3c 96 4d 43 bc 15 93 a3 bc 45 2a 12 3d
       0.015858948 -0.011920353 -0.019967595 0.035684843

layer4.0.bias f4 [64]
000000 2a da bb bc db 1b e1 39 8c 4f 62 3c 29 01 4c bc
       -0.022931177 0.00042936098 0.013812911 -0.0124514485
000010 cd 2e 1c bc 94 ba f7 bc e6 64 0a bd 29 c6 dd bc
       -0.009532643 -0.030240335 -0.03378763 -0.02707203
000020 9c fa 4f ba e1 80 1b 3d d2 ed 42 3d fe c5 73 bc
       -0.0007933767 0.037964705 0.047590084 -0.014878748
000030 bf 35 24 bd 0c ce 20 bc cd a0 70 3c 46 ec 1f bd
       -0.04009032 -0.00981475 0.014686775 -0.039043687
000040 c1 83 05 3d 72 62 11 3d e9 ed c0 bc fb ef dd bc
       0.032596353 0.035494275 -0.023550944 -0.02709197
000050 2e 06 ca bb 0f 92 49 bc 2c 6a c4 bc 12 9a 02 bd
       -0.0061652875 -0.0123028895 -0.023976408 -0.031885214
000060 51 c5 08 3b fb 74 f8 bc e9 dd 59 3b 82 55 84 3c
       0.0020869563 -0.030329218 0.003324384 0.016154055
000070 0d b7 dc 3b 34 6c 2d 3d 38 59 02 3d 88 3c a7 3c
       0.0067356885 0.04233952 0.031823367 0.020414606
000080 81 d8 47 bc e3 49 6a bc 63 5d 23 bb 01 58 23 bc
       -0.012197615 -0.0142998425 -0.002492749 -0.009969712
000090 4f b5 1b 3c 68 b4 bb 3c 8c 29 86 bb 67 96 0a 3d
       0.009503677 0.022913173 -0.0040943082 0.03383484
0000a0 05 27 45 bc 28 2f 2c bd b3 e4 87 3b 92 71 5c 3c
       -0.012033229 -0.04203716 0.004147136 0.013454812
0000b0 4c 8b 46 bc 74 bc a7 3c 36 7f fa bc 89 67 dd 3c
       -0.012118172 0.020475604 -0.030578237 0.027026908
0000c0 d9 ff 22 bc 9e bc ea bc d0 f2 5c bc 40 0c 12 3b
       -0.009948694 -0.028654393 -0.013485625 0.0022285134
0000d0 22 a1 cf bb 1d 1b c9 bc 9b f0 d2 bc 3a 31 48 bc
       -0.006336347 -0.024549061 -0.025749495 -0.012218768
0000e0 a6 8a dd bc d3 cf f7 3c 52 aa 87 bc 03 8f 80 bc
       -0.027043652 0.030250465 -0.016560707 -0.015693193
0000f0 cc a1 eb 3c ea d5 b2 bc 34 b3 0e bd cb 41 07 bd
       0.028763674 -0.021830518 -0.03483887 -0.03302173

layer4.1.weight f4 [64]
000000 c6 2b 7c 3f bb 7d 84 3f 62 4a 81 3f 5c ea 7e 3f
       0.9850429 1.035087 1.0100825 0.99576354
000010 89 f8 77 3f 03 7e 81 3f a8 18 82 3f c3 32 80 3f
       0.9686361 1.0116581 1.0163774 1.0015491
000020 1b 8e 83 3f 73 66 81 3f d1 d9 82 3f b5 78 7c 3f
       1.0277742 1.010939 1.0222722 0.98621684
000030 21 43 7f 3f aa bd 81 3f b5 71 7f 3f 56 eb 7f 3f
       0.99711806 1.0136006 0.9978288 0.9996847
000040 ed da 80 3f e5 7b 7d 3f 76 20 79 3f e6 f2 7b 3f
       1.0066811 0.99017173 0.97315156 0.9841751
000050 e6 31 7b 3f 3c 2e 82 3f d3 7e 86 3f 55 ab 80 3f
       0.98123014 1.017036 1.0507454 1.0052286
000060 3c 7f 80 3f a3 c0 80 3f dd cf 7b 3f 25 7b 77 3f
       1.0038829 1.0058788 0.9836405 0.9667228
000070 86 4d 83 3f 6f 77 83 3f 6a 6b 7f 3f 60 41 81 3f
       1.0258033 1.0270823 0.99773276 1.0098076
000080 b4 98 7b 3f cd 6c 7b 3f 8d 4f 84 3f b9 7b 7d 3f
       0.9827988 0.9821289 1.0336777 0.9901691
000090 3f 3a 81 3f ee 9f 81 3f 8c e5 7e 3f bf 3e 78 3f
       1.00959 1.0126932 0.9956901 0.9697074
0000a0 b8 0d 81 3f 07 bb 80 3f d2 ad 7c 3f aa 5d 79 3f
       1.0082312 1.0057076 0.9870273 0.97408545
0000b0 16 55 7c 3f bf 01 7f 3f 3b 04 7a 3f 31 3e 82 3f
       0.9856733 0.9961204 0.97662705 1.0175229
0000c0 a9 af 7c 3f d5 e0 7d 3f 6f 86 78 3f a3 37 7f 3f
       0.98705536 0.9917119 0.9708013 0.9969427
0000d0 1e fb 7e 3f 6d 7a 7c 3f 5a 61 7c 3f d3 2f 7e 3f
       0.99601924 0.98624307 0.98586047 0.99291724
0000e0 7d 6a 7e 3f df a4 7f 3f 54 7c 7e 3f 00 55 7b 3f
       0.9938124 0.9986095 0.9940846 0.98176575
0000f0 e1 d2 81 3f 00 b8 7f 3f 54 92 7a 3f 21 f2 7e 3f
       1.014248 0.99890137 0.9787953 0.9958821

layer4.1.bias f4 [64]
000000 db dd ee bb d5 17 8b bc b1 2a 51 3b 7d 7f 08 3b
       -0.007289631 -0.016979137 0.0031916315 0.0020827942
000010 1a ff a8 bc 50 30 92 3a 06 4f 88 bb da c5 e0 3a
       -0.020629454 0.0011153314 -0.004159811 0.0017148808
000020 4c 84 1d 3c 07 fc d2 ba 7d a6 95 3c 54 97 12 bc
       0.009614062 -0.0016096839 0.018267864 -0.008947212
000030 82 f6 2d bc 1c 79 7f 3b 4a 94 02 bc 49 eb af 3b
       -0.010617854 0.00389821 -0.007969925 0.0053686243
000040 b8 44 07 bc 3d 31 43 bc 0d 0b e2 bc 31 b9 8d bc
       -0.00825613 -0.011913595 -0.02759316 -0.01730022
000050 b3 72 a8 bc 4e 07 1c 3c a4 a7 a9 3c dc 0b 9c 3a
       -0.020562505 0.009523226 0.02070982 0.001190539
000060 64 7c 87 ba a4 e6 ce bb 65 2e bd bc ce fc e8 bc
       -0.0010336754 -0.0063141156 -0.023093412 -0.02844086
000070 3e 29 d3 ba 94 92 d7 bb 20 18 ac bc 11 f5 05 3c
       -0.0016110314 -0.006578753 -0.021007597 0.008176104
000080 8d 21 27 bc 0e c1 17 bc 8b 53 1f 3c 46 ca a1 bc
       -0.01020087 -0.009262336 0.009724508 -0.019749772
000090 f5 40 5d bc a8 82 e1 bc 24 25 ee bb 6b e8 75 bc
       -0.0135042565 -0.027528122 -0.007267611 -0.015009026
0000a0 96 67 33 bb 57 37 5f bb 24 a2 c2 bb 2c 93 82 bc
       -0.0027374974 -0.0034060085 -0.005939739 -0.015939318
0000b0 8d 95 a0 bc 8f 0a af bb af 91 97 bc ca 1e 76 bc
       -0.019602561 -0.005341835 -0.018502085 -0.015021989
0000c0 ac 9d 75 bc 88 4d 13 bc dc 68 e4 bc 64 ed a7 ba
       -0.014991205 -0.008990653 -0.027882032 -0.0012811837
0000d0 20 10 cf bc 3a 4e 97 bc 72 8b bb bc de 1d f4 b9
       -0.025276244 -0.018469919 -0.022893641 -0.0004656156
0000e0 62 c2 9a bc bf 50 82 bc fb b4 88 bb e3 3c 7b bc
       -0.018891517 -0.015907643 -0.004171965 -0.015334341
0000f0 89 f5 ba ba 67 98 94 bb 07 e5 82 bc 80 75 6e bc
       -0.0014263849 -0.0045347693 -0.01597835 -0.014554381

layer5.0.weight f4 [64, 64, 3, 3]
000000 a2 a3 31 3d 35 29 95 3c 52 29 5c 3d b9 6c e5 bc
       0.043368943 0.018208126 0.053750344 -0.028005945
000010 61 e2 bd 3c 55 21 fe 3c c5 70 38 bd 4e 49 74 bb
       0.023179235 0.031021753 -0.04502942 -0.0037275138
000020 fe 8c 58 bc 01 e4 a7 bb da 16 f8 3c d2 17 2e 3d
       -0.013217209 -0.0051236157 0.030284334 0.042503186
000030 e5 10 13 bd ab fc 69 3d 4b 62 a2 3c 6e a5 81 bd
       -0.035904784 0.05712573 0.01982226 -0.06330381
000040 fe 94 e9 3b b5 ae 2a 3d e7 23 09 3a 4d 74 12 3d
       0.007128357 0.04167052 0.0005231485 0.035755444
000050 1f bb 02 3d de cb cf 3c 09 bb 3c 3c e4 0c a5 bc
       0.031916734 0.025365766 0.011519202 -0.020147748
000060 44 2d 1d bd ea 4b 3e bd fd 21 a2 3b 92 4e 32 bd
       -0.038373247 -0.046459116 0.0049478994 -0.04353196
000070 39 3a 29 3d d8 ae 8d 3d 67 2d 2f bc f4 8a 47 3d
       0.04131529 0.069181144 -0.010691977 0.0487165
000080 fb 64 8c 3d ef 3e 5d 3c 9d 2d 95 bb 7c c4 3e bc
       0.06855198 0.013503774 -0.0045525567 -0.011643525
000090 32 8a d2 3c b8 2c e1 3c dd 30 91 bc 2a 53 1d 3d
       0.025700662 0.027487144 -0.017723495 0.03840939
0000a0 60 e9 db 3b b2 90 fa 3c 7e ca 31 bc 89 8e 21 3d
       0.00671117 0.030586574 -0.010851501 0.039442573
0000b0 13 be c5 bc 56 f7 67 bd c4 aa 6a 3d a6 3f 82 3c
       -0.024138486 -0.056632362 0.05729176 0.01589949
0000c0 a3 f6 44 bc 79 74 13 bc 7d 6f bc 3b 19 18 06 bd
       -0.012021693 -0.008999937 0.005750595 -0.032737825
0000d0 14 ae 20 3b 89 b2 9b bb c8 b1 e8 3c 0b 28 72 3d
       0.002451782 -0.0047515077 0.028405085 0.05912022
0000e0 24 c2 2a 3d 77 ee 44 3c bf 62 fb 3c 0b 87 c8 ba
       0.041689053 0.012019745 0.030686734 -0.0015299035
0000f0 e8 e7 2e 3d 17 95 71 bc 45 ad 03 bd 64 e5 71 3c
       0.04270163 -0.014745018 -0.032147665 0.014764164
000100 43 d6 89 bc a8 ff 0e bd 2a 9b a4 3c 63 4d 88 3a
       -0.0168258 -0.03491178 0.02009352 0.001039904
000110 c0 6b 91 bc 7a e1 d4 bc 65 bc 13 3d d7 96 f1 bb
       -0.017751575 -0.025986422 0.03606834 -0.007372718
000120 7c 62 75 3c 5d 94 08 3d de 80 3a 3b 09 2e 76 3c
       0.014977094 0.033344615 0.0028458158 0.015025624
000130 58 b4 d8 bc 55 6e ec bb d8 ba 9f bc 71 20 b7 3c
       -0.026453182 -0.007215301 -0.019498274 0.022354336
000140 6e ff 9e bc c2 71 2d bd cd fb 32 bc 7a fb e9 bc
       -0.019408908 -0.042344816 -0.010924292 -0.028562296
000150 53 ac df 3c 38 03 0b bd 65 b8 d1 bc c0 29 e6 bb
       0.02730385 -0.033938617 -0.025600621 -0.00702402
000160 e4 47 06 bd 68 2e 10 3d ba bc 1e bd a4 02 10 bc
       -0.032783404 0.035200506 -0.038754202 -0.008789692
000170 7b e4 d7 3c 39 80 11 bd d5 b6 53 bd b2 f9 4b bd
       0.026354065 -0.035522673 -0.051688034 -0.049798675
000180 b3 ff a7 bb 98 47 20 bd 33 7c 8a 3c c2 3a d5 bc
       -0.0051269173 -0.039130777 0.016904926 -0.026028994
000190 6f 02 61 3d 49 56 a0 bc 1f e1 0f bd e9 08 40 bc
       0.05493396 -0.019572394 -0.0351268 -0.011720874
0001a0 3e c4 82 bc 0e 1b 19 3c 23 cc cd bb cd 6f 3f 3d
       -0.015962716 0.009344829 -0.0062804385 0.04673748
0001b0 8e 74 4c 3c f1 96 6a bc 09 2e ce bb 19 b1 40 3c
       0.012478961 -0.014318214 -0.006292109 0.011760973
0001c0 0d 5e d2 bc 79 57 cd bb 16 e8 f8 bc e2 ca 9c bd
       -0.025679613 -0.006266531 -0.030384105 -0.07655884
0001d0 67 5c cd 3b 33 f4 22 3c 32 52 77 bd 8a 01 d5 3b
       0.0062671187 0.009945917 -0.060381122 0.0065004276
0001e0 b6 7e a2 bc b3 3d 0d bd 4c 06 65 bd 26 05 35 3d
       -0.019835811 -0.03448267 -0.05591421 0.044194363
0001f0 c9 a9 bb 3c 4b be 21 3b d5 fb c9 3b 73 3d 35 bc
       0.022908108 0.0024680074 0.006164054 -0.011062014
000200 dc d7 01 3d f6 ae 47 bc 84 10 ff 3b 90 93 67 3c
       0.0317 -0.01218771 0.0077839512 0.014134303
000210 e4 27 64 3d 81 5c 93 3d 75 c3 c9 3a 22 8f 1f ba
       0.055702105 0.07195378 0.0015393334 -0.0006086697
000220 40 b4 48 bd 2b eb d9 3c d5 ee 27 3d 76 9a 0e bd
       -0.049000025 0.026601395 0.040999252 -0.034815274
000230 41 1f 40 3a 15 46 4f 3a 01 6f 0a bd 38 39 69 bc
       0.0007328876 0.00079068664 -0.033797268 -0.014234833
000240 b0 00 25 bc 14 ad b4 3b 91 6d ce 3c f6 01 dc bc
       -0.010070965 0.0055137966 0.02519873 -0.026856404
000250 c1 00 40 3d 14 3b b2 3b 25 28 9d 3c b6 5f 68 3c
       0.04687572 0.0054391716 0.019184181 0.0141829755
000260 5e 06 7f 3d 36 73 ee bb 58 98 fb bb 57 12 86 3c
       0.06226193 -0.007276918 -0.007678073 0.016366167
000270 b7 27 70 3b 43 f1 f7 3c 13 74 f3 bc c9 aa eb 3c
       0.0036644766 0.03026641 -0.029718434 0.02876796
000280 f3 6c 32 bd 2d 07 fe 3b c0 3c 0c 3c d4 0f 22 bd
       -0.043560933 0.0077523203 0.008559406 -0.039565876
000290 35 ad 98 3c 79 1a 16 bd 13 5e 19 3b d0 40 bf 3c
       0.018637279 -0.03664634 0.002340202 0.023346335
0002a0 8b 7e a2 bc 36 95 be 3c 99 ed 3f bd af a5 ee bc
       -0.019835731 0.023264509 -0.04685745 -0.029131738
0002b0 ad 7b 06 3d da cc df bc 39 e0 7e bd c2 0e 22 3d
       0.03283279 -0.02731936 -0.062225554 0.039564855
0002c0 42 f7 a5 b9 c4 c9 89 bd 78 9c 26 3d 9f 75 e6 3c
       -0.00031655474 -0.06727937 0.040676564 0.028132258
0002d0 36 c9 05 3d 47 d7 09 3c 8b 07 91 bc 9f f3 71 3a
       0.032662593 0.0084131425 -0.017703792 0.0009229723
0002e0 2b f6 61 3d be c4 93 bc f4 4f 37 bd f2 c0 42 bc
       0.055166405 -0.01803815 -0.044753984 -0.011886822
0002f0 e1 5e ba bc 42 b0 17 3d b4 c7 ad bc e8 8a 19 bd
       -0.02275032 0.037033327 -0.02121339 -0.037485987
000300 17 dc 02 bd 88 7c 27 bc f8 f1 23 bc 25 06 1e bd
       -0.031948175 -0.010222562 -0.01000642 -0.03858008
000310 17 8f 77 bd b5 20 58 bc bc 23 53 bc 9d 3f 31 bc
       -0.060439195 -0.013191392 -0.012886938 -0.010818389
000320 7b df 57 3d 65 f0 01 3d 3d 87 9f bc 6f 4c 5d bd
       0.052703362 0.0317234 -0.019473666 -0.05402797
000330 16 12 68 ba 9f 10 56 bc 56 45 00 bc 48 4d 64 bd
       -0.00088527927 -0.013065486 -0.007829031 -0.055737764
000340 02 00 b5 3c 35 2d b2 bb c8 7e 34 bc 92 33 b0 3c
       0.02209473 -0.005437518 -0.011016555 0.021508966
000350 08 57 27 bc 5f 01 49 bd 03 22 b1 3c de d5 fa 3c
       -0.010213621 -0.049073573 0.021622663 0.030619558
000360 c4 c0 2a bd 55 1d 3a 3d af 1e b7 bb 09 40 8b bc
       -0.041687742 0.04543813 -0.0055883746 -0.016998308
000370 73 b9 1a 3c 8b 6a 05 3d 8b 4a 33 3d e5 e8 32 3d
       0.009443629 0.03257231 0.04377226 0.043679137
000380 6c 62 37 3d 6d c4 79 bb c5 65 0f 3d 7a d8 9a bb
       0.044771597 -0.0038111464 0.035009164 -0.004725513
000390 97 c3 a0 3c a5 56 8d 3c 79 10 81 bc f9 d6 80 bd
       0.019624515 0.01725323 -0.015754925 -0.06291003
0003a0 18 f3 4e 3d fa 5f 61 3c fd 6b 06 bd 73 41 04 3d
       0.0505248 0.013755793 -0.03281783 0.03228898
0003b0 9c 6d e2 3c 90 1a 4e bd 0a be 24 bb f7 d5 61 3c
       0.027640156 -0.0503183 -0.0025137686 0.013783923
0003c0 fe 85 4b bd 73 65 e6 bc b8 da 98 3c 2e f3 f4 3c
       -0.04968833 -0.028124547 0.01865898 0.029901113
0003d0 55 65 5b bc e1 85 31 3b ce d4 13 bd e1 c0 82 bc
       -0.013390859 0.0027087855 -0.03609162 -0.015961112
0003e0 6d 2a 33 bb b5 c8 03 3d 9a 23 f8 bc 5e 4b 53 bd
       -0.002733852 0.03217383 -0.030290414 -0.051585548
0003f0 4c c2 38 bd 7a da 9a 3d ff 85 00 3c 3b 57 10 bc
       -0.04510717 0.07561202 0.007844447 -0.00880986

layer5.0.bias f4 [64]
000000 83 0b 0c 3b 5f af ec bc 83 ee b4 bc 53 7f 7f bc
       0.0021369166 -0.028892217 -0.022086388 -0.015594321
000010 9e e7 75 3c c6 73 15 bc bd 86 00 bd 19 b9 25 bd
       0.015008835 -0.009121841 -0.031378496 -0.040459726
000020 7b 26 ef 3c db 1f ad 3c 77 76 04 3c a1 0f 71 3c
       0.029193154 0.021133354 0.008084885 0.014713199
000030 60 da 0f 3d 53 31 61 bd 49 99 69 bc b8 e9 11 bb
       0.035120368 -0.05497868 -0.014257737 -0.0022264551
000040 33 56 1c 3d c8 95 61 bc 1b 23 79 3b c0 24 07 3d
       0.038168143 -0.013768621 0.003801531 0.032994032
000050 7d 28 04 bd 1d d9 18 3d d4 01 11 3d ff d6 16 3d
       -0.032265175 0.03731643 0.035402134 0.03682613
000060 95 cb 21 bd 26 2b a8 bc b8 e5 f8 bc 10 4f a4 bc
       -0.03950079 -0.020528387 -0.030382976 -0.020057231
000070 f8 ba 0b 3c 40 23 fa bb 54 c7 af bc d2 59 de 3c
       0.008528464 -0.0076335967 -0.021457352 0.027142439
000080 5c ad a7 bc e5 2f 00 3d e5 b7 28 bc f0 e9 c7 bc
       -0.020468406 0.031295676 -0.01029775 -0.024403542
000090 5b 5e 29 bd 0d 84 86 3b 17 7a 36 3d 9b 6a c8 3c
       -0.04134975 0.004105097 0.044550028 0.024464896
0000a0 47 e4 10 bd c0 73 b8 bc 7b b1 63 bc a0 4e 05 bd
       -0.035373952 -0.022516131 -0.013897295 -0.032545686
0000b0 04 07 af 3b 69 c6 72 bc 44 48 54 3b 5b 64 08 3c
       0.0053414125 -0.0148178125 0.0032391706 0.008324708
0000c0 3b b3 04 bd 9a 39 c8 bb 17 e9 cb 3c ba 21 96 3c
       -0.03239749 -0.0061103823 0.02489142 0.018326629
0000d0 82 2d 2f bc 8f 69 33 ba 95 f5 51 bc 71 c6 33 bc
       -0.010692002 -0.00068440376 -0.012814899 -0.010972605
0000e0 45 3a 7d bc 06 d3 04 b9 19 86 82 3c 2f 62 f0 3c
       -0.015455787 -0.00012667113 0.015933083 0.029343693
0000f0 a4 ca c2 3b 65 8a c3 3b 60 5f 37 3c 00 ae d2 3c
       0.005944567 0.0059674256 0.011192173 0.025717735

layer5.1.weight f4 [64]
000000 27 df 84 3f 32 25 81 3f ab 57 7e 3f ac 24 81 3f
       1.0380601 1.0089476 0.9935252 1.0089316
000010 72 21 84 3f 8a e5 80 3f 44 e6 7d 3f 12 62 7a 3f
       1.0322707 1.007005 0.9917948 0.97805893
000020 bf 55 82 3f 2b 2b 83 3f 42 0e 82 3f 11 24 7f 3f
       1.0182418 1.0247549 1.0160601 0.9966441
000030 8a 8f 84 3f a6 bf 80 3f d0 58 82 3f 4b c5 80 3f
       1.0356305 1.0058486 1.0183353 1.0060209
000040 38 53 7e 3f 27 c0 81 3f b8 fc 79 3f 2b fe 7b 3f
       0.9934573 1.0136765 0.97651243 0.98434705
000050 b5 a1 82 3f 9a 35 83 3f 44 5d 81 3f 43 d3 82 3f
       1.0205599 1.0250733 1.0106587 1.0220722
000060 93 0d 7f 3f 12 31 85 3f ab 90 78 3f d9 9a 80 3f
       0.9963009 1.04056 0.97095746 1.0047256
000070 7c 2a 81 3f 9f e4 80 3f ac 07 83 3f cc 29 81 3f
       1.009109 1.006977 1.0236716 1.009088
000080 b1 16 7d 3f 65 1c 81 3f 79 28 84 3f 3b 7c 7c 3f
       0.9886275 1.008679 1.0324851 0.9862706
000090 36 d8 81 3f 17 22 81 3f 2b a1 84 3f 0d 88 82 3f
       1.0144107 1.0088528 1.0361685 1.0197769
0000a0 24 f5 7b 3f 5c 79 83 3f 24 fb 7e 3f 46 98 7d 3f
       0.9842093 1.0271411 0.9960196 0.99060476
0000b0 d0 ce 81 3f d1 66 79 3f 83 d8 81 3f d8 e7 7e 3f
       1.0141239 0.9742251 1.0144199 0.99572515
0000c0 74 aa 80 3f bc 1f 84 3f 14 f0 7f 3f ad 96 82 3f
       1.0052018 1.0322185 0.99975705 1.0202233
0000d0 c0 29 81 3f 17 86 80 3f 4a 50 7f 3f 77 f3 7c 3f
       1.0090866 1.0040921 0.99731886 0.98809
0000e0 c2 09 83 3f 88 02 82 3f 9b a7 7a 3f 57 e2 82 3f
       1.0237353 1.0157022 0.97911996 1.0225323
0000f0 6d bb 80 3f 1c 93 7e 3f 63 a4 80 3f 64 11 84 3f
       1.0057198 0.9944322 1.0050167 1.0317807
