weights/finetune.pth (torch, 949734 bytes, 26 tensors)

layer1.0.weight f4 [16, 3, 3, 3]
0	0xbe227783	-0.15865903
1	0x3e27cc7b	0.16386597
2	0x3e497c1f	0.19676255
3	0xbe187a91	-0.14890505
4	0xbd34681f	-0.04404461
5	0x3d0e6503	0.0347643
6	0x3d0d60bc	0.03451608
7	0xbd893297	-0.06699102
8	0xbc29e32d	-0.010369104
9	0xbd80925e	-0.06277917
10	0x3da18016	0.078857586
11	0x3e3a0346	0.18165311
12	0xbb9bfa44	-0.0047600586
13	0xbdd36230	-0.10321462
14	0x3de5b9e6	0.11217098
15	0xbd2bbfd3	-0.041930985
16	0xbe119388	-0.14216435
17	0xbe24c94c	-0.16092414
18	0x3e098db9	0.13432969
19	0xbe447513	-0.19185285
20	0xbc19f681	-0.00939715
21	0xbe57879f	-0.21047829
22	0xbcf73a5a	-0.030179191
23	0xbdf87a70	-0.12132728
24	0xbe597987	-0.21237765
25	0xbd1801de	-0.037111156
26	0x3d9b07c0	0.075698376
27	0x3d2dd5f8	0.042440385
28	0xbd7fb9a9	-0.06243292
29	0xbc630e27	-0.013858355
30	0x3dc07262	0.09396817
31	0xbe101f05	-0.14074333
32	0xbd85db4e	-0.0653597
33	0x3dc9ba87	0.098500304
34	0xbe259838	-0.16171348
35	0x3e31d703	0.17367177
36	0x3e1abe85	0.1511174
37	0x3e05560f	0.1302111
38	0x3c9edbe3	0.01939196
39	0x3e107709	0.14107908
40	0xbd5cb05d	-0.05387913
41	0xbb8271bd	-0.003980844
42	0xbd85f28a	-0.06540401
43	0xbcb90a6e	-0.022587981
44	0x3dfab952	0.12242378
45	0x3d06d308	0.0329161
46	0x3dddc562	0.108286634
47	0xbd8d7f52	-0.0690905
48	0x3dbf69bc	0.09346339
49	0x3e2ab7cb	0.16671674
50	0x3e4344b8	0.19069183
51	0xbb63bf4f	-0.003475148
52	0xbd42b242	-0.04753328
53	0xbd9e2cc9	-0.07723386
54	0xbe469305	-0.19392021
55	0xbde12df9	-0.10995097
56	0xbd279afa	-0.04091928
57	0xbc42b072	-0.011882888
58	0xbd8eb94e	-0.06968938
59	0x3d8c582e	0.068527564
60	0x3e455ddc	0.19274086
61	0xbdf230db	-0.11825725
62	0xbd9f1f0b	-0.07769593
63	0x3d3d6751	0.04624111
64	0xbd82d27d	-0.06387804
65	0x3e35c276	0.17749962
66	0xbde86048	-0.11346489
67	0xbcf36606	-0.029711735
68	0xbd69e50b	-0.057103198
69	0xbcc95b64	-0.024579711
70	0x3cc7d249	0.024392264
71	0xbd97df1b	-0.07415601
72	0xbdef5cac	-0.11687598
73	0x3db6c3a8	0.08924037
74	0xbe26b248	-0.16278946
75	0xbcfaf5d4	-0.030634798
76	0x3c3c2155	0.011482556
77	0xbe1e5628	-0.15462554
78	0x3e06a784	0.1314984
79	0xbcff8bbd	-0.031194562
80	0x3d637e2b	0.055540245
81	0x3e23974f	0.15975688
82	0xbe4003ed	-0.18751498
83	0xbde8c181	-0.11365033
84	0xbddce9a1	-0.10786749
85	0xbd963ef8	-0.07336229
86	0x3b3259ac	0.0027214093
87	0xbcbbecd0	-0.02294007
88	0x3e08f56b	0.1337487
89	0xbe398c35	-0.18119891
90	0xbd9dd3a5	-0.077063836
91	0xbd983a79	-0.07433028
92	0x3d82c86c	0.06385884
93	0xbdb9e31f	-0.09076523
94	0xbd55928c	-0.05214171
95	0x3d65f145	0.056138296
96	0xbe0c2f3d	-0.13689895
97	0x3d93c703	0.07215693
98	0xbdb0dc3c	-0.086357564
99	0xbdf16885	-0.11787514
100	0x3e256015	0.16149934
101	0xbdc329fc	-0.09529492
102	0x3e45a702	0.1930199
103	0xbcfd185c	-0.030895405
104	0xbd39be33	-0.045347404
105	0x3ca9f532	0.020746801
106	0x3e1eb91a	0.15500298
107	0xba8edc7c	-0.001089945
108	0x3e1c44a9	0.15260567
109	0x3d7627b6	0.060096465
110	0xbd4f1b64	-0.05056323
111	0x3da74ccd	0.081689455
112	0xbc9e3327	-0.0193115
113	0x3ceaa7be	0.028644439
114	0x3e64ef97	0.22357021
115	0x3e1deedc	0.15423149
116	0xbbeff015	-0.007322321
117	0xbe246517	-0.16054188
118	0xbd35a401	-0.04434586
119	0xbe22a562	-0.15883401
120	0xbd953c12	-0.07286848
121	0xbce3e5df	-0.027819572
122	0x3d81fbdb	0.06346866
123	0xbc0cae23	-0.008586439
124	0x3ae7f602	0.0017697217
125	0xbd31bbe1	-0.043392066
126	0x3d36e81d	0.044654954
127	0x3c36c613	0.011155623
128	0xbd0bea13	-0.034158777
129	0xbcee7944	-0.029110558
130	0xbe1d2dd4	-0.15349513
131	0xbddf7999	-0.10911865
132	0xbd69091f	-0.056893464
133	0x3d842a24	0.0645335
134	0x3ce7c443	0.028291827
135	0x3e2fc3c3	0.17164521
136	0xbd1688e5	-0.036751647
137	0xbe5369bc	-0.20645803
138	0xbe20ca1f	-0.15702103
139	0xbd331319	-0.043719385
140	0x3d16e856	0.036842667
141	0x3e2a586a	0.1663529
142	0xbbab46b5	-0.005226935
143	0xbaa7f9d7	-0.0012815547
144	0x3e3940e8	0.18091166
145	0xbd336764	-0.043799773
146	0x3e1b2101	0.15149309
147	0xbd4c9dfd	-0.049955357
148	0x3b924548	0.0044638254
149	0x3cee7c11	0.029111894
150	0x3e2cafec	0.16863984
151	0xbe2ec3ed	-0.17066927
152	0x3e154524	0.14577156
153	0x3e1ba4c6	0.15199575
154	0xbe166620	-0.14687395
155	0x3caab9f0	0.020840615
156	0xbdc7a1b9	-0.09747643
157	0xba2a05c5	-0.0006485845
158	0xbe229583	-0.15877347
159	0x3df50ff3	0.11965933
160	0xbe367bd0	-0.17820668
161	0xbad868ed	-0.0016510763
162	0x3e261bcf	0.16221546
163	0x3cf0b0f8	0.02938126
164	0xbe481ae1	-0.19541503
165	0xbe071b4b	-0.13194005
166	0x3d84e433	0.06488838
167	0xbd9dbc10	-0.07701886
168	0x3d07d0b5	0.033158023
169	0xbcaf6870	-0.021412104
170	0xbe316f95	-0.17327721
171	0xbda87aea	-0.08226569
172	0xbd0f87ea	-0.035041727
173	0xbd403a83	-0.0469308
174	0xbe28f468	-0.16499484
175	0xbe22dd6d	-0.1590478
176	0xbcc34386	-0.023835909
177	0xbb6c6451	-0.0036070535
178	0xbbcd42b2	-0.006264054
179	0xbe3065d1	-0.1722634
180	0x3d72f6ed	0.059317518
181	0xbd2998ae	-0.041405372
182	0xbdfe2d38	-0.124109685
183	0x3de7cf47	0.11318832
184	0xbd4d8fac	-0.050185844
185	0xbda64698	-0.081189334
186	0xbe3f9a99	-0.18711318
187	0x3d3333ef	0.0437507
188	0xbd14d89a	-0.03633938
189	0xbd818760	-0.06324649
190	0x3e1781f0	0.14795661
191	0xbe1fb117	-0.15594898
192	0xbde9aec2	-0.114102855
193	0x3d615cb0	0.055020034
194	0x3d148b86	0.036265872
195	0xbe532fde	-0.20623729
196	0x3bcacfc2	0.0061893174
197	0xbdc6791c	-0.096910685
198	0xbe110ea8	-0.14165747
199	0x3ac6d4f2	0.0015169664
200	0xbdc75cfa	-0.09734531
201	0xbd12039b	-0.03564797
202	0xbdd87b19	-0.10570354
203	0xbd8400aa	-0.06445439
204	0xbddb29c8	-0.107013285
205	0x3e55474f	0.20827983
206	0x3e0cedfd	0.1376266
207	0x3bc48efc	0.0059984904
208	0xbbbebb5f	-0.005820676
209	0x3dcc227a	0.099675134
210	0xbe034830	-0.12820506
211	0xbde83f5b	-0.11340209
212	0x3e4fe28b	0.20301263
213	0xbd322078	-0.043487996
214	0xbc9d747c	-0.019220583
215	0xbdb14af4	-0.08656874
216	0xbc1ceb7f	-0.009577631
217	0xbe3a8d73	-0.18218021
218	0xbe48f648	-0.19625199
219	0x3cb8bda8	0.022551373
220	0x3e299884	0.16562086
221	0xbe1a87c5	-0.15090854
222	0xbe1d96fa	-0.15389624
223	0x3e0f0e8e	0.13970396
224	0x3db401d6	0.08789413
225	0x3de524de	0.111886725
226	0x3dad9183	0.0847502
227	0x3ac5f705	0.0015103525
228	0x39ba16d5	0.00035493696
229	0x3d1f294c	0.038857743
230	0x3d6c4e2c	0.057691738
231	0x3e19f01f	0.15033005
232	0xbd24bd66	-0.040219687
233	0xbd95a72d	-0.07307277
234	0xbe3aa2ff	-0.1822624
235	0x3ccd1178	0.025032744
236	0xbdecc504	-0.11561015
237	0x3e250b54	0.16117603
238	0x3de9493e	0.11390923
239	0x3db58e08	0.08864981
240	0x3cb9fb27	0.022702767
241	0x3d7a3925	0.061089654
242	0x3e1cfccc	0.1533081
243	0xbb906809	-0.004406933
244	0xbc541464	-0.012944315
245	0x3dd16139	0.10223622
246	0xbe27edc0	-0.16399288
247	0xbd5e38ac	-0.054253265
248	0xbe09ba63	-0.13450007
249	0x3d8ca9e5	0.06868342
250	0xbe027635	-0.12740405
251	0xbe271485	-0.16316421
252	0xbdcc080b	-0.099624716
253	0x3d7ffddc	0.06249796
254	0x3dbc42e4	0.09192446
255	0x3e3804b0	0.17970538

layer1.0.bias f4 [16]
0	0x3c20ab99	0.009806537
1	0xbe203dbd	-0.15648551
2	0x3e0b0f8c	0.1358015
3	0x3d841dec	0.0645102
4	0xbe209e29	-0.15685333
5	0xbe3a0350	-0.18165326
6	0xbe4ad588	-0.19808018
7	0xbd0c90c4	-0.034317747
8	0x3d0c9a47	0.034326818
9	0xbc9b4ff5	-0.018959025
10	0xbdcd3da8	-0.100215256
11	0xbccaf111	-0.024773153
12	0xbddfbea6	-0.10925035
13	0xbde8dafb	-0.11369892
14	0x3e07baad	0.13254805
15	0x3e239492	0.15974644

layer1.1.weight f4 [16]
0	0x3f8290cf	1.0200442
1	0x3f7c6560	0.98592186
2	0x3f768551	0.96297175
3	0x3f80ab95	1.0052363
4	0x3f8425d7	1.0324048
5	0x3f7cfde0	0.9882488
6	0x3f7976a2	0.97446644
7	0x3f7e3b6e	0.9930943
8	0x3f829509	1.0201732
9	0x3f823c11	1.0174581
10	0x3f81c919	1.0139495
11	0x3f82df66	1.0224426
12	0x3f7c8933	0.9864685
13	0x3f834fbd	1.0258709
14	0x3f7a4006	0.9775394
15	0x3f7d9c15	0.9906629

layer1.1.bias f4 [16]
0	0x3bda5096	0.0066624386
1	0xbd21c26d	-0.03949206
2	0xbc9b892d	-0.018986309
3	0xbb3cfc82	-0.002883703
4	0x3b0c08e0	0.0021367595
5	0xbd05fc1b	-0.03271113
6	0xbcf26662	-0.029589836
7	0x3a061455	0.0005114724
8	0x3c338211	0.010956303
9	0x3b259aaf	0.00252692
10	0x3c1d7828	0.009611167
11	0x3c845547	0.016153945
12	0xbce173a0	-0.027520955
13	0xbc276cc6	-0.010218805
14	0xbc52e9bf	-0.012873112
15	0xbc05b92c	-0.008161824

layer2.0.weight f4 [16, 16, 3, 3]
0	0x3d715e67	0.05892792
1	0x3d2a07d8	0.041511387
2	0x3c19f97d	0.009397862
3	0x3d451afe	0.048121445
4	0x3d0f2b4d	0.034953404
5	0xbc9be10f	-0.019028215
6	0x3d827708	0.0637036
7	0xbc755c72	-0.014975654
8	0x3d5a2481	0.05325747
9	0x3d4c1dc4	0.049833074
10	0xbd6edc2c	-0.05831544
11	0x3d8c95f1	0.068645366
12	0xbd0d112a	-0.034440197
13	0xbd0fff85	-0.03515579
14	0x3d59b5a3	0.053151738
15	0x3d7d6730	0.061865985
16	0x3c6488d1	0.013948635
17	0x3d6647e9	0.056220923
18	0x3d0ce52f	0.034398254
19	0xbd032c77	-0.032024827
20	0xbca433e3	-0.020044273
21	0xbdaa642b	-0.08319887
22	0x3d4df580	0.050282955
23	0xbd0331dc	-0.03202997
24	0x3d0144e4	0.03155984
25	0xbd325eb4	-0.043547347
26	0xbd8c0387	-0.0683661
27	0xbdb0aecd	-0.086270906
28	0xbd93032d	-0.0717834
29	0x3d0e5e07	0.03475764
30	0xbc0b2222	-0.008492025
31	0xbd1c6782	-0.03818465
32	0xbd2752e4	-0.040850535
33	0x3dbda197	0.092593364
34	0xbc6bc90a	-0.014391193
35	0x3d06261d	0.03275119
36	0x3d56a751	0.05240566
37	0x3ddf1b61	0.10893894
38	0xbd14ade2	-0.03629864
39	0x3cb48e13	0.022040403
40	0x3d2f52b1	0.04280347
41	0x3d9eb489	0.07749278
42	0xbc587f28	-0.01321391
43	0xbbc96e07	-0.0061471495
44	0x3dd705a8	0.10499126
45	0xbd8c3816	-0.06846635
46	0x3cb576d3	0.022151386
47	0x3cabe7d1	0.020984562
48	0x3d8b7a46	0.06810431
49	0x3d531b16	0.051539503
50	0x3d392d9f	0.045209523
51	0x3c8d5e36	0.017256837
52	0xbd8ce53a	-0.06879659
53	0xbc0128ec	-0.007883292
54	0x3d7b47cd	0.06134777
55	0x3d62adbd	0.05534147
56	0x3d845f0b	0.064634405
57	0xbd9f10d6	-0.07766883
58	0xbd921890	-0.07133591
59	0xbd8127ae	-0.063063964
60	0xbd17b97b	-0.037042122
61	0x3db5cd4c	0.08877048
62	0xbd89f8b8	-0.067368925
63	0x3d5a1273	0.05324025
64	0x3d06a988	0.03287652
65	0xbb11d4ad	-0.0022252009
66	0xbc3d5971	-0.011556969
67	0xbd7d6dc0	-0.061872244
68	0x3c8aceb4	0.016944267
69	0xbcb011dd	-0.021492893
70	0x3d93d5aa	0.072184876
71	0x3d843d56	0.064570114
72	0xbd35d924	-0.044396535
73	0x3d17ee68	0.037092596
74	0xbd32d028	-0.043655545
75	0xbd0477f7	-0.03234097
76	0xbd69ca40	-0.057077646
77	0x3c5f400e	0.013626112
78	0xbce88854	-0.028385319
79	0x3d284b56	0.04108747
80	0xbcbdf5cc	-0.023188494
81	0x3c0a7cc7	0.008452601
82	0xbdb7af0d	-0.08968935
83	0xbd2dabf0	-0.0424003
84	0x3d8e8806	0.06959538
85	0x3da9edcc	0.08297309
86	0xbcc56764	-0.024097152
87	0x3b0d613b	0.0021572846
88	0x3d7f6f3c	0.06236194
89	0x3daa1c7f	0.083062164
90	0xbda36852	-0.07978882
91	0x3d74b79c	0.059745416
92	0xbd16fb09	-0.0368605
93	0xbdd66740	-0.10468912
94	0x3d193590	0.037404597
95	0x3cbcbc89	0.02303912
96	0x3d494def	0.04914659
97	0xbbcc3ddd	-0.0062329606
98	0xba14fb81	-0.0005683229
99	0x3d259288	0.040422946
100	0x3d89a470	0.06720817
101	0xbcf6b51f	-0.030115662
102	0xbcb0322c	-0.021508299
103	0xbd155799	-0.036460493
104	0x3daad68c	0.08341703
105	0x3da648dd	0.08119366
106	0xbc924add	-0.017857963
107	0x3cd038d7	0.025417728
108	0x3d3a4940	0.045480013
109	0xbdaaad8b	-0.08333882
110	0x3c44706a	0.011989692
111	0x3d7e4c15	0.062084276
112	0x3d7f3c9c	0.06231366
113	0xbd333e28	-0.04376045
114	0xbc70128a	-0.014652858
115	0xbd69b62f	-0.05705851
116	0x3cb050f4	0.021522976
117	0x3d371a83	0.044703018
118	0xbb9546df	-0.0045555676
119	0x3de14986	0.110003516
120	0x3c167620	0.009183437
121	0x3cec77ff	0.028865812
122	0x3c827abd	0.015927667
123	0x3ce241ba	0.027619231
124	0xbd1464ca	-0.036228932
125	0xbd2fc869	-0.042915735
126	0xbca8189e	-0.02051955
127	0x3b495dcb	0.003072607
128	0xbd37c2d2	-0.04486353
129	0xbdaa1b32	-0.08305968
130	0x3d98d70e	0.074628934
131	0xbd8034dd	-0.06260083
132	0xbd876740	-0.0661149
133	0xbd4d36ae	-0.050100975
134	0x3d3fe2fd	0.046847332
135	0xbd4c93c3	-0.049945604
136	0xbd2e7da6	-0.042600296
137	0xbda40dd4	-0.0801045
138	0xbd9bc3ed	-0.07605729
139	0xbd2fa767	-0.042884257
140	0xbda3aa35	-0.07991449
141	0x3bb16d30	0.0054146275
142	0xbd773c42	-0.0603602
143	0x3d6cad51	0.057782475
144	0x3d181bcb	0.03713588
145	0xbd59ed21	-0.05320466
146	0x3cb4b673	0.022059655
147	0x3df3af5a	0.1189868
148	0xbd2517de	-0.040305965
149	0x3d94a0e2	0.072572485
150	0x3db9a7bc	0.09065196
151	0x3c601e40	0.013679087
152	0xbcd1a03c	-0.025589101
153	0xbc00889a	-0.007845068
154	0xbd0cacdf	-0.03434455
155	0x3ca41c53	0.020033037
156	0xbca6a039	-0.020340072
157	0xbd8e5b98	-0.06951064
158	0x3d54fe3e	0.052000277
159	0x3d0157cb	0.031577867
160	0x3da5ba39	0.0809216
161	0x3dc75181	0.097323425
162	0x3ccef3fb	0.025262823
163	0xbbfaac57	-0.007649939
164	0xbd1a79d4	-0.03771384
165	0x3d87b69e	0.06626628
166	0x3b221736	0.0024733073
167	0xbd8522dc	-0.065007895
168	0xbc31b94a	-0.010847399
169	0xbc8b4782	-0.017001871
170	0xbd741bde	-0.05959689
171	0xbda7a821	-0.08186365
172	0xbd5f9fbf	-0.054595705
173	0x3ce07600	0.027400017
174	0x3d8ecb67	0.0697239
175	0xbb6434eb	-0.003482158
176	0x3da292ef	0.079381816
177	0x3cb946f9	0.02261685
178	0xbcff0f29	-0.031135159
179	0x3c8f91d3	0.01752559
180	0x3c00680b	0.007837306
181	0x3d67ce46	0.056593202
182	0x3d4c9ee4	0.049956217
183	0x3af0d3f2	0.0018373712
184	0x3c86950d	0.016428495
185	0xbcfd3056	-0.030906837
186	0xbdeb1162	-0.11477925
187	0xbd74e1b1	-0.05978555
188	0x3b01f0b9	0.001982732
189	0x3c497779	0.012296551
190	0xbce7028d	-0.028199458
191	0x3c1d36cb	0.009595583
192	0x3c72435e	0.014786569
193	0xbb975dd9	-0.004619342
194	0xbcd9f3ac	-0.02660545
195	0x3d0108c8	0.031502515
196	0x3d3a358c	0.045461223
197	0x3dc4896e	0.09596525
198	0x3c0659b0	0.008200094
199	0xbc3c08e5	-0.01147673
200	0xbcf05204	-0.029335983
201	0xbd9e73ec	-0.07736954
202	0x3d108174	0.035279706
203	0xbd3bae2f	-0.04582041
204	0xbd94556c	-0.072428554
205	0x3d00600a	0.03134159
206	0x3d60c755	0.054877598
207	0xbc8d450a	-0.017244834
208	0xbccddbb9	-0.025129186
209	0x3d17644b	0.03696088
210	0x3da2ba2d	0.079456665
211	0xbc983a9d	-0.018582636
212	0xbda2d811	-0.07951368
213	0xbbf17c88	-0.0073695816
214	0xbbb55b7f	-0.005534589
215	0xbcb0279d	-0.021503264
216	0xbd5623d3	-0.05228026
217	0x3dd8996d	0.10576139
218	0xbca7bf70	-0.020477027
219	0x3d228ecc	0.039686963
220	0xbd06936d	-0.03285544
221	0xbd836a0b	-0.064167105
222	0x3d8657b7	0.06559699
223	0x3da47876	0.080307886
224	0x3d271f46	0.04080131
225	0x3d57e70c	0.052710578
226	0xbd8887f7	-0.06666558
227	0xbdbc758c	-0.09202108
228	0xbd381c60	-0.044948936
229	0x3cfa6d89	0.030569809
230	0xbd317584	-0.043324962
231	0xbad1d269	-0.0016008142
232	0xbcd376f5	-0.02581356
233	0x3d4c330c	0.04985337
234	0x3cfd087d	0.030887837
235	0xbd24ae7f	-0.040205475
236	0x3cefcde1	0.029272975
237	0xbc25a84b	-0.010110925
238	0x3d6d6906	0.057961486
239	0x3c88f72e	0.016719427
240	0x3d96c60b	0.073619924
241	0x3d2ecd19	0.042676065
242	0xbc843c01	-0.016141893
243	0xbd29af1b	-0.04142676
244	0xbd0d6523	-0.03452028
245	0x37921115	1.741251e-05
246	0x3da3c24d	0.07996044
247	0xbd08e7da	-0.033424236
248	0xbd84e612	-0.06489195
249	0xbc928b6b	-0.017888745
250	0xbd1e275a	-0.038611747
251	0x3cfd11b6	0.030892234
252	0x3cce72f4	0.025201298
253	0x3d9b274b	0.07575854
254	0xbc61fd8e	-0.013793362
255	0x3d93bae4	0.07213381

layer2.0.bias f4 [16]
0	0xbda30057	-0.07959049
1	0xbc9ddb19	-0.019269513
2	0x3da32b95	0.07967297
3	0x3d92b156	0.071627304
4	0x3cd824c7	0.026384724
5	0x3d8cb2c0	0.06870031
6	0x3c91a756	0.017779987
7	0xbc0a4440	-0.008439124
8	0x3d9280ec	0.07153496
9	0x3cef8e2a	0.029242594
10	0xbc097dba	-0.008391792
11	0x3ca3aad6	0.019978922
12	0xbd513fe5	-0.051086325
13	0xbc7b1de7	-0.0153269535
14	0xbd2faefc	-0.042891487
15	0x3c4d97f6	0.012548437

layer2.1.weight f4 [16]
0	0x3f7eda1f	0.99551576
1	0x3f80d466	1.0064819
2	0x3f7ee4f4	0.99568105
3	0x3f81bc22	1.0135539
4	0x3f7f5e36	0.9975313
5	0x3f8055ec	1.0026221
6	0x3f7e036c	0.9922397
7	0x3f81ac78	1.0130758
8	0x3f7b9d9f	0.98287386
9	0x3f8591a5	1.0435072
10	0x3f7edc38	0.9955478
11	0x3f75f459	0.9607597
12	0x3f7b74a9	0.98224884
13	0x3f82bc40	1.0213699
14	0x3f7f753d	0.99788266
15	0x3f8105d3	1.0079902

layer2.1.bias f4 [16]
0	0xbca66cd8	-0.020315573
1	0xbc7f978f	-0.015600099
2	0xbbfec55c	-0.007774992
3	0xbc6477f4	-0.013944615
4	0xbc4c069c	-0.012452748
5	0xbb962634	-0.004582191
6	0xbcb63050	-0.022239834
7	0x3a5cf66b	0.0008429053
8	0xbcfa426f	-0.030549256
9	0xbc5c7ade	-0.013457028
10	0xbc28ceae	-0.0103031825
11	0xbd1aafaa	-0.037765183
12	0xbd09fc6f	-0.033688005
13	0xbc828800	-0.01593399
14	0x3c2fbf53	0.010726768
15	0xbc723b1b	-0.0147846

layer3.0.weight f4 [64, 16, 3, 3]
0	0xbcded09a	-0.027199078
1	0x3ac84094	0.0015278035
2	0xbe0fe1cb	-0.14050977
3	0x3d32fa47	0.043695714
4	0xbd848ef2	-0.06472577
5	0x3cc45d50	0.023970276
6	0x3d1faf33	0.038985442
7	0x3ce932d9	0.028466629
8	0x3daf9a38	0.08574337
9	0xbd48e2e2	-0.049044497
10	0x3caf62c4	0.0214094
11	0xbded5098	-0.11587638
12	0xbd331fa2	-0.04373134
13	0x3d2daba5	0.04240002
14	0xbd5a6081	-0.05331469
15	0x3db5cd69	0.088770695
16	0x3db8b1a6	0.09018259
17	0xbb1906be	-0.0023349966
18	0x3c03709e	0.0080224555
19	0x3cb03d45	0.02151359
20	0xbd8da15f	-0.06915545
21	0xbd0b0c25	-0.03394713
22	0x3d2f485e	0.042793624
23	0x3d891ab5	0.06694547
24	0x3da503de	0.08057378
25	0x3db6bcfc	0.08922765
26	0x3daa3879	0.083115526
27	0x3d410987	0.047128227
28	0x3dace90e	0.08442889
29	0x3c856bb4	0.016286708
30	0xbd15b1c2	-0.036546476
31	0xbd35bf98	-0.04437217
32	0x3d94c7c6	0.07264666
33	0xbc55288c	-0.013010155
34	0xbd4557fe	-0.04817962
35	0xbc9bf44b	-0.019037386
36	0xbb9dfd0c	-0.0048214253
37	0xbdc573b0	-0.09641206
38	0x3c645700	0.013936758
39	0xb9e3ff00	-0.00043486804
40	0xbd5149ac	-0.05109565
41	0x3d5192a3	0.051165234
42	0xbc5e40ce	-0.013565255
43	0x3d822be5	0.063560285
44	0x3d9bacc0	0.07601309
45	0xbd3cb956	-0.046075188
46	0x3d9db008	0.07699591
47	0xbd225b5c	-0.03963791
48	0x3a0e391e	0.0005425381
49	0x3d48e461	0.049045924
50	0xbdc31b50	-0.09526694
51	0xbcccbdb5	-0.024992803
52	0xbd8817fc	-0.066452
53	0xbbbf5c2f	-0.0058398466
54	0xbcf3d724	-0.029765673
55	0xbd88fcd1	-0.06688846
56	0x3d006be3	0.03135289
57	0xbdc9747a	-0.09836669
58	0x3d0d757c	0.03453587
59	0xbc93cc9a	-0.018041898
60	0xbc0971d6	-0.008388957
61	0x3da1e38a	0.07904728
62	0xbaceebb3	-0.0015786797
63	0x3d6b6ca0	0.05747664
64	0xbddcf16c	-0.10788235
65	0xbd81a276	-0.06329815
66	0x3c617ce7	0.013762689
67	0x3d759c40	0.059963465
68	0x3c9dfaf3	0.019284701
69	0x3dad55f8	0.08463663
70	0x3d8ffcab	0.070306145
71	0xbd6f9d5c	-0.05849968
72	0x3d0e6b0c	0.034770057
73	0xbd9c7e7f	-0.07641315
74	0xbdb0cf3c	-0.08633277
75	0xbd041247	-0.032243993
76	0x3d0a3ec9	0.033751283
77	0x3d80243f	0.062569134
78	0xbd7ade9b	-0.06124745
79	0x3da971fe	0.082736954
80	0xbd926344	-0.0714784
81	0xbdb0f51c	-0.08640501
82	0xbcd47622	-0.025935236
83	0xbdcc810f	-0.099855535
84	0x3c20ad05	0.009806876
85	0xbcf6f55a	-0.03014629
86	0xbba3994f	-0.004992641
87	0x3d239deb	0.039945524
88	0xbd33e833	-0.043922614
89	0x3dac7f21	0.084226854
90	0x3d9bcc67	0.07607346
91	0xbcab6a84	-0.020924814
92	0xbd8cbbe4	-0.06871775
93	0xbd6b4d2c	-0.057446644
94	0xbd172857	-0.036903705
95	0xbbc64a05	-0.0060513043
96	0x3b624e65	0.003453159
97	0x3cacbc8b	0.021085998
98	0xbd429c18	-0.047512144
99	0x3cf94bba	0.030431617
100	0xbd03c16f	-0.032166895
101	0xbc929bf7	-0.017896635
102	0xbce40010	-0.027832061
103	0xbda3076b	-0.07960399
104	0x3b449bdc	0.0030000126
105	0x3d18d5ab	0.037313145
106	0x3d2ebf7c	0.042663082
107	0xbd75f38d	-0.06004672
108	0x3c0ee95d	0.00872263
109	0x3d61a743	0.055091154
110	0x3db716b7	0.089398794
111	0xbca2b643	-0.0198623
112	0xbd157962	-0.036492713
113	0xbd8a897f	-0.067645065
114	0x3d159986	0.036523364
115	0xbc951ea2	-0.018203083
116	0xbd453997	-0.048150625
117	0x3d9c563b	0.07633635
118	0x3d8e7c0f	0.06957256
119	0x3da7b628	0.081890404
120	0xbd2e81d3	-0.04260428
121	0xbcc6fc51	-0.024290236
122	0x3d019b7b	0.03164242
123	0x3d4bf211	0.0497914
124	0x3d8ddb1c	0.069265574
125	0x3d485379	0.04890773
126	0x3d4ae540	0.049535036
127	0x3ddd7803	0.10813906
128	0x3c98fa93	0.01867417
129	0xbd8e18ee	-0.06938349
130	0xbcaaae11	-0.020834954
131	0xbd403101	-0.046921734
132	0x3cebc62d	0.028781021
133	0x3d092846	0.033485673
134	0xbc808c37	-0.01569186
135	0xbdbfea16	-0.0937082
136	0xbd7ae3e8	-0.061252505
137	0xbd75ec58	-0.060039848
138	0xbd4f4322	-0.050601132
139	0xbcbdc7f3	-0.023166632
140	0x3d56cef5	0.052443463
141	0x3c9dd4de	0.019266542
142	0x3da3415c	0.07971451
143	0xbd254470	-0.04034847
144	0xbcceede6	-0.025259923
145	0xbd9077f3	-0.070541285
146	0x3d233dcf	0.039853867
147	0xbd359139	-0.04432795
148	0x3d04539e	0.032306306
149	0x3b882bc7	0.0041556093
150	0xbcc86f74	-0.024467207
151	0x3daa4ed8	0.083158195
152	0x3d953d00	0.072870255
153	0xbca4401d	-0.020050103
154	0x3d82656f	0.06367003
155	0x3c88b78b	0.016689083
156	0x3d91c347	0.07117324
157	0x3d5f6cb9	0.054547045
158	0xbd7b9c4c	-0.061428353
159	0x3da727c3	0.08161881
160	0x3c96a425	0.018388817
161	0xbd8287d1	-0.06373561
162	0x3cc8fa66	0.024533462
163	0x3d84770f	0.06468021
164	0xbd5a03da	-0.05322633
165	0x3a99ca02	0.0011733177
166	0xbc3c560d	-0.0114951255
167	0xbd3d8190	-0.04626614
168	0x3d648fc0	0.055801153
169	0x3d10db6f	0.03536552
170	0xbc9a762e	-0.01885518
171	0x3d804767	0.06263619
172	0x3dcb717d	0.099337555
173	0x3dd45ab1	0.103688605
174	0xbcf34b8e	-0.029699113
175	0x3d843b81	0.06456662
176	0x3d30d0bb	0.04316781
177	0x3d3bc6fd	0.045844067
178	0xbb12773d	-0.0022348904
179	0x3cba0fc8	0.022712603
180	0x3d87e758	0.06635922
181	0xbd956b71	-0.072958834
182	0xbd2720bf	-0.040802713
183	0xbd29c097	-0.041443434
184	0x3cb286f5	0.021792868
185	0x3ca158b2	0.019695614
186	0xbda05055	-0.07827822
187	0x3daf3d87	0.08556657
188	0x3d07b0e2	0.033127673
189	0xbd8cae5d	-0.06869195
190	0xbc0fa648	-0.008767672
191	0xbd41ad99	-0.047284696
192	0x3c4c876e	0.012483461
193	0x3d6956bc	0.056967482
194	0x3ca07b4f	0.019590048
195	0x3d7747cf	0.060371216
196	0x3b62944b	0.0034573253
197	0x3cc7b875	0.024379948
198	0xbd1442e7	-0.036196616
199	0xbc619de6	-0.013770556
200	0x3d8572a1	0.06516004
201	0x3d2d16c4	0.04225804
202	0xbd9791e2	-0.07400872
203	0xbd6caf5f	-0.057784434
204	0x3c7c1c6f	0.0153876385
205	0xbd119e9a	-0.035551645
206	0x3db9dc9a	0.090752795
207	0xbcb94a5f	-0.02261847
208	0xbb6a7c50	-0.0035779662
209	0xbbee5b36	-0.007274057
210	0xbda85761	-0.08219791
211	0x3dabb93d	0.08384941
212	0x3d646f88	0.055770427
213	0xbcc53e80	-0.024077654
214	0x3d12b34c	0.035815522
215	0xbd9b35f9	-0.07578654
216	0xbd48475d	-0.048896182
217	0xbd8eb964	-0.06968954
218	0x3d3ce5cf	0.0461176
219	0xbd962b85	-0.073325194
220	0xbd02dcef	-0.03194898
221	0x3d928f98	0.071562946
222	0x3cf2f605	0.029658327
223	0x3db94d20	0.090479136
224	0xbca36041	-0.019943358
225	0xbd52d3f6	-0.051471673
226	0x3c538c1f	0.012911825
227	0x3d0da7a3	0.0345837
228	0xbd91e051	-0.07122863
229	0x3dc447d0	0.0958401
230	0xbd27d093	-0.040970396
231	0x3db98847	0.09059196
232	0xbd2f9b68	-0.042872816
233	0x3d93a7e2	0.072097555
234	0x3c5a60db	0.013328756
235	0x3cfc8ea1	0.03082973
236	0xbc858bf8	-0.016302094
237	0x3da01910	0.0781728
238	0x3d0a3550	0.03374225
239	0xbd245dc3	-0.04012848
240	0xbd89105d	-0.06692574
241	0x3c94966e	0.018138137
242	0x3c53d56d	0.012929303
243	0x3da02c42	0.078209415
244	0x3c72fc8e	0.014830722
245	0xbd6686b3	-0.056280803
246	0xba664bf8	-0.0008785124
247	0xbd714e95	-0.058912832
248	0x3c81a5cd	0.01582613
249	0xbb07ecfb	-0.0020740617
250	0x3b32ee0b	0.002730253
251	0xbd5baf21	-0.053633813
252	0xbd23cb53	-0.039988827
253	0x3d22eef9	0.039778683
254	0x3d63cf6d	0.05561774
255	0xbd43ccd4	-0.04780276

layer3.0.bias f4 [64]
0	0x3b9b8f3b	0.004747299
1	0x3db1a171	0.08673371
2	0x3d8c6f17	0.06857126
3	0xbd3d6369	-0.046237383
4	0x3d7aac8e	0.061199717
5	0x3c81f321	0.015863003
6	0xbb3aa448	-0.0028479267
7	0x3ccdd905	0.025127897
8	0xbd8c169c	-0.0684025
9	0x3dad0877	0.0844888
10	0xbd580a38	-0.05274412
11	0xbcd401d2	-0.025879774
12	0x3c71904e	0.014743878
13	0xbd270cbb	-0.040783625
14	0xbccb28e6	-0.024799775
15	0x3db8e136	0.090273306
16	0x3db0b7f7	0.086288385
17	0x3d272e83	0.04081584
18	0x3bd5601d	0.0065117017
19	0x3d61955a	0.055074073
20	0x3c9592e4	0.01825852
21	0x3b7a4f5b	0.0038194272
22	0x3c2b75b4	0.010465074
23	0x3c8eb89e	0.017422017
24	0xbca8595e	-0.020550426
25	0xbd36a742	-0.044593103
26	0x3da34e0f	0.07973873
27	0x3c759004	0.014987949
28	0xbc990cf5	-0.018682936
29	0x3d7a0dd6	0.06104835
30	0x3d856040	0.06512499
31	0x3bd9a012	0.0066413963
32	0x3d6a0a06	0.057138465
33	0xbce395fe	-0.027781483
34	0xbd42e75d	-0.047583926
35	0xbd615e01	-0.05502129
36	0xbda3ff5d	-0.08007691
37	0xbdaca11d	-0.084291674
38	0x3d89c8ce	0.067277536
39	0x3d983937	0.07432788
40	0x3da136ae	0.078717574
41	0x3d23a558	0.039952606
42	0xbd3ccb36	-0.046092235
43	0xbd968f3c	-0.073515385
44	0xbc4ac44a	-0.0123759005
45	0xbd8ba3b8	-0.06818336
46	0xbd8ca2af	-0.06866967
47	0x3d790f9a	0.060805894
48	0xbd67c8de	-0.056588046
49	0xbd8d3332	-0.0689453
50	0x3c22d06c	0.009937387
51	0xbdb52f2f	-0.0884689
52	0x3d94466a	0.07239993
53	0x3d865723	0.06559589
54	0xbbeeb3c1	-0.007284612
55	0xbce95583	-0.028483158
56	0xba5e9db3	-0.0008492127
57	0x3d8e5792	0.069502965
58	0xbd044bd7	-0.03229889
59	0x3b8f1f0e	0.0043677157
60	0xbd203b03	-0.039118778
61	0x3da5d535	0.08097307
62	0x3c06dbfc	0.008231159
63	0xbcfe5e79	-0.031050907

layer3.1.weight f4 [64]
0	0x3f82d705	1.0221869
1	0x3f8090ab	1.0044149
2	0x3f7ed29f	0.9954013
3	0x3f7fb3b9	0.9988361
4	0x3f7aa8c6	0.9791378
5	0x3f7db338	0.9910159
6	0x3f7bfbe7	0.9843125
7	0x3f807bdd	1.00378
8	0x3f81adc4	1.0131154
9	0x3f815fe1	1.0107385
10	0x3f8186f2	1.0119307
11	0x3f7e810a	0.9941565
12	0x3f809f05	1.0048529
13	0x3f80d011	1.0063497
14	0x3f81c79d	1.0139042
15	0x3f85c2d0	1.0450077
16	0x3f7381cb	0.95119923
17	0x3f827ddd	1.019466
18	0x3f8189d0	1.0120182
19	0x3f7d3342	0.9890634
20	0x3f7525aa	0.95760596
21	0x3f7ff5e9	0.99984604
22	0x3f80a943	1.0051655
23	0x3f813792	1.0095084
24	0x3f80f7d5	1.0075632
25	0x3f807263	1.0034908
26	0x3f8070fe	1.0034482
27	0x3f7d7f59	0.9902244
28	0x3f80c2bc	1.0059428
29	0x3f82b725	1.0212141
30	0x3f82b05f	1.0210074
31	0x3f7ac13f	0.9795112
32	0x3f7fdf94	0.9995053
33	0x3f88d1f3	1.0689071
34	0x3f7edf34	0.9955933
35	0x3f7e0675	0.992286
36	0x3f7bbea2	0.9833776
37	0x3f807ff8	1.0039053
38	0x3f818ffc	1.0122066
39	0x3f7e788b	0.99402684
40	0x3f817bc3	1.0115894
41	0x3f8038fd	1.0017391
42	0x3f82449b	1.0177187
43	0x3f804d24	1.0023541
44	0x3f7fbd55	0.9989827
45	0x3f78dfcb	0.9721648
46	0x3f801098	1.0005064
47	0x3f7af422	0.9802877
48	0x3f7a567d	0.9778822
49	0x3f80cd4f	1.0062655
50	0x3f8037dd	1.0017048
51	0x3f7b58dc	0.98182464
52	0x3f837dc6	1.0272758
53	0x3f7fcd75	0.9992288
54	0x3f7e531e	0.99345577
55	0x3f81f4b7	1.0152806
56	0x3f7b12e0	0.98075676
57	0x3f7969f8	0.9742732
58	0x3f7e8713	0.99424857
59	0x3f826903	1.0188297
60	0x3f812305	1.0088812
61	0x3f8088d1	1.0041753
62	0x3f7f21af	0.9966077
63	0x3f7f9b64	0.9984648

layer3.1.bias f4 [64]
0	0xbbe6c204	-0.0070421714
1	0x3a0379b1	0.0005015387
2	0xbbd0356f	-0.006354026
3	0xbc05dea4	-0.008170757
4	0xbd0d9a42	-0.03457094
5	0xbcc7ccfb	-0.024389734
6	0xbcd10fba	-0.025520194
7	0xbb4645d2	-0.0030254018
8	0xbc8873f4	-0.016656853
9	0xbb84313c	-0.0040341895
10	0xbcd1b2db	-0.02559798
11	0xbc4e589c	-0.012594368
12	0xbbcbeedb	-0.006223542
13	0xbc252dbd	-0.010081706
14	0xbb75814b	-0.0037461098
15	0x3c87609c	0.01652556
16	0xbce17788	-0.027522817
17	0xbc197ff5	-0.009368886
18	0xbc00bdc4	-0.007857744
19	0xbc930cbd	-0.01795041
20	0xbd0c7a9f	-0.034296628
21	0xbc0a65ef	-0.008447154
22	0xbc5db42e	-0.013531728
23	0xbc6e542b	-0.014546434
24	0x3ad6bda7	0.0016383425
25	0xbc9fccf0	-0.019506902
26	0x3bcae20f	0.006191499
27	0xbcc270ae	-0.02373537
28	0xbc14c056	-0.00907906
29	0xbc4567ec	-0.012048703
30	0x3a43a0bc	0.0007462611
31	0xbcbdfdd8	-0.023192331
32	0xbc954844	-0.018222935
33	0xbc15f62d	-0.009152931
34	0xbc1f7f5a	-0.009734953
35	0xbc72b492	-0.014813559
36	0xbcb2e55e	-0.021837886
37	0xbc2c9205	-0.010532861
38	0xba5d8141	-0.0008449741
39	0xbbf8cd29	-0.0075928164
40	0xbb824fc2	-0.003976793
41	0xbb49ab36	-0.0030772216
42	0xbc255e5e	-0.0100933
43	0xbb8d5a9e	-0.004313781
44	0xb9bc65b6	-0.00035933935
45	0xbcde848b	-0.02716281
46	0xbbf3b158	-0.0074369125
47	0xbc88b46b	-0.016687592
48	0xbce1111f	-0.027473984
49	0xbc4fd5a9	-0.012685218
50	0xbb944ee0	-0.004526004
51	0xbd0c5b5c	-0.034266815
52	0x3ae52bc0	0.0017484352
53	0xbce919f6	-0.028454762
54	0xbbf277ea	-0.007399549
55	0xbb8a5b28	-0.0042222925
56	0xbd0200fe	-0.031739227
57	0xbc8f283c	-0.01747524
58	0xbccc52c5	-0.024941811
59	0x3bc6b7c3	0.0060643866
60	0xbc17714c	-0.009243321
61	0xbc9600bb	-0.018310895
62	0xbc966640	-0.018359303
63	0xbc8fdbe5	-0.017560909

layer4.0.weight f4 [64, 64, 3, 3]
0	0x3bc10012	0.005889901
1	0x3a837940	0.0010030642
2	0xbb5d0231	-0.003372323
3	0x3c8cb713	0.01717714
4	0xbcabca33	-0.02097044
5	0x3c4554fa	0.012044186
6	0xbbb2f159	-0.0054609
7	0x3d28756d	0.04112761
8	0xbab51d5a	-0.0013817952
9	0xbd1ec5f6	-0.03876301
10	0x3cfedcd0	0.031111151
11	0x3c0a0748	0.008424588
12	0xbccf756b	-0.025324544
13	0x3d3db7cf	0.04631787
14	0x3d03afc6	0.032150052
15	0x3d1fbf5e	0.03900086
16	0x3c907a53	0.017636454
17	0xbb224518	-0.0024760421
18	0xbc45248a	-0.012032637
19	0x3d6c478a	0.057685412
20	0x3d2ab612	0.041677542
21	0x3d055131	0.032548133
22	0xbd1f92ee	-0.038958482
23	0x3c1d4626	0.009599244
24	0x3cb6c657	0.022311373
25	0xb9d764ff	-0.00041083244
26	0xbd14e5d5	-0.036351997
27	0xbcd06126	-0.025436949
28	0x3ce3faea	0.027829606
29	0xbcaca622	-0.021075312
30	0x3b79325c	0.0038024401
31	0x3d467029	0.048446808
32	0x3ca562c2	0.020188693
33	0x3b2e7542	0.0026620184
34	0xbcf11858	-0.029430553
35	0xbcdf7121	-0.027275624
36	0x3cd521b5	0.02601705
37	0x3cfc71d0	0.030815989
38	0x3c9d988a	0.019237775
39	0xbcda905a	-0.02668016
40	0x3c5af026	0.01336292
41	0xbd054099	-0.03253231
42	0x3bcf4748	0.006325636
43	0x3a01ec19	0.0004956141
44	0x3cce0fa1	0.025153937
45	0xbcf00ed2	-0.029303942
46	0xbce37e04	-0.02777005
47	0x3d14e247	0.036348607
48	0xbc8bc4c2	-0.017061595
49	0x3cf77604	0.030207641
50	0xbc58ed2d	-0.013240141
51	0xbcd41f32	-0.025893781
52	0xbcdae616	-0.026721042
53	0x3d019d61	0.03164423
54	0xbccc0f84	-0.024909742
55	0x3b5d0fb9	0.0033731295
56	0xbcd3f536	-0.025873762
57	0xbd2c7575	-0.042104203
58	0x3d0044f6	0.031315766
59	0x3d08d963	0.03341044
60	0x3d3b17c9	0.04567698
61	0xbbc6fdc0	-0.00607273
62	0xbd36982e	-0.044578724
63	0xbd28322e	-0.04106348
64	0xbcf7cc1d	-0.030248696
65	0xbdc2a83f	-0.09504747
66	0x3cc300aa	0.023804028
67	0x3c10e6fe	0.008844135
68	0xbda4adec	-0.080409855
69	0x3bb04a78	0.005379971
70	0x3d0c647d	0.03427552
71	0xba9f813a	-0.001216925
72	0x3cf46c2d	0.029836738
73	0x3cca03c4	0.024659999
74	0x3d043dbc	0.032285437
75	0xbb841eed	-0.004032007
76	0x3a30b1db	0.000674037
77	0x3b8c59e8	0.0042831786
78	0xbd00be86	-0.031431697
79	0x3caea9cb	0.021321198
80	0x3cfc57a1	0.030803503
81	0x3cd8f850	0.026485592
82	0xbcecdbf6	-0.02891348
83	0xbc930466	-0.017946433
84	0xbb30dd61	-0.002698742
85	0xbcc1d9df	-0.02366346
86	0xbc87c486	-0.016573202
87	0x3ae73912	0.001764091
88	0x3c127f25	0.008941446
89	0xbd1fcb16	-0.039012037
90	0xbcd4a179	-0.025955902
91	0xbc9622c6	-0.018327128
92	0xbd15e2dc	-0.036593303
93	0x3cb0e294	0.021592416
94	0xbd533fda	-0.051574565
95	0xbd8f28ad	-0.0699018
96	0xba9d6795	-0.0012009019
97	0xbc306203	-0.010765555
98	0x3d06a2a8	0.032869965
99	0xbcb590bd	-0.022163743
100	0x3d24222c	0.04007165
101	0x3d2f1d56	0.042752586
102	0x3b44b209	0.0030013344
103	0xbc42e8f5	-0.011896362
104	0x3d63b849	0.05559567
105	0xbcdae4b5	-0.026720384
106	0x3d158689	0.036505256
107	0xbbf3de26	-0.0074422536
108	0x3c3998e9	0.0113279605
109	0x3c91c490	0.017793924
110	0xbd2eb915	-0.042656977
111	0x3ca3be08	0.019988075
112	0xbb84121e	-0.00403048
113	0xbd045a78	-0.03231284
114	0xbbb90bc0	-0.0056471527
115	0x3cfbb1ee	0.030724492
116	0x3cc3abb6	0.02388559
117	0x3ceaed77	0.028677685
118	0x3b683fca	0.0035438412
119	0xbd8cc78b	-0.06873997
120	0xbc418cd3	-0.01181336
121	0x3be60926	0.0070201335
122	0xbb418a85	-0.0029532027
123	0xbd00d86d	-0.0314564
124	0x3d10aded	0.03532212
125	0xbd06b607	-0.03288844
126	0xbd0777ed	-0.033073355
127	0x3c492db0	0.012278959
128	0x3c743eb6	0.01490753
129	0x3bd5e1d7	0.0065271663
130	0x3c980b9f	0.018560229
131	0x3ce5c19d	0.028046424
132	0xbca9460f	-0.02066329
133	0xbcaa0ad8	-0.020757124
134	0x3c55e6c4	0.013055507
135	0xbd212f8e	-0.039351992
136	0xbc5fcd40	-0.013659775
137	0xbbab6eba	-0.0052317055
138	0xbb9a443d	-0.0047078417
139	0x3cef63f6	0.02922247
140	0xbd4203ae	-0.04736679
141	0x3d23eedf	0.040022727
142	0x3c67a888	0.014139302
143	0x3d0de4ff	0.034642216
144	0x3c94f7d9	0.01818459
145	0x3d475418	0.048664182
146	0x3c16cc8f	0.009204044
147	0x3cf3a989	0.029743927
148	0x3d1b90b8	0.03797981
149	0xbc8b372c	-0.016994081
150	0xbc05a712	-0.008157508
151	0xbd09fa22	-0.03368581
152	0xbd13f79d	-0.036124814
153	0xbc21accb	-0.009867857
154	0xbc2eefe3	-0.010677311
155	0x3b8e6429	0.004345436
156	0x3aaa4726	0.0012991175
157	0x3d9664be	0.07343434
158	0x3c7e5b57	0.015524707
159	0x3cd1679c	0.0255621
160	0xbccf792c	-0.025326334
161	0x3d951fb2	0.07281436
162	0x3d37a3c9	0.044833932
163	0xbc241c27	-0.010016478
164	0x3d3e05b5	0.04639216
165	0x3d190986	0.037362598
166	0xbcc3c891	-0.023899348
167	0xbca13509	-0.01967861
168	0xbd11c5cc	-0.035589024
169	0xbc79664b	-0.015222142
170	0xbbde5dfa	-0.006786105
171	0x3cc1a455	0.02363793
172	0x3c89c5b3	0.016817903
173	0xbc2f10a7	-0.010685123
174	0xbd08e0e6	-0.033417605
175	0x3c9540d4	0.018219389
176	0x3d31da15	0.04342087
177	0x3d2486cb	0.04016761
178	0x3c2d66e1	0.01058361
179	0x3cd7f11d	0.026360089
180	0xbd113186	-0.03544762
181	0x39da14d0	0.00041595707
182	0xbc343926	-0.010999953
183	0xbc415908	-0.011801012
184	0xba88296c	-0.0010388321
185	0x3cc936c6	0.02456225
186	0xbcf1ee4e	-0.029532578
187	0x3b3783bc	0.0028002104
188	0x3cdac12f	0.026703445
189	0xbce00b6a	-0.027349193
190	0x3d335bff	0.043788906
191	0x3d67bcff	0.056576725
192	0xbce27526	-0.027643751
193	0xbd01acc9	-0.03165892
194	0x3d0cb855	0.03435548
195	0x3c9bdbf0	0.019025773
196	0xbbf560f3	-0.007488364
197	0x3cc2b645	0.023768554
198	0x3d230669	0.039801035
199	0x3c0f39fc	0.008741852
200	0xbc6a0e81	-0.014285685
201	0x3c112d7a	0.00886094
202	0x3b8139dc	0.003943665
203	0x3b6e28d2	0.0036340249
204	0xbc2971c8	-0.010342069
205	0xbd82cf85	-0.063872375
206	0x3c4ff3d0	0.012692407
207	0xbca9f836	-0.020748239
208	0x3b166b44	0.002295212
209	0xbd1a02ea	-0.037600435
210	0xbcb374cd	-0.02190628
211	0x3cdbf138	0.02684842
212	0xbd2fc9f9	-0.042917226
213	0x3cd4d420	0.025980055
214	0x3c3f0326	0.0116584655
215	0x3c88e977	0.016712887
216	0x3c337aa0	0.010954529
217	0x3b8c7352	0.004286208
218	0xbc9c6b57	-0.019094152
219	0xbd3c2270	-0.04593128
220	0x3d093233	0.03349514
221	0xbca6ff93	-0.02038554
222	0x3d191800	0.037376404
223	0x3c1a0d79	0.009402626
224	0xbc6657a0	-0.014058977
225	0x3c98bd74	0.018645026
226	0xbcc1d936	-0.023663145
227	0xbd04a92d	-0.0323879
228	0x3b557321	0.0032569843
229	0x3969f648	0.00022312358
230	0x3b4c1c79	0.00311449
231	0xbd2ea52b	-0.042637985
232	0x3c8ce7d8	0.017200395
233	0x3b205c3b	0.0024469036
234	0xbd8bbca4	-0.0682309
235	0xbc410061	-0.0117798755
236	0xbd5e36dc	-0.054251537
237	0x3c4d457d	0.012528774
238	0xbcdfa252	-0.02729908
239	0xbd1d08bf	-0.03833842
240	0x3b9cc0b4	0.004783714
241	0x3cba3284	0.022729166
242	0xbcba2b0b	-0.022725603
243	0x3b36fa25	0.0027920094
244	0xbd00da2b	-0.03145806
245	0x3c984af1	0.018590422
246	0x3b778f02	0.0037774448
247	0x3d7210ab	0.059097927
248	0xbceed986	-0.029156458
249	0xbd73ce6d	-0.059523035
250	0xbcb0a7f2	-0.021564458
251	0x3bbf8356	0.005844514
252	0x3d008625	0.03137793
253	0xbc2419ef	-0.010015949
254	0xbb75aa98	-0.0037485715
255	0xbcde849b	-0.02716284

layer4.0.bias f4 [64]
0	0x3cccec24	0.025014944
1	0x3bbdd58a	0.005793278
2	0x3c22c496	0.009934565
3	0x3cefc124	0.029266901
4	0xbccd6d7d	-0.025076622
5	0xba81e3c6	-0.0009909801
6	0xba789b3e	-0.0009483582
7	0xbc950bb8	-0.018194064
8	0x3d0d0446	0.034427904
9	0x3b0af62b	0.0021203856
10	0x3cc45ff7	0.02397154
11	0x3b8cd0d3	0.0042973547
12	0xbd4db03a	-0.05021689
13	0x3cf6c8ce	0.030125048
14	0x3ccb1ecc	0.024794959
15	0xbd23c725	-0.03998484
16	0xbc80f3ab	-0.01574119
17	0x3c86752d	0.016413296
18	0x3d2959b3	0.04134531
19	0x3c84856a	0.016176898
20	0xbcfe0490	-0.031008035
21	0x3c905da6	0.01762278
22	0xbcf85388	-0.030313268
23	0xbbfe3ee5	-0.0077589625
24	0xba70034b	-0.0009155764
25	0x3ca2a375	0.019853333
26	0xbc977fc1	-0.018493535
27	0xbd0212db	-0.031756263
28	0x3a330e8e	0.0006830477
29	0xbc5a44c2	-0.013322057
30	0x3c492519	0.012276911
31	0x3cfcf4e0	0.030878484
32	0xbd1a5103	-0.037674915
33	0x3c1c7dbf	0.009551465
34	0x3c95daac	0.018292747
35	0xbd274145	-0.04083373
36	0xbc951871	-0.018200131
37	0xbb051b4e	-0.0020310464
38	0xbd17230a	-0.03689865
39	0xbcf3fd80	-0.029783964
40	0x3d0da68e	0.034582667
41	0xbcf2acec	-0.029623471
42	0x3b43876c	0.0029835356
43	0x3c7a7da6	0.015288746
44	0x3cd14f12	0.025550399
45	0x3cf896b9	0.030345308
46	0x3d050709	0.032477412
47	0xbd3291b7	-0.043595996
48	0x3cb5dd6e	0.022200312
49	0x3cd5fa86	0.026120435
50	0xbcbbec11	-0.022939714
51	0x3b3d1262	0.0028850068
52	0x3d1b1884	0.037865177
53	0xbb8f1ac0	-0.0043672025
54	0x3ca91fd5	0.020645062
55	0x3c1a07a4	0.009401236
56	0x3b92177c	0.004458366
57	0xbb8541b9	-0.0040666726
58	0x3cd37459	0.025812315
59	0x3d1966d6	0.037451588
60	0x3bcbd096	0.0062199337
61	0x3ce97d59	0.028502153
62	0x3c6d0a1b	0.014467741
63	0x3d25381e	0.04033672

layer4.1.weight f4 [64]
0	0x3f81ef1a	1.0151093
1	0x3f7a3caf	0.97748846
2	0x3f7e5ff5	0.9936517
3	0x3f7e107f	0.9924392
4	0x3f80beb5	1.0058199
5	0x3f7f474f	0.99718183
6	0x3f720f55	0.94554645
7	0x3f8255af	1.0182399
8	0x3f830634	1.0236268
9	0x3f83b16f	1.0288523
10	0x3f81f4de	1.0152853
11	0x3f82d0d3	1.0219978
12	0x3f7b6da7	0.9821419
13	0x3f8030b5	1.0014864
14	0x3f7f6526	0.99763715
15	0x3f795050	0.9738817
16	0x3f81d37e	1.0142667
17	0x3f79cd7e	0.9757918
18	0x3f7cab76	0.9869913
19	0x3f82dc1e	1.0223424
20	0x3f7eba18	0.99502707
21	0x3f7fab2e	0.99870574
22	0x3f800d67	1.000409
23	0x3f7ffbdf	0.999937
24	0x3f7e0520	0.9922657
25	0x3f7f54cd	0.9973877
26	0x3f82e9ca	1.0227597
27	0x3f7f9c0c	0.99847484
28	0x3f82ff97	1.023425
29	0x3f781b7f	0.96916956
30	0x3f80989c	1.0046573
31	0x3f7cf859	0.9881645
32	0x3f7a629a	0.97806704
33	0x3f7bd1bd	0.9836691
34	0x3f7b5a3c	0.9818456
35	0x3f75ae88	0.9596944
36	0x3f820349	1.0157253
37	0x3f802528	1.0011339
38	0x3f7c1550	0.9847002
39	0x3f78fde0	0.9726238
40	0x3f7dd46f	0.9915227
41	0x3f8059a7	1.002736
42	0x3f78db7d	0.9720991
43	0x3f8207fe	1.0158689
44	0x3f7f3933	0.99696654
45	0x3f7d43c9	0.98931557
46	0x3f7174f3	0.94319075
47	0x3f7da80f	0.9908456
48	0x3f7c9333	0.9866211
49	0x3f7ce5cd	0.9878815
50	0x3f82a858	1.0207624
51	0x3f82d354	1.0220742
52	0x3f78c8be	0.9718131
53	0x3f836628	1.0265551
54	0x3f77d656	0.96811426
55	0x3f8046ff	1.0021666
56	0x3f715f8c	0.9428642
57	0x3f818533	1.0118774
58	0x3f81bc88	1.013566
59	0x3f80860e	1.004091
60	0x3f7fb28f	0.99881834
61	0x3f8039ef	1.001768
62	0x3f8258ea	1.0183384
63	0x3f7b4326	0.98149335

layer4.1.bias f4 [64]
0	0xbb800618	-0.0039069764
1	0xbcf16b5a	-0.029470135
2	0xbc67dd7b	-0.014151926
3	0xbc8fd65c	-0.01755827
4	0xbaccab62	-0.0015615041
5	0xbca03489	-0.0195563
6	0xbd367a3a	-0.044550158
7	0x3c291c18	0.0103216395
8	0xba11bd3a	-0.0005559508
9	0xbba46d5a	-0.0050179185
10	0xbb5d62dc	-0.0033780849
11	0x3b0a92b4	0.002114457
12	0xbd05d574	-0.032674268
13	0xbc2a86ac	-0.010408085
14	0xbcacf18d	-0.021111274
15	0xbd089ff4	-0.03335567
16	0xbb8652ac	-0.0040992107
17	0xbcc206bb	-0.02368485
18	0xbc24964f	-0.010045602
19	0x3ab191cc	0.0013547479
20	0xbbe737d2	-0.007056215
21	0xbca027bf	-0.019550202
22	0xbaf35154	-0.0018563666
23	0xbc8d3405	-0.017236719
24	0xbc0a342c	-0.00843529
25	0xbcc75d4c	-0.02433648
26	0xbc0cce39	-0.008594089
27	0xbbb2ba0a	-0.0054543065
28	0x3b5dc45e	0.0033838968
29	0xbcc505e0	-0.024050653
30	0xbbdc6e9d	-0.0067270533
31	0xbb5a78d6	-0.0033336184
32	0xbd20d8ce	-0.03926926
33	0xbca9b65a	-0.020716835
34	0xbcb5b362	-0.022180263
35	0xbd06b860	-0.032890677
36	0xbc170462	-0.009217354
37	0xbbdb5d54	-0.006694475
38	0xbc9b137f	-0.018930195
39	0xbc81946b	-0.015817842
40	0xbc1be7f5	-0.009515752
41	0xbccc9e0d	-0.024977708
42	0xbd25fdaa	-0.040525116
43	0xbb6ce8de	-0.0036149542
44	0xbc66a9b6	-0.014078548
45	0xbc51b619	-0.012799763
46	0xbd803fca	-0.06262167
47	0xbca72ca2	-0.020407025
48	0xbc5949b3	-0.0132622
49	0xbc24a43c	-0.010048922
50	0x3a971047	0.0011525237
51	0xbc315dee	-0.010825617
52	0xbc82281b	-0.015888264
53	0xbc7025a3	-0.014657411
54	0xbc870a09	-0.016484277
55	0xbb9e0cf2	-0.0048233205
56	0xbca046be	-0.019564983
57	0xbb5ac80b	-0.0033383395
58	0x3af64344	0.0018788357
59	0xbc312742	-0.010812582
60	0xbbd5114b	-0.0065023056
61	0x3b43e80a	0.0029892945
62	0xbc730196	-0.014831921
63	0xbc84bd94	-0.01620368

layer5.0.weight f4 [64, 64, 3, 3]
0	0xbc5cf7ff	-0.013486861
1	0x3a19034c	0.0005836978
2	0xbc12d752	-0.008962469
3	0xbd3be29f	-0.04587042
4	0xbc9d1e25	-0.019179413
5	0xbd31107e	-0.04322862
6	0xbd31f6fc	-0.043448433
7	0xbd2a395c	-0.04155861
8	0xbc04ee46	-0.008113449
9	0xbbdc969d	-0.0067318217
10	0x3cf3ebed	0.029775584
11	0xbd328bd8	-0.043590397
12	0x3c0c5eb6	0.008567503
13	0x3b5739ec	0.003284092
14	0x3c80b581	0.015711548
15	0xbc68cabe	-0.014208494
16	0xbc96759c	-0.018366627
17	0x3d1da1f4	0.03848453
18	0xbc12d679	-0.008962267
19	0x3ca9ec5a	0.020742584
20	0xbcbcb727	-0.023036553
21	0x3d02ba7f	0.031916138
22	0x3c776bd9	0.0151013965
23	0xbc21beae	-0.009872122
24	0xbcd1f1d8	-0.025628015
25	0x3b9d6607	0.0048034224
26	0xbc949a32	-0.018139932
27	0x3ccaa743	0.02473796
28	0x3c14f105	0.009090667
29	0xbcbd3727	-0.023097588
30	0xbd104084	-0.035217777
31	0x3caa9a65	0.020825574
32	0xbc14d99f	-0.009085088
33	0xbd0dad3b	-0.034589034
34	0xbc7675ad	-0.0150427045
35	0xbbe5f6a0	-0.0070179254
36	0x3c8d382a	0.017238695
37	0x3d37f6f6	0.044913255
38	0x3d3faf7c	0.046798214
39	0x3c583398	0.013195895
40	0x3d3e816c	0.046510145
41	0x3d51a6bc	0.0511844
42	0x3c1cdd8f	0.009574308
43	0x3d12f4dc	0.035878047
44	0xbb93fce7	-0.0045162323
45	0xbc4232c6	-0.011852926
46	0xbd22915e	-0.039689414
47	0xbd664738	-0.056220263
48	0x3cd9a73d	0.026569003
49	0x3c6ce187	0.014458067
50	0xb9c7184a	-0.00037974335
51	0xbcea830b	-0.02862694
52	0xbd1d1b1c	-0.03835593
53	0xbb7c447c	-0.0038492968
54	0x3beeb9d5	0.0072853365
55	0xbc0e5c5a	-0.0086890105
56	0xbd72ebac	-0.059306785
57	0x3c7423b4	0.01490109
58	0xbd0a5660	-0.03377378
59	0xbd392c45	-0.045208234
60	0x3c1293aa	0.008946339
61	0xbc8c994a	-0.017162938
62	0xbcd030bc	-0.025413863
63	0xbc30aa8a	-0.010782847
64	0x3c206ae8	0.009791113
65	0xbd121a77	-0.03566977
66	0xbcc15509	-0.023600118
67	0x3c618197	0.013763807
68	0x3c8e0ee8	0.017341092
69	0xbc5edad1	-0.013601975
70	0x3d16dc8e	0.03683143
71	0x3cbe7a05	0.023251543
72	0xbbbbaa47	-0.0057270858
73	0xbbb8ebf3	-0.0056433617
74	0x3d5c7083	0.053818237
75	0xbd1dcfda	-0.0385283
76	0xbd032147	-0.032014158
77	0x3d28f9bb	0.041253787
78	0xba391999	-0.0007061004
79	0xba82ac62	-0.0009969587
80	0x3c060608	0.008180149
81	0x3d0631b8	0.03276226
82	0xbce20e4a	-0.027594704
83	0x3c1d8267	0.00961361
84	0xbc833840	-0.016018033
85	0x3cd6ed28	0.026236132
86	0xbd0bebe0	-0.034160495
87	0x3d079ee6	0.03311052
88	0x3d08c861	0.03339422
89	0x3c92f3c7	0.017938508
90	0x3cb1221d	0.021622712
91	0x3b8e4c53	0.0043425946
92	0x3c189cc3	0.009314719
93	0xbbfa1e9a	-0.0076330425
94	0xbcd22aa2	-0.025655095
95	0x3d0f6b61	0.035014514
96	0xbcaa277b	-0.020770779
97	0xbd468b8e	-0.048472933
98	0xbce1ec66	-0.027578544
99	0xbd0ef7a9	-0.034904156
100	0xbc177d56	-0.009246191
101	0x3cc2c9c7	0.023777856
102	0x3c6c1685	0.014409666
103	0xbc136623	-0.008996519
104	0x3bb74ead	0.0055940957
105	0xbb1e6d9e	-0.0024174224
106	0x3cb24cf9	0.021765219
107	0xbce7f544	-0.028315194
108	0x3c770873	0.015077698
109	0xbb1568ac	-0.0022797985
110	0x3d2f7a83	0.042841446
111	0x3d7d0e70	0.061781347
112	0x3d1e3705	0.03862669
113	0x3d8700c9	0.06591947
114	0x3c91c8dd	0.017795974
115	0xbce35f8f	-0.027755527
116	0x3c2abc16	0.01042082
117	0xbcbc16cc	-0.02296009
118	0x3cb57bf3	0.02215383
119	0xbd5e6d56	-0.05430349
120	0xbd21e78e	-0.03952747
121	0x3cf3d29a	0.029763509
122	0x3c5f9921	0.013647349
123	0xbcfc2c57	-0.030782862
124	0x3d1c70b4	0.03819342
125	0x3b6a01d6	0.003570666
126	0x3bcb937a	0.006212649
127	0x3c39d0e2	0.011341305
128	0x3cdcd920	0.026959002
129	0xbcb38bfc	-0.021917336
130	0x3bc6f68c	0.006071871
131	0x3d1af1be	0.0378282
132	0xbbbb06aa	-0.0057075815
133	0x3c6c5f5f	0.014427035
134	0xbd24adc2	-0.04020477
135	0xbc9ec531	-0.019381138
136	0x3c34252b	0.01099519
137	0x3d382798	0.044959635
138	0x3b79c963	0.003811442
139	0x3cd3de7d	0.025862927
140	0x3a547bab	0.0008105586
141	0xbc435154	-0.011921246
142	0x3c494449	0.012284347
143	0xbc328900	-0.010896921
144	0x3c42bf0a	0.011886368
145	0x3d1c5a6e	0.038172178
146	0x3d29ec10	0.041484892
147	0xbc4824d0	-0.012215808
148	0xbc21d59c	-0.009877589
149	0xbcc12f6c	-0.023582183
150	0xbce7cf8b	-0.028297206
151	0xbbf062fe	-0.0073360195
152	0xbc3c0f6f	-0.011478289
153	0x3d07d449	0.033161435
154	0x3c0e318b	0.008678804
155	0x3d2dc7ae	0.042426758
156	0xbc2b5d92	-0.010459321
157	0x3bf0706f	0.007337622
158	0x3cc582c9	0.024110215
159	0xbb0927cf	-0.0020928269
160	0xbd333ece	-0.043761067
161	0xbc35ff4c	-0.011108231
162	0xbbd8b13e	-0.006612926
163	0x3b9328ef	0.0044909636
164	0xbcdc6641	-0.026904227
165	0xbcf68e4f	-0.030097155
166	0x3cdc393f	0.026882766
167	0x3c24e47b	0.01006424
168	0xbc28596e	-0.010275228
169	0x3cf4e65e	0.029895004
170	0xbd3a21ff	-0.045442577
171	0x3c8578ec	0.016293012
172	0x3bdde617	0.0067718136
173	0x3d4169a4	0.047219887
174	0xbc8916ae	-0.016734447
175	0xbc998a93	-0.018742835
176	0x3cc62ffb	0.0241928
177	0xbd4707c3	-0.048591387
178	0xbc895ba1	-0.016767325
179	0x3d37a71e	0.04483711
180	0xbcd48a97	-0.025944991
181	0xbc4929cc	-0.012278032
182	0xbd0d681f	-0.034523126
183	0xbcd94aec	-0.026524983
184	0xbd286db8	-0.04112026
185	0x3c95b1fa	0.018273342
186	0x3cf87ade	0.030332025
187	0x3c39ce4b	0.011340688
188	0x3a1ea398	0.0006051599
189	0xbcc39e6c	-0.023879252
190	0xbba6cbc7	-0.00509021
191	0xbd0597c6	-0.032615446
192	0x3ca83a53	0.020535624
193	0xbd3e0600	-0.04639244
194	0xbac8d7ad	-0.0015323065
195	0xbd044dae	-0.032300644
196	0xbbd0d54f	-0.0063730846
197	0xbd414666	-0.047186278
198	0x3d38379e	0.044974916
199	0xbc2f1f33	-0.010688591
200	0x3d076791	0.033057753
201	0xbd0e2c6e	-0.03471034
202	0x3d17a8db	0.037026267
203	0x3d2f2517	0.04275998
204	0xbd12db9a	-0.03585396
205	0xbd01098c	-0.031503245
206	0xbcdfc2e3	-0.027314609
207	0xbbc9f22d	-0.006162903
208	0xbbca0747	-0.0061654183
209	0xb8e28aeb	-0.00010802395
210	0x3b65326d	0.0034972683
211	0x3b0fb072	0.0021925238
212	0x3ce728de	0.02821773
213	0x3b3f1ab8	0.0029160213
214	0x3c6b7c17	0.014372847
215	0xbc6d3ff8	-0.014480583
216	0xbc8258bb	-0.01591145
217	0x3cb30c3b	0.021856418
218	0xbab97032	-0.0014147817
219	0xbd16513e	-0.036698572
220	0x3d11c757	0.035590496
221	0x3c758cff	0.014987229
222	0x3cc8ffdd	0.024536068
223	0x3bea9e34	0.0071599726
224	0x3c336087	0.010948307
225	0x3cd1209e	0.025528248
226	0xbb9a9409	-0.004717354
227	0x3d32cafb	0.04365061
228	0xbd0b395d	-0.033990253
229	0xbcc81d8c	-0.024428152
230	0x3c54eeb5	0.012996365
231	0x3c5135b0	0.012769148
232	0xbd044633	-0.03229351
233	0x3bf673ef	0.0075211446
234	0x3d3e956b	0.046529215
235	0x3cc1c1d3	0.023651993
236	0xb9cfc58e	-0.00039629306
237	0x3a0cc93e	0.00053705636
238	0x3d032844	0.032020822
239	0x3d51287b	0.051063996
240	0x3bad7c7b	0.0052943802
241	0x3c72aa13	0.014811057
242	0x3cacb1c4	0.021080859
243	0x3d250a07	0.040292766
244	0xbb2ff118	-0.0026846584
245	0x3bb14348	0.005409632
246	0x3d3ef522	0.046620496
247	0xbc9bef15	-0.019034902
248	0x3b0c0746	0.002136664
249	0x3ce392da	0.027779985
250	0xbcc64a79	-0.024205433
251	0xbcc74061	-0.02432269
252	0x3d039374	0.032123044
253	0x3ce3f843	0.027828341
254	0x3bf3be6e	0.0074384725
255	0x3c845596	0.016154092

layer5.0.bias f4 [64]
0	0x3cf270a4	0.029594727
1	0xbcfcd779	-0.030864464
2	0x3b56ee60	0.0032795891
3	0xbce10085	-0.027466068
4	0x3c762985	0.015024547
5	0xbc8ea681	-0.01741338
6	0x3c4aea3c	0.012384947
7	0x3cd96f06	0.026542198
8	0x3c0e8d91	0.008700744
9	0x3c0f8e2d	0.008761925
10	0x3d029a16	0.03188523
11	0xbd09cf66	-0.033645056
12	0xbcf4d8c0	-0.02988851
13	0x3cc071f3	0.023491835
14	0x3cfa28c1	0.030537011
15	0x3c954f61	0.018226327
16	0xbc8914b3	-0.016733503
17	0xbd04ee12	-0.032453604
18	0x3cf5a66f	0.029986588
19	0xb8c5edbf	-9.437976e-05
20	0xbc85d686	-0.016337644
21	0x3d0c8b50	0.034312546
22	0x3d383602	0.04497338
23	0xbcbe3bf7	-0.023221953
24	0xbb8ca0d8	-0.004291635
25	0x3c7cae4a	0.015422413
26	0xbc2a4c20	-0.010394126
27	0xbcf2e20e	-0.029648807
28	0xbcc22b56	-0.023702305
29	0xbc6bd325	-0.0143936025
30	0xbd1b974b	-0.03798608
31	0xbd2a69a1	-0.04160464
32	0x3aa464ac	0.001254221
33	0xbaa6933d	-0.0012708675
34	0x3caa0817	0.02075581
35	0x3cad7409	0.021173494
36	0xbbb3a9c4	-0.005482884
37	0xbc042344	-0.008065049
38	0x3c3c0664	0.011476133
39	0xbd0f167b	-0.03493355
40	0x3d22b8e4	0.039727107
41	0xbbfb7f3b	-0.007675079
42	0x3cd6c864	0.0262186
43	0xbd185e0e	-0.037199073
44	0x3b529435	0.0032131795
45	0x3cbf63d4	0.023363031
46	0xbcc407e7	-0.02392955
47	0xb9a4b615	-0.0003141618
48	0xbd20245a	-0.039097168
49	0x3bf97263	0.007612513
50	0x3d20befa	0.03924463
51	0x3ca93035	0.02065287
52	0x3a18b94d	0.0005825952
53	0x3b6a399a	0.00357399
54	0x3c5e7bf1	0.013579355
55	0xbd0b2d01	-0.033978466
56	0x3cd8f0f8	0.02648209
57	0x3c811b73	0.01576016
58	0x3d12820b	0.03576855
59	0xbcef2df6	-0.02919672
60	0x3bc3f98e	0.005980677
61	0xbb5c335b	-0.0033599946
62	0xbd095697	-0.033529844
63	0xbb76a89b	-0.0037637118

layer5.1.weight f4 [64]
0	0x3f7e3b3f	0.9930915
1	0x3f8389fe	1.0276487
2	0x3f844d54	1.0336099
3	0x3f82a4b0	1.0206509
4	0x3f7fd84a	0.99939406
5	0x3f7fea38	0.99966764
6	0x3f828b8d	1.0198838
7	0x3f80facd	1.0076538
8	0x3f81d2ef	1.0142497
9	0x3f82f61e	1.0231359
10	0x3f8024b5	1.0011202
11	0x3f7e39b4	0.993068
12	0x3f80f81c	1.0075717
13	0x3f810c47	1.0081872
14	0x3f837792	1.0270865
15	0x3f823486	1.0172279
16	0x3f7f9a03	0.9984438
17	0x3f815276	1.010329
18	0x3f829d26	1.0204208
19	0x3f818227	1.0117844
20	0x3f812f02	1.0092471
21	0x3f829729	1.020238
22	0x3f82e5b3	1.0226349
23	0x3f84d5df	1.0377768
24	0x3f80a100	1.0049133
25	0x3f81027f	1.0078887
26	0x3f80643f	1.0030593
27	0x3f803cc0	1.001854
28	0x3f7f43cb	0.9971282
29	0x3f821ea0	1.0165596
30	0x3f835bba	1.0262368
31	0x3f836716	1.0265834
32	0x3f732ec2	0.9499322
33	0x3f82e157	1.0225018
34	0x3f798e1e	0.9748248
35	0x3f83eae3	1.0306057
36	0x3f7d9e52	0.990697
37	0x3f81cee7	1.0141267
38	0x3f8287be	1.0197675
39	0x3f7bab02	0.9830781
40	0x3f819032	1.012213
41	0x3f784c12	0.96991074
42	0x3f8076ba	1.0036232
43	0x3f8188d9	1.0119888
44	0x3f7f5084	0.9973223
45	0x3f7e6259	0.99368817
46	0x3f83b1c3	1.0288624
47	0x3f80d203	1.006409
48	0x3f7fbdf3	0.99899215
49	0x3f801512	1.000643
50	0x3f7d4bcf	0.989438
51	0x3f81656c	1.0109076
52	0x3f7fd2be	0.9993094
53	0x3f810a04	1.0081182
54	0x3f80f468	1.0074587
55	0x3f8136a8	1.0094805
56	0x3f81e73a	1.014869
57	0x3f7e3819	0.9930435
58	0x3f812833	1.0090393
59	0x3f8003eb	1.0001196
60	0x3f82ba5e	1.0213125
61	0x3f80ebf4	1.0072007
62	0x3f81e744	1.0148702
63	0x3f80e1d7	1.0068921
