weights/pretrain_private__finetune_private.pth (torch, 947314 bytes, 26 tensors)

_module.layer1.0.weight f4 [16, 1, 3, 3]
0	0x3ea53a39	0.32270983
1	0x3e610ed8	0.21978319
2	0x3e6bfa54	0.23044711
3	0x3dcc2753	0.09968438
4	0x3e6c8cb5	0.2310055
5	0xbd37f451	-0.044910733
6	0xbe5e7b40	-0.21726704
7	0xbeba98bf	-0.3644466
8	0x3e4e0cdc	0.20122093
9	0xbddc246a	-0.10749133
10	0xbe800641	-0.2500477
11	0xbe5d4a02	-0.21610263
12	0xbea4df88	-0.3220179
13	0xbe6b60db	-0.22986166
14	0xbddae98b	-0.10689076
15	0x3b28fdcd	0.0025786043
16	0x3d026350	0.031832993
17	0xbe0b3f6c	-0.13598412
18	0x3e75b501	0.23994829
19	0xbe41d112	-0.1892741
20	0x3d40f7ba	0.04711125
21	0x3d32ab2c	0.043620273
22	0x3cfd23f9	0.030900942
23	0xbe59c5b4	-0.21266824
24	0x3ea0e199	0.31422117
25	0xbe9bc92a	-0.30426913
26	0x3d41a425	0.04727568
27	0x3eb2ac20	0.34896946
28	0x3e3a45f5	0.18190749
29	0x3e252be8	0.1613003
30	0x3da516da	0.08060999
31	0xbe6ca5e0	-0.23110151
32	0x3d90ccd6	0.07070319
33	0x3e2219cc	0.15830153
34	0xbdcffcbe	-0.101556286
35	0x3e47b816	0.19503817
36	0xbe7b5690	-0.2454474
37	0x3e69e313	0.22840528
38	0xbdcfde2e	-0.10149799
39	0xbc91315b	-0.01772373
40	0x3d35c9a4	0.044381753
41	0xbe8c5b11	-0.27413228
42	0x3e7ac9c9	0.24491037
43	0xbc087fe9	-0.008331277
44	0xbe1637ea	-0.14669767
45	0xbe7caac6	-0.2467452
46	0x3d43c841	0.0477984
47	0xbeab783f	-0.33490178
48	0x3e155e27	0.14586698
49	0x3e30647d	0.17225833
50	0xbe9b073f	-0.30278966
51	0x3d66f876	0.056389295
52	0x3e8c1d93	0.27366313
53	0x3e44a2fb	0.19202797
54	0xbe21d1f4	-0.15802747
55	0xbe9b8091	-0.30371526
56	0x3e283c4e	0.16429254
57	0x3e022357	0.12708794
58	0xbe1072fe	-0.14106366
59	0x3e9f39bb	0.31098732
60	0xbe9642d0	-0.2934785
61	0xbe1b1e77	-0.1514834
62	0xbe0839c7	-0.1330329
63	0xbe87674f	-0.26446006
64	0xbd9f18c8	-0.077683985
65	0xbcc40b2d	-0.02393111
66	0xbc74fd1e	-0.014952926
67	0xbd5f2727	-0.054480698
68	0xbe85b1c6	-0.26112193
69	0x3e270ba9	0.16313042
70	0xbe8cea59	-0.27522543
71	0xbe4c4fed	-0.19952364
72	0x3e135000	0.14385986
73	0xbeacd55b	-0.33756527
74	0xbdafa999	-0.0857727
75	0xbe3d3859	-0.18478526
76	0x3e78adcf	0.24285053
77	0x3e28984f	0.16464351
78	0x3e3a511e	0.18195006
79	0xbde6689c	-0.112504214
80	0xbdc15ec0	-0.094419
81	0x3e156a6b	0.14591376
82	0x3ca3c06d	0.019989217
83	0x3e7023d2	0.23451164
84	0xbe8846d3	-0.26616535
85	0x3da0309b	0.07821771
86	0x3ea3c9f6	0.3199002
87	0x3e24cbf9	0.16093434
88	0xbc9fc77d	-0.019504303
89	0xbe8fc396	-0.28078908
90	0x3e9a00d1	0.30078748
91	0x3e366c6f	0.17814802
92	0x3e49e3ca	0.19715801
93	0xbe95eee2	-0.29283816
94	0xbd486dd7	-0.048932876
95	0x3e5df4e6	0.21675453
96	0x3e9ac15c	0.30225646
97	0xbdc8c821	-0.098037966
98	0x3eab609a	0.3347214
99	0xbe614a32	-0.2200096
100	0xbd86414d	-0.06555424
101	0x3dff0068	0.12451249
102	0xbe8d1037	-0.27551433
103	0x3d70c5de	0.05878245
104	0x3e4c1575	0.1993006
105	0xbd774110	-0.060364783
106	0x3e35b9a3	0.17746596
107	0x3e9bf571	0.30460694
108	0xbe8d3409	-0.27578762
109	0xbe6af696	-0.22945628
110	0xbe807b56	-0.25094098
111	0x3e33ef56	0.17571768
112	0xbea4a4c0	-0.32156944
113	0xbe5ed004	-0.21759039
114	0xbe451d5e	-0.19249484
115	0xbe52a509	-0.20570768
116	0xbc10b3b6	-0.008831909
117	0x3d9925a0	0.074778795
118	0xbd974c3c	-0.073875874
119	0xbe465a6b	-0.19370429
120	0x3e9405fb	0.28910813
121	0x3ea0457d	0.31303015
122	0x3e92352a	0.28556186
123	0x3e4759a0	0.19467783
124	0x3e47608b	0.19470422
125	0x3e053271	0.13007523
126	0x3e34ce7b	0.17656891
127	0x3eae1b48	0.3400519
128	0x3e6f41ca	0.2336494
129	0x3d8a6c51	0.06758941
130	0xbcacbc91	-0.02108601
131	0x3e9602be	0.29298967
132	0xbe155a03	-0.14585118
133	0x3e80f2a5	0.25185123
134	0x3e90de74	0.28294718
135	0xbde34b17	-0.110983066
136	0xbe45c757	-0.19314323
137	0xbe44e59b	-0.19228213
138	0x3e883a07	0.2660677
139	0x3e5960db	0.21228354
140	0x3e8d4b3c	0.27596462
141	0xbdf5467c	-0.119763345
142	0xbe433998	-0.19064939
143	0x3e92b782	0.2865563

_module.layer1.0.bias f4 [16]
0	0xbd4a8f65	-0.049453158
1	0x3c360171	0.011108742
2	0x3e1bf1c0	0.15228939
3	0xbeab498f	-0.33454558
4	0xbe8982f3	-0.2685772
5	0x3e8af4b5	0.27139822
6	0xbe575dee	-0.21031925
7	0xbc2607f0	-0.010133728
8	0x3e90cb83	0.28280267
9	0xbd6b3c14	-0.05743034
10	0xbe671aa7	-0.22568761
11	0xbe0e536a	-0.13899007
12	0x3e6b6b0e	0.22990057
13	0xbe6e5cd0	-0.23277593
14	0x3d7fc9aa	0.06244818
15	0xbbab23e0	-0.0052227825

_module.layer1.1.weight f4 [16]
0	0x3f818147	1.0117577
1	0x3f844538	1.0333624
2	0x3f79d3fa	0.97589076
3	0x3f7efbb5	0.99602824
4	0x3f80ac8c	1.0052657
5	0x3f7ea625	0.99472266
6	0x3f814a49	1.0100795
7	0x3f813cc4	1.0096669
8	0x3f803778	1.0016928
9	0x3f8179aa	1.0115254
10	0x3f7a7d0e	0.9784707
11	0x3f81c143	1.0137104
12	0x3f7ec47a	0.9951855
13	0x3f836b37	1.0267094
14	0x3f7efdbc	0.9960592
15	0x3f80282e	1.0012262

_module.layer1.1.bias f4 [16]
0	0x3b846565	0.0040404075
1	0x3c207479	0.009793394
2	0x3d29ae95	0.04142626
3	0xbca6b2c5	-0.020348916
4	0xbd147aa4	-0.03624977
5	0xbcb368e5	-0.021900604
6	0x3ce5e90a	0.028065223
7	0xbc1e3694	-0.009656567
8	0x3d00658f	0.031346854
9	0xba3fff4c	-0.0007324114
10	0xbce66b7e	-0.028127428
11	0xbcdea27c	-0.027177088
12	0xbb879565	-0.0041376823
13	0xbb9b5454	-0.0047402773
14	0xbbc70d8c	-0.006074613
15	0x3c3e6147	0.011619872

_module.layer2.0.weight f4 [16, 16, 3, 3]
0	0x3c16af55	0.009197076
1	0xbd7566c1	-0.059912447
2	0x3dbf9a48	0.09355599
3	0xbd0183c7	-0.031619813
4	0x3cb0cf0e	0.021583106
5	0x3caeb3cf	0.021325974
6	0xbd92255f	-0.07136034
7	0x3cbb923e	0.022896882
8	0x3c88ba29	0.01669033
9	0xbce024b1	-0.027361246
10	0xbc9155eb	-0.017741164
11	0xbc73aa76	-0.014872184
12	0xbd69797a	-0.057000615
13	0xbc94d8fe	-0.018169876
14	0x3b8ebe9a	0.0043562176
15	0x3d87e427	0.066353135
16	0xbda1f5f9	-0.07908244
17	0xbb52d022	-0.0032167514
18	0x3dcb47f7	0.099258356
19	0x3d4a12e6	0.04933443
20	0x3d8186c3	0.06324532
21	0x3d512b6c	0.0510668
22	0x3d99cae8	0.075094044
23	0xbd8fc62f	-0.070202224
24	0xbd5e2ff4	-0.05424495
25	0x3dcc3c99	0.099724956
26	0xbbfad128	-0.007654328
27	0x3c9559f7	0.018231375
28	0x3c8f06f6	0.017459374
29	0x3cbe158b	0.023203632
30	0x3d28d9c0	0.041223288
31	0x3d932d6d	0.07186399
32	0x3d593d1d	0.053036798
33	0x3c917cd1	0.017759712
34	0x3d4414ca	0.04787139
35	0xbb905434	-0.004404569
36	0xbd0a93b1	-0.033832256
37	0x3d277245	0.04088046
38	0xbcc742fc	-0.024323933
39	0xbcfdcf71	-0.030982705
40	0xbc05b308	-0.00816036
41	0x3d6b2e16	0.057416998
42	0xbca9d20c	-0.020730041
43	0xbcfd7fdb	-0.030944755
44	0xbcd5aeb6	-0.026084285
45	0x3d8bf179	0.06833167
46	0xbd8abea4	-0.06774643
47	0xbd35bf0f	-0.04437166
48	0x3d721d99	0.059110258
49	0xbd1b7cb8	-0.037960738
50	0x3d0dcefc	0.034621224
51	0xbcf29d87	-0.02961613
52	0xbd325b96	-0.043544374
53	0xbd09a6d6	-0.033606373
54	0xbd49281b	-0.049110513
55	0xbc71e31f	-0.014763623
56	0x39b22128	0.0003397551
57	0xbc50c746	-0.012742823
58	0xbcd1dea6	-0.025618862
59	0x3d3c0bef	0.04590982
60	0xbce9bf32	-0.028533552
61	0x3d950c45	0.07277731
62	0xbd9e6386	-0.07733826
63	0x3db18b72	0.08669175
64	0x3d3a5477	0.04549071
65	0x3d0a3b08	0.033747703
66	0xbd160f50	-0.036635697
67	0xbd09c2eb	-0.033633154
68	0x3d4e3afa	0.050349213
69	0x3c03a4a1	0.008034856
70	0x3bb7b75f	0.0056065763
71	0x3cabe257	0.02098195
72	0xbd6d0147	-0.057862546
73	0x3db9c448	0.09070641
74	0x3d3da860	0.046303153
75	0x3ce779c1	0.028256299
76	0xbd807496	-0.06272237
77	0x3d1f5e1b	0.038908105
78	0xbd8e01cd	-0.06933937
79	0x3cd4cbd4	0.0259761
80	0x3ceb240f	0.028703718
81	0xbdbd3ed6	-0.09240501
82	0x3d787481	0.06065798
83	0x3c5745fe	0.013139246
84	0x3ca24eb0	0.019812912
85	0x3d267b90	0.040645182
86	0x3d2c523b	0.04207061
87	0xbd17e233	-0.037080955
88	0xbd3ec780	-0.046576977
89	0x3ce6a50e	0.028154876
90	0xbcacebbf	-0.021108506
91	0xbd86232d	-0.06549678
92	0x3d4ec0d3	0.05047686
93	0xbcacddf9	-0.021101939
94	0x3d87cbc5	0.06630663
95	0xbd54ab21	-0.051921014
96	0x3c410a8d	0.011782301
97	0x3dc88d69	0.09792597
98	0x3cab3b74	0.020902373
99	0x3bc485c9	0.0059973937
100	0xbd68f90d	-0.05687814
101	0x3cff98b9	0.031200754
102	0x3cb536c4	0.02212084
103	0xbde39d01	-0.111139305
104	0xbd0d617c	-0.034516796
105	0x3d8b39d0	0.06798136
106	0x3dd8af8a	0.105803564
107	0x3d4d8408	0.050174743
108	0x3cc3d824	0.023906775
109	0xbd0da4c2	-0.034580953
110	0xbc9a523c	-0.01883804
111	0xbcb8ea24	-0.022572584
112	0x3d2cbc3f	0.042171713
113	0x3d0acd81	0.03388739
114	0xbdd0f29a	-0.102025226
115	0xbb281187	-0.0025645213
116	0x3de49ad4	0.111623436
117	0xbca768cb	-0.020435711
118	0x3d617bc2	0.055049665
119	0x3c4ed291	0.012623445
120	0x3d819e2a	0.063289955
121	0x3c3e65ed	0.011620981
122	0x3ca386a8	0.01996167
123	0xbd89cd94	-0.06728664
124	0xbd49d82e	-0.04927843
125	0xbd96a6d0	-0.07356036
126	0xbd8b5384	-0.06803039
127	0x3db74206	0.0894814
128	0x3cb71508	0.022348896
129	0x3c12c369	0.008957722
130	0x3ce290cb	0.027656933
131	0xbdb64e4e	-0.08901654
132	0x3bdce319	0.0067409393
133	0xbd17bc66	-0.037044905
134	0xbd5e3a0f	-0.054254588
135	0xbbf2231e	-0.00738944
136	0xbd5924ff	-0.053013798
137	0x3d4d64f9	0.050145123
138	0xbd69f18a	-0.057115115
139	0xbd56bd92	-0.052426882
140	0xbd98a6c7	-0.07453685
141	0x3af97eeb	0.0019035017
142	0x3d7495ef	0.0597133
143	0xbbaebe41	-0.0053327386
144	0x3ccfd722	0.025371138
145	0x3d7f52c1	0.06233478
146	0xbd5d6ba6	-0.05405774
147	0xbd007ff2	-0.03137202
148	0xbd6da5b6	-0.058019362
149	0xbb6cc354	-0.0036127167
150	0x3dab7ab1	0.08373011
151	0xbda4fd80	-0.08056164
152	0xbcc4d523	-0.024027413
153	0x3d8c9ce6	0.068658635
154	0xbcdaec15	-0.0267239
155	0xbc087ddf	-0.008330791
156	0xbdb23c2a	-0.08702882
157	0xbd7139ec	-0.05889313
158	0x3c45df00	0.012077093
159	0x3d997d78	0.074946344
160	0x3bb6254b	0.005558645
161	0x3d8f892b	0.070085846
162	0x3d7ffff9	0.062499974
163	0xbc91e0a0	-0.017807305
164	0xbd9b39f1	-0.07579411
165	0x3d6202ac	0.05517833
166	0xbadf4e24	-0.0017036838
167	0xbc95e41a	-0.018297244
168	0xbd10021c	-0.03515826
169	0x3d74ccf3	0.059765767
170	0xbcd47353	-0.025933897
171	0xbd81b756	-0.06333797
172	0xba89a283	-0.0010500703
173	0xbd001654	-0.031271294
174	0x3c293493	0.010327476
175	0xbd13e45a	-0.036106445
176	0x3d9c0919	0.07618923
177	0xbd9bdb58	-0.07610196
178	0x3daf7114	0.0856649
179	0x3d64db89	0.055873428
180	0xbdb0e109	-0.08636672
181	0x3bce46df	0.0062950696
182	0x3d654a4d	0.055979062
183	0xbd69b01b	-0.057052713
184	0x3d48c20c	0.049013183
185	0xbcae6df9	-0.021292673
186	0xbd1cc54d	-0.0382741
187	0x3d6fa5a1	0.058507565
188	0xbd213386	-0.039355777
189	0xbddff1ae	-0.109347686
190	0xbce5b88d	-0.028042102
191	0xbd8d022f	-0.06885182
192	0x3b80792f	0.003920696
193	0x3b34c5f2	0.0027583805
194	0x3d98f1a1	0.07467962
195	0x3d33156e	0.04372161
196	0x3d9f74fe	0.07785986
197	0xbbc617f7	-0.0060453373
198	0xbdb0f70d	-0.08640871
199	0x3d16dc55	0.03683122
200	0x3bbee4da	0.005825621
201	0x3cb936e5	0.022609184
202	0x3b6a2970	0.0035730265
203	0xbd1f33a3	-0.038867604
204	0x3d46d4ca	0.048542775
205	0x3c85308a	0.016258497
206	0x3caf84a2	0.021425549
207	0x3c27e813	0.010248202
208	0x3dfeed96	0.1244766
209	0x3d02cb8a	0.03193239
210	0x3cb322d5	0.021867195
211	0x3c54ec81	0.01299584
212	0xbb1db980	-0.0024066865
213	0xbd932beb	-0.07186111
214	0x3d6fa70b	0.058508914
215	0x3dd6dab6	0.104909346
216	0xbd577073	-0.052597474
217	0x3dbee2d6	0.09320609
218	0xbd852070	-0.065003276
219	0xbc3d6340	-0.011559308
220	0x3c71812f	0.014740272
221	0x3d64dfc2	0.055877455
222	0x3d343dfe	0.044004433
223	0x3d424164	0.047425643
224	0x3d1a397c	0.037652478
225	0xbd04f62c	-0.03246133
226	0xbd342ece	-0.04398995
227	0xbdbfb735	-0.09361116
228	0xbd2c56fd	-0.042075146
229	0x3d7b2fb6	0.061324798
230	0xbd3836c8	-0.04497412
231	0x3c9633e5	0.018335292
232	0xbd34f974	-0.04418321
233	0x3d7fde6d	0.06246798
234	0xbd2755a6	-0.040853165
235	0xbdad9441	-0.08475543
236	0xbdb76e69	-0.08956606
237	0x3d40dd5d	0.04708611
238	0xbcd404e3	-0.025881236
239	0x3d517477	0.05113646
240	0xb687f332	-4.051625e-06
241	0x3d017ac1	0.031611208
242	0xbd189087	-0.037247207
243	0xbc0934dd	-0.00837442
244	0xbc9ce49c	-0.019151978
245	0xbcc66d03	-0.024221903
246	0x3cb686e7	0.022281123
247	0x3d441a94	0.04787691
248	0xbdd008d6	-0.10157935
249	0xbca624d6	-0.020281237
250	0xbc491a35	-0.012274315
251	0xbd85f360	-0.06540561
252	0xbd5d7cc4	-0.054074064
253	0x3df6295c	0.120196074
254	0x3d05f9b0	0.032708824
255	0x3ce66338	0.028123483

_module.layer2.0.bias f4 [16]
0	0x3d3f01da	0.046632625
1	0xbb8e6fc0	-0.0043468177
2	0x3d619a48	0.055078775
3	0x3d9a0f28	0.07522422
4	0xbd84ba5e	-0.06480859
5	0xbd8e134a	-0.06937273
6	0x3d5f91e2	0.054582484
7	0xbb07c800	-0.0020718575
8	0x3ba83442	0.0051331827
9	0x3d29cb3a	0.041453578
10	0xbd633297	-0.055468168
11	0xbd9c8a7b	-0.076436006
12	0xbd523064	-0.05131568
13	0x3c4a8831	0.012361572
14	0x3c17417e	0.009231923
15	0x3c9eb6d5	0.01937429

_module.layer2.1.weight f4 [16]
0	0x3f7c6021	0.9858418
1	0x3f7ec228	0.9951501
2	0x3f7b7be8	0.9823594
3	0x3f8092c6	1.0044792
4	0x3f8087ca	1.004144
5	0x3f7cba42	0.98721707
6	0x3f80eb1c	1.007175
7	0x3f7b3445	0.9812663
8	0x3f82bb16	1.0213344
9	0x3f7c3e78	0.9853282
10	0x3f79d841	0.975956
11	0x3f7e349d	0.9929903
12	0x3f83337b	1.0250086
13	0x3f8108f7	1.0080861
14	0x3f82c284	1.0215611
15	0x3f83810e	1.0273759

_module.layer2.1.bias f4 [16]
0	0x3cffb232	0.0312129
1	0x3c9c4d66	0.019079875
2	0xbbd0a6fc	-0.0063675623
3	0xbb34a96e	-0.0027566808
4	0x3bc15805	0.0059003853
5	0xbc0e48cd	-0.008684349
6	0x3c23c31d	0.009995249
7	0x3bd4aeee	0.00649058
8	0x3c80de97	0.01573114
9	0x3cae94d2	0.021311197
10	0x3c1a5d7a	0.009421701
11	0xbc616748	-0.013757534
12	0x3bb65469	0.0055642617
13	0x3cbee878	0.02330421
14	0x3c7e0677	0.015504471
15	0xba32ceb4	-0.00068209623

_module.layer3.0.weight f4 [64, 16, 3, 3]
0	0x3d8f900f	0.07009899
1	0x3d8a1aa1	0.0674336
2	0x3d511507	0.051045444
3	0x3b6a5abd	0.003575965
4	0xbdc0925c	-0.09402916
5	0x3d30d8b2	0.043175407
6	0xbda058c4	-0.07829431
7	0xbd199d1f	-0.037503358
8	0xbd84d8dd	-0.06486676
9	0x3d378e62	0.04481352
10	0xbd8c50a7	-0.06851321
11	0x3c9f48f8	0.019443974
12	0x3d9da20f	0.07696926
13	0xbc8167cf	-0.01579657
14	0x3d041a74	0.03225179
15	0x3d601f24	0.054717198
16	0x3d9d6d4c	0.07686862
17	0xbc30907d	-0.010776636
18	0x3c97e5fb	0.01854228
19	0xbdaf056b	-0.08545955
20	0xbcbaa1e4	-0.022782274
21	0x3cb45304	0.022012241
22	0x3b2afab3	0.002608937
23	0xbc4926dc	-0.012277331
24	0x3de07224	0.109592706
25	0xbd998e91	-0.074978955
26	0xbd2ba039	-0.041900847
27	0x3dcc8b90	0.09987557
28	0x3d4138a2	0.04717315
29	0xbd80ee5c	-0.062954634
30	0x3d01657a	0.031590916
31	0xbc74393e	-0.014906226
32	0x3da89fe4	0.08233622
33	0xbdd39ebe	-0.10333012
34	0xbde3029c	-0.11084482
35	0xbcf29744	-0.029613145
36	0xbd880c3c	-0.066429585
37	0x3dc6c8e1	0.09706283
38	0xbd208b9a	-0.039195634
39	0x3da0c2f9	0.07849688
40	0xbd599b9f	-0.053126927
41	0xbd35e8b6	-0.044411384
42	0x3d51c39e	0.051211946
43	0xbd692001	-0.056915287
44	0xbb5f490f	-0.0034070646
45	0xbd0f7685	-0.03502514
46	0xbc538b4c	-0.012911629
47	0x3d579e58	0.052641243
48	0xbd6a876b	-0.05725805
49	0xbcda53f6	-0.026651364
50	0xbd32f73c	-0.043692812
51	0x3d3e6e6e	0.046492033
52	0xbdcff3b3	-0.10153904
53	0xbcc78505	-0.02435542
54	0x3bd6e374	0.0065578762
55	0xbd97687e	-0.07392977
56	0x3d9a29b2	0.07527484
57	0x3d147990	0.036248744
58	0xbd4fe4e1	-0.050755385
59	0xbd187562	-0.03722132
60	0xbd57ad89	-0.05265573
61	0xbd1b7060	-0.037948966
62	0x3d6290bf	0.055313822
63	0xbdc2408f	-0.0948497
64	0xbb8024c6	-0.0039106337
65	0x3cd252fb	0.025674334
66	0xbd7316e8	-0.059348017
67	0x3d3e4230	0.04644984
68	0x3c9cad1c	0.019125514
69	0x3d50b3b9	0.050952647
70	0x3d42b02f	0.047531303
71	0xbd219d8e	-0.039456896
72	0xbda61966	-0.08110313
73	0x3d6fe0cf	0.058564004
74	0x3d2aaa96	0.04166659
75	0x3d83348c	0.06406507
76	0x3db0fb19	0.08641643
77	0xbd20faef	-0.03930181
78	0x3d8e17d7	0.06938141
79	0x3d1aca01	0.037790302
80	0xbb424bb2	-0.0029647169
81	0xbcf0800f	-0.029357938
82	0x3cd4b0e1	0.025963249
83	0x3b36c41a	0.0027887882
84	0x3d86de3f	0.06585359
85	0xbd1001f2	-0.035158105
86	0x3d95ed12	0.07320608
87	0xbc7216e4	-0.014775965
88	0x3d5af86f	0.05345958
89	0xbd0720f2	-0.032990403
90	0x3d3e3916	0.04644116
91	0xbcdc8e12	-0.026923213
92	0x3d931a42	0.07182743
93	0x3caa9d9f	0.020827113
94	0xbdbe3a8d	-0.092885114
95	0xbd7cf339	-0.061755393
96	0xbd9afa0a	-0.075672224
97	0xbbe9c953	-0.0071345954
98	0xbd6576f2	-0.05602164
99	0x3cc0e1eb	0.023545226
100	0x3daec127	0.08532935
101	0x3cc4603a	0.023971666
102	0xbd2a0b75	-0.041514833
103	0xbd0cc6d5	-0.03436931
104	0xbd311cf8	-0.043240517
105	0xbd136ca3	-0.035992276
106	0xbb53341a	-0.00322271
107	0x3d013a09	0.031549487
108	0xbd8e16a2	-0.069379106
109	0xbccfa629	-0.025347786
110	0x3ceaa18b	0.028641483
111	0xbd9d290a	-0.07673843
112	0xbc37a831	-0.011209534
113	0xbd8afe77	-0.067868166
114	0xbd3497bc	-0.044090018
115	0xbd04805d	-0.03234898
116	0xbdb778b2	-0.08958568
117	0xbdb7045a	-0.08936377
118	0xbce4b088	-0.027916208
119	0x3d32bf55	0.0436395
120	0x3d17486b	0.036934298
121	0xbcf0416f	-0.029328076
122	0xbce8b002	-0.02840424
123	0x3d860ca2	0.06545378
124	0xbd102ee2	-0.03520096
125	0x3d3fca27	0.046823647
126	0xbdcbfdd4	-0.09960523
127	0xbd8c0b2a	-0.06838067
128	0xbc549063	-0.012973878
129	0xbd6e868a	-0.058233775
130	0xbda72d64	-0.081629544
131	0xbd2a6711	-0.041602198
132	0x3cb596c4	0.022166617
133	0xbd8e16a6	-0.069379136
134	0xbd8bd0e1	-0.0682695
135	0xbd56f0f7	-0.052475896
136	0x3d50bda3	0.0509621
137	0xbd7f5db3	-0.062345218
138	0x3c581273	0.013187992
139	0xbd74a82a	-0.059730686
140	0xbb80727a	-0.0039198967
141	0xbc6abe64	-0.014327619
142	0xbbf58aa0	-0.007493332
143	0xbd99e7ed	-0.075149395
144	0x3bd4c19c	0.0064928066
145	0x3d21198c	0.039331004
146	0x3dd19818	0.10234088
147	0xbcce55e3	-0.025187438
148	0xbb29219f	-0.0025807393
149	0xbd0d07aa	-0.034431137
150	0xbc407512	-0.011746662
151	0x3da437c0	0.08018446
152	0xbd1c96c8	-0.038229734
153	0x3d5fea03	0.05466653
154	0xb8b4c02a	-8.618862e-05
155	0x3d041b1c	0.032252416
156	0x3cd4ca8b	0.025975486
157	0x3dcf1bc3	0.10112717
158	0x3da5d7d7	0.08097809
159	0x3d39adba	0.045331694
160	0xbd51c39c	-0.05121194
161	0x3c7d8dbd	0.015475688
162	0xbcd67b62	-0.02618188
163	0xbda63a05	-0.08116535
164	0x3ba51d56	0.0050388975
165	0x3d301db1	0.042997066
166	0x3cade8d5	0.021229187
167	0x3d40999e	0.0470215
168	0xbda43b21	-0.080190904
169	0xbd1f9f19	-0.038970087
170	0x3d5dd573	0.05415864
171	0x3d962c1f	0.07332634
172	0xbd0ab361	-0.033862475
173	0xbd8fc9ea	-0.07020934
174	0xbd2e28ba	-0.04251931
175	0xbb71291f	-0.0036798192
176	0x3d3247e0	0.043525577
177	0xbd3c22eb	-0.045931738
178	0x3da0936d	0.07840619
179	0x3d864f4b	0.06558093
180	0xbde13ed2	-0.1099831
181	0xbd47ab37	-0.048747268
182	0xbd5a9507	-0.05336478
183	0xbd362c64	-0.044475928
184	0x3d1c745f	0.038196918
185	0x3d4ecdd3	0.050489258
186	0x3c579222	0.013157399
187	0x3d4a825f	0.049440738
188	0xbb26392f	-0.0025363674
189	0x3bdb5c1c	0.00669433
190	0x3d3c8a34	0.04603024
191	0x3d83b545	0.06431059
192	0x3d375a5d	0.04476391
193	0x3d093a47	0.033502843
194	0x3aab4a71	0.001306845
195	0xbd326cb6	-0.043560706
196	0xbd166a31	-0.036722366
197	0x3dd64943	0.10463192
198	0x3cbd5335	0.023110965
199	0x3d18472b	0.037177246
200	0x3d9ac563	0.0755718
201	0xbda28df2	-0.0793723
202	0xbd55dabf	-0.052210566
203	0x3d15dfb7	0.036590304
204	0x3d1d8379	0.03845546
205	0x3d29d275	0.041460473
206	0xbcd6d41f	-0.026224194
207	0xbca0cf0a	-0.019629974
208	0x3a29cfcb	0.0006477802
209	0xbdadfc02	-0.08495332
210	0x3d695b1c	0.056971654
211	0x3cfd2323	0.030900544
212	0xbd8fbe1a	-0.07018681
213	0x3d439bdb	0.047756057
214	0xbca7db01	-0.020490171
215	0x3bba1a9b	0.005679441
216	0x3db3b10c	0.087740034
217	0x3b2e561f	0.0026601625
218	0xbbe8c02a	-0.007102986
219	0x3d455afa	0.048182465
220	0xbc4eb8e3	-0.012617323
221	0xbd611116	-0.054947935
222	0xbd109f2d	-0.03530805
223	0x3cc3a479	0.023882138
224	0x3d4fede2	0.050763972
225	0xbd2cfad3	-0.042231392
226	0xbc441fec	-0.011970501
227	0xbda81009	-0.082061835
228	0xbd160765	-0.036628146
229	0x3d40a59d	0.04703294
230	0x3d6e8a0c	0.05823712
231	0x3d126fb5	0.035751063
232	0xbc93214d	-0.017960215
233	0xbda85899	-0.08220024
234	0x3cd395d0	0.025828272
235	0xbd8d1f9c	-0.06890795
236	0x3d39373c	0.04521869
237	0xbd215354	-0.03938611
238	0xbc7c508d	-0.015400064
239	0xbc969d3e	-0.018385526
240	0x3c49ed4c	0.012324642
241	0x3d884565	0.06653861
242	0xbd2394b9	-0.039936755
243	0xbd0013f8	-0.031269044
244	0x3d007ecd	0.031370927
245	0x3d466c86	0.04844334
246	0xbbcb6f1c	-0.0062083136
247	0x3dc1acb4	0.09456769
248	0xbb56b980	-0.0032764375
249	0x3d709d75	0.058743913
250	0x3d6e85f4	0.058233216
251	0xbdb4b3b9	-0.08823342
252	0xbd18ed7a	-0.03733585
253	0x3d96ae24	0.073574334
254	0xbca82a19	-0.020527886
255	0xbd08247e	-0.033237927

_module.layer3.0.bias f4 [64]
0	0xbd5964b1	-0.053074542
1	0x3d866c77	0.06563657
2	0x3dd78ef2	0.105253115
3	0x3daf0976	0.085467264
4	0xbcdd8f68	-0.02704592
5	0x3da517dd	0.08061192
6	0x3ccf1b4f	0.025281576
7	0x3c5995a3	0.013280305
8	0x3d9b12f4	0.075719744
9	0x3da9aa57	0.08284443
10	0x3d826fe4	0.06368998
11	0xbd1934f4	-0.037404016
12	0xbca18fe6	-0.019721936
13	0x3d112718	0.035437673
14	0x3d88bc38	0.06676525
15	0xbcd31fce	-0.025772002
16	0xbd2e2bc1	-0.042522196
17	0x3d3520de	0.044220798
18	0x3d2b609c	0.04184018
19	0xbd36f7e6	-0.044670008
20	0xbcafc21c	-0.021454863
21	0x3c1ba1c7	0.00949902
22	0xbb90f5d0	-0.0044238344
23	0x3daec3e1	0.08533455
24	0x3d380a89	0.044931922
25	0x3dc4d449	0.09610803
26	0x3d448d4d	0.047986317
27	0xbd81bbb0	-0.06334627
28	0xbd93d615	-0.07218567
29	0xbd8a579b	-0.06754991
30	0xbd79d916	-0.060998045
31	0xbc15e57a	-0.00914895
32	0xbcf2b322	-0.029626433
33	0x3d68e027	0.056854393
34	0x3cb447e7	0.022006942
35	0x3d393ee1	0.04522598
36	0x3d9b3e9b	0.075803004
37	0x3d8c085e	0.068375334
38	0x3d24a33e	0.040194742
39	0xbb3d8b35	-0.0028922085
40	0x3c88aa74	0.01668284
41	0xbcca03b7	-0.024659975
42	0x3d047d20	0.03234589
43	0xbcd34e82	-0.025794271
44	0x3d7f327b	0.062304
45	0x3dd08d92	0.101832524
46	0x3c8a92a3	0.016915625
47	0xbd9a1cf0	-0.07525051
48	0xbda279fd	-0.07933424
49	0x3db6e417	0.089302234
50	0xbd3bd757	-0.04585966
51	0xbcfb5a88	-0.030682817
52	0xbd8fbe75	-0.07018749
53	0x3cca13d1	0.024667652
54	0xbda82231	-0.082096465
55	0xbd8e2c9d	-0.06942103
56	0x3dbaf504	0.09128764
57	0x3d8b0ea5	0.067899026
58	0xbd5d59bb	-0.05404065
59	0xbd379021	-0.044815186
60	0x3ce549d7	0.027989311
61	0x3c1443f6	0.009049406
62	0x3d830079	0.063965745
63	0x3da6420c	0.08118066

_module.layer3.1.weight f4 [64]
0	0x3f7a9ba8	0.9789376
1	0x3f7be579	0.9839702
2	0x3f7dec83	0.99189013
3	0x3f7f126b	0.9963748
4	0x3f8033d4	1.0015817
5	0x3f7ced73	0.9879982
6	0x3f7b8999	0.9825683
7	0x3f81662e	1.0109308
8	0x3f819a3c	1.0125194
9	0x3f80312a	1.0015004
10	0x3f7f377f	0.99694055
11	0x3f7dbb7d	0.9911421
12	0x3f84c4b5	1.037253
13	0x3f81bd67	1.0135926
14	0x3f80f939	1.0076057
15	0x3f7d89ba	0.9903828
16	0x3f815eb4	1.0107026
17	0x3f7ccd1f	0.9875049
18	0x3f812645	1.0089804
19	0x3f7d03a1	0.9883366
20	0x3f7be4c4	0.98395944
21	0x3f7ebc66	0.99506223
22	0x3f805449	1.0025722
23	0x3f81d3d7	1.0142773
24	0x3f80a1ac	1.0049338
25	0x3f7e8457	0.99420685
26	0x3f82e1ef	1.02252
27	0x3f7abfff	0.9794921
28	0x3f7c921d	0.9866045
29	0x3f82bbb7	1.0213536
30	0x3f7f35b2	0.9969131
31	0x3f80671b	1.0031465
32	0x3f79b307	0.975388
33	0x3f80ab9a	1.0052369
34	0x3f81c356	1.0137737
35	0x3f81546e	1.0103891
36	0x3f7dfc21	0.99212843
37	0x3f75e3f1	0.96050936
38	0x3f7287a8	0.94738245
39	0x3f7d1029	0.98852783
40	0x3f7f7aa8	0.99796534
41	0x3f81f021	1.0151407
42	0x3f7d372e	0.9891232
43	0x3f805968	1.0027285
44	0x3f7bace8	0.9831071
45	0x3f7d360c	0.98910594
46	0x3f82437e	1.0176847
47	0x3f813992	1.0095694
48	0x3f7d68bd	0.9898794
49	0x3f7b3b1b	0.9813706
50	0x3f80c91d	1.0061375
51	0x3f8094b3	1.0045379
52	0x3f7f8e93	0.99826926
53	0x3f78f666	0.97250974
54	0x3f7889d7	0.97085327
55	0x3f7fcf29	0.99925476
56	0x3f801099	1.0005065
57	0x3f80ddc3	1.0067676
58	0x3f7e39b3	0.9930679
59	0x3f7ef59f	0.9959354
60	0x3f804131	1.0019895
61	0x3f7e835e	0.994192
62	0x3f78ff94	0.9726498
63	0x3f7b9ac0	0.98283005

_module.layer3.1.bias f4 [64]
0	0x3b8b0791	0.0042428453
1	0xbd038b4e	-0.032115273
2	0x3c9d79e5	0.019223163
3	0x3cac1e11	0.02101043
4	0x3a8d64c0	0.0010787472
5	0x39e18af6	0.00043018878
6	0x3c1c6cd5	0.009547432
7	0xbc710064	-0.014709566
8	0x3bb50c76	0.005525167
9	0xbbb7b6a4	-0.0056064893
10	0x3b1b1a92	0.002366696
11	0xbc5c5bfa	-0.013449663
12	0x3d23020f	0.039796885
13	0xbd0a11c8	-0.033708364
14	0x3c2a94a7	0.010411418
15	0x3cf35799	0.029704856
16	0xbc8744f0	-0.016512364
17	0xbcc49ca1	-0.024000468
18	0xbbce1e4b	-0.0062902323
19	0xbd03f660	-0.032217383
20	0x3c7956ce	0.01521845
21	0x3cbdfff3	0.023193335
22	0x3b19eefc	0.0023488393
23	0xbce419a3	-0.027844256
24	0xbad9ffb6	-0.0016631994
25	0x3c1c6f80	0.009548068
26	0x3cd2d685	0.025737057
27	0x3bae59a9	0.005320747
28	0x3c5b296a	0.013376573
29	0x3bfdcc46	0.0077452986
30	0xbc7d5670	-0.015462503
31	0x3be3913c	0.0069448035
32	0xbcdccf29	-0.02695425
33	0x3ca14c66	0.01968975
34	0x3c8e51a3	0.017372912
35	0xbc7ea216	-0.015541574
36	0x3ce894df	0.0283913
37	0xbd013d26	-0.031552456
38	0x3c8e6a88	0.017384782
39	0x3c267864	0.010160539
40	0xbc7e484e	-0.0155201685
41	0xbb6816a1	-0.0035413879
42	0xbb5213ca	-0.0032055252
43	0x3c0b338e	0.008496178
44	0xbcb6285e	-0.022236045
45	0x3c197574	0.009366382
46	0xbc0f2d48	-0.008738823
47	0xbb8d2db7	-0.004308428
48	0x3c84f611	0.016230615
49	0xbc3f9ca3	-0.01169506
50	0x3c1937bb	0.009351666
51	0x3c23534c	0.00996859
52	0xbcee7ce1	-0.029112281
53	0x3cf2e68b	0.029650947
54	0xbb660214	-0.0035096454
55	0xbc9fe625	-0.019518921
56	0xbbf5c5ee	-0.0075004017
57	0x3c463929	0.012098589
58	0xbc72e610	-0.014825359
59	0xbbdf9194	-0.006822774
60	0x3ccc7b22	0.024961058
61	0xba4a1589	-0.00077088975
62	0x3becfb4e	0.0072321063
63	0xbbac88b8	-0.0052653216

_module.layer4.0.weight f4 [64, 64, 3, 3]
0	0xbd3a8a49	-0.045542035
1	0x3c096293	0.008385318
2	0xbceac795	-0.028659621
3	0x3aaf66b3	0.0013382047
4	0x3cfe858e	0.031069543
5	0x3c9fbda3	0.019499606
6	0xbbabe734	-0.0052460674
7	0x3b18fa44	0.002334253
8	0xbb6c810f	-0.0036087667
9	0xbc780931	-0.01513891
10	0xbc68a906	-0.014200455
11	0xbd4f2b85	-0.050578613
12	0xbb596993	-0.00331745
13	0xbc14c732	-0.009080695
14	0xbce14406	-0.027498256
15	0xbcd44451	-0.025911482
16	0xbbb23a87	-0.005439106
17	0xbcac8370	-0.021058768
18	0xbd2c3346	-0.042041086
19	0xbcbbb146	-0.022911679
20	0x3c072416	0.00824835
21	0x3d485b26	0.04891505
22	0xbbbb7583	-0.0057207956
23	0x3d0d25e9	0.034459982
24	0x3c7e06c2	0.015504541
25	0xbcef291a	-0.029194403
26	0x3cc8cfc7	0.024513138
27	0xbd2f452a	-0.04279057
28	0xbd42b93b	-0.04753993
29	0x3d584d08	0.052807838
30	0xba0ffcbd	-0.0005492678
31	0xbb8aa5f2	-0.004231208
32	0xbc10e647	-0.008843965
33	0xbd8003b6	-0.06250708
34	0x3c95b505	0.018274793
35	0x3cb35570	0.021891326
36	0x3c897fb8	0.016784534
37	0xbb9986e0	-0.004685268
38	0xbd08450e	-0.03326898
39	0xbd1ae43e	-0.037815325
40	0xbc700d13	-0.014651555
41	0xbd1fedd2	-0.039045162
42	0xbb3fe431	-0.00292803
43	0x3c94346f	0.018091409
44	0xbc795fde	-0.01522061
45	0xbca2ace3	-0.01985783
46	0x3d015535	0.0315754
47	0x3c700872	0.014650451
48	0xbd871c19	-0.06597156
49	0x3a93cee3	0.0011276867
50	0x3cb2aa89	0.021809833
51	0xbd768a37	-0.060190406
52	0xbc19ce00	-0.009387493
53	0x3c95c7c5	0.018283734
54	0xbccbde4e	-0.024886277
55	0x3d22ec45	0.039776105
56	0x3d10c6d2	0.03534586
57	0x3c0e3f93	0.008682149
58	0x3c1274ce	0.008938981
59	0x3d19934d	0.037493993
60	0xbcd1a32f	-0.025590507
61	0xbce2b2a8	-0.02767308
62	0x3d627283	0.055284988
63	0xbd8cce32	-0.06875266
64	0xbd151370	-0.03639549
65	0x3b76819f	0.0037613881
66	0x3c90c3f3	0.01767156
67	0x3a0f3639	0.0005463097
68	0xbc257fe5	-0.010101293
69	0xbd0c4251	-0.03424293
70	0x3c6bc585	0.014390354
71	0xbb8a55a5	-0.0042216354
72	0x3cbce32a	0.023057539
73	0x3cec92e7	0.028878642
74	0x3b25d6f7	0.002530513
75	0x3cc7fd22	0.024412695
76	0xbd0af17b	-0.0339217
77	0xbc48d7e7	-0.012258506
78	0x3d0d1dc8	0.03445223
79	0xbd4f7f00	-0.050658226
80	0xbd0a2820	-0.033729672
81	0x3c49f6dd	0.012326923
82	0xbc7e6401	-0.0155267725
83	0xbd932126	-0.07184057
84	0xbd35c7ba	-0.044379927
85	0xbd860c01	-0.06545258
86	0x3caf55b4	0.021403171
87	0x3d0e08ac	0.03467624
88	0xbc821bbf	-0.015882371
89	0x3cccd77c	0.025005095
90	0xbb443ce7	-0.0029943527
91	0x3cf016db	0.029307773
92	0xbbc5c22f	-0.0060351114
93	0xbc19dd0b	-0.00939108
94	0x3c8c5957	0.017132444
95	0x3cc2c7a2	0.023776833
96	0xbd3854f3	-0.04500289
97	0xbd0f8e72	-0.035047956
98	0x3d80e47c	0.0629358
99	0xbb79c95f	-0.0038114411
100	0x3d2eb15e	0.04264962
101	0x3d2408ce	0.04004746
102	0xbb207dfe	-0.002448916
103	0xbb2f2e0a	-0.0026730322
104	0x3d377653	0.044790577
105	0xbb69a943	-0.0035653866
106	0xbd16ea55	-0.03684457
107	0x3d26a00d	0.04067998
108	0xbc84acaa	-0.016195614
109	0xbd0b72b1	-0.034044925
110	0xbcbd5b1f	-0.023114739
111	0x3cdb5912	0.02677587
112	0xbbf8ea24	-0.007596271
113	0xbb9b4d66	-0.004739451
114	0xbd22d3e1	-0.039752845
115	0x3d17de18	0.03707704
116	0xbd0caa4b	-0.03434209
117	0x3d3145f7	0.043279614
118	0xbd6367b6	-0.05551883
119	0xbd04592e	-0.03231161
120	0x3d033bb8	0.032039374
121	0xbd1c6b73	-0.03818841
122	0x3c94af23	0.018149918
123	0xbd96b4ef	-0.07358729
124	0xbc8dd3ae	-0.01731285
125	0xbc499adc	-0.012304988
126	0xbb6584f5	-0.0035021876
127	0x3c26a1e8	0.010170437
128	0xbd20c51c	-0.03925048
129	0x3c9d0e92	0.019171987
130	0x3ca1e54d	0.01976266
131	0xbccf1f3d	-0.02528345
132	0xbbd9c40a	-0.006645684
133	0xbd00f7a2	-0.03148616
134	0x3cf9fb69	0.03051539
135	0x3c9d3dc3	0.01919449
136	0x3c812973	0.015766835
137	0xbd0381cd	-0.03210621
138	0x3c950bf0	0.018194169
139	0x3cbecaaa	0.023289997
140	0x3d0d23cc	0.034457967
141	0x3a91ff60	0.001113873
142	0x3d0a1a97	0.033716764
143	0x3c0a1c06	0.008429533
144	0xbd414142	-0.047181375
145	0x3d0a4ebc	0.033766493
146	0xbcfdff09	-0.0310054
147	0xbceb2f97	-0.028709216
148	0x3b07900d	0.0020685226
149	0xbaaffee9	-0.001342741
150	0xbd0271c1	-0.031846765
151	0xbd2441e8	-0.040101916
152	0xbcc8cb8c	-0.024511121
153	0xbce2bc34	-0.027677633
154	0xbce798a5	-0.028271029
155	0x3b9b85d0	0.0047461763
156	0x3d002f4d	0.03129511
157	0x3cc88e97	0.024482055
158	0x3d1dffc1	0.038573984
159	0xbd20fd41	-0.03930402
160	0xbd2c1047	-0.04200771
161	0xbc11ad48	-0.008891411
162	0xbcb03836	-0.021511178
163	0xbceeb2d7	-0.029138012
164	0x3cb0bc53	0.021574175
165	0x3c370b12	0.011172073
166	0x3cc64dd3	0.024207031
167	0xbc61b88a	-0.013776908
168	0xbb416193	-0.0029507622
169	0xbbc1289d	-0.005894734
170	0x3d4c8c79	0.049938653
171	0x3c8dd037	0.017311199
172	0xbccfd4a4	-0.02536995
173	0x3cf907c6	0.030399214
174	0xbca10acf	-0.019658474
175	0x3cf01636	0.029307466
176	0x3cf499fa	0.029858578
177	0x3cccf536	0.02501927
178	0xbd1d510c	-0.03840737
179	0xbc8c21ff	-0.017106054
180	0x3d10f935	0.035393912
181	0xbc4db450	-0.012555197
182	0xbd847385	-0.06467346
183	0x3d22b7a2	0.039725907
184	0x3cc73d60	0.024321258
185	0xbd15bd18	-0.036557287
186	0xbbdcd9e9	-0.006739844
187	0xb9fd9182	-0.00048364332
188	0xbd078f99	-0.03309593
189	0xbd11695e	-0.035500877
190	0xbc0d71a5	-0.008633052
191	0xbd71fa9f	-0.0590769
192	0xbd2f1889	-0.042748008
193	0x3c706aa1	0.01467386
194	0xbc7c8737	-0.015413097
195	0x3b57a0c3	0.0032902218
196	0xbba2c403	-0.004967214
197	0x3bd6ce7f	0.006555378
198	0x3d1eacd9	0.03873906
199	0x3c2482b1	0.010040925
200	0x3c870edb	0.016486576
201	0xbd820895	-0.06349293
202	0xbc9db32c	-0.019250475
203	0x3d35feb6	0.044432364
204	0x3d5f07bb	0.05445073
205	0x3b20e095	0.0024547924
206	0x3c908e7a	0.017646063
207	0x3af26a04	0.001849473
208	0x3c71ad57	0.0147508
209	0x3c75d4c4	0.015004341
210	0x3bd81fbb	0.0065955794
211	0x3bdf17c6	0.006808254
212	0xbc1a1ad1	-0.009405808
213	0x3c0741c6	0.008255428
214	0x3ce06aa0	0.027394593
215	0x3c9b718d	0.018975044
216	0x3cda66db	0.026660373
217	0xbd47d965	-0.048791308
218	0x3ba1a8ed	0.0049334676
219	0x3c24b272	0.01005231
220	0x3cf5be9b	0.029998114
221	0x3cbbed50	0.022940308
222	0x3c626332	0.013817595
223	0xbd0c6313	-0.034274172
224	0x3c1df277	0.009640328
225	0x3cdd3ce6	0.027006578
226	0xbbf8e645	-0.0075958096
227	0xbd8b2fa6	-0.067961976
228	0x3cebfbe8	0.028806642
229	0x3d297007	0.041366603
230	0x3c951e30	0.018202871
231	0x3c102b98	0.008799456
232	0x3d290a44	0.041269556
233	0xbb4625f4	-0.0030235024
234	0x3cf0cf4e	0.029395726
235	0xbd1f8d88	-0.038953334
236	0xbc90ab19	-0.01765971
237	0xbcd4f7ed	-0.025997126
238	0x3d48e4b1	0.049046222
239	0xbbc21c3b	-0.0059237755
240	0x3c16a33e	0.009194193
241	0xbbcec80f	-0.00631047
242	0x3b21dc5c	0.0024697995
243	0x3cff189f	0.03113967
244	0xbad2cf1f	-0.0016083455
245	0x3d042d1c	0.032269582
246	0x38af51e0	8.359901e-05
247	0x3c8e0e69	0.017340856
248	0xbd25e0bb	-0.040497523
249	0x394b51ca	0.00019390057
250	0x3c9976b4	0.01873336
251	0x3d018b2a	0.031626858
252	0x3c695f4a	0.01424391
253	0xbc717abf	-0.014738738
254	0xbd104f37	-0.035231795
255	0x3c1b29f0	0.009470448

_module.layer4.0.bias f4 [64]
0	0x3c87e0af	0.01658663
1	0x3d49fbe6	0.049312495
2	0xbd4a64f3	-0.04941268
3	0x3c9665a6	0.018359017
4	0x3abdff68	0.0014495673
5	0xbc380fc9	-0.011234232
6	0xbc949a38	-0.018139943
7	0xbc7e214b	-0.015510867
8	0x3b136403	0.0022490032
9	0x3ccc9c16	0.024976771
10	0x3c8ae2af	0.016953794
11	0xbc9e47f8	-0.019321427
12	0xbc2a021e	-0.010376481
13	0xbc8f1d1a	-0.017469931
14	0xbd3c74c2	-0.046009786
15	0x3a82f1d3	0.0009990282
16	0x3ca3969d	0.019969279
17	0x3ba0bcd1	0.004905321
18	0xbcf8c3a9	-0.030366736
19	0xbc411bba	-0.011786396
20	0xbd365222	-0.04451192
21	0x3bae2b59	0.005315226
22	0x3ca72ff7	0.020408614
23	0xbd245b0d	-0.040125895
24	0x3d53a6c3	0.05167271
25	0x3c1742bf	0.009232222
26	0x3d3e3fb3	0.046447467
27	0x3cd71438	0.026254758
28	0x3ce78e68	0.028266147
29	0xbcbdc3a4	-0.023164578
30	0xbd41ab3f	-0.047282454
31	0x3ca34a83	0.01993299
32	0xbba3bea4	-0.0049970914
33	0xbc6686ec	-0.014070254
34	0x3ccf28d9	0.025288032
35	0x3d402ecb	0.046919625
36	0xbab7fa8b	-0.001403646
37	0xbd4d1839	-0.05007193
38	0xbc27a876	-0.010233035
39	0xbd3bf3e4	-0.04588689
40	0xbce3c117	-0.027802033
41	0xbc339e1f	-0.010962992
42	0x3d35b312	0.044360228
43	0x3b7531b0	0.003741365
44	0xbc4838f5	-0.012220611
45	0x3b0bb675	0.002131847
46	0xbc96db0d	-0.018414998
47	0x3cfdd1d1	0.030983837
48	0x3ce607c3	0.028079873
49	0x3cec77c5	0.028865704
50	0x3d3e9e76	0.04653784
51	0x3d1cf9f9	0.03832433
52	0xbc9084b4	-0.017641403
53	0xb9b84a17	-0.00035150416
54	0xbb923d70	-0.0044628903
55	0x3ca40fe1	0.020027103
56	0xbd668307	-0.0562773
57	0xbd33cfd6	-0.04389938
58	0xbb0b24c3	-0.0021231628
59	0xbd2d2776	-0.04227396
60	0x3cb4c226	0.022065233
61	0xbd0a7670	-0.033804357
62	0xbcd63542	-0.026148442
63	0xbd5849ce	-0.05280476

_module.layer4.1.weight f4 [64]
0	0x3f82f0e3	1.0229763
1	0x3f822b99	1.0169555
2	0x3f81d90a	1.014436
3	0x3f81039b	1.0079225
4	0x3f8069cb	1.0032285
5	0x3f7d6f73	0.98998183
6	0x3f7cf07c	0.9880445
7	0x3f83fa26	1.0310714
8	0x3f85d682	1.0456088
9	0x3f81231d	1.0088841
10	0x3f7e82fb	0.9941861
11	0x3f7f597e	0.9974593
12	0x3f80801c	1.0039096
13	0x3f7f0ef2	0.9963218
14	0x3f79031f	0.9727039
15	0x3f7e8f84	0.9943774
16	0x3f80bedc	1.0058246
17	0x3f828cdf	1.019924
18	0x3f7ebcad	0.99506646
19	0x3f7ab696	0.97934854
20	0x3f8210c3	1.0161365
21	0x3f7aea56	0.9801382
22	0x3f7c2d6c	0.9850681
23	0x3f7db845	0.991093
24	0x3f797e5a	0.9745842
25	0x3f79ce12	0.97580063
26	0x3f828bf3	1.0198959
27	0x3f815fff	1.0107421
28	0x3f7fdb70	0.9994421
29	0x3f80b502	1.0055239
30	0x3f78ce6b	0.9718997
31	0x3f7fd896	0.9993986
32	0x3f820241	1.0156938
33	0x3f7c8d79	0.9865337
34	0x3f81b8fc	1.0134578
35	0x3f803c67	1.0018433
36	0x3f81d146	1.014199
37	0x3f7be33e	0.9839362
38	0x3f805279	1.0025169
39	0x3f7eecf2	0.995803
40	0x3f8204b4	1.0157685
41	0x3f7bc070	0.9834051
42	0x3f7ca734	0.9869263
43	0x3f799089	0.9748617
44	0x3f7c1321	0.9846669
45	0x3f76bdbf	0.9638328
46	0x3f7822c0	0.96928024
47	0x3f7bdb44	0.9838145
48	0x3f73d301	0.9524384
49	0x3f81e948	1.0149317
50	0x3f807ced	1.0038124
51	0x3f81ce98	1.0141172
52	0x3f7ff6f3	0.9998619
53	0x3f7c8c48	0.9865155
54	0x3f81b041	1.0131913
55	0x3f8063ca	1.0030453
56	0x3f7e6cea	0.9938494
57	0x3f7f1c99	0.9965301
58	0x3f7d13ee	0.98858535
59	0x3f7e3d69	0.99312454
60	0x3f7cce15	0.98751956
61	0x3f7da714	0.99083066
62	0x3f7a5b2c	0.9779537
63	0x3f82290a	1.0168774

_module.layer4.1.bias f4 [64]
0	0xbb8fde58	-0.004390519
1	0x3c81d172	0.015846942
2	0x3aaf2c53	0.001336465
3	0x3c9feba1	0.019521536
4	0xbc99b400	-0.018762589
5	0x3d03fa16	0.032220922
6	0xbcf4270d	-0.029803777
7	0x3cbc8d8a	0.02301671
8	0x3c385fdf	0.011253326
9	0xbcda2112	-0.026627097
10	0x3cf1f8ee	0.029537644
11	0x3b1fccad	0.002438347
12	0x3b27dadc	0.0025612628
13	0xbaeb8769	-0.0017969433
14	0xbc8a8381	-0.01690841
15	0x3b858220	0.00407435
16	0x3b82c85b	0.0039911694
17	0x3c243b20	0.010023862
18	0x3c14edb9	0.009089881
19	0xbbc34db9	-0.005960193
20	0xbc778180	-0.015106559
21	0xbb909877	-0.0044127065
22	0x3c892586	0.016741525
23	0x3be2b401	0.006918431
24	0x3c9cce12	0.01914123
25	0xbd1e9f18	-0.038725942
26	0x3be680f0	0.0070344135
27	0xbc140fa6	-0.009036934
28	0xbad2fb71	-0.0016096664
29	0x3bdf913a	0.0068227323
30	0xba6d97e7	-0.0009063468
31	0xbc704fc5	-0.014667456
32	0xbcc7fded	-0.024413073
33	0xbd3ac090	-0.0455938
34	0x3c48d348	0.012257405
35	0x3bcdd7b2	0.0062818164
36	0xbb6a5c52	-0.0035760594
37	0xbc066f04	-0.008205179
38	0xbccdbeb6	-0.025115352
39	0x3a1837a6	0.0005806632
40	0xbc0e938f	-0.008702173
41	0xbb6a9618	-0.003579503
42	0xbc5d3bdf	-0.013503044
43	0x3c059537	0.008153251
44	0x3c814f50	0.01578489
45	0x3cfb022c	0.030640684
46	0x3ad228e2	0.0016033913
47	0x3c35e0f8	0.011101
48	0x3c96da0a	0.018414516
49	0x3cbd206a	0.023086745
50	0x3c0a7300	0.00845027
51	0x3c971111	0.018440755
52	0xbcb68629	-0.02228077
53	0x3c807863	0.015682405
54	0xba8c3475	-0.0010696786
55	0x3c0fb7d0	0.008771852
56	0x3caa599f	0.020794688
57	0xbd194012	-0.037414618
58	0xbca1cb10	-0.019750148
59	0x3ce141f9	0.027497279
60	0x3ca5f238	0.0202571
61	0xbc939737	-0.01801644
62	0x3d05bf16	0.032652937
63	0x3c916b26	0.017751288

_module.layer5.0.weight f4 [64, 64, 3, 3]
0	0xbc213d56	-0.009841284
1	0x3be0d202	0.0068609724
2	0xbd0cf0a4	-0.03440918
3	0x3b535b7c	0.0032250574
4	0x3d424b70	0.047435224
5	0xbce77f9f	-0.028259097
6	0x3d663436	0.056202136
7	0xbc9d8134	-0.019226648
8	0xbc330d43	-0.010928455
9	0x3d1b9112	0.037980147
10	0xbc9da01f	-0.01924139
11	0x3d13f513	0.036122393
12	0xbd080859	-0.033211086
13	0x3d10c7f5	0.035346944
14	0x3c911fd2	0.017715368
15	0xbca304a0	-0.019899666
16	0xbd5ef69e	-0.05443441
17	0xbc860a62	-0.016362373
18	0xbc4d43ae	-0.012528343
19	0x3be988b1	0.0071268906
20	0xbd378407	-0.044803645
21	0xbd12b636	-0.0358183
22	0xbd27c08d	-0.040955115
23	0xbcfc3472	-0.030786727
24	0xbc0d05f6	-0.008607378
25	0xbc0f178e	-0.008733643
26	0xbc3b4861	-0.011430831
27	0xbc578be4	-0.013155911
28	0xbd05c36c	-0.032657072
29	0xbc87b6ee	-0.01656672
30	0x3c46bd77	0.012130133
31	0xbcdcb51a	-0.026941825
32	0x3cfc1142	0.030769948
33	0xbc4632e2	-0.012097092
34	0x3d0af6da	0.033926822
35	0xbd1d2050	-0.038360894
36	0xbcf9f403	-0.030511862
37	0x3d817f78	0.06323141
38	0x3c82a171	0.015946122
39	0x3c8695e0	0.016428888
40	0xbd3d022f	-0.04614466
41	0x3cde9a62	0.027173225
42	0xbd7ff9c2	-0.062494047
43	0xbd347e41	-0.044065718
44	0x3cc2842f	0.02374467
45	0x3b9ccef7	0.0047854143
46	0x3d0b1fb5	0.033965785
47	0xbc94bc48	-0.018156186
48	0x3c5c0f66	0.013431406
49	0x3c782238	0.015144877
50	0x3a29b8b0	0.0006474359
51	0x3c54d83f	0.01299101
52	0xbc6acd3b	-0.014331157
53	0xbcda6270	-0.026658267
54	0x3d2c1bea	0.04201881
55	0xbd2ce559	-0.04221091
56	0xbd1172ab	-0.035509747
57	0x3c84f676	0.016230803
58	0xbce98383	-0.028505092
59	0xbc8f40c0	-0.01748693
60	0xbc01c678	-0.007920854
61	0x3d030da6	0.031995438
62	0x3cb1cd7a	0.021704424
63	0xbca454b7	-0.020059926
64	0xbd50511f	-0.050858613
65	0x3d65a749	0.05606774
66	0xbd981e11	-0.0742761
67	0x3d00a0b0	0.031403244
68	0xbd41458c	-0.047185466
69	0x3beb0c4f	0.007173098
70	0xbd1a36a0	-0.03764975
71	0xbc666fdd	-0.014064756
72	0x3d1aa6a9	0.037756596
73	0x3d1938a9	0.03740755
74	0xbc0dca72	-0.008654224
75	0x3c5c8a0b	0.013460646
76	0x3d107e83	0.0352769
77	0x3c94d2fd	0.018167013
78	0xbca44e7f	-0.020056961
79	0xbcbf4184	-0.02334667
80	0xbc9f2a8e	-0.019429471
81	0x3d0490cd	0.032364655
82	0x3b97b5a6	0.0046298085
83	0xbd13ab35	-0.036051948
84	0xbd765928	-0.06014362
85	0x39fbd6bf	0.0004803445
86	0xbce7f396	-0.028314393
87	0xbd29c591	-0.04144818
88	0xbccbfb2e	-0.024900045
89	0x3c974a75	0.018468121
90	0x3cf4bf24	0.0298763
91	0x3c153e8f	0.009109153
92	0x3d2b6c15	0.041851122
93	0x3d07e586	0.033177875
94	0xbc71277b	-0.0147188855
95	0x3ca92a8f	0.020650176
96	0xbd37917b	-0.044816475
97	0xbd2c3ea9	-0.042051945
98	0xbd22cd92	-0.03974683
99	0xbcde1925	-0.0271116
100	0x3c2c394b	0.010511707
101	0xbd189aea	-0.037257113
102	0x3d04ab23	0.03238977
103	0x3c213a66	0.009840583
104	0xbb68be6e	-0.0035513896
105	0x3d5cd38b	0.05391268
106	0xbca68737	-0.020328147
107	0xbce02be8	-0.027364686
108	0x3c77baf8	0.01512026
109	0x3ce74d97	0.02823524
110	0x3c202d78	0.009776466
111	0xbc5764b3	-0.013146567
112	0xbd455108	-0.04817298
113	0x3c1b792a	0.009489337
114	0x3d8d4c48	0.06899315
115	0x3d19d4e2	0.037556536
116	0x3ba514ea	0.0050378935
117	0x3cc1ebac	0.023671947
118	0x3c084d91	0.0083192745
119	0x3c7d0554	0.015443165
120	0xbc01ac37	-0.007914594
121	0x3c4a851a	0.012360835
122	0x3cde2251	0.027115973
123	0x38947282	7.078519e-05
124	0xbd53f587	-0.051747825
125	0xbae3ae98	-0.0017370759
126	0xbd3c89e3	-0.046029937
127	0xbd1eb05f	-0.03874242
128	0xbca76cf5	-0.020437697
129	0xbd87e799	-0.066359706
130	0xbd907a93	-0.07054629
131	0x3b96ec2a	0.0046057897
132	0x3d14edb2	0.036359496
133	0x3d880157	0.066408806
134	0xbbf6bba8	-0.0075296946
135	0x3cb03d11	0.021513494
136	0x3d18d87f	0.03731584
137	0xbc35bc57	-0.011092267
138	0x3d46dfc2	0.048553236
139	0xbd99c39c	-0.07508013
140	0x3d92e203	0.071720146
141	0x3c3581be	0.011078296
142	0xbb13e607	-0.0022567527
143	0x3cbb2976	0.022846919
144	0xbd936435	-0.07196847
145	0xbc267979	-0.010160797
146	0xbd1d1fdf	-0.038360473
147	0xbc44f4ce	-0.012021257
148	0x3cfc514c	0.030800484
149	0xbcf486b6	-0.029849391
150	0x3d01598e	0.031579547
151	0x3b906882	0.0044069896
152	0xbcab635c	-0.020921402
153	0x3d16eb20	0.036845326
154	0x3c3ddc54	0.011588175
155	0xbd3632ac	-0.04448192
156	0xbc83af04	-0.016074665
157	0x3d662743	0.056189787
158	0xbd016a6e	-0.03159564
159	0xbcd05d1c	-0.025435023
160	0x3cf2b183	0.02962566
161	0x3c082208	0.008308895
162	0x3c9fb72f	0.019496528
163	0xbc2897b3	-0.010290074
164	0xbc5dd313	-0.013539094
165	0xbd0dfbf6	-0.034664117
166	0x3d681793	0.056663107
167	0x3ba5eb8b	0.0050634793
168	0x3be04ee4	0.006845342
169	0x3c84bcbc	0.016203277
170	0x3ba5b892	0.005057403
171	0x3c997e76	0.01873706
172	0x3cdbded9	0.02683966
173	0x3cc52283	0.024064308
174	0xb9f87930	-0.00047392538
175	0x3cc172de	0.023614343
176	0x3cd0f74a	0.025508542
177	0xbc270206	-0.0101933535
178	0x3d0c835f	0.034304973
179	0x3b8f4903	0.0043727173
180	0x3b368bf4	0.0027854415
181	0xbd0d0deb	-0.0344371
182	0x3cd2b0f8	0.02571915
183	0xbd192f0e	-0.03739839
184	0xbc95e361	-0.0182969
185	0x3d128d18	0.03577909
186	0xb93792f1	-0.0001750698
187	0x3d11ab2a	0.035563625
188	0xbb12fcf5	-0.0022428606
189	0x3d010ae5	0.03150453
190	0x3ce76db4	0.028250553
191	0x3c8f79bc	0.017514102
192	0x3d4636d7	0.048392143
193	0xbca14791	-0.019687446
194	0xbcb0492c	-0.021519266
195	0x3d38d395	0.045123655
196	0x3c11fcda	0.008910382
197	0xbb9c9a6f	-0.004779152
198	0xbd1e4128	-0.038636357
199	0xbc925ae3	-0.017865604
200	0xbcedc950	-0.029026657
201	0x3d196d2a	0.037457623
202	0xbbb9ffe7	-0.005676258
203	0xbd1aff2c	-0.037841007
204	0xbce7a359	-0.028276132
205	0xbd3cc077	-0.046081986
206	0xbd1283d8	-0.035770267
207	0xbd2b3f9c	-0.04180871
208	0x3c852f07	0.016257776
209	0x3cb2d983	0.021832233
210	0x3c39c38f	0.011338129
211	0xbc6a5af4	-0.0143039115
212	0xbd47e78f	-0.048804816
213	0x3d7a17b1	0.06105775
214	0xbbf00839	-0.007325199
215	0xbbe3623b	-0.0069392
216	0xbcfed404	-0.031106956
217	0x3d83219e	0.06402896
218	0x3cddeb3e	0.027089711
219	0x3cb58769	0.022159295
220	0xbd357a24	-0.044305936
221	0xbca355cd	-0.019938374
222	0x3d34397f	0.044000145
223	0x3d26f703	0.040762912
224	0x3c1f357c	0.0097173415
225	0xbc889d5d	-0.0166766
226	0xbcd0270b	-0.025409242
227	0xbc0ce2b1	-0.008598969
228	0x3ce7261f	0.02821642
229	0xbc5f8d0b	-0.013644467
230	0xbd462f35	-0.048384864
231	0x3ba090f5	0.0049000927
232	0x3c870fa9	0.01648696
233	0x3c93f0c6	0.018059146
234	0x3c7669f4	0.01503991
235	0xbd71815b	-0.058961254
236	0xbd4cec67	-0.05003014
237	0x3c9ad3ef	0.018899886
238	0xbc9bcec0	-0.019019485
239	0xbcc5e694	-0.0241578
240	0x3d35d1d5	0.044389565
241	0x3989a79f	0.00026255564
242	0xbcfabd7c	-0.030607931
243	0xbc23fb2b	-0.010008614
244	0xbd154623	-0.03644384
245	0xba81c29d	-0.0009899918
246	0xbd0b1127	-0.033951905
247	0x3d0c135a	0.034198143
248	0xbd8a8d57	-0.0676524
249	0x3d086eac	0.03330867
250	0xbd261c80	-0.040554523
251	0x3c86193e	0.016369458
252	0xbcc77f09	-0.024352567
253	0x3cc01840	0.023449063
254	0xbc2d4734	-0.010576058
255	0xbcd1ddad	-0.025618399

_module.layer5.0.bias f4 [64]
0	0xbcb9ee43	-0.02269662
1	0x3c9b777f	0.018977879
2	0x3cbf1815	0.023326913
3	0x3cff46a7	0.03116162
4	0x3bae13e5	0.00531243
5	0xbb512cca	-0.0031917566
6	0xbc7a0fd5	-0.015262564
7	0x3be67360	0.0070327967
8	0x3a8291e0	0.0009961687
9	0x3d23b184	0.039964214
10	0xbd34b19a	-0.044114687
11	0xbc9f5c8c	-0.01945331
12	0xbd69333f	-0.056933638
13	0xbc7036cc	-0.014661502
14	0xba8a655d	-0.0010558773
15	0x3a276a99	0.0006386429
16	0xbd3d1d68	-0.046170622
17	0x3cd455f4	0.025919892
18	0xbc228874	-0.009920228
19	0xbd02d486	-0.03194096
20	0xbb3f5336	-0.0029193885
21	0x3d0eccf5	0.03486343
22	0xbcd4ad8c	-0.02596166
23	0xbcca0f30	-0.024665445
24	0xbb338dc2	-0.0027397727
25	0xbd4415ac	-0.04787223
26	0x3d1a42ea	0.03766147
27	0x3b999052	0.004686394
28	0xbc0a13ed	-0.008427602
29	0x3ba86e47	0.005140099
30	0xbc8e405c	-0.017364673
31	0x3d428e8c	0.047499225
32	0x3b99b674	0.0046909396
33	0xbc0f7293	-0.008755344
34	0x3d17478d	0.03693347
35	0x3cbe1626	0.02320392
36	0x3d177aaf	0.036982235
37	0xbd026754	-0.031836823
38	0xbc888dbb	-0.016669145
39	0xbd3f55ad	-0.046712566
40	0xbcc01189	-0.023445861
41	0xbc68ec81	-0.014216543
42	0x3d27cb58	0.040965408
43	0xbd2b876a	-0.041877188
44	0xbc9dc9fc	-0.019261353
45	0x3d46a95b	0.048501354
46	0x3b9ae9ba	0.0047275694
47	0xbd456680	-0.048193455
48	0xbd227646	-0.039663576
49	0x3cde034b	0.02710118
50	0x3ca51af6	0.020154458
51	0x3c4b5999	0.012411498
52	0xbd63ec24	-0.055645123
53	0x3ce99a99	0.0285161
54	0xbc9407fe	-0.018070217
55	0x3b8439b2	0.004035198
56	0x3d522996	0.05130919
57	0xbbaf2c4c	-0.005345857
58	0xbc827dd7	-0.015929146
59	0xbd00e639	-0.031469557
60	0xbc9fa5e2	-0.019488279
61	0x3ba80cd0	0.0051284805
62	0x3cc6fdfa	0.024291027
63	0xbcc48847	-0.023990763

_module.layer5.1.weight f4 [64]
0	0x3f7520a5	0.95752937
1	0x3f825989	1.0183574
2	0x3f80e066	1.0068481
3	0x3f82642a	1.0186818
4	0x3f794e42	0.97385037
5	0x3f7ce27d	0.98783094
6	0x3f803420	1.0015907
7	0x3f79af15	0.9753278
8	0x3f7bca0f	0.9835519
9	0x3f820e93	1.0160698
10	0x3f7a5e03	0.977997
11	0x3f807ff0	1.0039043
12	0x3f7dbb90	0.9911432
13	0x3f764f48	0.96214724
14	0x3f810ccb	1.0082029
15	0x3f8048ba	1.0022194
16	0x3f87ec43	1.0618976
17	0x3f8479de	1.0349691
18	0x3f7df45b	0.9920098
19	0x3f80a2a7	1.0049638
20	0x3f7ada30	0.9798918
21	0x3f81930a	1.0122998
22	0x3f7e3156	0.9929403
23	0x3f74d91f	0.956438
24	0x3f8295fd	1.0202023
25	0x3f800501	1.0001527
26	0x3f81ab1a	1.0130341
27	0x3f7899a4	0.97109437
28	0x3f802dd5	1.0013987
29	0x3f79d169	0.9758516
30	0x3f7f1c5a	0.99652636
31	0x3f7f199f	0.9964847
32	0x3f8301eb	1.023496
33	0x3f8225f8	1.0167837
34	0x3f80abe9	1.0052463
35	0x3f7ee237	0.99563926
36	0x3f83c0d9	1.0293227
37	0x3f7e3c2a	0.99310553
38	0x3f8058d7	1.0027112
39	0x3f7c87db	0.986448
40	0x3f807689	1.0036174
41	0x3f7f27f5	0.99670345
42	0x3f7ce9f6	0.98794496
43	0x3f829ee1	1.0204736
44	0x3f7e13ae	0.9924878
45	0x3f826aab	1.0188802
46	0x3f77782f	0.9666776
47	0x3f82677e	1.0187833
48	0x3f7d5ead	0.9897259
49	0x3f821c6b	1.0164922
50	0x3f807e5b	1.0038561
51	0x3f7820e6	0.969252
52	0x3f80717d	1.0034634
53	0x3f7c0191	0.9843989
54	0x3f833481	1.0250398
55	0x3f7d79e9	0.99014145
56	0x3f84c9dc	1.0374103
57	0x3f83f9c6	1.03106
58	0x3f7999d1	0.9750033
59	0x3f816b3a	1.0110848
60	0x3f8072df	1.0035056
61	0x3f811879	1.0085593
62	0x3f836da5	1.0267836
63	0x3f80971f	1.0046118

_module.layer5.1.bias f4 [64]
0	0x3a9ccfaa	0.0011963744
1	0x3998e5fc	0.0002916305
2	0x3c30567f	0.01076281
3	0x3cbdbcad	0.023161257
4	0xbbf888cd	-0.0075846673
5	0x3c0f3314	0.008740205
6	0x3d0eb2c9	0.03483847
7	0xbc71b017	-0.014751456
8	0xbcafe48c	-0.021471284
9	0x3bf22f97	0.007390927
10	0xbc562422	-0.013070138
11	0xbcd93c14	-0.026517905
12	0x3c66bccc	0.014083099
13	0xbc8adb85	-0.016950378
14	0x3b55802e	0.0032577622
15	0x3b5d6463	0.003378176
16	0xbb561bce	-0.0032670381
17	0xbb1944f6	-0.0023387051
18	0x3c1a853a	0.009431178
19	0x3c9e36a1	0.019313158
20	0xbc1430c4	-0.00904483
21	0xbcd800ca	-0.026367564
22	0xbc14e937	-0.009088806
23	0xbce740f9	-0.028229224
24	0xbb5d335f	-0.0033752543
25	0x3d15c7b9	0.036567423
26	0x3d34e959	0.04416785
27	0xbc8445fd	-0.016146654
28	0x3a671441	0.0008814969
29	0x3bd85a53	0.0066025644
30	0x3c963ed2	0.018340502
31	0xbc808a24	-0.01569087
32	0x3c87dd4c	0.016585015
33	0x3b5763f6	0.0032865978
34	0xbbf9b2e0	-0.0076202005
35	0xba946da7	-0.0011324183
36	0x3b88eade	0.004178389
37	0x3cc4a330	0.024003595
38	0x3c7b93e6	0.015355086
39	0x3cbe02c3	0.023194676
40	0x3bbc3cdd	0.00574456
41	0xbbb1640d	-0.0054135383
42	0x3a237d95	0.000623667
43	0x3c3e3f79	0.011611813
44	0xbcea675e	-0.028613742
45	0x3c780d71	0.015139923
46	0xbc8ab4c5	-0.0169319
47	0x3ca74d5a	0.020422626
48	0x3c55d108	0.013050325
49	0x3bc59e62	0.0060308436
50	0x3d11e74c	0.035620973
51	0xbcceae11	-0.025229486
52	0x3ccfbffa	0.025360096
53	0xbc0387b1	-0.008027957
54	0x3d1694e0	0.036763072
55	0xbcd5f65e	-0.026118454
56	0xbc18b899	-0.009321355
57	0x3cb3327d	0.02187466
58	0x3ce05dbd	0.027388448
59	0x3b83c7ba	0.004021612
60	0x3b6f04cb	0.0036471363
61	0xbcc8f677	-0.024531586
62	0x3cc648c5	0.024204621
63	0xbca286ca	-0.019839663
