weights/pretrain_normal__finetune_private.pth (torch, 947284 bytes, 26 tensors)

_module.layer1.0.weight f4 [16, 1, 3, 3]
-0.11243816 0.13314341 -0.0802928 -0.3023628 -0.041017216 -0.123833604 0.08327501 0.22529338
-0.0731586 -0.12977052 -0.21210903 0.02672122 -0.04618208 0.035121586 0.28261217 0.078057006
0.1497018 -0.0126578985 -0.12492211 0.20968227 0.057855535 0.072269864 0.28825092 0.21343654
0.0055127833 -0.14252883 -0.1166808 0.15053163 -0.00829567 -0.29365325 0.10161441 -0.08960615
0.087748855 -0.16375956 -0.20189954 0.07194872 0.16802335 -0.32685286 0.17959496 -0.19324662
0.09284004 -0.26209304 -0.018416086 -0.2074678 -0.17666928 -0.16972016 -0.124812886 -0.019855434
-0.13187474 -0.16334522 0.01816761 0.31458232 0.06931806 0.22211671 -0.3087165 -0.28352502
0.1459747 -0.011713451 0.020994395 0.17363757 -0.24114293 -0.20983775 -0.14187294 -0.17243543
-0.26654586 0.14640363 -0.28910655 0.05389924 0.17946431 0.21370383 -0.00022562877 0.023610353
-0.33352673 -0.28313193 -0.31042773 0.24506313 -0.33196867 0.25698924 -0.10289073 -0.014417899
0.25759986 -0.24516775 0.02963992 -0.18424386 0.06286868 -0.12395056 -0.08287609 -0.25428715
-0.20474114 0.07298391 0.25261328 0.27030733 0.02150577 0.21944638 -0.10157506 0.27842826
-0.02243999 0.13591036 -0.21972665 -0.23554277 -0.34350404 0.3432257 -0.09997645 -0.29927975
0.16037647 0.062467344 -0.28572476 0.026473142 0.12736687 0.06283844 0.1710315 0.34216887
-0.26265892 0.02299369 -0.019154988 -0.06661711 0.29671317 0.22448297 -0.22923884 -0.25112498
-0.054854188 0.21530375 -0.2278824 0.23470514 -0.0066633504 -0.13722278 0.12853304 0.29605848
-0.18568785 -0.026524015 0.18086033 -0.18716717 -0.13053666 0.29382697 -0.14016668 -0.23628405
0.031337995 0.16302903 -0.21426676 -0.09636271 0.043324623 0.140139 0.16876484 -0.13378385
00000000: fa45 e6bd bf56 083e 8d70 a4bd 4ccf 9abe
00000010: ab01 28bd 799c fdbd 178c aa3d 4fb3 663e
00000020: 2dd4 95bd 90e2 04be 1c33 59be 76e6 da3c
00000030: 6c29 3dbd a7db 0f3d 8bb2 903e 5adc 9f3d
00000040: 6e4b 193e 1363 4fbc 2ad7 ffbd f3b6 563e
00000050: edf9 6c3d 3902 943d a095 933e 1c8f 5a3e
00000060: 94a4 b43b 14f3 11be 58f6 eebd f724 1a3e
00000070: 90ea 07bc b859 96be 371b d03d 6e83 b7bd
00000080: acb5 b33d 96b0 27be c1be 4ebe da59 933d
00000090: 500e 2c3e 4259 a7be bee7 373e 71e2 45be
000000a0: eb22 be3d 0f31 86be 55dd 96bc 7072 54be
000000b0: cbe8 34be 1fcb 2dbe e69d ffbd dda7 a2bc
000000c0: 2c0a 07be f843 27be 3dd4 943c ef10 a13e
000000d0: a1f6 8d3d 9072 633e 1710 9ebe 312a 91be
000000e0: 647a 153e c6e9 3fbc 70fc ab3c 0cce 313e
000000f0: 2cee 76be b5df 56be 2447 11be ea92 30be
00000100: b378 88be d5ea 153e c605 94be 73c5 5c3d
00000110: 7ec5 373e 2dd5 5a3e c396 6cb9 806a c13c
00000120: 04c4 aabe abf6 90be 62f0 9ebe d4f1 7a3e
00000130: ccf7 a9be 1894 833e 60b8 d2bd 0d39 6cbc
00000140: 21e4 833e 410d 7bbe 6bcf f23c 6caa 3cbe
00000150: 4bc1 803d cbd9 fdbd f1ba a9bd ed31 82be
00000160: a9a7 51be 9778 953d 8756 813e b965 8a3e
00000170: de2c b03c 8db6 603e 9606 d0bd 268e 8e3e
00000180: 12d4 b7bc 162c 0b3e 0600 61be 2032 71be
00000190: c3df afbe 47bb af3e 74c0 ccbd 323b 99be
000001a0: bb39 243e c2dd 7f3d 844a 92be 34de d83c
000001b0: 766c 023e 71b1 803d e222 2f3e c230 af3e
000001c0: 3b7b 86be 435d bc3c ecea 9cbc 8d6e 88bd
000001d0: caea 973e ddde 653e 96bd 6abe 7493 80be
000001e0: c9ae 60bd 9678 5c3e 015a 69be 8b56 703e
000001f0: 3c58 dabb 2184 0cbe 2a9e 033e fa94 973e
00000200: f524 3ebe e448 d9bc 7333 393e c0a8 3fbe
00000210: 67ab 05be 7d70 963e db87 0fbe 72f4 71be
00000220: 455c 003d 15f1 263e bf68 5bbe d059 c5bd
00000230: 2975 313d 9980 0f3e b1d0 2c3e a2fe 08be

_module.layer1.0.bias f4 [16]
-0.25017723 -0.1569902 0.1302116 0.06749925 -0.08508663 -0.052453946 0.34170395 0.258193
-0.014210234 -0.09551384 -0.015184873 -0.19324608 -0.14344566 -0.25866452 0.10866486 0.28231385
00000000: 3b17 80be 0ac2 20be 3156 053e 0c3d 8a3d
00000010: e641 aebd f3d9 56bd d2f3 ae3e df31 843e
00000020: 0bd2 68bc c39c c3bd f9c9 78bc 4de2 45be
00000030: 6be3 12be ad6f 84be af8b de3d 718b 903e

_module.layer1.1.weight f4 [16]
1.0002981 1.0311372 1.0012093 0.96690613 1.0371956 0.99738157 1.011226 1.038522
0.95373714 0.9937488 0.97823364 0.99817026 1.0220023 1.0197195 1.038034 0.9930176
00000000: c509 803f 4efc 833f a027 803f 2987 773f
00000010: d3c2 843f 6654 7f3f db6f 813f 4aee 843f
00000020: 1e28 743f 5266 7e3f 856d 7a3f 1688 7f3f
00000030: f9d0 823f 2b86 823f 4cde 843f 6736 7e3f

_module.layer1.1.bias f4 [16]
-0.015330239 0.0028187472 -0.005145702 0.0011939723 0.012946304 0.022755014 -0.018664587 -0.0027051184
-0.019416394 -0.015110439 -0.016972838 0.032357186 0.028531928 -0.013619144 0.0021255203 -0.011615014
00000000: af2b 7bbc bbba 383b 479d a8bb 107f 9c3a
00000010: bc1c 543c b968 ba3c 7ae6 98bc 5b48 31bb
00000020: 210f 9fbc c691 77bc 9f0a 8bbc f888 043d
00000030: cabb e93c d522 5fbc 504c 0b3b e64c 3ebc

_module.layer2.0.weight f4 [16, 16, 3, 3]
0.032336608 -0.0700733 -0.056744926 0.06502631 0.0943679 -0.06673153 -0.00994067 -0.06946156
-0.0051318877 0.09425881 -0.020986537 0.060641173 0.05704471 0.024819667 0.07780435 0.10883032
-0.050266005 0.04863818 -0.045327667 -0.012400829 -0.064738154 -0.02397042 0.04168758 -0.05998279
0.099405326 0.016102554 -0.06657754 -0.035812717 -0.08460137 -0.01027659 0.072713085 0.051902995
0.082112916 0.100582115 -0.061766077 -0.027823467 0.009303031 0.06933153 -0.0017963892 0.0045747943
0.070102684 -0.0066943467 -0.0678996 0.0024929515 -0.04499721 0.0024851412 0.04128679 0.037253954
0.024264509 -0.040665608 0.04624922 -0.0077444273 0.09132824 0.021130983 0.031031853 0.049641952
0.04388793 -0.049490646 -0.09721269 0.06357348 -0.04738136 0.054667834 -0.008563944 0.013802204
0.110288166 0.048068956 0.056700077 -0.046168093 0.04025472 -0.050557602 -0.031307384 0.0021550483
-0.048860475 0.062657125 0.008671629 0.047711294 -0.027917922 -0.04068446 0.05498275 -0.03041112
0.038259145 -0.050190497 0.010409474 -0.02397817 -0.038331755 0.037068047 -0.034681834 0.02639224
-0.073943056 0.044344384 0.045384467 0.06879207 -0.03091096 0.02024851 -0.0887765 0.02645257
-0.008065486 0.03807469 -0.050983768 -0.013002975 0.024035364 -0.039621152 -0.0030699384 0.054420255
-0.041153476 -0.08517225 0.040507924 0.05510918 -0.0438215 0.036399823 0.048690103 -0.057378806
0.027704053 0.055943344 0.047708746 0.016433533 0.02145559 -0.024557615 0.008340455 -0.012597418
-0.06216473 0.0024481332 -0.091395095 0.065570034 0.002541043 -0.08226168 -0.032519016 -0.017991167
-0.0040082345 -0.0015081569 -0.019385772 -0.063051924 0.025255786 -0.07387557 -0.021139419 -0.061120827
0.08534013 0.06820833 0.045015633 0.07585161 -0.093381524 -0.036198027 0.004770771 0.014953821
0.002537943 -0.06551233 0.035889026 0.029697234 0.02230052 -0.08788769 0.024157012 -0.023391452
-0.009532071 0.028133139 0.067811 0.0059943856 0.006738194 -0.04872215 -0.05883259 -0.0018311591
0.10392585 0.04561549 -0.061956894 0.032503348 0.024721205 -0.05846791 0.03245314 0.0155343525
0.01753908 0.0050012204 0.02830017 0.07228041 -0.039278116 -0.04547762 0.053747453 0.004924966
0.06683005 -0.076124765 0.05285403 0.06636372 -0.0660475 -0.02236873 -0.08400208 -0.041501198
0.011533846 -0.01771009 0.003938728 -0.06426986 -0.0011524061 -0.060107607 -0.07814166 -0.05335553
-0.028173734 0.060447793 -0.06811613 0.036640003 0.011887179 -0.04754501 0.07658489 -0.007478904
0.060851965 0.048938535 0.020914318 -0.02466108 -0.032034446 -0.04018407 -0.006070489 -0.03999196
0.04867905 0.06179967 0.012458865 0.0010167386 0.012941617 -0.0063845464 -0.087749764 0.06414662
0.085454404 -0.032400593 0.02122103 -0.07302609 0.056541063 0.08155119 -0.067187056 0.051650275
0.08636989 0.007399971 0.04755416 -0.0434196 0.025528908 -0.08490013 -0.036715977 0.064493135
0.04184121 -0.050975494 0.055825233 0.04070399 -0.07648132 0.08041074 0.043963607 -0.022531874
0.023824796 0.03317807 -0.021934452 0.036050566 0.04414374 -0.08615053 -0.07095574 -0.063283816
-0.032531552 -0.05198783 0.05791685 -0.05207915 0.00032613493 0.06712054 -0.025878789 0.07820402
00000000: 6473 043d 9782 8fbd 5e6d 68bd 842c 853d
00000010: f543 c13d 8aaa 88bd 31de 22bc dd41 8ebd
00000020: 6529 a8bb c30a c13d f5eb abbc e162 783d
00000030: b7a7 693d 9d52 cb3c e357 9f3d 6ee2 de3d
00000040: bae3 4dbd d438 473d 81a9 39bd d92c 4bbc
00000050: 7095 84bd 9d5d c4bc 99c0 2a3d 84b0 75bd
00000060: 0595 cb3d 81e9 833c ce59 88bd 5bb0 12bd
00000070: 7c43 adbd 245f 28bc 99ea 943d 3c98 543d
00000080: d12a a83d fffd cd3d 6dfe 7cbd 0aee e3bc
00000090: bd6b 183c b0fd 8d3d d274 ebba 28e8 953b
000000a0: ff91 8f3d 405c dbbb f20e 8bbd c960 233b
000000b0: ff4e 38bd c0dd 223b 561c 293d 9a97 183d
000000c0: 5dc6 c63c fb90 26bd d26f 3d3d f7c4 fdbb
000000d0: 4d0a bb3d e21a ad3c 8336 fe3c 5c55 4b3d
000000e0: d5c3 333d b4b6 4abd 7217 c7bd d032 823d
000000f0: f512 42bd 61eb 5f3d c94f 0cbc a422 623c
00000100: c3de e13d f4e3 443d 573e 683d c11a 3dbd
00000110: 22e2 243d 7d15 4fbd 2c3c 00bd b63b 0d3b
00000120: ec21 48bd 6152 803d 7313 0e3c eb6c 433d
00000130: 20b4 e4bc c0a4 26bd 9835 613d be20 f9bc
00000140: 9fb5 1c3d 8d94 4dbd 808c 2a3c de6d c4bc
00000150: c201 1dbd aad4 173d 8a0e 0ebd 8a34 d83c
00000160: 756f 97bd 75a2 353d 10e5 393d dbe2 8c3d
00000170: fb38 fdbc 34e0 a53c 74d0 b5bd 0fb3 d83c
00000180: 1a25 04bc 35f4 1b3d 5bd4 50bd 6e0a 55bc
00000190: d0e5 c43c ca49 22bd 0531 49bb c6e7 5e3d
000001a0: 8c90 28bd ca6e aebd a3eb 253d 2aba 613d
000001b0: 2c7e 33bd fb17 153d 466f 473d 0a06 6bbd
000001c0: 9cf3 e23c d924 653d 3f6a 433d 9e9f 863c
000001d0: a2c3 af3c 0d2d c9bc 67a6 083c 6765 4ebc
000001e0: 72a0 7ebd dc70 203b 5a2d bbbd 9549 863d
000001f0: a187 263b d078 a8bd a932 05bd 3662 93bc
00000200: 8257 83bb 59ad c5ba e9ce 9ebc 5e21 81bd
00000210: 39e5 ce3c 134c 97bd 932c adbc d559 7abd
00000220: cec6 ae3d cfb0 8b3d 5062 383d 1758 9b3d
00000230: d03e bfbd 6244 14bd 2154 9c3b df00 753c
00000240: 9e53 263b 542b 86bd 5f00 133d 9d47 f33c
00000250: 95af b63c 76fe b3bd ede4 c53c 6e9f bfbc
00000260: 672c 1cbc 7877 e63c 7ee0 8a3d 8d6c c43b
00000270: 11cc dc3b e190 47bd 71fa 70bd 8103 f0ba
00000280: 13d7 d43d 4fd7 3a3d 83c6 7dbd 3b22 053d
00000290: 2084 ca3c 0c7c 6fbd 95ed 043d cc83 7e3c
000002a0: 1eae 8f3c 47e1 a33b c2d5 e73c c007 943d
000002b0: 17e2 20bd be46 3abd 4a26 5c3d 9c61 a13b
000002c0: 31de 883d 4de7 9bbd 787d 583d b4e9 873d
000002d0: e943 87bd a03e b7bc 4809 acbd 29fd 29bd
000002e0: 75f8 3c3c c014 91bc 7210 813b eb9f 83bd
000002f0: 550c 97ba 6533 76bd bc08 a0bd 548b 5abd
00000300: 9acc e6bc 1b98 773d 7880 8bbd d413 163d
00000310: 71c2 423c 8ebe 42bd 8ad8 9c3d 9811 f5bb
00000320: e93f 793d c673 483d 8154 ab3c 0906 cabc
00000330: 8d36 03bd 0d98 24bd f4ea c6bb 9cce 23bd
00000340: af63 473d a721 7d3d 4420 4c3c 1644 853a
00000350: 1309 543c 7535 d1bb 26b6 b3bd 4e5f 833d
00000360: b802 af3d 7cb6 04bd bad7 ad3c b48e 95bd
00000370: 9a97 673d 4f04 a73d 5e99 89bd 3d8f 533d
00000380: b2e2 b03d 757b f23b 27c8 423d c0d8 31bd
00000390: 0022 d13c 1fe0 adbd 7e63 16bd fa14 843d
000003a0: b061 2b3d aecb 50bd 00a9 643d 3ab9 263d
000003b0: 3da2 9cbd 63ae a43d 2f13 343d c494 b8bc
000003c0: 382c c33c bae5 073d e1af b3bc c2a9 133d
000003d0: 11d0 343d b06f b0bd 3e51 91bd f29a 81bd
000003e0: ce3f 05bd 31f1 54bd 383a 6d3d f250 55bd
000003f0: 17fd aa39 7e76 893d c1ff d3bc 6e29 a03d

_module.layer2.0.bias f4 [16]
0.027044551 -0.052284602 -0.042705018 -0.04703547 0.002266852 -0.04993335 0.086243495 0.028312698
-0.043221604 -0.07456532 -0.042575493 0.054159794 0.03865853 0.020450385 -0.06453915 -0.06673316
00000000: 898c dd3c 6128 56bd 75eb 2ebd 44a8 40bd
00000010: 778f 143b ea86 4cbd 6ea0 b03d 08f0 e73c
00000020: 2309 31bd b4b5 98bd a463 2ebd a9d6 5d3d
00000030: 6858 1e3d 9187 a73c 1a2d 84bd 65ab 88bd

_module.layer2.1.weight f4 [16]
0.99938977 1.0021487 1.0269513 0.98724043 0.99765205 1.0064043 1.0192847 0.9885675
1.0084271 0.9940852 0.9908028 1.0102828 0.9844101 1.0119036 0.98394674 1.00147
00000000: 02d8 7f3f 6946 803f 2473 833f cabb 7c3f
00000010: 2066 7f3f dbd1 803f ec77 823f c212 7d3f
00000020: 2414 813f 5e7c 7e3f 41a5 7d3f f250 813f
00000030: 4d02 7c3f 0f86 813f efe3 7b3f 2b30 803f

_module.layer2.1.bias f4 [16]
0.035627447 -0.0044604293 -0.0146689005 0.02420391 0.007181309 -0.0058542546 0.012145972 -0.030167287
0.016583389 -0.0044544125 -0.027993778 -0.015566325 -0.0112542845 0.0075431094 -0.0035793441 -0.012260929
00000000: 16ee 113d cb28 92bb d455 70bc 4747 c63c
00000010: 3051 eb3b 0cd5 bfbb e6ff 463c 6321 f7bc
00000020: e3d9 873c 52f6 91bb 3553 e5bc e609 7fbc
00000030: e463 38bc 302c f73b 6e93 6abb 10e2 48bc

_module.layer3.0.weight f4 [64, 16, 3, 3]
-0.07070306 0.050390635 0.066243105 -0.065975554 -0.018848946 -0.06112483 0.051340878 0.02064734
0.092482656 0.06064072 0.03744091 0.06554492 0.039734393 0.062342368 -0.080941804 -0.025502322
-0.05497082 -0.043716487 0.079740874 0.07743256 0.036079463 0.07807496 -0.022142682 0.02939299
0.02629913 0.06992649 -0.025364077 0.07227698 -0.008221402 -0.07801954 0.08323942 0.003484037
0.076327644 0.00517615 0.06095201 0.086555846 0.047306903 0.09197117 0.05703349 -0.021944506
-0.004166084 0.03678537 0.053976253 -0.044599537 -0.05118199 -0.026720416 0.04418355 -0.048377387
-0.01760889 0.067504264 0.0035364234 -0.06915473 0.095535725 0.048146725 0.031537704 -0.1088039
0.0436763 0.0015347543 0.04226453 0.0009824701 -0.08139443 -0.0041931476 0.037742287 0.0352564
-0.08972517 0.022548242 0.079089366 0.06377879 -0.05769918 0.07332818 0.029390816 0.0021255487
0.06847915 -0.026142994 -0.0007370885 -0.05560733 -0.039826483 -0.07316661 0.06613884 0.03389928
0.0006794867 -0.0029142103 0.006920204 -0.039834127 -0.041108456 0.09659775 0.0277635 -0.05687621
-0.09444727 -0.02247841 0.03395098 -0.026320027 0.056429207 -0.009574956 0.061693143 -0.059830453
0.08678125 -0.07805098 -0.06970321 0.00802432 0.029343607 0.044904683 0.07937322 -0.07097849
-0.025552064 -0.017639136 0.02188616 -0.07412687 -0.080574095 -0.085544586 0.011150382 -0.032830935
-0.003757277 0.096835665 0.096087635 -0.070505425 0.0917915 -0.031322654 -0.03052192 0.06022031
0.024899129 -0.021799173 -0.062186044 -0.040759552 -0.02997796 -0.042296823 -0.052024595 -0.008973791
0.052342307 0.0027485369 0.042161223 0.008544043 -0.079472326 -0.05647015 0.038292035 0.082583144
0.0736158 0.08225285 0.0013711046 -0.0032953182 -0.036205932 0.06510347 -0.00067336735 -0.014494682
-0.002403893 0.08507269 -0.010025302 -0.029256135 -0.0031068148 0.00047346516 0.09093498 0.00042154128
-0.03042697 0.019110871 0.029521441 0.024305867 -0.05553581 0.0059922407 0.083167195 -0.008390492
0.07516132 0.06668201 -0.04197675 -0.048310462 0.06285119 0.033441108 0.03188662 -0.05799714
-0.06308194 -0.01648078 0.030878784 0.064904585 0.04173177 0.063931055 0.079419546 -0.06859138
0.02944113 -0.05445461 0.04296982 0.05274458 -0.024638422 0.099425085 -0.019728446 -0.045672845
0.07861367 -0.03590596 0.06879181 -0.048499137 0.078409195 -0.042066768 0.019316072 -0.016018633
0.04355007 0.00025955905 -0.05003298 0.012608695 -0.015101181 -0.03786016 -0.019288559 0.008977348
0.010542026 -0.0076490142 0.0747329 0.06474093 0.10228328 0.0010651808 -0.016915647 -0.039436225
0.046254866 -0.08576028 0.03405719 0.06499093 0.0039732545 -0.09993479 0.06553835 0.03708554
-0.0120644905 0.037450943 0.08234416 -0.035534248 -0.022956612 0.07342202 0.06885276 0.00173126
-0.058422625 -0.057224724 0.018193586 -0.05017997 -0.07503938 0.060769834 0.040003076 -0.032612298
-0.065493174 -0.014812602 -0.053915147 0.06424116 0.08163295 0.021333426 0.041749645 -0.045537777
-0.043063242 0.06441401 -0.022100713 -0.026425682 -0.02700756 0.057912957 -0.07977232 -0.02580429
0.089762874 -0.011463558 0.051659074 0.06892302 -0.029085137 0.0633021 -0.006214042 -0.09870158
00000000: c4cc 90bd 6966 4e3d 77aa 873d 311e 87bd
00000010: 1b69 9abc 085e 7abd d04a 523d 9c24 a93c
00000020: 8c67 bd3d 6762 783d a45b 193d 6a3c 863d
00000030: 88c0 223d b65a 7f3d d1c4 a5bd 3fea d0bc
00000040: 1529 61bd 0f10 33bd 2f4f a33d f694 9e3d
00000050: 0fc8 133d c4e5 9f3d 9264 b5bc 91c9 f03c
00000060: 4671 d73c 9f35 8f3d 53c8 cfbc f405 943d
00000070: 0fb3 06bc b5c8 9fbd 6e79 aa3d 7154 643b
00000080: ab51 9c3d b19c a93b d1a8 793d 3144 b13d
00000090: e2c4 413d 615b bc3d f39b 693d f7c4 b3bc
000000a0: a583 88bb 42ac 163d 3416 5d3d 01ae 36bd
000000b0: 35a4 51bd c6e4 dabc cff9 343d 5e27 46bd
000000c0: 8540 90bc ad3f 8a3d 57c3 673b ffa0 8dbd
000000d0: 3ca8 c33d 8035 453d ae2d 013d 94d4 debd
000000e0: ece5 323d cf29 c93a 921d 2d3d 3ac6 803a
000000f0: 1fb2 a6bd ac66 89bb a897 1a3d 0469 103d
00000100: d4c1 b7bd 17b7 b83c 9bf9 a13d 749e 823d
00000110: fa55 6cbd 162d 963d 02c5 f03c ca4c 0b3b
00000120: cc3e 8c3d d529 d6bc 2c39 41ba 83c4 63bd
00000130: 1821 23bd 60d8 95bd cd73 873d f9d9 0a3d
00000140: 951f 323a 56fc 3ebb e1c2 e23b 1c29 23bd
00000150: 5761 28bd 0bd5 c53d 4870 e33c 07f7 68bd
00000160: 926d c1bd a424 b8bc 2f10 0b3d 199d d7bc
00000170: 5022 673d 47e0 1cbc f3b1 7c3d c710 75bd
00000180: 5eba b13d 31d9 9fbd 8ec0 8ebd 7078 033c
00000190: 0162 f03c f9ed 373d 6d8e a23d 2c5d 91bd
000001a0: 9052 d1bc f37f 90bc 9b4a b33c d4cf 97bd
000001b0: 0804 a5bd 0032 afbd 18b0 363c bb79 06bd
000001c0: a63c 76bb c751 c63d 98c9 c43d 2665 90bd
000001d0: 2ffd bb3d 2f4c 00bd 1b09 fabc 92a9 763d
000001e0: 42f9 cb3c 2e94 b2bc cbb6 7ebd 7df3 26bd
000001f0: 5794 f5bc 6f3f 2dbd be17 55bd cf06 13bc
00000200: e364 563d cc20 343b 3fb1 2c3d 50fc 0b3c
00000210: 63c2 a2bd 3e4d 67bd 1cd8 1c3d 5a21 a93d
00000220: e1c3 963d 2f74 a83d a3b6 b33a 44f6 57bb
00000230: ac4c 14bd f854 853d eb84 30ba 1a7b 6dbc
00000240: a28a 1dbb 973a ae3d 2a41 24bc 90aa efbc
00000250: b49b 4bbb 6b3b f839 1e3c ba3d 5002 dd39
00000260: fb41 f9bc 678e 9c3c f3d6 f13c 191d c73c
00000270: 8479 63bd 8f5a c43b 9053 aa3d 4678 09bc
00000280: 2eee 993d 9490 883d d0ef 2bbd 31e1 45bd
00000290: 20b8 803d 8bf9 083d 8b9b 023d 698e 6dbd
000002a0: 1b31 81bd b302 87bc 81f5 fc3c b2ec 843d
000002b0: efee 2a3d 49ee 823d b7a6 a23d a379 8cbd
000002c0: 862e f13c cc0b 5fbd 1f01 303d b30a 583d
000002d0: 84d6 c9bc 619f cb3d 8d9d a1bc 7313 3bbd
000002e0: 3400 a13d 2112 13bd b8e2 8c3d 08a7 46bd
000002f0: 0095 a03d 344e 2cbd bd3c 9e3c 8239 83bc
00000300: 8f61 323d 6d15 8839 62ef 4cbd b394 4e3c
00000310: f26a 77bc 4113 1bbd 0a03 9ebc ba15 133c
00000320: 76b8 2c3c 95a4 fabb 900d 993d e596 843d
00000330: e579 d13d 899d 8b3a af92 8abc e187 21bd
00000340: be75 3d3d 16a3 afbd 8d7f 0b3d f719 853d
00000350: 1332 823b 9caa ccbd f838 863d 02e7 173d
00000360: 24aa 45bc 2966 193d 0ea4 a83d 5c8c 11bd
00000370: 810f bcbc 495e 963d ad02 8d3d 72eb e23a
00000380: 904c 6fbd 7964 6abd b70a 953c 8389 4dbd
00000390: 3fae 99bd cae9 783d 44da 233d 7994 05bd
000003a0: 4921 86bd 8eb0 72bc 21d6 5cbd df90 833d
000003b0: 2d2f a73d 70c3 ae3c ad01 2b3d d285 3abd
000003c0: 1563 30bd 7eeb 833d 8e0c b5bc ac7a d8bc
000003d0: f53e ddbc 2336 6d3d ac5f a3bd 8563 d3bc
000003e0: 99d5 b73d a6d1 3bbc 7798 533d 8327 8d3d
000003f0: f443 eebc 88a4 813d 2a9f cbbb 0e24 cabd

_module.layer3.0.bias f4 [64]
-0.009103968 -0.013954704 -0.030707184 -0.009549074 0.06103422 -0.037581638 -0.01678461 -0.0044892533
0.012605143 -0.07732455 0.025968157 -0.02626768 -0.009640707 -0.03208372 0.053406805 -0.041291833
0.08010531 0.024755286 -0.023250148 0.025825405 -0.055574056 -0.027856912 -0.025949933 0.036099408
0.0701426 -0.0023046427 -0.06895191 0.08908694 0.07975547 0.0074986173 0.035528526 -0.03290024
-0.05382054 0.029138884 0.04972879 -0.03831727 -0.037850387 0.021349657 -0.079476565 0.012343867
-0.068071574 0.015833285 -0.053155407 -0.06548729 -0.035563506 -0.026480867 -0.073772795 0.0047630887
0.07763352 -0.0134992525 0.023861645 -0.039005183 0.0038869935 -0.0722725 0.06735452 0.047886577
0.003196584 -0.049389824 0.015493946 0.098279126 -0.07231483 -0.062730655 -0.086802974 0.0075900066
00000000: cf28 15bc 45a2 64bc a28d fbbc b873 1cbc
00000010: 05ff 793d 34ef 19bd e17f 89bc 961a 93bb
00000020: cd85 4e3c 555c 9ebd 2cbb d43c 512f d7bc
00000030: 0ef4 1dbc 386a 03bd 18c1 5a3d a021 29bd
00000040: 410e a43d 99cb ca3c 1877 bebc cd8f d33c
00000050: 9fa1 63bd 2e34 e4bc f494 d4bc f9dc 133d
00000060: eca6 8f3d 7d09 17bb a936 8dbd 3773 b63d
00000070: d656 a33d f6b6 f53b 5c86 113d 67c2 06bd
00000080: ed72 5cbd abb4 ee3c 6ab0 4b3d 92f2 1cbd
00000090: 0209 1bbd 7ae5 ae3c 9cc4 a2bd ee3d 4a3c
000000a0: 1c69 8bbd ceb4 813c 7cb9 59bd 331e 86bd
000000b0: 0aab 11bd 67ee d8bc 3116 97bd af13 9c3b
000000c0: 53fe 9e3d f82b 5dbc 7f79 c33c e6c3 1fbd
000000d0: eebc 7e3b 9b03 94bd 2bf1 893d b724 443d
000000e0: c87d 513b fc4c 4abd 52da 7d3c 9146 c93d
000000f0: cc19 94bd ee78 80bd c2c5 b1bd 97b5 f83b

_module.layer3.1.weight f4 [64]
1.002668 0.97187924 1.0256287 0.9672009 0.9841938 1.0011103 0.98772925 1.0128348
1.0150796 1.0093701 0.9788495 0.99462587 1.0147014 1.0051036 0.9743576 1.032143
1.0242568 1.0027502 1.0196433 0.9929031 1.0146927 0.98163235 1.0211567 1.0144761
1.0184919 0.9868656 1.0066397 1.0126642 1.0090228 0.99166995 1.0148884 0.97404426
1.0084944 1.0030744 0.9977027 1.0097675 1.0128969 1.013615 1.0118588 1.035346
1.0106447 0.9760047 0.9999813 0.98297477 1.0381906 0.9918291 0.98495936 1.0451949
1.0049515 0.9781006 0.99178386 1.0077094 1.0228862 0.96126527 1.007995 1.0144789
0.99253076 1.0092556 0.99665254 0.98534375 0.96838015 0.99795026 0.9977339 1.0015604
00000000: 6d57 803f 14cd 783f cd47 833f 7a9a 773f
00000010: 20f4 7b3f 6224 803f d3db 7c3f 92a4 813f
00000020: 21ee 813f 0a33 813f e195 7a3f cd9f 7e3f
00000030: bce1 813f 3ca7 803f 806f 793f 431d 843f
00000040: d91a 833f 1e5a 803f ac83 823f e62e 7e3f
00000050: 73e1 813f 424c 7b3f 43b5 823f 5ada 813f
00000060: f15d 823f 39a3 7c3f 92d9 803f fb9e 813f
00000070: a927 813f 15de 7d3f dde7 813f f75a 793f
00000080: 5816 813f be64 803f 7269 7f3f 1040 813f
00000090: 9ba6 813f 23be 813f 9784 813f 3886 843f
000000a0: ce5c 813f 72db 793f c6fe 7f3f 3ca4 7b3f
000000b0: 6ee3 843f 83e8 7d3f 4c26 7c3f f2c8 853f
000000c0: 40a2 803f cd64 7a3f 8ce5 7d3f 9ffc 803f
000000d0: efed 823f 7b15 763f fb05 813f 72da 813f
000000e0: 7f16 7e3f 4a2f 813f 9f24 7f3f 7d3f 7c3f
000000f0: c3e7 773f ab79 7f3f 7d6b 7f3f 2233 803f

_module.layer3.1.bias f4 [64]
-0.014501653 0.014185111 0.006407248 0.019900197 0.012818723 -0.01803663 -0.0132695595 0.010327872
0.017847007 0.0038332858 -0.0067649707 0.023498468 -0.005226436 -0.031879865 -0.0029288807 0.015183364
0.014520165 0.018829636 -0.0229574 -0.00037326134 -0.0036920721 0.03547545 -0.01710598 -0.005736977
-0.03910081 0.039555144 0.0025351294 0.015099027 -0.014110341 -0.024129834 -0.055474065 -0.010211341
0.004357993 -0.008597857 -0.010044271 0.015171211 -0.0014524433 -0.012436809 0.021729326 0.010753221
0.020288525 -0.003606766 0.012956261 0.013357109 -0.025516495 -0.009537914 -0.048506264 0.03508773
-0.0051045185 -0.016971478 -0.03509043 -0.008431176 0.0019696075 0.006098981 -0.012590639 -0.012741425
-0.006557491 0.023574239 -0.017230898 -0.009388107 -0.008802985 0.008195339 0.032426104 0.035139523
00000000: 5798 6dbc ab68 683c e4f3 d13b bd05 a33c
00000010: 9f05 523c 8ec1 93bc 9168 59bc 3c36 293c
00000020: e333 923c dd37 7b3b b0ac ddbb dc7f c03c
00000030: 8642 abbb 7694 02bd 77f2 3fbb a5c3 783c
00000040: fce5 6d3c 9c40 9a3c 2811 bcbc 4ab2 c3b9
00000050: b1f6 71bb b54e 113d d721 8cbc 40fd bbbb
00000060: 2c28 20bd 9304 223d 6a24 263b e961 773c
00000070: 0f2f 67bc eeab c5bc c638 63bd 784d 27bc
00000080: 7fcd 8e3b 07de 0cbc ba90 24bc ac90 783c
00000090: e95f beba c2c3 4bbc b301 b23c 472e 303c
000000a0: 1f34 a63c 7e5f 6cbb 7f46 543c c7d7 5a3c
000000b0: f807 d1bc e944 1cbc 81ae 46bd 27b8 0f3d
000000c0: ce43 a7bb c507 8bbc fcba 0fbd ea22 0abc
000000d0: 8814 013b f6d9 c73b f848 4ebc 69c1 50bc
000000e0: 39e0 d6bb c31e c13c d027 8dbc 93d0 19bc
000000f0: 653a 10bc be45 063c 3cd1 043d 76ee 0f3d

_module.layer4.0.weight f4 [64, 64, 3, 3]
0.012926594 -1.05511e-05 -0.013501764 0.0033893331 0.02449126 0.053529255 0.007329064 0.03961837
0.003272718 0.050183844 0.011946628 -0.031999465 -0.017233117 0.006077204 -0.066382706 0.013371456
-0.01926164 0.013052184 0.01089534 -0.023626328 0.06368588 -0.011619604 -0.040343568 -0.01800813
-0.020448145 -0.031778485 -0.010110956 -0.03601126 0.016603526 -0.038440373 -0.023382505 0.008043053
-0.00067664933 -0.0023220812 -0.041614886 0.002091321 0.014041042 0.020314083 0.02318435 -0.020012233
-0.015137856 0.060908753 -0.035103094 -0.036522094 -0.05529456 0.03956408 -0.025116755 0.008877716
0.050533105 -0.040700905 -0.049526017 0.033360638 0.03588582 0.037017412 -0.022960331 0.05203557
0.08249899 -0.047203925 0.02120806 0.028965259 0.036987107 0.018038448 -0.014057497 -0.04511794
0.015411291 0.058309898 -0.033094753 0.041840598 0.012383596 -0.054506447 -0.0134486705 -0.039207883
0.039211035 0.029383952 -0.0320831 -0.00427876 0.014345628 0.0070793116 -0.013014522 -0.018171148
-0.04734537 0.012050029 -0.026585767 0.014437053 0.0567201 -0.018513143 0.022674859 0.049909204
-0.008417436 0.031280003 0.0077092107 -0.009009809 -0.022070723 0.033917755 0.00060275506 -0.033329044
0.02297409 -0.062576875 0.0065660668 0.0150341345 0.06137903 0.0008771615 -0.041704223 0.0046455776
-0.04000255 -0.011002178 -0.016435929 0.019619431 0.018853107 0.022489386 0.00027934008 -0.013264879
-0.039705265 -0.02890626 -0.0068157297 0.041805036 -0.039140977 0.0032566625 -0.04909349 0.0072934707
-0.05752264 -0.020636559 -0.0018927568 0.003197423 -0.014049417 -0.019811256 0.012667095 -0.055166047
-0.028925283 0.02161663 -0.033756875 -0.008537341 -6.4820444e-05 0.042451948 0.052420333 -0.0148156
0.035031505 0.04866322 -0.02524629 0.0075514466 -0.028241154 -0.016095223 -0.031427953 -0.039019592
-0.0068418356 -0.010574057 0.027444346 -0.032025825 -0.03550118 0.045098823 0.0058745285 0.064783566
-0.00011761001 0.018370286 0.05679415 -0.012094904 0.03416746 -0.019434728 0.011447066 0.006932806
-0.005406913 0.02086304 -0.0013561465 -0.018038051 0.0057625077 -0.007654487 0.019739766 0.011386189
-0.015660077 -0.02953164 -0.0007135828 0.0023966925 -0.018904809 -0.045550242 -0.022504533 0.016242296
0.015917521 0.009684682 -0.023082951 0.068654835 0.03191264 0.033679448 -0.06741506 0.032334123
-0.011567636 0.071408406 0.031395815 0.010994709 0.0099254865 -0.028967855 0.045434505 0.032083485
-0.03191297 0.017789362 -0.0040253107 0.020403031 0.018844176 -0.0328848 0.03874209 0.015159297
0.059199918 0.012412786 0.02494846 -0.02875937 0.025895957 0.028233036 0.008924584 0.010382326
-0.02884726 0.020342605 0.023356022 0.009728788 0.020541152 -0.043518342 0.0012180445 0.013908239
-0.023173703 0.033482864 -0.059054144 0.051687896 0.03918709 0.023425885 0.01796527 0.021521434
0.028537625 0.01813409 -0.040787656 -0.03128892 -0.0024382924 0.010080055 0.03230244 -0.028523171
0.019844892 -0.035570014 -0.014556741 -0.019247383 -0.0088516725 -0.03527503 -0.03304865 0.0030684823
0.036938544 -0.047622252 -0.007951615 0.0016011783 -0.0020998998 -0.056630645 0.02857451 -0.031754147
-0.003932831 -0.021610558 -0.02232808 -0.021878598 -0.02683728 -0.009721933 0.02949159 -0.04111803
00000000: 11ca 533c a104 31b7 8136 5dbc 931f 5e3b
00000010: e5a1 c83c 7e41 5b3d a528 f03b df46 223d
00000020: 197b 563b 938d 4d3d cabb 433c df11 03bd
00000030: 772c 8dbc 4823 c73b a8f3 87bd f413 5b3c
00000040: 96ca 9dbc d4d8 553c 5e82 323c 008c c1bc
00000050: be6d 823d 2760 3ebc 4c3f 25bd c985 93bc
00000060: de82 a7bc 282a 02bd 6ca8 25bc 8b80 13bd
00000070: 1e04 883c a773 1dbd ab8c bfbc 02c7 033c
00000080: 2b61 31ba 0f2e 18bb 5f74 2abd 8b0e 093b
00000090: 660c 663c b869 a63c 1bed bd3c b2f0 a3bc
000000a0: c504 78bc 757b 793d 43c8 0fbd 3198 15bd
000000b0: 8c7c 62bd f20d 223d a7c1 cdbc d773 113c
000000c0: cdfb 4e3d feb5 26bd cbdb 4abd 2aa5 083d
000000d0: 02fd 123d 929f 173d 4e17 bcbc 4023 553d
000000e0: 3bf5 a83d e758 41bd 87bc ad3c 8d48 ed3c
000000f0: cb7f 173d 5ec5 933c 6a51 66bc 97cd 38bd
00000100: a47f 7c3c 5cd6 6e3d 5d8e 07bd 0c61 2b3d
00000110: 91e4 4a3c 2742 5fbd d057 5cbc 7298 20bd
00000120: c09b 203d 9db6 f03c 9269 03bd d734 8cbb
00000130: ed09 6b3c 92f9 e73b dd3a 55bc a9db 94bc
00000140: 38ed 41bd 7c6d 453c 65ca d9bc 6489 6c3c
00000150: 5653 683d e0a8 97bc a0c0 b93c 986d 4c3d
00000160: 49e9 09bc 761f 003d 8c9d fc3b e19d 13bc
00000170: a9cd b4bc 58ed 0a3d 3502 1e3a 0984 08bd
00000180: 2934 bc3c 4e28 80bd 2928 d73b bb51 763c
00000190: 9468 7b3d 50f1 653a 0cd2 2abd ee39 983b
000001a0: b7d9 23bd 7b42 34bc a4a4 86bc eeb8 a03c
000001b0: d571 9a3c a93b b83c 6474 9239 ef54 59bc
000001c0: fda1 22bd d2cc ecbc 7c56 dfbb c23b 2b3d
000001d0: 4a52 20bd bb6d 553b 4116 49bd 11fe ee3b
000001e0: dc9c 6bbd 000e a9bc 6116 f8ba db8b 513b
000001f0: 872f 66bc 374b a2bc a689 4f3c cbf5 61bd
00000200: b7f4 ecbc 5c15 b13c a644 0abd 34e0 0bbc
00000210: 36f0 87b8 18e2 2d3d b4b6 563d 21bd 72bc
00000220: 327d 0f3d 1653 473d 4fd1 cebc 2072 f73b
00000230: fe59 e7bc 21da 83bc 99ba 00bd 02d3 1fbd
00000240: 7a31 e0bb cf3e 2dbc f7d2 e03c 832d 03bd
00000250: af69 11bd 8bb9 383d 1e7f c03b 3fad 843d
00000260: 65a5 f6b8 487d 963c fca0 683d b429 46bc
00000270: 2ef3 0b3d 9435 9fbc 7a8c 3b3c 982c e33b
00000280: 792c b1bb f7e8 aa3c bac0 b1ba 89c4 93bc
00000290: 6bd3 bc3b 7ed2 fabb 4ab5 a13c 238d 3a3c
000002a0: 9049 80bc 56ec f1bc bb0f 3bba d411 1d3b
000002b0: 42de 9abc e492 3abd 6d5b b8bc 900e 853c
000002c0: 7665 823c 80ac 1e3c 7518 bdbc e89a 8c3d
000002d0: d4b6 023d 76f3 093d e810 8abd c970 043d
000002e0: 2f86 3dbc 923e 923d e698 003d 2723 343c
000002f0: 829e 223c ff4d edbc 8819 3a3d f969 033d
00000300: 2db7 02bd ffba 913c c1e6 83bb 4224 a73c
00000310: 1a5f 9a3c 36b2 06bd 07b0 1e3d b35e 783c
00000320: 9d7b 723d ff5e 4b3c b660 cc3c c598 ebbc
00000330: c223 d43c f848 e73c 6b38 123c a21a 2a3c
00000340: 1751 ecbc 89a5 a63c 2155 bf3c 7f65 1f3c
00000350: eb45 a83c 4a40 32bd cba6 9f3a 62df 633c
00000360: c7d6 bdbc 5425 093d c2e2 71bd b0b6 533d
00000370: a482 203d a4e7 bf3c e72b 933c b84d b03c
00000380: bdc7 e93c f18d 943c f510 27bd d028 00bd
00000390: c2cb 1fbb d126 253c 904f 043d 6da9 e9bc
000003a0: c191 a23c ddb1 11bd 667f 6ebc b0ac 9dbc
000003b0: 9b06 11bc 8d7c 10bd 055e 07bd 9718 493b
000003c0: df4c 173d 8d0f 43bd 7e47 02bc a1de d13a
000003d0: 799e 09bb 89f5 67bd 1715 ea3c a310 02bd
000003e0: fade 80bb a008 b1bc 61e9 b6bc bf3a b3bc
000003f0: dbd9 dbbc be48 1fbc 5998 f13c 616b 28bd

_module.layer4.0.bias f4 [64]
0.018581254 0.017588101 0.041441884 0.051134553 0.006669324 -0.0051221116 0.06499746 -0.012194253
0.0019512688 0.061166402 0.011302167 0.0049767494 -0.022675207 -0.009620999 0.013624006 -5.4206008e-05
-0.01580994 -0.023907218 0.010047506 -0.0030869131 0.02970396 0.0032731683 -0.003426721 0.0114963185
-0.039338615 0.012924049 -0.042404417 0.008717763 -0.046757188 0.014083816 -0.011626224 0.0120867435
-0.004924993 0.03326232 0.014282326 0.015453029 0.0073159095 -0.024223927 0.03274011 -0.047635283
0.01677588 0.041126367 0.019508952 -0.024982529 0.019823126 -0.0014368409 0.016355643 0.031747796
0.0020761613 0.014203429 0.035082564 -0.012628903 0.03358092 0.01962074 -0.016470186 -0.0017230025
-0.04899307 -0.052364625 -0.018030005 -0.036602814 -0.0493053 0.030996233 -0.031799443 -0.009416828
00000000: b737 983c ec14 903c f7be 293d 7772 513d
00000010: 588a da3b 63d7 a7bb 631d 853d 67ca 47bc
00000020: b7c1 ff3a 9f89 7a3d b92c 393c 0014 a33b
00000030: 5bc1 b9bc 65a1 1dbc 3937 5f3c 425b 63b8
00000040: d983 81bc 12d9 c3bc 4b9e 243c cf4d 4abb
00000050: b855 f33c a782 563b d792 60bb 0e5b 3c3c
00000060: 8721 21bd 64bf 533c 41b0 2dbd f3d4 0e3c
00000070: 7784 3fbd cebf 663c eb7b 3ebc 7a07 463c
00000080: d661 a1bb 123e 083d 6b00 6a3c b42e 7d3c
00000090: 4cba ef3b 4271 c6bc 7e1a 063d 371d 43bd
000000a0: 926d 893c 1f74 283d 3dd1 9f3c 29a8 ccbc
000000b0: 1c64 a23c 6154 bcba 45fc 853c fa09 023d
000000c0: 3510 083b 80b5 683c bcb2 0f3d 75e9 4ebc
000000d0: 268c 093d adbb a03c 7cec 86bc 5fd6 e1ba
000000e0: f5ac 48bd 4a7c 56bd a9b3 93bc d5ec 15bd
000000f0: 5bf4 49bd d0eb fd3c 2240 02bd 0a49 1abc

_module.layer4.1.weight f4 [64]
1.0078273 0.99959046 0.98911774 0.99053144 0.99419934 1.0136433 0.98377603 1.0196617
0.9836134 1.0021358 1.0101736 1.001899 1.0106779 1.016681 0.9766282 1.0076313
0.9977296 1.0214282 1.0232605 1.0079179 1.0156207 0.99464834 1.0141901 0.97596484
1.0223664 1.0207256 0.990952 1.0029043 0.9945594 0.9906008 0.9876642 1.0297039
1.0057626 0.9778671 1.0202088 0.9962023 1.0000312 1.0137901 0.9746657 1.0251662
1.0190511 0.9952746 0.9879033 1.0062453 1.0144182 0.9882448 0.9782614 1.0151421
0.98453134 1.0190274 1.0132556 0.98677075 0.96950537 0.9939187 1.003792 0.96742123
0.98057646 0.97896343 0.9704696 0.99282724 0.99532163 0.9709205 0.9969576 0.9782168
00000000: 7c00 813f 29e5 7f3f d236 7d3f 7893 7d3f
00000010: d983 7e3f 10bf 813f bfd8 7b3f 4684 823f
00000020: 16ce 7b3f fc45 803f 5e4d 813f 3a3e 803f
00000030: e55d 813f 9a22 823f 4e04 7a3f 10fa 803f
00000040: 356b 7f3f 29be 823f 33fa 823f 7403 813f
00000050: dcff 813f 46a1 7e3f fbd0 813f d5d8 793f
00000060: e7dc 823f 23a7 823f 08af 7d3f 2b5f 803f
00000070: 729b 7e3f 0498 7d3f 90d7 7c3f 56cd 833f
00000080: d4bc 803f 8055 7a3f 3496 823f 1d07 7f3f
00000090: 0601 803f e0c3 813f b183 793f a538 833f
000000a0: 4470 823f 51ca 7e3f 3be7 7c3f a5cc 803f
000000b0: 75d8 813f 9cfd 7c3f 576f 7a3f 2df0 813f
000000c0: 3f0a 7c3f 7d6f 823f 5cb2 813f 029d 7c3f
000000d0: 8131 783f 7571 7e3f 427c 803f eba8 773f
000000e0: 0f07 7b3f 599d 7a3f b270 783f ed29 7e3f
000000f0: 66cd 7e3f 3f8e 783f 9d38 7f3f 6b6c 7a3f

_module.layer4.1.bias f4 [64]
-0.00041510092 0.010649856 -0.022120556 0.0029198043 0.00088014995 0.0034573714 -0.00977594 0.021347275
-0.010931415 -0.011907877 -0.016593194 -0.015871696 0.027606027 0.0017583199 -0.032949332 -0.0052614333
-0.03240551 -0.017865216 -0.0057783267 5.9044058e-05 -0.017245898 -0.016612131 -0.034578096 -0.015673736
0.013343155 0.025261093 -0.0006029397 0.003495828 0.007301801 -0.032829236 0.005850159 0.005127972
0.012782364 0.009735834 0.03948603 -0.002827051 -0.0018547609 -0.0167046 -0.002747473 -0.0028707476
0.0019208692 -0.0076834136 -0.028980684 -0.009211074 -0.0062412587 -0.01619914 -0.037599552 -0.012110824
-0.02214481 0.017152045 0.026248362 -0.0314993 0.02970918 0.020012047 0.030391531 -0.044237167
-0.011623786 0.009943491 0.011733406 -0.008786298 0.020361507 0.019437144 0.0050873277 -0.010116338
00000000: e7a1 d9b9 bc7c 2e3c 2b36 b5bc 305a 3f3b
00000010: ddb9 663a 1195 623b 442b 20bc 7be0 ae3c
00000020: ad19 33bc 4219 43bc 73ee 87bc 5c05 82bc
00000030: 0926 e23c 6d77 e63a e1f5 06bd 1a68 acbb
00000040: a4bb 04bd 135a 92bc 1e58 bdbb 13a6 7738
00000050: 4547 8dbc 2a16 88bc c3a1 0dbd 3566 80bc
00000060: 409d 5a3c 5af0 ce3c 990e 1eba 431a 653b
00000070: f243 ef3b f377 06bd b1b2 bf3b 8c08 a83b
00000080: 1f6d 513c 0c83 1f3c 1abc 213d 0c46 39bb
00000090: 731b f3ba 16d8 88bc f30e 34bb 2723 3cbb
000000a0: adc5 fb3a 25c5 fbbb e668 edbc 0bea 16bc
000000b0: 7983 ccbb 0fb4 84bc fd01 1abd 7a6c 46bc
000000c0: 0869 b5bc 7282 8c3c ce06 d73c 6905 01bd
000000d0: ab60 f33c 4ef0 a33c a9f7 f83c 0832 35bd
000000e0: b171 3ebc 06ea 223c 793d 403c 68f4 0fbc
000000f0: 2dcd a63c a53a 9f3c 99b3 a63b ffbe 25bc

_module.layer5.0.weight f4 [64, 64, 3, 3]
-0.02367855 -0.0068582045 -0.02050438 -0.017057903 0.0009457201 -0.032414664 -0.043116268 -0.0419683
0.041346263 -0.0004237918 0.03390162 0.015690496 0.013175829 -0.01119136 -0.0075861937 0.02031637
0.056379016 0.0070129037 -0.006845644 0.0088924 -0.030444378 -0.026927508 -0.02575264 0.01820119
0.015515079 0.045081586 -0.042240035 -0.03586934 -0.02970185 0.022509614 0.007224855 -0.0061396365
-0.00586685 0.030389236 0.031000592 0.045963615 -0.034257125 0.011559916 -0.026555724 0.05560029
-0.0016824687 -0.026832733 0.03467749 -0.001588715 -0.032074433 -0.015930645 -0.0022677183 0.030434057
-0.05900923 -0.026458764 0.0023170111 -0.012544134 -0.004410974 -0.048867777 0.0074774665 -0.00018566608
0.026382402 0.0028721762 0.038046665 -0.00015043683 -0.02926002 -0.0070459554 -0.033037677 -0.0074675553
0.078106426 -0.032606065 -0.03938794 -0.019821636 0.0020846138 0.018813618 -0.010729988 -0.01414142
0.044662803 0.024948765 0.028086158 -0.05396662 -0.009369519 0.0113152815 0.0555629 0.047362834
-0.016313579 -0.034993976 0.010136525 -0.029027142 -0.014533255 -0.00021414872 -0.005239254 0.030651804
0.019968541 0.023878107 0.036134385 0.007407292 0.03755573 0.055001516 0.0014537823 0.0068191984
-0.020337395 0.035168983 0.06409758 1.1386503e-05 0.02348232 0.0046555847 0.041118644 0.03028075
-0.046769477 0.047300365 0.05269979 0.040538304 -0.04923054 0.020551978 0.0335922 0.017160628
-0.042149328 0.0009762125 -0.051298182 -0.02067525 0.023400882 0.025000608 0.015782177 0.008579865
0.001667789 0.010906506 0.011580115 -0.017530236 0.006212846 0.018288001 -0.045069933 0.032295898
-0.031538635 -0.026881732 0.013466112 -0.024922764 -0.020627262 -0.039384656 0.03839112 0.027539473
-0.019751856 -0.021825388 0.005234856 0.016665285 -0.007907954 -0.012284493 0.0109981615 0.0022879248
0.0075892545 0.04177797 -0.007908594 0.04757072 0.034816075 0.021985935 0.042148434 0.00044449512
0.015179287 -0.0031024858 -0.03706945 -0.004555847 0.004816111 0.0055458625 0.06493132 0.034531128
0.047081366 0.011514507 -0.03881144 -0.0019562135 0.017615642 -0.0031315677 0.0037573692 0.055881135
0.02193475 0.04042257 -0.011182011 0.007964237 -0.007827413 -0.053517353 0.0016917518 -0.026242292
0.0040700897 -0.04213063 -0.037965637 0.036312833 0.07998997 0.019789388 0.0035697185 -0.018822515
-0.0049553295 -0.022626024 0.022470562 0.010962461 -0.015954796 -0.0042043673 -0.004557538 -0.033396102
0.016399708 0.014954865 0.037979715 -0.0057958765 -0.024425924 0.00449848 0.02537695 -0.0059567178
-0.040962636 0.021242205 -0.030188149 -0.000980886 0.020362183 -0.04177493 0.05009331 0.0057354
-0.028589195 -0.022659266 0.025951894 0.022230342 0.0141254235 -0.010940768 -0.028296154 -0.043622565
0.0048394627 -0.032509197 -0.025765583 -0.01888348 0.0452134 -0.032391436 0.022097278 0.009216554
0.012512791 0.019843813 -0.035541408 -0.018443946 0.01833334 -0.03790918 -0.040195536 0.02677874
-0.011196454 0.0032583328 0.04570694 -0.011192248 -0.03542052 0.003988144 -0.008730905 -0.01863656
0.00036375716 0.00704744 0.015077461 0.015470468 0.031574752 -0.001576913 -0.04157027 -0.024329117
0.0091050705 0.00401963 -0.050082557 -0.03343713 -0.053233996 -0.0034226428 0.0036294104 -0.021481754
00000000: 85f9 c1bc caba e0bb cdf8 a7bc 04bd 8bbc
00000010: 34ea 773a 3dc5 04bd af9a 30bd f4e6 2bbd
00000020: b35a 293d 5f30 deb9 6ddc 0a3d 5b89 803c
00000030: 6fdf 573c f75b 37bc 9b95 f8bb 846e a63c
00000040: afed 663d 80cc e53b 6d51 e0bb 6eb1 113c
00000050: 7d66 f9bc 1497 dcbc 33f7 d2bc a91a 953c
00000060: f532 7e3c 78a7 383d e303 2dbd bbeb 12bd
00000070: 4b51 f3bc 1566 b83c 7abe ec3b 012f c9bb
00000080: b43e c0bb d9f2 f83c f4f4 fd3c 5844 3c3d
00000090: 3351 0cbd cd65 3d3c 648b d9bc 21bd 633d
000000a0: 4886 dcba 52d0 dbbc fc09 0e3d 6e3c d0ba
000000b0: 7b60 03bd fc80 82bc 009e 14bb d850 f93c
000000c0: aab3 71bd 0dc0 d8bc ffd8 173b e985 4dbc
000000d0: ef89 90bb 9429 48bd 8905 f53b 5caf 42b9
000000e0: e81f d83c 1f3b 3c3b d2d6 1b3d 94be 1db9
000000f0: b6b2 efbc c2e1 e6bb 8452 07bd 65b2 f4bb
00000100: 43f6 9f3d f08d 05bd 4055 21bd fc60 a2bc
00000110: 049e 083b 041f 9a3c d5cc 2fbc 6ab1 67bc
00000120: 58f0 363d 5a61 cc3c f114 e63c 1a0c 5dbd
00000130: 9c82 19bc bb63 393c ec95 633d 88ff 413d
00000140: 0ea4 85bc d855 0fbd ab13 263c 54ca edbc
00000150: e41c 6ebc 1c8d 60b9 0cae abbb 7e19 fb3c
00000160: 1195 a33c 059c c33c a601 143d deb8 f23b
00000170: 0ad4 193d 4549 613d d78c be3a 9573 df3b
00000180: 9c9a a6bc 5a0d 103d 9845 833d a808 3f37
00000190: ff5d c03c e08d 983b 066c 283d 560f f83c
000001a0: 5a91 3fbd 07be 413d bcdb 573d 7e0b 263d
000001b0: f6a5 49bd 9f5c a83c fa97 093d 7294 8c3c
000001c0: c6a4 2cbd 83e8 7f3a 0b1e 52bd 245f a9bc
000001d0: 35b3 bf3c 13ce cc3c a049 813c 9092 0c3c
000001e0: b699 da3a 34b1 323c 86ba 3d3c 929b 8fbc
000001f0: 2195 cb3b b8d0 953c 409b 38bd b448 043d
00000200: a82e 01bd 1437 dcbc f8a0 5c3c d32a ccbc
00000210: 81fa a8bc ce51 21bd 0240 1d3d 769a e13c
00000220: a5ce a1bc 28cb b2bc 2889 ab3b a385 883c
00000230: 5d90 01bc e644 49bc a231 343c 02f1 153b
00000240: 48af f83b 601f 2b3d 0c93 01bc 84d9 423d
00000250: 4d9b 0e3d d91b b43c d6a3 2c3d 200b e939
00000260: 8bb2 783c 1353 4bbb 23d6 17bd 3749 95bb
00000270: 78d0 9d3b 11ba b53b b6fa 843d 8370 0d3d
00000280: 64d8 403d 58a7 3c3c bff8 1ebd d133 00bb
00000290: ae4e 903c fd3a 4dbb 323e 763b 9ee3 643d
000002a0: 81b0 b33c 2392 253d c134 37bc 6e7c 023c
000002b0: 8d3e 00bc 0335 5bbd c5bd dd3a 13fa d6bc
000002c0: 635e 853b 2b91 2cbd db81 1bbd c4bc 143d
000002d0: c8d1 a33d 5b1d a23c f0f1 693b ad31 9abc
000002e0: 5160 a2bb 365a b9bc 2f14 b83c e59b 333c
000002f0: a2b3 82bc cac4 89bb 6657 95bb 5aca 08bd
00000300: ae58 863c 4005 753c 9e90 1b3d 56eb bdbb
00000310: e018 c8bc fc67 933b 52e3 cf3c 9230 c3bb
00000320: 70c8 27bd 2204 ae3c 234d f7bc 1391 80ba
00000330: 98ce a63c 301c 2bbd a52e 4d3d 06f0 bb3b
00000340: e333 eabc ed9f b9bc 1199 d43c 681c b63c
00000350: 526e 673c e840 33bc 56cd e7bc 93ad 32bd
00000360: 5b94 9e3b 5d28 05bd 5812 d3bc 87b1 9abc
00000370: b031 393d e2ac 04bd 5a05 b53c 0801 173c
00000380: 7302 4d3c 7e8f a23c de93 11bd c217 97bc
00000390: cd2f 963c a846 1bbd 13a4 24bd 175f db3c
000003a0: 5571 37bc c189 553b 3337 3b3d b15f 37bc
000003b0: 1b15 11bd faae 823b 120c 0fbc b3ab 98bc
000003c0: a9b6 be39 36ee e63b 7407 773c d977 7d3c
000003d0: 8754 013d 6cb0 ceba 9645 2abd db4d c7bc
000003e0: 6f2d 153c 1ab7 833b 5e23 4dbd 5ff5 08bd
000003f0: e40b 5abd 6b4e 60bb 67db 6d3b 81fa afbc

_module.layer5.0.bias f4 [64]
0.0031838634 0.033416275 0.043976665 0.0063302573 0.0017896311 0.013334783 -0.027422767 -0.028806597
0.080224514 -0.024233157 -0.0055253687 0.038903113 -0.02142359 0.023893386 -0.025746226 -0.029498484
0.02272586 -0.055578876 -0.035549343 -0.043700982 -0.011999836 -0.019064864 0.012496361 0.015725596
-0.018887922 -0.03555724 0.007981529 -0.008624672 -0.0029668645 0.01113057 0.04290669 0.018353071
0.013702862 -0.0072206217 0.03612574 0.014372376 0.03053078 0.01213163 -0.058713105 -0.031952403
-0.01759404 0.06155915 -0.02211862 -0.049399815 0.031366955 0.009065591 -0.03195143 -0.009952745
-0.0077506546 -0.0016332768 -4.4500513e-05 -0.013005957 -0.0062539685 0.0029227184 -0.002782515 0.014396607
0.0076393425 -0.04043915 0.0014734289 -0.023939928 0.01789797 0.064272754 0.016618567 -0.034177464
00000000: 5da8 503b 81df 083d e020 343d 0c6e cf3b
00000010: 0e92 ea3a 227a 5a3c b6a5 e0bc d0fb ebbc
00000020: c04c a43d 9d84 c6bc 270e b5bb df58 1f3d
00000030: 8680 afbc 10bc c33c c0e9 d2bc cea6 f1bc
00000040: 952b ba3c ada6 63bd 309c 11bd cdff 32bd
00000050: f69a 44bc eb2d 9cbc 89bd 4c3c f7d2 803c
00000060: d8ba 9abc 78a4 11bd f6c4 023c 7f4e 0dbc
00000070: ba6f 42bb ff5c 363c edbe 2f3d 2e59 963c
00000080: f881 603c f79a ecbb 95f8 133d 1d7a 6b3c
00000090: b01b fa3c bfc3 463c 277d 70bd 86e0 02bd
000000a0: 6021 90bc 7325 7c3d 1c32 b5bc 7657 4abd
000000b0: a37a 003d d887 143c 81df 02bd d710 23bc
000000c0: 34f9 fdbb ad13 d6ba 10a6 3ab8 f016 55bc
000000d0: 17ee ccbb 148b 3f3b db5a 36bb bfdf 6b3c
000000e0: 7353 fa3b 86a3 25bd 1220 c13a ab1d c4bc
000000f0: c39e 923c 6fa1 833d a923 883c abfd 0bbd

_module.layer5.1.weight f4 [64]
1.0043811 0.9860027 1.0081286 1.0214273 0.9920047 0.98968214 1.0064806 0.9925672
1.0425695 0.99813193 1.0277025 0.99588335 0.99818796 0.9922626 1.0148914 1.0039154
0.9971088 1.0047094 1.0255662 0.9913236 0.9938192 0.9895462 1.0105162 1.0319133
1.0188928 0.9735407 1.011093 0.9867234 0.9678453 1.0099312 1.0109239 0.99381375
1.0086393 1.023182 0.9603071 1.0449878 1.0249052 1.0270792 1.0068576 1.0116932
1.017094 1.0338103 0.99873525 1.0132165 1.0226676 1.0226521 0.99117506 0.9981673
1.0303304 0.98883057 0.9781714 0.99699295 1.017513 1.0067965 0.9974062 1.0108212
1.0099447 1.0046432 1.0313011 0.9733609 1.0311123 1.0111125 1.0093509 1.0601659
00000000: 8f8f 803f ac6a 7c3f 5c0a 813f 21be 823f
00000010: 05f4 7d3f cf5b 7d3f 5bd4 803f e218 7e3f
00000020: eb72 853f 9385 7f3f c18b 833f 36f2 7e3f
00000030: 3f89 7f3f ec04 7e3f f6e7 813f 4d80 803f
00000040: 8642 7f3f 519a 803f c145 833f 62c7 7d3f
00000050: ef6a 7e3f e652 7d3f 9858 813f bc15 843f
00000060: 146b 823f f739 793f 7f6b 813f e899 7c3f
00000070: b6c4 773f 6d45 813f f465 813f 946a 7e3f
00000080: 181b 813f a1f7 823f b0d6 753f 29c2 853f
00000090: 1830 833f 5577 833f b6e0 803f 2a7f 813f
000000a0: 2330 823f e553 843f 1dad 7f3f 14b1 813f
000000b0: c6e6 823f 44e6 823f a6bd 7d3f e487 7f3f
000000c0: dee1 833f 0024 7d3f 7169 7a3f ee3a 7f3f
000000d0: de3d 823f b5de 803f 0356 7f3f 9762 813f
000000e0: de45 813f 2698 803f ad01 843f 2e2e 793f
000000f0: 7dfb 833f 226c 813f 6932 813f 84b3 873f

_module.layer5.1.bias f4 [64]
0.027709391 -0.0022873944 -0.020036705 -0.007957241 -0.020993304 0.0033715824 0.0022201687 0.03499623
0.0061526117 0.006923473 0.013867709 0.008481675 -0.0029286093 0.027307905 0.012075258 -0.0025731039
-0.01949292 -0.0007045333 -0.0003021208 -0.009514197 -0.023074329 -0.014973919 0.014103173 0.0006308444
0.010602994 0.0115564745 0.0051069376 -0.0061409418 0.05028591 0.00031618783 -0.00056007813 -0.031793218
-0.008687561 -0.013578078 -0.017336844 -0.00021607206 0.005117686 -0.0075419676 -0.012846555 0.04906301
0.0029784234 -0.00033193297 0.007769818 0.03174215 0.016419942 0.023137826 -0.037516907 0.00059165753
-0.030238401 0.03356211 -0.0071142237 -0.03651869 0.008302609 -0.029977126 -0.0047352193 0.0052993274
-0.0110240225 0.0013455973 0.013818125 0.0350475 0.013992461 0.002164835 0.025682893 0.047501296
00000000: cefe e23c 1ce8 15bb 0424 a4bc 165f 02bc
00000010: 26fa abbc c4f5 5c3b 4080 113b 3558 0f3d
00000020: d99b c93b 4dde e23b 6335 633c b9f6 0a3c
00000030: e9ed 3fbb d4b4 df3c 4ed7 453c 85a1 28bb
00000040: 9eaf 9fbc 6eb0 38ba f865 9eb9 6fe1 1bbc
00000050: 6006 bdbc 2b55 75bc ff10 673c 405f 253a
00000060: 2eb8 2d3c 5e57 3d3c 1958 a73b f439 c9bb
00000070: 99f8 4d3d 03c6 a539 35d2 12ba 9b39 02bd
00000080: 4656 0ebc 9676 5ebc ff05 8ebc 6791 62b9
00000090: 43b2 a73b 9c22 f7bb 5b7a 52bc 4bf6 483d
000000a0: a731 433b 4a07 aeb9 f599 fe3b 0f04 023d
000000b0: 1d83 863c 8a8b bd3c 54ab 19bd 7719 1b3a
000000c0: 86b6 f7bc 6c78 093d 6f1e e9bb 9f94 15bd
000000d0: ab07 083c 9792 f5bc e629 9bbb fba5 ad3b
000000e0: 1a9e 34bc c15e b03a 6b65 623c f88d 0f3d
000000f0: a340 653c e8df 0d3b ee64 d23c b890 423d
