weights/pretrain_normal__finetune_normal.pth (torch, 950518 bytes, 26 tensors)

layer1.0.weight f4 [16, 3, 3, 3]
000000 89 ca 9a bd 44 02 32 be e1 8f 36 bd 25 f3 34 be
       -0.07558162 -0.17383677 -0.044570807 -0.17670877
000010 7e f6 5d bd cd aa 36 3e 38 b0 a9 bd 85 ef 95 3c
       -0.05419015 0.17838593 -0.08285564 0.018302688
000020 7d c9 e3 3c dc b5 24 be 4c cf 1f 3e 39 34 1e 3e
       0.027806038 -0.16084999 0.15606421 0.15449609
000030 32 d3 d8 3c 6b db 41 3e d8 62 15 bd f1 7d c7 bd
       0.026467893 0.18931358 -0.036471218 -0.09740818
000040 98 87 91 3c b9 0d f6 3d a1 5a 9f 3d 51 56 e0 3d
       0.017764851 0.12014336 0.07780958 0.109539635
000050 90 26 12 be 38 a1 ca 3d 23 99 1d be 70 48 20 bd
       -0.14272523 0.09894031 -0.15390448 -0.03913158
000060 36 df 15 bd b8 c4 3a be 52 22 0c 3c 3e 89 98 bd
       -0.036589824 -0.18239105 0.0085531045 -0.07448052
000070 d7 8e 11 3d 3e 7c 67 bc eb 1c 11 3d f9 b2 73 bc
       0.035536613 -0.014128743 0.03542797 -0.014874213
000080 b2 d8 f7 3d e8 0c f5 bc 6d 85 b7 3d cc a5 0b be
       0.12101878 -0.02991338 0.08960996 -0.13637465
000090 a0 04 46 3e 07 4e 70 3d dd 12 be bd a8 e1 39 bd
       0.19337702 0.058668163 -0.09280942 -0.04538122
0000a0 16 ce 46 3c c3 0a 50 bd c4 49 86 bd da 31 39 be
       0.012134096 -0.050791513 -0.065570384 -0.18085423
0000b0 44 9b 31 be 7a 00 23 3e 11 9c 40 be cc 3e 2b 3e
       -0.17344385 0.1591815 -0.18809535 0.16723174
0000c0 17 da 0b 3e 2e 59 1b 3d 91 48 35 be e9 67 10 be
       0.13657413 0.037926845 -0.17703463 -0.14102139
0000d0 2b 08 67 bd 4a 32 51 be 59 74 24 3e 24 54 43 be
       -0.056404274 -0.2042934 0.16060008 -0.19075066
0000e0 77 61 a6 3c fd 7d ce bd 24 33 c1 bd 14 26 a3 bd
       0.020310147 -0.10082624 -0.094335824 -0.07966247
0000f0 87 a5 dd bd fc 05 3b be 5e f8 0a be dc 99 8b 3d
       -0.108225875 -0.18264002 -0.13571307 0.06816456
000100 4b ee 41 3e 63 f8 d1 3d 08 7e f9 3d b5 f4 21 be
       0.18938558 0.10252454 0.12182242 -0.15816005
000110 97 f9 be 3c b1 ec d0 3d 96 44 bb 3d 7f 40 db 3c
       0.023312373 0.10201395 0.09143941 0.026764153
000120 2e 7e 1e be ad 20 15 be c0 6c 93 3d e9 1e 2f 3d
       -0.15477821 -0.14563246 0.07198477 0.042754088
000130 f3 58 98 bd bc a0 8b 3d 51 b9 7f bc 89 85 22 3c
       -0.07438841 0.06817767 -0.015608148 0.009919533
000140 b7 c3 c9 bd 2f 1d 06 3d 28 08 01 3d b5 83 b8 bd
       -0.09851783 0.032742675 0.03150192 -0.09009496
000150 e4 6d 9c bc 50 1a b3 3c 52 93 9a 3d 59 c1 f6 3d
       -0.019095369 0.021863133 0.0754763 0.12048597
000160 00 cd ce 3c 8e 00 09 3e b4 76 16 bc 60 d0 56 3d
       0.025244236 0.13379118 -0.0091835745 0.052444816
000170 da e9 49 be 9d bd 77 bd 1a 2b 3b 3c b7 f4 1f be
       -0.19718114 -0.060483564 0.01142385 -0.15620695
000180 7a c6 15 3b 86 35 ba bd ec a6 b0 bb 78 cc 2d be
       0.0022853897 -0.0909224 -0.0053909924 -0.1697253
000190 26 48 cd 3d 58 4c bf 3c a4 8e 4e 3e 91 2a ea 3c
       0.10023527 0.023351833 0.201716 0.02858475
0001a0 3f 82 a1 3d fc 50 df 3d 78 1f 05 3e 0a ad 29 3c
       0.078861706 0.109041184 0.13000286 0.010356197
0001b0 62 17 2f be 48 72 25 be 83 95 01 3e f1 10 dc 3d
       -0.17098764 -0.16156876 0.1265469 0.10745419
0001c0 80 08 1e be 3c eb d3 3d f9 cd f9 3d 97 cc 11 bd
       -0.1543293 0.10347602 0.12197489 -0.035595503
0001d0 87 51 f8 bd df a9 63 3d f0 78 4c 3e 27 91 c9 3d
       -0.12124925 0.055581924 0.19968009 0.09842139
0001e0 34 d5 b9 bd 48 20 37 3e c3 36 13 bd f5 f8 51 3d
       -0.090738684 0.17883408 -0.035940897 0.051262815
0001f0 23 d5 95 bd 00 83 92 3d a8 de d6 3d d2 3d c3 3d
       -0.07316043 0.071538925 0.10491687 0.09533276
000200 31 88 fc bd c9 c9 f1 3c e4 4b 6c bc 7c e6 da 3d
       -0.12330664 0.029515164 -0.014422391 0.10688493
000210 53 37 dd bd 85 48 e7 b9 37 a9 42 be a7 df 6c 3e
       -0.10801568 -0.00044113785 -0.19009863 0.23132192
000220 87 a8 67 3e fa 7b 1d 3e 4f 45 8a 3d c7 76 27 3e
       0.22622882 0.15379325 0.06751501 0.16353904
000230 f9 cf 08 be 48 78 96 bd 78 2f dc bd ff 1c 3d 3e
       -0.13360585 -0.073471606 -0.107512414 0.18468092
000240 33 68 04 be 26 93 28 bc d2 3d 09 3d cc 1c 96 3c
       -0.12930374 -0.010288989 0.033506222 0.018324278
000250 fd a4 68 3d 45 32 d0 bd 62 98 0e be 55 42 fb bd
       0.05679797 -0.10165838 -0.13925317 -0.12268511
000260 68 27 3a 3e 05 41 f1 bd 58 87 0b bc f6 77 02 be
       0.18179095 -0.117799796 -0.008516155 -0.12741074
000270 12 40 22 be 79 c7 2c be 50 c0 1b 3c e7 90 a8 3d
       -0.15844753 -0.16872968 0.0095063 0.08230763
000280 c4 11 83 3c 20 fb 4e 3e 5c 11 80 bd 3f cf 38 3d
       0.015999682 0.20212984 -0.06253311 0.04511952
000290 d1 90 01 3e 2b e3 72 bc 5c 87 84 3d d1 4c 2d be
       0.126529 -0.014824669 0.0647113 -0.16923834
0002a0 4d 35 7b bd 66 93 21 be 46 ff 17 be 11 f0 2d be
       -0.06133013 -0.15778884 -0.14843473 -0.1698611
0002b0 42 b2 d3 3d 72 24 79 bc e6 26 0b be c3 93 dd 3d
       0.10336734 -0.015206443 -0.13589057 0.10819199
0002c0 f0 4e 20 3e 28 24 48 3e 83 7d 18 3e 11 cb 0e bd
       0.15655112 0.19545043 0.14891629 -0.034861628
0002d0 26 7b be 3d c4 a2 1a 3e b0 e6 cb 3c 5e b3 2e 3e
       0.093008325 0.15101153 0.024890274 0.1706061
0002e0 ce 40 f2 3d f5 92 a8 bd e4 50 1e 3e 75 47 16 bd
       0.11828767 -0.08231155 0.15460545 -0.03668924
0002f0 4f bb 87 bd 47 bc 99 3d cc 0a 30 3e ef f4 64 bd
       -0.06627523 0.07506614 0.17191619 -0.05589765
000300 ec 63 8a bd 13 53 07 3b a8 c1 9b 3d 79 81 20 be
       -0.0675734 0.0020648881 0.076052964 -0.1567439
000310 6f 80 39 3e d7 43 83 3d 49 07 c6 3d 2a 65 23 3c
       0.181154 0.06409424 0.09669358 0.00997285
000320 7c df 19 3e 05 7f db bd 68 f8 0b 3e 99 28 14 be
       0.15026659 -0.107175864 0.13668978 -0.14468612
000330 bc 26 14 bd d0 0a 13 3e 19 6f ea 3d e3 a3 38 3d
       -0.036169752 0.14359593 0.114469714 0.04507817
000340 9e ca fc 3d 80 12 d4 bd 30 74 de bd 9c 7b 0b 3e
       0.12343334 -0.10355091 -0.10862005 0.13621372
000350 fc 70 b1 bd c9 fa 96 3c dd 90 7d bd 32 28 36 be
       -0.08664128 0.01843013 -0.06190573 -0.17788771
000360 8a d7 83 3d 84 c8 e0 3d 24 ce 68 3d 1f f1 e8 3c
       0.06437595 0.10975745 0.056837216 0.028435288
000370 09 be cc bd ae 68 f2 3d c0 ef e5 bd b4 eb c1 3a
       -0.09997184 0.11836372 -0.11227369 0.0014794976
000380 53 94 c1 bd f7 09 e2 3d c4 29 98 3c db 4b a5 bd
       -0.09452119 0.11037057 0.018574603 -0.08071109
000390 3c 8c 10 be 4b 8e 8c bd 20 86 f7 3d 4e 7a 09 be
       -0.14115995 -0.06863078 0.12086129 -0.13425562
0003a0 e4 c5 cf bc 30 65 01 3e 0c 13 75 3d de 61 21 3c
       -0.025362916 0.12636256 0.059832618 0.0098499935
0003b0 63 ac c7 3d 5c 6a 54 bc ef 88 0c 3d ae 19 2b 3e
       0.09749677 -0.012964811 0.034310278 0.16709015
0003c0 54 3a 7d 3c 83 72 4b bd a8 39 b0 bd b7 a2 f7 3d
       0.015455801 -0.049669754 -0.08604747 0.12091582
0003d0 89 76 29 be 0c ef ef 3d 7c 86 0a be ec 1c 0c 3e
       -0.16549124 0.117155164 -0.13527864 0.13682908
0003e0 80 36 58 bd a4 6d 20 3e 24 5b ff 3c 12 96 13 3e
       -0.05278635 0.15666825 0.031171389 0.14412716
0003f0 92 00 42 be 06 d6 8c 3d 45 b2 79 bc f3 63 22 be
       -0.1894553 0.06876759 -0.015240257 -0.1585844

layer1.0.bias f4 [16]
000000 af f7 1a be 1d ca ea bd 89 9f a9 bd df 8f c0 3d
       -0.15133546 -0.11464331 -0.08282382 0.09402441
000010 c0 3e fb 3d 36 a6 a3 bd 06 6c 89 3d 06 25 31 3d
       0.12267828 -0.079906866 0.06710057 0.0432482
000020 2f 13 f4 3d 47 5a 73 bd 69 21 0c 3e 7a e0 29 bd
       0.119177215 -0.059412267 0.1368462 -0.041473843
000030 c3 74 05 be 7d b6 7d bd 6c c7 97 bd 11 15 df 3d
       -0.13032822 -0.061941613 -0.074110836 0.1089269

layer1.1.weight f4 [16]
000000 24 c9 82 3f 79 5c 80 3f 64 0b 81 3f 63 61 81 3f
       1.0217633 1.002822 1.0081601 1.0107845
000010 7d 93 81 3f 7f 31 81 3f 40 40 84 3f 54 9a 7b 3f
       1.0123135 1.009323 1.0332108 0.9828236
000020 55 d9 7c 3f fd 03 81 3f b5 43 79 3f e6 7b 85 3f
       0.9876912 1.0079342 0.9736894 1.0428436
000030 7c 17 79 3f c8 a0 80 3f e8 04 80 3f b4 3e 7d 3f
       0.9730146 1.0049067 1.0001497 0.989238

layer1.1.bias f4 [16]
000000 b9 dc 43 3c b8 e8 44 3c 3c 55 1d 3c f7 d7 ce 3a
       0.01195448 0.012018375 0.009602841 0.0015780915
000010 33 d4 28 bc 59 ff 60 3c 25 b5 ae bb 63 1e 0e bd
       -0.0103044985 0.013732755 -0.0053316527 -0.034696948
000020 e1 84 c9 bc 11 1a bc bc 04 6b a9 bc c7 af a7 3c
       -0.024599494 -0.022961648 -0.020680912 0.02046956
000030 a6 f0 48 bb 87 34 08 3b a2 a1 2f bc c2 59 91 bc
       -0.0030661016 0.0020783262 -0.010719689 -0.017742995

layer2.0.weight f4 [16, 16, 3, 3]
000000 b3 b7 7c bd a6 1e 81 3c d7 6a a0 3d 86 51 4d bd
       -0.061698627 0.015761685 0.07832878 -0.050126575
000010 3c bf b4 3d e5 7e 58 bd b2 3e 7f 3c d2 8d ad 3d
       0.088255376 -0.05285539 0.015578913 0.08474316
000020 1c b9 d2 3c 33 c1 a4 bb db ae 9c bd 70 67 0e bd
       0.025723033 -0.005027914 -0.076505385 -0.034766614
000030 66 49 5b 3d 60 b9 9f 3d 0f e7 a1 bc 0e a2 65 bd
       0.053536795 0.07799029 -0.019763498 -0.05606275
000040 df ec ac 3d 07 f1 27 bd d2 96 80 3d d4 bf b9 bc
       0.08443617 -0.041001346 0.06278767 -0.022674479
000050 fb e3 50 3d 34 64 44 bd d3 53 23 3c 25 51 00 39
       0.05099867 -0.047947124 0.009968716 0.0001223726
000060 5b fe b1 3c f2 64 98 3d b5 b1 a2 3c c3 ea 59 3c
       0.021727731 0.07441129 0.019860128 0.0133006
000070 6f f3 c9 3c 90 64 d0 bb 39 f4 82 3c 65 1e 2e bd
       0.024652211 -0.0063596442 0.015985595 -0.042509455
000080 a7 8a ef bc 89 0d 9b 3d 8f c8 dc bc 55 bc 09 3b
       -0.02924092 0.07570941 -0.026951103 0.0021016796
000090 72 9d 25 3d ca 8c 42 3d 86 5f ff bb 08 4c de 3d
       0.040433355 0.04749755 -0.0077933697 0.108543456
0000a0 d1 fa 74 3d aa 79 ce 3d bf 45 1f bd f4 1e 27 3d
       0.05980951 0.10081799 -0.038884874 0.040801004
0000b0 db 3f ea bc 0d 0c 97 3b c1 39 4c bc 5e ad c1 bd
       -0.028594902 0.004609591 -0.0124649415 -0.09456895
0000c0 44 0c 5e 3c f0 0a 7a bd 74 f1 a9 bd f1 9e 6e bd
       0.013552729 -0.061045587 -0.08298007 -0.058257047
0000d0 c8 34 37 bc 09 a9 d1 bd 00 1d d4 3c d9 34 8e 3d
       -0.011182018 -0.10237319 0.025892735 0.06943674
0000e0 86 34 be 3d 00 fe c6 3d 2e 6f 98 3d 43 1c 35 3d
       0.09287362 0.097164154 0.07443081 0.044216406
0000f0 1a ef 12 3e c0 09 e3 3d f4 42 3b 3d 86 79 24 3b
       0.14349023 0.11085844 0.04571815 0.0025096848
000100 42 23 11 bd 2b 2e 96 bd d1 19 b8 3d 62 23 79 bd
       -0.035434015 -0.073330246 0.08989299 -0.06082476
000110 36 d1 1f bc ba 9a 8f 3d 4b fd 77 bc 2f 7f 17 bc
       -0.00975447 0.070119336 -0.015136073 -0.0092466315
000120 af fc 49 bb 56 13 b8 bc 75 37 7a bd 9f 29 30 3d
       -0.0030820777 -0.022470158 -0.061088044 0.043008443
000130 ad 43 95 3d 73 64 1b bd 16 79 a0 3d d5 ec a0 3d
       0.07288299 -0.037937593 0.07835595 0.07857672
000140 2f 70 bb 3d 67 d8 ec 3b b5 86 93 3d 11 01 62 bd
       0.09152257 0.0072279456 0.07203428 -0.0551768
000150 9a c7 63 3d 2d e6 dc bc 85 78 a5 3c 3b 19 8d 3d
       0.055610277 -0.026965225 0.02019907 0.06889578
000160 62 f6 81 bd 55 80 12 3d ae ce 43 3d be 28 7b bd
       -0.06345822 0.03576692 0.047804527 -0.06131815
000170 ac 70 1e 3c 70 45 3f bd 31 da d0 bc c1 f1 25 3d
       0.009670418 -0.04669708 -0.025494667 0.040513758
000180 9f 77 11 3d b8 03 86 bd c2 8d 4a 3d e9 e1 59 bd
       0.03551447 -0.06543678 0.049451597 -0.05319396
000190 67 0a 2a bd c3 38 47 3d c9 6c 7e 3d fa cd 8b 3d
       -0.041513827 0.048638117 0.062115464 0.06826396
0001a0 09 b2 1f 3d ce fc a8 3d 72 24 c7 3d 94 a5 0a 3d
       0.038988147 0.08251344 0.09723748 0.033849314
0001b0 df 5a a5 3d a4 76 7d bd 74 c9 26 bc 78 b7 29 3d
       0.08073973 -0.061880723 -0.010179866 0.041434735
0001c0 01 cc b1 3d 62 77 a7 3d e1 a7 84 bd 3b e5 8e bd
       0.08681489 0.08177067 -0.06477333 -0.06977316
0001d0 0d 62 43 bd 8c 92 2c 3d c5 84 86 3d b1 f1 6a 3d
       -0.04770093 0.042131945 0.065682925 0.0573594
0001e0 be af d2 3b 25 de c9 3c bc a3 7e 3d 1d 31 80 bc
       0.0064296415 0.02464206 0.062167868 -0.015648419
0001f0 7d 33 ed bc 69 de c7 3c 7e 8b 99 3c 61 c8 00 bd
       -0.028955216 0.024398046 0.018743273 -0.031441096
000200 00 27 b5 3c 31 ba a0 3d 3f c0 86 3d f0 5e a4 3d
       0.022113323 0.07848013 0.06579637 0.080259204
000210 f4 92 e7 3d 96 d3 92 bd 8e 66 81 3c 03 65 98 bd
       0.11307326 -0.07169263 0.015795972 -0.074411415
000220 c8 ec ae bc a2 0d 9e ba 9a 00 8a bd cd 4c d8 ba
       -0.02135314 -0.0012058506 -0.06738396 -0.0016502381
000230 66 f6 37 3d 6a 54 72 bc 20 18 9f 3c 88 87 b0 3d
       0.04491272 -0.014790634 0.019420683 0.086196005
000240 e9 6b 05 ba 7f b7 c3 3d 8c 88 86 3c d3 ab 29 bd
       -0.0005089627 0.095564835 0.016422532 -0.04142363
000250 52 9f 7a 3d f5 a1 df bc 3f 99 6c 3b 56 a5 e1 3c
       0.061187096 -0.027298907 0.0036102084 0.027544659
000260 88 15 dc 3c 12 82 48 3c bf 94 38 3d 45 b3 91 3d
       0.026865736 0.012238042 0.04506373 0.07114271
000270 f1 99 45 3d 6e 33 c3 bc 8b 2a 46 3c 7b 0d de 3c
       0.048242513 -0.023828235 0.012095104 0.027106037
000280 e7 7e 18 bb e8 ff 95 bc 8a 7e bb 3b da 8e 88 bc
       -0.0023269 -0.018310502 0.0057218717 -0.01666968
000290 f4 53 9b 3d 90 01 0e bd 49 12 fd bc 21 67 8b bd
       0.07584372 -0.03466946 -0.030892508 -0.0680678
0002a0 dc 18 6e bd 4b 6f 24 bd 59 21 33 3d 9e 54 48 bd
       -0.058129176 -0.0401452 0.043732975 -0.048908822
0002b0 89 c1 b4 3d 39 c4 36 bd 11 49 86 3d b6 ff ec 3b
       0.088259764 -0.044620726 0.06556905 0.0072326316
0002c0 1f d8 be 3d 1f 3a 8e bc df 54 a6 3d 83 77 56 3d
       0.093185656 -0.017361699 0.081216566 0.05236007
0002d0 e7 e4 bc 3c 11 fb 2a bc 37 3d 21 bd 13 2d 22 3d
       0.023058368 -0.010435835 -0.03936502 0.039593767
0002e0 64 b7 c9 3c bb 73 c5 bc dc a1 30 bc 8c 9b d6 bc
       0.02462358 -0.024103036 -0.010780778 -0.026197217
0002f0 ec 2d 1e bc 74 62 c0 3c 9e ac 88 bb d8 cb 4d bd
       -0.009654503 0.023484446 -0.004170968 -0.05024323
000300 0a 76 14 3d fe fe c4 3c 76 da f5 bb d8 27 e0 3c
       0.036245383 0.024047371 -0.007502849 0.027362749
000310 a5 79 a5 3d ca 16 17 3d dd ae 8d bd 98 4e de bb
       0.080798425 0.036886968 -0.06918118 -0.0067842714
000320 bc 3d 12 3c 70 91 19 3d 9c cc 85 3d 1f c3 78 3d
       0.008925851 0.037492216 0.06533167 0.060732957
000330 9f 82 71 bd 91 d6 2a bd c9 fc 18 3d d5 e9 81 3d
       -0.05896246 -0.041708533 0.03735045 0.06343428
000340 f8 89 90 bc 33 ba 26 bb bb 9b 4b bd 3c b0 98 3d
       -0.017643914 -0.0025440573 -0.049709063 0.07455489
000350 f7 6f 31 3d 00 d2 97 3d 52 00 81 bd 71 b1 9c 3d
       0.04331967 0.07413101 -0.06298889 0.07651032
000360 4b e6 c1 3b 80 9d 5b bd 39 d5 87 3d 77 57 a8 3d
       0.0059173456 -0.053617 0.06632466 0.082198076
000370 a2 63 46 bd d5 e4 54 3b a6 8b 48 bd 25 59 8d bd
       -0.04843486 0.0032485027 -0.048961304 -0.069017686
000380 60 a7 af 3b b7 e3 80 bd ca 65 a0 3c 87 e8 ba bc
       0.005360529 -0.06293433 0.019579787 -0.022815956
000390 82 23 8c bd 2f d4 97 3d 65 f3 71 bd d9 6e 17 bd
       -0.0684271 0.07413518 -0.05907001 -0.036970947
0003a0 cb 4f 81 3d f5 a2 69 3c af 5c ed bc 0c f2 06 bd
       0.063140474 0.014260043 -0.028974859 -0.032945678
0003b0 0a 4b fb bc c0 8b d2 bb 12 5f ed 3c a9 b5 8d bd
       -0.03067543 -0.006425351 0.028975997 -0.069194146
0003c0 3d d9 6a 3d e6 c4 3a bd 99 37 df bc 93 44 b1 3c
       0.05733608 -0.045597933 -0.02724819 0.021639144
0003d0 33 d0 a9 bd 6c f5 96 bc 31 8e bb bd e1 25 29 bd
       -0.08291664 -0.018427573 -0.0915798 -0.04129589
0003e0 4a 60 3d bd 89 10 a2 bd 6d 02 61 bd 53 f9 32 bd
       -0.046234407 -0.0791331 -0.054933954 -0.043694805
0003f0 af 79 8a bd 1a 21 5b 3d 3b 31 74 bc 86 37 1d 3c
       -0.067614906 0.053498365 -0.014904316 0.009595757

layer2.0.bias f4 [16]
000000 e4 21 b1 3d 85 fe 84 bd 56 b4 44 bd 1d 62 78 3d
       0.08649042 -0.06493858 -0.048023544 0.060640443
000010 49 df f5 3a 1d c8 88 bd 78 ce 22 bc ec e7 87 3c
       0.0018758561 -0.066787936 -0.009936921 0.016590081
000020 86 43 e7 bc 4c 2f 88 3d f2 0d a4 bd e2 a5 a0 3d
       -0.02823044 0.06649646 -0.08010472 0.0784414
000030 84 fd ae 3c 7e b4 90 bc f1 cd 7d bc 8b 38 73 bd
       0.02136112 -0.01766419 -0.015490995 -0.059380095

layer2.1.weight f4 [16]
000000 a8 6d 82 3f 99 39 78 3f 6a e9 80 3f ca 3f 81 3f
       1.0189714 0.9696289 1.0071232 1.0097592
000010 20 37 7b 3f db 79 82 3f be 18 7c 3f 56 8e 79 3f
       0.9813099 1.0193437 0.98475254 0.9748281
000020 64 c7 7f 3f ec b7 80 3f b3 66 84 3f d3 52 80 3f
       0.9991362 1.0056129 1.0343841 1.0025276
000030 bd b0 82 3f 27 01 77 3f 6c 63 7b 3f a5 03 80 3f
       1.0210186 0.96486133 0.9819858 1.0001112

layer2.1.bias f4 [16]
000000 d3 ed 3a bc 0c 10 95 bc cd 84 e8 bc 09 7d fb 3b
       -0.011409241 -0.018196128 -0.028383637 0.0076748175
000010 31 32 da bc 57 68 eb bb 3c 0e 8c bc 0a 89 a2 bc
       -0.026635261 -0.007184069 -0.017096631 -0.019840736
000020 65 80 1c bc f4 e2 5b bc 8f 36 c0 bc bf 86 52 3b
       -0.009552096 -0.013420809 -0.023463516 0.0032123772
000030 d8 41 34 3b 93 1f 58 bd a7 fd 66 bc e6 1d c4 3b
       0.0027505066 -0.052764487 -0.014098561 0.0059850095

layer3.0.weight f4 [64, 16, 3, 3]
000000 87 57 80 bd 06 03 aa bd 0e 7f 41 3d d0 2c f7 3c
       -0.062666945 -0.08301358 0.04724031 0.030172735
000010 85 79 41 3d 16 46 44 b9 03 98 07 bd 1b 19 97 bc
       0.04723503 -0.00018718126 -0.033103954 -0.018444588
000020 9c 0b 72 bd ed fc 57 bd c6 47 a1 3c ed eb d2 bc
       -0.059093103 -0.052731443 0.019687545 -0.025747264
000030 a0 f5 bf 3d 56 db 08 bd 50 ee 8f 3d 71 3d 48 3d
       0.09373021 -0.0334123 0.070278764 0.04888672
000040 86 f0 4a bd b7 75 e5 3d b7 cf b0 3d 31 e7 82 39
       -0.049545787 0.11204093 0.086333685 0.00024967783
000050 40 6a ff 3c 5f de ae 3c e4 73 a2 3d 0d bf a7 3d
       0.031178594 0.02134627 0.07932261 0.08190737
000060 e9 70 3b bc d6 33 c2 3b 92 7f 9a bb 9b ca 2b bc
       -0.011440494 0.0059265895 -0.0047149146 -0.010485317
000070 90 ea 6b 3c 95 69 1e 3c 49 3b 71 3d 8a cd 50 3d
       0.014399186 0.009668727 0.05889443 0.050977267
000080 07 8e 8c bd 9a ea 24 3d d5 00 62 bd ed 8d 6e bd
       -0.06863027 0.040262796 -0.055176575 -0.05824082
000090 1a 2e 61 bd ce a3 89 bd 61 a4 ad 3d 17 7f dd bc
       -0.054975607 -0.067206964 0.084786184 -0.02703814
0000a0 31 91 5f bd 63 69 35 bc eb aa 7e 3d b2 48 6c 3d
       -0.054581825 -0.011072489 0.06217472 0.057686515
0000b0 78 80 32 3d c1 b2 35 3d 5e 1f 23 bd 18 7a a8 3d
       0.04357955 0.044359926 -0.039824836 0.082264125
0000c0 27 96 a2 bb 8a ce d0 3d 5a db 2c bc 88 e0 11 bd
       -0.004961747 0.10195644 -0.010550344 -0.03561452
0000d0 5b d5 ed bc 8a fb a8 3d 8d 5c 70 bc 1b 36 82 3d
       -0.0290324 0.08251102 -0.014670503 0.06357976
0000e0 36 17 a4 3b 58 bd 91 bc 17 4a bd bd 21 1f 8f 3d
       0.00500765 -0.017790481 -0.09242647 0.06988359
0000f0 34 51 3c bd ca c6 46 3d 66 63 31 3d bc 7d 3f bc
       -0.04597588 0.048529424 0.043307684 -0.011687692
000100 05 f5 95 3d 12 a4 66 bd 9b c9 7d 3d 5f 1d 6d bd
       0.073221244 -0.056308813 0.061959844 -0.05788934
000110 c3 a0 37 3d 4e 2d ec bc dc 97 8b 3d f7 f7 4d bd
       0.04483105 -0.028830197 0.06816074 -0.050285306
000120 04 ba e4 bc 71 fc 18 3b 7e 7f 45 3d f5 c9 c0 bd
       -0.02792073 0.0023343826 0.04821729 -0.0941352
000130 41 19 4e 3d dc 1b 61 3d 85 8f 22 3c 9b ce 86 bb
       0.050317053 0.05495821 0.009921913 -0.0041139848
000140 b5 3d 88 bc 40 fc 3d 3d 20 ae 96 bd c7 5f 6d bb
       -0.016630987 0.046383142 -0.073574305 -0.0036220418
000150 6f 49 0a bb ca 20 f1 bb fb 7c 98 3d 60 49 a0 bd
       -0.0021100899 -0.007358645 0.07445713 -0.07826495
000160 e5 53 ad bc 2d 36 40 3d 62 79 ff 3b b8 0e 8a 3a
       -0.021158168 0.046926666 0.0077964524 0.0010532951
000170 b6 e2 08 bd 21 79 56 3d 4a 9e 9d bd e4 53 36 3d
       -0.033419333 0.05236161 -0.07696207 0.044513598
000180 75 0a 35 3d 3d c2 ae bd ce 74 c9 bc 3f 17 e9 3c
       0.044199426 -0.08533142 -0.02459183 0.028453467
000190 9b 58 5b 3d 5c 42 fc bc bb ed 34 bd ae a1 8c 3c
       0.053551298 -0.030793361 -0.04417203 0.017166939
0001a0 14 4a b4 3d 71 55 ba 3d 52 7c 4f bc a6 da 61 3c
       0.08803192 0.09098328 -0.012663918 0.01378504
0001b0 09 19 aa 3d 68 70 85 bc e8 b1 a0 3d bb 55 1e 3d
       0.08305556 -0.016288951 0.07846433 0.038655978
0001c0 34 fe 31 bc 17 0e 43 bd 23 ba f0 bc 7b e5 8a 3d
       -0.010863829 -0.04762086 -0.029385632 0.06782051
0001d0 5c cc a7 3d f7 c3 f7 3c 18 b9 d1 3a 50 30 86 bd
       0.08193275 0.03024481 0.0016000597 -0.06552184
0001e0 24 1d 9d 3c e1 84 b2 bd 75 d4 46 3d 2f 87 34 bd
       0.019178934 -0.08716751 0.04854246 -0.044074234
0001f0 f8 9d a0 3d dc f7 8f 3c cf df 91 3b d0 c2 61 bd
       0.0784263 0.017574243 0.004451729 -0.05511743
000200 2d c5 7a 3d 87 2d c5 3c c9 24 4c bd f8 e0 0e 3d
       0.061223198 0.02406956 -0.04983977 0.034882516
000210 bf b0 e3 3b 70 e2 65 3d 39 f3 29 bd d5 e3 2f bd
       0.00694856 0.05612415 -0.04149172 -0.042941887
000220 9a 1a 28 3d 58 c5 38 3d eb 7c 42 bc 5d f3 2c bd
       0.041040994 0.045110077 -0.011870603 -0.042224277
000230 7c a8 8e 3d aa dc 00 bd 46 1c 83 bc c2 41 89 3c
       0.069657296 -0.03146044 -0.016004693 0.016754989
000240 ea 8e bc 3d ec 72 1a 3d 53 98 21 bd 67 69 00 bd
       0.09206946 0.037707254 -0.03945191 -0.03135052
000250 ce 8b 46 3d 97 a3 80 bd 26 f1 a9 bd 1b 61 70 bb
       0.048473172 -0.06281202 -0.082979485 -0.0036678973
000260 07 dd 7d bd 0b 00 87 3d 4c 27 22 bd e5 44 f5 bb
       -0.061978366 0.06591805 -0.039588258 -0.0074850195
000270 34 0b b8 3c 15 cb b8 3c 42 ea 5f 3d 22 6c 1f bd
       0.02246628 0.022557775 0.054666765 -0.038921483
000280 93 ef 4d 3d 3e e8 9a bd 8e d5 76 bc c5 40 0f 3d
       0.050277304 -0.07563828 -0.015065564 0.03497388
000290 1c 92 9a 3d e4 36 d4 3b d3 38 89 3c 44 df 76 3d
       0.075473994 0.00647627 0.016750729 0.060271516
0002a0 a0 aa 27 3d cd 14 dc bc 97 63 bc bd 5f 42 be bd
       0.040934205 -0.026865387 -0.09198683 -0.09290003
0002b0 c0 f8 a9 bd 36 2f 63 3d 46 ff 80 3d 86 0d 4a bb
       -0.082993984 0.055464946 0.062986895 -0.0030830815
0002c0 33 9a 1c bd c7 59 cf 3b c7 8d 9e bd 79 50 64 3d
       -0.038232993 0.006327841 -0.07741886 0.055740807
0002d0 f5 d0 47 3d 2e 8e ac bc d2 b9 92 bd 8c c2 59 bd
       0.04878326 -0.02106389 -0.07164349 -0.05316405
0002e0 b8 b3 3f 3d 0a 9b a1 bd 25 22 6e bd 18 17 b8 3c
       0.046802253 -0.078908995 -0.05813803 0.02247195
0002f0 21 dd 5f 3d 20 aa dd 3c 22 aa 1a 3b be a9 0e bd
       0.054654244 0.027058661 0.0023599942 -0.034829848
000300 02 30 46 bd 2b ba 32 bd bf a6 72 3d 44 bf 7d bd
       -0.048385628 -0.043634575 0.059241053 -0.061949983
000310 c7 aa c8 bc 03 0f 29 3d fc 15 cc bb ff b7 5b bd
       -0.024495495 0.041274082 -0.0062282067 -0.05364227
000320 77 be 5d 3d d6 d3 bb bd 35 7a da 3b e8 9e 7c 3d
       0.05413672 -0.09171264 0.0066674002 0.061674982
000330 9a 08 15 bd 4b 8c 73 3d df 9f c1 bd e8 cc 8e 3d
       -0.036385156 0.059459966 -0.09454321 0.069726765
000340 ea 15 a0 3d db 29 0d 3d fc 62 86 bc 58 a6 96 3c
       0.0781668 0.034463745 -0.016404621 0.018389866
000350 ed 4a 45 bd ff 69 95 bd d7 56 2d bd 2f 0d 3a bd
       -0.048167158 -0.07295608 -0.042319145 -0.04542273
000360 da 81 b5 bd 5b dc 27 bd 81 fb 27 bd fe c1 33 bc
       -0.08862658 -0.04098163 -0.041011337 -0.010971544
000370 d6 fe bd bd 27 92 ff ba 5a dc 57 3b 98 ee 52 bd
       -0.09277122 -0.0019498513 0.0032937736 -0.051497072
000380 7a 58 10 bd 20 6a 37 bb 74 5d 3e 3d 12 06 82 3c
       -0.035240628 -0.002798684 0.046475843 0.015872035
000390 8c 1a 04 bd a6 b3 38 bd f1 1f 81 3d 95 dc ef 3c
       -0.03225188 -0.0450932 0.063049205 0.029279986
0003a0 ff 07 05 3d 14 04 cd 3d 5a 5a 59 bc a2 83 fa bc
       0.03247833 0.100105435 -0.01326617 -0.030580346
0003b0 6f df a8 bd ea 47 35 bc 10 3e 39 bd b1 40 96 3d
       -0.082457416 -0.011064509 -0.045225203 0.07336558
0003c0 36 13 54 3d be 72 4f bd 49 f8 44 37 b5 9f f2 3c
       0.051776133 -0.050646536 1.1740319e-05 0.02961717
0003d0 4a 6e 4c bc 04 73 10 bd 38 b1 8d 3d a0 f3 24 3d
       -0.012477467 -0.035265937 0.069185674 0.0402714
0003e0 0c fe 8d bc 79 47 b5 bd 89 69 6c bd ed 18 26 bd
       -0.017333053 -0.08851523 -0.057717834 -0.040551115
0003f0 84 7d 43 3d 6f 9c 42 bd 4e 1e 4f bb cc c9 c9 bd
       0.047727123 -0.047512468 -0.0031603756 -0.09852943

layer3.0.bias f4 [64]
000000 57 6a dd bc d7 7d b9 bb 74 d2 2d 3d 22 9f 61 3d
       -0.027028246 -0.005660753 0.042437032 0.0550834
000010 59 b5 a6 3d da bc 39 3c 53 68 09 bc 13 b8 a3 bd
       0.08140058 0.01133653 -0.008386689 -0.07994094
000020 fb cf 67 3a 90 11 17 bd 23 fc 9c 3d a9 54 7f 3d
       0.0008842942 -0.036881983 0.07665279 0.062336598
000030 dc b6 8f bd d5 e7 5b bd de 45 58 bd f3 61 a4 3c
       -0.070172995 -0.05368789 -0.052801006 0.020066237
000040 80 35 b3 3c 26 1c 41 bd 74 e2 22 3d f6 04 9e 3d
       0.021876097 -0.047145985 0.039766744 0.0771579
000050 a1 61 5c bd c4 76 43 bd bc 3f 03 3d 37 ba 22 3d
       -0.053804044 -0.047720686 0.032043204 0.03972837
000060 27 cb 10 3d b2 2a 98 3d 83 f1 ab 3d d0 43 99 3d
       0.03534999 0.074300185 0.08395674 0.07483637
000070 dc 67 aa bd d0 91 aa bc 4f 9d 3d bd 8a 03 8d bd
       -0.08320591 -0.020821482 -0.0462926 -0.06885441
000080 69 f2 34 bc 0e 27 85 3d 29 30 67 bd e5 7f 0c bd
       -0.011044123 0.0650159 -0.056442413 -0.034301657
000090 e7 04 bd ba be 6c 04 bd c7 2c 28 3d 74 20 80 bd
       -0.0014421017 -0.032330267 0.041058328 -0.0625619
0000a0 74 1b eb 3c 4a c2 64 3d e5 3c f0 bc db 0b d0 bb
       0.028699614 0.05584935 -0.029325912 -0.0063490695
0000b0 db 4a 7e bd 7b 11 45 bd cd 25 55 3d 91 48 9d 3b
       -0.062083106 -0.048112374 0.052038003 0.0047999104
0000c0 6b be 39 bd 14 da 42 bd 2f b9 16 bd b0 70 4c bd
       -0.045347612 -0.047571257 -0.0367977 -0.049912155
0000d0 ee 2f 68 bd 9c 72 f5 3c 9a 46 2c bd 4c 9b 91 bd
       -0.056686334 0.029961877 -0.04205952 -0.07109699
0000e0 3b f4 fa 3c 42 fd 33 bd 44 e0 25 3c 64 65 2c 3d
       0.030634036 -0.043942697 0.01012427 0.04208888
0000f0 19 27 70 bc aa d2 0b bd a9 0b 49 3d b8 7e 86 bd
       -0.014657759 -0.03413645 0.049083386 -0.065671384

layer3.1.weight f4 [64]
000000 b0 bf 80 3f df a2 7d 3f 67 8f 83 3f 9c 31 82 3f
       1.0058498 0.99076647 1.0278138 1.017139
000010 19 68 80 3f cf b0 7f 3f 19 38 80 3f f0 62 78 3f
       1.0031768 0.99879164 1.001712 0.97025967
000020 74 f5 7e 3f 94 e3 80 3f dd a8 7b 3f 41 86 7d 3f
       0.9959328 1.0069451 0.9830454 0.9903298
000030 f0 e7 78 3f 77 75 7b 3f ab de 7f 3f 4b e1 78 3f
       0.9722891 0.9822611 0.9994914 0.9721877
000040 47 c9 81 3f c5 68 7d 3f 52 da 84 3f 76 00 7d 3f
       1.013955 0.9898799 1.0379126 0.9882883
000050 d0 3d 80 3f 45 d7 80 3f f5 14 81 3f e2 fb 80 3f
       1.0018864 1.0065695 1.008452 1.0076869
000060 f1 1c 7a 3f ed 45 81 3f fe 61 82 3f d2 fc 80 3f
       0.9770041 1.0099465 1.0186155 1.0077155
000070 3c ac 82 3f 81 ad 80 3f fb 26 83 3f ce 54 75 3f
       1.0208812 1.0052949 1.0246271 0.95832527
000080 c6 04 7b 3f 08 45 82 3f 54 cf 83 3f b3 f4 75 3f
       0.9805416 1.0177317 1.0297647 0.96076506
000090 57 00 81 3f d2 e6 7c 3f 55 c3 81 3f 5a d1 81 3f
       1.0078229 0.98789704 1.0137736 1.0142014
0000a0 ae f5 7f 3f 63 65 80 3f d6 5d 81 3f de 39 79 3f
       0.9998425 1.0030941 1.0106761 0.97353923
0000b0 d7 6b 7f 3f 1a 9d 7d 3f 1b 79 7a 3f 9b a5 80 3f
       0.99773926 0.9906784 0.9784104 1.0050539
0000c0 83 81 80 3f fa 7b 80 3f 2b b5 81 3f bc ad 81 3f
       1.0039524 1.0037835 1.0133413 1.0131145
0000d0 5f ec 81 3f 88 02 81 3f 6f eb 81 3f ec 09 84 3f
       1.015026 1.0078897 1.0149974 1.0315528
0000e0 c5 9f 7d 3f f0 03 81 3f 4c 88 80 3f 42 73 80 3f
       0.99071914 1.0079327 1.0041595 1.0035174
0000f0 ac 02 83 3f cf fa 7a 3f 09 84 7d 3f 2c 47 79 3f
       1.023519 0.98038954 0.99029595 0.97374225

layer3.1.bias f4 [64]
000000 b1 ac ff bb 46 09 80 bc 6d 97 79 3b 64 96 96 bb
       -0.007802569 -0.015629422 0.0038084642 -0.0045955647
000010 0f 4d 7c bc 0b e8 23 bc 9a d6 0d bc 1e 57 cc bc
       -0.015399232 -0.010004054 -0.008657122 -0.024943884
000020 7d 48 e5 bc ae 5b b4 bb 4d 1c e0 bb 15 19 8b bc
       -0.027988667 -0.005504093 -0.006839311 -0.016979733
000030 9d e3 0e bd 39 4b 52 bd 15 bf 8f bc ee 58 70 bc
       -0.034885038 -0.05134127 -0.01754717 -0.01466964
000040 15 0b af bc 3a fb b9 bc 9d e8 48 bc 62 6e d2 bc
       -0.021367589 -0.022702802 -0.012262491 -0.0256874
000050 c5 a8 46 bc d0 2a 27 bc 2a 31 1a 38 ce eb 3c bc
       -0.012125199 -0.010203078 3.676225e-05 -0.01153083
000060 8d c8 fa bb 28 83 1c 3c 36 1c b7 3c 19 09 23 bc
       -0.007653302 0.009552754 0.02235232 -0.0099508995
000070 86 5b 6f bc 48 56 0f ba b3 49 d3 bb bf 59 0d bd
       -0.014609223 -0.0005467874 -0.0064479946 -0.034509417
000080 37 93 d5 bc 77 b8 91 bb 9f d4 25 bc 47 6a b6 bc
       -0.026071174 -0.0044470388 -0.010121494 -0.022267474
000090 16 e2 62 3a cb 67 6b bc c3 36 9c 3a 82 4a 76 bc
       0.0008654905 -0.014368008 0.0011918176 -0.0150324125
0000a0 d8 a9 97 bc 92 5c d3 bb 3a 66 11 bc 57 32 c8 bc
       -0.018513605 -0.006450244 -0.00887447 -0.024438066
0000b0 ef 44 5d bc 1f 6e 25 bc b0 81 63 bc 37 8c 07 bc
       -0.013505205 -0.010097056 -0.0138859 -0.008273176
0000c0 f4 15 d0 bc e6 ec 19 bc 0b fc f7 bb f9 da 25 bb
       -0.025401093 -0.00939486 -0.0075678877 -0.002530752
0000d0 24 77 41 bc e5 5f 05 bd d7 b2 80 ba 9c ab 8b bc
       -0.0118081905 -0.032562155 -0.0009818923 -0.017049603
0000e0 38 f7 81 bc 43 79 f1 ba 17 a6 13 ba 53 97 40 bc
       -0.015864953 -0.001842298 -0.00056323543 -0.0117548285
0000f0 d5 4e f9 ba 19 ca de bc af a4 04 bc 69 17 ee bc
       -0.0019020686 -0.027195977 -0.008095904 -0.029063897

layer4.0.weight f4 [64, 64, 3, 3]
000000 a2 0b 15 3d 49 91 a0 bb 1c 8f 70 bc 66 01 19 3d
       0.036388047 -0.004900132 -0.014682557 0.03735485
000010 d2 dc c7 3b 58 b4 00 bd bf 70 f1 3c a3 b3 ef 3c
       0.006099322 -0.03142199 0.029472707 0.029260462
000020 42 57 48 3c b7 2f 19 3d f4 e8 a6 bb 9d b5 2a bd
       0.012227835 0.03739902 -0.005093688 -0.041677106
000030 2a de 6e 3c 41 67 2f bd b9 a6 8f 3c d3 a4 70 bc
       0.014579335 -0.04282308 0.017535554 -0.014687735
000040 d8 b6 cf bc 06 b6 9a bb 13 6a 3c 3d d2 8e 2b 3d
       -0.025355741 -0.004721406 0.045999598 0.04188425
000050 ad f1 8c 3b d5 09 07 3d 90 e3 84 3c 0b a3 97 3d
       0.004301271 0.03296836 0.016221792 0.07404145
000060 5c 0c 66 3c 54 bd 28 3d fb 05 82 3d d2 46 87 3d
       0.014041033 0.041196182 0.06348797 0.06605305
000070 84 f4 c7 3c c2 a6 d8 bc d1 9c a1 3c 49 bc 07 3b
       0.024408586 -0.026446704 0.019728096 0.0020711592
000080 d0 54 b3 bc b3 15 86 bc 14 55 d9 3b 04 21 03 bd
       -0.021891028 -0.016367769 0.0066324566 -0.032013908
000090 5c 08 81 3d a6 98 43 3d d7 3d f5 bc c0 b1 47 bb
       0.063004225 0.047753 -0.029936714 -0.0030470937
0000a0 b4 c9 da 3c c4 bf 09 3d 76 db a9 3b 02 83 04 3c
       0.026707508 0.033630148 0.0051836325 0.008087875
0000b0 7b fb a5 3d 53 96 95 3c 76 d9 b0 3b f8 0a 29 3d
       0.08104607 0.018260157 0.005397017 0.041270226
0000c0 e4 ed b3 3c a4 09 36 3c 35 74 2d 3d c4 83 e2 3b
       0.021964021 0.011110697 0.04234715 0.0069126803
0000d0 51 2d 52 3d 67 30 c6 3c 0b d2 8b 3d 92 e8 aa 3a
       0.05131275 0.024193002 0.06827172 0.0013039282
0000e0 fd fc 59 3d 2f d5 3d bd af 74 be 3c a7 71 46 3d
       0.053219784 -0.046345886 0.023248998 0.04844823
0000f0 29 be ef bb 2c 24 5d ba b2 fa 06 3d b8 74 09 bc
       -0.00731637 -0.0008435871 0.032953925 -0.008389644
000100 27 1f 3e bd 4d a9 99 3c f5 23 62 3c df 0e 8b bb
       -0.046416428 0.018757487 0.013802518 -0.004243716
000110 d6 40 ad bc 99 cd 82 bc 8a 19 8b bc 0e 8f 52 bc
       -0.02114908 -0.015967177 -0.016979951 -0.01285149
000120 cb 32 9d 3c ca c0 a3 3c 0f 49 f1 3c 32 ce cc 3c
       0.019189259 0.01998939 0.029453782 0.025000665
000130 d6 fd 45 3d 8a b2 c4 3a f2 b0 11 3d 92 2e 11 3d
       0.04833778 0.0015006822 0.03556914 0.035444804
000140 74 c7 b9 bc e7 3f 0c 3b 33 88 e1 3c 9c 56 94 3c
       -0.022678114 0.0021400393 0.027530765 0.018107705
000150 ed 28 b8 bb f0 b1 d7 bb b5 ef 6f 3d 2e 6b 6d 3c
       -0.005620113 -0.006582491 0.05857821 0.014490886
000160 89 c1 34 3d 57 c5 91 b9 a9 91 2e 3d 5e d8 d1 bb
       0.044129882 -0.00027803585 0.04261938 -0.006403967
000170 d9 e0 2f 3b 16 82 b4 3c cc 29 0d 3c 28 d5 a8 bc
       0.00268369 0.022034686 0.008615922 -0.020609453
000180 b1 10 2b 3d 87 3f 10 3d 82 7f 29 bc 2b 1a a4 bc
       0.041763965 0.035216834 -0.010345342 -0.02003201
000190 6c c7 40 3d 48 7e 7a 3c 16 35 fa bb 6c 15 18 bb
       0.047065184 0.015288897 -0.007635723 -0.0023206128
0001a0 54 49 e6 3c 74 f3 22 3c 8d ad cc bc d8 2e 66 bc
       0.028111137 0.009945739 -0.0249851 -0.014049254
0001b0 af 2b 1a bd b5 b6 f6 bc 86 f9 3e bd 41 bb 47 bd
       -0.037639316 -0.030116418 -0.046624683 -0.048762564
0001c0 6c a8 55 bc 8c 1a 3c 3c 6b 2e 40 ba e7 4e d5 bb
       -0.013040643 0.011480939 -0.00073311356 -0.00650965
0001d0 d6 e5 2e bc 96 65 69 3d c1 cd 35 3d 72 9d 35 3d
       -0.010674914 0.056981646 0.044385675 0.044339605
0001e0 d5 a8 00 3c 86 3c f9 3b 91 c6 b2 3b c3 2b 94 3c
       0.007852753 0.007606092 0.0054558 0.018087273
0001f0 93 0b b9 3b fb 9f 19 3d ea 96 ea ba ff 70 02 bd
       0.0056471317 0.037506085 -0.0017897759 -0.031846043
000200 a7 a2 1f bd 0f d4 59 bd 85 19 ef ba 31 fa ee bc
       -0.038973477 -0.05318075 -0.0018241858 -0.029172035
000210 2d 03 fa 3b 60 5b 08 bc 53 2d 2c bd 27 17 fc 3c
       0.007629773 -0.008322567 -0.042035412 0.030772759
000220 e4 0e ec bc 3a 59 2a ba b5 a5 02 bd f6 98 53 bd
       -0.028815694 -0.0006498281 -0.03189631 -0.051659547
000230 c7 c7 44 bd 37 a6 93 3c 7d c8 18 bd 49 f3 11 bd
       -0.048042085 0.018023593 -0.037300576 -0.035632405
000240 96 f9 67 3c 09 32 2b bc 4b 21 9a 3c 13 cf 9f 3c
       0.014158627 -0.010448941 0.018814703 0.01950792
000250 71 58 2c 3b e9 f4 4c bd 86 4b 05 bd 37 e2 04 bd
       0.0026297832 -0.050038252 -0.032542728 -0.032442298
000260 59 12 11 bd 34 9b c5 bc cd 47 9f 3c b7 56 0a bd
       -0.03541789 -0.024121858 0.019443417 -0.033774104
000270 9d db f3 3c 6e 1e 69 bc 1a b7 f8 3c f6 ec 4f bc
       0.029767806 -0.014228446 0.030360747 -0.012690773
000280 61 f5 b7 3c b0 ef 48 bd 1f 8f 03 3d b5 1d a1 bb
       0.022455873 -0.04905671 0.032118913 -0.0049168714
000290 bb 51 1e 3d 3f e6 aa 3b 8b 5d 5e bb 82 07 6f 3d
       0.038652163 0.0052154358 -0.0033930268 0.05835677
0002a0 19 5c 88 3d a4 cd 9a 3d ff 59 06 3c 6d b3 28 3b
       0.06658191 0.07558754 0.008200168 0.0025741712
0002b0 d4 ee 89 bc ac d4 93 bc ec a0 49 bd 21 3b 43 bd
       -0.016837515 -0.018045746 -0.049225733 -0.04766381
0002c0 05 c5 ab bc 7f a6 eb bc 54 0e 73 bd ce 75 c0 3c
       -0.02096797 -0.028765915 -0.059339836 0.023493674
0002d0 08 b1 c9 3c cc f2 d6 bc 2c a1 24 3d ef f8 49 bb
       0.024620548 -0.026238821 0.040192768 -0.0030818542
0002e0 f4 4b 05 bc b4 5e 9f 3c 3a b6 d1 bc 94 81 c3 bc
       -0.008135784 0.019454338 -0.025599588 -0.023865499
0002f0 0c c4 bb 3c 66 13 56 3b 86 9b 2b 3d 75 0f 02 3a
       0.02292063 0.003266537 0.041896366 0.000496141
000300 75 f1 59 bc 77 3e de 3c 4a bb 07 bd 5c a2 6e bc
       -0.013302197 0.027129395 -0.033137597 -0.014565077
000310 84 1c 09 3d b6 b7 77 3b f8 77 72 3b f0 39 2f 3d
       0.03347446 0.003779871 0.0036997776 0.042779863
000320 c7 69 36 3d c7 89 fe bb 9d 42 f9 3c 23 fa 94 3c
       0.04453447 -0.007767889 0.030427272 0.01818568
000330 f0 fd 30 3d f3 e4 e6 bb 6c 40 ab ba 86 7a 0d 3d
       0.043210924 -0.007046336 -0.0013065464 0.034540676
000340 5b b6 7d 3c a2 d3 3e bd 0e 04 d2 bc e1 77 31 3b
       0.015485371 -0.046588548 -0.025636699 0.002707951
000350 b0 10 08 3d 1e a8 cf bc e2 85 28 bd ad 0f 9d 3c
       0.03321904 -0.02534872 -0.041143306 0.019172514
000360 7c 81 28 3d a7 00 8d 3d af 37 70 bb 1f 97 c9 bc
       0.04113911 0.0688489 -0.0036654284 -0.024608193
000370 3b 46 68 3d d0 fa 1c 3d ab 66 45 3d 4f 1b d8 bb
       0.056707602 0.03832513 0.048193615 -0.0065950523
000380 62 c0 b2 3d e7 84 2d bc ef 39 c1 3c a6 42 82 3c
       0.087281 -0.010590768 0.023587195 0.015900921
000390 0f 7f aa bb f3 41 f6 3c 28 f3 84 bd 53 77 12 bd
       -0.005203135 0.030060744 -0.06491691 -0.035758328
0003a0 a9 42 55 bb 5c 47 7a bd 75 48 c5 3c be d6 39 3c
       -0.0032540953 -0.06110321 0.024082402 0.011342702
0003b0 4d 11 f0 bb ae a1 95 3b ff 4c 6d bb f3 e4 43 3c
       -0.007326281 0.004566393 -0.0036209223 0.011956441
0003c0 50 06 72 3c ef d3 97 3a 8f de 83 bc 2a 85 d1 3c
       0.014772013 0.0011583547 -0.016097335 0.025576193
0003d0 ac 2f 98 3c 52 59 06 3d b2 da 00 bd 8b 37 cb 3b
       0.01857742 0.032800026 -0.031458564 0.0062016896
0003e0 cb 3e 27 bc 0e 9d 35 bd be 31 53 3c 85 26 f1 3c
       -0.010207842 -0.044339232 0.012890277 0.029437313
0003f0 46 f4 ba 3c c8 2d 8a 3b cd 4b 41 bc 1c 4f 33 bc
       0.022821557 0.0042168833 -0.0117978575 -0.010944154

layer4.0.bias f4 [64]
000000 6f 62 2d 3c 74 83 c9 3b 7a 7c 4a 3c 71 2d cd 3c
       0.01058255 0.0061497036 0.012358779 0.025046082
000010 d1 8a ae bc ba 70 44 3c 6c cb 87 3a aa 33 25 3d
       -0.021306427 0.011989767 0.0010360307 0.040332474
000020 14 ae 44 3d 8b 27 01 3d 26 a7 0b bd 7a bc 63 3a
       0.048017576 0.03153185 -0.034094952 0.0008687448
000030 c7 a1 ab bc a1 8f 2c 3c bb b1 16 3c 75 54 d3 bc
       -0.020951165 0.010532291 0.009197648 -0.025797108
000040 d5 74 07 3d cd f4 1d bc de 7b 03 bd 25 16 c4 3c
       0.033070404 -0.009640885 -0.03210055 0.02393634
000050 27 93 a0 bc 32 7f 79 3c cd 72 9a 3b 6c eb a0 bc
       -0.019601418 0.01522808 0.0047133924 -0.019643508
000060 a0 cc 8a 3a 79 dc ef bc 77 18 c0 bc d2 66 36 3d
       0.0010589547 -0.029279934 -0.023449166 0.04453165
000070 7c b3 67 bc 4e 05 bd 3c e5 ac 0b 3d f7 c0 e2 bc
       -0.0141419135 0.023073819 0.034100432 -0.027679903
000080 bc 10 b3 bb ba a7 cf 3c b6 29 92 3c 2d c4 0c 3d
       -0.0054646414 0.025348533 0.017842155 0.034366775
000090 e7 23 2c 3d d8 c0 9b bb 17 16 1c 3b f3 05 d3 bc
       0.042026427 -0.0047532134 0.0023816878 -0.025759673
0000a0 27 6c 5e 3c 7c 4a f1 bc 43 77 ce bc f2 f6 8a 3b
       0.01357559 -0.029454462 -0.025203353 0.004240864
0000b0 b4 4c 87 3c 10 f3 ab ba 40 7a 06 bd 37 d4 dd 3c
       0.016516067 -0.0013118703 -0.03283143 0.027078731
0000c0 cd 7e fc bc 11 3b dc 3c 04 e0 01 3d 15 a1 60 bb
       -0.030822182 0.026883634 0.03170778 -0.00342757
0000d0 d6 74 c2 3b 65 9b 24 bd d1 cb b9 bc 70 69 c3 bc
       0.005934338 -0.04018726 -0.022680195 -0.023853987
0000e0 db 28 31 3d 06 78 0a bd a1 84 b1 bb 6e ee d8 bb
       0.043251853 -0.03380587 -0.005417422 -0.00662022
0000f0 e1 5b e9 3b 89 6e f4 bc 36 be e2 bc 68 f7 a5 3c
       0.0071215485 -0.029837864 -0.02767859 0.020259574

layer4.1.weight f4 [64]
000000 5b bf 82 3f 45 b0 7f 3f a6 42 83 3f 57 06 7e 3f
       1.0214647 0.9987834 1.0254714 0.99228424
000010 a0 31 79 3f d4 a6 81 3f c6 ee 7b 3f 16 78 7b 3f
       0.97341347 1.0129037 0.98411214 0.9823011
000020 c6 5b 84 3f 9e c4 74 3f b8 fd 80 3f a7 3d 83 3f
       1.0340507 0.95612514 1.0077429 1.025319
000030 e2 b8 7d 3f d3 e7 7a 3f 8f 50 81 3f 5b e7 80 3f
       0.99110234 0.98009986 1.010271 1.0070604
000040 ec d9 7e 3f 80 97 80 3f c3 c8 80 3f 7e b3 80 3f
       0.9955127 1.0046234 1.0061268 1.0054777
000050 d0 0a 7a 3f 17 c3 7e 3f bf d0 7f 3f 2d 56 7f 3f
       0.9767275 0.99516433 0.99927896 0.9974087
000060 e0 27 7f 3f 6e d8 79 3f d0 35 79 3f 09 03 81 3f
       0.9967022 0.9759587 0.97347736 1.0079051
000070 ef d5 7c 3f 37 bc 83 3f 6f e2 79 3f 91 21 7a 3f
       0.98763937 1.0291814 0.97611135 0.9770747
000080 db e8 7f 3f 40 16 78 3f ab 44 7b 3f 12 c2 81 3f
       0.99964684 0.9690895 0.98151654 1.013735
000090 13 1c 7b 3f 2a 50 7e 3f a9 82 7b 3f ce 49 7a 3f
       0.9808971 0.9934107 0.98246247 0.97768867
0000a0 8d 99 7e 3f b5 f6 80 3f 3b 44 7c 3f 1f 14 84 3f
       0.9945305 1.0075289 0.9854161 1.031864
0000b0 14 a5 82 3f 28 2e 81 3f ed 5b 7f 3f 0e 6d 81 3f
       1.0206628 1.0092211 0.9974964 1.0111406
0000c0 28 3e 70 3f 83 43 7d 3f db 68 80 3f 12 d6 7c 3f
       0.9384484 0.9893114 1.0031999 0.98764145
0000d0 58 57 7b 3f 5f 63 82 3f 50 5d 82 3f dd 85 83 3f
       0.9818015 1.0186576 1.0184727 1.0275227
0000e0 88 f7 83 3f 83 8a 79 3f cb 83 7c 3f 61 db 81 3f
       1.0309916 0.9747698 0.986386 1.0145074
0000f0 64 7c 85 3f a8 64 77 3f bc 43 81 3f 6c 19 7c 3f
       1.0428586 0.96637964 1.0098796 0.9847629

layer4.1.bias f4 [64]
000000 e6 a3 fb bb a7 f4 e0 bb d6 43 4e bc 54 83 c3 bc
       -0.0076794503 -0.0068651023 -0.012589416 -0.023866333
000010 27 0d f8 bc b9 d3 d7 3b 4c 39 96 bc c7 27 86 bc
       -0.030279709 0.0065865186 -0.018337868 -0.01637639
000020 c4 0d b4 bb 3f f5 0d bd 61 98 73 bc 26 79 95 bb
       -0.005494805 -0.034657713 -0.014867873 -0.004561561
000030 cc 6d b4 bb b7 f0 bb bc aa fd 86 3b e3 c6 43 bc
       -0.005506253 -0.02294193 0.0041195946 -0.011949274
000040 25 18 98 bc 06 87 bb bc 47 60 9a bc e2 b5 97 3b
       -0.0185662 -0.022891533 -0.018844737 0.0046298364
000050 c0 5a bc bc 5d c1 56 bc 52 82 57 bc 24 f0 c3 bc
       -0.022992492 -0.013107625 -0.013153629 -0.023918219
000060 5e 30 89 bc 8c 44 1f bd 31 84 d8 bc a6 2a 89 bc
       -0.016746696 -0.03888373 -0.026430221 -0.01674397
000070 f0 d5 6d bc 21 f0 4b bb ae c0 00 bd e7 a9 46 bd
       -0.014516339 -0.003111847 -0.031433754 -0.048501875
000080 24 ca 3b bc 7e b9 e4 bc 6b e0 07 bd d1 0f 19 bc
       -0.011461768 -0.02792048 -0.033173006 -0.00934215
000090 de 11 86 bc 32 13 f9 bc 6c 35 e8 bc e7 dc b0 bc
       -0.016365942 -0.03040466 -0.028345786 -0.02158971
0000a0 fc 16 83 3b 99 c4 48 bb 06 a9 8b bc 0e 7f 48 b8
       0.0040005427 -0.003063476 -0.01704837 -4.7802045e-05
0000b0 6e 43 ee bb 4a da 20 3b 8c e4 1c bb 71 91 0e ba
       -0.007271222 0.0024544173 -0.0023939935 -0.00054385426
0000c0 d3 24 70 bd 11 14 0e bc c0 7e 66 bc f3 15 5f bc
       -0.05862887 -0.008671776 -0.0140683055 -0.013616073
0000d0 44 58 88 bc 29 9c ce bb c2 b1 fc bb c7 21 dc bb
       -0.01664365 -0.006305237 -0.00771162 -0.0067178938
0000e0 d7 b9 e9 3b e9 ea 19 bd 36 94 c8 bc 56 6f 11 bc
       0.0071327495 -0.037577543 -0.024484735 -0.008876642
0000f0 e2 22 96 bc ed 06 9a bc 89 b0 15 bc 6d d9 3a bc
       -0.01832718 -0.01880213 -0.009136328 -0.011404377

layer5.0.weight f4 [64, 64, 3, 3]
000000 52 9b e0 3c 0e 2c fb bc 1e 94 45 bb 02 15 48 3d
       0.027417812 -0.030660655 -0.00301481 0.04884816
000010 45 19 24 bb 4f cd 8a 3c 8b 13 cb 3b dd ca 95 bc
       -0.0025039476 0.016943602 0.006197398 -0.01828521
000020 31 79 07 bd f2 50 8e bd e2 95 50 3c 00 48 32 bc
       -0.03307456 -0.06949033 0.012731047 -0.010881424
000030 3b 63 f0 3a 12 47 88 bc a3 1a 1c 3d 0c df 2f bc
       0.001834012 -0.016635451 0.03811134 -0.010734331
000040 f7 c4 53 3d 16 2f a8 bc 65 97 98 bb bc b9 87 bc
       0.051701512 -0.020530265 -0.0046567195 -0.016568057
000050 22 8a 23 bd 3d 0c 84 3d 2e 2d 69 3d 2a af 88 bc
       -0.039926656 0.06447647 0.056927852 -0.016685087
000060 f2 33 23 3d de 4e cf 3c 14 ed b8 bc 8c 9c 18 bd
       0.03984446 0.025306161 -0.022573985 -0.03725867
000070 30 29 a3 bc e0 76 11 bd d8 bd b7 3b 21 e5 23 3d
       -0.0199171 -0.03551376 0.005607348 0.040013436
000080 4e a8 2e bc f8 89 f6 b8 11 13 19 bd 61 64 58 3c
       -0.010660244 -0.00011755893 -0.0373717 0.013207526
000090 8c 94 22 bd bb 09 f1 3c 06 e6 75 bc 10 d0 94 bc
       -0.039692447 0.029423585 -0.015008455 -0.018165618
0000a0 5e cd 1c bd ca 54 08 3d 86 78 de bc bc 40 48 3d
       -0.03828179 0.033283986 -0.02715708 0.04888986
0000b0 1c 8b 13 bd f3 f3 a3 bc 6b b1 de 3c df f2 a0 3b
       -0.036021337 -0.020013785 0.027184209 0.004911765
0000c0 37 67 5f 3d d0 a1 1f 3d cc 4b 94 3c 6f 7c 62 3c
       0.054541793 0.038972676 0.018102549 0.013823613
0000d0 79 a3 f5 bb 67 0e a7 bb af 5e 26 bc b5 95 0b 3d
       -0.007496294 -0.0050981524 -0.01015441 0.03407832
0000e0 04 43 a4 3c 7c 51 bd 3c be 79 6d bb 7d 1d 56 bd
       0.020051487 0.023110144 -0.0036235894 -0.052274216
0000f0 7d 6e 86 bb 44 9b bb b9 d9 4e 36 bd 5b 22 02 bd
       -0.0041025267 -0.000357831 -0.04450879 -0.031771045
000100 05 4e 93 bc b2 03 da bb e2 89 37 3d 9b 1c d5 bc
       -0.017981539 -0.0066532725 0.04480923 -0.026014617
000110 4c 1e fe bc cc a4 ad 3c 99 ce b1 3b 23 9d 38 bd
       -0.031020306 0.021196745 0.0054262397 -0.045071732
000120 de 7e 2e 3c 4c 0b 21 bd e9 1d 90 3c 7b 7e d1 bb
       0.010650365 -0.039317414 0.017592387 -0.0063932515
000130 fb 7e 34 3d 7f 48 ff 3b 32 85 a0 3c 4c a0 a4 3d
       0.04406641 0.0077906246 0.019594762 0.08038387
000140 d8 29 fc 3c 00 04 f2 3b 2d 7c 23 bd 8e a4 34 bd
       0.030781671 0.0073857307 -0.039913345 -0.044102244
000150 8a 6b 0a 3c 64 31 f1 3c f9 bf 9c 3c 4a ac 5e bd
       0.008448491 0.029442497 0.019134508 -0.054363526
000160 dc 10 73 bd 6d a2 c7 3a a0 1e 51 bc aa 5c 21 3d
       -0.05934225 0.0015230902 -0.012763649 0.039395012
000170 0b c5 6a 3c 44 0b 74 bc 35 c2 8b bc ee 2c 5d bc
       0.014329205 -0.014895264 -0.017060379 -0.013499482
000180 6d b2 27 3b de b6 1d 3d 9e 4f d1 3c a6 04 04 3c
       0.0025588528 0.038504474 0.02555066 0.008057749
000190 66 ca 59 3b 09 ee 13 bd a1 60 e2 bc ea bf e4 3c
       0.003323221 -0.03611568 -0.027633967 0.027923543
0001a0 24 f5 e3 3c c8 99 8b 39 7f 68 b3 3c c4 1c 19 3c
       0.027826853 0.00026626722 0.021900414 0.009345237
0001b0 d4 eb e4 bc 6a 79 1c bd ed ed 85 3c e3 c9 79 ba
       -0.027944483 -0.038201727 0.016348803 -0.00095286797
0001c0 56 12 dc bb a3 ef 00 bb 0f 4a 8b 3c c8 ef 64 3c
       -0.006716053 -0.0019674085 0.017003087 0.013973184
0001d0 ec 2f f2 bc f9 8b 26 3d e3 dc 82 3c 22 d4 c0 3c
       -0.029563867 0.040660832 0.015974468 0.023538653
0001e0 fa a3 fb 3b 09 00 74 bc 94 f0 2b bc 81 be 59 bb
       0.0076794596 -0.0148925865 -0.01049437 -0.0033225121
0001f0 c4 ff 31 3d 54 5e 65 3b 86 3a 34 bc 9e bc 11 bd
       0.043456808 0.003499885 -0.011000281 -0.03558027
000200 5e 75 0f bd 38 99 99 3c 19 50 a7 3c 26 7f c3 3c
       -0.03502404 0.018749818 0.020423936 0.02386434
000210 7a 9f 86 bc 46 6f 4e bd f4 d9 08 bd 4c 0c 49 bc
       -0.016433466 -0.050399087 -0.03341098 -0.012270998
000220 32 28 39 bd 39 96 e3 bc 15 63 a7 3b df a9 b3 bc
       -0.04520435 -0.027781593 0.005108247 -0.021931587
000230 06 e0 d4 bc 73 f4 cb bc 0b 1e 92 3b 36 19 70 3b
       -0.025985729 -0.024896836 0.004459148 0.003663612
000240 10 83 68 bc e1 ec 67 bc 32 86 42 3c 26 28 2d b9
       -0.014191404 -0.014155597 0.011872815 -0.00016513522
000250 fc bd 38 3d 4a 43 c6 bc cf 84 e7 bc 58 40 81 3b
       0.04510306 -0.024202008 -0.02826157 0.003944438
000260 17 2e 65 3d e7 5c 3f bc 0b 1d 0f bb 01 2b f5 3c
       0.055952158 -0.0116798645 -0.002183738 0.029927732
000270 29 5d 13 3d 18 58 af 3c 8f e4 7f bd 91 b6 33 3d
       0.035977516 0.021404311 -0.06247383 0.04387528
000280 ee 05 54 3c 61 d6 ff bc 85 01 f0 bb 68 94 55 3c
       0.012940867 -0.031230154 -0.0073244 0.013035871
000290 cb 53 d5 bb 63 d8 10 3d ff 6e c4 ba a2 d3 51 bc
       -0.006510233 0.035362612 -0.0014986693 -0.012806805
0002a0 f8 f0 f3 3b 19 e7 11 3d 74 c2 36 3d c9 50 06 3d
       0.007444497 0.035620783 0.04461904 0.032791886
0002b0 ca 93 a7 bc 18 c2 af bc 65 da 49 bc c7 f4 c3 b9
       -0.020456214 -0.021454856 -0.012320136 -0.00037375672
0002c0 f9 4e 5a bb fb 3a 38 bc f0 dc 05 bd d6 96 c3 bc
       -0.0033311232 -0.011244531 -0.032681406 -0.023875635
0002d0 eb 33 b3 bc 33 f4 80 3c 98 58 02 3d be 3b 27 bc
       -0.021875342 0.015741443 0.03182277 -0.010207115
0002e0 de 5c ee 3c 2c 7e d9 3b 66 8b 93 3b e2 83 0a 3d
       0.029097017 0.0066373553 0.0045027016 0.03381718
0002f0 b7 e1 53 bd 7a 04 02 bd f0 c7 64 bd eb e2 01 bd
       -0.05172893 -0.03174255 -0.055854738 -0.031710546
000300 90 41 95 3c 51 40 17 bd df f6 71 bd f8 e8 19 bd
       0.01821974 -0.03692657 -0.059073325 -0.037575692
000310 a2 c2 d3 3c ef 09 55 3b 5c 18 79 3c 43 c1 9d 3c
       0.025849644 0.0032507142 0.015203562 0.019257193
000320 41 ea b8 3c ec bb 05 3d c2 45 8d 3c da 16 d6 3c
       0.022572638 0.03264992 0.017245177 0.026133943
000330 3a c5 d5 3b b6 b7 e7 3c 95 b8 8e bc a5 25 1e 3b
       0.0065237554 0.028285842 -0.017422 0.0024131325
000340 59 6d 16 3d c4 61 21 3b fb 38 21 3d b7 f3 a5 3a
       0.036725376 0.0024624923 0.03936098 0.0012661134
000350 2d e5 e0 bc 4f 17 54 bd b1 31 45 3c 89 6b f2 bc
       -0.02745303 -0.05178004 0.012035773 -0.029592292
000360 bc 37 30 bd 80 90 12 3d 20 bb 39 3c ab 18 89 bb
       -0.043021902 0.035782337 0.011336118 -0.004183849
000370 2b 41 3e bc bd 12 6b 3c d1 82 ed 3c 69 e2 3e 3d
       -0.011612217 0.014347729 0.028993042 0.04660264
000380 96 2e 9a 3c 15 83 45 3d 32 13 07 bd c0 33 25 3b
       0.018821042 0.048220713 -0.03297729 0.0025207847
000390 89 20 90 3b 8f 5d 0c bd 73 f5 3c bb ac 78 9c bc
       0.0043984097 -0.034268912 -0.0028832823 -0.01910051
0003a0 20 38 de bc d6 e0 f0 b9 d6 fb bd 3c d1 74 e2 bc
       -0.027126372 -0.00045943883 0.023191374 -0.027643593
0003b0 b8 2a ac 3b 4c 44 e4 bc fc a8 e2 ba 30 e5 7a bc
       0.005254116 -0.027864598 -0.0017292793 -0.015313432
0003c0 41 71 10 3d 1c 6e d6 3c 28 d6 18 3d 9a 5c 74 bb
       0.035264257 0.026175551 0.03731361 -0.003728664
0003d0 01 7e 29 bd 2e a7 85 3c 46 50 16 3c 49 c8 8d 3c
       -0.041379932 0.016315069 0.009174412 0.017307417
0003e0 d0 71 1e 3d 68 52 dd 3b 57 95 6e bc 9c b8 69 bc
       0.03868276 0.0067542084 -0.014561973 -0.014265206
0003f0 76 2e 81 3b 50 7b e7 bc 62 0e 93 3c ea 69 e2 bc
       0.003942306 -0.028257042 0.017951194 -0.027638394
