weights/pretrain_privaterotated__finetune_normal.pth (torch, 950822 bytes, 26 tensors)

layer1.0.weight f4 [16, 3, 3, 3]
0.2006929 -0.09713625 0.06263567 0.15826863 -0.013281237 0.18241473 0.184004 0.02277545
0.17297076 -0.13312227 -0.14673343 0.15609787 -0.12433138 0.033848897 -0.19108994 0.05781499
-0.044276472 0.1512501 0.04948208 -0.009097684 0.14193277 -0.049652327 0.13308598 -0.16572525
-0.14124952 0.06995224 0.17630294 0.1935116 0.107021615 0.055375163 0.17717338 -0.13625292
0.0052569737 0.15126519 0.09979568 0.12096253 -0.18817699 -0.18097484 0.097292036 0.17852521
-0.15363711 -0.19214225 -0.047088638 -0.03878612 0.18582122 0.14272197 -0.20443909 0.003893599
-0.078398354 0.17915076 0.14001052 -0.0033260914 -0.011928 0.034105454 -0.023781715 -0.23049743
0.0017226373 -0.1543698 0.17754824 0.09985115 0.077491246 0.059575133 0.15223223 -0.12091405
-0.16281044 -0.048178654 0.036131874 0.12616874 0.20328562 0.13361299 0.056692723 0.10426058
0.14650343 0.08065778 0.090268105 -0.13639311 -0.17346212 -0.16916253 0.114816435 0.11566127
0.16820659 0.07041698 0.0074123824 -0.11685525 0.1595382 0.12159829 0.022048615 0.14823946
-0.09522281 0.14897102 -0.014617743 -0.14614667 -0.0314946 0.16576485 0.15091786 0.03491358
-0.1629977 -0.16479269 -0.14182793 -0.051381283 0.13524754 0.1657113 0.17613234 -0.10227968
-0.062084604 -0.05084531 0.14584517 -0.10430431 0.1885533 -0.041807722 0.007914265 -0.024664842
-0.08722192 -0.16974348 0.16846357 -0.16928144 0.022848213 0.0044695665 0.030107303 -0.022761796
-0.069809385 0.14493354 -0.08641731 -0.041054554 0.1251018 -0.05645372 0.06408202 0.10090279
-0.044696983 -0.21055335 -0.1900302 0.015600832 -0.07605691 0.1118567 0.1461085 -0.1039309
0.100383006 0.039175138 -0.10841042 -0.15685502 0.1309135 -0.12709762 0.00024367562 -0.04724722
0.06413984 0.048937876 -0.15394783 0.12731303 -0.0015252744 -0.077999756 -0.18644594 0.17047136
-0.049609408 -0.051397786 0.16878879 -0.16661696 0.13549164 -0.15331163 -0.07264259 0.1127875
0.13279831 -0.050603915 -0.107626066 -0.0848202 -0.19603288 -0.14263019 -0.033078212 -0.18471822
-0.1569553 0.1052623 0.07711746 -0.019938635 -0.091769956 -0.13727747 -0.10846016 -0.023900056
0.050550517 0.04797997 0.07357111 -0.10413038 0.037502326 0.12140352 -0.15220802 0.00548101
-0.014355168 -0.21685413 -0.22581328 -0.030399544 0.1763066 0.022406213 -0.017662521 -0.033072136
-0.07632365 0.13061439 -0.16517857 -0.017289832 -0.12417543 -0.04146966 0.043861795 -0.109810464
-0.031014519 0.08753863 0.20539492 -0.018552696 -0.115621 -0.15817502 -0.17639717 -0.11912884
0.124858014 0.035347592 -0.03444245 -0.16944647 0.014647075 0.19361186 0.1657132 -0.015769305
0.024679536 -0.16013475 0.04416714 0.09843835 0.12381128 -0.0125434 0.012681869 0.11180935
-0.10897878 -0.14772125 -0.11302349 -0.0067414017 0.063931294 0.018002523 0.018970469 -0.1513818
-0.16591425 0.14215751 -0.14305477 -0.13037157 -0.046463452 -0.09411731 -0.15769479 0.052920427
-0.016482454 -0.16282162 -0.15106246 0.0170806 0.087398425 0.11583029 -0.057767093 -0.001202079
0.028054586 0.21369776 0.19441386 0.19215983 -0.14924134 -0.13588566 0.010699312 -0.10669652
00000000: 7182 4d3e 5fef c6bd 2147 803d 2c11 223e
00000010: 8c99 59bc edca 3a3e 8b6b 3c3e 9593 ba3c
00000020: 3f1f 313e 3451 08be 4a41 16be 1fd8 1f3e
00000030: 73a1 febd 24a5 0a3d 15ad 43be 69cf 6c3d
00000040: 3f5b 35bd 4ee1 1a3e b9ad 4a3d 740e 15bc
00000050: d356 113e 3d60 4bbd b147 083e e1b3 29be
00000060: b7a3 10be 1f43 8f3d c288 343e e827 463e
00000070: 262e db3d 11d1 623d f06c 353e e385 0bbe
00000080: b142 ac3b 43e5 1a3e ad61 cc3d 34bb f73d
00000090: 78b1 40be 7851 39be 0c41 c73d 50cf 363e
000000a0: 0c53 1dbe f0c0 44be 04e0 40bd 32de 1ebd
000000b0: eb47 3e3e b525 123e 7b58 51be c02b 7f3b
000000c0: 518f a0bd 4c73 373e eb5e 0f3e 8efa 59bb
000000d0: a86d 43bc 29b2 0b3d dfd1 c2bc 8507 6cbe
000000e0: 1eca e13a 1e13 1ebe 35cf 353e c27e cc3d
000000f0: bbb3 9e3d 0e05 743d c4e2 1b3e c9a1 f7bd
00000100: c8b7 26be fb56 45bd 04ff 133d 6132 013e
00000110: 1b2a 503e d8d1 083e a136 683d 9286 d53d
00000120: ff04 163e e82f a53d 7cde b83d a3aa 0bbe
00000130: 0ea0 31be f138 2dbe e124 eb3d d1df ec3d
00000140: 593e 2c3e c736 903d 92e3 f23b ce51 efbd
00000150: fb5d 233e 8608 f93d 4c9f b43c 16cc 173e
00000160: 2d04 c3bd dc8b 183e 427f 6fbc 79a7 15be
00000170: 7b00 01bd 43be 293e 368a 1a3e 8b01 0f3d
00000180: dee8 26be 6abf 28be 573b 11be 2e75 52bd
00000190: 557e 0a3e 39b0 293e 095c 343e 0278 d1bd
000001a0: 6d4c 7ebd 2c43 50bd 7058 153e 809d d5bd
000001b0: 1e14 413e 933e 2bbd d5aa 013c ec0d cabc
000001c0: 68a1 b2bd 3cd1 2dbe b781 2c3e 1d58 2dbe
000001d0: 2d2c bb3c 7175 923b 97a3 f63c f276 babc
000001e0: 39f8 8ebd 7569 143e 8ffb b0bd d228 28bd
000001f0: b01a 003e 043c 67bd 6f3d 833d 1fa6 ce3d
00000200: 2f14 37bd 4c9b 57be 4797 42be a29a 7f3c
00000210: bac3 9bbd 2015 e53d 779d 153e b9d9 d4bd
00000220: 9b95 cd3d 1c76 203d 4806 debd 9a9e 20be
00000230: 300e 063e e125 02be 2d83 7f39 4d86 41bd
00000240: c05b 833d 1573 483d 80a4 1dbe 595e 023e
00000250: b7eb c7ba 56be 9fbd afeb 3ebe 0b90 2e3e
00000260: 3c33 4bbd 7c86 52bd f8d6 2c3e a39d 2abe
00000270: 52be 0a3e b9fd 1cbe a3c5 94bd 22fd e63d
00000280: 48fc 073e 0d46 4fbd 0e6b dcbd 37b6 adbd
00000290: d8bc 48be a60d 12be 057d 07bd c626 3dbe
000002a0: e4b8 20be c393 d73d c2ef 9d3d 5956 a3bc
000002b0: e3f1 bbbd 7792 0cbe 5c20 debd 0dca c3bc
000002c0: 0f0e 4f3d a586 443d 73ac 963d 4f42 d5bd
000002d0: 0a9c 193d 69a2 f83d 6bdc 1bbe 0b9a b33b
000002e0: f031 6bbc 020f 5ebe 993b 67be 7708 f9bc
000002f0: b889 343e 3c8d b73c feb0 90bc a676 07bd
00000300: 934f 9cbd c7bf 053e 9224 29be 68a3 8dbc
00000310: b04f febd 17dc 29bd 6da8 333d 4fe4 e0bd
00000320: 2912 febc 7447 b33d 0c53 523e d3fb 97bc
00000330: b4ca ecbd a2f8 21be 76a1 34be d2f9 f3bd
00000340: 8fb5 ff3d a3c8 103d 8713 0dbd 6083 2dbe
00000350: 49fa 6f3c 3042 463e b9b0 293e a12e 81bc
00000360: bd2c ca3c 5dfa 23be 9ae8 343d 0c9a c93d
00000370: c590 fd3d d582 4dbc 9dc7 4f3c 4dfc e43d
00000380: 4430 dfbd 3d44 17be dc78 e7bd fae6 dcbb
00000390: 69ee 823d 077a 933c f567 9b3c d503 1bbe
000003a0: 6de5 29be bd91 113e f37c 12be 2080 05be
000003b0: 7650 3ebd 94c0 c0bd be7a 21be 17c3 583d
000003c0: 3606 87bc b6ba 26be 1eb0 1abe 9dec 8b3c
000003d0: f2fd b23d 6e38 ed3d 309d 6cbd 148f 9dba
000003e0: bbd2 e53c 96d3 5a3e 6d14 473e 8cc5 443e
000003f0: b9d2 18be 9c25 0bbe 2b4c 2f3c b483 dabd

layer1.0.bias f4 [16]
-0.1561786 0.09879979 0.12559517 -0.0037171715 -0.12120118 0.049308266 0.179445 0.07789416
-0.15454705 -0.07076745 0.12951034 -0.0458581 0.08793737 0.055366103 0.029688776 0.09081393
00000000: 48ed 1fbe 8b57 ca3d 059c 003e ca9b 73bb
00000010: 5338 f8bd 77f7 493d 6ec0 373e f986 9f3d
00000020: 9541 1ebe 86ee 90bd 5c9e 043e b4d5 3bbd
00000030: 8218 b43d 91c7 623d e035 f33c a7fc b93d

layer1.1.weight f4 [16]
1.009424 1.0102503 1.0178789 0.9865087 1.0268233 0.9638674 0.9627054 0.9821192
1.0046206 1.0507287 1.0205082 0.99300295 1.00556 0.99085796 1.0105016 1.0041381
00000000: ce34 813f e24f 813f db49 823f d68b 7c3f
00000010: f26e 833f 04c0 763f dc73 763f 2a6c 7b3f
00000020: 6897 803f 477e 863f 03a0 823f 7135 7e3f
00000030: 31b6 803f dea8 7d3f 1e58 813f 9987 803f

layer1.1.bias f4 [16]
0.020509956 -0.012299584 -0.01813035 -0.01162007 0.023045773 -0.021204568 -0.028842945 -0.025688188
0.019681854 0.007818319 0.00698711 0.010020655 0.00048848876 -0.01285954 0.018145783 -0.0040766695
00000000: 7f04 a83c 3284 49bc 1a86 94bc 1b62 3ebc
00000010: 7dca bc3c 34b5 adbc 0a48 ecbc 0970 d2bc
00000020: d73b a13c 6818 003c 20f4 e43b ac2d 243c
00000030: ed0d 003a d2b0 52bc 77a6 943c 9595 85bb

layer2.0.weight f4 [16, 16, 3, 3]
-0.05480719 0.036734663 -0.005341164 -0.11184932 -0.04628884 -0.00066007016 -0.102859624 0.043521505
-0.066679396 -0.052884776 -0.02355005 0.029120304 -0.03900169 -0.0052999225 -0.012090987 -0.025594743
-0.060988437 -0.07228122 0.05776216 -0.045125674 0.08409158 -0.021419963 0.010421244 0.025435897
-0.024382574 -0.069218494 -0.052674435 -0.072081454 -0.029444614 -0.0031074774 0.014827801 0.0055161207
-0.045540534 0.06802576 0.019396024 -0.010236941 0.063664146 -0.029784193 -0.040332258 -0.06586386
-0.003111874 -0.028441047 0.06525164 0.016847908 0.04288 -0.06931715 -0.08961859 0.004078475
-0.03206745 0.022799231 -0.05059119 -0.04273601 0.052831016 0.017172003 0.09073248 -0.052751146
-0.066080116 0.020673716 0.04871419 0.008370954 0.021211287 0.0038710872 0.06367508 0.03962354
0.013452263 -0.0073064854 0.0033967197 0.05304485 0.024044372 -0.07806203 -0.029004386 0.08622784
0.074722365 0.06254535 -0.025328228 -0.01865834 0.07748478 0.09567255 0.093789354 0.03416112
-0.010671685 -0.047355138 0.05495242 0.021092707 0.032387804 -0.03425288 0.042119056 0.052191485
-0.04266032 0.007510884 0.038754296 -0.025371673 -0.073185734 -0.062100906 -0.046858724 -0.09060952
0.031051375 -0.06396491 -0.017630244 0.0058169453 0.008879958 0.022276582 0.0012650146 0.04125643
0.052808244 -0.016766671 -0.046417333 -0.059731282 0.0781959 0.04612302 0.068461426 -0.032350555
0.06743344 -0.018802145 -0.023696972 0.0022536442 -0.014543139 0.049984507 -0.0849132 -0.019508881
0.05196834 0.027273241 0.037461035 0.0404212 0.06359374 -0.018662127 -0.00774914 -0.010691897
0.08712013 -0.06263467 0.057371173 0.112771794 0.053904265 0.12028525 0.107676946 0.024863485
-0.047315367 -0.08525882 0.0011769786 -0.010760341 -0.011349952 -0.045254838 -0.056319065 -0.06623978
-0.01708036 0.043455597 0.15119174 0.0064897896 -0.04443784 -0.021533389 -0.025305605 0.0514053
0.03933035 0.01831056 -0.031267274 0.12604524 0.022840783 0.044503707 -0.051737536 -0.0037079148
-0.01090039 -0.06998812 -0.10221359 -0.06816783 0.07819433 -0.11392204 -0.092683986 0.077119924
-0.06391018 -0.092855185 -0.020072317 0.04631135 0.014160472 0.00082759303 -0.05350555 -0.028128121
0.06516554 0.0053147036 0.010299384 -0.093246505 -0.0036334365 -0.052885167 0.052336052 -0.039039575
-0.050153214 -0.07391714 0.03556304 -0.08408674 -0.03748329 0.015928725 0.0068964553 -0.075131014
0.01520018 0.024059717 -0.032484602 -0.02207268 -0.06637766 0.01196823 -0.09463174 -0.023300927
0.06644499 0.008159154 0.006432576 0.043816444 0.034271907 -0.08369558 -0.07944626 0.04791256
-0.061572887 -0.048319772 -7.1639246e-05 -0.08151443 -0.08542727 -0.07652245 0.06588451 -0.057602942
0.021767229 0.008757055 0.04281738 -0.032784194 -0.041716453 0.01766382 -0.072504655 0.049971588
-0.05285655 0.033179022 -0.043998756 0.034915723 0.036633056 -0.030679218 0.036182366 0.0042752544
0.0013279436 0.01112561 -0.084668785 -0.04552702 0.025679182 -0.010119025 -0.017233303 -0.054153133
-0.03953193 -0.08818658 -0.08266312 0.06502733 0.042799465 0.057489723 0.061232314 -0.09746925
-0.045874253 -0.026553052 -0.011301413 -0.0131098805 -0.06298049 -0.0597574 0.026702449 0.094327815
00000000: 817d 60bd 1677 163d ee04 afbb 4211 e5bd
00000010: 5e99 3dbd 8f08 2dba 11a8 d2bd 9b43 323d
00000020: 358f 88bd b59d 58bd 09ec c0bc b48d ee3c
00000030: 3cc0 1fbd f9aa adbb 4619 46bc 11ac d1bc
00000040: 03cf 79bd 2d08 94bd 0498 6c3d b3d5 38bd
00000050: 3538 ac3d eb78 afbc debd 2a3c f15e d03c
00000060: f7bd c7bc 6dc2 8dbd 26c1 57bd 719f 93bd
00000070: d535 f1bc d2a6 4bbb 4ef0 723c 93c0 b43b
00000080: b688 3abd 1751 8b3d 69e4 9e3c d8b8 27bc
00000090: 5962 823d fbfd f3bc 7033 25bd a2e3 86bd
000000a0: 95f0 4bbb 33fd e8bc a7a2 853d a004 8a3c
000000b0: f0a2 2f3d 26f6 8dbd f489 b7bd baa4 853b
000000c0: 2959 03bd 74c5 ba3c b538 4fbd f40b 2fbd
000000d0: 5665 583d 4dac 8c3c f3d1 b93d 9611 58bd
000000e0: 0355 87bd ed5b a93c 8888 473d 5326 093c
000000f0: 4bc3 ad3c 11b2 7d3b 1568 823d 4b4c 223d
00000100: e166 5c3c 3e6b efbb 809b 5e3b 8e45 593d
00000110: b4f8 c43c fcde 9fbd 9b9a edbc 3998 b03d
00000120: 0a08 993d c717 803d 257d cfbc 60d9 98bc
00000130: 57b0 9e3d f8ef c33d a214 c03d 88ec 0b3d
00000140: 4bd8 2ebc 76f7 41bd ca15 613d 9dca ac3c
00000150: 13a9 043d bf4c 0cbd 0885 2c3d bdc6 553d
00000160: 96bc 2ebd dd1d f63b d3bc 1e3d 41d8 cfbc
00000170: 67e2 95bd 855d 7ebd efee 3fbd 7c91 b9bd
00000180: 745f fe3c 0900 83bd 4d6d 90bc 139c be3b
00000190: 3e7d 113c 617d b63c d9ce a53a 81fc 283d
000001a0: 754d 583d 425a 89bc 1a20 3ebd caa8 74bd
000001b0: 2c25 a03d 7eeb 3c3d 8135 8c3d 0482 04bd
000001c0: 8b1a 8a3d f506 9abc 2720 c2bc e0b1 133b
000001d0: 5946 6ebc 8ebc 4c3d f9e6 adbd 17d1 9fbc
000001e0: c1dc 543d 226c df3c be70 193d b390 253d
000001f0: 6f3d 823d 51e1 98bc 7fec fdbb 112d 2fbc
00000200: 0a6c b23d 9b46 80bd 09fe 6a3d e6f4 e63d
00000210: b8ca 5c3d 1d58 f63d bb85 dc3d 82ae cb3c
00000220: c2cd 41bd 2d9c aebd d944 9a3a 244c 30bc
00000230: 26f5 39bc 235d 39bd d2ae 66bd b9a8 87bd
00000240: 1cec 8bbc 7ffe 313d 02d2 1a3e 4da8 d43b
00000250: 7404 36bd ca66 b0bc b34d cfbc 5d8e 523d
00000260: dc18 213d 0700 963c 1d12 00bd 0112 013e
00000270: 981c bb3c 8549 363d bdea 53bd 7d00 73bb
00000280: 8d97 32bc ee55 8fbd 5c55 d1bd 939b 8bbd
00000290: 5924 a03d f54f e9bd 1ad1 bdbd 0df1 9d3d
000002a0: 57e3 82bd dc2a bebd b36e a4bc f8b0 3d3d
000002b0: 5301 683c d4f2 583a a328 5bbd f26c e6bc
000002c0: 8375 853d f726 ae3b bfbe 283c 06f8 bebd
000002d0: f31e 6ebb 1e9e 58bd 545e 563d f6e7 1fbd
000002e0: 756d 4dbd df61 97bd 8daa 113d ab35 acbd
000002f0: 1488 19bd f57c 823c a9fb e13b 4ade 99bd
00000300: 2d0a 793c e218 c53c 930e 05bd c4d1 b4bc
00000310: 03f1 87bd 6516 443c 49ce c1bd 96e1 bebc
00000320: 5014 883d f9ad 053c 5cc8 d23b df78 333d
00000330: b360 0c3d 9768 abbd b9b4 a2bd f63f 443d
00000340: da33 7cbd f4ea 45bd 073d 96b8 0af1 a6bd
00000350: 7ef4 aebd cdb7 9cbd 75ee 863d 10f1 6bbd
00000360: 3051 b23c c079 0f3c 4761 2f3d b848 06bd
00000370: dfde 2abd b7b3 903c 527d 94bd 02af 4c3d
00000380: 1c80 58bd bae6 073d 0a38 34bd ca03 0f3d
00000390: 8b0c 163d fc52 fbbc f633 143d 6f17 8c3b
000003a0: 650e ae3a 3148 363c d466 adbd 8a7a 3abd
000003b0: 265d d23c 44ca 25bc db2c 8dbc adcf 5dbd
000003c0: 3cec 21bd 2a9b b4bd 484b a9bd 0c2d 853d
000003d0: 7e4e 2f3d 587a 6b3d bcce 7a3d f59d c7bd
000003e0: a4e6 3bbd c985 d9bc 9029 39bc d3ca 56bc
000003f0: eafb 80bd 2dc4 74bd 18bf da3c f12e c13d

layer2.0.bias f4 [16]
0.05085622 0.055676505 -0.019636765 -0.03512198 0.044374503 0.049276747 -0.09459606 0.019541312
-0.003968519 0.0039811702 0.02034003 0.04719317 0.045927282 0.06876091 -0.080529384 0.044701625
00000000: 9d4e 503d 0c0d 643d 48dd a0bc 11dc 0fbd
00000010: 0ac2 353d 6ad6 493d 94bb c1bd 1a15 a03c
00000020: 5a0a 82bb 7a74 823b 22a0 a63c a04d 413d
00000030: 3f1e 3c3d 85d2 8c3d 97ec a4bd 0d19 373d

layer2.1.weight f4 [16]
0.9847507 1.0436623 1.0277752 0.9918221 1.0043995 1.0267252 0.9833811 0.988082
1.01031 0.9999238 0.9892454 1.001667 0.9844844 1.0018307 1.0114665 0.9973697
00000000: 9f18 7c3f ba96 853f 238e 833f 0ee8 7d3f
00000010: 2a90 803f bb6b 833f ddbe 7b3f f1f2 7c3f
00000020: d751 813f 02fb 7f3f 303f 7d3f a036 803f
00000030: 2b07 7c3f fd3b 803f bc77 813f 9f53 7f3f

layer2.1.bias f4 [16]
-0.01485138 0.011835254 0.025546182 -0.03316804 0.006208312 0.00893518 -0.019598035 -0.008963999
-0.019675484 -0.029368011 -0.013215852 -0.007389325 -0.017772395 -0.020062556 -0.023175726 -0.020834107
00000000: 3453 73bc a7e8 413c 3a46 d13c 36db 07bd
00000010: 196f cb3b dc64 123c 0f8c a0bc bddd 12bc
00000020: 7b2e a1bc 2f95 f0bc 4d87 58bc 2722 f2bb
00000030: 6a97 91bc 3b5a a4bc 05db bdbc 4aac aabc

layer3.0.weight f4 [64, 16, 3, 3]
-0.01883048 0.057353396 0.046483822 -0.058649383 -0.0076246485 -0.04727585 0.006701757 0.006103849
-0.05227426 0.039112546 0.02873627 0.03011291 0.04253688 0.04852656 0.008273402 -0.039633136
-0.016589679 -0.02024255 -0.00046041785 0.008348282 0.06189861 0.057891652 0.0030488907 -0.07216914
0.04929108 0.053821113 0.07721494 -0.021768877 -0.0038681221 -0.07202946 -0.08130663 -0.078587696
-0.030298444 0.0631366 -0.0062476126 -0.02766513 -0.008627026 -0.062156733 -0.009457934 0.015308683
0.08443282 0.04394068 -0.04813522 -0.06364166 0.06931099 -0.029499141 0.08243931 0.06345268
0.023988906 0.070019886 0.04156131 0.024395663 0.09476721 -0.07021872 0.008318655 -0.0070376107
-0.0502259 -0.048320003 -0.00034760966 0.060370103 0.023332523 0.086914316 0.0510889 -0.0725981
-0.039313275 -0.068697445 -0.07012222 0.0086222645 -0.10172963 0.048176877 0.06646339 -0.083847545
0.0020267165 -0.031891797 0.048293874 -0.024270281 -0.05132109 0.078209 -0.09785431 -0.07436997
-0.08223829 0.079702415 -0.054795783 0.0023172158 -0.05829205 -0.0129112415 -0.0020603922 -0.016984174
0.06985619 0.025986478 0.021704389 -0.028174479 0.036366448 0.010481857 0.06724413 -0.06533889
-0.027895171 0.075330436 -0.027830634 0.05229006 -0.047734663 0.09863524 0.06575924 -0.008376696
-0.020257836 -0.05628439 0.05794078 -0.05817684 -0.037693553 0.008668257 0.05755104 -0.0392843
-0.031103868 -0.01770175 0.06937937 -0.069108985 0.035842933 -0.015147248 0.04516196 0.01736975
-0.00613612 -0.059680983 -0.07458194 0.04410286 0.07167084 0.05557591 0.07260675 0.080633804
0.048362713 0.050031032 -0.015138297 0.057558022 -7.518809e-05 -0.013884728 0.005683861 -0.059202824
0.00056992396 -0.001037521 0.093468174 0.06735725 0.030622607 -0.0710309 0.0013761922 -0.015192524
0.08665112 -0.005134723 0.060001444 -0.02551386 0.020759344 0.030207196 0.062770806 -0.07755178
0.0736114 0.10786716 0.10631166 0.031717706 -0.0340271 -0.019778544 0.008968029 0.06261243
0.00027720482 -0.03406817 0.056713242 0.09117015 -0.056771778 -0.038817253 -0.018906038 -0.08046083
-0.08698999 0.041791923 0.07952844 -0.009661801 -0.05018559 0.04889739 -0.0327079 -0.061513968
0.049052525 -0.06377974 0.008930418 0.06736822 0.0881526 -0.0062136757 -0.07942018 0.00022620644
0.08514989 -0.015805684 0.079192795 0.07008975 0.084369354 0.11559394 0.011274283 0.061955754
0.065002084 0.067775376 -0.026332418 0.019198919 0.0034475569 0.012212606 -0.015097518 -0.019704483
0.054355435 -0.10393308 0.06481117 -0.05185587 0.037416276 -0.057215326 0.069492735 0.009130264
0.046930138 0.09118332 0.06909074 -0.089199185 0.00032269515 0.060714185 -0.06340037 0.017323801
-0.030613637 -0.034983065 0.009055401 -0.07388022 0.05679801 0.03782325 -0.038756844 -0.07192356
0.031600624 -0.055259135 0.08536481 0.04491168 0.0291955 0.04189529 -0.03149752 0.059781298
0.00969398 0.060356252 0.063815676 -0.061736368 0.07560635 -0.04108442 -0.03468984 0.016515283
-0.0043399045 0.012018977 0.04344327 0.0685452 0.004260278 -0.04762946 0.01883915 -0.0665635
-0.043201234 -0.010302498 0.06609974 0.043734245 0.093927994 0.02591456 0.015711186 0.06174859
00000000: 6142 9abc 65eb 6a3d d265 3e3d 563a 70bd
00000010: 30d8 f9bb 52a4 41bd 6a9a db3b cc02 c83b
00000020: 891d 56bd 7a34 203d 5368 eb3c 59af f63c
00000030: 273b 2e3d c9c3 463d 2a8d 073c 5b56 22bd
00000040: 14e7 87bc b4d3 a5bc 3d64 f1b9 3cc7 083c
00000050: 6689 7d3d cc1f 6d3d e6cf 473b 6acd 93bd
00000060: 72e5 493d 8773 5c3d de22 9e3d a554 b2bc
00000070: 5280 7dbb 2e84 93bd 1784 a6bd 96f2 a0bd
00000080: 7134 f8bc c34d 813d c6b8 ccbb fca1 e2bc
00000090: 5f58 0dbc 0f98 7ebd 73f5 1abc 45d1 7a3c
000000a0: 1deb ac3d 24fb 333d 7029 45bd 8f56 82bd
000000b0: ecf2 8d3d 2fa8 f1bc f1d5 a83d 7bf3 813d
000000c0: 6284 c43c 9666 8f3d 313c 2a3d 6ad9 c73c
000000d0: 5015 c23d d5ce 8fbd f84a 083c c29b e6bb
000000e0: acb9 4dbd 32eb 45bd 613f b6b9 a446 773d
000000f0: d923 bf3c 2200 b23d 9842 513d 50ae 94bd
00000100: f506 21bd 3fb1 8cbd 3d9c 8fbd 6644 0d3c
00000110: a057 d0bd 1e55 453d f51d 883d 43b8 abbd
00000120: a9d2 043b f9a0 02bd cccf 453d 78d2 c6bc
00000130: 1036 52bd 0a2c a03d d767 c8bd 484f 98bd
00000140: 8c6c a8bd 053b a33d 8b71 60bd 6edc 173b
00000150: a5c3 6ebd ac89 53bc a507 07bb 6522 8bbc
00000160: c310 8f3d 98e1 d43c 67cd b13c 2ace e6bc
00000170: fcf4 143d 18bc 2b3c 4ab7 893d 65d0 85bd
00000180: 6a84 e4bc d846 9a3d 12fd e3bc 1a2e 563d
00000190: 6c85 43bd 4601 ca3d c8ac 863d 693e 09bc
000001a0: c3f3 a5bc 768a 66bd 5053 6d3d d74a 6ebd
000001b0: 8e64 1abd 4e05 0e3c a4ba 6b3d 93e8 20bd
000001c0: 8acd febc 4303 91bc c516 8e3d 0389 8dbd
000001d0: 0ad0 123d 2a2c 78bc bffb 383d 024b 8e3c
000001e0: 8111 c9bb 0c74 74bd 6bbe 98bd 33a5 343d
000001f0: 29c8 923d 91a3 633d d9b2 943d 5623 a53d
00000200: fb17 463d 57ed 4c3d 9f06 78bc f6c1 6b3d
00000210: 4cae 9db8 c57c 63bc af3f ba3b a97e 72bd
00000220: f366 153a 6efd 87ba 3e6c bf3d 99f2 893d
00000230: 43dc fa3c a678 91bd 5961 b43a 10ea 78bc
00000240: 2476 b13d 2e41 a8bb 13c4 753d 7102 d1bc
00000250: 800f aa3c 1575 f73c fb8d 803d 78d3 9ebd
00000260: 93c1 963d 75e9 dc3d edb9 d93d 6dea 013d
00000270: 0060 0bbd 9d06 a2bc a4ee 123c f23a 803d
00000280: cd55 9139 118b 0bbd 254c 683d 6ab7 ba3d
00000290: 8689 68bd d7fe 1ebd d6e0 9abc a6c8 a4bd
000002a0: cf27 b2bd 022e 2b3d cfdf a23d 884c 1ebc
000002b0: 688f 4dbd a148 483d b8f8 05bd 12f6 7bbd
000002c0: 4deb 483d f49e 82bd e350 123c 59f8 893d
000002d0: 5a89 b43d 179c cbbb 0ca7 a2bd d431 6d39
000002e0: 1163 ae3d ec7a 81bc d52f a23d 378b 8f3d
000002f0: d7c9 ac3d 84bc ec3d c5b7 383c 51c5 7d3d
00000300: d01f 853d d1cd 8a3d 15b7 d7bc 0d47 9d3c
00000310: 68f0 613b 6217 483c 955b 77bc 4c6b a1bc
00000320: cea3 5e3d deda d4bd b8bb 843d d266 54bd
00000330: cf41 193d 9e5a 6abd 3552 8e3d 1a97 153c
00000340: d139 403d 52be ba3d 727f 8d3d 10ae b6bd
00000350: 692f a939 70af 783d 0ed8 81bd a5ea 8d3c
00000360: 73c9 fabc 674a 0fbd 1b5d 143c 834e 97bd
00000370: 08a5 683d 8dec 1a3d 7fbf 1ebd a94c 93bd
00000380: a86f 013d 6757 62bd bfd3 ae3d 4ff5 373d
00000390: 672b ef3c 659a 2b3d 8b03 01bd 3cdd 743d
000003a0: 80d3 1e3c 1e38 773d cbb1 823d 46df 7cbd
000003b0: 81d7 9a3d 2348 28bd ef16 0ebd 0f4b 873c
000003c0: c235 8ebb 3eeb 443c 92f1 313d 6d61 8c3d
000003d0: cd99 8b3b 1c17 43bd 9054 9a3c 7252 88bd
000003e0: c7f3 30bd cfcb 28bc 4d5f 873d ae22 333d
000003f0: 525d c03d c54a d43c bfb4 803c 17ec 7c3d

layer3.0.bias f4 [64]
-0.079466306 0.08099043 -0.0774301 -0.07646996 -0.03169298 0.072820835 -0.063618354 0.06104183
-0.01184537 -0.049754273 0.011885027 0.01883993 0.09172453 -0.0516045 0.04753905 -0.012667047
0.07540454 0.05423741 -0.007647038 -0.026422545 0.009115758 0.055957388 -0.03384662 0.0460385
-0.045679316 0.050832197 0.06973828 0.06548601 -0.03100793 0.02342542 -0.019807413 0.022821816
0.030895554 -0.031307824 0.054238033 0.0700737 0.015562446 -0.061669175 -0.028267212 -0.06237403
-0.05069567 -0.00420992 -0.07977341 0.07689708 0.06140265 -0.017797004 -0.03282048 0.006420288
0.016714036 0.095502555 -0.014913838 -0.028849293 -0.071057014 -0.036012568 0.07860962 0.064909615
-0.030694092 -0.07140179 0.025266157 -0.075903215 -0.03437449 0.027542263 0.016642943 0.012448047
00000000: 3bbf a2bd 50de a53d ac93 9ebd 489c 9cbd
00000010: 80d0 01bd 1723 953d 574a 82bd ff06 7a3d
00000020: 1513 42bc 23cb 4bbd 6bb9 423c 3256 9a3c
00000030: 12da bb3d 3d5f 53bd 4fb8 423d 7289 4fbc
00000040: b26d 9a3d 0c28 5e3d 0194 fabb 1874 d8bc
00000050: 435a 153c 9333 653d c1a2 0abd de92 3c3d
00000060: 3c1a 3bbd 6c35 503d f1d2 8e3d 871d 863d
00000070: 5804 febc abe6 bf3c 2843 a2bc d1f4 ba3c
00000080: ac18 fd3c a23c 00bd b328 5e3d cd82 8f3d
00000090: a1f9 7e3c d198 7cbd a490 e7bc e97b 7fbd
000000a0: 43a6 4fbd 5ef3 89bb 3e60 a3bd 377c 9d3d
000000b0: 5881 7b3d 06cb 91bc c56e 06bd 4761 d23b
000000c0: e0eb 883c d896 c33d 2c59 74bc 5a55 ecbc
000000d0: 5786 91bd ea81 13bd 15fe a03d 55ef 843d
000000e0: 2d72 fbbc 1a3b 92bd f9fa ce3c 2573 9bbd
000000f0: 44cc 0cbd 50a0 e13c c856 883c e5f2 4b3c

layer3.1.weight f4 [64]
0.9449303 1.0007608 0.9955543 0.972815 0.9997992 1.0135096 0.9966562 1.0374247
0.9958319 0.98364186 0.9977519 0.98895097 1.0150745 1.0038583 1.000486 0.97925687
0.9993683 1.0035112 1.0267565 0.99976236 1.0072181 1.0013034 1.0187147 1.0168302
1.0101789 0.98878366 0.9952066 1.0291559 0.997779 0.9835421 0.9791125 1.0143818
1.0138916 0.99181986 1.0008228 1.0208309 0.9924171 0.9827128 0.9654263 0.9927021
1.0172806 0.9951388 1.0014367 1.0115904 1.002243 0.9998072 0.999782 1.0100689
0.9953779 1.028116 0.9939713 0.99405277 0.9967621 1.0069593 0.98720413 1.027837
1.0032015 0.99128836 0.99832284 1.0327994 1.0042121 0.9933508 1.0115895 1.0060289
00000000: f4e6 713f ee18 803f a6dc 7e3f 670a 793f
00000010: d7f2 7f3f afba 813f dc24 7f3f 55ca 843f
00000020: d7ee 7e3f f4cf 7b3f ab6c 7f3f e42b 7d3f
00000030: f6ed 813f 6e7e 803f ed0f 803f 94b0 7a3f
00000040: 9ad6 7f3f 0e73 803f c26c 833f 6df0 7f3f
00000050: 86ec 803f b62a 803f 3e65 823f 7e27 823f
00000060: 8b4d 813f ed20 7d3f dcc5 7e3f 61bb 833f
00000070: 726e 7f3f 6ac9 7b3f 1ea7 7a3f 43d7 813f
00000080: 33c7 813f e8e7 7d3f f61a 803f 96aa 823f
00000090: 0c0f 7e3f 1193 7b3f 2e26 773f ba21 7e3f
000000a0: 4036 823f 6bc1 7e3f 142f 803f cb7b 813f
000000b0: 8049 803f 5df3 7f3f b7f1 7f3f f049 813f
000000c0: 16d1 7e3f 4e99 833f e774 7e3f 3e7a 7e3f
000000d0: cd2b 7f3f 0be4 803f 69b9 7c3f 2a90 833f
000000e0: e868 803f 13c5 7d3f 1692 7f3f c532 843f
000000f0: 068a 803f 3d4c 7e3f c47b 813f 8ec5 803f

layer3.1.bias f4 [64]
-0.07283487 -0.017011225 -0.022002153 -0.038737044 -0.02085566 0.0011714877 -0.0169621 -0.006836055
-0.019793712 -0.028666457 0.0052133505 -0.0075582224 -0.0077187973 0.024739163 -0.013983273 -0.014195
0.008172908 -0.016517743 -0.008060438 -0.018397039 -0.009577451 -0.0006698108 -0.0036981106 -0.006830084
0.0020263104 0.0020852212 -0.0005129819 0.012106524 -0.004439236 -0.029921796 -0.014401489 -0.011537623
-0.00072043255 -0.01547411 -0.0069009676 -0.013565621 -0.015102504 -0.04010108 -0.05265816 -0.02025612
-0.04042393 -0.021338338 -0.014059899 0.022926884 -0.004698341 -0.0027095356 0.013700703 -0.0173084
-0.014769922 -0.0013235821 -0.026679197 -0.017380863 -0.024588881 -0.008546076 -0.017108116 -0.012192662
-0.014111681 -0.032504816 -0.01349634 0.0021965965 -0.008561679 -0.036646403 -0.016422424 -0.008553264
00000000: 732a 95bd 205b 8bbc dc3d b4bc bcaa 1ebd
00000010: 7dd9 aabc 9b8c 993a 1af4 8abc fc00 e0bb
00000020: 6c26 a2bc ebd5 eabc c1d4 aa3b f7aa f7bb
00000030: f7ed fcbb c9a9 ca3c 191a 65bc 2592 68bc
00000040: a9e7 053c 3850 87bc ed0f 04bc 63b5 96bc
00000050: beea 1cbc 3e96 2fba 005c 72bb e6ce dfbb
00000060: d9cb 043b 35a8 083b a279 06ba 715a 463c
00000070: 0377 91bb 8e1e f5bc 39f4 6bbc 4c08 3dbc
00000080: 69db 3cba 1f87 7dbc 8321 e2bb 5742 5ebc
00000090: 7e70 77bc 0841 24bd 15b0 57bd 2af0 a5bc
000000a0: 9093 25bd bdcd aebc 7e5b 66bc 29d1 bb3c
000000b0: 8af4 99bb 7792 31bb ea78 603c 58ca 8dbc
000000c0: 8bfd 71bc 0c7c adba 558e dabc 5062 8ebc
000000d0: 9f6e c9bc d704 0cbc 5226 8cbc bbc3 47bc
000000e0: ae34 67bc c523 05bd c11f 5dbc c6f4 0f3b
000000f0: 4946 0cbc 8a1a 16bd 5288 86bc fd22 0cbc

layer4.0.weight f4 [64, 64, 3, 3]
-0.019415151 0.016094163 0.017225076 -0.011737926 -0.049344033 0.012269273 -0.02020637 -0.008277929
-0.022916656 -0.030642278 -0.022183983 -0.041563515 -0.034955464 -0.011715614 0.024514265 -0.028241953
0.014842479 -0.0015940025 0.019766593 -0.017373558 0.049058482 0.015375955 -0.020495059 0.016593156
-0.027207492 0.007738052 0.059525315 -0.0009982956 -0.042118337 0.02881643 0.02551238 0.02957892
-0.025844688 0.00077430985 -0.05212463 -0.047109433 -0.007854686 0.03279312 -0.006821386 0.021653682
0.015700243 0.027950676 0.027396344 -0.012812667 0.051868502 -0.031661816 -0.006955696 0.028383218
0.00016656994 0.017962294 -0.007918215 -0.014532706 -0.008380543 0.009619527 -0.018876266 -0.018857334
-0.0031732195 0.021102818 0.010542025 0.002082606 -0.043211848 -0.023168653 -0.014928441 -0.0031941722
0.027743487 -0.009974302 -0.02718099 0.026693776 0.0017839123 -0.042065233 -0.041480146 0.0017619679
0.004021885 0.013541781 -0.015032341 -0.013324502 -0.018892646 0.0065425215 -0.017344246 -0.0061595286
0.011703449 0.01914378 -0.002338703 0.039478466 -0.006662286 0.005572884 0.03932728 0.026729472
-0.004847391 0.030615574 -0.002716897 0.008705539 -0.0067873066 -0.034152772 -0.032353774 0.014719615
-0.035791412 -0.0060321908 -0.024746384 -0.029694851 0.028265093 -0.03896176 -0.022906115 -0.050543148
-0.05259803 -0.020564457 -0.015500325 -0.04233982 -0.038088903 0.013125383 -0.034155324 -0.054835755
-0.051409476 0.006168872 0.013600623 -0.02397945 0.024319567 -0.05611059 -0.048563223 0.015138454
-0.025872106 -0.034946967 -0.028307343 -0.015282599 -0.034027576 0.015584104 0.0073476858 0.016340913
0.037510574 -0.023238722 0.024348825 0.0069164326 0.040635537 -0.054704823 -0.024014696 0.020347655
-0.020837534 0.028356269 -0.05049245 -0.004936551 -0.0071931924 0.021113804 -0.032160882 -0.02066522
0.015802858 0.010130597 -0.016820071 0.031950485 -0.02919757 0.023495767 0.012901295 0.04094859
0.016280027 -0.0107711945 -0.011347036 -0.018122364 0.047755416 -0.021138981 -0.05030205 -0.023157451
-0.014438235 0.0031710065 -0.02119663 0.0165277 -0.03870384 0.0061768615 -0.0099487575 -0.049600836
-0.016831473 0.0014462832 0.023624929 0.012184807 0.02362567 0.017661052 -0.04503037 -0.013279645
-0.025929289 0.026573787 -0.03517499 0.025743436 0.04322186 -0.009437967 -0.0498894 -0.009909905
0.027958246 -0.030587753 -0.039891336 -0.038270168 0.036879916 0.007866478 0.042191777 0.03869095
-0.0060437983 0.0075662336 -0.019228717 -0.025370887 -0.002039706 0.0063989586 0.0010566603 0.032634865
-0.019474361 -0.005732185 0.035491563 0.03748654 0.035245232 -0.016731389 -0.012614614 0.013578382
0.022628382 0.042310007 -0.06489324 0.029114699 -0.023416242 -0.013423746 -0.047143184 -0.019222736
-0.03678821 0.013981002 -0.0155735845 0.0009713557 0.0040623024 0.01654669 0.010466679 0.0023873344
-0.017030692 0.015552324 -0.045302212 -0.011624242 -0.0086448705 0.031663883 -0.024648318 -0.027249422
-0.03378114 0.018969074 0.0612669 -0.010598566 0.03907881 0.020714387 -0.016990436 0.034215387
0.0029498774 0.0074627334 -0.017621886 0.023729851 0.017910276 0.04345991 0.019114446 -0.027536657
-0.016499305 -0.022033555 0.02477256 -0.014560529 0.018232614 -0.03779087 -0.0071947123 -0.046021897
00000000: 860c 9fbc e8d7 833c 9a1b 8d3c 6e50 40bc
00000010: f81c 4abd 1005 493c d487 a5bc 27a0 07bc
00000020: b6bb bbbc 8405 fbbc 2fbb b5bc 813e 2abd
00000030: 762d 0fbd d9f2 3fbc 24d2 c83c ab5b e7bc
00000040: de2d 733c d9ed d0ba 8ded a13c fe52 8ebc
00000050: 8cf1 483d 6eeb 7b3c 41e5 a7bc 5fee 873c
00000060: 3fe2 debc 7c8f fd3b d1d0 733d 3ed9 82ba
00000070: 4784 2cbd 6f10 ec3c 57ff d03c 7e4f f23c
00000080: 3db8 d3bc 0efb 4a3a a380 55bd d2f5 40bd
00000090: f1b0 00bc 1452 063d ef85 dfbb 1063 b13c
000000a0: cc9d 803c d1f8 e43c 4c6e e03c 38ec 51bc
000000b0: 1174 543d d2af 01bd 9bec e3bb ec83 e83c
000000c0: 47a9 2e39 a925 933c 67bb 01bc 961a 6ebc
000000d0: 8c4e 09bc 389b 1d3c 66a2 9abc b27a 9abc
000000e0: caf5 4fbb d1df ac3c 75b8 2c3c 557c 083b
000000f0: e8fe 30bd 30cc bdbc 6b96 74bc 5155 51bb
00000100: 4f46 e33c 416b 23bc abaa debc e8ac da3c
00000110: 2ad2 e93a 984c 2cbd 16e7 29bd d5f1 e63a
00000120: 04ca 833b 59de 5d3c 354a 76bc 034f 5abc
00000130: c0c4 9abc a662 d63b 8515 8ebc dfd5 c9bb
00000140: d3bf 3f3c 6bd3 9c3c ed44 19bb 2cb4 213d
00000150: 4e4f dabb bd9c b63b a415 213d c4f7 da3c
00000160: ddd6 9ebb 83cd fa3c f80d 32bb ada1 0e3c
00000170: 0e68 debb c7e3 0bbd 6485 04bd 8a2a 713c
00000180: 049a 12bd afa9 c5bb eeb8 cabc 9e42 f3bc
00000190: 328c e73c 5e96 1fbd 9ba5 bbbc 5506 4fbd
000001a0: 0871 57bd cb76 a8bc 13f5 7dbc 856c 2dbd
000001b0: 1c03 1cbd d90b 573c 74e6 0bbd 759b 60bd
000001c0: be92 52bd 4024 ca3b 26d5 5e3c 8d70 c4bc
000001d0: d439 c73c 38d4 65bd 3bea 46bd 4707 783c
000001e0: bdf1 d3bc 8d24 0fbd cde4 e7bc de63 7abc
000001f0: 8060 0bbd 7854 7f3c dbc4 f03b 61dd 853c
00000200: b0a4 193d 225f bebc 3077 c73c 3ea3 e23b
00000210: 7371 263d 2a12 60bd 78ba c4bc 20b0 a63c
00000220: 7ab3 aabc 684b e83c 2cd1 4ebd cbc2 a1bb
00000230: dfb4 ebbb dbf6 ac3c 21bb 03bd 1c4a a9bc
00000240: ff74 813c cefa 253c 3fca 89bc 83de 023d
00000250: be2f efbc 327a c03c f45f 533c b5b9 273d
00000260: b15d 853c aa79 30bc ebe8 39bc 5a75 94bc
00000270: 2f9b 433d a82b adbc 8609 4ebd b2b4 bdbc
00000280: 598e 6cbc a9d0 4f3b 8ea4 adbc 1965 873c
00000290: eb87 1ebd 4567 ca3b 1d00 23bc 3f2a 4bbd
000002a0: 28e2 89bc 3691 bd3a 1189 c13c c9a2 473c
000002b0: 9f8a c13c e9ad 903c c471 38bd de92 59bc
000002c0: a969 d4bc 45b1 d93c a613 10bd e6e3 d23c
000002d0: 6809 313d b4a1 1abc d458 4cbd 275d 22bc
000002e0: b108 e53c 2b93 fabc 1965 23bd 2ec1 1cbd
000002f0: 650f 173d 66e2 003c 49d1 2c3d 677a 1e3d
00000300: 0e0b c6bb 2bee f73b 8b85 9dbc 9bd6 cfbc
00000310: 97ac 05bb 5bae d13b a37f 8a3a 23ac 053d
00000320: b288 9fbc 0ed5 bbbb 9a5f 113d 7c8b 193d
00000330: 4e5d 103d 4410 89bc 87ad 4ebc dd77 5e3c
00000340: 285f b93c 424d 2d3d bfe6 84bd f381 ee3c
00000350: 6bd3 bfbc 46ef 5bbc 3619 41bd 0079 9dbc
00000360: 3caf 16bd 9310 653c 5928 7fbc 94a2 7e3a
00000370: 101d 853b ed8c 873c 6f7c 2b3c d374 1c3b
00000380: f383 8bbc 2dcf 7e3c d08e 39bd 9b73 3ebc
00000390: 37a3 0dbc fdb1 013d 45eb c9bc 2e3a dfbc
000003a0: 185e 0abd 0865 9b3c 00f3 7a3d 9ca5 2dbc
000003b0: 1a11 203d 38b1 a93c 872f 8bbc 6f25 0c3d
000003c0: bb52 413b f289 f43b c65b 90bc 1b65 c23c
000003d0: 92b8 923c 0503 323d e695 9c3c 8e94 e1bc
000003e0: 8d29 87bc b77f b4bc d3ef ca3c 498f 6ebc
000003f0: 905c 953c 99ca 1abd 9fc1 ebbb 7581 3cbd

layer4.0.bias f4 [64]
-0.023803642 0.03201203 0.0077013834 -0.0031289943 -0.03808585 0.011564086 -0.012082984 -0.035010085
0.03849232 -0.008286699 0.020729193 0.0004665677 -0.020896522 0.008510342 -0.017779749 -0.0109433355
0.02595406 -0.016539477 -0.024268206 0.0036008318 0.027993731 -0.027901698 -0.04938742 0.04913767
0.021371761 0.0017223443 0.020467432 -0.040669546 -0.017801613 -0.007370488 -0.019458419 0.018997904
0.0013259021 0.005307762 0.026155543 0.033891182 0.018986804 0.035812605 0.010584446 0.015764274
0.015732568 -0.005520822 -0.03568276 -0.038537215 -0.025349328 0.037612997 -0.009829173 0.0024400034
-0.014873257 0.037661105 0.031751078 -0.043411978 0.014061265 -0.024252 -0.013922392 -0.02213317
0.0136992205 -0.036992345 -0.003735153 0.024568612 -0.015557101 0.011853943 -0.024409158 0.04198747
00000000: dbff c2bc 0c1f 033d e35b fc3b d00f 4dbb
00000010: e9ff 1bbd 4b77 3d3c b5f7 45bc bc66 0fbd
00000020: 1faa 1d3d efc4 07bc 45d0 a93c a89d f439
00000030: 2f2f abbc f66e 0b3c d6a6 91bc ad4b 33bc
00000040: 9c9d d43c cc7d 87bc 1ece c6bc effb 6b3b
00000050: 1c53 e53c 1a92 e4bc 774a 4abd 9544 493d
00000060: d513 af3c 49c0 e13a 51ab a73c 1c95 26bd
00000070: b0d4 91bc 2284 f1bb 4367 9fbc 7ea1 9b3c
00000080: e4c9 ad3a bcec ad3b 2644 d63c 7bd1 0a3d
00000090: 378a 9b3c 3db0 123d 626a 2d3c 1424 813c
000000a0: 96e1 803c 03e8 b4bb 1628 12bd 33d9 1dbd
000000b0: 65a9 cfbc 1610 1a3d 8a0a 21bc 77e8 1f3b
000000c0: f6ae 73bc 8842 1a3d 6b0d 023d c2d0 31bd
000000d0: 3861 663c 21ac c6bc bf1a 64bc 9f50 b5bc
000000e0: b272 603c 4985 17bd 78c9 74bb 1d44 c93c
000000f0: 36e3 7ebc 0a37 423c b7f5 c7bc 0efb 2b3d

layer4.1.weight f4 [64]
0.9798734 0.98812133 0.9914548 1.0162154 0.96594805 0.9927252 0.9409741 0.9927078
0.9883142 1.0196708 1.001467 0.9981139 0.9848194 1.0061163 0.98638415 1.0440178
1.0233259 0.9877592 0.9949445 1.0283623 1.0147858 0.97326267 0.9713572 1.030507
1.0220333 1.0180749 0.97517055 0.9601894 0.9727811 0.98419523 0.9795069 1.0330483
0.9923453 1.0454799 1.0172391 1.0082327 1.0216336 1.0356486 0.9851912 0.98615193
0.99110484 0.9920834 0.9836622 1.0195563 1.012488 1.024674 0.9565006 1.0183402
1.0058918 1.0411243 1.0052832 0.9837531 0.96754557 0.96782905 0.9920344 0.9475402
1.0094525 0.985894 1.0761994 1.0091692 0.9920617 0.95229644 0.9911731 1.03726
00000000: fcd8 7a3f 85f5 7c3f fbcf 7d3f 5913 823f
00000010: 5f48 773f 3d23 7e3f aee3 703f 1922 7e3f
00000020: 2902 7d3f 9384 823f 1230 803f 6484 7f3f
00000030: 201d 7c3f 6bc8 803f ac83 7c3f 60a2 853f
00000040: 58fc 823f c9dd 7c3f afb4 7e3f 60a1 833f
00000050: 80e4 813f be27 793f deaa 783f a7e7 833f
00000060: fdd1 823f 4750 823f c7a4 793f f9ce 753f
00000070: 2f08 793f 38f4 7b3f f7c0 7a3f ed3a 843f
00000080: 570a 7e3f 49d2 853f e434 823f c50d 813f
00000090: e4c4 823f 2290 843f 7e35 7c3f 7474 7c3f
000000a0: 0cb9 7d3f 2df9 7d3f 49d1 7b3f d280 823f
000000b0: 3599 813f 8528 833f 39dd 743f f958 823f
000000c0: 10c1 803f 9043 853f 1fad 803f 3ed7 7b3f
000000d0: 11b1 773f a5c3 773f f7f5 7d3f ff91 723f
000000e0: bd35 813f 8d63 7c3f e7c0 893f 752c 813f
000000f0: c1f7 7d3f b3c9 733f 85bd 7d3f f0c4 843f

layer4.1.bias f4 [64]
-0.043429475 -0.006709445 -0.0052628536 0.0007437309 -0.042979293 -0.007816281 -0.07651592 -0.0136212325
-0.014269185 -0.023725789 0.00066302274 -0.013121685 -0.010116743 -0.014296999 -0.004201787 0.004740349
-0.021121932 -0.016125431 -0.005844695 -0.011000318 -0.008797213 -0.021747703 -0.011733317 0.0082367575
-0.016301867 -0.010845961 -0.024496196 -0.03260422 -0.020642329 -0.025494315 -0.009629712 -0.0034431017
-0.002275325 0.024264777 0.013103325 0.016480865 -0.01835806 -0.013350195 -0.03876222 -0.011599326
-0.02732199 -0.026075508 -0.029949557 -0.02215524 0.0026038652 0.0055589518 -0.04373151 -0.026010942
-0.0049811257 0.0057120114 -0.010388101 -0.03310284 -0.027643597 -0.0077340514 -0.0347542 -0.05215377
0.009327026 -0.021843214 0.003239187 0.0026834325 -0.015051993 -0.06354961 -0.03429148 -0.011997201
00000000: 1be3 31bd e7da dbbb 0474 acbb f0f6 423a
00000010: 0e0b 30bd dc0f 00bc 61b4 9cbd 972b 5fbc
00000020: 4dc9 69bc 965c c2bc b4ce 2d3a 56fc 56bc
00000030: b2c0 25bc f63d 6abc 25af 89bb ee54 9b3b
00000040: e707 adbc 7b19 84bc db84 bfbb ae3a 34bc
00000050: 3022 10bc 3d28 b2bc 193d 40bc 77f3 063c
00000060: 7e8b 85bc 42b3 31bc 3fac c8bc 018c 05bd
00000070: 1a1a a9bc 74d9 d0bc f1c5 1dbc a9a5 61bb
00000080: 9e1d 15bb edc6 c63c 54af 563c e102 873c
00000090: a463 96bc c7ba 5abc 22c5 1ebd 190b 3ebc
000000a0: 5ed2 dfbc 4e9c d5bc c658 f5bc e87e b5bc
000000b0: 9ca5 2a3b de27 b63b d01f 33bd e614 d5bc
000000c0: b638 a3bb d32b bb3b db32 2abc d896 07bd
000000d0: d374 e2bc ed6d fdbb 6c5a 0ebd 319f 55bd
000000e0: 62d0 183c 8af0 b2bc 8a48 543b 87dc 2f3b
000000f0: a29c 76bc 4c26 82bd 3975 0cbd e88f 44bc

layer5.0.weight f4 [64, 64, 3, 3]
0.05231341 0.008004377 -0.038918715 0.01263579 0.054009944 0.017591257 0.042554595 -0.018641345
0.016022846 -0.020414779 0.0404994 0.03405991 0.000850276 -0.0050923717 0.011501615 0.009383389
-0.0045240982 0.007313962 0.007839616 0.026305813 -0.036342576 -0.015033626 0.048585415 -0.03733458
0.008899886 -0.023945054 -0.028902248 -0.03394675 -0.005370092 -0.017122822 0.024272729 0.036960945
0.055489764 0.0219855 0.0010841605 0.045197114 0.0332292 0.0026635132 -0.029525785 -0.032748003
-0.01151109 -0.020326428 -0.02296429 -0.008668628 -0.02757893 -0.008590018 0.04636017 0.002377575
0.038739964 0.026335862 -0.02990231 -0.021540157 0.024048178 -0.006678685 -0.023972115 0.03358474
0.032885008 0.03005049 0.00889815 0.016502617 0.04860144 0.026295124 0.031353083 -0.049206197
-0.0051376843 0.00789462 -0.0039292867 0.03345165 -0.008197496 0.027191818 0.03125329 -0.0001626024
-0.032996718 -0.04929146 -0.030763611 -0.039792504 0.0137335425 0.053327285 -0.042318843 -0.02454958
0.022445822 0.028273847 0.036948144 -0.0100210775 -0.02403538 -0.021816464 0.008274966 0.006461819
-0.022699034 -0.00522309 -0.012502294 0.0037329989 0.015275737 0.017048357 -0.029102841 -0.03302642
-0.022759693 0.03445615 -0.008722974 0.021867486 0.014774954 -0.022178639 -0.0014122066 0.0314666
-0.012038988 -0.029359275 -0.0073367697 0.0015835612 0.03990295 -0.036755126 0.0045391 -0.008399454
0.040558 0.06855234 -0.035013918 -0.012790838 -0.027493123 -0.0043840283 -0.0002472432 -0.04421815
-0.03922047 -0.013170979 0.0013784368 0.00477658 -0.008917923 -0.0036243957 0.019363195 -0.011690792
0.0023244785 -0.008906898 -0.0035091292 -0.04386747 0.012026216 -0.013290718 -0.023341402 0.040373847
0.030119022 0.0030253567 0.062018275 0.030509815 0.015458238 -0.015515017 -0.034101408 0.037063897
-0.029756201 0.0077277175 -0.07668524 0.026545668 -0.034393802 -0.00185219 -0.04581272 -0.053709544
0.021116048 -0.038871568 0.011609338 0.041916013 -0.012969218 -0.013352595 0.039114676 0.015788544
0.044730753 0.03707862 0.044764288 0.013031623 -0.03391418 0.030067662 0.0011275068 -0.025255358
0.022567395 -0.0048243995 -0.005590992 0.04829677 0.07154412 0.029182112 0.07106697 -0.0021679478
0.053626545 -0.030230336 0.0288062 0.023063706 0.00080429594 0.016042091 0.0048149377 0.004122269
-0.045984667 -0.026465967 0.03431103 -0.04569367 0.012683174 0.041887812 0.029413395 -0.018865662
0.012011558 0.058465574 0.003751776 0.037174813 0.051351745 0.042726703 0.0059611844 0.0019181676
-0.037220936 0.003460648 0.009517742 -0.056478575 -0.03663521 -0.04804729 0.020270115 -0.03423685
-0.003944512 -0.0020502259 0.043245688 0.007869759 -0.031268876 0.019598804 -0.040601447 0.0042159185
0.01683033 0.010684122 -0.015181423 0.06398941 0.0064306986 0.016879585 0.050912313 0.042433623
0.0022699514 0.0692845 0.068327725 0.07428602 0.05551898 0.07571128 0.016644523 -0.033091515
0.040110912 -0.011128725 -0.0023756865 -0.047346815 -0.022406762 -0.020423694 0.0023872755 -0.03927481
0.025263852 -0.033341642 0.047616486 -0.0068787667 -0.012286672 -0.03185383 0.04015975 0.011805696
0.032301914 0.017648038 0.0544547 -0.0022962303 0.026795197 -0.025559228 -0.024600726 0.027331188
00000000: 9646 563d ca24 033c 3b69 1fbd 5806 4f3c
00000010: 8839 5d3d 8a1b 903c ba4d 2e3d bcb5 98bc
00000020: 5842 833c e53c a7bc b3e2 253d 6782 0b3d
00000030: 0ee5 5e3a e9dd a6bb 4571 3c3c c9bc 193c
00000040: e33e 94bb f6a9 ef3b bc71 003c 4a7f d73c
00000050: f4db 14bd 994f 76bc 8001 473d 25ec 18bd
00000060: d4d0 113c 6b28 c4bc 68c4 ecbc bf0b 0bbd
00000070: 99f7 afbb 2945 8cbc 9ad7 c63c 5c64 173d
00000080: 3c49 633d ef1a b43c 641a 8e3a 9c20 393d
00000090: 571b 083d 568e 2e3b 0fe0 f1bc c522 06bd
000000a0: 0399 3cbc 9c83 a6bc 9b1f bcbc dc06 0ebc
000000b0: 35ed e1bc 26bd 0cbc 29e4 3d3d 17d1 1b3b
000000c0: ccad 1e3d 4ebe d73c b0f5 f4bc fc74 b0bc
000000d0: af00 c53c dfd8 dabb 2b61 c4bc 2790 093d
000000e0: 6eb2 063d 722c f63c 8cc9 113c 7f30 873c
000000f0: 4e12 473d df68 d73c 176c 003d 708c 49bd
00000100: 055a a8bb 7058 013c 3fc1 80bb 9904 093d
00000110: ca4e 06bc 60c1 de3c 7303 003d 4080 2ab9
00000120: 9127 07bd d8e5 49bd f803 fcbc 77fd 22bd
00000130: a702 613c b66d 5a3d 8656 2dbd 331c c9bc
00000140: 4de0 b73c 8e9e e73c f056 173d 722f 24bc
00000150: d8e5 c4bc 71b8 b2bc b993 073c abbd d33b
00000160: 53f3 b9bc 7426 abbb 6cd6 4cbc 54a5 743b
00000170: 1647 7a3c ffa8 8b3c 1569 eebc b646 07bd
00000180: 8972 babc e421 0d3d ceea 0ebc 7123 b33c
00000190: a612 723c faaf b5bc ca19 b9ba 1fe3 003d
000001a0: 2d3f 45bc dd82 f0bc 4969 f0bb 7f8f cf3a
000001b0: 4771 233d 8b8c 16bd bbbc 943b dd9d 09bc
000001c0: 2520 263d 2b65 8c3d c16a 0fbd aa90 51bc
000001d0: 4239 e1bc e5a7 8fbb 6ca0 81b9 171e 35bd
000001e0: a5a5 20bd 17cb 57bc aaac b43a db84 9c3b
000001f0: 7b1c 12bc 4587 6dbb 909f 9e3c bc8a 3fbc
00000200: 4756 183b 3dee 11bc 6bf9 65bb 60ae 33bd
00000210: 9b09 453c 50c1 59bc 7836 bfbc 0c5f 253d
00000220: 2bbc f63c 1045 463b e006 7e3d b8ef f93c
00000230: 8d44 7d3c b332 7ebc ebad 0bbd 50d0 173d
00000240: 47c3 f3bc cb38 fd3b 270d 9dbd 4d76 d93c
00000250: 84e0 0cbd 2fc5 f2ba 1ea6 3bbd 8afe 5bbd
00000260: 90fb ac3c cb37 1fbd 1835 3e3c 20b0 2b3d
00000270: d87c 54bc d8c4 5abc b636 203d fa56 813c
00000280: 9837 373d c0df 173d c25a 373d 9782 553c
00000290: 98e9 0abd 7550 f63c dac8 933a 53e4 cebc
000002a0: 42df b83c ff15 9ebb a434 b7bb d5d2 453d
000002b0: b985 923d 530f ef3c 8f8b 913d 2114 0ebb
000002c0: 82a7 5b3d 9ca5 f7bc fbfa eb3c 19f0 bc3c
000002d0: 63d7 523a b46a 833c a0c6 9d3b 1914 873b
000002e0: 6b5a 3cbd 28cf d8bc b989 0c3d 4929 3bbd
000002f0: 16cd 4f3c 8e92 2b3d 5cf4 f03c 298c 9abc
00000300: 20cc 443c 9979 6f3d 5be0 753b 9e44 183d
00000310: 3556 523d 3202 2f3d 0a56 c33b 066b fb3a
00000320: fb74 18bd 0acc 623b 4ef0 1b3c 1456 67bd
00000330: cd0e 16bd 3ccd 44bd 830d a63c f03b 0cbd
00000340: f740 81bb 155d 06bb 6422 313d 29f0 003c
00000350: cb13 00bd ac8d a03c b44d 26bd b025 8a3b
00000360: c3df 893c 750c 2f3c 81bb 78bc e10c 833d
00000370: 9cb8 d23b 0e47 8a3c 6e89 503d e1ce 2d3d
00000380: 77c3 143b 08e5 8d3d 68ef 8b3d 4523 983d
00000390: df67 633d 840e 9b3d 185a 883c f88a 07bd
000003a0: 574b 243d 4155 36bc 68b1 1bbb bcee 41bd
000003b0: 638e b7bc 974f a7bc d673 1c3b a0de 20bd
000003c0: 23f6 ce3c 3f91 08bd 8109 433d 4767 e1bb
000003d0: 0a4e 49bc 2979 02bd 8d7e 243d ae6c 413c
000003e0: 034f 043d 9e92 903c e40b 5f3d 5a7c 16bb
000003f0: 9a81 db3c 9661 d1bc 7687 c9bc a8e5 df3c

layer5.0.bias f4 [64]
0.04583881 -0.024827808 0.0021473353 -0.027593674 -0.0058383686 0.019780172 0.0041034897 -0.015172537
0.002535601 -0.021775274 -0.04190463 -0.030742671 0.0053490577 -0.02613494 0.015066078 0.03411807
-0.04953973 0.045464147 -0.008264738 0.017179469 0.0044615124 0.017687682 -0.0050958656 -0.02716709
0.02750648 0.009318394 0.017857023 0.0046449886 -0.026202979 0.004947916 0.033123095 0.012066593
-0.01470559 0.013071639 -0.056281436 0.033378 -0.046582013 0.032928064 -0.004732271 -0.0008122322
-0.025923293 -0.03532576 -0.02546833 -0.024636995 0.01364748 -0.0038568396 -0.015971651 -0.043642357
-0.035760187 -0.02332452 -0.010522511 -0.0250568 -0.029796954 0.01832456 0.004848628 -0.022488428
-0.031707384 -0.010597464 0.016235577 -0.0358983 -0.036262088 -0.005514628 0.009488953 0.014953151
00000000: 7ac1 3b3d b063 cbbc 4fba 0c3b 210c e2bc
00000010: c94f bfbb 070a a23c 9176 863b 3c96 78bc
00000020: 532c 263b 0f62 b2bc 30a4 2bbd 0ed8 fbbc
00000030: 2647 af3b f118 d6bc b6d7 763c 64bf 0b3d
00000040: 2cea 4abd 9d38 3a3d d368 07bc f5bb 8c3c
00000050: e131 923b c2e5 903c 38fb a6bb 848d debc
00000060: 4555 e13c 2dac 183c e448 923c fd34 983b
00000070: a1a7 d6bc 2122 a23b 15ac 073d f6b2 453c
00000080: b7ef 70bc 6e2a 563c 5d87 66bd 5fb7 083d
00000090: c8cc 3ebd 94df 063d 2b11 9bbb fbeb 54ba
000000a0: 165d d4bc beb1 10bd f6a2 d0bc 86d3 c9bc
000000b0: ae99 5f3c 08c3 7cbb fbd6 82bc 54c2 32bd
000000c0: 4679 12bd 1013 bfbc 9c66 2cbc eb43 cdbc
000000d0: be18 f4bc 631d 963c 3de1 9e3b a739 b8bc
000000e0: 9adf 01bd fca0 2dbc 7900 853c 190a 13bd
000000f0: 8e87 14bd 0db4 b4bb 8e77 1b3c 10fe 743c

layer5.1.weight f4 [64]
1.0108597 1.0318561 1.0373671 1.0262852 1.0251133 1.007602 0.98295975 1.0196015
1.0117788 1.0375308 1.0085499 1.0119201 1.0126902 1.0251064 1.028238 0.98816097
0.9783301 0.9985589 1.0111032 0.9918057 0.98821837 1.0151403 0.9948549 0.9935994
0.9985661 1.0120355 0.98305374 1.005181 1.0189017 0.993873 0.99194425 1.042141
1.0152327 1.0270594 1.0312521 0.9850896 1.0232801 1.0204424 1.0370808 0.9887269
0.98787874 1.0255549 1.0117697 1.0471995 0.98673195 1.0061326 1.0277119 1.0057259
0.97838426 1.0508016 1.0177939 1.0137249 0.98545367 0.9929639 0.9887275 1.0105687
1.0049775 0.9901028 1.0148461 1.0060132 1.0346603 0.9724595 1.00026 1.027061
00000000: da63 813f dc13 843f 72c8 843f 505d 833f
00000010: ea36 833f 1af9 803f 40a3 7b3f 4d82 823f
00000020: f881 813f cfcd 843f 2a18 813f 9986 813f
00000030: d59f 813f b036 833f 4e9d 833f 1ef8 7c3f
00000040: d773 7a3f 8ea1 7f3f d46b 813f fae6 7d3f
00000050: e1fb 7c3f 1ef0 813f d0ae 7e3f 885c 7e3f
00000060: 07a2 7f3f 618a 813f 69a9 7b3f c5a9 803f
00000070: 5f6b 823f 766e 7e3f 0ff0 7d3f e064 853f
00000080: 25f3 813f af76 833f 1200 843f d52e 7c3f
00000090: d8fa 823f db9d 823f 10bf 843f 351d 7d3f
000000a0: 9fe5 7c3f 6245 833f ab81 813f a20a 863f
000000b0: 779a 7c3f f4c8 803f 108c 833f a0bb 803f
000000c0: 6477 7a3f ab80 863f 1247 823f bdc1 813f
000000d0: b146 7c3f e232 7e3f 3f1d 7d3f 515a 813f
000000e0: 1aa3 803f 6177 7d3f 7ae6 813f 0ac5 803f
000000f0: c06f 843f 1bf3 783f 8508 803f bc76 833f

layer5.1.bias f4 [64]
-0.006231072 -0.008979638 -0.020088919 -0.0026665865 -0.007888728 -0.0049906075 -0.011838316 -0.022679772
-0.0022584666 0.0053281863 -0.005887286 0.0068081752 -0.0065078754 0.006533398 -0.0012246714 -0.015504239
-0.04534239 -0.0079511395 -0.009663836 -0.040744543 -0.0125867855 -0.014228626 -0.024526127 -0.030906262
-0.00886023 -0.034013614 -0.02104435 -0.03250348 0.018101804 -0.003962098 -0.0089597115 -0.0028615242
0.0014972438 -0.0022387516 0.008990222 -0.012750713 -0.015747353 0.004043811 -0.010624073 -0.0009734411
-0.034959465 0.006932879 -0.0031317684 -0.0032528844 -0.02317685 -0.019695563 0.0081557995 -0.027326819
-0.011250684 -0.011200151 0.0021782203 -0.001933019 -0.037324023 -0.008024722 -0.008017328 -0.0106365
0.0018249934 -0.0014459596 -0.004832531 -0.0092309825 -0.009293966 -0.039993413 0.0008647219 0.01280648
00000000: 052e ccbb 551f 13bc 8491 a4bc e6c1 2ebb
00000010: b93f 01bc 4088 a3bb 7ff5 41bc eeca b9bc
00000020: c802 14bb 1198 ae3b 22ea c0bb 1d17 df3b
00000030: 0440 d5bb 1d16 d63b 2785 a0ba 7e05 7ebc
00000040: f1b8 39bd 7f45 02bc 1155 1ebc c0e3 26bd
00000050: ce38 4ebc 2f1f 69bc 04eb c8bc 212f fdbc
00000060: 802a 11bc dc51 0bbd 3365 acbc 5e22 05bd
00000070: 3c4a 943c 7dd4 81bb c1cb 12bc 6988 3bbb
00000080: 2a3f c43a 05b8 12bb b94b 133c 5ee8 50bc
00000090: 9800 81bc f281 843b 9810 2ebc 872e 7fba
000000a0: a831 0fbd 342d e33b 5b3e 4dbb 582e 55bb
000000b0: 61dd bdbc 9758 a1bc e79f 053c 7edc dfbc
000000c0: ca54 38bc d780 37bc 79c0 0e3b 5b5d fdba
000000d0: 13e1 18bd 207a 03bc 1c5b 03bc b744 2ebc
000000e0: 9e34 ef3a 5a86 bdba 355a 9ebb 8c3d 17bc
000000f0: b845 18bc 22d0 23bd 81ae 623a 45d2 513c
