weights/pretrain_private__finetune_private.pth (torch, 951026 bytes, 26 tensors)

_module.layer1.0.weight f4 [16, 3, 3, 3]
-0.0083357785 -0.05997896 -0.15737185 -0.09138352 -0.04035575 0.044746734 -0.21832079 0.109334335
-0.13325918 0.13673814 -0.040164836 -0.074623056 0.13509257 -0.09345785 0.13471405 -0.051143713
0.10027182 0.010698536 0.18197525 0.06518337 -0.11415635 0.10603657 -0.07992599 -0.13075164
0.20590939 0.19168022 0.064886145 -0.13417734 0.1144029 -0.17601816 0.018012015 0.0034486535
0.034955572 0.13605085 -0.11007571 0.037187424 0.07451739 -0.049285244 -0.089238375 0.023890577
0.06533391 0.10527112 -0.10306661 -0.012869978 -0.113955535 0.16083336 -0.13445997 -0.016263412
-0.053933974 0.14957206 -0.21055627 0.09747782 -0.11963427 0.026214771 0.020833833 -0.14940356
0.047848307 0.07655115 -0.053749632 0.1097388 0.016451182 -0.1142058 -0.0024467895 -0.036988117
0.05117555 -0.0116428435 0.122911826 -0.18238875 0.09077685 -0.023752091 -0.1264154 0.09029147
0.14514834 0.1410948 0.18498854 0.007707422 -0.083587125 0.18729897 -0.06326781 -0.124284364
0.010789175 0.03247413 -0.03856395 0.12685096 -0.091351636 0.17463537 0.050123934 0.13709357
0.00039241128 -0.0895854 0.0698096 0.07222425 0.05393987 0.024722517 -0.084635295 -0.10950931
-0.020849297 -0.17304651 0.10038541 -0.13344222 -0.11461271 -0.13246 0.10039656 -0.17519632
0.08997108 -0.05426934 -0.040458772 -0.11817999 -0.14298043 0.14597449 0.18757422 0.07558158
0.051403545 -0.036397386 -0.1958194 0.17855458 0.07619114 -0.08469366 -0.039180636 0.20404583
-0.05126205 0.08048944 0.17131935 -0.023197232 -0.17322911 0.019339215 0.14391705 -0.113098465
0.04813926 -0.07996139 -0.17480156 -0.0011826402 -0.18221845 0.08701693 0.105424605 -0.02344793
-0.13455962 0.13288236 -0.11722517 0.1485578 -0.18019298 0.074481755 -0.04355101 0.013210602
-0.15472919 0.12588532 -0.14702503 0.18149574 0.08159767 0.084049895 -0.17108873 0.17508526
0.16458015 -0.15368856 0.13924645 -0.19057806 0.04821733 -0.15839483 0.07652873 -0.11462405
-0.0920669 -0.17004386 -0.06978242 0.12418257 -0.084701285 -0.013287004 -0.1961201 -0.18305984
-0.09216793 0.0029160262 -0.14909527 -0.0031392532 0.049921796 0.084418505 -0.08664773 -0.09410912
0.15707429 -0.082186036 0.024596712 -0.1295426 0.13875353 0.14266786 0.0055522886 0.09096117
0.07632555 0.027908549 0.071983136 0.15167072 -0.08584661 -0.169212 0.050775584 -0.124222405
0.16279922 0.14209372 -0.08561891 0.1858244 0.18694715 -0.032116365 0.19775167 0.15701494
0.05687482 -0.033596277 -0.06755307 -0.16147572 0.0031564068 0.063156225 -0.111712195 0.06883864
0.108922295 0.1161064 0.006140894 -0.098374195 -0.14894447 -0.055989627 0.14379406 -0.07383614
-0.16480753 -0.0639529 0.18437287 -0.0017534428 0.13722327 0.020215498 -0.12324028 0.06795209
0.11615751 -0.12055353 -0.15444952 0.07491944 0.046094324 -0.11382897 0.015537336 -0.16118278
-0.16499403 -0.14055583 -0.04646445 -0.18484385 -0.018719878 0.0029290041 -0.049578153 -0.116229974
0.010054564 0.00068669027 -0.023059383 -0.023783227 -0.09496494 -0.10596705 -0.13625483 0.028375171
0.0007945628 0.09477879 -0.148787 -0.060027864 -0.13477199 0.09478292 0.14249605 -0.17278127
00000000: ca92 08bc 7fac 75bd 1626 21be 4827 bbbd
00000010: 124c 25bd 5a48 373d 7c8f 5fbe aeea df3d
00000020: 1875 08be 1505 0c3e e283 24bd f9d3 98bd
00000030: b555 0a3e d466 bfbd 7bf2 093e 127c 51bd
00000040: 505b cd3d ea48 2f3c b857 3a3e dc7e 853d
00000050: ceca e9bd b429 d93d 3db0 a3bd c2e3 05be
00000060: e9d9 523e d247 443e 07e3 843d c965 09be
00000070: 114c ea3d 1b3e 34be ef8d 933c ce02 623b
00000080: 932d 0f3d ea50 0b3e 606f e1bd d751 183d
00000090: 939c 983d 53df 49bd 9cc2 b6bd 2cb6 c33c
000000a0: c9cd 853d 6398 d73d 9614 d3bd 9adc 52bc
000000b0: 8561 e9bd 80b1 243e e0af 09be d93a 85bc
000000c0: dfe9 5cbd 6b29 193e 109c 57be 74a2 c73d
000000d0: d002 f5bd 5cc0 d63c b7ab aa3c 3ffd 18be
000000e0: 96fc 433d d9c6 9c3d 9328 5cbd bcbe e03d
000000f0: a1c4 863c bbe4 e9bd 515a 20bb da80 17bd
00000100: 749d 513d a0c1 3ebc 32b9 fb3d 1ec4 3abe
00000110: 37e9 b93d bf93 c2bc 0a73 01be bcea b83d
00000120: c4a1 143e 287b 103e a36d 3d3e 8b8e fc3b
00000130: ba2f abbd 4dcb 3f3e 8e92 81bd cd88 febd
00000140: 14c5 303c 9803 053d 3cf5 1dbd 38e5 013e
00000150: 9116 bbbd 9dd3 323e c14e 4d3d 4262 0c3e
00000160: 8dbc cd39 8d78 b7bd 56f8 8e3d 4fea 933d
00000170: 0ef0 5c3d e086 ca3c 4555 adbd 6b46 e0bd
00000180: 25cc aabc 1b33 31be de96 cd3d 14a5 08be
00000190: 12ba eabd 98a3 07be b69c cd3d aa66 33be
000001a0: c242 b83d 8749 5ebd 19b8 25bd 5a08 f2bd
000001b0: 7669 12be 567a 153e 7513 403e 84ca 9a3d
000001c0: 868c 523d 6d15 15bd e184 48be 03d7 363e
000001d0: 1a0a 9c3d df73 adbd e07b 20bd 64f1 503e
000001e0: 28f8 51bd a6d7 a43d 576e 2f3e 1f08 bebc
000001f0: f962 31be 466d 9e3c fe5e 133e 2ba0 e7bd
00000200: ac2d 453d ccc2 a3bd 2eff 32be d202 9bba
00000210: 7997 3abe ef35 b23d dbe8 d73d e015 c0bc
00000220: ffc9 09be 5012 083e c013 f0bd 891f 183e
00000230: 8284 38be e489 983d 8b62 32bd 4871 583c
00000240: 5471 1ebe 15e8 003e bb8d 16be 05da 393e
00000250: ae1c a73d 5a22 ac3d e231 2fbe 8d49 333e
00000260: b387 283e 8960 1dbe 9f96 0e3e e526 43be
00000270: 897f 453d 4132 22be 18bb 9c3d 04c0 eabd
00000280: 928d bcbd fa1f 2ebe 16ea 8ebd 6e53 fe3d
00000290: de77 adbd bcb1 59bc b5d3 48be 0a74 3bbe
000002a0: 8ac2 bcbd cd1a 3f3b 6eac 18be eebb 4dbb
000002b0: cc7a 4c3d 9ce3 ac3d 5d74 b1bd 48bc c0bd
000002c0: 15d8 203e 2751 a8bd 0b7f c93c d1a6 04be
000002d0: 6815 0e3e 8617 123e f9ef b53b da49 ba3d
000002e0: 9250 9c3d 78a0 e43c e56b 933d 924f 1b3e
000002f0: 59d0 afbd e945 2dbe 0ffa 4f3d 5168 febd
00000300: d7b4 263e 0481 113e f858 afbd c048 3e3e
00000310: 136f 3f3e 738c 03bd 6a7f 4a3e 86c8 203e
00000320: 92f5 683d 409c 09bd 4459 8abd e459 25be
00000330: b8db 4e3b 0d58 813d 5dc9 e4bd 46fb 8c3d
00000340: a712 df3d 31c9 ed3d 8d39 c93b 6978 c9bd
00000350: e684 18be 6155 65bd c03e 133e 6737 97bd
00000360: 4ec3 28be bdf9 82bd 3ecc 3c3e c7d3 e5ba
00000370: 4284 0c3e f99a a53c 6665 fcbd 772a 8b3d
00000380: fde3 ed3d c5e4 f6bd 0428 1ebe 5d6f 993d
00000390: 67cd 3c3d 2a1f e9bd 4f90 7e3c 190d 25be
000003a0: 32f4 28be deed 0fbe 8251 3ebd b547 3dbe
000003b0: 6e5a 99bc 89f4 3f3b 7612 4bbd fb09 eebd
000003c0: e6bb 243c 0103 343a 08e7 bcbc 0bd5 c2bc
000003d0: fa7c c2bd 4105 d9bd 6386 0bbe 0c73 e83c
000003e0: 354a 503a 621b c23d 9f5b 18be c7df 75bd
000003f0: ab01 0abe 8c1d c23d 7cea 113e 93ed 30be

_module.layer1.0.bias f4 [16]
0.11348267 -0.019335244 -0.12524688 -0.02299382 -0.13503492 -0.12752207 0.093219005 0.17357336
-0.0024933012 -0.14487562 0.16959865 -0.12988777 0.1517349 -0.1343676 -0.09819129 0.077555984
00000000: 9a69 e83d f264 9ebc b840 00be 895d bcbc
00000010: 9846 0abe 2595 02be 9be9 be3d 37bd 313e
00000020: a766 23bb 465a 14be 45ab 2d3e 4d01 05be
00000030: 6560 1b3e a997 09be 8418 c9bd acd5 9e3d

_module.layer1.1.weight f4 [16]
1.0069946 1.0205182 0.9837001 0.99632937 0.99844414 1.0009712 1.0050315 1.0118263
1.0134367 1.0300972 0.9753167 0.9931002 0.97142243 1.017022 1.0255941 0.9739796
00000000: 33e5 803f 57a0 823f c5d3 7b3f 710f 7f3f
00000010: 099a 7f3f d31f 803f dfa4 803f 8683 813f
00000020: 4bb8 813f 3ada 833f 5bae 793f d13b 7e3f
00000030: 24af 783f c72d 823f ab46 833f ba56 793f

_module.layer1.1.bias f4 [16]
0.014701012 0.0059151906 0.015364708 -0.028795538 -0.017259892 0.026681444 -0.005797297 -0.028929185
0.0011531158 0.020988464 0.00040737615 0.009357317 -0.043789916 -0.02059851 -0.027916973 0.0056714797
00000000: 83dc 703c 37d4 c13b 42bc 7b3c 9fe4 ebbc
00000010: 9e64 8dbc 0b93 da3c 41f7 bdbb e6fc ecbc
00000020: 2524 973a 00f0 ab3c 1a95 d539 6f4f 193c
00000030: 0e5d 33bd 35be a8bc 23b2 e4bc d2d7 b93b

_module.layer2.0.weight f4 [16, 16, 3, 3]
-0.09741468 0.042529266 -0.017955305 0.07133972 -0.0026609732 -0.007707006 0.06479141 -6.901256e-05
0.032914117 -0.051941395 -0.07113308 0.048326585 6.079568e-06 0.031181373 0.07841792 -0.007406548
-0.03950524 -0.043220624 0.03176196 0.03124132 -0.025815606 -0.01734099 -0.054195732 -0.06498452
0.07670094 -0.038065687 -0.06516572 -0.062085886 -0.0036995017 -0.004444648 0.08071687 0.016535886
-0.06123525 -0.049918734 -0.0060937563 0.05046894 0.0052378927 -0.078104205 0.07954292 0.021004977
-0.010038076 -0.012634641 -0.077867724 -0.030522833 0.045780435 0.021191826 0.076014504 -0.093261674
0.00924971 -0.08660299 -0.08362239 0.051336993 0.0003886519 0.08595275 -0.066893354 0.047043618
-0.03583095 -0.052313082 -0.03604574 0.039715268 -0.018655963 0.052073147 -0.006909592 -0.09123042
-0.039221417 -0.0841239 -0.035278168 0.006401157 0.0137078175 -0.00358495 -0.07118274 -0.0013783844
0.04709112 -0.09457154 -0.058812253 0.015478575 -0.049228396 0.029484391 -0.05090317 -0.027837548
-0.03556369 0.013650068 0.0565885 0.0172897 0.081444256 0.06891099 -0.052473076 0.024588112
0.113223836 -0.014643828 -0.038002376 0.020684823 -0.08921026 0.007433714 -0.02183139 0.013744717
-0.03061209 -0.029237932 0.0015326985 0.04548561 0.06580322 0.0013160777 0.009290326 0.049256343
-0.020053934 0.059042342 0.023027005 -0.039132547 -0.019705463 -0.03982723 0.037176777 0.01049757
-0.026514675 -0.07405391 0.03132998 0.053847793 0.00068323227 -0.056528576 0.041975003 0.023916595
-0.030998906 -0.052622616 0.0106292 -0.017674351 0.003797008 0.050624263 0.00013961409 -0.00734267
-0.03724938 0.016062798 0.09727759 0.048795085 0.0454636 -0.0364313 0.0009254802 -0.020927442
0.081886224 -0.054567967 0.0066193542 -0.026260724 -0.0033853066 -0.105299376 0.0358112 0.05546375
-0.022673674 -0.07381133 0.009356914 0.021047074 -0.07638015 0.07420133 -0.09969615 0.06666526
0.023988612 -0.07391467 0.049184393 0.049645565 0.094991185 -0.023835246 0.0035523737 -0.023732003
-0.07097153 -0.029534472 0.017580766 -0.034917515 -0.018355655 -0.011622893 -0.04678825 -0.030172164
0.09078175 -0.06869375 -0.03667593 0.1141435 -0.075712286 -0.026091503 -0.046342865 -0.025769724
0.054665156 0.0986446 0.08552716 0.064942576 -0.06512021 -0.030862462 0.025466787 0.06118296
-0.06609896 -0.044245854 0.024125721 -0.028302183 0.08256568 -0.010981988 0.04636126 0.011418163
0.018766398 -0.013203531 -0.023491245 -0.09151039 -0.042314287 -0.058055274 -0.012312082 0.02146195
-0.084495366 -0.048481744 -0.041861027 -0.026224604 0.021404812 -0.09608298 0.093763635 0.015006306
-0.010820445 0.077186234 -0.07438682 0.06834933 -0.07139877 -0.013195161 -0.06342774 0.03057379
-0.0013613425 0.037294026 0.1133826 -0.020772764 -0.0070204856 -0.107022874 -0.047233276 0.054618977
0.00047627374 0.06370424 0.044466987 -0.02379533 -0.07310419 0.048664805 0.071552075 0.067743175
-0.0071122115 -0.03718941 -0.01622084 0.009148141 0.028915351 -0.011343302 -0.017349107 0.06657081
0.013753341 -0.027022338 0.055047743 0.094377846 -0.015753685 -0.011637737 -0.08916186 0.037125047
0.019038202 -0.046146836 -0.03621623 0.038471848 -0.027246641 0.019865982 -0.012816636 -0.057755996
00000000: 5981 c7bd 2b33 2e3d 0117 93bc 8f1a 923d
00000010: b963 2ebb 0d8b fcbb 5cb1 843d d6ba 90b8
00000020: f4d0 063d 80c0 54bd 38ae 91bd 19f2 453d
00000030: 17ff cb36 1470 ff3c 9399 a03d a1b2 f2bb
00000040: 3fd0 21bd 1c08 31bd d418 023d cced ff3c
00000050: 407b d3bc b10e 8ebc 58fc 5dbd 9b16 85bd
00000060: 6215 9d3d c4ea 1bbd 9b75 85bd c54d 7ebd
00000070: 5773 72bb 69a4 91bb e34e a53d 4476 873c
00000080: d0d1 7abd 9677 4cbd 22ae c7bb 85b8 4e3d
00000090: a1a2 ab3b 19f5 9fbd 66e7 a23d a112 ac3c
000000a0: be76 24bc 8601 4fbc 1d79 9fbd 050b fabc
000000b0: 4484 3b3d 7b9a ad3c 7ead 9b3d faff bebd
000000c0: 188c 173c e95c b1bd 3742 abbd bd46 523d
000000d0: fac3 cb39 ff07 b03d 62ff 88bd cfb0 403d
000000e0: 79c3 12bd 3e46 56bd b3a4 13bd 7aac 223d
000000f0: 64d4 98bc a74a 553d dc69 e2bb 04d7 babd
00000100: a3a6 20bd 2749 acbd d77f 10bd ccc0 d13b
00000110: c196 603c 7bf1 6abb 42c8 91bd e8aa b4ba
00000120: 9ee2 403d b9ae c1bd 1ee5 70bd d999 7d3c
00000130: b7a3 49bd 4089 f13c d87f 50bd 920b e4bc
00000140: 3bab 11bd 89a4 5f3c 58c9 673d 21a3 8d3c
00000150: 3fcc a63d 3521 8d3d 02ee 56bd 026d c93c
00000160: e6e1 e73d abec 6fbc 61a8 1bbd 3873 a93c
00000170: deb3 b6bd 8396 f33b bed7 b2bc 8631 613c
00000180: 35c6 fabc 6384 efbc d4e4 c83a 1e4f 3a3d
00000190: d7c3 863d 3d80 ac3a 7436 183c 05c1 493d
000001a0: 2648 a4bc 62d6 713d 21a3 bc3c 7349 20bd
000001b0: 5a6d a1bc e121 23bd ad46 183d 00fe 2b3c
000001c0: 4e35 d9bc 94a9 97bd dd53 003d 818f 5c3d
000001d0: f11a 333a 828a 67bd fbed 2b3d bcec c33c
000001e0: 6bf1 fdbc d08a 57bd 1926 2e3c cdc9 90bc
000001f0: 39d7 783b 635b 4f3d 5f65 1239 c89a f0bb
00000200: ce92 18bd 2196 833c 7939 c73d 5bdd 473d
00000210: 0a38 3a3d fd38 15bd ed9b 723a 0770 abbc
00000220: f7b3 a73d a982 5fbd 2be7 d83b bb20 d7bc
00000230: 05dc 5dbb 33a7 d7bd c4ae 123d f52d 633d
00000240: 24be b9bc 652a 97bd be4d 193c ea6a ac3c
00000250: 326d 9cbd def6 973d 7f2d ccbd cc87 883d
00000260: c483 c43c 9360 97bd 9375 493d 2659 4b3d
00000270: bd8a c23d 2242 c3bc f1ce 683b 9e69 c2bc
00000280: 8659 91bd 47f2 f1bc 8a05 903c ab05 0fbd
00000290: 995e 96bc f26d 3ebc 09a5 3fbd 9d2b f7bc
000002a0: c8eb b93d 4faf 8cbd 8039 16bd 11c4 e93d
000002b0: 0b0f 9bbd d9bd d5bc 04d2 3dbd 071b d3bc
000002c0: 92e8 5f3d 2e06 ca3d dd28 af3d 9d00 853d
000002d0: bf5d 85bd 46d3 fcbc b99f d03c fc9a 7a3d
000002e0: e45e 87bd 243b 35bd 4ea3 c53c fbd9 e7bc
000002f0: 3218 a93d cced 33bc 4ee5 3d3d 3f13 3b3c
00000300: fdbb 993c 9f53 58bc b670 c0bc cd69 bbbd
00000310: bf51 2dbd 5ecb 6dbd 9db8 49bc f9d0 af3c
00000320: e80b adbd cb94 46bd 7876 2bbd fbd4 d6bc
00000330: 2559 af3c 27c7 c4bd 2607 c03d 02dd 753c
00000340: 3c48 31bc d113 9e3d 1e58 98bd bcfa 8b3d
00000350: 8539 92bd 8430 58bc 67e6 81bd e375 fa3c
00000360: 136f b2ba 9fc1 183d 2335 e83d a52b aabc
00000370: 1a0c e6bb cf2e dbbd ae77 41bd 26b8 5f3d
00000380: 61b4 f939 5e77 823d 0423 363d 6dee c2bc
00000390: a6b7 95bd bf54 473d e589 923d efbc 8a3d
000003a0: 8e0d e9bb ec53 18bd 91e1 84bc 16e2 153c
000003b0: e3df ec3c 42d9 39bc b71f 8ebc 4756 883d
000003c0: b155 613c f35d ddbc be79 613d 2c49 c13d
000003d0: df0d 81bc 35ac 3ebc 7e9a b6bd 6f10 183d
000003e0: 01f6 9b3c 7704 3dbd 7857 14bd a894 1d3d
000003f0: 5934 dfbc fcbd a23c defc 51bc 8d91 6cbd

_module.layer2.0.bias f4 [16]
-0.053162284 0.083098665 -0.05221117 -0.089762375 -0.019865336 0.044366736 0.05073303 -0.02639548
-0.06345958 -0.057761792 -0.0021350326 -0.020825611 0.054350864 -0.016478991 -0.07001081 0.017526824
00000000: b2c0 59bd a22f aa3d 61db 55bd 56d5 b7bd
00000010: a1bc a2bc e5b9 353d 70cd 4f3d 553b d8bc
00000020: 19f7 81bd a197 6cbd e7eb 0bbb 799a aabc
00000030: 039f 5e3d f3fe 86bc d461 8fbd 6a94 8f3c

_module.layer2.1.weight f4 [16]
0.9806451 0.98750055 1.0010802 1.0122526 1.0369081 1.011789 1.0183473 0.9909104
1.0203736 0.98362124 1.0194346 1.008417 0.9854677 1.007262 1.0071024 1.0069698
00000000: 8f0b 7b3f d6cc 7c3f 6523 803f 7e91 813f
00000010: 68b9 843f 4d82 813f 3459 823f 4eac 7d3f
00000020: 9a9b 823f 9ace 7b3f d57c 823f cf13 813f
00000030: 9c47 7c3f f6ed 803f bbe8 803f 63e4 803f

_module.layer2.1.bias f4 [16]
-0.0052153463 0.005860699 -0.040548205 0.005486325 0.020041829 0.015940653 -0.029959884 0.0066356175
0.014008012 -0.012108039 0.017070714 -0.021128599 -0.02410257 -0.015182547 -0.014192666 -0.012542256
00000000: 7fe5 aabb 1b0b c03b e015 26bd a1c6 b33b
00000010: c32e a43c f995 823c 6e6e f5bc 986f d93b
00000020: dc81 653c cc60 46bc e2d7 8b3c e215 adbc
00000030: c172 c5bc 38c0 78bc 5b88 68bc 097e 4dbc

_module.layer3.0.weight f4 [64, 16, 3, 3]
0.05244279 -0.06331006 -0.043986518 0.017978176 -0.033104945 -0.10480655 0.08995013 -0.041203365
0.07451579 0.04271958 -0.09001602 -0.07139279 -0.026801145 -0.108031616 -0.1045638 -0.051984023
0.020901745 -0.040966548 -0.038654417 -0.051410593 0.07512517 -0.050049365 0.052090112 -0.054350533
0.05239627 -0.056483332 0.04266082 0.056675855 0.034713544 0.06481031 0.049008153 -0.017896669
0.0707936 -0.009137048 -0.042447865 -0.0062723113 -0.032765064 0.06819087 -0.026992084 0.029427454
0.039466165 0.027487576 0.06279341 0.011548803 0.06516783 -0.012868014 -0.037356753 0.0021244946
-0.08884183 0.059105698 0.06533827 -0.0123414695 0.007018882 0.0346224 0.08626971 -0.04055906
0.000424227 0.061810475 0.019122574 -0.043956824 0.024480106 0.07931881 0.048510145 -0.041132107
0.05959209 0.06925293 -0.008187981 -0.10003262 -0.03899717 -0.09167073 -0.07249788 -0.026995622
0.053395323 -0.035606157 0.04839307 0.09185699 -0.023038732 -0.021582775 0.048674032 -0.035863068
0.08565921 -0.046150558 -0.06518445 0.022308253 -0.0112144435 0.025133075 -0.0057375026 -0.028992273
-0.090179704 -0.050356377 -0.07583213 0.052548874 -0.106342584 0.01081406 0.057113428 -0.043832123
-0.055837996 0.05758107 0.020874977 0.0046250056 -0.033036225 0.02353114 0.023578092 0.07205132
-0.05973851 0.074253365 -0.06465465 0.07225125 0.04624415 0.07138918 0.020493114 -0.0070190863
-0.048954796 0.045522626 0.024371061 -0.02350615 -0.045217264 -0.023964098 -0.02814627 -0.0025088722
-0.01732657 -0.015220518 0.027909229 -0.09487279 0.0628801 0.051944554 -0.022652335 0.04666325
0.022215154 -0.074849576 0.022870824 0.04094865 -0.0069432887 -0.044277597 0.0026632892 0.07454136
-0.021478925 0.08782891 -0.0659445 -0.018067306 0.02433187 -0.0242938 -0.005627585 -0.00810266
0.007039819 -0.07574078 -0.05209167 -0.09433625 -0.09036888 0.0037601169 0.069657974 -0.010210612
0.040678892 -0.01898182 0.023407668 -0.024544809 0.06497468 -0.11254241 0.04259367 0.022873947
-0.08094706 0.021024277 -0.007172956 0.0048636566 -0.081986845 -0.012086806 0.03430888 -0.008377249
0.058707148 0.050045755 0.06294092 -0.10134926 0.065599345 -0.027684044 -0.050865833 0.06160279
-0.027141808 0.008877541 -0.05173045 -0.01003855 0.030228592 0.040964246 -0.044408757 -0.012239485
0.027027242 -0.022724712 0.001922913 0.0753958 0.019989153 0.010482496 -0.058430817 0.078295186
-0.09427933 0.02039294 -0.018102461 -0.02537441 -0.044826802 -0.1026821 -0.049015913 -0.054949634
0.028667897 0.015825126 -0.047066394 -0.019364687 -0.0068448293 0.0089385575 0.016509326 -0.016903142
-0.019591026 0.03831919 0.0010366476 -0.02235564 0.06954938 0.0070627653 -0.010340811 -0.068430506
-0.05850514 0.085732445 -0.002310677 0.033520732 -0.04657884 0.019909212 0.037374143 -0.059532005
0.042328615 -0.08671397 -0.012901526 0.049260456 0.089200646 -0.04039571 0.017202029 -0.043857954
0.067985736 -0.03296557 -0.025132855 -0.06256707 -0.070245676 0.047490798 -0.05315904 -0.05920964
-0.003946596 -0.03235096 -0.013747777 -0.024065876 -0.022437796 0.028375695 -0.020724537 0.02496402
-0.039957054 -0.05684965 0.04794839 0.029976012 -0.028618444 0.027992597 0.04951458 -0.061096877
00000000: 40ce 563d b4a8 81bd 352b 34bd f846 933c
00000010: 0d99 07bd d1a4 d6bd c637 b83d dcc4 28bd
00000020: bc9b 983d bafa 2e3d 525a b8bd 6236 92bd
00000030: 138e dbbc ae3f ddbd 8c25 d6bd 33ed 54bd
00000040: 233a ab3c 8acc 27bd 1854 1ebd ea93 52bd
00000050: 3adb 993d 9000 4dbd 715c 553d aa9e 5ebd
00000060: 799d 563d 115b 67bd 1dbd 2e3d f124 683d
00000070: ca2f 0e3d 45bb 843d c6bc 483d 099c 92bc
00000080: 3cfc 903d 8fb3 15bc d0dd 2dbd f687 cdbb
00000090: a934 06bd a8a7 8b3d 811e ddbc d811 f13c
000000a0: 46a7 213d a02d e13c d599 803d 3137 3d3c
000000b0: b676 853d 5dd4 52bc 6503 19bd 1b3b 0b3b
000000c0: b5f2 b5bd d118 723d 12d0 853d e033 4abc
000000d0: a6fe e53b 38d0 0d3d 2cae b03d 4221 26bd
000000e0: c96a de39 fb2c 7d3d f2a6 9c3c 120c 34bd
000000f0: 818a c83c e671 a23d 93b2 463d 247a 28bd
00000100: d616 743d 7bd4 8d3d e226 06bc e7dd ccbd
00000110: 7fbb 1fbd ddbd bbbd c579 94bd ec25 ddbc
00000120: 0eb5 5a3d c3d7 11bd d037 463d 841f bc3d
00000130: b9bb bcbc 5cce b0bc 6c5e 473d 27e5 12bd
00000140: 196e af3d 5e08 3dbd 6d7f 85bd ccbf b63c
00000150: c9bc 37bc e1e3 cd3c a901 bcbb 3481 edbc
00000160: 23b0 b8bd 7d42 4ebd e04d 9bbd 7d3d 573d
00000170: 24ca d9bd 752d 313c c5ef 693d 5089 33bd
00000180: 62b6 64bd 21da 6b3d 0002 ab3c 5c8d 973b
00000190: fe50 07bd 61c4 c03c d826 c13c a48f 933d
000001a0: 5eb0 74bd 2612 983d a869 84bd 77f8 933d
000001b0: 816a 3d3d 7e34 923d 2de1 a73c 5d00 e6bb
000001c0: d384 48bd ef75 3a3d d2a5 c73c f88f c0bc
000001d0: bd35 39bd 5b50 c4bc 0293 e6bc e46b 24bb
000001e0: 73f0 8dbc 7b5f 79bc e5a1 e43c aa4c c2bd
000001f0: 48c7 803d d0c3 543d 6491 b9bc f721 3f3d
00000200: 8efc b53c bc4a 99bd 985b bb3c c6b9 273d
00000210: 8784 e3bb 6d5c 35bd 948a 2e3b 24a9 983d
00000220: 92f4 afbc a5df b33d e90d 87bd e301 94bc
00000230: a153 c73c cb03 c7bc 9b67 b8bb 05c1 04bc
00000240: 48ae e63b fb1d 9bbd 135e 55bd 5d33 c1bd
00000250: 5213 b9bd 4b6c 763b d7a8 8e3d 694a 27bc
00000260: e99e 263d c37f 9bbc 70c1 bf3c 3212 c9bc
00000270: 7211 853d a37c e6bd b376 2e3d 2562 bb3c
00000280: 92c7 a5bd 1b3b ac3c 1e0b ebbb 4f5f 9f3b
00000290: b8e8 a7bd bd07 46bc 7887 0c3d bb40 09bc
000002a0: e876 703d c7fc 4c3d 2be7 803d 3390 cfbd
000002b0: f358 863d a6c9 e2bc b158 50bd 3553 7c3d
000002c0: 7f58 debc 1b73 113c 4fe3 53bd bb78 24bc
000002d0: f4a1 f73c 20ca 273d f5e5 35bd 1f88 48bc
000002e0: 3c68 dd3c 2d29 babc 410a fc3a 1d69 9a3d
000002f0: 4bc0 a33c c6be 2b3c 2755 6fbd 3a59 a03d
00000300: 8515 c1bd 180f a73c 9d4b 94bc ffdd cfbc
00000310: 4f9c 37bd fe4a d2bd e9c4 48bd de12 61bd
00000320: f0d8 ea3c b2a3 813c b1c8 40bd b1a2 9ebc
00000330: 974a e0bb 0773 123c 913e 873c 7578 8abc
00000340: 5c7d a0bc 95f4 1c3d 1fe0 873a 2d23 b7bc
00000350: e86f 8e3d c56e e73b 816c 29bc 4b25 8cbd
00000360: 16a3 6fbd 7e94 af3d ba6e 17bb 094d 093d
00000370: 74c9 3ebd a518 a33c a115 193d d5d7 73bd
00000380: c560 2d3d 1897 b1bd ec60 53bc 55c5 493d
00000390: d4ae b63d f975 25bd 45eb 8c3c 66a4 33bd
000003a0: 1b3c 8b3d e806 07bd 6be3 cdbc 2a23 80bd
000003b0: f7dc 8fbd b685 423d 4bbd 59bd cf85 72bd
000003c0: 7252 81bb 7182 04bd 5b3e 61bc cd25 c5bc
000003d0: 78cf b7bc 2574 e83c 81c6 a9bc 5881 cc3c
000003e0: 02aa 23bd 2edb 68bd 8865 443d 4190 f53c
000003f0: 3a71 eabc bb50 e53c cdcf 4a3d b840 7abd

_module.layer3.0.bias f4 [64]
-0.037793905 0.08448213 -0.011547452 0.0786609 0.07066342 0.076947115 0.052222032 0.026480272
-0.017329697 -0.016797464 -0.034807764 0.056845132 0.078924924 -0.052638877 -0.06330629 0.04998013
0.064352155 0.055869155 -0.052096218 0.039197154 -0.070086636 0.024834128 -0.097774565 0.03889767
-0.020911582 -0.032271124 -0.041397296 0.026054844 0.002582228 -0.07461098 0.07649877 -0.051263683
0.03032301 0.03870327 0.08617111 0.04563216 0.0792776 0.09896397 -0.02746296 0.043943513
0.09605653 0.07215848 -0.08944674 -0.05334176 0.055661112 -0.046559136 -0.0831019 -0.03522625
0.023287132 0.0050642034 0.00013957579 0.05483649 -0.0063604238 -0.039932348 -0.089441404 0.04132633
-0.0018149765 -0.01410057 0.008789673 0.052782938 -0.032296404 -0.014114366 -0.042301703 -0.011094786
00000000: c8cd 1abd f804 ad3d 8631 3dbc f718 a13d
00000010: fcb7 903d 7396 9d3d c5e6 553d 28ed d83c
00000020: 02f7 8dbc d69a 89bc 9692 0ebd 71d6 683d
00000030: 64a3 a13d dd9b 57bd baa6 81bd f7b7 4c3d
00000040: 10cb 833d 0ed7 643d d862 55bd 328d 203d
00000050: 9589 8fbd f170 cb3c 083e c8bd 2a53 1f3d
00000060: c44e abbc ba2e 04bd 3690 29bd f870 d53c
00000070: 993a 293b a4cd 98bd 63ab 9c3d def9 51bd
00000080: f667 f83c 5287 1e3d 7b7a b03d cae8 3a3d
00000090: 4b5c a23d 9fad ca3d 00fa e0bc 1dfe 333d
000000a0: 49b9 c43d d3c7 933d da2f b7bd e47c 5abd
000000b0: e8fc 633d cbb4 3ebd 5431 aabd 6649 10bd
000000c0: a8c4 be3c 9ef1 a53b 175b 1239 3a9c 603d
000000d0: 1a6b d0bb 1a90 23bd 0e2d b7bd cc45 293d
000000e0: 81e4 edba 1406 67bc 9002 103c ec32 583d
000000f0: 3c49 04bd f13f 67bc 8d44 2dbd e8c6 35bc

_module.layer3.1.weight f4 [64]
1.0263828 1.0125018 0.9904123 1.0054916 1.0228354 1.011939 0.98404366 0.9929702
1.0177318 0.98725337 1.0030432 1.0015492 0.9697251 1.0055715 0.99270743 1.0165724
0.9945561 1.0349115 1.0097504 0.99476284 1.0242143 0.96793944 0.9775937 0.9998531
0.99923193 0.9851902 1.0083823 0.99411696 1.0091403 1.0180398 1.0161304 1.0372381
0.9866135 0.96861166 1.0219932 1.0251195 0.9886735 1.0232925 1.0107353 0.9926024
0.99393445 1.0097533 1.0162818 0.96361387 0.98214805 1.018619 1.0122144 0.9829849
1.0052223 1.0032907 1.0014017 0.99633425 0.9678678 1.010765 0.9827323 1.0061862
0.99282515 0.9972307 1.0256336 1.0225192 0.9996272 1.0156814 0.9884629 1.0129023
00000000: 8360 833f a999 813f a98b 7d3f f3b3 803f
00000010: 45ec 823f 3887 813f 49ea 7b3f 4c33 7e3f
00000020: 0945 823f a3bc 7c3f b863 803f c432 803f
00000030: e73f 783f 91b6 803f 1322 7e3f 0b1f 823f
00000040: 3b9b 7e3f fb77 843f 803f 813f c7a8 7e3f
00000050: 7419 833f e1ca 773f 9543 7a3f 5ff6 7f3f
00000060: aacd 7f3f 6d35 7c3f ac12 813f 737e 7e3f
00000070: 822b 813f 214f 823f 9010 823f 38c4 843f
00000080: b492 7c3f eff6 773f acd0 823f 1e37 833f
00000090: b519 7d3f 40fb 823f c65f 813f 311b 7e3f
000000a0: 7d72 7e3f 993f 813f 8615 823f 66af 763f
000000b0: 0e6e 7b3f 1b62 823f 3e90 813f e6a4 7b3f
000000c0: 20ab 803f d46b 803f ee2d 803f c30f 7f3f
000000d0: 2fc6 773f bf60 813f 5894 7b3f b6ca 803f
000000e0: ca29 7e3f 834a 7f3f f647 833f e9e1 823f
000000f0: 91e7 7f3f d901 823f e80b 7d3f c8a6 813f

_module.layer3.1.bias f4 [64]
-0.034502007 -0.0190281 -0.013274785 0.00090856804 0.032153897 -0.016570164 0.029322589 -0.006710128
0.00640284 0.013664119 -0.024861053 -0.0067880726 -0.027186709 -0.007185331 0.0077839107 -0.021451391
-0.027198993 0.0022460567 -0.02625718 0.02497252 -0.022574246 0.00368328 0.023134707 0.012781895
0.031591658 0.023133054 -0.0047629294 0.0254148 -0.01002776 -0.004576106 -0.0007977143 -0.0032861677
-0.00044307363 0.0102121895 0.024775311 -0.0054092193 -0.030649235 -0.006832379 0.0018621089 0.004795535
0.0037285534 0.0015050767 0.017262891 -0.010360326 0.032971695 0.006134047 -0.0016290427 -0.01661241
0.045957517 0.0039418903 -0.012830789 0.0068936055 0.0057328213 -0.015347621 -0.020464603 -0.008903505
-0.010452096 0.00019545728 0.01551444 -0.027631186 -0.0033571997 -0.0087842895 0.0069761886 0.003576092
00000000: fa51 0dbd d1e0 9bbc 7c7e 59bc f82c 6e3a
00000010: ceb3 033d 27be 87bc ed35 f03c a2e0 dbbb
00000020: eace d13b 78df 5f3c 68a9 cbbc 7b6e debb
00000030: a9b6 debc ed72 ebbb 2d10 ff3b d4ba afbc
00000040: 6cd0 debc 9432 133b 4c19 d7bc 2c93 cc3c
00000050: a0ed b8bc 2f63 713b ff84 bd3c 276b 513c
00000060: 4166 013d 8881 bd3c 5912 9cbb b332 d03c
00000070: 794b 24bc 29f3 95bb b31d 51ba bf5c 57bb
00000080: 564c e8b9 0751 273c 98f5 ca3c d23f b1bb
00000090: 1b14 fbbc 26e2 dfbb 0212 f43a dd23 9d3b
000000a0: bf5a 743b fe45 c53a e86a 8d3c 5bbe 29bc
000000b0: 540d 073d 1e00 c93b 9a85 d5ba c016 88bc
000000c0: f33d 3c3d f92a 813b 3b38 52bc c1e3 e13b
000000d0: 64da bb3b 9774 7bbc 62a5 a7bc 02e0 11bc
000000e0: 453f 2bbc aaf3 4c39 4730 7e3c cc5a e2bc
000000f0: 7704 5cbb fbeb 0fbc 8398 e43b de5c 6a3b

_module.layer4.0.weight f4 [64, 64, 3, 3]
-0.020979142 0.024172977 0.016401889 0.018329876 0.010777171 -0.04859142 -0.051907234 0.028666733
0.049367018 0.038695563 0.0108688 -0.030617025 -0.04009028 0.03452304 -0.004811574 0.018742941
0.04335614 0.0333771 -0.0026457997 -0.020725774 -0.05736769 0.0057813893 0.045917824 -0.028765751
-0.026016725 -0.018545134 -0.05625555 0.07429517 -0.029003005 0.03929657 0.0035394519 -0.008428704
-0.03029831 0.011141045 -0.02959346 0.047993965 0.017946195 -0.01489653 0.033577513 -0.013958241
0.012322842 0.03997945 -0.03131903 0.0003705064 1.3329157e-05 0.012601888 0.0210998 0.027705103
-0.046722796 -0.027639914 0.012513171 -0.05896722 0.02403268 0.028225398 -0.029707965 0.0026489466
0.007500656 0.02117154 -0.009720849 0.012757777 0.02185904 0.035842583 -0.03838037 0.0022123165
-0.030365728 0.045007214 -0.023174074 0.03869068 -0.015374992 -0.04953288 0.0025625944 -0.011778237
0.030229587 0.018480152 0.008742264 0.04287378 0.033188518 -0.020903295 -0.0033425363 -0.0102984
-0.021725057 0.036254942 -0.060932342 0.018631179 0.037673686 -0.0073666675 0.016308421 0.036711104
-0.01782138 0.02862752 -0.03396425 0.041627333 0.026753023 -0.04331534 -0.0012966647 0.022057299
-0.003733249 0.041541483 0.0051630363 -0.0622964 0.032338627 -0.04667413 -0.033629235 0.015531238
0.03668932 0.012772952 -0.033912025 0.013911257 -0.019375024 -0.008640043 0.012065801 0.024031194
0.015439297 -0.006269288 -0.02987297 0.0140545275 -0.019589864 0.047109507 0.0391203 -0.0038036734
0.040131122 0.046640687 -0.012242937 -0.009491684 -0.03539129 0.044554815 -0.010345644 -0.00052319403
-0.013695473 -0.053803347 0.038784366 -0.00511939 -0.058961198 0.029793335 -0.027277967 -0.06481505
0.03627226 -0.036000945 0.04811274 -0.0025456063 0.07586687 -0.038031705 0.017689174 0.032197032
-0.032823727 0.024900617 0.026467687 0.045180675 -0.010767846 -0.01898478 0.010056301 -0.01946206
-0.028827447 -0.0014243535 -0.06363359 -0.021646382 0.032550864 -0.06981423 -0.007345526 0.02861669
0.039905157 0.011137948 0.027770806 0.016426485 0.019963613 0.030361015 -0.045715425 -0.017128024
-0.00096734887 0.015434633 0.021582274 -0.034995634 0.020379446 0.046627305 -0.0069280155 -0.023568269
-0.027439995 0.031447686 0.0125363 0.0059993826 0.06966973 0.0043327636 0.00837178 -0.04915552
0.01544544 0.059559602 0.0034099263 -0.046364 -0.028253851 0.004233845 0.035057932 -0.01430427
-0.07252379 0.032500803 0.01693504 -0.02401848 -0.047414947 0.009046988 0.016995426 -0.03914425
-0.017692043 0.0043316623 -0.0134889595 0.0057559954 -0.011208951 0.006683077 0.0008326339 -0.013590141
-0.03429219 0.004866725 0.044559095 0.017123312 0.017486742 -0.00088158523 0.024926627 -0.02990945
-0.007952048 -0.0042674495 0.04821177 -0.048449237 0.016091531 0.02676294 -0.04773747 -0.026415193
-0.016865978 -0.0021206157 -0.015821597 0.03853905 0.027349044 0.05072803 -0.016940152 0.032369193
-0.020519799 0.010893868 0.008399198 -0.03905161 0.00724827 0.019439679 0.050955966 -0.0061685066
0.01998758 0.053597853 0.047681484 -0.030960493 -0.0059708757 -0.0010700404 -0.033990227 -1.2312026e-05
-0.02265835 -0.032969054 -0.006610828 -0.04877459 -0.028478952 -0.02350257 0.047176093 0.005829506
00000000: 73dc abbc 6806 c63c 415d 863c 8928 963c
00000010: bb92 303c cc07 47bd ae9c 54bd 7fd6 ea3c
00000020: 1235 4a3d 3d7f 1e3d 0d13 323c 8ed0 fabc
00000030: b535 24bd 0868 0d3d 68aa 9dbb cc8a 993c
00000040: 3596 313d 6db6 083d 2765 2dbb 19c9 a9bc
00000050: 62fa 6abd cf71 bd3b 5414 3c3d 27a6 ebbc
00000060: 0721 d5bc f7eb 97bc 386c 66bd 1128 983d
00000070: b697 edbc 71f5 203d 26f6 673b 8c18 0abc
00000080: 2934 f8bc ee88 363c fc6d f2bc 5295 443d
00000090: e603 933c 9310 74bc 9388 093d 1bb1 64bc
000000a0: bfe5 493c 7ec1 233d 6248 00bd 8740 c239
000000b0: 4ba0 5f37 2678 4e3c 7dd9 ac3c d0f5 e23c
000000c0: 6760 3fbd 1a6d e2bc 0b04 4d3c 9d87 71bd
000000d0: 2fe0 c43c f338 e73c 1e5e f3bc f399 2d3b
000000e0: 10c8 f53b f06f ad3c 3244 1fbc ff05 513c
000000f0: bb11 b33c accf 123d bc34 1dbd 83fc 103b
00000100: 8cc1 f8bc 7c59 383d 8ed7 bdbc 1e7a 1e3d
00000110: 64e7 7bbc fde2 4abd 33f1 273b 82f9 40bc
00000120: 0aa4 f73c b063 973c b63b 0f3c 6b9c 2f3d
00000130: aff0 073d 633d abbc 740e 5bbb 9fba 28bc
00000140: bff8 b1bc 1080 143d 3194 79bd 6aa0 983c
00000150: b94f 1a3d 1664 f1bb 3d99 853c 625e 163d
00000160: 25fe 91bc 4384 ea3c 191e 0bbd 6c81 2a3d
00000170: 2829 db3c 6d6b 31bd d9f4 a9ba 82b1 b43c
00000180: 86a9 74bb 6727 2a3d b02e a93b 832a 7fbd
00000190: 8275 043d 5f2d 3fbd cfbe 09bd bc76 7e3c
000001a0: 8a47 163d a545 513c 56e7 0abd 0aec 633c
000001b0: 5fb8 9ebc f88e 0dbc a3af 453c 11dd c43c
000001c0: 1bf5 7c3c 996e cdbb 29b8 f4bc f644 663c
000001d0: ec7a a0bc e6f5 403d 9c3c 203d 0d47 79bb
000001e0: 8860 243d 4e0a 3f3d 9a96 48bc 0283 1bbc
000001f0: 75f6 10bd 1c7f 363d c780 29bc f526 09ba
00000200: fa62 60bc e660 5cbd 5bdc 1e3d 8ec0 a7bb
00000210: 4c81 71bd 2711 f43c 0b76 dfbc c1bd 84bd
00000220: 3992 143d ba75 13bd dd11 453d 30d4 26bb
00000230: 1760 9b3d 22c7 1bbd e3e8 903c 09e1 033d
00000240: 2c72 06bd 61fc cb3c c3d2 d83c 5f0f 393d
00000250: 9f6b 30bc f885 9bbc 2fc3 243c e66e 9fbc
00000260: 8a27 ecbc 5fb1 baba 5452 82bd c153 b1bc
00000270: 0e54 053d c3fa 8ebd bdb2 f0bb 8c6d ea3c
00000280: 9773 233d f17b 363c 9a7f e33c d690 863c
00000290: bb8a a33c aab7 f83c 1940 3bbd 1250 8cbc
000002a0: af95 7dba 8be1 7c3c 4fcd b03c 9557 0fbd
000002b0: ccf2 a63c 46fc 3e3d 6804 e3bb 3e12 c1bc
000002c0: d7c9 e0bc 4acf 003d 0e65 4d3c 7896 c43b
000002d0: 01af 8e3d dbf9 8d3b ca29 093c 4c57 49bd
000002e0: df0e 7d3c c5f4 733d 1279 5f3b 2de8 3dbd
000002f0: 9f74 e7bc 11bc 8a3b e898 0f3d 755c 6abc
00000300: 5a87 94bd 901f 053d 5abb 8a3c 67c2 c4bc
00000310: 2d36 42bd d139 143c fe39 8b3c b955 20bd
00000320: e7ee 90bc 9ef0 8d3b cc00 5dbc ca9c bc3b
00000330: bfa5 37bc b7fd da3b 1d45 5a3a 2fa9 5ebc
00000340: f875 0cbd 0c79 9f3b 9983 363d 3046 8c3c
00000350: 5b40 8f3c 2f1a 67ba ed32 cc3c aa04 f5bc
00000360: 4f49 02bc f6d5 8bbb b479 453d b572 46bd
00000370: 63d2 833c f43d db3c 5e88 43bd ad64 d8bc
00000380: 852a 8abc 07fa 0abb 4b9c 81bc 1fdb 1d3d
00000390: 1a0b e03c 32c8 4f3d 13c6 8abc 8f95 043d
000003a0: 2319 a8bc 327c 323c ca9c 093c 95f4 1fbd
000003b0: e582 ed3b f63f 9f3c 34b7 503d 2f21 cabb
000003c0: febc a33c 6c89 5b3d a94d 433d dca0 fdbc
000003d0: 56a7 c3bb 9940 8cba 5639 0bbd c08f 4eb7
000003e0: 019e b9bc 8f0a 07bd a59f d8bb ddc7 47bd
000003f0: b14c e9bc 7688 c0bc b83b 413d 7105 bf3b

_module.layer4.0.bias f4 [64]
-0.025162559 0.03355336 -0.0063335225 -0.00068725203 -0.024337221 -0.029695053 -0.034392897 0.011825674
-0.031163646 -0.025887504 -0.027878571 -0.020912617 0.017934095 0.002681769 -0.018576657 0.036809195
0.036351174 -0.048064735 -0.016662486 0.038505137 0.030042458 -0.011217315 -0.017769014 0.035908073
0.022706212 -0.0415858 -0.0059441226 0.02841576 0.020412685 0.06546729 -0.053680655 0.044228196
0.014190143 0.023132639 0.017200314 0.07016244 0.0031899016 0.021893071 0.034752186 -0.0052548028
-0.041214738 0.028813187 0.016889986 -0.05678376 0.02814971 -0.00093443797 -0.030898558 -0.026782442
-0.04324118 0.015854219 0.019880926 -0.017343102 0.035726547 0.06480532 0.042404503 -0.012854135
0.026172768 -0.066490345 -0.038441837 -0.025055392 -0.0281345 0.0076598655 0.055229608 0.042217836
00000000: b621 cebc 3f6f 093d 7089 cfbb b428 34ba
00000010: da5e c7bc 0a43 f3bc 91df 0cbd 79c0 413c
00000020: e74a ffbc 0812 d4bc 9a61 e4bc f050 abbc
00000030: 86ea 923c 9ec0 2f3b 132e 98bc 3dc5 163d
00000040: f8e4 143d 87df 44bd c47f 88bc 90b7 1d3d
00000050: 9a1b f63c d4c8 37bc 5390 91bc 5814 133d
00000060: 6102 ba3c df55 2abd eac6 c2bb 2bc8 e83c
00000070: 8138 a73c b713 863d 3fe0 5bbd a028 353d
00000080: c67d 683c a980 bd3c ace7 8c3c 53b1 8f3d
00000090: ab0d 513b 1959 b33c 4f58 0e3d 7b30 acbb
000000a0: c9d0 28bd a209 ec3c de5c 8a3c 1796 68bd
000000b0: 389a e63c 12f5 74ba f91e fdbc da66 dbbc
000000c0: aa1d 31bd b5e0 813c 53dd a23c 1f13 8ebc
000000d0: 0056 123d a7b8 843d 58b0 2d3d 269a 52bc
000000e0: 4668 d63c 172c 88bd 3075 1dbd f740 cdbc
000000f0: 537a e6bc 9cff fa3b 7138 623d 9cec 2c3d

_module.layer4.1.weight f4 [64]
0.97940546 0.9650739 0.9481837 1.0274885 1.0290843 1.0073966 0.9990352 0.99673474
0.9932132 0.9854494 1.0023788 0.99221534 0.9675325 0.98634773 0.9813833 1.0101848
0.9911938 0.9568932 1.0007321 1.003003 0.99812937 1.0017426 0.9866504 0.9926746
0.9795451 0.9822702 0.96109086 1.0105199 1.0120126 0.98742104 0.9871066 0.9835578
1.0002236 0.9666219 1.0145508 1.0375593 0.9939823 1.0094035 1.0069544 0.97835994
1.0143778 0.98085684 1.0003749 1.0070249 0.9909014 0.98261136 0.98186666 1.0187663
1.0186915 0.9834106 0.9903213 1.0391142 0.95975345 1.0025876 0.9818678 0.9848553
1.0057315 1.0030822 1.0001632 0.9834182 0.9793606 1.0241648 1.0029953 0.98741215
00000000: 51ba 7a3f 150f 773f 2bbc 723f be84 833f
00000010: 09b9 833f 5ff2 803f c5c0 7f3f 022a 7f3f
00000020: 3843 7e3f 6946 7c3f f34d 803f d301 7e3f
00000030: 36b0 773f 4981 7c3f f03b 7b3f bc4d 813f
00000040: e0be 7d3f f4f6 743f fd17 803f 6762 803f
00000050: 6885 7f3f 1a39 803f 1f95 7c3f ec1f 7e3f
00000060: 78c3 7a3f 0f76 7b3f 0d0a 763f b758 813f
00000070: a189 813f a0c7 7c3f 05b3 7c3f 72ca 7b3f
00000080: 5407 803f 8874 773f cddc 813f bece 843f
00000090: a075 7e3f 2234 813f e2e3 803f cc75 7a3f
000000a0: 22d7 813f 6f19 7b3f 490c 803f 31e6 803f
000000b0: b7ab 7d3f 6b8c 7b3f 9d5b 7b3f ef66 823f
000000c0: 7c64 823f ccc0 7b3f b285 7d3f b201 853f
000000d0: 67b2 753f ca54 803f b05b 7b3f 7a1f 7c3f
000000e0: cfbb 803f ff64 803f 5905 803f 4cc1 7b3f
000000f0: 60b7 7a3f d517 833f 2662 803f 0bc7 7c3f

_module.layer4.1.bias f4 [64]
-0.0042297626 -0.0005456406 -0.04926911 -0.005778943 0.025886184 0.000708249 0.007371343 0.0103661455
-0.01084353 0.008424753 0.014552933 -0.013498668 -0.031310923 0.002729491 -0.0150372675 -0.027588746
-0.023573035 -0.0221616 -0.0108303595 0.011258947 -0.022242429 0.014126352 -0.009615327 0.032704376
0.008724533 -0.024227297 -0.02736256 -0.014970538 0.010432641 -0.0056180344 -0.03563698 -0.009334924
0.014625288 -0.0025079704 0.010926479 0.024197951 0.006257142 0.021424515 -0.012469225 0.026020136
-0.01572256 0.00096840895 -0.011767657 0.0029377968 0.03713653 -0.009769038 -0.04657912 0.01834708
-0.012751202 0.005680952 -0.022868212 0.007859104 0.013103191 -0.0104646385 0.015326631 0.015458718
0.0058513405 -0.022388292 -0.013929203 -0.024317259 0.02036323 0.0127525125 -0.0025022198 0.008037033
00000000: d299 8abb 5209 0fba 68ce 49bd 4a5d bdbb
00000010: 430f d43c c9a9 393a 4f8b f13b c4d6 293c
00000020: 10a9 31bc fa07 0a3c 6d6f 6e3c 8429 5dbc
00000030: e23f 00bd 43e1 323b df5e 76bc cb01 e2bc
00000040: 3d1c c1bc 3e8c b5bc d271 31bc 7277 383c
00000050: c135 b6bc 3772 673c 9b89 1dbc 06f5 053d
00000060: 58f1 0e3c 5378 c6bc 7327 e0bc fd46 75bc
00000070: abed 2a3c 7d17 b8bb 15f8 11bd 82f1 18bc
00000080: e79e 6f3c c35c 24bb f904 333c c83a c63c
00000090: b608 cd3b 7782 af3c b84b 4cbc 2e28 d53c
000000a0: 99cc 80bc d3dc 7d3a 21cd 40bc 0d88 403b
000000b0: 791c 183d 510e 20bc bfc9 3ebd 9e4c 963c
000000c0: 6bea 50bc 4827 ba3b 1e56 bbbc 79c3 003c
000000d0: c4ae 563c e073 2bbc 8d1c 7b3c 9046 7d3c
000000e0: 9abc bf3b a767 b7bc 5037 64bc fd34 c7bc
000000f0: cad0 a63c eaef 503c 48fc 23bb c2ad 033c

_module.layer5.0.weight f4 [64, 64, 3, 3]
-0.037733424 0.0021807896 0.021412741 -0.015884848 -0.024621192 -0.032017477 0.006693997 0.018332096
-0.009136002 0.009679535 -0.0067383777 0.013898214 -0.019928869 -0.01848384 -0.013167217 -0.019803924
-0.016731836 0.05292064 -0.023925306 0.047198355 0.03638326 -0.0092910025 0.03681731 0.00014681586
-0.003053927 0.06395644 -0.025023095 -0.07061896 -0.020812033 0.036750536 0.015676837 0.009205579
0.032148793 0.004475377 0.012800889 -0.012999437 -0.011263951 -0.019241752 0.012640327 -0.042517163
0.012445186 -0.033589493 0.045834992 -0.060090337 0.016736211 -0.019205151 0.04173847 -0.0013098196
-0.022834437 -0.0157604 -0.011709851 -0.022221364 0.047839843 0.01817449 0.017536614 -0.01701386
0.025096046 -0.042721514 -0.020708987 -0.0154763665 -0.017317576 -0.035356574 -0.007865624 0.013842308
-0.023245791 0.03266342 0.025791297 -0.0034952115 -0.046461415 0.034837183 -0.0059025525 -0.001617801
0.03068864 0.037472617 0.008173499 0.033180013 0.007964895 -0.027994838 -0.027266307 0.0010695443
-0.04211753 -0.016403342 -0.019410567 0.0029906076 0.00388637 -0.012623655 0.028780367 -0.02724458
0.02675951 0.004100745 -0.047521397 -0.0183658 0.018927997 -0.045883134 -0.038537845 0.033397947
0.025810733 0.0024451585 -0.012480461 -0.03153858 0.004790012 0.019624846 -0.045718826 -0.035310164
-0.01981646 0.008823118 0.051696338 -0.027396278 0.055547427 -0.016149784 -0.02376533 0.01068559
-0.021522235 0.05519077 0.010735961 0.01962813 0.062938675 0.016082706 -0.019182619 0.0052721985
0.05695051 0.030261902 0.043584447 0.026577752 0.030417023 0.019786255 -0.02960144 -0.014627362
0.0124391075 0.030621748 0.030248266 0.013951701 0.0030442593 -0.007855179 0.057142813 0.03552549
-0.03086865 0.008633015 0.0149802845 0.049675405 -0.038144466 -0.082497425 0.033440955 0.03535588
-0.02265784 0.067520656 0.0038854748 -0.004010321 0.033449005 -0.026353164 0.012749191 -0.018801834
0.021051662 -0.017980559 -0.032466404 0.035116404 -0.03514415 0.004748829 0.015968231 -0.013527237
0.06323236 -0.0073112063 0.001891703 0.0030700215 0.006230072 -0.032775044 0.028444309 -0.043441363
0.006671537 0.004434925 0.05291976 -0.023117883 0.0011223254 0.009445325 -0.01319592 -0.011381221
0.036353927 -0.04891765 0.05166455 -0.014291899 0.0024432628 -0.0106317615 0.011852722 -0.01567904
0.012904312 -0.054530963 -0.05546632 -0.0106954 -0.027051415 -0.032267366 -0.01524091 0.048295747
-0.013384159 -0.008710695 0.037985343 -0.012646112 -0.007112184 -0.0020249009 -0.003929185 0.02319994
0.0329645 0.0042193746 0.045789797 0.026114894 0.055225156 -0.055575278 -0.035881013 0.012049634
0.030934824 -0.018799592 0.0005541652 -0.012609856 -0.051164154 0.056808457 -1.1951042e-05 0.0371812
0.028609503 0.0072358064 0.033033002 -0.009295062 -0.02810512 0.041374844 -0.037712283 -0.008657111
0.034281056 0.04088131 -0.010705715 -0.051133092 -0.03615824 0.014787872 -0.031547356 -0.0047227005
0.04335876 -0.027074039 0.020587107 -0.036234263 0.07052328 -0.051140342 -0.06223975 0.026401712
-0.03386447 0.045991663 0.06806729 0.03464408 1.9702777e-05 0.013014667 0.020112453 -0.028429955
-0.015755128 0.08294746 -0.08397418 0.030974543 0.007911958 0.037027895 0.009386987 -0.014585858
00000000: 5d8e 1abd 94eb 0e3b c669 af3c f120 82bc
00000010: 62b2 c9bc c224 03bd 5159 db3b 312d 963c
00000020: 2baf 15bc ea96 1e3c 9ccd dcbb 56b5 633c
00000030: de41 a3bc 6c6b 97bc 50bb 57bc d73b a2bc
00000040: 3411 89bc 50c3 583d 01ff c3bc 1053 413d
00000050: 9d06 153d 4a39 18bc bfcd 163d 95f2 1939
00000060: 6524 48bb 98fb 823d 3cfd ccbc aca0 90bd
00000070: ff7d aabc bb87 163d b66c 803c ffd2 163c
00000080: 74ae 033d 2fa6 923b d2ba 513c 97fb 54bc
00000090: 6f8c 38bc e1a0 9dbc 6019 4f3c 7a26 2ebd
000000a0: e5e6 4b3c 2395 09bd 79bd 3b3d 4921 76bd
000000b0: 611a 893c 1f54 9dbc f5f5 2a3d 41ae abba
000000c0: 490f bbbc f41b 81bc adda 3fbc 9409 b6bc
000000d0: b6f3 433d abe2 943c f2a8 8f3c a760 8bbc
000000e0: 3996 cd3c c1fc 2ebd e5a5 a9bc 9690 7dbc
000000f0: 97dd 8dbc 0ed2 10bd d1de 00bc d9ca 623c
00000100: f56d bebc 14ca 053d 4548 d33c eb0f 65bb
00000110: 534e 3ebd 6fb1 0e3d 336a c1bb 650c d4ba
00000120: be66 fb3c e37c 193d 24ea 053c c4e7 073d
00000130: 317f 023c 6e55 e5bc 975d dfbc f42f 8c3a
00000140: 6e83 2cbd 4d60 86bc e902 9fbc 12fe 433b
00000150: 78b2 7e3b 72d3 4ebc cec4 eb3c 0730 dfbc
00000160: c336 db3c 8b5f 863b cca5 42bd e073 96bc
00000170: e30e 9b3c f4ef 3bbd dcd9 1dbd 49cc 083d
00000180: 0871 d33c f43e 203b d97a 4cbc 992e 01bd
00000190: 88f5 9c3b 49c4 a03c aa43 3bbd 64a1 10bd
000001a0: 2156 a2bc d78e 103c 8abf 533d 296e e0bc
000001b0: b385 633d 8d4c 84bc 82af c2bc 9d12 2f3c
000001c0: 664f b0bc b80f 623d e2e5 2f3c 2ccb a03c
000001d0: fee5 803d e1bf 833c de24 9dbc 68c2 ac3b
000001e0: f044 693d cfe7 f73c 9b85 323d 96b9 d93c
000001f0: 1f2d f93c c916 a23c b87e f2bc 9aa7 6fbc
00000200: 66cd 4b3c 76da fa3c 36cb f73c ad95 643c
00000210: 3282 473b 02b3 00bc 950e 6a3d 2d83 113d
00000220: 40e0 fcbc 7d71 0d3c de6f 753c 7078 4b3d
00000230: 5f3d 1cbd 69f4 a8bd 62f9 083d 54d1 103d
00000240: ef9c b9bc 4548 8a3d 73a3 7e3b 0369 83bb
00000250: d301 093d 97e2 d7bc fce1 503c 4e06 9abc
00000260: 8974 ac3c f74b 93bc 7efb 04bd 38d6 0f3d
00000270: 50f3 0fbd 119c 9b3b cfcf 823c 58a1 5dbc
00000280: f87f 813d d892 efbb 05f3 f73a 6a32 493b
00000290: a225 cc3b 203f 06bd 0a04 e93c 92ef 31bd
000002a0: e99c da3b d952 913b 64c2 583d b761 bdbc
000002b0: fe1a 933a 90c0 1a3c b333 58bc 4d78 3abc
000002c0: dbe7 143d e05d 48bd 359e 533d 9228 6abc
000002d0: 261f 203b d730 2ebc eb31 423c 5571 80bc
000002e0: 9c6c 533c dc5b 5fbd a730 63bd c23b 2fbc
000002f0: ee9a ddbc c92a 04bd 03b5 79bc c3d1 453d
00000300: 3b49 5bbc 4eb7 0ebc 8596 1b3d a331 4fbc
00000310: 530d e9bb 33b4 04bb 65c0 80bb cd0d be3c
00000320: c905 073d ae42 8a3b 158e 3b3d e7ee d53c
00000330: c633 623d e7a2 63bd f8f7 12bd d46b 453c
00000340: 076b fd3c 9a01 9abc 6645 113a 9299 4ebc
00000350: 8191 51bd fcaf 683d 5681 48b7 504b 183d
00000360: 7a5e ea3c 581a ed3b 9d4d 073d 514a 18bc
00000370: b53c e6bc ab78 293d 3278 1abd 8ed6 0dbc
00000380: 4b6a 0c3d 2973 273d 0667 2fbc ef70 51bd
00000390: aa1a 14bd d548 723c cd37 01bd e2c0 9abb
000003a0: f598 313d 60ca ddbc 4ba6 a83c 616a 14bd
000003b0: 826e 903d 8978 51bd 1cef 7ebd 6748 d83c
000003c0: 78b5 0abd c161 3c3d dd66 8b3d f3e6 0d3d
000003d0: 6447 a537 783b 553c dfc2 a43c f0e5 e8bc
000003e0: e610 81bc 5ce0 a93d a8fa abbd 53be fd3c
000003f0: 28a1 013c 90aa 173d e1cb 193c 86f9 6ebc

_module.layer5.0.bias f4 [64]
0.015900737 0.0068835355 -0.0723665 0.043925647 -0.021671169 -0.022674305 -0.010477451 0.014317807
-0.047368474 -0.00759123 -0.023721762 -0.01965623 -0.052453265 -0.004576216 0.019827856 -0.024607813
0.023608474 0.037382673 -0.05277636 -0.026583564 0.0056526004 -0.021212166 0.0036547126 -0.07351252
-0.013836267 0.026501799 -0.018639602 0.044301625 0.032681763 -0.03794469 -0.034063466 -0.030329471
-0.020617252 0.045645405 0.0040854365 0.03427526 -0.04481905 -0.061973404 -0.000357284 0.0077416934
0.028463582 -0.014405311 -0.008731229 -0.04659603 0.029388461 0.03549616 0.03208165 0.027542472
-0.008363418 -0.046643447 0.03264802 -0.030033331 -0.02164746 -0.06569634 -0.034128543 0.030258693
0.005662759 0.015795492 -0.008613292 0.0017679782 0.0020190293 -0.009963948 0.04048706 0.075366676
00000000: 4342 823c 488f e13b e334 94bd 61eb 333d
00000010: bc87 b1bc 77bf b9bc 9da9 2bbc 3c95 6a3c
00000020: 7205 42bd dabf f8bb 2454 c2bc 1a06 a1bc
00000030: 3cd9 56bd 15f4 95bb 076e a23c 5396 c9bc
00000040: 8f66 c13c 931e 193d 062c 58bd c6c5 d9bc
00000050: 7339 b93b 23c5 adbc e783 6f3b bb8d 96bd
00000060: 83b1 62bc 4d1a d93c 14b2 98bc 9f75 353d
00000070: 50dd 053d e46b 1bbd 2286 0bbd 8375 f8bc
00000080: 83e5 a8bc adf6 3a3d 20df 853b 3764 0c3d
00000090: 2e94 37bd d3d7 7dbd d951 bbb9 08ae fd3b
000000a0: 752c e93c 4104 6cbc 6e0d 0fbc 7bdb 3ebd
000000b0: 12c0 f03c 6c64 113d 0c68 033d c0a0 e13c
000000c0: b806 09bc 330d 3fbd eeb9 053d 7608 f6bc
000000d0: 0456 b1bc cd8b 86bd 5fca 0bbd 14e1 f73c
000000e0: aa8e b93b 8c65 813c c41e 0dbc 81bb e73a
000000f0: b151 043b d43f 23bc c2d5 253d d859 9a3d

_module.layer5.1.weight f4 [64]
0.99639326 1.0316628 0.9940374 1.0136802 0.9908877 1.0094908 0.98619676 0.98792595
1.002183 0.99049664 1.0335966 1.019438 1.0117378 1.0103812 0.9662933 0.9729496
0.9953326 1.0022556 1.0125614 0.9998828 1.0213833 0.9959068 0.999353 1.0152882
1.0352323 1.0167934 1.0186195 0.98570967 0.98947436 1.0438242 0.989149 1.015486
1.0125357 1.0369514 1.0234925 1.0008734 0.98442155 1.0000628 1.0007492 0.9734417
0.97415894 1.011317 1.0326278 0.99070835 0.991612 0.99082404 1.0204502 1.0329864
0.9966203 1.0345544 1.0184239 1.0355757 1.015126 1.0329336 1.0053307 0.9979322
1.0277283 1.0201333 0.9937889 0.9975008 1.024584 0.99505705 1.0019146 1.0060494
00000000: a113 7f3f 870d 843f 3c79 7e3f 46c0 813f
00000010: d1aa 7d3f ff36 813f 6477 7c3f b7e8 7c3f
00000020: 8847 803f 3091 7d3f e54c 843f f27c 823f
00000030: a080 813f 2c54 813f ff5e 773f 3a13 793f
00000040: 1ece 7e3f e949 803f 9d9b 813f 52f8 7f3f
00000050: b0bc 823f bff3 7e3f 99d5 7f3f f7f4 813f
00000060: 7e82 843f 4926 823f 2062 823f 7857 7c3f
00000070: 314e 7d3f 089c 853f de38 7d3f 72fb 813f
00000080: c59a 813f d3ba 843f cd01 833f 9f1c 803f
00000090: 0d03 7c3f 0f02 803f 8d18 803f 7a33 793f
000000a0: 7b62 793f d672 813f 262d 843f 109f 7d3f
000000b0: 49da 7d3f a5a6 7d3f 1d9e 823f e638 843f
000000c0: 8222 7f3f 476c 843f b75b 823f bf8d 843f
000000d0: a6ef 813f 2b37 843f adae 803f 7c78 7f3f
000000e0: 9a8c 833f ba93 823f f368 7e3f 365c 7f3f
000000f0: 9225 833f 0fbc 7e3f bd3e 803f 3ac6 803f

_module.layer5.1.bias f4 [64]
0.011396137 0.011651744 0.019941663 0.026841339 0.022022497 0.00079606683 -0.032475192 0.014557693
-0.019596813 -0.010221706 -0.0017547711 -0.011528861 -0.03092052 0.027179573 0.030873358 -0.0018981202
0.016814113 0.019256951 -0.017959913 0.005713375 0.010418258 0.027345935 0.0067004394 -0.0012434719
-0.016306806 -0.029275041 0.009862014 0.019856323 -0.0055405186 0.0071775108 -0.020589039 -0.008195439
-0.009337009 0.018570738 -0.028378708 0.04451373 0.026810214 -0.011584825 0.030375384 -0.0065384577
0.01121279 0.014851848 -0.025827134 -0.0018153263 -0.00888084 0.016535485 -0.0067797573 -0.017064404
0.013581658 -0.019536093 -0.009088918 -0.017558206 -0.010625672 0.0022893562 0.029354457 -8.723075e-05
-0.0122849215 -0.01775358 0.0019370198 -0.023473773 0.01265716 0.0126075065 -0.0074380874 0.007783586
00000000: ddb6 3a3c f5e6 3e3c b35c a33c 5ee2 db3c
00000010: 8668 b43c 24af 503a b504 05bd 6483 6e3c
00000020: 7f89 a0bc f178 27bc 5900 e6ba 8ce3 3cbc
00000030: 084d fdbc b2a7 de3c 20ea fc3c 58ca f8ba
00000040: c0bd 893c c1c0 9d3c ab20 93bc 4337 bb3b
00000050: 57b1 2a3c 9504 e03c 5c8f db3b fefb a2ba
00000060: da95 85bc 36d2 efbc 4994 213c baa9 a23c
00000070: 3d8d b5bb 5331 eb3b 58aa a8bc 2a46 06bc
00000080: 41fa 18bc a921 983c 777a e8bc 0754 363d
00000090: 18a1 db3c 47ce 3dbc ccd5 f83c 8f40 d6bb
000000a0: dab5 373c 2a55 733c 6d93 d3bc 3ef0 edba
000000b0: f180 11bc 6d75 873c ba28 debb a6ca 8bbc
000000c0: 9a85 5e3c 280a a0bc afe9 14bc 3ad6 8fbc
000000d0: 4c17 2ebc 0609 163b c278 f03c a7ef b6b8
000000e0: b246 49bc f56f 91bc 99e3 fd3a 124c c0bc
000000f0: fa5f 4f3c b78f 4e3c 33bb f3bb 740d ff3b
