weights/pretrain_normalrotated__finetune_normal.pth (torch, 950792 bytes, 26 tensors)

layer1.0.weight f4 [16, 3, 3, 3]
0	0xbc668b4e	-0.014071299
1	0xbe06501d	-0.13116498
2	0xbd3d63bf	-0.046237703
3	0xbdaf009e	-0.085450396
4	0x3ce5f0a8	0.028068855
5	0xbadf1451	-0.0017019605
6	0xbd9392e6	-0.07205753
7	0x3d4879e4	0.04894437
8	0xbe131c97	-0.14366375
9	0x3e2f63ac	0.17127866
10	0xbddbf7a8	-0.10740596
11	0xbdd7cc0b	-0.10536965
12	0x3d1114a3	0.03542007
13	0xbe321081	-0.17389108
14	0x3da2fb92	0.079581395
15	0x3e0fa765	0.140287
16	0x3d7271df	0.059190627
17	0x3d6a5aaa	0.05721537
18	0xbe4493e5	-0.19197042
19	0xbe574825	-0.21023615
20	0x3d9bbd44	0.07604459
21	0xbe246b05	-0.1605645
22	0x3e241f20	0.16027498
23	0xbda1dea3	-0.07903793
24	0x3df5b4e8	0.11997396
25	0xbdec16b3	-0.11527767
26	0x3cf37545	0.029719004
27	0xbd675bb7	-0.05648395
28	0xbe264d27	-0.16240369
29	0xbc1e9b02	-0.009680511
30	0xbe22311c	-0.15839046
31	0xbe0210a5	-0.12701662
32	0xbe139c38	-0.14415061
33	0x3d9245be	0.071422085
34	0x3e166c73	0.14689808
35	0xbd732617	-0.059362497
36	0xbdc5f8b1	-0.09666575
37	0x3e3bae80	0.18328285
38	0x3ca2e074	0.019882418
39	0xbe098da7	-0.13432942
40	0xbdf022a7	-0.117253594
41	0x3e4fc557	0.20290123
42	0x3e374811	0.17898585
43	0xbe218676	-0.15773949
44	0xbc30fdf4	-0.010802735
45	0x3d233e09	0.039854083
46	0x3e3368e3	0.1752048
47	0xbc22831b	-0.009918953
48	0x3dbd6571	0.09247864
49	0x3e2971cd	0.16547318
50	0x3dd69e3c	0.104793996
51	0x3d8321bf	0.06402921
52	0xbe27d434	-0.16389543
53	0x3d17b2aa	0.03703562
54	0x3e0d4c91	0.13798739
55	0xbe03ab59	-0.12858333
56	0xbd947806	-0.07249455
57	0xbca8c815	-0.020603219
58	0xbd521e23	-0.051298272
59	0xbe2c87be	-0.16848657
60	0xbe2e55fd	-0.1702499
61	0xbde09280	-0.10965443
62	0x3d8ed02c	0.069732994
63	0x3e0c5592	0.13704517
64	0xbe18b92c	-0.14914387
65	0x3cd33bb4	0.025785305
66	0x3d84ad7d	0.06478403
67	0x3e21ba1d	0.15793653
68	0xbc36d105	-0.011158233
69	0x3d621295	0.055193502
70	0x3e155121	0.1458173
71	0xbca1f145	-0.019768367
72	0xbe1551de	-0.14582011
73	0x3dfde9c1	0.12398101
74	0x3e07ed62	0.13274148
75	0xbe1e483c	-0.15457243
76	0x3be59cb6	0.007007207
77	0xbc2f5617	-0.010701678
78	0x3ce9b9d6	0.028530996
79	0xbe291ae5	-0.16514166
80	0x3df1930e	0.117956266
81	0xbd95a64d	-0.0730711
82	0xbde218dd	-0.110398985
83	0x3e2ff14e	0.17181894
84	0xbd094d7c	-0.03352116
85	0x3e21bacb	0.15793912
86	0xbdb001d4	-0.08594099
87	0xbdb3802d	-0.08764682
88	0x3dd7f770	0.10545242
89	0x3def25cd	0.11677132
90	0x3e0c91fc	0.13727564
91	0x3a93a2fc	0.0011263783
92	0xbd83533b	-0.06412359
93	0xbdc90ffe	-0.098175034
94	0xbe3995bf	-0.1812353
95	0xbe35f2e5	-0.17768438
96	0x3caf57b6	0.021404129
97	0xbe246c4e	-0.1605694
98	0xbe0c3e47	-0.13695632
99	0xbdddd0e0	-0.10830855
100	0x3ddb10e9	0.10696585
101	0x3d5ba99a	0.05362854
102	0xbde86d5f	-0.11348986
103	0x3e38a0c3	0.18030076
104	0x3dd09ff0	0.10186756
105	0x3e287fbd	0.16454978
106	0xbcd7b186	-0.026329767
107	0xbdb3c332	-0.08777465
108	0x3de84dc9	0.11342961
109	0xbd93690d	-0.07197771
110	0x3dc3aa8c	0.095540136
111	0x3e305f24	0.17223793
112	0xbe237fd9	-0.15966739
113	0xbcfdbde2	-0.030974332
114	0x3da1525a	0.078770354
115	0xbdca3eaf	-0.09875237
116	0x3dd29328	0.10281974
117	0x3de197f0	0.11015308
118	0xbdb65758	-0.08903378
119	0x3e0d8888	0.13821614
120	0x3e0beddc	0.13664955
121	0x3de42125	0.11139134
122	0x3d3fac79	0.046795342
123	0xbd802033	-0.062561415
124	0x3de25ca8	0.11052829
125	0xbd6a4797	-0.05719718
126	0x3e22a436	0.15882954
127	0x3da3ec9f	0.08004116
128	0x3e1c0b5e	0.15238711
129	0x3b54cac1	0.0032469484
130	0x3d3dc193	0.046327185
131	0xbe1f2f13	-0.15545301
132	0x3c44f930	0.012022302
133	0x3dfb930b	0.122839056
134	0x3dce1b4b	0.100637995
135	0xbd5a6670	-0.05332035
136	0xbe08c07c	-0.13354677
137	0x3d7032fb	0.05864237
138	0xba8a2d9b	-0.0010542156
139	0xbce9188f	-0.028454093
140	0x3e2625ec	0.16225404
141	0x3c99f731	0.018794628
142	0x3de23f7a	0.110472634
143	0x3c37521e	0.011189012
144	0xbdb0f182	-0.08639814
145	0xbe20a2ba	-0.15687075
146	0x3d9440b0	0.07238901
147	0xbdeb2a2a	-0.114826515
148	0x3e2ade46	0.16686353
149	0xbe016bf0	-0.12638831
150	0xbd95c278	-0.073124826
151	0xbc640817	-0.013917944
152	0x3e258b15	0.16166337
153	0xbe48ec2b	-0.19621341
154	0x3d77d7dc	0.060508594
155	0x3e1dfcea	0.1542851
156	0xbd372dac	-0.04472129
157	0x3c75a5a4	0.014993105
158	0x3e0cf285	0.13764389
159	0xbe1bef7c	-0.15228075
160	0x3d36efef	0.044662412
161	0xbcaad5fd	-0.02085399
162	0x3dd89ee6	0.105771825
163	0xbd70ccb6	-0.058788978
164	0x3d4c5bfc	0.04989241
165	0xbd61d75e	-0.05513703
166	0xbc1b4f73	-0.009479391
167	0xbd16d415	-0.03682335
168	0x3c9734d4	0.018457808
169	0xbd06e863	-0.032936465
170	0xbd27fa09	-0.041009936
171	0xbdc4074e	-0.09571706
172	0x3e3b8e78	0.18316066
173	0xbe1a34fa	-0.15059271
174	0xb72c781d	-1.0279965e-05
175	0xbdb7c369	-0.089728184
176	0x3e0b658a	0.13612953
177	0x3e008480	0.12550545
178	0x3d205cfb	0.039151173
179	0x3e38b9c3	0.18039612
180	0xbe4744c1	-0.19459821
181	0xbdb92c4b	-0.09041651
182	0xbdea1e76	-0.11431591
183	0x3e0950a7	0.13409673
184	0x3dda1143	0.10647824
185	0xbd74d990	-0.059777796
186	0x3cb3e7ca	0.021961112
187	0xbe355676	-0.17708763
188	0xbd86120b	-0.0654641
189	0x3e548f9f	0.20757912
190	0x3c4af5d8	0.012387715
191	0x3ddae0a4	0.10687378
192	0x3e3291a7	0.17438374
193	0xbdd041d8	-0.10168809
194	0xbda66d2b	-0.08126291
195	0xbe3879b1	-0.18015172
196	0xbd8e6d13	-0.06954398
197	0xbc2138e0	-0.00984022
198	0x3dcd3cd7	0.1002137
199	0x3e32d526	0.17464122
200	0x3e2d92ee	0.1695058
201	0xbe1fceb2	-0.15606192
202	0xbded2eff	-0.115812294
203	0x3c5be844	0.013422076
204	0x3be43e9b	0.006965471
205	0x3d294cb9	0.041332934
206	0x3d1a0c5c	0.037609443
207	0x3e519d03	0.20470051
208	0x3e47bfc8	0.19506752
209	0xbe31ecdc	-0.17375511
210	0x3d9e27b3	0.07722416
211	0xbdf59f20	-0.11993241
212	0xbd833b08	-0.06407744
213	0x3dc7d6dc	0.09757778
214	0xbdce083c	-0.10060164
215	0xbd3490ad	-0.044083286
216	0x3e2834fe	0.16426465
217	0xbe0605d6	-0.13088164
218	0x3e263654	0.16231662
219	0x3e373454	0.17891055
220	0xbe341662	-0.17586663
221	0xbde20e9e	-0.11037944
222	0x3d3ba8ff	0.045815464
223	0x3e24e371	0.16102387
224	0xbe1ac5e4	-0.15114552
225	0x3e1d752d	0.1537673
226	0x3be0d173	0.006860906
227	0xbe1f9436	-0.15583882
228	0xbc9b20b7	-0.018936498
229	0xbdd77eee	-0.10522257
230	0xbdf0ed1b	-0.11763974
231	0x3dfd5758	0.12370175
232	0xbd881c5e	-0.066460356
233	0x3dd0769b	0.10178872
234	0x3c6e0531	0.014527605
235	0xbd9f5766	-0.07780342
236	0x3e4f3d4f	0.20238231
237	0xbdefcfe2	-0.117095724
238	0xbe006827	-0.12539731
239	0x3e4b02af	0.19825242
240	0x3e1018d8	0.14071977
241	0x3db59974	0.088671595
242	0xbe281cc4	-0.16417223
243	0xbd9d61d3	-0.07684674
244	0xbddd2edf	-0.107999556
245	0xbde28b0e	-0.11061679
246	0x3d797367	0.060901072
247	0xbc4e66f4	-0.012597788
248	0x3d329175	0.04359575
249	0x3d703861	0.058647517
250	0xbd6836f8	-0.056693047
251	0x3cc34a8e	0.023839261
252	0x3e2bfe39	0.16796197
253	0x3e0b85f0	0.13625312
254	0xbd03c4e3	-0.032170188
255	0x3d5684ce	0.052372746

layer1.0.bias f4 [16]
0	0x3d87584d	0.06608639
1	0x3dd86160	0.10565448
2	0xbe0d3ee6	-0.13793525
3	0x3cd6bc61	0.026212873
4	0x3d9e749c	0.07737085
5	0xbd659543	-0.05605055
6	0x3dd75be9	0.10515577
7	0x3dbd9655	0.09257189
8	0x3e2cf3dc	0.168899
9	0xbd72a98e	-0.05924373
10	0x3dacc781	0.0843649
11	0xbe1c2b42	-0.15250877
12	0xbdf41160	-0.119173765
13	0xbe1e4a6e	-0.1545808
14	0xbc0ec780	-0.008714557
15	0x3da1a4d9	0.0789277

layer1.1.weight f4 [16]
0	0x3f825a86	1.0183876
1	0x3f803dd0	1.0018864
2	0x3f810b3c	1.0081553
3	0x3f7fb93b	0.99892014
4	0x3f7aa5d2	0.9790927
5	0x3f7c90a6	0.98658216
6	0x3f7d08ce	0.9884156
7	0x3f826253	1.0186256
8	0x3f6d3cdd	0.92670995
9	0x3f8080f9	1.0039359
10	0x3f84f075	1.0385882
11	0x3f7e84dc	0.9942148
12	0x3f867f60	1.0507622
13	0x3f73c97a	0.95229304
14	0x3f7e341f	0.9929828
15	0x3f81d3a2	1.014271

layer1.1.bias f4 [16]
0	0x3c39c7b8	0.011339121
1	0x3afccf97	0.0019287941
2	0xbb3c8b54	-0.002876957
3	0xbc889e26	-0.016676974
4	0xbc648a31	-0.013948963
5	0xbc7b315d	-0.015331593
6	0xbbda35f9	-0.006659266
7	0xbb4ad97d	-0.0030952387
8	0xbd60e760	-0.054908156
9	0xbc1f4852	-0.009721832
10	0xbd19f371	-0.03758568
11	0xbcd25137	-0.025673492
12	0xb9927511	-0.0002793451
13	0xbd15d2c1	-0.036577944
14	0x3bb261fa	0.0054438086
15	0xbada9a88	-0.0016678134

layer2.0.weight f4 [16, 16, 3, 3]
0	0xbd0657dc	-0.032798633
1	0xbd896ab1	-0.06709803
2	0xbd492f33	-0.04911728
3	0x3d338787	0.04383042
4	0xbd119ff0	-0.03555292
5	0x3cfc9bab	0.030835947
6	0xbc930750	-0.017947823
7	0x3d85a890	0.06526291
8	0x3cfb33d3	0.03066436
9	0xbda09232	-0.078403845
10	0x3d940015	0.07226578
11	0xbd3d7945	-0.04625823
12	0xbbce53d6	-0.006296615
13	0x3d394daa	0.04524008
14	0x3cc85923	0.024456566
15	0xbcb6298c	-0.022236608
16	0xbd46dce6	-0.04855051
17	0x3d78b505	0.06071951
18	0x3d93a909	0.07209975
19	0x3dad4f33	0.08462372
20	0xbd96daf1	-0.073659785
21	0x3ce3bff0	0.027801484
22	0x3d28d6cf	0.041220482
23	0x3d836304	0.0641537
24	0x3d5bdd3b	0.05367778
25	0x3d7c0c4b	0.06153516
26	0x3d882283	0.066472076
27	0x3d65afcd	0.05607586
28	0x3c575053	0.013141709
29	0x3d66e1a5	0.056367535
30	0x3b80d857	0.0039320397
31	0xbd6633cf	-0.056201752
32	0x3cbae2e4	0.022813268
33	0xbc8dbbd4	-0.017301477
34	0x3d9f1b65	0.07768897
35	0xbc9e0b68	-0.019292548
36	0x3db4ef95	0.08834759
37	0xbb8cb2fa	-0.0042937966
38	0x3b97bd48	0.0046307184
39	0x3da89c58	0.08232945
40	0x3cd8401f	0.026397763
41	0x3cbf8b80	0.023381948
42	0xbd90d1ce	-0.07071267
43	0x3d701596	0.058614336
44	0xbd874d86	-0.06606583
45	0x3d73f516	0.059559904
46	0x3d95d526	0.073160455
47	0x3d6e4caf	0.0581786
48	0x3d71ab1f	0.059001084
49	0x3d18c30e	0.037295394
50	0x3ae47ba2	0.0017431865
51	0xbd9b3842	-0.0757909
52	0x3d829725	0.06376485
53	0xbdb374ba	-0.08762498
54	0xbd03d4bf	-0.032185312
55	0x3d8205c9	0.0634876
56	0xbd18644c	-0.037205026
57	0xbc9f1e59	-0.01942365
58	0x3c0a307e	0.008434413
59	0x3b881967	0.004153419
60	0x3d494ff2	0.049148507
61	0xbd68b707	-0.056815173
62	0xbd7dd2ab	-0.061968487
63	0x3db313c0	0.087440014
64	0x3c49bfce	0.012313796
65	0x3d8962a9	0.06708271
66	0xbd4f14a3	-0.05055679
67	0x3dbb18a2	0.09135558
68	0x3d8442ad	0.0645803
69	0x3d72d614	0.059286192
70	0xbcce5bd1	-0.025190266
71	0x3d99f5ff	0.07517623
72	0x39723bb4	0.0002310116
73	0x3d944517	0.0723974
74	0x3da918b4	0.08256665
75	0x3d1fc68d	0.039007712
76	0xbdaa4721	-0.08314348
77	0xbd793479	-0.060841057
78	0xbd4fac76	-0.05070158
79	0xbbd1bd79	-0.0064007607
80	0xbd920af7	-0.07130998
81	0x3b0b1f92	0.0021228534
82	0xbcf93b3b	-0.030423751
83	0x3d49fbe7	0.0493125
84	0xbcc5fd7a	-0.024168719
85	0x3cba696e	0.02275535
86	0xbce64e4e	-0.02811351
87	0x3d148f59	0.03626952
88	0x3c876b33	0.016530609
89	0x3d32510a	0.043534316
90	0x3d2786e5	0.04090013
91	0xbc26245f	-0.0101405075
92	0x3c401aa5	0.011725103
93	0x3ca785bb	0.02044951
94	0x3cd249f5	0.025670031
95	0x3d1a93d4	0.037738636
96	0x3cf2f2c9	0.029656785
97	0xbd389acc	-0.0450695
98	0xbd8b8710	-0.068128705
99	0x3d658cb3	0.056042384
100	0xbb58caf8	-0.0033079963
101	0xbcdf7b47	-0.027280463
102	0x3db1160e	0.08646785
103	0x3cf4e618	0.029894873
104	0xbd221a83	-0.039576065
105	0xbc911256	-0.017708939
106	0x3d707cb9	0.058712695
107	0x3bb43a33	0.005500102
108	0x3be1f6b6	0.0068958653
109	0x3e25f9d9	0.1620859
110	0x3c823975	0.015896538
111	0x3d6a590a	0.05721382
112	0x3db939ee	0.09044252
113	0x3d88907f	0.066681854
114	0x3d912bcb	0.07088431
115	0xb9a76bd2	-0.00031933055
116	0xbcdc9bbd	-0.02692973
117	0x3d885dec	0.06658539
118	0xbd673b16	-0.056452833
119	0x3cfc068c	0.03076484
120	0xbc82b77a	-0.015956629
121	0xbd614027	-0.05499282
122	0xbd6fcf0b	-0.05854706
123	0xbd8479b3	-0.06468525
124	0xbd472a11	-0.048624102
125	0x3d666183	0.05624534
126	0xbd3d8303	-0.04626752
127	0xbd6a3128	-0.057175785
128	0x3d77c8e1	0.060494307
129	0xbbbcaf28	-0.005758185
130	0xbda467ce	-0.08027612
131	0x3d46c0e0	0.048523784
132	0xbd6e8b09	-0.058238063
133	0x3d8915cd	0.06693611
134	0xbda94701	-0.08265496
135	0xbd9bf7c7	-0.07615619
136	0xbd227e61	-0.039671306
137	0x3d8a11b3	0.06741657
138	0xbdaa90ec	-0.08328423
139	0xbd5d83d9	-0.054080818
140	0x3d346e3b	0.044050436
141	0xbd8ebcbf	-0.06969594
142	0xbd77e7d7	-0.060523834
143	0x3d71c17a	0.059022404
144	0xbc7c3c59	-0.015395247
145	0x3d11883e	0.03553032
146	0xbc0265cd	-0.0079588415
147	0x3ce0b405	0.02742959
148	0xbda8b29d	-0.08237193
149	0xbdd079c9	-0.10179479
150	0xbd3e048f	-0.046391066
151	0xbca4f87e	-0.020138022
152	0xbd982c2f	-0.07430302
153	0x3d114f82	0.035476215
154	0xbc0756ea	-0.008260468
155	0xbd003d4e	-0.031308465
156	0x3c922551	0.01784006
157	0x3d6fcd67	0.058545496
158	0x3c708caf	0.014681979
159	0xbc909fcd	-0.017654324
160	0xbcfe6cc5	-0.031057725
161	0x3d7eca50	0.06220466
162	0xbdb05cc3	-0.08611443
163	0x3d0cf613	0.034414362
164	0x3cbe4f4a	0.023231167
165	0x3bd5a17e	0.0065194955
166	0xbcbd9dca	-0.023146529
167	0xbd0a5d62	-0.033780463
168	0x3d97e720	0.074171305
169	0x3d5af145	0.05345275
170	0x3cbaecec	0.022818051
171	0x3d34db0c	0.044154212
172	0x3d19d2d9	0.037554596
173	0xbca9241c	-0.020647101
174	0xbcef8c3c	-0.029241674
175	0x3dbedc28	0.09319335
176	0xbd8d0aff	-0.06886863
177	0xbbcba465	-0.0062146657
178	0x3d85fcb2	0.065423384
179	0x3cd51911	0.02601293
180	0xb964deb3	-0.00021826736
181	0xbca367f0	-0.019947022
182	0xbda294e1	-0.07938553
183	0xbd659237	-0.056047644
184	0x3d2b6eae	0.0418536
185	0xbc9ee6c4	-0.019397147
186	0x3d93e5dd	0.07221577
187	0x3d26dd9e	0.040738694
188	0x3d8dbe90	0.069211125
189	0x3cfe9e78	0.031081423
190	0xbce83021	-0.028343262
191	0xbdafe6d3	-0.08588948
192	0xbd9579f3	-0.072986506
193	0xbd01da73	-0.03170247
194	0xbdcaa0ab	-0.09893926
195	0xbdbea234	-0.093082815
196	0xbda7db64	-0.08196142
197	0xbd2a77b6	-0.04161807
198	0x3c29ae5d	0.010356513
199	0xbc0fee07	-0.0087847775
200	0x3d1069cf	0.035257157
201	0x3ce1306f	0.027488915
202	0x3d902f24	0.07040241
203	0xbd1343e7	-0.03595343
204	0x3bd81486	0.0065942435
205	0xbcd96b12	-0.026540313
206	0xbce9363a	-0.02846824
207	0xbd70c1c3	-0.058778536
208	0xbc2dead1	-0.010615067
209	0xbd024ae7	-0.031809714
210	0xbd87d455	-0.06632296
211	0xbd78efdf	-0.060775634
212	0x3d3bbea2	0.0458361
213	0xbd89cfa8	-0.067290604
214	0xbd9904da	-0.074716285
215	0xbd7c90c3	-0.061661493
216	0xbd33d639	-0.04390547
217	0x3d5eb37a	0.05437038
218	0xbceb27d4	-0.028705515
219	0xbc655e37	-0.013999513
220	0x3c1ef9c1	0.009703101
221	0xbc45fa0d	-0.0120835425
222	0x3c9dc89d	0.019260699
223	0xbc400876	-0.011720767
224	0x3d91b7ac	0.07115111
225	0x3c98002f	0.018554775
226	0xbd27df0a	-0.04098419
227	0xbd4c62fb	-0.049899083
228	0x3d815e72	0.06316842
229	0x3d6918fb	0.05690859
230	0x3da8d173	0.08243074
231	0x3bc93530	0.0061403736
232	0x3d509298	0.050921053
233	0xbb41cc19	-0.0029571115
234	0x3d80158c	0.0625411
235	0xbd0b4a54	-0.03400643
236	0x3db84adb	0.089986525
237	0xbdabd812	-0.083908215
238	0x3c2dacd6	0.010600289
239	0x3cbaf15c	0.022820167
240	0xbd3e51a0	-0.046464562
241	0x3d77b997	0.060479727
242	0x3c411811	0.011785523
243	0xbd9c75e4	-0.07639673
244	0xbdc2072e	-0.09474026
245	0x3ca87ca9	0.020567255
246	0xbca04af8	-0.019566998
247	0x3d474a5d	0.048654903
248	0x3c568b1c	0.01309469
249	0x3c89485b	0.016758135
250	0xbc34c88d	-0.011034143
251	0x3c22be59	0.009933078
252	0x3e06c455	0.13160832
253	0x3d4f3322	0.050585873
254	0xbd79a4ad	-0.060948063
255	0x3db4de4d	0.08831463

layer2.0.bias f4 [16]
0	0x3d1b8de6	0.03797712
1	0xbdac2d88	-0.08407122
2	0xbbd3c610	-0.00646282
3	0xbcbcc650	-0.023043782
4	0xbd9eb67f	-0.07749652
5	0x3dab9815	0.08378617
6	0xbd13f77e	-0.0361247
7	0xbcbf663c	-0.023364179
8	0xbc939e84	-0.018019922
9	0xbcb5a5d8	-0.022173807
10	0xbd802ae0	-0.06258178
11	0xbd54cd86	-0.051953815
12	0xbd411788	-0.04714158
13	0x3dbb904d	0.091583826
14	0x3d919f54	0.071104676
15	0xbd57d6e7	-0.05269518

layer2.1.weight f4 [16]
0	0x3f77a0bc	0.96729636
1	0x3f80647e	1.0030668
2	0x3f7ab084	0.9792559
3	0x3f827d17	1.0194424
4	0x3f82c951	1.0217687
5	0x3f801614	1.0006738
6	0x3f81287c	1.009048
7	0x3f81cd2f	1.0140742
8	0x3f80966b	1.0045904
9	0x3f8155c9	1.0104305
10	0x3f7dae82	0.990944
11	0x3f75bc3a	0.95990336
12	0x3f83c786	1.0295265
13	0x3f74f139	0.95680577
14	0x3f82957f	1.0201873
15	0x3f801c50	1.000864

layer2.1.bias f4 [16]
0	0xbd3dd9e8	-0.04635039
1	0xbc8cc3d1	-0.017183216
2	0xbcd900d9	-0.026489662
3	0xbacfcc72	-0.0015853776
4	0xbc87393e	-0.016506787
5	0xbc9e3edf	-0.019317089
6	0xba787f9f	-0.0009479466
7	0xbc51562a	-0.012776891
8	0xbc0d82c1	-0.008637131
9	0xbc51d93e	-0.012808142
10	0xbb9dd942	-0.004817159
11	0xbcbaf869	-0.02282353
12	0xbc2fd9f6	-0.010733118
13	0xbd2020fa	-0.03909395
14	0xbb863ab8	-0.0040963553
15	0xbc1bf346	-0.00951845

layer3.0.weight f4 [64, 16, 3, 3]
0	0x3d09cc17	0.0336419
1	0x3d3e48e3	0.04645623
2	0xbd5fd7f3	-0.054649305
3	0xbc9c00e9	-0.019043403
4	0x3cc51c85	0.02406145
5	0xbd03341d	-0.03203212
6	0xbb8534c0	-0.004065126
7	0xbcb42ec3	-0.021994954
8	0x3dad7c8d	0.08471022
9	0x3d098031	0.03356952
10	0x3ba0224d	0.0048869015
11	0x3d33ce55	0.043897945
12	0xbd298f96	-0.0413967
13	0x3c83e860	0.016102016
14	0x3bcc90d0	0.006242849
15	0xbd8c2d00	-0.068445206
16	0x3c60382b	0.0136852665
17	0x3c9e591f	0.019329606
18	0x3d941318	0.07230204
19	0x3dc482d1	0.09595264
20	0x3dcee8fb	0.10103031
21	0xbc28056f	-0.010255202
22	0x3d0cd777	0.03438517
23	0xbc542bc9	-0.012949892
24	0x3db6307f	0.08895969
25	0xbd95d413	-0.073158406
26	0x3d26a042	0.040680178
27	0x3d94de21	0.0726893
28	0x3ca2272d	0.019794071
29	0xbdccb01f	-0.0999453
30	0xbbb258dc	-0.005442722
31	0x3d3e19cf	0.04641133
32	0x3c58e861	0.013238997
33	0x3cbe962f	0.023264972
34	0x3d0ce090	0.034393847
35	0xbdb334a3	-0.08750274
36	0xbd6ffbb4	-0.058589652
37	0xbc21a0fa	-0.00986504
38	0x3cfbca0f	0.030735997
39	0x3cbc2f5a	0.022971798
40	0xbdb99445	-0.09061483
41	0x3d27792d	0.040887047
42	0x3cbf1787	0.023326648
43	0xbccb16c4	-0.024791129
44	0x3cc33003	0.023826605
45	0xbd95c74a	-0.07313402
46	0x3c60a375	0.013710846
47	0xbce92467	-0.02845974
48	0x3cfe6d75	0.031058053
49	0xbd6c016b	-0.05761854
50	0x3da5e496	0.0810024
51	0x3d7c51ba	0.061601378
52	0xbcad3247	-0.021142138
53	0x3dab71ae	0.08371292
54	0xbd180aee	-0.0371198
55	0x3c5c9cec	0.013465147
56	0xbcfc1459	-0.030771421
57	0xbc31dc2c	-0.010855716
58	0xbc9827e2	-0.018573705
59	0xbd4ed4a9	-0.050495777
60	0xbda513d0	-0.080604196
61	0x3c382115	0.011238356
62	0xbd972b77	-0.07381337
63	0xbd100f04	-0.03517057
64	0xbce3c5cf	-0.027804283
65	0xbc89d49d	-0.016825015
66	0x3dabed74	0.083949
67	0x3c94e6a5	0.018176386
68	0x3d14d7da	0.036338665
69	0xbbdc8340	-0.0067295134
70	0x3b525ae1	0.0032097625
71	0xbd3df235	-0.046373565
72	0x3d15f1c3	0.036607515
73	0xbd833875	-0.06407253
74	0xbc2ee432	-0.010674523
75	0x3be9fcf9	0.0071407524
76	0xb9ddcb96	-0.00042304088
77	0x3db79cdf	0.08965468
78	0x3d96e6a3	0.07368209
79	0x3da6af84	0.08138946
80	0x3d3d67b7	0.04624149
81	0xbda5cd2d	-0.08095775
82	0x3d180372	0.03711266
83	0xbc33e602	-0.010980131
84	0xbd9020bf	-0.07037496
85	0x3c342774	0.0109957345
86	0xbd166a26	-0.036722325
87	0x3bdd3f6c	0.0067519452
88	0x3ca88f80	0.020576239
89	0xbcb3c6d4	-0.021945395
90	0xbde79534	-0.11307755
91	0xbdb87405	-0.09006504
92	0x3cee0cc7	0.029058827
93	0x3cda6a08	0.026661888
94	0xbdc9bdfd	-0.098506905
95	0xbd9a0b2f	-0.07521664
96	0x3cb73e36	0.022368532
97	0xbdc7dab3	-0.097585104
98	0x3babb1fd	0.0052397237
99	0x3c929ff1	0.017898532
100	0x3dcadb6c	0.09905133
101	0x3dbec2ba	0.09314485
102	0x3d71d070	0.059036672
103	0x3c00ff58	0.007873379
104	0x3d71d744	0.059043184
105	0xbd60b822	-0.054863103
106	0xbcd064a2	-0.02543861
107	0x3c0d5c2e	0.008627934
108	0xb981ba90	-0.00024743797
109	0x3dd0061e	0.10157417
110	0x3d118e42	0.03553606
111	0x3d67fbd0	0.05663663
112	0x3c891e16	0.016737979
113	0xbc99929d	-0.018746668
114	0x3c89a951	0.01680437
115	0xbd0e8e22	-0.034803517
116	0x3d36e6c0	0.044653654
117	0x3d3dd367	0.046344187
118	0x3da19efb	0.07891651
119	0xbc9d6cf8	-0.019217
120	0x3bdbf778	0.00671285
121	0xbc294230	-0.010330722
122	0xbd8a6f06	-0.06759457
123	0x3c1da9b0	0.009622976
124	0xbd666c9b	-0.056255918
125	0x3c3c4705	0.011491542
126	0xbd72b28e	-0.059252314
127	0xbdb67b43	-0.08910229
128	0xbdb1834a	-0.086676195
129	0x3d02da75	0.031946618
130	0xbcc17f32	-0.023620222
131	0x3d737c58	0.059444755
132	0x3c616c90	0.0137587935
133	0x3c111b93	0.008856672
134	0x3da6e2f7	0.08148759
135	0x3c27c0e3	0.010238859
136	0xbd9f0144	-0.07763913
137	0xbdad31fa	-0.08456798
138	0x3d393d3f	0.045224424
139	0xbd6b847e	-0.0574994
140	0xbd8f6c91	-0.07003129
141	0xbccd0cbf	-0.025030492
142	0x3d89bf46	0.06725936
143	0x3c2f9c46	0.010718411
144	0xbce61763	-0.028087324
145	0x3c2b5f1a	0.010459686
146	0xbdbdd020	-0.09268212
147	0xbd3b4cc9	-0.045727525
148	0xbd145066	-0.036209486
149	0x3cf82247	0.030289782
150	0x3cd33d0c	0.025785945
151	0xbd59965b	-0.053121906
152	0xbd9692e8	-0.07352239
153	0xbd7f55c5	-0.062337656
154	0x3d2eee62	0.04270781
155	0xbd5bfc8a	-0.053707637
156	0xbd391cf0	-0.045193613
157	0x3b694e06	0.0035599484
158	0x3adf458b	0.0017034275
159	0xbd2b1fca	-0.041778363
160	0xbbeb2efd	-0.0071772323
161	0xbd8795aa	-0.06620343
162	0x3d237708	0.03990844
163	0xbd98db5b	-0.07463714
164	0xbd998a99	-0.074971385
165	0xbb3f5730	-0.0029196255
166	0xbc0e9909	-0.008703479
167	0x3c2b4a4e	0.010454727
168	0x3d8b5ab7	0.06804412
169	0x3cd5da48	0.026105061
170	0xbdb5047f	-0.08838748
171	0x3d879b47	0.06621414
172	0x3d228703	0.03967954
173	0x3d2fdc89	0.042934928
174	0xbda3f269	-0.080052204
175	0x3dab178a	0.08354099
176	0x3d853c8c	0.06505689
177	0x3c98645c	0.018602543
178	0xbd3eafc2	-0.046554334
179	0xbd0d4338	-0.034487933
180	0xbcb61f5a	-0.022231746
181	0x3d8d7e24	0.06908825
182	0xbcdc32e6	-0.026879739
183	0x3c636fd5	0.013881643
184	0x3d940287	0.072270446
185	0x3d67a908	0.056557685
186	0xbcf12a49	-0.029439108
187	0xbda2c565	-0.07947806
188	0x3bca7989	0.006179039
189	0x3b5de9ed	0.0033861354
190	0xbda5f6fd	-0.0810375
191	0x3d24bf63	0.040221583
192	0xbcd54517	-0.026033921
193	0x3d3cba4e	0.04607611
194	0x3cbb565d	0.02286833
195	0xbc1f3bcc	-0.0097188465
196	0x3c7be886	0.015375262
197	0xbdbbe4ac	-0.09174475
198	0xbd959558	-0.07303876
199	0xbcf1f403	-0.0295353
200	0x3d99adb1	0.07503832
201	0xbdab5f4f	-0.08367788
202	0xbcf16647	-0.029467715
203	0x3d960cd7	0.07326668
204	0xbc5ddad9	-0.013540947
205	0x3d084825	0.033271927
206	0x3d5b3cca	0.05352477
207	0xb9afe548	-0.0003354943
208	0xbd860e9a	-0.06545754
209	0xbdb57119	-0.08859462
210	0x3cc8f2c2	0.024529818
211	0xbd013e9d	-0.031553853
212	0x3d339a18	0.043848127
213	0xbc4d91da	-0.012546981
214	0x3c383f85	0.011245613
215	0x3d9523b2	0.07282199
216	0xbd8e02ef	-0.06934153
217	0x3d21a3a5	0.039462704
218	0x3c738e74	0.014865506
219	0x3db07a04	0.08617023
220	0xbbc195a2	-0.00590773
221	0x3d8a59db	0.0675542
222	0xbd1a2c2e	-0.03763979
223	0xbc2d9911	-0.010595576
224	0xbdad83d2	-0.08472408
225	0x3dc44113	0.095827244
226	0x3cfb0baf	0.03064522
227	0x3bfcaf2f	0.007711313
228	0x3dbb8c41	0.09157611
229	0xbd913d6b	-0.07091793
230	0xbd9127e3	-0.07087686
231	0x3d0c79cf	0.034295853
232	0x3c46bf58	0.012130581
233	0xbd32a87e	-0.043617718
234	0x3da3e892	0.08003344
235	0x3b7c4bc5	0.003849731
236	0xbcf45b82	-0.02982879
237	0xbd763e66	-0.0601181
238	0xbd52440d	-0.05133443
239	0x3dbfd9a9	0.09367687
240	0xbad66249	-0.0016356196
241	0x3db4a2bc	0.088201016
242	0x3c0d1313	0.008610505
243	0x3c7d46ac	0.015458744
244	0xbd951ac4	-0.07280496
245	0x3c40e7cc	0.011774015
246	0xbd99d2e5	-0.07510928
247	0x3d4bb14a	0.049729623
248	0xbd88a1db	-0.066714965
249	0xbd8839ea	-0.06651671
250	0x3d3e4bb4	0.046458915
251	0x3cf5e174	0.030014731
252	0xbd8bd015	-0.06826798
253	0xbd980230	-0.07422292
254	0xbd99943b	-0.07498976
255	0xbd0411d2	-0.032243557

layer3.0.bias f4 [64]
0	0xbd3f6f5c	-0.04673706
1	0x3bef4127	0.007301468
2	0xbcee202c	-0.029068075
3	0xbc9eb9bb	-0.019375673
4	0x3baea55e	0.005329772
5	0xbba98f4e	-0.005174554
6	0xbcaa2293	-0.02076844
7	0xbdc94893	-0.098282956
8	0xbd6794ee	-0.056538515
9	0xbd7b883e	-0.061409228
10	0x3d99f79e	0.07517932
11	0xbd7075b8	-0.058706015
12	0x3d57fcf1	0.052731458
13	0x3cefb60d	0.029261613
14	0x3c4c19fb	0.012457366
15	0xbd9149ff	-0.07094192
16	0x3c9d8745	0.01922954
17	0xbd4ea326	-0.05044856
18	0xbd022bdb	-0.031780105
19	0xbc92f44c	-0.017938755
20	0xbd379197	-0.04481658
21	0xbd1ee4b8	-0.038792342
22	0x3d87b0ba	0.06625505
23	0x3d61f230	0.05516261
24	0x3d69705c	0.05699192
25	0xbcc1cce2	-0.023657266
26	0x3caaeaf4	0.020863988
27	0x3d124650	0.035711586
28	0xbd88cc44	-0.066795856
29	0x3bdf09bd	0.006806581
30	0xbd81d696	-0.06339757
31	0xbd650d27	-0.055920746
32	0x3ce7cb7b	0.02829527
33	0x3cb38ce5	0.02191777
34	0xbd79d62e	-0.060995273
35	0x3d9ffc24	0.07811764
36	0x3d3b8609	0.045782123
37	0xbcb4e93e	-0.022083875
38	0x3d81c0d6	0.06335609
39	0x3d2ea376	0.042636357
40	0x3d3c8e14	0.046033934
41	0xbd80fb62	-0.062979475
42	0x3d93ab9d	0.07210467
43	0xbd8e7567	-0.069559865
44	0x3b2d27fc	0.0026421538
45	0x3da2fd10	0.07958424
46	0xbd54e441	-0.051975492
47	0xba80e654	-0.0009834268
48	0x3d4d3677	0.05010077
49	0xba820ded	-0.0009922363
50	0x3d422c7d	0.04740571
51	0x3da08c1e	0.07839225
52	0xbd9b1277	-0.07571881
53	0xbd78cc0b	-0.060741466
54	0x3ba80f72	0.0051287943
55	0x3d914292	0.070927754
56	0x3d8d2493	0.068917416
57	0xbc3df082	-0.011592986
58	0x3be10207	0.0068666968
59	0x3d0165f3	0.031591367
60	0xbd365f27	-0.044524338
61	0x3c5f7860	0.0136395395
62	0x3d62bb58	0.055354446
63	0xbd534994	-0.05158384

layer3.1.weight f4 [64]
0	0x3f81a682	1.0128939
1	0x3f806bca	1.0032895
2	0x3f7d29dc	0.98892
3	0x3f835da8	1.0262957
4	0x3f779baf	0.9672193
5	0x3f80a8d5	1.0051523
6	0x3f808d17	1.0043057
7	0x3f7f165e	0.99643505
8	0x3f7a95fd	0.97885114
9	0x3f831549	1.0240871
10	0x3f802f92	1.0014517
11	0x3f78cdb4	0.9718888
12	0x3f8043fb	1.0020746
13	0x3f7b635e	0.981985
14	0x3f80f89b	1.0075868
15	0x3f812419	1.0089141
16	0x3f83bfbf	1.0292891
17	0x3f7a13bf	0.9768638
18	0x3f857ac1	1.0428087
19	0x3f829375	1.020125
20	0x3f792a77	0.9733042
21	0x3f81442b	1.0098928
22	0x3f7c22fe	0.98490894
23	0x3f781f3e	0.9692267
24	0x3f83a3e6	1.0284393
25	0x3f83b94a	1.0290921
26	0x3f824740	1.0177994
27	0x3f82d630	1.0221615
28	0x3f7a2647	0.97714657
29	0x3f7d21e6	0.9887985
30	0x3f7cfa23	0.9881918
31	0x3f80a75d	1.0051075
32	0x3f797b0e	0.9745339
33	0x3f7ba74b	0.98302144
34	0x3f7c7f8d	0.9863213
35	0x3f7dc630	0.99130535
36	0x3f808ad6	1.0042369
37	0x3f7e0dfd	0.99240094
38	0x3f802ce8	1.0013704
39	0x3f80f5fe	1.0075071
40	0x3f7d9650	0.99057484
41	0x3f76beb2	0.9638473
42	0x3f85b194	1.0444818
43	0x3f807312	1.0035117
44	0x3f7b70ac	0.982188
45	0x3f7964a9	0.9741922
46	0x3f8607d4	1.0471139
47	0x3f7b55e6	0.98177946
48	0x3f7eedf1	0.9958182
49	0x3f7ecfdf	0.99535936
50	0x3f800fcc	1.0004821
51	0x3f7fbfaa	0.9990183
52	0x3f7edb44	0.9955332
53	0x3f83252d	1.024572
54	0x3f837b82	1.0272067
55	0x3f7f8893	0.9981777
56	0x3f8233d7	1.017207
57	0x3f815807	1.0104989
58	0x3f7de153	0.9917194
59	0x3f7ab812	0.9793712
60	0x3f8524be	1.0401838
61	0x3f81af1e	1.0131567
62	0x3f82252c	1.0167594
63	0x3f7f3fb8	0.997066

layer3.1.bias f4 [64]
0	0x3a9669d9	0.0011475637
1	0xbc2af1bc	-0.0104336105
2	0xbc54f819	-0.012998604
3	0x3c458692	0.01205601
4	0xbcf3ca58	-0.029759571
5	0xbcc79934	-0.024365045
6	0xbcdc1691	-0.02686623
7	0xbd20ff90	-0.039306223
8	0xbca80955	-0.020512262
9	0xbb9dbdd2	-0.004813888
10	0xbcc25e96	-0.023726743
11	0xbc908580	-0.017641783
12	0xbc85b1e1	-0.01632017
13	0xbc8ac569	-0.016939836
14	0xbbbe5222	-0.005808131
15	0xbc30944e	-0.010777546
16	0xbb0166c2	-0.0019745086
17	0xbb33fe10	-0.0027464665
18	0x3b288b24	0.00257177
19	0xbbfc9d04	-0.0077091474
20	0xbcbcdabf	-0.023053525
21	0x3b6ae016	0.0035839132
22	0xbd1b7e55	-0.037962276
23	0xbcab8b6e	-0.020940509
24	0xbbcf7039	-0.0063305167
25	0x3c17b18e	0.009258641
26	0x3bd01219	0.0063498137
27	0x3b0f91c7	0.0021906958
28	0xbc31283a	-0.010812813
29	0xbd07dc4a	-0.03316907
30	0xbc8b6a57	-0.01701848
31	0xbd054477	-0.032535996
32	0xbd17fd0e	-0.037106566
33	0xbcecdc7d	-0.02891373
34	0xbc253503	-0.01008344
35	0x3b816d92	0.0039498294
36	0xbcbb9ea1	-0.022902789
37	0xbc152f1e	-0.009105472
38	0xbb34254a	-0.0027488046
39	0xbc099d94	-0.008399386
40	0xbcda14a8	-0.026621178
41	0xbcc1840e	-0.023622539
42	0x3c63f927	0.013914383
43	0xbc9a1847	-0.018810404
44	0xbc747755	-0.014921029
45	0xbc8877f8	-0.016658768
46	0x3ceb874f	0.028751044
47	0xbcd7c52c	-0.026339136
48	0xbc95d6c4	-0.018290885
49	0xbc764b64	-0.015032623
50	0xbc4ddf35	-0.012565424
51	0xbbd4c2f8	-0.0064929686
52	0xbc5a8d99	-0.013339424
53	0xbbccfd00	-0.006255746
54	0xbc60041c	-0.013672855
55	0xbb006aad	-0.0019594834
56	0xbb8d98fd	-0.004321216
57	0x3bd85f5e	0.0066031655
58	0xbc73b3ff	-0.014874457
59	0xbc50e1c3	-0.012749138
60	0xbb8ca730	-0.0042923912
61	0xbc6ecf77	-0.014575831
62	0x3bf5444c	0.0074849483
63	0xbc87f81f	-0.016597806

layer4.0.weight f4 [64, 64, 3, 3]
0	0xbcc06155	-0.023483912
1	0x3ca17cdd	0.01971286
2	0x3c366897	0.011133335
3	0xbcd1955d	-0.025583917
4	0xbd4ad273	-0.049517106
5	0xbd523ee2	-0.0513295
6	0xbd511b2f	-0.051051315
7	0xbdadf529	-0.08494026
8	0xbd1d207c	-0.038361058
9	0x3c24f06c	0.010067087
10	0x3cfd3553	0.030909216
11	0x3ce42252	0.027848396
12	0x3cccb092	0.024986539
13	0xbab63aab	-0.0013902982
14	0xbc098c28	-0.008395232
15	0xb9b86447	-0.00035169927
16	0x3ce44fa7	0.027870012
17	0x3ce21277	0.027596695
18	0xbcec13d4	-0.028818049
19	0xbb347fac	-0.0027541919
20	0xbc6c9c84	-0.014441613
21	0xbc32ded3	-0.010917383
22	0x3d377524	0.04478945
23	0x3be6dc52	0.007045307
24	0x3d7c4856	0.061592422
25	0x3c5621ef	0.013069614
26	0xbc28eab6	-0.010309866
27	0xbd06410b	-0.032776874
28	0xbc7d2be9	-0.0154523635
29	0x3bedc749	0.0072564227
30	0xbcf33f9c	-0.029693417
31	0x3b8f18ed	0.004366985
32	0xbb19edd4	-0.0023487704
33	0xbbcebed7	-0.006309371
34	0xbd0a1095	-0.03370722
35	0xbc831a74	-0.016003825
36	0xbb1614c3	-0.0022900559
37	0x3c92fe05	0.017943392
38	0x3c6cc928	0.014452256
39	0x3cd76386	0.026292574
40	0x3c49b814	0.012311954
41	0xbd1a7613	-0.03771026
42	0x3cf88b7c	0.030339949
43	0xbd1a7bbb	-0.037715655
44	0x3d0b0ffe	0.0339508
45	0xbc96f7c5	-0.018428693
46	0xbc19e067	-0.009391881
47	0x3cf251c5	0.029580006
48	0xbccda86c	-0.025104724
49	0xbd5b4950	-0.053536713
50	0xbc87467d	-0.016513104
51	0x3a3b8d76	0.0007154563
52	0xbcb67533	-0.022272682
53	0xbd60daa3	-0.05489601
54	0x3bf31693	0.0074184625
55	0xbd3a9ddd	-0.045560706
56	0xbd2ef82c	-0.042717144
57	0xbc5183c3	-0.012787762
58	0x3bb5e94a	0.005551492
59	0xbc29e0aa	-0.0103685055
60	0x3d4f2358	0.050570816
61	0x3cb169b9	0.021656858
62	0x3d71b62a	0.059011616
63	0xbc29f555	-0.010373433
64	0x3d0b066d	0.033941675
65	0xbcfdf12e	-0.030998792
66	0xbc716e80	-0.014735818
67	0xbd10df0a	-0.035368957
68	0x3c9f90a2	0.019478146
69	0x3ca37b8c	0.019956373
70	0x3c78756a	0.015164712
71	0xbc23cca9	-0.009997525
72	0x3cb326d8	0.021869108
73	0xbc50d6db	-0.012746538
74	0x3cbd1e1d	0.023085648
75	0x3d6dd68c	0.058065936
76	0xbc6bedb3	-0.014399934
77	0xbd221dcb	-0.039579194
78	0x3d3c8ec5	0.046034593
79	0xb98c2508	-0.0002673047
80	0x3bcd26b3	0.006260717
81	0x3bf213f7	0.007387634
82	0x3a02d792	0.0004991229
83	0x3beda5fe	0.007252454
84	0xbc2181cb	-0.009857605
85	0x3d0ec5b0	0.0348565
86	0xbc59c9f0	-0.013292775
87	0x3d36a21c	0.044588193
88	0x3ba0a80d	0.0049028457
89	0x3c1c0172	0.009521829
90	0xbc50949a	-0.012730742
91	0xbd45012b	-0.048096817
92	0xb9ff07ee	-0.00048643298
93	0x3cc412cb	0.023934742
94	0xbd465e0b	-0.04842953
95	0xbaede085	-0.0018148577
96	0x3c0b8062	0.008514496
97	0x3d0dc020	0.034607053
98	0xbb76fe70	-0.0037688278
99	0x3d297946	0.04137542
100	0x3c8dc7f8	0.017307267
101	0x3d42bb25	0.047541756
102	0x3d0aba25	0.033868928
103	0x3d5f6014	0.054534987
104	0x3c3d8266	0.011566734
105	0xbc02638f	-0.007958307
106	0xbc979d56	-0.01850764
107	0xbb962401	-0.0045819287
108	0x3d055698	0.032553285
109	0xbd1993d5	-0.0374945
110	0xbca8dd9a	-0.02061348
111	0xbcd3d992	-0.025860582
112	0xbbb21637	-0.005434777
113	0xbc2a14ae	-0.010380907
114	0x3d15a8b2	0.036537834
115	0xbbe91e33	-0.0071141957
116	0x3d37e492	0.044895716
117	0x3b8ef8d0	0.004363157
118	0x395b27ac	0.00020900246
119	0xbcfdcc54	-0.03098122
120	0xbc8cc52f	-0.017183868
121	0x3d50d3fc	0.050983414
122	0xbb8a1a6d	-0.004214576
123	0xbce056b1	-0.027385088
124	0x3c964bc8	0.018346682
125	0xbc45fa39	-0.0120835835
126	0xbc8758b9	-0.016521798
127	0xbcde42bc	-0.02713143
128	0x3d3cf709	0.04613403
129	0xbd2843bb	-0.041080218
130	0x3d3bcb03	0.045847904
131	0x3c543c19	0.0129537815
132	0x3d186e6e	0.03721469
133	0x3ce6e921	0.028187336
134	0x39ca5c93	0.00038597416
135	0xbd15d82e	-0.03658312
136	0x3c870fc6	0.016487014
137	0x3d464979	0.048409913
138	0xb82e1d39	-4.151205e-05
139	0x3d08baab	0.033381145
140	0x3b967447	0.004591498
141	0xbd31ae9c	-0.04337941
142	0xbd6feead	-0.05857723
143	0x3cfe8fef	0.031074492
144	0xbd80d805	-0.062912025
145	0x3c2f16d0	0.010686591
146	0xbbdb52ea	-0.0066932337
147	0xbd20c047	-0.03924587
148	0xbd0b2175	-0.033967454
149	0xbbaa5842	-0.0051985094
150	0xbc8a15b7	-0.016856058
151	0x3d1b9af8	0.037989587
152	0xbc5aaabd	-0.013346371
153	0x3ce24861	0.027622404
154	0xbca90a64	-0.020634837
155	0x3c04746b	0.008084397
156	0xbcb4de05	-0.022078523
157	0x3a9f89d2	0.0012171811
158	0xbce4bdd7	-0.027922554
159	0x3d22d41a	0.039753057
160	0xbcbf3147	-0.023338927
161	0xbc3949bf	-0.011309086
162	0xbbe266d4	-0.0069092307
163	0x3c547c52	0.012969093
164	0x3c862fed	0.016380275
165	0xbc046051	-0.008079604
166	0xbd7b29a2	-0.061319
167	0xba631b02	-0.0008663387
168	0xbd36a64e	-0.044592194
169	0xbd809feb	-0.06280502
170	0xbd435d09	-0.047696147
171	0xbcba55ea	-0.022746045
172	0xbd2743d7	-0.04083618
173	0xbce5701e	-0.028007563
174	0xbda6ca3c	-0.08144042
175	0xbd9a4343	-0.075323604
176	0xbd79f09b	-0.061020475
177	0xbd222879	-0.03958938
178	0xbc0749b8	-0.008257322
179	0xbd0eedc8	-0.034894735
180	0x3c7f0e71	0.015567408
181	0x3d8cf3d5	0.06882445
182	0x3d2cb252	0.042162247
183	0x3d0d1108	0.03444007
184	0xbbd3183f	-0.0064420993
185	0x3cc96bfd	0.024587626
186	0xbcc7c01f	-0.024383603
187	0xbb5ec3f1	-0.0033991302
188	0x3d39723c	0.045274958
189	0xba8b7fe3	-0.0010642972
190	0xbca72d41	-0.020407321
191	0xbc87926b	-0.01654931
192	0xbbf766da	-0.0075501027
193	0x3c84c38d	0.016206527
194	0x3b1a89ed	0.0023580745
195	0xbb51192e	-0.0031905877
196	0xbd202a6b	-0.039102953
197	0xbbbd8d81	-0.005784691
198	0xba69c499	-0.000891754
199	0x3d77ee64	0.06053008
200	0xbd152f16	-0.036421858
201	0xbcd68ddb	-0.026190689
202	0x3cade63a	0.021227945
203	0x3cf75df6	0.030196171
204	0x3bfb4d72	0.0076691443
205	0x3d8c5f6e	0.06854139
206	0xbc3c5e45	-0.011497085
207	0x3c66de94	0.014091153
208	0x3c2bf25f	0.0104947975
209	0xbd085e93	-0.033293318
210	0xbd28a76c	-0.04117529
211	0x3d33c14a	0.043885507
212	0x3d484463	0.048893344
213	0x3ca18b62	0.019719783
214	0x3d1dc1de	0.038514964
215	0x3d399afa	0.045313813
216	0xbc9d76a2	-0.019221608
217	0xbd1778b6	-0.036980353
218	0x3cdefcea	0.027220208
219	0x3cb1885f	0.021671472
220	0xbc0c37e2	-0.008558245
221	0xbd03c514	-0.03217037
222	0xbd764f80	-0.06013441
223	0x3c901014	0.017585792
224	0xbcf9319f	-0.030419169
225	0xbbe247bc	-0.006905524
226	0xbd3cef65	-0.046126742
227	0xbcd11c34	-0.025526144
228	0x39ca6238	0.0003860162
229	0xbb2953ab	-0.0025837224
230	0xb962fba3	-0.00021646782
231	0x3cb0679b	0.021533778
232	0x3cd15ff0	0.025558442
233	0x3c8dfc30	0.017332166
234	0x3cc8675f	0.024463354
235	0xbd107329	-0.035266075
236	0xbd131c0d	-0.035915423
237	0xbd12311b	-0.035691362
238	0xbbcf92e8	-0.0063346513
239	0x3b98daa4	0.004664736
240	0xbc869e3f	-0.01643288
241	0xbc3d4bea	-0.011553744
242	0x3c257d10	0.010100618
243	0xbcda6b5f	-0.026662527
244	0x3cd36c92	0.025808606
245	0x3c88438c	0.016633771
246	0xbd82e48e	-0.063912496
247	0xbd83df31	-0.06439055
248	0xbd65610a	-0.056000747
249	0x3c3342a8	0.010941185
250	0xbd193513	-0.03740413
251	0xbcac3f7b	-0.021026364
252	0xbbc2bff9	-0.005943295
253	0x3cb45c5e	0.0220167
254	0x3c2dd127	0.010608948
255	0x3b09b8b0	0.0021014623

layer4.0.bias f4 [64]
0	0x3bff8a7e	0.007798492
1	0x3d1adfbf	0.037811037
2	0xbcdae4c4	-0.026720412
3	0xbcd57fea	-0.02606197
4	0xbcf301ec	-0.029664002
5	0xbb7b61c2	-0.0038357829
6	0x3c4a9165	0.012363766
7	0xbd17c708	-0.037055045
8	0xbd1c8b2d	-0.038218666
9	0x3c5f430c	0.013626825
10	0x3d19ef21	0.037581567
11	0x3ce4a434	0.02791033
12	0xbb464dfe	-0.003025889
13	0xbc52139c	-0.012822058
14	0xbc1621c3	-0.009163323
15	0x3caccb59	0.021093057
16	0x3c20f845	0.009824817
17	0xbd12efa5	-0.035873074
18	0x3ca6da11	0.020367654
19	0x3ca9d743	0.020732528
20	0x3bdaf22f	0.0066817026
21	0x3c01f2d0	0.007931426
22	0xbbea4629	-0.007149477
23	0x3c96f6a0	0.018428147
24	0x3cbf2f0b	0.023337862
25	0x3cd33a11	0.025784524
26	0xbcb3efd0	-0.021964937
27	0xbd27c8d2	-0.040963
28	0x3c3e4ee0	0.011615485
29	0xbc896770	-0.016772956
30	0x3d2d313a	0.042283274
31	0xbc096243	-0.008385244
32	0x3bb96afc	0.0056585055
33	0xbd23d1c6	-0.039994977
34	0x3d2c9761	0.042136554
35	0xbd028036	-0.031860553
36	0xbc1a9b39	-0.009436422
37	0xbc46f946	-0.012144392
38	0xbccde95d	-0.02513569
39	0x3c9b1044	0.018928654
40	0x3c53626c	0.012901884
41	0x3d10e78d	0.035377074
42	0xbcef50fc	-0.029213421
43	0x3cb1b53f	0.02169287
44	0xbcea77f3	-0.02862165
45	0xbd6a2ca8	-0.057171494
46	0x3d4df8a3	0.050285947
47	0xbd2e569c	-0.042563066
48	0x3c8d9e48	0.017287388
49	0x3d2b6d2a	0.041852154
50	0xbcaca0eb	-0.021072825
51	0xbd426e29	-0.04746834
52	0x3ce03605	0.027369509
53	0x3d070b37	0.03296968
54	0x3d053397	0.032519903
55	0x3cbef75f	0.023311315
56	0xbd25a109	-0.04043678
57	0xba69fac5	-0.0008925612
58	0xbc06f354	-0.008236725
59	0x3cbc8dc4	0.023016818
60	0xbd309095	-0.043106634
61	0x3bcac89b	0.006188465
62	0xbcfeb18a	-0.031090517
63	0xbd03b99a	-0.032159425

layer4.1.weight f4 [64]
0	0x3f809bd3	1.0047554
1	0x3f7e7ca4	0.99408937
2	0x3f800353	1.0001014
3	0x3f820687	1.0158242
4	0x3f7ebd17	0.9950728
5	0x3f80de47	1.0067834
6	0x3f7f6267	0.99759525
7	0x3f805e9c	1.0028872
8	0x3f7c6447	0.9859051
9	0x3f80abf3	1.0052475
10	0x3f82556f	1.0182322
11	0x3f84d5ef	1.0377787
12	0x3f77c528	0.9678521
13	0x3f7b04b0	0.9805403
14	0x3f794ef3	0.9738609
15	0x3f7b746f	0.9822454
16	0x3f80e0f0	1.0068645
17	0x3f7c2692	0.98496354
18	0x3f80f1bc	1.0073771
19	0x3f7b51a2	0.98171437
20	0x3f77aa3f	0.9674415
21	0x3f802a1c	1.0012851
22	0x3f799fb8	0.97509336
23	0x3f819023	1.0122112
24	0x3f805541	1.0026017
25	0x3f8061b8	1.0029821
26	0x3f71c0e5	0.9443496
27	0x3f7d592f	0.9896421
28	0x3f8151bc	1.0103068
29	0x3f7bd9b7	0.9837908
30	0x3f83e7f9	1.0305167
31	0x3f813f21	1.009739
32	0x3f79fd77	0.9765238
33	0x3f7e69ab	0.99379987
34	0x3f7b62a8	0.9819741
35	0x3f818b6e	1.0120676
36	0x3f838039	1.0273505
37	0x3f7de054	0.9917042
38	0x3f81791c	1.0115085
39	0x3f7de903	0.9918367
40	0x3f81bbf9	1.013549
41	0x3f79145c	0.9729669
42	0x3f79677a	0.9742352
43	0x3f7404dc	0.95319915
44	0x3f81c68e	1.0138719
45	0x3f76c2e3	0.96391124
46	0x3f80902f	1.0044001
47	0x3f81f80c	1.0153823
48	0x3f7c8695	0.98642856
49	0x3f863fa7	1.0488175
50	0x3f824553	1.0177406
51	0x3f7569f2	0.95864785
52	0x3f810304	1.0079045
53	0x3f81b448	1.0133142
54	0x3f84da91	1.0379201
55	0x3f821b33	1.016455
56	0x3f7cd70f	0.98765653
57	0x3f7de85d	0.99182683
58	0x3f82cf51	1.0219518
59	0x3f744bed	0.95428354
60	0x3f7ec025	0.9951194
61	0x3f822fdd	1.0170857
62	0x3f78e65d	0.97226506
63	0x3f7f26cd	0.9966858

layer4.1.bias f4 [64]
0	0xbc0f57cc	-0.00874896
1	0xbc51a416	-0.012795469
2	0xbc641c8a	-0.01392282
3	0xbc41f974	-0.011839259
4	0xbc10d960	-0.008840889
5	0xbc0297da	-0.007970775
6	0xbc6c952e	-0.014439864
7	0xbc22ce5d	-0.009936896
8	0xbcc6a999	-0.024250792
9	0xbadf6055	-0.0017042259
10	0xba3d480a	-0.00072205125
11	0x3b47080e	0.0030369791
12	0xbd1f4d5b	-0.03889213
13	0xbcbbd265	-0.022927472
14	0xbcad2904	-0.021137722
15	0xbd0c7654	-0.034292534
16	0x3b3e3242	0.0029021655
17	0xbcd57b5d	-0.0260598
18	0xbb473007	-0.0030393617
19	0xbc431448	-0.011906691
20	0xbcba958e	-0.022776391
21	0xbc4fb0c5	-0.0126764225
22	0xbca46ad8	-0.020070478
23	0xbb1a6354	-0.002355774
24	0xbc011c75	-0.00788032
25	0xbc14dfcd	-0.009086561
26	0xbcaeac99	-0.021322535
27	0xbc6cf115	-0.014461775
28	0xbb3abe63	-0.0028494827
29	0xbc66578a	-0.014058957
30	0x3bfe6d70	0.007764511
31	0xbc29c4be	-0.010361848
32	0xbc8d66e0	-0.017260969
33	0xbcf173e8	-0.029474214
34	0xbcb112ba	-0.021615375
35	0xbbf39e13	-0.0074346154
36	0xbba1c556	-0.0049368544
37	0xbcaead18	-0.021322772
38	0xbc6d715c	-0.014492359
39	0xbc84c2bc	-0.016206138
40	0xbca09cba	-0.019605983
41	0xbccd60b3	-0.025070524
42	0xbc8671b8	-0.016411647
43	0xbcd41c5e	-0.025892433
44	0xb9e860e3	-0.00044322675
45	0xbc99afc2	-0.018760566
46	0xbb9263cc	-0.004467463
47	0xbc71bbbf	-0.014754235
48	0xbc144cbb	-0.009051497
49	0x3bf12739	0.007359412
50	0xbc9da2e5	-0.019242713
51	0xbd54bd9a	-0.05193863
52	0xbbaa1940	-0.0051909983
53	0xbb246146	-0.0025082394
54	0x3bd6c9c3	0.0065548136
55	0xba947b50	-0.0011328254
56	0xbc934758	-0.017978355
57	0xbc9d8a03	-0.019230848
58	0xbb9aa055	-0.00471882
59	0xbcbfec19	-0.02342801
60	0xbcae21f2	-0.02125642
61	0xbb215631	-0.0024618024
62	0xbcc9b577	-0.024622662
63	0xbc12fde2	-0.008971663

layer5.0.weight f4 [64, 64, 3, 3]
0	0x3b8ba5db	0.004261715
1	0x3c7c530a	0.015400657
2	0xbb081b6c	-0.0020768298
3	0x3c1f3aa3	0.00971857
4	0x3c2fb52b	0.010724346
5	0x3cdf817d	0.027283425
6	0xbb883b93	-0.0041574924
7	0x3c8b4872	0.017002318
8	0x3bb5b27a	0.0055449577
9	0xbd36ef91	-0.044662062
10	0x3c5cfe0f	0.013488307
11	0xbd292325	-0.041293282
12	0x3cfb93fc	0.030710213
13	0xbcf7d668	-0.030253604
14	0xbcb61010	-0.022224456
15	0x3c3648dd	0.01112577
16	0x3c1d6641	0.009606899
17	0x3b4e7804	0.003150464
18	0xbcf211e6	-0.02954955
19	0xbd208a3b	-0.039194327
20	0x3cafd26d	0.021462644
21	0x3bc3c73f	0.0059746797
22	0x39b9872b	0.00035386658
23	0x3d0dae0f	0.034589823
24	0x3d3a8f1a	0.04554663
25	0x3d138b37	0.036021437
26	0x3ce2d7c1	0.02769077
27	0xbc4d455c	-0.012528744
28	0xbd667523	-0.056264054
29	0xbc328389	-0.010895618
30	0x3c57283f	0.013132154
31	0x3c2db048	0.010601111
32	0xbc7cb4c4	-0.015423957
33	0xbd44a527	-0.048009064
34	0xbd403895	-0.04692896
35	0xbd49c79a	-0.04926262
36	0xbc62f64b	-0.013852666
37	0x3d074bac	0.03303115
38	0xbcee59f1	-0.029095622
39	0xbc895630	-0.01676473
40	0xbc1ced76	-0.0095780995
41	0x3d0bf361	0.03416765
42	0x3b79c74b	0.0038113173
43	0xba77a67b	-0.000944711
44	0xbd1f2b3c	-0.03885959
45	0xbbf2483b	-0.0073938644
46	0x3c0600cc	0.008178901
47	0x3d01767f	0.031607147
48	0x38bfb393	9.141038e-05
49	0x3d6eead2	0.05832941
50	0x3d41d88d	0.04732566
51	0xbabf4dd1	-0.0014595335
52	0x3d214449	0.039371762
53	0xbbda5d57	-0.006663959
54	0x3c9427db	0.01808541
55	0xbd34572b	-0.044028442
56	0x3c2b88ad	0.010469598
57	0x3d3bfd00	0.045895576
58	0x3d87c080	0.06628513
59	0x3cc81d5e	0.024428066
60	0x3d5c41ce	0.053773694
61	0xbbb2b122	-0.005453245
62	0x3bd82392	0.006596037
63	0xbd7c91d6	-0.061662517
64	0xbd78d6d0	-0.060751736
65	0x3c9b64db	0.01896899
66	0x3cc4655d	0.023974115
67	0xbd195d4c	-0.03744249
68	0xbc1e161b	-0.009648825
69	0x3cfc90f5	0.03083084
70	0xbc568dc7	-0.013095326
71	0xbb4fc5bc	-0.0031703552
72	0x3c10aebc	0.008830722
73	0xbd12b767	-0.035819437
74	0xbc988a37	-0.018620593
75	0x3c333a3a	0.010939175
76	0x3d01ac00	0.031658173
77	0xbcbd0782	-0.023074869
78	0xbc41080a	-0.011781702
79	0xbccf448d	-0.025301242
80	0xbc195c74	-0.009360421
81	0x3cc9ff7f	0.024657963
82	0xbcb15ddf	-0.021651207
83	0x3d4a5767	0.04939976
84	0xbd0f44df	-0.03497779
85	0x3d3e81b5	0.046510417
86	0x3cbb04c6	0.022829425
87	0xbd5cf434	-0.053943828
88	0x3cb625a3	0.022234743
89	0x3d15de6d	0.036589075
90	0xbd54478d	-0.05182605
91	0x3c3f70bd	0.011684594
92	0xbc5fea37	-0.013666681
93	0x3d1a46db	0.03766523
94	0xbc2165a5	-0.009850894
95	0xbbcde6e0	-0.006283626
96	0x3d0e1723	0.034690034
97	0x3d8bd951	0.06828559
98	0x3c702df6	0.014659395
99	0xbc4ced1c	-0.012507703
100	0xbc90cf40	-0.01767695
101	0xbcfe02ad	-0.031007135
102	0xbc11e047	-0.00890357
103	0x3cb9c9f8	0.022679314
104	0x3d21da4a	0.039514817
105	0x3c292e14	0.010325927
106	0xbb2e6b04	-0.002661408
107	0x3c34e5cd	0.011041117
108	0xbd60ca1b	-0.054880243
109	0xbc5c207e	-0.013435481
110	0xbc3ebe5b	-0.011642064
111	0xbc44eb44	-0.012018982
112	0x3c309469	0.010777571
113	0x3c151f60	0.009101719
114	0x3c46c812	0.012132661
115	0xbd388dec	-0.045057222
116	0xbca5f66f	-0.02025911
117	0xbd8702a9	-0.06592304
118	0x3c1b7506	0.00948835
119	0xbc91bbdd	-0.017789776
120	0xbcd1ba5b	-0.025601557
121	0x3cddd039	0.027076827
122	0xbbc8183b	-0.006106404
123	0x3adac83d	0.0016691756
124	0xbb51d219	-0.0032016097
125	0x3c661fe6	0.014045691
126	0xbd69f2fe	-0.0571165
127	0xbd3dd464	-0.04634513
128	0xbc89b75f	-0.016811071
129	0x3cdd7891	0.02703503
130	0xbd19819b	-0.037477117
131	0x3d19e4f8	0.037571877
132	0x3cf8e9c0	0.030384898
133	0xbcaf8c5d	-0.021429235
134	0x3d3a7c5c	0.045528755
135	0x3c5a45af	0.013322278
136	0xbc240b52	-0.010012465
137	0xbbc2b2a5	-0.0059417062
138	0x3bc26246	0.0059321253
139	0xbc490afa	-0.012270683
140	0xb95612e2	-0.00020415665
141	0x3d282672	0.04105229
142	0x3c6d2f2e	0.014476581
143	0x3c8c0ccf	0.017095951
144	0x3bfa0dcf	0.0076310406
145	0xbd46bcc3	-0.04851986
146	0xbc08a56c	-0.008340221
147	0xbca3d93e	-0.02000105
148	0xbb1d8b64	-0.0024039382
149	0x3b95e0b4	0.004573906
150	0xbc745707	-0.014913327
151	0xbc78e553	-0.015191394
152	0x3ce77ae9	0.02825685
153	0xbd3c90e0	-0.0460366
154	0x3c8c4c7f	0.01712632
155	0x3c79a6a6	0.015237486
156	0xbcb1b3fc	-0.021692269
157	0x3cc86068	0.024460033
158	0xbd5a33c4	-0.053272024
159	0x3c5ebe23	0.013595137
160	0xbcd84520	-0.026400149
161	0x3ca7202d	0.020401085
162	0xbd2dc40f	-0.042423304
163	0xbd4c817e	-0.04992818
164	0xbc64a641	-0.013955654
165	0xbc1a2d73	-0.00941025
166	0x3c1f5f43	0.009727302
167	0xbc83d1d6	-0.016091269
168	0x3c9f7ff7	0.019470198
169	0x3c169ef5	0.009193172
170	0xbd617cba	-0.05505059
171	0xbc822035	-0.015884498
172	0x3c8a1443	0.016855365
173	0x3c1adc96	0.009452006
174	0xbd2fa222	-0.04287923
175	0xbc8f4571	-0.017489167
176	0xbd1c371e	-0.0381385
177	0x3cd385ac	0.025820576
178	0xbd305121	-0.04304612
179	0xbcef3c17	-0.029203458
180	0xbd1656f8	-0.036704034
181	0xbaa095ba	-0.0012251653
182	0x3c9abdbe	0.018889304
183	0x3d29d165	0.04145946
184	0x3cf0dcd8	0.029402182
185	0x3c767602	0.015042784
186	0xbbaa251f	-0.0051924135
187	0xbc250c62	-0.010073753
188	0xbcd40d35	-0.025885204
189	0xbd57d814	-0.052696303
190	0xbd287ad9	-0.04113278
191	0xbd2211bd	-0.039567698
192	0x3bda1b8b	0.0066561154
193	0x3c7c5118	0.015400194
194	0x3bf040a4	0.0073319245
195	0x3c7862e5	0.015160297
196	0xbb8f05c8	-0.004364703
197	0x3d467989	0.04845575
198	0x3c5773b9	0.013150149
199	0x3c8f5a4e	0.017499115
200	0xbccc2a8b	-0.02492263
201	0x3ad751a2	0.0016427527
202	0x3c2fb2cd	0.010723782
203	0x3b8cc0f6	0.0042954637
204	0x3ce183fa	0.027528752
205	0xbc73617e	-0.014854787
206	0xbce9d277	-0.02854274
207	0xbcd7e8b5	-0.02635608
208	0xbcde9074	-0.02716849
209	0x3c7e2912	0.015512722
210	0xbc8618e2	-0.016369287
211	0xbd4ccdad	-0.050000835
212	0xbcd31eb7	-0.025771482
213	0x3ccac2dc	0.02475112
214	0xbc3757d3	-0.0111903725
215	0xbd114063	-0.035461795
216	0x3d16d760	0.03682649
217	0xbce803e0	-0.02832216
218	0xbd8b01d6	-0.067874596
219	0x3b8b1f55	0.0042456784
220	0xbb8b93b0	-0.004259549
221	0xbca1b6db	-0.019740513
222	0xbb8c991d	-0.0042907135
223	0xbc173a67	-0.009230233
224	0xbc827774	-0.0159261
225	0xbc77235e	-0.015084116
226	0x3c9e4b58	0.019323036
227	0x3ca4bf69	0.020110803
228	0x3bef9fc7	0.007312748
229	0xbd225af7	-0.039637532
230	0x3c80d935	0.015728572
231	0xbca29e23	-0.019850796
232	0xbce33e9b	-0.027739814
233	0xbca315b0	-0.019907802
234	0xbd1e3cf8	-0.038632363
235	0xbca24be5	-0.01981158
236	0xbd15e284	-0.036592975
237	0xbc65d60d	-0.014028084
238	0xbd48b61b	-0.049001794
239	0x3c3320fb	0.010933156
240	0xbd4d6683	-0.05014659
241	0xbd5b5b64	-0.053553954
242	0xbd431671	-0.047628824
243	0xbd2142d2	-0.039370365
244	0xbbc8ed20	-0.006131783
245	0x3c468767	0.012117243
246	0xbbd88a75	-0.0066083022
247	0xbd10774f	-0.03527003
248	0xbd5508bd	-0.052010287
249	0xbd067da6	-0.03283467
250	0xbcc6b19d	-0.024254614
251	0xbd180ca4	-0.03712143
252	0x3cc047fb	0.023471823
253	0x3c8d6b55	0.017263094
254	0xbd3ea743	-0.046546232
255	0xbc86a713	-0.01643709

layer5.0.bias f4 [64]
0	0xbcce6f73	-0.025199628
1	0xbc744c49	-0.014910766
2	0x3b1ac36d	0.0023615018
3	0xbd289e56	-0.041166626
4	0x3c94297f	0.018086193
5	0xbbfbeda7	-0.0076882425
6	0xb9233715	-0.00015565411
7	0x3c01be88	0.007918961
8	0x3c3c5051	0.011493758
9	0x3d3c5e19	0.045988176
10	0xbd085259	-0.033281658
11	0x3cb9a954	0.02266375
12	0xbc20969c	-0.009801533
13	0x3d582939	0.052773688
14	0x3c8f6978	0.017506346
15	0x3cf45b97	0.02982883
16	0x3cff4d80	0.031164885
17	0xbd16931a	-0.03676138
18	0xbd439b76	-0.04775568
19	0xbcecc117	-0.028900666
20	0xbd2fe3ae	-0.04294174
21	0x3ca77e7d	0.020446057
22	0x3d01f907	0.03173163
23	0x3c3dba66	0.011580085
24	0x3ce13cf0	0.027494878
25	0x3d3cf32c	0.046130344
26	0xbaec4dd6	-0.0018028568
27	0x3c50b15a	0.012737596
28	0xbc2076af	-0.009793921
29	0xbce2a48a	-0.027666349
30	0xbd4c9832	-0.049949832
31	0x3a2d5d32	0.00066133135
32	0xbc584a1d	-0.013201264
33	0x3d259b92	0.040431567
34	0xbb87593d	-0.004130511
35	0xbd214e46	-0.039381288
36	0xbc146cf8	-0.009059183
37	0xbca8e676	-0.020617705
38	0x3d34eace	0.04416924
39	0x3be490df	0.006975278
40	0xbb4931a2	-0.003069975
41	0x3a2e98cc	0.0006660342
42	0x3b3a123a	0.0028392212
43	0xbc332fa4	-0.010936651
44	0xbc38e15d	-0.0112842
45	0xbc113da9	-0.008864799
46	0x3c50fb69	0.012755253
47	0xbcde3018	-0.027122542
48	0xbcaeafd2	-0.021324072
49	0x3cbcf62c	0.023066603
50	0x3d3fceec	0.046828195
51	0x3d0aa9fe	0.033853523
52	0x3bc06fde	0.0058727106
53	0x3c9c93ba	0.01911341
54	0x3bec72f2	0.007215851
55	0x3c82e322	0.015977446
56	0x3d05962d	0.032613922
57	0xbcbd2a5c	-0.023091488
58	0xbd08b8c6	-0.03337934
59	0x3cec47b0	0.028842777
60	0xbcdca173	-0.026932454
61	0x3cc21bdd	0.023694927
62	0x3cabe9ee	0.02098557
63	0x3cef3e71	0.02920458

layer5.1.weight f4 [64]
0	0x3f825280	1.0181427
1	0x3f802de9	1.0014011
2	0x3f812505	1.0089422
3	0x3f841941	1.0320207
4	0x3f854557	1.0411786
5	0x3f806e26	1.0033615
6	0x3f80298e	1.0012681
7	0x3f7b0895	0.9805997
8	0x3f7f8a0e	0.9982003
9	0x3f82e120	1.0224953
10	0x3f823e0a	1.0175183
11	0x3f80ced6	1.0063121
12	0x3f841357	1.0318402
13	0x3f7f0551	0.9961749
14	0x3f7e495a	0.99330676
15	0x3f7bb0b9	0.9831653
16	0x3f8018ca	1.0007565
17	0x3f7ea896	0.9947599
18	0x3f7c0299	0.98441464
19	0x3f7e474c	0.9932754
20	0x3f821583	1.0162815
21	0x3f80a452	1.0050147
22	0x3f84d0e7	1.0376252
23	0x3f80b370	1.005476
24	0x3f801725	1.0007063
25	0x3f81008a	1.007829
26	0x3f8361fd	1.0264279
27	0x3f7eb4b8	0.99494505
28	0x3f85821d	1.0430332
29	0x3f80d135	1.0063845
30	0x3f80fde3	1.007748
31	0x3f7bfb92	0.9843074
32	0x3f85a438	1.044074
33	0x3f7f78a9	0.9979349
34	0x3f79bdc0	0.9755516
35	0x3f766dd7	0.9626135
36	0x3f822f3f	1.0170668
37	0x3f819aa5	1.0125319
38	0x3f8037f9	1.0017081
39	0x3f8245aa	1.017751
40	0x3f811f09	1.0087596
41	0x3f817b46	1.0115745
42	0x3f811b48	1.008645
43	0x3f8323ae	1.0245264
44	0x3f861937	1.0476445
45	0x3f852779	1.0402671
46	0x3f7eff22	0.9960805
47	0x3f8153cb	1.0103697
48	0x3f7d9de8	0.9906907
49	0x3f81435f	1.0098685
50	0x3f849e67	1.036084
51	0x3f7b3760	0.9813137
52	0x3f7edab1	0.99552447
53	0x3f837c3f	1.0272292
54	0x3f8929f6	1.071593
55	0x3f7f4245	0.99710494
56	0x3f81bd87	1.0135964
57	0x3f83cc3f	1.0296706
58	0x3f80e2b0	1.006918
59	0x3f80cf92	1.0063345
60	0x3f80f48b	1.0074629
61	0x3f836d18	1.0267668
62	0x3f7f4f8b	0.9973075
63	0x3f7c72b9	0.9861255
