weights/pretrain_normal__finetune_private.pth (torch, 950996 bytes, 26 tensors)

_module.layer1.0.weight f4 [16, 3, 3, 3]
000000 9f a2 c7 bd 59 fe 4e be 45 30 90 bd 9d 45 32 be
       -0.097478144 -0.20214213 -0.07040457 -0.17409368
000010 bd 90 af bd 87 ca 25 3e 85 af a9 bd 9b d4 98 bc
       -0.085725285 0.1619054 -0.08285431 -0.018656066
000020 b7 ea 1f bc dc b2 21 be 51 df 0f 3e dc f5 22 3e
       -0.00976055 -0.15790886 0.14050032 0.159141
000030 af fd 9a 3c 97 33 1b 3e 44 e7 13 bd f6 06 dc bd
       0.018919794 0.15156399 -0.036109224 -0.10743515
000040 4d 59 83 3c e0 c3 b3 3d dc 95 ff 3d 73 17 f3 3d
       0.016033793 0.087775946 0.12479755 0.11869707
000050 0b ed eb bd 71 32 00 3e a6 ea d5 bd 7d 65 49 bd
       -0.11519822 0.12519242 -0.10445146 -0.049169052
000060 20 c3 80 bc 5c a6 4c be c2 c9 bf 3c 13 3c 98 bd
       -0.015718043 -0.19985336 0.023411635 -0.07433333
000070 14 8c db 3c 6d 25 ac 3b 89 15 03 3d cf 4e f3 bc
       0.026800193 0.005253485 0.03200296 -0.029700665
000080 d3 51 f0 3d 1e 12 b6 bd 4d c6 bb 3d bd 30 f8 bd
       0.11734357 -0.08890174 0.09168682 -0.12118671
000090 03 a5 31 3e d2 69 74 3d ba 66 c6 bd 9f 9a 63 bd
       0.17348103 0.05967123 -0.09687562 -0.05556738
0000a0 d6 45 c5 3c dc 2b 1d bd 8d d1 d7 bd c6 ac 37 be
       0.024081152 -0.038371906 -0.105380155 -0.17937002
0000b0 58 bf 42 be bd 4f 30 3e eb 66 3a be 2c d3 23 3e
       -0.19018304 0.17217918 -0.18203323 0.15998524
0000c0 30 c9 06 3e 15 1a 94 3d f6 1e 48 be 89 f7 06 be
       0.13162684 0.07231537 -0.1954306 -0.13180365
0000d0 9a a9 14 bd a2 1d 30 be 72 0c 31 3e 7e 76 4e be
       -0.036294557 -0.17198804 0.17289904 -0.20162389
0000e0 ea 55 54 bc 63 23 f2 bd 19 5f bf bd 1b 51 a5 bd
       -0.012959937 -0.11823156 -0.0934431 -0.0807211
0000f0 f9 04 01 be 7d 83 54 be 96 30 0a be 5f 20 90 3d
       -0.12599553 -0.20753284 -0.13495097 0.07037424
000100 eb d3 15 3e a6 75 9e 3d 63 4b 03 3e 64 b3 26 be
       0.14631622 0.077372834 0.12821727 -0.1627937
000110 29 e3 5f 3c 0f d1 d6 3d 18 85 f6 3d 34 82 69 3c
       0.013664999 0.104890935 0.12037104 0.014252234
000120 0b 0d 0b be 34 d2 06 be e5 f6 84 3d 8f 65 c3 3d
       -0.13579194 -0.13166124 0.06492404 0.09540855
000130 bc a5 85 bd 20 a1 6d 3d fa e8 28 bc 92 3b 46 3d
       -0.06525752 0.05801499 -0.010309452 0.048396654
000140 0a 5f c3 bd 51 fb 20 3d a8 d7 29 3d 52 98 37 bd
       -0.09539612 0.039302174 0.04146543 -0.044823
000150 8c ce 15 bc f1 ab 71 3d d9 30 cf 3d fd 79 e6 3d
       -0.009143483 0.059001867 0.10116739 0.11253736
000160 f9 35 9b 3d c5 be b4 3d cf 93 10 3d aa 65 04 3e
       0.07578654 0.08825449 0.03529721 0.12929407
000170 df 33 f1 bd 0b a6 2c bd 74 39 60 3d 3e b0 0a be
       -0.11777472 -0.04215054 0.05474229 -0.13543794
000180 39 1e e1 3b 5b fb 65 bd 8c 04 32 3d 24 af 37 be
       0.006870058 -0.056147914 0.043461367 -0.17937905
000190 36 d5 f7 3d e1 bc ba 3c 77 95 37 3e d1 c8 ae 3b
       0.12101214 0.022795143 0.1792811 0.005333998
0001a0 c1 3b 73 3d f0 90 ed 3d 5e 3f c8 3d 50 76 df bc
       0.059383158 0.1159991 0.09777711 -0.027278095
0001b0 c5 54 24 be 02 6d 34 be ac 6a f7 3d 92 6b ee 3d
       -0.16047962 -0.17619708 0.12080893 0.11641611
0001c0 f6 f2 1e be 7c e4 b0 3d 85 9e eb 3d 4a f9 75 bd
       -0.1552237 0.0863733 0.115048446 -0.060052194
0001d0 a2 17 04 be 6b 85 7d 3d 00 b2 46 3e cb 55 a5 3d
       -0.1289964 0.061894815 0.19403839 0.08073004
0001e0 1c 16 c4 bd 35 a5 40 3e 5f 43 44 bd 25 8a 70 3d
       -0.095745295 0.18813021 -0.047915813 0.058725495
0001f0 77 82 81 bd ab 49 88 3d 0f 05 ba 3d c7 14 d9 3d
       -0.06323712 0.06654676 0.09082996 0.10599666
000200 7e 6e 87 bd 6d 64 81 3d 6a 16 32 bd 4f e0 c8 3d
       -0.066128716 0.06317983 -0.043478407 0.098084085
000210 b6 2e 79 bd 91 fb 02 3d 44 93 3e be 62 6c 6c 3e
       -0.060835563 0.031978194 -0.18610865 0.2308822
000220 cf c2 57 3e d8 c6 0b 3e 1e 5d 31 3d bd 25 25 3e
       0.21070407 0.13650072 0.043301694 0.16127677
000230 f4 12 0a be df 71 f6 bd b9 ac d1 bd de 48 0e 3e
       -0.13483793 -0.12033438 -0.10238022 0.13894984
000240 56 b0 e5 bd c6 15 b8 bc 61 ae 3a 3d 2b 7d 73 3c
       -0.11215274 -0.02247132 0.045576457 0.014861385
000250 bb f9 5f 3d 50 5d bb bd 99 9d d2 bd 5d 8d bc bd
       0.05468152 -0.09148657 -0.102839656 -0.092066504
000260 29 52 57 3e 71 9d c7 bd d1 f3 d5 bc 41 fc eb bd
       0.21027435 -0.097468264 -0.026117237 -0.11522723
000270 f9 12 1a be 95 6a 3f be a5 ad de 3b 00 4d 97 3d
       -0.150463 -0.18693002 0.0067956024 0.073877335
000280 d5 51 1d bd 0d 73 54 3e 42 fb af bd 29 34 42 3d
       -0.03840812 0.20747013 -0.085928455 0.047413025
000290 87 97 15 3e d9 0b 40 bd 31 58 b1 3d 6c 4a 25 be
       0.14608584 -0.0468863 0.08659399 -0.16141671
0002a0 0e cd 29 bd 63 0f 30 be b7 ca 08 be c3 e4 2c be
       -0.04145532 -0.1719337 -0.1335858 -0.1688414
0002b0 a3 85 01 3e a9 e7 ca bc e3 95 17 be f2 43 ec 3d
       0.12648635 -0.024768667 -0.14803271 0.11536397
0002c0 f9 b2 2f 3e 90 af 6b 3e ce 90 29 3e 3f a4 34 bd
       0.17158116 0.2301619 0.16559145 -0.04410195
0002d0 35 75 b8 3d ae f4 fb 3d f6 98 a7 3c 82 26 1c 3e
       0.090067305 0.12302528 0.02045868 0.15249065
0002e0 ef d2 cb 3d 46 09 a9 bd 2a 46 01 3e af 8a df bc
       0.09952342 -0.08253722 0.12624422 -0.02728781
0002f0 1a 0d 95 bd 87 dd bb 3d 55 3b 37 3e 43 90 36 bd
       -0.072778895 0.09173112 0.17893727 -0.044571172
000300 b4 fc 7b bd df 44 07 bc 8e 6a 97 3d 21 e6 03 be
       -0.061520293 -0.008256166 0.073933706 -0.12880756
000310 66 9b 34 3e 84 a2 9c 3d 2c 9a dd 3d c8 80 eb bc
       0.17637405 0.07648185 0.108204216 -0.028747931
000320 6a 88 0b 3e 88 82 f5 bd ff dd f7 3d 91 a3 1c be
       0.13626257 -0.119877875 0.12102889 -0.1529677
000330 25 72 9a bc d2 d3 30 3e 97 19 12 3e 41 6e 43 3d
       -0.018853256 0.17268303 0.14267574 0.04771257
000340 d1 7e d7 3d f5 c8 b0 bd b9 66 f7 bd 8b ca ba 3d
       0.10522235 -0.086320795 -0.1208014 0.09120663
000350 b0 dc e0 bd c9 1b 09 3d c2 23 8d bd 34 ce 21 be
       -0.10979593 0.033473764 -0.06891586 -0.15801316
000360 a0 8b 9e 3d 14 82 f4 3d d4 0c b6 3c d8 7a 13 3d
       0.07741475 0.11938873 0.022222914 0.036005825
000370 74 65 e4 bd ec a2 0f 3e 69 66 de bd e4 98 70 3b
       -0.11152163 0.14026994 -0.10859377 0.0036712224
000380 2d 92 c9 bd 44 32 bf 3d 13 00 f8 3c 36 53 fd bd
       -0.09842334 0.09335759 0.030273473 -0.12369387
000390 3a 01 06 be 69 40 e3 bd 9c e2 fd 3d 0f c3 2c be
       -0.13086405 -0.1109627 0.12396738 -0.16871284
0003a0 a3 fb 28 bd 27 3d 0f 3e 96 d8 3b 3d 49 69 ac bc
       -0.041255604 0.13988172 0.04586085 -0.021046298
0003b0 ff ea cd 3d 2d d6 e0 bc 65 7d 0a 3c e2 b9 37 3e
       0.100545876 -0.027445877 0.008452748 0.17942002
0003c0 3b a9 f1 3c 38 16 70 bc 96 f5 a9 bd cc 63 09 3e
       0.02949964 -0.014653735 -0.08298795 0.13416976
0003d0 24 b5 33 be 9d 8a e0 3d 26 80 0c be a0 8d e8 3d
       -0.17549568 0.109639384 -0.1372076 0.11355138
0003e0 98 3e 65 bd 67 31 16 3e 60 c4 57 3d 2b 87 ff 3d
       -0.055967897 0.14667283 0.052677512 0.12476953
0003f0 62 58 32 be 6a e9 3e 3d 37 92 f7 bc 62 5d 19 be
       -0.17416528 0.04660932 -0.030221088 -0.14977029

_module.layer1.0.bias f4 [16]
000000 00 0a 07 be 1c 85 d2 bd 3b 8d df bd d1 01 80 3d
       -0.13187408 -0.10279295 -0.109156094 0.062503465
000010 c4 c2 bc 3d 40 39 ea bd cc fb 84 3d 53 25 69 3d
       0.09216836 -0.11436701 0.06493339 0.05692036
000020 a3 b8 e3 3d 69 89 8e bd 9b 92 15 3e f3 d6 59 bd
       0.11119201 -0.06959803 0.14606707 -0.053183507
000030 e9 19 e3 bd e4 bb 55 bd 64 73 b4 bd d3 7e f8 3d
       -0.11088926 -0.05218114 -0.088110715 0.12133565

_module.layer1.1.weight f4 [16]
000000 0a 20 83 3f 57 e6 79 3f b7 c8 83 3f a6 71 7c 3f
       1.0244153 0.97617096 1.0295628 0.98610914
000010 c8 60 7b 3f 09 e3 7d 3f a6 65 7b 3f 37 23 7f 3f
       0.9819455 0.99174553 0.9820198 0.9966311
000020 06 ac 75 3f 9c 1f 7e 3f de 03 7e 3f b1 ec 80 3f
       0.9596561 0.9926698 0.9922465 1.0072232
000030 ae 59 82 3f ec 0a 81 3f 9d 32 80 3f eb 4f 7c 3f
       1.0183618 1.0081458 1.0015446 0.98559445

_module.layer1.1.bias f4 [16]
000000 7d a6 13 3b ec 81 99 bb a8 e9 85 3c 07 c7 81 bc
       0.0022529655 -0.0046846773 0.016346768 -0.015841974
000010 80 bd bf bc 07 52 c9 bb 60 3f 38 bc 11 2d de 3c
       -0.02340579 -0.0061438116 -0.0112455785 0.027121099
000020 b8 7c 3c 3c 10 e3 22 bc b5 8b bb ba dc 53 8c bb
       0.011504345 -0.009941831 -0.0014308604 -0.0042824578
000030 80 b6 d8 bb 49 1c 52 bc fd eb f9 bc 44 0b 0b bc
       -0.0066135526 -0.0128241265 -0.030508036 -0.008486573

_module.layer2.0.weight f4 [16, 16, 3, 3]
000000 61 25 da bd 11 c3 68 3b de e6 97 3d ce d7 3d bd
       -0.10651661 0.003551666 0.07417081 -0.046348386
000010 40 98 12 3d 0c d4 58 bd cc 5e eb bc 61 d0 45 3d
       0.03578973 -0.0529366 -0.028731726 0.04829443
000020 46 ea 73 3c 94 7b 2f 3d 57 ad 76 bd 91 1b e3 bc
       0.014887398 0.042842463 -0.060223904 -0.027723106
000030 98 c4 21 3d 38 fa 91 3d 77 87 a6 bc 2b 5d 86 bd
       0.039494127 0.071278036 -0.020328267 -0.06560739
000040 db bb 93 3d 65 88 81 bd 33 3c 35 3d 2a f6 e3 bc
       0.07213565 -0.06324843 0.044246864 -0.027827341
000050 3e f6 d1 3d 01 5a 09 bd 14 9c e5 bb bd 15 3a bb
       0.10252045 -0.0335331 -0.0070071314 -0.0028394305
000060 76 27 45 ba 29 af 4c 3d d0 b2 5d 3d cd 0a 05 bc
       -0.0007520834 0.049971733 0.054125607 -0.008120251
000070 ea 08 e7 3c 75 9e 6e bb 7b 39 f3 3b 46 8e 41 bd
       0.028202493 -0.0036410366 0.0074226237 -0.047254823
000080 49 4c 17 bd 78 88 9f 3d 3c 31 a4 3c ee 11 12 3d
       -0.036937986 0.07789701 0.020043008 0.03566163
000090 f3 34 aa 3c 38 cb de 3c 5d 5c da ba 58 0a b5 3d
       0.020777201 0.027196512 -0.0016659606 0.088398635
0000a0 71 ed 3b 3d 1b 0d 69 3d 13 42 82 bd 3d 31 2a 3c
       0.04588074 0.056897264 -0.06360259 0.010387716
0000b0 a2 45 dc bc 98 91 96 b9 f6 94 6f 3c f2 3b 3a bd
       -0.026888672 -0.00028718705 0.014622917 -0.045467325
0000c0 b9 ef 39 3d b6 ed 8c bd 30 ab 1b bd 00 49 df bb
       0.045394633 -0.06881277 -0.038005054 -0.006814122
0000d0 c8 d7 4f 3d 06 59 b6 bd 54 36 9d bc 94 80 57 3d
       0.050742894 -0.089036986 -0.019190945 0.052612856
0000e0 e6 84 7d 3d e2 c2 bd 3d 42 b9 ee 3c 9e d3 01 3d
       0.06189432 0.092656866 0.029141072 0.031695955
0000f0 4d 44 92 3d 59 2e b3 3d df 39 bf 3c eb fb 51 3b
       0.071419336 0.087490745 0.023343025 0.0032041024
000100 cf 40 c1 bc 19 4e ae bd 7f 3c c9 3d 4e de c3 bd
       -0.023590473 -0.0851099 0.09825992 -0.09563886
000110 4b 21 f8 bc bf 2a 65 3d 02 51 28 bd a0 c0 b1 bb
       -0.030289313 0.05594897 -0.04109288 -0.005424574
000120 96 e5 99 3c c4 64 92 3a 75 1c b6 bd ff 0e 7b 3d
       0.018786233 0.0011168947 -0.088921465 0.0612936
000130 ea f8 80 3d 1f a2 24 bd 74 7d d0 3d 91 83 a6 3d
       0.062974766 -0.040193673 0.10180178 0.08130563
000140 78 24 ac 3d e4 7b 51 3c 85 49 93 3d f7 48 54 bd
       0.08405393 0.0127858855 0.07191757 -0.051827397
000150 77 75 47 3d 71 a6 14 bd d5 7a 65 3b e8 14 78 3d
       0.048696008 -0.036291543 0.003501584 0.060566813
000160 0e 99 6e bd bc e2 8e 3c 8f 69 49 3c 5f f7 a1 bd
       -0.058251433 0.0174421 0.012293234 -0.079085104
000170 b6 34 03 bc 43 e9 12 bd 81 c5 ae 3b e2 0f 44 3d
       -0.008008173 -0.035866987 0.005333603 0.04786671
000180 d3 ed bd bb ca 00 a0 bd 97 e7 86 3d ef 5b 95 bd
       -0.005796173 -0.078126505 0.06587141 -0.072929256
000190 54 44 1e bd 9b 72 d5 3c d7 6c 20 3d 15 12 58 3d
       -0.03863938 0.026055625 0.039166298 0.05275162
0001a0 8d db 8e 3c 07 fd 28 3d 98 79 80 3d da a9 70 3c
       0.017438674 0.04125693 0.06273192 0.014688933
0001b0 6d 6e 9e 3d 1a 4c 82 bd 36 a4 fe bb e3 56 08 3d
       0.07735906 -0.063621715 -0.0077710403 0.033285987
0001c0 42 08 87 3d 5d f7 52 3d 71 0e 92 bd aa e8 b0 bd
       0.06593372 0.051505435 -0.07131661 -0.08638127
0001d0 bc b7 67 bd af f8 c0 3c 68 33 99 3d 30 8a 85 3d
       -0.056571707 0.023556082 0.07480508 0.06520498
0001e0 e1 9f f4 3c 06 aa 4d 3d 2d 15 60 3d 52 92 00 bc
       0.029861392 0.050210975 0.054707695 -0.0078473855
0001f0 74 98 d9 bc 5c 80 30 3c 42 39 82 3a f3 94 3e bd
       -0.026561953 0.010772791 0.0009935277 -0.046528768
000200 f1 58 06 b7 dd 1a 4e 3c e2 f3 8f 3b 83 fe c5 3d
       -8.007731e-06 0.012579647 0.004393087 0.09667685
000210 b7 42 5b 3d 74 8a a2 bd 6e e8 ea 3c b2 b3 34 bd
       0.05353042 -0.07936564 0.028675284 -0.044116683
000220 31 9e 3f bc 64 a8 b7 3c 11 c3 a4 bd 65 81 34 bc
       -0.011695431 0.022419162 -0.080450185 -0.011017178
000230 9f f0 58 3d 47 e1 66 bd 58 39 8b bc 17 ac b4 3d
       0.05296385 -0.056367185 -0.016995117 0.08821886
000240 a3 f5 d6 bc 6a f7 96 3d 54 59 23 bc 77 6c 2c bd
       -0.026240176 0.07371409 -0.009970028 -0.042095628
000250 1e 76 42 3d 3a 99 f1 bc b7 f8 58 bc 3e 7c 82 3c
       0.047475927 -0.02949201 -0.013242892 0.015928384
000260 12 af a3 3c 1b 7b 45 3d 59 a4 0c 3d 24 71 b3 3d
       0.019980941 0.048213106 0.03433642 0.08761814
000270 52 c6 66 3d 77 56 c1 3c e2 fb e3 bb 31 3a eb 3c
       0.056341477 0.0236008 -0.006957517 0.028714271
000280 c1 00 1e 3c 39 29 dc 3b c5 b7 bf bc 44 25 96 bc
       0.009643734 0.0067187813 -0.023403058 -0.018328317
000290 34 19 85 3d 41 f4 0d bd 9f 0f 15 bc e0 b5 c5 bd
       0.06498948 -0.034656767 -0.009097963 -0.096538305
0002a0 5f af 14 bd 3b 60 25 bd 44 1b 36 3d d7 78 aa bd
       -0.03630006 -0.040374976 0.044459596 -0.083238296
0002b0 92 b3 4a 3d 62 f1 80 bd a1 61 85 3d d5 2a a9 3b
       0.049487658 -0.0629604 0.06512762 0.0051625767
0002c0 07 d8 a7 3d 29 fd 6b bd 66 73 d2 3d 8f 1d 15 3d
       0.08195501 -0.05761448 0.10275917 0.036405142
0002d0 83 82 91 3d 7a d0 7f 3c 18 93 8b bc 1e 6c b5 3d
       0.07104971 0.0156136695 -0.017037913 0.08858512
0002e0 07 d1 6d 3d 6a 1d be bb b8 59 06 3b 6a 09 2f bd
       0.058060672 -0.0058018463 0.0020500254 -0.042733587
0002f0 95 19 1e 3d a3 7b 8b 3b 27 df 67 bd 06 59 cf bc
       0.038598616 0.004256682 -0.0566093 -0.025311004
000300 a5 c6 c2 3c cb c4 62 3d b8 8e 70 3c cc 44 f3 3c
       0.023776362 0.055363458 0.014682464 0.02969589
000310 2f d7 90 3d 02 e0 28 3d c8 6b 8a bd 3b cb b4 bc
       0.07072293 0.041229255 -0.06758839 -0.022069564
000320 64 4d 58 bb 8e 72 d9 3c ad 38 70 3d 55 29 9b 3d
       -0.0033005113 0.026543882 0.0586478 0.07576243
000330 61 8e 72 bd 5e f4 f3 bc 14 ce 7b 3d ab 5f c0 3d
       -0.059217814 -0.02977961 0.06147583 0.09393247
000340 e7 1c 27 bd 33 64 0f bc 80 74 87 bd 4b 21 c1 3d
       -0.040799048 -0.008751917 -0.066140175 0.09430178
000350 80 b0 0e 3d b1 ea ab 3d d5 3f a1 bd 67 4d c6 3d
       0.034836292 0.08394373 -0.07873503 0.09682732
000360 54 5b 0a 3d a2 eb 7c bd 8a 60 4b 3d 68 43 cc 3d
       0.033778504 -0.061748154 0.049652614 0.09973794
000370 cc 3e 91 bd 88 94 42 3c 53 16 5d bd 41 7e 86 bd
       -0.07092056 0.011876233 -0.05397637 -0.0656705
000380 b6 a8 3a bc 77 bb a6 bd 27 df c6 3c 19 0b 81 bd
       -0.011392763 -0.08141225 0.02427633 -0.06300945
000390 aa 10 aa bd 15 ce a6 3d 49 07 10 bd 12 3b ad bc
       -0.0830396 0.08144776 -0.035163198 -0.021146331
0003a0 9b cb 36 3d 1f e5 18 bc 46 b3 53 bc ff 43 9d bc
       0.044627767 -0.0093319705 -0.01292116 -0.019197462
0003b0 e4 a0 b0 bc c3 ee ef 3a bc 4c 04 3d 52 c2 8b bd
       -0.021561094 0.001830541 0.032299742 -0.06824173
0003c0 b1 95 93 3d e7 51 9b bd f6 fc aa bc 95 ca 2b 3d
       0.07206286 -0.07583981 -0.020872574 0.041941244
0003d0 e7 2f a7 bd a9 9b c0 bc e7 53 bb bd c0 70 e7 bc
       -0.081634335 -0.023511725 -0.091468625 -0.028252006
0003e0 76 08 f5 bb f6 a8 72 bd 15 e9 46 3b 5c 75 5e bc
       -0.0074778153 -0.059243165 0.003035133 -0.013577785
0003f0 43 fe 83 bd b0 15 d0 3d 6b 98 8a 3c c9 96 a0 3c
       -0.06444981 0.101603866 0.016918382 0.01960315

_module.layer2.0.bias f4 [16]
000000 51 d7 86 3d 7c fc 70 bd 64 2b 22 bd c2 f9 6b 3c
       0.06584037 -0.058834538 -0.03959216 0.014402809
000010 28 43 d5 ba ba da ac bd ef 16 cb bc 22 d4 52 3c
       -0.0016270624 -0.08440156 -0.024791209 0.012867959
000020 79 40 90 ba 3d 1e 93 3d 6a 1a aa bd 08 08 b7 3d
       -0.0011005542 0.07183502 -0.08305819 0.08937079
000030 b6 ee dd 3c e6 0a 09 bd 27 5b 2c bc 7f 56 a6 bd
       0.027091365 -0.03345766 -0.010519779 -0.081219666

_module.layer2.1.weight f4 [16]
000000 d7 a4 7e 3f f8 65 77 3f f7 47 82 3f be 9e 7a 3f
       0.99470276 0.96639967 1.0178212 0.9789847
000010 b9 d6 81 3f 36 68 85 3f bf 2d 82 3f c8 1d 7c 3f
       1.0143653 1.0422428 1.0170211 0.9848294
000020 fb 12 7c 3f f4 a0 83 3f 2a 59 81 3f 30 d2 81 3f
       0.9846646 1.0283494 1.0105336 1.0142269
000030 4e 97 81 3f 77 2b 7d 3f d5 60 7c 3f 08 84 7f 3f
       1.01243 0.9889445 0.98585254 0.9981084

_module.layer2.1.bias f4 [16]
000000 37 44 26 3c 73 7b 69 bc 05 1b a0 bb fc 00 95 ba
       0.0101481 -0.014250624 -0.0048860335 -0.0011368091
000010 84 84 ab bc 7f e0 fa bb 70 dc 83 bb 11 be dd ba
       -0.020937212 -0.0076561566 -0.004024081 -0.0016917606
000020 c8 3e 8c 3a f6 bd 9b 3b ed b5 3a 3c 45 4d 15 3c
       0.0010699863 0.0047528697 0.011395914 0.009112661
000030 b2 ea 28 bc 91 59 99 ba f7 45 0d bc a3 a1 f5 3c
       -0.010309862 -0.0011699667 -0.008622638 0.029984301

_module.layer3.0.weight f4 [64, 16, 3, 3]
000000 e3 58 83 bd 04 af 9b bd db 22 34 3d ac 56 9c 3c
       -0.06413438 -0.07601741 0.043978553 0.019084297
000010 9b 32 64 3d 90 a6 0b bb 51 ed 6c bc 1b 6d 03 bd
       0.055712324 -0.0021308996 -0.0144608775 -0.032086473
000020 69 f1 b9 bd 7f a0 84 bd b6 b8 00 3c 71 27 2c bd
       -0.090792485 -0.06475925 0.0078565385 -0.0420298
000030 c6 77 e5 3d 68 d9 5c bd e4 8d 9e 3d bd ac 0e 3d
       0.112044856 -0.053918272 0.07741907 0.034832705
000040 51 c4 42 bd 53 ee 8b 3d 83 b8 60 3d 22 a7 6a bc
       -0.047550503 0.06832566 0.054863464 -0.014322074
000050 07 9c 11 39 dc 8f 9b bc ea 48 62 3d 15 e6 5a 3d
       0.00013886402 -0.018989496 0.055245318 0.05344208
000060 26 00 92 bd 05 8b 28 bc 14 77 94 bd dc cb 95 3b
       -0.071289346 -0.010287051 -0.07249275 0.004571421
000070 2a 7b 0e 3d 81 1b ae 3c 90 85 6d 3d d5 52 5f 3d
       0.034785427 0.02125335 0.057988703 0.054522354
000080 ff 5b 0a bd 13 5b ed 3c 03 2b ad bd ec d7 73 bd
       -0.03377914 0.028974092 -0.084554695 -0.05953209
000090 98 8e 92 bd e4 7e b5 bd ce ce 9e 3d 56 66 15 bd
       -0.07156104 -0.08862093 0.077542886 -0.03647455
0000a0 85 5e 54 bd 8a 8c bf bc a3 ba 78 3d 02 5c 50 3d
       -0.051847953 -0.023382444 0.060724866 0.050868995
0000b0 29 73 52 3d 5e 89 08 3d e9 dd 3a bd d0 ab 85 3d
       0.051379357 0.03333413 -0.045621786 0.06526911
0000c0 a1 88 a6 bb 97 03 b4 3d 7a 4a b4 bc a2 c6 13 bd
       -0.0050822054 0.08789747 -0.02200817 -0.036078103
0000d0 ff a7 7a bd 60 be cd 3d a1 d6 63 bd cf 06 c3 3d
       -0.06119537 0.10046077 -0.055624608 0.09522783
0000e0 55 9d c4 3b 19 fc 5b ba 21 1d e3 bd f0 19 93 3d
       0.0060002008 -0.00083917525 -0.1108954 0.071826816
0000f0 fa 19 26 bd 29 f1 02 3d c3 00 40 3d 92 a6 28 bc
       -0.040552117 0.03196827 0.046875726 -0.01029362
000100 cb 97 2a 3d 20 a4 63 bd aa 5e 1e 3d dc 88 35 bd
       0.041648667 -0.055576444 0.038664497 -0.044319972
000110 97 52 ed 3d ce 0e 66 bd 29 cf 3d 3d 2a d8 46 bd
       0.115880184 -0.056166463 0.04634014 -0.048545994
000120 6d 6d a5 bc ec aa b8 bc b5 f5 e0 3c d4 5d 04 bd
       -0.02019378 -0.02254244 0.027460912 -0.032316044
000130 6f 2c c0 3d 76 85 85 3d 29 67 04 3d c4 be e7 bc
       0.09383475 0.06519596 0.032324944 -0.028289206
000140 53 ca 11 bc 6c 00 e7 3c 8b e6 c3 bd 30 10 6c 3c
       -0.0088983355 0.028198443 -0.09565457 0.014408156
000150 8f 12 1f bb ee b9 31 bd c2 13 2a 3d ee d5 92 bd
       -0.0024272536 -0.043390207 0.04152275 -0.0716971
000160 7a cf f2 bc 47 3f f1 3c ce 5e 60 3d c3 5d 23 3b
       -0.029639948 0.029449118 0.054777913 0.0024927713
000170 eb 54 1f bc d2 eb 5d 3d 74 fe 1e bd 41 03 96 3d
       -0.009724836 0.054179974 -0.038816884 0.073248394
000180 cf cf 8e 3d 0f c6 87 bd 0a 64 0c bd 3e 19 8a 3c
       0.0697323 -0.066295736 -0.034275092 0.01685774
000190 24 21 57 3d 5e b7 08 bd f4 52 c0 bc 5c 63 2d 3b
       0.05252184 -0.033377998 -0.023477055 0.0026456928
0001a0 c1 a7 a3 3c 51 b4 bf 3d a5 d9 71 3a 4b e9 20 bd
       0.019977452 0.093605645 0.0009225852 -0.039284986
0001b0 d5 c4 cb 3d 9d 3f d3 bc fc 0c 7c 3d a2 e0 42 3d
       0.09949652 -0.02578717 0.06153582 0.047577508
0001c0 74 2f 3a bc b3 96 b6 bd e9 f3 2d bd c5 28 77 3d
       -0.011363853 -0.08915462 -0.04246894 0.060341615
0001d0 d0 0b c0 3d 3c f1 c9 3c 4f b3 75 3c 48 c4 3c bd
       0.09377253 0.024651162 0.014996364 -0.046085626
0001e0 db 2d 12 3c c4 b6 aa bd e6 ff 94 3d bf a9 28 bd
       0.008922066 -0.08335641 0.07275371 -0.041177507
0001f0 77 fe ab 3d da fa c8 3b fd ce fd 3a e7 04 a9 bd
       0.08398145 0.0061334195 0.0019364055 -0.08252888
000200 d4 a4 7a 3d f9 85 1a 3a b5 38 d5 bd e3 a6 c9 bb
       0.06119235 0.0005894597 -0.10411207 -0.0061539277
000210 e8 b4 a0 bc 57 8e 56 3d 69 da 09 bd 0f 5d 07 bd
       -0.019617513 0.05238184 -0.033655558 -0.033047732
000220 26 9a 22 3d 2a ab 7a 3c 6a a3 92 bd 2a 35 37 bd
       0.03969779 0.015299598 -0.07160075 -0.044728436
000230 52 63 16 bb 8f 7d 8f bd 8a 0e 3a bc d5 fc a6 bc
       -0.0022947383 -0.0700637 -0.011356005 -0.020384232
000240 7d ad 96 3d f9 05 73 3c 63 00 9b bc 7b e3 b0 bc
       0.07357309 0.014832967 -0.018921083 -0.021592846
000250 96 71 0d 3d b0 e2 7d bd 60 1e bb bd 3a 4e c8 3c
       0.034532152 -0.061983764 -0.09136653 0.024451364
000260 a2 4f 38 bd 53 76 c4 3d 41 09 64 bd fa d9 b5 bb
       -0.04499782 0.09592881 -0.055672888 -0.0055496665
000270 75 00 b0 3b 85 22 34 3d c4 83 4c 3d d2 56 4d 3b
       0.005371148 0.043978233 0.04993035 0.0031332267
000280 f2 7b 84 3d 52 49 5e bd 79 d2 13 bd 0e 40 6e 3d
       0.06468953 -0.054269142 -0.036089394 0.058166556
000290 bd 10 bd 3d 2b 18 f4 3c 9c f3 3b 3c ce 01 d5 3d
       0.09231708 0.02979668 0.011471655 0.10400735
0002a0 e4 6d 26 3d 20 22 fc bb ff 63 46 bd 30 b8 be bd
       0.040632144 -0.0076944977 -0.048435207 -0.09312475
0002b0 7b 94 51 bd f5 f4 76 3d c0 45 c0 3d 2e 2d e7 bb
       -0.051166993 0.060292203 0.09388304 -0.0070549464
0002c0 ae aa 2c bd 28 56 82 3c 53 fc 33 bd 26 71 6b 3d
       -0.04215496 0.015910223 -0.043941807 0.057480954
0002d0 2e 7f 81 3d 51 0b 8d bc b8 e8 bd bd 11 be e6 bc
       0.06323086 -0.01721731 -0.09272903 -0.028166803
0002e0 9e 0b 57 3d e6 1a bb bd f1 98 6d bc 7a c6 40 3d
       0.052501313 -0.0913599 -0.014501796 0.047064282
0002f0 d7 60 6f 3d 35 be 63 3d 4d 6c 4c bc a5 e2 0d bd
       0.058441963 0.055601317 -0.012476993 -0.034639973
000300 bc 3a 44 bd 71 b3 2e bd da 52 66 3d 9b c2 81 bd
       -0.047907576 -0.042651597 0.056231357 -0.06335946
000310 24 d5 e3 ba 36 78 21 3d 1e 20 f0 3c 81 2e 83 bd
       -0.0017382246 0.039421283 0.02931219 -0.06405354
000320 44 e3 82 3d e4 0c 94 bd 57 51 af 3c 73 c4 6e 3d
       0.06391004 -0.07229021 0.02140109 0.058292817
000330 c2 1d 16 bd 9a 7b a6 3d 50 81 9c bd 6d c5 92 3d
       -0.036649473 0.08129044 -0.07641852 0.07166562
000340 a4 22 e9 3d f7 ff a2 3c f4 f9 30 bc 68 f5 31 bd
       0.1138356 0.019897444 -0.010801781 -0.04344693
000350 1a 9f 84 bd 8f a1 c5 bd c5 04 b2 bd 23 cc 61 bd
       -0.06475659 -0.096499555 -0.08692316 -0.05512632
000360 4c ff 95 bd ab 5f 31 bd a9 08 95 bc ce f1 9e bc
       -0.07324085 -0.043304127 -0.018192606 -0.01940241
000370 07 c5 7c bd eb 5d 69 bc 53 b8 68 ba 97 75 59 bd
       -0.061711337 -0.014243583 -0.0008877564 -0.053090658
000380 21 de 2d bd 9f 2d d2 3c d9 21 6b 3d 23 f6 fa 3c
       -0.042448167 0.02565652 0.057405327 0.030634945
000390 fe df b0 bc 19 6e 0b bd b1 55 26 3d c0 d1 7a 3d
       -0.021591183 -0.034040544 0.040609065 0.06123519
0003a0 cc d2 07 bb b5 be 3e 3d 2b 86 af bc d3 7b c2 bb
       -0.002072501 0.04656859 -0.021426281 -0.005935171
0003b0 29 ae 8d bd ce 57 5b 3a 72 39 37 bc 61 8c 74 3d
       -0.06917984 0.0008367271 -0.01118313 0.05970419
0003c0 e7 f9 65 3d 86 26 36 bd 3b f4 aa 3b 1a f1 0e 3c
       0.05614653 -0.044470333 0.005217103 0.008724475
0003d0 74 e9 81 bc a0 18 16 3b fa 9d 9e 3d 27 4f 94 3d
       -0.01585839 0.0022902861 0.077449754 0.072416596
0003e0 f4 33 07 bd 9e 79 17 bd 99 01 05 bd ec 60 1e bd
       -0.03300853 -0.036981218 -0.032472227 -0.03866665
0003f0 c6 44 4f 3d 53 b8 17 bd cb 21 22 bd 5c d6 98 bd
       0.050602697 -0.03704102 -0.03958301 -0.07462761

_module.layer3.0.bias f4 [64]
000000 04 e1 59 bd 66 63 dd 3a 0e 66 f2 3c 78 a3 4d 3d
       -0.053193107 0.0016890585 0.02958968 0.050204724
000010 90 0e 41 3d 84 7c 14 bd 7c cf 20 bc 24 ed 92 bd
       0.04713303 -0.03625156 -0.009815093 -0.07174137
000020 2e 81 b0 3c 0d 72 3d bd 35 53 7d 3d 43 18 98 3c
       0.021545973 -0.046251345 0.06184693 0.018566256
000030 ed 7e bd bd a8 6d 7e bd ee d0 a6 bd 25 ee 95 3c
       -0.09252725 -0.062116295 -0.08145319 0.018302033
000040 01 9f 52 3b fc bf 42 bd ea fa 0d 3d 1f e8 94 3c
       0.003213823 -0.04754637 0.03466312 0.01817709
000050 b8 c6 16 bd 00 57 47 bd ee 75 20 3d bc 19 02 3d
       -0.036810607 -0.048666954 0.039174967 0.031762823
000060 57 f9 16 3c 00 8a 77 3d c9 d2 94 3d fe a8 d1 3d
       0.009214721 0.06043434 0.072667666 0.10237311
000070 9b 53 9d bd 89 2d 52 bd 39 5b 50 bd cf 4e 9c bd
       -0.07681962 -0.051312957 -0.050868247 -0.07632219
000080 7f e2 97 3c 8e 18 81 3d 9c 16 38 bd 6b b2 24 bd
       0.018540619 0.063035116 -0.044943437 -0.040209215
000090 8a a6 38 bc 14 51 46 bd d9 2c 4a 3c 4f 10 aa bd
       -0.011270175 -0.048417166 0.012339794 -0.08303892
0000a0 c8 bb 46 3d 74 c1 2b 3d ae fc f7 bc 34 4b a8 bb
       0.048518926 0.04193254 -0.030271854 -0.005135918
0000b0 ed 2f 84 bd 5c 5a 76 bd 76 ed aa 3d 64 cc 24 3c
       -0.064544536 -0.060144767 0.08346073 0.010058496
0000c0 59 95 92 bd 23 02 71 bd dc 6d 45 bd 7e af 6c bd
       -0.07157392 -0.05883993 -0.048200473 -0.05778455
0000d0 37 b8 3a bd 25 f5 37 3d e8 b8 01 bd 1c eb ac bd
       -0.045585837 0.044911522 -0.03167048 -0.08443281
0000e0 0c 9a 1e 3d f0 b7 4c bd 36 65 d2 bc a4 00 0f 3d
       0.03872113 -0.049980104 -0.025683027 0.03491272
0000f0 41 c1 30 bd f8 c9 26 3c ad c0 9d 3d c5 73 a7 bd
       -0.04315305 0.010179989 0.077027656 -0.08176378

_module.layer3.1.weight f4 [64]
000000 5c 44 82 3f f9 01 7b 3f 82 c3 7b 3f 57 cc 82 3f
       1.0177112 0.98049885 0.98345196 1.021861
000010 fc 95 7e 3f 98 fc 81 3f 52 0d 84 3f b1 29 7c 3f
       0.9944761 1.015521 1.0316565 0.98501116
000020 d0 e3 7f 3f a5 13 79 3f 0d 78 7d 3f 66 aa 7f 3f
       0.9995699 0.972956 0.9901131 0.9986938
000030 45 3e 7f 3f 94 09 7d 3f 38 17 79 3f c9 80 7f 3f
       0.9970439 0.9884274 0.97301054 0.99805886
000040 59 1a 82 3f 71 60 7f 3f 6c 2c 80 3f 34 65 79 3f
       1.0164291 0.9975653 1.0013556 0.9742005
000050 8b 88 76 3f 1a 3e 85 3f cf 2e 78 3f aa 23 80 3f
       0.963021 1.0409577 0.96946424 1.0010884
000060 2c bc 82 3f 10 d7 7f 3f 6f 22 7f 3f 02 db 82 3f
       1.0213675 0.99937534 0.99661916 1.0223086
000070 3a 5f 78 3f 98 d8 78 3f 23 76 82 3f d7 b9 7d 3f
       0.97020304 0.97205496 1.0192302 0.99111694
000080 63 24 81 3f 2a bb 83 3f 8f 9b 81 3f 4e 12 80 3f
       1.0089229 1.0291493 1.0125598 1.0005586
000090 5b 5b 84 3f 6b 2c 81 3f 8e 24 81 3f 43 be 7d 3f
       1.034038 1.009168 1.0089281 0.9911844
0000a0 de e3 71 3f 81 f2 76 3f c4 17 72 3f d1 7d 70 3f
       0.9448832 0.9646378 0.94567513 0.9394198
0000b0 fe f6 78 3f 12 2b 7a 3f ce 15 7e 3f 4f ed 7a 3f
       0.9725188 0.9772197 0.9925202 0.98018354
0000c0 19 80 7a 3f a0 58 7f 3f a0 8e 82 3f 2c 3c 7d 3f
       0.9785171 0.99744606 1.0199776 0.9891994
0000d0 41 ab 74 3f c3 0e 83 3f 6e bb 76 3f 91 6c 82 3f
       0.9557381 1.023888 0.96379745 1.0189382
0000e0 f1 ef 82 3f 91 40 78 3f 92 43 7e 3f 18 d4 7f 3f
       1.0229474 0.9697352 0.99321854 0.99933004
0000f0 6a ed 76 3f f2 db 7f 3f 42 ac 84 3f 82 fb 7f 3f
       0.96456015 0.99944985 1.0365069 0.99993145

_module.layer3.1.bias f4 [64]
000000 5b c4 21 3d 37 9f 9b bc e5 93 3d bc 1d bf 8b bc
       0.0394939 -0.018996818 -0.011570905 -0.017058903
000010 5a 48 65 bc 10 a4 54 bc 03 cf f1 3b 1d e1 24 3c
       -0.013994301 -0.012978569 0.007379414 0.010063437
000020 42 08 76 3c 19 b1 2e 3d 93 d9 ca bb ea e7 bb 3c
       0.015016617 0.042649362 -0.0061904876 0.022937734
000030 46 7f bc bc 29 80 9b bc e7 ee cf bb 33 a6 15 bc
       -0.023009907 -0.01898201 -0.006345618 -0.009133863
000040 92 57 be bb 92 85 55 3c ca 05 c5 bc 22 50 43 bb
       -0.005808779 0.013032334 -0.024050612 -0.0029802402
000050 05 37 17 39 55 0f 42 3d 02 c8 13 3c c2 f2 8d bc
       0.00014420979 0.047377903 0.009019854 -0.01732767
000060 07 13 83 3c 0f ec c5 bc c9 24 30 3b d9 fb 65 bc
       0.016000284 -0.024160413 0.0026877394 -0.014037096
000070 7c 2b a7 3a e5 6d e3 bc 65 fa e4 bc fd fc a2 bc
       0.0012754048 -0.027762363 -0.027951429 -0.019896025
000080 d2 ca 1b 3c 16 29 d9 bc 27 7a 02 3d 99 f0 03 bc
       0.009508805 -0.02650885 0.031854775 -0.008052968
000090 ff f6 e7 3b e9 29 15 bd be bb 89 bc f4 69 b9 3c
       0.007079005 -0.03641692 -0.016813155 0.02263353
0000a0 fd 9a 01 bc 8e ad 44 3c bc e2 da bc 81 bc 3d bc
       -0.007910487 0.012004269 -0.026719444 -0.011580587
0000b0 ee 50 f5 3c ef 0b 45 3b bc 09 ed 39 60 cd 86 bb
       0.029945817 0.0030066927 0.00045211415 -0.004113838
0000c0 03 af 30 bc b9 9e 41 3c 9c e3 b6 bc 68 ae 97 3c
       -0.010783914 0.011817628 -0.02232533 0.01851578
0000d0 c8 1f ee 3c 7f dc 33 3d 21 3b c7 3c 08 15 68 3c
       0.029067889 0.043911453 0.024320187 0.0141651705
0000e0 59 1f a3 ba a3 b0 7e bc 92 77 4a bc 60 59 1d bc
       -0.0012445255 -0.015545043 -0.012357609 -0.009603828
0000f0 1a 58 b5 3c 41 5e c4 bb c0 8c 66 bc 2f d0 fc 3c
       0.022136737 -0.0059926813 -0.014071643 0.030860988

_module.layer4.0.weight f4 [64, 64, 3, 3]
000000 2e db 85 3c 1c 10 e4 bb e2 50 67 bb fd e3 6d bb
       0.016339865 -0.006959928 -0.0035296013 -0.0036299222
000010 38 5e 57 3b 67 e2 bb bc 2f f8 02 3d d6 c4 4c bb
       0.0032862555 -0.022935105 0.031974968 -0.0031245253
000020 ef c4 31 bb 18 73 62 3c a3 4a 04 bd 4d 95 f1 bc
       -0.0027125438 0.013821386 -0.03229774 -0.029490137
000030 3e 5b 5a 3c 6e e8 41 bd b2 f1 c2 3c dc d0 8b bc
       0.013327418 -0.047340803 0.02379689 -0.017067365
000040 16 93 bb bc a9 62 9e bb d2 c7 bb 3c 14 23 3c bc
       -0.022897284 -0.0048335386 0.02292243 -0.011482973
000050 6c 2c a9 bc fb 21 67 3b ab 42 8a bc b9 8e d2 3c
       -0.020651065 0.0035268057 -0.016877493 0.025702821
000060 bd 7f e6 39 7a 98 ed 3c a4 0b 26 3d 83 19 bb 3d
       0.0004396419 0.02900337 0.040538445 0.09135725
000070 bd 0f 53 3c 7b 18 e6 bc db ed 2d 3d 3a a2 60 3c
       0.01288217 -0.028087845 0.042463165 0.013710553
000080 3b 4a 37 bc 77 26 c0 3c e3 b2 35 3c a4 df f3 bc
       -0.0111871315 0.023455841 0.011090013 -0.029769726
000090 57 15 46 3d 7d 2f 51 3d 1d 1d 91 bc 35 5b 58 bc
       0.048360195 0.05107068 -0.017714078 -0.013205339
0000a0 31 91 a2 bc 8d ec 35 3c 92 58 f3 bc cb 7d b7 3b
       -0.019844623 0.011103761 -0.02970532 0.0055997125
0000b0 b4 e6 4f 3d a6 3e 8d 3a 48 0e 0d bd c8 f5 46 3b
       0.050757125 0.0010776117 -0.034437448 0.00303589
0000c0 83 4b 23 3d 0c e3 da 3b a8 1a a1 bb 4a c9 07 bd
       0.039866935 0.006679898 -0.0049165078 -0.03315095
0000d0 b9 4c b5 3c ac 18 1e bb 4d 3e 4c 3d db 3d bd bc
       0.02213131 -0.0024123592 0.049864102 -0.023100784
0000e0 ad 31 51 3d 0c 4d 63 bc a0 0c 39 3d 41 b6 2e 3d
       0.051072765 -0.01387335 0.045178056 0.04265428
0000f0 77 42 7d bc 4e 02 c7 3b 41 92 84 3c e0 19 86 3c
       -0.015457741 0.006073273 0.01618302 0.01636976
000100 1f 84 e2 bc f9 dc d2 3c 21 af 59 3c 2e 93 9e bb
       -0.02765089 0.025740134 0.013286383 -0.0048393225
000110 d9 49 11 bd da 3a e8 bc e0 30 26 bc 76 ff 23 bc
       -0.035470817 -0.028348375 -0.010143489 -0.010009637
000120 51 e9 78 bc e1 cd 0b 3d 3b 4e 36 3d cb 5a c0 bb
       -0.015192346 0.03413189 0.0445082 -0.0058701984
000130 7b fd 04 3d 9f 0b 0f 39 04 2e a7 3c 8c 67 da 3c
       0.0324683 0.00013641872 0.020407684 0.026660703
000140 41 8d 14 bd cd 17 27 bc 6d 3d 54 3d 60 8e 02 bd
       -0.036267523 -0.010198546 0.051816393 -0.03187406
000150 f1 8a e2 3c 90 0a d9 bc d1 29 79 3d 11 fe e3 3b
       0.027654143 -0.026494294 0.060830895 0.0069577773
000160 0f d7 34 3d 5d 52 b6 bc 5d 16 ba 3b 53 e7 1b bd
       0.04415041 -0.02225607 0.0056789354 -0.038062405
000170 56 6f c8 bc cf da 3a bd 15 f3 e6 bc c4 72 01 bd
       -0.024467152 -0.04561883 -0.028192082 -0.03160359
000180 2d 22 1d 3d eb 8b 02 3d 79 62 06 bc 5e c8 a3 bc
       0.03836267 0.031871717 -0.008202189 -0.019993003
000190 c6 a4 21 3d 61 ed 7e 3b 26 f3 b8 bc b0 84 4f 3d
       0.03946378 0.0038898813 -0.02257688 0.05066365
0001a0 a8 c1 b0 3c 9b 23 17 3d c1 66 1d bc 28 68 cd 3a
       0.021576717 0.03689919 -0.009607018 0.00156713
0001b0 3b ed ba bc 87 47 07 bd 7c 10 10 bd 3f e9 0c bd
       -0.022818198 -0.0330272 -0.03517197 -0.03440213
0001c0 87 de 43 bc c5 14 9f bc c2 20 8c 3b c5 9e f7 bc
       -0.01195491 -0.019419083 0.004276366 -0.030227074
0001d0 71 f8 c0 bc 22 97 5e 3d 1b 73 2b 3c 39 60 17 3d
       -0.023555966 0.05434335 0.010464455 0.036957
0001e0 e9 9e a0 bb 3e 86 d9 bb 02 12 f9 bb c1 95 9a 3c
       -0.004901756 -0.0066383174 -0.0076010237 0.018870236
0001f0 35 1a b7 3b 31 47 73 3d 88 fe c6 3c d0 a9 be bc
       0.005587841 0.059394065 0.024291292 -0.023274332
000200 a8 3d 77 bd 2a bc b0 bc ca 92 62 3d 33 e5 d8 bc
       -0.060361534 -0.021574099 0.05531577 -0.026476478
000210 44 c0 14 3d f7 ea 0e bd b4 cc 09 bc 97 c7 96 3c
       0.03631617 -0.03489205 -0.008410621 0.018405719
000220 12 56 e3 bc 1f 1a 8d 3c aa a0 70 bd 66 10 29 bd
       -0.027751002 0.01722437 -0.05874697 -0.041275404
000230 76 22 ce bc 2e 2f 52 bb 79 12 0e bd de 35 8d bd
       -0.025162917 -0.0032071578 -0.034685586 -0.0689504
000240 30 8f 03 3d 62 2f 74 3c 25 e7 19 3c 03 d6 42 3d
       0.032118976 0.014903875 0.009393488 0.04756738
000250 68 91 14 3d 94 86 0a bd 43 61 2e bd 7b a9 20 bb
       0.036271483 -0.03381975 -0.042573225 -0.002451508
000260 46 0f 6d bc e9 52 9f bd f4 53 c2 3c 4f b9 fc bc
       -0.0144689735 -0.07779486 0.023721673 -0.03085008
000270 04 f0 eb 3c f5 14 cc bb 3e 5d 37 3d ec 35 27 bd
       0.028800972 -0.006228084 0.044766657 -0.04082291
000280 e5 d1 38 3c 49 d0 2b bd c8 88 a8 bb 1b e2 14 bd
       0.0112805115 -0.041946683 -0.0051432587 -0.036348443
000290 1b c3 60 3c 3d 6c c2 ba b6 57 66 bc 98 54 31 3c
       0.013718392 -0.0014833283 -0.014058998 0.010823391
0002a0 4e 9b 1f 3d 24 73 7c 3c ff 20 01 bd 7a 87 77 3c
       0.03896647 0.015408311 -0.03152561 0.015107984
0002b0 9d 8e 08 3d 70 d2 bc bc 90 fc a2 bc a1 b8 25 bd
       0.03333913 -0.023049563 -0.019895822 -0.04045928
0002c0 27 b0 e1 bc bc 58 bd bc f1 6f 65 bd 6f 79 44 3d
       -0.027549816 -0.0231136 -0.05601496 0.04796737
0002d0 47 11 a0 3c 0b 79 fb bb bb a8 52 3d b4 03 04 3a
       0.019539488 -0.0076743416 0.051430445 0.0005035952
0002e0 0e e8 23 3c db f2 10 3b 1f b3 11 bd e3 67 df bc
       0.010004057 0.002211741 -0.035571214 -0.027271217
0002f0 b7 fe 5f 3b 5b 27 a4 bb 3b ad 1a 3d 94 65 27 ba
       0.0034178921 -0.0050095743 0.03776286 -0.0006385681
000300 cf cf fa 3b d9 c0 b6 3c b8 14 e0 3a 1b d1 4b bd
       0.0076541672 0.022308754 0.0017096018 -0.049759965
000310 4a 4d 51 3d 9c 9d 9b 3c 1d e9 2a 3b 15 af ec 3c
       0.0510991 0.018996052 0.0026078888 0.02889208
000320 63 f9 8c 3d 25 f9 fe 3b 80 1a fc 3c 1d d0 03 bb
       0.06883504 0.007781165 0.030774355 -0.002011306
000330 d7 08 de bb 36 54 b4 3b 72 f2 16 bd d5 e6 12 3d
       -0.006775956 0.005503203 -0.036852308 0.03586467
000340 bb 3e 07 3c 20 8a 18 bd e2 b9 5b bd 85 9f 86 3c
       0.008254702 -0.0372411 -0.05364407 0.016433487
000350 db 0e 9a 3c ef 61 45 bd b3 c1 cb bc 14 91 2c bb
       0.018805912 -0.0481891 -0.024872636 -0.002633159
000360 25 d4 08 3d 2b bd 11 3d e3 26 86 bd af ed 66 bd
       0.03340544 0.035580795 -0.06550386 -0.056379016
000370 6a 71 38 3d cb 5f 01 bc 37 1b 62 3d d2 23 de bc
       0.045030035 -0.007896374 0.055201735 -0.02711669
000380 cc 8f 65 3c 5f 9b 8a bc 79 de d4 3c bb 85 44 3c
       0.014011335 -0.01691979 0.02598499 0.011994774
000390 b6 92 62 bc a3 89 d8 3c e9 88 84 bd 79 be 83 bd
       -0.013828924 0.026432818 -0.06471426 -0.06432814
0003a0 b5 81 72 bc 87 f5 9b bc c9 30 36 3d 78 35 57 3c
       -0.014801432 -0.019037975 0.04448012 0.013135307
0003b0 63 b7 48 3b 01 e2 6a b8 31 56 6d bc 1d 89 c0 3c
       0.0030626885 -5.600043e-05 -0.014485882 0.02350288
0003c0 ac 95 8e 3c 7c f1 9b bc 4c 1f 03 bd 26 09 e8 3c
       0.017405353 -0.019036047 -0.03201227 0.028324675
0003d0 69 8f a2 3b 37 82 c5 3c f2 de f6 bc f0 0f 28 3d
       0.0049609435 0.024109943 -0.030135605 0.041030824
0003e0 52 5d be bc d9 67 1b bd 05 00 9a ba ff 20 48 3d
       -0.023237858 -0.037940834 -0.0011749273 0.048859593
0003f0 63 ac bb 3c b6 d0 b4 bc 85 63 c3 38 9c e2 06 3c
       0.022909349 -0.022072177 9.3168615e-05 0.008232739

_module.layer4.0.bias f4 [64]
000000 ad de 1a 3d 48 12 8d bc db 4c 8f 3c c6 23 ed 3c
       0.037810016 -0.017220631 0.017492702 0.028947722
000010 55 be b1 bc 1a e5 d5 bc 1e 94 16 bb 11 7c db 3c
       -0.021697203 -0.02611022 -0.0022976468 0.026792558
000020 c7 2a 59 3d c6 34 4e 3d ea 8e 00 bd 2e ca 54 3c
       0.05301931 0.050343297 -0.031386293 0.0129876565
000030 d6 71 44 bb fd 72 e6 ba 53 08 d9 3c ad d4 1b bd
       -0.0029975078 -0.0017581877 0.026493227 -0.03804462
000040 a0 5f 33 3c b9 dd 85 3c 5d cc 20 bd 69 f4 15 3d
       0.010948092 0.016341077 -0.039257396 0.03661004
000050 f9 31 2d bd 2b 4a 56 3c 76 bb 26 3d 27 73 12 bd
       -0.042283986 0.013079206 0.04070612 -0.03575435
000060 38 a1 ef bb ab bc 81 bd 1a 34 1e bc c4 f8 1f 3d
       -0.00731292 -0.06334814 -0.009655977 0.0390556
000070 17 20 8e bb 18 bb e1 3c a7 f5 c6 3c c0 94 aa bb
       -0.0043373215 0.027555034 0.024287058 -0.0052057207
000080 20 db 45 bb 1a db 38 3d 11 6c c6 3c 5d 8e fb 3c
       -0.0030190423 0.045130827 0.024221452 0.030707533
000090 86 c0 2d 3d 65 34 07 bd ad e0 d1 bb 61 ca 41 bd
       0.042419933 -0.03300895 -0.0064049573 -0.047312144
0000a0 47 b9 03 3d 58 c7 18 bd 57 22 1e 3a 2c 99 ca bb
       0.032159116 -0.037299484 0.0006032339 -0.0061828103
0000b0 bc dc 24 bc 05 46 9b bc 0b 3e 83 bd f1 8c 41 3d
       -0.010062393 -0.018954286 -0.06408318 0.047253553
0000c0 e5 74 0e bd 60 95 95 3c 2c 60 25 3c 26 34 dd bc
       -0.034779448 0.018259704 0.01009373 -0.027002405
0000d0 3b e9 4a 3b 6b 48 e1 bc d6 1f da 3a 55 93 f2 bc
       0.003096177 -0.027500352 0.0016641568 -0.029611269
0000e0 71 a3 1f 3d 51 7b 53 bd 1c 05 86 bb f0 9f f5 bc
       0.03897423 -0.051631276 -0.0040899646 -0.02998349
0000f0 00 95 06 bc fb d3 b8 bc 79 5a e3 bc 0d 31 61 bc
       -0.008214235 -0.022562018 -0.027753102 -0.013744605

_module.layer4.1.weight f4 [64]
000000 de 8c 83 3f 3a 47 82 3f e8 92 7b 3f f1 bb 7e 3f
       1.0277364 1.0177987 0.98271036 0.99505526
000010 e2 19 81 3f a2 8a 81 3f 99 1d 81 3f 7a 60 76 3f
       1.0086024 1.0120432 1.0087157 0.9624096
000020 d6 47 80 3f 8c e4 7d 3f 2e 3a 7f 3f 10 a5 81 3f
       1.0021923 0.9917686 0.9969815 1.0128498
000030 f8 92 82 3f b4 dd 81 3f 0a 3d 80 3f ad 92 7e 3f
       1.0201101 1.0145783 1.0018628 0.9944256
000040 a3 c7 7a 3f 98 06 83 3f 27 2e 80 3f a5 d6 81 3f
       0.9796087 1.0236387 1.0014085 1.0143629
000050 2a 05 81 3f dd a2 7e 3f 04 a2 7f 3f 5a 21 82 3f
       1.0079701 0.9946726 0.9985659 1.0166428
000060 ed 9b 82 3f 51 38 7e 3f dd 65 78 3f cd 3a 7f 3f
       1.0203835 0.9930468 0.9703043 0.996991
000070 7b 03 7a 3f a1 25 82 3f e6 93 80 3f 71 55 82 3f
       0.9766156 1.0167733 1.0045135 1.0182325
000080 c4 c3 82 3f ab 2a 82 3f 5e cc 7f 3f d8 83 82 3f
       1.0215993 1.0169271 0.99921215 1.0196486
000090 eb ad 80 3f 44 2b 7e 3f 4b 2c 81 3f 6f e3 7f 3f
       1.0053076 0.9928477 1.0091642 0.9995641
0000a0 8f d3 7e 3f 9e 07 86 3f 95 b5 80 3f e2 37 86 3f
       0.9954156 1.0471075 1.0055414 1.0485804
0000b0 02 34 7b 3f f1 97 7a 3f 84 64 7e 3f ec 3a 7a 3f
       0.9812623 0.97888094 0.99372125 0.9774616
0000c0 7d 2e 81 3f ef d7 7e 3f 9a 3f 76 3f 1a 93 7f 3f
       1.0092312 0.9954824 0.961908 0.99833834
0000d0 5a 02 7c 3f 43 a9 83 3f aa 51 7c 3f c2 09 7e 3f
       0.9844109 1.028603 0.9856211 0.9923364
0000e0 04 11 81 3f ae ab 80 3f 42 a2 7c 3f e6 a1 81 3f
       1.0083318 1.0052392 0.98685086 1.0127532
0000f0 a5 7f 82 3f eb 08 7c 3f 7b 9b 81 3f 97 27 7a 3f
       1.0195204 0.9845111 1.0125574 0.9771666

_module.layer4.1.bias f4 [64]
000000 81 15 6d bc 9d 21 d4 bc 5e c5 49 3c e7 ec fe bc
       -0.014470459 -0.025894934 0.012315122 -0.031118823
000010 8e 6e 82 bc 0c 1a 8e b9 86 f7 0c 3b f7 68 8c bb
       -0.015921857 -0.00027103757 0.002150984 -0.0042849737
000020 34 43 41 bc c3 a1 4f bc 6a 6c b1 bc ab 2f 41 3c
       -0.011795808 -0.012672844 -0.021658141 0.01179115
000030 73 54 51 3c ac 93 2f 3d 29 99 08 bc b1 dc d6 3c
       0.012776482 0.04286544 -0.0083372975 0.02622828
000040 45 5e 26 3d e8 91 69 bd 51 77 da bc db d9 d2 bb
       0.040617246 -0.057023913 -0.026668223 -0.006434662
000050 53 a0 33 3c e0 7b fd bc d2 7a 80 3c 30 21 7f bc
       0.010963517 -0.030942857 0.015683565 -0.015571877
000060 e5 2e 39 bd 60 98 c8 bc 23 b8 b8 bb 63 e4 18 bd
       -0.045210738 -0.02448672 -0.005637185 -0.03732718
000070 9d 2b 45 3c 72 90 d4 3c 4d e5 8f bc 72 fb f8 3b
       0.012034324 0.025947783 -0.017565394 0.007598334
000080 5c 46 81 3c 4c f9 3d 3c a5 21 57 3c 7e 2f 2c bd
       0.01578062 0.011595082 0.01313058 -0.04203748
000090 56 e6 8a bc 4c 73 08 3c 3d 79 0b 3d 4a 91 07 3c
       -0.016955536 0.00832827 0.03405117 0.008274386
0000a0 ba bf 2b bb 8a c0 02 bd 2e c3 80 3b 7f ee 03 bd
       -0.0026206807 -0.0319219 0.003929517 -0.03220987
0000b0 6e 2b 11 3d 7b 51 bc bc 58 6c a7 3b 04 97 3f 3c
       0.03544181 -0.022988072 0.005109351 0.01169372
0000c0 4d 41 ae 3c 63 15 f6 bc 95 70 ab 3c 89 94 e8 bc
       0.021271372 -0.030039495 0.020927707 -0.02839114
0000d0 7c 79 2c bc 11 bf 17 bd 61 c6 68 bc a5 ba 18 bb
       -0.010527011 -0.03704745 -0.0142074535 -0.0023304608
0000e0 6e 4c 96 bc 0d 99 92 bc be 1b 56 bd f6 c8 21 bd
       -0.018346991 -0.017895246 -0.05227255 -0.039498292
0000f0 28 f8 cc bc 1e f6 20 bc 91 ad 09 bc f2 a8 ec 3c
       -0.025020674 -0.009824304 -0.008403198 0.028889153

_module.layer5.0.weight f4 [64, 64, 3, 3]
000000 c3 c8 5e 3d e7 eb 96 bd a2 27 cb bc 7c be 3f 3d
       0.05439068 -0.073692136 -0.024799172 0.04681252
000010 72 2c 4e bd 66 8e bb 3c 55 d8 c5 bc cc 24 b8 bc
       -0.050335355 0.02289505 -0.024151007 -0.022478484
000020 0a 54 4f bb ac e6 16 bd fd 66 95 3c 79 8c 88 bc
       -0.0031635785 -0.03684108 0.018237585 -0.016668545
000030 3a 70 5e 3d b4 81 9d 3b c4 3e 60 3c 8f 9c 84 3b
       0.054306246 0.0048067216 0.0136868395 0.0040469836
000040 cb d7 82 3d d8 53 ec bc 25 ae 1f bd b0 7f 25 bd
       0.063888155 -0.028848574 -0.038984437 -0.040404975
000050 13 cf 63 bd d9 bb 2c 3d bc 11 e0 3c 5b 08 5a bd
       -0.055617403 0.042171333 0.027352206 -0.053230625
000060 f4 cf 12 3d 3d 04 9a 3c 29 09 3e 3d 0a 06 47 bd
       0.03584285 0.01880085 0.046395455 -0.048589744
000070 2b 4d bb b9 f0 9f 9b bc 44 4a 7d 3c 90 ce 24 3d
       -0.00035724914 -0.018997163 0.015459601 0.040236056
000080 fd 13 d2 bc 6e f0 94 3c b3 2d e7 bc 0d 64 45 3d
       -0.025644297 0.018181052 -0.028220033 0.04819112
000090 e3 ba 29 bd 5d 26 ce 3c f7 54 7b bc 0c 91 4d 3a
       -0.041437995 0.025164777 -0.015340081 0.0007841743
0000a0 f1 53 69 bd 28 d8 33 bc 88 85 75 bc 8c 65 22 3d
       -0.05696482 -0.010976829 -0.01498545 0.039647624
0000b0 32 25 04 bd 78 11 67 bd 7f 91 26 3c e2 0a 0a 3d
       -0.032262035 -0.056413144 0.010166525 0.033701785
0000c0 d5 bc 4f 3d 5e 8d 3a bc 8f b4 22 3c 31 40 ce 3c
       0.050717194 -0.011386244 0.009930744 0.025177093
0000d0 98 2e 61 bb 09 ee cf 3c 04 23 47 bc 1d 0b 38 3c
       -0.0034360047 0.025382059 -0.0121543445 0.011233118
0000e0 7c 84 da 3c ca 58 be 3c 46 c9 0d 3d bf 7c 24 bd
       0.026674502 0.023235697 0.034615777 -0.04015803
0000f0 ca 9a bf 3b c0 75 3d 3d 0e 43 fc bc 98 29 e3 bb
       0.0058473097 0.046254873 -0.030793693 -0.0069324486
000100 40 18 c8 3c cc 05 f3 bc de 66 aa 3c f8 e6 ae bc
       0.024425626 -0.02966585 0.020801004 -0.021350369
000110 4b e0 20 bc 3c 1c a0 bc fa 73 1e bc 0b ce 32 bd
       -0.009819101 -0.019544713 -0.009671206 -0.04365353
000120 65 51 bc bc 6c cd ec bc 07 ca 89 3c 76 b9 b0 bb
       -0.02298803 -0.028906547 0.016819967 -0.0053932024
000130 cf 6f 19 3d b9 dc 05 3d 86 0c 5d 3c 4d dd b6 3b
       0.037460145 0.0326812 0.013491755 0.0055805803
000140 cd 62 8a 3c f5 f9 00 3d 53 8c 4a bd 33 7b ff bc
       0.016892815 0.031488378 -0.04945023 -0.031186676
000150 f0 86 77 bc 5b 3c 36 3d 73 78 ab 3c a4 44 46 bd
       -0.015107855 0.044491153 0.020931458 -0.048405305
000160 79 ad 2d bd 99 e7 14 3d 7c 0c f7 bc a0 b0 67 bb
       -0.042401765 0.03635368 -0.03015732 -0.003535308
000170 d6 fe 7e bc af 6f 81 bc e4 a9 57 bd 94 45 47 bb
       -0.015563687 -0.015800325 -0.052652255 -0.0030406462
000180 7a 97 47 bd ad 5a 3b 3d df 96 aa 3c ab 5f 51 3d
       -0.048728444 0.045740772 0.020823894 0.051116627
000190 ee 60 f8 3c ab 9e 62 3c 69 eb 20 3c 3c a7 aa 3c
       0.030319657 0.013831775 0.009821751 0.020831697
0001a0 12 3e e7 3c 50 c6 81 bc 3d 15 49 3d 03 c9 e8 3c
       0.02822784 -0.015841633 0.04909252 0.028416162
0001b0 50 05 c3 bc 76 05 d5 bb 7c 82 b2 3c 70 a3 b3 3b
       -0.023806244 -0.006500895 0.021790735 0.0054821298
0001c0 48 17 fe bc b1 73 0d 3b bb 35 1e 3d fe 51 f0 3c
       -0.03101696 0.002158385 0.03862546 0.029335972
0001d0 c0 32 c9 bc 9b 39 65 3d 16 78 98 3c 9f fe 0f 3d
       -0.024560332 0.05596314 0.018611949 0.035154935
0001e0 2c 82 02 bc aa 59 1c bd db 05 13 3d 06 2a 4d bc
       -0.007965606 -0.038171448 0.035894256 -0.012522226
0001f0 f8 59 81 3d 0b 56 92 3c db 45 82 3c 55 e5 24 bd
       0.06315988 0.017863294 0.01590245 -0.04025777
000200 29 fb c4 bc 33 63 46 3c 44 0c 28 3d 69 67 a4 3c
       -0.024045544 0.012108612 0.041027322 0.020068841
000210 b4 32 bd bc 76 fe e8 bc 7a d2 2e 3c a1 57 02 3c
       -0.023095466 -0.028441649 0.010670299 0.007955463
000220 77 fa 42 bd 72 12 1c bd a5 3d de 3c 5c 9a 44 bd
       -0.047602143 -0.03810353 0.027129004 -0.04799877
000230 bd 8d 4d 3b 0b ae d4 bc e9 04 2c ba 29 de 47 3d
       0.0031365 -0.025961896 -0.0006562011 0.048795853
000240 e0 49 4a bb ba 1a 13 bc 08 9b 83 3c be fd ed 3c
       -0.0030866787 -0.00897854 0.016065136 0.029051658
000250 f1 c3 88 3d e4 a7 47 bd 77 27 2c bd b2 d2 f4 3c
       0.06677998 -0.048744097 -0.042029824 0.029885624
000260 13 2d 6e 3d ba 70 92 bc d8 54 00 3d a2 53 85 3c
       0.058148455 -0.017876018 0.031330913 0.01627523
000270 34 97 90 3d 8f 1a 45 3c e8 ac 56 bd 93 f6 93 3d
       0.0706009 0.012030258 -0.05241099 0.07224765
000280 41 96 fe 3c bf ac bf bb 69 c6 b0 3c c9 d2 17 3d
       0.031077506 -0.0058494504 0.021578984 0.037066255
000290 20 36 81 bd 76 15 1d 3d 54 bc c9 bc 50 ff 4c bc
       -0.06309152 0.038350545 -0.024625935 -0.012512043
0002a0 bc c2 1f bc 81 95 78 3b a9 69 48 3d 58 e1 92 3c
       -0.009751018 0.0037930908 0.04892889 0.017929718
0002b0 f9 81 7f b8 8f 85 8c bc 57 bf e1 bc 6f c3 01 bd
       -6.0917784e-05 -0.01715353 -0.027557058 -0.03168052
0002c0 d4 9a 93 ba 4a 45 c4 ba 05 52 66 3a 68 fb 3c bd
       -0.0011261352 -0.0014974263 0.00087860256 -0.046138197
0002d0 da 49 df bc 62 b1 f9 3c fb b8 ac 3c 24 9a 82 3c
       -0.027256895 0.03048009 0.0210843 0.01594264
0002e0 82 1f b2 3c ff 26 0e 3d 1f f5 a7 3c 79 e9 ce 3c
       0.02174354 0.03470516 0.020502625 0.025257813
0002f0 bf e8 8c bd 2a 73 01 bc 00 50 58 bd 0f 19 e7 bc
       -0.0688033 -0.007900992 -0.05281067 -0.028210191
000300 cb 23 99 bb ea f8 9e bb ee bb 1e bd 07 12 99 bd
       -0.0046734563 -0.00485145 -0.038753442 -0.074741416
000310 62 15 20 3d 14 cf 16 3d bb 4f 9b 3c 73 23 07 3d
       0.039082892 0.03681858 0.018958917 0.03299279
000320 15 a8 f2 b9 fa da 3d b9 8c ac 75 bc 65 3a 57 3d
       -0.00046283068 -0.0001810602 -0.014994752 0.052545924
000330 7c ee e4 bc eb b1 f1 3c 6c 37 5e 3c 0e e8 04 bd
       -0.02794575 0.029503783 0.013563018 -0.032447867
000340 3f 0e 8c 3c 0a 8b b7 ba 65 83 b0 3c 45 7a 8b bc
       0.017096637 -0.0014003229 0.021547029 -0.017026076
000350 e7 bb 4f bb 58 66 7e bd 0c 8d f9 bb 3f f8 26 bc
       -0.0031697692 -0.06210932 -0.007615691 -0.010191022
000360 91 7b c4 bb 06 a4 8e 3d c8 1d 0e bb b8 bb 03 bc
       -0.0059961756 0.06964879 -0.0021685231 -0.008040361
000370 41 21 02 bd 1c fd 1c 3c 0c ef 28 3d d3 01 6d 3c
       -0.031769995 0.00958183 0.041243598 0.014465767
000380 5e 98 d2 3c 69 39 55 3d e3 2e 20 bc ad 0d de 3c
       0.02570742 0.052056704 -0.009776804 0.02710613
000390 c2 c7 55 3c 1d c6 10 bc 43 7d d7 3c 8f 7a 9c bc
       0.013048114 -0.008836296 0.026304847 -0.01910141
0003a0 91 d9 56 bd cd d5 39 3d 35 cb d4 3c 0a 6f 45 bd
       -0.05245358 0.045369912 0.025975803 -0.0482016
0003b0 06 38 0b bb 1a d9 45 bd 82 d6 06 bb 2c 65 2f 3d
       -0.002124311 -0.048302747 -0.0020574634 0.042821094
0003c0 15 59 68 bc 59 e8 cb 3c b4 3d 62 3c cf 6a b4 3c
       -0.014181395 0.024891065 0.0138086565 0.022023587
0003d0 d0 90 58 bc 2d 6d b7 3c ef 8c 45 3c 57 69 f5 3b
       -0.01321812 0.022390926 0.012057527 0.007489364
0003e0 4e 91 e3 3c 08 6e 2f bc 03 c2 aa 3c 30 aa 45 3c
       0.027779248 -0.010707386 0.020844465 0.012064502
0003f0 d1 aa 8d 3c 4f f2 a6 bc 1c 55 09 3c dd 2b cb bc
       0.017293366 -0.020379214 0.008382108 -0.02480119
