weights/pretrain.pth (torch, 944998 bytes, 26 tensors)

layer1.0.weight f4 [16, 1, 3, 3]
000000 df 74 ec bd 34 d2 0a 3e fe 7c c3 bd 7c b0 91 be
       -0.11545729 0.13556749 -0.09545325 -0.2845496
000010 6e 07 35 bd 73 9e dd bd 7b de ae 3d 2b 83 6c 3e
       -0.04419654 -0.108212374 0.085385285 0.23096912
000020 d0 23 a7 bd b0 00 0b be dd a0 67 be 93 24 2a 3c
       -0.081611276 -0.13574481 -0.22619958 0.010384697
000030 48 76 76 bd b8 ca 47 3d 93 f9 8e 3e 94 87 e0 3d
       -0.060171396 0.048777312 0.27924785 0.109633595
000040 f2 80 37 3e dc 2c 9e bc 0e 06 0c be f8 05 4b 3e
       0.17920282 -0.0193085 -0.13674185 0.19826496
000050 c4 23 56 3d 0a fc 82 3d 60 89 93 3e 0f 0d 48 3e
       0.052280203 0.06395729 0.28815746 0.19536231
000060 36 75 06 3c 01 ab 06 be df ad e7 bd 56 c1 1e 3e
       0.008206656 -0.1315117 -0.1131246 0.1550344
000070 26 19 1c 3c 66 34 8d be fc 37 16 3e 2a 0b b8 bd
       0.00952748 -0.2757904 0.14669794 -0.089865044
000080 11 0a db 3d 6a 7d 27 be 27 d5 4f be f4 4e ab 3d
       0.106952794 -0.16356435 -0.20296155 0.083646685
000090 45 0c 28 3e a5 dc a2 be 19 fb 17 3e 46 a1 45 be
       0.1641093 -0.31808963 0.1484188 -0.19299802
0000a0 1b ae f1 3d 36 ef 75 be d6 a6 3f bc 9d ff 66 be
       0.11800786 -0.24017033 -0.011697492 -0.22558446
0000b0 6c e2 15 be b3 35 18 be 60 6b dd bd d6 9f d4 b8
       -0.14637154 -0.14864235 -0.10811496 -0.000101387195
0000c0 ce 24 d4 bd 51 36 23 be a7 e6 83 3c d5 c1 a4 3e
       -0.103585824 -0.15938689 0.016101195 0.32179132
0000d0 9f 36 55 3d ac 06 67 3e 34 37 a2 be d5 8c 9d be
       0.052054044 0.22561139 -0.31682742 -0.3077151
0000e0 d4 a3 20 3e cc 8a d2 bc 68 9b da 3c bd 83 3b 3e
       0.15687495 -0.02570095 0.026685432 0.18311973
0000f0 0e 51 86 be 5b 73 59 be ce 13 f5 bd 1a 55 4b be
       -0.26233715 -0.21235411 -0.11966668 -0.19856682
000100 90 65 82 be 09 0b 0c 3e 3e 15 93 be 05 39 4d 3d
       -0.2546811 0.13676085 -0.28727144 0.050103206
000110 1a 45 22 3e 98 94 64 3e 0c b7 38 bd 79 2f db 3c
       0.15846673 0.22322309 -0.045096442 0.026756035
000120 06 48 a0 be ab 7c 97 be ec c4 8e be 57 e2 80 3e
       -0.3130495 -0.29587302 -0.27884614 0.25172684
000130 b6 64 9d be f5 17 8e 3e 98 97 ea bd 85 56 c1 bc
       -0.307409 0.27752653 -0.114546955 -0.023600826
000140 69 90 87 3e 35 ae 8c be 68 74 d5 3c 7f b6 2f be
       0.26477364 -0.2747666 0.026056483 -0.1715946
000150 25 4e 11 3d 32 d9 d7 bd ad 11 b1 bd b2 53 81 be
       0.035474915 -0.105394736 -0.086459495 -0.25259167
000160 eb 90 47 be 06 89 b7 3c 67 f6 86 3e 97 25 70 3e
       -0.19488876 0.022404205 0.26359865 0.2345184
000170 50 d6 bc 3c f0 32 6f 3e 59 f0 68 bd 4b 1b 93 3e
       0.02305141 0.23359275 -0.05686984 0.2873176
000180 2d 7c 01 bc 39 db 0d 3e 01 32 63 be 9b 7f 64 be
       -0.007903141 0.13853158 -0.22187044 -0.22314303
000190 ef 1a b0 be f6 55 a6 3e b3 b0 c4 bd db bc 8a be
       -0.3439555 0.32487458 -0.09604015 -0.2709721
0001a0 08 f7 1a 3e c5 06 6c 3d 49 d7 9d be b7 ac fb 3c
       0.15133297 0.057623643 -0.30828312 0.030722005
0001b0 f7 d9 07 3e 98 6a 40 3d 88 63 29 3e 8b 68 a5 3e
       0.1326674 0.046976656 0.16541874 0.32306322
0001c0 2c 13 8e be e0 96 7d 3b 14 6a 35 bc 82 6c da bd
       -0.27749002 0.0038694665 -0.011072654 -0.106652275
0001d0 93 b1 9f 3e 72 da 69 3e ac 36 6e be be e4 87 be
       0.31190166 0.22837237 -0.23263043 -0.26541704
0001e0 d0 40 b8 bd 49 6e 5c 3e 12 52 7f be f8 63 6e 3e
       -0.08996737 0.21526445 -0.24933651 0.23280323
0001f0 2d 04 2d bc 3a 73 2d be f7 aa 01 3e e2 e8 97 3e
       -0.010560078 -0.16938487 0.12662874 0.29669863
000200 6c 5e 24 be 84 97 17 bd 49 48 10 3e ca c6 4a be
       -0.16051644 -0.03700973 0.14090075 -0.19802395
000210 61 28 07 be cf a8 94 3e f0 1c e5 bd 8d ec 68 be
       -0.13198997 0.2903504 -0.1118716 -0.22746487
000220 e2 d0 19 3d 5d cf 24 3e 23 81 57 be fd 6c 97 bd
       0.03755272 0.16094728 -0.21045355 -0.07393835
000230 c6 bc b0 3d 24 91 0e 3e 57 0b 2e 3e 34 07 ff bd
       0.08629756 0.13922554 0.16996513 -0.12452546

layer1.0.bias f4 [16]
000000 7a 3a 81 be 66 ed 20 be 21 ca 01 3e 57 9e 9a 3d
       -0.25239927 -0.1571556 0.12674762 0.07549732
000010 2d a8 c9 bd e1 91 c6 bd ce fb a0 3e ee 16 77 3e
       -0.0984653 -0.09695793 0.31442112 0.2412984
000020 12 61 4b bc 7f 1c c4 bd 94 fb c0 3c 3e ef 55 be
       -0.01241328 -0.09575748 0.023557462 -0.20892045
000030 17 ff 1c be 27 10 88 be 1d dc db 3d bb 3f 87 3e
       -0.15331684 -0.26574823 0.10735343 0.2641581

layer1.1.weight f4 [16]
000000 38 8b 81 3f 18 92 80 3f 14 54 7d 3f c2 0b 80 3f
       1.0120611 1.0044584 0.9895642 1.0003588
000010 eb 7e 80 3f 32 2c 80 3f 9b 5a 80 3f 79 1c 80 3f
       1.0038732 1.0013487 1.002765 1.0008689
000020 31 45 80 3f 7c 40 81 3f a8 a9 7d 3f f4 7d 82 3f
       1.0021116 1.0097804 0.99087 1.0194688
000030 c7 2a 7f 3f ba 9d 80 3f 91 56 7e 3f ce 78 7f 3f
       0.9967465 1.0048134 0.9935084 0.9979371

layer1.1.bias f4 [16]
000000 09 c3 04 3c a1 e7 73 bb 4c e6 48 bc a1 8f 73 bb
       0.008103141 -0.003721692 -0.012261938 -0.0037164467
000010 58 1f d0 3a d7 ef 18 39 9a d5 23 bc 8e e2 29 bb
       0.0015878482 0.00014585197 -0.009999657 -0.002592239
000020 37 8a 72 3a 0a bd 80 38 78 9f 55 ba f5 6a 8a 3c
       0.0009252163 6.138727e-05 -0.0008149068 0.016896704
000030 83 16 89 3a 85 1a c6 bb 57 bd ee b9 bf 12 74 bb
       0.001045898 -0.006045642 -0.00045535967 -0.003724262

layer2.0.weight f4 [16, 16, 3, 3]
000000 7c 4b c4 3c 19 10 71 bd 52 91 83 bd ca 03 9f 3d
       0.023961775 -0.058853243 -0.06424202 0.077643946
000010 52 db 6b 3d 02 06 4b bd 31 30 7f ba 07 b6 0c bd
       0.057582207 -0.049566276 -0.0009734659 -0.034353282
000020 e7 e5 1a bc a5 1d a3 3d b4 bd 14 bc c7 00 ac 3d
       -0.009454227 0.079646386 -0.009078432 0.08398586
000030 e4 a4 89 3c 31 1b 00 3d 6f 23 80 3d 83 93 b1 3d
       0.016802259 0.03127593 0.062567584 0.08670714
000040 89 06 87 bd 45 37 a1 3d 4d 62 3f bd d6 8b ba bc
       -0.06593043 0.0787187 -0.046724606 -0.022771757
000050 64 e6 38 bd 47 74 b6 bc b2 42 2e 3d fb 0a 4e bd
       -0.045141593 -0.022272242 0.042544074 -0.05030344
000060 8c bd a3 3d 0a 2f c1 3a 31 c9 38 bd 6f 69 b9 bc
       0.079951376 0.001473875 -0.045113746 -0.022633282
000070 d9 36 99 bd 66 5a a9 bc f8 3f 65 3d d6 70 a9 3d
       -0.074811645 -0.020672988 0.05596921 0.08273475
000080 8a 01 82 3d 08 df 99 3d c6 d6 85 bd 95 a4 f9 bc
       0.0634795 0.07513243 -0.065351054 -0.030473987
000090 8a 3e 1c 3d cf a0 32 3d e8 78 d2 3a 4a f1 9c 3c
       0.03814558 0.04361039 0.0016057761 0.019158024
0000a0 c2 72 63 3d eb bb 86 3c ea 63 82 bd 74 5b 87 3c
       0.055529363 0.016447028 -0.06366713 0.0165231
0000b0 c0 07 69 bd df 92 30 bc 73 ae 5c 3d 43 a3 14 3d
       -0.056892157 -0.010777204 0.053877305 0.03628851
0000c0 5d 64 ed bb 61 6e 0f bd f8 e9 dd 3c 30 ad 7f bb
       -0.0072446303 -0.035017375 0.027089104 -0.003901314
0000d0 e5 3a 9d 3d 60 09 06 3d 3d a2 15 3d a1 04 6b 3d
       0.07677249 0.032723784 0.036531676 0.05737746
0000e0 4c c7 88 3d 6a d8 4c bd 8d ca 93 bd 49 8d 57 3d
       0.06678638 -0.050011076 -0.07216368 0.052624974
0000f0 56 cf 8a bd ef ab 90 3d 69 34 19 bd 18 53 8e 3c
       -0.067778274 0.07064044 -0.037403498 0.017373607
000100 30 90 a8 3d d4 e5 0b 3d af 4d 91 3d e1 25 97 bd
       0.082306266 0.034154728 0.07094895 -0.07380272
000110 44 c8 19 3c 22 d3 2a bd 98 bc 1e 3b d3 cf e6 bc
       0.009386126 -0.04170526 0.0024221297 -0.02817527
000120 4a 21 fa bc 2a f2 6f 3d e4 42 47 bb 27 b6 43 3d
       -0.030533452 0.058580555 -0.003040486 0.047781136
000130 5c 3c da 3a f7 24 2e bd 31 84 f3 3c 1f 55 1b bd
       0.0016650069 -0.04251572 0.02972612 -0.037922975
000140 24 80 c2 3c ff a8 4b bd 44 8b 64 3d 5e 58 ea bc
       0.023742743 -0.049721714 0.055796877 -0.02860659
000150 5e a1 5b bd e6 48 d0 bb 69 bc 7f bb a0 ea 1c 3d
       -0.05362069 -0.0063563464 -0.0039022213 0.038309693
000160 b5 1b 87 bd df 68 22 3d a5 32 53 3d f9 ec 89 3d
       -0.065970816 0.039650794 0.05156197 0.06734652
000170 9d 1f 67 bd 88 c1 19 3d a4 85 72 bd 80 50 36 3d
       -0.056426633 0.03753808 -0.05920948 0.044510365
000180 99 76 9f bc 91 e6 36 3d e4 41 32 bd 6a 75 4b bd
       -0.019465731 0.04465348 -0.04351987 -0.04967252
000190 c4 f7 1a 3d 53 4e 5c bd 2a 3b d7 bc c3 e6 55 3d
       0.037833944 -0.053785633 -0.026273329 0.052222025
0001a0 74 e7 20 bd 69 76 8d bd 56 af 42 3d 4e a3 27 3d
       -0.03928323 -0.069073506 0.047530495 0.040927224
0001b0 c7 a5 4b bd 45 ee 91 3c f7 2f 2d 3d df a7 9d bd
       -0.049718644 0.017813811 0.04228207 -0.076980345
0001c0 ab 34 c2 3c db 5b 6a 3d 77 81 59 3d cb 23 b1 3c
       0.023706755 0.057216506 0.053101983 0.021623513
0001d0 73 35 fa 3b 0c 02 bd bc 21 30 8b 3c e3 f1 c0 bc
       0.007635766 -0.023072265 0.016990723 -0.02355284
0001e0 55 e2 5f bd 4e e3 8c bc ee 43 a2 bd 7c 54 60 3d
       -0.054659206 -0.017198231 -0.07923113 0.05476807
0001f0 01 22 f9 3c fe af 59 bd bb e5 92 bc 6a 78 17 bc
       0.030411722 -0.053146355 -0.01793181 -0.009245018
000200 ce 85 12 3c 2e 53 d6 bc 20 08 ee bc 12 7a 9a bd
       0.008943034 -0.02616271 -0.029056609 -0.07542814
000210 7d 00 07 3d 85 fc 9e bd bf 63 cb bc a8 4c 31 bd
       0.03295945 -0.07763008 -0.024827836 -0.043285996
000220 82 65 a3 3d f5 d5 5c 3d b1 9d e0 3c bd a0 9d 3d
       0.079783455 0.053914983 0.027418943 0.07696674
000230 07 07 9d bd 47 ac 35 bd e2 ae b3 3c 66 04 07 3d
       -0.07667356 -0.04435375 0.021933977 0.03296318
000240 16 3d 1c 3b 09 20 a7 bd 4e 9b 99 3c a3 12 35 3d
       0.002384012 -0.08160407 0.018750813 0.044207226
000250 bc 60 da 3c 5a 97 b7 bd 12 e6 bf 3c 9e 41 f5 bc
       0.026657455 -0.08964415 0.023425136 -0.029938515
000260 fa 55 73 bc 6b 07 0b 3c 44 5b 4f 3d 17 83 97 bb
       -0.014852041 0.008485655 0.050624147 -0.0046237814
000270 7a 7f 8d bc 56 af 07 bc 03 6f 90 bd 25 e6 49 bd
       -0.0172727 -0.008281549 -0.07052424 -0.04929175
000280 3e a7 a8 3d 74 5d 29 3d e3 74 92 bd ed 9c 05 3d
       0.08235024 0.04134889 -0.071512006 0.03262036
000290 61 46 b5 3c 0e 8c 53 bd 7b 08 59 3d cf 74 21 3d
       0.022128286 -0.05164724 0.052986603 0.039418038
0002a0 ac f3 74 3c 88 60 1b 3d 67 23 45 3d c0 ef 6f 3d
       0.014950674 0.037933856 0.048129465 0.058578253
0002b0 06 7f 3e bd cb ed 57 bd 8d 9e 9e 3d e8 3d 5f 3c
       -0.046507858 -0.05271701 0.07745085 0.013625599
0002c0 92 ed 89 3d e6 83 a6 bd f4 3b 1b 3d d3 0a 81 3d
       0.06734766 -0.081306264 0.037898973 0.06300893
0002d0 f3 1c 72 bd 5a 6c 08 3b 3d 18 a4 bd ff 30 31 bd
       -0.05910964 0.0020816536 -0.080124356 -0.043259617
0002e0 fa 60 84 bc a7 e7 7f bc b4 b5 19 b9 64 67 82 bd
       -0.016159523 -0.015619195 -0.00014658907 -0.063673764
0002f0 fe 29 9f 3c dc ef 5e bd b9 eb 92 bd b9 d2 fc bc
       0.019429203 -0.054427966 -0.07173867 -0.0308622
000300 ef d9 35 bc 61 50 8c 3d 16 94 34 bd 5a 67 ab 3c
       -0.011099323 0.068512686 -0.04408654 0.020923305
000310 e3 73 5f 3b e4 6f 3f bd 10 16 a5 3d 57 52 41 3c
       0.0034096173 -0.046737567 0.08060849 0.0117994165
000320 2d 28 a1 3d 83 ca 68 3d f8 46 0e 3d 08 7f df ba
       0.07868991 0.056833755 0.03473565 -0.0017051408
000330 ba 1b 2f bd d6 36 44 bd d9 cc dc 3c 56 46 04 bd
       -0.04275105 -0.047903858 0.026953148 -0.03229364
000340 3f da 85 3d 1a f5 29 3d 67 a4 91 ba 6d d3 52 3c
       0.06535768 0.041493513 -0.0011111618 0.012867791
000350 35 9b 80 b9 e4 5c 94 3c 89 fc 5e bd e9 44 92 3d
       -0.000245297 0.0181107 -0.054440055 0.0714205
000360 83 33 a9 3d 2b 52 3a bd 2c 0d 42 3d ea a5 6e bd
       0.08261778 -0.045488518 0.047375843 -0.058263697
000370 e6 7f 83 3d 78 51 8e 3d e5 8b 8f bd 56 ce ad 3d
       0.06420879 0.06949133 -0.07009105 0.08486621
000380 e2 1e 9c 3d 3a 43 e5 3c b8 fb 12 3d f1 2d 62 bd
       0.07623078 0.027986158 0.03588459 -0.055219594
000390 77 0c 26 3d 80 a4 95 bd 5e 17 3f bd 33 34 70 3d
       0.04053923 -0.073067665 -0.046653144 0.05864353
0003a0 10 9e 5f 3d 41 e2 5c bd 56 a6 0a 3d 83 9f 5c 3d
       0.0545941 -0.05392671 0.033850037 0.05386306
0003b0 a6 b5 ad bd 9b dc 94 3d f0 8e 53 3d d4 ac d8 bc
       -0.08481912 0.0726864 0.051649988 -0.026449598
0003c0 bc a4 cd 3b 16 f1 de 3c f8 19 ac bc ee c9 fa 3c
       0.0062757414 0.027214568 -0.021008477 0.030613866
0003d0 10 03 5c 3d 97 dd 86 bd 0a 88 64 bd 06 e3 76 bd
       0.053713858 -0.06585234 -0.0557938 -0.0602751
0003e0 0e ee 64 bd e3 24 7b 3c fa 31 43 3d 21 fc 80 bd
       -0.05589109 0.015328619 0.047655083 -0.0629809
0003f0 d9 05 bf 3b 9f a2 85 3d a0 f7 81 bb de 14 69 3d
       0.0058295545 0.06525158 -0.003966287 0.056904666

layer2.0.bias f4 [16]
000000 78 45 83 3c a4 55 fa bc 9a 1d be bc ea 20 05 bd
       0.016024336 -0.030558415 -0.023207474 -0.032502092
000010 63 66 dd 3c 78 84 61 bd 2c d2 99 3d b0 d6 64 3d
       0.02702636 -0.055057973 0.0751079 0.055868804
000020 da 33 cc bc ab 23 8b bd 54 f4 73 bd ae bc 17 3d
       -0.024927069 -0.067939125 -0.05955918 0.037045173
000030 45 5c 71 3d 39 e2 17 3c 42 71 7a bd 2c e2 95 bd
       0.058925886 0.009270244 -0.061143167 -0.073185295

layer2.1.weight f4 [16]
000000 e5 e6 80 3f 36 64 7e 3f e0 ae 81 3f 60 13 80 3f
       1.0070463 0.9937166 1.0131493 1.0005913
000010 9b 19 80 3f e6 4a 81 3f 15 1a 80 3f de 1e 80 3f
       1.0007814 1.0100982 1.000796 1.000942
000020 a8 3f 7d 3f 14 bb 80 3f ac b9 7e 3f ff 6d 80 3f
       0.98925257 1.0057092 0.9950206 1.0033568
000030 f0 80 7d 3f 2b 02 80 3f 19 5c 7e 3f 4d 01 80 3f
       0.9902487 1.0000662 0.9935928 1.0000397

layer2.1.bias f4 [16]
000000 4b d6 20 3b 5f b5 19 bc f7 3d 80 bb 07 25 8e b9
       0.002454179 -0.009381621 -0.003913637 -0.00027111938
000010 c3 c8 b5 3a 5f f9 e7 3a 93 1d 83 ba b6 95 99 ba
       0.0013869036 0.001769822 -0.0010003321 -0.0011717591
000020 f4 73 08 bc 7a 1c f9 3b 60 70 8c bb 47 ca 00 bc
       -0.008328427 0.0076022716 -0.004285857 -0.007860727
000030 63 68 16 bc 78 10 03 bc e6 98 81 3a 21 48 64 bc
       -0.009180161 -0.007999532 0.0009887486 -0.0139332125

layer3.0.weight f4 [64, 16, 3, 3]
000000 f6 90 74 bd ec 60 24 3d 2b 24 8d 3d 1a a9 46 bd
       -0.059708558 0.040131494 0.06891664 -0.04850111
000010 64 ca b3 bc 95 87 57 bd 29 cb 0e 3d e8 12 94 bb
       -0.021947093 -0.052619535 0.034861717 -0.0045188554
000020 13 37 49 3d 79 9d 8c 3d d4 fe 43 3b e3 ec 8e 3d
       0.04912479 0.06865973 0.0029906528 0.06978776
000030 0b dd 4f 3d fb fa 97 3d d2 c7 79 bd 21 e0 8e bc
       0.050747912 0.074209176 -0.06098158 -0.017440857
000040 20 60 2a bd 00 08 30 bd ac ff 98 3d 39 3e b3 3d
       -0.04159558 -0.04297638 0.074706405 0.087521024
000050 63 ef a5 3c f9 f5 98 3d 5c c1 a4 bc 73 6f 1e 3d
       0.02025575 0.074687906 -0.020111732 0.038680505
000060 44 12 11 3d 17 40 5d 3d f3 3f 85 bd 51 d1 67 3d
       0.03541781 0.0540162 -0.06506338 0.056596104
000070 01 b1 eb 3c 03 21 8e bd 57 1d 9f 3d f5 32 9f 3c
       0.028770925 -0.0693989 0.07769268 0.019433478
000080 1b c1 64 3d a4 31 84 3c df 3e 7a 3d 7a 05 6b 3d
       0.055848222 0.016136952 0.061095115 0.05737827
000090 e3 40 d4 3c 88 a9 94 3d dd 46 a4 3d d1 a2 3b bc
       0.025909847 0.07258898 0.080213286 -0.011452393
0000a0 9b 7a 4f 3c 2d ac 91 3c 40 a2 4c 3d b2 06 33 bd
       0.012663509 0.017782295 0.04995942 -0.043707557
0000b0 48 d1 57 bd e0 22 3c bd fc 61 59 3d 13 4c 39 bd
       -0.05268982 -0.045931697 0.05307196 -0.045238566
0000c0 8d 53 19 bd 76 44 73 3d f8 26 15 bb 31 46 94 bd
       -0.037433196 0.05939146 -0.0022758823 -0.072399504
0000d0 fd 43 8b 3d 90 a8 7c 3d c6 54 fd 3c f7 6e a1 bd
       0.06800077 0.06168419 0.030924212 -0.07882493
0000e0 39 03 c3 3c f6 0a c6 3c 77 d3 67 3d 04 0b 8e 3b
       0.023805248 0.024175148 0.056598153 0.0043348093
0000f0 b3 75 a7 bd e8 53 b9 3c 33 e4 5c 3d c5 20 6a 3c
       -0.08176746 0.022623017 0.053928565 0.014290039
000100 9f 8b 95 bd 66 9a a2 3c c2 74 89 3d fd ee 08 3d
       -0.07302021 0.019849014 0.06711723 0.033431042
000110 db 1f 75 bd ea 2f 7b 3d b9 bf ca 3c f3 88 84 bc
       -0.059844833 0.06132499 0.024749624 -0.016178584
000120 96 d9 a2 3d 0e 56 e2 bc 0e b9 9f 3b 90 bf 2e bd
       0.079516575 -0.027628925 0.004874355 -0.042663157
000130 66 e2 79 bd 28 79 a9 bd a0 33 71 3d b0 b0 37 3d
       -0.061006926 -0.08275062 0.058887124 0.044846237
000140 84 8f b0 3c 9a 99 24 bc 14 bc be bb e2 15 09 bd
       0.021552809 -0.010046387 -0.0058207605 -0.033468135
000150 41 b7 31 bd 72 e4 b4 3d c9 23 06 3d 93 78 76 bd
       -0.043387655 0.08832635 0.03274897 -0.060173582
000160 47 98 98 bd 91 cd 54 bc 09 0f 12 ba a3 7b 43 bd
       -0.074509196 -0.012988464 -0.00055716984 -0.04772533
000170 1f f3 fd 3c be 8a 91 bc 04 43 59 3d 27 2b 64 bd
       0.030999718 -0.017766353 0.053042427 -0.055705216
000180 c4 22 9b 3d f6 29 49 bd 78 3a 13 bd 92 7e f0 3c
       0.075749904 -0.049112283 -0.035944432 0.029357228
000190 22 06 54 3c 9a 3e 2e 3d 75 7d 9d 3d e9 d2 3b bd
       0.012940915 0.04254017 0.07689945 -0.045855436
0001a0 8a 45 e4 bc d4 28 8a bc b5 b8 bb 3c dc 7c 43 bd
       -0.02786519 -0.016865171 0.022915224 -0.047726497
0001b0 2e d6 55 bd 01 25 9d bd b1 33 66 3c 5b 4f e8 3a
       -0.05220621 -0.076730736 0.01405041 0.0017723845
0001c0 ca 48 22 bc 38 ca 83 3d f5 29 89 3d db 08 97 bd
       -0.00990505 0.064350545 0.06697456 -0.07374736
0001d0 d2 cb 9c 3d 94 b0 cc bc ba ea e3 bc 33 77 87 3d
       0.07656063 -0.024986543 -0.027821887 0.06614532
0001e0 1a 87 c4 3c dd 8d 02 bd 16 a2 5b bd 2f d6 63 bd
       0.023990203 -0.031873573 -0.053621374 -0.055624183
0001f0 02 7d 21 bd 14 69 2b bd 38 c1 07 bd 24 e3 66 3c
       -0.039425857 -0.041848257 -0.033143252 0.0140922405
000200 c6 18 4d 3d 63 5e e1 bb c4 b6 38 3d b8 f8 86 3a
       0.050072454 -0.006877707 0.045096174 0.0010297513
000210 c4 5b 98 bd f1 29 46 bd 8d 06 09 3d 3e 56 a6 3d
       -0.07439378 -0.048379842 0.033453513 0.08121918
000220 6f f2 84 3d 37 fa 80 3d fd 47 48 bc 5e 80 b5 bc
       0.06491553 0.06297725 -0.012224195 -0.022155937
000230 0c f3 5c bd 82 24 7d 3d 7c 77 ed bc 5f 3d fd ba
       -0.053942725 0.061802395 -0.028987639 -0.0019320658
000240 33 7f 72 bc 90 86 a3 3d 32 9f 56 bc a1 81 1d bd
       -0.0148008345 0.0798465 -0.013099479 -0.038453702
000250 6c 9f ea 3b 80 cd c4 ba 0b 02 80 3d d2 59 f3 3b
       0.007160118 -0.0015014857 0.0625039 0.007426479
000260 6c 29 a3 bc 97 55 25 3d 7b 79 b0 3c 6d 30 d6 3c
       -0.019917212 0.040364828 0.021542301 0.026146138
000270 a9 bf 8f bd 39 16 4e 3b e1 d6 19 3d 44 29 a6 bc
       -0.07018978 0.0031446351 0.03755844 -0.020283349
000280 91 77 88 3d bd 41 b4 3d 18 4d 56 bd 6b f2 43 bd
       0.066634305 0.08801601 -0.052319616 -0.04783861
000290 56 58 9d 3d e3 39 45 3d 9d 9a 56 3b f4 1f 51 bd
       0.07682864 0.04815091 0.0032745965 -0.051055863
0002a0 e4 58 4b bd 1e 65 b9 3c 4a 3f d7 3c ea d3 27 3d
       -0.04964532 0.022631224 0.026275296 0.04097358
0002b0 10 e4 2a 3d 3f 0e 4a 3d b6 64 9f 3d 4f 8e 86 bd
       0.041721404 0.049329992 0.07782881 -0.06570112
0002c0 f1 26 c4 3c 95 df 22 bd a1 fb 4c 3d 27 b1 17 3d
       0.02394435 -0.039764006 0.05004466 0.03703418
0002d0 8e 91 49 bc 0e fb b5 3d d0 2e a2 ba 05 14 ae bc
       -0.012302769 0.088857755 -0.001237357 -0.02124978
0002e0 c1 19 a8 3d 32 85 58 bd 52 76 41 3d da 7c 32 bd
       0.08208037 -0.0528614 0.04723198 -0.0435761
0002f0 33 6b a9 3d 3a 97 7d bd f0 fc 96 3c ef 19 26 bc
       0.082724 -0.0619118 0.018431157 -0.010138019
000300 d4 5f d9 3c b6 ab 8e bc c2 4b 44 bd cc fa f5 3b
       0.026534952 -0.017415863 -0.04792381 0.007506704
000310 52 cc 4f bc c0 51 1e bd 40 b2 2e bd de 0d 86 3c
       -0.012682991 -0.03865218 -0.04265046 0.016364034
000320 bf fe a9 3b 38 60 f7 3b a9 cf 73 3d b0 9e 79 3d
       0.005187839 0.007549312 0.059524212 0.06094235
000330 c1 55 aa 3d 76 9d 0d 3c 8e c2 1f 3c 6d fc 3b bd
       0.083171375 0.008643499 0.009750975 -0.04589503
000340 9f 3d 16 3d 18 22 72 bd 5d 8d 24 3d d0 39 04 3d
       0.03667986 -0.059114546 0.040173877 0.032281697
000350 77 3b 00 3c 48 15 a7 bd 2c c6 49 3d 5a b1 fb 3c
       0.0078266775 -0.08158356 0.049261257 0.030724216
000360 9f ea 9d 3c 04 6a e5 3c b8 9e 5b 3d 6d 6b 11 bd
       0.019276915 0.028004654 0.053618163 -0.03550284
000370 d5 28 e7 bc 6c 40 98 3d d8 8a 93 3d b1 b5 7e 3c
       -0.028217712 0.074341625 0.07204217 0.015546248
000380 5e ed 6a bd 9b 35 a6 bd d2 d7 8b 3b b7 22 81 bd
       -0.057355277 -0.08115693 0.004267671 -0.063054495
000390 ba 4b b2 bd d7 ed 41 3d 7f 81 04 3d 64 8d 7d bc
       -0.0870585 0.047345962 0.03235006 -0.015475605
0003a0 8c d9 b8 bd ea 73 b6 3c be 59 81 bd b5 40 7f 3d
       -0.09025869 0.022272069 -0.06315945 0.06231757
0003b0 32 b1 80 3d 93 a0 ca 3a 55 8c 42 3d 3b 03 6a bd
       0.06283797 0.0015459232 0.047497112 -0.057131987
0003c0 b6 4d 1c bd d7 15 a4 3d 14 aa 82 bc b9 9b 92 bc
       -0.03816005 0.08011978 -0.01595024 -0.01789652
0003d0 23 93 ad bb fc ba 8d 3d 74 94 9a bd b0 55 ed bc
       -0.005297081 0.0692043 -0.075478464 -0.028971523
0003e0 61 ac 69 3d 64 fd 2d bb 24 ba 69 3d d8 da 92 3d
       0.05704916 -0.0026548738 0.057062283 0.071706474
0003f0 c3 c7 0a bd 8c 76 5c 3d 9a 57 da bc 91 30 94 bd
       -0.033881914 0.053823993 -0.0266531 -0.07235826

layer3.0.bias f4 [64]
000000 09 a9 06 bc 8e c5 4a 3c 48 a5 86 bb c4 08 cd 3b
       -0.008219012 0.012376202 -0.0041090585 0.0062571485
000010 aa 45 5f 3d 22 db 82 bd 8d d7 11 bd 6b 66 0c bd
       0.054509796 -0.063894525 -0.035605956 -0.03427736
000020 0b 52 6b 3c 84 33 93 bd ce 3a e5 3c 8c 05 80 bc
       0.014362822 -0.0718756 0.027982142 -0.015627645
000030 33 b6 b1 3a 2e c0 b2 bc 30 80 99 3d f2 f1 db bc
       0.0013558328 -0.021820154 0.07495153 -0.026848767
000040 eb cb 9e 3d cf f3 ee 3c 5b 93 2a bd 38 1d 0e ba
       0.07753738 0.029168991 -0.041644435 -0.0005421224
000050 9a 40 84 bd 79 48 32 bd 2d 45 d1 bc 2f 59 45 3d
       -0.06457634 -0.043526147 -0.02554568 0.048180755
000060 48 c3 7d 3d d0 61 0c 3b 93 88 9c bd 78 0a 9b 3d
       0.061953813 0.0021420605 -0.07643237 0.07570356
000070 52 99 7d 3d 19 b2 0c bb c0 0d 13 3d b0 08 ea bc
       0.061913796 -0.002146846 0.035901785 -0.028568596
000080 f9 6c 28 bd d7 a4 20 3d 5b 89 09 3d 6d 24 36 bd
       -0.04111955 0.039219704 0.033578258 -0.044468332
000090 4b b5 cc bc 3a 05 37 3d 93 22 40 bd 0e a6 92 3c
       -0.024988791 0.04468272 -0.046907973 0.017901447
0000a0 10 6c a3 bd c3 d9 9f 3c 1f 16 f6 bc 6d 9c 1a bd
       -0.07979596 0.019513017 -0.030039845 -0.037746836
0000b0 db 6e ec bc ce 12 2a bc 6e 66 64 bd af 49 23 3c
       -0.028861454 -0.01038046 -0.055761747 0.009966298
0000c0 95 7e a7 3d a2 76 c0 bc 98 8a 4f 3c 54 9b 5e bd
       0.081784405 -0.023494069 0.012667321 -0.05434735
0000d0 11 d9 1f bc 86 78 85 bd 1a e0 a4 3d 14 0e 90 3d
       -0.0097563425 -0.06517129 0.080505565 0.07033935
0000e0 ce 8b 55 3c 4b 4a 8f bc 19 a3 71 ba 8a 56 a3 3d
       0.01303382 -0.01749148 -0.0009217724 0.079754904
0000f0 92 99 90 bd e2 a9 36 bd 13 bd 7e bd 05 31 9e 39
       -0.07060541 -0.044595607 -0.062192034 0.0003017263

layer3.1.weight f4 [64]
000000 da 03 81 3f 20 13 7e 3f c9 c6 80 3f 08 bb 80 3f
       1.00793 0.9924793 1.0060664 1.0057077
000010 7b 06 80 3f 0a 80 80 3f be 12 80 3f c7 24 80 3f
       1.0001978 1.0039074 1.000572 1.0011224
000020 68 23 7e 3f 48 37 7e 3f e8 c1 7f 3f 62 b6 7f 3f
       0.99272776 0.993031 0.9990525 0.9988767
000030 e1 06 7f 3f 65 73 80 3f b5 e3 7e 3f ec ae 80 3f
       0.9961987 1.0035216 0.99566203 1.0053382
000040 8f b5 80 3f da 9e 7f 3f 95 15 81 3f d0 39 7f 3f
       1.0055407 0.99851763 1.0084711 0.9969759
000050 5c 0e 80 3f 6d 47 7f 3f a7 db 80 3f 6c 6a 80 3f
       1.0004382 0.9971836 1.0067033 1.0032477
000060 5d 19 80 3f cb b1 7e 3f 15 20 81 3f 38 5f 7f 3f
       1.000774 0.9949004 1.0087916 0.9975467
000070 65 8b 80 3f 2b 04 7d 3f 71 73 7e 3f 71 27 7f 3f
       1.004254 0.98834485 0.993949 0.9966956
000080 d0 11 82 3f 6a 04 80 3f 45 3b 80 3f 80 c0 80 3f
       1.0161686 1.0001347 1.0018088 1.0058746
000090 d6 3b 7d 3f 81 27 81 3f a4 8a 80 3f 5d e3 80 3f
       0.9891943 1.0090181 1.004231 1.0069386
0000a0 26 71 7d 3f 3d 7c 80 3f e7 b4 7e 3f e5 ba 7e 3f
       0.99000776 1.0037915 0.99494785 0.9950393
0000b0 91 0d 80 3f 65 98 7d 3f d6 37 81 3f 97 a8 7e 3f
       1.000414 0.9906066 1.0095165 0.99476
0000c0 f9 2b 80 3f aa cc 7d 3f 66 6a 7e 3f 05 4b 80 3f
       1.0013419 0.9914042 0.993811 1.0022894
0000d0 23 1e 80 3f 28 80 7d 3f 01 ff 7f 3f 01 71 7f 3f
       1.0009197 0.99023676 0.9999848 0.99781805
0000e0 81 09 7d 3f 23 31 7f 3f d0 29 7d 3f 5d 76 7e 3f
       0.98842627 0.9968435 0.98891926 0.9939936
0000f0 dd 38 80 3f 80 ea 80 3f 40 66 81 3f 67 92 80 3f
       1.0017353 1.0071564 1.0109329 1.0044678

layer3.1.bias f4 [64]
000000 fd 8c f4 3b df 3d f2 3b de f5 49 3b 5a af 0d 3c
       0.007463096 0.0073926295 0.0030816714 0.008647764
000010 50 78 27 bb 5d f5 ad bb 9c a2 e1 ba 8d 1c 88 bb
       -0.002555389 -0.0053087906 -0.0017214599 -0.004153794
000020 b7 46 14 bc 2b db 75 bb 62 02 e4 ba 70 3c 79 3a
       -0.009050063 -0.0037514667 -0.001739573 0.0009507602
000030 96 49 26 bb 25 5b 5b bb 61 05 aa bb bf 38 24 bc
       -0.002537345 -0.0033471074 -0.0051886295 -0.010023295
000040 c7 1a dd 3b 2c ad aa b8 bc 02 01 3a 4c fb bc 39
       0.006747577 -8.1384875e-05 0.0004921367 0.00036045385
000050 3f cd 1d bc 10 fa 6d bb 10 df 19 b9 c2 47 72 39
       -0.009631454 -0.003631238 -0.00014674314 0.0002310565
000060 cc ef be ba 40 48 75 bb 97 5d 3e 3b 90 3a 17 bb
       -0.0014567315 -0.0037427098 0.0029047483 -0.0023075677
000070 c4 8a 24 ba b4 8e 6e bc 81 7d 4d bc 84 ef c7 ba
       -0.0006276781 -0.01456039 -0.0125421295 -0.0015253876
000080 3a 8d 9f 3b 3f 18 74 3b 74 4d 41 ba ee 1d d8 3a
       0.0048691304 0.0037245897 -0.0007373907 0.0016488412
000090 4b df fd bb 94 21 d7 ba cb e9 03 bb 5b 25 23 3a
       -0.007747566 -0.0016413205 -0.0020128365 0.0006223523
0000a0 68 94 03 bc ac 81 9c 39 6d 2e 44 ba 5d 20 c7 bb
       -0.008030988 0.00029851252 -0.00074837246 -0.006076856
0000b0 20 0e 9f bb 97 99 a9 bb 7b 80 32 bc 5e af 73 39
       -0.0048539788 -0.00517578 -0.01089489 0.00023239615
0000c0 15 49 4b bb 8a 24 47 bb 19 4e e3 bb 91 65 e3 b9
       -0.0031018902 -0.003038677 -0.0069368 -0.00043372487
0000d0 ef 4c c6 3a 11 08 04 bc f3 8f e1 bb 0a 8c ba bb
       0.0015129129 -0.008058564 -0.006883615 -0.0056929635
0000e0 6e 1e 0e bc 23 67 8b bb b9 16 02 bc 48 84 75 bb
       -0.008674247 -0.004254238 -0.007939988 -0.003746288
0000f0 34 8c ed 3a c8 c3 9b 3a 7c 8b 24 ba 47 4d 68 ba
       0.0018123449 0.0011883909 -0.00062768883 -0.0008861613

layer4.0.weight f4 [64, 64, 3, 3]
000000 c5 c9 2e b9 74 c4 5a bc 8c ec c0 bc c9 61 2c 3c
       -0.00016669098 -0.013352502 -0.023550294 0.010521361
000010 12 c4 21 3d 28 e2 42 3d 53 1b 2e 3d 8e f7 f7 3b
       0.039493628 0.04757896 0.042506527 0.0075673526
000020 bd ef eb 3c 3f a3 04 3d 37 50 46 3c ba 4e 31 bd
       0.02880084 0.032382246 0.012104086 -0.04328797
000030 ae 75 c0 bc 1e b7 7f 3c 04 fd 1f bd de 6f a4 3c
       -0.023493614 0.015607623 -0.039059654 0.020072874
000040 ae 0f 07 bc a6 03 14 ba 07 f1 b6 3c 57 b3 98 3b
       -0.008243484 -0.00056462956 0.022331728 0.004660051
000050 27 0b 27 3d a0 10 a8 bb df 43 0f bd 0b 0a 43 bd
       0.04078212 -0.005128935 -0.034976836 -0.047617
000060 66 b8 12 bd cc ed 14 bd 0a ec e1 bc e9 ed 21 bc
       -0.035820387 -0.036359593 -0.027578373 -0.009883382
000070 9c 3e 05 3d 42 19 27 bd ae d3 e3 bb 2f 17 ea 3c
       0.032530412 -0.040795572 -0.0069527244 0.028575508
000080 84 ce db bb b5 06 85 bb 43 e1 0e bd 88 9a 47 3b
       -0.006707968 -0.0040596374 -0.034882795 0.0030457098
000090 7d 9c 16 3c 9c 65 c4 3c cb 93 19 3d f3 6f 43 bc
       0.009192583 0.023974232 0.037494462 -0.011928546
0000a0 86 8d dc 3c 4e 4f 57 3d e3 70 35 bd da 33 4f bc
       0.026922952 0.052565865 -0.04429711 -0.01264664
0000b0 39 3b e0 bc ac 19 4d 3d d3 02 51 bb de f4 a4 3c
       -0.02737199 0.05007331 -0.0031892553 0.020136293
0000c0 2d 3b 5b 3d 42 82 36 bd 2a 4d 4c bd 6e 72 2b 3d
       0.05352323 -0.044557817 -0.049878277 0.041857176
0000d0 f0 c5 cb 3c 2a be c2 3c d6 35 90 bc cd 26 10 3d
       0.024874657 0.023772318 -0.017603796 0.035193253
0000e0 b0 19 12 3d d4 e7 12 bd 68 11 61 3c 78 3b d4 3c
       0.03566903 -0.03586562 0.01373706 0.025907263
0000f0 42 78 0c 3d 41 aa 16 3d 43 0a ca b9 81 a2 e6 bc
       0.034294374 0.03678346 -0.00038536088 -0.02815366
000100 7b 84 3e 3c da 79 31 3d 09 96 f4 bc 5d c7 18 3d
       0.0116282655 0.043329097 -0.029856699 0.037299503
000110 70 c2 62 3b 96 21 20 bd f2 76 aa bc 0a 4a 7d bc
       0.0034600757 -0.03909453 -0.02080867 -0.015459547
000120 22 a1 a5 3c 77 c8 3c 3b 46 ad 20 bd 23 56 45 3c
       0.020218436 0.002880601 -0.039227746 0.012044462
000130 b3 65 f9 3c 77 6e 89 3c 20 7a 57 ba ea 66 83 bb
       0.030444002 0.016776307 -0.0008219797 -0.004010071
000140 2b 41 05 bd dc f7 1f 3b 25 9f 10 bd 64 81 3f 3b
       -0.032532852 0.002440921 -0.035308022 0.002922141
000150 38 fb 38 3d 0e ff f6 bb 0c 9c b3 39 43 94 1f 3d
       0.045161456 -0.007537729 0.00034257805 0.038959753
000160 91 49 fc bc d3 3b 00 3d 77 cb cf 3c ac fd 29 3b
       -0.030796798 0.031307053 0.025365574 0.0025938554
000170 32 8b 2f bc 71 37 fc 3c 4c 5d d0 bb 9c fa b0 bb
       -0.010714339 0.030788155 -0.006358778 -0.0054009687
000180 4d bb b5 3c 00 34 39 bd a7 4e 64 3c 2e bc 5f 3c
       0.022184039 -0.045215607 0.013934768 0.013655705
000190 de f0 ec 3c a4 93 bf bb cc d1 bd bc 4d d1 84 bc
       0.028923448 -0.0058464576 -0.023171328 -0.016213084
0001a0 e4 30 0d bd 06 a8 b2 bb 9d 8e ad 3b 0d 73 88 3b
       -0.034470454 -0.005452159 0.005296542 0.0041641057
0001b0 55 08 82 bc 9c d0 7f 3c 6e 13 e8 bb e4 35 68 3c
       -0.015873114 0.015613701 -0.0070823943 0.014173005
0001c0 ad 99 16 bd 4c c3 38 bd b3 c6 e6 bc 1d c5 0c 3d
       -0.03676765 -0.045108125 -0.028170919 0.03436767
0001d0 59 2a 26 bd 0f b5 d2 3a 8b d7 de bc d4 10 85 bb
       -0.04056773 0.0016075688 -0.027202388 -0.004060844
0001e0 30 70 2c bc 3d f1 07 bc 5a e5 b1 bc a9 42 7f 3b
       -0.010524794 -0.008297262 -0.021715809 0.0038949645
0001f0 c0 50 45 bc 13 79 f6 3b d5 4a 89 3c df 34 0d bd
       -0.012043178 0.0075217574 0.016759316 -0.03447425
000200 f2 cc a7 b9 a3 86 01 3c f8 fc 49 bc a8 7d ce bb
       -0.00032005418 0.007905635 -0.012328379 -0.0063016005
000210 2a 25 b6 3c e0 31 1e 3d 93 37 38 3d d2 aa 0d bd
       0.022234518 0.038621783 0.044974875 -0.034586735
000220 a4 aa 0d 3d c2 94 23 3d ff d6 11 bd c7 88 86 3c
       0.034586564 0.03993679 -0.035605427 0.016422642
000230 58 5b f7 bc 11 e5 16 ba ef 0c c3 bc 03 f5 cc bc
       -0.030194923 -0.00057561795 -0.023809878 -0.025019174
000240 60 93 2f bc 15 ca b2 bc 45 89 c2 3c 67 fa 0b bd
       -0.010716289 -0.021824876 0.023747096 -0.03417435
000250 6e 29 2b bd f3 4a 2a 3d b3 23 00 3c 33 42 10 3d
       -0.041787557 0.041575383 0.007821011 0.035219382
000260 37 70 94 3c 1c 74 fa bb b3 66 4d 3d 9b 20 11 3c
       0.018119914 -0.007643236 0.05014677 0.008857871
000270 b9 a5 5c 3b b6 41 2a bc 1e 13 0e 3d ba 08 00 3d
       0.0033668114 -0.010391643 0.0346862 0.031258322
000280 fa 88 8d 3c f8 50 99 3c db 62 09 3b 26 14 3a bc
       0.01727723 0.018715367 0.0020963463 -0.011357343
000290 63 4d 33 3c b0 27 3b bc 58 12 e0 3c 63 08 e8 3b
       0.010943743 -0.011423036 0.027352497 0.007081078
0002a0 82 a2 a9 bc 75 d6 a6 bc 7f c3 7d bc 36 72 e2 3a
       -0.020707373 -0.020365933 -0.015488504 0.0017276469
0002b0 f1 15 5c bc 04 25 cc bc c0 22 01 bd 34 6a 92 3c
       -0.013432966 -0.024919994 -0.03152728 0.017872907
0002c0 74 e0 df 3c 42 04 7f 3c 75 14 0c bd 29 ee 71 3d
       0.027328707 0.01556498 -0.034199197 0.059065018
0002d0 b9 78 cb bb 62 ec a9 3c b2 f1 20 bd d5 41 a3 3b
       -0.0062094596 0.020742599 -0.039293 0.004982213
0002e0 1c 31 ea bc 83 6a a4 3c 38 24 6f 3c d3 c6 b2 bb
       -0.02858787 0.02007032 0.014596038 -0.0054558306
0002f0 65 95 31 3c a8 fc a2 bc b1 e8 07 3d c2 d7 c2 3c
       0.010838841 -0.019895867 0.033180896 0.023784522
000300 b2 60 9c bc d5 14 81 3b 1e d0 c6 bb 5a fd d0 3c
       -0.019089077 0.003939251 -0.00606729 0.025511432
000310 06 b2 72 3c ca c5 2a bd 7e 35 7b 3c 5d 89 22 3c
       0.014812952 -0.041692533 0.015332578 0.009920445
000320 c4 81 2b 3d 4a 83 93 bb 2d a1 0c 3b bb e7 f3 ba
       0.0418718 -0.004501735 0.0021458373 -0.001860849
000330 c0 44 8d 3c a9 41 80 3c bc 91 bf 3c 25 1c ad 3b
       0.017244697 0.01565631 0.023384921 0.005282896
000340 f1 44 5e bb bd 8e b5 3c 05 3c e1 ba 9d e2 29 3c
       -0.0033915604 0.02216279 -0.0017184025 0.01036897
000350 ef 58 fb 3c 9b 8a ce bb 9a d0 0a 3c 24 20 3b 3c
       0.030682055 -0.006303144 0.008472586 0.011421237
000360 2c 6e ba bc 1b 4d 01 3d 5f 88 02 bd 52 8d cf 3c
       -0.022757612 0.031567674 -0.031868335 0.025335941
000370 ed 87 15 3d 94 14 a7 3c 3a 9f 01 3c 77 2d 10 3d
       0.036506582 0.020395555 0.007911498 0.03519961
000380 5c 6f 41 3c c6 07 32 3c 3a 3a 2e bd 25 ae 08 bd
       0.011806335 0.010866111 -0.042535998 -0.033369202
000390 10 08 bf bb eb 88 3e 3c b9 72 ff 3c 96 e2 a2 bc
       -0.0058298185 0.0116293235 0.031182634 -0.019883435
0003a0 3b 89 e9 3c 27 2c 19 bd 6c f1 cb bc d3 ad 21 bc
       0.02850782 -0.037395623 -0.024895392 -0.009868103
0003b0 43 6d 82 bb e0 a8 30 bc dc d9 18 bd 39 08 05 3b
       -0.00398031 -0.01078245 -0.037317142 0.002029909
0003c0 1a 65 cf 3c 5e db 79 bc f5 04 67 bc 1d 6f 34 bc
       0.025316764 -0.015250055 -0.014100303 -0.01101282
0003d0 a5 46 12 bd d8 69 3f bd 10 ae d8 3c ff 53 d7 bc
       -0.035711903 -0.0467318 0.026450187 -0.02628517
0003e0 fc 83 cf 3b 2e e6 c2 bc bb 79 74 bc 0b 0f 01 bd
       0.0063328724 -0.023791399 -0.014921601 -0.031508487
0003f0 00 4c c6 bc 58 a9 9b 3b e9 28 da 3c 64 da 38 bd
       -0.024206161 0.004750412 0.026630836 -0.04513015

layer4.0.bias f4 [64]
000000 e4 71 b1 3c 59 a3 d5 3c 8d 40 21 3d d5 ef cc 3c
       0.021660753 0.026078867 0.0393682 0.025016705
000010 d3 fe 20 3c fc 4c dc 3c cb e6 17 3d 5a 81 19 bd
       0.00982638 0.026892178 0.037085336 -0.037476875
000020 92 2e b6 3b bf 9b a7 3c 2b 0f 92 bb fd 4c 7c 3b
       0.005559751 0.020460008 -0.0044573746 0.0038498037
000030 20 4f e6 bc 7f f7 79 3c fc 72 8b bc 4a a1 b1 3c
       -0.028113902 0.015256762 -0.017022602 0.021683354
000040 5b 41 e4 bc 34 16 81 bc ec 0b b4 3c f5 bc 6f bc
       -0.027863195 -0.015757658 0.021978341 -0.014632453
000050 ae 44 df 3c 4f 91 0b 3c 7d 7a 01 3c 35 31 1b 3d
       0.027254429 0.008518531 0.007902739 0.037888724
000060 09 10 13 bd f5 94 fc 3c 01 f4 15 bd 9f 46 65 3c
       -0.035903964 0.030832747 -0.036609653 0.013993888
000070 a5 0e 09 bd 9d ef d9 3c 85 54 84 bc ca 30 13 3d
       -0.03346123 0.026603514 -0.016153583 0.0359352
000080 41 ea 00 3d 10 4f f6 3c 41 f1 81 3c a5 36 2b bb
       0.031473402 0.030066997 0.01586211 -0.00261251
000090 e1 ee 0a 3d c7 4a 85 bc 5f 11 ff 3c 70 5d 11 bd
       0.03391922 -0.016271008 0.031136213 -0.0354895
0000a0 c4 82 a5 3c 14 66 a7 3b 9e e3 00 3d b4 d9 54 bc
       0.020203955 0.005108604 0.031467073 -0.012991358
0000b0 79 b2 5b 3c d8 a0 24 3c 5b ca 94 3c 7b 9a 1d 3c
       0.01340925 0.010048114 0.018162897 0.009619351
0000c0 24 b6 e7 3c 7b 83 d3 3c 2a f7 fd 3c be 06 d1 bc
       0.028285094 0.02581953 0.031001646 -0.02551591
0000d0 0b b0 6d 3c 5e 04 83 3c 3a c4 de bc a1 2c 9b 3c
       0.014507304 0.015993293 -0.027193177 0.01894218
0000e0 78 14 1b bd 8d 25 a0 bc 30 21 94 bc 78 0f e8 bc
       -0.037861317 -0.019549156 -0.018082231 -0.028327689
0000f0 b2 ca 9a bc 6d ec d1 3c 02 a7 8a bc 1b 75 d7 bc
       -0.01889548 0.025625432 -0.016925339 -0.026300957

layer4.1.weight f4 [64]
000000 89 f2 80 3f 33 f2 7f 3f 11 c6 7f 3f 29 a1 7c 3f
       1.0074016 0.9997894 0.999116 0.9868341
000010 7b 44 7d 3f 59 f0 7e 3f d1 3b 80 3f e3 ff 80 3f
       0.9893262 0.9958549 1.0018255 1.007809
000020 52 e0 7f 3f 02 fe 7d 3f 8d c8 80 3f c9 d7 7f 3f
       0.9995166 0.9921571 1.0061203 0.99938637
000030 d5 71 81 3f 8a 29 80 3f 9d 57 7d 3f 86 d4 7e 3f
       1.0112864 1.0012677 0.9896181 0.99543035
000040 0e 3d 81 3f 82 71 81 3f 06 f2 7f 3f ac a6 7d 3f
       1.0096757 1.0112765 0.99978673 0.99082446
000050 56 b6 7f 3f cd b8 7e 3f d0 7d 80 3f 57 91 7e 3f
       0.998876 0.99500734 1.0038395 0.9944052
000060 4a 0f 80 3f 2b 9a 80 3f 56 22 7f 3f 95 c5 7e 3f
       1.0004666 1.0047048 0.9966177 0.99520236
000070 81 c2 81 3f dc ef 81 3f 56 90 81 3f 24 7e 80 3f
       1.0137483 1.0151324 1.0122173 1.0038495
000080 13 11 81 3f 60 90 80 3f 42 4e 80 3f 1e bc 81 3f
       1.0083336 1.004406 1.0023882 1.0135534
000090 db 51 7c 3f 7f 33 81 3f a1 45 7e 3f 01 84 80 3f
       0.985624 1.009384 0.99324995 1.0040284
0000a0 cb 0d 7f 3f 5e 51 80 3f 89 db 80 3f c6 a4 7d 3f
       0.9963042 1.0024831 1.0066997 0.9907955
0000b0 fa 4d 81 3f 64 bf 7f 3f 1e fe 7c 3f fe cf 7b 3f
       1.0101922 0.99901414 0.9882525 0.98364246
0000c0 35 39 7e 3f d2 5c 80 3f 7b 4e 7f 3f f6 36 7f 3f
       0.9930604 1.0028327 0.99729127 0.9969324
0000d0 37 7d 7d 3f 0f 82 80 3f 3c 34 7f 3f be 85 7d 3f
       0.9901919 1.0039691 0.9968908 0.990322
0000e0 94 df 7e 3f c5 f7 7e 3f 39 8d 7d 3f aa 5e 7e 3f
       0.99559903 0.99596816 0.99043614 0.99363196
0000f0 3e 21 7e 3f 37 8c 7f 3f e7 e3 80 3f a2 33 7d 3f
       0.99269474 0.99823326 1.006955 0.9890691

layer4.1.bias f4 [64]
000000 4f e4 72 bb bd 82 27 3a 6e 28 89 ba 81 b1 05 bc
       -0.0037062352 0.0006390026 -0.001046432 -0.008159996
000010 a7 47 d6 bb 6a eb a7 ba a0 41 5c bb 60 53 ed 3b
       -0.0065393033 -0.0012811248 -0.0033608451 0.007242605
000020 3e 2d 93 bb 2f b9 bc bb ca 52 ed b9 be 89 70 bb
       -0.0044914773 -0.0057593803 -0.00045265845 -0.0036703194
000030 63 1d 59 3c 16 6f 06 bb 0e ce 92 bb 15 ed a7 bb
       0.013251635 -0.002051299 -0.00448013 -0.005124698
000040 c7 10 cf ba d2 30 a0 39 a4 42 bf bb 54 4f d8 bb
       -0.0015797847 0.00030553952 -0.0058368016 -0.0066012535
000050 6a e1 98 3a ec 5b 41 bc 66 51 28 bb c3 f5 57 bb
       0.0011663858 -0.011801701 -0.0025683283 -0.0032952882
000060 d8 c4 20 bb eb 3e ed 3a aa 05 4e bb ba b7 60 bb
       -0.002453139 0.0018100416 -0.0031436482 -0.0034289197
000070 71 d7 7b 3b 32 bd 13 3c 78 4b 27 3c 3f ec 89 3b
       0.0038427974 0.009017276 0.010210864 0.004209071
000080 40 2f a9 3b 52 c3 f7 39 63 61 f8 bb e1 e4 da 3b
       0.0051631033 0.00047257036 -0.007579969 0.0066801165
000090 15 08 da bb fd e0 ee 3a c6 0e c5 bb 73 f4 c6 bb
       -0.0066537955 0.0018225011 -0.006013724 -0.006071621
0000a0 6d 29 8d bb 63 c7 e6 3a b5 3c 4d 3a 54 bd 2e bc
       -0.004307917 0.0017607029 0.00078291754 -0.0106652565
0000b0 1a 7a 6a bb 40 57 62 3a fa 0c 3b bc c0 54 11 bc
       -0.0035778345 0.0008634217 -0.011416668 -0.008870304
0000c0 63 f9 20 bc d6 2e 12 3a 5f 35 21 ba 85 28 d6 bb
       -0.009825083 0.0005576437 -0.00061496155 -0.006535592
0000d0 4c 22 9a bb 24 6e 3f b9 9f a6 c4 bb 34 3b 4f bc
       -0.0047037955 -0.0001825621 -0.006001308 -0.0126483925
0000e0 93 a4 7d bb 66 32 85 bb 92 aa 00 bc 31 a4 04 bc
       -0.003870283 -0.004064846 -0.007853167 -0.008095787
0000f0 63 51 ad bb 1f 13 7c b9 a3 c0 bb 3a 1b 34 25 bc
       -0.005289243 -0.00024039716 0.0014324378 -0.010083224

layer5.0.weight f4 [64, 64, 3, 3]
000000 53 b0 bb ba 4e 08 12 3d 66 91 7e 3b ed e2 c6 ba
       -0.0014319516 0.03565245 0.0038843988 -0.001517383
000010 3e 0b ac 3b 7b 8b e8 bc 35 3e c6 bc 41 1d 15 bd
       0.0052503636 -0.028386822 -0.024199584 -0.03640485
000020 38 cc 03 3d ea 94 17 bb e2 6f 10 3d 24 5b ad 3c
       0.03217718 -0.0023129531 0.03526295 0.021161623
000030 fc 9d 97 3b ae 25 84 bb 12 a4 11 bd 1f d9 b0 bb
       0.0046269875 -0.004032812 -0.03555686 -0.0053969766
000040 81 b0 3b 3d 70 86 dd 3c 44 24 0c bd 7f 9c 0b 3c
       0.045822624 0.027041644 -0.034214273 0.008521198
000050 d2 a9 3d bd 1c bb 48 bc 7c f9 d8 bc d5 60 54 3c
       -0.04630453 -0.012251642 -0.02648615 0.01296254
000060 3b ea 19 3c b3 bd 04 3d dc 8d 21 bd 12 77 9c 3b
       0.009394224 0.032407474 -0.03944193 0.0047749365
000070 47 63 c6 bc 0a 66 10 3d a4 cd b4 3c 95 d3 bb bb
       -0.024217261 0.035253562 0.022070713 -0.0057320097
000080 a1 e7 be bb 6a ff d4 3c 95 9a d7 3c dd 79 0e 3d
       -0.005825952 0.026000697 0.026318828 0.034784187
000090 97 fe a2 bc f8 8c 37 bc 21 79 d5 bc 69 15 22 3d
       -0.019896789 -0.011203043 -0.026058735 0.0395712
0000a0 94 46 87 3b f9 00 1a bd 5b 05 d2 3c 3e 76 e1 bb
       0.0041282866 -0.037598584 0.02563732 -0.0068805506
0000b0 4d 6c 09 3b 89 2e bf bc 65 53 71 3c ba 5b 96 3c
       0.0020969093 -0.02333762 0.014729355 0.018354286
0000c0 c7 6c 01 bd 14 81 a4 bb b6 dd 9c 3c 25 25 10 3a
       -0.03159788 -0.00502027 0.019148689 0.0005498699
0000d0 ab da f5 3b a8 93 1a bd f7 dd 0b bc 00 a6 26 bc
       0.007502874 -0.037738472 -0.008536807 -0.010171413
0000e0 eb ce 94 3c 2c bf 0e 3c 6a 52 0a 3d 86 87 e7 bc
       0.018165072 0.008712571 0.033770002 -0.028262865
0000f0 3b f3 07 bd f0 dd 76 bc 6e 7f d1 bc be d8 0d bc
       -0.033190947 -0.015067562 -0.025573459 -0.008657632
000100 1e f5 61 3d 07 89 07 bd 63 46 27 bd b8 61 da bc
       0.055165403 -0.033089664 -0.04083861 -0.026657924
000110 fe 94 b0 3b 7f 64 91 3c 4d 32 04 3b bd 86 fa bb
       0.005388855 0.017748116 0.0020171583 -0.0076454566
000120 0e d7 c8 3c 0e 3f 66 3b 67 d9 c4 3c cc 32 33 bd
       0.024516609 0.0035132798 0.024029447 -0.043749616
000130 08 3f 95 bc f9 d6 14 3d c8 36 10 3d fa 1a ee 3c
       -0.018218532 0.036337826 0.035208493 0.029065598
000140 18 8e 32 ba 86 29 3d bd c1 2f df 3c 99 1e 0e bd
       -0.0006811335 -0.046182178 0.02724445 -0.03469715
000150 52 52 93 bc 84 74 d3 3c 71 00 9f bc 06 d1 85 3c
       -0.01798359 0.025812395 -0.01940939 0.016335022
000160 52 de 0b 3d a6 e0 f6 3c e2 50 53 3d 35 38 c8 3b
       0.034147568 0.030136418 0.051590808 0.006110216
000170 4c 3d 47 3d c2 ee 2f 3d 6e de a0 3c 82 a6 1a 3c
       0.04864244 0.042952307 0.019637313 0.009439113
000180 a2 6b db b8 1b 85 c7 3c 14 73 22 3d 7b 4f ac 3a
       -0.00010462782 0.024355462 0.03966053 0.0013146246
000190 34 96 93 3c 37 f3 9d 3b 97 f0 39 3b 4b da 00 3d
       0.018015958 0.0048202532 0.0028372162 0.03145818
0001a0 3f 74 a4 bc 4c c5 12 3d 1f 5f 98 3c 8d 00 f1 3c
       -0.020074962 0.03583269 0.018600045 0.029419208
0001b0 a0 17 26 bd 45 5f 11 3d 6e 0c e0 ba 21 5b 13 3c
       -0.040549874 0.035491247 -0.0017093548 0.008993895
0001c0 97 14 1a bd 40 8c f9 bc 90 5d 9f bc f7 d8 d4 3c
       -0.037617292 -0.030462384 -0.019453794 0.025982363
0001d0 58 ad f7 3c a1 88 ad 3c 14 96 b8 3c 0e e3 ca 3c
       0.030234024 0.021183314 0.0225325 0.024766471
0001e0 05 9c 40 bc c3 39 73 bb e4 97 2d bb e5 b2 c9 3b
       -0.011755948 -0.0037113286 -0.002648824 0.006155359
0001f0 8b ad 11 bc 19 4a 27 3d 90 43 ed bc 7d fa 3d 3c
       -0.0088914735 0.04084215 -0.02896288 0.011595366
000200 a4 01 0a bd 8f b4 28 bc 1c e3 4b 3a 91 0f f6 bc
       -0.03369297 -0.010296955 0.00077776774 -0.03003672
000210 a2 9f 98 bc 17 58 99 bc b1 e2 34 3d f7 34 39 3b
       -0.018630806 -0.018718762 0.044161502 0.002826033
000220 e6 fb 35 3c c8 01 55 bc 4b 07 0d 3d 9f 68 8f 3c
       0.011107421 -0.013000913 0.034430783 0.017505942
000230 63 6b 88 bc ea 26 b8 3b dd cb 00 3b 12 35 2c 3c
       -0.016652768 0.0056198733 0.0019652762 0.0105107
000240 3a 13 2c bc 3c 0a 09 3d b7 dc c1 3b 33 10 00 3d
       -0.010502631 0.033457026 0.005916204 0.03126545
000250 12 e7 bd 3c 90 a5 01 3d 56 9b 53 3c e5 7c 80 b8
       0.023181472 0.031652033 0.012915453 -6.126779e-05
000260 55 57 94 3c 42 2a 36 3c 99 4a 67 bc 3d c2 e2 39
       0.01810805 0.0111184735 -0.014116907 0.00043250798
000270 37 57 1c 3d b8 e7 93 bc 52 f0 1a 3d ed 93 30 3d
       0.038169112 -0.018054828 0.037826844 0.043109823
000280 2c 9c 25 3d 81 a2 bc 3c 7d d7 1c bd 3c 2c 43 ba
       0.04043214 0.023026707 -0.038291443 -0.0007445251
000290 55 92 10 3d ea ec de bc 16 0b 77 bb 5a 41 92 3c
       0.035295803 -0.027212579 -0.0037695817 0.017853428
0002a0 97 a6 25 bc b8 a3 1d 3d 66 c1 01 bd 6e 63 d5 3c
       -0.010110519 0.038486212 -0.03167858 0.026048388
0002b0 67 62 da 3a b2 a0 34 bd 15 68 21 3b c6 7f 24 bd
       0.0016661406 -0.044098563 0.0024628688 -0.040160917
0002c0 3f f2 1a 3c 4f d3 bb bc 73 20 9e bc 3e df b7 3c
       0.00945717 -0.022927908 -0.019302582 0.022445317
0002d0 39 d1 25 3d 9a 53 23 3d 24 9b aa bb 3e be 19 bd
       0.040482733 0.03987465 -0.0052064825 -0.037534945
0002e0 55 dd 9c 3c af ac 98 bc 32 71 7d 3c 31 60 b5 3c
       0.019148508 -0.01863703 0.015468882 0.022140594
0002f0 bc 87 e2 bb 69 81 c3 3b b5 5c 71 bc 16 0f 13 bd
       -0.0069131535 0.0059663546 -0.014731576 -0.03590306
000300 87 03 f9 3b a4 af 5d 3c d7 a3 f6 3c c9 b0 38 bb
       0.0075992974 0.0135306455 0.030107422 -0.0028181544
000310 a6 f0 55 bb 6d a5 b2 bc 68 81 04 3c 64 1a 46 bb
       -0.0032644658 -0.021807397 0.0080874935 -0.0030228132
000320 80 e7 c4 bc 77 09 2d 3c 59 cb b9 bc 35 8d 96 3a
       -0.024036169 0.010561339 -0.022679972 0.0011486175
000330 b0 fd 05 3d 6e 2e b2 bc f1 bf 1e 3d 62 e0 bf 3c
       0.03271264 -0.021750655 0.03875727 0.023422424
000340 27 45 d6 bc 4c 24 cd bc 8e b6 17 3c 3f 19 b7 3b
       -0.026156021 -0.025041722 0.009259833 0.0055877264
000350 97 18 83 3c b7 12 20 bc 90 8d 8b bc 75 80 99 bc
       0.016002936 -0.009770087 -0.017035276 -0.01873801
000360 09 1a f5 3b 5f 30 48 bc 76 31 2b 3b 21 c9 58 bc
       0.0074799103 -0.012218564 0.002612201 -0.013231547
000370 46 bb 11 3d 6b 7e 13 bd ca bf 39 3d 1d 69 fa 3c
       0.03557899 -0.036009233 0.04534892 0.0305677
000380 a5 93 ee bb 12 80 f2 3c 54 05 e8 bc e2 c7 8e bc
       -0.007280784 0.029602084 -0.028322853 -0.017429296
000390 c2 ae 0c 3c 71 b2 fc bc 43 cb d2 bc bc 2b c4 3c
       0.008586587 -0.030846806 -0.025731688 0.023946635
0003a0 d9 28 12 bb bc 41 ba 3c 55 f5 e2 3c 3a 96 47 bc
       -0.002230218 0.022736423 0.027704874 -0.012181813
0003b0 0f 69 16 bd 95 1f 91 3c c4 a8 e8 3b b6 ff a2 bc
       -0.036721285 0.017715255 0.0071001966 -0.019897323
0003c0 06 27 b1 bc d4 71 ee 3c 28 77 b1 3c 73 3a c4 3c
       -0.021625053 0.029107012 0.021663263 0.023953652
0003d0 5d 59 2d 3c 26 ff 7b b9 ca 63 32 bd db 11 bc bc
       0.010580388 -0.00024032276 -0.043552198 -0.022957733
0003e0 cb e4 74 bc 0f 81 8a 3a d4 33 aa bc 14 e0 7e bc
       -0.014947127 0.0010567027 -0.020776667 -0.015556354
0003f0 08 7f ee bc a2 bc f4 3b 43 13 5d 3a 21 67 43 bc
       -0.029113308 0.007468776 0.0008433351 -0.011926443

layer5.0.bias f4 [64]
000000 60 69 18 3c b0 0d 8c 3c 91 2f 24 3d 3f 92 cb 3c
       0.009302467 0.01709637 0.040084425 0.024850009
000010 d6 ed 60 bc 72 08 f6 3c 12 6c 4c b9 69 fa f6 bc
       -0.0137285795 0.030033324 -0.00019495215 -0.030148702
000020 63 d8 ff 3c 07 c3 0c bd fa cb e2 bb 0e ae 06 3d
       0.03123111 -0.03436568 -0.0069212886 0.032880835
000030 25 48 47 bc 40 7a de 3b fa 29 8e bc 15 36 cf bc
       -0.012163197 0.0067894757 -0.017354 -0.025294343
000040 34 8f ea 3c bc 12 16 bd c2 2d 08 bd 39 59 cc bc
       0.028632738 -0.03663896 -0.033246763 -0.024944888
000050 a6 16 d7 bc 80 e5 69 bc df 14 05 bc fd 8b b4 3c
       -0.026255917 -0.0142759085 -0.008122652 0.022039408
000060 f2 88 59 bc 68 a5 02 bd 9d 5c 30 ba aa a9 a7 ba
       -0.013277279 -0.031896025 -0.00067276676 -0.0012791653
000070 3b c8 aa bc 75 17 d9 3c 97 4e bf 3c 44 b8 d7 3c
       -0.02084743 0.026500443 0.023352904 0.026332982
000080 2b 7e 5d 3c b4 a0 63 bc 58 29 f1 3c c4 b1 d5 3c
       0.01351885 -0.013893295 0.02943866 0.026085742
000090 c6 3d b3 3c 33 5b d6 3b 01 e4 f2 bc 75 cb cf bc
       0.021880042 0.0065416335 -0.029649736 -0.02536557
0000a0 aa e9 19 bc 54 59 1f 3d 2a cc 7f ba 95 0d 22 bc
       -0.009394089 0.03890355 -0.0009757901 -0.0098909335
0000b0 1c 6f fd 3c 0a de 78 bb 18 7a 36 bd e0 11 96 3b
       0.03093677 -0.0037974142 -0.04455003 0.0045797676
0000c0 10 6e 32 bb 51 8e 2f 3c 36 6e 20 3c 74 40 42 bc
       -0.0027226247 0.010715083 0.009791901 -0.011856187
0000d0 95 75 c6 bc 44 d3 43 3c 2b eb d9 bc 26 d7 3a 3d
       -0.02422599 0.011952225 -0.026601395 0.045615338
0000e0 ae e5 b6 ba 35 fa bf bc 7e 4b 02 3d d0 5c ba bc
       -0.0013953948 -0.023434738 0.031810276 -0.022749335
0000f0 d4 96 bf 3c e0 75 1a 3d 01 54 a0 3b 5b 4b aa bc
       0.02338735 0.03771007 0.0048928265 -0.020787885

layer5.1.weight f4 [64]
000000 81 16 7e 3f 0d 1b 80 3f 91 61 7e 3f d4 33 81 3f
       0.9925309 1.0008255 0.99367625 1.0093942
000010 23 8b 7e 3f 2f 21 80 3f 38 14 7f 3f f0 18 80 3f
       0.99431056 1.0010127 0.99640226 1.000761
000020 67 eb 80 3f 94 de 7e 3f 9d c4 80 3f 42 80 7f 3f
       1.0071839 0.9955838 1.0060002 0.9980508
000030 cd da 7f 3f dc 59 80 3f d1 53 80 3f 87 43 7f 3f
       0.9994324 1.0027423 1.0025579 0.99712414
000040 58 c7 80 3f b8 f7 7f 3f 2e f7 80 3f da be 7f 3f
       1.0060835 0.99987364 1.0075433 0.9990059
000050 5c c2 7f 3f 92 17 81 3f 2b 16 80 3f 0c 8b 80 3f
       0.99905944 1.0085318 1.0006765 1.0042434
000060 15 13 83 3f 27 3e 7d 3f 4b 01 81 3f 33 f7 7e 3f
       1.0240198 0.9892296 1.007852 0.99595946
000070 97 72 7f 3f 3a 1e 80 3f eb 41 7f 3f 63 fb 7e 3f
       0.99784225 1.0009224 0.9970996 0.99602336
000080 6d 47 7f 3f 06 ca 80 3f ae cd 7c 3f 2c f9 81 3f
       0.9971836 1.0061653 0.9875134 1.0154166
000090 0c 39 7f 3f b5 38 81 3f f9 9d 80 3f 2a 50 82 3f
       0.9969642 1.0095431 1.004821 1.0180714
0000a0 89 1f 81 3f 26 cc 80 3f 19 9e 7f 3f c6 69 7f 3f
       1.0087749 1.0062301 0.9985061 0.9977077
0000b0 a8 c9 80 3f 30 02 80 3f 63 c0 7d 3f 5d a3 81 3f
       1.0061541 1.0000668 0.99121684 1.012798
0000c0 e7 78 7f 3f c8 63 7e 3f f3 24 80 3f 26 ef 7f 3f
       0.9979386 0.99371004 1.0011276 0.99974287
0000d0 e1 49 81 3f 52 25 81 3f 6d f7 7d 3f 5a 28 80 3f
       1.0100671 1.0089514 0.99205667 1.0012314
0000e0 c9 94 80 3f e0 49 81 3f 65 f7 80 3f 92 1d 80 3f
       1.0045406 1.010067 1.0075499 1.0009024
0000f0 69 08 82 3f 6e ec 80 3f d0 ae 7e 3f 44 e6 81 3f
       1.0158817 1.0072153 0.9948549 1.0148396
