weights/pretrain_privaterotated__finetune_normal.pth (torch, 947046 bytes, 26 tensors)

layer1.0.weight f4 [16, 1, 3, 3]
000000 cd 72 35 be fa 08 39 3a 47 6d 89 3e 0e af 80 be
       -0.17719574 0.00070585276 0.26841184 -0.25133556
000010 99 4d 6c 3e 61 b7 1b 3e 41 be 4a 3e 02 52 a9 be
       0.23076476 0.15206672 0.19799139 -0.3307038
000020 51 8c 5d 3e 54 09 a1 be 7e 1f b0 3d 56 d4 54 3e
       0.21635558 -0.3145243 0.08599757 0.20784125
000030 41 bc 11 be f0 1f 1c be 80 f8 6c 3d 47 ad 60 bd
       -0.1423197 -0.15246558 0.057854176 -0.05485275
000040 bf 58 69 be 21 c5 aa 3e d2 54 9b be ad c1 96 be
       -0.2278776 0.33353522 -0.3033815 -0.29444638
000050 61 37 71 3c 48 bc 7c 3d 6b 66 57 3e c8 77 2c be
       0.014722676 0.061702996 0.21035163 -0.16842568
000060 39 8c 99 3c bc 87 c9 bd 7c ec 78 3e f4 c0 f9 3d
       0.018743621 -0.098403424 0.24308962 0.12195006
000070 a5 0c 96 3e a8 47 5a bc 02 1e 56 3d 63 eb 89 3d
       0.29306522 -0.013322748 0.05227471 0.067343496
000080 84 34 a5 bd fa 31 91 3e aa 92 85 bd 46 2e 8e 3e
       -0.08066657 0.28358442 -0.065221146 0.2776968
000090 74 72 82 be 68 1d 98 3e f2 89 46 be 66 86 fd 3d
       -0.25477946 0.29709935 -0.1938856 0.1237915
0000a0 15 b2 cc bd 4c d4 77 be 8e f8 a2 3d 5e f3 fa bd
       -0.09994904 -0.24202079 0.07957564 -0.1225345
0000b0 8b 24 11 3e 4b dd 8a 3e 07 c2 df 3d e4 38 58 3e
       0.14174096 0.27121958 0.1092568 0.21115452
0000c0 f1 95 01 bb 8f e6 5f bd c1 0a 44 3e fe 57 1f 3e
       -0.001977321 -0.054663237 0.19144727 0.1556091
0000d0 63 3f d1 3d 0b 40 43 3e 0b a0 89 3e e0 83 ed bd
       0.10217168 0.19067399 0.26879916 -0.11597419
0000e0 3c c4 8f 3e 15 79 26 be 55 c5 a7 3d 75 71 55 bc
       0.28079402 -0.16257127 0.08191935 -0.013027539
0000f0 61 4c 87 3e 4e 53 8b 3e c3 cb 91 be ce f9 1f be
       0.2642546 0.27211994 -0.2847577 -0.15622637
000100 74 2b 87 3d 14 44 89 be dc 1c 2a 3e 62 66 6f 3e
       0.06600085 -0.26809752 0.16612571 0.233789
000110 e8 10 0d 3e e9 de f0 bd 08 42 cb bd 7c 58 84 be
       0.1377598 -0.11761267 -0.09924704 -0.25848758
000120 e8 2e 84 3e 1b 00 8b be 3d 4a 1c 3e 26 9d 16 be
       0.25817037 -0.27148518 0.15262695 -0.14708385
000130 5d f1 09 bc f0 07 93 3e 84 9e 82 3e d7 25 5c 3d
       -0.008419362 0.28716993 0.25511563 0.053747024
000140 fb cb 88 3e 0d 3f 04 be 8a b2 a6 be 78 a6 90 3e
       0.26718125 -0.12914677 -0.3255809 0.28252006
000150 65 03 3e be 49 81 00 be 0a 6c 4f be 84 55 96 3c
       -0.18555982 -0.12549318 -0.20256057 0.018351324
000160 89 2a 9b 3d 1c 3e 23 3e eb 82 11 bd 68 f4 84 be
       0.07576472 0.15941662 -0.035525244 -0.25967717
000170 f3 41 83 3e e6 89 9a be 0b 48 92 3e 61 b7 23 3e
       0.25636253 -0.30183333 0.2857059 0.15987922
000180 07 15 4e bc 3a da 68 3e db a8 8e be 94 f2 11 3b
       -0.0125782555 0.22739497 -0.27863201 0.0022269832
000190 40 7f a1 be 94 9a c8 bd 57 7e 5b 3b 81 59 55 3e
       -0.31542397 -0.097951084 0.0033492052 0.20834924
0001a0 3e 3b 0f 3d 0b a3 a7 3e 60 6a 5e 3d 1b 24 3a bc
       0.034968607 0.3274158 0.054300666 -0.011361147
0001b0 97 93 99 be 7a 63 96 3e a0 b9 a0 be 0e 75 3a 3e
       -0.29995415 0.2937277 -0.3139162 0.18208715
0001c0 d2 b0 77 3e 0b 80 a6 3e 5a 2a af bd f3 ca 1e be
       0.24188545 0.32519564 -0.08553 -0.15507106
0001d0 0e 2c 99 bd fe e4 2c 3e 12 d4 8b 3c 0c 9f 19 be
       -0.07479106 0.16884229 0.017068896 -0.15002078
0001e0 de b9 2a 3e 81 95 9d be 5d 52 14 3e 44 90 34 3c
       0.16672465 -0.30778125 0.14484544 0.011020724
0001f0 3d e8 0d be a4 71 89 bc ba be 67 3d 64 6c 13 3e
       -0.13858123 -0.01677782 0.056578375 0.14396816
000200 05 26 02 3e a2 5c 04 3e ca 17 dc bd 29 b1 9a be
       0.12709816 0.12925962 -0.10746725 -0.30213287
000210 27 f1 43 be 21 d3 80 be c6 74 b2 bd cf be 1b be
       -0.19134961 -0.2516108 -0.08713679 -0.15209506
000220 79 7b 57 3e 82 eb be 3d db 5a 9b 3e 92 28 91 be
       0.21043195 0.09322263 0.30342755 -0.28351265
000230 d8 c3 ac 3e ce 93 8d be 53 1a 64 be 6e 04 41 be
       0.33743167 -0.2765183 -0.22275667 -0.18849346

layer1.0.bias f4 [16]
000000 64 44 79 3e a8 0c e7 3c 1c 1d 65 3e df 73 81 3d
       0.24342495 0.028204277 0.22374386 0.06320929
000010 c2 3a 85 bd 3f ea 06 be ca 02 5b 3e 92 19 13 be
       -0.06505348 -0.13175295 0.21387783 -0.14365223
000020 ac b0 8a 3e a8 81 b2 3d 57 e6 16 bd 8f 43 93 be
       0.27087915 0.08716136 -0.036840763 -0.2876248
000030 a0 d8 cf 3d 14 57 e5 bc 0d 83 c0 bd 00 62 85 bd
       0.1014874 -0.027995624 -0.09399996 -0.06512833

layer1.1.weight f4 [16]
000000 4d f3 7f 3f 06 17 83 3f 85 4e 81 3f ae af 7b 3f
       0.9998062 1.0241401 1.0102087 0.9831494
000010 61 b1 7a 3f 35 a2 80 3f 8b e1 7a 3f 7f 5a 7f 3f
       0.9792691 1.0049502 0.980004 0.9974746
000020 4f 3a 7a 3f b1 52 82 3f 95 ab 85 3f 35 82 82 3f
       0.9774522 1.0181485 1.0442988 1.0195986
000030 4d bf 7d 3f e9 6d 81 3f 73 a3 7d 3f 35 42 82 3f
       0.99120027 1.0111667 0.9907753 1.0176455

layer1.1.bias f4 [16]
000000 53 17 a2 bb 2a 36 b5 3c cd 60 af 3a 9b 45 18 bd
       -0.004946628 0.022120554 0.0013380289 -0.037175756
000010 65 8e 1e bc 89 a6 24 bb 77 4e 22 bd 35 87 e2 bb
       -0.009677504 -0.0025123677 -0.03962561 -0.0069130906
000020 a2 40 bf bc 16 d9 c7 3c 56 92 10 3c 4a 43 e2 3c
       -0.023346249 0.024395507 0.008823952 0.027619977
000030 9a df ac bc 63 bf 6c 3c 67 91 a0 ba 85 0e 89 b8
       -0.021102715 0.014449927 -0.0012250365 -6.5353735e-05

layer2.0.weight f4 [16, 16, 3, 3]
000000 c7 f5 d0 bc e5 1d 34 bd 9b 39 1b bd c6 10 89 3d
       -0.02550782 -0.043973822 -0.037896734 0.066926524
000010 8c 64 e7 3b e8 08 72 3d 5f 41 d2 3c af 32 1e bd
       0.0070615467 0.059090525 0.025665937 -0.038622554
000020 8f 41 f7 3c 4a 28 18 bc bb fe 81 bb a4 41 52 bd
       0.030182628 -0.009286949 -0.003967134 -0.05133213
000030 0e b7 48 3d 3c 08 78 3d d3 c0 3f bd 9d 00 fb 3c
       0.0490027 0.060554728 -0.04681475 0.03063994
000040 c7 47 5c bc cb 89 8b bd 36 d0 69 bd 93 27 99 bd
       -0.013444847 -0.06813391 -0.05708333 -0.07478251
000050 5a 3f 68 3d b0 17 17 3d 83 0f dc 3a 2d 27 8f bd
       0.05670104 0.036887825 0.0016789291 -0.06989894
000060 49 1c 0f bd 71 fe 8f bd 05 62 25 bd 59 ee c4 bc
       -0.034939084 -0.07030953 -0.04037668 -0.024039434
000070 31 06 4b 3c e4 4b 8c 3d d2 25 b6 bb e1 91 e0 3c
       0.012391613 0.068504125 -0.0055587078 0.02741331
000080 96 a3 8a bd cc 85 14 3c 0f d3 68 bc c5 f4 ab bc
       -0.06769483 0.009065103 -0.014210477 -0.020990739
000090 ff 37 49 bd ff 79 20 3d 2e 9c c5 bc fb ac 99 bb
       -0.049125668 0.039178845 -0.024122324 -0.0046898103
0000a0 07 1c 42 3d 63 57 94 bd 65 66 c6 3c e6 39 28 bd
       0.04739001 -0.0724323 0.024218747 -0.04107084
0000b0 76 77 32 bc f7 b7 52 3d e9 32 90 3d f6 59 d7 3a
       -0.0108927395 0.051444974 0.0704096 0.0016430009
0000c0 8b c4 63 3c e1 b0 9e 3d f3 3f 10 ba b2 a2 66 bd
       0.01390184 0.07748581 -0.0005502693 -0.056307502
0000d0 f0 90 3d 3c 7f c9 85 bd 86 52 42 bc e6 0f bc 3d
       0.0115702 -0.06532573 -0.011860495 0.0918272
0000e0 eb 62 04 3d 3e 58 06 3b 41 d7 a2 3d 3f 19 31 3d
       0.032320898 0.0020499374 0.07951213 0.043236967
0000f0 45 e7 7f bd 6d 20 d2 bc 52 3a 19 bc 4e 2e 41 3d
       -0.062476415 -0.025650227 -0.009352284 0.0471633
000100 b2 ee 00 bd a6 ba e0 bc 70 72 f6 bc 44 40 36 3d
       -0.031477638 -0.02743275 -0.030083865 0.044494882
000110 d6 c7 ed bd 7e 95 d5 3b 3b 1e bb bd 82 da 80 3d
       -0.11610381 0.006518065 -0.091366254 0.06291677
000120 f8 85 67 bd 05 88 a2 3b f4 ea 6e bd 5d 9b 4a bd
       -0.056524247 0.0049600624 -0.058329538 -0.049464572
000130 e8 3f b7 3b ec 0f b8 3d 41 37 57 bd 23 6a 83 bd
       0.005592335 0.08987412 -0.05254293 -0.06416728
000140 de 00 6f bd f7 f0 56 3d 14 2b e8 bb fa c9 13 3b
       -0.058350436 0.052475896 -0.0070852134 0.0022550807
000150 86 6f 35 bd 4f b8 44 bd e9 c9 06 3d 56 42 35 3c
       -0.04429581 -0.048027333 0.0329074 0.011063179
000160 76 e9 9f bc 53 13 e6 ba 51 8f a9 3c 45 03 62 3d
       -0.019520503 -0.0017553366 0.020698221 0.0551789
000170 e0 fa a8 3d c1 b0 ab 3c c4 83 3e 3d 84 ea 35 ba
       0.082509756 0.020958306 0.04651238 -0.00069395476
000180 26 18 e8 bc ea d0 a0 bc 64 d2 8c 3b 17 39 e9 3c
       -0.028331827 -0.019630868 0.0042975415 0.028469605
000190 f5 c5 14 3d e8 1a 45 bd 9b d4 04 bd 3a 38 85 bc
       0.0363216 -0.048121363 -0.03242932 -0.016262162
0001a0 c0 da 12 3d 7c 3d 93 bd f7 ef c0 bc c1 9a 11 bd
       0.035853148 -0.071894616 -0.023551924 -0.035547975
0001b0 5a 14 89 3c 4c d6 77 3c 85 a2 9d 3d ce 1f 5b 3d
       0.016733337 0.015126776 0.07697014 0.05349713
0001c0 18 49 74 3d a1 a8 df 3b c6 fa 81 3d b9 5d 46 3c
       0.05964002 0.006825522 0.06346659 0.012107306
0001d0 c1 06 30 3c 6b 1a a2 3d d4 e9 1b 3d 3f 01 5f 3c
       0.010743798 0.07915195 0.038064793 0.013611137
0001e0 6c e4 3e bd 3f ea 67 bd ac b2 71 bc 53 cf 27 bd
       -0.04660456 -0.05661988 -0.014752071 -0.040969204
0001f0 10 7f 9c 3d 4a 0e 97 bd 1a c0 d1 3c 5b 30 b8 bd
       0.07641423 -0.07375772 0.025604296 -0.08993598
000200 5e 05 4e 3d 1a 77 71 bc 38 a3 88 3c 5b a1 19 bc
       0.050298087 -0.014737869 0.016679391 -0.009376849
000210 70 63 ef 3b 4c 4e 37 bc bb 80 4b 3d 93 70 e6 bc
       0.007305555 -0.011188101 0.049683314 -0.028129851
000220 03 f2 2b bd 63 bc b5 3d 9b 6d 98 3d 67 0b 84 3c
       -0.041978847 0.088738225 0.074427806 0.016118718
000230 fb 1e 84 3c 6e 62 39 3d f4 7d c8 bc 76 ee cb 3c
       0.016128054 0.045259885 -0.024474122 0.02489398
000240 d9 fb 6f bc 73 0f 79 bd ec 70 de 3b c4 9c d5 bc
       -0.0146474475 -0.06080575 0.0067883637 -0.026075728
000250 4b c0 15 3c 09 bc 38 3d ce 2c 99 3d d0 94 3c bd
       0.0091400845 0.0451012 0.07479249 -0.046040356
000260 7f de 58 3d 74 4c 68 bd c5 22 87 3d e4 48 cd bd
       0.052946564 -0.056713536 0.06598429 -0.100236684
000270 1d f0 84 3c 28 4e 15 bd 9c 86 98 3c d9 07 02 3d
       0.016227776 -0.03645149 0.018618874 0.031745765
000280 ea e9 33 bd fd d0 95 3c 6c 0f 33 bd 0e 2e fe 3c
       -0.04392425 0.01828813 -0.04371588 0.03102782
000290 89 21 ae 3c 2f db 2c 3c 7b f7 0a 3d 8e 80 8e 3d
       0.021256225 0.010550304 0.033927422 0.069581136
0002a0 27 38 a1 3c 79 e2 6c 3d 68 ad 81 3d 18 7a 96 bd
       0.019680096 0.05783317 0.06331903 -0.07347506
0002b0 71 f4 5d bc 82 99 d7 ba 1b 8b 2c bd d4 89 77 bd
       -0.013547049 -0.0016448947 -0.04212485 -0.060434178
0002c0 4c e5 27 bc 26 95 78 bd 17 94 f4 3c 5c d5 08 bd
       -0.01024754 -0.060689114 0.029855771 -0.0334066
0002d0 9e bc 97 3d 7c fa 95 3c d3 f4 3b bd 87 9b f9 bc
       0.07409023 0.018307917 -0.04588778 -0.030469669
0002e0 da 6a 86 3d df aa f1 3c 37 0b df 3c 09 18 41 bc
       0.06563349 0.029500423 0.027227027 -0.011785516
0002f0 3e 3b 6f 3d cf 94 7c 3b 7d f4 61 bc 8a 47 12 3c
       0.058406107 0.0038540845 -0.013791201 0.008928189
000300 76 00 43 3c 89 16 e5 3a ee 75 4c 3d 5b a0 97 3c
       0.011901965 0.001747803 0.049917154 0.01850908
000310 49 d8 25 3d 17 ed 8c 3d 9d 73 88 3d b1 1b a1 3d
       0.04048947 0.06881159 0.066626765 0.0786661
000320 e5 a1 a8 3d 5a 81 7d bd 9a cb 9a bd aa 77 a3 3c
       0.08234004 -0.061890937 -0.07558365 0.019954521
000330 b3 63 68 3d b2 d1 c4 bc 8c cf 7f bb e0 d9 b1 3d
       0.056735706 -0.024025772 -0.003903362 0.086841345
000340 17 52 49 3d 8e b3 09 3d 4f 10 74 3d 46 0d 3b bc
       0.049150553 0.033618502 0.059585866 -0.011416739
000350 5c 52 45 bd d0 a7 cb 3c 92 b3 c8 bc 56 e6 28 3b
       -0.048174247 0.024860293 -0.024499688 0.0025772057
000360 a8 f2 cf bb 0f 76 4e 3c 39 ff 92 3d 80 a8 0d 3d
       -0.0063460656 0.01260139 0.07177586 0.034584522
000370 36 39 54 3d 70 3d 16 bd 8c c8 55 bc 68 ff 5b bd
       0.051812373 -0.036679685 -0.013048302 -0.05371037
000380 85 96 0b 3b 77 c3 1a bc ed 98 a0 bd ec 11 4f 3d
       0.0021299433 -0.0094460165 -0.07841668 0.0505542
000390 86 da 07 bd fe 1c 19 3d f9 a3 8e bd a3 5f 15 3d
       -0.033167385 0.037381165 -0.06964869 0.03646816
0003a0 ae 91 26 bd 62 85 07 3d a7 81 ad bc 51 cc ca bc
       -0.040666275 0.03308619 -0.021179987 -0.024755629
0003b0 59 85 1c 3b 86 f8 56 bc fd 21 82 bd 8c ce 24 bd
       0.0023883192 -0.013120776 -0.06354139 -0.04023604
0003c0 69 e1 2d 3c 52 6e b4 bc d1 08 b7 3a 56 ff 59 bd
       0.010612824 -0.022025261 0.001396442 -0.053222023
0003d0 fa 39 b5 3c cf 14 b9 bb ed 51 67 3b 5a 15 75 bc
       0.022122372 -0.0056482325 0.0035296634 -0.014958704
0003e0 10 7d a4 3d 64 f4 d7 3d be d4 14 bd f4 db 29 3d
       0.08031666 0.10544661 -0.0363357 0.04146953
0003f0 d8 f9 b5 3d 4c 62 a3 3c 1a 73 8c 3b b3 54 64 bd
       0.088855445 0.019944333 0.004286182 -0.055744838

layer2.0.bias f4 [16]
000000 d1 25 3e 3d 37 89 ad bd af 3a 7c bd 15 d9 95 ba
       0.046422783 -0.08473437 -0.061579403 -0.0011432493
000010 32 2e 69 bd b2 c1 29 3d 00 8b 69 3d 4e 78 37 3d
       -0.05692882 0.041444488 0.057017326 0.044792466
000020 56 7e 83 3c a6 ef 83 3d d4 9f a4 bd b9 cf 31 bd
       0.016051453 0.06442194 -0.08038297 -0.04341099
000030 9e 79 b1 bc 12 a8 65 bd 03 57 9f bd 6b 16 5e 3d
       -0.021664437 -0.056068487 -0.07780268 0.0542206

layer2.1.weight f4 [16]
000000 3f 5a 75 3f b2 d4 77 3f 3d 9d 7d 3f c9 32 80 3f
       0.9584083 0.9680892 0.9906805 1.0015498
000010 a4 26 80 3f 78 9c 77 3f 58 c8 84 3f ce aa 7e 3f
       1.0011792 0.9672313 1.037364 0.9947938
000020 be ca 73 3f 20 2f 7e 3f 2f 25 81 3f 5d 08 80 3f
       0.95231235 0.9929066 1.0089473 1.0002552
000030 2c 86 81 3f 7f d8 7c 3f 6d 02 81 3f ac f1 81 3f
       1.0119071 0.98767847 1.0078865 1.0151877

layer2.1.bias f4 [16]
000000 23 9f f4 bc c9 8f c6 bc 47 9a 3a bc d1 d0 9b 3c
       -0.029861039 -0.024238484 -0.011389322 0.01902047
000010 2d 97 01 bc 09 91 b9 bc 21 8f c5 3b 9d 05 b3 bb
       -0.007909578 -0.022652166 0.006029025 -0.0054633156
000020 70 4a 94 bc af 15 0a bc 7d 3f dc bc 09 ad d6 bb
       -0.0181019 -0.008428021 -0.026885742 -0.006551389
000030 8d ce a8 bb 63 17 c4 3b fb 9a 6a 3b 0e 85 10 3c
       -0.005151576 0.005984233 0.0035797942 0.008820785

layer3.0.weight f4 [64, 16, 3, 3]
000000 7a b4 29 ba 19 ad a5 3d 07 9c 67 bc a0 b4 95 bd
       -0.00064737315 0.080896564 -0.014136321 -0.07309842
000010 6b d8 95 bd bf bb fb 3b e8 f8 43 ba 78 24 4c bd
       -0.07316669 0.007682293 -0.00074757496 -0.049839467
000020 87 53 40 3d 2e 54 19 bd ed 86 4e 3d cc c9 08 3d
       0.046954658 -0.037433796 0.050421644 0.033395573
000030 5f 54 8b 3d 7b 13 a3 3d 0a 92 ae 3c d0 78 5a bd
       0.06803202 0.079627 0.021309871 -0.053337872
000040 a9 40 cb 39 18 43 4f 3d 69 f0 11 3d 01 b4 4f 3c
       0.00038767353 0.050601095 0.035629664 0.012677194
000050 2f 7e ed b5 05 b9 b8 3c 96 8a 7d 3d a2 02 cc 3c
       -1.76946e-06 0.022549162 0.061899744 0.0249036
000060 91 45 87 3d 6a e9 7c 3d a9 a3 3c bd c3 7d 8b bd
       0.066050656 0.06174604 -0.046054516 -0.068110965
000070 67 f2 5f 3d 92 5c f1 3d 76 9e b8 3d ae 95 54 3d
       0.054674532 0.117852345 0.09014599 0.05190056
000080 39 2f 62 bb cf b1 87 3d eb 19 75 bd 38 6a 03 3c
       -0.003451301 0.06625711 -0.05983917 0.00802093
000090 bf 56 81 bd 05 fa 24 3d c5 e8 44 bd c5 34 09 3c
       -0.06315374 0.0402775 -0.04807355 0.008374398
0000a0 75 fe c2 3c 41 57 06 bd 7b d9 26 3d 21 e5 8d bc
       0.023802975 -0.032798056 0.04073475 -0.017321171
0000b0 d9 60 3f 39 24 4b 70 bd 4c 46 27 3b 2b 1a 0c bd
       0.00018251258 -0.05866541 0.0025524078 -0.034204643
0000c0 7e 08 51 bd 6c 41 6e bc 7c 6c 91 3d 75 ea 66 3d
       -0.05103349 -0.014541965 0.0710077 0.05637594
0000d0 d4 bc 56 3d a8 b9 26 3d 42 bc 14 bd f4 5d 63 3d
       0.052426174 0.0407044 -0.03631235 0.055509523
0000e0 7c 45 ac bd b9 d5 95 3d 4b 0a 2e 3d 5c c4 8a bd
       -0.084116906 0.07316155 0.042490285 -0.06775734
0000f0 7b 18 35 3d a5 f6 39 3d bc a0 bd 3c e9 89 96 3d
       0.0442128 0.045401234 0.023147933 0.07350523
000100 6c f0 61 bd 3f fb aa bd 3f 57 69 3d 38 bc 82 bc
       -0.055160925 -0.08348703 0.05696797 -0.01595889
000110 4e 42 1c 3d 84 b3 d2 3c 07 0e b1 3d 31 c8 81 3d
       0.03814917 0.025720365 0.08645254 0.063370116
000120 b7 a3 3a bb eb 7d 46 3d 2f 45 2c bd 54 1d 4b 3d
       -0.002847893 0.04845993 -0.042058166 0.049588516
000130 86 ad 0c bd 64 41 d5 3d 1a 7f 10 bd a7 66 42 bd
       -0.034345172 0.10412863 -0.035277463 -0.04746118
000140 cd a8 a4 3d 3a 45 ba bd 26 f2 e3 bc c3 bf 69 bc
       0.08040009 -0.09095235 -0.027825426 -0.014266911
000150 4d 80 d5 3c 47 ec 8e 3d fe 63 98 3d d2 54 5c 3d
       0.026062155 0.0697866 0.07440947 0.05379183
000160 81 f5 84 3d 77 75 d1 bb 43 5a 8e bd c8 cf c8 3b
       0.06492139 -0.0063921767 -0.0695081 0.006128285
000170 3c 37 a9 3d be 47 ce 3c 7e 2f 03 bb f6 02 99 bc
       0.08262488 0.025180694 -0.0020017321 -0.01867817
000180 02 58 62 bd 43 05 8a bd 04 97 a4 bd b8 56 72 3d
       -0.055259712 -0.06739285 -0.080366164 0.059164733
000190 52 8c 2d bb 1c dc dd bc 8d a0 c7 bc e1 55 d5 3c
       -0.0026481343 -0.027082495 -0.024368549 0.026041927
0001a0 5c d1 00 bd c2 4e fe 3c 98 7e ea bc 2a 1f c0 3c
       -0.03144966 0.031043414 -0.028624818 0.02345236
0001b0 3e d6 08 3d e0 97 ad bc d9 f4 6f 3d 37 d4 a8 3c
       0.033407442 -0.021190584 0.058583114 0.020609004
0001c0 47 05 55 bc b5 3a 1d 3d 98 7d bd 3c d6 e6 69 3d
       -0.0130017465 0.038386066 0.023131177 0.057104908
0001d0 ae e1 78 3d 7f 26 81 3d ee 11 57 bc 0d 73 a4 3d
       0.0607621 0.06306171 -0.013126833 0.08029757
0001e0 0c d4 8a bd f1 53 2e 3d 39 87 7d 3d 17 32 8e bc
       -0.06778726 0.04256052 0.061896536 -0.01735787
0001f0 2e d6 ba 3d 65 7e 52 bb 29 dd 97 bd 3a 5e 44 bd
       0.09122883 -0.0032118794 -0.0741523 -0.047941424
000200 96 46 bb bd 0d 20 87 bc 2c 1d 44 bc 6a 07 c0 bd
       -0.091443226 -0.016494775 -0.011969846 -0.09376414
000210 98 41 5d bd e6 3b 8a 3d da 0d 9f 3c ea c2 c5 bb
       -0.054017633 0.06749706 0.019415785 -0.0060351985
000220 d7 4e 8d bd f9 b0 01 bd de 35 2a 3c a9 b2 90 bd
       -0.06899803 -0.031662915 0.0103888195 -0.07065327
000230 36 2e 84 bc 9f ea 90 3b ce d9 a6 bd b2 69 89 bd
       -0.016135316 0.0044225003 -0.08147012 -0.06709613
000240 3f 73 b3 3d 00 eb 3f 3d 0d 08 81 3d 04 32 94 3d
       0.08762216 0.046854973 0.06300364 0.07236102
000250 51 7e 30 bd 35 20 b0 3d eb c2 c9 bc c9 49 1a 3d
       -0.043089215 0.08599893 -0.024629077 0.037668023
000260 ce 15 8a bd 51 2c 47 bc 27 45 e7 3d 94 db 64 bd
       -0.0674244 -0.012156562 0.11292487 -0.05587347
000270 68 d0 bb 3d 68 d2 83 bd 71 1e 47 bc c5 7f 35 bd
       0.0917061 -0.06436616 -0.012153254 -0.044311304
000280 de 54 ab 3c a8 8e fb 39 b3 47 ce 3c 24 86 55 3d
       0.020914491 0.00047980738 0.025180673 0.05212988
000290 67 1e a2 bd 27 cb 6d 3d 22 f2 39 bd e4 6d 9b 3d
       -0.07915955 0.05805507 -0.04539693 0.07589319
0002a0 c2 70 52 bd 5d 4c bd 3d 63 c4 70 bc a5 d9 1b 3d
       -0.051377065 0.09243081 -0.01469526 0.03804936
0002b0 c7 f6 db 3c d2 fc 5d 3d 80 da 1f 3d 3e c4 40 3d
       0.026851071 0.054196186 0.039026737 0.04706215
0002c0 94 51 22 3d ce 53 ab 3d 9c 42 1d 3d 19 3a d4 bc
       0.03962858 0.08365594 0.0383936 -0.02590661
0002d0 98 a9 5e 3d 8c ab f7 bc 63 ae 81 3d a4 bc f3 3c
       0.054360956 -0.030233167 0.0633209 0.029753037
0002e0 e1 85 82 3d d3 88 f0 3b 2e f4 5e 3d 77 67 32 3c
       0.063731916 0.0073405295 0.054432087 0.010888926
0002f0 cb 5d 3f bd d1 01 77 3d 47 30 49 bd 9f 36 10 bd
       -0.046720307 0.060304467 -0.049118306 -0.03520834
000300 5a db 6c 3d 04 c1 d0 3c ce fb de ba f9 84 4c bd
       0.057826377 0.025482662 -0.00170123 -0.0499315
000310 6a 5f 5b 3d 5c e3 8d 3c c9 45 bd 3d 4d b8 f2 3b
       0.05355779 0.017320327 0.09241826 0.0074072243
000320 39 59 b7 3d cb 4a 51 3d 12 51 2e 3d 3a c7 15 3c
       0.08952565 0.05109672 0.042557783 0.009141738
000330 31 63 5d 3d a9 d3 81 bd 68 b0 d2 bc 27 a3 be 3c
       0.054049674 -0.06339199 -0.025718883 0.023271156
000340 5c d6 4c bd bc 1d 39 bd ae 73 c2 3c ec b1 35 bd
       -0.050009117 -0.045194373 0.023736801 -0.044359133
000350 e8 04 66 38 2c c4 ad 3d ee 89 4c 3d cb 75 8d bc
       5.4840842e-05 0.084846824 0.049936228 -0.017268082
000360 c2 19 93 3d ef 00 77 3d 63 56 a9 3d 7e 1f 0d bd
       0.07182647 0.060303625 0.0826843 -0.03445386
000370 d6 72 ac 3d 3d b2 6a 3d 4d 21 53 bd cd 77 2d bd
       0.08420341 0.057298888 -0.05154543 -0.04235058
000380 47 01 ac bc 9e b0 aa bd a2 b6 c5 bc 2f 6e d1 3c
       -0.020996703 -0.08334468 -0.024134938 0.025565235
000390 11 c1 2f 3c 5e 12 57 bd 18 0b a6 bb a7 78 d0 39
       0.010727183 -0.05250775 -0.0050672404 0.00039762745
0003a0 e7 c7 85 bd 7b 14 8e 3d 31 ae b9 3b 20 81 9d bd
       -0.06532269 0.069375 0.005666517 -0.07690644
0003b0 a2 c0 41 3d 26 ed ae 3c 0d c9 c3 3c 4d f1 e2 3b
       0.04730285 0.021353316 0.02389958 0.006925738
0003c0 f8 8e 37 3c 48 d0 90 3c 16 65 4d bd 4f 43 62 3d
       0.01120352 0.017677441 -0.05014523 0.05523997
0003d0 8d 90 09 bd 64 e6 7b bc 34 b3 1b 3d 0b 6c d8 3c
       -0.03358512 -0.015374754 0.0380127 0.026418706
0003e0 f9 4b 92 bd cc ae 51 3d a1 b5 90 3c 7d 5e 4b bd
       -0.07143397 0.05119209 0.017664732 -0.049650658
0003f0 29 3d 6f bd 3c 71 51 bd fc 61 bd 3b 0a 84 43 bd
       -0.058407936 -0.05113338 0.005779503 -0.047733344

layer3.0.bias f4 [64]
000000 c7 bb 7c 3d 0a a7 76 bd a1 bb 08 3c 70 b9 7a 3d
       0.061702516 -0.060217895 0.0083455155 0.061212003
000010 a1 73 b8 3c 0a 69 33 bd 60 3c 10 bd 47 a2 0f 3b
       0.022516074 -0.043801345 -0.035213828 0.0021916793
000020 29 5a 7a bc d9 a8 25 bd 3f a4 c5 ba 8c f4 b4 bd
       -0.015280285 -0.04044423 -0.0015078856 -0.08835706
000030 90 c1 61 bb f2 d6 19 3d 32 e0 84 3d 20 01 65 3c
       -0.0034447648 0.037558503 0.06488074 0.013977319
000040 42 9e 60 3c fb c8 5f bd 30 51 a0 3d 46 f4 97 3c
       0.013709607 -0.05463503 0.07827985 0.018549096
000050 5a e9 31 bd 74 5e 36 3d 5e 3a 17 bd 1d 25 8c bd
       -0.043435432 0.04452367 -0.036920898 -0.06843016
000060 eb ca 85 3d 51 0f 93 3d 07 e2 93 bc 22 de 78 bc
       0.06532844 0.07180656 -0.018052114 -0.015189679
000070 66 e4 97 3d b5 6d 59 bd 7a f5 ee 3c b5 29 af bd
       0.074166104 -0.05308314 0.029169787 -0.08552877
000080 4b 3a 66 bd 29 1c a5 bc 93 68 42 bc eb 17 06 bd
       -0.056207936 -0.02015503 -0.011865753 -0.032737654
000090 9a a7 fa 3c b7 b7 f7 3c 8c 33 4f bc 47 99 44 3d
       0.030597497 0.03023897 -0.012646567 0.04799774
0000a0 c2 d5 eb 3c a2 d9 8a bd e8 28 61 3d 62 8a a8 3c
       0.028788451 -0.067797914 0.054970652 0.020573799
0000b0 d7 ae 91 3d e4 73 40 bd 16 04 02 3d f9 ff 68 bd
       0.07113426 -0.046985522 0.031742178 -0.05688474
0000c0 5e 3f 3a bd b1 0f 94 bd ad 7d 35 3d 55 61 6c bc
       -0.045470588 -0.072295554 0.044309307 -0.014427503
0000d0 97 14 a9 3c 27 a8 93 3d de bf b9 3d de 53 6b 3d
       0.0206397 0.07209807 0.09069799 0.05745303
0000e0 a4 dd be 3c 64 89 b3 bd cd eb ac 3d e3 d6 e2 3a
       0.023299046 -0.087664396 0.08443413 0.0017306473
0000f0 cd e6 7a bd ee a1 c2 bb 66 04 96 bd 93 68 87 bd
       -0.061255265 -0.0059397137 -0.07325058 -0.06611743

layer3.1.weight f4 [64]
000000 97 9a 80 3f 49 60 7d 3f f8 3d 81 3f 05 bb 7e 3f
       1.0047177 0.98975044 1.0097036 0.9950412
000010 b2 b7 7a 3f cf 65 81 3f 84 be 7f 3f 43 f9 7e 3f
       0.97936547 1.0109195 0.9990008 0.99599093
000020 83 7a 7c 3f f3 23 81 3f 25 44 7e 3f eb ec 82 3f
       0.9862444 1.0089096 0.9932273 1.0228552
000030 35 39 81 3f ab 7a 80 3f e5 27 80 3f c0 e9 81 3f
       1.0095583 1.0037435 1.0012175 1.014946
000040 b6 26 81 3f 5b c0 80 3f fa db 80 3f 4a 58 7b 3f
       1.0089939 1.0058702 1.0067132 0.98181593
000050 3f a9 81 3f 96 93 7b 3f c6 a0 7f 3f 4a 07 82 3f
       1.0129775 0.98272073 0.99854696 1.0158474
000060 d8 ea 7b 3f a4 8d 7c 3f fc 0a 80 3f f4 61 82 3f
       0.9840522 0.98653626 1.0003352 1.0186143
000070 6b 8e 79 3f 17 b6 80 3f be 41 81 3f d8 1d 81 3f
       0.9748294 1.005557 1.0098188 1.0087233
000080 11 d8 7d 3f 82 e0 7e 3f 4f 45 77 3f 14 d8 7d 3f
       0.99157816 0.9956132 0.9659013 0.99157834
000090 82 ba 79 3f b6 11 80 3f 36 0a 7f 3f f8 97 79 3f
       0.97550213 1.0005405 0.99624956 0.9749751
0000a0 c7 30 7e 3f 6e 65 82 3f 8b 10 80 3f 4c ce 7b 3f
       0.9929318 1.0187204 1.0005049 0.9836166
0000b0 a5 62 82 3f 24 00 81 3f 15 bb 80 3f 52 46 83 3f
       1.0186354 1.0078168 1.0057093 1.0255835
0000c0 69 5d 7c 3f 05 1e 80 3f bb 1d 81 3f ef 6e 82 3f
       0.9858003 1.0009161 1.0087198 1.0190104
0000d0 b7 72 7f 3f 03 04 82 3f db d1 80 3f b6 82 7c 3f
       0.99784416 1.0157474 1.0064043 0.9863695
0000e0 b3 9e 7d 3f 20 b6 7c 3f 3d 60 80 3f cb 57 81 3f
       0.9907028 0.987154 1.002937 1.0104917
0000f0 c0 65 7a 3f d0 d1 7c 3f 4c bb 7b 3f ec a4 82 3f
       0.9781151 0.9875765 0.9833267 1.020658

layer3.1.bias f4 [64]
000000 82 6e bb bc 9f 71 40 bb 63 be ad bc 98 04 e9 bc
       -0.022879843 -0.0029364598 -0.021208948 -0.028444573
000010 4a 99 84 bc 2a 53 3b ba 70 e5 67 bc 0f 8f 3e bc
       -0.016186375 -0.00071458763 -0.014153823 -0.0116307875
000020 4b 3b 15 bd bb af 86 bc 62 74 80 bb 95 31 53 bc
       -0.0364335 -0.016441217 -0.003920124 -0.012890239
000030 44 b1 b0 bb 65 97 87 bb cf 83 f7 bb 80 49 97 bc
       -0.0053922255 -0.0041379207 -0.0075535546 -0.018467665
000040 da fd 2b 39 e2 92 01 bc 62 29 88 bc 8e b7 cd bb
       0.00016402398 -0.007908555 -0.016621295 -0.006277985
000050 4d 83 aa 3b 3e 15 2e bc fc bc 93 3b ac 1b 4b 3c
       0.0052036406 -0.010625182 0.0045086127 0.012396734
000060 29 25 ad bc 14 e8 2d bc c6 d7 29 bc 03 ac bf bc
       -0.021135883 -0.010614414 -0.010366386 -0.023397451
000070 37 04 44 bc 4f fd 93 bc 84 84 10 bc 49 d2 6a bc
       -0.0119638955 -0.018065123 -0.008820657 -0.014332362
000080 30 6f c6 bc d0 83 b4 3b 84 dc 88 bc bc 36 10 bb
       -0.02422294 0.0055088773 -0.016706713 -0.002200528
000090 f4 6d bf bb 78 39 2b 3b e7 41 18 bc 4e 4d 4a bb
       -0.005841965 0.0026126783 -0.009293056 -0.003086883
0000a0 61 06 cf bc c6 50 77 bc be b3 78 bc e1 97 a9 bc
       -0.025271596 -0.0150949415 -0.015179573 -0.020702304
0000b0 76 3a bb b8 8b 44 04 bc 83 da a0 bc a7 6b f6 3c
       -8.927744e-05 -0.008072983 -0.019635445 0.03008063
0000c0 80 e7 4d bc 1f 32 8d bc c1 87 10 bc 99 bc f7 37
       -0.012567401 -0.017235814 -0.008821429 2.9532517e-05
0000d0 0f d5 d5 bb 61 58 30 3c f0 fd c7 bc a6 a9 05 bc
       -0.0065256427 0.010763259 -0.024413079 -0.008158123
0000e0 f0 f2 20 3b 2f 1a e0 3b 63 af cc ba ff f8 d3 bb
       0.0024558865 0.006839059 -0.0015616234 -0.0064688916
0000f0 1d 7d f9 bc 0d 32 e5 bc 7c 8e 2b bc 60 ff 06 bb
       -0.030455166 -0.027977968 -0.010470983 -0.0020598993

layer4.0.weight f4 [64, 64, 3, 3]
000000 61 65 3d bd c6 a1 59 3c bc 4d a8 bc 28 1b d1 3c
       -0.04623926 0.013283199 -0.02054488 0.025525644
000010 c5 b0 49 3c 91 15 b7 3b 1b 06 55 bc 25 e4 55 3b
       0.012310212 0.0055872877 -0.013001944 0.0032637205
000020 7d dc bb 39 bd 92 bc bc 8b 87 85 bc 13 40 a4 bc
       0.00035831696 -0.023019189 -0.016299983 -0.020050084
000030 50 65 bd bc a6 b9 d9 3c d1 b5 a2 3c cf 29 76 bd
       -0.023119599 0.026577782 0.019862087 -0.060098466
000040 3f e2 13 bd 38 13 7c bc eb db 57 bd 90 62 5e bc
       -0.036104437 -0.0153854415 -0.052699964 -0.013573304
000050 b9 8d 64 3b 7b 70 1e 3c bf 1c fd 3b 56 0c 9d bc
       0.0034874512 0.009670372 0.007724374 -0.019170921
000060 3b a6 f0 ba f5 87 16 3d e3 b4 20 bc 1f 7b 39 3d
       -0.0018360087 0.036750752 -0.009808752 0.045283433
000070 a7 a2 68 bd 5c 88 10 bc d0 20 5e bc 5f c0 bc bc
       -0.056795742 -0.008821573 -0.013557628 -0.023040948
000080 5e ac 81 bc 1b 16 38 bd da 2d 0e bd 94 b7 0a bc
       -0.015829261 -0.044942956 -0.034711696 -0.00846662
000090 98 4d e7 bc b6 aa 25 bc bf 9b ee bc b2 f7 cf bc
       -0.028235242 -0.010111501 -0.029127 -0.025386665
0000a0 b3 f9 ed bc 94 8a 3f 3c cc 41 98 3c e8 19 cf ba
       -0.02904973 0.011690754 0.018586062 -0.0015800567
0000b0 2f af 70 bc 69 c7 05 3d a0 9f 3e bd 68 d0 9e bb
       -0.0146902045 0.032660875 -0.04653895 -0.0048466213
0000c0 d1 f7 c2 3c 9f 59 a2 bc af 16 e0 bb 4e 8d 23 3d
       0.023799809 -0.019818125 -0.0068386416 0.03992968
0000d0 39 3a f0 3c 71 cf e0 bc b4 60 4d bd 96 26 f9 bc
       0.029324638 -0.027442666 -0.05014105 -0.030413907
0000e0 65 65 88 bd d1 15 56 ba b3 b8 c6 bc ef 81 88 3c
       -0.066599645 -0.0008166703 -0.024257993 0.01666352
0000f0 86 c3 2b bb cd 4c 95 3c d3 81 c6 bc 4d 5b f9 bc
       -0.002620907 0.018225098 -0.024231827 -0.030439043
000100 ec ea d0 3c c8 12 ce 3b 35 9a df bb 83 38 bc bc
       0.025502644 0.00628886 -0.006823803 -0.022976166
000110 3d bc ec bc 65 5d bc 3c 01 0c 36 3d 24 77 84 bd
       -0.028898353 0.022993753 0.04444504 -0.06468037
000120 ab 11 af 3c 59 40 7e bc 0e f0 58 bc 5a 58 d9 bb
       0.02137073 -0.015518271 -0.013240827 -0.006632847
000130 23 b8 87 3c 17 86 18 bd a4 2e 65 bd 9e 83 f0 bc
       0.016567295 -0.037237253 -0.055952683 -0.029359635
000140 db 94 66 3c 93 03 00 bc 08 eb e2 bb cc 40 8a bc
       0.014073576 -0.007813352 -0.0069249906 -0.0168766
000150 74 b9 1f 3c 7c 9a a3 3c b4 70 ab bc dd 59 b6 bc
       0.009748805 0.019971125 -0.020927764 -0.022259647
000160 a2 58 85 bd 04 3e 65 bd 27 ad 66 bc b2 15 05 bc
       -0.06511046 -0.055967346 -0.014079369 -0.008122848
000170 ae ed 4c 3d 49 df d0 bc 6d b7 10 ba 42 2f de bc
       0.050031357 -0.025497096 -0.00055204966 -0.027122144
000180 d2 1b 6b bc 4c 75 fd b7 bf 34 01 bd 8f 6b 88 3c
       -0.014349895 -3.021457e-05 -0.031544443 0.01665285
000190 55 71 83 bc 05 40 eb 3c b0 6f 2a bd 75 7e bc bc
       -0.016045252 0.02871705 -0.04161042 -0.023009518
0001a0 9d 4f d7 3b a8 b2 2b 3c e1 93 f6 3c a0 3d 14 3d
       0.00657077 0.010479607 0.030099811 0.036191583
0001b0 21 ba b7 3d 96 2d ef 3a c4 db 29 3c 71 65 aa 3c
       0.08971048 0.0018247839 0.010367338 0.020800324
0001c0 86 51 fd 3b 92 69 a3 3b b1 47 5c bb 4f be 06 bc
       0.0077306656 0.00498695 -0.0033612067 -0.008224084
0001d0 92 9b 87 3c 7e 78 20 bd cc 20 2c bd 4a 85 79 bc
       0.016553674 -0.03917741 -0.042023465 -0.0152295325
0001e0 59 60 ed 3c a7 d6 ed bc 37 2c 0a bd 94 57 a0 bc
       0.028976606 -0.029033018 -0.033733573 -0.01957301
0001f0 78 81 59 bc 3d 32 5d bc 63 b0 97 bc 32 47 39 3b
       -0.013275497 -0.013500747 -0.018516725 0.0028271195
000200 5d f9 60 bd 08 b2 2d bc 31 c4 1d 3b 27 97 bf bb
       -0.05492531 -0.010601528 0.0024073238 -0.005846876
000210 40 2e 52 3d 7a d0 ec 3b 5c b9 f9 3c 9d e2 01 bc
       0.05131364 0.007227001 0.030483894 -0.007927564
000220 8d 7f f3 3c 2a fb bb bc 3e 78 be 3b ee 9e b3 bc
       0.029723907 -0.022946913 0.005812674 -0.02192637
000230 7e 8c ca bc a6 7a 94 3b 47 45 b8 3b 3c f6 a0 bc
       -0.024725195 0.0045312224 0.005623493 -0.019648664
000240 4d c9 83 3a 8b b5 b7 bc 44 f6 4b bc 14 ba 6a bc
       0.0010054499 -0.022425434 -0.012448851 -0.014326591
000250 13 6a b4 bc 08 6e e2 3b a9 09 d5 bc fa 31 6b 3c
       -0.022023236 0.0069100894 -0.026005583 0.014355177
000260 39 ec 9c 3b d9 1c 75 bc 11 f9 9e bc 59 a4 f8 3c
       0.004788902 -0.014960491 -0.019405873 0.030351805
000270 78 dd 05 bd fe c6 9e 3c a9 04 e5 bc 19 f8 6d 3a
       -0.032681912 0.019381996 -0.027956324 0.0009077802
000280 50 43 47 3d da 5d b8 3b 36 ae 13 3d e4 4a 21 3d
       0.04864818 0.0056264224 0.036054812 0.039378062
000290 0c 75 fa bc 11 3c 13 3c a1 1c e6 bc 89 cc ae bc
       -0.03057339 0.008986489 -0.028089823 -0.021337764
0002a0 96 7c 37 3c 81 d9 24 bd ac ec 5b 3b 7c 8e 26 bb
       0.011199137 -0.04024649 0.0033557815 -0.0025414517
0002b0 79 c4 08 3d 4e aa b1 ba 3b 9d ae bc 35 c0 47 3d
       0.033390496 -0.0013554783 -0.021315208 0.048767287
0002c0 3f a5 a4 3a a1 2f 2d bd f9 e1 49 3d b0 9b 3d 3d
       0.0012561454 -0.04228175 0.04928777 0.046291053
0002d0 ee 58 b2 bb e1 b9 47 bd 73 d1 36 bd 73 42 8f 3a
       -0.00544273 -0.048761252 -0.04463334 0.0010929838
0002e0 1a d7 8d 3c 20 f6 28 bd aa 5d f6 bc d0 f6 10 bb
       0.017314482 -0.041250348 -0.03007396 -0.0022119768
0002f0 17 c9 09 3d 46 02 0d bd a3 d6 f4 bc 64 ea 0b 3d
       0.03363904 -0.034425996 -0.029887503 0.03415908
000300 78 c9 e8 3b 74 49 30 3d 9c e5 e7 bc 9d cc 76 3c
       0.007104095 0.0430388 -0.028307728 0.015063432
000310 11 31 45 3d db 4d a2 bb e3 1f e9 bc 36 48 11 3d
       0.048142496 -0.0049531288 -0.028457588 0.035469256
000320 f8 89 13 3c 7e b4 2c 3d a5 97 24 bd b5 27 db bb
       0.009005062 0.04216432 -0.040183682 -0.006688083
000330 47 ad 1f bc bb 73 34 3c f3 30 8a bc c3 cd 9a bb
       -0.009745902 0.01101392 -0.016869044 -0.0047242357
000340 9e 2f db 3c 8e 32 5e 3b b8 1c ab 3b 7d 5f 48 3d
       0.026756104 0.0033904645 0.0052219294 0.04891919
000350 fb 77 48 3c 9f ce 86 bc 13 34 72 bb 21 37 b2 3c
       0.012235637 -0.016455946 -0.0036957308 0.021754803
000360 43 0a 61 3c ed 8b ca 3b 73 a3 45 bc 51 01 14 3d
       0.013735357 0.0061812312 -0.012062895 0.036134068
000370 7b ea 7c 3c 3b be ec bc 7e 6c 64 3d a5 14 94 bc
       0.015436764 -0.028899303 0.05576753 -0.01807625
000380 5e 9b 1a bd b6 45 f0 3a 95 0b ef bb e2 d8 21 bd
       -0.037745826 0.0018331322 -0.007295082 -0.039513476
000390 56 49 cf 3c b4 ca bd bc c2 6f 10 3c 68 5c a8 bc
       0.025303524 -0.023167945 0.008815708 -0.020551875
0003a0 10 0a 10 bd a9 4f 86 bc 80 17 56 3b 41 66 86 bc
       -0.035165846 -0.016395407 0.0032667816 -0.01640618
0003b0 b2 fc ef bc 04 3b 78 3c bd 62 a9 3c 38 ce 9f bc
       -0.0292953 0.015150789 0.020676965 -0.019507512
0003c0 2f a6 18 3d 0a 29 84 bc 5b 90 a3 3c f8 f7 14 bc
       0.03726786 -0.01613285 0.019966295 -0.0090923235
0003d0 3f b0 b0 bd 6b d3 f6 3c 94 68 d3 3a a0 40 81 bc
       -0.08627366 0.030130109 0.0016129189 -0.015777886
0003e0 01 e6 00 3a db e1 4f bd f4 a0 89 bd 82 31 7a 3c
       0.0004917086 -0.050752502 -0.067201525 0.015270593
0003f0 d7 f5 22 3d b0 99 d9 3d 87 93 88 3d 9e fc 88 3d
       0.039785232 0.10625017 0.066687636 0.06688808

layer4.0.bias f4 [64]
000000 41 dc 27 bd 1d 21 2f 3d 11 37 33 bc 3c 10 36 bd
       -0.040981535 0.04275619 -0.010938422 -0.044449076
000010 20 34 07 3d c9 8c d9 bc e3 45 40 bc 94 c4 97 bc
       0.033008695 -0.02655639 -0.011735412 -0.018526353
000020 3f 06 ea bc 94 b7 e9 bc ce b7 b2 3c 36 40 10 3d
       -0.028567431 -0.02852992 0.02181616 0.035217486
000030 ff ac eb 3c d4 06 63 3c 62 2a 13 3d 38 e1 2b 3c
       0.028769014 0.013856608 0.03592909 0.010490708
000040 0b 14 f3 3b 5e 0d 90 3b ce cb ad bc f1 cb 17 bd
       0.007418161 0.0043961247 -0.021215346 -0.037059728
000050 fa fc 1b 3d b4 bb d3 3c d1 27 0e 3d d0 a4 29 bd
       0.038083054 0.02584634 0.03470594 -0.041416943
000060 02 18 95 3c a7 bb 18 3d 24 cb da bb 16 ec 8f bc
       0.018199924 0.037288334 -0.0066770483 -0.01756863
000070 34 74 2b 3d 4a 23 0b bd 0f a5 67 bc 98 88 6b 3c
       0.041858867 -0.0339692 -0.014138474 0.014375828
000080 78 89 f7 3c 35 59 d4 bc ba fb c6 bc e1 6b b5 bb
       0.030216917 -0.025921443 -0.024289954 -0.005536542
000090 86 08 ee bc 85 41 de bc 9d 1d 85 bb c8 95 d6 ba
       -0.029056799 -0.027130852 -0.004062368 -0.0016371543
0000a0 da 6a 44 bd 92 b9 18 3d a3 0b d3 3c e9 8f 45 3d
       -0.047953464 0.03728635 0.025762385 0.048232947
0000b0 56 20 80 3c c5 28 1d bc 6c b1 a0 bc 48 59 9c 3a
       0.015640419 -0.00959224 -0.019615851 0.0011928463
0000c0 d0 69 c7 3b 2a 83 26 bd 36 76 dc 3b 65 99 ff 3c
       0.006085612 -0.04065243 0.006727959 0.031201074
0000d0 db 44 a6 3c ff 22 e9 bc 3b 43 e4 3c b5 ca d5 bc
       0.020296505 -0.02845907 0.02786409 -0.026097635
0000e0 3b 77 d4 3c 81 27 77 bc 4e 4c 03 3d 1c 1c 06 bd
       0.02593576 -0.015085102 0.03205519 -0.03274165
0000f0 4c c1 04 3c c5 70 42 bd 88 d3 28 bd 0d 85 a8 3c
       0.008102726 -0.047470827 -0.041217357 0.020571256

layer4.1.weight f4 [64]
000000 d5 ec 80 3f 00 e3 81 3f b2 a6 80 3f 60 5e 7c 3f
       1.0072275 1.01474 1.0050871 0.98581505
000010 75 51 7e 3f 0d a2 80 3f 08 bb 7a 3f bb 7b 80 3f
       0.99343044 1.0049454 0.9794164 1.003776
000020 97 7a 82 3f a4 89 81 3f ae f6 82 3f e2 40 81 3f
       1.0193661 1.012013 1.0231531 1.0097926
000030 e9 06 7f 3f 1e 1d 83 3f d6 e2 79 3f 8a b2 7f 3f
       0.9961992 1.0243261 0.9761175 0.99881804
000040 bc 4b 7e 3f 94 9b 82 3f 2f 20 82 3f 57 4d 81 3f
       0.9933431 1.0203729 1.0166072 1.0101727
000050 82 a9 7c 3f bf d0 7c 3f 55 c8 81 3f 37 35 80 3f
       0.9869615 0.9875602 1.0139261 1.001624
000060 72 42 7c 3f 69 fc 82 3f ab b3 77 3f ca 62 73 3f
       0.9853889 1.023328 0.96758527 0.95072615
000070 66 96 7f 3f 21 c0 7d 3f 91 c6 80 3f 96 28 79 3f
       0.99838865 0.9912129 1.0060598 0.97327554
000080 36 92 7e 3f 66 57 7c 3f 2e 68 7f 3f 57 59 7f 3f
       0.9944185 0.9857086 0.9976834 0.99745697
000090 ac fa 7d 3f fd 0e 7e 3f a7 d4 79 3f a6 86 79 3f
       0.9921062 0.9924162 0.97590107 0.9747108
0000a0 46 ee 79 3f 47 2c 7e 3f be 5c 79 3f 4c 9a 74 3f
       0.976292 0.9928631 0.9740714 0.9554794
0000b0 47 58 82 3f 3b fa 80 3f 10 8b 80 3f 25 f1 7a 3f
       1.018319 1.0076364 1.0042439 0.9802421
0000c0 db 73 81 3f 78 20 7d 3f 81 0d 79 3f 6b db 78 3f
       1.0113481 0.9887767 0.9728623 0.97209805
0000d0 88 8f 75 3f 74 3d 83 3f 4d d0 80 3f b8 fb 83 3f
       0.95922136 1.0253129 1.0063568 1.0311193
0000e0 43 cf 7b 3f 94 34 76 3f 13 ca 79 3f a5 11 81 3f
       0.9836313 0.9617398 0.97573966 1.008351
0000f0 1d b9 81 3f 09 96 7e 3f e6 db 77 3f 5f 7a 86 3f
       1.0134617 0.99447685 0.96819913 1.0506095

layer4.1.bias f4 [64]
000000 73 81 d6 3a 90 d4 ce bb a8 53 70 bb ea c0 93 37
       0.0016365483 -0.0063119605 -0.0036670957 1.7613598e-05
000010 fe a5 d8 bc 3e d7 8f bc db 2a a0 bc f4 3e 83 bb
       -0.026446339 -0.01755869 -0.019551685 -0.0040053073
000020 96 36 c8 bb b5 4a e6 3a 6c ba 2c bb 18 78 d7 3b
       -0.006110023 0.0017569872 -0.0026356233 0.0065755956
000030 66 38 84 bc 6e 78 8b bc a5 0c 4d bc b4 80 64 bc
       -0.016140174 -0.017025199 -0.012515222 -0.013946701
000040 0e e9 18 bc 07 5e 86 bc 21 03 58 bb 11 54 0e bc
       -0.009332908 -0.016402258 -0.003296085 -0.008687035
000050 b6 1c 66 bc c9 9a 83 ba 31 79 8e bb 85 5e 62 bc
       -0.014044931 -0.0010040636 -0.0043479432 -0.0138164805
000060 13 98 c2 bb a2 89 2b bc 8c fb 74 bc 77 3a da bc
       -0.005938539 -0.010469826 -0.014952552 -0.026639206
000070 51 7a 4e bc b1 85 89 bc 36 a8 a0 bc ce 2f 99 bc
       -0.012602405 -0.016787382 -0.01961146 -0.018699553
000080 fa d5 91 bb f8 32 5e 3b 85 b7 95 3b 1a d9 a9 bb
       -0.004450557 0.0033904891 0.0045689964 -0.005183351
000090 91 fc e1 bb 81 b3 90 bc 4f 48 ea bc 38 d3 bf bc
       -0.0068965633 -0.01766372 -0.028598933 -0.023416147
0000a0 4a 9c 20 bd c7 57 0a bd cb 0f 62 bc d8 6c a5 bc
       -0.03921155 -0.033775117 -0.013797711 -0.020193502
0000b0 26 be 7f 3c bf 6c b9 ba 86 ac 3c 3a a1 6d 47 bc
       0.0156093 -0.0014146789 0.0007197339 -0.012172134
0000c0 16 b3 92 bb e2 2c c1 bb 27 47 c3 3b 50 86 10 bd
       -0.004476915 -0.005895243 0.0059594098 -0.03528434
0000d0 10 93 9d bc b2 89 1f bc bf af 16 3a 18 db 82 bc
       -0.019235164 -0.009737419 0.0005748234 -0.015973613
0000e0 d8 b9 b5 bc 59 aa 46 bc b4 5a bb bc aa 45 f9 bb
       -0.022183344 -0.012125575 -0.022870399 -0.0076071816
0000f0 dd 56 ec bb 5e 15 8c 3b 18 bd b6 bc af 0c cc 3b
       -0.0072125033 0.004275008 -0.022306964 0.006227098

layer5.0.weight f4 [64, 64, 3, 3]
000000 c5 6d 88 3c db b0 c4 bc 22 68 da bc c9 ae ee bb
       0.016653905 -0.024010113 -0.026660983 -0.0072840196
000010 36 2e a1 bc 4b ef ee bc 41 b5 8b 3c 65 3a 09 bd
       -0.019675355 -0.029166838 0.017054202 -0.033502955
000020 3e bb 13 3c 06 a7 61 3d e7 0f 2a bd af fe 61 bd
       0.00901681 0.055090927 -0.041519072 -0.055174526
000030 1d 9e 07 3d a0 38 d1 3c f1 5d 96 3c 56 3e 60 3d
       0.033109773 0.025539696 0.018355342 0.05474695
000040 25 fb 52 bd d5 1d ba 3c 33 c1 34 bc e4 93 f4 bc
       -0.05150904 0.022719303 -0.01103239 -0.029855676
000050 e6 45 16 bc ba 4e 16 3c d9 8e b8 bc 91 c2 7e 3b
       -0.0091719385 0.009174043 -0.022529053 0.0038873295
000060 db f2 7a bc a3 91 cd bc d6 bf 63 bd 06 96 0d bd
       -0.01531669 -0.025093859 -0.05560287 -0.0345669
000070 e9 e5 87 3c e5 7c 1f 3d 73 cc 4f bc e0 80 36 bd
       0.016589122 0.038937468 -0.012683022 -0.0445565
000080 1f 65 c7 bc a9 a2 e7 bc 45 d4 36 3c 73 71 30 3c
       -0.02434021 -0.028275805 0.011159007 0.010769236
000090 a9 4f 4b bc 2c be c6 3c 2b e9 9b bc 55 b4 41 3c
       -0.012409129 0.024260603 -0.019032082 0.01182278
0000a0 1a 91 3f bc e4 01 24 bc 5a 57 19 3d 80 f2 d9 bb
       -0.01169231 -0.010010216 0.03743682 -0.0066512227
0000b0 85 7f ff bc 92 e6 0d 3d 6b 03 0a 3d fa 31 e9 bb
       -0.031188736 0.034643717 0.033694666 -0.0071165534
0000c0 7f e2 e5 3c 23 a2 24 3d 0a e3 04 3c a7 c3 fd 3c
       0.028062103 0.040193688 0.008110771 0.030977083
0000d0 17 fd 0c 3d a6 19 ca bc a3 4b 4f 3c bb ba 7e 3c
       0.034421053 -0.024670433 0.012652311 0.01554745
0000e0 24 51 29 3c a0 64 8a bb 80 41 48 bd e1 c1 ba 3c
       0.010334287 -0.004223421 -0.04889059 0.022797527
0000f0 70 ca 0f 3c 11 34 6b bc 5b d8 80 bb fb ad bc 3b
       0.008776292 -0.014355675 -0.0039320416 0.005758045
000100 06 bc a5 bb 7c f7 55 bc f7 4e fb bc 74 46 71 3c
       -0.0050578145 -0.013059493 -0.030677302 0.01472627
000110 e8 f4 9a bc cd 9e cf ba eb d6 1e bd 67 c8 f4 3c
       -0.018915609 -0.0015840173 -0.03877918 0.029880716
000120 bb b8 18 3c df f4 a8 bc b1 c7 99 3b 00 15 33 bb
       0.009321387 -0.020624576 0.0046929945 -0.002732575
000130 8a c4 4a bd 38 08 11 3d 5e ab 12 3b 8c a8 ab 3c
       -0.04950384 0.03540823 0.0022379975 0.020954393
000140 03 d2 3f bc 6b 20 fd 3c 3d 2d 2f bd 03 85 53 3c
       -0.011707786 0.030899247 -0.042767752 0.01291013
000150 00 da 3f bc 17 a6 9e 3c d5 40 39 bd 3b 09 7e 3c
       -0.01170969 0.019366307 -0.045227844 0.01550513
000160 44 02 70 bc 74 91 18 3d eb df 3d bc 4a df 57 bd
       -0.014648978 0.03724809 -0.011589031 -0.05270318
000170 1a 87 b0 bc 0a 06 3f 3d 82 c8 5b bd 4d 40 0b bd
       -0.021548796 0.04663662 -0.053658016 -0.03399687
000180 4e 02 9a bb 07 37 6b bc 0c 89 40 3c 7c e9 2f bc
       -0.004699982 -0.014356381 0.0117514245 -0.010736819
000190 7a d8 c1 3c 1c ee 1f bc 7b 02 3f 3c af e6 7a bc
       0.023662794 -0.00976136 0.011658306 -0.015313788
0001a0 bd 01 91 3c 55 3b ce 3c 2c 87 eb bc c9 6f e0 3b
       0.017701024 0.025174776 -0.028750978 0.0068492633
0001b0 9f 73 55 bc e4 a8 ed bc 4d 8e d7 bc e0 00 92 bc
       -0.0130280545 -0.029011197 -0.026312971 -0.017822683
0001c0 88 be f9 bc 9e f5 b1 bc 66 2d 52 3c b1 df db 3c
       -0.03048636 -0.021723565 0.012828207 0.026840063
0001d0 84 82 59 3c 75 a0 c3 bc 78 71 da 3c 77 ea 58 bd
       0.013275746 -0.023880223 0.026665434 -0.052957978
0001e0 79 2a a9 bc 7f 9d 7f 3c ea 32 a6 3c d9 5d d1 3b
       -0.020650135 0.015601515 0.02028795 0.0063893613
0001f0 5f 4e 2f bd 86 ea 1f 3c fd a7 24 3d af c3 24 bd
       -0.04279935 0.009760505 0.04019927 -0.04022568
000200 01 79 4c bd 0f dd 23 3d 22 f3 dd bb ac 12 5a 3c
       -0.049920086 0.04000574 -0.0067733685 0.013310116
000210 af 0d fb 3c 6b 95 89 3c 6d 21 b8 bc f6 6d 1e bb
       0.030646173 0.01679488 -0.022476876 -0.0024174429
000220 aa 86 df bc ca 31 dd bc 87 44 89 bc 66 dc 4d bc
       -0.027285893 -0.02700128 -0.01675631 -0.012564754
000230 2d e0 61 3c 60 5f 98 3c 88 30 45 3d fc ec 26 bc
       0.013786358 0.018600166 0.048141986 -0.010188337
000240 db a2 f1 3c 66 91 c0 bc 4b 8d 46 bd a5 d8 b6 3c
       0.0294966 -0.023506831 -0.04847459 0.022320101
000250 9f ca 5a 3d cc 64 0e bd 56 c0 bc bb 69 1b 77 3d
       0.05341589 -0.034764096 -0.005760233 0.060328875
000260 77 cc 89 bb e1 54 17 3d 81 26 f4 3b c2 fb 1a bd
       -0.0042052823 0.03694618 0.007450879 -0.03783775
000270 ce ed 19 3d d1 0d 24 3d de 20 d8 3b 28 8e a6 bc
       0.037580304 0.04005224 0.006595715 -0.020331457
000280 a0 c3 b5 3c 0d 08 04 3b d8 6a 94 3c aa 5f b1 3c
       0.022188008 0.00201464 0.018117353 0.021652061
000290 0a d4 76 3c 48 00 41 bc 93 ff db b9 08 0e 0e bc
       0.0150652025 -0.011779852 -0.00041961353 -0.0086703375
0002a0 6a a5 f9 bc 13 d3 e8 3c 9c 1f 7f 3c ba 4d ba 3b
       -0.030474383 0.02842096 0.015571501 0.0056855353
0002b0 14 4d 79 bb a1 8a 9d bc a5 70 1c bb 7a cd 80 3d
       -0.0038040327 -0.019231142 -0.0023870852 0.062891915
0002c0 36 34 11 bd cd 3c 87 bc 2c 90 47 bd 91 bc d1 bb
       -0.035450183 -0.016508484 -0.048721477 -0.0064006527
0002d0 ac f5 8d 3c 84 16 45 3d 8e 6c 6f 3d 77 5d 0f 3c
       0.01732906 0.048117176 0.058453135 0.008750311
0002e0 3c 3e 0d bd ae 7e 1a 3c f4 71 02 bc 24 d5 06 3b
       -0.03448318 0.009429617 -0.007961739 0.002057382
0002f0 33 f6 e4 3c 17 28 71 bc 3e 37 be bb 6a 52 0e bd
       0.027949428 -0.014719031 -0.005804925 -0.034746565
000300 5c 37 7d bc 4f 84 21 bd cd ec 15 3c 59 61 e4 bc
       -0.015455093 -0.03943282 0.009150696 -0.02787845
000310 ce ff 27 3d a4 ea a3 3c 8a e5 67 bb 8c 48 9a 3a
       0.04101544 0.020009346 -0.0035384619 0.0011770888
000320 0b 43 cc bc 01 f5 b4 3b db 72 30 bd 56 af 2b bd
       -0.024934312 0.005522371 -0.043078285 -0.04191526
000330 3d 93 0e 3d 3d d2 bb 3c 8c 8d 16 3d e8 fa ad bb
       0.034808386 0.022927398 0.036756083 -0.0053094514
000340 50 80 bf bb 79 ed 85 bc 5c d1 08 3d 5e 73 fc 3a
       -0.0058441535 -0.016348587 0.033402786 0.0019260456
000350 df 20 9f 3c 81 5e aa 3c 47 44 20 3d 28 2c 58 3b
       0.019424854 0.020797016 0.039127614 0.0032985304
000360 47 43 26 3d 54 e8 e7 bc 00 53 4c 3b 50 ab f9 3c
       0.040591504 -0.028309025 0.0031177402 0.030477196
000370 12 6d ae bc 87 f4 20 bc 28 e0 60 bd a5 0a c1 bc
       -0.021292243 -0.009823925 -0.054901272 -0.023564646
000380 04 81 4e bb 04 cd 0b bd b8 b1 27 bd 00 50 68 3c
       -0.0031510005 -0.034131065 -0.04094097 0.01417923
000390 53 70 33 3d 4a d3 e6 bb ad 27 a4 bc c9 48 3d bd
       0.043808293 -0.0070442306 -0.02003845 -0.04621199
0003a0 37 5d 7d ba 9d 4f ad 3c da 32 19 bd 35 40 a9 bc
       -0.0009665074 0.021156127 -0.03740201 -0.0206605
0003b0 d6 6a c5 bb 3d 32 16 bc ed cd a5 bc 90 59 04 3d
       -0.0060246987 -0.009167251 -0.020239795 0.032311976
0003c0 ac 8c 6f bd 41 80 e9 3c 58 e9 67 3b 04 90 2e 3c
       -0.058483765 0.028503539 0.0035386886 0.010654453
0003d0 24 13 2f 3d 73 29 a6 bc 40 a4 2c 3d 85 3c 13 3c
       0.042742863 -0.020283436 0.04214883 0.008986597
0003e0 d5 da 37 bc b5 10 db bc da ee cb b8 e2 0d 14 3c
       -0.011221607 -0.026741365 -9.724284e-05 0.009036513
0003f0 65 d5 97 bc 64 49 50 3c 77 29 1e 3c 42 dc 17 3c
       -0.018534372 0.01271281 0.009653441 0.009268822

layer5.0.bias f4 [64]
000000 87 71 d5 bb 63 2e 1f 3d ff 6e 42 3d d6 b1 e8 ba
       -0.0065137777 0.038862597 0.047469135 -0.0017753195
000010 f7 69 04 bd 30 51 ed 3c 4b 3c fd bc a0 16 03 bc
       -0.03232762 0.028969377 -0.030912539 -0.008001
000020 6a c9 12 bd 8f 49 8f bc f9 25 9d 3c b1 f4 25 3d
       -0.035836615 -0.01749113 0.019183146 0.04051656
000030 65 d4 18 bd f0 5b ea bb d4 c8 16 bd a5 49 cf bc
       -0.03731193 -0.007152073 -0.03681262 -0.025303671
000040 f0 35 49 3d e4 78 17 bd 29 0c 2a 3b b0 76 7f 3c
       0.049123704 -0.036980525 0.002594719 0.015592262
000050 89 22 03 3b c4 7a 35 3d 0e da 43 bd 64 bc 39 3c
       0.0020009598 0.04430653 -0.047815375 0.01133642
000060 cb 90 97 3c b0 d3 67 3c 2f 35 f7 bc f1 d9 72 3b
       0.01850166 0.014149591 -0.030176727 0.0037056173
000070 2f cb 74 bc 57 6f 3b bb fe ae 82 bc ec d5 3d 3d
       -0.014941021 -0.00286003 -0.015952583 0.04634659
000080 4f 9f e8 bb 6b db 1d 3d 8b bb 86 3c e2 9b 05 bd
       -0.007099069 0.03853933 0.01644685 -0.032619365
000090 52 22 32 bb 56 a8 2d 3d b9 80 42 3c e5 a0 90 3c
       -0.00271811 0.042396866 0.01187151 0.017654845
0000a0 f5 63 22 bb 02 e7 f2 3b 35 03 2e 3d de 01 a6 bc
       -0.0024778817 0.007412792 0.042483527 -0.020264562
0000b0 40 a7 fb bc d9 b3 d8 bc 3d a5 fb bb 6b 88 02 bd
       -0.0307194 -0.026452946 -0.00767961 -0.03186838
0000c0 0f e3 c5 bc 5e cf ea 3c 7c 4d 53 3d 91 7b cc 3b
       -0.024156122 0.028663334 0.051587567 0.006240316
0000d0 1f 65 b5 bb 88 c1 92 3c 8e 1a 68 bd 59 28 d2 bc
       -0.005535736 0.017914549 -0.05666595 -0.025654005
0000e0 5f 2a aa 3c 9c 51 1c 3d b8 10 2b bd 39 7a c2 3c
       0.020772157 0.038163766 -0.04176399 0.02373992
0000f0 cd 68 9e bb 7f 34 3c bb 99 61 0d 3c 19 60 d9 bb
       -0.0048342706 -0.0028717814 0.008629226 -0.00663377

layer5.1.weight f4 [64]
000000 b4 95 80 3f d2 7c 81 3f d9 18 83 3f ba 54 80 3f
       1.0045686 1.0116217 1.0241958 1.0025856
000010 c5 44 81 3f cc 68 81 3f be ef 80 3f b9 9b 80 3f
       1.0099112 1.0110106 1.0073164 1.0047523
000020 a2 39 7f 3f 64 1a 7d 3f d1 37 81 3f d2 76 82 3f
       0.99697316 0.98868394 1.0095159 1.0192511
000030 71 bf 80 3f a3 54 78 3f c9 6c 83 3f e9 30 82 3f
       1.0058423 0.97004145 1.0267574 1.0171176
000040 60 56 85 3f 68 bd 7f 3f 07 0c 83 3f 8a 52 81 3f
       1.0416985 0.99898386 1.0238045 1.0103314
000050 a1 1f 85 3f ea f7 82 3f 91 81 83 3f 64 12 7e 3f
       1.0400277 1.0231907 1.0273916 0.9924681
000060 22 22 77 3f 52 4d 81 3f 7a dd 7b 3f 18 2b 7a 3f
       0.9653646 1.0101721 0.9838482 0.97722006
000070 f2 8e 80 3f 89 bb 7e 3f 70 42 80 3f 80 6a 7c 3f
       1.0043623 0.99504906 1.0020275 0.98600006
000080 f0 3f 80 3f 5f 28 77 3f d3 d6 80 3f 36 86 80 3f
       1.0019512 0.96545976 1.0065559 1.0040958
000090 e1 94 7c 3f d8 03 7f 3f 10 2c 81 3f 8b ce 83 3f
       0.9866467 0.9961524 1.0091572 1.0297407
0000a0 eb c3 75 3f 5e 6f 7f 3f d3 c3 7a 3f 0f 5c 7e 3f
       0.9600207 0.9977931 0.97955054 0.9935922
0000b0 9f f3 80 3f c3 5e 82 3f ae 94 83 3f ac 5a 7a 3f
       1.0074347 1.0185169 1.0279748 0.97794604
0000c0 24 c5 7e 3f 81 08 79 3f e9 fb 80 3f d9 65 80 3f
       0.9951956 0.972786 1.0076877 1.0031081
0000d0 2a c4 7c 3f 7e e9 7d 3f 80 c9 82 3f 3a 72 85 3f
       0.9873682 0.99184406 1.0217743 1.0425484
0000e0 40 5e 84 3f 74 c2 80 3f 44 6f 82 3f cf d4 7b 3f
       1.0341263 1.0059342 1.0190206 0.98371595
0000f0 7a c0 7e 3f 81 d9 82 3f 89 9d 7c 3f 3d 75 82 3f
       0.99512446 1.0222627 0.9867788 1.0192028
