weights/pretrain_normalrotated__finetune_private.pth (torch, 947558 bytes, 26 tensors)

_module.layer1.0.weight f4 [16, 1, 3, 3]
00000000: d549 d73c a35a b7be 2daa c63d c7cb 983d
00000010: 7249 49be a309 f83d 6dd7 aabc a6cf 17be
00000020: 46d6 c03d 8745 2a3d aaeb 6dbd 3eb3 fabd
00000030: 241f 893e 94b6 d8bb 6cec 753d 72c6 8bbe
00000040: 39aa eb3d ef12 12be 325c b8bd 914c aa3e
00000050: d585 05be ad9f 2abe 4ffa 653e 4a0c 2b3e
00000060: efe3 c6bd f1d1 cdbc 77c3 ef3d c6c4 8b3e
00000070: b5e8 29be d056 0b3d 6c23 86be 1a8c 563e
00000080: 7b10 a43e 3de0 643d d132 9a3e 7c4f 0dbd
00000090: 0560 41bd 7513 b23d 9bc9 623e a05d 75be
000000a0: 3370 993e bf09 aabd d7cf 4fbe 3833 163e
000000b0: 8b07 e0bd 2de6 8dbe b598 a13e 8f54 4bbe
000000c0: fd18 a3bd 35a3 86be df3e 153e 982f 9a3e
000000d0: 4f39 56be 59b1 31bd b5e0 8b3e 85ef 96be
000000e0: a6b2 793e 13d1 10be fc9d 883e 0fa4 713d
000000f0: 4f4e 393e 4b92 403e 7bc0 593e 826d ee3d
00000100: 08b6 18be bcb6 8dbe 1790 9a3d ea7d 2b3e
00000110: a766 92bd deef 1a3e 6e03 94be 7fd7 233e
00000120: f76a 903e a0e7 d13d c8a1 75bd c1c1 8fbe
00000130: 6558 94be b312 953e 16a1 863e 67fb 86be
00000140: a14e 2a3e 5f12 4ebe 9313 953e 5e2c 0c3e
00000150: 2621 84bd bfc6 fd3d 95a1 853c fde7 20be
00000160: fcd0 783e 50db 8abe b4e3 75bc 0512 76be
00000170: addf bd3d 860f 6fbe 371c e0bd be6f a23e
00000180: 98e5 b3bd 2a2c 333c 8e68 74be 8996 e53d
00000190: b313 a0bd 1e16 97be 1275 143e cfdc a73d
000001a0: 6d8b 953e cbdd 393e dcf4 903e e827 8739
000001b0: 6f8a 133e 7f1a 91be a617 4c3e 8117 a6bd
000001c0: e7c3 813b 172e a23d 7d24 aa3e bf9f a3be
000001d0: 22f7 9ebe 060f cbbd a658 1ebc 5698 5c3c
000001e0: 301a 9b3d 1379 62bd c902 c2bd 4389 45be
000001f0: cda8 0b3e f444 4c3e fc6c 033e 09c7 a03d
00000200: b88d 8dbc eab2 e73d 032b 94bd 657d 973d
00000210: 8ad3 543d 64ac 75be 5ba7 8fbe d1ec 5c3e
00000220: 14b1 a13e 6384 3fbc d6fe c03d f88a f0bd
00000230: a9ff f23d 2550 113e efd1 f2bd 5362 633c
0.026280323 -0.35811338 0.09700427 0.074607424 -0.19656923 0.12111213 -0.020854676 -0.14825305
0.094158694 0.041570213 -0.058086075 -0.12241219 0.2678157 -0.006613562 0.060039923 -0.2729984
0.11507077 -0.14265035 -0.0900196 0.3326154 -0.13039334 -0.16662474 0.22458766 0.16703907
-0.09711444 -0.025124522 0.11707204 0.27298564 -0.16592677 0.034018338 -0.261989 0.20951882
0.32043824 0.055877913 0.30116895 -0.03449963 -0.047210712 0.086951174 0.22147219 -0.23961496
0.29968414 -0.0830264 -0.20294128 0.14667976 -0.10938939 -0.27714673 0.3156182 -0.19856475
-0.079637505 -0.26296392 0.14574765 0.30114436 -0.20920299 -0.043382023 0.27319875 -0.29479614
0.24384555 -0.14142255 0.26683033 0.05899435 0.18096279 0.18805806 0.21264832 0.11641981
-0.1491319 -0.27678478 0.07547014 0.16747251 -0.07148486 0.15130565 -0.28908867 0.16000174
0.28206608 0.10249257 -0.05996874 -0.2807751 -0.2897369 0.2911583 0.26294774 -0.2636368
0.16631557 -0.20124196 0.29116496 0.136888 -0.06451635 0.123914234 0.0163124 -0.15713497
0.24298471 -0.27120447 -0.015007902 -0.24030311 0.092711784 -0.23345765 -0.109428816 0.31725878
-0.08784026 0.0109358225 -0.2386801 0.11210353 -0.07816257 -0.29509062 0.14497784 0.08196413
0.29207936 0.18151014 0.28311813 0.0002577894 0.14408277 -0.28340527 0.19930896 -0.08109952
0.003960121 0.07918947 0.33230963 -0.31957814 -0.31047922 -0.09914975 -0.00966469 0.013464054
0.07573354 -0.055291247 -0.094731875 -0.19290642 0.13638611 0.19948179 0.12834543 0.07850463
-0.01727949 0.11313422 -0.07234766 0.07396964 0.051959552 -0.23991543 -0.2805737 0.21574713
0.31580412 -0.011689278 0.09423606 -0.11745256 0.118651696 0.14190729 -0.11856448 0.013878423

_module.layer1.0.bias f4 [16]
00000000: 0c46 0fbe bc6d 773e c321 3dbe 428e e9bd
00000010: a73c a2be 434f 35be eb75 3f3e b0f8 89bb
00000020: bec1 123e 0077 953e efe6 95be 7744 843d
00000030: 2879 1dbe 9fd2 3cbe eba7 c1bd aec2 3d3e
-0.13991565 0.24162954 -0.1846991 -0.11404087 -0.316869 -0.17706017 0.18697326 -0.004210554
0.1433172 0.29192352 -0.2927775 0.06458371 -0.15378249 -0.1843972 -0.09455856 0.18531296

_module.layer1.1.weight f4 [16]
00000000: f268 7f3f 60de 813f 58e6 733f bd0b 813f
00000010: 967c 813f 1049 823f f6d0 7f3f 30e6 7b3f
00000020: 153b 833f 797a 7b3f ef03 7a3f 2d42 813f
00000030: 31d2 7f3f b1a1 7c3f e3e2 803f 6700 803f
0.9976951 1.0145988 0.9527335 1.0081707 1.0116146 1.0178547 0.99928224 0.98398113
1.0252405 0.98233753 0.9766225 1.009832 0.999301 0.9868422 1.006924 1.0000123

_module.layer1.1.bias f4 [16]
00000000: ef2d 5fbb 21b3 81bc da6d 6d3c 0445 d43b
00000010: e5ed d33c 6709 55bc 63b5 1c3c 8803 103c
00000020: b63c 763c 175f 763c a826 58bc 1d2b 2c3b
00000030: b118 39bc e511 d1bb 6d49 273d aafe 08bc
-0.0034054478 -0.015832486 0.014491523 0.006477954 0.025870273 -0.01300273 0.00956473 0.008789904
0.015029123 0.01503732 -0.01319281 0.0026270815 -0.011297391 -0.006380307 0.04084151 -0.008361498

_module.layer2.0.weight f4 [16, 16, 3, 3]
00000000: 7bf8 8f3d 6dfa 6fbd 08fb ecbc c8c3 a8bb
00000010: 7f46 0db8 67d8 3cbd 16ab 743d 3e97 8a3d
00000020: 9099 9a3d 5db3 93bc 07ef 5e3d b46e 64bc
00000030: dfdb eebc b3ee 90bd 28e8 e43c 76b6 f1bc
00000040: 8bc8 8ebd 451e 25bd 68b7 133d 8365 67bd
00000050: e647 ac3d 1505 863c 8395 4abd 76d5 8c3d
00000060: 0543 523d b2c1 97bc c94e a2bd f867 9a3d
00000070: 4fa4 a0bb e909 f43c 5624 06bd 66a6 a03d
00000080: 3769 32bd 0ae2 9f3d bb7d 453d aee8 7bbd
00000090: df3d 16bc a97a 88bd e04d 98bd 4822 36bd
000000a0: f980 913d db48 babc c086 56bd 0119 b43a
000000b0: 101f 763d da94 603d 1917 843d 58da 5f3d
000000c0: ecdc ad3d d86f bebc 9121 05bb 09a5 f7bc
000000d0: b06d 8bbc a336 ab3b 372e 83bc e0b6 9f3d
000000e0: fe1f dfbc 1510 853d 30ff 213d 6825 253d
000000f0: f06a 973d 79db 813d 235e b53d 6f29 863c
00000100: 626c 953c e93f bfbc a0c2 5d3d 72a6 b3bd
00000110: 2429 06bd c3da 58ba e621 22bd 8a98 1c3d
00000120: 1c38 133d 670d 97bb b015 97bc 642d 8abd
00000130: 05bf fc3b 435b 253d a945 abbd d732 663d
00000140: 4743 7b3c fb8f e03b ec8c 3dbd c228 83bc
00000150: 902f 843d e781 503d c4f9 a7bc de1b 993b
00000160: faee 443c 02c8 683d c7cb 0fbd de3e 79bd
00000170: d9fd 273d df41 3abd 073a 8eb9 2abf 8e3d
00000180: db0a 943d 7970 763d 5ce4 463d 52f1 c53d
00000190: 6f84 8fbc ef58 6c3c 8180 2bbc 82c9 193d
000001a0: fab5 8bbd 153d 863d 149b 7c3d d866 92bd
000001b0: 3f15 efbc 8c27 df3b 4c55 8bbd 4222 debc
000001c0: e15d 93bd 6a0b e83c 64f7 993c 2445 273d
000001d0: ec2c 953d 9a2e 273d 0aca 903d 6da1 b43d
000001e0: e0a7 9f3d b695 9f3d bf9c 9ebd 5a82 e53c
000001f0: 9fc0 88bd d706 883b 557a 4b3d 6ff2 ad3c
00000200: 9eff 2ebd 50b7 8d3c 8ff9 213a df08 92bd
00000210: 96b7 8bbc dda7 22bd 591e f33b c4ac 2e3d
00000220: 03ba b73d 7343 5a3d c980 953d 9c07 273d
00000230: 077e 8bbd f1fe 8abd 77ce 563d e109 92bd
00000240: 8f62 603d d339 81bd 0ae5 673c 5ae2 d7bd
00000250: 7b8e a1bd e0bc 8ebc 7436 49bd c5ed 193d
00000260: 0589 9ebd 97ce e6bc e178 6d3c ccec c7bc
00000270: 39f5 473d bbfa 9b3d c0e5 53bc 5ca4 713d
00000280: 95d5 0a3d 0040 893d 90a2 463d f130 2e3d
00000290: 4e7d 753b fcf2 b13d dd6a 2e3d 2ec2 38bd
000002a0: 5d43 363c 4a5f 133d 5564 a4bc 5c98 513d
000002b0: 109d 893b dffe 063d f16d 71bc bc64 49bd
000002c0: 982a 99bc ab60 8f3d 0c6e 8e3c 4e35 1d3d
000002d0: 6962 8cbd fb80 b03d 0a0f 91bb 569a 86bd
000002e0: 6a5c 0bbd c453 90bc 9981 b0ba 76d6 4cbd
000002f0: 6b47 72bd 7195 45bc ad38 533b e0b8 a03d
00000300: 5ad6 4f3c 9b5b c43c 7bdc 9fbd 0e3b 84bd
00000310: b95a 8bbb 0a41 fdbc 985d e7bb 0551 8abc
00000320: b5cb 8f3d 4a70 ad3c 1268 bcbd aec1 88bd
00000330: df3a 443d b142 953c 1db3 36bd 6666 89bd
00000340: 87de 31bd 217b 93bc 9541 a4bd 60a3 4fbd
00000350: 62dd b0bd cdbb bdbd 3f44 d03c c09a 8bbb
00000360: 4411 39bd c612 74bd 65e0 81bd de5a d1bb
00000370: becc 31bd 2e83 2f3d 9027 b63d 651e 97bc
00000380: 281c 813d 2379 1cbd b033 723d 58cb 2fbd
00000390: ec87 3dbd e5ae 7b3d 4eec e43c 6a6e c83d
000003a0: 8379 8ebd ffcc b43d 180c 753d 5dab eb3b
000003b0: cbd6 813c ec86 b9bd 10f5 cf3c 9b8c 7d3c
000003c0: 186c 04bc ca63 233d da08 983c 8824 4e3d
000003d0: 178f f9bb e71f 1abd 893e 7c3d 75ae 863d
000003e0: 9abd 23bc 9cf3 32bd db9e af3d 7584 bebb
000003f0: 5864 f33c 8a9b 633d 8fe5 f6bd dbaf 0bbd
0.07029816 -0.058588434 -0.028928295 -0.005150292 -3.3682674e-05 -0.046104815 0.059733473 0.067671284
0.07548821 -0.018029863 0.054427173 -0.013942409 -0.029157577 -0.07076778 0.027942732 -0.02950595
-0.06971844 -0.04031207 0.03606358 -0.056493293 0.08412151 0.016359845 -0.04945899 0.06876652
0.051333446 -0.018524978 -0.07925183 0.07539362 -0.0049023996 0.029789882 -0.032749496 0.07844238
-0.043557372 0.078067854 0.04821561 -0.061501198 -0.009170025 -0.066640206 -0.074367285 -0.044466287
0.07104678 -0.022739818 -0.0523746 0.0013740362 0.060088217 0.054829456 0.06449718 0.05465159
0.08489403 -0.02324669 -0.0020314197 -0.030230062 -0.017020077 0.005225019 -0.016013248 0.077985525
-0.027236935 0.06497208 0.039550006 0.040318877 0.073934436 0.06340689 0.08855846 0.016377179
0.018240158 -0.023345904 0.054140687 -0.08771981 -0.03275408 -0.0008272344 -0.03958311 0.03823141
0.035942182 -0.004609752 -0.018442959 -0.06746939 0.007713201 0.040370237 -0.08362896 0.05620083
0.015335864 0.0068531013 -0.04627697 -0.016010646 0.06454384 0.050905135 -0.02050484 0.0046725115
0.012019867 0.056831367 -0.035106447 -0.06085097 0.041013572 -0.045472976 -0.00027127584 0.069700554
0.07228633 0.060165856 0.048557624 0.09665169 -0.017519204 0.0144255 -0.010467649 0.03754569
-0.06821819 0.06554619 0.06167133 -0.07148522 -0.029184936 0.0068101343 -0.068033785 -0.027115945
-0.0719564 0.028325755 0.018794723 0.040837422 0.07283959 0.040815927 0.07069786 0.08819852
0.077956915 0.07792227 -0.07744741 0.028016258 -0.066773646 0.004151206 0.04967721 0.021233765
-0.042724244 0.017299324 0.000617885 -0.07130598 -0.017055314 -0.03971087 0.007419389 0.04264523
0.08971026 0.05328698 0.072999544 0.04077874 -0.06811147 -0.067869075 0.052442994 -0.071307905
0.054781493 -0.06309857 0.014153728 -0.1054122 -0.07888504 -0.017424047 -0.049124196 0.03758027
-0.07740978 -0.028174682 0.014494152 -0.024404906 0.048817847 0.076161824 -0.012933195 0.058994636
0.033895094 0.0670166 0.048494875 0.042527143 0.003745872 0.08688924 0.04258238 -0.04510706
0.011124459 0.035979547 -0.020067373 0.05117069 0.0041996315 0.032957908 -0.014735685 -0.049168333
-0.018697068 0.0700086 0.017386459 0.038380913 -0.06854708 0.08618351 -0.0044268416 -0.06572406
-0.03402368 -0.017618068 -0.0013466357 -0.050009213 -0.05915014 -0.012059555 0.0032229826 0.07847762
0.012685383 0.023969462 -0.07805725 -0.06456576 -0.0042527583 -0.030914802 -0.007060718 -0.016884336
0.07021276 0.021171708 -0.09199537 -0.066775665 0.047907706 0.018220278 -0.04460441 -0.06708984
-0.04342511 -0.018003048 -0.08020321 -0.050692916 -0.086359754 -0.09264336 0.025423167 -0.004260391
-0.04518248 -0.059588216 -0.06341628 -0.006389006 -0.043408148 0.042849712 0.08894265 -0.01844711
0.063041985 -0.038201462 0.059131324 -0.042918533 -0.046272203 0.06144609 0.02794471 0.09786685
-0.0695677 0.088281624 0.059825987 0.007192059 0.015849492 -0.090589374 0.02538541 0.0154754175
-0.008082412 0.03989009 0.018558908 0.050327808 -0.0076159346 -0.03762808 0.061583076 0.06576244
-0.009993935 -0.043689355 0.08575221 -0.00581413 0.029710934 0.055568255 -0.120555036 -0.034103256

_module.layer2.0.bias f4 [16]
00000000: 2be8 c53b beb5 89bd 3603 91bd d0ae 563d
00000010: 05dc eebc 577d 82bd 40f0 983d 70b5 903d
00000020: 513b 3f3d 7717 fcbb 432a eb3b a595 83bc
00000030: d414 403c 2d03 34bd cbe2 623d fd89 b63b
0.0060396395 -0.06724118 -0.070806906 0.052412808 -0.029157648 -0.06371563 0.07467699 0.070658565
0.046687428 -0.007693227 0.007176669 -0.016062567 0.011723716 -0.04394834 0.055392068 0.0055706487

_module.layer2.1.weight f4 [16]
00000000: 8aa3 7d3f 0216 7a3f 889c 7a3f bb9e 813f
00000010: 74ed 7c3f ccff 7b3f 18f7 783f fe6f 853f
00000020: 2ace 7d3f d000 803f 178e 7e3f ce3c 7d3f
00000030: d29f 7a3f d427 7c3f 9a5a 813f 8c38 7d3f
0.99077666 0.9768983 0.978951 1.0126566 0.98799825 0.9843719 0.97252035 1.0424802
0.99142706 1.0000248 0.9943556 0.98920906 0.97900116 0.9849827 1.0105774 0.9891441

_module.layer2.1.bias f4 [16]
00000000: 94d3 91ba 03ee 26bc e1c1 bcbc 00f2 a13a
00000010: 310f d2bc 1069 f13c 570d 72bc f4aa 6abb
00000020: 40d8 18bd 13ae 003c 2294 3bbd 4194 e93b
00000030: 71b2 84bc bdf9 9ebb b929 4b3c bf1c db3c
-0.0011125677 -0.010188582 -0.023041667 0.0012355447 -0.02564201 0.029469043 -0.014773688 -0.0035807462
-0.037315607 0.0078540025 -0.045795567 0.007128269 -0.016198369 -0.0048515485 0.012400084 0.026747106

_module.layer3.0.weight f4 [64, 16, 3, 3]
00000000: 12c4 acbd 58ee 3ebd c6be c3bd a5fa 2abc
00000010: 3307 cbbd f42b 233d bedd 8a3d c57f c13c
00000020: b51a e1bc a2ec 493d 2925 333d 1a00 573c
00000030: d0f2 3c3d 8f2a f5bc 9b18 71bd 97bc 80bd
00000040: 4c5e 2a3c 259a ab3d adb4 633d aa58 083d
00000050: 38ef 6cbd 8d9b a2bd 3712 98bc 8109 3fbd
00000060: d5a8 a43d 37c4 5b3d 61fb a93d e126 8abc
00000070: 1b03 52bd f5c4 673d 663c 7e3b 219c 903d
00000080: 2fdc ffbc a522 9bbd 9956 30bd b301 63bd
00000090: ab2f e63c 090f a6bc 9d40 b53d 6338 60bd
000000a0: e052 833d 99f2 263d 16d8 8abd aa01 25bd
000000b0: 0740 51bd 04c4 90bd e263 da3c 1de9 81bd
000000c0: 1c80 53bc b746 82bd 2553 ca3d b79d 79bd
000000d0: 5077 0e3c fc88 eb3d 0eeb cfba 74c7 e0bb
000000e0: 9877 a93d aada 023d e04b 5cbd 8425 28bd
000000f0: 5de2 13bd 3548 9f3d 849e 663d 3669 8bbd
00000100: 90f6 b0bd 537c db3c 6d2e 3f3d c23a 6dbc
00000110: 5426 34bd a1d0 23bc af5f 833d 53ba cd39
00000120: 555a 9ebb 4f73 5c3d e5c5 423d 587f 863d
00000130: 0359 76ba 1d2a 1dbd 0889 85bd fc5f 5abd
00000140: 8eb4 293d 5f60 3abb e1ac f5bd 886b 583a
00000150: b99b 403d 9563 8cbd e256 1bbd 9bc7 303d
00000160: be9d 8a3b 9974 a63d df7f ccbd 4a03 37bd
00000170: 55c6 8fbd 5eb7 f03c e54e bfbc eb92 68bb
00000180: c363 033d 686e 0a3d 6090 0f3d e277 e03c
00000190: abd9 593c f683 263d ce87 e53d 3aee 063d
000001a0: 25f1 0dbd 5a5a cebd 3431 1bbd 21fb 183d
000001b0: ae3b 133d 33d7 a2bd 40ba 1d3c a90a d1bb
000001c0: f293 a9bc e9f2 b4bb 13e4 40bd c889 c33c
000001d0: ec68 723d 930e 7fbd 8e3f bbbc ccd2 a53d
000001e0: bcc9 723c 5bf7 73bd 7445 7a3d e2ec d2bc
000001f0: cca8 d7bc 699b fbbc 3746 2c3d 7d35 653d
00000200: 78bf 343d 86fb b43c 6d79 a33c 448d 153d
00000210: edd2 4e3d c118 fd3c 117a 0f3d bb73 53bd
00000220: 683e 8a3d 3836 a23c 148e 5cbd a447 c1bb
00000230: f229 20bd 3791 8c3d e1c4 e3bb 2037 183d
00000240: 53cc a2bd e328 1c3c c8b1 8e3d eaed 73bd
00000250: e6da 4cbb 2349 2ebd e65f 823d 4059 99bd
00000260: bf8e 80bd 393d 553c 0734 ce3d d043 863d
00000270: 89b9 c1bc d97f 683d ae0f 903d b541 873b
00000280: 1ea3 6ebd 4fcd c3bc de3a 3c3c 3fa1 983c
00000290: c2b3 5b3d f7e7 0ebd 0d08 533d 57ed 8dbd
000002a0: 211b 2b3c 9db2 723d 5b74 993c 1277 5fbd
000002b0: 7e26 9cbd 63b1 b7bc 07b0 8bbc 3b5f a7bd
000002c0: 1060 6b3c 1869 8c3d cc7d 2b3c aa82 93bd
000002d0: e1e6 ab3c 114b 583d 8ebf 88bd 838f c2bd
000002e0: c8dd 273d bbd6 5ebd f188 49bd 0516 3dbd
000002f0: 6bc7 3dbc 469d e9bd 1154 e7bc 4eea a8bd
00000300: 03b8 9a3c 2cf2 85bc eafb 953c cbb9 453d
00000310: c519 dbbc 5f98 50bd 1579 86bd e568 94bc
00000320: a44d f7bc 46c1 9f3c 04ad 023d 6280 a6ba
00000330: 7552 52bd 53ea 3c3d 1e88 d03a f05f 16bd
00000340: e059 6a3d e9dc 28bd 4db1 5a39 39a5 703d
00000350: 5339 e3bb 27ab c93d fa77 81bd 6e2e 81bd
00000360: f896 993d 7d77 56bc 38b3 c9bd 023a 113d
00000370: 9acc 8d3c c862 b4bd 6b0c c93d 10b9 2dbd
00000380: f832 ab3c 367f 033d 5ae1 b53d 4122 d23d
00000390: 921b 573d 1163 cabd 57b6 32bd f6aa fcbc
000003a0: e379 adba b258 483d 4c74 763d 581d 323d
000003b0: 219e 09bd a970 453c 13ab 30bd 5160 413d
000003c0: ee28 8b3c ee34 27bc 06bf 2dbd fbf8 913d
000003d0: dd5a 823d 0fd8 46bd e6d3 d73d 0c8c e73c
000003e0: d676 34bd 21a9 ae3d 35e8 bf3d 7790 50bd
000003f0: 4f5c 9038 c379 66bd 22bf cebd 230c a33d
-0.08435835 -0.04661402 -0.095578715 -0.010435735 -0.099134825 0.03983684 0.06780575 0.023620496
-0.027478555 0.049297936 0.04373661 0.013122583 0.04613 -0.02992752 -0.058861356 -0.06285971
0.010398459 0.0837901 0.055592228 0.03328768 -0.057845324 -0.07939825 -0.018563373 -0.046639923
0.08040015 0.053653922 0.082999 -0.016864242 -0.051272493 0.056584317 0.0038793324 0.07061029
-0.031232921 -0.07574967 -0.043051336 -0.055421542 0.028098902 -0.020270841 0.08850215 -0.054741275
0.064122915 0.040758703 -0.06779496 -0.04028479 -0.05108645 -0.07068637 0.026658956 -0.06343291
-0.012908962 -0.06361144 0.0987914 -0.060941424 0.0086954385 0.11500737 -0.0015862898 -0.006859714
0.08274764 0.031946816 -0.053783298 -0.041051403 -0.03610455 0.07777444 0.056303516 -0.06807177
-0.08640778 0.02679268 0.046675134 -0.014479341 -0.043981865 -0.0099984715 0.064147346 0.0003923947
-0.0048325458 0.053820904 0.04755201 0.06567258 -0.0009397419 -0.03837024 -0.06520277 -0.053314194
0.041431956 -0.002843879 -0.11995865 0.00082557695 0.04702351 -0.06854931 -0.037924655 0.04315911
0.00423023 0.08127708 -0.09985327 -0.04468087 -0.07020251 0.029384311 -0.02335305 -0.003548796
0.032077562 0.033796698 0.035049796 0.027400915 0.013296525 0.04065319 0.11207543 0.032942034
-0.0346538 -0.10075827 -0.03788872 0.03734887 0.035945587 -0.07951202 0.009626925 -0.0063794446
-0.020700429 -0.005522121 -0.04709251 0.02386941 0.059182093 -0.06226976 -0.022857454 0.08096847
0.014818605 -0.05956207 0.061101392 -0.02574772 -0.026325606 -0.030713754 0.04205915 0.055959214
0.04412791 0.022092592 0.019955361 0.036511675 0.050494123 0.030895593 0.03502852 -0.05162404
0.06750184 0.019801244 -0.053846434 -0.005898433 -0.039102502 0.06863635 -0.00695096 0.037161946
-0.07949128 0.0095312325 0.06967503 -0.059553064 -0.0031258403 -0.042550217 0.063659474 -0.07487726
-0.06277227 0.013015085 0.10068517 0.06555903 -0.02364804 0.05676255 0.07034241 0.004127706
-0.05826103 -0.02390161 0.011488644 0.018631576 0.053638227 -0.034889188 0.05152135 -0.069300346
0.01044348 0.05925237 0.01873224 -0.054556914 -0.07624529 -0.022423452 -0.01705171 -0.08172461
0.014366165 0.068559825 0.010467004 -0.072026566 0.020984115 0.052805964 -0.06677161 -0.09500029
0.04098299 -0.054404 -0.049202863 -0.046163578 -0.0115831895 -0.11406951 -0.028238328 -0.08247815
0.018886572 -0.016350828 0.018308599 0.04827289 -0.026745686 -0.050926562 -0.06566063 -0.018116424
-0.03018839 0.01950134 0.03190328 -0.0012703056 -0.05134817 0.046121906 0.0015909707 -0.036712587
0.057214618 -0.0412263 0.0002085615 0.05875132 -0.006934324 0.09847098 -0.06321712 -0.06307684
0.07499498 -0.013090012 -0.098486364 0.03545571 0.017309476 -0.088079035 0.09816822 -0.042412817
0.020898327 0.03210374 0.08880873 0.1026044 0.052516527 -0.09882177 -0.043630924 -0.03084324
-0.0013235178 0.04891271 0.060169503 0.043485016 -0.03359807 0.012050786 -0.0431319 0.047210995
0.01698729 -0.0102054905 -0.042418502 0.071275674 0.06364987 -0.048545893 0.10538463 0.028265022
-0.044058643 0.085283525 0.09370462 -0.050919022 6.883649e-05 -0.056268465 -0.100950494 0.07961299

_module.layer3.0.bias f4 [64]
00000000: 4b01 98bc 6ba3 773c 540c a1bd 829e 923d
00000010: c7e6 abbc 2e2a aa3d 6e85 643d edc4 533b
00000020: 30e3 a13d fd23 dcbd f9bd 88bd 9b1d 5e3c
00000030: 3fb3 d8bb 971e 1e3d eb60 10bd 70f9 6c3d
00000040: f292 9cbc 442f ddbb 96be 8e3d 3b2b 67bc
00000050: 1b5c bf3c 583f 37bc cb55 36bd 56a8 1f3d
00000060: 85d6 563d 676b 573d d843 a53d f3cc a2bc
00000070: 9f1a 47bc 2369 90bd 40d7 6fbc d653 41bd
00000080: 4916 76bd f8bf 913d 4646 3a3d 4ba5 173d
00000090: cfb6 ef3c 9ec1 dcbd d438 40bd b4ef 70bd
000000a0: 9eee b2bd 56f5 063d c8ec fa3c 6328 d33c
000000b0: 2b38 c83d 2bf6 c33c 5640 e3bc 1de8 86bc
000000c0: 2866 74bd 283b 8bbc ffdf 2ebd 23bd 5c3d
000000d0: 2a19 b7bb 1766 2dbc f91f 29bd 9c52 093d
000000e0: a04a 3c3d 44e7 3b3b ca6b 083b 444a 843d
000000f0: d818 9d3d 8ed1 92bc dd06 143d 2476 dcbc
-0.018555304 0.0151146455 -0.078636795 0.07159139 -0.020984067 0.083088264 0.05579131 0.0032313422
0.07904661 -0.10749052 -0.066768594 0.013556863 -0.0066131647 0.03860339 -0.03524868 0.05785507
-0.019113038 -0.0067500193 0.06969945 -0.014109428 0.023359349 -0.011184536 -0.044515412 0.038978897
0.052450676 0.05259266 0.08069581 -0.019873118 -0.012152343 -0.07051303 -0.014638722 -0.047199093
-0.060079847 0.07116693 0.045477174 0.03702287 0.029261975 -0.10779117 -0.046929196 -0.05882235
-0.08736919 0.032948814 0.030630484 0.025776094 0.09776338 0.023921093 -0.027740639 -0.016468102
-0.059667736 -0.016995981 -0.042694088 0.053891312 -0.0055877166 -0.010583422 -0.041290257 0.033526048
0.045969605 0.002867178 0.00208162 0.064594775 0.07670754 -0.01792219 0.036139358 -0.026911803

_module.layer3.1.weight f4 [64]
00000000: eba4 813f 63f5 823f 7242 7e3f 616a 773f
00000010: 38f3 833f 5a4c 7f3f 36ff 813f 56ca 813f
00000020: d642 7f3f 9181 823f 8ad6 773f f831 7d3f
00000030: 740b 7d3f 8391 7f3f b75f 7d3f f96f 753f
00000040: 7b38 7e3f aeb0 7b3f 855a 853f 92f0 803f
00000050: 1661 793f ea38 813f 203f 7d3f 64a4 7c3f
00000060: bf67 823f 4b87 7e3f 0f69 7e3f f628 843f
00000070: 5f97 7f3f a505 803f d140 803f 013d 7e3f
00000080: 235d 813f 7e70 763f 3acf 793f 9f8f 7f3f
00000090: 00b0 813f 2f83 803f b5a2 7f3f be00 783f
000000a0: ba8c 803f 6e29 7a3f 96a5 7c3f aea1 7e3f
000000b0: e759 7a3f 36a2 7d3f 6a1a 843f 146d 813f
000000c0: f688 813f f227 813f d8ef 7d3f 1c86 803f
000000d0: 8714 813f 7ab7 7b3f 6108 803f 06fb 7b3f
000000e0: bef7 803f 94be 803f acab 7c3f 8316 7f3f
000000f0: eda9 783f c983 843f ed0b 823f c6ef 783f
1.0128454 1.0231136 0.9932014 0.96646696 1.03086 0.9972588 1.0156009 1.0139873
0.9971136 1.019579 0.96811736 0.9890437 0.988456 0.9983141 0.98974174 0.9587398
0.9930493 0.98316467 1.0418249 1.0073416 0.97413766 1.0095494 0.98924446 0.9868834
1.0187911 0.9942519 0.99379057 1.0325 0.9984035 1.0001723 1.001978 0.99311835
1.0106548 0.962654 0.9758183 0.99828523 1.0131836 1.0040034 0.99857646 0.9687613
1.0042946 0.97719467 0.98690164 0.99465454 0.9779343 0.9907564 1.0320561 1.0111413
1.0119922 1.0090315 0.991941 1.0040927 1.008439 0.9832684 1.0002557 0.98429906
1.0075605 1.005816 0.9869945 0.99643725 0.97134286 1.0352718 1.015989 0.97240865

_module.layer3.1.bias f4 [64]
00000000: 3661 20bc e9a5 483b cd79 b73c d65e 95bc
00000010: 1fe2 703c 2bbd 3bbb d033 0ebc 7cd2 0ebd
00000020: 380a 27bc 8fb8 b9bc e545 12bb c01e 963c
00000030: 75ef ac3c 1b97 ab3c af76 d13c 20ed 933c
00000040: b6d0 183d 48e1 8fbc 467f 653b 6f07 6ebc
00000050: 6fc6 24bb 0c07 f8bb fa7e 99bc 937a d63c
00000060: 99a8 f5ba 612d 973c 3a60 cdbc 84c3 693c
00000070: 0783 ba3b 7d0b b5bb f893 033d a3fe 15ba
00000080: 077a bfbb 0752 81bb 9b36 acbc 2f73 adbb
00000090: f40f 9fb9 45b2 e7bb 1719 953b 4de7 97bb
000000a0: 56d4 7dbb 9073 67bc d96e c9bc f8ef e6bc
000000b0: ce65 093c 434f e73c b8e8 393c 8f18 093c
000000c0: 24e1 f2bb 60a8 173c 69a7 0ebb 6910 a2bc
000000d0: 4b5c 34ba 78e8 7f3c 8020 a939 57c2 e43b
000000e0: f1e0 983b 95f4 4cbb b1a2 ef3b 15b5 1bbc
000000f0: 4636 d5bb 747d ad3c b12f e23c aa90 a03c
-0.009788802 0.0030616468 0.022396946 -0.018233698 0.014702349 -0.0028646688 -0.008679345 -0.034868702
-0.010195307 -0.022671012 -0.0022319492 0.01832521 0.021110276 0.020946076 0.025569288 0.018057406
0.037308417 -0.017563477 0.0035018488 -0.0145281395 -0.002514269 -0.0075691994 -0.018737305 0.026181495
-0.0018742263 0.018454256 -0.025070298 0.014267806 0.005691889 -0.005525051 0.032123536 -0.0005721843
-0.005843404 -0.003946546 -0.021022132 -0.005293272 -0.0003033873 -0.007070812 0.00455011 -0.0046357275
-0.0038731298 -0.014126673 -0.02458899 -0.028190598 0.008386089 0.028236037 0.011346988 0.008367672
-0.0074120928 0.009256452 -0.0021767265 -0.019783216 -0.0006880208 0.01561939 0.00032258406 0.006981175
0.004665487 -0.0031273712 0.0073130955 -0.009503623 -0.006506714 0.021177985 0.027610632 0.019600231

_module.layer4.0.weight f4 [64, 64, 3, 3]
00000000: 7590 9cbc e472 b3bc fdaa b93c 784d 8b3c
00000010: 5513 adbc ddca af3b 1e12 07bc 3e27 b43c
00000020: e2c5 5dbd 9a3f 523d a8e1 d13c 21c3 033d
00000030: 84a5 413b 7772 afbc 2ae4 b53c 1815 1b3d
00000040: c4c5 f2bc c82f bf3c e2a1 3d3d e466 833d
00000050: 4894 df3b 89e2 0bbd 9c60 81bb 32a9 3f3c
00000060: 6114 69bd 77ae 5fbd c4f8 413d 74c4 32bd
00000070: 656a a9bc af89 edbc ccc4 80bc d1fe 4a3d
00000080: d112 c3bc 105f 2e3d 1f5b cc3c cb8e 703c
00000090: 03dc cb3b d037 513d 31f1 a3bc 0786 ec3c
000000a0: d853 483d ad67 743c d35c 073a d0cc c33c
000000b0: cfc1 04bc 2e99 3e3b 83fa dbbc bbaf b53b
000000c0: b6fc 94bb 4379 983c d5b6 86bb a6f5 173d
000000d0: 3d6a 573c a956 05bd b742 a8bc 70b4 2e3d
000000e0: a39f 81bc eb70 4cba 18f9 873b 0507 6c3b
000000f0: 56c8 6abb 7cfd 253d e710 4ebb be73 fc3a
00000100: 5e0a a03c 8d5f ad3c ac77 1d3c 7966 c2bc
00000110: f33f 7cbb 7db0 7bbc 9e16 35bd b73f dabc
00000120: 4b24 f93b 7fbd 68bc ce79 a5bc 6c15 e83c
00000130: e785 dfbb 711b 953c 0868 a03b b4d2 433c
00000140: db04 6abb 58d3 4c3c e000 19bc 1cea 533d
00000150: 2967 f5bc 349c 0f3d 2246 0d3d c25d 7bbd
00000160: 3ff4 2a3d b4f7 3fbc d37d fd3c 5a49 bcbc
00000170: 398f c9b9 84a3 57bc f828 e1bb 3077 0ebc
00000180: d55f 323d 64a9 b7bc 9796 0f3d 8d5a afbc
00000190: eaeb 6539 db17 be39 c9a4 dcbc 13f7 d8bc
000001a0: f8eb e93b b0ef 11bc d4cc 673c 4009 283c
000001b0: 8523 e2bb 86cd f5bb c98e 34bd bb53 c0bc
000001c0: b6a0 5d3c bf94 9bbc 454c cdbb 0c8f 633d
000001d0: dceb 01bd 97cf 89bc 0436 733c 5c0f 093d
000001e0: 82cb 48bd a0e2 4abc c5a4 f5bc a93e 42ba
000001f0: d37c c73c 7f0b c1bc 88bc 223d 5ee8 35bc
00000200: b333 663c cfef 683a 220b d7ba 42c0 5cbd
00000210: b59c 273d 15a1 16bc c8a3 b53c 45e2 32bc
00000220: c372 9c3c d534 5ebc a7c1 4b3a 2c4a 383c
00000230: 5b64 0b3c 4ac1 2ebc de81 43bd cf09 d5bc
00000240: b328 4fbc 406c 053d 2989 02bd 746e 063d
00000250: 6bac 0c3d 875b c5bc 8262 68bc d64d 1c3d
00000260: be76 423d 7ad3 5c3c 0276 773d a59d f63c
00000270: 140b c73b 010a a63b 4303 863d 4b38 2eba
00000280: ea03 95bc 58f6 be39 5803 22bc 1444 be3b
00000290: 2358 703c b60b de3c 51b2 84bb 94e5 1b3d
000002a0: 0b23 d23c 2d90 2bbd 1b89 4abd 41ca a53a
000002b0: 0fec 073d 68d3 273c 6ce9 cabb 2455 393b
000002c0: cb45 f53c 329d c4bc 87a5 873c 9c61 e0bc
000002d0: 8ee1 453c c156 d0bc dd5c 0f39 2e61 0fbc
000002e0: df1b 4abb 395b 54bd de66 0a3d bc83 b83c
000002f0: 4b74 233d 266f bebc 59e7 dfbc 5739 03bc
00000300: c14b ba3c 7661 b23b 5e96 833c dee2 5abd
00000310: 10bd 053d d840 ef3c 4214 19bc ca81 ab3c
00000320: 111c 65bc 73e4 953c 9bcb 7b3c 7575 34bd
00000330: 8a49 82bc 2740 57bb c2b9 e2bc c883 90bc
00000340: e139 9bbc 0c7f 6b3d 4a81 3abd 9c79 bbbc
00000350: a337 99bc e9cb 29bd 846b 2ebd ea9c 603d
00000360: 328b 3b3c 7494 133c e234 0abd ddd8 ea3c
00000370: fa78 0abd ea6b 34bd 9d77 f3bc f73c 423c
00000380: dcb7 143d 9380 6f3d 05c2 1a3d 32ac 923c
00000390: 8676 c83c 6f1b 1a3d dc33 3f3d 3848 583c
000003a0: 562a 64bc dfbb 693c f8c8 eb3c 9035 8bbc
000003b0: af50 e93b 01d4 3ebd c5f4 c03c 7263 593d
000003c0: 4eef 5e3c e51e 983b 75d8 503b 07fb 483c
000003d0: 70e1 94bc 6eb2 04bd 7927 23bd 5b31 97bb
000003e0: 5d0c 743b 4b67 48bd 1b89 1fbc 9119 34bc
000003f0: 9eae 93bb 1209 21ba 3e73 3ebd de2f 233d
-0.019111851 -0.02190537 0.022664541 0.017004713 -0.021127382 0.0053647594 -0.008244066 0.021991368
-0.054143794 0.051330186 0.025620297 0.03216851 0.0029548118 -0.021416886 0.022203524 0.037861913
-0.029635318 0.023338214 0.04629696 0.06416109 0.0068230964 -0.034151588 -0.0039482843 0.011698054
-0.0569042 -0.054609742 0.047356382 -0.043644384 -0.020680616 -0.028996317 -0.01571884 0.049559418
-0.023812683 0.042571127 0.024945794 0.014682482 0.006221296 0.051078618 -0.02001247 0.028872503
0.048908085 0.014917296 0.0005163673 0.023901373 -0.008102848 0.0029083001 -0.026852852 0.0055446303
-0.004546727 0.01861251 -0.0041111507 0.037099503 0.013147888 -0.03255335 -0.020539625 0.042652547
-0.015823191 -0.00077988085 0.0041495673 0.0036014926 -0.0035824976 0.040524945 -0.003144318 0.0019260568
0.019536193 0.021163726 0.0096110515 -0.023730503 -0.0038490265 -0.015361902 -0.044211023 -0.02664171
0.0076032034 -0.014205336 -0.020199683 0.028330527 -0.0068213823 0.018201562 0.004895214 0.011952091
-0.003570846 0.01250156 -0.0093385875 0.051736936 -0.029956417 0.035061076 0.034490712 -0.06136871
0.041736837 -0.011716772 0.030943787 -0.022984196 -0.00038444417 -0.013161544 -0.006871339 -0.008695409
0.043548424 -0.022419639 0.035055723 -0.021405483 0.00021927027 0.00036257398 -0.026934044 -0.026485002
0.0071387254 -0.008907244 0.014147956 0.010256112 -0.006901207 -0.007501307 -0.044081483 -0.023477426
0.013527086 -0.018991826 -0.0062651956 0.055556342 -0.031719074 -0.01682262 0.014844421 0.033461913
-0.049022205 -0.012383133 -0.029985795 -0.000740985 0.024351513 -0.023565052 0.03973058 -0.011102764
0.014050412 0.0008885832 -0.0016406516 -0.05389429 0.04092093 -0.009193678 0.022172824 -0.010918205
0.019097691 -0.013562401 0.0007772692 0.011248153 0.008507813 -0.010666201 -0.047731273 -0.026005654
-0.012643981 0.03257394 -0.031869087 0.03282018 0.034344118 -0.024091495 -0.014183642 0.038160168
0.047476523 0.013478154 0.060415275 0.030104468 0.0060743187 0.0050671105 0.06543591 -0.00066459615
-0.018190343 0.00036423164 -0.0098884925 0.0058064554 0.014669451 0.027105194 -0.0040495773 0.03806074
0.025651475 -0.041885544 -0.04944716 0.0012648777 0.033184107 0.010243274 -0.006192377 0.0028279508
0.029940506 -0.024000738 0.016558422 -0.027390294 0.012077702 -0.025431992 0.00013672137 -0.008751197
-0.0030839366 -0.05184481 0.033789508 0.022523753 0.039905827 -0.02324636 -0.027331995 -0.008009276
0.0227412 0.005443747 0.016062912 -0.053439014 0.032651007 0.029205725 -0.009343209 0.020935912
-0.013983742 0.01829741 0.015368368 -0.04405733 -0.015904207 -0.0032844634 -0.027676467 -0.017640963
-0.018948497 0.05749421 -0.045533456 -0.022885136 -0.018703287 -0.04145423 -0.042583004 0.054837145
0.011446761 0.009007562 -0.03374184 0.028667862 -0.03380678 -0.044048227 -0.029720122 0.011855355
0.036308154 0.058472227 0.037782688 0.017904375 0.024470579 0.03762382 0.046680316 0.013200812
-0.013926109 0.014265983 0.028782353 -0.016993314 0.007120214 -0.0465889 0.023554215 0.053073354
0.013606859 0.004642355 0.00318673 0.012266881 -0.018173903 -0.032396726 -0.039832566 -0.004614038
0.0037238814 -0.048926633 -0.009737278 -0.010992424 -0.0045069 -0.0006143014 -0.046496622 0.03984057

_module.layer4.0.bias f4 [64]
00000000: 671a 76bb 520e 0dbd 1365 6c3b 98e2 823b
00000010: cf03 0dbc 0ba2 393c 7358 303b 80f7 053c
00000020: 331e 963b 1ac2 6e3c cfeb 633c cecb 16bd
00000030: f987 16ba 1f43 89bc 41f5 103d 8f99 54bc
00000040: 5e42 b6bb 3b88 4239 c774 f8bc 3528 763c
00000050: 7579 57bd 3ebf 443d aa2c 2a3c 6f5d 50bd
00000060: 3953 dfbc 5a93 8bbc d621 7e3d 579b b0bc
00000070: 33ef 98bb 67d0 9bbc 3118 c03c a2c3 9c3c
00000080: 9ac1 08bc 53db aebb 9272 0ebc b41a fbbc
00000090: 4c06 09bd c2a3 ac3c f406 7dbd 0f0f 59bc
000000a0: f4b2 a93c e82d a23a 2188 eb3a 88b5 11bd
000000b0: cfea d6bc 382c 823d ca0c 423c 18d3 1b3d
000000c0: e8f4 663c e4e8 67bc 89cd 46bb 696a f7bc
000000d0: 8429 033d b126 e33b 30a0 753d c343 c4bc
000000e0: 317f 603d aee6 b13c 8494 14bd ad55 733b
000000f0: c51c 5f3d 3b76 813c 6527 04bd f62a 153d
-0.0037552358 -0.034437485 0.0036070987 0.0039942972 -0.008606865 0.011330138 0.0026908189 0.008176684
0.0045812367 0.014572645 0.013911202 -0.036815457 -0.00057423074 -0.016755639 0.035390142 -0.012976064
-0.005562111 0.00018552032 -0.030329121 0.015024235 -0.052606065 0.048033945 0.010386625 -0.050870355
-0.027261363 -0.017038036 0.062043987 -0.021558447 -0.0046671866 -0.019020272 0.023449035 0.019136254
-0.008346939 -0.005336204 -0.008694308 -0.030652381 -0.03345327 0.02107418 -0.06177421 -0.013248219
0.020715214 0.00123733 0.0017969647 -0.035573512 -0.026235012 0.0635609 0.011843869 0.03804311
0.014096476 -0.014154647 -0.003033491 -0.030202108 0.032022014 0.0069321026 0.05996722 -0.023958093
0.0548088 0.021716442 -0.036274448 0.0037129924 0.054470796 0.015803447 -0.032264132 0.036417924

_module.layer4.1.weight f4 [64]
00000000: a068 803f cc11 7c3f 2499 7c3f 7fd2 803f
00000010: a1eb 763f 0be0 7b3f eb89 823f ca9f 7f3f
00000020: ea34 7a3f e9c8 7e3f e2ac 803f 19d3 7b3f
00000030: 05c0 7c3f 0558 823f a9df 7d3f fc72 843f
00000040: 05ab 803f 5133 813f cc1e 7b3f 2251 7d3f
00000050: 0302 823f ec05 813f 2180 7f3f a634 7f3f
00000060: 2319 7f3f 5a45 7f3f 8be6 803f fa02 813f
00000070: 0625 803f 020f 843f 75ad 783f f8f9 813f
00000080: 8339 793f efd8 823f b7ad 7e3f 03ea 7f3f
00000090: 0957 823f cf4c 7f3f dee3 843f 809b 803f
000000a0: a5c5 7b3f 33c0 7d3f faa6 823f 03f4 7f3f
000000b0: f3ab 803f 12b4 7a3f 0c57 803f 7982 7e3f
000000c0: 79e4 833f c1f7 773f 1c05 813f 322a 813f
000000d0: 2f77 7e3f 0dbe 823f f6a5 7b3f a482 7f3f
000000e0: 3dd7 803f 0ef2 833f 5944 823f 5994 813f
000000f0: 6f5a 7f3f 495f 7d3f 4774 803f 8172 7c3f
1.0031929 0.98464656 0.98671174 1.0064238 0.9645329 0.9838874 1.0198339 0.99853194
0.9773699 0.99525315 1.005276 0.98368984 0.987305 1.0183111 0.99169403 1.034759
1.0052191 1.0093786 0.9809387 0.98951924 1.0156864 1.0079932 0.99804884 0.9968971
0.9964773 0.997152 1.0070356 1.0079033 1.0011299 1.031708 0.97139674 1.015441
0.9735338 1.0222453 0.9948382 0.9996645 1.0182811 0.99726576 1.038204 1.0047455
0.98348457 0.991214 1.0207207 0.9998171 1.0052475 0.97931015 1.0026565 0.99417835
1.0304099 0.9686242 1.0079684 1.0091002 0.9940061 1.0214249 0.9830011 0.99808717
1.0065686 1.0308244 1.0177108 1.0123397 0.99747366 0.9897352 1.0035485 0.9861222

_module.layer4.1.bias f4 [64]
00000000: f4a1 e9bb f0e9 333b f608 88bc f5e6 99bb
00000010: f04e 6bbc 2d55 723b 60e5 653c a49e bd3c
00000020: b3f6 77bc b316 87bb a64f 87bc dc1d c2bb
00000030: b32d 5b3b e25e 0a3d b05d 58bb c466 c4bb
00000040: 278e fcbc b239 473c 341a 5abc 63df 0abc
00000050: ee43 083b 992c 9abc 086d 89bc 4deb 5fbc
00000060: ef96 12bc c26e 10bc 1afc af3c 3a5e 48bc
00000070: 83e2 193d a378 baba b9d9 073c 7737 1dbd
00000080: d375 ec3a 9769 4abc 75f9 533c 43af 86bc
00000090: 3521 c6bc 6f89 ee3c ff9f 793b 04df b4bc
000000a0: 56f9 2d3c 210d bcbb aad7 08bd a365 65bc
000000b0: 9cd4 973c a867 aabc 08da 78bc e523 b7bb
000000c0: 9bcf e2bb ccab bfbc 2186 09bd 03d1 39bc
000000d0: ea12 8f3c 1043 343c 5b16 e9bc 4ba8 253c
000000e0: 1e1b 2abc 5d9e e3bc b6d8 2d3c d69d c5bc
000000f0: 100b 413c ef32 1cbc 5c6f b2bb 25e5 89bb
-0.007129902 0.002745267 -0.016605835 -0.0046967217 -0.014362082 0.0036977038 0.014031738 0.023146935
-0.015134501 -0.004122579 -0.016517472 -0.0059239697 0.0033443987 0.033781894 -0.0033014826 -0.005993696
-0.030829502 0.012159752 -0.013311911 -0.008476111 0.0020792442 -0.018820094 -0.016775623 -0.01366694
-0.008947118 -0.008815469 0.021482516 -0.012229497 0.037569534 -0.0014226626 0.008291655 -0.038382974
0.0018040485 -0.012354276 0.012937893 -0.016440993 -0.024185756 0.029118268 0.003808975 -0.022078998
0.010618528 -0.00573887 -0.0334088 -0.014001283 0.018533997 -0.02080138 -0.015188701 -0.0055889958
-0.006921721 -0.023397349 -0.03357518 -0.011341336 0.017465074 0.011002317 -0.028453043 0.010110925
-0.010382442 -0.027785474 0.01061075 -0.024123114 0.011782423 -0.009533628 -0.005445404 -0.0042082244

_module.layer5.0.weight f4 [64, 64, 3, 3]
00000000: d89f 423d a0f7 8e3c 470e f8bc 7bf8 6abc
00000010: ce17 953c e2b3 52bd 26e1 1e3d 98f0 ccbc
00000020: c9af 543d 4e93 ccbc 5edd 11bd 9721 26bd
00000030: 469c 62bb 8295 1fbd f499 69bd 93d9 7a3c
00000040: 6980 653b 1b39 0f3d 464f 693d b04c e7bc
00000050: a6a0 bfbc 0e72 293c 90cd 903c 5562 f23c
00000060: dfc0 2e3d 4b80 7b3c cfb8 10bd 76cf 113d
00000070: 252f bbba 80c6 7b3c d8bb a2ba 82d9 82bc
00000080: f8f1 213c e6c5 163d d1fe 0c3d b76a 4a3d
00000090: 09cc 4abd d732 2a3d c7b6 a2bb 863c 023d
000000a0: d2fb 5a3d 6455 35bd 1fa2 5ebd c17c 03bc
000000b0: 4266 083d 2a9a 0fbd 42aa 04bd fb99 ebba
000000c0: 39ac 08bd 7e9e 623c f3d3 c73b 0dd4 d3b8
000000d0: 6402 08bd 6459 d63a cf8f 283d de11 a0bb
000000e0: 0780 e2bb 1b6b 9a3d 306c 2a3d f5f7 3fbd
000000f0: 38cb c8bb 4850 053d a8bd af3a f004 483d
00000100: aae3 feba ca99 563d f174 683d c5ff e2bc
00000110: 3963 c13a 0901 9c3c a2d1 c5bb 10cc a7ba
00000120: fa83 5f3b c513 b93c c28b 783d 9f45 153d
00000130: b006 c33c 4f05 7ebc 9017 0c3c e6a8 5f3b
00000140: 59ba 3ebd 1f62 503c 73e7 af3c fa59 6ebb
00000150: 4adb cf3b 199e fc3b 713a ccbb b92a a6bc
00000160: 55e1 3a3d abc0 2fbb c521 5ebc df48 1b3c
00000170: 6b82 853c 3155 a7bd 2edc 323c 654f ad3c
00000180: 24e5 a6bb 4d7a 1a3c 10e4 6a3d 41ad f23c
00000190: d05b d4bc f49c af3c 0b22 cdbc 8f99 063c
000001a0: c45d e43b 304a e0bb d55c b63c 7477 483d
000001b0: d8a3 3abc 46b6 cb3c 1026 d7bb a408 debc
000001c0: 0d39 e2bc bf77 3ebd 5789 233c 30e5 3e3d
000001d0: c39b a43c 9f8f b73c 9ade 4e3c 97ae 09bd
000001e0: 84e4 f33a cf77 aabc 181f 04bc 13dd f23c
000001f0: 262d c03b abb5 25bc b766 513d 3123 153d
00000200: f0e7 223d 3dc1 b03c 970b 9a3b 7583 bbbc
00000210: 56a4 bb3c 0f85 63bc f02d 9fbc 6b6d 3dbd
00000220: e8d3 f3bc 39e1 853d 01d3 f73c b7bd a6bc
00000230: 0676 7fbd 2f73 a5bc 6f82 d73b c68f 3abc
00000240: 178f 3fbd a5ed b93a a959 d8bc 0c67 dd3c
00000250: 1b44 183c 8eb3 df3c cd20 063d a1e4 1dbd
00000260: cce7 f538 9a24 473d 4535 7d3c b5e1 02bc
00000270: 21ee f43c 8318 0a3d aebe 4a3d 41a8 e13c
00000280: 5289 1e3c 1dc6 01bc 925d f13c 582b 823d
00000290: 4dd4 53bd 2dc9 733b 8c03 b4bb c325 e4bc
000002a0: dadb a63c efd6 0fbd 477d 24bd a48a e53c
000002b0: 0428 8fbd e2b2 ccbc b020 06bd 92e2 9e3b
000002c0: 1bb4 3f3c f309 903d 2a15 213d fe45 283d
000002d0: 9bf1 a4bc e280 c1bc 0252 e93c a8c2 823d
000002e0: 0996 fe3c fa2c 0ebd ba9e c8bc fd9f 513d
000002f0: 129d 683b 1ebe 9e3c efe3 a23c 1707 af3c
00000300: 14a7 84bb d366 33bd 0544 b03c 47bb a83b
00000310: 735d 1f3d 2624 db3c cd24 13bc e6b2 8ebc
00000320: 57be 103d 770b 2a3d d797 8fbd 72fb 3e3d
00000330: cb02 c3bc f5ae 0c3d 24b7 983b b855 e4bc
00000340: 3596 f3bc 0428 d9bc 3403 a8bc 8b39 ce3c
00000350: 3abf 303d 637c 233c 5802 c63c e5fc 1abd
00000360: 4dc4 02bd ddee 263c 87f3 4abc 28dc 993c
00000370: 5b5c 45bd 71c6 643d d6d3 e4bb 04f9 a73c
00000380: 4d2a cbbc 0578 423d 3e65 213c 2848 83bc
00000390: 3e2b 2c3c 56fc debc 0b6d c83b 4f28 8a3c
000003a0: b528 8ebd 24ba ccbc 6ac9 c43b ff63 1ebd
000003b0: 107f b8bc c821 db3c c216 73bd 01a6 803c
000003c0: 55fc 3cbd ac66 47bc dd58 b5bc 104f 3bbd
000003d0: 9d3a 7c3b ee7b 0e3d e0ec fb3b 5ad1 c1bc
000003e0: f4cd 4bbd ff53 0b3d a29b cbbc 84b3 c2bb
000003f0: 094f 263d 7f31 4bbc a171 dbbc 731c b4bc
0.04751572 0.017452061 -0.030280245 -0.014341469 0.018199828 -0.05144108 0.038788937 -0.025017068
0.051925454 -0.024972584 -0.035611503 -0.040559378 -0.003457801 -0.03896094 -0.057031587 0.015310663
0.0035019165 0.03496657 0.056960367 -0.02823481 -0.023392033 0.010342134 0.017676145 0.029587904
0.042664405 0.015350412 -0.035332497 0.03559824 -0.0014281018 0.01536715 -0.0012415601 -0.015972856
0.00988435 0.036809824 0.0344227 0.049418177 -0.04951099 0.04155239 -0.0049656364 0.031796
0.05346281 -0.044270888 -0.05435383 -0.008025349 0.033300646 -0.03505913 -0.032388933 -0.0017974967
-0.03336737 0.013831733 0.0060982644 -0.000101007616 -0.033205405 0.0016353545 0.04115277 -0.0048849424
-0.0069122347 0.0753996 0.041607082 -0.04686733 -0.006127741 0.032547265 0.0013407962 0.048832834
-0.0019446511 0.05239276 0.05675215 -0.027709851 0.0014754302 0.019043462 -0.006036953 -0.0012801904
0.0034105764 0.022592435 0.06068016 0.03644335 0.0238069 -0.015504195 0.00855054 0.003412777
-0.046564434 0.012718706 0.021472668 -0.0036369548 0.00634328 0.0077092764 -0.0062325527 -0.020284044
0.04562505 -0.002681772 -0.013557856 0.009477823 0.01629754 -0.08170546 0.010916753 0.021156022
-0.0050932337 0.009428573 0.057346404 0.02962363 -0.025922686 0.021437146 -0.025040647 0.008215322
0.0069691855 -0.0068447813 0.022261063 0.048942044 -0.011391602 0.024867188 -0.0065658167 -0.02710373
-0.027615095 -0.046500918 0.009981475 0.04660529 0.020093804 0.022407351 0.012626315 -0.033613767
0.0018607532 -0.020809082 -0.008064054 0.029646432 0.005864757 -0.010114114 0.051123347 0.036410514
0.039771974 0.021576518 0.0047010886 -0.022889832 0.02290551 -0.013886704 -0.019431084 -0.046246927
-0.02976413 0.065370984 0.030251982 -0.020354135 -0.062368415 -0.020196525 0.006576828 -0.011386817
-0.04676732 0.0014185203 -0.02640994 0.027026676 0.009293581 0.027307298 0.032746125 -0.038548116
0.00011725686 0.04861889 0.015454595 -0.007988383 0.029898705 0.033714782 0.049498253 0.02754605
0.009676294 -0.007920769 0.029463563 0.063559234 -0.051716138 0.0037198768 -0.005493587 -0.027850037
0.020368505 -0.035117086 -0.040158536 0.02802021 -0.06990054 -0.024987642 -0.032746017 0.0048487866
0.011700655 0.07033148 0.039326824 0.041082375 -0.020134738 -0.023621026 0.028481487 0.06384784
0.031077402 -0.03471086 -0.02448975 0.051177967 0.0035494012 0.019377764 0.019884078 0.021365685
-0.0040482376 -0.043799233 0.02151681 0.0051492783 0.03890748 0.026750635 -0.008980942 -0.01741929
0.035337772 0.04151484 -0.07011383 0.046626516 -0.023805043 0.03434654 0.004660504 -0.027872905
-0.02973471 -0.026508339 -0.02050934 0.025173923 0.043151118 0.009978387 0.02417104 -0.037838835
-0.03192549 0.010188785 -0.012387163 0.018781736 -0.04818378 0.05585331 -0.0069832606 0.020504482
-0.024800444 0.04747774 0.009850798 -0.016025618 0.010508357 -0.027219933 0.0061165146 0.016864924
-0.06941358 -0.024991103 0.0060054557 -0.038669582 -0.022521526 0.026749507 -0.059347875 0.015704157
-0.04613908 -0.012170475 -0.0221371 -0.045729697 0.0038487085 0.034786157 0.00768815 -0.023659397
-0.04975696 0.03401565 -0.024854485 -0.00594181 0.040602718 -0.0124019375 -0.02678758 -0.021986222

_module.layer5.0.bias f4 [64]
00000000: ef90 9bbb 4813 cdbc 5a7e 333c fc1e 243c
00000010: 69ed b2bb 023f a13c 975f 10bc a791 913d
00000020: 9623 19bd 2203 16bb 415a 8abc 482f 11bd
00000030: d909 823d 1410 85bc 88a4 17bc 9e3a a93a
00000040: a03b 4dbd 9387 373c bbfa 1c3d c291 973c
00000050: 7f2a 4d3d dc40 1bbc a791 4dbd 3a6b 6a3d
00000060: 9ce1 33bd 8f0d cfbc 7c55 243c b4c9 81bc
00000070: 6dfb 983b dfa2 e13b efe0 9dbb 9a2e 64bc
00000080: 2d6f 813c 12b9 2d3d 8eb1 18bc 76d5 2b3c
00000090: 9a54 35bd 68a0 00bb 80ee 59bc aa48 693d
000000a0: e083 07bd 8ca3 083d 4650 323d 4e76 4fbc
000000b0: 35cf a3bc 86c0 103c 7486 cc3b 64a1 b33c
000000c0: 86a4 4abd 2120 a3bc 988d 6ebc 20a0 ac3a
000000d0: c757 9ebc 792f 7abd 1c33 983c ecf9 87bb
000000e0: df24 1b3d 5763 04bb 343a 20bd b5d9 1e3d
000000f0: 11e5 f1bb 494c 91ba 1346 d6bc d881 b13a
-0.004747502 -0.025033608 0.0109554175 0.010017153 -0.0054604304 0.019683365 -0.008811853 0.07107859
-0.037387453 -0.002289005 -0.01688874 -0.03544548 0.063495345 -0.016243018 -0.009255536 0.0012911146
-0.05010569 0.011201757 0.038325053 0.01850212 0.050089356 -0.009475913 -0.050187733 0.057231165
-0.04391633 -0.02527502 0.010030147 -0.01584325 0.004668644 0.006885871 -0.004818074 -0.013927126
0.015800083 0.042412825 -0.009319676 0.010487905 -0.044270135 -0.001962686 -0.013301492 0.056954063
-0.03308475 0.033359095 0.043533586 -0.012662483 -0.019996265 0.008834964 0.006241614 0.021927543
-0.049473308 -0.019912781 -0.014560126 0.001317028 -0.019328965 -0.06108043 0.018579058 -0.004149666
0.03787696 -0.0020200813 -0.039118007 0.03878184 -0.007382043 -0.0011085357 -0.02615646 0.0013542725

_module.layer5.1.weight f4 [64]
00000000: 80bd 833f 3ce0 823f 4012 813f d04a 843f
00000010: 3a0c 7f3f 372d 813f 23e6 853f 80ae 7f3f
00000020: 0522 833f 4cc3 7f3f 3a50 823f ceaa 7b3f
00000030: f1fb 7d3f 9b4a 7b3f b9e7 833f 6a3f 813f
00000040: ed9c 843f 6157 833f 7bec 7b3f 826a 803f
00000050: c977 823f af9e 833f 81c1 7b3f aa84 803f
00000060: ca36 7f3f f6f2 833f bd71 833f d099 813f
00000070: 2ba4 7c3f 23fe 813f c31d 7f3f 90a9 7b3f
00000080: 56b5 7d3f 1683 813f 3b67 7f3f 4d66 823f
00000090: f1b7 823f 7e74 823f fb18 853f 8de0 793f
000000a0: 6bb7 843f 02c3 803f f798 7f3f 66d8 803f
000000b0: b572 813f 8512 813f e208 7d3f 24a8 823f
000000c0: cda9 803f db7a 823f 8c06 7b3f 88a7 823f
000000d0: c90c 823f 05e2 823f bb24 843f cac5 783f
000000e0: fc9e 813f 1153 813f 5649 803f 05aa 823f
000000f0: e932 763f b58c 7b3f a979 7f3f 4b1f 803f
1.0292206 1.0224681 1.0083694 1.0335331 0.9962803 1.0091923 1.0460857 0.9987564
1.0244757 0.99907374 1.0180733 0.983075 0.9921256 0.98160714 1.0305091 1.0097477
1.036039 1.0261041 0.98407716 1.0032504 1.0192806 1.0282801 0.9834214 1.0040486
0.99692976 1.0308521 1.0269085 1.0125065 0.98688 1.0155681 0.9965479 0.98305607
0.9910482 1.0118129 0.9976689 1.018747 1.0212384 1.01918 1.0398248 0.9760826
1.0368475 1.0059512 0.9984278 1.006604 1.0113131 1.0083777 0.9884168 1.0207562
1.0051819 1.0193743 0.98056865 1.0207376 1.0160152 1.0225226 1.0323709 0.971768
1.0126643 1.0103475 1.002238 1.0208136 0.9617143 0.98261577 0.99795014 1.000955

_module.layer5.1.bias f4 [64]
00000000: 9a16 dcbc cbb1 e43c fd36 1a3d 4f34 ab3c
00000010: 3cf7 ab3c f5eb c63c 170b 483d aff8 993c
00000020: f364 83bc 00a7 243a c81e 393d 22f2 c03c
00000030: 8c93 4bbb 206a fdbb ead9 4e3b f928 b3ba
00000040: 2602 00bb bd7a 043d b139 a63c 36bc 863b
00000050: a55a 6aba 190f 053d 5c25 5bbc 2afd 143d
00000060: 3c1e 013d 54ba 263c 5e36 cd3c 4b4f f5bc
00000070: e29e a4bb a1b5 ed3b 96c9 833c 1204 ec3c
00000080: 5f7e 80bc feb1 1f3c 631f c03c 15db 863c
00000090: 7377 273c fa41 373d 367d 1c3c 32b1 a93b
000000a0: f7db d73c 8654 e73b f331 1abd 6bfd ba3c
000000b0: 5290 873c a984 93bc 8545 363c 8bec 363c
000000c0: edcd 4d3c 783e a03c 9656 2f3c 69f7 d83b
000000d0: 1d22 b43b 8f3c ee3b cb55 123c c836 273d
000000e0: a065 a23c 89ae 643c 1c58 94bc 1069 8b3c
000000f0: 5d37 433c 004b 1b3d 4534 863c 95db 013c
-0.026866246 0.02791681 0.037650097 0.020898966 0.020991914 0.024282435 0.0488387 0.01879534
-0.016039347 0.00062809885 0.04519537 0.023552958 -0.0031063287 -0.0077335984 0.0031562992 -0.0013668827
-0.001953253 0.032343615 0.020291181 0.004111792 -0.00089398987 0.0324851 -0.013375606 0.03637425
0.031522974 0.01017626 0.025050338 -0.029945036 -0.005023823 0.007254318 0.016087335 0.028810535
-0.015685258 0.0097470265 0.023452466 0.016461888 0.01022135 0.044740655 0.009551337 0.005178594
0.026350005 0.0070596365 -0.03764529 0.022825917 0.01654831 -0.018007593 0.011124973 0.011164795
0.012561304 0.019561037 0.010701796 0.0066212905 0.0054972307 0.0072704027 0.008931587 0.040823728
0.01982385 0.013957628 -0.01810842 0.017017871 0.011915055 0.037913322 0.016382346 0.007925888
