weights/pretrain_privaterotated__finetune_private.pth (torch, 951364 bytes, 26 tensors)

_module.layer1.0.weight f4 [16, 3, 3, 3]
0	0x3e4696d5	0.19393475
1	0xbde08418	-0.10962695
2	0x3d162673	0.03665776
3	0x3df3ec31	0.11910284
4	0xbc345711	-0.011007086
5	0x3e05fd21	0.13084842
6	0x3e1f004f	0.15527461
7	0xb9843732	-0.00025218126
8	0x3dfb3762	0.12266423
9	0xbdf9af04	-0.12191585
10	0xbe164bbc	-0.14677328
11	0x3e23daaa	0.16001382
12	0xbe17871f	-0.14797638
13	0x3d2885eb	0.04114334
14	0xbe1e7d58	-0.15477502
15	0x3d6e7cbf	0.058224436
16	0xbcd5d3d8	-0.026101992
17	0x3e029d23	0.12755255
18	0x3d97b550	0.074076295
19	0xbc943350	-0.018090874
20	0x3df2c664	0.11854246
21	0xbd10aa84	-0.035318866
22	0x3e0926a0	0.1339364
23	0xbe1d40f3	-0.15356807
24	0xbdf7dcc3	-0.12102654
25	0x3d980283	0.07422354
26	0x3e414c39	0.18876733
27	0x3e37b491	0.17939974
28	0x3de29953	0.110644005
29	0x3d1c7a83	0.038202774
30	0x3e1d3264	0.15351254
31	0xbe13fc90	-0.14451814
32	0xbbf0a136	-0.0073434366
33	0x3e330198	0.17481077
34	0x3d67b3c9	0.05656794
35	0x3dd900a0	0.10595822
36	0xbe34feb7	-0.17675291
37	0xbe359ca7	-0.1773554
38	0x3de19e8d	0.11016569
39	0x3e375c24	0.17906243
40	0xbe2c604d	-0.16833611
41	0xbe5079b2	-0.20358923
42	0xbd112e61	-0.03544462
43	0xbd49f44f	-0.049305256
44	0x3e4d3f76	0.2004374
45	0x3e2cc80e	0.1687319
46	0xbe33b99c	-0.17551273
47	0x3cbff484	0.023432024
48	0xbdb974e7	-0.090555005
49	0x3e16a785	0.14712341
50	0x3e18e9f2	0.14932993
51	0x3d489786	0.04897263
52	0xbc819cda	-0.015821863
53	0x3cbeabb9	0.023275243
54	0x3c360af3	0.011111009
55	0xbe2b594d	-0.16733284
56	0x3d83f05f	0.064423315
57	0xbdf966cc	-0.1217781
58	0x3e3b46fd	0.18288799
59	0x3e13b372	0.14423922
60	0x3e174763	0.14773326
61	0x3d1502fa	0.03637979
62	0x3e1165c4	0.14198977
63	0xbde8a418	-0.113594234
64	0xbe13b0a8	-0.14422858
65	0xbd998194	-0.07495418
66	0x3cf5bbb8	0.029996738
67	0x3d909c32	0.07061042
68	0x3e5cdff1	0.21569802
69	0x3dfe1a6e	0.12407385
70	0x3c92f51e	0.017939147
71	0x3d9eb13d	0.07748649
72	0x3e236b7b	0.1595897
73	0x3e0cba67	0.13742982
74	0x3e06dc84	0.13170058
75	0xbe045b82	-0.12925532
76	0xbe38e839	-0.18057336
77	0xbe40500c	-0.18780535
78	0x3e01fd95	0.1269439
79	0x3dd40fa4	0.10354546
80	0x3e3059d4	0.17221767
81	0x3db1b36c	0.086768
82	0xbc7b1677	-0.01532518
83	0xbe009734	-0.1255768
84	0x3e058ba6	0.13041553
85	0x3deee6c4	0.11665109
86	0x3c05c9c7	0.008165783
87	0x3e0c0ac6	0.13675985
88	0xbda30a3e	-0.07960938
89	0x3e171230	0.14753032
90	0xbd066578	-0.032811612
91	0xbe0d2f34	-0.13787538
92	0xbd6fb4a2	-0.058521874
93	0x3e1bd0e5	0.15216406
94	0x3e36b0df	0.17840908
95	0x3ccc6156	0.024948757
96	0xbe41cdfa	-0.1892623
97	0xbe207cbe	-0.15672585
98	0xbe234132	-0.15942839
99	0xbd2b9e37	-0.041898932
100	0x3e17eb7c	0.14835924
101	0x3e1bddc2	0.15221313
102	0x3e4a3a83	0.19748883
103	0xbde58843	-0.112076305
104	0xbcf25257	-0.029580278
105	0xbd167b10	-0.036738455
106	0x3e1f4825	0.15554865
107	0xbdb9fb42	-0.09081127
108	0x3e2a6b63	0.16642527
109	0xbd09116b	-0.033463877
110	0x3c6ced49	0.01446087
111	0xbcc7fea4	-0.024413414
112	0xbd95a5f0	-0.07307041
113	0xbe30f831	-0.17282178
114	0x3e185bfc	0.14878839
115	0xbe12794b	-0.14304082
116	0x3ce3171e	0.027720984
117	0x3a5d5483	0.0008443074
118	0x3bcf8f54	0.0063342247
119	0xbd55befc	-0.05218409
120	0xbd5cb2bb	-0.05388139
121	0x3e215c9b	0.15757982
122	0xbd9fa322	-0.07794787
123	0xbd457137	-0.048203673
124	0x3e2e2030	0.17004466
125	0xbd3ba812	-0.04581458
126	0x3d7e2338	0.062045306
127	0x3dfa02a8	0.12207538
128	0xbc0e4d6b	-0.00868545
129	0xbe30d58c	-0.17268962
130	0xbe22cb5c	-0.15897888
131	0x3cca67ff	0.024707792
132	0xbda240b9	-0.07922501
133	0x3df04895	0.11732594
134	0x3e36fb59	0.17869319
135	0xbdf4fb41	-0.119619854
136	0x3dc1e045	0.09466604
137	0x3d8440cd	0.06457672
138	0xbdd79ade	-0.105275854
139	0xbe020388	-0.1269666
140	0x3e1fd3bd	0.15608115
141	0xbe172dbe	-0.14763543
142	0xbcc926be	-0.024554607
143	0xbda1f5ca	-0.07908209
144	0x3da201fa	0.07910533
145	0x3ce6de57	0.028182192
146	0xbe015f73	-0.12634067
147	0x3e0a7614	0.13521606
148	0xbc5999fa	-0.01328134
149	0xbd8b918c	-0.0681487
150	0xbe56473d	-0.20925613
151	0x3e255c32	0.16148451
152	0xbd89a9a4	-0.067218095
153	0xbd7da954	-0.061929062
154	0x3e22bd23	0.15892462
155	0xbe3c9b5e	-0.18418643
156	0x3e0b7414	0.13618499
157	0xbe19b987	-0.1501218
158	0xbdafb4a0	-0.08579373
159	0x3dae6a2c	0.085163444
160	0x3dcf5a10	0.101246
161	0xbd594b66	-0.05305042
162	0xbd8e035d	-0.06934235
163	0xbd6c5520	-0.05769837
164	0xbe2d9290	-0.1695044
165	0xbe107d00	-0.14110184
166	0xbcee9c46	-0.029127251
167	0xbe2aaaf9	-0.16666783
168	0xbe05346c	-0.13008279
169	0x3dc3b7a8	0.09556514
170	0x3dba0450	0.09082854
171	0xbca95923	-0.020672387
172	0xbd883fd7	-0.066528015
173	0xbdde40a0	-0.1085217
174	0xbda5fcfa	-0.08104892
175	0x3c1129b0	0.008860037
176	0x3db48283	0.08813956
177	0x3d1bc1fd	0.0380268
178	0x3db8a969	0.090166874
179	0xbe0fadd4	-0.14031154
180	0x3dcc4b01	0.09975243
181	0x3e238fd0	0.15972829
182	0xbe098feb	-0.13433807
183	0x3d0f68fe	0.035012238
184	0xbbba7465	-0.005690145
185	0xbe4bf201	-0.19916536
186	0xbe6bb23d	-0.23017211
187	0xbcec5170	-0.028847426
188	0x3e569506	0.20955285
189	0x3d3268c2	0.043556936
190	0xbd04e5e5	-0.032445807
191	0xbd084b14	-0.033274725
192	0xbda2da88	-0.07951838
193	0x3e117c50	0.14207578
194	0xbdf94e35	-0.1217312
195	0xbc0e764e	-0.008695198
196	0xbdfd4713	-0.12367072
197	0xbd538d35	-0.051648337
198	0x3d37ce38	0.0448744
199	0xbded98a5	-0.1160138
200	0xbd3b8590	-0.045781672
201	0x3daf7b91	0.0856849
202	0x3e32befa	0.17455664
203	0xbd0e7daa	-0.03478781
204	0xbe0b958b	-0.13631265
205	0xbe114768	-0.14187396
206	0xbe682eef	-0.22674154
207	0xbe120f12	-0.14263561
208	0x3db4ae8b	0.08822354
209	0x3cd3170b	0.025767824
210	0xbd3d18e4	-0.046166316
211	0xbe393480	-0.18086433
212	0x3cdd0747	0.02698101
213	0x3e2dd304	0.16975027
214	0x3e3dd701	0.18539049
215	0xbd2d8c83	-0.04237033
216	0x3cd39dec	0.025832139
217	0xbe2217b0	-0.15829349
218	0x3b60b776	0.0034289039
219	0x3db340c5	0.08752588
220	0x3db90cd3	0.09035649
221	0xbcde67e4	-0.027149148
222	0xbcfa19f2	-0.03052995
223	0x3e127d6f	0.14305662
224	0xbdef06e2	-0.11671235
225	0xbe2aaf63	-0.16668467
226	0xbe0f1e41	-0.13976385
227	0xbd41e275	-0.047335107
228	0x3c49b7b7	0.012311867
229	0x3ca69d7e	0.02033877
230	0xbcab5d0d	-0.020918394
231	0xbe58b7e5	-0.211639
232	0xbe58631a	-0.21131554
233	0x3e031fa9	0.12805046
234	0xbe277032	-0.16351393
235	0xbe0bf098	-0.13665998
236	0xbd5a49a5	-0.05329289
237	0xbdab9f1b	-0.08379956
238	0xbe17084c	-0.14749259
239	0x3d8bca3d	0.06825683
240	0xbd4771af	-0.0486924
241	0xbe1307fd	-0.14358516
242	0xbdea348b	-0.11435803
243	0xbc3edbd7	-0.011649094
244	0x3d5b8329	0.05359188
245	0x3da0b6d8	0.07847375
246	0xbd9acf28	-0.07559043
247	0xbd0befc3	-0.0341642
248	0x3c971fdb	0.018447807
249	0x3e435197	0.19074093
250	0x3e19bbc1	0.15013029
251	0x3e23b9c2	0.1598883
252	0xbdd7325a	-0.10507651
253	0xbdc5ddbd	-0.09661434
254	0x3b921038	0.0044575
255	0xbdb5d974	-0.088793665

_module.layer1.0.bias f4 [16]
0	0xbe2e6908	-0.17032254
1	0x3e06f39b	0.13178866
2	0x3e29f728	0.16598189
3	0x3a000f64	0.0004885106
4	0xbdf7dbd2	-0.12102474
5	0x3d802050	0.06256163
6	0x3e3eb420	0.186234
7	0x3d7835f8	0.060598344
8	0xbe259fe6	-0.16174278
9	0xbd576e17	-0.052595224
10	0x3e0abcdc	0.13548607
11	0xbc71acd8	-0.014750682
12	0x3dde45b6	0.1085314
13	0x3cae0488	0.021242395
14	0x3c81b260	0.015832126
15	0x3db5cea6	0.08877306

_module.layer1.1.weight f4 [16]
0	0x3f7dcd4b	0.9914138
1	0x3f85864a	1.0431607
2	0x3f819b88	1.0125589
3	0x3f738d14	0.95137143
4	0x3f836bdd	1.0267292
5	0x3f7fd540	0.9993477
6	0x3f790f09	0.97288567
7	0x3f7b6b44	0.9821055
8	0x3f81aed8	1.0131483
9	0x3f7f4fe8	0.997313
10	0x3f7de1a3	0.9917242
11	0x3f8240b7	1.0175999
12	0x3f7d8e65	0.990454
13	0x3f822b2c	1.0169425
14	0x3f7ee99a	0.995752
15	0x3f802ae4	1.0013089

_module.layer1.1.bias f4 [16]
0	0xbc7c9a6c	-0.015417676
1	0xbbe4a8fd	-0.006978153
2	0x3c067216	0.008205911
3	0xbc1698b3	-0.00919168
4	0xbc4a1a05	-0.012335305
5	0xba10e60c	-0.0005527444
6	0x3cf50336	0.029908758
7	0xbc7ba64f	-0.015359475
8	0xba3d3bef	-0.00072187086
9	0x3beee4aa	0.0072904425
10	0x3ca2db2f	0.019879906
11	0x3c28875d	0.010286179
12	0x3d2930a6	0.04130616
13	0xbadbfd93	-0.0016783945
14	0x3c7cd187	0.015430815
15	0xbb989e88	-0.0046575703

_module.layer2.0.weight f4 [16, 16, 3, 3]
0	0xbd11412d	-0.035462547
1	0x3d9024ec	0.07038292
2	0x3cd4e548	0.025988236
3	0xbda80ba5	-0.08205346
4	0x39ba5b69	0.0003554479
5	0x3c747db0	0.014922544
6	0xbda3f913	-0.080064915
7	0x3d452c87	0.048138168
8	0xbd5094cd	-0.050923157
9	0xbdaa2a44	-0.08308843
10	0xbd3f1d02	-0.046658523
11	0x3d4132b7	0.047167506
12	0xbd94d48f	-0.07267105
13	0xbc98e990	-0.018666059
14	0xbc58288f	-0.013193264
15	0xbd9def5b	-0.07711669
16	0xbdd436df	-0.10362028
17	0xbd59621d	-0.053072084
18	0x3d8d2b0f	0.068929784
19	0xbc947d23	-0.018126076
20	0x3d06797c	0.0328307
21	0xbc97c69d	-0.018527323
22	0xbc15d9fe	-0.009146212
23	0xbb2f1e8a	-0.0026721084
24	0xbd124777	-0.035712685
25	0xbd7260b8	-0.05917427
26	0xbd1f5020	-0.038894773
27	0xbd8d6368	-0.06903726
28	0xbc80b071	-0.015709134
29	0x3b2f2e05	0.002673031
30	0x3d0610d5	0.032730896
31	0x3d000ec4	0.03126408
32	0xbd6e65ed	-0.058202673
33	0x3d8f8da9	0.070094414
34	0x3cdd1854	0.02698914
35	0x3bd24d98	0.0064179413
36	0x3d406619	0.046972368
37	0xbd065759	-0.032798145
38	0xbd6ef3f0	-0.058338106
39	0xbdd7d909	-0.10539443
40	0xbce53324	-0.027978487
41	0xbd8de892	-0.06929125
42	0x3d8225e0	0.0635488
43	0x3d045ab3	0.03231306
44	0x3caff019	0.021476792
45	0xbd98a679	-0.07453627
46	0xbdb78939	-0.0896172
47	0x3ba579d0	0.0050499216
48	0xbd2902f7	-0.041262593
49	0x3cd2d416	0.025735896
50	0xbd601046	-0.05470302
51	0xbd6098b9	-0.054833148
52	0x3d07f288	0.03319028
53	0x3d212613	0.03934295
54	0x3d8fd9e0	0.07023978
55	0xbdce1272	-0.10062112
56	0xbdafe55e	-0.0858867
57	0x3c89b1d2	0.016808424
58	0x3d81f4bc	0.063455075
59	0xbb83f7e4	-0.0040273536
60	0x3c50988c	0.0127316825
61	0x3c9a6625	0.018847534
62	0x3d82ebc6	0.063926265
63	0x3d10275c	0.035193786
64	0x3ba74a22	0.005105273
65	0x3cb8a12f	0.022537796
66	0x3c543cbf	0.012953936
67	0x3da482f0	0.08032787
68	0x3d5e1ed7	0.05422863
69	0xbd8c569c	-0.06852457
70	0xbbc5e579	-0.006039318
71	0x3d916c66	0.071007535
72	0x3c45ad64	0.012065265
73	0x3d27f17f	0.041001793
74	0xbd8f6def	-0.0700339
75	0xbc0a21ce	-0.008430911
76	0x3d967f03	0.07348444
77	0x3d9cd63e	0.07658051
78	0x3dc42176	0.09576695
79	0x3cef3353	0.029199278
80	0xbcd0d8e4	-0.025494047
81	0xbd830170	-0.063967586
82	0x3d90c3d6	0.07068603
83	0x3d6af03c	0.05735801
84	0x3d464f50	0.048415482
85	0xbd7a5df2	-0.06112475
86	0x3d83ca02	0.06435014
87	0x3d7a8e87	0.06117108
88	0xbcbea6c9	-0.023272889
89	0x3cff63f9	0.0311756
90	0x3d008bb2	0.031383224
91	0xbcdcb004	-0.0269394
92	0xbd86f63d	-0.06589935
93	0xbd51124b	-0.051042836
94	0xbd3730bd	-0.044724215
95	0xbdd377d0	-0.10325587
96	0xbc400450	-0.011719778
97	0xbd9d62d9	-0.07684869
98	0x3c964068	0.018341258
99	0xbc522928	-0.012827195
100	0xbc9300f1	-0.017944785
101	0x3cdd3ed3	0.027007496
102	0x3c1ae760	0.009454578
103	0x3d3b4836	0.045723163
104	0x3d2ae31e	0.041720502
105	0xbcf267fe	-0.029590603
106	0xbda4f272	-0.08054055
107	0xbda9dc04	-0.08293918
108	0x3d663d31	0.0562107
109	0x3d4f9d6b	0.050687235
110	0x3d8b222d	0.06793628
111	0xbd1210bf	-0.0356605
112	0x3d7ad09f	0.061234113
113	0x3b256212	0.0025235456
114	0xbca6a556	-0.02034251
115	0xbcf113da	-0.029428411
116	0x393b3d2e	0.00017856501
117	0x3dadcf3f	0.08486795
118	0xbd863fce	-0.065551385
119	0x3be72bf2	0.0070547992
120	0x3d8fe71b	0.07026502
121	0x3d41c4ce	0.04730683
122	0x3d9c3bd8	0.07628602
123	0x3d8b35a2	0.06797339
124	0x3d9c4da9	0.07632
125	0xbc48abbc	-0.012247976
126	0xbcca4368	-0.024690345
127	0xbd91984b	-0.07109126
128	0x3d820b51	0.06349815
129	0xbd5e9ea1	-0.0543505
130	0x3b1b7a45	0.0023724001
131	0x3dcc8dc9	0.09987981
132	0x3ab3e2ad	0.0013724171
133	0x3dcbc319	0.09949321
134	0x3dad31ce	0.08456765
135	0x3cef0e84	0.029181726
136	0x3bc816a7	0.006106216
137	0xbdb56d0a	-0.08858688
138	0x3ba34137	0.0049821394
139	0xbccbb23e	-0.024865266
140	0xbd005d72	-0.031339116
141	0xbd2e8803	-0.04261018
142	0xbdb29c61	-0.08721233
143	0xbcfc81a7	-0.030823542
144	0xbd340fd0	-0.043960392
145	0xbb689561	-0.0035489427
146	0x3d8b554f	0.06803381
147	0xbc8833ee	-0.016626325
148	0xbd792762	-0.060828574
149	0xbdd5a07b	-0.10431
150	0xbcace869	-0.021106916
151	0x3cd35798	0.025798604
152	0xbd6b7627	-0.057485726
153	0xbcce4c47	-0.025182856
154	0xbd559aac	-0.05214946
155	0x3dd6a12d	0.104799606
156	0x3c9751f0	0.018471688
157	0x3cc60de5	0.024176547
158	0xbd8cb0d2	-0.06869663
159	0xbc917e09	-0.017760294
160	0x3cb2ee96	0.021842282
161	0xbd8531a3	-0.06503608
162	0xbda63c83	-0.081170104
163	0xbd133016	-0.03593453
164	0x3d656f2c	0.056014225
165	0xbd8a536d	-0.067541935
166	0xbd4eda36	-0.05050107
167	0x3da3e11b	0.0800192
168	0xbd681a3e	-0.05666565
169	0xbdaa4888	-0.083146155
170	0x3c710063	0.014709565
171	0x3d9b53e5	0.07584361
172	0x3d2593c5	0.040424127
173	0xbc134e2f	-0.008990808
174	0xbd15b325	-0.0365478
175	0xbd35aa25	-0.044351716
176	0x3d355121	0.044266824
177	0x3dbc6a17	0.091999225
178	0x3ccc2a55	0.02492253
179	0xbd6a6a40	-0.057230234
180	0x3d1a3a32	0.037653156
181	0xbbc65b34	-0.0060533527
182	0x3d8ab216	0.067722484
183	0x3a68f6b9	0.0008886862
184	0xbcac7859	-0.02105348
185	0xbd818757	-0.06324642
186	0x3d9023b3	0.07038059
187	0xbda203e5	-0.07910899
188	0xbcf5a3f9	-0.029985415
189	0x3d36bda6	0.044614457
190	0x3d2c36a1	0.042044286
191	0xbda2dfe8	-0.07952863
192	0x3ccf35cd	0.025294209
193	0x3c352527	0.011056221
194	0x3ca5ee81	0.02025533
195	0xbd478fbc	-0.04872106
196	0xbd6fc532	-0.05853767
197	0x3d2d679b	0.042335134
198	0xbd9ede5b	-0.07757255
199	0xbcc8412d	-0.02444514
200	0x3d3bd2e5	0.04585542
201	0xbc80daab	-0.015729269
202	0x3ce47335	0.027886966
203	0x3d5d8ea9	0.05409113
204	0x3d124c23	0.03571714
205	0xbd256efe	-0.040389054
206	0xbdb78656	-0.089611694
207	0x3d270400	0.0407753
208	0x3a2e3066	0.0006644785
209	0xbcdcd851	-0.026958616
210	0x3c99134f	0.018685965
211	0xbd30a252	-0.04312355
212	0xbdb137a9	-0.086531945
213	0xbe1adda1	-0.15123607
214	0x3daa093b	0.08302542
215	0xbd0917bf	-0.03346991
216	0x3d5299f4	0.051416352
217	0x3d6986ee	0.057013445
218	0x3d85674a	0.065138415
219	0x3c40ffc8	0.011779733
220	0xbc9cd6dc	-0.019145422
221	0x3d1e0612	0.038580008
222	0xbd36aa6c	-0.04459612
223	0x3d478b4e	0.048716836
224	0xbd8786c9	-0.06617505
225	0x3c8c4a8b	0.017125389
226	0xbdb17dff	-0.0866661
227	0x3d0d6718	0.034522146
228	0x3cc950df	0.024574695
229	0xbcc20596	-0.023684304
230	0x3d7e8064	0.06213416
231	0xbd2ce968	-0.04221478
232	0xbcec7b5a	-0.028867412
233	0x3d1275b0	0.035756767
234	0xbdc29dc6	-0.09502749
235	0xbd5af488	-0.05345586
236	0xbaaecd10	-0.001333626
237	0xbc42a07c	-0.011879083
238	0xbb5823d0	-0.003298033
239	0xbd2a4d66	-0.04157772
240	0xbd53cba1	-0.051707868
241	0xbdc65cf6	-0.096857
242	0xbd68bfc1	-0.056823496
243	0x3d7dd34b	0.061969083
244	0x3d78849d	0.060673345
245	0x3d3f488f	0.046700057
246	0x3dcc2b8c	0.099692434
247	0xbd33d6dc	-0.043906078
248	0xbcd6a2c6	-0.026200663
249	0xbc0c0a38	-0.008547358
250	0x3d07eb4d	0.033183385
251	0x3c4d46cf	0.012529089
252	0xbd256945	-0.040383596
253	0xbd8965c5	-0.06708864
254	0x3ce5ae35	0.02803717
255	0x3db51633	0.08842125

_module.layer2.0.bias f4 [16]
0	0x3cf3209b	0.029678633
1	0x3d1770b4	0.036972716
2	0xbc88be52	-0.016692314
3	0xbd16f532	-0.03685493
4	0x3da0f737	0.078596525
5	0x3d8a239e	0.06745075
6	0xbdb6dae1	-0.089284666
7	0x3d0c5f86	0.034270786
8	0xbc7fb2a1	-0.015606553
9	0xbcc53e61	-0.024077596
10	0x3c1b5b60	0.009482235
11	0x3c910354	0.017701782
12	0x3d5f1160	0.05445993
13	0x3d9a0546	0.07520537
14	0xbdaacbec	-0.08339676
15	0x3d31aef2	0.04337973

_module.layer2.1.weight f4 [16]
0	0x3f821c7e	1.0164945
1	0x3f7d2652	0.988866
2	0x3f80d464	1.0064816
3	0x3f81691e	1.0110204
4	0x3f7f771f	0.9979114
5	0x3f80b168	1.005414
6	0x3f7d1eb3	0.9887497
7	0x3f7fac7f	0.99872583
8	0x3f81d313	1.014254
9	0x3f7a635e	0.9780787
10	0x3f809930	1.0046749
11	0x3f815df7	1.0106801
12	0x3f81388f	1.0095385
13	0x3f816f93	1.0112175
14	0x3f830165	1.02348
15	0x3f7a6b16	0.9781965

_module.layer2.1.bias f4 [16]
0	0xbcbdcdaf	-0.023169367
1	0xbbcd5e52	-0.0062673474
2	0x3b31d034	0.0027132155
3	0x3c62fc44	0.01385409
4	0x3c16c8ea	0.009203175
5	0x3ce91adf	0.028455196
6	0x3a783695	0.00094685826
7	0xbb40cb68	-0.0029418115
8	0xbc04c1b4	-0.008102823
9	0xbc59dd0c	-0.013297331
10	0x3c4c1863	0.012456986
11	0x3a939e0a	0.0011262309
12	0x3bfbdb58	0.00768606
13	0xbcd94dc4	-0.02652634
14	0x3ca89136	0.020577054
15	0xbc2f8ca4	-0.010714684

_module.layer3.0.weight f4 [64, 16, 3, 3]
0	0xbb4e9e68	-0.0031527523
1	0x3d86d283	0.06583121
2	0x3c852462	0.0162527
3	0xbd63b89f	-0.05559599
4	0xbc272312	-0.0102012325
5	0xbd453e2e	-0.048155002
6	0xbd43f2cb	-0.047838967
7	0xbcbd5693	-0.02311257
8	0xbd8e99cd	-0.06962929
9	0x3d069a1d	0.032861818
10	0x3d25a746	0.040442728
11	0x3dbce029	0.09222443
12	0x3d172396	0.03689917
13	0x3d5090a9	0.05091921
14	0x3d3b3167	0.04570141
15	0xbd43aca3	-0.04777206
16	0xbcbbe0ce	-0.022934344
17	0x3b0dfcc8	0.0021665562
18	0x3bd5b5c3	0.006521912
19	0x3d01a41b	0.031650644
20	0x3d0f8020	0.0350343
21	0x3d394671	0.045233194
22	0x3c8c74c6	0.017145526
23	0xbda8b25e	-0.08237146
24	0x3d8de28b	0.06927975
25	0x3d4b6017	0.049652185
26	0x3d9e1684	0.07719138
27	0xbd4752d3	-0.04866297
28	0xbb7f82da	-0.0038987906
29	0xbd4672c3	-0.04844929
30	0xbd832bfb	-0.06404873
31	0xbd86af87	-0.06576448
32	0xbc43c3a0	-0.011948496
33	0x3da73ba5	0.08165673
34	0x3bd77788	0.0065755285
35	0xbb9f4976	-0.004861052
36	0xbb737915	-0.0037151028
37	0xbd08cbfb	-0.033397656
38	0xbcbcb147	-0.023033751
39	0xbcd04907	-0.025425447
40	0x3dd71a65	0.10503081
41	0x3cb8ba07	0.022549642
42	0xbd8c3610	-0.06846249
43	0xbd9b33d5	-0.075782456
44	0x3dd4ba63	0.10387113
45	0xbce85f7b	-0.028365841
46	0x3db6d1c1	0.08926726
47	0x3d64f679	0.055899117
48	0xbbe1a8de	-0.0068865856
49	0x3d1d0fe2	0.038345225
50	0x3ab59193	0.0013852589
51	0xbc056548	-0.008141823
52	0x3dbac394	0.09119335
53	0xbd81a13b	-0.063295804
54	0xbc1f5ff3	-0.009727466
55	0xbd171d09	-0.036892924
56	0xbd85764f	-0.06516706
57	0xbd1a78e0	-0.03771293
58	0xbcc0c096	-0.023529332
59	0x3beaea51	0.007169046
60	0x3ab0cb7a	0.0013488375
61	0x3da995fa	0.08280559
62	0x3d5c552a	0.053792156
63	0xbd636661	-0.055517558
64	0xbb0f6688	-0.0021881182
65	0xbd40c291	-0.047060553
66	0xbd20836a	-0.039187826
67	0x3d139fa8	0.036040932
68	0xbdc0cc9e	-0.09414028
69	0x3c9ec25b	0.019379785
70	0x3d44537a	0.047931172
71	0xbdf0c5ff	-0.11756515
72	0x3b4a2e5a	0.0030850382
73	0xbced9dcd	-0.02900591
74	0x3d2ae377	0.041720834
75	0xbc005551	-0.007832841
76	0xbc72eead	-0.014827413
77	0x3d819cc0	0.06328726
78	0xbdd8babf	-0.10582494
79	0xbd6b3191	-0.057420317
80	0xbd952343	-0.07282116
81	0x3d864a88	0.065571845
82	0xbdb891a6	-0.09012155
83	0x3b660481	0.00350979
84	0xbd844b23	-0.06459644
85	0xbd881122	-0.06643893
86	0xbc38d334	-0.0112808235
87	0xbc286404	-0.010277752
88	0x3d012906	0.031533264
89	0x3bd8c429	0.006615181
90	0x3cb0e156	0.021591824
91	0xbb381f59	-0.0028094857
92	0x3c4a8753	0.012361365
93	0x3c8ac5ac	0.01693996
94	0x3cc07d16	0.023497146
95	0xbd6182f8	-0.055056542
96	0xbc9b88c6	-0.018986117
97	0x3d7d882b	0.061897438
98	0xbcd5c816	-0.026096385
99	0x3d076261	0.033052806
100	0xbd96d22d	-0.073643066
101	0x3da55584	0.080729514
102	0x3d1a6586	0.037694477
103	0xbb6e75a3	-0.0036386035
104	0xbcc17d17	-0.023619218
105	0xbdb8e634	-0.09028283
106	0x3dc1a35e	0.09454988
107	0xbd7f57de	-0.062339656
108	0xbdb643c7	-0.08899646
109	0x3c9a29b6	0.018818717
110	0x3cb34006	0.021881115
111	0xbd29f661	-0.04149473
112	0xbd4956f5	-0.049155194
113	0xbd4e132d	-0.050311256
114	0x3d9ab983	0.07554915
115	0xbda3caa9	-0.07997639
116	0x3cc31dc7	0.02381791
117	0xbc271830	-0.010198638
118	0x3d537d56	0.0516332
119	0xbbf80b5e	-0.0075697144
120	0x3c81e746	0.01585735
121	0xbd450b76	-0.048106633
122	0xbd793e85	-0.06085064
123	0x3d0af0c6	0.033921026
124	0x3db68525	0.08912114
125	0x3d9bdf1e	0.076109156
126	0xbb209ff4	-0.0024509402
127	0x3d6ee334	0.058322147
128	0xbc252ae6	-0.010081029
129	0x3cf16df8	0.029471382
130	0xbd93f9ae	-0.07225357
131	0x3b8ebd23	0.004356043
132	0xbd465279	-0.048418496
133	0xbd303184	-0.04301597
134	0xbd6a7c80	-0.05724764
135	0xbd8ad452	-0.06778778
136	0xbb57e025	-0.0032939997
137	0xbca98c95	-0.020696918
138	0x3da7c34a	0.08191545
139	0x3d152408	0.036411315
140	0x3d17ae97	0.037031736
141	0xbd98f9c2	-0.074695125
142	0x3c97443a	0.01846515
143	0xbb624c40	-0.0034530312
144	0x3da3b043	0.07992604
145	0xbc406a03	-0.011744025
146	0x3d4a421d	0.049379457
147	0xbc90e89a	-0.017689038
148	0x3d0ec24c	0.034853265
149	0x3d89d73d	0.067305066
150	0x3d5df1fa	0.054185845
151	0xbd8e5d03	-0.06951334
152	0x3dc81669	0.097698994
153	0x3d55ada7	0.05216756
154	0x3d806f7e	0.062712654
155	0x3cdc3878	0.026882395
156	0xbdb68691	-0.08912385
157	0xbd4dd18e	-0.050248675
158	0xbcaa2b47	-0.02077259
159	0x3c0a27ce	0.008432342
160	0xbd8224d6	-0.06354682
161	0xbd83ee2b	-0.06441911
162	0x3d93d3e2	0.07218148
163	0x3dac594e	0.08415471
164	0xbd690490	-0.056889117
165	0xbcead36a	-0.028665263
166	0xbc7c4714	-0.015397806
167	0xbd91c604	-0.071178466
168	0xbdbdff96	-0.09277265
169	0x3d1e2285	0.03860714
170	0x3d8fb7b7	0.07017463
171	0xbc7b7c31	-0.015349434
172	0xbd874680	-0.06605244
173	0x3d7f7bb6	0.06237384
174	0x3bd2374c	0.0064152833
175	0xbd91d455	-0.07120577
176	0x3d2758dc	0.040856227
177	0xbd23316c	-0.039842054
178	0x3cac71f5	0.021050433
179	0x3d521e76	0.05129858
180	0x3d6f9461	0.058491115
181	0xbd2eed1b	-0.04270659
182	0xbda698d0	-0.081346154
183	0xbd2357d7	-0.039878692
184	0x3d5628de	0.052285068
185	0xbd35b3c6	-0.0443609
186	0x3cd9e555	0.026598612
187	0x3ccc3496	0.024927419
188	0x3d58850c	0.05286126
189	0x3d3e49dc	0.046457157
190	0xbd36e632	-0.044653125
191	0x3d9e94e7	0.077432446
192	0x3b4370b9	0.0029821827
193	0x3d2dcbed	0.042430807
194	0xbd121e35	-0.03567334
195	0xbcf7771f	-0.030208169
196	0xbcab1ff2	-0.020889256
197	0x3d0cfd5e	0.034421317
198	0xbaf11137	-0.0018391971
199	0xbd3211a4	-0.043473855
200	0x3c1f37bf	0.009717881
201	0xbdde2085	-0.10846046
202	0x3dbb2176	0.091372415
203	0xbd82d5e3	-0.06388452
204	0x3caa38d5	0.020779053
205	0xbd9ecd20	-0.07753968
206	0x3d02cbe2	0.03193272
207	0xbc506d3e	-0.012721358
208	0x3d4efcb6	0.050533973
209	0x3db41ea5	0.087949075
210	0x3dc44347	0.09583145
211	0xbd387c52	-0.045040436
212	0xbb291a00	-0.002580285
213	0x3db042f4	0.0860652
214	0xbdac468c	-0.08411893
215	0x3d28c064	0.041199103
216	0xbcae15e6	-0.021250676
217	0xbd24b9fe	-0.04021644
218	0x3bda82df	0.006668433
219	0xbd970ae6	-0.073751256
220	0x3d07a80e	0.033119254
221	0x3d2bb933	0.041924667
222	0x3ab37e31	0.0013694224
223	0xbd8d1cb9	-0.06890244
224	0x3cd735a4	0.026270695
225	0xbd9d9030	-0.07693517
226	0x3d843c25	0.06456784
227	0x3c88d55d	0.016703302
228	0x3ce80cfe	0.028326508
229	0x3c803e07	0.015654577
230	0xbd98eaf0	-0.07466686
231	0x3c762ebf	0.015025794
232	0xbca6d0ff	-0.020363329
233	0x3d2093a7	0.039203312
234	0x3d947eff	0.07250785
235	0xbdae86fc	-0.0852184
236	0x3db60584	0.08887771
237	0xbcd68e75	-0.026190976
238	0xbd2346c6	-0.039862417
239	0x3c3a765d	0.011380759
240	0x3c21b47b	0.00986969
241	0x3cd58469	0.026064115
242	0x3d32b848	0.043632776
243	0x3d52d4de	0.051472537
244	0x3bb223ee	0.005436412
245	0xbd8a1246	-0.06741767
246	0x3b50ef7e	0.003188103
247	0xbd6c0073	-0.057617616
248	0xbd69a640	-0.057043314
249	0xbb16d209	-0.0023013374
250	0x3dc72c0d	0.09725199
251	0x3d27fa72	0.041010328
252	0x3df0578d	0.11735449
253	0x39e1bd48	0.0004305637
254	0x3d1e2382	0.03860808
255	0x3d919d75	0.07110111

_module.layer3.0.bias f4 [64]
0	0xbdc2cc71	-0.0951165
1	0x3de21120	0.110384226
2	0xbde0d365	-0.1097782
3	0xbd838a26	-0.06422834
4	0xbcb2023c	-0.021729581
5	0x3d91126f	0.07083594
6	0xbd2a8852	-0.04163391
7	0x3d7d33a5	0.06181683
8	0x3c563f07	0.01307655
9	0xbd7ea970	-0.062173307
10	0xbb1ca426	-0.002390155
11	0x3b39bb4e	0.0028340402
12	0x3db5fa0e	0.08885585
13	0xbda1325b	-0.07870933
14	0x3d5b5ae0	0.053553462
15	0xbd55aebd	-0.052168597
16	0x3d4bfd75	0.049802262
17	0x3d3a9b95	0.04555853
18	0xbc9081d0	-0.017640024
19	0xbd2ed153	-0.042680096
20	0x3c41340b	0.011792193
21	0x3d97d58d	0.074137785
22	0xbce0ff48	-0.027465478
23	0x3d0c4ce2	0.03425301
24	0xbd4939cd	-0.04912739
25	0x3c9a338d	0.01882341
26	0x3da20f0d	0.07913027
27	0x3d514020	0.051086545
28	0xbd976c73	-0.07393732
29	0x3cfdafcd	0.030967617
30	0xbccec6f1	-0.025241347
31	0x3ce8f1ee	0.028435674
32	0x3bb9d029	0.0056705666
33	0xbcfafa43	-0.030636912
34	0x3daa35c9	0.0831104
35	0x3d304b34	0.04304047
36	0x3c671db3	0.014106202
37	0xbd79b499	-0.060963247
38	0xbd027903	-0.031853687
39	0xbd54a0bc	-0.0519111
40	0xbd3280c1	-0.04357982
41	0xbb57c5a1	-0.0032924192
42	0xbddb7945	-0.1071649
43	0x3d8601a6	0.06543283
44	0x3d5c0593	0.053716253
45	0xbd42197c	-0.047387585
46	0xbd7e658c	-0.06210856
47	0xbc4bac59	-0.012431228
48	0xbb5fe0b4	-0.0034161033
49	0x3d70c5c8	0.05878237
50	0xbd2a16f8	-0.04152581
51	0xbd3143c0	-0.043277502
52	0xbdaa42bc	-0.0831351
53	0xbd914906	-0.07094006
54	0x3d821878	0.06352323
55	0x3d32fe81	0.043699745
56	0xbd8754b0	-0.0660795
57	0xbd496375	-0.049167115
58	0x3d10c2bc	0.035341963
59	0xbd816208	-0.06317526
60	0xbd05f1ba	-0.03270123
61	0x3d5c0663	0.05371703
62	0xbcbce21f	-0.023057042
63	0x3b082c28	0.0020778272

_module.layer3.1.weight f4 [64]
0	0x3f7c1dab	0.9848277
1	0x3f82c1db	1.021541
2	0x3f814bd2	1.0101264
3	0x3f7a41d3	0.9775669
4	0x3f7794c4	0.96711373
5	0x3f7fce8c	0.9992454
6	0x3f809fd3	1.0048774
7	0x3f7a9ccf	0.9789552
8	0x3f7eb19e	0.9948977
9	0x3f7f4754	0.99718213
10	0x3f8036cd	1.0016724
11	0x3f8065ad	1.0031029
12	0x3f7bb842	0.9832803
13	0x3f7d5d38	0.98970366
14	0x3f81403f	1.0097731
15	0x3f7fd012	0.99926865
16	0x3f83f9c2	1.0310595
17	0x3f8416de	1.0319479
18	0x3f79c134	0.9756043
19	0x3f8164dd	1.0108906
20	0x3f82279e	1.016834
21	0x3f7bf052	0.98413575
22	0x3f832cb6	1.024802
23	0x3f7c0913	0.98451346
24	0x3f7dd51a	0.9915329
25	0x3f803d7d	1.0018765
26	0x3f816360	1.0108452
27	0x3f7d7657	0.990087
28	0x3f78c613	0.9717724
29	0x3f7967af	0.97423834
30	0x3f80290e	1.0012529
31	0x3f8001ed	1.0000588
32	0x3f7e623e	0.99368656
33	0x3f7ad3dc	0.9797952
34	0x3f81a188	1.012742
35	0x3f8048fc	1.0022273
36	0x3f82234c	1.0167022
37	0x3f76c669	0.963965
38	0x3f84aa63	1.0364498
39	0x3f835505	1.0260321
40	0x3f82ffc6	1.0234306
41	0x3f819bf9	1.0125724
42	0x3f7fdb04	0.99943566
43	0x3f7cb8ba	0.9871937
44	0x3f737a7d	0.9510878
45	0x3f7ee79b	0.9957215
46	0x3f7438fc	0.9539945
47	0x3f814a5c	1.0100818
48	0x3f808e27	1.0043381
49	0x3f819081	1.0122224
50	0x3f84a367	1.0362366
51	0x3f75dd92	0.96041214
52	0x3f80c1cb	1.0059141
53	0x3f7efe1e	0.996065
54	0x3f80cd26	1.0062606
55	0x3f7c12c5	0.9846614
56	0x3f7b86b6	0.9825243
57	0x3f82eaff	1.0227965
58	0x3f80b665	1.0055662
59	0x3f79d5f0	0.9759207
60	0x3f7d896d	0.9903782
61	0x3f7a83c6	0.9785732
62	0x3f79bef2	0.97556984
63	0x3f82655e	1.0187185

_module.layer3.1.bias f4 [64]
0	0xbc9966dd	-0.018725807
1	0xbcbf45ec	-0.023348771
2	0xbc00b99c	-0.007856753
3	0xbcdcb8ef	-0.026943652
4	0xbc0bfd4b	-0.0085442765
5	0xbcad82b5	-0.02118049
6	0xbcfa1d24	-0.030531473
7	0xbbf934da	-0.0076051774
8	0xbbe0bf8e	-0.0068587726
9	0xbc14eec9	-0.009090134
10	0x3ba98555	0.005173365
11	0xbbad578f	-0.005289979
12	0xbc984676	-0.018588286
13	0x3b571017	0.0032815987
14	0xbd25d0dd	-0.04048239
15	0x3d043f69	0.032287035
16	0x3aecaf11	0.0018057545
17	0xbc8a0b01	-0.01685095
18	0xbca58c2b	-0.020208439
19	0xbd28249a	-0.04105053
20	0x3c825bbd	0.015912885
21	0x3cde3303	0.027123934
22	0xbcabc741	-0.020969035
23	0xbb4dae32	-0.0031384346
24	0x3b243666	0.0025056838
25	0x3ce3de95	0.027816096
26	0x3d28c386	0.04120209
27	0xbcaf621d	-0.021409089
28	0x3d062c27	0.03275695
29	0x3ab07acd	0.0013464332
30	0x3ca211aa	0.019783814
31	0xbc22c934	-0.009935666
32	0xbb4ba504	-0.0031073699
33	0x3c8961ea	0.016770322
34	0x3d500b1c	0.050791845
35	0xba0efc2c	-0.00054544467
36	0xb83c28ce	-4.4860695e-05
37	0x3bb57e88	0.0055387653
38	0x3b70d9e7	0.0036750974
39	0xbb9398a0	-0.0045042783
40	0xb98b39f7	-0.00026555333
41	0xbd56336c	-0.052295133
42	0x3cb6c880	0.022312403
43	0x3cec74c6	0.028864276
44	0x3c808215	0.015687028
45	0x3cdbf8bc	0.026852004
46	0xbcc52dd4	-0.024069704
47	0xbb90b512	-0.0044161165
48	0x3c063489	0.008191236
49	0x3c2af0cd	0.010433388
50	0x3aa02e76	0.0012220878
51	0xbcaa2324	-0.02076871
52	0xbab5a52c	-0.0013858429
53	0x3c20e94b	0.009821246
54	0x3cd62e46	0.026145112
55	0xbce512b6	-0.027963024
56	0xbaf5ad3f	-0.0018743648
57	0x3cced2c2	0.025246982
58	0x3cade733	0.021228408
59	0xbbe8bef3	-0.007102841
60	0xbc5eaefd	-0.013591525
61	0x3b548cf8	0.0032432657
62	0xbcb9bdb1	-0.02267346
63	0xbbf43f15	-0.007453809

_module.layer4.0.weight f4 [64, 64, 3, 3]
0	0xbcbba2d7	-0.022904797
1	0x3d3f4d91	0.046704832
2	0x3ccfe00a	0.025375385
3	0x3cff51ef	0.031166999
4	0xbc86aeba	-0.016440738
5	0x3d49470f	0.049140032
6	0x3bd7b2d0	0.0065825954
7	0x3cc667d9	0.02421944
8	0x3c5993c5	0.01327986
9	0xbc807d1a	-0.015684653
10	0xbb128f6f	-0.0022363325
11	0xbc4c6630	-0.012475535
12	0xbd3af1e6	-0.04564085
13	0x3c5adae2	0.01335785
14	0x3d920657	0.071301155
15	0xbc91d4c7	-0.017801655
16	0x3cf85f01	0.030318739
17	0x3cad8a49	0.021184104
18	0xbcaf64ed	-0.02141043
19	0xbd34530c	-0.044024512
20	0x3d14d2ab	0.03633372
21	0x3bf77639	0.007551935
22	0xbd0f8ab8	-0.035044402
23	0xbca83e3a	-0.020537484
24	0xbd2b8839	-0.04187796
25	0x3cbd1287	0.023080124
26	0x3d8e2f82	0.06942655
27	0x3af55ba9	0.0018719333
28	0xbd1ce331	-0.038302604
29	0x3d56823b	0.05237029
30	0x3b17f19e	0.0023184787
31	0x3bb7476e	0.005593232
32	0xbc81c743	-0.015842086
33	0x3ccf629b	0.025315573
34	0xbd20b01b	-0.039230447
35	0xbd136c3e	-0.0359919
36	0xbcdf6ec1	-0.027274491
37	0x3c7c46cf	0.015397741
38	0x3b6648dd	0.0035138645
39	0xb8616ba5	-5.3744432e-05
40	0x3ce5af1b	0.028037598
41	0x3b7dbe36	0.003871811
42	0x3d02c75c	0.031928405
43	0xbc88b097	-0.016685767
44	0x3d9aaa32	0.075519934
45	0xbd6ff158	-0.058579773
46	0xbc9cd363	-0.019143766
47	0x3c895208	0.016762748
48	0x3bbfc936	0.0058528436
49	0xbbd05367	-0.0063575986
50	0xbd4dac86	-0.05021336
51	0xbd0a7444	-0.033802286
52	0xbc3c9b47	-0.01151163
53	0xbbd83252	-0.0065977955
54	0xbce10325	-0.02746732
55	0xbd03cc94	-0.032177523
56	0x3bd8a430	0.0066113696
57	0x3d069e5a	0.03286586
58	0x3d5293f1	0.05141062
59	0x3c5c959e	0.013463406
60	0xbd078920	-0.033089757
61	0xbc6e8382	-0.014557721
62	0x3ca69c0a	0.020338077
63	0x3cbd28c5	0.02309073
64	0x3d244ae1	0.040110473
65	0xbd0981cd	-0.033571053
66	0xbb23b6d9	-0.0024980812
67	0x3c996b53	0.018727934
68	0xbc55d37f	-0.013050913
69	0xbd834ba9	-0.064109154
70	0xbcc36c30	-0.023855299
71	0x3d4af9ba	0.049554564
72	0xbcb1ed4e	-0.021719601
73	0xbc5eb434	-0.013592768
74	0xbbfc46ce	-0.0076988703
75	0xbd9001b7	-0.07031577
76	0xbcb3575d	-0.021892244
77	0x3c7b995b	0.015356387
78	0xbcb62be2	-0.022237722
79	0xbc54a375	-0.012978424
80	0xbc21061f	-0.00982812
81	0x3cc53566	0.024073314
82	0xbc0dd055	-0.008655627
83	0x3d0e047f	0.034672257
84	0xbc1078e2	-0.008817883
85	0xbd0dc225	-0.03460898
86	0x3d25ec49	0.040508542
87	0x3d1a0cc1	0.03760982
88	0xbca6ad07	-0.020346178
89	0x3cc8c328	0.02450712
90	0xbcde5e99	-0.027144717
91	0x3cb17f47	0.021667136
92	0xbcc6e51f	-0.024279175
93	0xbc488493	-0.012238639
94	0xbcd4f928	-0.025997713
95	0xbc9def4b	-0.019279143
96	0xbd7c18d4	-0.061547115
97	0x3a600408	0.00085455226
98	0x3cb1d4d6	0.021707933
99	0xbca1d95f	-0.01975697
100	0x3ca76677	0.020434601
101	0xbc84fcda	-0.01623385
102	0xbc719eeb	-0.014747362
103	0xbc32dea3	-0.010917339
104	0xbd0e81eb	-0.03479187
105	0xbd485cfb	-0.048916798
106	0x3c05804c	0.008148264
107	0xbc992cfe	-0.018698212
108	0xbd0cfa7c	-0.034418568
109	0x3c9efd18	0.019407794
110	0xbd2df9f3	-0.0424747
111	0xbd8102a4	-0.06299332
112	0xbc8275cb	-0.015925309
113	0x3baf6adb	0.0053533143
114	0x3cc5427d	0.024079556
115	0xbd19dfa9	-0.037566815
116	0x3d984acc	0.07436141
117	0xbcfda02a	-0.030960161
118	0xbd0c0144	-0.034180894
119	0x3bb747cd	0.005593276
120	0x3d1e010c	0.038575217
121	0xbc6f4f54	-0.014606316
122	0xbcdf509a	-0.027260114
123	0x3be83ee8	0.007087577
124	0xbbf2f150	-0.0074140206
125	0x3d86c7bd	0.06581066
126	0xbc208a26	-0.009798562
127	0xb99a303d	-0.0002940911
128	0x3d8071a3	0.062716745
129	0xbd11f881	-0.035637382
130	0xbc83f540	-0.016108155
131	0x3c8f8066	0.01751728
132	0x3d35d389	0.04439119
133	0xbd07b604	-0.033132568
134	0xbc802c18	-0.015646026
135	0x3ca0ee0d	0.019644761
136	0xbd298ac1	-0.04139209
137	0x3cdeb297	0.027184768
138	0xbcecc89c	-0.028904252
139	0x3d0ca7e5	0.034339804
140	0x3d0838bd	0.033257235
141	0x3cb21b61	0.02174157
142	0xbc44a252	-0.012001591
143	0xbca54e33	-0.02017889
144	0x3cf88d90	0.03034094
145	0x3cc9fe78	0.024657473
146	0xbd59dc31	-0.053188507
147	0x3c507e0a	0.012725363
148	0xbca782a6	-0.02044804
149	0xba900b3d	-0.0010989677
150	0x3c0468a8	0.008081593
151	0x3d0b92f3	0.03407569
152	0x3cd7eae2	0.026357118
153	0x3c835dba	0.016035903
154	0xbce6497a	-0.028111208
155	0x3c81b927	0.015835358
156	0x3d333c46	0.043758653
157	0xbcdaa312	-0.026689086
158	0xbbcf71f6	-0.006330724
159	0xbceca83d	-0.028888816
160	0xbd122ded	-0.03568833
161	0x3d04c454	0.032413796
162	0xbb974304	-0.004616143
163	0x3c2294f2	0.009923207
164	0xbcfbcaa2	-0.030736271
165	0xbc451fb3	-0.012031483
166	0xbba3ebea	-0.0050024884
167	0xbcf77fc8	-0.030212298
168	0xbcc4a085	-0.024002323
169	0xbb0ce8c5	-0.0021501046
170	0x3ca0fe9d	0.01965266
171	0xbb9184e1	-0.004440889
172	0x3d76f728	0.0602943
173	0xbd14d81e	-0.036338918
174	0xbcb7d849	-0.022442
175	0x3c99788a	0.018734235
176	0xbd0520db	-0.032502037
177	0x3d95f496	0.07322042
178	0xbd0ab467	-0.03386345
179	0x3d14c257	0.03631815
180	0x3d867f41	0.065672405
181	0xbc87c44b	-0.016573092
182	0xbd67519d	-0.056474317
183	0xbcfa7069	-0.03057118
184	0x3b3304cb	0.002731609
185	0xbd1af9d1	-0.0378359
186	0xbc3353ea	-0.0109453
187	0xbd34fbe6	-0.04418554
188	0x3d01d35b	0.031695705
189	0x3c8f429c	0.017487817
190	0x3cbab059	0.022789167
191	0x3c022d98	0.007945441
192	0xbb6548c7	-0.0034986006
193	0xbc680195	-0.014160533
194	0xbd30f3c0	-0.043201208
195	0xbd26c1db	-0.04071222
196	0xbc5ce4b5	-0.013482262
197	0xbb6cc466	-0.0036127805
198	0x3c2aba29	0.010420361
199	0x3d3d3a96	0.04619845
200	0xbbe08cb4	-0.0068527106
201	0xbc674e58	-0.0141178
202	0x3c82a6a1	0.015948595
203	0x3cb1b60d	0.021693254
204	0x3c57865f	0.013154595
205	0xbd818ae0	-0.063253164
206	0xbd2a24c5	-0.041538972
207	0x3d81f757	0.063460045
208	0x3d8ceab1	0.06880701
209	0x3d4ef194	0.050523356
210	0xbc9c8709	-0.019107359
211	0x3d26eccd	0.040753175
212	0xbc79be3c	-0.015243109
213	0x3caad576	0.02085374
214	0xbc921dd2	-0.017836485
215	0xbce9debe	-0.028548595
216	0xbcd0f5c1	-0.02550781
217	0x3d6854ae	0.05672138
218	0xbcf0e140	-0.029404283
219	0x3d1e0c0e	0.038585715
220	0x3cb6fdf5	0.022337893
221	0x3d0e70e6	0.034775637
222	0x3c65165e	0.0139823835
223	0xbbb2f744	-0.0054616053
224	0xbce2df69	-0.02769442
225	0x3d29cad3	0.041453194
226	0xbc0c70d0	-0.0085718185
227	0x3cc966ef	0.024585215
228	0x3c90afd0	0.017661959
229	0x3d28ef61	0.041243915
230	0xbd54fe6f	-0.05200046
231	0xbc8057c1	-0.015666844
232	0xbc86b738	-0.016444787
233	0x3bebb46f	0.00719314
234	0x3c8c98cf	0.017162709
235	0xbd32d8a9	-0.043663654
236	0xbaffb32b	-0.0019508352
237	0xbc948f29	-0.01813467
238	0xbd721491	-0.059101645
239	0x3c43715d	0.011928883
240	0x3ad3e025	0.0016164823
241	0xbba08889	-0.0048990888
242	0xbd3491ef	-0.044084486
243	0x3ca38a30	0.019963354
244	0xbbd7e351	-0.0065883775
245	0x3ca80fca	0.020515341
246	0xbbf96eb2	-0.007612073
247	0xbcd54c6f	-0.026037423
248	0xbb6ac61f	-0.0035823656
249	0xbcf329d2	-0.029683027
250	0x3d20f96c	0.039300367
251	0xbd165c99	-0.0367094
252	0x3ce48678	0.027896151
253	0xbd0ebbb2	-0.03484697
254	0xbc671391	-0.014103786
255	0xbca2f022	-0.019889895

_module.layer4.0.bias f4 [64]
0	0xbcb66278	-0.02226375
1	0x3da21f35	0.079161085
2	0x3cf126f0	0.029437512
3	0xbcc8400d	-0.024444604
4	0xbc6ba771	-0.014383183
5	0xbc61d003	-0.013782504
6	0xbce4d601	-0.027934076
7	0xbc19f615	-0.009397049
8	0x3d44258f	0.04788738
9	0xbca89593	-0.020579135
10	0x3cdbf991	0.026852401
11	0xbc8fe628	-0.017565802
12	0xbce9d92c	-0.028545938
13	0x3c41381c	0.011793163
14	0xbcf6cb4b	-0.030126235
15	0xbc412634	-0.0117888935
16	0x3d9c3443	0.07627156
17	0x3b1ff16e	0.0024405378
18	0xbcfca32d	-0.030839527
19	0xbb6c27a6	-0.0036034374
20	0xbcac3e25	-0.021025727
21	0xbc6b944b	-0.0143786175
22	0xbdb9c331	-0.09070433
23	0x3daefc72	0.08544244
24	0x3cdfbf20	0.027312815
25	0xbc3cd22f	-0.011524721
26	0x3d851940	0.06498957
27	0xbc4d23e9	-0.012520769
28	0x3b8e22a5	0.004337626
29	0xbd76d2e3	-0.06025971
30	0xba93c1af	-0.0011272932
31	0x3a646e3e	0.0008713937
32	0xbcc601e3	-0.024170822
33	0x3b66f19c	0.0035239225
34	0xbb265f99	-0.002538657
35	0x3d011810	0.03151709
36	0x3ca55423	0.020181721
37	0x3d0cba7f	0.034357544
38	0x3cd8a225	0.026444504
39	0x3c0177b5	0.007902076
40	0x3b310131	0.0027008767
41	0x3c1f73a6	0.009732163
42	0xbd597623	-0.05309118
43	0xbd20434d	-0.039126683
44	0xbd225b07	-0.03963759
45	0x3d2c5712	0.042075224
46	0xbc57332e	-0.013134761
47	0x3a02586b	0.0004972282
48	0xbc0912dc	-0.008366313
49	0x3cebc9fe	0.02878284
50	0x3cc32abc	0.023824088
51	0xbc8354ae	-0.01603159
52	0x3c84ffd2	0.016235266
53	0xbcb19d78	-0.021681532
54	0xbc8aae60	-0.016928852
55	0xbd65a4a2	-0.05606521
56	0xbcb1fdef	-0.02172753
57	0xbd3d2252	-0.04617531
58	0xbc28181e	-0.010259656
59	0x3c1796dd	0.009252277
60	0xbc83cb6b	-0.016088208
61	0x3d46f55a	0.04857383
62	0x3b8ad6fe	0.004237055
63	0x3d352a4d	0.044229794

_module.layer4.1.weight f4 [64]
0	0x3f814d44	1.0101705
1	0x3f7e115a	0.99245226
2	0x3f7fade5	0.99874717
3	0x3f7d2f02	0.98899853
4	0x3f83a06f	1.0283335
5	0x3f80e243	1.006905
6	0x3f772f51	0.96556574
7	0x3f7c4538	0.9854312
8	0x3f80ceca	1.0063107
9	0x3f808f93	1.0043815
10	0x3f79ebfe	0.9762572
11	0x3f81e5b8	1.014823
12	0x3f822a1e	1.0169103
13	0x3f8088a5	1.0041701
14	0x3f79b7d9	0.97546154
15	0x3f7eb37b	0.99492615
16	0x3f80cb29	1.0062
17	0x3f7bc4f6	0.98347414
18	0x3f81ceef	1.0141276
19	0x3f800b16	1.0003383
20	0x3f83fbbd	1.03112
21	0x3f80553e	1.0026014
22	0x3f7be5cd	0.98397523
23	0x3f77430e	0.9658669
24	0x3f842de7	1.0326508
25	0x3f7c0d90	0.98458195
26	0x3f80eb4b	1.0071806
27	0x3f808db0	1.004324
28	0x3f8348d0	1.0256596
29	0x3f7dc8e3	0.99134654
30	0x3f80f74a	1.0075467
31	0x3f82a1a8	1.0205584
32	0x3f7dd1aa	0.99148047
33	0x3f7b947d	0.9827345
34	0x3f80cb62	1.0062068
35	0x3f8205c0	1.0158005
36	0x3f84a7d1	1.0363714
37	0x3f7ba8e2	0.9830457
38	0x3f822eee	1.0170572
39	0x3f806f2e	1.0033929
40	0x3f8239b5	1.0173861
41	0x3f7ce6c0	0.98789597
42	0x3f78b29e	0.9714755
43	0x3f7ac748	0.9796033
44	0x3f82e9d4	1.0227609
45	0x3f81355f	1.0094413
46	0x3f83f9d0	1.0310612
47	0x3f82953c	1.0201793
48	0x3f82b727	1.0212144
49	0x3f810706	1.0080268
50	0x3f85669b	1.0421938
51	0x3f8303de	1.0235555
52	0x3f7f9e72	0.99851143
53	0x3f7e5837	0.99353355
54	0x3f82f3a5	1.0230604
55	0x3f7f4d4e	0.9972733
56	0x3f7ba55f	0.9829921
57	0x3f7e1089	0.9924398
58	0x3f8590e9	1.0434848
59	0x3f825540	1.0182266
60	0x3f7b7129	0.98219544
61	0x3f80845f	1.0040396
62	0x3f7d6532	0.98982537
63	0x3f80b048	1.0053797

_module.layer4.1.bias f4 [64]
0	0x3bc4434f	0.005989469
1	0x3c25c688	0.010118134
2	0xbaebf0fc	-0.0018000896
3	0x3ce2eca3	0.027700728
4	0x3c86525e	0.016396698
5	0x3d29788f	0.04137474
6	0x3caaaa30	0.020833105
7	0x3b857715	0.0040730336
8	0xbc8a131e	-0.016854819
9	0xbc35ba22	-0.011091741
10	0x3b88c4b5	0.00417384
11	0xbc895cb9	-0.016767846
12	0xbbe9ad87	-0.007131282
13	0xbc0c93ad	-0.0085801305
14	0x3c494e48	0.01228673
15	0x3d009b89	0.03139833
16	0xbc0fab9a	-0.00876894
17	0xbcc99941	-0.02460921
18	0x3cf77701	0.030208113
19	0xbc6d0e57	-0.014468751
20	0x3c14266f	0.009042366
21	0x3c81f219	0.015862511
22	0x3ca8d054	0.020607151
23	0x3c780e46	0.015140122
24	0x3ce86fa3	0.028373545
25	0x3cb61e53	0.022231257
26	0x3c1136a8	0.008863129
27	0xbb02d7d3	-0.0019965067
28	0xbc59fbaf	-0.013304635
29	0x3b0118b5	0.0019698564
30	0xbb92d30c	-0.004480725
31	0xbc0ec72a	-0.008714477
32	0xbbcd4a18	-0.006264936
33	0x3d02ac85	0.03190281
34	0xbc086fa4	-0.008327398
35	0x3c12b19e	0.00895348
36	0xbc785472	-0.015156852
37	0x3c242726	0.010019099
38	0xba6e1cec	-0.0009083289
39	0xbba090a8	-0.004900057
40	0x3c4a2bd1	0.012339548
41	0xbb84f551	-0.0040575643
42	0xbbdc3f29	-0.0067213965
43	0xbbbc5599	-0.0057475087
44	0x3bd8de65	0.0066183084
45	0x3c9a7b15	0.018857518
46	0x3d18a3d4	0.037265614
47	0xbd14f72e	-0.03636854
48	0x3b2ab9a3	0.002605059
49	0x3c98bc7f	0.01864457
50	0xbc83512b	-0.016029915
51	0xbc0e9a8e	-0.008703841
52	0x3ccd1e32	0.025038812
53	0xbaa3d505	-0.0012499398
54	0x3c91cd10	0.017797977
55	0x3aa4e6a8	0.0012580948
56	0x3d39ae06	0.045331977
57	0x3d07e40b	0.033176463
58	0xbd0c22f2	-0.034213014
59	0x3b457bfa	0.003013371
60	0x3d0d6d3a	0.034527995
61	0xbc63dba3	-0.013907346
62	0x3d35ed0d	0.044415522
63	0xbc29c56c	-0.01036201

_module.layer5.0.weight f4 [64, 64, 3, 3]
0	0x3c8a3302	0.016870026
1	0xbc05cf85	-0.008167152
2	0xbda7776a	-0.08177073
3	0xbbe2e1ac	-0.006923875
4	0x3cf28f57	0.029609365
5	0x3b829611	0.0039851745
6	0x3c363317	0.011120579
7	0xbd65fb4a	-0.05614785
8	0x3cd8cedc	0.026465826
9	0xbc16ce1b	-0.009204413
10	0x3ca8f955	0.020626703
11	0x3cd2c7f4	0.02573011
12	0xbc63a3cf	-0.0138940355
13	0xbcc3a42b	-0.023881992
14	0xbbea0038	-0.0071411394
15	0x3cd9779f	0.026546298
16	0x3b8c19b5	0.0042755255
17	0x3c865f9a	0.016403008
18	0x3d0773bd	0.03306936
19	0x3c2d83a1	0.010590465
20	0xbd65d184	-0.056108013
21	0x3bd16161	0.0063897823
22	0x3d38cd8b	0.045117896
23	0x3bef6664	0.007305907
24	0x3c9d30c2	0.019188289
25	0xbb5ea104	-0.0033970485
26	0xbd4e9825	-0.050438065
27	0xbd11ce77	-0.03559729
28	0xbcb0d3f3	-0.02158544
29	0xbcaa40de	-0.020782884
30	0x3d2535d8	0.040334553
31	0x3c8858b5	0.016643861
32	0x3cd4a385	0.025956878
33	0xbbdf1f3b	-0.006809143
34	0xbc3a5345	-0.011372392
35	0x3b3b416f	0.0028572937
36	0x3d7639fc	0.060113892
37	0xbcaea2ed	-0.021317923
38	0xbc6faffa	-0.014629358
39	0xbb332f50	-0.0027341433
40	0xbc4302eb	-0.011902551
41	0x3ca248e1	0.019810142
42	0xbd73eadd	-0.059550155
43	0x39cdf835	0.00039285576
44	0xbd0e95da	-0.03481088
45	0xbc269a78	-0.010168664
46	0x3d72c729	0.059271965
47	0xbd1e5c12	-0.038662024
48	0x3bce9451	0.006304302
49	0x3c54c57c	0.012986537
50	0xbd0226f1	-0.03177542
51	0xbb362511	-0.002779309
52	0x3ca1cf84	0.019752271
53	0xbd2aab5d	-0.04166733
54	0xbd313a2b	-0.043268364
55	0xbbe18e74	-0.006883437
56	0x3ceb4be9	0.02872272
57	0x3d013e71	0.03155369
58	0xbcca7785	-0.024715194
59	0x3c7813c8	0.015141435
60	0x3d3e61c3	0.04647995
61	0x3bf3b741	0.007437617
62	0x3cafe9c9	0.021473782
63	0xbd5c1f89	-0.05374101
64	0xbc9ec119	-0.019379186
65	0x3d3852c3	0.045000803
66	0xbac9b704	-0.0015389626
67	0x3d3ff7aa	0.04686705
68	0xbd2f2cf5	-0.042767484
69	0x3c0c6f06	0.008571392
70	0x3ccfcf74	0.025367476
71	0xbc9af91c	-0.018917613
72	0xbd0dea90	-0.034647524
73	0xbd06a2bb	-0.032870036
74	0xbc312a1e	-0.010813264
75	0xbbd13251	-0.006384172
76	0x3cfa7e6f	0.030577866
77	0x3d93ae97	0.07211035
78	0xbc920d25	-0.017828533
79	0xba8dceb3	-0.0010819047
80	0x3cabc454	0.02096764
81	0x3cc02cd7	0.023458881
82	0x3d2661cd	0.040620614
83	0xbbdd1a7f	-0.0067475433
84	0x3a946cd3	0.0011323936
85	0xbc985e4f	-0.018599657
86	0xbc9a22f8	-0.018815503
87	0x3d226b15	0.039652903
88	0x3ccbf178	0.024895415
89	0x3caf2c15	0.021383325
90	0xbd6514b4	-0.055927947
91	0xbc971954	-0.018444695
92	0xbb511553	-0.003190358
93	0xbbeb58b3	-0.0071822046
94	0xbca16a37	-0.019703967
95	0xbcde476a	-0.027133662
96	0xbc1134c3	-0.008862677
97	0x3d9bfedc	0.0761697
98	0xbc6bcbfd	-0.014391896
99	0x3d0482db	0.032351356
100	0x3d1146b5	0.035467822
101	0x3d469512	0.04848201
102	0xbccd00fe	-0.025024887
103	0x3cf9d8dc	0.030498914
104	0xbb14bd6e	-0.0022695917
105	0xbc93ae48	-0.01802744
106	0xba7d854e	-0.0009671048
107	0x3c86461c	0.016390853
108	0x3c54b91f	0.012983589
109	0xbd622404	-0.05521013
110	0x3c481b8a	0.012213597
111	0xbd0f9979	-0.035058472
112	0x3d4f57cc	0.05062084
113	0x3d014cea	0.03156749
114	0xbd094414	-0.03351219
115	0x3b1c469c	0.0023845797
116	0xbce17655	-0.027522245
117	0xbd240cc1	-0.040051226
118	0x3c22ea25	0.00994352
119	0xbccc8e98	-0.024970338
120	0xbc2b4d19	-0.010455393
121	0x3ce132da	0.027490068
122	0xbbb11bc4	-0.0054049212
123	0x3c768b46	0.015047854
124	0x3d1102cc	0.035403058
125	0x3c04af7b	0.008098478
126	0x3b3140c0	0.002704665
127	0x3b09a7f3	0.0021004647
128	0x3cb43714	0.02199892
129	0xbc6b60fb	-0.014366384
130	0xbd0604d3	-0.032719444
131	0xbd74fde0	-0.059812427
132	0x3d30f6af	0.043204006
133	0xbca8b6a6	-0.020594906
134	0xbd407a10	-0.046991408
135	0x3d051fa5	0.03250088
136	0x3c00b89e	0.007856516
137	0xba90bacf	-0.0011042001
138	0x3d12f033	0.035873603
139	0x3d6820cc	0.056671903
140	0xbb3ab89d	-0.0028491386
141	0xbd5735fd	-0.05254172
142	0xbd5cc494	-0.05389841
143	0x3ac8421c	0.0015278491
144	0xbd1add87	-0.03780892
145	0x3d1fe54c	0.039037034
146	0xbd87e087	-0.06634622
147	0x3d0d144a	0.034443177
148	0x3c535cef	0.012900575
149	0x3cb953ca	0.022622962
150	0xbd1bf344	-0.038073793
151	0xbd0e1cf6	-0.034695588
152	0x3d58fef4	0.052977517
153	0xbd08bd48	-0.033383638
154	0xbb1dfef0	-0.0024108253
155	0x3cfda6af	0.03096327
156	0xbd177b3f	-0.03698277
157	0xbcc6d3f7	-0.024270995
158	0x3b23718a	0.00249395
159	0xbc7ecb13	-0.015551346
160	0x3cb8bd65	0.022551248
161	0x3c9472a2	0.018121067
162	0x3ce6090a	0.028080482
163	0x3c49e12d	0.0123217525
164	0xbd45f1bd	-0.048326243
165	0x3d34d3c4	0.044147268
166	0x3cceb636	0.02523337
167	0xbd732ee8	-0.059370905
168	0x3d01d96a	0.031701483
169	0x3be995de	0.0071284613
170	0x3d0ab207	0.033861186
171	0xbb6d5898	-0.0036216136
172	0x3d14c4b4	0.036320403
173	0xbb823413	-0.003973493
174	0x3c4569bd	0.012049136
175	0xbd180484	-0.03711368
176	0x3d0f3d57	0.034970608
177	0xbd78d530	-0.060750186
178	0x3d60fc71	0.054928247
179	0x3b8cc70a	0.0042961882
180	0xbc6fd4b2	-0.014638113
181	0x3d38a03e	0.045074694
182	0x3d0ead09	0.034832988
183	0xbc063610	-0.0081916
184	0xbd5bb03d	-0.05363487
185	0xbd329df5	-0.04360767
186	0x3d932ce1	0.07186294
187	0xbd827f2a	-0.06371911
188	0x3c9929f1	0.018696757
189	0x3d01d3aa	0.031696
190	0x3cbbd586	0.022928964
191	0xbcc082dd	-0.0234999
192	0xbd327b63	-0.043574702
193	0x3cd477fa	0.025936116
194	0xbd16551c	-0.03670226
195	0x3d1193fb	0.035541516
196	0x3d3ff290	0.046862185
197	0x3d3f17f6	0.04665371
198	0xbce6b600	-0.028162956
199	0xbcfddac4	-0.030988105
200	0xbd355943	-0.04427458
201	0xba56c55a	-0.000819286
202	0x3cc04952	0.023472462
203	0xbd29488b	-0.041328948
204	0xbd110563	-0.035405528
205	0xbd2f086d	-0.042732645
206	0x3d2f3e62	0.042784102
207	0xbd17c4b0	-0.03705281
208	0x3d24e11d	0.040253747
209	0xbbe8bfed	-0.0071029575
210	0x3d45ca03	0.048288357
211	0x3a683fe7	0.000885962
212	0xbd84d132	-0.06485213
213	0x3d658ecf	0.056044396
214	0xbce5fc8d	-0.028074527
215	0x3c06b8dc	0.008222785
216	0x3d4de154	0.050263718
217	0x3c96abfc	0.018392555
218	0xbd8ad3a1	-0.06778646
219	0x3cb3ee5e	0.021964248
220	0xbc687646	-0.014188355
221	0xbcd2fe5d	-0.025756055
222	0xbb8c21bf	-0.004276484
223	0xbc85c927	-0.016331268
224	0xbcf9c25a	-0.030488182
225	0x3d4dd0d3	0.05024798
226	0x3d035c2a	0.032070316
227	0x3d013918	0.03154859
228	0x3ce2bc0f	0.027677564
229	0x3d5e4610	0.054266036
230	0xbc7c0a87	-0.015383369
231	0xbd64f219	-0.055894945
232	0x3c889e35	0.016677001
233	0xbd1f3714	-0.038870886
234	0xb95270dc	-0.00020069204
235	0xbd174095	-0.036926825
236	0x3ba060a3	0.0048943325
237	0xbc7e9fa7	-0.015540994
238	0x3bc97777	0.0061482745
239	0xbc96ef0c	-0.018424533
240	0x3ce50ca4	0.02796013
241	0xbcc44032	-0.023956392
242	0x3d631ff9	0.055450413
243	0xbd10c37e	-0.035342686
244	0xbc204157	-0.009781203
245	0xbd51248c	-0.051060244
246	0x3a231015	0.0006220353
247	0x3cd2cef3	0.025733447
248	0xbb95035c	-0.0045475196
249	0x3cc3cb70	0.023900717
250	0x3c6ee21f	0.014580279
251	0xbd7c9332	-0.061663814
252	0x3d07f364	0.0331911
253	0xbd482eb5	-0.04887267
254	0xbcee5c28	-0.029096678
255	0x3d1c7e06	0.038206123

_module.layer5.0.bias f4 [64]
0	0x3d5d40e2	0.054016955
1	0xbd5dff12	-0.054198332
2	0x3cbface4	0.02339787
3	0xbc4c759a	-0.01247921
4	0xbbfc9c5e	-0.00770907
5	0x3bab2488	0.0052228607
6	0xbbe4f51d	-0.0069872276
7	0x3c8f01bd	0.017456884
8	0xbc3c2451	-0.011483268
9	0xbd210ff4	-0.039321855
10	0xbd2cd68e	-0.042196803
11	0xbcccf6f8	-0.025020108
12	0xbbf7445d	-0.0075459913
13	0xbd285877	-0.04109999
14	0x3d2f33c2	0.04277397
15	0x3bc57750	0.006026186
16	0xbcb784a9	-0.022402124
17	0x3d16c10b	0.036805194
18	0x3c0bdc20	0.008536369
19	0x3cb4f2e9	0.022088485
20	0xbcd87c44	-0.026426442
21	0x3d0bc728	0.034125477
22	0x3c016f73	0.007900107
23	0xbd6092b8	-0.054827422
24	0x3d39fd87	0.0454078
25	0x3cb038c4	0.021511443
26	0x3cd6e169	0.02623053
27	0x3d2ee366	0.042697333
28	0xbd1a0389	-0.037601028
29	0xbb806902	-0.003918768
30	0x3cc46f63	0.023978895
31	0xbc9607c6	-0.018314254
32	0xbcaa48b4	-0.02078662
33	0x3d4f4fb6	0.050613128
34	0xbd66b3e1	-0.05632389
35	0x3d3dbd91	0.046323363
36	0xbd2f918f	-0.042863425
37	0x3c951f0a	0.018203277
38	0x3cc2e3cb	0.02379026
39	0x3cbb665f	0.022875963
40	0xbcdd09b2	-0.026982162
41	0xbd4cb337	-0.0499756
42	0xbd85c861	-0.0653236
43	0xbcef95bb	-0.029246202
44	0x398ae029	0.00026488423
45	0xba976b92	-0.0011552444
46	0x3c573d2e	0.013137145
47	0xbbb56c97	-0.0055366266
48	0xbcdc012d	-0.02685603
49	0xbc9ea38b	-0.019365093
50	0xbd5339f7	-0.05156895
51	0xbd46765f	-0.04845273
52	0xbc7008b9	-0.014650517
53	0x3d17d7dd	0.037071098
54	0x3cc2ded1	0.023787888
55	0xbcb9a5d9	-0.02266209
56	0x3b277b61	0.0025555717
57	0x3ad5dc97	0.0016316351
58	0xbccaf963	-0.02477712
59	0xbcf749e8	-0.030186608
60	0xbd38d61d	-0.04512607
61	0x3bad2aec	0.0052846577
62	0x3cab65d3	0.020922577
63	0xb930b2cf	-0.0001685128

_module.layer5.1.weight f4 [64]
0	0x3f7fb4b6	0.9988512
1	0x3f853505	1.0406805
2	0x3f827d4c	1.0194488
3	0x3f8198ee	1.0124795
4	0x3f7b5401	0.98175055
5	0x3f86489a	1.0490906
6	0x3f7f99d4	0.998441
7	0x3f7c31f0	0.985137
8	0x3f825786	1.018296
9	0x3f7a9baf	0.97893804
10	0x3f804480	1.0020905
11	0x3f76a8c2	0.96351254
12	0x3f82a618	1.0206938
13	0x3f80425b	1.002025
14	0x3f818a5e	1.0120351
15	0x3f821c61	1.016491
16	0x3f81aab7	1.0130223
17	0x3f7c4ac6	0.98551595
18	0x3f83c56b	1.0294622
19	0x3f7f9552	0.9983722
20	0x3f81d084	1.0141759
21	0x3f80bcc4	1.0057607
22	0x3f78a509	0.97126824
23	0x3f7e5af4	0.99357533
24	0x3f81060d	1.0079972
25	0x3f85403e	1.041023
26	0x3f85feec	1.0468421
27	0x3f81deca	1.0146115
28	0x3f8204f8	1.0157766
29	0x3f76f49e	0.96467006
30	0x3f8386aa	1.0275471
31	0x3f827e41	1.019478
32	0x3f795eea	0.9741045
33	0x3f807607	1.0036019
34	0x3f783825	0.9696067
35	0x3f808be1	1.0042688
36	0x3f84a9bf	1.0364302
37	0x3f848731	1.0353757
38	0x3f81de9d	1.0146061
39	0x3f802fec	1.0014625
40	0x3f860371	1.04698
41	0x3f820c69	1.0160037
42	0x3f825220	1.0181313
43	0x3f80c667	1.0060548
44	0x3f836111	1.0263997
45	0x3f86f56b	1.0543646
46	0x3f82fa4b	1.0232633
47	0x3f7de137	0.99171776
48	0x3f7f759a	0.9978882
49	0x3f808e73	1.0043472
50	0x3f7f9dde	0.9985026
51	0x3f82416b	1.0176214
52	0x3f7ff8f9	0.9998928
53	0x3f7eb620	0.9949665
54	0x3f798a50	0.97476673
55	0x3f80edaf	1.0072535
56	0x3f7d7bb5	0.99016887
57	0x3f810611	1.0079976
58	0x3f8081b8	1.0039587
59	0x3f7e037f	0.99224085
60	0x3f80dfa4	1.006825
61	0x3f803660	1.0016594
62	0x3f7cdca7	0.9877419
63	0x3f846461	1.0343133
