weights/pretrain_normalrotated__finetune_normal.pth (torch, 947016 bytes, 26 tensors)

layer1.0.weight f4 [16, 1, 3, 3]
000000 b2 b1 c1 3c 5b ee 92 be 1a 6e 1b 3e 06 f7 03 3e
       0.023644302 -0.28697476 0.15178719 0.128872
000010 c7 f4 25 be cb bd 1f 3e 94 5b 0b bc ac ab 01 be
       -0.16206656 0.15599744 -0.008505721 -0.12663144
000020 5f b5 c7 3d 0b ed 28 3d 81 ee 73 bd f8 09 d6 bd
       0.09751391 0.041241687 -0.059553627 -0.1045112
000030 60 01 8b 3e 7f b6 87 bb 97 49 59 3d 00 ea 8a be
       0.27149487 -0.0041416283 0.053048696 -0.27131653
000040 b8 71 dc 3d ed 2d 31 be 86 de 80 bd 1b f2 ab 3e
       0.10763878 -0.17302676 -0.06292443 0.3358315
000050 6e 95 d9 bd ce bb 24 be 07 00 6c 3e 7c 85 23 3e
       -0.106242046 -0.16087267 0.23046885 0.15968889
000060 b6 41 a2 bd 83 bd d2 bc 23 1f ec 3d 9a 14 7a 3e
       -0.079226896 -0.025725132 0.11529376 0.24421921
000070 2a 42 35 be 71 94 32 3b 73 b0 81 be 9f 58 5e 3e
       -0.17701021 0.0027249123 -0.25329933 0.21713494
000080 55 6b a4 3e 14 e3 83 3d f0 af 90 3e 24 bf c0 bc
       0.32113138 0.06439796 0.2825923 -0.023528643
000090 20 b9 b1 bc 1f 04 0b 3e af fd 97 3e 39 b4 74 be
       -0.02169472 0.13575791 0.29685733 -0.23896874
0000a0 14 7b 9d 3e f0 80 d1 bc e7 39 27 be 1a e1 5d 3e
       0.30757964 -0.025574178 -0.16330682 0.216679
0000b0 64 6d 47 bd 0d 04 75 be c5 d2 a1 3e 8a 4f 5d be
       -0.048688307 -0.23927327 0.31606117 -0.21612373
0000c0 b5 60 da bd 0c 90 83 be 9b a7 15 3e 11 4f 9a 3e
       -0.10662977 -0.25695837 0.14614718 0.30138448
0000d0 ef 5e 54 be 15 d2 57 bd 82 fb 94 3e 27 39 7b be
       -0.2073934 -0.052690584 0.29098135 -0.2453352
0000e0 d7 58 7d 3e a0 54 2a be a2 70 9b 3e d9 d9 c9 3d
       0.24740921 -0.16633844 0.3035937 0.09856004
0000f0 e3 8b 27 3e eb 5b 55 3e 43 32 84 3e ed 75 68 3d
       0.16361956 0.20835845 0.25819597 0.056753088
000100 31 ca 2a be 4b 45 a4 be c6 4c 23 3d 42 54 3e 3e
       -0.16678692 -0.32084116 0.03986814 0.1858683
000110 45 6d bc bd 0d 68 d3 3d 38 f5 8e be 33 c4 40 3e
       -0.09200529 0.103225805 -0.27921462 0.18824844
000120 4f 4f 94 3e 38 1a ff 3d ca 17 02 bd 63 fa 8d be
       0.28966758 0.12456173 -0.03176097 -0.27730092
000130 ac 2b 97 be f5 5a 92 3e 77 3c 6f 3e a7 ff 71 be
       -0.29525506 0.2858502 0.2336291 -0.2363268
000140 a1 0b 03 3e c4 e5 54 be ae bb 97 3e f3 05 ee 3d
       0.12797405 -0.20790774 0.29635376 0.116222285
000150 c2 17 c0 bd 6b db bd 3d 1f 9d bf 3c 82 15 38 be
       -0.093795314 0.09270366 0.02339035 -0.17976955
000160 24 dc 8e 3e a4 92 8c be bc 69 0e 3c 0a a3 6d be
       0.2790233 -0.27455628 0.008692201 -0.23206726
000170 ea a4 cf 3d 0d 62 75 be d2 60 a7 bd ed bc 88 3e
       0.10138877 -0.23963185 -0.08172764 0.2670664
000180 5f 63 d0 bd 20 f1 73 3c 5c ec 5a be 0b a0 01 3e
       -0.101752035 0.014889032 -0.21379226 0.12658708
000190 6e 8e b1 bd 4e a9 9b be 33 f8 15 3e 97 53 d9 3d
       -0.086697444 -0.30402607 0.14645462 0.106116466
0001a0 40 d8 88 3e fc 51 3a 3e 93 20 99 3e 88 62 66 bc
       0.26727486 0.18195337 0.29907665 -0.014061578
0001b0 03 8a 37 3e 10 37 8b be 11 f3 56 3e 99 01 af bc
       0.17923741 -0.27190447 0.2099116 -0.021363067
0001c0 2c 4d 2e 3d d0 2a 90 3d b5 93 be 3e ef a3 a4 be
       0.042554066 0.07039416 0.37222067 -0.3215632
0001d0 49 59 8e be 9d 54 a1 bd 2a 29 c1 3c e4 fb 70 3d
       -0.27802494 -0.07877467 0.023579199 0.05883397
0001e0 97 89 95 3d 40 00 ed bc e8 fb 93 bd 33 c1 1b be
       0.07301634 -0.028930783 -0.07225782 -0.15210418
0001f0 85 61 26 3e 1f 59 4d 3e 5b d2 0e 3e 3e 51 ca 3d
       0.16248138 0.20053528 0.13947432 0.09878777
000200 b0 6e 2d bc 15 00 06 3e 50 7a 95 bd d0 97 87 3d
       -0.010585472 0.13085969 -0.0729872 0.06620753
000210 cf ec fb 3c 48 f4 81 be b9 16 a6 be eb e0 7c 3e
       0.030752568 -0.25381684 -0.3243921 0.24695174
000220 00 20 a4 3e 06 2a f3 bc b6 02 c1 3d 37 3c 03 be
       0.32055664 -0.029683124 0.09424345 -0.12815939
000230 39 ae 01 3e 0a 03 09 3e 36 99 f5 bd ac 4a 84 bc
       0.12664117 0.13380066 -0.11992113 -0.016148888

layer1.0.bias f4 [16]
000000 02 f5 f9 bd 44 4b 7a 3e 77 1a 22 be bf e5 a2 bd
       -0.12204935 0.24442774 -0.15830408 -0.07953977
000010 f4 ef 9c be 50 ca 2b be 95 5e 2a 3e 40 fc f7 3b
       -0.3065182 -0.16776395 0.16637643 0.0075679123
000020 0f c4 fe 3d df 54 9d 3e a5 bd 6f be e4 5b 91 3d
       0.12439739 0.30728814 -0.23412187 0.07097605
000030 75 47 1b be b7 bf 45 be 58 be d1 bd dc 39 24 3e
       -0.15163977 -0.19311415 -0.10241383 0.16037697

layer1.1.weight f4 [16]
000000 d5 7d 81 3f e2 13 7f 3f c4 e1 81 3f f4 30 80 3f
       1.0116526 0.99639714 1.0147023 1.0014939
000010 8c 88 88 3f 20 8e 7f 3f 45 81 7d 3f 8a d5 81 3f
       1.0666671 0.9982624 0.99025375 1.0143292
000020 b8 ff 82 3f 63 32 77 3f 60 b0 7e 3f ea 7d 7e 3f
       1.0234289 0.9656126 0.99487877 0.9941088
000030 41 92 85 3f cf 06 82 3f c1 09 82 3f 4b a7 7f 3f
       1.0435258 1.0158328 1.0159227 0.99864644

layer1.1.bias f4 [16]
000000 6d 46 86 3c 67 d8 9c bb c1 3b 1f 3c 35 d5 51 bc
       0.016391004 -0.0047865394 0.009718836 -0.01280718
000010 b1 76 e4 3c 5e 7d e5 3a b8 04 a8 bc 24 2d b7 bb
       0.027888628 0.0017508676 -0.020510063 -0.005590098
000020 dc 93 08 bd cc b1 3d bd e6 af d0 3c f0 4d 4e bc
       -0.033344135 -0.04631214 0.0254745 -0.012591824
000030 8a 0f 05 3d f5 9b c6 3c 34 85 bb 3c 43 b1 7a bc
       0.032485522 0.024244288 0.022890665 -0.015301052

layer2.0.weight f4 [16, 16, 3, 3]
000000 60 69 58 3d ee 2a 44 bd f9 d9 6c bd ac 71 3a 3d
       0.05283487 -0.047892503 -0.057825062 0.045518562
000010 bd 77 8b 3c dc 69 2f bd 95 6c f4 3c 0d 0c ac 3d
       0.01702487 -0.042825565 0.029836932 0.08400736
000020 d1 24 90 3d 65 70 4d bc a9 eb 5c 3d 55 e9 fa bc
       0.07038272 -0.012539004 0.05393568 -0.03062884
000030 81 1b 9f bc fb 26 9e bd 7e b7 d3 3c 95 3b cd bc
       -0.019422295 -0.07722279 0.025844332 -0.025052825
000040 0e b7 61 bd 3b d2 23 bd 49 e8 ae 3d 5c 3f 62 bd
       -0.055106215 -0.039995413 0.08540399 -0.055236205
000050 f3 24 31 3d f9 e1 49 3d ac d3 ec 3c 01 53 52 3d
       0.04324813 0.04928777 0.028909527 0.05134869
000060 0a b9 e4 3d eb c2 c8 3c df 63 83 3c 16 79 ed 3d
       0.11168106 0.024507007 0.016038833 0.11595361
000070 86 c2 d8 3c d0 0c 19 3d 52 82 e5 ba f3 1a c5 3d
       0.026459944 0.037365735 -0.0017510152 0.09624281
000080 ca ff 69 bc 40 18 94 3d 44 ed 6e 3d 21 5d 70 bd
       -0.014282176 0.07231188 0.058331743 -0.058682565
000090 3b 7f d2 bc 88 e8 93 bd 94 be df bd 4f 9d b7 3a
       -0.025695434 -0.07222086 -0.10925022 0.0014008674
0000a0 a3 ef eb 3d 33 e9 3f bd c7 d9 53 bd 67 71 f1 3c
       0.115203165 -0.046853255 -0.05172136 0.02947302
0000b0 5d 11 95 3c 3d f1 08 3d e6 e7 3b 3d 10 6a 27 3b
       0.018196756 0.033433188 0.045875452 0.0025545396
0000c0 10 05 95 3d 7c 67 27 bc 53 be 8e bc 02 20 95 bd
       0.07276356 -0.010217544 -0.017424738 -0.07281496
0000d0 b9 c9 fa bc a1 1f 66 bb 9d 0c 18 3c ff 43 bd 3d
       -0.030613767 -0.0035114067 0.009280351 0.09241485
0000e0 02 a4 8b bc f3 71 2d 3d 0f b8 54 3d 11 1c 17 3d
       -0.017045978 0.042345 0.051933344 0.036892
0000f0 98 78 8a 3d 1b 4a 21 3d 6f 69 65 3d 57 6c 50 3c
       0.06761283 0.039377313 0.056008752 0.012721143
000100 21 ae 9b bc d5 d4 e3 bc de 26 24 3d 7e 75 d4 bd
       -0.01900393 -0.027811447 0.04007613 -0.10373972
000110 36 e3 76 bd 8b c7 a5 3b 3d 0e e7 bc 8a 19 d4 3c
       -0.06027528 0.0050591878 -0.028205032 0.025891084
000120 51 a8 66 3d 38 77 16 bd 1f cd 53 bd ea 60 6b bd
       0.056312863 -0.03673479 -0.05170929 -0.05746547
000130 15 a0 6c 3d 26 b5 52 3d f2 df e5 bd 33 98 82 3d
       0.057769854 0.051442288 -0.11224355 0.06376686
000140 26 ce 51 3d 7b 33 93 bc 97 35 0e bd 63 3d 09 bd
       0.05122199 -0.017968884 -0.034719076 -0.03350581
000150 39 16 d3 3d 76 39 16 3d d7 08 8c bc e3 47 5f 3d
       0.10306973 0.036675893 -0.017094059 0.054511916
000160 4b 08 ee 3c 2c 47 55 3d ea 6c 7d bd 35 a3 2c bd
       0.029056689 0.052069828 -0.061871447 -0.042147834
000170 9f e6 08 3d 50 d9 6d bd de 30 ac bc 0e 08 05 3d
       0.033423062 -0.058068573 -0.021019395 0.032478385
000180 a7 74 a5 3d 02 18 de 3c 73 cd 38 3d d6 6f ca 3d
       0.0807889 0.027111057 0.045117807 0.09884612
000190 98 f8 97 3c d3 16 05 3b 0b 02 d3 bc 52 8d 31 3d
       0.018551156 0.0020307794 -0.02575781 0.043347664
0001a0 ff b6 65 bd a8 78 17 3d a6 35 7c 3d db 1d be bd
       -0.05608272 0.0369803 0.0615746 -0.09283038
0001b0 f2 23 9e bc 88 e6 41 3c d2 31 98 bd f9 f0 30 bc
       -0.01930425 0.011834748 -0.074313775 -0.01079964
0001c0 d3 57 10 bd c9 4b 0b 3d ff f2 5c 3d 34 f5 9c 3d
       -0.035240006 0.03400782 0.053942677 0.07663956
0001d0 3a 25 9b 3d 5f cf 90 3d 76 c7 88 3d b1 58 88 3d
       0.0757546 0.07070803 0.06678669 0.066575415
0001e0 c3 b1 4d 3d 27 29 db 3d 4b bc 63 bd 08 c0 2d 3d
       0.050218355 0.107012086 -0.055599492 0.042419463
0001f0 d9 93 c7 bc 08 c4 32 3c 2b 71 27 3d 21 81 e8 3c
       -0.024362491 0.010910995 0.04087941 0.028381886
000200 42 d7 aa bd 06 73 54 3c 8e e6 21 3d 3f 41 8e bd
       -0.083418384 0.012966877 0.039526515 -0.069460385
000210 79 b8 34 3a 8f 9c 4f bb e3 de 0f 3d 56 0d 82 3d
       0.00068939436 -0.003167901 0.03512467 0.063502
000220 ce 54 99 3d c2 a4 b0 3d dd be 6e 3d 88 72 b1 3d
       0.07486878 0.08625175 0.05828749 0.08664423
000230 82 d5 11 bd da 06 88 bd 46 db 55 3d 63 c8 87 bd
       -0.035604008 -0.06641932 0.05221107 -0.066300176
000240 cf 0a 6f 3d a3 2e b0 bd 2e d0 0a bc 4b e2 ce bd
       0.058359917 -0.08602645 -0.0084724855 -0.10101756
000250 38 75 96 bd 52 fa 52 bd a8 99 94 bd ac 15 9d 3c
       -0.073465765 -0.051508255 -0.0725587 0.019175373
000260 0e 90 a2 bd d5 35 6a bc 78 10 d1 bb cd 56 89 bc
       -0.079376325 -0.014295061 -0.006380137 -0.016765023
000270 e2 c3 e9 3c 85 09 ac 3d 10 f1 1d bc ed 35 8e 3d
       0.028535787 0.08400253 -0.009639993 0.06943879
000280 d9 ab 5e 3d 51 fa aa 3d 4d 96 f1 3c 18 37 3f 3b
       0.054363105 0.08348525 0.029490614 0.0029177126
000290 0e 42 0b 3d 9e 0f 31 3d 74 47 01 3d 9c fb 9e bd
       0.03399854 0.043227784 0.031562284 -0.077628344
0002a0 21 04 04 bc 46 0f dd 3c de e3 8e bd df 1d 23 3c
       -0.008057625 0.026984822 -0.06977056 0.009955852
0002b0 1f bf 96 3b e4 06 6e 3c c2 f4 72 bd b3 c6 89 bd
       0.00460042 0.01452801 -0.05931545 -0.06727352
0002c0 f8 73 06 bd 3a 61 a4 3d 5f 41 c7 3c 71 17 ae bc
       -0.03282544 0.08026357 0.024323164 -0.021251412
0002d0 a9 5d 49 bd 0f c9 9c 3d fd 42 c7 bc 62 90 4d bd
       -0.049161587 0.076555364 -0.024323935 -0.050186522
0002e0 c2 8f 62 bd 54 06 ab bc 0a 8f 46 3d de 4b 3b bd
       -0.05531288 -0.02087704 0.048476256 -0.04572665
0002f0 ef 44 92 bd 00 c2 7b bc 77 33 25 3c dd 8e ab 3d
       -0.07142054 -0.015366077 0.010083071 0.083768584
000300 0c c7 c2 bb fa ea 3c 3d b3 65 61 bd 5c 8b 86 bd
       -0.0059441384 0.04612253 -0.05502863 -0.065695494
000310 bb c8 3d bc 8a 02 6c bc 49 1d 00 bd 1b ff 13 bd
       -0.011583502 -0.014404902 -0.03127793 -0.03613196
000320 3e 8d 99 3d 0c 05 18 3d 9a dd 78 bd 5a af 80 bd
       0.07497643 0.037114188 -0.06075821 -0.06283446
000330 4b 52 ac 3d a7 29 1c 3d c8 01 53 bd 81 b8 52 bd
       0.08414134 0.03812566 -0.05151537 -0.051445488
000340 0a 57 71 bd b3 41 59 bc a6 91 0b bd f5 80 88 bd
       -0.058920898 -0.013260293 -0.034074448 -0.066652216
000350 82 a4 9f bd 48 75 93 bd 75 09 39 3d 87 d2 48 bc
       -0.07795049 -0.07200104 0.045175035 -0.012257225
000360 8a c3 d0 bd d7 4a 91 bd 38 4f 06 bd 76 83 c5 3b
       -0.10193546 -0.07094353 -0.032790393 0.0060276343
000370 78 ef 9c bd 15 01 c9 3c 11 98 b7 3d 6f d9 3b bd
       -0.076628625 0.024536649 0.08964551 -0.045861658
000380 bc 24 20 3d 78 ad 74 bd 17 ea 73 3d f5 c3 c8 bc
       0.039097533 -0.059735745 0.059549417 -0.024507502
000390 fe c2 9f bd c7 e8 7e 3d bf 0c 40 3d f8 97 9d 3d
       -0.07800864 0.062233713 0.046887156 0.07695001
0003a0 ad 94 b6 bd 93 bc a2 3d bf 17 69 3d 04 f7 85 ba
       -0.089150764 0.07946124 0.05690741 -0.0010220711
0003b0 8c e1 1f 3d 09 84 c0 bd a3 03 0a 3c f2 69 1d 3b
       0.039033458 -0.09400184 0.008423719 0.0024019447
0003c0 b6 7e 54 bd 22 a0 b6 b9 fe 1e 06 3b e2 86 0a 3d
       -0.051878653 -0.00034833053 0.002046525 0.03382004
0003d0 1d 0b 32 bd ff 9b 4c bd 65 1f 67 3d 13 fe 9c 3d
       -0.04346763 -0.049953457 0.056426425 0.07665648
0003e0 aa 8d 87 bc 7d 6a 90 bc c3 4d af 3d e4 69 26 3d
       -0.016547043 -0.017628903 0.08559754 0.04062833
0003f0 e4 b4 06 3d d5 4c d2 3d b2 ee 4b bd ff 20 01 bd
       0.032887354 0.10268561 -0.049788184 -0.03152561

layer2.0.bias f4 [16]
000000 85 91 0d bc 57 a9 44 bd 42 33 b4 bd 6c b4 68 3d
       -0.008640652 -0.048013058 -0.08798839 0.05681269
000010 0c b3 19 bd ab 31 85 bd 83 e6 aa 3d ba 4c 39 3d
       -0.037524268 -0.06503614 0.08344748 0.045239188
000020 7a f6 9a 3d 90 9e 41 bc 3c 5c 78 bb f4 1c e8 bc
       0.07566543 -0.011817589 -0.0037896773 -0.028334118
000030 97 81 b3 3b c0 65 c9 bc a2 59 f3 3c 7d e6 89 3b
       0.005478095 -0.024584651 0.029705826 0.0042083845

layer2.1.weight f4 [16]
000000 14 28 7a 3f ae 09 81 3f 86 ea 7a 3f 65 93 7e 3f
       0.97717404 1.0081079 0.98014104 0.99443656
000010 db ec 81 3f fb 58 7e 3f 07 42 80 3f 4d 47 80 3f
       1.0150408 0.99354523 1.002015 1.0021759
000020 4c 9f 7f 3f 3a 33 84 3f 8a 97 7b 3f ac 9b 81 3f
       0.9985244 1.0328133 0.98278105 1.0125632
000030 fc e0 79 3f e5 81 80 3f 49 83 7f 3f ce 63 84 3f
       0.97608924 1.0039641 0.998097 1.0342958

layer2.1.bias f4 [16]
000000 d3 70 36 bd 0f c3 c2 bb 59 b7 b4 bc 9e f5 89 3a
       -0.04454119 -0.005943663 -0.022060083 0.001052547
000010 43 3a 32 bc a9 0f f3 3b b0 45 f1 bb 11 da 71 3b
       -0.0108781485 0.0074176383 -0.0073630437 0.003690366
000020 a9 c4 6d bc fa 4b f4 3b 29 70 c1 bb 7b a8 dd b8
       -0.0145122195 0.007455346 -0.005903263 -0.00010569483
000030 d9 8a f6 bc 87 0d b3 3b 83 c9 cf ba 8f 2d 0d 3c
       -0.030095505 0.005464259 -0.0015852902 0.008616819

layer3.0.weight f4 [64, 16, 3, 3]
000000 e0 3d ba bd 49 3d cd bd 2e c0 a2 bd 3e 36 05 bd
       -0.09093833 -0.10021455 -0.079468116 -0.032522433
000010 a1 fe bb bd 19 ad 12 3d 23 1d 74 3d 95 62 9d 3c
       -0.09179426 0.03580961 0.0595981 0.019212047
000020 bd ec a8 bc 3f ce 3e 3d 64 7d 67 3d ca a8 06 3d
       -0.020620698 0.04658341 0.056516066 0.032875814
000030 6a d6 6b 3d 07 c3 ee 3a ad d8 32 bc 97 1c 2f bd
       0.057577528 0.0018216082 -0.010915917 -0.042751875
000040 20 44 a7 3c d0 fe d8 3d 61 dc 88 3d c8 ef 57 3d
       0.020418227 0.105954766 0.06682659 0.052718908
000050 25 3b 10 bd 98 f6 4d bd 22 b2 04 3c 4d de 42 bc
       -0.035212655 -0.050284 0.008099111 -0.011893821
000060 37 59 b9 3d 50 11 7b 3d b3 54 bc 3d aa e2 20 bd
       0.090502195 0.061295807 0.091958426 -0.039278664
000070 90 25 45 bd eb 5a 71 3d 07 50 ee bc f1 2d 17 3d
       -0.048131526 0.058924597 -0.029090894 0.036909048
000080 1c 34 f2 bc fc 84 1e bd 5f 09 8b bc 69 0c 82 bd
       -0.029565863 -0.038701043 -0.016972242 -0.06350023
000090 98 d1 c7 3c a1 24 3d bb e6 c4 97 3d 26 80 b8 bd
       0.024391934 -0.0028860944 0.07410602 -0.090088174
0000a0 cf e8 6a 3d 3e ee 12 3d 51 da b3 bd d4 e2 31 bc
       0.05735093 0.035871737 -0.08781875 -0.010857303
0000b0 98 a3 c5 bc b0 dd 2a bd 73 3a 71 3d fe 12 fd bc
       -0.02412586 -0.041715324 0.058893632 -0.030892845
0000c0 59 f1 15 3d c3 92 21 bd 7b da b8 3d d8 41 8e bd
       0.03660712 -0.039446604 0.09026047 -0.069461524
0000d0 6e f6 f0 bb 94 ca 9f 3d 9d 53 19 3d 98 66 43 bd
       -0.0073535955 0.078023106 0.037433255 -0.047705263
0000e0 93 fd 86 3d 60 ba 82 3d 1a 53 2a bd 6b 1d 3e bd
       0.06591334 0.063832045 -0.041583158 -0.046414774
0000f0 f4 41 8e bc c9 d3 9b 3d be 60 97 3d 1b 6b 3e bd
       -0.017365433 0.07608754 0.07391499 -0.046488862
000100 7a 2e ef bd 12 2b 1f 3d 2b 81 b5 bc ca 63 d8 bc
       -0.116787866 0.038859434 -0.022156319 -0.02641477
000110 05 df 8b bd 7e eb 9e bc f1 e5 9b 3d 78 88 b8 3c
       -0.06829647 -0.0193994 0.07612217 0.02252601
000120 26 89 3b 3c f2 6e 56 3d 4c c8 a6 3d 24 89 9d 3d
       0.011446273 0.0523519 0.08143672 0.07692173
000130 0d 0e 3a 3d 08 ca 21 bd e7 4d 44 bd 16 32 d9 bc
       0.045423556 -0.039499313 -0.047925856 -0.02651314
000140 6b ba 3c 3d 88 cc 0f 3c 5e bb d7 bd 18 8f d8 3b
       0.04607622 0.008776791 -0.10533784 0.006608855
000150 e7 91 b0 3c d9 1d 78 bd fb b3 83 bd e9 ac fd 39
       0.021553947 -0.06057534 -0.06430813 0.00048384749
000160 2a c8 d3 bb ee 1e 71 3d cb 34 96 bd c4 4e 3a bd
       -0.0064630704 0.058867387 -0.07334288 -0.045485273
000170 60 f9 9a bd 45 58 b4 3b fe 69 47 bd 6c 8c 3b 39
       -0.07567096 0.0055036866 -0.048685066 0.00017886021
000180 09 66 2a 3c 12 77 ea 3c 6c 45 70 bb ba 42 eb 3b
       0.010400304 0.02862123 -0.0036662472 0.0071795853
000190 e2 ea cd ba 4f 7e 34 3d 9f 31 81 3d fe 02 f0 b9
       -0.0015710259 0.04406577 0.063082926 -0.00045778597
0001a0 70 05 ef bc 03 dc 75 bd bd 07 f7 bc 47 cf b5 3c
       -0.029177397 -0.060024273 -0.030155057 0.022193564
0001b0 14 5b 09 3d 76 6c 99 bd 76 c2 59 3c 42 2f 61 bb
       0.033534124 -0.074913904 0.013290992 -0.0034360443
0001c0 92 3e 17 bd f0 26 fc bc 33 2a 3a bd 6a ec 16 3d
       -0.036924906 -0.030780286 -0.0454504 0.036846556
0001d0 4f ac 26 3d ad c2 16 bd 19 9b 89 bc 02 ff e8 3d
       0.04069167 -0.03680675 -0.01679759 0.11376764
0001e0 34 90 c4 3b 0d ee e4 bc 15 77 9a 3d ab 3f 05 3c
       0.0059986357 -0.027945543 0.07542244 0.008132855
0001f0 64 ed 3e bb d6 55 b6 bc 0a dd 8a 3d dd 97 6d 3d
       -0.0029133195 -0.022257727 0.06780441 0.058006156
000200 2b 56 8c 3d aa d0 e7 3c 50 93 23 3d 35 84 83 3d
       0.06852373 0.028297741 0.03993541 0.06421701
000210 41 50 6f 3d 55 a5 5c 3d 61 8f 99 3d 38 04 71 bd
       0.058426145 0.05386861 0.074980505 -0.058841914
000220 54 18 69 3d fe 6a 3f 3a 82 23 94 bd 24 2a ab bc
       0.056907967 0.0007302015 -0.07233335 -0.020894118
000230 58 62 1e bd a9 a1 77 3d e9 41 3e bc 93 9c b7 3c
       -0.038668007 0.060456906 -0.011612394 0.022413528
000240 a2 6a 24 bd a0 aa 94 3c 40 e3 a6 3d ce 8c 7d bd
       -0.040140755 0.018147767 0.08148813 -0.06190186
000250 26 78 51 3c 61 5b 18 bd 1d ca b9 3c 99 e1 80 bd
       0.012784993 -0.03719652 0.022679383 -0.06293029
000260 65 f2 90 bd 91 7a 83 3d 05 84 ad 3d 61 36 71 3d
       -0.07077483 0.06419862 0.08472446 0.05888975
000270 62 e6 27 bd e9 c5 bb 3d 2b 55 43 3d 64 c0 58 bd
       -0.040991195 0.09168608 0.047688644 -0.052917853
000280 30 d9 8e bd 44 72 06 bd 60 2d 35 3d e2 e2 86 3d
       -0.06975019 -0.032823816 0.044232726 0.06586243
000290 46 2f 25 3d f7 0f b3 3b 9e 32 84 3d c7 16 91 bd
       0.040328287 0.0054645496 0.06454967 -0.070844226
0002a0 3e 29 77 3c b6 a7 87 3d f0 57 84 3c 38 b6 6f bd
       0.0150855165 0.06623785 0.016155213 -0.058523387
0002b0 65 03 6a bd 47 27 a0 bb b6 8d f8 bb ea 15 9b bd
       -0.057132144 -0.0048874947 -0.0075852526 -0.07572539
0002c0 2c 6d 09 3d 1a f7 88 3d 0a 9e a7 3c 30 8d 62 bd
       0.03355138 0.06687756 0.020461101 -0.05531043
0002d0 50 7f 32 3d 88 17 a1 3d 85 b8 1e bd 29 1c 82 bd
       0.043578446 0.07865816 -0.03875019 -0.063530274
0002e0 83 6a 8a 3d e2 22 30 bd 6c 78 4c bd ef 5a cf bc
       0.06758597 -0.043002017 -0.04991953 -0.025311915
0002f0 13 83 36 bc ae 38 8d bd 58 f8 00 bd 81 97 70 bd
       -0.011139649 -0.068955764 -0.03148684 -0.058738235
000300 cb ad 1b bc 2b 81 1c bc 2c ea 57 3d 0e 5f 5e 3c
       -0.009501885 -0.00955228 0.052713558 0.0135724675
000310 e3 93 5d bc fa 71 f9 bc 1c 19 97 bd 44 da cf bc
       -0.0135240285 -0.030449856 -0.07377836 -0.025372632
000320 f4 a6 8e bc fe 0b e4 3b c6 2c b4 3c 6f e6 e8 bc
       -0.017413594 0.0069594374 0.021994006 -0.028430192
000330 0e c7 8b bd b6 ef 1a 3d c0 83 ad 3c 06 ec 50 bd
       -0.06825076 0.037826262 0.021180987 -0.05100634
000340 35 88 a6 3d e4 22 4a bd 92 d4 27 bc 80 06 55 3d
       0.08131448 -0.04934968 -0.010243552 0.052008152
000350 fc 47 11 bc d2 8c 41 3d c7 f2 09 bd b8 7e 74 bd
       -0.00886726 0.047253437 -0.033678796 -0.05969116
000360 20 d1 b4 3d 74 29 fa bb 6e ee 62 bd 8a f4 7d 3d
       0.0882895 -0.007634336 -0.055403166 0.06200079
000370 f9 24 a1 3c 0d c0 9e bd 27 62 c0 3d 9e 02 a7 bc
       0.01967095 -0.077514745 0.09393721 -0.02038699
000380 3c 80 da 3c 18 3b 0b 3d a7 a6 d0 3d d6 cd b0 3d
       0.026672475 0.033991903 0.101880364 0.0863301
000390 a5 94 83 3d 0e fb 57 bd 79 52 78 bd 4a 32 36 bd
       0.06424836 -0.05272966 -0.060625527 -0.044481553
0003a0 b8 67 aa 3c a4 b6 ef 3c dd 40 60 3d 63 c4 ae 3d
       0.02080141 0.029261895 0.05474936 0.085335515
0003b0 35 3a 97 bb 49 03 17 3d 68 f1 37 bd 98 3d ce 3d
       -0.004615093 0.036868367 -0.044907957 0.10070342
0003c0 1f 8e 25 3d a8 66 28 bc 10 9f b0 bd 4b e8 b6 3d
       0.04041874 -0.010278381 -0.08624089 0.08931025
0003d0 a8 f9 83 3d 6f 38 4d bd eb cc b9 3d 4e ff be bc
       0.064441025 -0.050102647 0.09072288 -0.023315098
0003e0 24 13 5d bd f6 52 aa 3d 0a 9d 66 3d 01 6d 94 bd
       -0.053973332 0.08316605 0.056302108 -0.07247353
0003f0 5c 4a 32 bc b0 52 0f bd cf 7c 75 bd 25 aa 51 3d
       -0.0108819865 -0.034990966 -0.05993348 0.051187653

layer3.0.bias f4 [64]
000000 f3 3b c0 bc f8 0c a2 bc a5 e2 84 bd 67 bd 62 3d
       -0.023466086 -0.019781575 -0.064885415 0.05535641
000010 6b 17 88 bb 3d df 82 3d c4 7f 10 3d 31 ae 5f 3c
       -0.0041531823 0.063902356 0.035278097 0.01365237
000020 2b a3 70 3d 60 2e 89 bd 6d 52 6f bd 95 9d 02 3d
       0.05874936 -0.066982985 -0.058428217 0.031888563
000030 00 4b 83 bb 49 0f 12 3d 2e 5d 66 bc 0c a9 7f 3d
       -0.0040067434 0.03565911 -0.014060302 0.062417075
000040 10 8f 3c bd ea 4a 48 bc 7b d4 59 3d 32 4f 4d bc
       -0.046034873 -0.012224892 0.053181153 -0.012531089
000050 27 7d 19 3d ac d2 ab 3c 76 95 84 bd 47 b3 91 3d
       0.03747287 0.02097448 -0.0647382 0.071142726
000060 7a ff 38 3c 20 2e 95 3d 10 36 93 3d d1 0a 35 3a
       0.011291379 0.07284188 0.07188046 0.0006906214
000070 48 57 04 3c f6 ff 44 bd 71 d3 9a 3b f7 96 85 bc
       0.00807745 -0.048095666 0.004724913 -0.016307337
000080 ef ce 46 bd 8f 62 8d 3d 7a 73 5a 3d bd dc ee 3c
       -0.04853719 0.06903564 0.053332783 0.02915799
000090 4d fb 13 3c 20 0b 9c bd ec 7c 1f bd 0e a2 37 bd
       0.009032083 -0.076193094 -0.038937494 -0.04483228
0000a0 0c 96 9e bd c0 af fd 3c 41 26 cf 3c 0d 8e 03 3c
       -0.07743463 0.030967593 0.025286796 0.008029473
0000b0 79 7d 94 3d f3 76 61 3c 0c d1 21 bd 68 fa 50 bc
       0.072504945 0.01376127 -0.039506003 -0.012755014
0000c0 b6 43 82 bd 70 a9 a5 3c 96 b5 b2 bd 51 25 83 3d
       -0.06360571 0.020222396 -0.08726041 0.06403602
0000d0 cb 8f b3 3c a9 24 6e 3c ac f5 3a bd 52 b9 90 3c
       0.021919152 0.014535108 -0.045644447 0.017666493
0000e0 eb 33 a4 3d 76 fc a3 3c 31 b9 98 bc fb 79 a3 3d
       0.08017715 0.020017844 -0.018642994 0.0798225
0000f0 5b 86 99 3d 6c 40 2d 3c 7c fd a7 3c de ec 63 bb
       0.074963294 0.010574441 0.020506613 -0.0034778635

layer3.1.weight f4 [64]
000000 c4 bf 84 3f b5 a3 7d 3f f3 0e 82 3f be fc 7a 3f
       1.0371022 0.9907792 1.0160812 0.98041904
000010 29 02 80 3f 02 3f 81 3f 83 82 7c 3f 2b da 83 3f
       1.0000659 1.0097353 0.98636645 1.0300955
000020 3a 37 7e 3f 34 45 80 3f 23 89 83 3f b1 40 81 3f
       0.9930302 1.0021119 1.0276226 1.0097867
000030 49 83 80 3f d0 9a 7e 3f ad 57 7f 3f 7a 2e 82 3f
       1.0040065 0.99454975 0.9974316 1.0170434
000040 40 f9 7a 3f 95 d8 7e 3f b1 30 81 3f 23 f3 84 3f
       0.98036575 0.9954923 1.0092984 1.03867
000050 58 f4 7b 3f dd 18 82 3f 4f 42 7b 3f 85 56 81 3f
       0.98419714 1.0163838 0.98148054 1.0104529
000060 ea 7c 80 3f 4c 54 80 3f e5 b9 82 3f 74 95 7d 3f
       1.0038121 1.0025725 1.021298 0.9905617
000070 ed 51 83 3f 31 11 81 3f b8 22 83 3f 86 4e 7d 3f
       1.0259377 1.0083371 1.024497 0.9894794
000080 c6 78 82 3f 03 38 80 3f eb 78 79 3f f3 a7 78 3f
       1.0193107 1.0017093 0.9745013 0.9713127
000090 e2 87 81 3f bc 8f 7a 3f 4a 2c 83 3f 99 39 79 3f
       1.0119593 0.9787557 1.0247891 0.9735351
0000a0 64 c2 7a 3f 49 34 7f 3f 5c 13 7b 3f 4b e3 7d 3f
       0.97952867 0.99689156 0.98076415 0.99174947
0000b0 f8 eb 79 3f 67 1b 84 3f fc 74 80 3f 67 a7 80 3f
       0.97625685 1.0320863 1.0035701 1.0051087
0000c0 d5 88 7b 3f 17 e0 85 3f 7a 01 75 3f a6 f2 78 3f
       0.98255664 1.0459012 0.9570538 0.9724525
0000d0 82 90 80 3f 89 91 81 3f b7 3b 81 3f 94 4c 80 3f
       1.00441 1.0122539 1.0096349 1.002337
0000e0 17 70 81 3f d2 93 82 3f eb d5 80 3f f8 10 81 3f
       1.0112332 1.0201361 1.0065283 1.0083303
0000f0 ce c9 81 3f 6c d5 7f 3f 3b f3 7f 3f a3 03 81 3f
       1.0139711 0.9993503 0.99980515 1.0079235

layer3.1.bias f4 [64]
000000 55 07 0e 3c 95 fa c6 bc 39 b4 7b 3a 68 13 e0 bc
       0.00866874 -0.024289409 0.00096017454 -0.027353004
000010 9d 6b 21 bc eb bc ca bb b9 eb bb bc d2 2c 22 bc
       -0.009852317 -0.0061870716 -0.02293955 -0.009898381
000020 bb b2 0d bc 06 92 13 bb 85 cd a8 3c 3e 12 3f 3c
       -0.00864857 -0.0022517457 0.020605812 0.011662064
000030 f9 c5 f4 bb c5 fc 88 bc f3 ca 0c bc d1 9b 01 bc
       -0.0074698892 -0.016722092 -0.008593309 -0.007910685
000040 9b e4 84 bc 54 a1 87 bc c6 a7 1d 3b 04 b9 f1 3c
       -0.016222289 -0.01655642 0.00240563 0.029507168
000050 88 e7 00 bc 8d ce 7c b9 80 74 fd 3b 99 dd 4f bc
       -0.007867701 -0.00024109539 0.007734835 -0.01268711
000060 0b e3 ea bc 97 ee 09 bc a5 15 a7 bc 83 16 a9 bc
       -0.028672716 -0.008418701 -0.020396063 -0.020640617
000070 5a 47 e6 3b 08 98 59 bc f1 18 0e 3c 23 fe ea 3b
       0.0070275487 -0.013280876 0.008672939 0.0071714087
000080 af b1 50 bb ed 41 8d bc 3d 4f 11 bd ce af fe bc
       -0.003184419 -0.01724335 -0.03547596 -0.03108969
000090 cf 1a ab bc 5e c8 5d 3b 3f 99 75 3c 6d 57 30 bc
       -0.020886807 0.0033841352 0.01499015 -0.010763031
0000a0 be 3b 24 bd 0a 12 95 bc 88 42 98 bc ed 24 6d bc
       -0.040096037 -0.018197078 -0.018586412 -0.014474136
0000b0 17 3f 0e bd f5 74 0c 3c 48 65 8c 3a e0 08 ba 3b
       -0.034728136 0.008572807 0.0010711337 0.0056773275
0000c0 2f 87 79 bc 8c c5 03 3d 62 ff 1d bd 1d 88 45 bd
       -0.015229984 0.032170817 -0.03857363 -0.04822551
0000d0 a5 c4 a5 b9 2f 62 68 bc 92 58 a8 39 04 7a 5f bc
       -0.00031617764 -0.014183565 0.00032109447 -0.013639931
0000e0 ac d9 8c bb 15 95 c0 3b a9 09 bb bc d5 3f 86 bc
       -0.0042984094 0.005877147 -0.022831755 -0.01638786
0000f0 98 bb 23 bb c9 55 3b 3c e4 dc 85 bb dc 9a 11 bc
       -0.002498364 0.011434027 -0.00408517 -0.008887019

layer4.0.weight f4 [64, 64, 3, 3]
000000 7a 14 5b bc 73 01 7b bc 3f f4 b3 3c 15 aa 8f 3c
       -0.013371581 -0.01532017 0.021967052 0.017537156
000010 cb 64 2c bd bb 40 7b bc 84 7c 13 bd bf 38 52 3c
       -0.04208831 -0.015335257 -0.03600742 0.012830912
000020 42 44 53 bd 03 3c 15 3d e4 00 b6 3a 31 b2 87 3c
       -0.051578768 0.036434185 0.0013885763 0.01656446
000030 d9 f8 27 3d eb 1f 3e bd c9 da 16 3d 04 bc a3 3c
       0.041008804 -0.046417158 0.036829744 0.019987114
000040 c4 8b fd bc c5 d2 01 3d 6f 10 01 3d 89 03 92 3c
       -0.030950435 0.031695146 0.031509813 0.017823951
000050 b2 94 27 bc 40 61 5b bd 39 aa cb bb 0d a2 2c bc
       -0.010228323 -0.05355954 -0.0062153605 -0.010536683
000060 c0 52 6c bd b8 00 5a bd 48 17 47 3c 02 e8 69 bd
       -0.057696104 -0.05322334 0.012151547 -0.057106026
000070 75 ae 50 bd 3a 72 c2 bc 3a 07 ec bc c5 78 c7 3c
       -0.050947625 -0.023736108 -0.02881204 0.02434958
000080 e6 21 fb bc bb 5d 35 3b ee 85 3b bc 86 69 45 3b
       -0.030655812 0.0027674276 -0.011445506 0.0030122711
000090 4e 6c af 3b 95 75 32 3d d5 5f d8 bc 7a e1 16 3d
       0.005353487 0.043569166 -0.026412884 0.036836125
0000a0 1c 0b be 3b cc 09 b7 3c 04 78 fd 3b 36 aa 02 3d
       0.005799664 0.022343539 0.0077352542 0.031900607
0000b0 6a c7 33 bc d9 61 4e 3c 16 75 ac bc 6b 96 15 bc
       -0.010972837 0.012596571 -0.021051925 -0.009130101
0000c0 ff 0a 4a bc cd c7 31 bc bb c9 8a bc d8 3a b1 3c
       -0.012331723 -0.010850859 -0.016941896 0.021634504
0000d0 3a 07 2d bc 22 a0 15 bd 1b c0 29 bd d3 2e cb 3b
       -0.010560805 -0.036529668 -0.04144297 0.0062006502
0000e0 f8 53 76 bc 70 ea 43 bc ee 40 b0 37 2b 42 23 bb
       -0.015034668 -0.01195775 2.101107e-05 -0.0024911265
0000f0 0f b5 09 bd cd ac 89 3c 35 ed 98 3b 91 ea 06 bc
       -0.033619937 0.01680603 0.004666949 -0.008234636
000100 f3 4f 81 3c 37 ca d4 bb 96 da 80 3b 0d 5c b9 bc
       0.015785193 -0.0064938325 0.0039323075 -0.022626901
000110 ee b3 fd 3b 7b 98 78 bc b9 60 c5 bc 89 26 1e bd
       0.0077423966 -0.015173073 -0.024093973 -0.03861097
000120 fc 1f a2 3c 71 d0 47 bd 0f 44 db bc 8b 33 14 3d
       0.019790642 -0.04878277 -0.026765851 0.036181968
000130 5d 21 66 bc 09 a6 0e 3d d1 a6 45 3c 05 32 24 3d
       -0.01404604 0.034826312 0.012063698 0.040086765
000140 f0 29 16 3c 8e 64 aa bc 62 cf 71 bc 12 fc 04 3d
       0.009165272 -0.020799901 -0.014758917 0.032466955
000150 5c 34 c5 bc 5b 04 b0 3c fe e4 cc 3c 81 5d f7 bc
       -0.024072818 0.021486452 0.025011536 -0.030195953
000160 48 43 43 3d 6a 05 b9 3b f6 cd 91 3c 22 20 b0 bc
       0.047671586 0.0056463974 0.017798405 -0.021499697
000170 b8 8a a6 3c b5 1d ae bc ef 8d ec 3c 62 88 a2 bc
       0.020329818 -0.0212544 0.028876273 -0.019840423
000180 00 b0 5e 3d 82 39 9e bc 47 28 c0 3b 4b 73 98 bc
       0.054367065 -0.019314531 0.0058641764 -0.018609663
000190 c8 d8 25 bc f8 7f 01 bd 70 da 8c bb f2 17 32 bd
       -0.010122485 -0.03161618 -0.0042985007 -0.043479867
0001a0 df 1f 2a bc da b9 ac 3a 58 c0 ee b9 fb e0 e0 bc
       -0.010383575 0.0013177947 -0.00045538205 -0.027451029
0001b0 e8 dd e9 3c 17 46 35 bc df b8 f8 bc bc f5 46 bc
       0.028548196 -0.011064074 -0.03036159 -0.012143549
0001c0 92 40 c0 3b 60 f0 00 bd 45 73 86 bc 25 8b 83 3c
       0.0058670724 -0.03147924 -0.016412387 0.01605756
0001d0 5e 0d bb bc 25 55 bc bc 06 d7 24 bd 6c f2 25 3c
       -0.022833522 -0.022989819 -0.040244125 0.010128599
0001e0 29 ca 45 bd fc 40 1f bc 89 5c bb bc c1 ff 25 bc
       -0.048288498 -0.009720083 -0.022871273 -0.010131777
0001f0 4b b8 9e ba 8b 76 4d bd ee ec e7 3c 93 15 6c bc
       -0.0012109367 -0.05016188 0.028311219 -0.014409441
000200 b8 92 cd 3c 68 43 da 3b bd ec 15 bc f7 a7 b3 bc
       0.025094375 0.0066608675 -0.009150681 -0.021930678
000210 5b 64 b9 3b c2 c0 7b bc 4e e3 c6 3c 6a b7 29 bd
       0.0056577153 -0.015365781 0.02427831 -0.041434683
000220 fd 85 63 ba dd 7f ac 3a 38 ad 06 bd a1 b8 1c bb
       -0.00086793286 0.0013160665 -0.032880038 -0.0023913758
000230 5e d5 94 bc 67 1e 9f bc 0c 33 40 bd 05 b1 66 bd
       -0.018168148 -0.019423677 -0.046923682 -0.056321163
000240 d6 e2 0c 3c 8c 24 08 3d a6 38 1d bc f3 98 71 3c
       0.008599004 0.03323798 -0.009596026 0.014745939
000250 63 38 f4 3c bc 05 eb bc dc 03 8b bc 27 41 e0 3c
       0.029812044 -0.028689258 -0.016969614 0.027374817
000260 ba ad 0f 3d dc ea 74 3c 50 87 96 3c 81 b8 8b 3c
       0.035077788 0.014948573 0.018375069 0.017055752
000270 e8 b2 e5 3c 93 46 4e 3b 3c f1 07 3d bc 5a 1b 3d
       0.02803941 0.003147517 0.033189043 0.037928328
000280 1b 86 1b 3c 74 6e c1 3c 51 32 a4 bb 7b 62 f4 bb
       0.009492422 0.023612238 -0.005010881 -0.007458029
000290 88 df c2 bb 55 fd e8 3c 50 34 3b bd 3d 18 8c 3c
       -0.005947057 0.02844111 -0.045704186 0.017101401
0002a0 db c7 16 3d 9d 9d 0a bd 9b d3 bd bc b3 41 ae bc
       0.03681169 -0.033841718 -0.02317219 -0.021271562
0002b0 91 27 bd 3c 67 c3 c5 39 a2 9b 03 bd 4a 92 66 bd
       0.023090156 0.00037720354 -0.032130845 -0.056291856
0002c0 3d be 2b bc 06 32 12 bd 17 65 3c 3a 29 03 24 bd
       -0.010482368 -0.035692237 0.00071866944 -0.040042076
0002d0 02 1a 1f 3c c2 84 15 bc f7 a8 2c bc 09 bd 64 bc
       0.009710791 -0.00912589 -0.010538331 -0.013961085
0002e0 e5 75 24 3c 53 77 fe bb a4 c2 59 3c 4e b1 1d 3d
       0.010037874 -0.0077656894 0.013291035 0.03849917
0002f0 64 5f 41 3d e4 56 45 bc 09 3c 00 bd f2 cd 0c bd
       0.047210112 -0.012044642 -0.031307254 -0.034376092
000300 cb 86 d3 ba 21 37 d5 3c 9a d2 08 3d 51 8c 02 bd
       -0.0016138194 0.026027264 0.03340397 -0.031872097
000310 58 1a b7 3c e0 b2 df bb 5d 6a f2 ba ce 28 32 3d
       0.022351429 -0.0068267435 -0.0018494833 0.043495946
000320 ab d0 f1 bb 06 47 c0 bb 1d 38 00 bc 08 88 f7 bc
       -0.0073796115 -0.0058678417 -0.007825878 -0.030216232
000330 a9 a3 a1 bc ef ee 5d 3b 01 b6 d3 3a 4a 2a f4 bc
       -0.01973136 0.003386434 0.0016152264 -0.029805321
000340 61 8e e2 3b 4e 7e 98 3a 79 7b 17 bd 89 f1 38 bd
       0.0069139455 0.0011634321 -0.036982987 -0.04515222
000350 f7 77 eb bc 12 f4 07 bd 5f cd 65 bd ec f9 01 3d
       -0.028743727 -0.033191748 -0.05610406 0.031732485
000360 22 13 b4 3b eb f7 32 3a 83 cc 0c bd dd 3f 0c 3d
       0.005495445 0.0006827104 -0.034374725 0.034240592
000370 d4 19 b2 bc 94 97 21 bd 8d 71 0a bc 90 09 49 3c
       -0.021740831 -0.039451197 -0.008449924 0.012270346
000380 ef c6 9d 3c 97 83 e4 3c 1b 62 9c ba 7b b4 2c 3d
       0.019259898 0.027894778 -0.0011931093 0.042164307
000390 79 f6 be bc 99 29 03 3d 6d 9f 1d 3d be 5c c9 bc
       -0.023310887 0.032022092 0.03848212 -0.024580356
0003a0 6c f9 c2 bc b3 c2 64 3b 2f a4 d1 3b 2e 8c 53 bc
       -0.023800574 0.003490609 0.006397746 -0.012911839
0003b0 d5 9c 0b bc 6f 97 3e bd 34 e7 6f 3c d0 0e ec 3c
       -0.008521278 -0.046531137 0.014642525 0.028815657
0003c0 b2 7d cc 3c 66 b8 8e bc d4 fb f1 3c 54 20 90 bc
       0.02496228 -0.017421912 0.029539026 -0.01759354
0003d0 81 96 56 bc e7 72 5a bd d3 c7 4b bd 3d 90 41 bb
       -0.013097406 -0.053332236 -0.049751114 -0.0029535436
0003e0 8f f8 1d bb 61 c1 48 bd 17 d8 1a bd 2f 8a 28 3c
       -0.0024104451 -0.049012545 -0.037803736 0.010286852
0003f0 c5 c8 85 bb cd de 19 bd 8f 73 e3 bc ab 9e ea 3c
       -0.0040827715 -0.037565995 -0.027765064 0.028640112

layer4.0.bias f4 [64]
000000 f5 af 89 bc 7c ea 52 bc 7f cd b1 3b db fe b2 3c
       -0.016807536 -0.012873288 0.0054261084 0.02185004
000010 58 1f 0d 3c e7 29 8c ba 36 1b 0e 3b 00 5a d6 bb
       0.00861343 -0.001069364 0.00216837 -0.0065414906
000020 ac c4 50 3b d6 f8 41 3c 9b dd bd 3c 70 34 c4 bc
       0.0031855507 0.011839112 0.023176959 -0.023950785
000030 2d 93 88 bc a8 f5 c7 bb 63 61 30 3d b0 7d d7 bc
       -0.016671741 -0.0061022826 0.043061625 -0.02630505
000040 c2 f2 ea ba ff 73 28 bc d1 f0 99 3b 79 11 0c ba
       -0.0017925131 -0.010281562 0.004697897 -0.000534318
000050 4b fa f8 bc 50 1a 30 3d f5 70 b6 3a 24 69 f1 bc
       -0.030392786 0.042993844 0.0013919162 -0.02946908
000060 1e ba a5 bc cb fe 33 3b ad b2 99 3c 02 84 75 b9
       -0.02023035 0.00274651 0.018761957 -0.00023414197
000070 f0 42 8c 3c f1 60 be bb 09 f4 95 3c be af 3e 3c
       0.017121762 -0.005809896 0.018304842 0.01163858
000080 c5 6b fe bb 89 2e 96 bc 52 ef 1e bc 01 3c c5 bc
       -0.007764312 -0.018332737 -0.009700613 -0.024076464
000090 24 1b 5a bc a6 8a e3 3c a9 3c bb bc 24 95 08 bc
       -0.013312135 0.027776074 -0.022856073 -0.008336339
0000a0 00 26 a9 3c 5f d8 e4 3b b9 e2 43 bc 66 2b b6 bc
       0.020648003 0.0069838013 -0.01195591 -0.02223749
0000b0 fc 4d f5 bc ea 3a a6 3c d6 f0 3c 3d 5c 5a 6b 3b
       -0.029944412 0.020291764 0.046128117 0.0035912013
0000c0 74 d5 8d 3c c5 1f 09 bc 83 97 6b 3c ed 4a f8 bc
       0.017313696 -0.008369391 0.014379385 -0.030309165
0000d0 37 6e 07 3d 06 1c d6 3c 58 2f f7 3c 75 c8 83 3c
       0.033064093 0.02613641 0.030173942 0.016086796
0000e0 e7 d3 0b 3d 02 a7 5f 3c 75 64 0c bd bb 79 0c bc
       0.034137633 0.013650658 -0.03427549 -0.008573945
0000f0 23 fc d2 3c 6b 99 10 3d af 7b e5 bc cd 1e 68 3c
       0.025754994 0.03530256 -0.028013078 0.0141675

layer4.1.weight f4 [64]
000000 3d 79 7e 3f 10 27 7e 3f 81 da 81 3f 91 a0 82 3f
       0.99403745 0.99278355 1.0144807 1.0205251
000010 95 47 7f 3f f5 80 75 3f 0a 2f 85 3f 89 f1 7d 3f
       0.997186 0.958999 1.040498 0.9919668
000020 64 8b 77 3f 65 ad 80 3f 61 75 80 3f 1e 27 7f 3f
       0.9669707 1.0052916 1.0035821 0.99669063
000030 5a dc 7a 3f ae 09 84 3f 74 df 79 3f a2 d9 80 3f
       0.9799248 1.0315454 0.9760659 1.0066416
000040 67 0f 7b 3f 96 b4 7d 3f ea d2 80 3f 75 91 80 3f
       0.9807038 0.9910368 1.0064366 1.004439
000050 c9 c2 80 3f 77 66 7e 3f 60 55 7c 3f 20 8f 7c 3f
       1.0059444 0.993751 0.9856777 0.9865589
000060 00 a2 7b 3f 7c 8d 80 3f 15 df 7e 3f 34 6c 80 3f
       0.9829407 1.0043178 0.99559146 1.0033021
000070 c9 3b 7c 3f 5e a3 80 3f 10 a7 7a 3f fe 14 7e 3f
       0.98528725 1.0049856 0.9791117 0.9925078
000080 3b ba 7f 3f 16 8e 7c 3f 9e c9 84 3f ab 2e 75 3f
       0.9989354 0.98654306 1.0374029 0.95774335
000090 2b a9 80 3f 07 c6 82 3f 56 86 81 3f 7b 64 81 3f
       1.0051626 1.0216683 1.0119121 1.0108789
0000a0 d8 57 85 3f 9a 5a 84 3f d5 fd 80 3f 35 95 81 3f
       1.0417433 1.0340149 1.0077463 1.0123659
0000b0 7e 97 82 3f 92 79 81 3f 5f ab 83 3f 3f d8 7c 3f
       1.0202482 1.0115225 1.0286673 0.98767465
0000c0 b5 52 80 3f c3 11 6f 3f 10 77 7c 3f 61 ec 7d 3f
       1.002524 0.9338648 0.98619175 0.9918881
0000d0 a9 42 7b 3f 61 54 7c 3f 13 80 77 3f 5c 2a 7c 3f
       0.9814859 0.9856625 0.966798 0.98502135
0000e0 00 2d 7d 3f 8e 6d 81 3f aa 28 80 3f 0f fb 7e 3f
       0.9889679 1.0111558 1.001241 0.99601835
0000f0 2e 71 7c 3f 51 76 7c 3f ee 7e 7d 3f e2 a5 80 3f
       0.986102 0.98618037 0.99021804 1.0050623

layer4.1.bias f4 [64]
000000 47 86 0a bc 1b 4d b6 bb 14 29 a6 3b 77 cc 28 3b
       -0.008454866 -0.005563391 0.005070815 0.0025756636
000010 f4 f4 8a bc 80 ee 2f bd 33 37 05 bc 13 b7 6d bc
       -0.016962506 -0.04295206 -0.008130836 -0.01450898
000020 21 a8 b7 bc 0f 2e a6 ba e5 e0 d0 ba 06 a1 2c bc
       -0.022419037 -0.0012678521 -0.0015936164 -0.010536438
000030 ab 15 52 bc d6 21 76 bc 6a b6 ad bc 57 b3 b9 bc
       -0.012822549 -0.015022716 -0.021205146 -0.022668524
000040 f3 db 9c bc 8f 20 23 bc da 09 b8 bc 0c 8e 00 bc
       -0.019147849 -0.009956493 -0.022465635 -0.007846367
000050 7d 57 a0 bb 3f e5 20 bc 3c 57 44 bc e0 7e 41 bc
       -0.004893242 -0.0098202815 -0.011983689 -0.0118100345
000060 2d b1 b0 36 8f a5 80 bc 18 ed 32 bc 2c 99 1e bc
       5.2658347e-06 -0.015703944 -0.010920785 -0.009680074
000070 4f 15 ff ba be 74 73 ba 68 c1 c5 bc 44 f8 c3 bc
       -0.0019461307 -0.00092871103 -0.024140075 -0.023922093
000080 18 f0 c6 3b 2a c8 b7 bc 2f ce cd bc 03 84 1d bd
       0.006071102 -0.022434313 -0.02512273 -0.038455974
000090 4c 1b b4 bb d8 3d 41 bb a7 d4 2f 3c 7b 00 db bb
       -0.005496418 -0.0029486325 0.010731853 -0.006683407
0000a0 09 8e ac bb 40 ba 85 3c 85 ce 18 bc 95 f6 dc 3b
       -0.0052659553 0.016324162 -0.009326582 0.006743262
0000b0 d0 fa 02 3a 58 7f ee bb be b7 ce b9 88 e4 7a bc
       0.00049964804 -0.007278364 -0.0003942828 -0.015313275
0000c0 62 32 83 bc 9a 60 27 bd 9a 55 05 bd 06 5c 87 bc
       -0.016015235 -0.04086361 -0.03255234 -0.016523372
0000d0 af 56 9c bc d3 33 22 bc 1b 30 c5 bc c8 a2 df bc
       -0.019084303 -0.009900051 -0.02407079 -0.0272993
0000e0 6a 40 5f bc 60 50 68 ba ae 84 ff bb a7 59 97 bb
       -0.013626197 -0.00088620745 -0.007797799 -0.0046188417
0000f0 f6 17 40 bc 06 75 83 bc a2 33 7f bc dc 00 d2 bb
       -0.011724463 -0.016047012 -0.015576275 -0.006408794

layer5.0.weight f4 [64, 64, 3, 3]
000000 bc 34 f1 3c a4 1c 5d bc a1 86 dd bc 41 9e 6f 3b
       0.029444091 -0.013495598 -0.027041735 0.0036562833
000010 4e 2f e6 3c 2b 89 b2 bc 45 9d 48 3d 0d 61 cd bc
       0.028098729 -0.021793922 0.04897811 -0.025070691
000020 46 d6 f9 3c 48 60 3b bd de a7 3d bd 8d 17 1f bd
       0.030497681 -0.045746118 -0.04630267 -0.03884082
000030 d3 2e df 3a 6a 59 14 bd 95 76 b6 bc 85 c3 07 3d
       0.0017027505 -0.036218084 -0.022273341 0.033145446
000040 e9 6e 95 bc a9 ac 04 3d 54 50 12 3d f2 2e 41 bd
       -0.018241363 0.032391224 0.035721138 -0.04716391
000050 b7 c2 d2 bb 86 bd c6 3c d7 c3 e3 3c 06 b4 3e 3b
       -0.006431903 0.024260294 0.027803345 0.0029099002
000060 29 5b 56 3d 9d ae 44 3c 09 ad b9 bc fd 43 53 3d
       0.05233303 0.012004522 -0.022665517 0.05157851
000070 7e c2 43 3c b0 d7 89 3d 91 86 11 bb 9d 55 86 3b
       0.011948226 0.06730592 -0.0022205452 0.0040995614
000080 d7 c7 b6 3c 75 72 b7 3c 80 17 3d 3b 7b 21 b9 3c
       0.022312088 0.022393445 0.0028853118 0.022598973
000090 11 88 4c bd b2 af 0f 3d 87 f8 8d bc 2d 65 d2 3c
       -0.04993445 0.035079665 -0.017330421 0.02568301
0000a0 05 4e 32 3d e8 e9 39 bd b5 42 04 bd 9c 58 13 bb
       0.043531436 -0.045389086 -0.03229018 -0.0022483235
0000b0 b5 7b 7d 3c f9 6a 1c bd ac f8 1a bd 92 5a d9 ba
       0.015471389 -0.038187955 -0.03783481 -0.0016582778
0000c0 a9 44 d0 bc 53 0e b0 bb 1d 33 f8 3b 1e da df bc
       -0.025423365 -0.0053728013 0.0075744526 -0.027325686
0000d0 77 00 d0 bc b3 cd b9 3b da d0 95 3d b7 c4 43 3b
       -0.025390847 0.005670273 0.07315226 0.002987189
0000e0 1d dd 83 bc ae 0f 90 3d f5 ab 5d 3d 0b ae 29 bd
       -0.016096646 0.07034241 0.05411907 -0.041425746
0000f0 6c 11 95 bc 25 04 2e 3d 49 20 80 bb ff d1 e9 3c
       -0.018196784 0.04248442 -0.0039100987 0.028542517
000100 d0 45 ac ba bc a1 42 3d 2a 72 40 3d a6 e0 46 bc
       -0.0013143364 0.047517523 0.046983875 -0.012138521
000110 14 aa 7b bc 2f d1 39 bb cd 02 24 3d 90 68 b1 3c
       -0.015360374 -0.0028353443 0.040041734 0.021656305
000120 c2 4f 52 bc 89 f2 2b 3c e8 b6 7e bb 50 f5 5b bb
       -0.012836399 0.010494837 -0.0038866345 -0.0033562966
000130 c2 bd 4f 3c 44 07 50 bb 50 45 35 3c 4c b5 a8 3c
       0.012679519 -0.0031742612 0.011063889 0.020594262
000140 3f 07 f0 bc ef e8 dd 3c 86 32 50 3d e2 d2 9e bb
       -0.02930033 0.02708861 0.050829433 -0.0048469165
000150 45 fe 15 3c d3 38 de 3b 9c 73 72 3c d1 5c 6e bc
       0.009154861 0.0067816763 0.014798071 -0.014548496
000160 d9 83 93 3d ba 98 74 bb a3 4f 1b 3d cd 2d c8 3c
       0.07202882 -0.0037322477 0.037917744 0.024435902
000170 ed 62 11 3d 3d 58 98 bc 53 ee a3 3c bf a3 4c 3d
       0.035494734 -0.018596763 0.020011103 0.049960848
000180 67 60 89 3c d1 0a 86 3c 88 33 96 3d 1b 51 c1 3c
       0.016769601 0.01636258 0.073340476 0.023598244
000190 0c a0 55 bc f6 49 0d bb 9b 2d e7 bb 47 4e 31 3d
       -0.013038646 -0.0021558977 -0.007054997 0.04328754
0001a0 6f 1d 63 3a da 25 4a bc 04 17 1e 3d ab 7a 17 3d
       0.0008663749 -0.012338126 0.03859617 0.03698222
0001b0 bb 81 d5 bb d4 2a 25 39 61 f4 de bc 9c fb 31 bd
       -0.006515709 0.00015751581 -0.027216138 -0.043452844
0001c0 b0 5a 70 bc d2 8e 0c bd 71 95 85 3c dc bc c8 3c
       -0.014670059 -0.03431589 0.01630661 0.024504118
0001d0 59 1f d8 ba fa ab 29 3d 74 04 4f bc be 1d 8c bc
       -0.0016488835 0.041423775 -0.012635339 -0.017104026
0001e0 83 7c 0b 3d fd 2c 86 bc 5b 5b 27 3b 3d 09 c5 3c
       0.03405429 -0.016378874 0.002553663 0.024052257
0001f0 d3 bd 24 ba 90 15 df bc c1 f8 37 3d 08 50 c9 3c
       -0.00062843895 -0.027231961 0.044914965 0.024574295
000200 20 cf 91 3c c4 b3 3b 3c 17 b9 c6 3c f7 66 17 bd
       0.01779896 0.011456434 0.02425818 -0.03696343
000210 a5 c8 2d 3c 96 5e a0 bc d4 cc 43 bc c0 dc 28 bd
       0.010606919 -0.019576352 -0.01195069 -0.04122615
000220 a0 66 19 bd 7a b0 29 3d ff 56 e7 3c 71 9f 71 3c
       -0.037451386 0.041428067 0.028239725 0.014747486
000230 84 b0 0e bd 4d 3c b0 bc 5e 08 03 3d b7 23 a1 bc
       -0.034836307 -0.021513129 0.0319904 -0.01967035
000240 ab c3 36 bd f4 51 a4 3b 3e 7d 6c bd a1 67 fb 3c
       -0.044620197 0.0050146524 -0.057736628 0.030689063
000250 f1 21 67 bc d1 bb a4 3c 60 23 9f 3c 99 4a 16 bd
       -0.014107213 0.02010909 0.019426048 -0.036692236
000260 d9 07 5b 3a 56 43 10 3d 48 f1 10 bc 0c 17 99 3c
       0.00083553564 0.035220467 -0.008846588 0.018687747
000270 46 a6 e3 3c a0 4c b6 3c 9c b7 ab 3c ec c1 4a 3c
       0.027789246 0.022253335 0.020961575 0.012375336
000280 a5 98 d3 3c 5a ee 75 bc 42 ce 0a 3d 09 12 41 3d
       0.025829623 -0.015010441 0.03388811 0.04713634
000290 44 68 2e bd b9 47 24 3c b1 8f 48 3b 76 9c 0e bd
       -0.042579904 0.010026866 0.0030603225 -0.03481718
0002a0 51 6b fa 3c e3 1e 0b bd 37 78 42 bd fe 55 05 3b
       0.03056875 -0.033965003 -0.047477927 0.0020345445
0002b0 f3 a5 80 bd a3 90 fe bc 37 f5 03 bd e4 61 a2 bc
       -0.06281652 -0.031074828 -0.032216277 -0.019822069
0002c0 a2 62 5f 3a 8e 91 35 3d ea 04 1c 3d b2 5a f0 3c
       0.00085214723 0.044328265 0.038090624 0.029340122
0002d0 9a c6 68 bc f7 34 56 bd 63 e8 d6 3c dd 17 00 3d
       -0.014207507 -0.052296605 0.026233857 0.031272758
0002e0 6d 5f 39 3b 73 40 e4 bc 6a 41 31 bc f7 9f bf 3c
       0.0028285638 -0.027862763 -0.010818819 0.023391707
0002f0 9f 2a 05 bc b0 20 94 bc 16 d8 e0 ba 4f ce 30 bd
       -0.008127837 -0.018081993 -0.0017154242 -0.0431655
000300 3e 2d 4e bb 0d 62 55 bd 93 b7 59 3c 3d 9c f1 3b
       -0.0031460072 -0.05209546 0.013288396 0.0073733614
000310 0c 3d f2 3b 03 53 db b9 37 f8 55 3c c8 19 89 bc
       0.0073925313 -0.00041832784 0.013059667 -0.016735926
000320 d7 34 a1 3c 6a dd f1 3c ee 0c 1a bd c5 9f a2 3c
       0.019678516 0.029524524 -0.037609987 0.019851575
000330 e9 f1 a4 bc 4c 2b 11 3d fe ad 8d 3b 22 3e 21 bd
       -0.020134883 0.03544168 0.00432372 -0.039365895
000340 8e 15 99 bc 46 28 13 3c 88 dd aa bc ca 10 35 3d
       -0.018687036 0.00898177 -0.020857587 0.044205464
000350 d4 2c 93 3d 03 72 f5 3c 89 4d 89 3c 74 af 6d bc
       0.07186285 0.029961592 0.016760604 -0.014507163
000360 eb 03 60 bd b0 8b 7e 3c 72 d7 14 bd 7b 71 23 bd
       -0.054691236 0.015536234 -0.036338277 -0.039903145
000370 b5 19 23 bd ea ff 2c 3c 81 83 94 3a 19 cb f1 3a
       -0.039819438 0.010559062 0.0011330695 0.0018447369
000380 f9 1b 5a bb b2 92 07 3d 19 60 f1 3c 85 0a 63 bc
       -0.0033280833 0.033098884 0.029464768 -0.0138574885
000390 eb c3 1c bb f9 bc ea bb c8 52 d2 bb f8 d5 dc 3c
       -0.0023920487 -0.0071636406 -0.0064185597 0.026957497
0003a0 f0 d9 4a bc 70 17 c6 3c d8 ff 39 3d 75 76 96 bb
       -0.012381062 0.024181098 0.045410007 -0.004591758
0003b0 3e 04 b0 bc 29 6f 34 3d a2 5e eb bc 37 25 65 3c
       -0.021486398 0.044051323 -0.028731648 0.0139859235
0003c0 60 5b 05 bd 96 b5 c3 bc 8f b8 c0 bc be 4c fa bc
       -0.032557845 -0.023890298 -0.023525504 -0.030554172
0003d0 ac b9 4c 3c 84 c2 aa 3c 66 ff 13 3d 22 36 9e bc
       0.0124954395 0.020844705 0.03613224 -0.019312922
0003e0 44 16 d3 bc 89 bd ee 3b f5 bf ae bc d0 6a b9 ba
       -0.025767453 0.007285778 -0.021331767 -0.0014146212
0003f0 c2 6e 79 3d 12 3b 76 3c 89 8e 11 bc 86 b6 a1 bc
       0.060896643 0.015028732 -0.008884081 -0.019740354

layer5.0.bias f4 [64]
000000 b2 0c 4c bc a5 73 0d 3c f5 42 1a 3d f9 c4 33 3c
       -0.012454199 0.008633529 0.03766151 0.010972255
000010 c3 11 09 3c e9 92 cf bc 3c 17 d8 bb 24 a6 15 3d
       0.008366051 -0.025338607 -0.0065945666 0.036535397
000020 fd bc aa 39 0c ef 49 3c 6f 45 83 bc 4f 07 cf bc
       0.00032565734 0.01232506 -0.01602432 -0.02527204
000030 51 27 d8 3c e8 84 d8 bc 00 82 87 bc 07 91 aa 3c
       0.026385935 -0.026430562 -0.016541481 0.020821108
000040 b5 13 1a bd a0 3c 69 bc f4 68 d8 3c 3b 4b c5 ba
       -0.03761645 -0.0142356455 0.026417233 -0.0015052328
000050 d5 81 16 3d 4f ff 08 bd ba eb 1c bd e2 14 25 3d
       0.03674491 -0.033446606 -0.038310744 0.04030312
000060 e1 e9 c2 bc 80 8a b1 ba 32 93 c3 3c fb df 3c bc
       -0.023793163 -0.0013545305 0.0238739 -0.0115280105
000070 ed 2c 9b 3c 0a 55 df 3c 6a e4 ed ba fd 32 90 bc
       0.01894232 0.02726223 -0.0018149738 -0.017602438
000080 2c 23 ce 3c 60 72 97 3c 8b a7 f1 bb 9b d7 6d 3c
       0.025163256 0.018487155 -0.007374709 0.014516736
000090 a8 04 06 bd ed 41 5d bc fe 44 eb bc 97 86 8b 3c
       -0.032719284 -0.013504487 -0.028719421 0.01703195
0000a0 0d 86 26 bd 12 60 29 3d 19 a9 c7 3c 3c a5 30 bd
       -0.040655185 0.041351385 0.024372624 -0.04312633
0000b0 3c 78 02 bd 60 0a 88 3c 50 44 9a ba 4d 58 9d 3b
       -0.031852946 0.01660651 -0.0011769626 0.004801786
0000c0 d6 2f f5 bc 93 81 99 ba 13 ce 71 bc f5 07 cb 3c
       -0.029930037 -0.001171159 -0.014758605 0.024784068
0000d0 75 d2 2a 3b 43 fe 00 bd 54 c5 be 3b 9f 5a c7 bc
       0.0026065384 -0.031492483 0.005821863 -0.024335204
0000e0 54 d2 b9 3c 93 71 05 3c 62 d9 f2 bc db 6e 29 3d
       0.0226833 0.008144754 -0.029644672 0.041365486
0000f0 b9 b2 0f 3c 5c 9f 7c 3c 3e 5d 08 bd b9 e2 0c 3b
       0.008770638 0.015418854 -0.033292048 0.0021497442

layer5.1.weight f4 [64]
000000 f9 a0 7f 3f 1e dd 7f 3f 03 5e 81 3f ed af 81 3f
       0.99855 0.99946773 1.0106815 1.0131813
000010 f8 2b 82 3f 33 11 82 3f b8 a6 81 3f 8c e0 7f 3f
       1.0169668 1.0161499 1.0129004 0.99952006
000020 6d 9d 82 3f 87 ab 7f 3f 16 40 82 3f 6e bb 83 3f
       1.0204293 0.99871105 1.0175807 1.0291574
000030 52 29 81 3f 7f 6f 81 3f de 41 84 3f 61 82 81 3f
       1.0090735 1.0112151 1.0332601 1.0117913
000040 63 62 81 3f d9 59 7c 3f 6a f2 80 3f 82 00 80 3f
       1.010815 0.98574597 1.0073979 1.0000155
000050 70 27 84 3f 98 ec 82 3f ed 34 80 3f 45 12 7b 3f
       1.0324535 1.0228453 1.0016152 0.9807475
000060 7d b7 77 3f 56 7c 83 3f 11 ee 82 3f 1a cd 81 3f
       0.96764356 1.0272319 1.0228902 1.0140717
000070 3f f6 7b 3f 07 ad 81 3f 32 f1 7e 3f 21 4a 82 3f
       0.98422617 1.0130929 0.99586785 1.0178872
000080 bc 67 80 3f 84 cc 7e 3f 90 9b 83 3f 45 a7 7c 3f
       1.0031657 0.99530816 1.0281849 0.98692733
000090 17 fe 84 3f 60 3f 7e 3f b0 3f 7d 3f 9f 58 7e 3f
       1.0390042 0.9931545 0.98925304 0.99353975
0000a0 d9 7b 81 3f b0 75 80 3f 6b 7d 81 3f bb ab 81 3f
       1.011592 1.0035915 1.01164 1.0130533
0000b0 6c f2 81 3f 38 aa 82 3f 23 55 82 3f fc 57 7e 3f
       1.0152106 1.0208197 1.0182232 0.99353004
0000c0 cd 7e 7d 3f 61 bb 80 3f 90 12 81 3f dc 5a 82 3f
       0.9902161 1.0057184 1.008379 1.0183978
0000d0 a2 d3 81 3f 4e 97 81 3f d2 42 82 3f 12 f4 7f 3f
       1.014271 1.01243 1.0176642 0.99981797
0000e0 f0 9e 82 3f 31 85 82 3f 02 a8 81 3f 56 7d 80 3f
       1.0204754 1.0196897 1.0129397 1.003825
0000f0 6a 0a 85 3f 4c 80 81 3f 20 0d 88 3f 0b 18 7e 3f
       1.0393803 1.0117278 1.0629005 0.99255437
