weights/pretrain_normal__finetune_normal.pth (torch, 946806 bytes, 26 tensors)

layer1.0.weight f4 [16, 1, 3, 3]
0	0xbdfcd3ef	-0.123451106
1	0x3e047173	0.12933902
2	0xbdc8ea94	-0.09810367
3	0xbe954da8	-0.2916081
4	0xbd4b6fb3	-0.04966707
5	0xbde5c980	-0.11220074
6	0x3da3335e	0.07968782
7	0x3e6a12a2	0.2285867
8	0xbda5fb59	-0.081045814
9	0xbe19522e	-0.14972755
10	0xbe78c86d	-0.24295206
11	0xbc62a67f	-0.013833641
12	0xbd43eaaf	-0.047831234
13	0x3d802a5b	0.06258079
14	0x3e904f83	0.28185663
15	0x3e0bdf34	0.13659364
16	0x3e527e98	0.20556104
17	0xbc0cf71d	-0.008603838
18	0xbe14b9e5	-0.14524038
19	0x3e4e2d82	0.20134547
20	0x3d8beaa1	0.06831861
21	0x3d6c351f	0.057667848
22	0x3e96d917	0.294625
23	0x3e696c51	0.22795226
24	0xbaef9575	-0.0018278795
25	0xbe0f55f7	-0.13997637
26	0xbdcf8a61	-0.101338156
27	0x3e21e83e	0.1581125
28	0x3c8cf861	0.01720828
29	0xbe8e8206	-0.27833575
30	0x3e19914e	0.14996836
31	0xbd97c9ba	-0.07411523
32	0x3df98da8	0.12185222
33	0xbe390120	-0.18066835
34	0xbe5325fd	-0.2061996
35	0x3db6b55f	0.089213125
36	0x3e30f9dc	0.17282814
37	0xbea306b6	-0.31841058
38	0x3e10e96c	0.14151543
39	0xbe48fb18	-0.19627035
40	0x3df0b1d8	0.11752671
41	0xbe7b0ef8	-0.24517429
42	0xbc6140a5	-0.013748323
43	0xbe681a86	-0.22666368
44	0xbe1a07ea	-0.15042081
45	0xbe48d953	-0.19614153
46	0xbe1f0e13	-0.15532713
47	0xbcb2876f	-0.021793095
48	0xbdf1effb	-0.11813351
49	0xbe374905	-0.17898948
50	0x3c73dc97	0.014884136
51	0x3ea86a83	0.32893762
52	0x3d678f1a	0.056532957
53	0x3e7bd55f	0.24593113
54	0xbea8f80f	-0.33001754
55	0xbe9a47a6	-0.30132788
56	0x3e2791de	0.16364238
57	0xbd5420fc	-0.05178927
58	0x3ca0a159	0.019608187
59	0x3e38b103	0.18036275
60	0xbe885018	-0.26623607
61	0xbe5c6a34	-0.21524888
62	0xbe034da2	-0.12822583
63	0xbe4e8050	-0.20166135
64	0xbe851a48	-0.25996614
65	0x3e04153f	0.1289873
66	0xbe9131a1	-0.28358176
67	0x3d66f35d	0.056384433
68	0x3e20b306	0.15693292
69	0x3e63c8ed	0.22244616
70	0xbd2ac424	-0.04169096
71	0x3cda5d6a	0.026655871
72	0xbea3fc75	-0.32028547
73	0xbe99762c	-0.2997297
74	0xbe94737e	-0.28994364
75	0x3e7510a1	0.23932125
76	0xbe9f73b0	-0.3114295
77	0x3e8a9622	0.27067667
78	0xbdf30cd2	-0.1186768
79	0xbcbbb278	-0.022912249
80	0x3e85809a	0.26074678
81	0xbe88c0c2	-0.26709563
82	0x3ce9b9ab	0.028530916
83	0xbe34e6a0	-0.17666101
84	0x3cfe6192	0.031052385
85	0xbdd54642	-0.10413791
86	0xbdc06901	-0.09395028
87	0xbe84eab8	-0.25960326
88	0xbe4c87d0	-0.19973683
89	0x3c1463bb	0.009056981
90	0x3e8eb6ec	0.27873933
91	0x3e82a6dc	0.2551793
92	0x3d0b196a	0.033959784
93	0x3e62082a	0.22073427
94	0xbd735e1f	-0.059415933
95	0x3e92c949	0.28669193
96	0xbd031111	-0.031998698
97	0x3dec4220	0.1153605
98	0xbe7304a2	-0.23732236
99	0xbe62a504	-0.22133261
100	0xbead1469	-0.33804634
101	0x3eb390eb	0.350715
102	0xbdc2961b	-0.095012866
103	0xbe8bd988	-0.273144
104	0x3e29583a	0.16537562
105	0x3d7add43	0.061246168
106	0xbea07f20	-0.3134699
107	0x3d1cc837	0.038276877
108	0x3e107a0e	0.1410906
109	0x3d70df0a	0.058806457
110	0x3e31436f	0.1731088
111	0x3ea79e54	0.32737982
112	0xbe8963f1	-0.26834062
113	0x3c3ba36b	0.011452536
114	0xbc04dadb	-0.00810882
115	0xbdcc1710	-0.09965336
116	0x3ea243e1	0.31692412
117	0x3e73e5ef	0.23818181
118	0xbe65e5ef	-0.22450994
119	0xbe865709	-0.26238278
120	0xbda71ce6	-0.08159809
121	0x3e6623b3	0.22474556
122	0xbe77563e	-0.24153993
123	0x3e79b88d	0.24386807
124	0x3b8e05f8	0.0043342076
125	0xbe224ce0	-0.15849638
126	0x3e0ac42e	0.13551399
127	0x3e9b5627	0.30339167
128	0xbe1d7f0c	-0.15380496
129	0xbd2379f7	-0.039911237
130	0x3e0be138	0.13660133
131	0xbe498ca1	-0.19682552
132	0xbe130f2a	-0.14361253
133	0x3e8cf028	0.27526975
134	0xbdec7c70	-0.11547172
135	0xbe6b51d1	-0.22980429
136	0x3d34d1b1	0.04414529
137	0x3e1b6cc2	0.15178207
138	0xbe548ced	-0.20756884
139	0xbd8a34e0	-0.06748366
140	0x3da78d1a	0.0818121
141	0x3e1572e4	0.14594609
142	0x3e33d025	0.1755987
143	0xbdf7776d	-0.120833255

layer1.0.bias f4 [16]
0	0xbe71fe70	-0.23632216
1	0xbdcd7658	-0.10032338
2	0x3ddcf4bb	0.10788866
3	0x3d4ff69e	0.0507723
4	0xbddd483f	-0.108047955
5	0xbd4d3203	-0.050096523
6	0x3e946163	0.2898055
7	0x3e77f46f	0.24214338
8	0xbd120f62	-0.0356592
9	0xbdbf1e17	-0.09331911
10	0x3ca37fed	0.01995846
11	0xbe466598	-0.19374692
12	0xbe1bd604	-0.15218359
13	0xbe88aa4a	-0.2669242
14	0x3dd6fe25	0.10497693
15	0x3e8715c2	0.26383787

layer1.1.weight f4 [16]
0	0x3f82efef	1.0229472
1	0x3f85c170	1.0449657
2	0x3f7b08d0	0.9806032
3	0x3f8098e8	1.0046663
4	0x3f82a2af	1.0205897
5	0x3f8643b3	1.048941
6	0x3f7db539	0.9910465
7	0x3f7f91b7	0.9983172
8	0x3f7dc2f4	0.991256
9	0x3f811d8c	1.0087142
10	0x3f814b16	1.010104
11	0x3f85ea08	1.0462046
12	0x3f7f29ce	0.99673164
13	0x3f7e3113	0.9929363
14	0x3f7b8c14	0.9826062
15	0x3f782726	0.96934736

layer1.1.bias f4 [16]
0	0x3c4149d0	0.011797383
1	0x3cfe63ca	0.031053443
2	0xbd151112	-0.036393233
3	0xbc86bb1f	-0.016446648
4	0xb949fc4f	-0.00019262846
5	0x3d6a8e2a	0.057264484
6	0xbccaef25	-0.024772236
7	0xb6b6e785	-5.450975e-06
8	0xbc9082a2	-0.017640416
9	0xbc22b61d	-0.0099311145
10	0xbb768c3d	-0.003762021
11	0x3cbd3591	0.023096832
12	0xbb414b73	-0.0029494434
13	0xbd1de33d	-0.03854679
14	0xbc929700	-0.017894268
15	0xbd0ede1b	-0.034879785

layer2.0.weight f4 [16, 16, 3, 3]
0	0x3d3f237f	0.04666471
1	0xbc8ee9f9	-0.017445551
2	0xbc8597b2	-0.016307686
3	0x3d847a6d	0.06468663
4	0x3d5d6007	0.054046657
5	0xbd394f5f	-0.04524171
6	0xbcfc27f5	-0.030780772
7	0xbd39b977	-0.04534289
8	0xbc7a50f5	-0.015278091
9	0x3dfa941f	0.12235283
10	0x3d34aae4	0.044108286
11	0x3e0952e0	0.1341052
12	0x3d80b429	0.06284363
13	0x3d9e9890	0.07743943
14	0x3ddd6987	0.10811143
15	0x3d922c92	0.07137407
16	0xbd96126f	-0.07327735
17	0x3d9acc0b	0.07558449
18	0xbda7e359	-0.0819766
19	0xbd6a1bc7	-0.057155397
20	0xbd84ef64	-0.06490973
21	0xbc8809ad	-0.016606176
22	0x3d1c7b6e	0.03820365
23	0xbd6826c8	-0.05667761
24	0x3dbae99f	0.09126591
25	0x3bdc6bcf	0.006726719
26	0xbd3c4084	-0.045959964
27	0xbce23e09	-0.027617471
28	0xbdbcdf03	-0.092222236
29	0xbd3607d8	-0.044441074
30	0x3d8326f5	0.06403915
31	0x3db07467	0.08615952
32	0x3d658b94	0.056041315
33	0x3daf1dd2	0.0855061
34	0xbd585d9c	-0.052823648
35	0xbcda008d	-0.02661159
36	0x3cbd62a6	0.023118328
37	0x3d382dbb	0.044965487
38	0x3b1e28c8	0.0024133194
39	0xbb7e1ea2	-0.0038775583
40	0x3d1baf69	0.03800908
41	0xbbc1b695	-0.005911658
42	0xbdb1915e	-0.08670305
43	0xbbf44256	-0.007454197
44	0xbdb3b6b4	-0.08775082
45	0x3c61b81e	0.013776807
46	0x3dc038f4	0.09385863
47	0x3dbb90e0	0.09158492
48	0xbc86d04b	-0.016456744
49	0xbd000618	-0.03125581
50	0x3d2e90b3	0.042618465
51	0xbd748826	-0.059700154
52	0x3d15b5c8	0.036550313
53	0x3cd3c9ce	0.025853064
54	0x3cedc9f0	0.029026955
55	0x3d6b4c89	0.057446036
56	0x3d97656d	0.07392392
57	0xbd501876	-0.050804578
58	0xbd98c6d1	-0.07459796
59	0x3d5ce98a	0.053933658
60	0xbd8e219f	-0.069400065
61	0x3d7a98e9	0.061180983
62	0xbd3c45ff	-0.04596519
63	0x3c73ddea	0.014884451
64	0x3dba0d40	0.090845585
65	0x3d3cb36d	0.04606955
66	0x3d8805a4	0.06641701
67	0xbda197da	-0.078902915
68	0x3c26ba89	0.010176309
69	0xbd7f0777	-0.06226298
70	0xbcaec6f6	-0.021335106
71	0xbd3244de	-0.043522708
72	0xbb42bc79	-0.002971439
73	0x3dad37f0	0.08457935
74	0x3c9a2bc8	0.018819705
75	0x3d945fcb	0.072448336
76	0x3ce72d0d	0.028219724
77	0xbc86b213	-0.016442334
78	0x3c87189f	0.016491232
79	0xbd412591	-0.047154967
80	0x3c8475f7	0.016169531
81	0xbd7e04a6	-0.06201615
82	0x3d41dae1	0.04732788
83	0xbd047a20	-0.03234303
84	0xbd8e5500	-0.06949806
85	0xbca8a8a4	-0.020588227
86	0xbc8caf6d	-0.017173493
87	0x3cbdef51	0.023185404
88	0xbda98b45	-0.08278517
89	0x3cbf46fd	0.02334928
90	0x3cdf6363	0.027269071
91	0x3d0af2f0	0.03392309
92	0xbdb57385	-0.08859924
93	0x3cffd8b8	0.03123127
94	0xbd9380c9	-0.07202298
95	0x3cdb80f3	0.026794886
96	0xbc75bb13	-0.014998215
97	0x3d450209	0.048097644
98	0xbd4089ab	-0.04700629
99	0xbd5e7f3f	-0.05432057
100	0x3d4371fe	0.047716133
101	0xbcbcc61f	-0.02304369
102	0xbd394bb1	-0.0452382
103	0x3d1c3b05	0.038142223
104	0xbd132e27	-0.035932686
105	0xbdb34260	-0.087528944
106	0x3cd3f405	0.025873194
107	0x3cd90c7b	0.026495209
108	0xbd9b4b38	-0.07582706
109	0xbc018eff	-0.007907628
110	0x3c4575e8	0.012052037
111	0xbddf07f1	-0.108901866
112	0xbb4356bd	-0.0029806339
113	0x3d0ff244	0.035143152
114	0x3ce77795	0.028255263
115	0x3c72d3a4	0.014820967
116	0x3bab8fcc	0.005235648
117	0xbbc5155b	-0.0060145087
118	0x3d89192d	0.06694255
119	0x3d099f5e	0.03359925
120	0xbd54c775	-0.05194803
121	0xbccde388	-0.02513291
122	0xbd4f77f1	-0.050651494
123	0x3d89bb86	0.067252204
124	0x3c59c026	0.013290441
125	0xbd644768	-0.05573216
126	0xbc3f15f7	-0.011662952
127	0xbcbdb9ab	-0.023159822
128	0xbcd50131	-0.026001545
129	0xbcc3289c	-0.023823075
130	0xbd0a4a9e	-0.033762567
131	0xbdc8ce49	-0.09804971
132	0x3d3490f4	0.04408355
133	0xbd7b1fed	-0.061309744
134	0xbc6ed121	-0.014576227
135	0xbd158eed	-0.036513258
136	0x3dbeee1e	0.09322761
137	0x3d925882	0.07145788
138	0x3cda0a25	0.026616165
139	0x3d9c80ac	0.0764173
140	0xbd91d9de	-0.07121633
141	0xbd453cab	-0.04815356
142	0x3c5f6f0e	0.013637317
143	0x3cf2534d	0.029580737
144	0xbbd48f74	-0.0064868275
145	0xbdda32d6	-0.106542274
146	0xbc078336	-0.008271029
147	0x3d13456e	0.035954885
148	0x3c13ea08	0.009027965
149	0xbde6092d	-0.11232219
150	0x3b17b016	0.0023145727
151	0xbd4ec79f	-0.050483342
152	0xbce861f0	-0.028367013
153	0xbcd4c1c7	-0.025971306
154	0x3c197a81	0.009367586
155	0xbd0590ee	-0.03260892
156	0xbca78167	-0.020447446
157	0xbc4dbd6a	-0.012557367
158	0xbdb7719b	-0.089572154
159	0xbd1139af	-0.035455402
160	0x3da55794	0.08073345
161	0x3cbca499	0.023027705
162	0xbd9caef7	-0.076505594
163	0x3cc6342d	0.024194801
164	0x3c6e63d0	0.014550164
165	0xbd8632de	-0.06552671
166	0x3d2030b2	0.03910894
167	0x3d089487	0.03334477
168	0x3bc9dc6a	0.0061603086
169	0x3d092200	0.03347969
170	0x3d352aef	0.044230398
171	0x3d6bc13e	0.057557337
172	0xbd1f60a6	-0.03891053
173	0xbd5b44da	-0.05353246
174	0x3d96e58d	0.07368002
175	0x3c0547c9	0.008134791
176	0x3d7270df	0.059189674
177	0xbd97797a	-0.07396217
178	0x3d079d4c	0.033108994
179	0x3d715ea6	0.058928154
180	0xbdb3542c	-0.08756289
181	0xbcdb5627	-0.02677448
182	0xbdebbcf7	-0.115106516
183	0xbd97079d	-0.07374499
184	0xbd2b92f9	-0.04188821
185	0xbd44a514	-0.048008993
186	0xbcc5fc8b	-0.024168273
187	0xbda8fca1	-0.0825131
188	0xbbedc582	-0.007256211
189	0xbd7e8ecc	-0.0621479
190	0xbdc8ac9c	-0.097985476
191	0xbd7e8f02	-0.0621481
192	0x3c2d45b4	0.010575701
193	0x3d8ef40b	0.06980141
194	0xbd5fe771	-0.05466408
195	0x3cd04bc3	0.025426751
196	0xbc0e5cd0	-0.00868912
197	0xbd928c85	-0.07155708
198	0x3d9ad3c0	0.07559919
199	0x3c1d9bac	0.009619635
200	0x3d9e0c17	0.0771715
201	0x3d61572e	0.05501478
202	0x3d11e53a	0.035618998
203	0xbb35544b	-0.002766865
204	0xbd1760c7	-0.03695753
205	0xbd2d5019	-0.042312715
206	0x3ce4f2df	0.027947841
207	0xbd10bb03	-0.0353346
208	0x3d6d27aa	0.057899155
209	0x3d15983d	0.03652214
210	0x3b44329b	0.002993739
211	0x3c9a2852	0.018818054
212	0x3b7a4aca	0.003819155
213	0x3cbac729	0.022800045
214	0xbd3a7bc5	-0.045528192
215	0x3d936d8a	0.07198627
216	0x3d805104	0.062654525
217	0xbd7c69f6	-0.06162449
218	0x3cfbb19b	0.030724337
219	0xbd81da27	-0.063404374
220	0x3d5f4abc	0.05451463
221	0x3d5ba729	0.053626213
222	0xbd8e1ebe	-0.06939457
223	0x3daaac13	0.08333602
224	0x3d944281	0.07239247
225	0x3d00057b	0.031255227
226	0x3d0471df	0.03233516
227	0xbd5e11c6	-0.05421617
228	0x3d3352de	0.0437802
229	0xbda1d2b6	-0.07901518
230	0xbd4c3eef	-0.049864706
231	0x3d88e680	0.066845894
232	0x3d5b5d01	0.053555492
233	0xbd645a20	-0.055750012
234	0x3d0262ca	0.031832494
235	0x3d537eee	0.05163472
236	0xbdb221a2	-0.08697821
237	0x3d844ecb	0.06460341
238	0x3d3500e8	0.044190317
239	0xbd022928	-0.03177753
240	0x3b2d6683	0.0026458807
241	0x3cb61df8	0.022231087
242	0xbcbe48db	-0.0232281
243	0x3d0bed0a	0.034161605
244	0x3d4934d8	0.04912266
245	0xbd92d4dc	-0.07169506
246	0xbd5c9f6e	-0.05386298
247	0xbd837972	-0.06419648
248	0xbd899ce7	-0.0671938
249	0x3c9a8be0	0.018865526
250	0x3d3db1dc	0.046312198
251	0xbd8b2810	-0.06794751
252	0x3b6bc36b	0.0035974632
253	0x3d800143	0.06250241
254	0xbc5d070e	-0.0134904515
255	0x3d66276e	0.056189947

layer2.0.bias f4 [16]
0	0x3c8509b5	0.01623998
1	0xbd06529a	-0.03279362
2	0xbc491f60	-0.012275547
3	0xbd1b4405	-0.037906665
4	0x3cdfa31e	0.02729946
5	0xbd57c6ba	-0.052679755
6	0x3da72a8c	0.08162412
7	0x3d5a0d37	0.05323526
8	0xbd170023	-0.036865365
9	0xbd6baf05	-0.05753996
10	0xbd5170aa	-0.051132835
11	0x3d1b500c	0.037918136
12	0x3d5b337b	0.053515892
13	0x3c819779	0.015819298
14	0xbd8fc210	-0.07019436
15	0xbd8bbc86	-0.06823067

layer2.1.weight f4 [16]
0	0x3f846b34	1.0345216
1	0x3f73bafb	0.95207185
2	0x3f80b24c	1.0054412
3	0x3f8568db	1.0422624
4	0x3f80d1b3	1.0063995
5	0x3f8145c5	1.0099417
6	0x3f817d27	1.0116318
7	0x3f7f4a01	0.99722296
8	0x3f7d6651	0.9898425
9	0x3f7b018c	0.98049235
10	0x3f813e74	1.0097184
11	0x3f82bea5	1.021443
12	0x3f6e3ac0	0.93058395
13	0x3f825a6d	1.0183846
14	0x3f794c67	0.97382206
15	0x3f770709	0.9649511

layer2.1.bias f4 [16]
0	0x3c84c3af	0.01620659
1	0xbca7ea62	-0.020497505
2	0x3a7d1dd4	0.0009655629
3	0x3b4e183e	0.0031447555
4	0xbb43cf86	-0.0029878332
5	0xbbe72c6a	-0.007054855
6	0xbc106df0	-0.008815274
7	0xbc53a484	-0.012917642
8	0xbcc784e3	-0.024355358
9	0xbd09837c	-0.03357266
10	0xbc21b0d0	-0.009868816
11	0xbc27957b	-0.01022851
12	0xbd6f20af	-0.05838078
13	0xbc6f1105	-0.01459146
14	0xbc89b448	-0.016809598
15	0xbd4b52cd	-0.04963951

layer3.0.weight f4 [64, 16, 3, 3]
0	0xbd96d4e5	-0.07364825
1	0x3d1befa0	0.03807032
2	0x3da12c8b	0.07869824
3	0xbd54052a	-0.051762737
4	0xbcc532f8	-0.024072155
5	0xbd01fd62	-0.031735785
6	0x3d378432	0.044803806
7	0x3a94871b	0.0011331768
8	0x3d90459f	0.07044529
9	0x3d72503c	0.05915855
10	0xbaf79c39	-0.0018891162
11	0x3d8fb255	0.07016436
12	0x3d307acb	0.043085855
13	0x3d8cb294	0.068699986
14	0xbd7c94dd	-0.061665405
15	0xbcf039ce	-0.029324438
16	0xbd367bbf	-0.044551607
17	0xbd2f2289	-0.042757545
18	0x3d9ce8ab	0.076615654
19	0x3da8282d	0.08210788
20	0x3ccd41a0	0.025055707
21	0x3d90c743	0.07069256
22	0xbcd00851	-0.02539459
23	0x3d250f2d	0.040297676
24	0x3cdccd16	0.026953261
25	0x3d476af3	0.04868598
26	0xbd8acff7	-0.067779474
27	0x3d5bb09d	0.05363523
28	0x3cb95465	0.02262325
29	0xbd93179c	-0.071822375
30	0x3db50be8	0.088401616
31	0x3ce96486	0.028490316
32	0x3d5774ab	0.052601498
33	0x3cb1bc7d	0.021696324
34	0x3d7c7f52	0.06164486
35	0x3d23986c	0.039940283
36	0xbb4a6d10	-0.003088776
37	0x3d808bc5	0.06276659
38	0x3dbcb9fc	0.09215161
39	0xbccefc30	-0.025266737
40	0x3b86f725	0.0041188174
41	0x3c8937ef	0.016750304
42	0x3d2e8230	0.042604625
43	0xbd471fc3	-0.048614275
44	0xbd83003b	-0.06396528
45	0xbd568eef	-0.052382406
46	0x3d38bd07	0.045102146
47	0xbd2bb87c	-0.041923985
48	0xbd4c7c24	-0.049923077
49	0x3d4f1e0d	0.050565768
50	0x3a3daf39	0.0007235888
51	0xbdbaa62b	-0.09113725
52	0x3d703106	0.058640502
53	0x3d7b770d	0.061392833
54	0x3c5d974c	0.0135248415
55	0xbdc0594a	-0.093920305
56	0x3cbf2c85	0.023336658
57	0x3c1e38cd	0.009657097
58	0x3d545171	0.05183548
59	0x3c16fd45	0.009215658
60	0xbdbfd7dc	-0.09367344
61	0x3caf5364	0.021402068
62	0x3d6e9e70	0.058256567
63	0xbc870072	-0.016479705
64	0xbdc8835b	-0.09790679
65	0x3c5209d1	0.012819723
66	0x3d227e6c	0.039671347
67	0x3ca30c08	0.019903198
68	0xbd8d227a	-0.068913415
69	0x3d4123ca	0.04715327
70	0x3ca07170	0.019585341
71	0xbcd5e35d	-0.026109392
72	0x3d55509c	0.05207883
73	0xbd67f4e3	-0.056630027
74	0xbcb4d32d	-0.022073353
75	0xbd7b8944	-0.061410204
76	0xbd904f11	-0.07046331
77	0xbdde4a86	-0.10854058
78	0x3d51a272	0.05118031
79	0x3d1c2e42	0.038130052
80	0x3b173c8d	0.0023076863
81	0xbc89fc88	-0.01684405
82	0xbb2c9f1b	-0.0026339951
83	0xbcdd6926	-0.027027678
84	0xbd303bbc	-0.043025717
85	0x3dd5c022	0.10437037
86	0x3d2e0458	0.04248461
87	0xbd5a2e7a	-0.05326698
88	0xbd863a10	-0.06554043
89	0xbc1b0303	-0.009461167
90	0xbcb4a46f	-0.022051064
91	0xbd8d3a2c	-0.06895861
92	0xbaac4aaf	-0.0013144816
93	0xbcb7181b	-0.022350362
94	0x3d3fc77b	0.0468211
95	0xbda9363a	-0.08262296
96	0x3da23b8a	0.079215124
97	0xbd4764da	-0.048680164
98	0xbd542a4e	-0.051798157
99	0x3d23c4df	0.039982673
100	0x3d0328f0	0.032021463
101	0x3d8d5efa	0.06902881
102	0x3dae9267	0.08524018
103	0xbd0d8435	-0.03454991
104	0xbc03df7a	-0.008048886
105	0xbc09f5eb	-0.008420448
106	0x3ce5c024	0.028045721
107	0xbd1a012c	-0.037598774
108	0xbd68762f	-0.056753334
109	0xbda04999	-0.07826538
110	0x3c66eed4	0.014095027
111	0xbb9fe486	-0.004879537
112	0xbc48d611	-0.012258069
113	0x3d61824c	0.0550559
114	0x3d60ce67	0.05488434
115	0xbda2e791	-0.07954324
116	0x3d80a20a	0.062809065
117	0xbd2ca472	-0.042149015
118	0xbd23247d	-0.03982972
119	0x3d82fc3a	0.06395765
120	0x3c9789e6	0.018498372
121	0xbd2a80c0	-0.04162669
122	0xbd64bc64	-0.055843726
123	0xbd7c2809	-0.061561618
124	0xbd548f2b	-0.051894348
125	0xbd3eb9ae	-0.046563797
126	0xbd487fda	-0.048950054
127	0xbbb27d94	-0.005447099
128	0x3d2fa6bc	0.04288362
129	0xbd131249	-0.03590611
130	0x3d097c36	0.033565722
131	0x3c203e53	0.009780484
132	0xbdc453d0	-0.095862985
133	0xbd9412dc	-0.0723016
134	0x3ce0a418	0.027421996
135	0x3da324ff	0.07966041
136	0x3d5f62b6	0.054537497
137	0x3d86ed22	0.06588198
138	0xbc702e23	-0.014659437
139	0xbd0045fe	-0.03131675
140	0xbd5f7bbd	-0.054561365
141	0x3d5bab31	0.053630058
142	0xbd1b0f01	-0.037856106
143	0xbbfbb73c	-0.0076817553
144	0xbc30cdd9	-0.010791265
145	0x3deccdd7	0.11562698
146	0x3d16216a	0.03665296
147	0xbd33f565	-0.0439352
148	0x3b660b63	0.0035102002
149	0x3bce726a	0.0063002603
150	0x3d94e7d3	0.072707795
151	0x3acf4343	0.0015812892
152	0xbcbddbdf	-0.023176132
153	0x3d419c0f	0.04726797
154	0x3d093674	0.033499196
155	0x3d46d3e0	0.048541903
156	0xbd8a3392	-0.067481175
157	0x393cc7a1	0.00018003445
158	0x3d417cf0	0.04723829
159	0xbccaf9a5	-0.024777243
160	0x3d482615	0.048864443
161	0x3da810f2	0.08206357
162	0xbd618370	-0.05505699
163	0xbd7287fc	-0.059211716
164	0x3da11fa6	0.078673646
165	0x3d3fb73b	0.0468056
166	0xbc25f808	-0.010129936
167	0xbd7bfee7	-0.06152239
168	0xbd65b03c	-0.056076273
169	0x3c074623	0.008256468
170	0x3c84e140	0.016220689
171	0x3d9781e1	0.07397819
172	0x3da935a6	0.08262186
173	0x3db220ff	0.086977
174	0x3da53230	0.08066213
175	0xbd6f55ff	-0.05843162
176	0x3d381493	0.044941496
177	0xbd1e85ba	-0.03870175
178	0x3d68ac60	0.056805015
179	0x3db51437	0.08841746
180	0x3949274b	0.00019183492
181	0x3db8cca4	0.09023407
182	0xbbad1026	-0.005281466
183	0xbcbd990a	-0.023144264
184	0x3da43923	0.080187105
185	0xbd56d116	-0.052445494
186	0x3d1fab6e	0.038981847
187	0xbd4164b7	-0.04721519
188	0x3dd06c8c	0.10176954
189	0xbd6ce4ff	-0.057835575
190	0x3d03f69a	0.0322176
191	0x3cb0fe85	0.02160574
192	0x3cd8f8aa	0.02648576
193	0xbcc64fb8	-0.024207935
194	0xbd0ed556	-0.03487142
195	0x3b569298	0.0032741185
196	0xbca46d91	-0.020071777
197	0xbcef8838	-0.029239759
198	0xbd68993d	-0.056786764
199	0x3c414167	0.011795378
200	0x3badb03c	0.00530055
201	0xbd170908	-0.036873847
202	0x3cdc956e	0.026926722
203	0x3d09b9f1	0.033624593
204	0x3d355893	0.044273924
205	0xbca70b3d	-0.020391101
206	0xbc19e4f9	-0.00939297
207	0xbd0ca75b	-0.03433929
208	0x3d67e9c8	0.056619436
209	0xbd27de8c	-0.04098372
210	0x3d274499	0.040836904
211	0x3d2ae6da	0.041724063
212	0x3ca66acf	0.020314602
213	0xbdad94c9	-0.08475644
214	0x3d503921	0.050835732
215	0x3d167e20	0.036741376
216	0x3d32aa33	0.043619346
217	0x3d5dd5d7	0.05415901
218	0x3d735a11	0.059412066
219	0xbcde20fe	-0.027115341
220	0xbc24a177	-0.010048262
221	0x3db7565b	0.08952018
222	0x3d9c7124	0.07638767
223	0x3cd67fad	0.026183927
224	0xbd2e98ac	-0.042626068
225	0xbd925fd6	-0.071471855
226	0x3ca10d94	0.019659795
227	0xbd8a0c74	-0.067406565
228	0xbda576ba	-0.08079286
229	0x3d412a6f	0.04715961
230	0x3c21abe0	0.009867638
231	0xbcef5127	-0.029213501
232	0xbde1d42a	-0.11026795
233	0xbc330b28	-0.010927953
234	0xbd697ae8	-0.05700198
235	0x3da9ded0	0.08294451
236	0x3d9e6d26	0.07735662
237	0x3c11b4d0	0.008893207
238	0x3d8a7485	0.067605056
239	0xbd143683	-0.0361848
240	0xbcead952	-0.02866808
241	0x3db895aa	0.09012921
242	0xba8c98f4	-0.0010726736
243	0xbcc8b388	-0.02449967
244	0x3c057d31	0.008147524
245	0x3dca3a0e	0.09874354
246	0xbdb19285	-0.086705245
247	0xbd19255b	-0.03738914
248	0x3d6ba68e	0.057531886
249	0xbc5393fd	-0.012913701
250	0x3d2ad69b	0.04170857
251	0x3d5fcbb0	0.05463761
252	0xbce8dda5	-0.028426
253	0x3d331091	0.04371697
254	0xbd2173a3	-0.03941692
255	0xbd8ced04	-0.06881145

layer3.0.bias f4 [64]
0	0xbc3f6ccf	-0.011683657
1	0x3c7e8b73	0.015536177
2	0x3b543cfb	0.003238498
3	0x3bf090d4	0.0073414836
4	0x3d857f1c	0.06518385
5	0xbd9a7cf8	-0.07543367
6	0xbd1e2e45	-0.038618345
7	0xbcc5eeca	-0.024161715
8	0x3c750809	0.014955529
9	0xbd9bbe10	-0.07604611
10	0x3d117b64	0.035518065
11	0xbca60739	-0.020267116
12	0x3b98f987	0.004668418
13	0xbc90475b	-0.01761215
14	0x3d95cf5e	0.07314943
15	0xbce24b0e	-0.02762368
16	0x3d9cdfa4	0.076598436
17	0x3cc18bce	0.023626234
18	0xbd2ce57e	-0.04221105
19	0x3c48d874	0.012258638
20	0xbd5c9fd5	-0.053863365
21	0xbd679749	-0.05654076
22	0xbcd7c271	-0.026337834
23	0x3d62fd76	0.0554175
24	0x3d6a4213	0.05719192
25	0x3b7b8608	0.003837945
26	0xbda6aac4	-0.0813804
27	0x3daa007c	0.08300874
28	0x3d87a63c	0.066235036
29	0xbc3a0959	-0.011354768
30	0x3d13fe07	0.03613093
31	0xbc8c6d9d	-0.017142111
32	0xbce5d799	-0.028056907
33	0x3d1cfdb5	0.03832789
34	0x3cc3cc01	0.023900988
35	0xbd4539fa	-0.048150994
36	0xbd2a01aa	-0.041505493
37	0x3d2fc47a	0.042911984
38	0xbd2a2e91	-0.041548315
39	0x3ce9ec2c	0.028554998
40	0xbdb83f38	-0.08996433
41	0x3d1b2dc1	0.03788543
42	0xbce53203	-0.027977949
43	0xbd1fae2e	-0.03898447
44	0xbd042283	-0.032259475
45	0xbc255a70	-0.010092363
46	0xbd5cc103	-0.053895008
47	0x3c8fe716	0.017566245
48	0x3da0ce70	0.07851875
49	0xbc988d29	-0.018621998
50	0x3cd0882c	0.025455557
51	0xbd7476d0	-0.05968362
52	0xbc92a716	-0.017901938
53	0xbd8143f7	-0.063117914
54	0x3d9bf57f	0.07615184
55	0x3da13153	0.07870736
56	0x3c91291c	0.017719798
57	0xbc8edc7b	-0.017439118
58	0xbc1f9149	-0.0097392285
59	0x3dadbbed	0.084831096
60	0xbd845433	-0.06461372
61	0xbd0e566a	-0.03475038
62	0xbd8e7b75	-0.06957141
63	0xbbed0b12	-0.0072339857

layer3.1.weight f4 [64]
0	0x3f811bd4	1.0086617
1	0x3f7e45ac	0.9932506
2	0x3f829b9f	1.0203742
3	0x3f843102	1.0327456
4	0x3f7d56a3	0.9896032
5	0x3f7de2f3	0.9917442
6	0x3f82a437	1.0206364
7	0x3f83b8de	1.0290792
8	0x3f7b744c	0.9822433
9	0x3f78863b	0.9707982
10	0x3f817110	1.0112629
11	0x3f741173	0.95339125
12	0x3f800a4e	1.0003145
13	0x3f840726	1.0314682
14	0x3f7df615	0.99203616
15	0x3f80e71f	1.0070533
16	0x3f7a669c	0.9781282
17	0x3f81e373	1.0147537
18	0x3f818aa3	1.0120434
19	0x3f7e2108	0.9926915
20	0x3f806626	1.0031173
21	0x3f7f0e48	0.99631166
22	0x3f846643	1.0343708
23	0x3f81d7fd	1.0144039
24	0x3f80af1f	1.0053443
25	0x3f80fd58	1.0077314
26	0x3f819a6a	1.0125248
27	0x3f7e1e0d	0.99264604
28	0x3f8417a1	1.0319711
29	0x3f7f4909	0.9972082
30	0x3f82a660	1.0207024
31	0x3f801bf1	1.0008527
32	0x3f837a1b	1.0271639
33	0x3f84d3b7	1.037711
34	0x3f7813f0	0.9690542
35	0x3f812b77	1.009139
36	0x3f799a01	0.97500616
37	0x3f81d2ed	1.0142494
38	0x3f7e931c	0.9944322
39	0x3f81f45a	1.0152695
40	0x3f7abf60	0.97948265
41	0x3f82e236	1.0225284
42	0x3f7dcc01	0.9913941
43	0x3f7c49bb	0.98550004
44	0x3f80f781	1.0075532
45	0x3f7ba25c	0.98294616
46	0x3f806455	1.0030619
47	0x3f7e04d1	0.992261
48	0x3f7f2242	0.9966165
49	0x3f7eb785	0.9949878
50	0x3f7c57b7	0.9857134
51	0x3f7fb301	0.99882513
52	0x3f7d6349	0.9897962
53	0x3f81701a	1.0112336
54	0x3f799920	0.97499275
55	0x3f81a992	1.0129874
56	0x3f761b1a	0.96135104
57	0x3f78e1b2	0.97219384
58	0x3f848b4c	1.035501
59	0x3f77d9ee	0.9681691
60	0x3f80d95e	1.0066335
61	0x3f83a23f	1.0283889
62	0x3f8724b0	1.0558071
63	0x3f818f58	1.012187

layer3.1.bias f4 [64]
0	0x3c16f027	0.00921253
1	0x3af43215	0.0018630648
2	0x3b8f9953	0.0043822913
3	0x3c123711	0.008924262
4	0xbc42ddad	-0.011893672
5	0xbcf815da	-0.030283857
6	0xb84d0697	-4.8881946e-05
7	0xbb8dbff8	-0.004325863
8	0xbce8361f	-0.02834612
9	0xbcf4be23	-0.02987582
10	0xbbdff875	-0.0068350383
11	0xbd315c8f	-0.04330116
12	0xbb39da71	-0.002835896
13	0x3b3d228c	0.0028859703
14	0xbc530782	-0.012880208
15	0xbcab21b9	-0.020890104
16	0xbc8e7dc5	-0.017393956
17	0xbc2ebce4	-0.010665152
18	0xb8efd01e	-0.00011435173
19	0xbbfc7b90	-0.0077051595
20	0xbb88e72e	-0.0041779494
21	0xbc8e4285	-0.017365703
22	0x3b12dcae	0.0022409367
23	0x3b121d56	0.0022295318
24	0xbbbb201d	-0.0057106153
25	0xbb4899f2	-0.0030609337
26	0xbbd12deb	-0.0063836477
27	0xbb660a7c	-0.0035101464
28	0xbc87c7fa	-0.016574848
29	0xbd02ae5d	-0.031904567
30	0xbc1b1c06	-0.0094671305
31	0x39b1b20d	0.0003389273
32	0x3ca269cf	0.019825844
33	0xbb82bae1	-0.003989563
34	0xbcb70402	-0.022340778
35	0xbb648260	-0.0034867749
36	0xbce44dfb	-0.027869215
37	0xbbd31703	-0.006441952
38	0xbaaade0c	-0.0013036146
39	0x3c2f207c	0.010688897
40	0xbd1f342e	-0.03886812
41	0x39b8b4be	0.00035229878
42	0xbc2c7bba	-0.010527546
43	0xbcf9102c	-0.03040322
44	0xbc068e91	-0.008212701
45	0xbc278e94	-0.010226864
46	0xbc3dbc97	-0.011580608
47	0xbad25253	-0.0016046263
48	0xbb52549a	-0.0032093883
49	0xb9a337f5	-0.00031131474
50	0x3a5735ac	0.0008209597
51	0x397529b7	0.00023380561
52	0xbc2b9c33	-0.0104742525
53	0xbc42fc53	-0.011900979
54	0xbcd42e2b	-0.02590092
55	0xbb16cf59	-0.0023011772
56	0xbd0e899f	-0.034799214
57	0xbd11bc62	-0.035580046
58	0x3b4bcce8	0.0031097475
59	0xbcf54e82	-0.029944662
60	0xb9681dec	-0.00022136391
61	0x3b624818	0.0034527835
62	0xba019d7b	-0.0004944426
63	0xbb59e17b	-0.003324597

layer4.0.weight f4 [64, 64, 3, 3]
0	0xbc18e30b	-0.009331475
1	0xbc96908e	-0.018379476
2	0xbce4f3ec	-0.027948342
3	0x3c05badc	0.0081622265
4	0x3d0d9b8a	0.03457216
5	0x3d6052bc	0.0547664
6	0x3d19e288	0.037569553
7	0x3bcb064c	0.006195819
8	0x3d1cf866	0.03832283
9	0x3c90948a	0.017648954
10	0xbc1a9bcb	-0.009436558
11	0xbd83ccbc	-0.06435534
12	0xbce5487d	-0.027988667
13	0x3c88dd77	0.016707165
14	0xbd3a8d04	-0.04554464
15	0x3ae65eda	0.0017575875
16	0xbd032634	-0.032018855
17	0xbca1bd80	-0.019743681
18	0x3cda09f9	0.026616083
19	0x35ab14a7	1.2746503e-06
20	0x3cc66347	0.024217261
21	0xbb2c6d60	-0.002631031
22	0xbd3606b5	-0.04443999
23	0xbd4e6bad	-0.050395656
24	0xbc55fcd2	-0.013060765
25	0xbcd7c394	-0.026338376
26	0xbc256df5	-0.010097017
27	0xbd151916	-0.036400877
28	0x3b5345c0	0.003223762
29	0xbd95509d	-0.072907664
30	0xbc599c97	-0.013281963
31	0x3c4b7e2c	0.012420218
32	0xbd248d18	-0.04017362
33	0xbca3fc50	-0.020017773
34	0xbd4557d4	-0.048179463
35	0xbc6bc6b9	-0.014390641
36	0xbae03b8d	-0.0017107591
37	0x3cbf0900	0.023319721
38	0x3d285925	0.04110064
39	0xbcca8fd0	-0.024726778
40	0x3c6fe533	0.014642048
41	0x3d8891bd	0.06668422
42	0xbd725e12	-0.059171744
43	0xbc9c9826	-0.019115519
44	0xbcd9b00e	-0.026573207
45	0x3d07d9e5	0.033166785
46	0xbba3b0ce	-0.004995442
47	0x3c70a6db	0.014688219
48	0x3d232f09	0.039839778
49	0xbd641349	-0.055682454
50	0xbd696d3e	-0.056988947
51	0x3cde52eb	0.027139148
52	0x3ba4291b	0.005009783
53	0x3ca151c0	0.019692302
54	0xbc9bbf2f	-0.019012062
55	0x3d29882e	0.041389637
56	0x3d307adf	0.04308593
57	0xbcc6792f	-0.024227707
58	0x3d0e1bd6	0.034694515
59	0x3d252874	0.040321782
60	0x3d200520	0.039067388
61	0x3d717dac	0.05895774
62	0x3c263d52	0.010146456
63	0xbdb43c0c	-0.088005155
64	0xbbf44e1b	-0.0074556
65	0x3d7a3df4	0.06109424
66	0xbd66c725	-0.056342263
67	0x3d05de0f	0.032682475
68	0x3cbf9a7b	0.023389092
69	0xbd23aa84	-0.03995754
70	0x3b6fecb7	0.00366096
71	0x3be8adb9	0.0071007875
72	0x3c57efda	0.013179744
73	0xbaf0d838	-0.0018374985
74	0xbd1b20ea	-0.037873186
75	0xbb22ff6d	-0.0024871484
76	0x3d078e41	0.03309465
77	0x3c9a79a3	0.018856829
78	0xbc54069d	-0.01294103
79	0xb96d223d	-0.00022614836
80	0xbd28981c	-0.041160688
81	0x379e72eb	1.888858e-05
82	0xbd20a10d	-0.03921609
83	0xbc3eab88	-0.011637576
84	0x3cf4535b	0.029824903
85	0xbc9a17f4	-0.01881025
86	0xbc92a1a4	-0.017899342
87	0x3cdf0c67	0.027227594
88	0xbcf8d73c	-0.03037607
89	0x3d03525e	0.032060973
90	0x3ceb3369	0.028711038
91	0x3bbc73d1	0.005751111
92	0xbb5d81f6	-0.0033799387
93	0x3d1b7f6b	0.037963312
94	0xbc18bf2c	-0.009322923
95	0x3c877da5	0.016539404
96	0x3cebaa58	0.02876775
97	0xbd629b5f	-0.055323955
98	0x3d25a5cf	0.04044133
99	0x3c392fbf	0.011302887
100	0x3c827f8b	0.015929958
101	0xbc9819ec	-0.018567048
102	0xbcc0c100	-0.02352953
103	0xbc900a9f	-0.01758319
104	0xbcf6ec89	-0.030142086
105	0xbc82a356	-0.015947025
106	0xbb45b2f9	-0.003016649
107	0xbb9da43b	-0.0048108376
108	0xbd80085d	-0.06251595
109	0x3c34acbb	0.01102751
110	0xbc8885ef	-0.016665427
111	0xbcdc2d2f	-0.026877014
112	0xbd77c297	-0.06048831
113	0xbd5c2861	-0.053749446
114	0xbd59e90b	-0.053200763
115	0x3c51fcc6	0.012816614
116	0xbd4b30ea	-0.049607195
117	0xbbeb8cdc	-0.0071884226
118	0xbd500041	-0.050781492
119	0xbd2038ca	-0.03911666
120	0x3c18bb10	0.009321943
121	0xbc690e4a	-0.014224598
122	0xbd51bb43	-0.051203977
123	0x3c7bee50	0.015376642
124	0xbca884f2	-0.020571206
125	0xbc86a80e	-0.016437557
126	0x3af30ff4	0.0018544183
127	0xbd4059bf	-0.04696059
128	0x3b9c0b95	0.004762123
129	0xbaad0b3e	-0.0013202203
130	0xbcc4efff	-0.02404022
131	0xbbcce0fd	-0.0062524066
132	0x3ca1d9ed	0.019757235
133	0x3d0d344d	0.034473706
134	0x3d55ed21	0.052228097
135	0xbcf967ec	-0.030445062
136	0x3d007b25	0.03136744
137	0x3d24a316	0.040194593
138	0xbc9462b2	-0.018113468
139	0x3cc989db	0.024601867
140	0xbd0ed4a6	-0.034870766
141	0x3b35828b	0.0027696218
142	0x3b46e672	0.0030349758
143	0xbca5658f	-0.020190028
144	0xbccd516f	-0.025063245
145	0xbd123cd1	-0.03570253
146	0x3c5113b5	0.012761046
147	0xbd41c2ff	-0.047305103
148	0xbd693d66	-0.05694332
149	0x3cd92aff	0.02650976
150	0xbb811997	-0.003939818
151	0x3cdd9170	0.027046889
152	0x3bf154da	0.0073648514
153	0xbd60f06a	-0.054916777
154	0x3cb0aa41	0.021565558
155	0x3c3d0da7	0.0115388995
156	0xbd24b89e	-0.040215127
157	0xbcd380b9	-0.025818216
158	0x3cddc554	0.027071632
159	0x3c6c484d	0.014421535
160	0x3cb4407a	0.022003401
161	0x3ca45469	0.020059781
162	0xbb9d24b7	-0.0047956365
163	0xbc89fa25	-0.016842911
164	0xbbb2dc22	-0.005458371
165	0xbd5ea136	-0.05435296
166	0x3ba45bbc	0.0050158184
167	0xbd0e678e	-0.034766726
168	0xbd7acc75	-0.06123014
169	0xbd84e5fc	-0.064891785
170	0xbd52a1ba	-0.051423766
171	0xbc49d9c6	-0.012319988
172	0xbc956b95	-0.018239776
173	0xbce17200	-0.02752018
174	0xbd1972c9	-0.037462983
175	0x3c7cb64c	0.015424322
176	0x3d0376a8	0.03209558
177	0x3cbd5178	0.023110136
178	0xbc3fd706	-0.01170898
179	0x3da3a30b	0.07990082
180	0xbb2a8ec8	-0.0026025046
181	0x3ce77bc2	0.028257255
182	0xbce3c9fd	-0.027806276
183	0x3aad5541	0.001322426
184	0xbd0aa542	-0.03384901
185	0x3c680bc6	0.014162963
186	0x3c1c9bb1	0.009558604
187	0x3b9aef67	0.004728246
188	0x3c0ad970	0.008474693
189	0xbd15dcfa	-0.036587693
190	0x3ce850b8	0.028358802
191	0x3c7d2d47	0.0154526895
192	0xbcb16cce	-0.021658327
193	0x3c3c826e	0.011505706
194	0xbb2d64e1	-0.0026457834
195	0x3cc24ed6	0.023719233
196	0x3cd06d19	0.025442647
197	0xbd0dfa29	-0.0346624
198	0x3c242c2d	0.010020298
199	0xbc8e69d3	-0.017384445
200	0x3d255e44	0.0403731
201	0xbc507de8	-0.012725331
202	0xbd0f53f1	-0.034992162
203	0xbab48560	-0.0013772659
204	0xbbd331f2	-0.006445163
205	0xbabceae9	-0.001441327
206	0x3d155af1	0.03646368
207	0xbb814243	-0.0039446666
208	0xbc1916ae	-0.009343786
209	0x3c53de79	0.01293146
210	0xbce60704	-0.028079517
211	0xbc3235b4	-0.010877062
212	0x3c8812dd	0.016610557
213	0xbccaf50d	-0.024775052
214	0xbc8c159c	-0.017100148
215	0xbc8e7fec	-0.017394982
216	0xbcfbbfdb	-0.030731132
217	0x3c953fea	0.018218953
218	0xbd17b984	-0.037042156
219	0x3d101ef0	0.035185754
220	0x3d3941a1	0.045228604
221	0x3cc79abf	0.02436578
222	0x3c84f639	0.01623069
223	0x3d452a0c	0.048135802
224	0x3bec6be6	0.007215011
225	0x3bd77739	0.0065754917
226	0xbd43cf6f	-0.047805246
227	0xbcded167	-0.02719946
228	0xbd6a8ec7	-0.05726507
229	0xbd01ea6f	-0.031717714
230	0xbb8bc692	-0.004265615
231	0xbc97d4bd	-0.018534059
232	0x3c956318	0.018235728
233	0xbd4c6f44	-0.0499108
234	0xbca5a8c4	-0.020222075
235	0xbcf799a0	-0.030224621
236	0xbcf029e6	-0.029316854
237	0x3bab7ea5	0.005233603
238	0xbd268366	-0.040652655
239	0xbcad7d92	-0.02117804
240	0x3d119bd1	0.03554899
241	0xbcd88440	-0.02643025
242	0xbd118deb	-0.035535734
243	0xbc6ae602	-0.014337065
244	0xbd3971e3	-0.045274626
245	0xbd5f5c2e	-0.05453127
246	0x3cc83220	0.024437964
247	0xbd2f5a79	-0.04281089
248	0xbc3733c0	-0.011181772
249	0xbcb6252a	-0.022234518
250	0xbcb37f25	-0.021911213
251	0xbd370fc6	-0.044692777
252	0xbd425697	-0.04744586
253	0xbc302539	-0.010751062
254	0x3b3b67ba	0.0028595761
255	0xbd9e24d5	-0.07721869

layer4.0.bias f4 [64]
0	0x3cb15781	0.02164817
1	0x3c48f102	0.012264492
2	0x3d144164	0.036195174
3	0x3d1574d9	0.036488388
4	0x3be70e6b	0.0070512793
5	0x3cdf37d7	0.027248306
6	0x3d2a91a5	0.041642804
7	0xbd0390e3	-0.032120597
8	0x3a53fb98	0.00080865016
9	0x3cdf2cac	0.02724298
10	0xbc228fba	-0.009921962
11	0x3bd4b379	0.0064911214
12	0xbc1f4cb7	-0.00972288
13	0x3c92e1b7	0.017929895
14	0xbc904000	-0.017608643
15	0x3c62d540	0.013844788
16	0xbcfae246	-0.030625474
17	0xbc82dad0	-0.015973479
18	0x3d09eaa4	0.033671036
19	0xbcb15076	-0.021644812
20	0x3d14ab73	0.03629632
21	0xba731cb6	-0.00092739926
22	0xba301f7b	-0.0006718558
23	0x3d1b9dbc	0.037992224
24	0xbd223f6d	-0.03961127
25	0x3d11b6cf	0.03557473
26	0xbd048d8a	-0.032361545
27	0x3b6f172b	0.0036482315
28	0xbd00bf29	-0.031432305
29	0x3cdda920	0.027058184
30	0xbc030b00	-0.007998228
31	0x3cdb94a3	0.026804274
32	0x3ce93a65	0.028470227
33	0x3d265a55	0.04061349
34	0x3c4a18f9	0.0123350555
35	0xbb3b6040	-0.0028591305
36	0x3cb81a4c	0.022473477
37	0xbbececda	-0.0072303833
38	0x3cc44e91	0.023963245
39	0xbcdfc631	-0.027316185
40	0x3ce55a79	0.027997242
41	0x3bc55d75	0.006023104
42	0x3d033c52	0.032039948
43	0xbcbf059b	-0.023318103
44	0x3c8fa5ce	0.017535117
45	0x3b8578b3	0.0040732264
46	0x3c172020	0.009223968
47	0x3c8b75cd	0.017023945
48	0x3cfc9b79	0.030835854
49	0x3c5c81f5	0.013458719
50	0x3d2aa2b5	0.041659076
51	0xbc98ce16	-0.018652957
52	0x3c89031a	0.016725112
53	0x3c845e19	0.01615815
54	0xbcc781b9	-0.024353849
55	0x3c66de72	0.014091121
56	0xbcd3f260	-0.02587241
57	0xbc83ccb0	-0.016088814
58	0xbce4a370	-0.027909964
59	0xbcd0ef9e	-0.025504883
60	0xbcc0dfde	-0.023544248
61	0x3d1652ea	0.036700167
62	0xbc790c35	-0.015200664
63	0xbcf9f89d	-0.030514056

layer4.1.weight f4 [64]
0	0x3f831593	1.0240959
1	0x3f8114e8	1.0084505
2	0x3f7d9def	0.9906911
3	0x3f814fdf	1.01025
4	0x3f7c6b54	0.9860127
5	0x3f7af416	0.98028696
6	0x3f817845	1.0114828
7	0x3f81bed2	1.0136359
8	0x3f809480	1.0045319
9	0x3f85705e	1.0424917
10	0x3f80f104	1.0073552
11	0x3f7daa20	0.99087715
12	0x3f87cb1a	1.0608857
13	0x3f7bc9ad	0.9835461
14	0x3f80c6b5	1.006064
15	0x3f77c726	0.9678825
16	0x3f7de050	0.991704
17	0x3f80bcf3	1.0057663
18	0x3f815b7b	1.0106043
19	0x3f78fc0a	0.9725958
20	0x3f806441	1.0030595
21	0x3f75de47	0.96042293
22	0x3f7ea437	0.9946932
23	0x3f80d588	1.0065165
24	0x3f7d55ae	0.9895886
25	0x3f805234	1.0025086
26	0x3f800b34	1.0003419
27	0x3f784309	0.9697729
28	0x3f81b902	1.0134585
29	0x3f8187cb	1.0119566
30	0x3f826ff9	1.0190421
31	0x3f7e1329	0.99247986
32	0x3f824e89	1.0180217
33	0x3f813cab	1.0096639
34	0x3f836208	1.0264292
35	0x3f80bfbd	1.0058514
36	0x3f7832f2	0.96952736
37	0x3f83afdf	1.0288047
38	0x3f79e18b	0.97609776
39	0x3f816782	1.0109713
40	0x3f7f9e1b	0.99850625
41	0x3f7a8907	0.9786534
42	0x3f7c4bcc	0.98553157
43	0x3f7a0206	0.9765934
44	0x3f858ab6	1.0432956
45	0x3f81355c	1.0094409
46	0x3f73ede4	0.9528487
47	0x3f7bec1e	0.9840716
48	0x3f7fd2cd	0.9993103
49	0x3f7c4f85	0.9855884
50	0x3f7b6ca5	0.98212653
51	0x3f7e6ce9	0.99384934
52	0x3f802810	1.0012226
53	0x3f7fdaea	0.9994341
54	0x3f839a92	1.0281546
55	0x3f7becbe	0.98408115
56	0x3f7e43ce	0.9932221
57	0x3f80a931	1.0051633
58	0x3f77ff39	0.96873814
59	0x3f81030f	1.0079058
60	0x3f7abbd2	0.9794284
61	0x3f80cda1	1.0062753
62	0x3f823eea	1.017545
63	0x3f7bc2e4	0.98344254

layer4.1.bias f4 [64]
0	0x3b8a9dff	0.0042302604
1	0xbb81be02	-0.0039594183
2	0xbc971698	-0.01844339
3	0xbb52ebbc	-0.0032183966
4	0xbca27a56	-0.019833725
5	0xbb6cc8e1	-0.0036130475
6	0xba44c5a9	-0.00075062603
7	0x3cafd348	0.021463051
8	0xbc9cf217	-0.019158406
9	0xbc3264c6	-0.010888284
10	0xbd1cfd4c	-0.0383275
11	0xbc50b9c8	-0.012739606
12	0x3c2caec6	0.010539716
13	0xbc5899a2	-0.013220223
14	0xbc7c6f28	-0.015407361
15	0xbceddc6c	-0.02903577
16	0xbc9f865b	-0.019473245
17	0xba7119ba	-0.0009197254
18	0xbb7df567	-0.0038751008
19	0xbcbc2b36	-0.022969823
20	0x3ab73ee7	0.0013980538
21	0xbd37635f	-0.044772502
22	0xbcc9690e	-0.024586227
23	0xbc407741	-0.011747182
24	0xbc610cbf	-0.013735949
25	0xbbf35275	-0.007425601
26	0xbc9b95f0	-0.018992394
27	0xbd07940e	-0.03310018
28	0xbbf8d582	-0.0075938115
29	0x3c28b3e4	0.0102967955
30	0x3c4c4f8b	0.012470136
31	0xbc006f6f	-0.007839068
32	0x3b4aa11f	0.003091879
33	0x3c938d7b	0.0180118
34	0x3bcd8bb3	0.006272757
35	0x3ca069e5	0.019581744
36	0xbd12a2e8	-0.03579989
37	0xba7102f8	-0.0009193863
38	0xbcc67c30	-0.02422914
39	0xbc23fecf	-0.010009482
40	0xbc9f720b	-0.01946356
41	0xbd14057d	-0.036138047
42	0xbcccfbf8	-0.025022492
43	0xbce71355	-0.02820746
44	0xbbb32864	-0.0054674614
45	0xbc9599a1	-0.018261733
46	0xbd4bf3c0	-0.049793005
47	0xbc07746b	-0.008267502
48	0xbc91c5b6	-0.017794471
49	0xbcadfa62	-0.021237556
50	0xbc8fb5d0	-0.01754275
51	0xbc8a3e9d	-0.01687556
52	0xbbab3997	-0.005225371
53	0xbb6fedc1	-0.0036610218
54	0xbba643ee	-0.005074016
55	0xbccd4478	-0.025057063
56	0xbc0c6077	-0.008567921
57	0xbc12891d	-0.008943823
58	0xbd0460cb	-0.03231887
59	0xbbdf4b9c	-0.0068144333
60	0xbc9e9e10	-0.01936248
61	0x3b762a78	0.0037561934
62	0xbbf699ab	-0.007525643
63	0xbcfd7b15	-0.03094248

layer5.0.weight f4 [64, 64, 3, 3]
0	0x3adabd3a	0.0016688474
1	0x3ceaf85c	0.02868288
2	0xbbed582c	-0.007243177
3	0xbb9c90c2	-0.0047779987
4	0xbc1c292b	-0.0095313
5	0xbd6441d6	-0.05572685
6	0xbc86f47a	-0.016473997
7	0xbd36839b	-0.044559103
8	0xbba86247	-0.0051386687
9	0xbc3572bf	-0.011074721
10	0x3cd085e2	0.025454465
11	0x3c9dbc4e	0.01925483
12	0x399fd4ae	0.00030485302
13	0xbc638d8d	-0.013888729
14	0xbd2588cb	-0.04041366
15	0xbb841871	-0.004031234
16	0x3d5875fd	0.052846897
17	0x3cfff6e9	0.031245666
18	0xbd3cab5f	-0.04606187
19	0x3d215f86	0.03939774
20	0x3c121555	0.008916219
21	0xbc9a9e01	-0.01887417
22	0xbc308059	-0.010772788
23	0x3d30a5f9	0.043127034
24	0xba70202e	-0.00091600686
25	0x3ce4673f	0.027881263
26	0xbd111f76	-0.035430394
27	0xbca43a73	-0.020047402
28	0xbcede564	-0.029040046
29	0x3d31953b	0.043355208
30	0x3bd3a9bb	0.0064594424
31	0xbc75e71c	-0.015008714
32	0x3b24fe12	0.0025175852
33	0x3c90d918	0.017681643
34	0x3c988ad0	0.018620878
35	0x3d2bd4c7	0.041950967
36	0xbcb81e99	-0.022475528
37	0xbc327ea8	-0.010894455
38	0xbc44a647	-0.012002534
39	0x3d30e47f	0.04318666
40	0x3b538ac4	0.0032278756
41	0xbcb30376	-0.021852236
42	0x3cf0f52e	0.029413786
43	0xbb436cfa	-0.0029819594
44	0x3c8315fa	0.01600169
45	0xbce51db1	-0.02796826
46	0x3c5d6a46	0.013514107
47	0x3caf8b10	0.021428615
48	0xbd19635c	-0.037448272
49	0xbb815a81	-0.0039475565
50	0x3c9a301c	0.018821768
51	0xbbb72484	-0.00558907
52	0x3c2921a5	0.010322963
53	0xbd44919d	-0.04799043
54	0xbc439faf	-0.011939927
55	0xbbe0dc5c	-0.0068622064
56	0xbb0b52f0	-0.0021259151
57	0x3b80f120	0.0039349943
58	0x3cc68d25	0.024237225
59	0xbd5f7711	-0.05455691
60	0xbd203472	-0.039112516
61	0xbd0ea920	-0.03482926
62	0xbd589898	-0.0528799
63	0xbb664b07	-0.0035139935
64	0x3d6fb65f	0.058523532
65	0xbd16bb30	-0.03679961
66	0xbd8d0744	-0.068861514
67	0xbd220f07	-0.039565112
68	0xbc05410a	-0.008133182
69	0xbbb57d76	-0.0055386377
70	0xbc7fdc41	-0.0156164775
71	0xbca65721	-0.020305218
72	0x3d0e09f8	0.034677476
73	0xbad149bf	-0.0015967413
74	0x3cc8ba37	0.024502857
75	0xbd91ff8d	-0.071288206
76	0xbceddc5b	-0.029035738
77	0x3b65db81	0.0035073461
78	0x3c95c32c	0.018281542
79	0x3c763c4d	0.015029025
80	0xbcbb08d9	-0.022831367
81	0xbdd82220	-0.10553384
82	0x3c289014	0.010288257
83	0xbcd73951	-0.026272448
84	0xbd40f60f	-0.04710966
85	0x3c94f376	0.018182497
86	0xbbcac7b4	-0.0061883572
87	0x3c5e2a00	0.013559818
88	0x3d39e0f5	0.04538055
89	0x3d43478a	0.047675647
90	0x3d8110a2	0.063020006
91	0xbc604f55	-0.013690789
92	0x3d706211	0.058687273
93	0x3d58ef82	0.052962787
94	0x3c59ef53	0.013301688
95	0x3c30012a	0.010742465
96	0x3c6750d5	0.014118393
97	0x3cf426e3	0.029803699
98	0x3d194eb2	0.037428565
99	0x3c9607bc	0.018314235
100	0x3cd94d02	0.026525978
101	0xbbb168ad	-0.0054140897
102	0x3d17c309	0.037051234
103	0x3c2c270b	0.010507355
104	0xbd05cab4	-0.032664016
105	0x3d5551df	0.05208003
106	0xba979800	-0.0011565685
107	0x3d0e15b1	0.034688655
108	0xbd21be41	-0.03948808
109	0x3d3c6527	0.045994904
110	0xbcd83b77	-0.026395543
111	0xbc7f5fc1	-0.015586794
112	0xbd533c5e	-0.051571243
113	0xbd953335	-0.072851576
114	0xbd514050	-0.051086724
115	0xbabb80a1	-0.0014305302
116	0xbb38bdf2	-0.0028189388
117	0x3c9d4ce8	0.01920171
118	0x3d32e3a9	0.043674145
119	0x3bdbcfd9	0.006708127
120	0xbd08a7da	-0.0333632
121	0x3b5f3325	0.0034057584
122	0xbca66716	-0.020312827
123	0x39837476	0.00025073037
124	0xbc145e81	-0.009055735
125	0x3ce2c9d2	0.027684126
126	0xbcc4cfd3	-0.02402488
127	0x3c870110	0.016479999
128	0xbce40ef5	-0.027839163
129	0xbc8e6990	-0.01738432
130	0x3b3acc1d	0.0028503009
131	0xbccfa765	-0.025348375
132	0xbcfacd8d	-0.030615592
133	0xbc709268	-0.0146833435
134	0x3d42adb6	0.047528945
135	0x3c8386c9	0.016055482
136	0x3cac3b8d	0.02102449
137	0xbc8ce9b0	-0.017201275
138	0x3d57a4f9	0.052647565
139	0x3cec7af7	0.028867228
140	0xbc148313	-0.009064454
141	0x3c9daa77	0.019246323
142	0x3c4e5fb3	0.012596059
143	0x3cadcf5e	0.021217044
144	0xbb1a3e2a	-0.0023535588
145	0x3d3b2633	0.045690726
146	0x3ca43e77	0.020049317
147	0x3d24a738	0.040198535
148	0x3d045f10	0.03231722
149	0x3d186893	0.037209105
150	0x3cb60856	0.022220772
151	0x3c647846	0.013944691
152	0x3cc56334	0.024095155
153	0x3cc2064d	0.023684645
154	0x3aa124b8	0.0012294268
155	0x3b7c64bf	0.0038512198
156	0x3d2fab54	0.042888
157	0xbc12295b	-0.008920993
158	0x3cbded5e	0.023184475
159	0x3d3a6d2e	0.045514278
160	0x3d1c13ba	0.03810475
161	0xbb612eca	-0.0034360164
162	0xbd3e4a42	-0.046457537
163	0x3a6ec873	0.0009108849
164	0x3ce7c37c	0.028291456
165	0xbd434870	-0.047676504
166	0xbb9c1089	-0.0047627133
167	0x3c0ae40b	0.008477221
168	0xbcbd5e1d	-0.023116166
169	0x3d1e451e	0.038640134
170	0xbd253679	-0.040335152
171	0x3c526088	0.012840398
172	0x3cf0d405	0.029397974
173	0xbd00e055	-0.03146394
174	0xbc5365ce	-0.01290269
175	0xbc22860a	-0.009919653
176	0x3d0ab58d	0.033864547
177	0xbd363a24	-0.04448904
178	0xbc2e3f3e	-0.010635195
179	0x3d145185	0.036210556
180	0x3d6ab779	0.05730388
181	0x3d3bedd7	0.04588112
182	0xbca235cf	-0.019801049
183	0xbd138dcf	-0.03602391
184	0x3c900238	0.017579183
185	0xbd1eaf8b	-0.03874163
186	0x3ca652c5	0.02030314
187	0x3c3f85c7	0.01168961
188	0xbd1abb63	-0.037776362
189	0x3ca95b70	0.020673484
190	0xbbf32ba8	-0.0074209757
191	0xbcc20279	-0.02368282
192	0x3c28ccf6	0.010302773
193	0x3bce7626	0.0063007055
194	0x3d0e2710	0.03470522
195	0x3b9d171c	0.0047940146
196	0xbc5e48fc	-0.0135672055
197	0xbd005a62	-0.031336196
198	0x3cc4c399	0.02401905
199	0x3af159e3	0.0018413629
200	0x3abf23b4	0.0014582784
201	0x3cd571a5	0.026055166
202	0xbd0660d8	-0.0328072
203	0x3c5422aa	0.012947718
204	0x3d5293ed	0.051410604
205	0xbcb78652	-0.022402916
206	0x3d1f08a8	0.038826615
207	0xbc203ebd	-0.009780583
208	0xbd0486ca	-0.032355107
209	0xbccb7482	-0.024835829
210	0xbcc1a604	-0.023638733
211	0xbb9cd3f1	-0.0047860076
212	0x3cb52818	0.022113845
213	0xbd02a3ee	-0.031894617
214	0xbcc2ed59	-0.023794817
215	0xbc4a59f7	-0.012350551
216	0x3c8dd4f5	0.01731346
217	0xbcb65b03	-0.022260195
218	0x3c49b3e2	0.012310954
219	0xbb9fbf54	-0.004875103
220	0x3c674a57	0.014116845
221	0xbd2c31e0	-0.042039752
222	0x3d7346dd	0.059393752
223	0x3cd7bd49	0.026335375
224	0xbc651534	-0.013982106
225	0x3c77dc93	0.015128273
226	0xbce49278	-0.027901873
227	0xbc00c835	-0.007860233
228	0xbcbe051e	-0.0231958
229	0xbd142c1d	-0.036174882
230	0xbc8ef466	-0.017450523
231	0x3a9c780f	0.0011937636
232	0xbb227964	-0.0024791593
233	0x3d01a805	0.031654377
234	0x3d565aa8	0.05233255
235	0xbb437b5d	-0.002982817
236	0xbd3ae298	-0.045626253
237	0x3cb0434c	0.021516465
238	0x3c56a7dc	0.013101544
239	0xbcb25f3c	-0.021773927
240	0xbcb1f9b1	-0.021725507
241	0x3d12852b	0.03577153
242	0x3cafbd54	0.021452583
243	0x3d29d5bf	0.04146361
244	0x3ccc1924	0.024914332
245	0xbc6194a0	-0.013768345
246	0xbcc35b4a	-0.023847241
247	0x3ba5b527	0.0050569954
248	0xbcde4360	-0.027131736
249	0x3d2299a8	0.03969732
250	0xbc68767c	-0.014188405
251	0xbcf1c0cb	-0.029510876
252	0xbc9f7beb	-0.019468268
253	0x3c3051a2	0.01076165
254	0x3c8b771d	0.017024571
255	0x38f7f671	0.00011823781

layer5.0.bias f4 [64]
0	0x3c447312	0.0119903255
1	0x3c994fe4	0.018714853
2	0x3d20ef58	0.039290756
3	0x3cdfd137	0.027321441
4	0xbc6ffbe9	-0.014647462
5	0x3cfb3092	0.030662809
6	0x3b7520cd	0.0037403584
7	0xbd05e19f	-0.032685872
8	0x3d0b0d7a	0.0339484
9	0xbd0a0651	-0.03369743
10	0xbc60830a	-0.013703117
11	0x3d151815	0.03639992
12	0x3b60b2b7	0.003428621
13	0x3b9bd2ae	0.0047553396
14	0xbc91106d	-0.017708028
15	0xbcbfc9e8	-0.023411706
16	0x3cfe0e11	0.031012567
17	0xbd12e689	-0.035864387
18	0xbd1b1850	-0.037864983
19	0xbcac9191	-0.021065505
20	0xbcf3e5bd	-0.029772634
21	0xbcb9bb23	-0.022672242
22	0xbc0a9b61	-0.008459897
23	0x3d0d9b3e	0.03457188
24	0xbb4e348a	-0.0031464421
25	0xbd0afade	-0.03393065
26	0xbbdca468	-0.006733466
27	0xba203f7a	-0.00061129744
28	0xbc5035dc	-0.012708154
29	0x3cdf1e63	0.02723617
30	0x3ccb9be5	0.02485461
31	0x3c9bdfab	0.019027552
32	0x3c82d1d4	0.015969194
33	0xbc98e7c2	-0.018665198
34	0x3ca7c7bf	0.020480989
35	0x3d1c49e1	0.038156394
36	0x3cb1e02a	0.021713335
37	0x3c3dca5e	0.011583893
38	0xbd29c1f5	-0.041444737
39	0xbcb94db7	-0.022620065
40	0xbc7a11fd	-0.015263078
41	0x3d2ae095	0.041718084
42	0xbadbf1d5	-0.0016780446
43	0xbbf31738	-0.0074185394
44	0x3cf22c82	0.029562239
45	0xbc09d939	-0.008413606
46	0xbd2df569	-0.04247037
47	0x3c08c9a8	0.00834886
48	0xbc32c9a5	-0.010912334
49	0x3c3ae367	0.011406756
50	0x3c8f34c5	0.017481217
51	0xbb89e294	-0.0042079184
52	0xbceea340	-0.029130578
53	0x3c9a5abf	0.0188421
54	0xbc998f36	-0.018745046
55	0x3d064d13	0.032788347
56	0xba555080	-0.00081373006
57	0xbcd2576e	-0.025676455
58	0x3d018cd8	0.03162846
59	0xbc9f76ed	-0.019465888
60	0x3cc1a4a8	0.023638085
61	0x3d275b34	0.040858462
62	0x3b107160	0.0022040233
63	0xbc91b9b9	-0.017788755

layer5.1.weight f4 [64]
0	0x3f7bc47a	0.98346674
1	0x3f7bbe1f	0.98336977
2	0x3f7e0ff8	0.99243116
3	0x3f80adf2	1.0053084
4	0x3f7e7b9e	0.99407375
5	0x3f7e51e1	0.9934369
6	0x3f808861	1.004162
7	0x3f813f3f	1.0097426
8	0x3f82606b	1.0185674
9	0x3f7f271d	0.9966906
10	0x3f830ab7	1.0237645
11	0x3f82834b	1.0196317
12	0x3f8187a9	1.0119525
13	0x3f80282d	1.0012261
14	0x3f804966	1.00224
15	0x3f81b0d7	1.0132092
16	0x3f83a728	1.0285387
17	0x3f7b5567	0.9817719
18	0x3f827ba9	1.0193988
19	0x3f835594	1.0260491
20	0x3f806d9f	1.0033454
21	0x3f81633b	1.0108408
22	0x3f812e86	1.0092323
23	0x3f8040dc	1.0019794
24	0x3f87f133	1.0620483
25	0x3f76aec7	0.9636044
26	0x3f814301	1.0098573
27	0x3f8233ec	1.0172095
28	0x3f7cda8d	0.9877098
29	0x3f8044f2	1.002104
30	0x3f7b99b6	0.9828142
31	0x3f73910e	0.9514321
32	0x3f7b0a97	0.98063034
33	0x3f818ddc	1.0121417
34	0x3f74d612	0.95639145
35	0x3f85c594	1.0450921
36	0x3f83a075	1.0283343
37	0x3f81ddd0	1.0145817
38	0x3f819b11	1.0125448
39	0x3f82b5bb	1.021171
40	0x3f81acee	1.0130899
41	0x3f80acb6	1.0052707
42	0x3f80cb49	1.0062038
43	0x3f7e4c7b	0.9933545
44	0x3f82f5a4	1.0231214
45	0x3f7d73d6	0.99004877
46	0x3f7cec92	0.9879848
47	0x3f7d7585	0.99007446
48	0x3f7be2d0	0.98392963
49	0x3f78792f	0.9705991
50	0x3f8405f2	1.0314314
51	0x3f7ecb7f	0.9952926
52	0x3f8227e7	1.0168427
53	0x3f81af98	1.0131712
54	0x3f7ed818	0.9954848
55	0x3f80ad18	1.0052824
56	0x3f7e1a12	0.9925853
57	0x3f804f7b	1.0024256
58	0x3f8309e9	1.0237399
59	0x3f843842	1.0329669
60	0x3f8563e4	1.0421109
61	0x3f80a3a8	1.0049944
62	0x3f7b3f32	0.98143303
63	0x3f7d880a	0.99035704

layer5.1.bias f4 [64]
0	0xbd164c78	-0.03669402
1	0xbc87a2e9	-0.016557174
2	0xbc4302f1	-0.011902557
3	0xbc4219b7	-0.011846951
4	0xbc3842ab	-0.011246364
5	0xbce07779	-0.027400719
6	0xbc013601	-0.007886411
7	0xbc67b9ce	-0.01414342
8	0x39989c9d	0.00029108385
9	0xbc88a6e9	-0.016681151
10	0xbb9406a1	-0.004517392
11	0x3b9f77cb	0.0048665754
12	0xbc849de4	-0.01618857
13	0xbc93884d	-0.01800933
14	0xbc9b7d80	-0.018980742
15	0xbb74bf58	-0.0037345495
16	0xbbc57ac5	-0.006026598
17	0xbcace822	-0.021106783
18	0x3ab10ce5	0.0013507871
19	0xbb92cb16	-0.004479776
20	0xbc55b644	-0.013043944
21	0xbc06a9d5	-0.008219202
22	0xbc50b14b	-0.012737582
23	0xbc17c6d1	-0.00926371
24	0xbb803dd7	-0.003913622
25	0xbcf7a95f	-0.03023213
26	0xbccf6e04	-0.025321014
27	0xbccf1908	-0.02528049
28	0xbbaf9bcd	-0.005359149
29	0xbc48067d	-0.012208578
30	0xbc8b69cc	-0.017018221
31	0xbd0b20d4	-0.033966854
32	0xbcd45b27	-0.025922371
33	0xbd19c62b	-0.037542503
34	0xbd322c50	-0.04349929
35	0xbc136334	-0.00899582
36	0xbc50aac2	-0.012736024
37	0xbc65b866	-0.014021015
38	0xbc1de949	-0.009638139
39	0xbc90a3c5	-0.017656216
40	0xbb2fae46	-0.0026806756
41	0xbc61f25e	-0.013790695
42	0xbc3ba918	-0.011453889
43	0xbc45f9ce	-0.012083484
44	0xbb87b88b	-0.0041418723
45	0xbcc35e1e	-0.02384859
46	0xbd10607e	-0.035248272
47	0xbc85dbc0	-0.016340137
48	0xbc5ba5ae	-0.0134062
49	0xbd082517	-0.033238497
50	0xbc7ca2f3	-0.0154197095
51	0xbc7c58a4	-0.015401993
52	0xbc85d525	-0.016336987
53	0x3c02c758	0.007982098
54	0xbc851483	-0.016245132
55	0xbc5a35d2	-0.013318496
56	0xbc5ba1e2	-0.013405295
57	0xbc66d6aa	-0.014089266
58	0xbc4a5c0a	-0.012351045
59	0xbb95f407	-0.0045762095
60	0xbba0081c	-0.004883779
61	0xbc183fbe	-0.009292541
62	0xbc99d220	-0.018776953
63	0xbc1acb26	-0.009447848
