weights/pretrain_rotated.pth (torch, 946390 bytes, 26 tensors)

layer1.0.weight f4 [16, 3, 3, 3]
000000 e8 e6 fd 3b b7 1f f6 bd 09 8f 63 bd e0 7b 95 bd
       0.0077484734 -0.12017768 -0.05555633 -0.07299018
000010 74 9a f9 3c 82 b9 93 bc 58 d6 8f bd 77 84 52 3d
       0.030469157 -0.018032793 -0.07023305 0.05139586
000020 d5 d3 25 be 24 1d 39 3e b3 ed e8 bd a6 6f 04 be
       -0.16194089 0.18077523 -0.113734625 -0.12933215
000030 dc 6f 0e 3d ca 57 40 be a5 6b 5e 3d 0d 40 05 3e
       0.034774646 -0.18783489 0.054301877 0.13012715
000040 26 fd 63 3d bd fc 12 3d 2f 6f 2a be f7 70 44 be
       0.055661343 0.03588556 -0.16643976 -0.19183718
000050 db ef 9b 3d f6 63 0a be da 36 39 3e cd 5a a0 bd
       0.07614108 -0.13514695 0.1808733 -0.07829819
000060 98 52 15 3e 6d fd b5 bd cf 1b 0b 3d 4f 19 3c bd
       0.14582288 -0.08886228 0.033962067 -0.045922574
000070 c6 a4 22 be a3 2e e1 bb 0f 66 25 be 94 04 0a be
       -0.15883169 -0.0068720146 -0.16152214 -0.13478309
000080 3d d4 1d be ec e1 98 3d 16 76 1f 3e 47 39 4f bd
       -0.15412994 0.07464966 0.1557239 -0.050591733
000090 60 9e b2 bd fa 00 3e 3e d3 e1 ae 3c ab ad 0d be
       -0.08721614 0.1855506 0.021347916 -0.1383578
0000a0 9a 17 01 be 6d 5e 44 3e 54 8d 39 3e d3 b1 19 be
       -0.1260666 0.19176646 0.18120319 -0.15009241
0000b0 e8 cb 58 bb 10 a7 53 3d 39 84 38 3e e5 fe b6 bb
       -0.0033080522 0.051672995 0.18019189 -0.005584585
0000c0 69 b2 ba 3d 01 62 23 3e 10 bf c5 3d b5 1c 8d 3d
       0.0911606 0.15955354 0.09655583 0.06890241
0000d0 79 6d 1d be db ff 3f 3d c4 b4 04 3e 56 7a 0a be
       -0.15373792 0.046874862 0.12959582 -0.1352323
0000e0 4d af a1 bd 11 99 cc bc a9 67 6c bd f1 b7 34 be
       -0.07894764 -0.024975332 -0.057716046 -0.17648293
0000f0 da c4 2e be dc 3a e6 bd 5c aa 85 3d db 8e 05 3e
       -0.1706728 -0.11241695 0.06526634 0.13042776
000100 d5 9b 1d be 40 4a b0 3c ef e7 7b 3d c4 7f 1c 3e
       -0.15391476 0.02151978 0.061500486 0.15283114
000110 06 cf 8e bc 7f e5 62 3d 85 6c 13 3e 99 6b bb bc
       -0.0174327 0.055394646 0.14396866 -0.022878455
000120 e8 6b 16 be e3 4d ff 3d 58 9f 09 3e 87 90 1c be
       -0.146896 0.124660276 0.13439691 -0.15289508
000130 37 4b eb 3b 47 2b 36 bc c8 29 09 3d 9c ad 25 be
       0.007180597 -0.011118717 0.03348711 -0.16179508
000140 2d 49 f7 3d 83 d7 b6 bd b8 3d 09 be d5 e7 1b 3e
       0.12074504 -0.08927824 -0.1340245 0.15225156
000150 a9 9d 17 bd 08 5b 1e 3e c1 ee b5 bd bc 89 c3 bd
       -0.03701559 0.15464413 -0.08883429 -0.09547755
000160 a2 06 cd 3d 58 3c f4 3d 97 f8 19 3e b6 ea 3a 3b
       0.10011031 0.11925572 0.15036236 0.0028521246
000170 6d 9c 87 bd 6d e9 90 bd eb 69 20 be ed 47 23 be
       -0.06621633 -0.070757724 -0.15665404 -0.15945406
000180 74 bf 36 3d 54 86 0d be 7c ee e2 bd 23 d7 e6 bd
       0.044616178 -0.13820773 -0.110806435 -0.11271503
000190 b0 8c ba 3d 2c 1b 0f 3d 0f 25 da bd 0b 0c 3b 3e
       0.09108865 0.034938022 -0.106515996 0.18266313
0001a0 8a 0f ca 3d 42 38 2b 3e 71 51 d0 bc cb 3e ad bd
       0.09866245 0.1672068 -0.02542946 -0.084592424
0001b0 cd 07 f4 3d c0 29 89 bd d6 bd cb 3d 49 23 39 3e
       0.119155504 -0.06697416 0.09948318 0.18079866
0001c0 9a 9d 22 be 23 bb 19 bd 92 2a b6 3d a9 03 cb bd
       -0.15880433 -0.037531983 0.088948384 -0.099128075
0001d0 e0 af c0 3d 57 d1 ef 3d 4a 45 ac bd 5e e1 10 3e
       0.094085455 0.1170985 -0.08411653 0.14148471
0001e0 9d 84 14 3e 94 c7 e3 3d a3 9f 1e 3d a0 aa 5b bd
       0.14503713 0.11122051 0.03872646 -0.053629518
0001f0 0a 1f de 3d 65 ce 8b bd e7 5c 26 3e 96 7b a6 3d
       0.10845764 -0.06826476 0.16246377 0.08129041
000200 57 3b 1b 3e bc 58 f5 3b 20 dc 2b 3d 58 38 2c be
       0.15159355 0.0074873846 0.041957974 -0.16818368
000210 90 d8 85 3c a9 c4 ed 3d 84 f4 ac 3d 7a 71 29 bd
       0.016338617 0.116097756 0.08445075 -0.041367985
000220 7f 33 fd bd 11 c5 42 3d d6 59 82 ba ec 0a 2a bd
       -0.12363338 0.04755122 -0.0009944986 -0.041514322
000230 1f 70 0a 3e 90 77 97 3c 72 9f bd 3d 7e 9d 6f bc
       0.13519333 0.018489629 0.092589274 -0.014624951
000240 3b ab ae bd 64 34 26 be ae 83 3a 3d ee 22 01 be
       -0.08528753 -0.16230923 0.045535736 -0.12610981
000250 eb 23 0e 3e 07 1f 2d be 09 36 af bd 67 03 3f bd
       0.13880889 -0.16906367 -0.08555228 -0.046634104
000260 43 b5 f5 3d ba 69 46 be 79 5a 69 3d fb e2 07 3e
       0.119974636 -0.19376269 0.056971047 0.1327018
000270 aa 95 59 bd de d7 06 bc 1f 2c d2 3d 00 19 25 be
       -0.053121246 -0.008230178 0.10262322 -0.16122818
000280 7b 8b 91 3c d8 b0 5f bd 38 fd fc 3d 74 89 5f bd
       0.017766705 -0.05461201 0.12352985 -0.054574445
000290 fc 48 35 3d a6 da 0e bd 74 d4 86 bb 96 e4 21 bd
       0.044259056 -0.03487649 -0.004114682 -0.039524637
0002a0 b8 95 45 3d 5f 37 5b bc 71 73 08 bd e3 f9 b0 bd
       0.048238486 -0.013379901 -0.03331322 -0.08641412
0002b0 7c df 35 3e 91 e4 2a be 9f 30 3a 3c 54 96 c2 bd
       0.17761034 -0.16688754 0.011364131 -0.09501329
0002c0 22 bc fa 3d ee 45 15 3e 78 ab 42 3d aa 48 34 3e
       0.12242915 0.14577457 0.047526807 0.17605844
0002d0 b5 27 22 be 6a 1d 85 bd b5 97 c3 bd c5 37 2f 3e
       -0.1583546 -0.06499751 -0.0955042 0.17111118
0002e0 c9 be 06 3e 45 fc 22 bd 38 07 88 3d b3 65 0f be
       0.13158716 -0.039791364 0.06642002 -0.14003639
0002f0 ca 4b 19 bd b9 32 40 3e 32 05 b0 bb 50 d1 d7 3d
       -0.037425794 0.18769349 -0.005371713 0.1053797
000300 8c c0 31 3e ca 90 c2 bd 0f 58 91 bd b6 81 2d be
       0.17358607 -0.095002726 -0.07096874 -0.16944012
000310 41 9c 58 bd c7 36 aa 3b b8 31 cb 3d f3 03 35 3e
       -0.05288339 0.0051945182 0.099215925 0.17677288
000320 85 a8 3d 3e de cd 0d be 1d 1d c0 bd 58 aa 11 3d
       0.18521316 -0.13848063 -0.09380553 0.035562843
000330 f9 b0 00 3d 17 2c 8b 3d 22 5f 77 3d 9f 27 41 3e
       0.031418774 0.06795519 0.06039346 0.1886277
000340 9d f3 35 3e dd 0f 38 be cc f1 91 3d 50 58 f7 bd
       0.17768712 -0.17974801 0.07126197 -0.12077391
000350 c5 13 82 bd 83 e8 c8 3d 2f b0 c2 bd f0 af 2b bd
       -0.06351427 0.09809973 -0.095062606 -0.041915834
000360 cc 73 3e 3e e3 6a f0 bd 2b d4 24 3e 45 47 44 3e
       0.1859886 -0.11739137 0.1609656 0.19167812
000370 70 10 30 be 37 83 dd bd 17 97 78 3d fd 4a 28 3e
       -0.1719377 -0.10816043 0.060690966 0.16434856
000380 e3 4e 16 be 33 1f 27 3e a0 de 17 3c a2 b2 2a be
       -0.1467853 0.16320495 0.0092693865 -0.16669706
000390 9e 38 9d bc ff b2 e8 bd cb 5a 00 be 22 de ff 3d
       -0.019192036 -0.11362266 -0.12534635 0.1249354
0003a0 d1 5d 9a bd 0c a9 c4 3d 0e 7d a2 3c 7e 7b 9f bd
       -0.07537425 0.09602556 0.019835021 -0.07787226
0003b0 1e db 43 3e ef 87 fa bd 45 a7 0c be bd ba 41 3e
       0.19126555 -0.122329585 -0.13735683 0.18918891
0003c0 83 55 0b 3e b0 ab 9a 3d cc 26 30 be 97 7b c9 bd
       0.13606839 0.07552278 -0.172023 -0.09838026
0003d0 8d 46 05 be e1 f7 03 be a2 8c 20 3d 3b bf 12 bd
       -0.13015194 -0.12887527 0.039196618 -0.035826903
0003e0 20 2f b0 3c 97 e1 05 3d ab a0 aa bd 42 c0 24 bb
       0.021506846 0.032685842 -0.08331426 -0.0025139009
0003f0 ad 05 1e 3e c9 e5 f8 3d 4d b8 35 bd 31 65 1b 3d
       0.15431853 0.12153203 -0.044365216 0.0379383

layer1.0.bias f4 [16]
000000 bd be 5c 3d a3 3a d7 3d 1c c2 16 be a6 91 31 3d
       0.05389284 0.10509231 -0.14722484 0.04335179
000010 9b 97 82 3d f6 89 90 bd cf 81 d3 3d c6 0f bf 3d
       0.06376573 -0.07057564 0.103274934 0.093291804
000020 b4 6f 30 3e 10 86 a0 bd 47 00 ca 3d 8b c0 1c be
       0.17230111 -0.078380704 0.09863334 -0.15307824
000030 84 77 04 be cc 76 35 be dd 6f f2 3b 98 29 89 3d
       -0.12936217 -0.17721099 0.007398589 0.066973865

layer1.1.weight f4 [16]
000000 2f af 80 3f 35 68 80 3f 0b 90 7d 3f cc e0 7f 3f
       1.0053462 1.0031801 0.9904792 0.9995239
000010 af 70 7d 3f 33 7d 7c 3f 30 6d 80 3f 6f a8 80 3f
       0.99000067 0.9862854 1.0033321 1.0051402
000020 15 be 7d 3f ad cb 7d 3f 3a 5a 81 3f 4a 14 81 3f
       0.9911817 0.9913891 1.010566 1.0084317
000030 69 0a 80 3f 53 83 7e 3f 0e fd 80 3f 11 5c 7f 3f
       1.0003177 0.99419135 1.0077226 0.9974986

layer1.1.bias f4 [16]
000000 de da 0d 3c be 66 93 3a 6b 7f fc bb 7b d1 ed ba
       0.008658139 0.001124583 -0.007705619 -0.0018144095
000010 1c d0 50 bc 99 81 10 bc 2c 56 3b 3b ff d2 a0 3b
       -0.01274493 -0.008819961 0.0028585298 0.004907965
000020 ae 25 ea bb a8 fd 84 bb ab 79 07 bc 4c d4 df bb
       -0.007145605 -0.0040585585 -0.008268754 -0.0068307277
000030 38 50 43 bb 16 fe c4 bb 7f 34 75 3c 1f d9 a1 ba
       -0.0029802453 -0.0060117347 0.014966129 -0.0012348032

layer2.0.weight f4 [16, 16, 3, 3]
000000 68 42 ed bc 6d ad 93 bd be 4a 5e bd f1 50 28 3d
       -0.028962329 -0.07210813 -0.0542705 0.041092817
000010 80 b1 28 bd b4 87 d3 3c d2 d9 9b bc b8 dc 7a 3d
       -0.041184902 0.025821544 -0.019024763 0.06124565
000020 03 75 9c 3c 3e c5 a4 bd 6e 3d 9b 3d 89 31 11 bd
       0.019098764 -0.080454335 0.07580076 -0.03544763
000030 40 ce 25 bb 07 36 3f 3d 2c fa 0d 3d c8 1a 87 bc
       -0.0025299937 0.046682384 0.03466241 -0.016492262
000040 53 6a 29 bd 37 bc 8a 3d 4d 01 8f 3d 0b 79 9a 3d
       -0.041361164 0.067741804 0.0698267 0.07542618
000050 ab de a5 bd 5b 68 65 3c 89 7a c2 3c 33 53 3c 3d
       -0.08099111 0.014001931 0.02374007 0.045977782
000060 e2 72 0b 3d ae 40 28 3d 98 16 35 3d de c1 df 3c
       0.034045108 0.04107731 0.044211 0.027314123
000070 b0 e7 43 bc 50 dc 04 3d e2 91 9c bc b2 cd 9f bd
       -0.011957094 0.03243667 -0.019112531 -0.07802905
000080 42 4b 08 3c 0c 4c 27 bd 7f 12 7b 3d 18 8d ea bc
       0.008318724 -0.04084401 0.061296936 -0.028631732
000090 01 47 bb 3d 5a a8 24 bc 88 94 97 bb bc 40 b2 3d
       0.09144402 -0.010049904 -0.0046258606 0.08703753
0000a0 e5 c4 d2 3c 84 5c 92 3c ba ad 8a bd bc d3 6a 3d
       0.025728652 0.01786638 -0.06771417 0.057330832
0000b0 3f 98 91 bd b9 fa 9f 3d 6a dd ac 3d 8d e0 86 3d
       -0.07109117 0.078114934 0.08440669 0.065857984
0000c0 10 4f 92 3d 96 18 22 3d 79 c7 05 3c fb af 85 bd
       0.07143986 0.03957423 0.008165234 -0.06527706
0000d0 f2 9c 80 3d cc 73 99 bd 61 54 e9 bc e1 28 87 3d
       0.06279935 -0.074927896 -0.028482618 0.06599594
0000e0 a4 4a 03 bd 45 ac d1 bb c3 88 a4 3c fd b3 b8 3c
       -0.032053605 -0.00639871 0.020084744 0.022546763
0000f0 50 cb 89 3d 59 21 15 bd 34 15 39 bd 53 b3 88 3d
       0.06728232 -0.036408756 -0.045186237 0.066748284
000100 42 7d 60 bc 6c 1e 00 3d 99 3f 5d bd 4c 1a 9f 3d
       -0.013701739 0.031279013 -0.05401573 0.077686876
000110 33 85 3e 3d 56 71 98 3d fc ae bd bc e1 a3 94 3d
       0.046513747 0.07443492 -0.023154728 0.0725782
000120 1f a5 04 bc 8c 71 9b 3d 15 e2 7b 3d bc 72 05 3d
       -0.008096009 0.07590017 0.061494906 0.032580122
000130 84 fb a6 bd f8 6b 8c bd 6f c4 6e bd 4a f2 0b bc
       -0.081534415 -0.06856531 -0.058292802 -0.008541653
000140 05 6f 8e bd 18 d3 9c 3c ad a9 3d bc 8b cd 7b 3d
       -0.06954769 0.019143626 -0.011576098 0.061475318
000150 08 09 81 bc 73 2a 12 3d fa cc a4 bc 94 a7 d1 3c
       -0.015751377 0.035685014 -0.020117272 0.025592603
000160 c9 09 23 3b 44 6f fa 3c 26 d1 e2 3a 3c a8 1e bd
       0.0024877659 0.030570634 0.0017304763 -0.03873466
000170 87 1a a0 3b 6d cc 37 bb bf 77 a2 3b 48 93 22 3d
       0.004885975 -0.0028045431 0.0049581225 0.03969124
000180 b6 24 55 3c 41 d6 82 bd c7 2d 93 bd 8d 24 6a 3d
       0.013009241 -0.06388522 -0.07186466 0.057163764
000190 23 ba b5 bb df da f3 bc 73 11 bc 3d fe 58 03 3d
       -0.005545871 -0.029767452 0.09183016 0.03206729
0001a0 cf 5f 12 bd 7d 74 79 bc fb 4b 73 3d 1c 6c b0 3b
       -0.0357359 -0.015225527 0.059398632 0.0053839814
0001b0 dc 3c 3f bd 14 bb b7 3d 38 a5 1f bd fc ab 1f 3d
       -0.0466889 0.08971229 -0.038975924 0.038982376
0001c0 28 18 5f 3d c4 80 1a 3d 51 6f 9a 3d e6 c5 8d bc
       0.054466397 0.037720457 0.07540763 -0.01730628
0001d0 21 cb 1a bd b4 34 92 3d c8 30 66 bd 86 b9 26 3d
       -0.037791375 0.071389586 -0.056198865 0.040704273
0001e0 50 f2 4d bb 7b 2b 54 bd 14 6c 6e bd 74 ac 8d bd
       -0.0031424947 -0.05179928 -0.05820854 -0.069176584
0001f0 2a 36 70 bd 05 44 42 3d 54 88 72 bd 4b 1a 86 bd
       -0.058645405 0.04742815 -0.059212044 -0.06547984
000200 3e 57 1a 3d f5 62 02 bc b9 6f 8f bd 9f 62 1b 3d
       0.037680857 -0.0079581635 -0.07003731 0.03793585
000210 d6 5c 78 bd df 93 82 3d 72 66 ab bd 20 b0 4e bd
       -0.06063541 0.063758604 -0.08369149 -0.050460935
000220 12 78 19 bd b3 32 5a 3d 82 cd 8b bd 4c 12 67 bd
       -0.037468024 0.053271007 -0.06826307 -0.056413934
000230 1a 1d c7 3c 19 6f 67 bd 28 43 82 bd 0c 3a 48 3d
       0.024305869 -0.056502435 -0.06360465 0.048883483
000240 f0 75 a0 bb ba bf 3e 3d 5d 08 fd bb 02 c1 15 3d
       -0.0048968717 0.046569563 -0.0077219442 0.03656102
000250 6f 8d 77 bd e2 a5 ad bd 5b 1f 0a bd 75 d6 b1 bb
       -0.060437616 -0.08478905 -0.03372131 -0.0054271766
000260 a7 7c 7d bd 98 2e 88 3c cc 07 9e bc 64 13 ec bc
       -0.061886456 0.01662378 -0.019290827 -0.02881784
000270 75 aa a3 3c cc 41 37 3d 0d d4 de 3a 54 3b 17 bd
       0.019978741 0.044740483 0.0017000452 -0.036921814
000280 e5 ec 36 bd f1 3c 1d 3d b7 6c a8 bd dc 2b 22 3d
       -0.044659514 0.038388196 -0.08223861 0.03959261
000290 d0 f4 c0 3c 5a 4a b9 3b 18 23 03 bd 73 61 6b bd
       0.023554236 0.0056546154 -0.03201589 -0.05746598
0002a0 dc b8 9b 3d 21 6f b8 3c 88 df 19 bc d3 ef 93 3c
       0.076036185 0.022513928 -0.009391673 0.018058693
0002b0 0c b6 47 3c 0e 17 ec bc 7b 54 11 bd ac f8 8a 3d
       0.012189399 -0.028819587 -0.035480957 0.06785712
0002c0 df 24 ad bd c6 c6 df bb 8a 6e 62 3d cf cd a1 3b
       -0.08454298 -0.0068291156 0.0552812 0.0049378644
0002d0 cc e5 b7 3c 42 b5 d9 3b 55 1a 85 bd 95 98 49 bd
       0.022448443 0.006643922 -0.06499163 -0.04921778
0002e0 35 df 64 3d 90 4d 41 bc 64 19 6b 3d b4 b4 f0 3c
       0.05587693 -0.0117982775 0.05739726 0.029383041
0002f0 c8 8b 70 3d 4f 57 8b 3d 53 df c0 3b c2 1a 29 bd
       0.058727056 0.06803762 0.0058859973 -0.041285284
000300 59 3b 6b bd e7 16 1a bc ae 85 8e bd 4d 99 a8 bd
       -0.057429645 -0.009404874 -0.06959091 -0.08232365
000310 df 52 6f bd d9 9c b2 bc 31 f2 8f bb d7 5c db bc
       -0.05842864 -0.021803306 -0.004392885 -0.026777668
000320 b0 18 9a 3c 00 b0 82 3c a2 dc 53 3d 72 11 54 bd
       0.0188106 0.015953064 0.051724084 -0.05177445
000330 47 49 44 bc 77 ca 26 bd ad c0 25 bd 04 1a 0b bd
       -0.011980361 -0.04072043 -0.040466953 -0.033960357
000340 f9 79 1e 3c a7 48 da bb bc e4 b7 bc bb 2c ae bc
       0.009672635 -0.006661493 -0.022447936 -0.021261564
000350 48 11 98 3d bb ab 1f bd f3 b8 5a bd 4c be 3f bd
       0.07425171 -0.038982134 -0.053399038 -0.04681234
000360 d9 5b 20 bd 40 f0 6a 3d d1 21 d9 bc c0 ae 19 bc
       -0.039150093 0.057358027 -0.026505383 -0.009380043
000370 18 e1 1b 3c f0 2e 20 bc 5a 64 49 3c 94 98 f2 bc
       0.009514116 -0.009776816 0.012291992 -0.02961377
000380 11 9c 02 3d b2 50 73 3c cd 53 42 bd 00 59 6c bd
       0.031887118 0.014850782 -0.0474432 -0.057702065
000390 29 05 89 3d 88 04 66 3d 49 3d ab 3d 27 01 6c bb
       0.06690437 0.056156665 0.083612986 -0.003601143
0003a0 dd dd 40 3d b8 0b 88 bb 27 30 93 3d be 48 cc bc
       0.047086585 -0.0041517876 0.07186919 -0.02493703
0003b0 8e b8 b6 3d 64 72 91 bd 74 f4 b3 3c 64 39 bc 3c
       0.0892192 -0.071018964 0.02196715 0.022976585
0003c0 e2 11 59 bd 49 16 7b 3d 51 fb 60 3b 33 6c 67 bd
       -0.05299557 0.06130055 0.0034329484 -0.05649967
0003d0 31 bd 90 bd 9e 47 1e 3d 46 70 06 bb 17 28 9c 3d
       -0.070673354 0.03864252 -0.0020513698 0.07624834
0003e0 d4 aa 07 3d 07 a1 16 3b 14 44 bd bc ad fe c1 bb
       0.0331219 0.0022984163 -0.023103751 -0.0059202523
0003f0 75 50 8e 3d dc 82 76 3c 11 9e 7d bd a4 2d 95 3d
       0.0694894 0.015045848 -0.061918322 0.07284096

layer2.0.bias f4 [16]
000000 b7 2a 35 3d 7b 68 b0 bd a9 93 fd ba fb a3 a9 bc
       0.04423019 -0.08613678 -0.0019346374 -0.020708075
000010 c8 82 a2 bd e1 7b 9a 3d c6 83 23 bd 06 bd 8d bc
       -0.07935101 0.07543159 -0.03992059 -0.017302047
000020 66 2e 53 bc fa 41 a1 bc 9a e9 8d bd ee 0f 4d bd
       -0.01288948 -0.01968478 -0.069293216 -0.05006402
000030 a7 e2 2a bd ca ab ad 3d 3b 14 8b 3d 56 9b 67 bd
       -0.04172006 0.08480032 0.06790968 -0.056544624

layer2.1.weight f4 [16]
000000 5b ba 80 3f e2 5e 7e 3f 3c 33 7f 3f 4c cc 80 3f
       1.0056871 0.9936353 0.9968755 1.0062346
000010 88 25 81 3f 66 eb 7e 3f 2f 1a 81 3f 30 41 7e 3f
       1.0089579 0.9957794 1.0086116 0.9931822
000020 3c a8 7e 3f 10 fd 7d 3f 16 52 80 3f 34 4c 7e 3f
       0.99475455 0.9921427 1.0025051 0.99335027
000030 79 9d 80 3f fa de 7d 3f 2e 14 81 3f 93 14 81 3f
       1.0048057 0.9916836 1.0084283 1.0084404

layer2.1.bias f4 [16]
000000 93 b9 ab bb 47 cd ad bb 18 b9 c4 3a 65 bf cf 3b
       -0.005240628 -0.005304012 0.0015008776 0.0063399547
000010 38 12 80 bb f2 5e 48 bb 90 50 1d 3b 18 60 10 bb
       -0.003908422 -0.003057417 0.0024004318 -0.0022029933
000020 d5 47 3c bb 4d fa 82 ba d6 1e 87 3b 92 ae a8 bb
       -0.0028729339 -0.0009992808 0.004123549 -0.0051477635
000030 14 e3 af bb 4b a2 eb bb 46 60 dc 3b 8c 5c 01 3c
       -0.005367646 -0.0071909777 0.006725344 0.0078956

layer3.0.weight f4 [64, 16, 3, 3]
000000 00 97 74 3c cc bb d1 3c f6 d6 8f bd 45 6c 13 bd
       0.014928579 0.025602244 -0.070234224 -0.035991926
000010 8a ad 93 3b fe 58 39 bd b4 cb 8e bc 76 f2 1d bd
       0.0045067715 -0.045250885 -0.017431118 -0.038561307
000020 36 f8 90 3d ca 01 55 3d e0 bd ac 3c 17 ae 74 3d
       0.070785925 0.05200366 0.021086633 0.059736338
000030 14 02 68 bc cb bd 11 3d 71 f7 9b 3c d9 49 31 bd
       -0.014160652 0.03558139 0.019038888 -0.043283317
000040 12 39 f6 3c d2 99 e2 3c d6 eb 7b 3d 78 56 aa 3d
       0.03005651 0.027661238 0.061504208 0.08317274
000050 7f bb aa 3d 0c 3a b2 bc 2e 05 b9 3c e4 9c ea bc
       0.08336543 -0.021756195 0.022585478 -0.028639264
000060 03 43 9f 3d e0 96 ac bd 8e a6 e0 3c 1f 23 71 3d
       0.07776453 -0.084272146 0.02742317 0.058871385
000070 c1 a4 a7 3c f8 2e b2 bd 9e 3f c6 bc 3e 03 5a 3d
       0.020464303 -0.08700365 -0.024200257 0.05322575
000080 a2 34 5a 3c 09 99 f1 3c 00 fa 83 3d 68 5b af bd
       0.013318213 0.029491918 0.06444168 -0.08562356
000090 51 f1 07 bd 91 91 0a 3c 62 d5 4c 3d ce ed 48 3d
       -0.03318912 0.008457557 0.050008185 0.049054913
0000a0 5b ca 9e bd e7 b4 4e 3d 87 9f 5e 3d 49 4f 1b bc
       -0.0775344 0.05046549 0.054351356 -0.009479352
0000b0 45 0d fb 3c 20 c9 84 bd 09 f8 89 3c fd bc 04 bd
       0.030645976 -0.06483674 0.016841905 -0.032406796
0000c0 37 7e c0 3c 97 ab 8e bd 6e 33 7d 3d ba ac 2e 3d
       0.023497684 -0.06966322 0.061816625 0.042645194
0000d0 7a ee 2d bd 03 8c 6f 3d d3 1d 23 bd 46 3f 2a 3c
       -0.042463757 0.058483135 -0.039823364 0.010391062
0000e0 b1 4a d2 bc ca 8b 38 bc cc c6 80 bc ff 14 49 bd
       -0.025670381 -0.011263797 -0.015719794 -0.04909229
0000f0 ae 92 94 bd b1 ba 67 3c de c1 93 bd c4 dc 39 bd
       -0.072545394 0.014143632 -0.072147116 -0.045376554
000100 6e a6 23 bd b1 09 01 bd 76 bd a9 3d af a9 7b 3c
       -0.03995364 -0.031503383 0.0828809 0.01536028
000110 7c 81 0a 3d ba a0 c4 bb 71 8e e4 b9 4d 5f 4b bd
       0.033814892 -0.0060006054 -0.00043593676 -0.049651433
000120 05 d3 13 3d 77 fc 80 bd aa 7e 82 bc e2 c7 2b bc
       0.036089916 -0.06298154 -0.015929539 -0.0104846675
000130 7b 27 6e bc 37 07 96 3d 4a 0a 63 3d cd 58 8e 3d
       -0.01453578 0.07325595 0.055429734 0.06950531
000140 29 1e 0e 3d 55 c9 a0 bd 13 d6 39 3d 25 89 38 bc
       0.03469673 -0.07850901 0.045370173 -0.011263167
000150 98 d7 8f bd b6 5e 6a 3c 26 6e 09 bd 75 e8 58 3c
       -0.07023543 0.014304807 -0.03355231 0.013239016
000160 46 f4 df 3c c9 e9 36 bc 8c a8 bd bd ed c3 a7 bd
       0.027338158 -0.011164137 -0.092606634 -0.08191667
000170 f6 30 25 3d 44 9b 44 3d 50 0c 99 bd 88 f6 7c bd
       0.040329896 0.047999635 -0.074730515 -0.061758548
000180 6d fc 6b 3d 93 f3 97 bd 4f df a0 3c e0 06 24 bb
       0.05761378 -0.07419505 0.019637732 -0.0025028512
000190 9d 99 a8 3d ef 0f 9d 3d 95 2b f3 3c 6e d4 81 bc
       0.082324244 0.07669055 0.029683867 -0.015848365
0001a0 69 21 0a 3d 4d 7e ac bd c7 0c 4c bd 74 ba 89 bc
       0.03372327 -0.084225275 -0.049816873 -0.01681254
0001b0 7d f0 0c bd 76 0c 87 3d f9 04 6a 3b 53 8d 02 3d
       -0.034409035 0.065941736 0.003570853 0.03187306
0001c0 30 1d e3 bb 2d 15 14 bd 3a 23 41 3b 4a 9e 41 bd
       -0.0069309697 -0.036153007 0.002947046 -0.047270097
0001d0 86 07 18 3d cb e9 08 3d 79 96 85 3d 56 0c 1a bd
       0.03711655 0.033426087 0.06522841 -0.03760942
0001e0 32 86 ac bb 38 c1 b8 bc 17 9b a9 bd e3 20 e1 3a
       -0.0052650208 -0.022553071 -0.08281534 0.0017175939
0001f0 11 bb 82 bd 4f 3f fa 39 96 8c 50 bd dd 3e ad bd
       -0.06383336 0.00047730884 -0.050915323 -0.08459256
000200 a9 2e a7 bd 1a 20 fb 3c b7 ac d3 bc 37 cf 73 3d
       -0.081631966 0.030654956 -0.025839193 0.059523787
000210 9b 2b ef 3b ae 9d a1 3a d1 b3 9a 3d 0e 14 0b 3d
       0.0072988993 0.0012330317 0.075538285 0.033954673
000220 de 6d 86 bd b7 a0 b3 bd 6b f7 82 3d 88 9e 35 bd
       -0.06563924 -0.08770888 0.063948475 -0.04434064
000230 4a 87 8f bd d8 f6 b3 bb 87 ec b2 3d 0f a1 9e 3c
       -0.07008226 -0.0054920726 0.0873652 0.019363908
000240 5d 97 55 bc 8a 50 dd 3c c6 1d 98 bd ad 46 16 bd
       -0.013036576 0.027015943 -0.07427554 -0.036688495
000250 42 56 01 bd 01 37 02 3d 0c 0c e6 3c b5 5a 5b bd
       -0.031576402 0.031790737 0.028081916 -0.0535533
000260 aa a6 8b bd 6c 4a 61 bd 86 96 22 3d 35 5d 90 bd
       -0.06818898 -0.055002615 0.03969433 -0.07049028
000270 7c b6 ef bc 5b 75 e7 ba 57 b8 33 bc b9 3c 26 bd
       -0.02926182 -0.0017658876 -0.010969243 -0.040585253
000280 34 d6 3c bc b0 2e 97 bd ff 3f 2f 3d 00 61 8d bd
       -0.011525679 -0.07381952 0.04278564 -0.06903267
000290 28 2f 7b bd c9 21 b4 3b cd 7d f0 3a 8a 6f ce 3c
       -0.06132427 0.0054971916 0.0018348038 0.02519967
0002a0 46 ae a3 3d 97 44 18 3d 03 a7 9b bd 61 a1 b6 3d
       0.079922244 0.037174787 -0.07600214 0.08917499
0002b0 84 a5 84 3c 03 7b 92 3c 45 fe 94 bd a2 75 8a 3d
       0.016192205 0.017880922 -0.072750606 0.06760718
0002c0 16 40 66 3d d5 4c 0e 3d 0d f3 c0 bc 51 77 ce bb
       0.05621346 0.03474124 -0.023553396 -0.0063008447
0002d0 2a d7 9c bc c5 f2 92 3d bd ab 1e bd df ee 31 3c
       -0.019145567 0.07175211 -0.038738 0.010860174
0002e0 23 d1 9c 3d 98 96 5e 3d 84 ea 1d bd 38 5d 8f bd
       0.07657077 0.054342836 -0.03855373 -0.07000202
0002f0 91 8e a6 3c 7b 2c 06 3c e3 7d 9a bd 59 ea 4c 3d
       0.020331653 0.008189316 -0.07543542 0.05002818
000300 c2 b5 f0 bc 2a b3 40 3d a4 93 0c 3d 5c f5 49 bc
       -0.029383544 0.047045864 0.03432049 -0.012326565
000310 41 f5 95 3c 03 55 9e bd b3 e0 72 bd 64 57 e5 bc
       0.018305423 -0.077310584 -0.05929632 -0.027995773
000320 d3 57 88 3d 1d 22 84 bd c0 ed b8 bc d7 f8 8b 3d
       0.06657376 -0.06451819 -0.022574306 0.06834572
000330 44 a4 28 3c d6 49 59 3d 4f 8e 8b 3d 52 0a a6 3b
       0.01029307 0.05304893 0.068142526 0.0050671482
000340 8a 5b 41 bd 83 03 8e bd 5c 4f 02 3d 54 28 c1 bc
       -0.04720644 -0.069342636 0.031813964 -0.0235788
000350 00 4c 46 3d 61 ce db bb b0 40 e1 3b e9 c8 7d 3d
       0.048412323 -0.006707952 0.0068741664 0.06195918
000360 d4 f6 85 bd ca c6 30 3d 93 93 da 3c da 79 b0 3d
       -0.06541219 0.04315833 0.026681697 0.08616991
000370 c6 5d 8a 3b 65 67 ad 3d e8 5a cc bc e7 60 fe 3b
       0.0042226044 0.084669866 -0.024945691 0.0077630165
000380 b7 2e 82 bd 42 95 a5 3d 71 79 14 3d f5 f6 dc 3c
       -0.063565664 0.08085109 0.036248628 0.026973227
000390 b1 b3 97 3d cb 9d 8f bd e3 1c 5a bd 04 3c da 3c
       0.0740732 -0.070125185 -0.053250205 0.026639946
0003a0 bc b2 48 3c 70 01 09 bd 8b fe a5 3d f0 8b 43 bb
       0.012249645 -0.033448637 0.08105191 -0.0029838048
0003b0 d4 d2 2a bd c4 ad 79 bd bd bd 69 bd 3a 5a a8 3d
       -0.041704968 -0.06095673 -0.057065714 0.08220334
0003c0 03 1c 78 bc c7 00 ac 3d 01 fe a0 3b 74 72 16 3d
       -0.015143397 0.08398586 0.004913092 0.036730245
0003d0 c8 dc 6d bd f2 d5 b6 3c 39 0c 63 bd e7 42 8d 3d
       -0.05807188 0.022318814 -0.05543158 0.06897526
0003e0 a5 fa 5c bd 97 18 56 bd fa b7 88 3d 25 50 46 3d
       -0.05394997 -0.052269544 0.06675716 0.048416276
0003f0 cb 59 61 bd 90 cb 4b bd da 8e 63 bd 65 63 ef bc
       -0.055017274 -0.04975468 -0.055556156 -0.0292222

layer3.0.bias f4 [64]
000000 1c 72 60 bd 55 a9 98 3c 25 65 07 bd ac 40 92 bc
       -0.054796323 0.018635431 -0.033055443 -0.017853104
000010 dc b9 84 3b 37 1c 83 bc e6 26 24 bd 93 83 a0 bd
       0.0040504765 -0.016004665 -0.04007616 -0.07837596
000020 cf 1b 76 bd 9d af 8e bd 16 bc 98 3d 86 a8 6f bd
       -0.060085114 -0.06967089 0.074577495 -0.058510326
000030 e5 88 88 3d 68 67 ac 3c f7 c7 21 3b 70 65 9d bd
       0.066667356 0.021045402 0.0024685839 -0.07685363
000040 04 85 ab 3b a4 d5 56 bd aa 1e ce bc 68 d3 2b bc
       0.0052343626 -0.052449837 -0.025161106 -0.010487415
000050 15 38 2a bd 4f d2 56 bd 43 1d 8a 3d 59 b7 88 3d
       -0.04155739 -0.05244666 0.067438625 0.06675596
000060 74 d2 58 3d 6d 1a fd bc b3 c7 ba 3c 40 7f 1c 3d
       0.05293508 -0.03089639 0.022800302 0.038207293
000070 db bc 9a bd d6 d4 b8 3b 95 05 84 bd 1e 96 45 bd
       -0.075555526 0.0056406064 -0.06446377 -0.048238866
000080 58 4e 3b 3d 26 a3 d6 3c 5a 5d 94 bd 87 68 7d 3d
       0.04572901 0.026200842 -0.07244368 0.061867263
000090 a4 e5 39 3d f5 32 c5 bc 98 39 4b 3d 6b af 53 3d
       0.045385018 -0.02407215 0.049615473 0.051680963
0000a0 96 6f 3b 3d 68 b8 86 bd 56 95 89 3d 1f e5 6d bd
       0.045760714 -0.065781415 0.06717937 -0.058079835
0000b0 61 1a 57 3b 17 51 9a 3d b4 97 94 bd 32 57 50 3c
       0.003282212 0.07534998 -0.072554976 0.0127161015
0000c0 d1 49 74 3d d7 65 23 bb 25 94 50 3d 9e 99 8f 3d
       0.05964071 -0.0024932527 0.05092253 0.07011722
0000d0 ca 06 8c bd 0f 94 9a bd 78 8b 15 3c ab cf 84 3d
       -0.068372324 -0.07547771 0.00912749 0.06484922
0000e0 d4 55 9a 3d 69 a1 af bc 27 a2 0b ba 3a e2 f7 3c
       0.07535902 -0.021439271 -0.0005326592 0.03025924
0000f0 2e 76 24 bd 31 66 7b 3c 75 37 3c 3d a0 5d 64 bd
       -0.040151767 0.015344189 0.045951325 -0.05575335

layer3.1.weight f4 [64]
000000 a5 62 80 3f 47 78 7f 3f 21 01 7f 3f bc 3a 80 3f
       1.0030104 0.99792904 0.996111 1.0017924
000010 3d f4 7e 3f 12 a8 7f 3f 56 50 7e 3f d5 10 80 3f
       0.9959143 0.9986583 0.9934133 1.0005137
000020 57 35 7e 3f 56 9f 7f 3f 68 ba 7e 3f c8 64 80 3f
       0.9930014 0.998525 0.99503183 1.0030756
000030 1a 88 7f 3f 7c 6a 7e 3f 41 1e 81 3f 3d dd 7d 3f
       0.9981705 0.9938123 1.0087358 0.9916571
000040 22 53 80 3f 62 7f 81 3f 74 af 80 3f 60 79 7d 3f
       1.002537 1.0116999 1.0053544 0.9901333
000050 ad b0 7f 3f f9 c0 80 3f b1 66 80 3f 95 b9 7c 3f
       0.9987896 1.005889 1.0031339 0.98720676
000060 36 b5 7d 3f 25 46 7f 3f cb fa 80 3f b9 9a 7e 3f
       0.9910463 0.9971641 1.0076536 0.9945484
000070 9e 12 7f 3f 98 e2 80 3f 2c f2 7e 3f 0e ab 7f 3f
       0.9963778 1.0069151 0.99588275 0.99870384
000080 fb 73 7d 3f 25 47 7f 3f 4d fd 7d 3f f0 c1 80 3f
       0.990051 0.9971793 0.9921463 1.0059185
000090 d3 6d 7f 3f 20 6b 7f 3f 3c f1 7d 3f fa 8e 7f 3f
       0.99776953 0.99772835 0.9919622 0.9982754
0000a0 95 7d 7f 3f d0 5f 7e 3f 5c 3c 80 3f b0 89 80 3f
       0.99801 0.9936495 1.001842 1.0042019
0000b0 a4 e3 7d 3f d8 75 7e 3f ea 97 7d 3f 1d e0 7e 3f
       0.9917548 0.99398565 0.9905993 0.9956072
0000c0 64 ff 7f 3f 9a b6 80 3f 1e 87 7f 3f 6e 2a 81 3f
       0.9999907 1.0055726 0.9981555 1.0091074
0000d0 23 15 81 3f a7 bd 80 3f 61 52 82 3f 1e ca 7f 3f
       1.0084575 1.0057877 1.018139 0.9991778
0000e0 61 75 7f 3f da a0 7e 3f ac 58 7c 3f fd c1 7f 3f
       0.9978848 0.9946419 0.985728 0.9990538
0000f0 01 b7 7f 3f 65 d2 81 3f fc 99 80 3f 25 e1 7e 3f
       0.99888617 1.0142332 1.0046992 0.99562293

layer3.1.bias f4 [64]
000000 26 37 99 bb 42 68 d3 bb 60 4d 68 bc 98 47 29 ba
       -0.0046757637 -0.0064516375 -0.014178604 -0.00064575067
000010 4b 00 be 3b a7 a5 88 3b af 1c ba bb 5f 1f cc bb
       0.005798375 0.004170138 -0.005679689 -0.0062293257
000020 c8 8b fe bb b9 e8 bf bb a2 10 52 bc 37 fa 15 3a
       -0.007768128 -0.0058566 -0.012821348 0.0005721184
000030 11 bc dc 3a b4 7b 38 bb 5e 50 ca 3a 0b 25 b5 bb
       0.0016840716 -0.0028149905 0.0015435328 -0.0055280975
000040 3b 6c 66 3b b3 48 81 3c 86 45 b7 3b 4a b0 2a bc
       0.0035159725 0.015781736 0.0055930046 -0.010418007
000050 fd c8 8b ba cc dd f5 b9 12 73 13 3a b7 00 5b ba
       -0.0010664758 -0.00046895293 0.0005624752 -0.00083542935
000060 48 eb 24 bc 74 25 77 bb d0 29 4a 3a 57 5d 15 bb
       -0.010065861 -0.0037711533 0.0007711919 -0.002279123
000070 bb db 3e bb 02 3b be bb 57 5c 1f 39 02 81 ab ba
       -0.0029122669 -0.005805374 0.00015197821 -0.0013084712
000080 31 b4 3e bc f1 7a 5c bb d2 74 24 bc 61 2e 44 3c
       -0.011639641 -0.0033642615 -0.010037618 0.011973948
000090 06 bc 90 bb 30 60 98 3a 98 d3 16 bb 78 d3 d0 ba
       -0.0044169454 0.0011625346 -0.0023014303 -0.0015932163
0000a0 35 66 cd 39 5e 4c d0 bb 9c dc 73 3a ab 4e 81 3b
       0.00039176797 -0.00635676 0.0009302588 0.0039461455
0000b0 3d f4 05 bc 26 92 f9 bb 9f 31 3a bc 1f 4c 07 bc
       -0.008175907 -0.007616299 -0.01136437 -0.008257895
0000c0 a2 f2 cf bb ea aa 95 bb 88 13 9f 39 fc a6 b5 3b
       -0.0063460628 -0.0045674937 0.00030341395 0.0055435877
0000d0 2e 97 58 3b fc aa ae 38 d8 d8 26 3b f5 fb 09 bb
       0.0033049094 8.328815e-05 0.0025458839 -0.002105472
0000e0 8d 61 07 ba bb 76 c8 bb a5 08 f4 bb bb dc 12 bb
       -0.00051643775 -0.0061176694 -0.0074473196 -0.0022409398
0000f0 9b 99 22 bb 19 09 1c 3b 3a 87 20 3c d6 81 e6 bb
       -0.0024810794 0.0023809134 0.0097978655 -0.0070345206

layer4.0.weight f4 [64, 64, 3, 3]
000000 d9 a6 56 3b 3e 67 2f 3d 53 7d d8 3c fe 09 07 3c
       0.0032753258 0.04282307 0.026426947 0.008242128
000010 01 0e 34 bc 9d 44 b6 bc 17 3f 7b bc b7 e0 1e bd
       -0.010989667 -0.022249514 -0.015334866 -0.038788524
000020 76 f2 84 3a fc 1c bd bb bc be a2 3c 89 bb 35 3c
       0.001014306 -0.0057712775 0.01986634 0.011092075
000030 87 25 af 3c 50 41 fd bb 7b d6 f9 bc f3 b5 20 bb
       0.0213802 -0.007728733 -0.03049778 -0.0024522513
000040 fa 33 80 3c 67 9f 2d 3b 97 72 02 bd ec 1e 87 bc
       0.015649784 0.0026492716 -0.031847563 -0.016494237
000050 6f 6c d2 bc 61 86 06 bd 0a 5b cb 3c 8a f5 d3 bb
       -0.02568647 -0.032842997 0.024823684 -0.0064684795
000060 fd e9 11 3d e6 1c 07 bb 1e 8f 15 bc 69 33 24 bd
       0.03562354 -0.002061659 -0.00912836 -0.04008809
000070 8e 8d a2 bc 60 3d b1 bb 9e 7a 24 bd 04 89 9d 3b
       -0.01984289 -0.005408928 -0.040156 0.0048075933
000080 a2 36 f9 3b 72 10 04 bc df 89 cc bc 28 94 33 3b
       0.0076053897 -0.0080605615 -0.024968086 0.002740154
000090 90 4a 48 bc c9 7d 1d 3c 23 44 44 3c 95 15 85 3c
       -0.012224808 0.009612509 0.011979136 0.016245643
0000a0 a7 89 48 3b 03 00 22 bd fc 1c b6 3c a4 a0 33 bd
       0.0030599625 -0.039550792 0.022230618 -0.04385437
0000b0 2c c2 eb 3c e6 80 11 3c 7a 98 72 bc df b7 12 3d
       0.028779112 0.008880829 -0.014806861 0.035819884
0000c0 34 ad b3 3b d1 37 19 bd c3 63 12 bc e9 99 07 3d
       0.005483294 -0.037406746 -0.008934918 0.033105765
0000d0 1a 91 8e bb 7c 31 32 bd ae ae 39 3d 06 59 0c bc
       -0.0043507935 -0.043504223 0.045332603 -0.008566147
0000e0 f2 f8 d3 bc d6 5b f0 3a 0f 07 3e 3c 37 f3 0d bd
       -0.025875542 0.0018337916 0.011598363 -0.034655776
0000f0 5b 4d 18 3d f4 41 0b bc 70 53 12 3c d6 16 d4 bb
       0.037183147 -0.008499611 0.008931026 -0.006472449
000100 8f 01 2a 3d 35 db fe bc 5c 1e 49 bb 13 56 04 bd
       0.041505393 -0.031110385 -0.0030688262 -0.03230865
000110 ba b7 d2 3c a7 b8 ed 3c 47 83 92 3c 39 86 13 bc
       0.025722373 0.029018713 0.017884864 -0.009004169
000120 f9 5b 7d 3b 0c 11 d5 bc 08 82 e7 3c 8f be 30 3d
       0.0038659556 -0.026009105 0.028260246 0.04315048
000130 dc a7 99 bc 8d 64 f5 bc eb e0 26 3d 88 53 1c 3b
       -0.0187568 -0.029955173 0.040741842 0.00238535
000140 20 33 89 3c f9 b6 14 bd 2f 7b cf bc 49 f7 0e bc
       0.016748011 -0.03630731 -0.025327293 -0.00872595
000150 e6 24 14 bd 8e 8f 60 3c a3 f3 f1 bc ae d7 c2 3c
       -0.036168 0.013706101 -0.02953512 0.023784485
000160 e6 f7 0a bc 0a 97 54 ba ba 03 94 ba d3 ea b4 bc
       -0.008481955 -0.0008109665 -0.0011292615 -0.02208463
000170 fc e5 67 3c b1 6f c9 3c 90 ff 22 bd 3e 66 0c 3b
       0.014153954 0.024589391 -0.039794505 0.0021423246
000180 03 91 a2 3b 56 ea c5 3c 84 f4 3a bc f5 bd 00 3d
       0.0049611344 0.024159592 -0.011410836 0.031431157
000190 a4 1c 60 36 d5 f2 fe 3c 78 20 f8 3c 8c 68 2d 3d
       3.3395272e-06 0.03112165 0.03028892 0.04233603
0001a0 90 37 48 bc 82 e0 9a bb a5 8d 84 bc 1f 9d 8d bc
       -0.012220278 -0.0047264704 -0.016180823 -0.017286835
0001b0 f4 26 e4 3c 1f ac e3 bc f3 07 85 bc 62 fb 95 bc
       0.027850606 -0.027792035 -0.016239142 -0.018308345
0001c0 3f 1b 1f 3a aa 24 69 bc 34 da fe 3c 20 de 53 bc
       0.00060694286 -0.014229933 0.031109907 -0.012931377
0001d0 13 1c 11 3d 0b 21 94 bc ab bd 2a bb 1c b3 25 bd
       0.035427164 -0.018082162 -0.0026052992 -0.040454015
0001e0 41 66 f2 bc f7 86 19 3d c6 67 55 bc 4c eb 0f bd
       -0.029589774 0.037482228 -0.01302523 -0.035136506
0001f0 40 c0 25 3b 9f 4b e5 bc 95 62 11 bc df cc d7 bc
       0.0025291592 -0.02799016 -0.008873601 -0.026342807
000200 de 53 14 3d 29 06 1a bd 19 38 38 3d bb d6 6c 3b
       0.036212794 -0.03760353 0.044975374 0.0036138732
000210 84 a1 01 3d 22 4d af 3c 32 6b 11 bc 63 b1 c3 bc
       0.031648174 0.021399084 -0.008875655 -0.023888296
000220 e0 3d 46 3c 10 0d da 3c 87 04 4d 3c 12 e0 1f 3d
       0.012099713 0.026617557 0.012513286 0.03903205
000230 6c b6 46 bc 89 7e c5 bc ca a8 2d bd 88 d5 ff 3c
       -0.012128454 -0.024108188 -0.042397298 0.03122975
000240 ab 32 17 bd 48 23 19 3d 4c d4 d9 3c 45 e8 10 bd
       -0.036913555 0.037387162 0.026590489 -0.03537776
000250 98 6b e2 bc 3e 43 82 3c 4e f5 04 bd a3 16 ba 3c
       -0.027639195 0.015901204 -0.032460503 0.022715872
000260 d3 ff 8c bc 47 70 8e 3c d9 19 dd bc 84 d8 72 3a
       -0.01721183 0.017387522 -0.026989864 0.0009263831
000270 05 05 e9 bc f7 a7 3c 3a 48 15 e2 bc bb cb 26 3d
       -0.028444776 0.00071966596 -0.027598038 0.040721636
000280 5a 10 aa bc 99 72 1c bc 2e 27 34 bc dd d0 ae 3c
       -0.02075975 -0.009548807 -0.010995669 0.021339828
000290 8d d8 1c 3d 11 d1 ec 3c 83 36 c8 bc 86 c9 28 3b
       0.038292456 0.028908284 -0.024440056 0.0025754883
0002a0 cc 8c 4e bc 83 39 c7 bc 37 1e 13 bd 33 7b a6 3c
       -0.012606811 -0.024319416 -0.035917487 0.020322418
0002b0 0b d4 8b bc 62 6e 0d bc 23 db 3e bd 3a c0 13 bd
       -0.017068883 -0.008632274 -0.046595704 -0.036071993
0002c0 1a 1e b9 bc e9 f9 2a 3c 12 bb 36 3d 57 dc 00 3b
       -0.022597361 0.01043556 0.044611998 0.0019662583
0002d0 76 a4 22 bc 0b 84 22 3d df 1e be 3b 31 ec 60 3c
       -0.009926906 0.039676707 0.00580202 0.013728187
0002e0 fe fe e5 bc 00 20 ac bb 51 7c 07 bd b3 a1 61 bc
       -0.028075691 -0.005252838 -0.03307754 -0.013771462
0002f0 f2 bb f2 3c 73 9f d5 39 f6 58 78 bc bb c9 06 bc
       0.029630635 0.00040745325 -0.015157929 -0.008226807
000300 95 e4 8e 3b 63 8a 0c 3d c9 8b dd 3c ec 44 9f 3c
       0.004360745 0.034311663 0.027044194 0.019442044
000310 72 96 3b bc 2a 40 9a 3c 4d ad ee 3c 8e 05 48 3d
       -0.011449443 0.018829424 0.02913537 0.048833422
000320 ab ea 04 bd b9 87 ad bc 99 dd 6a bc b4 23 da b9
       -0.03245036 -0.021182882 -0.01433506 -0.000416068
000330 d0 ed 6e 3b dd 79 05 3d 0a ae 3a bd ec e6 7c 3c
       0.0036457665 0.03258692 -0.045576133 0.015435915
000340 52 50 bf 3c d1 9c bc bc 05 30 37 bd 03 a6 09 3d
       0.02335373 -0.023023995 -0.04472353 0.033605587
000350 57 5e 3a 3d f1 f5 8a 3c 51 6b ba 3c 77 b0 23 3d
       0.045500126 0.016962977 0.02275625 0.039963212
000360 67 e6 ca bc 9d c5 e8 bc a0 99 05 3d 3e c2 05 3d
       -0.024768068 -0.028414542 0.03261721 0.032655947
000370 c1 d0 19 3c a2 7d a3 bb 54 71 06 bd e5 00 13 3d
       0.00938815 -0.004989342 -0.032822922 0.035889525
000380 7d 66 fe bb cb 35 58 bc 79 eb 27 bd 0b f7 c3 bc
       -0.0077636824 -0.013196419 -0.04099605 -0.02392151
000390 0e ec 4a 3c 98 3b 70 3c a4 3f 5f 3c ae 1f 1d 3d
       0.012385381 0.014662646 0.013626013 0.03836029
0003a0 7f f2 25 3d 14 4f cc 3c 74 98 dd 3c 29 c2 cf bc
       0.040514465 0.024940051 0.027050234 -0.025361137
0003b0 4f bf f2 bc 26 75 03 bd d8 c6 8d 3b d0 44 c5 3b
       -0.029632239 -0.032094143 0.0043266825 0.006020166
0003c0 b2 08 9a bb a7 ff 1e bb e0 78 1b 3c 18 69 4d bc
       -0.0047007436 -0.0024261267 0.009489268 -0.012537263
0003d0 23 8f 18 3d 07 63 13 3d 60 79 f7 bc 04 da 07 bd
       0.03724588 0.03598311 -0.030209243 -0.0331669
0003e0 5e 97 bf bc f1 e1 09 3d d2 77 8f bb f5 4f 2e 3c
       -0.023387607 0.03366274 -0.0043782974 0.01063918
0003f0 aa 95 9a ba 82 92 8b 3c 2b 6e 23 3c 4d 3f 3c 3b
       -0.0011793871 0.017037634 0.009974997 0.0028724254

layer4.0.bias f4 [64]
000000 f9 99 31 3b 78 e2 1c 3d b2 25 c2 bc bf d3 de bc
       0.0027099831 0.038301915 -0.023699615 -0.027200578
000010 33 36 fb bc 52 f0 10 bc 8f 95 1b 3c e3 64 10 bd
       -0.030665493 -0.008846359 0.009496107 -0.035252463
000020 d7 fc 11 bd a2 34 0e 3c d3 c6 13 3d 79 3d e8 3c
       -0.035641517 0.008679541 0.036078285 0.028349625
000030 93 73 0c bc 69 e4 17 bc 69 cc 13 bc af e2 80 3c
       -0.008572477 -0.009270766 -0.009020903 0.015733091
000040 c8 22 c2 3b 15 b3 26 bd 9f c7 af 3c 19 19 a9 3c
       0.0059245564 -0.04069813 0.021457491 0.02064185
000050 52 6c a4 3c ee 4b 7d 3b 21 95 96 bc b1 b0 ed 3c
       0.020071182 0.0038649994 -0.018381657 0.029014917
000060 89 b0 ac 3c ad 32 93 3c 94 68 99 bc 00 e3 2b bd
       0.021080272 0.0179685 -0.018726625 -0.04196453
000070 75 db 3c 3c 74 c0 cd bc d1 76 02 3d b1 ef 94 bb
       0.011526932 -0.025116183 0.031851593 -0.004545175
000080 7e 76 18 bc 1e a0 10 bd e3 60 33 3d cd 77 0d bd
       -0.0093055945 -0.03530895 0.04379357 -0.03453808
000090 1e 3f 24 bc 86 e8 13 bc b4 25 e5 bc eb 6c 85 3c
       -0.010024814 -0.009027606 -0.02797208 0.016287288
0000a0 1e 09 c4 3a 8a dc 29 3d 11 dd a9 bc f7 b8 b6 3c
       0.001495633 0.041470088 -0.020735295 0.022304995
0000b0 e1 39 dc bc e8 68 41 bd 4f a1 2f 3d b0 59 20 bd
       -0.026883068 -0.047219187 0.042878445 -0.039148033
0000c0 2e d3 c3 3c 29 61 f7 3c 22 be 95 bc f2 97 36 bd
       0.02390441 0.030197697 -0.018279139 -0.0445785
0000d0 0b de 04 3d 15 98 c8 3c 57 d8 02 3d 6d cc 95 3c
       0.03243832 0.02448658 0.0319446 0.018285954
0000e0 c4 b5 06 bd b2 d2 c4 bb 8e 55 63 bc 49 c0 b9 3c
       -0.03288819 -0.006006562 -0.013875378 0.022674697
0000f0 40 ed 29 bd ed 91 3d bb 67 53 00 bd 96 68 00 bd
       -0.041486025 -0.002892609 -0.03132954 -0.03134974

layer4.1.weight f4 [64]
000000 76 51 80 3f e3 28 7f 3f 0f cc 80 3f ee 1d 7d 3f
       1.002486 0.99671763 1.0062274 0.98873794
000010 ca 70 7e 3f d3 31 7f 3f 4c c8 7e 3f f9 97 80 3f
       0.9939085 0.996854 0.9952438 1.0046378
000020 5a 61 7d 3f 0d e4 7f 3f 37 e1 7d 3f 14 53 80 3f
       0.9897667 0.9995735 0.99171776 1.0025353
000030 2b 07 80 3f 6a 5d 7f 3f 5e b8 7f 3f d3 d7 7e 3f
       1.0002187 0.99751914 0.99890697 0.9954807
000040 7a 8e 7e 3f f5 09 7c 3f 04 97 7f 3f 45 6c 7d 3f
       0.9943615 0.98452693 0.99839807 0.9899333
000050 47 5b 7f 3f bf 0c 81 3f 06 08 80 3f a8 ac 80 3f
       0.99748653 1.0082015 1.0002449 1.005269
000060 17 f6 7e 3f a9 c5 7f 3f eb e7 7d 3f ca 89 7d 3f
       0.99594253 0.9991098 0.99182004 0.99038374
000070 aa 79 80 3f cf 51 7e 3f 30 8e 81 3f 81 f5 81 3f
       1.0037129 0.9934358 1.0121517 1.0153047
000080 a7 9d 7e 3f 49 00 7f 3f 58 ed 7e 3f e9 0e 7f 3f
       0.9945931 0.9960981 0.9958091 0.99632126
000090 0a 6a 80 3f aa 91 81 3f ed 76 7d 3f 3c b7 7f 3f
       1.003236 1.0122578 0.9900959 0.9988897
0000a0 db 22 82 3f e9 fa 7e 3f f3 e4 7d 3f 5d 05 7f 3f
       1.0166887 0.9960161 0.99177474 0.9961756
0000b0 fe bb 7f 3f 60 ed 7d 3f 29 1c 7e 3f e6 77 7e 3f
       0.9989623 0.9919033 0.9926172 0.994017
0000c0 b1 5f 7f 3f d5 1b 81 3f 76 6a 80 3f 66 e3 7b 3f
       0.9975539 1.0086619 1.0032489 0.9839386
0000d0 c0 ab 80 3f cc 33 7f 3f e8 ed 80 3f 56 93 7f 3f
       1.0052414 0.9968841 1.0072603 0.9983419
0000e0 00 9c 7e 3f 22 4b 80 3f 49 be 7e 3f a4 b3 7d 3f
       0.9945679 1.0022929 0.995091 0.99102235
0000f0 90 35 7f 3f 39 95 81 3f 0a 23 7e 3f 01 5b 81 3f
       0.99691105 1.0123664 0.99272215 1.0105897

layer4.1.bias f4 [64]
000000 e3 99 77 ba ef 8c ef ba 1b c7 f1 b8 1a 1b 6e bc
       -0.0009445233 -0.0018276254 -0.00011528862 -0.014532829
000010 14 db 73 bb d7 42 42 bb 42 ee f6 bb 20 4b 1d bb
       -0.0037209438 -0.002964189 -0.0075357268 -0.0024001077
000020 c8 40 34 bc 08 3c 74 bb 64 bc 19 bc be 29 e3 39
       -0.011001773 -0.0037267227 -0.009383295 0.00043327914
000030 57 33 b8 3b 0a 25 97 bb fb 99 50 bb 72 ce 08 bb
       0.0056213546 -0.0046125697 -0.003183006 -0.0020875004
000040 0a 56 bf bb 9b 03 8b bc b4 d9 6e bb 4d 68 2b bc
       -0.005839114 -0.016969493 -0.003644568 -0.010461879
000050 9a 7b a2 ba 53 3a c8 3b ef 6c 0a ba b4 d0 95 39
       -0.0012396455 0.0061104684 -0.00052805146 0.0002857499
000060 09 6d 7e bb cf c3 27 bb 09 34 be bb 86 d6 de bb
       -0.0038822314 -0.0025598889 -0.005804543 -0.0068004755
000070 3c 38 3a bb 05 fc 13 bc f4 54 ef 3b fe 52 d0 3b
       -0.0028414866 -0.009032254 0.0073038284 0.0063575497
000080 e9 48 b5 bb ce ef 2a bb a9 05 29 bb 78 23 1e bb
       -0.005532373 -0.0026082876 -0.0025790727 -0.0024130028
000090 d5 ed 42 ba 67 9d cf 3a 05 0f 13 bc fa 47 99 bb
       -0.00074359524 0.0015839756 -0.008975749 -0.0046777697
0000a0 f9 cc 8c 3b f5 63 8e ba 93 0e 1b bc ec bb 9d bb
       0.0042968956 -0.001086353 -0.009463924 -0.004813662
0000b0 9b 1f 68 bb 2f 53 24 bc 91 34 9b bb 2f b3 2b bc
       -0.003541923 -0.010029598 -0.004736491 -0.010479732
0000c0 1d a8 a2 ba af 11 d9 3a 11 b6 f3 39 72 69 64 bc
       -0.0012409721 0.0016561056 0.00046484222 -0.013941156
0000d0 cb e8 08 3c 7d 0e 7b bb 4f 58 0a 3c 51 11 21 ba
       0.008356283 -0.0038308196 0.008443906 -0.0006144243
0000e0 eb 14 31 bc ee e4 05 bc 01 6c dd bb 80 c0 19 bc
       -0.01080821 -0.008172257 -0.00675726 -0.0093842745
0000f0 e0 ac c9 bb a3 3b 6e 3b 36 b7 ca ba d2 88 ec 3b
       -0.0061546415 0.0036351464 -0.0015465978 0.0072184587

layer5.0.weight f4 [64, 64, 3, 3]
000000 36 f6 8e 3c 15 11 21 3c 47 67 a5 bb 00 00 40 3c
       0.017451387 0.009830733 -0.005047712 0.01171875
000010 e2 cc 44 ba 73 a5 6b 3c 70 0b 14 bc 55 9a 0b 3b
       -0.00075073366 0.014382708 -0.00903593 0.0021301706
000020 06 84 4c bc cf da 3a bd 6a 43 10 bb e4 06 5b bd
       -0.012482649 -0.04561883 -0.0022012838 -0.05347337
000030 ad 8d f3 3c e0 d9 d8 bc 56 95 b5 bc 76 0a fd 3b
       0.029730642 -0.026471078 -0.022165935 0.0077221943
000040 33 59 e6 3c 95 45 84 3c fc d8 e9 bc 18 2b ff bc
       0.028118705 0.01614646 -0.028545849 -0.031148478
000050 38 8b f8 3c 45 66 ad ba a2 f3 a9 3a 37 53 22 3d
       0.030339822 -0.0013229331 0.0012966285 0.03963014
000060 99 4e 32 3d 12 04 1a 3d 06 f3 f5 3c ba ec 22 bb
       0.043531988 0.037601538 0.03002311 -0.0024860338
000070 18 84 24 bd dc c6 e6 3b ac 65 cb 3c 6b d7 0e 3d
       -0.040165037 0.007042749 0.024828754 0.034873407
000080 25 71 b3 3b 6b 5a b8 bc 88 ef 7b bc d9 77 d4 bc
       0.0054761344 -0.022504052 -0.015376933 -0.025936054
000090 93 44 9a bc 69 17 0f 3d 2f 89 77 bc 32 d0 c4 bc
       -0.018831527 0.034934435 -0.015108391 -0.024025057
0000a0 e2 71 dd bb c5 d5 23 3d 5b da 16 3b 16 a1 01 b8
       -0.0067579607 0.03999879 0.0023018334 -3.090602e-05
0000b0 2b bc 17 bd 5c 28 92 bb da b8 95 3b 4b 6c 06 3d
       -0.037044685 -0.0044603776 0.004569155 0.03281812
0000c0 ba a8 b7 bb b4 16 43 3d d9 b1 1e 3d 3c 75 5c bc
       -0.0056048306 0.047629073 0.038743827 -0.013455685
0000d0 80 93 e4 3c 40 03 87 bc 7f 5d d1 3c b9 ca d7 bc
       0.027902365 -0.016481042 0.025557278 -0.026341783
0000e0 de 9e 80 3c 51 c5 7b 3c 78 de 2e 3d 52 ce a1 3a
       0.015700754 0.015366868 0.04269263 0.0012344813
0000f0 66 b9 01 3d e6 40 a9 bc 31 2d ef 3b 8d 37 47 bd
       0.03167095 -0.020660829 0.0072990884 -0.04863696
000100 37 98 2f bd 44 45 e1 3c 04 ce f0 3c 4a e4 9a bc
       -0.042869773 0.027498849 0.02939511 -0.018907685
000110 98 13 5a 3c 39 e3 21 3d 7d 23 f5 3b 28 cd d4 3c
       0.013310336 0.039523337 0.007481037 0.025976732
000120 54 c5 cc bb 18 5c 01 bd 78 da 3c 3c b1 38 31 bc
       -0.0062491093 -0.031581968 0.011526696 -0.010816739
000130 01 e3 d8 3c 73 a8 f4 bb cd 17 12 bd df 9b 1b bd
       0.026475431 -0.00746637 -0.03566723 -0.037990447
000140 c0 02 e6 bb 7a 14 11 3d 2e 43 e1 bc d4 34 50 3d
       -0.007019371 0.03541992 -0.027497854 0.05083163
000150 c3 a7 a2 bc 61 93 29 3d bb 2a a0 3c 73 9c f6 bc
       -0.019855386 0.041400317 0.019551625 -0.030103898
000160 10 d7 b7 3c 4a 3b 0a 3d 8a f2 13 bd ce c9 15 3c
       0.022441417 0.03374795 -0.036119975 0.009142352
000170 d3 fb de bc 75 8e 0a 3d 94 69 db bc 57 95 f5 bc
       -0.027219689 0.033827264 -0.026783742 -0.029978437
000180 bb 2a 1b 3c a6 b3 e7 3c e3 4e e8 bc b2 c5 72 bc
       0.009470637 0.028283905 -0.028357929 -0.014817642
000190 5a c1 f8 bc 77 2a d2 bc 7b 9b 3f bc dd 6e d5 3b
       -0.030365635 -0.025655014 -0.011694784 0.00651346
0001a0 6a 29 f1 3c 06 c9 88 3c fc 0d 47 bc c0 fe ea 3b
       0.029438693 0.016697418 -0.01214933 0.007171482
0001b0 17 f1 39 bd 49 be 09 bc 90 11 ec bb f7 bf 49 bc
       -0.045395937 -0.008407184 -0.007204242 -0.012313834
0001c0 8b 7e 9f 3c 75 31 44 3c 7b de 80 3c 51 3e 11 bd
       0.01946952 0.011974682 0.015731087 -0.03545982
0001d0 ee 9c 4e bc 02 ae 34 bd c6 44 82 3c dc 86 09 bc
       -0.012610657 -0.04411126 0.015901934 -0.008393969
0001e0 85 f0 8f 3a ed 0a 05 3d 83 2b eb b9 3d 18 da 3c
       0.0010981715 0.032481123 -0.00044855112 0.026622886
0001f0 22 fd a8 ba ad 4a c7 3c 7f c6 4b bd d6 3c f6 bc
       -0.0012892822 0.0243276 -0.049749848 -0.030058306
000200 5b 1a f4 3a 50 b7 f8 3c 38 ce d9 bc 45 a3 39 3d
       0.0018623577 0.030360848 -0.02658759 0.04532172
000210 04 d9 f8 3c 99 b8 44 bc c9 65 65 3d 2a 7f 76 3c
       0.030376919 -0.012006902 0.056005273 0.015044967
000220 0d de d4 ba e0 89 b1 3b da b4 e5 3a 35 20 89 bc
       -0.0016240493 0.0054180473 0.0017525211 -0.01673899
000230 95 e7 8a bb 26 c7 2b 3d 95 50 7b 3c 10 16 a7 3c
       -0.0042390325 0.04193797 0.0153390365 0.020396262
000240 b3 bd 45 3c 19 33 03 bd 3c 32 43 bc 1f 90 46 bc
       0.012069154 -0.032031152 -0.011913832 -0.012119322
000250 3f 89 59 3c ef a5 08 3c f9 90 b0 bc 07 19 89 bc
       0.013277351 0.008340343 -0.021553503 -0.016735567
000260 79 32 ee 3c d0 20 25 bd 93 61 63 3c 89 c6 4f 3c
       0.029076802 -0.040314496 0.013878244 0.012681612
000270 78 74 fd bb ec 11 e3 3c 16 ca 3d bd d8 73 be 3c
       -0.0077348314 0.027718507 -0.046335302 0.023248598
000280 7e 2b 97 bc fa 90 07 3d ab aa 36 bd 46 9d 30 bd
       -0.018453356 0.033097245 -0.044596355 -0.043118738
000290 c7 2d 2c 3c 1e 35 2e bc cf 41 de 3c 1b ae 25 3c
       0.010508961 -0.010632781 0.02713099 0.010112311
0002a0 13 2f 68 3c 1b cb 9a 3c 89 c8 1d bd 65 17 6a bc
       0.01417138 0.018895676 -0.038521323 -0.014287804
0002b0 37 a5 0a 3c d3 c4 99 3b 0e aa 3c bd 3e db c1 bc
       0.008462242 0.0046926527 -0.046060614 -0.023664113
0002c0 1e 1c 29 bd 75 3a dd 3c ea 32 20 bd 29 c3 54 bc
       -0.04128658 0.027005414 -0.039111055 -0.012985983
0002d0 fc 8a 1d bd a6 0a b3 3b ce 4b ca 3c dd 67 e4 3c
       -0.038462624 0.005463916 0.02469435 0.027881557
0002e0 7a 2b 09 3d 6f b3 93 3c 2d 0d 95 bc 8d d9 0e bc
       0.033488728 0.018029897 -0.01819476 -0.00871886
0002f0 13 b0 76 bc c8 56 18 bd aa e4 0e bd 40 42 23 bd
       -0.015056628 -0.037192136 -0.03488604 -0.039858103
000300 9d 1a bc 3b 18 f1 56 3c 36 fe 09 3c c6 65 b3 3b
       0.0057404772 0.013119005 0.008422425 0.005474779
000310 32 a7 5a bc 5a 88 50 3d 8d fe 3a 3b e4 33 be 3b
       -0.0133455265 0.050911285 0.0028533072 0.0058045257
000320 9c 13 75 bc 2d 16 1e bc 00 30 94 bb b6 56 d6 ba
       -0.0149582885 -0.009648842 -0.0045223236 -0.0016352746
000330 f5 e1 99 3c 43 15 0b bd 9d d5 04 bd ba 96 6a bc
       0.018784503 -0.033955824 -0.03243028 -0.014318163
000340 7d a9 8d bb 09 b1 c0 3c ac a5 36 3c d2 1f 26 ba
       -0.004323183 0.023521917 0.011147898 -0.0006337139
000350 5c 30 90 3c 2a 26 09 3d 46 67 9e 3c 24 14 9b 3c
       0.017601185 0.03348366 0.019336354 0.018930502
000360 d3 b6 07 3d 31 d4 72 bc 38 62 2a bd 1c e9 42 3c
       0.03313334 -0.014821098 -0.041597575 0.011896398
000370 32 d4 cc 3b 64 42 da ba 37 a1 ee bb 36 b2 0d bc
       0.0062508816 -0.0016651866 -0.007282402 -0.008648446
000380 1d 1c fa bb 5d 3f ce bb 9f c3 9c 3c 69 5e c1 3c
       -0.007632746 -0.0062941746 0.019136248 0.023604589
000390 86 7e d7 3c e5 71 ff bc 74 b3 9c 3c 4f 0b 09 bc
       0.026305448 -0.031182239 0.019128539 -0.008364513
0003a0 65 aa a3 bc 1e 1d 86 bc be 33 3f bd 85 0e 07 bd
       -0.019978711 -0.016371306 -0.046680205 -0.03297283
0003b0 0e 50 23 bd 76 9e 95 3b 93 93 40 bd bc 51 a4 3c
       -0.039871268 0.004566009 -0.047015738 0.020058505
0003c0 84 69 1a bd cd b5 4b bd e6 56 3f bd 3e fe e3 bc
       -0.037698284 -0.049733926 -0.046713732 -0.027831193
0003d0 17 e2 54 3c 72 38 19 3d b0 6a bf 3a 5f 90 a6 bc
       0.012993357 0.037407346 0.0014603939 -0.020332513
0003e0 93 70 f9 bc f8 59 0e bd f4 a9 81 bc db 12 18 bd
       -0.030449187 -0.03475377 -0.01582811 -0.037127357
0003f0 a2 02 25 3d 7c 70 20 3d 19 b8 d5 bc 00 b2 a4 bb
       0.040285714 0.039169773 -0.026088761 -0.005026102
