weights/pretrain_rotated.pth (torch, 945238 bytes, 26 tensors)

layer1.0.weight f4 [16, 1, 3, 3]
0.008057933 -0.30937788 0.12340681 0.10866614 -0.18862127 0.119790025 -0.024018435 -0.14885886
0.066793814 0.04936969 -0.04810913 -0.09582126 0.27700186 0.0018559047 0.06193928 -0.2683152
0.097503334 -0.17891361 -0.074511215 0.3261523 -0.09983056 -0.16899617 0.2175493 0.1515034
-0.08926918 -0.03426835 0.10363616 0.2571023 -0.15128067 0.03878475 -0.23054816 0.21332736
0.33339968 0.09359678 0.2817769 -0.02294488 -0.03943253 0.10042581 0.2564231 -0.2600601
0.2711364 -0.06733562 -0.18719523 0.17299896 -0.095395274 -0.23324697 0.32558852 -0.20579237
-0.093807995 -0.2443272 0.15816268 0.30460382 -0.20453736 -0.046413295 0.28970438 -0.26381886
0.23484772 -0.15719639 0.2756877 0.05848892 0.18789238 0.20674023 0.21636063 0.07245439
-0.15316145 -0.2873108 0.062483706 0.17895965 -0.08705564 0.14438884 -0.27701795 0.17536454
0.26961973 0.108093746 -0.030249586 -0.27979854 -0.29221278 0.28905147 0.2338267 -0.223966
0.14382458 -0.19167669 0.30968556 0.11740903 -0.08309529 0.10439232 0.033421677 -0.17589839
0.27273235 -0.27445453 0.004601677 -0.2339085 0.10578588 -0.24272384 -0.0829067 0.27035135
-0.10431114 0.015190487 -0.20988683 0.12024971 -0.08111003 -0.29683158 0.13573621 0.095935136
0.27354842 0.18034123 0.28615364 -0.018181494 0.1476928 -0.2868918 0.19042864 -0.05449084
0.03831801 0.0599393 0.33878914 -0.32443127 -0.2724074 -0.09369371 -0.0037612002 0.024206657
0.056267615 -0.0564861 -0.10632479 -0.16597855 0.14412282 0.17889306 0.12771878 0.09909051
-0.00092018174 0.13213928 -0.067537755 0.074819274 0.034016162 -0.24738811 -0.31179938 0.23453476
0.3108462 -0.0142461965 0.088616855 -0.13394612 0.13182278 0.13912117 -0.108722776 0.0004868325
00000000: 6c05 043c c766 9ebe b6bc fc3d 5a8c de3d
00000010: ef25 41be 7954 f53d 4fc2 c4bc 756e 18be
00000020: 32cb 883d df37 4a3d 140e 45bd f03d c4bd
00000030: 30d3 8d3e d441 f33a 0bb4 7d3d 9c60 89be
00000040: d4af c73d 2135 37be 5699 98bd 6ffd a63e
00000050: f773 ccbd 550d 2dbe 3ec5 5e3e b523 1b3e
00000060: c3d2 b6bd f85c 0cbd 323f d43d eaa2 833e
00000070: 52e9 1abe c2dc 1e3d d114 6cbe 7d72 5a3e
00000080: 5db3 aa3e abaf bf3d 1045 903e e7f6 bbbc
00000090: 0184 21bd 0cac cd3d e349 833e 9926 85be
000000a0: 64d2 8a3e 42e7 89bd 1bb0 3fbe a426 313e
000000b0: 995e c3bd 4bd8 6ebe 8ab3 a63e 3cbb 52be
000000c0: 681e c0bd e930 7abe 66f5 213e 08f5 9b3e
000000d0: 3e72 51be de1b 3ebd 2254 943e 4413 87be
000000e0: ec7b 703e 17f8 20be f026 8d3e 1492 6f3d
000000f0: dc66 403e b6b3 533e a48d 5d3e f862 943d
00000100: 5bd6 1cbe 671a 93be eaee 7f3d 3341 373e
00000110: 3a4a b2bd abda 133e 4cd5 8dbe c392 333e
00000120: 990b 8a3e 4160 dd3d fbcd f7bc c141 8fbe
00000130: ea9c 95be 8efe 933e 4470 6f3e 5857 65be
00000140: c046 133e e546 44be 1b8f 9e3e 2574 f03d
00000150: dd2d aabd a4cb d53d 2be5 083d b51e 34be
00000160: 93a3 8b3e 4e85 8cbe aac9 963b b685 6fbe
00000170: 44a6 d83d 998c 78be fdca a9bd 7e6b 8a3e
00000180: 14a1 d5bd 85e1 783c 93ec 56be 7b45 f63d
00000190: 041d a6bd 4ffa 97be 6ffe 0a3e a479 c43d
000001a0: 8a0e 8c3e 5fab 383e bb82 923e 5bf1 94bc
000001b0: c83c 173e 7be3 92be baff 423e c931 5fbd
000001c0: 58f3 1c3d e982 753d c575 ad3e db1b a6be
000001d0: fc78 8bbe 7de2 bfbd 787e 76bb 0a4d c63c
000001e0: df78 663d f85d 67bd d0c0 d9bd 48f6 29be
000001f0: ef94 133e be2f 373e b6c8 023e f7ef ca3d
00000200: 5a38 71ba 854f 073e 3c51 8abd d93a 993d
00000210: 8854 0b3d 4f53 7dbe 2ba4 9fbe e129 703e
00000220: 3c27 9f3e e168 69bc c17c b53d 2c29 09be
00000230: 8dfc 063e c875 0e3e 0caa debd 8d3d ff39

layer1.0.bias f4 [16]
-0.14410937 0.23615381 -0.16933832 -0.06653973 -0.33801004 -0.171939 0.19107778 0.009268814
0.14235124 0.3037161 -0.26107338 0.067743026 -0.17644227 -0.19241136 -0.116926655 0.18119006
00000000: 6891 13be 4ed2 713e 0667 2dbe fb45 88bd
00000010: a70f adbe c710 30be e5a9 433e 39dc 173c
00000020: 86c4 113e ad80 9b3e 69ab 85be dbbc 8a3d
00000030: 48ad 34be 7c07 45be 3e77 efbd e389 393e

layer1.1.weight f4 [16]
1.0028776 0.9997036 0.9988 1.0047601 1.0073322 0.99666536 0.9923865 0.99059236
1.0009419 0.9920929 0.9962918 1.0005603 0.9934132 1.0026029 0.9989742 1.0022064
00000000: 4b5e 803f 93ec 7f3f 5bb1 7f3f fb9b 803f
00000010: 43f0 803f 7625 7f3f 0b0d 7e3f 7697 7d3f
00000020: dd1e 803f cdf9 7d3f fb0c 7f3f 5c12 803f
00000030: 5450 7e3f 4b55 803f c6bc 7f3f 4d48 803f

layer1.1.bias f4 [16]
0.0034168586 0.0010807861 0.0074939127 0.005822388 0.004620882 -0.0012724324 -0.0020843323 -0.0072666216
7.204722e-05 -0.005635194 0.007806224 -0.0029171142 -0.0035292986 -0.0005404717 0.007366518 -0.0007331852
00000000: 60ed 5f3b 2aa9 8d3a 7f8f f53b bbc9 be3b
00000010: c56a 973b bfc7 a6ba 4b99 08bb d71c eebb
00000020: 0f18 9738 6fa7 b8bb 5acb ff3b 0e2d 3fbb
00000030: ce4b 67bb 71ae 0dba d562 f13b 3a33 40ba

layer2.0.weight f4 [16, 16, 3, 3]
0.053166684 -0.05289747 -0.05857911 0.03937983 0.021472694 -0.0422419 0.028926533 0.091864474
0.069653355 -0.015977 0.047210306 -0.027857156 -0.013491046 -0.073600434 0.033741493 -0.028309971
-0.059137564 -0.036549356 0.045491137 -0.06476416 0.063222356 -0.005549638 -0.023606373 0.04429683
0.048818912 -0.035307053 -0.032753777 0.073038146 0.011229242 0.03870525 -0.02600734 0.08362171
-0.02436494 0.06643878 0.06288054 -0.058917504 -0.039002616 -0.08284133 -0.07607428 -0.029723471
0.07902373 -0.027582109 -0.08017432 0.0009064053 0.026135853 0.045851573 0.07279147 0.0231844
0.08572716 0.0131351175 0.007155054 -0.055201657 -0.017905952 0.013447455 -0.0076253405 0.07596216
-0.030120637 0.043394115 0.052909426 0.027936157 0.08072371 0.053606935 0.06244146 0.0069427458
-0.014515518 -0.002742827 0.05336783 -0.08795404 -0.034375668 0.00890825 -0.029496953 0.042779595
0.04729937 -0.0175089 -0.05574199 -0.07636208 0.02881266 0.011107879 -0.07725583 0.06150848
0.00065684755 -0.027912194 -0.028502647 -0.029916128 0.06885337 0.027006246 -0.014617882 0.022991158
0.021644285 0.051028587 -0.05925859 -0.037751697 0.044901796 -0.061113734 -0.017709697 0.043570474
0.07390831 0.023738896 0.042918086 0.08071036 -0.0042351037 -0.007893825 -0.01711063 0.054520734
-0.03993014 0.049332637 0.07468975 -0.077494636 -0.02788516 -6.6428456e-06 -0.03748197 -0.029887265
-0.06807997 0.06097665 0.029972801 0.032841004 0.07765828 0.07903629 0.07426224 0.08468062
0.049977235 0.08865445 -0.04627455 0.031186983 -0.03911097 0.017460404 0.043754235 0.03246237
-0.06357396 0.002674381 0.01405783 -0.069128215 -0.0190988 -0.03913965 0.01579631 0.04974059
0.069091566 0.081414685 0.040996842 0.054196585 -0.059482712 -0.06391204 0.04269312 -0.07478905
0.07274216 -0.08003056 0.011337386 -0.080101535 -0.06940361 -0.028243931 -0.048175674 0.02143375
-0.057968114 -0.028023347 -0.009605076 -0.015115043 0.013470569 0.07045915 -0.014914961 0.057954177
0.03936798 0.06889808 0.056754753 0.022379735 0.009935278 0.06788915 0.05983923 -0.056304283
0.0005873999 0.05296461 -0.030192133 0.034502786 0.024589581 0.030460618 -0.045305718 -0.053025465
-0.0139754275 0.07389077 0.020801025 -0.006647682 -0.07052487 0.081634544 0.0072614625 -0.06734775
-0.01895848 0.006531822 0.005131857 -0.034352016 -0.037928533 -0.004952495 0.005101198 0.06261331
0.0035614572 0.049221475 -0.062692456 -0.058416694 -0.005631331 -0.0036500238 -0.032520454 -0.030311221
0.076864704 0.026203737 -0.06686939 -0.060845293 0.0669199 0.020352911 -0.055816293 -0.06948418
-0.06178327 0.004555821 -0.052551802 -0.07351685 -0.060207743 -0.07349829 0.037882473 -0.013486291
-0.06485539 -0.065594286 -0.0481153 0.02490232 -0.051450633 0.04507643 0.06920593 -0.03618122
0.06774951 -0.04262575 0.06679215 -0.04270637 -0.06315574 0.07496988 0.0324912 0.07812114
-0.08037064 0.07565885 0.07216664 0.0049097007 0.040195074 -0.07142898 0.02271094 0.013046202
-0.02634922 0.015000946 0.012403643 0.02068551 -0.03503336 -0.037610482 0.03087644 0.061463144
-0.01528514 -0.040450163 0.058471717 0.027827615 0.017759288 0.040592022 -0.08478735 -0.028588679
00000000: 4fc5 593d 04ab 58bd a6f0 6fbd bf4c 213d
00000010: 81e7 af3c d805 2dbd 56f7 ec3c 7123 bc3d
00000020: 6ba6 8e3d 33e2 82bc 985f 413d b134 e4bc
00000030: 8c09 5dbc d3bb 96bd 8534 0a3d 50ea e7bc
00000040: 3b3a 72bd c7b4 15bd ea54 3a3d 12a3 84bd
00000050: b97a 813d bdd9 b5bb 2762 c1bc 9870 353d
00000060: 57f6 473d 219e 10bd d328 06bd 0695 953d
00000070: dbfa 373c 6589 1e3d 580d d5bc dc41 ab3d
00000080: fc98 c7bc 0e11 883d 83c7 803d 7b53 71bd
00000090: 35c1 1fbd b7a8 a9bd d5cc 9bbd a37e f3bc
000000a0: 31d7 a13d e0f3 e1bc 6f32 a4bd d49b 6d3a
000000b0: db1a d63c dcce 3b3d b213 953d 36ed bd3c
000000c0: b991 af3d ad34 573c f174 ea3b 221b 62bd
000000d0: 81af 92bc b752 5c3c fedd f9bb 0d92 9b3d
000000e0: 8ebf f6bc 07be 313d 8eb7 583d 5eda e43c
000000f0: 7952 a53d f292 5b3d 9ec2 7f3d f97f e33b
00000100: 7fd2 6dbc 00c1 33bb 3a98 5a3d 3f21 b4bd
00000110: 80cd 0cbd e9f3 113c 98a3 f1bc a839 2f3d
00000120: fcbc 413d d36e 8fbc b751 64bd b963 9cbd
00000130: 8708 ec3c d2fd 353c 4e38 9ebd 51f0 7b3d
00000140: 4b30 2c3a 1da8 e4bc 627e e9bc ab12 f5bc
00000150: ff02 8d3d 343c dd3c d77f 6fbc f457 bc3c
00000160: 5b4f b13c 5a03 513d 23b9 72bd 86a1 1abd
00000170: f2ea 373d 6552 7abd ed13 91bc f476 323d
00000180: 3d5d 973d 1378 c23c e0ca 2f3d 794b a53d
00000190: a0c6 8abb 1a55 01bc 982b 8cbc 2251 5f3d
000001a0: c98d 23bd 0511 4a3d f1f6 983d 82b5 9ebd
000001b0: 6b6f e4bc 9ce5 deb6 b286 19bd 23d6 f4bc
000001c0: 836d 8bbd a7c2 793d 8589 f53c 4a84 063d
000001d0: 4e0b 9f3d c7dd a13d cd16 983d 086d ad3d
000001e0: eeb4 4c3d 7790 b53d 628a 3dbd d87b ff3c
000001f0: d332 20bd 1f09 8f3c a437 333d 43f7 043d
00000200: 1033 82bd ab44 2f3b d052 663c 1893 8dbd
00000210: 1675 9cbc e650 20bd 4367 813c cabc 4b3d
00000220: e17f 8d3d bebc a63d 4eec 273d 3dfd 5d3d
00000230: 25a4 73bd 51e4 82bd fbde 2e3d 002b 99bd
00000240: d7f9 943d 10e7 a3bd 72c0 393c 460c a4bd
00000250: 7b23 8ebd d15f e7bc db53 45bd d595 af3c
00000260: f96f 6dbd 3891 e5bc 9c5e 1dbc 16a5 77bc
00000270: a9b3 5c3c e34c 903d e15d 74bc 5c61 6d3d
00000280: 5240 213d 701a 8d3d ac77 683d b555 b73c
00000290: 94c7 223c 7709 8b3d fb19 753d 529f 66bd
000002a0: bdfb 193a 6bf1 583d 7e55 f7bc cb52 0d3d
000002b0: 1770 c93c 8c88 f93c 7d92 39bd 3b31 59bd
000002c0: 31f9 64bc 0b54 973d e966 aa3c ccd4 d9bb
000002d0: 586f 90bd 0330 a73d 90f1 ed3b 9eed 89bd
000002e0: d04e 9bbc e508 d63b 2329 a83b b3b4 0cbd
000002f0: f35a 1bbd 8a48 a2bb f327 a73b 683b 803d
00000300: 5667 693b 759c 493d e764 80bd 5846 6fbd
00000310: 0787 b8bb 3d35 6fbb 2b34 05bd 3d4f f8bc
00000320: 3e6b 9d3d 38a9 d63c d2f2 88bd ea38 79bd
00000330: 4d0d 893d 26bb a63c a09f 64bd b94d 8ebd
00000340: 7410 7dbd ff48 953b 8f40 57bd 0190 96bd
00000350: 659c 76bd 4586 96bd a72a 1b3d 9bf5 5cbc
00000360: e7d2 84bd 4c56 86bd 8c14 45bd f3ff cb3c
00000370: e6bd 52bd 10a2 383d d7bb 8d3d c232 14bd
00000380: 41c0 8a3d 5798 2ebd 53ca 883d e0ec 2ebd
00000390: cc57 81bd cf89 993d 7e15 053d fafd 9f3d
000003a0: 5d99 a4bd 07f3 9a3d 1acc 933d 8ee1 a03b
000003b0: 97a3 243d 5b49 92bd 4b0c ba3c bdbf 553c
000003c0: 52da d7bc 87c6 753c a638 4b3c a974 a93c
000003d0: 247f 0fbd 730d 1abd 97f0 fc3c c7c0 7b3d
000003e0: 866e 7abc 12af 25bd 0a80 6f3d bdf6 e33c
000003f0: ed7b 913c d243 263d fda4 adbd ce32 eabc

layer2.0.bias f4 [16]
-0.004129545 -0.06270298 -0.077695 0.053389113 -0.025538884 -0.071541116 0.07432616 0.042932134
0.07648554 -0.019539846 0.0015832603 -0.026858512 0.015190162 -0.02612349 0.024773266 -0.0049053538
00000000: 2251 87bb 6c6a 80bd 8e1e 9fbd 8bae 5a3d
00000010: ec36 d1bc 2684 92bd 5038 983d 9bd9 2f3d
00000020: 73a4 9c3d 0712 a0bc 6685 cf3a 6206 dcbc
00000030: 28e0 783c ee00 d6bc 4ef1 ca3c 17bd a0bb

layer2.1.weight f4 [16]
0.9938559 0.9909658 0.9971085 1.0 1.0060884 0.99358565 0.9933004 1.0026037
1.0055833 1.0041924 0.98547214 1.0106483 0.9953651 0.99879295 0.99603117 0.995379
00000000: 576d 7e3f efaf 7d3f 8142 7f3f 0000 803f
00000010: 81c7 803f a15b 7e3f ef48 7e3f 5155 803f
00000020: f4b6 803f 6089 803f e747 7c3f ec5c 813f
00000030: 3fd0 7e3f e5b0 7f3f e6fb 7e3f 28d1 7e3f

layer2.1.bias f4 [16]
-0.009396151 -0.0094551705 -0.0019522294 0.0 -0.0037227483 -0.0024174857 -0.007860458 -0.00053696753
-0.0039417674 0.0006727486 -0.01179481 0.0045354203 -0.0049788137 0.0054134536 -0.0032267072 -0.0028451248
00000000: 50f2 19bc dce9 1abc f3e1 ffba 0000 0000
00000010: 5af9 73bb ae6e 1ebb 27c9 00bc 48c3 0cba
00000020: f129 81bb 655b 303a 053f 41bc dd9d 943b
00000030: 5125 a3bb 5763 b13b 2a77 53bb 4675 3abb

layer3.0.weight f4 [64, 16, 3, 3]
-0.07250486 -0.064035594 -0.07577214 -0.0063201413 -0.0776617 0.0390878 0.0688734 0.01277303
-0.024986621 0.056608513 0.046656806 0.016770074 0.05784729 -0.0186697 -0.054383334 -0.04292957
-0.013823214 0.050763935 0.0675839 0.038579956 -0.065705046 -0.06171378 -0.017103592 -0.038743414
0.068793386 0.034347914 0.07219747 -0.020721128 -0.039405875 0.07509165 -0.004012575 0.05655267
-0.00642246 -0.05430175 -0.041657828 -0.069307946 0.037984714 -0.0019710816 0.076795824 -0.054493636
0.058207694 0.03819926 -0.055425268 -0.027793756 -0.033386245 -0.06650108 0.026427485 -0.039755207
0.016588911 -0.0639617 0.0827204 -0.07411713 -0.007287405 0.08197543 -0.01031111 -0.049943455
0.073268965 0.023119483 -0.0567243 -0.051145844 -0.03371141 0.07569917 0.057809938 -0.025199741
-0.079122625 0.03899737 -0.0010948852 -0.02125194 -0.0699644 -0.034633815 0.06301106 0.01559931
-0.0063022836 0.023724882 0.051204767 0.061906315 0.0192417 -0.06232907 -0.057654604 -0.042898055
0.034358237 0.027829487 -0.08470377 0.01721954 0.04655011 -0.033268705 -0.057071954 0.026945371
0.0051589157 0.06666721 -0.0781696 -0.039251775 -0.08777255 0.021238388 -0.028264236 0.01577478
0.03185598 0.033695437 0.0121777365 0.042545278 0.010421371 0.04725898 0.083305575 -0.005338187
-0.029831951 -0.07731428 -0.046290647 0.013312771 0.035933334 -0.055587415 0.01737292 0.006201997
-0.027235009 -0.030948624 -0.038516726 0.03465937 0.03351796 -0.062189892 -0.03742156 0.08764767
-0.01506135 -0.05583602 0.047139082 -0.00498777 -0.015889222 -0.020529656 0.05717752 0.03849348
0.04972618 0.014445833 0.019976163 0.029679168 0.04464371 0.022457784 0.043368295 -0.03875191
0.07666079 0.027655665 -0.05041196 0.0033264207 -0.02102845 0.06993432 -0.0076899016 0.035001524
-0.04777067 0.012009533 0.074264504 -0.071690135 0.009082143 -0.03164118 0.021848354 -0.063089244
-0.059628855 0.04846232 0.06991582 0.07355331 -0.045027547 0.08143204 0.05432909 -0.024905674
-0.06803208 -0.03746732 0.030973384 0.059955083 0.032946512 -0.0057104365 0.06004206 -0.06904802
0.014564226 0.06708833 0.019244637 -0.05315136 -0.04148528 -0.0035273633 -0.0064142942 -0.06667893
0.030834954 0.07445385 0.029259523 -0.07753013 0.031152971 0.05712593 -0.05459601 -0.07227103
0.05085586 -0.05155517 -0.051432543 -0.037366536 -0.012799417 -0.06420131 -0.033130556 -0.0758884
-0.006586628 -0.011140238 0.03906986 0.015767755 -0.012972125 -0.041579623 -0.06491047 -0.02750161
-0.050486222 0.0051824283 0.01823668 -0.035476297 -0.07733661 0.02694036 0.011946298 -0.059563644
0.07944272 -0.04649492 -0.013146584 0.055613704 0.0044707847 0.051717225 -0.030553794 -0.047596905
0.08161037 -0.0062893457 -0.055721898 0.05142214 0.010639654 -0.08589691 0.08027593 -0.034450058
0.01238488 0.022047637 0.08337153 0.07842771 0.048376057 -0.07138524 -0.06184072 -0.05083691
0.014318058 0.03573065 0.03987943 0.047089186 -0.046286676 0.025341935 -0.0552355 0.08043521
0.04088057 -0.0011775856 -0.07410943 0.081368566 0.060283303 -0.049073063 0.087646075 -0.020928456
-0.037585974 0.08918205 0.061449826 -0.057731144 -0.009578215 -0.034510463 -0.06328525 0.048624925
00000000: 6e7d 94bd 1825 83bd 6c2e 9bbd 3019 cfbb
00000010: 190d 9fbd 871a 203d 7f0d 8d3d f945 513c
00000020: beb0 ccbc 54de 673d 351b 3f3d 6561 893c
00000030: 48f1 6c3d 33f1 98bc 0fc1 5ebd ebd6 2fbd
00000040: c37a 62bc d8ed 4f3d 6e69 8a3d 0406 1e3d
00000050: 5e90 86bd 97c7 7cbd d51c 8cbc 6ab1 1ebd
00000060: 8ce3 8c3d 66b0 0c3d 44dc 933d 5bbf a9bc
00000070: 0e68 21bd a7c9 993d eb7b 83bb c6a3 673d
00000080: 8073 d2bb 836b 5ebd 66a1 2abd 53f1 8dbd
00000090: dc95 1b3d 432d 01bb 2147 9d3d b834 5fbd
000000a0: 316b 6e3d d476 1c3d 9b05 63bd bbaf e3bc
000000b0: 04c0 08bd b831 88bd 747e d83c 5bd6 22bd
000000c0: 78e5 873c 5afe 82bd 5069 a93d b9ca 97bd
000000d0: 2fcb eebb bce2 a73d eeef 28bc 8291 4cbd
000000e0: 0a0e 963d 1265 bd3c bd57 68bd 4e7e 51bd
000000f0: fa14 0abd 2b08 9b3d 1dca 6c3d b06f cebc
00000100: 0b0b a2bd b5bb 1f3d 4082 8fba 8c18 aebc
00000110: 7f49 8fbd 30dc 0dbd f10b 813d 4094 7f3c
00000120: 6383 cebb af5a c23c 17bc 513d 7a91 7d3d
00000130: c5a0 9d3c c44c 7fbd 3c27 6cbd dfb5 2fbd
00000140: 39bb 0c3d aafa e33c 2c79 adbd fe0f 8d3c
00000150: 54ab 3e3d c444 08bd 48c4 69bd 8abc dc3c
00000160: 1f0c a93b d188 883d 6217 a0bd 78c6 20bd
00000170: 18c2 b3bd 21fc ad3c 668a e7bc 1d3a 813c
00000180: 6b7b 023d 3a04 0a3d 2185 473c f543 2e3d
00000190: 66be 2a3c a292 413d 1d9c aa3d f5eb aebb
000001a0: 2362 f4bc f356 9ebd 439b 3dbd cf1d 5a3c
000001b0: d52e 133d a1af 63bd a751 8e3c 1f3a cb3b
000001c0: f41b dfbc f887 fdbc b7c3 1dbd fcf6 0d3d
000001d0: 214a 093d d4ba 7ebd 5a47 19bd 9f80 b33d
000001e0: e1c3 76bc 4fb4 64bd e914 413d 7370 a3bb
000001f0: 1d2a 82bc cf2d a8bc fa32 6a3d 57ab 1d3d
00000200: aead 4b3d 37ae 6c3c 0da5 a33c ba21 f33c
00000210: 53dc 363d 63f9 b73c f4a2 313d 53ba 1ebd
00000220: 5500 9d3d 228e e23c c57c 4ebd 1400 5a3b
00000230: db43 acbc ba39 8f3d 92fb fbbb c25d 0f3d
00000240: 2eab 43bd a2c3 443c fd17 983d 47d2 92bd
00000250: 45cd 143c 2f9a 01bd 52fb b23c ef34 81bd
00000260: 633d 74bd 6d80 463d 0730 8f3d 1ea3 963d
00000270: ce6e 38bd d7c5 a63d 2e88 5e3d fc06 ccbc
00000280: 6754 8bbd 5577 19bd e5bb fd3c 7693 753d
00000290: ecf2 063d 9d1e bbbb aaee 753d 0c69 8dbd
000002a0: cb9e 6e3c 9b65 893d eea6 9d3c 3eb5 59bd
000002b0: 78ec 29bd 562b 67bb 002f d2bb f68e 88bd
000002c0: 9699 fc3c 437b 983d abb1 ef3c 1ec8 9ebd
000002d0: 8434 ff3c e1fc 693d 11a0 5fbd d502 94bd
000002e0: 3c4e 503d 842b 53bd eeaa 52bd a70d 19bd
000002f0: a5b4 51bc fa7b 83bd e8b3 07bd 616b 9bbd
00000300: a4d4 d7bb 8b85 36bc b807 203d 612b 813c
00000310: 0989 54bc 654f 2abd c8ef 84bd 0e4b e1bc
00000320: a4ca 4ebd 5cd1 a93b 1765 953c 984f 11bd
00000330: a862 9ebd 08b2 dc3c 68ba 433c 02f9 73bd
00000340: ddb2 a23d 7571 3ebd c564 57bc 32cb 633d
00000350: a97f 923b 71d5 533d f34b fabc f9f4 42bd
00000360: 5623 a73d db16 cebb a53c 64bd 06a0 523d
00000370: f151 2e3c b8ea afbd b567 a43d 811b 0dbd
00000380: f4e9 4a3c 3f9d b43c b1be aa3d b59e a03d
00000390: f925 463d 6d32 92bd b24c 7dbd 5d3a 50bd
000003a0: 4a96 6a3c 4d5a 123d 9d58 233d 97e0 403d
000003b0: 1997 3dbd e499 cf3c 9f3e 62bd 37bb a43d
000003c0: 6272 273d 3759 9aba afc6 97bd 90a4 a63d
000003d0: a0eb 763d d600 49bd c97f b33d 2772 abbc
000003e0: c0f3 19bd 14a5 b63d d0b2 7b3d 7e77 6cbd
000003f0: f2ed 1cbc d85a 0dbd b29b 81bd ee2a 473d

layer3.0.bias f4 [64]
-0.03338015 -0.01355184 -0.07309259 0.06577729 -0.019393543 0.07162804 0.034700025 0.014456288
0.06879329 -0.06610068 -0.062040005 0.024638042 -0.0019347321 0.036925234 -0.014183976 0.05721239
-0.044246953 -0.012351975 0.048583996 -0.018798387 0.036609925 0.016223837 -0.06301147 0.07978786
0.019698687 0.06717174 0.07246317 -0.00554186 -0.0014260745 -0.04655695 -0.00095549907 -0.018551612
-0.058053404 0.06910728 0.048649084 0.03404211 0.02263743 -0.08283908 -0.047697295 -0.049748987
-0.06523464 0.033644903 0.016410567 0.004335261 0.078005835 0.011563423 -0.030037563 -0.026430445
-0.066087365 -0.008949147 -0.08388333 0.07238519 0.023959445 0.028834231 -0.05269642 0.016786564
0.07048321 0.02251099 -0.013913283 0.06997475 0.07134675 0.0031461623 0.032232784 -0.003702025
00000000: a0b9 08bd 8908 5ebc 91b1 95bd 3eb6 863d
00000010: 35df 9ebc b9b1 923d 9d21 0e3d 11da 6c3c
00000020: 7fe3 8c3d cb5f 87bd a91d 7ebd b8d5 c93c
00000030: d696 fdba ea3e 173d e863 68bc 8a57 6a3d
00000040: 4b3c 35bd f05f 4abc 0300 473d 13ff 99bc
00000050: 4af4 153d dae7 843c 280c 81bd d167 a33d
00000060: 245f a13c 5691 893d 9267 943d 7e98 b5bb
00000070: 1feb baba 80b2 3ebd 757a 7aba 8df9 97bc
00000080: 68c9 6dbd 1e88 8d3d 4344 473d bd6f 0b3d
00000090: 2272 b93c 89a7 a9bd 3d5e 43bd 98c5 4bbd
000000a0: bd99 85bd 3dcf 093d 746f 863c ce0e 8e3b
000000b0: 86c1 9f3d 8374 3d3c 5611 f6bc a984 d8bc
000000c0: d058 87bd 719f 12bc 06cb abbd b03e 943d
000000d0: 9946 c43c c435 ec3c 34d8 57bd fa83 893c
000000e0: 8059 903d f868 b83c 8af4 63bc ec4e 8f3d
000000f0: 3f1e 923d d82f 4e3b 8606 043d ac9d 72bb

layer3.1.weight f4 [64]
1.0000262 1.0096687 0.99813175 0.9930442 1.0053955 1.0013802 0.9950273 1.0063113
1.007203 1.0076768 0.99920475 1.0029261 1.0029182 0.9972867 0.99759084 0.99437225
0.9949339 0.9996797 1.0140336 0.9951394 0.9918762 1.0028082 0.9979275 1.0110183
1.0039777 1.0008053 0.99436414 1.0106663 0.9977068 0.9983328 1.0079548 0.9941449
1.0 1.0055063 0.98877496 0.99592465 0.99583286 0.99126834 0.999783 0.9970023
0.9972367 0.9920816 0.9900286 0.99504226 0.99382836 0.99835855 1.0108626 1.0046352
1.0010947 1.0092641 0.99183345 0.99390256 0.99737895 0.9949008 1.0053263 1.0024512
1.0101835 1.0090585 1.0023578 1.0025115 0.99730426 1.0087659 1.0075873 1.0037684
00000000: dc00 803f d33c 813f 9085 7f3f 2538 7e3f
00000010: cdb0 803f 3a2d 803f 1cba 7e3f cfce 803f
00000020: 07ec 803f 8efb 803f e2cb 7f3f e25f 803f
00000030: a05f 803f 2e4e 7f3f 1d62 7f3f 2e8f 7e3f
00000040: fdb3 7e3f 02eb 7f3f dacb 813f 75c1 7e3f
00000050: 99eb 7d3f 055c 803f 2d78 7f3f 0c69 813f
00000060: 5782 803f 631a 803f a68e 7e3f 835d 813f
00000070: b669 7f3f bd92 7f3f aa04 813f 4880 7e3f
00000080: 0000 803f 6eb4 803f 5b20 7d3f ebf4 7e3f
00000090: e7ee 7e3f c3c3 7d3f c7f1 7f3f 8b3b 7f3f
000000a0: e84a 7f3f 0ff9 7d3f 8472 7d3f 17bb 7e3f
000000b0: 896b 7e3f 6d94 7f3f f263 813f e397 803f
000000c0: df23 803f 912f 813f cce8 7d3f 6670 7e3f
000000d0: 3a54 7f3f d2b1 7e3f 88ae 803f 5250 803f
000000e0: b14d 813f d428 813f 434d 803f 4c52 803f
000000f0: 554f 7f3f 3e1f 813f 9ff8 803f 7c7b 803f

layer3.1.bias f4 [64]
-0.0025344733 0.0017407957 -0.005354969 -0.003893688 0.0021627336 0.006865461 -0.0065977233 -0.0005476281
0.0008426304 0.0021273708 0.0007972686 0.00083261647 0.0021000062 -0.0019905681 -0.0015799116 -0.0051894146
-0.004792907 -0.0012892508 0.0148262065 -0.0038762637 -0.0064480742 0.0031307426 -0.0034796577 0.0016181411
-0.0023600198 0.0042646974 -0.0092900945 0.008820384 -0.0016131798 -0.0037175152 -0.0037471685 -0.0032533726
0.0 -0.0051701767 -0.0069195917 -0.0043202206 -0.007035476 -0.0062280176 0.00076547376 -0.0007322133
-0.014108322 -0.007723161 -0.010757285 -0.008696054 -0.0071214573 -0.0019577965 -0.0003310991 -0.0056542614
-0.00020683401 0.0077274395 -0.008254066 -0.0042292858 -0.0013976867 -0.0018664213 -0.0024203877 -0.0037807638
0.0112385 0.006126037 0.0034211567 0.0013372464 -0.0030328722 0.0057852995 0.0065191756 -0.0021339604
00000000: 6819 26bb 692b e43a bc78 afbb 3f2d 7fbb
00000010: a6bc 0d3b a9f7 e03b b731 d8bb b38e 0fba
00000020: f8e3 5c3a 5c6b 0b3b caff 503a f243 5a3a
00000030: 42a0 093b 3174 02bb 0915 cfba f70b aabb
00000040: d10d 9dbb 14fc a8ba 9ee9 723c ea08 7ebb
00000050: 5e4a d3bb 252d 4d3b f80a 64bb ce17 d43a
00000060: 90aa 1abb e0be 8b3b 7b35 18bc 5f83 103c
00000070: 5571 d3ba 8ea1 73bb 0e93 75bb 8936 55bb
00000080: 0000 0000 966a a9bb bebd e2bb a390 8dbb
00000090: da89 e6bb 6614 ccbb 13aa 483a 01f2 3fba
000000a0: 9726 67bc 9212 fdbb 533f 30bc e579 0ebc
000000b0: 1d5b e9bb 604e 00bb 5e97 adb9 6247 b9bb
000000c0: 95e1 58b9 7636 fd3b 103c 07bc d295 8abb
000000d0: 9532 b7ba b5a2 f4ba 5e9f 1ebb b1c6 77bb
000000e0: af21 383c ecbc c83b 7c35 603b 8b46 af3a
000000f0: 27c3 46bb 9c92 bd3b cf9e d53b ead9 0bbb

layer4.0.weight f4 [64, 64, 3, 3]
-0.004461408 -0.004468364 0.025499696 0.032892283 -0.029308073 -0.0063520465 -0.01996789 0.02460986
-0.04476101 0.035556123 0.0112241525 0.025810553 0.033260867 -0.042686857 0.041937288 0.017643932
-0.02511506 0.036497805 0.045530204 0.030831667 -0.00045701824 -0.034425315 0.011392855 0.00091870694
-0.039444625 -0.039905872 0.024398455 -0.035633836 -0.03042955 -0.0030815415 -0.008301284 0.045107003
-0.010818943 0.017956123 0.0022022505 0.021711674 0.017647864 0.048244618 -0.030685447 0.04577312
0.0105980225 0.019084284 0.015519511 0.039295357 -0.008502004 0.019720808 -0.014193555 -0.0006960352
-0.004413818 -0.0047212774 -0.008920126 0.03222958 -0.0024789153 -0.028894799 -0.018204989 0.026130531
0.0051276423 0.011145861 0.016992098 0.014692253 -0.011834792 0.035120506 0.021426965 -7.538699e-05
0.022538042 0.0025728664 0.010290665 -0.01638238 0.016603319 -0.009644457 -0.020773305 -0.0334611
0.027033597 -0.026016759 -0.011497363 0.032868724 -0.008574214 0.039021585 0.012741922 0.04562835
0.010807211 -0.0066500674 -0.014246094 0.027079096 -0.020092657 0.018769732 0.021998279 -0.04147955
0.0359189 -0.011360884 0.010917121 -0.027173776 0.018818451 -0.0329053 0.01278005 -0.031704642
0.030455945 -0.03806612 -0.00023072817 -0.007972257 0.00289143 -0.021234697 0.0022052357 -0.034346584
-0.006780205 0.0038100411 0.005790833 -0.023483755 0.013774391 -0.012109954 -0.0233395 -0.01916332
0.00419889 -0.034720346 -0.016583625 0.0142944055 -0.0287641 -0.0065778685 -0.02170644 0.02834159
-0.038682833 0.003713309 -0.007157862 -0.005460531 0.006427303 -0.036207445 0.038036466 -0.0053211744
0.032144826 0.01901884 0.0017199848 -0.014484 0.018522512 -0.0028258592 0.034049015 -0.02243078
0.020163057 0.0123122325 -0.007203147 0.020412153 0.0021558588 0.008019683 -0.03088307 -0.032777168
0.015018434 0.04129451 -0.0045048073 0.022633241 0.03545131 -0.025242766 -0.006243562 0.033158697
0.041848626 0.027089253 0.03095758 0.032133546 0.032012276 0.0049233986 0.03605352 0.035982147
0.010539188 0.031179896 0.0034193364 0.000894369 0.0049735904 0.03202994 -0.040465787 0.028517887
0.03474986 -0.03150217 -0.019857334 -0.014366771 0.03584764 0.02058001 -0.023816504 -0.027847573
0.013296802 -0.030613553 0.016534762 -0.016889699 0.014588272 -0.013679973 -0.021115517 -0.010584522
0.009895028 -0.010576114 0.011317679 0.038278703 0.05161174 -0.016748952 -0.017618371 -0.013764709
-0.007879488 0.028609049 0.042104494 -0.03575687 0.029522067 -0.0019084885 -0.0019787294 0.040210444
-0.005459561 -0.0022746723 -0.010026395 -0.034814503 -0.018733378 0.0038506978 -0.00481941 -0.034703135
0.012248155 0.017888075 -0.035802614 -0.034246575 -0.010978135 -0.031400863 -0.046947055 0.03906868
0.008064977 0.006881985 -0.02380919 0.03696083 -0.015443656 -0.026071662 -0.003953041 0.025520077
0.03462601 0.03793466 0.0020591598 0.043905973 -0.0125555415 0.036845975 0.044036 -0.01529715
-0.018365799 0.007886015 0.009140608 -0.009534114 -0.008287939 -0.03975063 0.019710654 0.02959984
0.03296895 -0.0122221345 0.03289984 -0.0037913607 0.0040432657 -0.033586297 -0.038895607 0.008347544
0.014169168 -0.035704535 -0.023160707 0.026466656 -0.010934023 -0.04392856 -0.03760826 0.028482016
00000000: 0131 92bb 5b6b 92bb bde4 d03c 0fba 063d
00000010: 7c17 f0bc d424 d0bb b393 a3bc 9e9a c93c
00000020: 5257 37bd 4ca3 113d 82e5 373c a770 d33c
00000030: 8c3c 083d 6ad8 2ebd 6fc6 2b3d 028a 903c
00000040: 19be cdbc b97e 153d e17d 3a3d b192 fc3c
00000050: f39b efb9 8f01 0dbd 19a9 3a3c 61d5 703a
00000060: b090 21bd 5774 23bd 45df c73c c9f4 11bd
00000070: 6447 f9bc b0f3 49bb 1c02 08bc 1fc2 383d
00000080: f041 31bc b818 933c a253 103b aedc b13c
00000090: 4192 903c 269c 453d 0c60 fbbc 987c 3b3d
000000a0: 54a3 2d3c a556 9c3c 8c45 7e3c 2bf4 203d
000000b0: fd4b 0bbc 888d a13c 168c 68bc 2276 36ba
000000c0: caa1 90bb f2b4 9abb b825 12bc 2a03 043d
000000d0: 4c75 22bb c9b4 ecbc a122 95bc b20f d63c
000000e0: c805 a83b 219d 363c 0333 8b3c c7b7 703c
000000f0: b7e6 41bc 85da 0f3d 9a87 af3c 1519 9eb8
00000100: b3a1 b83c 899d 283b 2d9a 283c 5734 86bc
00000110: af03 883c c903 1ebc c72c aabc 820e 09bd
00000120: 9075 dd3c 1921 d5bc 705f 3cbc 5ba1 063d
00000130: dc7a 0cbc 19d5 1f3d 7fc3 503c cbe4 3a3d
00000140: ba10 313c cfe8 d9bb 7368 69bc fbd4 dd3c
00000150: 5b99 a4bc fbc2 993c bc35 b43c 76e6 29bd
00000160: b21f 133d 0023 3abc b9dd 323c 8a9b debc
00000170: 2729 9a3c b5c7 06bd 6a63 513c badc 01bd
00000180: bf7e f93c 38eb 1bbd 9fef 71b9 129e 02bc
00000190: 257e 3d3b 63f4 adbc b785 103b 01af 0cbd
000001a0: 7b2c debb e2b1 793b 07c1 bd3b 0161 c0bc
000001b0: fcad 613c d468 46bc 7b32 bfbc 65fc 9cbc
000001c0: d896 893b ec36 0ebd 62da 87bc 1533 6a3c
000001d0: b1a2 ebbc 298b d7bb b4d1 b1bc 9f2c e83c
000001e0: e471 1ebd fd5a 733b 808c eabb 41ee b2bb
000001f0: 209c d23b 424e 14bd 20cc 1b3d 3f5d aebb
00000200: 4baa 033d 66cd 9b3c 1d71 e13a 4d4e 6dbc
00000210: 86bc 973c 0d32 39bb fb76 0b3d c1c0 b7bc
00000220: ff2c a53c 3fb9 493c 6008 ecbb 6337 a73c
00000230: 4f49 0d3b fd64 033c 7efe fcbc 5a41 06bd
00000240: e10f 763c 6f24 293d 109d 93bb 5969 b93c
00000250: 6535 113d ebc9 cebc cb96 ccbb 6ad1 073d
00000260: 7769 2b3d 48ea dd3c c09a fd3c 779e 033d
00000270: 4e1f 033d 7654 a13b dbac 133d 0462 133d
00000280: 8fac 2c3c fb6c ff3c f216 603b 1674 6a3a
00000290: 80f9 a23b d431 033d 74bf 25bd 589e e93c
000002a0: df55 0e3d 6b08 01bd d9ab a2bc 9b62 6bbc
000002b0: fad4 123d 6997 a83c d41a c3bc 9820 e4bc
000002c0: d4da 593c 46c9 fabc e973 873c 445c 8abc
000002d0: a603 6f3c f721 60bc 73fa acbc b46a 2dbc
000002e0: c11e 223c 7047 2dbc c96d 393c 21ca 1c3d
000002f0: d566 533d 1935 89bc 6754 90bc 6085 61bc
00000300: f818 01bc 865d ea3c c375 2c3d cc75 12bd
00000310: 43d8 f13c 3f26 faba 92ad 01bb b5b3 243d
00000320: 1ee6 b2bb ab12 15bb c045 24bc a799 0ebd
00000330: be76 99bc fd5b 7c3b 24ec 9dbb e024 0ebd
00000340: 7cac 483c 038a 923c c3a5 12bd 2346 0cbd
00000350: a3dd 33bc 319e 00bd 8e4b 40bd 7b06 203d
00000360: f722 043c 4682 e13b 7e0b c3bc 3d64 173d
00000370: 6307 7dbc 3d94 d5bc 8388 81bb 7b0f d13c
00000380: 01d4 0d3d 6061 1b3d f8f2 063b c0d6 333d
00000390: c2b5 4dbc ceeb 163d 185f 343d e6a0 7abc
000003a0: df73 96bc 5834 013c 7dc2 153c f934 1cbc
000003b0: 23ca 07bc 8ed1 22bd 3d78 a13c 5d7b f23c
000003c0: 730a 073d 593f 48bc fcc1 063d 7a78 78bb
000003d0: 5f7d 843b c991 09bd 0051 1fbd 23c4 083c
000003e0: cc25 683c eb3e 12bd 86bb bdbc 9ad0 d83c
000003f0: 9e24 33bc 6fee 33bd 1e0b 1abd 1e53 e93c

layer4.0.bias f4 [64]
-0.005121684 -0.015461089 -0.005402004 0.021056438 -0.0007909974 -0.00323685 0.004450957 -0.0066497684
0.0102106705 0.00667556 0.023044862 -0.028582675 -0.016668279 -0.0024709504 0.03598886 -0.030843422
-0.004598474 -0.0092461025 0.00477563 -0.004349568 -0.025296673 0.033168435 0.0037189203 -0.034252696
-0.01981646 -0.0049637477 0.025469424 -0.0012066752 0.023860717 -0.012476563 0.017604828 0.019047717
-0.0114417635 -0.027317874 -0.0009686551 -0.020450091 -0.011445326 0.03506155 -0.025698055 -0.014308678
0.019960437 -0.0001418536 -0.009138269 -0.021038227 -0.040273964 0.03204872 0.03523171 0.006714174
0.010433911 -0.004252977 0.011691564 -0.023962656 0.035469253 0.018232523 0.035653498 0.012155564
0.03799136 0.011643172 -0.041532546 -0.0016048285 0.029740987 0.030993126 -0.032020878 0.0077056545
00000000: cdd3 a7bb 8250 7dbc 4b03 b1bb 8d7e ac3c
00000010: f05a 4fba 5521 54bb 55d9 913b 4de6 d9bb
00000020: a84a 273c a8be da3b 94c8 bc3c 3726 eabc
00000030: ea8b 88bc abef 21bb 0e69 133d 58ab fcbc
00000040: ccae 96bb f77c 17bc e37c 9c3b d286 8ebb
00000050: f83a cfbc a0db 073d 21b9 733b 8e4c 0cbd
00000060: 2156 a2bc efa6 a2bb 41a5 d03c 4d29 9eba
00000070: 8d77 c33c 806a 4cbc 0038 903c f509 9c3c
00000080: 3c76 3bbc bcc9 dfbc 58ed 7dba f386 a7bc
00000090: 2d85 3bbc b39c 0f3d ba84 d2bc f26e 6abc
000000a0: 1284 a33c 89be 14b9 aeb8 15bc 5c58 acbc
000000b0: 50f6 24bd 8545 033d 204f 103d 9302 dc3b
000000c0: fff2 2a3c 8f5c 8bbb f98d 3f3c 554d c4bc
000000d0: 3548 113d 5f5c 953c 6709 123d 2128 473c
000000e0: d49c 1b3d 01c3 3e3c 081e 2abd 1c59 d2ba
000000f0: 5fa3 f33c 4ce5 fd3c 5328 03bd b77f fc3b

layer4.1.weight f4 [64]
0.99879247 1.0060215 1.0001917 0.9929934 0.99246633 0.99216855 1.0127912 1.0008343
0.9911868 1.0021744 0.99472904 0.99787104 0.9955612 1.0141929 0.9955369 1.0090822
1.0020204 1.0068187 0.9850054 0.9985726 1.0041606 0.9940568 1.0002049 0.9984431
0.9922698 0.9951107 0.99421036 1.001123 0.998454 1.0035206 0.9979364 0.9916167
0.9980413 1.0011281 1.0035692 0.9965134 1.0019782 0.9993207 1.0075701 1.0060405
0.99496114 1.0092821 0.9941748 1.0055114 1.0096275 1.0060729 1.0006046 0.9920204
1.0082927 0.9845953 0.9976613 0.9992045 1.0052086 1.0018412 0.9956629 0.9965778
0.993761 1.0006801 0.9995378 0.9985361 1.0032132 0.99208915 0.99498045 0.99464756
00000000: ddb0 7f3f 50c5 803f 4806 803f d134 7e3f
00000010: 4612 7e3f c2fe 7d3f 24a3 813f 571b 803f
00000020: 6bbe 7d3f 4047 803f 90a6 7e3f 7a74 7f3f
00000030: 19dd 7e3f 13d1 813f 82db 7e3f 9b29 813f
00000040: 3442 803f 6fdf 803f 5029 7c3f 74a2 7f3f
00000050: 5688 803f 827a 7e3f b706 803f f899 7f3f
00000060: 6505 7e3f 93bf 7e3f 9284 7e3f cc24 803f
00000070: ae9a 7f3f 5d73 803f c378 7f3f 98da 7d3f
00000080: a27f 7f3f f724 803f f574 803f 811b 7f3f
00000090: d240 803f 7bd3 7f3f 0ff8 803f efc5 803f
000000a0: c6b5 7e3f 2830 813f 3d82 7e3f 99b4 803f
000000b0: 793b 813f ffc6 803f d013 803f 0df5 7d3f
000000c0: bc0f 813f 700e 7c3f bb66 7f3f decb 7f3f
000000d0: adaa 803f 553c 803f c4e3 7e3f b91f 7f3f
000000e0: 1f67 7e3f 4916 803f b6e1 7f3f 10a0 7f3f
000000f0: 4a69 803f 8ef9 7d3f 0ab7 7e3f 39a1 7e3f

layer4.1.bias f4 [64]
-0.00033544027 -0.002465205 -1.5150152e-05 -0.005808208 -0.0072523826 -0.0052649067 0.007307196 0.0034699016
-0.0042272466 -0.0022025944 -0.0051004193 -0.007777511 -0.0017941 0.006152148 -0.003044072 0.004544637
-0.005567449 0.0002736571 -0.015534872 -0.001239854 0.005460116 -0.0060333908 0.0060159513 -0.00392097
-0.006587398 -0.005567693 -0.005798936 -0.0026687179 0.0007697069 0.0014339593 -0.0073135444 -0.0052084588
0.0068590064 0.0023079894 0.001488242 -0.0020757657 -0.0015804105 -0.000101736994 0.0003360972 -0.0044043735
-0.0029620382 0.0056072436 -0.004221243 0.0026804528 6.0834223e-05 0.0037143885 -0.00067314407 -0.0051135216
0.0032249268 -0.009210046 -0.0020802815 -0.0027291053 0.009077097 -0.0034398036 -0.0040443717 -0.0036129556
-0.0002517743 -0.0036277578 -0.008022413 0.0020903125 0.005141058 -0.005957254 -0.005505244 -0.00325877
00000000: 08de afb9 478f 21bb 682d 7eb7 c852 bebb
00000010: 65a5 edbb 3d85 acbb 3471 ef3b 4a67 633b
00000020: b784 8abb 6759 10bb 6b21 a7bb 7eda febb
00000030: 0228 ebba f597 c93b 0e7f 47bb 2eeb 943b
00000040: 266f b6bb a279 8f39 fa85 7ebc 9982 a2ba
00000050: c6ea b23b c0b3 c5bb 7521 c53b 7b7b 80bb
00000060: 19db d7bb 3271 b6bb 0005 bebb a8e5 2ebb
00000070: 28c6 493a b1f3 bb3a 75a6 efbb b8ab aabb
00000080: 84c1 e03b a341 173b 1d11 c33a 9209 08bb
00000090: c725 cfba a25b d5b8 3436 b039 9052 90bb
000000a0: c11e 42bb f8bc b73b 5a52 8abb 89aa 2f3b
000000b0: 4028 7f38 196d 733b ef75 30ba 548f a7bb
000000c0: 4b59 533b bce5 16bc 5555 08bb cada 32bb
000000d0: 1bb8 143c 546e 61bb a686 84bb 56c7 6cbb
000000e0: 9300 84b9 adbf 6dbb 7070 03bc a0fd 083b
000000f0: 5276 a83b 1235 c3bb 5565 b4bb 1791 55bb

layer5.0.weight f4 [64, 64, 3, 3]
0.027996216 -0.015175304 -0.028948706 -0.0070466353 0.016154896 -0.03229732 0.04603053 -0.027218146
0.020654224 -0.04071042 -0.039980933 -0.047506712 0.004246539 -0.03892915 -0.03491349 0.030575516
-0.022672093 0.025895875 0.04254081 -0.041212693 -0.00021780607 0.01612501 0.020065246 0.005536517
0.046464227 0.00014770834 -0.021404952 0.025649017 -0.021633405 0.014952431 -0.017323634 -0.008829227
-0.0072679254 0.023139158 0.013290713 0.046290766 -0.032198597 0.044987626 -0.011689663 0.025560722
0.04776742 -0.031809047 -0.028130691 0.008704282 0.034890924 -0.030547084 -0.040909708 0.00749339
-0.0142754745 0.0016648504 0.016157918 -0.01935602 -0.016164122 0.009415442 0.04528211 -0.0006468795
-0.011545907 0.053752918 0.04998947 -0.037576918 -0.022767508 0.042319287 0.0030057626 0.05034285
-0.001696806 0.04809567 0.047385126 -0.030852113 -0.014389199 -0.0039125443 0.023877326 0.016165344
-0.00606561 0.029843738 0.030523688 -0.00079078396 0.012932947 -0.00080882927 0.00023495748 0.0051911282
-0.03789655 0.023755096 0.030382497 -0.012719681 0.0030148674 -0.023097303 -0.0049433587 -0.021236101
0.04122294 -0.028108008 0.023289919 0.0011635784 0.0066402345 -0.029850934 0.002383519 0.016993176
0.010676065 0.019049257 0.047384724 0.011191835 -0.014268286 -0.00015656138 -0.015548376 0.03656398
0.0021950158 -0.018388685 0.03519091 0.04162548 0.0074624293 0.00041523235 -0.036293164 -0.03997882
-0.013822578 -0.034647398 0.027273323 0.03341149 0.015812878 0.033553474 -0.0012627345 -0.01967063
0.022907693 -0.0215461 0.0045322473 0.021163648 -0.0009530893 -0.019524295 0.04299962 0.02315165
0.022197617 0.01730359 0.031909697 -0.02844971 0.02506639 -0.006306504 0.0031480202 -0.030700142
-0.034829248 0.0312908 0.015780801 0.0024284183 -0.043416888 -0.03317975 0.017281298 -0.0221792
-0.03607639 0.018846733 -0.036082566 0.03175879 -0.008581737 0.02193837 0.021441393 -0.037533935
0.0053449776 0.03632903 -0.0089764865 0.00722826 0.027258717 0.020209523 0.00934247 0.011924033
0.022225043 -0.024780078 0.016511947 0.045052305 -0.036056507 0.0049138265 -0.0014868452 -0.029459162
0.038151298 -0.027862953 -0.038974535 0.0101774745 -0.051165726 -0.018576613 -0.023456411 -0.015569346
0.0007038665 0.047050778 0.039920334 0.034553804 -0.02004928 -0.037831914 0.028019538 0.03160056
0.004092191 -0.025402 0.0018285962 0.027547844 0.00073163846 0.010805855 0.011834051 -0.0053910813
0.015032783 -0.029831622 0.037840083 0.023467297 0.030454425 0.029768933 0.013712236 -0.016897712
-0.0011021941 0.024967069 -0.041413847 0.012615256 -0.01699492 0.036666363 0.0059699877 -0.045895483
-0.045311987 -0.033319216 -0.028582908 0.02539969 0.037629597 0.03306172 0.0082959095 -0.029356997
-0.027261058 0.020341378 -0.022991521 -0.007440563 -0.025892524 0.01335297 0.010673085 0.004983297
0.007343174 0.031185342 0.008863038 -0.02745919 -0.01934465 -0.038238507 -0.015245992 0.016751098
-0.037605837 0.008905308 0.019245338 -0.02332 -0.022613322 0.026658162 -0.033167545 0.019475603
-0.030953815 -0.014192659 -0.015032256 -0.024500575 0.015521124 0.034577608 0.03490307 -0.020386925
-0.028647436 0.006997752 -0.020074567 -0.0058054714 0.032735102 0.004957481 -0.030623078 -0.029958513
00000000: 5258 e53c d7a1 78bc d625 edbc 76e7 e6bb
00000010: 4657 843c 324a 04bd 828a 3c3d 97f8 debc
00000020: 0c33 a93c f8bf 26bd 0cc3 23bd 6696 42bd
00000030: 8d26 8b3b 2c74 1fbd 7301 0fbd 8179 fa3c
00000040: d3ba b9bc 9623 d43c 463f 2e3d a4ce 28bd
00000050: df62 64b9 9918 843c df5f a43c ac6b b53b
00000060: 4651 3e3d 28e2 1a39 7059 afbc e31d d23c
00000070: 8a38 b1bc 0bfb 743c 4bea 8dbc 76a8 10bc
00000080: c727 eebb 558e bd3c 4ac1 593c 639b 3d3d
00000090: ade2 03bd f244 383d 0086 3fbc b864 d13c
000000a0: c5a7 433d 344a 02bd 5672 e6bc 689c 0e3c
000000b0: c9e9 0e3d e13d fabc f090 27bd 1c8b f53b
000000c0: aee3 69bc 1c37 da3a 9c5d 843c 8490 9ebc
000000d0: 9f6a 84bc 3a43 1a3c bc79 393d 5993 29ba
000000e0: 0b2b 3dbc 052c 5c3d c2c1 4c3d 41ea 19bd
000000f0: ed82 babc fd56 2d3d 54fc 443b 4e34 4e3d
00000100: 5d67 deba f7ff 443d e816 423d 92bd fcbc
00000110: adc0 6bbc cd34 80bb 629a c33c 2f6d 843c
00000120: 06c2 c6bb db7a f43c d00c fa3c 9d4c 4fba
00000130: b6e4 533c 9d07 54ba eb5e 7639 571a aa3b
00000140: 6a39 1bbd 0c9a c23c b7e4 f83c 3566 50bc
00000150: 1595 453b 8e36 bdbc e6fb a1bb 55f7 adbc
00000160: 63d9 283d c442 e6bc 80ca be3c 3683 983a
00000170: 5396 d93b f289 f4bc d034 1c3b 4635 8b3c
00000180: aaea 2e3c 300d 9c3c 7c16 423d f55d 373c
00000190: 87c5 69bc a02a 24b9 9ebe 7ebc 1dc4 153d
000001a0: 41da 0f3b dea3 96bc 5824 103d 7b7f 2a3d
000001b0: 6587 f43b 8bb3 d939 24a8 14bd d5c0 23bd
000001c0: 1878 62bc 6eea 0dbd 4e6c df3c 7dda 083d
000001d0: 028a 813c 5e6f 093d 5782 a5ba 4d24 a1bc
000001e0: eaa8 bb3c 7281 b0bc 3f83 943b 635f ad3c
000001f0: bdd8 79ba 6af1 9fbc 5f20 303d 87a8 bd3c
00000200: c7d7 b53c 42c0 8d3c beb3 023d 5e0f e9bc
00000210: 0858 cd3c caa6 cebb 044f 4e3b dd7e fbbc
00000220: 1da9 0ebd c82a 003d bd46 813c 1926 1f3b
00000230: e8d5 31bd 7de7 07bd 8291 8d3c 27b1 b5bc
00000240: d6c4 13bd 7764 9a3c 50cb 13bd 8115 023d
00000250: 6a9a 0cbc 19b8 b33c dca5 af3c 2fbd 19bd
00000260: ec24 af3b c0cd 143d 1d12 13bc 0adb ec3b
00000270: ac4d df3c 718e a53c 2911 193c 055d 433c
00000280: 4b11 b63c 97ff cabc 1044 873c c488 383d
00000290: fdaf 13bd 2a04 a13b 3fe2 c2ba 5754 f1bc
000002a0: 8944 1c3d d940 e4bc c3a3 1fbd 6cbf 263c
000002b0: 2793 51bd fb2d 98bc a927 c0bc 9216 7fbc
000002c0: ae83 383a 51b8 403d 8183 233d 4a88 0d3d
000002d0: 633e a4bc a3f5 1abd 3b89 e53c 976f 013d
000002e0: c917 863b db17 d0bc 82ad ef3a 04ac e13c
000002f0: 6dcb 3f3a 0a0b 313c 9ce3 413c aba7 b0bb
00000300: 104c 763c 7261 f4bc 34fe 1a3d 7d3e c03c
00000310: 8f7b f93c fadd f33c 49a9 603c 126d 8abc
00000320: 7f77 90ba bd87 cc3c 91a1 29bd 38b0 4e3c
00000330: ee38 8bbc 782f 163d e39f c33b e7fc 3bbd
00000340: 1099 39bd bb79 08bd b426 eabc 0313 d03c
00000350: 7e21 1a3d ba6b 073d 91eb 073c 167e f0bc
00000360: 9552 dfbc f6a2 a63c b758 bcbc f7cf f3bb
00000370: 8f1c d4bc 6ac6 5a3c 2ade 2e3c ed4a a33b
00000380: 029f f03b 6778 ff3c 4736 113c 18f2 e0bc
00000390: ac78 9ebc fb9f 1cbd 53ca 79bc 9939 893c
000003a0: 9408 1abd 92e7 113c 66a8 9d3c 9609 bfbc
000003b0: 933f b9bc 3862 da3c b1da 07bd 4d8b 9f3c
000003c0: db92 fdbc 5488 68bc da49 76bc 6eb5 c8bc
000003d0: 504c 7e3c 40a1 0d3d 86f6 0e3d 7b02 a7bc
000003e0: 07ae eabc 664d e53b 6b73 a4bc d33b bebb
000003f0: 3e15 063d 5d72 a23b 40dd fabc 8e6b f5bc

layer5.0.bias f4 [64]
-0.0046290415 -0.0071348385 0.02752528 0.016102457 0.004770398 -0.012345056 -0.017025564 0.03223929
-0.009363855 0.007162652 -0.020631315 -0.012548753 0.037128184 -0.030331446 -0.010066431 0.011264333
-0.043807175 -0.009428993 0.019591445 0.005561128 0.03635547 -0.03497509 -0.036355544 0.033836965
-0.0152857965 -0.0048211124 0.026277894 -0.020224866 0.019663546 0.033531558 -0.0029076526 -0.01775785
0.014404681 0.023659572 -0.008644562 0.018124636 -0.027629415 -0.016508974 -0.03330986 0.021297934
-0.040244922 0.037707187 0.021841314 -0.03424403 -0.029284783 0.027876329 -0.005380533 -0.005064407
-0.035839133 -0.008619806 -0.01118031 0.027691182 -0.010780936 -0.031029359 0.0098503325 -0.019456312
0.025251288 0.008859831 -0.030086147 0.0351058 0.007068142 0.014502924 -0.028176963 -0.0009391204
00000000: 37af 97bb 5dcb e9bb b27c e13c 4de9 833c
00000010: 0051 9c3b eb42 4abc 3279 8bbc 590d 043d
00000020: db6a 19bc aeb4 ea3b 0103 a9bc 4999 4dbc
00000030: b913 183d a779 f8bc aced 24bc 098e 383c
00000040: 276f 33bd 107c 1abc 3d7e a03c 1f3a b63b
00000050: 79e9 143d 0a42 0fbd 8de9 14bd a198 0a3d
00000060: 4771 7abc 6cfa 9dbb bd44 d73c 9eae a5bc
00000070: 7215 a13c 6358 093d 518e 3ebb e978 91bc
00000080: 9c01 6c3c b8d1 c13c eca1 0dbc 1e7a 943c
00000090: 1557 e2bc d43d 87bc eb6f 08bd 0179 ae3c
000000a0: dcd7 24bd da72 1a3d 8eec b23c 7843 0cbd
000000b0: a4e6 efbc e65c e43c 2f4f b0bb 53f3 a5bb
000000c0: 0ecc 12bd 163a 0dbc 9e2d 37bc 9ed8 e23c
000000d0: 86a2 30bc 4831 febc 4a63 213c d862 9fbc
000000e0: cadb ce3c d328 113c 3977 f6bc 19cb 0f3d
000000f0: df9b e73b ac9d 6d3c 60d3 e6bc 4e2f 76ba

layer5.1.weight f4 [64]
1.0162306 1.0162425 1.0066357 1.0152154 1.014129 1.0133234 1.015607 1.0070825
1.0042993 1.0103855 1.0116694 1.0118951 0.9998027 1.00637 1.013536 1.0160319
1.0086087 1.0056943 1.0024465 1.0137795 1.0151399 1.0150024 1.0048647 1.0146651
1.0059934 1.0136493 1.0157983 1.0151582 0.99896747 1.0089155 1.015863 1.0119449
1.0085797 1.0120065 1.0166632 1.0022064 1.0150696 1.0158722 1.0124335 1.0076842
1.0160749 1.0123394 1.0133826 1.0131047 1.0114509 1.0107846 1.0127792 1.0065995
1.0013871 1.015221 1.0164405 1.0148493 1.0072026 1.0140349 1.0105772 1.0103413
1.0174028 1.0142139 1.0166134 1.0163007 1.0133789 1.0106162 1.0147381 1.0072455
00000000: d813 823f 3c14 823f 70d9 803f 94f2 813f
00000010: fbce 813f 95b4 813f 69ff 813f 14e8 803f
00000020: e18c 803f 5054 813f 627e 813f c785 813f
00000030: 12f3 7f3f bbd0 803f 8cbb 813f 550d 823f
00000040: 171a 813f 97ba 803f 2b50 803f 87c3 813f
00000050: 1bf0 813f 99eb 813f 689f 803f 8ce0 813f
00000060: 64c4 803f 43bf 813f ae05 823f b4f0 813f
00000070: 55bc 7f3f 2524 813f cc07 823f 6987 813f
00000080: 2419 813f 6e89 813f 0522 823f 4d48 803f
00000090: cded 813f 1a08 823f 6c97 813f ccfb 803f
000000a0: be0e 823f 5694 813f 85b6 813f 6aad 813f
000000b0: 3977 813f 6461 813f c0a2 813f 41d8 803f
000000c0: 742d 803f c3f2 813f b91a 823f 95e6 813f
000000d0: 04ec 803f e5cb 813f 985a 813f dd52 813f
000000e0: 413a 823f c3d1 813f 6320 823f 2416 823f
000000f0: 66b6 813f df5b 813f f0e2 813f 6ced 803f

layer5.1.bias f4 [64]
0.0151660815 0.016249316 0.014709828 0.0133710345 0.010090073 0.007814819 0.014384998 0.011799633
0.0006863513 0.011359368 0.008393522 0.008146539 0.0014763537 0.008400014 0.007613584 0.015554669
0.007025499 0.00088912324 0.0056501715 0.01202302 0.012820133 0.010414542 0.002783537 0.014495198
0.003967191 0.013640548 0.012337531 0.012053363 0.00045244742 0.004395542 0.014464028 0.008709339
0.005586865 0.009557598 0.012519093 0.0040274314 0.012628001 0.015768984 0.010537618 0.013663426
0.008961497 0.009059327 0.0101660155 0.0123666 0.0110814385 0.012163385 0.013011899 0.0049581137
0.0044926153 0.012865045 0.0159306 0.009371027 0.008864768 0.013616009 0.009900541 0.00999411
0.012050286 0.013035363 0.01648037 0.014154878 0.014917416 0.004750932 0.010952885 0.0082532745
00000000: 287b 783c 491d 853c 7e01 713c 2f12 5b3c
00000010: d550 253c ba09 003c 0eaf 6b3c 3f53 413c
00000020: 42ec 333a a51c 3a3c fc84 093c 1079 053c
00000030: 3682 c13a 36a0 093c 5f7b f93b 03d9 7e3c
00000040: 2836 e63b 0d14 693a 1325 b93b 33fc 443c
00000050: 890b 523c c1a1 2a3c 006c 363b 447d 6d3c
00000060: 36ff 813b 9b7c 5f3c 5b23 4a3c 787b 453c
00000070: 7736 ed39 7b08 903b 88fa 6c3c 9eb1 0e3c
00000080: 0512 b73b 7997 1c3c e21c 4d3c 8bf8 833b
00000090: ade5 4e3c f52d 813c f9a5 2c3c 90dc 5f3c
000000a0: 3ed3 123c 926d 143c 5c8f 263c 489d 4a3c
000000b0: ec8e 353c ef48 473c dc2f 553c ac77 a23b
000000c0: ca36 933b e9c7 523c e480 823c f088 193c
000000d0: 883d 113c ae15 5f3c e135 223c 56be 233c
000000e0: 906e 453c 4692 553c d701 873c dde9 673c
000000f0: 2d68 743c b5ad 9b3b bb73 333c be38 073c
