weights/pretrain.pth (torch, 946150 bytes, 26 tensors)

layer1.0.weight f4 [16, 3, 3, 3]
0	0xbdb89bb5	-0.09014074
1	0xbe466b37	-0.19376837
2	0xbd8e1033	-0.069366835
3	0xbe3ad312	-0.1824458
4	0xbd98119b	-0.07425233
5	0x3e15841f	0.14601181
6	0xbdb7c8fe	-0.08973883
7	0x3b4c1ff6	0.003114698
8	0x3a5adfb3	0.0008349374
9	0xbe28c86f	-0.1648271
10	0x3e192996	0.1495727
11	0x3e108472	0.14113024
12	0x3cf56b44	0.029958375
13	0x3e3a56f5	0.18197234
14	0xbd69985b	-0.057030063
15	0xbdc32e77	-0.09530347
16	0x3c676e0c	0.014125358
17	0x3dda988a	0.10673626
18	0x3dbabf08	0.091184676
19	0x3dff8295	0.124760784
20	0xbe0ad4b9	-0.1355771
21	0x3df30eef	0.11868083
22	0xbe0f831f	-0.14014862
23	0xbd1f7550	-0.038930237
24	0xbc989063	-0.018623536
25	0xbe2a0162	-0.1660209
26	0x3c821819	0.015880631
27	0xbdad112b	-0.0845054
28	0x3d11e0c0	0.03561473
29	0xbc9597e7	-0.01826091
30	0x3c9595b1	0.018259855
31	0xbc2b5b67	-0.010458804
32	0x3dfee8e0	0.12446761
33	0xbd47a049	-0.048736844
34	0x3dc06bd1	0.09395564
35	0xbe0526a2	-0.13003018
36	0x3e2fd9bb	0.17172901
37	0x3d45334b	0.04814462
38	0xbdda1444	-0.106483966
39	0xbd967529	-0.07346565
40	0x3bbb5453	0.0057168393
41	0xbd6aab72	-0.05729241
42	0xbdbe3568	-0.0928753
43	0xbe3e4a73	-0.18583088
44	0xbe34de5a	-0.17662945
45	0x3e248bfe	0.16069028
46	0xbe35b34c	-0.17744178
47	0x3e31ed11	0.1737559
48	0x3e08c247	0.13355361
49	0x3d4deea1	0.050276402
50	0xbe2a5ff9	-0.16638173
51	0xbe14fe47	-0.14550124
52	0xbd37416a	-0.044740118
53	0xbe454201	-0.1926346
54	0x3e188103	0.14892964
55	0xbe4a176c	-0.19735497
56	0x3c546c6c	0.012965303
57	0xbdd0c727	-0.10194235
58	0xbdb98ac9	-0.09059674
59	0xbda26e2a	-0.079311684
60	0xbdd51490	-0.104043126
61	0xbe355b2b	-0.17710559
62	0xbe04f7fa	-0.1298522
63	0x3d658691	0.056036536
64	0x3e3a6427	0.18202268
65	0x3dc14c14	0.09438339
66	0x3df4eb36	0.119589254
67	0xbe1f6c32	-0.15568617
68	0x3cb9d0b0	0.022682518
69	0x3dd6fc58	0.104973495
70	0x3dc497c5	0.0959926
71	0x3d0240a2	0.03179992
72	0xbe259aa4	-0.16172272
73	0xbe180732	-0.14846495
74	0x3d8a4fde	0.06753515
75	0x3d360da7	0.044446614
76	0xbd8ce118	-0.06878871
77	0x3d8fa7bb	0.07014414
78	0xbc21ca18	-0.009874843
79	0x3c894c5e	0.016760048
80	0xbdbc107f	-0.09182834
81	0x3d19ef4c	0.037581727
82	0x3d23783f	0.039909597
83	0xbd9c8061	-0.07641674
84	0xbc94ea46	-0.018178117
85	0x3cc5bbb4	0.024137355
86	0x3da77d11	0.081781514
87	0x3e0016c4	0.12508684
88	0x3cde6906	0.027149688
89	0x3e0e4742	0.1389437
90	0x3ccad28e	0.024758603
91	0x3dd93267	0.106053166
92	0xbe03f9a1	-0.12888195
93	0xbd1ad29e	-0.037798516
94	0x3d34d9ac	0.0441529
95	0xbdcce955	-0.10005442
96	0x3cbd5339	0.023110973
97	0xbd82bdf8	-0.0638389
98	0x3d380fbc	0.04493688
99	0xbe3924b0	-0.18080401
100	0x3dbb6d79	0.091517396
101	0x3cb26d81	0.021780731
102	0x3e3d27a0	0.18472147
103	0x3c28d4cd	0.010304642
104	0x3d813d9e	0.06310581
105	0x3dbe8548	0.09302765
106	0x3de22e59	0.11043996
107	0xbc23e83c	-0.010004099
108	0xbe2e5faf	-0.17028688
109	0xbe2422f0	-0.16028953
110	0x3e02c0a5	0.127688
111	0x3ddb0282	0.10693838
112	0xbe20d282	-0.15705302
113	0x3dcf8c39	0.10134167
114	0x3df7e3e3	0.12104013
115	0xbd0e0fb7	-0.034682956
116	0xbdf76ac4	-0.12080911
117	0x3d3eec6a	0.04661218
118	0x3e40fcb2	0.18846396
119	0x3db46835	0.088089384
120	0xbdcc5fde	-0.09979223
121	0x3e2b0dc0	0.16704464
122	0xbd4ccf25	-0.050002236
123	0x3d2f28b7	0.042763438
124	0xbda2ccb6	-0.07949202
125	0x3d838d12	0.064233914
126	0x3ddd1bad	0.10796294
127	0x3dc7b3ee	0.09751116
128	0xbdf476cd	-0.11936722
129	0x3d033735	0.03203507
130	0xbc651d42	-0.013984026
131	0x3dd97d66	0.10619621
132	0xbdd7940c	-0.105262846
133	0x3b6d08c7	0.0036168562
134	0xbe3ed689	-0.18636526
135	0x3e4cad41	0.19987966
136	0x3e46c10a	0.19409576
137	0x3df758af	0.12077462
138	0x3d063f73	0.032775354
139	0x3e04f9ee	0.12985966
140	0xbe2b2409	-0.16712965
141	0xbddfe55a	-0.10932417
142	0xbe0f21f8	-0.13977802
143	0x3e1fc30c	0.15601748
144	0xbdfff7b8	-0.124984205
145	0xbbc6dde8	-0.0060689338
146	0x3d0f6c75	0.035015542
147	0x3c89e762	0.016833965
148	0x3d6938f1	0.05693907
149	0xbdd33f26	-0.10314779
150	0xbe135574	-0.14388067
151	0xbdfc363a	-0.123150304
152	0x3e3b8e03	0.18315892
153	0xbde7180b	-0.11283883
154	0xbc198cc2	-0.009371938
155	0xbe07afca	-0.13250652
156	0xbe25bab8	-0.16184509
157	0xbe3215d0	-0.17391133
158	0x3a2ae56b	0.00065191713
159	0x3d999404	0.07498935
160	0x3c132604	0.008981232
161	0x3e472146	0.19446287
162	0xbd6037d4	-0.05474074
163	0x3d49f4e4	0.04930581
164	0x3e049450	0.12947202
165	0xbc74e653	-0.014947492
166	0x3d8f2a4e	0.06990491
167	0xbe21df29	-0.15807785
168	0xbd78ee70	-0.060774267
169	0xbe1ab895	-0.15109475
170	0xbe0b61aa	-0.13611475
171	0xbe27b5b2	-0.16377905
172	0x3dd8ae07	0.10580068
173	0xbc65e493	-0.014031547
174	0xbe0af3b0	-0.13569522
175	0x3de4fd87	0.11181169
176	0x3e2a461d	0.16628309
177	0x3e47448c	0.19459742
178	0x3e203318	0.1564449
179	0xbcc186ce	-0.02362385
180	0x3dbf601c	0.09344503
181	0x3e170521	0.1474805
182	0x3ca74849	0.02042021
183	0x3e290514	0.16505843
184	0x3dee927f	0.11649036
185	0xbd9e58dd	-0.07731793
186	0x3e18a854	0.14907962
187	0xbd08025f	-0.033205386
188	0xbd70898a	-0.058724917
189	0x3d99b693	0.075055264
190	0x3e2e696c	0.17032403
191	0xbd6aec83	-0.05735446
192	0xbd9239b1	-0.0713991
193	0xbb703895	-0.003665482
194	0x3d95e03c	0.0731816
195	0xbe216474	-0.15760976
196	0x3e38f539	0.18062295
197	0x3d8486dc	0.06471035
198	0x3db99662	0.09061886
199	0x3a036ad4	0.0005013172
200	0x3e0f58a2	0.13998654
201	0xbdee2f1b	-0.116300784
202	0x3dfe0ffe	0.12405394
203	0xbe1eb9eb	-0.1550061
204	0xbd28485d	-0.041084636
205	0x3e0d3c16	0.13792452
206	0x3ddf96ad	0.10917411
207	0x3d552df6	0.052045785
208	0x3e021428	0.12703001
209	0xbdd2fb35	-0.1030182
210	0xbdde3de3	-0.10851648
211	0x3e0835d1	0.1330178
212	0xbdb5c1fb	-0.088748895
213	0x3ca8dd4d	0.020613337
214	0xbd794a17	-0.060861673
215	0xbe35442f	-0.17701791
216	0x3d7e122e	0.062029056
217	0x3ddac880	0.106827736
218	0x3d807b08	0.06273466
219	0x3d03553b	0.032063704
220	0xbdc7b3fe	-0.09751128
221	0x3e002b03	0.12516408
222	0xbde2f6e8	-0.1108225
223	0x3b905299	0.0044043777
224	0xbdb72c62	-0.08944012
225	0x3dcff481	0.10154057
226	0x3c0e603c	0.008689936
227	0xbdac4e11	-0.084133275
228	0xbe117f09	-0.14208616
229	0xbd90b533	-0.07065811
230	0x3dfb926b	0.122837864
231	0xbe0b77d3	-0.13619928
232	0xbcd1fa30	-0.025631994
233	0x3e02f85e	0.12790057
234	0x3d55a4f5	0.05215927
235	0x3ab107b5	0.0013506325
236	0x3dc45e5b	0.095883094
237	0xbc576cbd	-0.013148484
238	0x3d07bfc4	0.033141866
239	0x3e2e4a9d	0.1702065
240	0x3c653210	0.013988987
241	0xbd4a5f36	-0.049407206
242	0xbdab7df6	-0.083736345
243	0x3df341a7	0.118777566
244	0xbe30477e	-0.17214772
245	0x3ddd9b82	0.108206764
246	0xbe0ee2e2	-0.13953736
247	0x3dffac84	0.124840766
248	0xbd8398ac	-0.06425604
249	0x3e1a543d	0.15071197
250	0x3c9e10ce	0.019295122
251	0x3e0aeced	0.13566943
252	0xbe3dedc2	-0.18547729
253	0x3d8d71b0	0.0690645
254	0xbc8332e7	-0.016015483
255	0xbe205378	-0.15656841

layer1.0.bias f4 [16]
0	0xbe1de2b0	-0.15418506
1	0xbde02148	-0.10943848
2	0xbdbf1be0	-0.093314886
3	0x3dc899ee	0.09794985
4	0x3e065b0c	0.13120669
5	0xbdcf4d14	-0.10122123
6	0x3d4547f2	0.048164316
7	0x3da9a871	0.08284081
8	0x3e0937fe	0.13400266
9	0xbd538426	-0.0516397
10	0x3e0929ce	0.13394853
11	0xbd842af4	-0.06453505
12	0xbe07d9ef	-0.13266729
13	0xbd8bf7fe	-0.0683441
14	0xbd99ad46	-0.075037524
15	0x3de9f792	0.114241734

layer1.1.weight f4 [16]
0	0x3f80c168	1.0059023
1	0x3f800df9	1.0004264
2	0x3f8072c7	1.0035027
3	0x3f7f77f8	0.9979243
4	0x3f810415	1.0079371
5	0x3f7ddb32	0.9916259
6	0x3f807795	1.0036494
7	0x3f7f5c17	0.9974989
8	0x3f7fd82b	0.9993922
9	0x3f803220	1.0015297
10	0x3f800f3e	1.0004652
11	0x3f80b1b3	1.005423
12	0x3f80bc25	1.0057417
13	0x3f80052f	1.0001582
14	0x3f7db9b6	0.991115
15	0x3f80d4cf	1.0064944

layer1.1.bias f4 [16]
0	0x3ae7a2c4	0.0017672409
1	0x3a013a58	0.00049296534
2	0x3bc31d00	0.005954385
3	0x3b2084ba	0.0024493174
4	0xbbfdaa24	-0.0077412296
5	0xbc136e11	-0.00899841
6	0xbb2e6513	-0.0026610538
7	0xbb8a465e	-0.004219814
8	0xbbb82714	-0.005619893
9	0xbbb469a6	-0.0055057583
10	0xbba726d8	-0.005101066
11	0x3b1930b5	0.002337498
12	0x3b98f681	0.0046680574
13	0x3b1ba148	0.0023747254
14	0xbba04ea8	-0.004892189
15	0x3b45e023	0.003019341

layer2.0.weight f4 [16, 16, 3, 3]
0	0xbd9df61d	-0.07712958
1	0xbbe0ac80	-0.006856501
2	0x3d9196b5	0.07108823
3	0xbd78e1aa	-0.060762085
4	0x3d84a101	0.064760216
5	0xbd5c812a	-0.053834118
6	0xbb25b12a	-0.00252826
7	0x3d741192	0.05958707
8	0x3bd6e836	0.0065584434
9	0xbb4b302d	-0.0031004057
10	0xbd8be81b	-0.0683138
11	0xbcd78f6d	-0.026313508
12	0x3d333e6b	0.0437607
13	0x3d927489	0.071511336
14	0xbcea48cf	-0.028599171
15	0xbd92492a	-0.07142861
16	0x3d946fae	0.07247864
17	0xbd5eb1e2	-0.05436886
18	0x3d828309	0.06372649
19	0xbc8266c1	-0.015918138
20	0x3d99f860	0.07518077
21	0xbd64e25d	-0.05587994
22	0x3c1c48dd	0.009538856
23	0x3c781a50	0.015142992
24	0x3aec56c0	0.0018031225
25	0x3d851442	0.064980045
26	0x3cca3c11	0.024686845
27	0x3c1fc416	0.00975134
28	0x3cb132c4	0.021630652
29	0xbbef5f53	-0.0073050647
30	0x3c43f19d	0.011959461
31	0xbd32a304	-0.043612495
32	0xbced7bcc	-0.028989695
33	0x3d910dd9	0.07082719
34	0xbcdd9c19	-0.027051972
35	0x3b9424c2	0.0045209834
36	0x3cf27647	0.029597415
37	0x3cf92251	0.030411871
38	0xbd103070	-0.035202444
39	0x3d9966bd	0.07490299
40	0x3ce447e1	0.027866306
41	0x3d9930d0	0.07480013
42	0xbd9f5ccd	-0.07781372
43	0x3bc9fd26	0.006164211
44	0xbd52684e	-0.051369004
45	0x3d0ff3a8	0.035144478
46	0x3d00d6b2	0.03145475
47	0xbd754a0a	-0.059885062
48	0x3d3c6a07	0.045999553
49	0xbcc7484a	-0.024326462
50	0xbd5e1174	-0.054215863
51	0xbd009d64	-0.0314001
52	0x3c756046	0.014976567
53	0xbdafc611	-0.085827
54	0x3c8af2ee	0.016961541
55	0x3d22dcfb	0.039761525
56	0x3d75d02a	0.060012974
57	0x3d30a01b	0.04312144
58	0x3cbfbb73	0.023404812
59	0x3cc78df4	0.02435968
60	0x3db11099	0.08645744
61	0x3dad8757	0.0847308
62	0x3d1aeba7	0.03782239
63	0x3c03d5d5	0.008046587
64	0xbd29af23	-0.04142679
65	0xbd8c19c2	-0.068408504
66	0x3dac6ee7	0.084195904
67	0xbd9df835	-0.07713357
68	0xbc805d9b	-0.015669635
69	0x3d825da7	0.06365519
70	0xbce9b3f6	-0.028528195
71	0xbc620f58	-0.013797604
72	0x3bf0f323	0.007353203
73	0xbc038d9c	-0.008029368
74	0xbd242f99	-0.040084455
75	0x3d43c435	0.04779454
76	0x3da7546e	0.081704006
77	0xbcc91d3d	-0.024550075
78	0x3db02e6d	0.08602605
79	0x3d9f101e	0.07766746
80	0x3dac1efe	0.08404349
81	0xbc224e9e	-0.009906439
82	0x3d7df8d8	0.062004894
83	0xbd5134b8	-0.051075667
84	0x3d141f5a	0.03616271
85	0xbd00ab6f	-0.03141349
86	0x3cbdf82a	0.023189623
87	0x3d83b1cf	0.06430399
88	0xbd7cb420	-0.061695218
89	0x3d33cff7	0.043899503
90	0x3d4d457e	0.0501151
91	0xbd645add	-0.055750716
92	0x3c9b44b5	0.01895366
93	0xbd48f214	-0.04905899
94	0xbcda1e06	-0.026625644
95	0x3d1a8111	0.037720744
96	0x3cc036c5	0.023463616
97	0xbd97cfea	-0.07412703
98	0x3d38b2ab	0.045092266
99	0xbd81d13f	-0.06338739
100	0xbd6a503a	-0.057205416
101	0x3d27b829	0.040947113
102	0x3d1cb591	0.038259093
103	0x3cd23b51	0.02566305
104	0xbc348173	-0.011017191
105	0x3d4cdde7	0.05001631
106	0x3d55c1bc	0.052186713
107	0xbc426240	-0.011864245
108	0x3d9f5755	0.07780329
109	0xbd8c1d17	-0.06841486
110	0xbc2ffa69	-0.010740855
111	0x3d0afc2d	0.0339319
112	0x3d9e5b1b	0.07732221
113	0x3da33b6d	0.07970319
114	0xbda45cc4	-0.08025506
115	0xbdabf469	-0.08396227
116	0xbd79548f	-0.060871657
117	0x3cd44096	0.025909703
118	0x3d8e2e7e	0.069424614
119	0x3d8b4456	0.068001434
120	0x3c2734d5	0.010205467
121	0x3d121118	0.035660833
122	0x3d95528d	0.07291136
123	0xbc86186b	-0.016369065
124	0xbce40498	-0.027834222
125	0x3cf128a1	0.029438319
126	0x3c618efb	0.013766999
127	0xbd1ec3d8	-0.03876099
128	0x3ae1c33b	0.0017224321
129	0x3d1e3e3e	0.038633578
130	0x3d36e798	0.04465446
131	0x3d9fdcd8	0.078057945
132	0x3d8f7aeb	0.070058666
133	0xbd97d520	-0.07413697
134	0x3cab433c	0.020906083
135	0xbda1ccd2	-0.079003945
136	0xbc30b0c9	-0.010784336
137	0x3b94c07e	0.0045395484
138	0xbd8ae5c6	-0.06782107
139	0xbb068b91	-0.0020529965
140	0x3d1b9f31	0.037993614
141	0xbce1a851	-0.02754608
142	0x3c248a4b	0.010042737
143	0x3da00db8	0.07815117
144	0xbcac12fb	-0.021005144
145	0x3d73b485	0.05949833
146	0xbc847d13	-0.016172921
147	0xbd60c75d	-0.054877628
148	0x3d20a836	0.03922292
149	0xbd72d2fe	-0.05928325
150	0xbbdd4741	-0.006752879
151	0x3c8c4b00	0.017125607
152	0x3bec6bcd	0.0072149993
153	0x3c91ee16	0.017813724
154	0x3d5c1b3b	0.053736906
155	0x3da12e9b	0.078702174
156	0x3d6d316c	0.05790846
157	0xbc7081bd	-0.0146793695
158	0x3c6030d2	0.013683515
159	0x3d182487	0.03714421
160	0x3b112b57	0.0022151077
161	0xbca19136	-0.019722562
162	0xba86ee5f	-0.0010294429
163	0xbca9c290	-0.020722657
164	0x3da4010b	0.080080114
165	0xbceaa412	-0.028642688
166	0xbce08f3e	-0.027412053
167	0xbd7d7d50	-0.061887085
168	0xbd3bcf7c	-0.04585217
169	0xbcfd56c2	-0.030925158
170	0x3d4e447c	0.05035828
171	0xbd85bb54	-0.06529871
172	0x3d9a195b	0.075243674
173	0xbd65721e	-0.056017034
174	0x3d4ab2be	0.049486868
175	0xbbe557bd	-0.0069989846
176	0x3da698e7	0.081346326
177	0xbd05e183	-0.032685768
178	0x3d8c2235	0.06842462
179	0x3d2ecc04	0.042675033
180	0x3d5d2642	0.053991564
181	0x3c90e6bf	0.017688153
182	0xbc67dc2f	-0.014151617
183	0x3d87189d	0.065964915
184	0x3d493b9b	0.04912911
185	0xbb5e9f25	-0.003396937
186	0x3c2976f0	0.010343298
187	0xbba02b1b	-0.004887951
188	0x3c293668	0.010327913
189	0x3b2e63df	0.002660982
190	0xbcb9b974	-0.022671439
191	0xbd8e1fb4	-0.06939641
192	0x3c96402f	0.018341152
193	0x3c78ffde	0.015197722
194	0xbc9789ec	-0.018498383
195	0x3c613ab5	0.013746907
196	0x3d94c72c	0.072645515
197	0x3cf14701	0.029452803
198	0xbd8198a0	-0.06327939
199	0xbac2de61	-0.00148673
200	0x3c88832d	0.016664112
201	0x3d27d973	0.04097886
202	0x3d8ad156	0.06778209
203	0x3d86cc37	0.0658192
204	0xbd8453ad	-0.064612724
205	0xbd329e57	-0.043608036
206	0x3d264fca	0.040603437
207	0x3d8cab42	0.06868602
208	0xbc544046	-0.012954777
209	0x3ae7f8c6	0.0017698042
210	0xbd41b230	-0.047289073
211	0x3da32174	0.07965365
212	0x3d5a5ce0	0.05331123
213	0x3d9d25bd	0.07673214
214	0xbd7e614f	-0.06210452
215	0x3da887c9	0.08229024
216	0x3c55ead4	0.013056476
217	0xbd47caac	-0.048777267
218	0x3d872edb	0.06600734
219	0x3dad1a6d	0.08452306
220	0xbd333bee	-0.043758325
221	0x3b2030a6	0.002444306
222	0xbd50d7f9	-0.050987218
223	0xbd8f804f	-0.07006895
224	0x3b4165b8	0.0029510092
225	0xbd9b433a	-0.07581182
226	0x3bfcb353	0.007711807
227	0xbd09f60a	-0.033681907
228	0xbda58da0	-0.080836535
229	0x3d828562	0.06373097
230	0xbd86eb24	-0.06587818
231	0xbd475e44	-0.048673883
232	0x3d5da9b4	0.05411692
233	0x3c0dfc86	0.008666163
234	0xbd05f090	-0.03270012
235	0xbd1e9220	-0.038713574
236	0xbd14a7ae	-0.036292724
237	0xbb9d62eb	-0.0048030517
238	0x3cd22a30	0.025654882
239	0xbd9c20fc	-0.07623479
240	0x3d780cac	0.06055896
241	0xbd4837b6	-0.048881255
242	0xbd0fc295	-0.035097677
243	0x3cf976d1	0.030452164
244	0xbd8e7b2f	-0.06957089
245	0xbbcdb7e5	-0.0062780255
246	0xbdb11d50	-0.08648169
247	0xbcf51e5b	-0.029921701
248	0xbd04dff1	-0.03244013
249	0xbd663ba9	-0.05620924
250	0xbd2f997d	-0.042870987
251	0xbd1c69ba	-0.038186766
252	0xbd65435e	-0.05597245
253	0x3d7e875f	0.06214082
254	0xbbf96cac	-0.0076118317
255	0x3cd6b6f0	0.026210278

layer2.0.bias f4 [16]
0	0x3d9e7194	0.07736507
1	0xbd71079a	-0.05884514
2	0xbd1bd866	-0.03804817
3	0x3d5cd843	0.05391718
4	0x3a18d30f	0.000582979
5	0xbd8591a0	-0.065219164
6	0xbbec03cd	-0.0072026015
7	0x3c5f8d46	0.013644522
8	0xbd038ee1	-0.03211868
9	0x3d965373	0.073401354
10	0xbda17182	-0.07882978
11	0x3d953725	0.072859086
12	0x3c694667	0.014237977
13	0xbbb0f73e	-0.0054005673
14	0xbc82f26c	-0.015984736
15	0xbd7db867	-0.061943438

layer2.1.weight f4 [16]
0	0x3f7f2151	0.9966021
1	0x3f7ee45f	0.99567217
2	0x3f803c02	1.0018313
3	0x3f7f241b	0.9966447
4	0x3f7ed8db	0.99549645
5	0x3f806616	1.0031154
6	0x3f803b27	1.0018052
7	0x3f7f5b79	0.9974895
8	0x3f8007d0	1.0002384
9	0x3f80a0d2	1.0049078
10	0x3f80d8a2	1.0066111
11	0x3f807a8d	1.00374
12	0x3f803488	1.0016031
13	0x3f7fd39b	0.9993226
14	0x3f7fa086	0.99854314
15	0x3f811945	1.0085837

layer2.1.bias f4 [16]
0	0xbbf88673	-0.007584387
1	0x39d70502	0.00041011727
2	0xbba66bd9	-0.0050787744
3	0xbb48e0dc	-0.0030651605
4	0xbc0474ad	-0.008084458
5	0x3b137c20	0.0022504404
6	0xbb56773d	-0.003272488
7	0xbb8738bd	-0.004126637
8	0xba2d75f5	-0.0006617003
9	0x3af6fa6d	0.0018842943
10	0xbbacff2f	-0.0052794437
11	0x3ab35020	0.0013680495
12	0x3a88fc0a	0.001045109
13	0xbb0b1504	-0.0021222243
14	0x3b457fd7	0.0030136013
15	0x3bbd046f	0.005768351

layer3.0.weight f4 [64, 16, 3, 3]
0	0xbd728a28	-0.059213787
1	0xbda9d022	-0.08291651
2	0x3d183781	0.037162308
3	0x3cd88ef4	0.026435353
4	0x3d3ecec6	0.046583913
5	0xb9ebe9c4	-0.00044996862
6	0xbd1b73ba	-0.037952162
7	0xbc91f8f6	-0.01781891
8	0xbd7576fe	-0.059927933
9	0xbd5e166b	-0.0542206
10	0x3c8fcfce	0.017555144
11	0xbd10e741	-0.03537679
12	0x3d9fb6ae	0.07798515
13	0xbd2f28b0	-0.042763412
14	0x3d7b27d9	0.0613173
15	0x3d1310f2	0.035904832
16	0xbd721d9d	-0.059110273
17	0x3dc9a850	0.09846556
18	0x3d88deb4	0.06683102
19	0xbd00d3d5	-0.03145202
20	0x3c4d118c	0.0125163905
21	0xbbe98e46	-0.007127556
22	0x3d6372e6	0.055529498
23	0x3d494a9d	0.049143422
24	0xbd18b4ab	-0.037281673
25	0xbc846ea2	-0.016166035
26	0xbd048afe	-0.032359116
27	0xbbd42408	-0.006474022
28	0x3c9b16c4	0.018931754
29	0x3cde0c77	0.027105553
30	0x3d46b72a	0.048514523
31	0x3d5b3bf8	0.053523988
32	0xbd79b0cf	-0.060959633
33	0x3c53cd5e	0.012927381
34	0xbd85a4f1	-0.06525601
35	0xbd400d1f	-0.046887513
36	0xbd923ee8	-0.07140905
37	0xbda95eae	-0.08270012
38	0x3d8b5b31	0.06804503
39	0xbd3afc45	-0.04565074
40	0xbd6e7e97	-0.058226194
41	0xbcc8c3d4	-0.02450744
42	0x3d3c746e	0.046009474
43	0x3d1a92fe	0.03773784
44	0x3c9bf59c	0.019038014
45	0x3cd7b94c	0.026333474
46	0xbd6900e9	-0.056885634
47	0x3d86e279	0.06586165
48	0xbcd43ded	-0.025908435
49	0x3da77e91	0.081784375
50	0xbcafdd66	-0.021467876
51	0xbd3808e8	-0.04493037
52	0xbd29b836	-0.041435443
53	0x3d9bab69	0.07601053
54	0xbcaac91a	-0.020847846
55	0x3d94c50a	0.07264145
56	0x3c06c6df	0.0082261255
57	0xbc58830f	-0.013214841
58	0xbdb3253b	-0.087473355
59	0x3d88d1f8	0.06680673
60	0xbc8bf090	-0.017082483
61	0x3d3a7908	0.04552558
62	0x3ccb0619	0.024783181
63	0xbc31ca8c	-0.010851514
64	0x3d8f4e7e	0.06997393
65	0xbd87733d	-0.06613777
66	0x3d52bdf9	0.051450703
67	0xbd962354	-0.07330957
68	0x3d470c07	0.048595455
69	0xbd2ab630	-0.041677654
70	0x3d23c380	0.039981365
71	0xbd6a8557	-0.05725607
72	0xbcbfd244	-0.023415692
73	0x3c07d044	0.0082894005
74	0x3d2da804	0.04239656
75	0xbd9f3f36	-0.077757284
76	0x3d837ff4	0.064208895
77	0x3d88a7f1	0.06672657
78	0x3d03a4e6	0.03213968
79	0x3b62f760	0.003463231
80	0xbc093740	-0.008374989
81	0x3d192d09	0.037396464
82	0xbd9f2188	-0.077700675
83	0xbadf5c4b	-0.0017041055
84	0x3a6dc42e	0.00090700656
85	0xbc1c9051	-0.009555892
86	0x3d9ba924	0.076006204
87	0xbda27449	-0.07932336
88	0xbcf66404	-0.030076988
89	0x3d337fd2	0.04382307
90	0x3c9b23cd	0.01893797
91	0x3c769423	0.015049967
92	0xbd1fd5df	-0.039022323
93	0x3d705241	0.058672193
94	0xbd820619	-0.06348819
95	0x3d3b1307	0.045672443
96	0x3d2e2556	0.042516075
97	0xbd9aea36	-0.075642034
98	0xbcc0ecc9	-0.023550408
99	0x3cb62888	0.022236124
100	0x3d4858e6	0.048912905
101	0xbd1a6511	-0.03769404
102	0xbd53a31e	-0.051669233
103	0x3c03e19d	0.008049396
104	0x3d9252ea	0.07144721
105	0x3d9d17f0	0.07670581
106	0xbc7f9f05	-0.015601878
107	0xba890090	-0.0010452438
108	0x3da02d56	0.07821147
109	0xbd0077e2	-0.03136433
110	0x3d4b10a9	0.049576435
111	0x3d091230	0.03346461
112	0xbccae6f0	-0.024768323
113	0xbd857edb	-0.065183364
114	0xbd07c58b	-0.033147376
115	0x3d8711e9	0.06595213
116	0x3d954754	0.072889954
117	0x3c9ab6ee	0.018886056
118	0x3baea5e6	0.005329835
119	0xbd740bd5	-0.059581596
120	0x3c880116	0.01660208
121	0xbda099c1	-0.07841826
122	0x3d3a6684	0.045507923
123	0xbd619fda	-0.055084087
124	0x3da58d87	0.08083635
125	0x3b63d2af	0.0034763028
126	0xbc8e1bbe	-0.017347213
127	0xbd9e4293	-0.07727542
128	0x3d315f08	0.04330352
129	0x3ba9356d	0.0051638396
130	0xbd9a7541	-0.07541896
131	0x3bf2e854	0.0074129496
132	0xbc3c3600	-0.011487484
133	0x3d10a378	0.035312146
134	0xbd5ee384	-0.054416195
135	0xbd63830e	-0.055544905
136	0x3cebc5dc	0.02878087
137	0x3cec8782	0.028873209
138	0xbd42d82c	-0.04756944
139	0xbd5fac74	-0.054607823
140	0x3d56f539	0.052479956
141	0xbd86f2dd	-0.06589291
142	0xbd00e42a	-0.031467594
143	0xbb38195e	-0.0028091292
144	0x3dafc06d	0.08581624
145	0x3d1f3887	0.038872268
146	0xbd239ccc	-0.039944455
147	0xbccfcddd	-0.025366718
148	0x3d6b273a	0.057410456
149	0xbd7577b9	-0.05992863
150	0xbd89a4cd	-0.067208864
151	0x3c44f9ee	0.0120224785
152	0xbd48c710	-0.049017966
153	0x3d9186b4	0.07105771
154	0xbd2bde29	-0.041959915
155	0xbcb83ba2	-0.022489373
156	0x3ceb45c2	0.028719787
157	0x3cbda668	0.023150638
158	0x3d3f1152	0.046647377
159	0xbcf99990	-0.030468732
160	0x3d729f13	0.059233736
161	0xbd8f0cb0	-0.06984842
162	0xbca519a3	-0.020153826
163	0x3d1858dd	0.03719412
164	0x3da06142	0.078310505
165	0x3c91f9d7	0.017819328
166	0x3ce97994	0.028500356
167	0x3d9ad7cb	0.075606905
168	0x3d825a5a	0.063648894
169	0xbb2f6e61	-0.0026768672
170	0xbd7a1ed5	-0.06106456
171	0xbd92a419	-0.071602054
172	0xbd8a31ed	-0.06747804
173	0x3d7e6e4c	0.062116906
174	0x3d9deeb5	0.077115454
175	0x3beca369	0.0072216284
176	0xbd149a69	-0.03628007
177	0x3ca70740	0.0203892
178	0xbd8f33a3	-0.06992271
179	0x3d817055	0.06320254
180	0x3d88a75b	0.066725455
181	0xbc9019ba	-0.017590392
182	0xbd978b20	-0.07399583
183	0xbcebf739	-0.028804408
184	0x3d58dfde	0.05294787
185	0xbda7eb8b	-0.08199223
186	0xbcf5f7c8	-0.030025378
187	0x3d186710	0.037207663
188	0x3d744c71	0.059643213
189	0x3cdf544d	0.027261877
190	0xbb435361	-0.0029804336
191	0xbd197f54	-0.037474945
192	0xbd4cfb14	-0.050044134
193	0xbd25025d	-0.040285457
194	0x3d8609ce	0.06544839
195	0xbd8ec2d4	-0.06970754
196	0xbd0a4ab3	-0.033762645
197	0x3d2fa5cd	0.04288273
198	0x3c133131	0.008983896
199	0xbd1e64e7	-0.038670447
200	0x3d7c6a35	0.061624724
201	0xbdac37da	-0.0840909
202	0x3c8efe6d	0.017455304
203	0x3d8a99f6	0.06767647
204	0xbccab99c	-0.024746709
205	0x3d7bc7ba	0.06146977
206	0xbdae6553	-0.0851542
207	0x3da6d00f	0.08145153
208	0x3d9dd7fe	0.07707213
209	0x3cb21ec6	0.02174319
210	0xbc281c43	-0.010260644
211	0x3be263c0	0.006908864
212	0xbd8e4ac3	-0.069478534
213	0xbd919d4a	-0.07110079
214	0xbd6a78fc	-0.057244286
215	0xbd91ea32	-0.07124747
216	0xbda850f4	-0.082185656
217	0xbd081900	-0.033226967
218	0xbd3bc864	-0.045845404
219	0xbbcee2f7	-0.0063136774
220	0xbd9ee1b3	-0.077578925
221	0xbb2932d9	-0.002581766
222	0xba15bd39	-0.00057120953
223	0xbd3cc4b2	-0.04608602
224	0xbd14606b	-0.036224764
225	0x3c6563a4	0.014000807
226	0x3d6eb9a9	0.058282528
227	0x3ca32668	0.019915774
228	0xbcbffed5	-0.023436943
229	0xbd428fd0	-0.04750043
230	0x3d4e16a2	0.050314553
231	0x3d1b6eda	0.037947513
232	0x3c9cb82a	0.019130785
233	0x3d9908f0	0.07472408
234	0xbc2bf3db	-0.010495151
235	0xbc035d7b	-0.008017893
236	0xbd89356b	-0.06699642
237	0x3bd6c504	0.006554248
238	0xbcab9ca2	-0.020948712
239	0x3d894c36	0.06703989
240	0x3d96197f	0.07329082
241	0xbd22fe4d	-0.0397933
242	0xbb8d58fc	-0.0043135863
243	0x3d09aacf	0.03361016
244	0xbc81d67d	-0.015849346
245	0xbd33ca4f	-0.04389411
246	0x3da91ce1	0.08257461
247	0x3d38fc84	0.045162693
248	0xbce1f86c	-0.027584277
249	0xbd737c56	-0.059444748
250	0xbd3d904a	-0.046280183
251	0xbd1fd61b	-0.039022546
252	0x3d80598b	0.06267079
253	0xbd0e91a0	-0.034806848
254	0xbc80810a	-0.01568653
255	0xbdaaa6a2	-0.08332564

layer3.0.bias f4 [64]
0	0xbd19ed05	-0.037579555
1	0x3c083d48	0.008315392
2	0x3d201a1c	0.0390874
3	0x3d400404	0.04687883
4	0x3da6408c	0.0811778
5	0x3adb4a0d	0.0016730443
6	0xbb942dfc	-0.0045220833
7	0xbda1a66d	-0.07893071
8	0x3b82b585	0.003988924
9	0xbd163769	-0.036673937
10	0x3d95909a	0.07302971
11	0x3d7b855c	0.06140648
12	0xbdadd668	-0.0848816
13	0xbd389d1c	-0.045071706
14	0xbd50c071	-0.050964776
15	0x3c5e0c93	0.013552803
16	0x3ca459a5	0.020062277
17	0xbd2c5e6c	-0.042082235
18	0x3ce52e48	0.02797617
19	0x3d91be7e	0.071164116
20	0xbd4e36f6	-0.050345384
21	0xbd270dc7	-0.040784623
22	0x3cadef24	0.021232195
23	0x3d25d90c	0.040490195
24	0x3d0eeb8f	0.034892615
25	0x3d9d0580	0.07667065
26	0x3d8e59b4	0.06950703
27	0x3da6428d	0.08118162
28	0xbd95198b	-0.072802626
29	0xbcfaa406	-0.03059579
30	0xbd4535bb	-0.048146944
31	0xbd8a56b6	-0.0675482
32	0xbc8fa17b	-0.017533055
33	0x3d8a94fd	0.067666985
34	0xbd3ec6b2	-0.04657621
35	0xbd3a4042	-0.045471437
36	0xbb8ae8e9	-0.004239191
37	0xbd008224	-0.03137411
38	0x3d26c56e	0.040715627
39	0xbd8008ed	-0.062517025
40	0x3cfe510e	0.03104451
41	0x3d5f01ec	0.054445192
42	0xbd0d3ef9	-0.034483884
43	0xbbedf957	-0.0072623896
44	0xbd7e6028	-0.06210342
45	0xbd516fd5	-0.051132042
46	0x3d436b86	0.047709964
47	0x3c0e5f7a	0.008689756
48	0xbd5621e4	-0.052278414
49	0xbd321157	-0.043473568
50	0xbd3ec989	-0.046578918
51	0xbd443b1e	-0.04790794
52	0xbd4fd29a	-0.050737955
53	0x3d0512b4	0.03248854
54	0xbd5a6178	-0.05331561
55	0xbd97edd5	-0.0741841
56	0x3d24ffe3	0.040283095
57	0xbd59e250	-0.053194344
58	0x3bec93d7	0.0072197723
59	0x3d2f8188	0.04284814
60	0xbcad28ad	-0.02113756
61	0xbcc5a50f	-0.024126558
62	0x3d1f1498	0.038838
63	0xbd73bfd8	-0.05950913

layer3.1.weight f4 [64]
0	0x3f7fddc4	0.9994776
1	0x3f80371e	1.001682
2	0x3f7fbfb2	0.9990188
3	0x3f811b9f	1.0086554
4	0x3f802477	1.0011128
5	0x3f7fb18a	0.9988028
6	0x3f809947	1.0046777
7	0x3f7dddb2	0.99166405
8	0x3f80cea3	1.006306
9	0x3f800348	1.0001001
10	0x3f808e32	1.0043395
11	0x3f80931d	1.0044895
12	0x3f7ebc3e	0.99505985
13	0x3f7ea1ff	0.99465936
14	0x3f7f6d74	0.9977639
15	0x3f81a803	1.0129398
16	0x3f80565b	1.0026354
17	0x3f8145d8	1.009944
18	0x3f801130	1.0005245
19	0x3f7ed330	0.99540997
20	0x3f7fd128	0.9992852
21	0x3f813bdb	1.0096391
22	0x3f7ebc19	0.99505764
23	0x3f803224	1.0015302
24	0x3f7eaf80	0.9948654
25	0x3f802640	1.0011673
26	0x3f802b17	1.001315
27	0x3f80afa4	1.0053601
28	0x3f811931	1.0085813
29	0x3f7fd586	0.99935186
30	0x3f810bbc	1.0081706
31	0x3f7c6c74	0.98602986
32	0x3f7e673a	0.9937626
33	0x3f8046ab	1.0021566
34	0x3f819db5	1.0126253
35	0x3f7c2279	0.984901
36	0x3f805cd2	1.0028327
37	0x3f7e9f93	0.9946224
38	0x3f7dfd3e	0.9921454
39	0x3f7f9a3a	0.99844706
40	0x3f7eb847	0.99499935
41	0x3f7eb155	0.9948934
42	0x3f8063ed	1.0030495
43	0x3f7db2fe	0.99101245
44	0x3f81008d	1.0078293
45	0x3f7fa761	0.99864775
46	0x3f7faeaa	0.9987589
47	0x3f8098f4	1.0046678
48	0x3f7f392f	0.9969663
49	0x3f7fedbf	0.99972147
50	0x3f80911d	1.0044285
51	0x3f7ecf09	0.9953466
52	0x3f812e02	1.0092165
53	0x3f807791	1.0036489
54	0x3f807d47	1.0038232
55	0x3f80f13a	1.0073617
56	0x3f7ebba7	0.99505085
57	0x3f7e06b6	0.9922899
58	0x3f7f59d5	0.9974645
59	0x3f7ffdc6	0.999966
60	0x3f7ff2fa	0.9998013
61	0x3f7f4254	0.99710584
62	0x3f7ea1ce	0.99465644
63	0x3f7fbb30	0.99895

layer3.1.bias f4 [64]
0	0xbbb3e869	-0.005490352
1	0xba65417c	-0.00087454147
2	0x3ba01b66	0.0048860786
3	0xb93d8e7c	-0.00018077524
4	0x3ac575f8	0.0015065065
5	0x3abcf9e9	0.0014417741
6	0x3b07285e	0.0020623426
7	0xbc1826c1	-0.009286583
8	0x3af082f2	0.0018349572
9	0xba925e39	-0.0011166997
10	0x3af33b2f	0.0018557067
11	0x3ad48d07	0.0016216346
12	0xbbd57432	-0.0065140957
13	0xbc2a3e61	-0.010390849
14	0xbb44f416	-0.0030052713
15	0x3be25a5e	0.0069077453
16	0xbbf211df	-0.0073873843
17	0x3b70aef2	0.003672537
18	0xbb562ea0	-0.00326816
19	0xbc2224d7	-0.009896479
20	0xb81a2ad7	-3.675636e-05
21	0x3b5d32b9	0.0033752157
22	0x3b946a2c	0.0045292582
23	0xbbbc61c2	-0.0057489583
24	0xbb827a3e	-0.0039818576
25	0x3bbb93ee	0.0057244217
26	0xbafa7c1b	-0.0019110473
27	0x3b039186	0.0020075752
28	0x3aedb3ad	0.0018135213
29	0x3a83ea11	0.0010064264
30	0xbb535575	-0.0032246981
31	0xbc2863b7	-0.01027768
32	0xbc07568e	-0.008260382
33	0xbae806b1	-0.001770219
34	0x3c034d94	0.008014102
35	0xbbcfb77c	-0.0063390117
36	0xba6cea9f	-0.0009037647
37	0xbbb99cf8	-0.005664464
38	0xbc029ca8	-0.00797192
39	0xbbdbc69e	-0.0067070266
40	0xbc555db5	-0.01302283
41	0xbbaa407d	-0.005195676
42	0xbbabdc0f	-0.005244739
43	0xbbd486d5	-0.0064858
44	0x3b6cd133	0.0036135435
45	0xbadaffba	-0.0016708293
46	0x3b7f4c7a	0.0038955496
47	0x3b1372d3	0.002249886
48	0xbb390f6e	-0.0028237957
49	0xbb95e0bc	-0.0045739096
50	0xbab643bd	-0.0013905686
51	0xbb73c574	-0.0037196549
52	0x3ba99188	0.0051748194
53	0xbb9b8fab	-0.004747351
54	0x3b036f2f	0.0020055284
55	0x3a06be13	0.00051400176
56	0xb9dc9d5b	-0.0004207891
57	0xbbdfd71a	-0.006831062
58	0xbb5ae163	-0.00333985
59	0xbb778480	-0.0037768185
60	0xbb0bcc9d	-0.0021331676
61	0xbbcf50c4	-0.0063267667
62	0xbbc24740	-0.005928904
63	0xbb2ea42a	-0.0026648142

layer4.0.weight f4 [64, 64, 3, 3]
0	0x3cf32bda	0.029683996
1	0xbb526b6b	-0.0032107483
2	0xbbd4c57c	-0.0064932685
3	0x3d12aeb8	0.035811156
4	0xbba60c6a	-0.005067398
5	0xbd1e0bae	-0.038585357
6	0x3d06b6d0	0.032889187
7	0xbba88d6f	-0.0051438133
8	0x3ae2db2e	0.0017307752
9	0x3ce42f21	0.027854504
10	0xbc3283de	-0.010895697
11	0xbd120aa6	-0.035654686
12	0x3bd1ba84	0.006400408
13	0xbd3a9d46	-0.045560144
14	0x3cda54d9	0.026651787
15	0xbcdb9f28	-0.02680929
16	0xbd134758	-0.03595671
17	0x3a0ecc6f	0.0005447333
18	0x3cd504b6	0.026003223
19	0x3b815e53	0.003948012
20	0xbca10ab9	-0.019658433
21	0x3cec0254	0.028809704
22	0xbc461e98	-0.012092255
23	0x3d352289	0.04422239
24	0x3c824dda	0.015906263
25	0x3c3f5445	0.011677806
26	0x3d0dbcdc	0.03460394
27	0x3d4562cb	0.04818992
28	0x3ce9f3b0	0.028558582
29	0xbbe86456	-0.007092039
30	0x3c8e88d3	0.017399227
31	0x3c1ccc37	0.009570173
32	0xbc0ba044	-0.008522097
33	0xbc703fd1	-0.0146636525
34	0x3c86fa18	0.016476676
35	0xbcb3649f	-0.021898566
36	0x3cf17733	0.029475784
37	0x3d1d8439	0.038456175
38	0xbca6888d	-0.020328784
39	0xbccc747c	-0.024957888
40	0xbc12cf4d	-0.008960557
41	0x3c561496	0.0130664315
42	0xbc2996cc	-0.010350894
43	0xbcd48953	-0.025944388
44	0x3d304fb9	0.04304478
45	0x3c439ac1	0.011938752
46	0xbbb51e19	-0.0055272696
47	0x3d0bb365	0.03410663
48	0x3c154cd3	0.009112555
49	0xbc0b9f1c	-0.008521821
50	0x3c9a128c	0.018807672
51	0xbc27160d	-0.010198128
52	0x3cb7db74	0.02244351
53	0xba7ad569	-0.0009568544
54	0x3d121526	0.0356647
55	0xbcf77eeb	-0.030211886
56	0x3d236ce7	0.03989878
57	0xbd1ad4ca	-0.037800588
58	0x3c6f1899	0.014593267
59	0x3ccf2d88	0.025290266
60	0x3c62f3b6	0.0138520505
61	0x3bcabccf	0.0061870585
62	0x3c91f5f6	0.017817479
63	0x3a3dd394	0.00072413054
64	0xbd4069cb	-0.046975892
65	0x3cc21f39	0.023696529
66	0x3c5843bd	0.013199744
67	0xbc11ba1b	-0.008894469
68	0xbcba1c61	-0.02271861
69	0xbccf1fd2	-0.025283728
70	0xbd0b7bfb	-0.034053784
71	0xbcecf15f	-0.028923688
72	0x3c00634d	0.007836175
73	0x3cac3b5c	0.021024399
74	0x3d0fbe67	0.03509369
75	0xb888b583	-6.5187945e-05
76	0x3cf87f42	0.030334119
77	0x3c341bf5	0.010992994
78	0x3ccfd145	0.025368342
79	0x3cd83093	0.02639035
80	0xbc3f3f39	-0.011672788
81	0x3c5d4a4b	0.013506482
82	0x3cdd0e2b	0.026984295
83	0x3b34522e	0.0027514803
84	0xbbc1b717	-0.0059117186
85	0xbcfb857f	-0.030703304
86	0x3d3da269	0.046297465
87	0x3c5513bc	0.013005193
88	0x3cf490f8	0.029854283
89	0xbba7f7e4	-0.0051259864
90	0x3c2be7f6	0.0104923155
91	0xbd0daa4e	-0.034586243
92	0xbc5e2727	-0.013559139
93	0xbc023b38	-0.007948689
94	0xbcade610	-0.021227866
95	0xbd1925a9	-0.03738943
96	0x3cee8e95	0.029120723
97	0x3c5c9949	0.01346428
98	0xbcdaf2db	-0.02672713
99	0xbcb42daf	-0.02199444
100	0x3d2665ee	0.04062455
101	0x3c6ef99e	0.014585881
102	0xbb81ea02	-0.0039646635
103	0x3b9d7dc0	0.0048062503
104	0x3d1099ab	0.0353028
105	0x3cbde8cc	0.023182295
106	0xbbc3b69a	-0.0059726955
107	0xb67ba323	-3.7496873e-06
108	0xbcff06cc	-0.03113117
109	0xbce897af	-0.02839264
110	0xbd328081	-0.043579582
111	0xbd28798a	-0.041131534
112	0xbc97dbd1	-0.018537434
113	0x3c143ff0	0.009048447
114	0x3ada1967	0.001663965
115	0xbc9cb6f9	-0.019130217
116	0xbc98f894	-0.018673219
117	0x3d139276	0.036028348
118	0x3c8bd792	0.017070565
119	0x3c93f10b	0.018059274
120	0x3b5d308e	0.0033750865
121	0x3b555106	0.0032549514
122	0xbb3993b2	-0.0028316793
123	0x3cc65be6	0.024213742
124	0x3beace39	0.007165697
125	0x3d18246f	0.03714412
126	0x3cde3c88	0.027128473
127	0xbbefc5a0	-0.00731726
128	0xbbc835c6	-0.006109926
129	0xbcd3eb69	-0.025869088
130	0x3cbc607a	0.022995222
131	0xbc3b5e4e	-0.011436058
132	0x3cbf19e4	0.023327775
133	0xbc1f6118	-0.009727739
134	0xbd162b91	-0.036662642
135	0x3c935a6f	0.017987458
136	0xbc88a662	-0.0166809
137	0x3c6403c2	0.013916912
138	0xbd204bc3	-0.039134752
139	0xbd0fc5f3	-0.03510089
140	0xbcce944e	-0.025217202
141	0x3c4d9e52	0.012549954
142	0xbd0a3d8a	-0.033750094
143	0xbd135d85	-0.03597786
144	0x3c2d7c2e	0.010588689
145	0xbc441cbf	-0.011969744
146	0x3c8ccbce	0.017187025
147	0x3d05464c	0.032537743
148	0x3ce9326c	0.028466426
149	0xbd006c4b	-0.031353276
150	0xbd1af5bf	-0.037832018
151	0xbc2713c4	-0.010197584
152	0xbc7965da	-0.015222037
153	0xbd0e8a23	-0.034799706
154	0x3c615d8b	0.013755213
155	0xbd0eeff3	-0.034896802
156	0x3cade35b	0.021226576
157	0xbc71e98c	-0.014765155
158	0x3d01ef4d	0.031722356
159	0xbcb10d8e	-0.021612909
160	0x3cabb468	0.020960048
161	0xbd33880a	-0.04383091
162	0x3cb5a560	0.022173584
163	0xbce2cdea	-0.027686078
164	0x3cfd510e	0.030922439
165	0xbca32d64	-0.019919105
166	0xbd276f45	-0.0408776
167	0x3cb21c31	0.021741958
168	0x3cde2942	0.027119283
169	0x3d257c38	0.040401667
170	0xbcbd2152	-0.023087177
171	0x3c9f2776	0.019427996
172	0x3c26315d	0.010143605
173	0xbc8e9fb0	-0.01741013
174	0xbd0ae782	-0.03391219
175	0xbccbff70	-0.024902076
176	0xbca40ec8	-0.02002658
177	0xbc9b53fc	-0.018960945
178	0xbd2d9a3b	-0.042383414
179	0x3ccd2d05	0.025045881
180	0x3ca98e0c	0.020697616
181	0xbd17096b	-0.036874216
182	0x3d1b45ea	0.037908472
183	0x3b3a86c8	0.0028461684
184	0xbc15af75	-0.0091360705
185	0x3c023f0f	0.007949605
186	0xbcc19a7a	-0.02363323
187	0xbcce5bfe	-0.02519035
188	0x3c545e07	0.012961871
189	0xbc247f09	-0.010040053
190	0x3d146cc2	0.036236532
191	0x3bd1c516	0.0064016683
192	0xbcc90b2b	-0.024541458
193	0x3ca71f68	0.020400718
194	0xbce8d7d6	-0.028423231
195	0xbca216ae	-0.019786205
196	0x3cf77701	0.030208113
197	0xbaa1fac9	-0.0012358065
198	0x3bcfcb79	0.0063413945
199	0x3d22035f	0.039553996
200	0x3d2e5141	0.04255796
201	0xbc5c223b	-0.013435896
202	0x3cb96a73	0.022633767
203	0x3c05d3d4	0.00816818
204	0x3d14161b	0.036153894
205	0xbc9496a5	-0.01813824
206	0xbb90784b	-0.0044088713
207	0x3ccd123f	0.025033114
208	0x3c37fbce	0.0112294685
209	0xbd396fd9	-0.04527268
210	0xbcf70cd0	-0.030157477
211	0x3bb156a5	0.00541194
212	0x3d27bb92	0.040950365
213	0xbce8cb8a	-0.028417367
214	0xbd1a17f4	-0.0376205
215	0x3ce99a78	0.02851604
216	0x3cedd995	0.029034415
217	0x3d0c4903	0.034249317
218	0xbcfe9f9d	-0.031081969
219	0xbd324267	-0.043520357
220	0x3c5d133d	0.013493356
221	0xbc24976f	-0.01004587
222	0x3cd06c43	0.025442248
223	0xbd223117	-0.039597597
224	0x3d184dca	0.03718356
225	0xbc845442	-0.016153459
226	0x3cceb493	0.025232589
227	0x3cd853cb	0.026407143
228	0xbc18d54b	-0.009328197
229	0x3d07f8ef	0.033196386
230	0xbd51245e	-0.051060073
231	0xbd13dc0c	-0.036098525
232	0x3b66b845	0.0035205048
233	0xbd288cee	-0.041150026
234	0x3d079a98	0.033106416
235	0x3c34b686	0.011029845
236	0xbc626d8e	-0.013820065
237	0x3c05f10d	0.008175147
238	0xba894900	-0.0010474026
239	0x3a8a22e5	0.0010538964
240	0x3c95b97a	0.018276919
241	0x3c138f9f	0.00900641
242	0xbc7c8ccd	-0.015414429
243	0x3c423da0	0.011855513
244	0x3c50957c	0.012730952
245	0x3cf61566	0.0300395
246	0xbce71d96	-0.02821235
247	0x3c9bb74e	0.019008305
248	0xbad4cc2d	-0.0016235166
249	0xbd200760	-0.039069533
250	0x3cadd807	0.021221174
251	0x3d18d7a1	0.037315015
252	0x3b7fce18	0.0039032754
253	0xbc03431f	-0.008011608
254	0xbcf94105	-0.030426512
255	0xbc023b46	-0.007948702

layer4.0.bias f4 [64]
0	0x3c17ed76	0.009272924
1	0x3b3c296c	0.0028711213
2	0x3c356d58	0.011073433
3	0x3ce8d8cf	0.028423695
4	0xbce4fdbe	-0.027953025
5	0x3c5375f4	0.01290654
6	0x3a5b1973	0.0008357979
7	0x3d1e176c	0.038596556
8	0x3d1e1e2b	0.03860299
9	0x3d06f8fa	0.032952286
10	0xbd0841a1	-0.033265714
11	0x3a624ce4	0.00086326734
12	0xbcb5b906	-0.022182953
13	0x3b7135e8	0.0036805812
14	0x3c8cdb82	0.017194513
15	0xbcef3874	-0.029201724
16	0x3cd6aea4	0.026206322
17	0xbc625d34	-0.013816167
18	0xbcf24e47	-0.029578341
19	0x3cb0ff7d	0.021606201
20	0xbca22179	-0.019791352
21	0x3c868c49	0.016424315
22	0x3b97b4fc	0.0046297293
23	0xbcb98c8d	-0.022650028
24	0xba49a215	-0.00076916936
25	0xbd2051bd	-0.03914045
26	0xbc0822ed	-0.008309108
27	0x3d259073	0.04042096
28	0xbc3b1b98	-0.011420153
29	0x3ca09384	0.019601591
30	0x3d16bc03	0.036800396
31	0xbd0869bc	-0.03330396
32	0x3b0f4b09	0.0021864793
33	0x3c9c4b24	0.019078799
34	0x3c85304b	0.01625838
35	0x3d0ac16c	0.033875868
36	0x3d17a194	0.037019327
37	0xbc1d867a	-0.009614581
38	0x3b21399b	0.0024600986
39	0xbcb8b1cf	-0.022545723
40	0x3c8d9315	0.017282048
41	0xbd0c3a93	-0.03423555
42	0xbc9717f5	-0.01844404
43	0xbb1e6e0a	-0.0024174475
44	0x3ca4803a	0.020080674
45	0xbb2d703f	-0.002646461
46	0xbd0e56d4	-0.034750775
47	0x3cd68022	0.026184145
48	0xbcfc53d7	-0.030801697
49	0x3d0234a6	0.03178849
50	0x3cd043e3	0.025422996
51	0xbbb76a1d	-0.0055973665
52	0x3c0d1e0a	0.008613119
53	0xbd3095dc	-0.043111667
54	0xbcb7ab97	-0.022420688
55	0xbcafd71d	-0.021464879
56	0x3cfa2be5	0.030538509
57	0xbcf65d34	-0.03007374
58	0xbbc50cdb	-0.0060134954
59	0xbb65605c	-0.0035000062
60	0x3b94cccf	0.0045410166
61	0xbd191868	-0.03737679
62	0xbcab2f9e	-0.02089673
63	0x3c974b1e	0.018468436

layer4.1.weight f4 [64]
0	0x3f80bc4f	1.0057467
1	0x3f7f0bdf	0.9962749
2	0x3f8120b4	1.0088105
3	0x3f80cfe9	1.0063449
4	0x3f7e7791	0.99401194
5	0x3f8009fe	1.0003049
6	0x3f7f734c	0.99785304
7	0x3f7deab3	0.9918625
8	0x3f7f74f2	0.9978782
9	0x3f7d5496	0.9895719
10	0x3f7f0dce	0.9963044
11	0x3f80b218	1.005435
12	0x3f7edb8f	0.9955377
13	0x3f7e9505	0.99446136
14	0x3f804ecb	1.0024046
15	0x3f7fa2d9	0.9985786
16	0x3f810e75	1.0082537
17	0x3f80a3bd	1.0049969
18	0x3f80995e	1.0046804
19	0x3f8105b8	1.007987
20	0x3f809a0b	1.004701
21	0x3f7f5e33	0.9975311
22	0x3f803a91	1.0017873
23	0x3f80a8ed	1.0051552
24	0x3f803eec	1.0019202
25	0x3f7ceb31	0.98796374
26	0x3f7f2e6e	0.9968022
27	0x3f7fce8a	0.9992453
28	0x3f7fffcb	0.99999684
29	0x3f811956	1.0085857
30	0x3f7dec50	0.9918871
31	0x3f7fc9c2	0.99917233
32	0x3f803425	1.0015913
33	0x3f7ea96d	0.99477273
34	0x3f7e793b	0.99403733
35	0x3f7ff538	0.9998355
36	0x3f7fa920	0.9986744
37	0x3f7e7631	0.99399096
38	0x3f7eb11a	0.99488986
39	0x3f7e132a	0.9924799
40	0x3f804426	1.0020797
41	0x3f7dc414	0.99127316
42	0x3f80109e	1.0005071
43	0x3f81d94a	1.0144436
44	0x3f805f96	1.002917
45	0x3f7f7256	0.9978384
46	0x3f80287e	1.0012357
47	0x3f80cf49	1.0063258
48	0x3f803568	1.0016298
49	0x3f7eb7d9	0.9949928
50	0x3f7f247b	0.9966504
51	0x3f7f0abe	0.99625766
52	0x3f800729	1.0002185
53	0x3f80e1ed	1.0068947
54	0x3f805282	1.0025179
55	0x3f80c4f7	1.0060109
56	0x3f814858	1.0100203
57	0x3f7e519a	0.99343264
58	0x3f7e3baf	0.9930982
59	0x3f8045ca	1.0021298
60	0x3f812cd7	1.0091809
61	0x3f8001e6	1.0000579
62	0x3f80df2b	1.0068105
63	0x3f804e0f	1.0023822

layer4.1.bias f4 [64]
0	0xbae142fa	-0.0017186098
1	0xbb9d9bfd	-0.004809855
2	0x3a525f19	0.0008025035
3	0xbb5f0ab7	-0.0034033486
4	0xbbfd0903	-0.0077220215
5	0x3a1fa694	0.0006090191
6	0xbadb845a	-0.0016747818
7	0xbb8d467c	-0.004311381
8	0xbbd5628f	-0.0065119932
9	0xbc215c4c	-0.009848665
10	0xbbb65e58	-0.005565446
11	0x3a367535	0.0006960214
12	0xbb021fdb	-0.0019855413
13	0xbb86c30f	-0.0041126083
14	0x3bc7729e	0.0060866615
15	0xbaa7ee30	-0.0012812074
16	0x3a71dcd3	0.0009226326
17	0x3ae2892b	0.0017283311
18	0x3b077f5a	0.0020675273
19	0x3b002d4e	0.0019558254
20	0x3b37818a	0.0028000795
21	0xbb98fb46	-0.004668626
22	0x3aae7e77	0.0013312836
23	0xba98ce15	-0.0011658097
24	0xbace59b9	-0.0015743292
25	0xbb943af2	-0.0045236284
26	0xbb6df6e4	-0.0036310488
27	0xbc0f658d	-0.008752239
28	0xba6dd996	-0.00090732554
29	0xba966123	-0.0011473041
30	0xbb2d7745	-0.0026468795
31	0xbbb4f61a	-0.0055225017
32	0xbb99cac2	-0.00469336
33	0xbb99f161	-0.004697964
34	0xbc0906dc	-0.008363452
35	0xbb32bb7b	-0.0027272392
36	0xbb04cdb0	-0.00202642
37	0xbbaeb11b	-0.005331171
38	0xbc456659	-0.012048327
39	0xbbf17777	-0.0073689776
40	0x3b6e798b	0.0036388363
41	0xbc1cc460	-0.009568304
42	0x398ad4c3	0.0002647993
43	0xbb54f002	-0.0032491689
44	0x3aae7f01	0.0013312997
45	0xbad1a9d6	-0.001599605
46	0x3a8eeb0b	0.0010903788
47	0xba8a3189	-0.0010543327
48	0xbb84b8e3	-0.0040503605
49	0x3af2184f	0.0018470379
50	0xbaf1127d	-0.0018392351
51	0xbbf3294f	-0.007420696
52	0x3b21a9fd	0.0024667971
53	0x3aea024f	0.0017853471
54	0x3b40685b	0.0029359076
55	0x3b8ac6d9	0.0042351303
56	0xb8ce4f58	-9.8376244e-05
57	0xbba5ffa7	-0.0050658765
58	0xba7c0c52	-0.0009614873
59	0xba8634ea	-0.0010239158
60	0xbb94c64a	-0.0045402395
61	0xba13cd9e	-0.00056382443
62	0x3b38f68b	0.0028223123
63	0x3a8e6cff	0.0010866224

layer5.0.weight f4 [64, 64, 3, 3]
0	0x3d1f7421	0.03892911
1	0xbd0179c2	-0.031610258
2	0x3c02c008	0.007980354
3	0x3d25797f	0.04039907
4	0xbcb6bb71	-0.022306176
5	0x3b2ec1df	0.002666585
6	0xbbf1f48e	-0.0073838895
7	0xbc3e55a3	-0.011617097
8	0xbcda7389	-0.02666642
9	0xbd4adc8e	-0.049526744
10	0x3cad9ff9	0.021194445
11	0xbc6406b2	-0.013917612
12	0x3cb81c65	0.022474477
13	0xbc9be9fa	-0.019032467
14	0x3ce56af2	0.028005097
15	0xbc032352	-0.0080040265
16	0x3d2bbf82	0.041930683
17	0xbc82b06e	-0.015953269
18	0xbc64b93d	-0.01396018
19	0xbcce2a83	-0.025166756
20	0xbd21e737	-0.039527144
21	0x3d3d16bd	0.046164263
22	0x3d38094f	0.044930752
23	0xbc8238af	-0.01589617
24	0x3d03a31a	0.032137968
25	0x3cea695c	0.028614692
26	0xbaff88b9	-0.0019495703
27	0xbd21df5f	-0.039519664
28	0xbcb8402a	-0.022491533
29	0xbd38c3a2	-0.045108445
30	0x3b19c291	0.0023461918
31	0x3cf5d471	0.030008527
32	0xbc9f27ae	-0.0194281
33	0x3c53b318	0.012921117
34	0xbcd64e87	-0.026160492
35	0x3ca94e3e	0.020667192
36	0xbd1e61cc	-0.038667485
37	0x3cf914ed	0.030405486
38	0xbc24b7a2	-0.010053547
39	0xbca3e708	-0.020007625
40	0xbd3c84fb	-0.046025258
41	0x3d035ff4	0.03207393
42	0xbceb43af	-0.028718797
43	0x3d0f06eb	0.034918707
44	0xbd02aa29	-0.03190056
45	0xbcdbfed8	-0.026854917
46	0x3ccc23e4	0.024919458
47	0xba250321	-0.0006294717
48	0x3d146086	0.036224864
49	0x3ce94d2b	0.02847918
50	0x3ca7f2d1	0.020501526
51	0x3c98ed68	0.018667892
52	0x3afe125c	0.0019384134
53	0x3c3d6921	0.011560709
54	0xbc37f5ba	-0.011228019
55	0x3d02f55d	0.031972278
56	0x3c8214a3	0.015878981
57	0x3d06a4ee	0.032872133
58	0x3c6d9fcb	0.01450343
59	0xbd1f8571	-0.03894562
60	0x3c41b49c	0.011822846
61	0x3cd46a49	0.025929587
62	0xbce57a02	-0.02801228
63	0xbcefb00a	-0.029258747
64	0xbc774b91	-0.0150937
65	0xbb8f117c	-0.004366098
66	0x3d1e1929	0.038598213
67	0xbccf6996	-0.025318902
68	0xbca8f4a3	-0.020624464
69	0x3c88e622	0.016711298
70	0x3c5ae5f3	0.013360488
71	0xbd0d3bf0	-0.03448099
72	0x3c9dee18	0.019278571
73	0xbcaebb1b	-0.021329453
74	0x3cde5905	0.027142057
75	0xbb98c10f	-0.0046616863
76	0x3d1c3346	0.038134836
77	0x3c5f157b	0.013615961
78	0x3c1dd50a	0.009633312
79	0x3d4a31c2	0.04936386
80	0x3d2c4d74	0.042066053
81	0x3c6215d2	0.013799148
82	0xbd0b9015	-0.034072954
83	0xbd280dba	-0.041028716
84	0x3c47c85e	0.012193767
85	0x3d1aee48	0.0378249
86	0x3cfaa5db	0.030596664
87	0xbd23d702	-0.03999997
88	0xbd21a11a	-0.03946028
89	0x3c954cff	0.018225191
90	0xbd027f76	-0.031859837
91	0x3cc7961f	0.024363576
92	0x3bc4a2e8	0.0060008653
93	0xbd0f355c	-0.034962997
94	0xbd22da2b	-0.039758842
95	0xbcb53601	-0.022120478
96	0xbc9f4e10	-0.019446403
97	0x3d03b6f3	0.032156896
98	0x3d1e92ae	0.038714103
99	0x3c68256e	0.01416908
100	0x3cd1cbea	0.02560993
101	0xbcd61089	-0.026130931
102	0xbcac227b	-0.021012535
103	0x3d1981e8	0.037477404
104	0x3ce820b6	0.02833591
105	0xbb75b815	-0.0037493755
106	0x3c4db2bd	0.012554822
107	0x3cd40531	0.025881382
108	0xbce099c2	-0.027417067
109	0xbd059df8	-0.032621354
110	0x3cd930d4	0.02651254
111	0x3bb99ea9	0.0056646657
112	0xbc063951	-0.008192376
113	0x3cd33ca3	0.02578575
114	0x3cea5767	0.02860613
115	0x3caf766c	0.021418773
116	0xba2c24b1	-0.0006566747
117	0x3d10fc1c	0.03539668
118	0x3c967e29	0.018370705
119	0x3c630b42	0.013857665
120	0xbba1d3a5	-0.00493856
121	0xbcb56b77	-0.02214597
122	0xba9e5b2d	-0.0012081616
123	0xbccf7101	-0.02532244
124	0x3d036099	0.032074545
125	0x3c0f9a35	0.008764793
126	0xbb0c9e9c	-0.0021456843
127	0xbd09103f	-0.03346276
128	0xbd1b39e1	-0.037896995
129	0x3cd7e719	0.026355313
130	0x3c843eea	0.016143281
131	0x3cc6bf29	0.024261074
132	0xbc0bc471	-0.008530722
133	0xbd0c9213	-0.034318995
134	0xbc1822ad	-0.009285611
135	0x3bf8d494	0.0075937007
136	0xbcca7a51	-0.024716528
137	0xbcb304c0	-0.02185285
138	0x3c6361cf	0.0138783
139	0xbc9bec7b	-0.019033661
140	0xbc43efe7	-0.011959053
141	0xbc986c86	-0.018606436
142	0x3cdaa3f5	0.026689509
143	0x3d15eb72	0.03660149
144	0xbb48209e	-0.003053702
145	0xbb7debc1	-0.0038745257
146	0x3c3c4220	0.011490375
147	0x3b259995	0.0025268544
148	0x3d254d81	0.040357117
149	0xbcf120f2	-0.029434655
150	0xbc9e01b0	-0.019287914
151	0x3bb1a71a	0.0054215314
152	0x3d28cd7c	0.04121159
153	0xbb498911	-0.0030751864
154	0x3bc6c1a7	0.0060655656
155	0x3d04c21a	0.032411672
156	0x3d0d9579	0.034566376
157	0x3cfb781d	0.030696923
158	0xbd305737	-0.043051925
159	0x3d137cce	0.036007695
160	0x3cbeffb4	0.023315288
161	0xbc94b8b4	-0.01815448
162	0xbbf14db6	-0.007364
163	0x3c4a94bb	0.012364562
164	0xbc2391e8	-0.009983517
165	0x3ce99dab	0.028517565
166	0xbc2ed4ca	-0.01067085
167	0xbce2f811	-0.027706178
168	0x3cda8383	0.026674038
169	0x3d07ac1c	0.03312312
170	0x3d2af7de	0.04174029
171	0x3d1df2b5	0.03856154
172	0xbc8c6662	-0.017138664
173	0xbcb7d286	-0.022439253
174	0xbc868718	-0.01642184
175	0xbc280702	-0.010255577
176	0xba081dbb	-0.00051924185
177	0xbc4a1a98	-0.012335442
178	0xbd100c34	-0.035167888
179	0xbc84a986	-0.016194116
180	0xbc94d1d7	-0.018166466
181	0x3c8aa937	0.016926391
182	0x3d195068	0.037430197
183	0xbb1e6b40	-0.0024172813
184	0x3cf10718	0.029422328
185	0x3cbc7ec5	0.023009667
186	0x3c44aa80	0.012003541
187	0x3d0bc670	0.03412479
188	0xbd04da47	-0.032434728
189	0xbd3ab316	-0.045580946
190	0xbd595a07	-0.053064372
191	0xbcc39792	-0.023875985
192	0x3c1b3d43	0.009475055
193	0xbcd2ea26	-0.025746416
194	0xbd0e71cc	-0.034776494
195	0xbd3b7a0b	-0.045770686
196	0x3d10b716	0.035330854
197	0x3c601521	0.0136769125
198	0x3cd1cc01	0.025609972
199	0x3cf5b2a2	0.029992405
200	0x3cefb2cd	0.029260064
201	0x3d0a1778	0.033713788
202	0x3c19b2dc	0.009381022
203	0x3d0c7864	0.0342945
204	0x3b88d283	0.0041754856
205	0x3c9282c8	0.017884627
206	0xbbb2dc01	-0.0054583554
207	0xbcbafd74	-0.022825934
208	0x3c857179	0.01628946
209	0x3c3cb0ef	0.011516794
210	0x3cf74517	0.030184312
211	0xbb931dc0	-0.0044896305
212	0x3c017076	0.007900348
213	0xbd438a87	-0.04773953
214	0x3b565f78	0.0032710712
215	0x3b3595fa	0.0027707801
216	0xbcc1f4fa	-0.023676384
217	0x3d2cf901	0.042229656
218	0x3c1c7c7d	0.009551165
219	0x3758b5a7	1.29168975e-05
220	0xbcb4d870	-0.022075862
221	0x3a2b5f9a	0.0006537378
222	0x3cedd5ad	0.029032553
223	0x3d184856	0.03717836
224	0x3ca06754	0.01958052
225	0x3d2608f3	0.04053588
226	0xbd0c264f	-0.03421622
227	0xbb1896e4	-0.0023283297
228	0xbc46dfe3	-0.01213834
229	0xbd16fd6c	-0.036862776
230	0xbb202fd8	-0.002444258
231	0xbcb46e56	-0.022025269
232	0xbcd5693e	-0.02605116
233	0x3c36f0eb	0.011165838
234	0x3c5f83a3	0.0136422245
235	0xbd1e6075	-0.038666207
236	0x3b64dc64	0.0034921402
237	0xbd26ce28	-0.04072395
238	0x3c1f8fe8	0.0097389
239	0xbc390194	-0.01129188
240	0x3c9f0aa5	0.019414255
241	0x3cf66a1e	0.030079897
242	0x3d17c8f6	0.037056886
243	0x3a72a6d4	0.0009256427
244	0xbcd6040b	-0.026124975
245	0x3cdaf944	0.026730187
246	0x3b9f1a1c	0.0048554074
247	0x3c725176	0.01478993
248	0x3d2fe235	0.042940337
249	0x3c0856ea	0.008321503
250	0xbbceaab8	-0.0063069724
251	0xbbfd62f0	-0.0077327415
252	0x3c343d60	0.011000961
253	0xbc60b92f	-0.013716026
254	0x3cfc2ae2	0.030782167
255	0xbcdeb239	-0.027184593

layer5.0.bias f4 [64]
0	0x3d0fafed	0.035079885
1	0x3d22e33b	0.039767485
2	0xbc37a732	-0.011209296
3	0x3c1f41ef	0.00972031
4	0xbc3dd8fc	-0.011587378
5	0x3ce3cbac	0.02780708
6	0x3ca6fc5a	0.020384002
7	0xbcbe360c	-0.023219131
8	0xbd022bb7	-0.03177997
9	0x3c68b666	0.014203643
10	0xbc0a80bb	-0.008453543
11	0x3cebc2b1	0.02877936
12	0xbc33b2ed	-0.010967952
13	0x3ae92bed	0.001778958
14	0xbcdf6a19	-0.027272271
15	0x3d06e82e	0.032936268
16	0x3c43af0f	0.011943593
17	0x3c072a9d	0.008249906
18	0xbc2fbd2b	-0.0107262535
19	0x3b842040	0.004032165
20	0xbcb43345	-0.021997103
21	0xbb2c0cfd	-0.0026252859
22	0x3bca9a75	0.0061829635
23	0x3cf91e57	0.030409975
24	0x3d1e07b8	0.03858158
25	0xb9ffc4bf	-0.00048783977
26	0xbccbc909	-0.024876134
27	0x3bfae95e	0.007657214
28	0xbcb9dac3	-0.022687322
29	0x3b248c09	0.0025107882
30	0x3aaa6639	0.0013000435
31	0xbd1c121e	-0.038103215
32	0x3c586ea3	0.013209972
33	0x3b32b15f	0.0027266366
34	0x3c18918e	0.009312047
35	0xbcef1c4c	-0.029188298
36	0xbc67f676	-0.014157882
37	0x3cb19b4a	0.021680493
38	0x3d1de072	0.038544126
39	0xbd007251	-0.03135902
40	0x3b12785f	0.0022349579
41	0xbc3ed42d	-0.011647266
42	0xbcab2579	-0.020891892
43	0xbd149949	-0.036278997
44	0xbced06cd	-0.028933907
45	0x3c8d8618	0.017275855
46	0x3c739937	0.014868072
47	0xb9f1fc7f	-0.00046155226
48	0x3c5ebbb8	0.01359456
49	0x3d116c6d	0.035503794
50	0xbc07be5e	-0.008285133
51	0xbcdad459	-0.026712583
52	0x3c84e29c	0.016221337
53	0xbb7a54ce	-0.003819752
54	0xbd14c4af	-0.036320385
55	0x3ca4765a	0.020075966
56	0x3c38f016	0.01128771
57	0x3cb408ba	0.021976817
58	0xbc3a7a04	-0.01138163
59	0x3cbd2884	0.023090608
60	0xbc2fe9ca	-0.010736892
61	0xbbb3676b	-0.005474975
62	0x3cf7fa5a	0.030270744
63	0xbd259450	-0.040424645

layer5.1.weight f4 [64]
0	0x3f80bb9c	1.0057254
1	0x3f80822f	1.0039729
2	0x3f7d15b5	0.9886125
3	0x3f80a7a4	1.005116
4	0x3f7fa000	0.99853516
5	0x3f7ef927	0.99598926
6	0x3f7fb029	0.99878174
7	0x3f8094d6	1.0045421
8	0x3f813baa	1.0096333
9	0x3f7dc191	0.99123484
10	0x3f80368a	1.0016644
11	0x3f7e965a	0.9944817
12	0x3f8049c5	1.0022513
13	0x3f8125e6	1.0089691
14	0x3f7ea779	0.99474293
15	0x3f80f73e	1.0075452
16	0x3f800ee7	1.0004548
17	0x3f805c20	1.0028114
18	0x3f80421f	1.0020179
19	0x3f803236	1.0015323
20	0x3f7e82f7	0.99418586
21	0x3f7eb93f	0.99501413
22	0x3f7f0749	0.9962049
23	0x3f7d761e	0.9900836
24	0x3f805275	1.0025164
25	0x3f80ddec	1.0067725
26	0x3f80294f	1.0012606
27	0x3f80e0e7	1.0068635
28	0x3f80cc37	1.0062321
29	0x3f7fda77	0.99942726
30	0x3f7f5328	0.9973626
31	0x3f803b95	1.0018183
32	0x3f80c198	1.005908
33	0x3f81d2af	1.014242
34	0x3f819ede	1.0126607
35	0x3f80d34b	1.0064481
36	0x3f811bdd	1.0086628
37	0x3f8052ea	1.0025303
38	0x3f8026db	1.0011858
39	0x3f80f4d6	1.0074718
40	0x3f7ea7ae	0.9947461
41	0x3f800be2	1.0003626
42	0x3f7ed0fd	0.9953764
43	0x3f7f0fc9	0.9963346
44	0x3f7ef2f5	0.99589473
45	0x3f7f7ed5	0.99802905
46	0x3f8071b5	1.0034701
47	0x3f7efba2	0.9960271
48	0x3f7f92cf	0.9983339
49	0x3f7eb2b6	0.9949144
50	0x3f80420f	1.002016
51	0x3f7ee065	0.9956115
52	0x3f7fd241	0.99930197
53	0x3f80e74e	1.0070589
54	0x3f80188d	1.0007492
55	0x3f81812b	1.0117544
56	0x3f8111ac	1.0083518
57	0x3f812412	1.0089133
58	0x3f80b932	1.0056517
59	0x3f7ff7a5	0.9998725
60	0x3f813627	1.0094651
61	0x3f806627	1.0031174
62	0x3f7f37f0	0.9969473
63	0x3f7ec55e	0.9951991
