weights/pretrain_private__finetune_normal.pth (torch, 946836 bytes, 26 tensors)

layer1.0.weight f4 [16, 1, 3, 3]
00000000: 9041 a93e 77b3 6a3e 782a 593e 9f5f f33d
00000010: fbba 733e 11cd 0abd f131 6abe fd71 abbe
00000020: 75d3 2f3e 02ad b1bd 3a5a 7dbe 3e1d 50be
00000030: 5099 a4be d282 56be 9bc8 b6bd 4e75 e93c
00000040: 6f58 1f3d 2d41 00be 0673 773e ce5d 56be
00000050: ecd1 5e3d 3981 a73d 33c6 253d 3ffd 38be
00000060: b509 9b3e 6ab7 9fbe 0db3 483c 1d73 a93e
00000070: fd06 293e 54f1 193e 2a97 d53d 4bb6 81be
00000080: 250b 893d d8db 203e 035b c6bd e56a 353e
00000090: 4568 7dbe d9a2 613e 18e4 ecbd 6f3a 353a
000000a0: 8379 e13c ca4e 95be 9057 8f3e 9902 e7bc
000000b0: 57a4 34be f3b9 62be 6cbe e73c 8813 acbe
000000c0: 1550 2d3e 69e2 2c3e 8113 9cbe 589e a43d
000000d0: 6ac8 8d3e 0547 653e 6b29 01be e7e5 8ebe
000000e0: a041 473e 50d6 1d3e 7780 d3bd 197a ba3e
000000f0: c71b 9ebe c125 25be 4348 d4bd 4f78 8dbe
00000100: a1cd 64bd 8d72 283c 8e6f 38bd 22de 5cbd
00000110: d6b0 79be 1b67 313e 67a4 99be 7ce6 4abe
00000120: 440e 3f3e e32f a3be 54a7 86bd 9a13 27be
00000130: 0e9a 8c3e eb3f 413e 99b0 403e 482a f3bd
00000140: 43b4 6dbd 5a3f 163e f317 7d3c a7f2 7c3e
00000150: c51d 84be cac3 6b3d 0d92 a13e 902a 133e
00000160: 0cbf 94bc 54f3 9fbe 448b a53e a82d 603e
00000170: 33e1 4d3e d8a0 92be 344e 07bd 1ffe 6c3e
00000180: 14b9 973e 268b a3bd 622e ae3e 4344 70be
00000190: 15fb 35bd 29b3 fe3d 02a2 9abe 6e9f 2a3d
000001a0: 4e9f 6c3e c4c6 82bd b644 503e 806c a53e
000001b0: 1479 95be 0566 55be 9b9f 76be 2af0 1f3e
000001c0: 64b1 9fbe f808 3dbe ef2c 3abe 79b9 6abe
000001d0: 692e a1bc 6d4c 223d 2841 76bd a3e5 6ebe
000001e0: c34f 813e 2f9c a43e f35d 833e e609 3f3e
000001f0: 914c 333e a5f0 b63d ebbf 143e b4f3 9b3e
00000200: 9154 613e e6e1 3e3d 1940 84bd db0b 973e
00000210: 70d6 29be ae61 753e 4bfd 8c3e ad06 cebd
00000220: 274f 37be 9fff 41be 792a 893e aeb3 463e
00000230: 4660 8e3e 6e32 26be 1fe5 21be 2a3b b03e
0.33057833 0.22920023 0.21207607 0.11883473 0.23801796 -0.033886973 -0.22870614 -0.33485404
0.17170508 -0.08675577 -0.2474145 -0.20323655 -0.32148218 -0.20948341 -0.08924981 0.028498318
0.038902696 -0.12524863 0.24164972 -0.20934221 0.054399416 0.08178944 0.04047222 -0.18065356
0.30280843 -0.3119462 0.01224972 0.33095637 0.16506572 0.15033466 0.10429223 -0.2533439
0.06691579 0.15708864 -0.09685328 0.17716558 -0.24746807 0.22034778 -0.11566943 0.00069133093
0.027523762 -0.29161674 0.27996492 -0.02819948 -0.17640816 -0.22141246 0.028289042 -0.3360865
0.1692508 0.16883244 -0.3048363 0.08038014 0.27691966 0.22390373 -0.12613456 -0.27909777
0.19458628 0.15413785 -0.10327237 0.36421278 -0.30880567 -0.16127683 -0.10365345 -0.2763085
-0.055860166 0.010281217 -0.04502826 -0.05392278 -0.24383864 0.17324488 -0.30008242 -0.19814485
0.18657786 -0.31872472 -0.06574884 -0.16316071 0.27461284 0.18872039 0.18817367 -0.11873299
-0.05803324 0.14672604 0.0154476045 0.2470194 -0.25803962 0.057559766 0.3155674 0.14371705
-0.018157504 -0.31240332 0.32332814 0.21892416 0.20105438 -0.2863834 -0.033033565 0.23143815
0.2963339 -0.07985525 0.34019762 -0.2346354 -0.044428904 0.12436516 -0.30201727 0.04165595
0.23107645 -0.06385568 0.20338711 0.3230934 -0.29193938 -0.20839699 -0.24084322 0.15618959
-0.31190026 -0.18460453 -0.18181203 -0.22922315 -0.01967545 0.039623667 -0.06012073 -0.23329787
0.25256166 0.3215041 0.25657615 0.1865612 0.17509677 0.08932618 0.14526336 0.30459368
0.22004916 0.046602152 -0.06457538 0.29501233 -0.16585708 0.23963043 0.27536997 -0.10059867
-0.17901288 -0.18945168 0.26790217 0.1940448 0.27807826 -0.16230175 -0.15810059 0.3442014

layer1.0.bias f4 [16]
00000000: c464 37bd af40 713c 0f31 c33d 1c9d 9fbe
00000010: d150 4bbe 7bbb 8b3e cd4b 3dbe dc6a 94bc
00000020: ea07 823e ff34 19bd d3d0 5abe 21a1 14be
00000030: 26ae 6e3e e2da 84be 8680 c53c 14a7 913c
-0.044773832 0.014724894 0.095308416 -0.31174552 -0.19855048 0.27291474 -0.18485947 -0.01811736
0.25396663 -0.037404057 -0.21368723 -0.14514591 0.2330862 -0.25948244 0.024109136 0.017779864

layer1.1.weight f4 [16]
00000000: b7ee 7e3f 70b3 7f3f 42aa 793f dd41 7e3f
00000010: 2933 843f e398 833f c010 843f e585 7f3f
00000020: fd67 7b3f 674c 873f 9cb0 7f3f 3191 813f
00000030: 3c93 7e3f 3613 813f b20e 7c3f 4e0b 893f
0.99583 0.99883175 0.9752542 0.9931925 1.0328113 1.0281032 1.0317612 0.9981368
0.9820555 1.0570191 0.9987886 1.0122434 0.9944341 1.0083988 0.98459923 1.0706575

layer1.1.bias f4 [16]
00000000: f543 b5bc 79c8 a33a aaa2 3ebd f7a2 a4bc
00000010: ee9d 673d 2f03 b2bc a58a 9d3c b6e1 9ebc
00000020: c00f fabc f79d cbbb 8954 5bbb af8a 5ebc
00000030: 422e 803b 734c babc b5ff 91bc 82af baba
-0.022127131 0.0012495659 -0.046541847 -0.020097239 0.056547098 -0.021730034 0.01923115 -0.019394737
-0.030525088 -0.0062138992 -0.0033467135 -0.013582869 0.0039117644 -0.022741532 -0.017822126 -0.0014242979

layer2.0.weight f4 [16, 16, 3, 3]
00000000: 79e3 ad3b e71c 81bd 0e26 bd3d d3a6 09bd
00000010: ac40 afbc bfc9 623d b314 adbd 4cea aabb
00000020: b372 073c c214 06bd 07ee 35bd ba26 45bd
00000030: b31f 20bd 4fa1 00bc 18dd e5bc 4546 a13d
00000040: b59d 45bd 6f17 c53c 1a4a 903d dcdb bd3c
00000050: fe74 953c 94a1 373d e2e0 3f3d fae6 79bd
00000060: 6790 a1bd bc71 7e3d 2466 cebc 560e a9bb
00000070: eddf 3c3d 5560 1e3d a886 a33c 9d3d 933d
00000080: 820f 4a3d e7cb c1ba d076 173d d4bf c9bc
00000090: 9943 af3b e272 1f3c c6ce 1fbd 65b3 193b
000000a0: b51b caba 3a2a 823d 858f cd3b d31a ccbc
000000b0: 3755 41bc 1cc9 463d 3970 e5bd e464 9abd
000000c0: 0195 3f3d 4678 a8bd 9f1f 633a b5a8 72bd
000000d0: 8fe1 debc 575e 8dbc f7e0 81bd 37a8 223d
000000e0: fa18 cf3c 79bd 18bd a3f6 78bc 034f d13d
000000f0: 8cbb 9cbc e32f 963d 82c4 0bbd d0ee b73d
00000100: 128b 353d 0de5 fc3c c508 57bd 3fbb cfbc
00000110: ef06 2e3c be96 f13b 18a5 f73c c54c 073d
00000120: 1052 91bd 40eb 463d 3646 813d f28f bb3b
00000130: eb45 a2bd 6194 d93c 4e0a 3abd d6a6 4cb9
00000140: 2bfc 023d d31a 7bbd 476f ea3d fec9 913d
00000150: ace0 de3c 710f 593d ec40 dc3d 7339 49bd
00000160: f801 72bd e48b 153c f366 6abc b684 54bd
00000170: 7c24 963d 28db 35bd c7ee 6e3d d7d6 8fbd
00000180: fb2f ab3c c3db 963d 12b9 81bc 8768 2539
00000190: 45d0 85bd 81ee b43d 2a06 633c a474 cabd
000001a0: f642 d7bc 28fe d73c 24d2 793d ef49 483d
000001b0: 0644 793d d002 59bd d0a8 3ebd be0c 56bc
000001c0: 7380 343d 447c 643c 1eab 8bbd 7d17 e53b
000001d0: 4999 b23d 3fc4 3abc 2b30 443c 1910 e8b9
000001e0: 716c 883d 432a 4ebb 9235 8d3b 441f 81bd
000001f0: 4d27 a2bd cf95 63bd 1e81 64bd 7ffb 803d
00000200: 538c 543d d65b b2bb cc1a 203d 250f 5dbd
00000210: 4ec1 993b 3fad a2bd b422 48bd a3f3 82bc
00000220: e30a 80bd 90c9 693d 6f63 a5bd 5cd4 e5bc
00000230: 047a 6fbd c7c7 193d 31e7 683d 62ce cbbc
00000240: df75 c53b b21d 2c3d b09b 3abd 4e89 5bbd
00000250: 82bd 05bd e89a edba 74c4 9b3d 4599 54bd
00000260: 7a84 a9bc 49b8 8e3d ad53 c3bc 11cb 08bd
00000270: 392a 85bd b65d 76bd 11b8 a93c c5c4 733d
00000280: 6aba 6bbc faa1 0b3d e224 693d afab 4cbd
00000290: 295a 7bbd 63b9 c83c 1187 733a 01a4 2bbd
000002a0: 46cb 32bd 0363 563d c218 0dbd ab25 36bd
000002b0: 8bcb 823c e46a e0bc a7ed 83bc bbe9 26bd
000002c0: e7c8 983d 02ea 9ebd 485b 8e3d 5792 bf3d
000002d0: fa9c b3bd 7925 6b3c d952 333d c94a 8dbd
000002e0: cd22 9a3d 98d8 543c 405e 28bd 043c 813d
000002f0: e216 86bd fdb0 d5bd 7762 85bd b95a a4bd
00000300: b11a 9b3c bda6 29bc 815d b73d 2239 f63c
00000310: 2672 aa3d bc7d 993c 31f2 a3bd 23cb 393d
00000320: a78a d83c 5750 423d cc98 df3c 2bb6 3cbd
00000330: 11c6 403d ef27 073d 6f9f dc3c 1544 213d
00000340: 36aa c43d ff09 9c3d b5a4 7e3d 9262 213d
00000350: 7a07 f3bb eeac 9fbd a735 4b3d 8026 a73d
00000360: c4bb 2ebd 6a9c 903d 65c2 80bd 4705 0dbd
00000370: e774 323b a861 9a3d 771c e43c 6c4f aa3d
00000380: 29a2 b43c 24bd 8fbd 0042 dfbb 4150 a3bd
00000390: 2d8b 96bd bdb6 343d 7010 63bd 2c73 45bb
000003a0: 88c4 dcbc aefd 373d 0b5c a4bc 2221 7ebd
000003b0: d83d aebd 36d1 1f3d d57f 8abc 5a41 433d
000003c0: 8b1c 5f3c 9610 113d 292e 15bd 1c7b 683c
000003d0: 2293 663c e608 4ebd 8074 8f3d 70f8 ae3d
000003e0: 8499 a4bd b84b bb3c 202c cbba b6ff 81bd
000003f0: 1a92 44bd 3979 b03d b2a0 fb3c 4d3b 023c
0.005306658 -0.06304341 0.09235774 -0.03360636 -0.021393143 0.05536818 -0.08451214 -0.0052159186
0.0082670925 -0.03273464 -0.044416454 -0.048132636 -0.03909273 -0.007850959 -0.028059527 0.07874731
-0.048246104 0.024059026 0.07045384 0.023176126 0.018244263 0.044831827 0.046845324 -0.061011292
-0.07888871 0.062120184 -0.025195189 -0.0051591797 0.04611199 0.038666088 0.01996167 0.07189486
0.049331196 -0.0014785499 0.036978543 -0.024627604 0.0053486344 0.00973198 -0.039015554 0.0023452875
-0.0015419634 0.0635571 0.0062732124 -0.024915135 -0.011800102 0.048531637 -0.112030454 -0.075387746
0.04677296 -0.08226065 0.00086640747 -0.059242923 -0.027207164 -0.017256899 -0.06341737 0.039711203
0.025280464 -0.03729007 -0.0151955215 0.102201484 -0.019132398 0.073333524 -0.03412295 0.08981097
0.04432208 0.030870939 -0.052498598 -0.02535784 0.01062177 0.007372706 0.03023009 0.033032198
-0.0709573 0.048564196 0.0631222 0.0057239467 -0.07923492 0.02656001 -0.045419984 -0.00019517107
0.031978767 -0.06130488 0.11447006 0.07118605 0.027206741 0.05299324 0.1075457 -0.049127053
-0.05908391 0.009127591 -0.014306772 -0.051884376 0.073311776 -0.044398457 0.058333185 -0.07023399
0.020896902 0.07366135 -0.015835319 0.00015774566 -0.06533865 0.088345535 0.01385645 -0.09885529
-0.026277047 0.026366308 0.06099142 0.048898634 0.060855888 -0.052981198 -0.04654771 -0.013064561
0.04406781 0.013945643 -0.068197474 0.0069913254 0.08720643 -0.011399328 0.011974375 -0.00044262482
0.066613086 -0.0031458295 0.0043093646 -0.063047916 -0.07917652 -0.05556279 -0.0557872 0.06297969
0.051891636 -0.0054430766 0.039088055 -0.05396952 0.004692233 -0.079432 -0.04886122 -0.015985316
-0.062520765 0.05707699 -0.08075606 -0.028055362 -0.058465973 0.03754404 0.056861106 -0.024878684
0.006026014 0.042020507 -0.04555863 -0.05359774 -0.03265143 -0.0018127831 0.0760583 -0.05190398
-0.020693053 0.06968743 -0.02384361 -0.033396784 -0.06502194 -0.060147963 0.020717653 0.059513826
-0.014387706 0.03409002 0.05691994 -0.049968418 -0.06136528 0.024502462 0.0009289841 -0.041904453
-0.043650888 0.05234052 -0.03444744 -0.044469517 0.015966197 -0.02739472 -0.016104532 -0.040750246
0.07460194 -0.07759477 0.06951004 0.09354084 -0.08770175 0.014352196 0.04378018 -0.0689903
0.07526169 0.012991093 -0.04110551 0.06310275 -0.06547333 -0.104341485 -0.06512921 -0.080251165
0.018933626 -0.010354695 0.08953381 0.03005654 0.08322553 0.018736713 -0.08005179 0.045359742
0.026433302 0.0474399 0.027294539 -0.046072166 0.04706389 0.032997068 0.026931493 0.03937157
0.09602778 0.07619094 0.062168796 0.039400645 -0.0074166628 -0.077966556 0.049611714 0.0816164
-0.042659536 0.070610836 -0.06287078 -0.03442886 0.0027230324 0.07538158 0.027845604 0.0831593
0.02204998 -0.070184976 -0.0068132877 -0.079742916 -0.073507644 0.044119585 -0.055435598 -0.0030128462
-0.026949182 0.044919662 -0.02006342 -0.062043317 -0.085078895 0.03901788 -0.016906658 0.047669746
0.013617645 0.03541621 -0.036420975 0.014189508 0.014073165 -0.050301455 0.070046425 0.085434794
-0.08037093 0.022863254 -0.0015500821 -0.06347601 -0.047990896 0.086168714 0.030716274 0.007948709

layer2.0.bias f4 [16]
00000000: 7f15 0d3d 5203 aebc 7443 243d cc28 693d
00000010: da63 84bd 4153 14bd fe82 853d f3e1 9a3b
00000020: 346f 81bb 93d9 233d 8528 9bbc d80e a8bd
00000030: bb04 95bc d997 f03c 2a81 993c 4b5a 25bc
0.03444433 -0.021241818 0.04010339 0.056923673 -0.06464358 -0.03621221 0.065191254 0.0047266423
-0.003950024 0.040002417 -0.01894022 -0.08205956 -0.018190732 0.029369282 0.018738348 -0.010092328

layer2.1.weight f4 [16]
00000000: c7b0 813f 8821 833f 8c1a 803f 6739 813f
00000010: d7ae 7c3f 9f13 7d3f 0595 813f f165 813f
00000020: a05b 7d3f 2303 803f 8a79 763f e065 803f
00000030: 3223 7d3f d58a 803f b9b4 7d3f fb8a 813f
1.0132073 1.0244608 1.0008101 1.0095643 0.98704284 0.98858064 1.0123602 1.0109235
0.98967934 1.0000957 0.96279204 1.003109 0.9888183 1.0042368 0.99103886 1.0120538

layer2.1.bias f4 [16]
00000000: 8b85 3bbb 634b 733c 422c 2abc b5d3 cfbb
00000010: 3369 3bbc 8d15 1fbc 0d35 883c c432 27bb
00000020: dde5 6a39 5527 c0bc 7f00 8bbc dfb8 11bc
00000030: f554 4bbc 0df8 63bb 3596 103c ca20 473b
-0.0028613533 0.014849517 -0.010386528 -0.006342376 -0.011438656 -0.009709728 0.01662686 -0.0025512436
0.0002240161 -0.023456255 -0.01696801 -0.008894174 -0.012410392 -0.00347853 0.008824875 0.0030384534

layer3.0.weight f4 [64, 16, 3, 3]
00000000: 92cc 8a3d 6807 513d 88fa 8c3d f0d7 313d
00000010: 088c a0bd 7f4a 5a3d 39dc 06bd 3192 0ebd
00000020: ed74 c8bd 9828 833d 86f0 7cbd d71f ec3c
00000030: 24b4 aa3d c4f9 3b3a 1be5 db3c 21e7 b03d
00000040: 717a ae3d cf03 6cbb 6f8f 833d 8c78 31bd
00000050: 6969 02bd df34 8b3d 0f57 c13c d25d 6dbc
00000060: 82cd e63d 36e1 11bd de6f 39bd 312f d53d
00000070: 16f5 443d bd07 46bd 94e3 dc3c 5030 93bc
00000080: 78b3 6c3d 76a2 72bd 7389 85bd 7815 edbc
00000090: 7c60 9fbd 62bc a63d fdac 9438 e9a5 973d
000000a0: 8739 f2bc 40d8 12bd 33b8 2b3d 7a23 25bd
000000b0: 75d1 8cbc 64fb c1bc 823f fe3c db51 523d
000000c0: 81e4 51bd c63c 91bc 33d7 7bbd 4ab4 0b3d
000000d0: c2de 58bd 1429 e2bb ab19 fd3c a9b5 90bd
000000e0: 3c32 143d 8685 053d 6366 e4bd 8ea4 23bd
000000f0: 59f2 c5bd 8ef1 d8bd 4a52 c33c f0cb 6ebd
00000100: 6c6e 1c3d 303c 343d 3758 50bd 624f 4b3d
00000110: 909f 293d 5943 683d 5811 823d 49f7 bfbc
00000120: 4081 4ebd a797 9c3d ee11 033d 746c 8f3d
00000130: 71bd a93d e564 6ebd 88ad bf3d e2c2 873d
00000140: ef07 c4bb 0ab8 54bd 05f2 433d 8b1a a93c
00000150: ac8f a53d f3b3 bcbc eaf6 a53d 21a1 143d
00000160: 5a26 6e3d c4ae 07bd 89e2 9c3d 1f03 0fbc
00000170: a3be 893d 86d5 073d 8b30 84bd b01e c1bc
00000180: 85c1 a6bd 1994 30bb 1a37 f7bc a985 203d
00000190: f7db bb3d 6319 323d 04ec 6fbd a6ea 8dbd
000001a0: 00ac 27bc f5b7 9a3c bc07 963c 0bf6 f33c
000001b0: 802e 0ebd fccb 7dbc 81d6 493d ebae 4abd
000001c0: 956b c43c 4878 f9bc 918e 02bb 399c 5abb
000001d0: 745f 3fbd 96af 98bd 1029 13bd b778 b43d
000001e0: cec6 6a3d beeb d7bc 30ea 44bd b8b3 863d
000001f0: e649 1fbd 3265 c23c 0e46 75bd 9a1b b8bd
00000200: 5512 aa3c c7f6 4ebd 0ddd a1bd c658 b5bc
00000210: 82fc c33b ba5a 8dbd d90f 91bd d6a8 42bd
00000220: 81e6 6c3d 426b 85bd 5726 fd3c d356 aebc
00000230: 9e2f 103c 155f ce3c 596a d33c fe90 8dbd
00000240: 6ca2 f43c b59b 2d3c 616e 8e3d 9ab3 66bc
00000250: 971f 80bc 667d 64bd 43d7 2f3c b693 963d
00000260: 5134 02bd 165f 203d ae51 8cb8 d087 033c
00000270: 36fc 1b3d ffaf 963d f871 883d 8e0a 133d
00000280: eacb 8abd 7016 e63b 50af 66bb 2d93 88bd
00000290: d8c3 49bd 75fc 9a3d bab5 15bc 7e91 7d3d
000002a0: 5b0e 8abd 067f 2cbd b236 163d 605e 7f3d
000002b0: 5a20 8abb 07f7 9abd 4191 4abd 5d20 723b
000002c0: 1935 8b3d e771 33bd 887e 893d e194 993d
000002d0: 0335 72bd 3853 15bd 8b9f c83a 7297 0fbd
000002e0: 8119 053d 6bd3 933d c939 7b3c e6c5 a33d
000002f0: 0a60 6dbc 0199 ed3c 6723 9d3d b83b 8c3d
00000300: d6b3 a03c f668 5c3d 14ae d23c 9b00 7abc
00000310: 46c0 bbbb 264b d63d 7ad8 c93c d903 a93c
00000320: a42e 9a3d ce0b bebd 6ac2 89bd f007 af3d
00000330: 9af4 c53c a43f c63d 4f3d af3c 1ae4 24bc
00000340: 9608 013b 036e a5bd 7174 343d 6786 323c
00000350: f4c2 b1bd 913b 243d 63b1 c6bc 6f11 f5bc
00000360: 7579 bf3d f6b7 443b 7ec7 e23c 9020 5f3d
00000370: 153f 883a 0853 88bd cd74 41bd 073f ad3b
00000380: b48d c63b ce70 d6bc 22f9 a53c 40e7 acbd
00000390: 48df 6e3b 69ce 313d 2bc0 443d d47d 943c
000003a0: 11c4 24bd 60e8 99bd b9f7 003d 08ea 6dbd
000003b0: 125c 803d 45c4 003b 45fa 973c e280 7dbc
000003c0: bc7a b63c 2162 663d 2ef9 2bbd 0b88 17bd
000003d0: 7726 9a3c ab2b 37bb 5316 15ba eb1b b23d
000003e0: adf7 a9bc c9b8 6d3d cf89 a33d ee7f 62bd
000003f0: 07db 8fbd f55e 993d 9cb4 19bd 4717 05bc
0.067773 0.051032454 0.068837225 0.043418825 -0.07839209 0.0532937 -0.032924864 -0.034807388
-0.09787927 0.06404227 -0.06175282 0.028823776 0.0833514 0.0007170702 0.026842644 0.08637834
0.085194476 -0.0036013012 0.06423842 -0.043327853 -0.03183881 0.06797194 0.023601083 -0.014487701
0.11269666 -0.03561517 -0.0452727 0.10409392 0.048085295 -0.048347224 0.026963986 -0.017967373
0.057788342 -0.059236966 -0.06520357 -0.028940901 -0.07782075 0.081414 7.0894115e-05 0.07404692
-0.029568447 -0.035850763 0.041923713 -0.040317036 -0.01718972 -0.023679443 0.031036142 0.051347595
-0.05124331 -0.017729174 -0.061484527 0.034107484 -0.052946813 -0.0069018696 0.030896029 -0.07065899
0.03618072 0.03259804 -0.11152341 -0.039951853 -0.09665365 -0.10592948 0.02384295 -0.05829996
0.038191244 0.04400271 -0.05086538 0.049636252 0.041411936 0.056704853 0.06350964 -0.023433344
-0.05041623 0.07646113 0.03199952 0.07003108 0.08288086 -0.05820169 0.0935927 0.06628968
-0.005982391 -0.051933326 0.04783823 0.02064254 0.08084044 -0.023035025 0.08103736 0.036286477
0.058142044 -0.033125654 0.07660396 -0.0087287715 0.06725814 0.033162616 -0.06454571 -0.023574203
-0.0814238 -0.0026943742 -0.030177642 0.03918997 0.09172814 0.043481242 -0.05857469 -0.06929521
-0.010233879 0.018886546 0.018314235 0.029780408 -0.034712315 -0.015490528 0.049276832 -0.04948322
0.02397708 -0.030452862 -0.0019921402 -0.0033357276 -0.04672189 -0.07455365 -0.035927832 0.08812087
0.0573185 -0.026357528 -0.0480749 0.065772474 -0.038888834 0.023729894 -0.059881262 -0.089896396
0.020760695 -0.050528314 -0.0790349 -0.022137057 0.005981029 -0.0690207 -0.07083101 -0.047524296
0.057837013 -0.065145984 0.03090207 -0.021281635 0.008800415 0.025191823 0.025807546 -0.06912421
0.029862605 0.0105962055 0.06954647 -0.014080906 -0.015640063 -0.05578365 0.010732475 0.073523924
-0.031788174 0.03915318 -6.690934e-05 0.008027986 0.038082324 0.07357787 0.06662363 0.035898738
-0.06777175 0.0070217177 -0.003519971 -0.066686966 -0.049259037 0.075676836 -0.009137565 0.06190633
-0.06741019 -0.042113326 0.036673255 0.062345862 -0.0042152824 -0.07566648 -0.04945493 0.003694556
0.06797237 -0.043809798 0.06713587 0.074990995 -0.059132587 -0.036456317 0.0015306337 -0.03505654
0.032495026 0.07218059 0.015333601 0.079967305 -0.0144882295 0.029003622 0.07672768 0.06847328
0.019617002 0.053811036 0.025717773 -0.015258933 -0.005729708 0.10463552 0.024639357 0.020631718
0.07528427 -0.09279595 -0.06726535 0.08546436 0.024164487 0.09680107 0.021391539 -0.010064149
0.0019688956 -0.08077624 0.04405636 0.010896302 -0.086797625 0.04009587 -0.024254506 -0.02991554
0.09349338 0.0030016876 0.027683016 0.054474413 0.0010394776 -0.06656462 -0.04723053 0.0052870545
0.006059373 -0.026176836 0.020260397 -0.08442545 0.0036449004 0.04340974 0.04803483 0.018126406
-0.040226046 -0.07515025 0.031486247 -0.058084518 0.06267561 0.0019648236 0.018551955 -0.015472623
0.022275321 0.056245927 -0.041985683 -0.036994975 0.01881717 -0.0027949612 -0.00056872255 0.08696731
-0.020747984 0.058037553 0.07985269 -0.055297785 -0.07024198 0.07488815 -0.03752576 -0.0081232255

layer3.0.bias f4 [64]
00000000: eca9 29bd 7956 9c3d 6f92 5b3d a43f 943d
00000010: 16d3 f0bc 19c2 a53d 0655 0c3d ab62 fc3b
00000020: 660b 143d 4720 b33d 96e6 5d3d 5e18 4bbd
00000030: 1b4a 70bc bf6b 713c 5260 a23d e582 d0bc
00000040: 18cb 16bd 06d0 453d f32c 223d f3a1 e9bc
00000050: bd82 70bb 02c7 063d 904f 54bc 61ef 743d
00000060: 881d 723d 8abd 743d a9e7 063d d202 66bd
00000070: b4af 63bd 6f7c 97bd e220 67bd ad75 963b
00000080: 22c5 dbbc 6e23 0b3d cd95 053d 9cfa a53d
00000090: a732 2e3d e321 d33c e541 d63c 8198 8d3b
000000a0: 9ae0 063d 0c33 ea3b 5555 b13c 420c 15bd
000000b0: 0574 903d cb53 b23d caf5 63bb c561 5abd
000000c0: 6f66 85bd dfdd ab3d 9a39 57bd 191f 22b7
000000d0: 9f35 9bbd 8112 e43c 20a7 8fbd a35a 94bd
000000e0: 49be 933d 21bf 5a3d 657d 2cbd f236 f1bc
000000f0: 5f77 043d 87c0 b6ba cf2d 523d a8fd aa3d
-0.041421816 0.07633681 0.053606447 0.07238701 -0.029397529 0.08093662 0.034260772 0.007702192
0.036143683 0.08746391 0.054174982 -0.049583785 -0.014666106 0.014735161 0.07928528 -0.02545304
-0.03681478 0.04829409 0.03959365 -0.028519606 -0.003669902 0.032904632 -0.012958422 0.059798602
0.059110194 0.05975107 0.032935772 -0.056155033 -0.055587485 -0.07396781 -0.056427844 0.0045916648
-0.026827399 0.033969335 0.032613564 0.081044406 0.042528775 0.025772994 0.026154468 0.0043211584
0.03292904 0.0071471985 0.021647135 -0.036388643 0.07053379 0.087073885 -0.0034783953 -0.053315897
-0.06513678 0.08391928 -0.052545168 -9.663193e-06 -0.07578587 0.027840855 -0.070142984 -0.0724385
0.072140284 0.05340493 -0.042111773 -0.029445145 0.032340404 -0.0013942876 0.051313218 0.08349162

layer3.1.weight f4 [64]
00000000: 15a0 813f 7937 803f 9f25 7c3f 0f02 803f
00000010: 1169 803f f018 813f c8a8 7f3f 053a 7f3f
00000020: 3529 7d3f 2953 7e3f 2d38 7e3f 53c8 773f
00000030: 7737 803f 3379 813f acab 813f 564a 803f
00000040: 4a17 813f 4f37 7e3f c59c 803f f7f8 823f
00000050: 61ba 7f3f 69ea 803f bc7b 823f 07e8 813f
00000060: 966f 7c3f b842 7f3f d981 7f3f cc9f 7e3f
00000070: 89f9 7e3f dc52 743f 4357 7e3f cf59 7d3f
00000080: 7f3b 7b3f 67c7 7f3f 05b5 7b3f 6bb2 7e3f
00000090: 0bfa 813f 937d 7a3f 5fcb 803f 3e22 813f
000000a0: 992d 813f 8de2 833f 066a 823f 7c9d 7c3f
000000b0: 735b 803f e395 813f b7e6 7e3f e5d3 813f
000000c0: 31e3 7f3f 6e7e 823f b186 783f e2eb 7e3f
000000d0: 4a3f 7f3f b788 833f ece7 7c3f faaf 833f
000000e0: 1f0e 803f 230d 7c3f 49db 803f f9c4 793f
000000f0: 8853 813f a3de 783f 3c76 803f 6197 7f3f
1.0126978 1.0016929 0.98494905 1.0000628 1.0032064 1.0085735 0.99866915 0.99697906
0.98891 0.9934564 0.9930447 0.96790045 1.0016927 1.0115112 1.0130515 1.0022686
1.0085232 0.99303144 1.0047842 1.0232228 0.99893767 1.0071536 1.0194011 1.0148934
0.98607767 0.9971118 0.99807507 0.9946258 0.9959951 0.95438933 0.993519 0.9896516
0.9813766 0.9991364 0.9832309 0.99490994 1.0154432 0.9784786 1.0062064 1.0088575
1.009204 1.0303513 1.0188606 0.986778 1.0027908 1.0123867 0.9957079 1.014279
0.9995604 1.0194833 0.9708052 0.9957868 0.99705946 1.0276097 0.98791385 1.0288079
1.000431 0.98457545 1.006692 0.9756618 1.0103617 0.97214717 1.0036082 0.9984036

layer3.1.bias f4 [64]
00000000: 0340 6ebb b4ae 30bb f065 aabc 9cf4 21bc
00000010: c390 41bc ded2 e43a 9091 8dbc fb92 c0bc
00000020: 1332 02bd 4f53 2ebd bb09 a4bc 523d 00bd
00000030: 5b90 98bb 40e7 5dbc 972b e03b 2099 88bb
00000040: cf88 e63b c957 73bc 1433 a93a db39 9e3b
00000050: ff35 80b9 7376 9239 f474 58bb cd26 20bb
00000060: ad3b 623b 3744 76bc b78b 84bb c5ca f9bb
00000070: d81a a83a c476 12bd 7e17 8fbb 51c0 b6bb
00000080: aa7b f7bc f126 40bb 5444 18bd 5045 6bbb
00000090: dd3e 9abc 0417 a9bc 17e0 a539 0d83 6bbc
000000a0: 1470 233c 50d3 2b3c a06b 45bb e7ef 023b
000000b0: 802a b4bb 47b5 24bc f4db 3bbc 147c 51bc
000000c0: 2523 41bb 4cf2 ef3a 0d3b 60bc 4e3c 41bc
000000d0: 6e7a 3b3b 769f b03c 7d80 283c 1635 123c
000000e0: 8968 6cbc 9326 1abc 97c7 473b 6176 94bc
000000f0: 8ffa bdb8 f033 86bc e75f 2abc f69e 19bb
-0.0036354072 -0.00269596 -0.02080056 -0.00988498 -0.011814299 0.0017457863 -0.017281324 -0.023507586
-0.031786036 -0.042559918 -0.020024171 -0.03130848 -0.0046558804 -0.013543904 0.006841134 -0.0041686445
0.007035352 -0.014852473 0.0012908899 0.0048286743 -0.00024454293 0.00027935542 -0.0033028694 -0.002443719
0.0034520433 -0.015030912 -0.0040449756 -0.007623049 0.0012825383 -0.035757795 -0.004366814 -0.005577125
-0.030210335 -0.0029320086 -0.037174538 -0.0035899468 -0.018828804 -0.020640858 0.00031638212 -0.014374507
0.009975452 0.010487393 -0.0030123964 0.0019979419 -0.0054982305 -0.0100529855 -0.011466015 -0.01278593
-0.002947041 0.0018306463 -0.013685954 -0.011794163 0.002860691 0.021560412 0.01028454 0.0089237895
-0.01442922 -0.009408611 0.0030483955 -0.018122854 -9.0588925e-05 -0.016382188 -0.010398841 -0.0023440695

layer4.0.weight f4 [64, 64, 3, 3]
00000000: 2ede 02bd 63cb 13bc 24a6 a3bc 2472 cd3b
00000010: f2a0 0a3d 3fa1 783c 1e90 663c 8e0b 133d
00000020: 0dc0 513c 93b8 a0bb 3f3b 93bc 09d0 0abd
00000030: 2d4d 7ebb 2862 08bd 5807 9bbc c6ca f5bc
00000040: a5ff 86bc 04e1 ffbb ac39 24bd e0f2 adbc
00000050: 3922 513a 7d6f 393d 9e2c a7bc 9aab e13c
00000060: 1f27 a13c 8971 0d3d 6edd 5e3b c98b febc
00000070: b531 28bd 024a fd3c ffe6 843b 3753 9e3c
00000080: a155 a7bb 51b9 53bd 2825 e63c 9e6e 4f3c
00000090: 88eb c43c b2a1 f13b e11e 2cbd 43d0 d53b
000000a0: fe63 023d 2bde e1bc 6b36 aebb 7367 223d
000000b0: 0f73 02bc 9000 d6bc d62e ed3c e25a ca3c
000000c0: 98ce 74bd 148f 493c 98e2 f43c 9ad3 08bd
000000d0: 6c75 4937 5d80 9b3c 7b88 42bc ca85 833d
000000e0: 2a7d 923d 58de ab3c 41b4 87bc 1eac 043d
000000f0: e137 08bd 4469 47bd ddd5 973c b6be 1abd
00000100: 926c dfbc 8eb9 c33c 9d40 eb3c 5135 163d
00000110: c532 173c 4fcc c5bc e2a8 c43c 1ae7 9b3c
00000120: 2edb f13b 7e99 8b3b 030e 583c ed73 4c3b
00000130: eab3 0dbd e879 20bd 3631 bb3c b3ff 38bd
00000140: 9244 1abd cc8a 8b3b 31bf 0d3a 254f f5bc
00000150: 832b 78bb 32e7 4cbd 1f1f 143c 3db6 343d
00000160: 7a84 c1bc 503a 193d b0a9 2a3c 819f 863c
00000170: 212b 3f3c 25e2 b1bc 38e4 fb3c 9c51 9f3c
00000180: 5848 6bbd fba6 d3bc a628 183d 070b 8bbb
00000190: e6bf 883c 95c8 6b3c 42fa 353a 6291 8c3c
000001a0: b4ef eb3c 7f8f 363c 6315 d9bc f615 063d
000001b0: 31f0 36bb fa51 a4bc 4b5c 3c3b 05e7 8d3c
000001c0: bf70 ae3b cd86 f4bc 334e efbc 8986 483c
000001d0: 7498 16bc fd38 a33a f01d 6dbd 4ce3 3abc
000001e0: 2bd3 12bc dab6 28bd cd91 893c b984 85bd
000001f0: f777 02bd c35e e63b fc2f 76bb 251d 0f3d
00000200: 029c 0abc 472e 073d 43cb d63c 6098 773c
00000210: d445 f3bc aaa2 a4bc f68c 3f3d db2b 123d
00000220: 3816 fd3c 73df 98bc fe0f 1f3d d5a3 323d
00000230: fbe8 283d 33ed 933d 9d3a a23d e81d 2f3d
00000240: c35f 12bd e51b 123d 9692 e0bc a422 8abd
00000250: 8432 a1bc 2b4e 1bbc 7146 e2bc dc0c f1bc
00000260: 2aa6 9abc f16d a9ba 99de 1fbd 9dd0 a5bc
00000270: f816 c63c 3485 bc3c 8155 093d fc5b 26bb
00000280: 4d34 acbc 8a1d e1bb a23a c03b 4085 95bc
00000290: 20bf 753d 9477 d23b 8e6f 9d3c 935b b73c
000002a0: eacd 4c3c f3d2 ccbc 47aa 883d 40d9 803d
000002b0: 6cfd 08bc 58e8 e33b 4a2f 803c e0f3 773b
000002c0: 04e1 873d d130 373d bad9 efbc ad91 72bc
000002d0: b7d8 8c3b bdbd d8bc 1340 56bd 3b5a 9c3c
000002e0: 60e9 9f3c 3720 16bd ffa7 05bd 2bf8 aabc
000002f0: a507 34bd 38bb 16bd cf43 f1bb 836d 6ebd
00000300: 7479 1ebd 2272 81bc a271 45bc 1756 adbc
00000310: 5990 9bbc c625 863b 64b7 7e3c 4b9e ca3a
00000320: 2d7e b63c cff1 f1bc f146 f2bc 5389 333c
00000330: f6ab c63c 3b1d c3bb 2710 02bd 36f0 593c
00000340: 2c36 2c3d 1e01 5a3b 7354 50bc 30af b63b
00000350: 8f9d 9eb9 3aee 133d cce4 263d a810 d33c
00000360: 3f93 6d3b bcd3 6cbc d341 aebb 1c40 003c
00000370: b67a ea3c e63b 3abc 5697 96bb e3f3 3bbd
00000380: 4f01 eabc e794 6b3d f990 a2bc 2f21 2dbd
00000390: 505e 4d3d a262 1e3d 20a6 143d b88b 2a3c
000003a0: 7e98 253d e118 193d e65f bf3c 1ea1 bdbc
000003b0: 14ef 853a 64fb 17bd 790c 783c 6b8b 05bc
000003c0: 642c 97bc 0e3e 083d f371 c9bc 234a 183d
000003d0: 1c39 d93c 4033 2c3d 916e c5bb 290b d83c
000003e0: 4277 edbc 82b1 8ebb b6b5 203d 4628 713d
000003f0: 4dde 2a3d ad24 10bc 7985 89bc a4f9 153c
-0.03195017 -0.009020659 -0.019976683 0.00626971 0.033844896 0.015175163 0.014072446 0.03589969
0.012802136 -0.0049048155 -0.017972587 -0.033889804 -0.0038803325 -0.033296734 -0.0189244 -0.030003916
-0.016479323 -0.0078088064 -0.040094063 -0.021233976 0.0007977817 0.04527234 -0.020407017 0.027547646
0.019671975 0.034532104 0.0034006494 -0.031072514 -0.04106303 0.030919079 0.004055857 0.01932679
-0.0051066433 -0.051690403 0.02809389 0.012660651 0.024038091 0.007374012 -0.042021636 0.006525071
0.03183364 -0.027571758 -0.0053165457 0.039649438 -0.007962002 -0.026123315 0.028952997 0.02470154
-0.059767336 0.012302179 0.029893205 -0.033404924 1.2007873e-05 0.018982107 -0.01187336 0.064220026
0.071527794 0.020980045 -0.016565444 0.032390706 -0.033256415 -0.048684373 0.018534595 -0.037779532
-0.02727345 0.02389219 0.028717333 0.03667194 0.009228413 -0.024145273 0.02400631 0.019031096
0.0073808646 0.004260241 0.013186934 0.0031197027 -0.034595408 -0.03917876 0.022850614 -0.04516573
-0.03766305 0.0042584892 0.0005407213 -0.029944966 -0.0037867732 -0.050025173 0.009040623 0.04411911
-0.02362274 0.037409127 0.010416433 0.01643348 0.011667998 -0.02171428 0.030748472 0.019448094
-0.05744204 -0.025836458 0.03714814 -0.004243258 0.016693067 0.014391084 0.00069418934 0.017159168
0.028800823 0.011142611 -0.026499456 0.032735787 -0.0027914161 -0.02005862 0.0028741534 0.017322073
0.005323499 -0.029849434 -0.029212093 0.012239107 -0.009191621 0.0012452897 -0.05788988 -0.011406731
-0.008961479 -0.041190006 0.016793156 -0.065194555 -0.03185269 0.0070303394 -0.0037565222 0.034939904
-0.008460047 0.033003118 0.02621997 0.015112013 -0.029696383 -0.020097096 0.04676529 0.035686355
0.030894384 -0.018661236 0.03883361 0.043613274 0.041237812 0.072229765 0.07921336 0.04275313
-0.035735857 0.035671134 -0.027413648 -0.067448884 -0.019677408 -0.009479086 -0.02762148 -0.029425077
-0.018878061 -0.0012926442 -0.039030645 -0.020241076 0.024180874 0.023012735 0.03352881 -0.0025384417
-0.021021033 -0.0068699764 0.0058663646 -0.018252015 0.059996724 0.006422946 0.019218232 0.022382533
0.012500266 -0.025002932 0.06673103 0.06291437 -0.008361202 0.006955188 0.01564755 0.003783457
0.06634715 0.04472429 -0.029278625 -0.01480524 0.0042982954 -0.026457662 -0.0523072 0.019085994
0.019520462 -0.036651816 -0.032630917 -0.020870289 -0.043952603 -0.03679964 -0.0073628197 -0.058209907
-0.038690045 -0.015801493 -0.012051018 -0.021159215 -0.018989729 0.0040938584 0.015546653 0.0015458552
0.022276962 -0.029534249 -0.029574843 0.010958034 0.02425192 -0.0059544123 -0.031753685 0.0133019
0.04204385 0.0033264826 -0.012715447 0.005575083 -0.000302535 0.036115862 0.04074554 0.025764778
0.0036251096 -0.014454778 -0.0053179055 0.007827785 0.028622966 -0.01136682 -0.0045956774 -0.045886885
-0.028565077 0.05751505 -0.019844519 -0.042267974 0.05013877 0.038668282 0.03629124 0.010409288
0.04042863 0.037377242 0.023361158 -0.023148116 0.0010218346 -0.03710498 0.015139692 -0.008150916
-0.018453784 0.033262305 -0.024590468 0.037180077 0.02651649 0.042041063 -0.0060251434 0.02637251
-0.02898753 -0.0043546567 0.039235793 0.0588763 0.04171591 -0.008797807 -0.016787278 0.009153757

layer4.0.bias f4 [64]
00000000: 5a48 033d d6bc 323d 15e6 30bd b008 c33c
00000010: 95e0 49bc da4b f2bb 20c8 8cbc 1704 143c
00000020: b603 c73c e0e3 853c d64e a83c 3a92 893a
00000030: 248d 7bbc 438d b9bc bccd 2cbd 3ea7 ba3c
00000040: 15b4 2bbc 758a dbba ca0c ffbc b0fe 1a3b
00000050: 553a 0fbc eab8 b33b b624 1d3d 8cda 37bd
00000060: d84b 123d 6c30 1e3c 7807 df3b 96d2 923c
00000070: 7efa ef3b 3b64 0dbd f5bf 84bc fa1e 313d
00000080: f0a8 103c 6dae 273a d3bb cf3c 1318 313d
00000090: 5718 c6bb 40b5 1bbd 4d1c 893c f3f5 98bc
000000a0: 8a9e b5bb c353 43bc 9f84 153d dcfc 95bc
000000b0: 6fba 223c 9bc9 293b 31bf cbbc 356c 0f3c
000000c0: 1de5 1b3d 751a fc3c c420 233d c806 c73c
000000d0: 183c 90bc ab16 35bc 0017 07bb 8561 713c
000000e0: fb35 06bd 3dd4 77bc 853c c83b efbd 13bd
000000f0: 81f7 ff3c 1e7b c7bc e4a7 483b 614d 44bd
0.03205142 0.04363712 -0.043188173 0.023807853 -0.012321611 -0.007394296 -0.01718527 0.009034178
0.024293762 0.01634401 0.020545404 0.001049585 -0.015353475 -0.022650367 -0.04218839 0.022784825
-0.010479947 -0.0016749637 -0.031134028 0.002365034 -0.008741935 0.00548469 0.03836509 -0.044886157
0.03571686 0.009655099 0.0068063103 0.01792268 0.007323562 -0.034519415 -0.016204813 0.043242432
0.00882934 0.0006396536 0.025358116 0.04323585 -0.006045382 -0.03801465 0.016737128 -0.018671965
-0.005542581 -0.011921826 0.03650343 -0.01830905 0.009932145 0.002590752 -0.02487144 0.008753826
0.038060296 0.030774334 0.03982617 0.024295226 -0.01760678 -0.011052768 -0.0020613074 0.014732723
-0.032766324 -0.015126285 0.00611073 -0.036069807 0.031245949 -0.024350699 0.0030617649 -0.047925357

layer4.1.weight f4 [64]
00000000: fd2c 7b3f 28b5 7e3f 34f0 753f c973 823f
00000010: 2ae2 7f3f 0717 803f b9df 833f 884e 803f
00000020: 0d12 7d3f 1b63 823f cdbb 7e3f f057 823f
00000030: e75d 803f e9de 7b3f a790 793f 4a91 7d3f
00000040: 25b4 7e3f 56a6 833f 1e31 7b3f 2d68 803f
00000050: ee98 853f f61b 823f f213 803f cfc6 823f
00000060: 9fd8 803f 0128 7d3f f7d1 7d3f 8575 813f
00000070: f065 803f d500 7e3f 18aa 833f 9017 803f
00000080: 8496 7f3f cd2c 7f3f fe12 7e3f 51e4 803f
00000090: 2ecd 813f e09e 7c3f d266 823f fec7 803f
000000a0: 0f94 7f3f 2734 7b3f 879b 7d3f 2f37 803f
000000b0: a5c3 7a3f 405e 813f dcff 7e3f 1b4f 803f
000000c0: c217 813f fe1a 803f 3946 823f 9b0f 803f
000000d0: 4d37 7e3f a460 7e3f 9cc5 803f 965d 813f
000000e0: e6d0 7b3f fcd4 7f3f 0fa5 7c3f 0733 7a3f
000000f0: 433d 7c3f d5ea 803f e59b 7c3f a395 803f
0.9811552 0.9949517 0.96069646 1.0191585 0.99954474 1.0007027 1.030265 1.0023966
0.9885567 1.0186495 0.9950531 1.0183086 1.0028657 0.9838701 0.97486347 0.9904982
0.9949363 1.0285137 0.9812182 1.0031792 1.0437295 1.0164783 1.0006087 1.0216922
1.0066108 0.98889166 0.99148506 1.0113989 1.0031109 0.9922002 1.0286283 1.0007191
0.99839044 0.99677736 0.9924773 1.0069677 1.0140741 0.98679924 1.0187628 1.0061033
0.99835294 0.98126453 0.9906544 1.0016841 0.9795478 1.0106888 0.9960916 1.0024141
1.0085375 1.0008237 1.017768 1.0004762 0.9930313 0.9936621 1.0060306 1.0106685
0.9836563 0.99934363 0.9868936 0.9773411 0.9853098 1.0071665 0.98675376 1.0045666

layer4.1.bias f4 [64]
00000000: bab6 c1bc 8ca1 b2bc 4c83 13bd 3ec2 91bc
00000010: d8aa c0bb a261 913b 640a c3ba ad63 253b
00000020: a7c3 99bc 746b 3ebc 20b0 8eb8 ddcc 2a3c
00000030: e3ea ccbc 72e4 a3bb 9622 4dbd 838e 3c3b
00000040: 4a70 fabb a9e5 763b 589e aebc 8ded 87bb
00000050: 15e1 07bb da4b a93b d72d 253c aa88 aeba
00000060: ff0a b83a 987e a2bb bda4 1ebb 25b4 c93b
00000070: 6be7 043c 7e25 0ebc 8123 0bbc bb39 503b
00000080: 91df 36bc 51e6 c7bc 7128 66bc 613f ffbb
00000090: 38ea 6b3b 23f7 88bc 0e16 d93a b642 b53c
000000a0: a1eb 88bc 08c9 5abc 2755 17ba aaeb 3abc
000000b0: 1077 22ba c719 febb ed71 a2bb 3b49 373c
000000c0: 3536 863c b840 67bc 883b 46bb bdbd 32bb
000000d0: bc66 54bc f9ca cfbc b42f d6bb 6742 de3b
000000e0: 5c8f c63b 9fda 35bc c9f2 b7bc 60ea afbb
000000f0: b96e 84bc f016 833b d664 17bc cb89 4b3c
-0.023646701 -0.021805547 -0.036013886 -0.017792817 -0.005879741 0.0044366876 -0.0014880416 0.0025236413
-0.018770052 -0.0116222985 -6.8038935e-05 0.01042482 -0.025014346 -0.005001598 -0.05008181 0.0028771467
-0.0076427804 0.003767351 -0.021315739 -0.0041481913 -0.0020733525 0.005166513 0.01008173 -0.0013315876
0.0014041363 -0.004958939 -0.0024207078 0.006155508 0.008111815 -0.008675931 -0.0084923515 0.0031772691
-0.011161701 -0.024401816 -0.014047728 -0.007789538 0.003599776 -0.016719406 0.0016562359 0.022126537
-0.01671392 -0.013353594 -0.00057728816 -0.011408726 -0.0006197551 -0.0077545377 -0.0049574287 0.011186893
0.01638327 -0.014114551 -0.0030247886 -0.0027273737 -0.012963947 -0.02536534 -0.0065364484 0.006782818
0.0060595702 -0.011099487 -0.022454636 -0.005368516 -0.016166078 0.004000537 -0.00924035 0.012422989

layer5.0.weight f4 [64, 64, 3, 3]
00000000: 6c0b 9fbc 7621 103d fd8c 81bc 1db6 a13c
00000010: a50d 393d da36 453c bec7 283d 5109 7c3b
00000020: 33af d13c 0790 c83c 976b dfbc b737 403c
00000030: 7ac6 edbc d8ff f83c 3960 10bc e64b 82bc
00000040: 3722 9bbc e51a 0bbd 8cbe 10bd b1a4 953c
00000050: 3cfc c7bc f6e5 17bd 6144 c7bc 88f4 3fbb
00000060: 6e92 ea3c beb8 ac3c 1a60 273d 6416 873c
00000070: 2011 77bc fbea 583a 40fa 2a3c 8fce 25bc
00000080: a92b cabc 02bf 0fbb 486c 923c bc23 65bd
00000090: ec70 22bd f23a 07bc b998 7abb 85ed 51ba
000000a0: 59b6 a3bc 212c f93a 4612 5fbd 774e b9bc
000000b0: 1c09 ce3c fb17 9f3b a3d4 1e3d deea 6bbc
000000c0: 9a9e e73c 9de6 0c3d a3d7 123d 7c41 513d
000000d0: c6e0 00bd f688 a53c a5ac 0f3d 87e7 86bc
000000e0: 6a17 82bd 565d 3f3d b1d5 00bd ed5e 3ebd
000000f0: 622c 203d 899c 093d a362 07bc c528 08bd
00000100: c221 c0bc edb1 843d 959c 86bd 9efd 363d
00000110: 33ce ab3c d155 02bd 6857 21bd 88c2 f23c
00000120: 7529 133c 27f6 5abc d3bf 88bc f9d2 9d3c
00000130: 5963 a23c 7614 813b fab6 ccbc c830 bc3b
00000140: 931c 79bc e311 5c3c 0b55 4bbd 7c2f 06bd
00000150: bcdd 12bd 03ac 203c d601 373b 5e8c b8bc
00000160: 26aa 2abd a1e8 b73b 9f9b 9a3c 04d8 4d3b
00000170: bc19 213d c183 4dbc 1f04 c5bc b35b 95bc
00000180: 5b51 7bbd 6823 3fbd 4761 44bd 19f9 8bbd
00000190: a70c 6dbc b924 8cbc 882b 47bb 71af 2a3d
000001a0: b906 24bd 5339 173d b86f 013d 0b54 29bd
000001b0: 0d7d 573c 794f d03c e67b 613d fe6a 473b
000001c0: b6cb c5bc 8ef8 c13c 3849 373d a3d9 da3c
000001d0: a0df 4bbb 701c 183d b1f9 603c d195 a53c
000001e0: f30d 1a3d e00b fe3c cf47 b3bb cc4d 953c
000001f0: 44b4 edbc 5858 273c 7b17 20bd cfb4 20bd
00000200: 5cd6 c1bc ff24 14bd 983c 0fbd 4ed8 84bc
00000210: 9149 063d 63d4 283d ffc0 06bb d4f4 9f3c
00000220: dc6e 3b3d 96a8 cbbc 4307 8e3d cc63 1dbd
00000230: 76e9 803d 9feb 463d 2943 7dbb dd66 d33c
00000240: aa7b 43bd c7c2 453c 5527 dabb 3c50 aa3b
00000250: ba1e 733d c779 1cbc 8a2b 353d e438 663c
00000260: a473 273d f54b b23d 35b7 343d 2144 26bd
00000270: b266 f23c 7c35 863d aad8 1cbd 35ea 99ba
00000280: f346 ca3c 228c 683c a559 413d a249 103d
00000290: 659a fcbb 7803 08bd 75e2 013c c187 213d
000002a0: beaa 433d b1e3 293d e1bf ea3a 6b12 ec3c
000002b0: cdfb 2c3c 8b0e 8a3b bbe3 163d 39ce 103c
000002c0: 0907 4b3a b6df 48bb 1e9c 093d 5dce 16bd
000002d0: bf2a 863c 6bec f9bb cf8b de3c 2ff2 79bc
000002e0: 0e90 e3bc 277f 0dbc ca82 8a3b 87a2 a53c
000002f0: b96d 99bc 2064 24bb d637 a33c 8aff 0b3d
00000300: 1f7b 063b ae22 0abd aa6a 3cbd 69d6 5cbb
00000310: c7c6 703c 6131 36bd d62c 0dbd 3369 75bc
00000320: f939 a6bc 529b 1d3d 20b5 8f3c 5032 083c
00000330: a19b cabb 0652 85bc 712a 2f3c 3a81 20bd
00000340: a0e6 9cbc 1967 053c 6d11 593d 21bc 0fbd
00000350: 367c 0fbd 560a d13d 4652 e2bc d5bf 05bd
00000360: d94c 61bd f838 33bc 8470 1cbb 7bac 1e3d
00000370: e5a8 e1bc 66f3 1f3c b1eb 703c db4d 103d
00000380: 3d8b 013d b094 06bd a290 d3bc 6708 1ebd
00000390: 0d89 be3c 9df7 1dbd 9dc3 eebc 1728 ed3a
000003a0: 110e a4bc d18f 17bc c1e2 b73c 4650 7fbd
000003b0: 22e3 ebbc 26f6 aa3c 56ab dfbc 0a36 25bd
000003c0: e634 883c ad2f 6f3c 5d1a 96bb 88b2 81bc
000003d0: dae4 63bd 1b15 64bd f780 d4bc 6988 cf3c
000003e0: 535f adbd a486 0f3d c40a 50bd 7ad8 48bc
000003f0: 0caf f8bc bfd0 723c 062f 33bd bcb6 11bd
-0.019414626 0.03518816 -0.015814299 0.019740159 0.045179028 0.012037003 0.041206114 0.0038457701
0.025596237 0.02448274 -0.027272983 0.011732033 -0.029025305 0.030395433 -0.008812004 -0.015905332
-0.018937213 -0.033961195 -0.03533797 0.018267008 -0.024412267 -0.037084542 -0.024324598 -0.002929004
0.028634276 0.021084186 0.040863134 0.016490169 -0.0150797665 0.0008274761 0.010435641 -0.010120048
-0.024679022 -0.0021933918 0.017873898 -0.055942282 -0.039658472 -0.0082538 -0.0038238002 -0.00080081105
-0.019984411 0.0019010344 -0.054460786 -0.022620423 0.025150828 0.0048551536 0.038777005 -0.014399258
0.02827387 0.034399617 0.03585018 0.05108784 -0.03146436 0.02020691 0.035076756 -0.016467823
-0.06352122 0.04671987 -0.031453792 -0.046477247 0.039104827 0.03359655 -0.008263263 -0.033242006
-0.023453597 0.06479249 -0.065728344 0.044675462 0.020972347 -0.031820122 -0.039389998 0.029633775
0.008982052 -0.013364351 -0.016693031 0.019265639 0.019822763 0.0039392067 -0.024989594 0.00574312
-0.0152045665 0.013431999 -0.04964165 -0.03276013 -0.035855994 0.009806636 0.0027924678 -0.02252787
-0.041666172 0.0056124483 0.018873034 0.0031409273 0.039331183 -0.01254362 -0.024049817 -0.018232202
-0.061356883 -0.046664625 -0.047944333 -0.06834621 -0.014468349 -0.017107354 -0.0030390937 0.04167122
-0.040045474 0.036919903 0.031600684 -0.041339915 0.013152373 0.02542852 0.0550498 0.0030428763
-0.024144989 0.02367809 0.04474756 0.026715105 -0.0031108633 0.037136495 0.013731406 0.02021304
0.03761096 0.031011522 -0.0054712067 0.018225573 -0.029016621 0.010213934 -0.039084893 -0.039234933
-0.023661785 -0.036168095 -0.034969896 -0.016216423 0.032785002 0.041218173 -0.0020561812 0.019525923
0.04576002 -0.024860661 0.06934979 -0.03842525 0.06294529 0.04856455 -0.0038644767 0.025805885
-0.047725357 0.012070364 -0.006657521 0.005197553 0.059355475 -0.009550518 0.044230975 0.01405165
0.040881768 0.08705894 0.044120032 -0.040592317 0.029589985 0.0655317 -0.038292564 -0.0011742773
0.024692034 0.0141935665 0.047204632 0.03522647 -0.007708835 -0.033206433 0.007927527 0.039436106
0.047770254 0.04147691 0.0017909968 0.028817376 0.010558081 0.0042131594 0.036838274 0.00883823
0.0007744884 -0.003065092 0.03359615 -0.036817897 0.016377805 -0.00762706 0.027166275 -0.015255495
-0.027778652 -0.0086362725 0.004227017 0.0202191 -0.018729078 -0.0025084093 0.019924086 0.034179248
0.0020520163 -0.03372448 -0.04600016 -0.0033697134 0.01469583 -0.044480685 -0.034466587 -0.014978695
-0.020291315 0.038478203 0.017542422 0.008312777 -0.006183103 -0.016274463 0.010691271 -0.03918574
-0.01915294 0.008142256 0.052995134 -0.035091523 -0.035030566 0.102070495 -0.027627122 -0.03265365
-0.05500493 -0.010938875 -0.0023870775 0.03873871 -0.027546356 0.009762621 0.014704631 0.0352305
0.03162693 -0.032856643 -0.025825802 -0.03858223 0.02325871 -0.03856622 -0.02914601 0.0018093613
-0.020026239 -0.009250597 0.022446992 -0.062332414 -0.028794829 0.020869326 -0.027303379 -0.04033474
0.016626786 0.014598769 -0.0045807795 -0.0158322 -0.05563817 -0.05568419 -0.025940401 0.0253336
-0.08465447 0.035040513 -0.050791517 -0.012258643 -0.030356906 0.014820277 -0.043746017 -0.03557466

layer5.0.bias f4 [64]
00000000: 62c3 ddbc e3bc 003d 1cda 793c f7b3 143d
00000010: f182 10bc 748f 393b d2ae b9bc dd90 f4bb
00000020: 7759 23bb eabc 0d3d 27f0 f1bb c9fa e4bc
00000030: 4add 85bc c733 1b3c 0875 db3c 09fb 9d3c
00000040: 0ed6 00bd b286 1bbc 657f 893b c381 0ebc
00000050: 29fc 58bc 18ed 203d c560 01bd 8fc2 14bd
00000060: d9b0 3e3b a73b 25bd 91c4 103d 5a2b bb3c
00000070: 7f55 de3b 450d a8bc e694 d53c 3993 2b3d
00000080: b281 8e3c 29f9 22bd 898b f53a 8995 073c
00000090: c104 2b3d c695 77bc f11a 1cbd cec5 9abc
000000a0: d08b acbc 224b 8db9 b210 223d 2611 2abd
000000b0: 9d34 f9bc 0a53 e73c 916e 903c 7a41 e5bc
000000c0: 54da 1dbd cc91 433d 5dd9 9e3c 5e16 a23c
000000d0: 9b7b 36bc e514 c93c f9f3 9ebc 9eb4 1b3d
000000e0: bfaf fa3c a58a e0bb a815 f93c 4168 abbc
000000f0: 0a81 87bc 4718 4d3c d485 013d 74bc c2bc
-0.027070705 0.031430136 0.015249755 0.03630444 -0.008820281 0.0028314264 -0.022666369 -0.007463558
-0.0024925151 0.03460399 -0.0073833647 -0.027951615 -0.01634087 0.009472794 0.026789203 0.019284742
-0.03145414 -0.009492563 0.004196095 -0.00869793 -0.013243713 0.03928861 -0.031586427 -0.036318358
0.0029097109 -0.040340092 0.03534371 0.02284782 0.0067850943 -0.02051414 0.026071977 0.04188845
0.017395828 -0.0397884 0.0018733601 0.008275398 0.04175258 -0.015111392 -0.03811163 -0.018893149
-0.021062762 -0.00026949594 0.039566703 -0.04152026 -0.030420596 0.028237838 0.017630847 -0.027985323
-0.038538292 0.047746465 0.019390756 0.019786056 -0.011137868 0.024546096 -0.019403445 0.038014047
0.03060138 -0.006852465 0.030405834 -0.020923736 -0.016541023 0.012517995 0.03162177 -0.023771502

layer5.1.weight f4 [64]
00000000: 47b9 7e3f ea31 7d3f c095 7a3f 34c7 7e3f
00000010: 5cfd 7b3f 4058 823f 0733 853f f0f2 7e3f
00000020: 94c3 833f b0f6 823f e946 823f 1b36 7a3f
00000030: 9005 7e3f 2b7c 7e3f 78c2 7e3f 1f52 803f
00000040: 0090 803f 2690 7c3f 8a5d 813f 9280 7c3f
00000050: 8db6 763f fa95 823f e234 7b3f 7f79 803f
00000060: 0683 823f 01a2 803f 0332 7f3f 3152 833f
00000070: 827a 803f 28b2 7c3f 8a1a 843f 969a 843f
00000080: 2177 853f 3028 803f 71c5 843f 15c6 7e3f
00000090: 5d77 7f3f 04eb 7f3f 9d49 793f 2b45 813f
000000a0: 6fc9 7c3f 6d53 843f be42 803f a37c 823f
000000b0: c851 793f f53e 793f 7c37 813f 4cb7 813f
000000c0: ea35 803f 92aa 803f 4fa6 823f f1b5 813f
000000d0: 0c30 7f3f 191e 7f3f 2823 813f 8a70 803f
000000e0: 64c4 7f3f 65c4 7f3f fee8 7f3f e7ce 823f
000000f0: ec41 833f 01c8 833f 865e 813f 3e5b 873f
0.9950146 0.9890429 0.9788475 0.9952271 0.9843347 1.0183182 1.0406197 0.99589443
1.0294061 1.0231533 1.017789 0.9773881 0.9922724 0.99408215 0.99515486 1.0025061
1.0043945 0.98657453 1.0106671 0.9863368 0.963723 1.0202019 0.9812757 1.0037078
1.0196235 1.004944 0.99685687 1.0259458 1.0037386 0.98709345 1.0320599 1.0359676
1.042698 1.0012264 1.0372754 0.99521 0.9979151 0.9996798 0.9737795 1.0099233
0.98744863 1.033796 1.0020368 1.0194286 0.97390413 0.9736169 1.0095057 1.0134063
1.0016453 1.0052054 1.0207003 1.0133649 0.9968269 0.996553 1.0088854 1.0034344
0.99909043 0.9990905 0.9996489 1.0219392 1.0254493 1.0295411 1.0106971 1.057472

layer5.1.bias f4 [64]
00000000: 69a1 d6bc 6c02 a4bc 1008 cbbc 98a6 01bd
00000010: 6f74 b4bc dadc 01bc cb70 2dba cda3 e4bc
00000020: 3bb4 e5bc 281b b63b 785e 9cb9 8d75 53bc
00000030: 2191 58bc 95a9 ad3b 3162 f2bb 3f86 49bc
00000040: 0f42 53bc de02 7bbc 15b6 83bc 0df8 f9bc
00000050: b4b0 23bb a9fe e5bb d5fd cfbc c431 4a3b
00000060: bc67 b23a 31c0 ccbb 00c1 a13b 7eb2 3f3a
00000070: c0f9 973b ea38 8abc b65a 1c3c a37d ea3b
00000080: acf9 a03b 2db8 64bc 4b22 44bc 2456 a7bc
00000090: b693 8bba b513 e7bb b337 f1bc 7419 b83b
000000a0: 51b2 42bc 5a95 af38 2a64 ef3b 9d66 203b
000000b0: c8f9 b8bc e6e2 bebc fba5 aebb 9687 453b
000000c0: fda3 56bb 8d0c 11bc daea 78bb a365 2bbc
000000d0: cd6f 373b 8f44 4cbc a597 22bc c064 03bc
000000e0: 4e23 8fbc 512d 31bc a53c 06bc cd31 1d3c
000000f0: 4c8a 45ba 290a 1e3c 9540 eabb 4b28 883c
-0.026200013 -0.020020686 -0.024784118 -0.031653017 -0.022028176 -0.00792619 -0.0006616234 -0.027910138
-0.028040042 0.0055574365 -0.00029825023 -0.012906444 -0.013218195 0.005299757 -0.0073969592 -0.012300073
-0.012894168 -0.015320508 -0.016078034 -0.030513788 -0.002497715 -0.0070188832 -0.025389591 0.0030852417
0.0013611238 -0.006248497 0.0049363375 0.0007312669 0.004637927 -0.016872842 0.009543112 0.0071560903
0.0049125757 -0.013959927 -0.011971067 -0.020426817 -0.001064888 -0.00705191 -0.029445505 0.0056182686
-0.011883334 8.372469e-05 0.0073056417 0.0024475225 -0.022580042 -0.023301553 -0.005329845 0.003014063
-0.0032751553 -0.00885309 -0.003798178 -0.010461244 0.0027990222 -0.0124675175 -0.00992385 -0.008019626
-0.01747289 -0.010814027 -0.00819317 0.009594393 -0.00075355615 0.009645977 -0.007148812 0.016620776
