weights/pretrain_privaterotated__finetune_private.pth (torch, 947588 bytes, 26 tensors)

_module.layer1.0.weight f4 [16, 1, 3, 3]
00000000: f664 29be b917 2c3d b3bb 963e db66 6bbe
00000010: f747 813e 42e4 1d3e 3e86 693e 110f 90be
00000020: 4931 633e 3312 acbe 82eb e43d a867 3c3e
00000030: 5e95 0fbe c867 2ebe a28d a13c acbf 92bc
00000040: 3b5c 80be 7a53 903e 2ed9 9dbe 44fd 94be
00000050: 1178 52bc a080 5c3d c83f 4d3e 5457 49be
00000060: d186 25bc b1f4 02be be34 763e aee1 2c3e
00000070: fcb1 a13e 34de 343c 9494 903d e441 8a3d
00000080: f51c 5bbd b68b 943e 1db8 4fbd fb8c 973e
00000090: 289e 8abe 7700 9b3e 6e64 6dbe 05c8 e03d
000000a0: 87f2 14be a3b1 85be ab93 6c3d 0e38 04be
000000b0: d87e ea3d 89f4 843e fa9e d13d 1591 473e
000000c0: cca4 9cbb 8ecb 53bd 7b6b 423e 3dad 303e
000000d0: 523e cd3d 172d 2d3e a3ad 7c3e 50a3 05be
000000e0: 2a2c 8c3e 6580 43be d343 773d d858 d9bb
000000f0: d418 8b3e c46d 843e 2293 89be e45f 29be
00000100: 0cc4 f93c 8a98 90be a30e 1c3e 1289 6c3e
00000110: add8 003e 245d d5bd 4519 dfbd 8ed0 7dbe
00000120: 5512 7e3e 3152 8ebe e4a2 e43d 1bda fdbd
00000130: 6b9c 64bc f376 893e dd82 773e d731 4e3d
00000140: 05ea 8b3e 2136 02be 845c a2be 2f18 943e
00000150: 0b28 44be 1aea 26be 4ee5 44be 8d4a 12bd
00000160: df3a 423d 36ff 133e d51b 13bd e9aa 8abe
00000170: 3067 5d3e d53f 99be 27a1 6e3e 2e25 f33d
00000180: 49b6 69bd a789 583e 89da 84be 8bb2 e7bc
00000190: 0a2f adbe 6ec9 f2bd 0e89 25bd 013b 333e
000001a0: 9930 83ba e0ea 8b3e 843d f2b9 4587 21bd
000001b0: 366f 6fbe 799d 993e d183 99be 5c98 533e
000001c0: 2cf3 813e cca9 9f3e 4569 a1bd 1579 13be
000001d0: 9721 c8bd 139e 333e 0d67 d8bc 7c09 2cbe
000001e0: ecda 2b3e 7795 a0be e221 103e 1c93 413b
000001f0: c776 ecbd 4bcd 9cbc 432a c03d 2ee6 1e3e
00000200: e242 0f3e 5ea4 1a3e f126 dabd 5074 a0be
00000210: 3b02 41be 12c4 8abe a4c6 7abd 6ebd 00be
00000220: 2b12 503e 064b bd3d 23de aa3e 528c 98be
00000230: d342 ad3e a547 91be fbf6 38be 1a9c 37be
-0.1654242 0.04201481 0.29440078 -0.22988455 0.25250217 0.15419105 0.22805116 -0.28136495
0.2218677 -0.33607635 0.11177732 0.18398917 -0.14021823 -0.17031777 0.019720856 -0.017913662
-0.25070366 0.28188688 -0.30829757 -0.29099476 -0.012846009 0.053833604 0.20043862 -0.1966222
-0.0101029435 -0.12788655 0.24043557 0.16882965 0.31581104 0.0110393055 0.07059589 0.06750849
-0.053494412 0.2901284 -0.050712693 0.29599747 -0.2707379 0.30273792 -0.23182842 0.10975651
-0.14545642 -0.2611209 0.057758015 -0.12912008 0.11449975 0.25967816 0.102354005 0.19488938
-0.0047803875 -0.051707797 0.18986313 0.17253585 0.10021652 0.16911732 0.24675612 -0.1305058
0.27377445 -0.19091947 0.060367417 -0.0066329055 0.2716738 0.25864995 -0.26870066 -0.16540486
0.03048899 -0.28241378 0.15239958 0.23099163 0.12582655 -0.10418156 -0.10893492 -0.24786589
0.2481168 -0.27797082 0.111638814 -0.12395116 -0.013953309 0.26848564 0.24171014 0.0503405
0.2732698 -0.12715961 -0.3171121 0.289247 -0.191559 -0.1630024 -0.19228098 -0.03571563
0.047419425 0.14452824 -0.035915215 -0.2708352 0.21621394 -0.29931512 0.23303662 0.11872326
-0.057058606 0.2114626 -0.2594798 -0.028283378 -0.3382495 -0.11854826 -0.04041391 0.17502977
-0.001000899 0.27327633 -0.0004620367 -0.039435644 -0.23382267 0.30002955 -0.2998338 0.20663589
0.25380838 0.31184232 -0.07881407 -0.14401658 -0.09772032 0.1754077 -0.026416326 -0.16800493
0.16782731 -0.31364033 0.14075425 0.0029537147 -0.115460925 -0.01914086 0.09383061 0.15517494
0.13990358 0.15101764 -0.10651959 -0.3133874 -0.18848507 -0.27102715 -0.061224595 -0.12572262
0.2031943 0.09242825 0.33372602 -0.29794556 0.33840045 -0.28374973 -0.18062966 -0.17930642

_module.layer1.0.bias f4 [16]
00000000: 5cf4 813e e62a eebb 4c6e 5a3e 86b6 a33d
00000010: d5e9 82bd 4948 08be 41c9 653e a594 3cbe
00000020: 9f01 a63e 8375 7c3d 6f7e 93bd b875 96be
00000030: bf8c e33d acdf 25bd 5dd5 06be 124d 83bd
0.25381744 -0.0072682975 0.21331137 0.07993798 -0.06392256 -0.13308825 0.22440054 -0.18416078
0.32423112 0.061635505 -0.0720185 -0.29386687 0.111108296 -0.040496513 -0.13167329 -0.06411184

_module.layer1.1.weight f4 [16]
00000000: e926 803f e294 7f3f eecd 813f 4b6c 833f
00000010: b997 763f ac70 843f c281 833f ed2e 803f
00000020: 879c 823f c49c 813f 66c0 803f 9b4b 7d3f
00000030: 665a 7c3f d7a0 793f 6941 813f 6c9b 803f
1.0011874 0.9983655 1.014097 1.0267423 0.9632526 1.0346885 1.0273974 1.0014321
1.0204018 1.0125966 1.0058715 0.9894349 0.9857544 0.9751105 1.0098087 1.0047431

_module.layer1.1.bias f4 [16]
00000000: 813b 80bc d342 a5bc 875f 803c b3d6 cf3c
00000010: f219 a63c 812d a1bc be07 58bc e6cd a03c
00000020: b6f0 7a3c a73f be3c 076e b73b 1157 a93b
00000030: 15de 9dbb dc05 073d 23a0 15bb 9e67 9639
-0.015653374 -0.020173466 0.015670551 0.025370931 0.020276044 -0.019675018 -0.01318544 0.01962943
0.015316179 0.023223711 0.005597833 0.00516785 -0.004817734 0.032964572 -0.0022831045 0.0002868743

_module.layer2.0.weight f4 [16, 16, 3, 3]
00000000: 6f3e f4bc 2f25 ccbc a4db d0bd 0829 8f3d
00000010: 7308 ce3b 3095 953d c779 b13c b6c9 84bd
00000020: c2ad 0a3d 6fb9 1b3b 3e86 993a 28b0 84bc
00000030: b739 593d f3c4 d33d 3ad5 10bd 3bf4 403c
00000040: 2942 a93c fb16 53bd 88cd d7bc 1777 2abd
00000050: 54fd ae3d 596e 683d 7abb 783c 44c5 41bd
00000060: 4661 80bb 54bb 7abd 1942 39bd c3fe f5bc
00000070: e973 2ebb af47 743d 0529 cc3a 2558 cc3c
00000080: b407 a4bd 1d3b 9e3c 1254 91bc d6a9 e3bc
00000090: e501 a9bc b7a0 963d 88e4 d83b 9d0c 103c
000000a0: 0aa9 793d e774 7fbd dc7c d03c 8a44 e2bc
000000b0: 389f a9b9 6809 8d3d e4ed 693d 2219 a63b
000000c0: 10cf 713b 5ab5 c33d dbed a1bb f267 48bd
000000d0: 2171 a13c d5d2 babd d45e 1abd e53e a63d
000000e0: f3fe be3c 3257 0b3d 1116 c63d 815d 443d
000000f0: 2adc 45bd 0900 99bc d2ee 853a 78fa 023d
00000100: a842 67bc 4efa 7c39 2f8a c2bc 58cc 473d
00000110: 7fd6 8ebd 244d 803d 77d0 b0bd 2400 b03d
00000120: ea09 01bd 5c72 5a3b e0f0 6ebd 1f23 5ebd
00000130: a47d b23c 0227 db3d 3478 19bd f9de 77bd
00000140: 2c4f cabc 94e9 953d 4034 863c f423 103d
00000150: 3d7a 2bbd af87 9abc 31b2 5c3d d65e 823d
00000160: a644 22bb 2f50 a2bc d736 1ebd 7090 fb3b
00000170: 9824 bd3d 9316 0cbd 9b24 803b f9e1 c7bc
00000180: be67 00bd e099 61bd b2e4 1c3a 9efa ba3c
00000190: 2807 893d 31c8 a5bc 8163 75bd 9b15 81bc
000001a0: 34e8 213d 0bad 6ebd 3446 cdbb efc6 c2bc
000001b0: 4e3a 923c ef55 0a3d 47e6 9d3d 0558 a13c
000001c0: 6805 6c3d ebd0 d4bc 9564 b23d e769 983c
000001d0: e74a b03b c9ee 683d b3f0 943d 2981 693c
000001e0: e549 6ebd d782 72bd 37ad d5bc eb4a 8fbd
000001f0: 6f84 973d 65c8 9abd ab44 663d 0227 79bd
00000200: aa1f 8c3d 839e 27bc 1d77 d33c 89b2 28bc
00000210: 1f63 b43c 26cb e33c b604 d43b 5390 07bc
00000220: 69e6 5ebd 32ec aa3d edae da3d 4c40 3cbc
00000230: f127 c83c 551c 0b3d 27b8 35bd caae 0f3d
00000240: 4225 8b3c a1cd 73bd f7e4 553c 5e67 2bbd
00000250: 8c08 b63c 3c5c ab3c 422c 923d 1ace 55bd
00000260: e435 1e3d 2c0c 09bd cc98 943d cc3e 7abd
00000270: 6a63 733c 7cc6 61bc 2c6f 303d c662 583c
00000280: fc7f 1abd 6948 353d 200b 69bc 809e 383d
00000290: b0e8 0d3c 0f00 08bb a712 413d 5a08 d43d
000002a0: 89ea a93c f480 9a3d 1edb 9b3d 7d2c 46bd
000002b0: f646 7c3b 8fc0 f03b 6268 82bd d15d 9ebd
000002c0: 4bc0 433d e222 65bd 67c4 bc3c d543 15bd
000002d0: 86e8 cd3d 5b00 12bc caf2 56bd 03a2 a5bc
000002e0: df55 773d 6853 e43c 6f92 ce3c 5146 c0bc
000002f0: 69c9 273d fa06 aa3c 9e0a 7b3c bf97 493c
00000300: 1452 d33b 9d03 723b 2da0 3c3d ede7 0a3d
00000310: 2421 833d a756 593d 0f92 bb3d 1293 993d
00000320: 4f6b b63d 5354 81bd 7022 a5bd c6ae 1d3d
00000330: 5bf4 a83d d5c7 3db9 9bbc 39bc c261 b33d
00000340: af24 663d d1d4 4d3d 5f1b 803d c224 21bd
00000350: 8668 00bd ae05 2c3c 2a92 11bc d655 2c3c
00000360: 78a1 f1bc 8135 903c 2876 d03d 9e9b a63b
00000370: d36d 733d 5731 03bd cec9 b2bc a14d 82bd
00000380: 459b f5bc 677b 1abc 6024 90bd 820c 663d
00000390: 4695 d43c 6dcd 1a3d 6b32 6bbd 336d 253c
000003a0: ce72 26bd 748a 5e3d 62b8 bc3c 641c 7f3c
000003b0: 1078 a73c 2939 353a 0d9a 0bbd 5ab2 c0bb
000003c0: 12aa 0f3d a377 4c3d 5e97 323d 2866 91bd
000003d0: ee9b a33d d254 e0bb 8339 37bd 6495 5ebc
000003e0: 4cde b13d 6d01 b83d d98b 92bd dca3 143c
000003f0: 8418 b23d bd20 e93c e27e ae3b 0cc8 8ebd
-0.029814927 -0.024920074 -0.10198143 0.06990248 0.0062876283 0.07303846 0.021664513 -0.06483786
0.033857115 0.002376165 0.0011712981 -0.01619728 0.053033557 0.103402995 -0.0353596 0.011776979
0.02066143 -0.051535588 -0.026343122 -0.04161748 0.08544412 0.05674586 0.015181417 -0.047307268
-0.003917846 -0.061213806 -0.04522905 -0.030028706 -0.002661938 0.059638675 0.001557619 0.024944374
-0.08009282 0.019315297 -0.017740283 -0.027790945 -0.020630786 0.07354873 0.00661904 0.00879207
0.060952224 -0.062367346 0.025450163 -0.027620573 -0.0003235282 0.0688656 0.057111636 0.005068914
0.00368971 0.095560744 -0.0049416847 -0.048927255 0.019707264 -0.09122244 -0.03768809 0.08117465
0.023314929 0.034018703 0.096721776 0.047940735 -0.048305668 -0.018676775 0.0010218269 0.031977147
-0.014115013 0.00024125839 -0.023747532 0.04877886 -0.06974506 0.062647134 -0.086335115 0.08593777
-0.031503595 0.0033332324 -0.058335185 -0.054232713 0.021788426 0.107007995 -0.03746815 -0.060515378
-0.024695955 0.07319942 0.016382337 0.035190538 -0.041864622 -0.018863527 0.053880874 0.06365745
-0.0024760156 -0.019813625 -0.038626518 0.0076771304 0.09235495 -0.034201216 0.0039106137 -0.024399744
-0.031348936 -0.055078387 0.0005985006 0.022824582 0.06690818 -0.02023706 -0.059909347 -0.015757373
0.039528087 -0.058270495 -0.0062644724 -0.0237765 0.017850067 0.03377336 0.077099375 0.019695291
0.057622343 -0.025978526 0.08710591 0.018605186 0.005380023 0.05686835 0.07272472 0.014251986
-0.05817594 -0.05920681 -0.026083572 -0.06996711 0.073983066 -0.075577535 0.05621783 -0.060828216
0.06841977 -0.010230663 0.025813634 -0.010296472 0.02201992 0.02780683 0.006470288 -0.008274156
-0.054418955 0.08345832 0.10677896 -0.011489939 0.024433108 0.033962566 -0.044365074 0.0350788
0.01698554 -0.059522275 0.013055078 -0.041846626 0.022220872 0.020918004 0.07137348 -0.052198507
0.038625613 -0.033458874 0.07255706 -0.061095044 0.014855245 -0.0137802325 0.04307477 0.013207143
-0.03771971 0.04425851 -0.014223844 0.045073032 0.008661434 -0.0020751988 0.04713693 0.103531554
0.020741718 0.07544127 0.07610153 -0.04838227 0.0038494444 0.0073471735 -0.06367566 -0.07732738
0.047790807 -0.05594147 0.02304287 -0.036441643 0.10054116 -0.008911218 -0.052477635 -0.020218855
0.060384627 0.027871802 0.02521631 -0.02347103 0.040963564 0.02075528 0.015322356 0.0123042455
0.0064489935 0.0036928423 0.046051193 0.033912588 0.064028054 0.053061154 0.09158718 0.074987546
0.08907186 -0.06314912 -0.08063209 0.038496755 0.08249732 -0.00018098888 -0.011336471 0.0875888
0.056187328 0.050251786 0.062552206 -0.039341696 -0.03134968 0.010499401 -0.008884946 0.010518512
-0.02949594 0.017603638 0.101787865 0.005084469 0.05943091 -0.032029476 -0.021824744 -0.06362463
-0.029981265 -0.0094288355 -0.07038188 0.056164272 0.025950085 0.037793566 -0.05742113 0.010096836
-0.04063683 0.054331258 0.02303714 0.015570734 0.020442992 0.00069131196 -0.03408246 -0.005880636
0.0350743 0.049918782 0.043601386 -0.07099563 0.079887256 -0.006846049 -0.04473258 -0.013585422
0.08684978 0.08984647 -0.0715558 0.00907227 0.08696082 0.028457994 0.005325184 -0.0697175

_module.layer2.0.bias f4 [16]
00000000: 43b1 343d 89fc c5bd 83c5 5ebd 215d 823b
00000010: 86f8 3dbd 108d c63c b8c1 6b3d e278 053d
00000020: 04df d63b 276d 7a3d aa61 b3bd 81cc 59bd
00000030: 2a93 d2bb 746e 46bd c057 58bd 1abe 433d
0.044114362 -0.09667308 -0.05438758 0.003978387 -0.04637959 0.024237186 0.05755779 0.032585986
0.0065573473 0.061139252 -0.08758862 -0.053173546 -0.0064262347 -0.04844518 -0.05281806 0.047788717

_module.layer2.1.weight f4 [16]
00000000: f05c 7b3f 941b 823f 8ac3 763f 94cf 823f
00000010: 8dc3 7c3f f70d 7b3f a129 7f3f f51e 833f
00000020: df83 7a3f 905e 803f 2186 7c3f 134d 7e3f
00000030: 342e 7d3f 8768 7b3f 866c 7b3f 7aab 843f
0.98188686 1.0164666 0.9639212 1.0219598 0.98735887 0.98068184 0.99672896 1.0243822
0.9785747 1.0028858 0.98642164 0.99336356 0.98898625 0.9820637 0.9821247 1.036483

_module.layer2.1.bias f4 [16]
00000000: 2501 8ebc 6bac 793b 74d4 75bc e40c e83c
00000010: 9e7f 70bb a7a9 1cbd 7a2a 8f3c 45fd bd3c
00000020: 2124 e83b 8b22 99bb 99b3 813c 459f e93a
00000030: ddcb fabb 4d08 f9bb 61df 8f3c 1464 52bb
-0.01733453 0.0038097154 -0.015004266 0.02832646 -0.003669716 -0.03824773 0.01747631 0.023192057
0.007084385 -0.0046733073 0.01583271 0.0017823955 -0.007653697 -0.0075998665 0.01756257 -0.0032103108

_module.layer3.0.weight f4 [64, 16, 3, 3]
00000000: e11a adbc 8768 993d da1e 9dbc b18a c8bd
00000010: 72f8 93bd c20b 52bc cf2c 19bc 46fa 65bd
00000020: b338 593d 1057 f2bb 557b ed3c 70d9 7b3d
00000030: 1995 773d e8a6 dc3d 3e50 9c3c 07fd 71bd
00000040: 49c3 87bc 2f20 243c 7873 123b 8a1a c13c
00000050: c4ac adb9 a544 563d bc42 513d d2c5 693d
00000060: db71 893d a815 333d 9743 18bc 87fd 97bd
00000070: 385d ad3d df00 8b3d 03bc b63d 00b5 b23c
00000080: 7954 cebc 2c49 0e3d 59d3 a2bd c9af f0bc
00000090: b5ad 5ebd 358f 333d 2fd0 43bd 9655 783c
000000a0: 0a05 a73c 5bb1 1cbd 243b 1a3d a5a9 04bc
000000b0: 528b f3bb 22f3 94bd 61f1 a33c 87fb cabc
000000c0: a86c e0bc 97c7 fdbc 5c8b e83d 66f8 c83d
000000d0: 8988 e63c aa5d 043d 0381 ebbc 413b 213d
000000e0: 870e c1bd c17c 353d f669 eb3c 58ff 9cbd
000000f0: 043f 2f3c f0df 653c 51f3 333c 000a ce3d
00000100: 0c2b a2bc a2c1 4fbd d772 3b3d 9275 f0bb
00000110: 434f 063d 0e43 6b3a 4ce9 9f3d 18c1 1e3d
00000120: 1492 1bbc dcb6 b23d 14b5 9bbd 1b48 9b3c
00000130: 5a93 b8bc c5ba 713d 828d 49bd 990e 65bc
00000140: 5837 083d d1e5 bcbd 68c2 56bc a0fe 9e3c
00000150: 0434 033b 5674 453d ab91 8a3d 08f8 1f3d
00000160: 461c 5d3d 8d99 853b a894 a1bd b328 46bb
00000170: 9ac2 a33d 3202 0a3d 8991 5e3c a3fe c4bb
00000180: 6b85 64bd ff3f 92bd 46e1 b5bd b125 793d
00000190: 0363 95bc ac4e 9dbc 45ed dfbc 39f1 b03c
000001a0: 27a6 24bd 2ea3 d33b e0f9 6dbc d788 873c
000001b0: 3d2f 513d 1706 29bc 9a4a 183d 0d66 e63c
000001c0: 51ba bbbc 25ed 973d 5e42 eb3c 77d4 2a3d
000001d0: a0ac 943d a0f4 703d cbaa 16bd 1942 953d
000001e0: 873a c8bd c3bb 243d d88a 4c3d 3211 65bd
000001f0: f42f 743d c178 29bd fa1d b5bd 1011 f3bc
00000200: 250d d7bd 1a25 bd3c ab8b c73c 8968 92bd
00000210: 3cad d7bc d7d7 b43d 0ebc 2a3d 79be e2bc
00000220: 4271 33bd 7b21 e9bc 7c7b 9cbc 6dc8 90bd
00000230: ac77 6cbc 993a 9c3c 0843 bfbd c764 36bd
00000240: 7573 a33d abfe 6d3d d5d0 353d 7458 a43d
00000250: fbe4 97bd ecd8 c13d 9648 c0bc 5613 4d3d
00000260: ac1c 73bd 34ac eabc deb8 e83d 33e5 99bd
00000270: e66b 8e3d 3bfa 93bd 9f83 11bd 508a 2abd
00000280: 5b7f f83c ee4c bebc 1db1 bcbb 5648 c63c
00000290: 187e c2bd 63b5 5b3d 5cd3 11bd b91a 7c3d
000002a0: 0151 03bd 7dc9 283d 02d8 84bd 5580 423c
000002b0: 1fc6 923c e465 923d 2fc8 5d3d 88df 4a3d
000002c0: 47a7 fd3c 0310 be3d 9861 203d b730 f3bc
000002d0: ee72 233d 9738 ebbc b7f3 673d 9b50 413c
000002e0: abd3 5f3d 27a8 f4bc 3949 473d dd65 203c
000002f0: b4d5 b3bc 4d4d 913d aef2 0fbd e8c6 1bbd
00000300: d8d1 a33d fcf8 3d3d 33f0 02bd 62fb 5bbc
00000310: ccaf 8d3d 3d96 80bc 1a3d 883d b5aa 5bbc
00000320: 67b0 803d 6931 c33c b3df 453c b40f 3ebc
00000330: 4831 223d ae5d 77bd 2843 80bd e3f2 b63b
00000340: 3af3 73bd a67d 7dbd 83ce bf3c 785b 92bd
00000350: 9861 30bd 1d21 283d ddef 703d 33db 5bbd
00000360: 5f3a be3d 1057 953d 7c42 6d3d 5ef3 24bd
00000370: 7e7a c03d b1a5 943d bee0 28bd fb50 07bd
00000380: 821b 7cbc 27d2 8ebd 1cb8 04bd 5161 9c3c
00000390: 2210 8c3c 8eb6 40bd 5ff7 d53b 05eb 463c
000003a0: 8bd2 72bd 0c44 8f3d e23a 97bb 9510 febd
000003b0: 0f1e 183d 35d7 bd3b 74d5 c53c 4aca 3fbc
000003c0: e29e 05bd ab1e 09bc 7565 8dbd ff62 483d
000003d0: 177e f5bc 4092 8bbc a531 0f3d ed16 4f3c
000003e0: 7e43 acbd b30f 0d3d 3682 d83a df1c b2bd
000003f0: f2eb 74bd c063 6cbd a97e 10bd 2539 89bd
-0.02113098 0.0749064 -0.01917975 -0.09792078 -0.072251216 -0.012820186 -0.009349062 -0.056146882
0.05303259 -0.0073956326 0.028989473 0.06148666 0.060444925 0.10774022 0.019081231 -0.059079196
-0.016572611 0.010017439 0.0022346657 0.023572225 -0.00033125852 0.05231156 0.051089033 0.05707342
0.06711169 0.043721825 -0.009293458 -0.074214034 0.08465046 0.067872755 0.08922579 0.021814823
-0.025186764 0.03473775 -0.079504676 -0.029380696 -0.05436488 0.043837745 -0.04780596 0.015157124
0.020388145 -0.038255077 0.037654057 -0.008097087 -0.0074323798 -0.072729364 0.02001256 -0.02477814
-0.027395561 -0.03097896 0.11354706 0.09813003 0.028141277 0.032315888 -0.028748041 0.03936315
-0.09426599 0.044308428 0.02873705 -0.076658905 0.010696176 0.014030442 0.010983304 0.10060501
-0.019795917 -0.050721772 0.045763817 -0.007338234 0.032790434 0.00089745305 0.0780817 0.038758367
-0.009495277 0.08726284 -0.07602897 0.018955281 -0.0225312 0.059016008 -0.049207218 -0.013980531
0.033255905 -0.092235215 -0.0131078735 0.019408524 0.0020020017 0.04820665 0.06766065 0.0390549
0.05398204 0.0040771426 -0.07889682 -0.003023666 0.07996102 0.0336935 0.013584503 -0.0060118004
-0.0557913 -0.071411125 -0.08880858 0.06082696 -0.018235689 -0.019202553 -0.027334819 0.021599399
-0.040197518 0.0064586615 -0.014524907 0.016544743 0.05107044 -0.010316393 0.03718052 0.028124833
-0.022915991 0.074182786 0.02871817 0.04170653 0.07259488 0.058827043 -0.036783975 0.07287998
-0.09776788 0.040218126 0.0499371 -0.0559246 0.059616044 -0.041374926 -0.08843608 -0.029671222
-0.10500554 0.02308898 0.024358591 -0.07148845 -0.026327722 0.08830231 0.04168325 -0.027678715
-0.043809183 -0.028458348 -0.01910185 -0.07069478 -0.014432829 0.01907091 -0.09338957 -0.044529703
0.07981006 0.0581042 0.04438861 0.080246836 -0.074167214 0.09465203 -0.023472112 0.05006727
-0.059353516 -0.028646566 0.113633856 -0.075144194 0.06954174 -0.07225462 -0.035525914 -0.04163581
0.030334165 -0.023230042 -0.0057584182 0.024204414 -0.09496707 0.05363978 -0.03560196 0.061548922
-0.032059673 0.04120778 -0.06486513 0.011871417 0.017916737 0.0714834 0.054145988 0.049529582
0.030963553 0.09280398 0.039155573 -0.029686315 0.039904527 -0.028713508 0.05662891 0.011799003
0.05464522 -0.029865338 0.048653815 0.009789911 -0.021952488 0.07094822 -0.035143547 -0.03803149
0.07999009 0.046380028 -0.031967353 -0.013426634 0.06918296 -0.01569664 0.06652279 -0.013407399
0.06283646 0.023827272 0.01207726 -0.011600424 0.03959778 -0.060392074 -0.06262809 0.0055831536
-0.05955813 -0.061887406 0.023413902 -0.071463525 -0.043061823 0.041047204 0.0588225 -0.05367584
0.09288477 0.072919965 0.057924733 -0.040271156 0.093983635 0.07258166 -0.041229956 -0.033036213
-0.015387418 -0.06973677 -0.032402143 0.019089373 0.017097536 -0.047049098 0.006529733 0.012140994
-0.05928282 0.06995401 -0.0046151737 -0.124055065 0.03713804 0.005793477 0.024149634 -0.011705944
-0.032622226 -0.008369128 -0.06904117 0.048922535 -0.02996735 -0.01703751 0.034959454 0.012639743
-0.084113106 0.0344388 0.0016518298 -0.08696913 -0.059795327 -0.057712317 -0.035277043 -0.067003526

_module.layer3.0.bias f4 [64]
00000000: 3eee 8a3d c9ea 60bd 1c52 533c 0553 903d
00000010: e077 df3c 7461 33bd 98e1 1bbd e15d ae3c
00000020: 97c1 2bbd ecf4 e6bc 6603 a5bc e2aa dbbd
00000030: 0219 d0ba f891 a63c e4ad 5b3d 1d3c 253d
00000040: 0a71 913c 58cc 80bd 6027 d43d b0ef 163d
00000050: 884e 02bd c71c 903d 03b3 01bd cd68 93bd
00000060: c2de 823d 34af 803d 9789 223b 7ba0 1c3c
00000070: d1c6 583d c2d2 4dbd ba80 26b9 db1d abbd
00000080: ac45 45bd d19c 1bbd 3d8b 8fbc ca1c acbc
00000090: 286c 113d d188 033d 4a38 edbc 12e3 903d
000000a0: 3321 743d 54d9 82bd e1d9 ed3c ae55 fa3c
000000b0: bea0 7e3d 134c 8dbd b5c4 2c3d 5f79 8dbd
000000c0: 7e72 27bd ffa7 cfbd f228 183d 619a 09bd
000000d0: 4a0b 163c ce39 ba3d 83a7 ab3d e529 3f3d
000000e0: e331 043d 8c44 a9bd 27b9 ba3d d29e a8bb
000000f0: 9647 29bd 907c 9dbc 594a 9dbd d1dc afbd
0.06783722 -0.05491141 0.012897994 0.07047085 0.02727884 -0.04379411 -0.03805694 0.021285
-0.04193267 -0.02819296 -0.020143222 -0.10725953 -0.0015876594 0.020333275 0.053632632 0.04034053
0.017754097 -0.062889755 0.10359073 0.036849678 -0.031813174 0.07036739 -0.03166486 -0.071977235
0.06390144 0.06283417 0.0024801248 0.009559746 0.05292398 -0.050249822 -0.00015878948 -0.08355304
-0.048162147 -0.03799135 -0.017522449 -0.021009821 0.035503536 0.0321129 -0.028957505 0.0707456
0.059601974 -0.06389108 0.029034557 0.030558433 0.062165014 -0.06899276 0.042179782 -0.06907915
-0.040880673 -0.101394646 0.037148423 -0.033594493 0.009157965 0.090930566 0.0838156 0.046670813
0.03227414 -0.082650274 0.09117346 -0.005145886 -0.041328035 -0.019224435 -0.07680196 -0.08587039

_module.layer3.1.weight f4 [64]
00000000: 5c7b 7b3f 72bd 7a3f c260 813f a723 7d3f
00000010: fde1 7c3f d366 823f b440 813f d301 813f
00000020: 81bb 803f 4262 7c3f 84a0 7e3f 7647 7c3f
00000030: 8446 7a3f 23a9 7e3f 256e 823f d7c3 7e3f
00000040: 8e48 823f 8ebb 7f3f 04de 833f 22cd 803f
00000050: 6739 7d3f 5767 753f 2495 7c3f 39f8 813f
00000060: ee43 7e3f df53 813f 409a 7b3f 4890 803f
00000070: 6496 7b3f 10ec 823f 3723 7c3f 5e4f 813f
00000080: 906b 813f 5b20 793f fd4e 7e3f 3d86 793f
00000090: 0bc1 7d3f 1076 7d3f dd41 7b3f 0728 803f
000000a0: 142c 7f3f 530c 7b3f a2c2 7e3f 1c74 803f
000000b0: 5e3f 7a3f b110 803f 4ebd 7c3f be79 823f
000000c0: 68e2 7d3f ac53 813f dec3 763f 19ba 793f
000000d0: 4af5 813f a719 823f 2794 843f 5536 763f
000000e0: f798 7e3f 0f28 793f 51ae 7c3f 4b84 7d3f
000000f0: 8271 803f 0664 813f 5b54 7e3f 5c54 803f
0.98235106 0.9794532 1.0107653 0.98882526 0.9878233 1.018763 1.0097871 1.0078682
1.0057222 0.9858743 0.9946368 0.9854654 0.9776385 0.9947683 1.0189863 0.9951758
1.0178392 0.9989556 1.0302129 1.0062602 0.98915714 0.9586081 0.9866507 1.0153877
0.993224 1.010372 0.9828224 1.0044031 0.9827635 1.022829 0.98491234 1.0102346
1.011095 0.97314996 0.99339277 0.97470456 0.99122685 0.99008274 0.98147374 1.0012215
0.9967663 0.9806568 0.99515736 1.0035434 0.9775294 1.0005094 0.98726356 1.0193403
0.99173594 1.010366 0.9639262 0.9754959 1.0152981 1.0164078 1.0357713 0.96176654
0.99452156 0.9732675 0.98703486 0.9902999 1.003464 1.010865 0.99347466 1.0025744

_module.layer3.1.bias f4 [64]
00000000: 5796 7d3c 8d3a 36bc 8d28 33bc b9af b43c
00000010: 87c8 8d3c 8596 653c 9ddb b5bc ada0 493c
00000020: 759a a2bc e920 373d c281 0a3d 74af b1bc
00000030: afee e83b 22f0 a5bc e1b6 a03b b5ba 8dbb
00000040: 4270 d7ba f72d 5c3b 576c 4ebb d4f6 35bb
00000050: c843 d73b 50b5 b53b 2170 3fbd a91e 843a
00000060: abc7 d4bc f5c8 a9bb d93d f4bc 744f 3fbb
00000070: 7db5 2c3c c46a 70bc 67a3 87bc 6b3b 80bb
00000080: 574a fc3c c14f c13b a56a 633b 6804 cf3b
00000090: bb8f 5a3c c305 97bc adc2 c13c 2a0f 5a3c
000000a0: 4a60 b23c de56 00bc 26ea 26bc 1e46 723b
000000b0: 59ef b13b 5632 3abc 9187 75bc 2fb5 0d3d
000000c0: 7d87 1c3c 1543 093c 7c48 023c c7ec 0fbc
000000d0: 986b b33c f88b b43c 3928 c23b 9e18 8ebc
000000e0: cfa4 8c3c 5b27 bc3c 0973 2bbc fe91 d63a
000000f0: 760d 813b 44c7 45bb 1728 a4bc 8167 87bc
0.015477738 -0.011122358 -0.010934961 0.022056447 0.017307533 0.014012937 -0.022199446 0.0123063745
-0.019849041 0.04470912 0.033815153 -0.021690108 0.0071085314 -0.020256106 0.0049046134 -0.0043252357
-0.0016436654 0.0033596733 -0.003149768 -0.002776553 0.0065693595 0.005545296 -0.046737794 0.0010079938
-0.025974115 -0.0051814266 -0.029814648 -0.0029191645 0.010541317 -0.014673892 -0.016557408 -0.003913333
0.030797167 0.0058994 0.0034701016 0.006317664 0.013339932 -0.018435365 0.023652399 0.013309279
0.02177443 -0.007833211 -0.010187661 0.0036968063 0.005430144 -0.01136454 -0.014985935 0.03459662
0.009553787 0.00837781 0.007951852 -0.008784479 0.02190189 0.022039399 0.005925205 -0.017345723
0.01716843 0.022967985 -0.010464438 0.0016370413 0.0039383722 -0.0030178586 -0.020038648 -0.016528847

_module.layer4.0.weight f4 [64, 64, 3, 3]
00000000: cfd0 14bd e590 d43c 45fb 43bc 5e74 cc3c
00000010: 5f24 31bb ec17 033c 1aae 5fbd 828c 0abd
00000020: 7db2 583c 3e5d 08bc 2409 b73b c24c 46bd
00000030: 5929 883b b137 fa3c 868a 343d c203 78bc
00000040: 3cbc c23b c5f0 ae3c 19a6 0abd 21ac 22bd
00000050: d759 8fbc e57c 273d 4977 ad3c 037a 9f3c
00000060: 4131 d13c 1f7f 3f3d 8ca0 2f3c 5a06 083d
00000070: 919a 9fbc 0abf fabb a8cc 8fbc ed19 ee3b
00000080: e734 8cbc ac15 3ebd 293b e0bc 84c5 5bbd
00000090: 4793 3d3c e147 f6bc 1562 b5bc a40d 9abc
000000a0: 62d2 113c a931 45bc b61a 9c3c c11c 6dbb
000000b0: f40c 66bc cfc4 0e3d c914 f6bc 2ed3 11bd
000000c0: 7ea6 32bc 08ef 013b 9b7e 9b3c 7be5 433d
000000d0: 34f5 e13c 3d91 08bd bcb6 62bd 1b30 8abc
000000e0: 11c5 ccbc 229a 903b 5320 7dbb cd0b 133d
000000f0: a9b0 0d3c e659 213c 1d98 0ebc 5ade 75bc
00000100: 71a9 a63c aa4b 6dbc 4826 30bb b7c0 33bd
00000110: 4982 d6bc 4d31 143d 3391 003d f1fc 37bd
00000120: 7854 173c 4658 36bd 4976 333c 26b1 ccbc
00000130: 6af9 1b3d 5f58 83bc 0b9f 48bd c697 81bc
00000140: c333 b63c 3332 34bd 14af a93c 967b 093d
00000150: 7c1b 053c cc19 8c3c df8a 3f3c 16a7 19bd
00000160: 74bc 2dbd 7e82 51bd ca32 283c 7516 e8bc
00000170: 7a82 3a3d aee9 d6bc 5446 bbbc eced 3abd
00000180: 4b00 4cbc a5a4 10bd daa4 d2bc cb8d 8b3b
00000190: d1b9 52bc 0b07 873c 853b f9bc 6e8c 813c
000001a0: 5fb6 42bc 12d4 893b 89fd 4e3c d157 dc3c
000001b0: ee43 053c fcd6 74bc 068f 2f3d 2c4e 81bc
000001c0: 7105 46bd e840 6b3c 42bb 78bc 0f9d f0bc
000001d0: 2332 fb3b 84ca 9cbd 16f8 49bd 5be6 133d
000001e0: ea6d 3f3c 6f8f efbc 3c8b d9bc bcc9 c6bc
000001f0: 5f77 46bb 670f 0abc f92e f2bc 901f 3fbc
00000200: 47a0 e5bc 55d5 55bc cc9d 263d 546a 1b3c
00000210: ac90 8c3d cc1d 413c 264e 653d e415 453c
00000220: 9432 193c bcfe debc ecb6 d13c 8c6d 06bd
00000230: 1dbe 38bd 50b8 ce3c 47b7 a1bb f66d 4dbc
00000240: 61e1 003c 67e0 c13c f8d7 48bc b2eb d6bc
00000250: 839a df3c 3c1f 6f3b d2b6 f0bc 4003 103d
00000260: 108b 1e3c 7eee efbb 5909 06bd 9b2e 463d
00000270: 60d8 37bc 4fd5 653a 0219 3dbd 15d4 fa3c
00000280: f80a 8a3d b6ca 063c 66e7 92bc 9c6f 953c
00000290: e8cf 0dbd 5ef7 c7bc 2599 0ebd 27ea 6bbb
000002a0: 6982 84ba 82bb 68bd c675 563d d8b3 673b
000002b0: 535f 023d 4e75 c2b8 1105 d1bc eadb 733d
000002c0: 2ec2 ff3a 5a0c cabc 33fb 093c eec7 2d3d
000002d0: 46b7 e2bc 6e97 cebc 7b23 20bc 66b8 4fbc
000002e0: 2b80 453d b54e 1bbd 2cc7 29bd b1e4 353c
000002f0: 102a 843c 8623 08bd b6f9 cfbc 3766 963c
00000300: e057 dfba 9969 043d ffba 03bd 7fcf 4fbb
00000310: 9099 4d3d ca0a 87bc bcab 04bd cd9e e93c
00000320: 1e7b 8eba c2dc 9b3d b1b7 1bbd fa2d 603c
00000330: a09d d8bc 9fa6 0b3c 6e2a 343c 9289 e4bc
00000340: b38b 6b3c 4217 473a 35ba f9bb a86f 043d
00000350: 398d 963c 3937 96bc 09ce ccbc c65f a03d
00000360: d54d 8bba 00a5 ef3b fcd1 8ebc 7965 ec3c
00000370: bf4f 1d3d 17fe 97bc 0081 313d 00d2 3bbc
00000380: 5b4a e3bc 83e2 0abd 1a04 bcbc 8b7a 4fbc
00000390: 21f9 1e3d 7d70 5abc c506 b03c 995d 94bc
000003a0: 7c5a afbb ab0f 05bd 493f ffbb 7a23 a53b
000003b0: 074e 03bd 490c dd3c 06da ebba 81ff e73b
000003c0: c917 823d c9cb d0ba a345 193d fd29 0d3d
000003d0: b30c 7dbd 6b2f ed3c 46a6 183d 7067 79ba
000003e0: 24bb 4b3c e1a8 93bc dec1 75bd eb8b 613b
000003f0: 106c a2bd 83e8 273d c37e 2f3d 245f b83c
-0.036331948 0.025947997 -0.011961763 0.024957832 -0.0027029736 0.008001309 -0.054609396 -0.033825405
0.013226149 -0.008323012 0.0055858064 -0.048413046 0.0041553196 0.030544134 0.04407742 -0.015137615
0.0059428494 0.021355042 -0.03384981 -0.039714936 -0.017498894 0.040890593 0.021175044 0.01946736
0.025536181 0.04675209 0.01071943 0.033209182 -0.019482883 -0.007652168 -0.017553642 0.007266274
-0.01711507 -0.046407387 -0.02737196 -0.053655162 0.011570758 -0.030063571 -0.022141496 -0.018805332
0.008900257 -0.012035766 0.019055706 -0.0036180469 -0.014041174 0.03485566 -0.030039208 -0.035601787
-0.010903953 0.0019826312 0.018981269 0.04782627 0.027582742 -0.033341635 -0.05535005 -0.016868642
-0.024996312 0.0044129053 -0.0038624003 0.035899926 0.008648076 0.009848094 -0.008703259 -0.015006626
0.020344468 -0.014483372 -0.0026878286 -0.04388496 -0.026185172 0.03617983 0.031388473 -0.044918958
0.0092364475 -0.044517778 0.010953494 -0.024986815 0.038079657 -0.01603335 -0.0489798 -0.015819442
0.022241479 -0.043993186 0.020713367 0.033565126 0.008124229 0.017102145 0.011690824 -0.03751286
-0.04241605 -0.051149838 0.010266015 -0.02833102 0.04553459 -0.026234474 -0.022860684 -0.045637056
-0.012451242 -0.035313267 -0.025713373 0.0042588464 -0.012861685 0.01648285 -0.030423889 0.015814032
-0.011884301 0.004206189 0.01263369 0.026897343 0.0081338715 -0.014943834 0.042861007 -0.015784346
-0.048345033 0.014358737 -0.0151813645 -0.029371766 0.007665889 -0.07655814 -0.04930886 0.036108356
0.01168392 -0.0292432 -0.02655565 -0.024266116 -0.0030283553 -0.008426524 -0.029563414 -0.01166524
-0.028030528 -0.013051351 0.04067783 0.0094858 0.068635315 0.011786889 0.05598273 0.012029145
0.009350438 -0.027221076 0.02559992 -0.032819316 -0.04510318 0.025234371 -0.0049351784 -0.012538424
0.0078662345 0.023666574 -0.012258522 -0.026235435 0.027295357 0.0036487123 -0.02938405 0.03515935
0.00967671 -0.0073221317 -0.03272376 0.04838429 -0.011221021 0.0008767442 -0.046166427 0.030618707
0.067403734 0.008227041 -0.017932605 0.018241696 -0.034622103 -0.024409946 -0.03481402 -0.003599772
-0.0010109666 -0.056819446 0.05235841 0.0035354998 0.03182919 -9.2724906e-05 -0.025515111 0.0595359
0.0019512826 -0.024664093 0.008421707 0.042426996 -0.027675282 -0.025218692 -0.009774084 -0.012678241
0.048217934 -0.037916858 -0.04144971 0.011101888 0.016133338 -0.033237003 -0.025387626 0.018359287
-0.0017039739 0.03232727 -0.032160755 -0.003170937 0.050195277 -0.016484637 -0.03239034 0.028518105
-0.0010870432 0.076104656 -0.03801698 0.013682837 -0.026442349 0.008523612 0.010996444 -0.02789763
0.014376569 0.0007594713 -0.0076210746 0.032333046 0.018377887 -0.01833688 -0.025000589 0.07830767
-0.0010628054 0.0073133707 -0.017434113 0.02885698 0.03840613 -0.018553777 0.043335915 -0.011463642
-0.027745416 -0.033907425 -0.022951175 -0.012663494 0.038811807 -0.013332483 0.021487603 -0.018111037
-0.0053513627 -0.032485645 -0.0077895266 0.0050396295 -0.032056835 0.026983397 -0.0017994053 0.007080019
0.06352193 -0.0015929873 0.037419926 0.03446387 -0.06177969 0.028953275 0.037267946 -0.00095140096
0.0124347545 -0.018024864 -0.05999934 0.0034415673 -0.079307675 0.040993225 0.0428455 0.022506304

_module.layer4.0.bias f4 [64]
00000000: 3bc6 86bc 458d 263d 7b0e 4dbc 38ad 28bd
00000010: 15e4 853b 7375 5dbc c81d 42bc b701 bbbc
00000020: 352e 20bb 6dec 39bd 959b dabb bcf3 023d
00000030: 64f3 013d ae65 2dbc fba5 ce3c 3261 ef3b
00000040: 5c63 953c 9782 45bb a4ab 02bd e401 04bd
00000050: dce6 4c3d 87a4 b839 194a 5a3c 0850 3cbd
00000060: b7bb 8a3d e930 e83c e819 abbc c1a7 81bd
00000070: f454 683d e7e0 4fbd a528 98bc 7df2 013d
00000080: 09c7 e83c dc4a 283b 53f7 abbc 5ed3 39bb
00000090: 56d6 bbbc b976 f7bc cc4e 8d3a bb0d b5bc
000000a0: c213 2ebd a51e 0e3d 4e20 c4bb b14b 503d
000000b0: 67af 103c bcde 3cbc 3586 10bd 5171 62bc
000000c0: 7a46 0cbc 2bca 81bd c567 ad3c 9525 203d
000000d0: b032 f63c 051f 61bd bf3b 6a38 c20d c5bc
000000e0: 1f54 053d f9c0 e7bc 2b71 ca3c b413 8abd
000000f0: 129a bf3c b5c4 44bd 344c 8abd f64e 043d
-0.016451946 0.04066207 -0.012515659 -0.04118082 0.0040860274 -0.013516772 -0.011847921 -0.022827966
-0.0024441604 -0.04539149 -0.006671379 0.031970724 0.031726256 -0.010583324 0.02522563 0.0073052878
0.018235855 -0.0030137652 -0.03190197 -0.032228366 0.050024852 0.00035217797 0.01332333 -0.04597476
0.06774085 0.028343635 -0.020886377 -0.06330825 0.056721643 -0.050751593 -0.018574068 0.031725395
0.02841522 0.0025679385 -0.020991957 -0.0028354744 -0.022929352 -0.030207979 0.001078093 -0.022101274
-0.04249931 0.034697194 -0.0059852963 0.050853435 0.008830882 -0.011527713 -0.03528424 -0.013820962
-0.008561725 -0.063373886 0.021167645 0.03909834 0.030053467 -0.054961223 5.584559e-05 -0.024054412
0.032550927 -0.028290259 0.024712166 -0.06742039 0.023388896 -0.048039157 -0.06752816 0.032301866

_module.layer4.1.weight f4 [64]
00000000: e28f 7e3f 5dd7 783f 401b 753f c05d 783f
00000010: fb5c 853f 2e49 753f 5b48 7a3f 2d36 833f
00000020: 3749 813f d10e 7d3f 759b 803f 6596 7a3f
00000030: f48f 843f b89c 803f 27ba 763f 0560 7d3f
00000040: 4d0a 823f d2a8 813f 3580 803f db6d 813f
00000050: a97c 793f 3d62 7c3f 07cb 803f 5d5a 813f
00000060: 2166 7a3f 8957 7f3f 7234 803f cf5a 7f3f
00000070: 7940 813f a0c1 813f 3b5a 823f f4c3 793f
00000080: 6025 813f 2fa3 7e3f 8d1e 7a3f ec98 813f
00000090: 6aed 7d3f 6b91 793f 7893 813f 19bb 843f
000000a0: 43f1 833f 3f61 803f d5fd 833f 66a3 843f
000000b0: 5437 7f3f 363a 7e3f 5d0b 7f3f 2d9b 7a3f
000000c0: 19bc 803f 0d80 823f c50d 803f 503b 833f
000000d0: fc91 7f3f db63 823f 645a 813f 040f 803f
000000e0: a54e 823f 51b8 7e3f b24f 773f bfc0 7c3f
000000f0: f265 803f f40c 813f 17bc 793f bb5d 843f
0.994383 0.9720362 0.95744705 0.9701805 1.0419 0.9581479 0.97766656 1.0250908
1.0100468 0.98850733 1.0047442 0.97885734 1.0356431 1.0047827 0.96377796 0.9897464
1.0159394 1.0129645 1.0039126 1.011165 0.9745584 0.985874 1.0061959 1.0105702
0.97812086 0.99742943 1.0016005 0.9974794 1.00978 1.0137215 1.0183786 0.97564626
1.0089531 0.9946775 0.97702867 1.0124793 0.9919039 0.97487515 1.0123129 1.0369598
1.0308002 1.0029677 1.0311838 1.0362365 0.996938 0.9930757 0.99626714 0.9789303
1.0057403 1.0195328 1.0004202 1.0252476 0.9983213 1.0186723 1.010571 1.0004582
1.018025 0.99499995 0.9660598 0.9873161 1.0031111 1.0082078 0.9755263 1.0341104

_module.layer4.1.bias f4 [64]
00000000: 9adb 87bc 86ea 15bc 66a0 38bb 667c 5bbc
00000010: 9c6f ecbb 6af6 5abb e7d2 12bc 3f87 11bb
00000020: 622f 463b d718 0fbc b4ae de3b 3279 3cbc
00000030: 744c c0bc 62f0 0b3b 99e4 9c3b c7e7 693c
00000040: 4192 f7bc b3d3 2bbd ea5e 9ebc 097b 76bb
00000050: b0ee 933c 37d3 cf3a 507a b2bc 0e1b 4ebc
00000060: 5d30 28bd 8026 86bc 6794 b0bc e583 073d
00000070: 7ffe 843c e8a9 10bd d0f9 673c 5c91 653c
00000080: 3c9d c33c e41d 923c 5710 61bc 735b 04bd
00000090: 8b21 b43c 634c 77bb 1f1f d5bc 56a4 8cbc
000000a0: 825e 123b 19d0 87bb 617e 933c 7625 b6bc
000000b0: c17b b5bb 81b2 bc3c 8007 f23c a696 973c
000000c0: 7c40 043d 8b39 fe3b 1dd1 3abc d1ce 2cbb
000000d0: cbef c1ba 0064 8b3b 49f3 2bbc b22b 92bc
000000e0: da53 85bb 2182 1c3b 898e e63b 5fac 22bc
000000f0: fad0 b2bc 379b 843c ec95 953c cb05 dcbb
-0.016584206 -0.009150153 -0.0028171777 -0.013396358 -0.0072154533 -0.0033411034 -0.008961416 -0.0022205857
0.0030240645 -0.00873395 0.0067957286 -0.011503505 -0.023473956 0.0021352996 0.004787993 0.014276451
-0.030221106 -0.04194994 -0.019332368 -0.0037609956 0.018058151 0.0015855794 -0.021786839 -0.0125796925
-0.041061748 -0.01637578 -0.021555139 0.03308477 0.016234634 -0.035318285 0.014158681 0.014011707
0.023878686 0.017836519 -0.013736806 -0.032313775 0.02198865 -0.003773474 -0.026015816 -0.017168205
0.0022334163 -0.00414468 0.018004598 -0.02223466 -0.0055384343 0.023034336 0.029544592 0.018504452
0.03228806 0.0077583245 -0.011402396 -0.002636839 -0.0014796195 0.0042538643 -0.010495015 -0.017843101
-0.004068834 0.0023881274 0.0070360345 -0.009928792 -0.021828163 0.016187293 0.018259965 -0.0067145578

_module.layer5.0.weight f4 [64, 64, 3, 3]
00000000: ccc5 363d f40e 81bc bfae 42bc e816 19b9
00000010: 2ee8 f7bb 321e bbbc 78e7 1c3d 5384 f3bb
00000020: 413d 6e3d 6ab0 2b3d bd5e 88bd 848c 26bd
00000030: 00d5 f53c 789a fd3c 4d9c ea3c 9a73 343d
00000040: 0897 afbd 2c70 a23c 0233 5fbd a60c 4ebd
00000050: 8724 153c be38 c2bc fd7b 27bc 8d62 94bc
00000060: 58db d7bc 62c8 03bd 69d3 38bd 9895 4dbc
00000070: 1e43 ba3a cdea 923d 6832 7b3b 02ab c3bc
00000080: 942c 883c 9afb 01bd 9e9b 303d 9f63 6f3b
00000090: 456f cc3c 886d ff3c 2a95 0dbc 3cc9 023d
000000a0: 3008 c3bc 2ea3 26bd baaf 2b3d 8fa2 66b9
000000b0: 30a4 14bd a2aa f13c 1165 8d3c 99af c7b9
000000c0: 2e35 3d3b 5497 fc3b a08a abbc 2e94 0a3d
000000d0: d023 8fbb 9d1b 38bc 87df 1f3d 7c45 653d
000000e0: 9a8a 263c ec16 0a3b 2883 b9ba 71a7 703c
000000f0: 26b7 053d ba8d 0dbc c19b b1bc a354 133d
00000100: 0dbd 04bc 3d2a 493c 89f6 c2bc baf2 fe3b
00000110: f7b0 e5bc 4211 0d3a b93f 10bd 358c 4c3d
00000120: d7bc 093a 1a71 e3bc c424 89bc a938 16bd
00000130: b608 6cbd eb9a 5d3d b63f c03c 36b2 a6bc
00000140: 9d99 1dbd 71bc 233d 7c36 63bd c82d 15bc
00000150: 00f0 65bc 7782 013d 9136 1fbd 84c2 ad3c
00000160: e52c 1fbc ef41 933d 00f9 1ebc 2ca5 91bd
00000170: d947 d73b 17d6 2b3d 492a e4bc 6e62 e4bc
00000180: 90c2 c3bb 2b2f 4fbb b07b 1c3d 652b e7bc
00000190: ecaa 2e3d 8526 d43c 212f e73b d859 dfbc
000001a0: 5f29 0d3a d20c 103c 8536 1bbd fe8c be3c
000001b0: c77d e2bb 7304 8abc 583a f73a a848 43bc
000001c0: 96ac c4bc 6142 4bbc 442c 543c 6ff0 613c
000001d0: 0162 bd3c c85d 46bd fe05 233d 6830 94bc
000001e0: 3c5e c6bc baf6 d93c 5bb2 1d3d 3371 1cbd
000001f0: 3dea 22bb 0d94 633c 918d 4f3c bda6 babc
00000200: eb2d aabc 0b4c c93c 5ae0 a5bc c308 3b3c
00000210: 7cda 04bc 0dec 80bc 0d6c fe3c ed3b dcbc
00000220: 33eb 2fbd 7619 1cbd 5d85 083c 7cbc 00bd
00000230: 23a8 283c aaab 0bbc f556 153d 691a f33b
00000240: e3d8 203d 75bf 113c d557 b7bc 830e f63b
00000250: 3c9d 713d 20ad 54bc 3e13 eeba 2be2 103c
00000260: 85ac b9bb 6eb8 a43b adb6 a73b fd19 d1bc
00000270: 0a97 593a 8abc 8d3d d28b c43c 2779 28bd
00000280: 5753 8d3c 2797 11bd 75b5 4f3d f76a dc3c
00000290: 77d8 433c f0c8 713c 1427 aa3c 5034 86bc
000002a0: f93c 99bc cc84 833c 4149 933c 4a7a 323b
000002b0: a7f9 bf3c 9494 8fbb 56b0 a13c f150 2e3d
000002c0: a9af 6dbd 24b0 93bc 16c9 a8bd 5861 893c
000002d0: 93f1 1c3d 108c 4e3d c1af 3d3d b6d9 a1bc
000002e0: de15 f8bc d0c2 e23c d436 f53c 00cb a83c
000002f0: 3b0e c83b 0f43 7bbc 2ad2 be3c b2f2 a4bd
00000300: 7160 2ebc 7015 41bd 7ab0 dd3c 24c3 43bd
00000310: b769 873c 3c07 413c ba72 823c b34c 443d
00000320: a869 23bc d696 0d3d 3110 68bd 5cb0 66bd
00000330: f20f 263d 7b90 db3c 9287 e13c 02bc 08bc
00000340: afa5 0dbc 67dc d03c 98d3 a33c 13e1 2bbd
00000350: 1c4d 2f3d f02a d33c 0c94 e93c 1421 0e3c
00000360: 71be ee3c bbd0 edbc f819 40bc c57e d43c
00000370: 1225 57bd 93b4 3bbc 9071 7fbc 74e0 dbbc
00000380: 7b98 ad3c 41b0 ffbc d51e 7abd 70ae f73c
00000390: 2664 8d3d 8a99 d7bc 81c9 a8bc 2d7a a6bb
000003a0: 8305 ba3b c119 3a3d 7273 7a3a b7b1 7dbc
000003b0: 7e5d 233a 552a 3ebb 9fe7 f0bb 13a7 b13c
000003c0: 57f1 efbc 767f 2d3c 1a18 213c 1b96 7d3c
000003d0: 1790 5a3d ed89 3bbd c323 0a3d 46d9 cc3b
000003e0: f5d5 23bd a0d0 d3bc c81c 513c a548 3b3c
000003f0: 6138 28bd 8e2f 093c 41d6 be3c d8eb 6a3c
0.044622228 -0.0157542 -0.011882483 -0.0001459975 -0.00756552 -0.022841547 0.038306683 -0.0074315458
0.058163885 0.04191629 -0.06658695 -0.04066135 0.030008793 0.030957446 0.028638983 0.04405556
-0.08573729 0.019828878 -0.054492004 -0.05030503 0.009102947 -0.023708697 -0.010222432 -0.018113399
-0.026349708 -0.03217352 -0.04512349 -0.012547873 0.0014210676 0.07173691 0.0038329605 -0.023885254
0.016622819 -0.031734087 0.043117158 0.0036527885 0.024955401 0.031180158 -0.0086415205 0.031930193
-0.023807615 -0.040682964 0.041915633 -0.00021995067 -0.036289394 0.02950031 0.017260106 -0.00038087068
0.002887081 0.0077084694 -0.020940125 0.03383272 -0.004368283 -0.011237052 0.03903153 0.05597447
0.010164881 0.0021070791 -0.0014153467 0.014688359 0.032645367 -0.008639747 -0.021680715 0.035969388
-0.008101714 0.012278137 -0.023799198 0.0077804 -0.028038485 0.0005381295 -0.03521702 0.0499384
0.00052542746 -0.027763892 -0.016741164 -0.03667513 -0.057625495 0.05410282 0.02346788 -0.02034865
-0.038476575 0.039974634 -0.055471882 -0.009105153 -0.014034271 0.03161856 -0.038870398 0.021210916
-0.0097152935 0.0719031 -0.009702921 -0.07111582 0.006569844 0.04195222 -0.027852194 -0.027878966
-0.0059741214 -0.0031613808 0.038203895 -0.028218934 0.042643473 0.025897274 0.0070551788 -0.02726452
0.0005384888 0.008792119 -0.03789379 0.02326059 -0.0069119665 -0.016847825 0.0018861992 -0.011919178
-0.024008077 -0.012405963 0.012950007 0.013790234 0.023118021 -0.04842928 0.039800636 -0.018089488
-0.024214856 0.026606906 0.03850017 -0.038193893 -0.0024858855 0.0138902785 0.012668029 -0.022784585
-0.020773849 0.024572393 -0.02024858 0.011415663 -0.008108731 -0.015737558 0.031057382 -0.026884044
-0.042948913 -0.03811022 0.0083325775 -0.031429753 0.010293993 -0.008524815 0.03645988 0.00741892
0.03926934 0.008895745 -0.022380749 0.007509054 0.05898784 -0.012980729 -0.0018163694 0.008842985
-0.005666318 0.0050268685 0.005118212 -0.025525087 0.00083003996 0.069207266 0.023992453 -0.041131165
0.017251654 -0.03554454 0.05071016 0.026906474 0.011953465 0.01475738 0.020770587 -0.016382366
-0.018705832 0.016054533 0.017979266 0.0027233534 0.023434473 -0.0043817256 0.019737404 0.04255766
-0.05802885 -0.018028326 -0.08241479 0.01677005 0.03831632 0.050426543 0.04631019 -0.019757133
-0.030283865 0.027680784 0.02993337 0.02060461 0.006105212 -0.015335812 0.023293573 -0.08054103
-0.010643111 -0.047139585 0.02706169 -0.047793522 0.016529901 0.01178151 0.015923847 0.04792471
-0.009973921 0.034567676 -0.056656066 -0.056320533 0.04054255 0.026802292 0.027530465 -0.008345606
-0.008645459 0.025495721 0.019998357 -0.041962694 0.042798147 0.02577731 0.028512977 0.008674879
0.029143544 -0.029030195 -0.011724941 0.025939355 -0.052525587 -0.0114566265 -0.01559104 -0.026840426
0.021190872 -0.031211974 -0.06106456 0.030234545 0.069038674 -0.02631833 -0.020603897 -0.0050804825
0.0056769266 0.045434717 0.0009553946 -0.015484265 0.0006231888 -0.002901693 -0.00735183 0.021686113
-0.029289884 0.010589471 0.009832406 0.015477682 0.05336007 -0.045785833 0.03372551 0.006251487
-0.039998967 -0.025856316 0.01276321 0.011430894 -0.041069392 0.008373154 0.023295524 0.014338456

_module.layer5.0.bias f4 [64]
00000000: 309f 8abc e692 0e3d 83aa b83c abc4 11bd
00000010: b368 b0bc 44d9 6cbb 455e 34bd 3154 57bd
00000020: 3214 bebc ded8 a4bc 5c55 4a3c 2cc2 813d
00000030: 7387 14bc 2293 d93c f214 74bd c939 dfbc
00000040: d584 333d 1f54 58bd 29f6 553c e9ea 643c
00000050: 0a7e dcbc fb68 1f3d 77e2 55bd 4bbb 393c
00000060: 7e7a eb3c 0af2 843c cae0 5ebd 1b10 ddbb
00000070: c162 1d3c d96f c83a 6102 86bc 67bd 903d
00000080: 9ac6 1dbc ac88 243d b36b a03c 0c53 a6bc
00000090: ef8e e33b 9725 f53c fdf5 4eba 2372 133d
000000a0: 5770 863a a79b 023c 2f44 0b3d 0130 1cbd
000000b0: 7d46 24bd 562e f1bc 574d 5a3c dcee 8dbd
000000c0: e48d f1bc 577a 1f3d d144 053d a623 23bc
000000d0: f689 a2bc 5b0e b53c 71a0 2abd 6047 5bbd
000000e0: dfeb 6e3c 16da 6f3c c3eb e3bc 3fa2 023d
000000f0: dd41 693c ff33 49bd 497a d13c 5f8a ba3b
-0.01692161 0.034808062 0.022542244 -0.035587948 -0.0215343 -0.0036140243 -0.044035215 -0.052570526
-0.02320299 -0.020122942 0.012349453 0.063358635 -0.009065497 0.026559416 -0.059590288 -0.027249234
0.04382785 -0.0528146 0.013059177 0.013972023 -0.026915569 0.038918477 -0.052217927 0.011336158
0.028744932 0.016228694 -0.054413594 -0.0067463047 0.009606064 0.0015292122 -0.016358556 0.07067376
-0.00962987 0.040169403 0.019582605 -0.020303272 0.0069445292 0.02992515 -0.00078949315 0.03599752
0.0010256869 0.007971681 0.03400057 -0.038131718 -0.040106285 -0.02944104 0.013324103 -0.069303244
-0.029486604 0.03893503 0.03253633 -0.00995723 -0.019841176 0.022101572 -0.041656915 -0.053534865
0.014582603 0.014639398 -0.02782238 0.03189301 0.014236894 -0.049121853 0.025571005 0.0056927647

_module.layer5.1.weight f4 [64]
00000000: 5451 803f c74a 813f d2f4 763f 0dbb 793f
00000010: c521 7f3f 34b8 803f 4fac 803f 444c 823f
00000020: f981 813f 3e9a 7d3f f4ed 803f 1d04 833f
00000030: 01b4 813f 0922 7f3f 2a3a 803f c935 813f
00000040: a395 813f 31ba 7a3f 0822 823f c218 833f
00000050: 51d2 7c3f 1279 7e3f 8915 813f 207d 733f
00000060: 460e 823f 9f96 7f3f 924d 7a3f a9bc 7d3f
00000070: fd47 7f3f 2879 7a3f b086 803f d91a 813f
00000080: 53f8 813f 9f57 733f 8325 823f f5c3 813f
00000090: 5c26 813f 787e 803f 7d4b 7d3f cc1a 803f
000000a0: c46c 823f 83d6 743f 9df4 813f cbd5 813f
000000b0: 942d 7f3f 7352 7b3f 6fd7 833f c223 813f
000000c0: f5c2 833f fb0d 803f 1833 833f 6f87 823f
000000d0: 370e 7c3f 2442 823f 377f 7d3f 85b0 803f
000000e0: 14ec 7f3f c1ac 7d3f 53b4 803f 47f0 7c3f
000000f0: 5074 7f3f 4a19 793f f15a 823f ade7 7d3f
1.0024819 1.0100945 0.96467316 0.9755104 0.99660903 1.0056214 1.0052584 1.0179524
1.011779 0.9906348 1.0072618 1.023563 1.0133058 0.9966131 1.001775 1.0094539
1.012379 0.97940356 1.0166636 1.024193 0.9875842 0.9940349 1.0084697 0.951128
1.0160606 0.99839205 0.9777461 0.99116 0.9971922 0.9784112 1.0041103 1.0086318
1.0153908 0.95055574 1.0167698 1.0137926 1.0089831 1.0038595 0.9894331 1.0008178
1.0189443 0.9563982 1.0152775 1.014337 0.9967892 0.9817268 1.030012 1.0089037
1.0293871 1.0004267 1.0249968 1.0197581 0.9845919 1.0176435 0.9902224 1.005387
0.999696 0.99091727 1.005503 0.98804134 0.99786854 0.97304213 1.0184003 0.99181634

_module.layer5.1.bias f4 [64]
00000000: 6500 ef3b b7d0 493c 45c7 cc3b 42b6 d339
00000010: 89b2 e73c 9c6a 2bbc f2f3 4a3c b939 c43c
00000020: bf03 c83c 96be 17bc f983 a73c 38dc 8fba
00000030: d585 d63a f977 523c 0f24 4e3c 71e2 58bc
00000040: dff0 083c 67e4 193d 7d9d d3bb fd61 47bb
00000050: 217f 743c 54c3 db3c 9c7d 65bb 3201 7bbc
00000060: fcac 383c 6c28 b33b 916a dc3c fcf6 48bc
00000070: 578b a9bc 38ba 863b 7c30 87bb 8234 a03c
00000080: 7871 953c 397c 0bbd cce9 9abb c465 9a3c
00000090: 4f69 903a 2447 7e3c 012c a9bb 6815 373c
000000a0: 43a1 d53c fbe8 f3bc baad 903c 1a66 cebb
000000b0: 1119 86bc e998 dbbc d095 acbb 9f0e 28bc
000000c0: 1357 183d 7f66 b2bc d8af a13c 7927 38bc
000000d0: 68cf bb3b b20c abbc b8aa 873c 0407 8e3b
000000e0: 81ad 6d3c c0ed cabb be93 e13b 3f8a f73c
000000f0: efc4 a03c 436e 6d3c 97ee 4e3c d70f 7f3c
0.007293748 0.012317828 0.0062493407 0.0004038085 0.028283374 -0.010462429 0.012387263 0.023953306
0.024415849 -0.009261748 0.020448672 -0.0010975664 0.0016366789 0.0128459865 0.012581839 -0.013237582
0.008358209 0.037571337 -0.006457983 -0.0030423396 0.014922888 0.026826538 -0.0035017496 -0.015320109
0.011271711 0.005467465 0.026906284 -0.012265917 -0.020696325 0.0041115545 -0.004125653 0.019556288
0.018242583 -0.034054015 -0.004727578 0.018847354 0.0011017713 0.015519891 -0.0051627164 0.011174537
0.026077872 -0.02977418 0.017660964 -0.0062987925 -0.016369374 -0.026806312 -0.0052668825 -0.010257392
0.037192415 -0.02177739 0.01973717 -0.01123988 0.005731512 -0.020880077 0.016560897 0.0043343324
0.014506699 -0.006192893 0.0068840673 0.030217288 0.019625155 0.0144916205 0.012630126 0.015567741
