weights/pretrain_private__finetune_normal.pth (torch, 950548 bytes, 26 tensors)

layer1.0.weight f4 [16, 3, 3, 3]
000000 9c 58 3b bd 3b 62 8c bd bd 3c 23 be b8 dd f9 bd
       -0.0457388 -0.068546735 -0.15941139 -0.122004926
000010 36 2d 0b bd 46 25 0d 3d 28 43 4c be 59 63 df 3d
       -0.033978663 0.034459375 -0.19947493 0.10907621
000020 63 c1 07 be 77 06 0d 3e 5f 6b 80 bd fe d4 8c bd
       -0.13257365 0.13771997 -0.062704794 -0.068765625
000030 53 8c 25 3e 84 ae 13 bd 89 5e c6 3d c9 75 c6 bd
       0.1616681 -0.036055103 0.09686 -0.096904345
000040 14 75 b8 3d 55 be 71 3a a6 92 06 3e 6e bd 19 3d
       0.09006706 0.0009221782 0.1314188 0.03753417
000050 e7 b6 07 be b6 ea e7 3d d8 76 b1 bd 99 ec ea bd
       -0.13253365 0.113240644 -0.08665246 -0.11470909
000060 89 78 40 3e 00 10 3d 3e 6e 1b 88 3d 68 a7 24 be
       0.1879598 0.18463135 0.06645857 -0.16079485
000070 94 15 06 3e 3e b3 58 be 43 d4 db 3c f5 68 0e bd
       0.13094169 -0.21162125 0.026834613 -0.034768064
000080 c9 c8 76 3c 81 93 ef 3d 77 04 03 be 00 cd be bc
       0.015062519 0.11698056 -0.12794672 -0.023291111
000090 44 ab ba 3d 56 d5 a5 bd ac 61 ca bd c6 5e 84 3c
       0.091146976 -0.08097331 -0.09881911 0.016158473
0000a0 fb 52 6e 3d a7 92 d8 3d be 3d ec bd 7a fa 9b bb
       0.058184605 0.10574847 -0.11535214 -0.0047600837
0000b0 81 72 04 be 6b 9b 2e 3e e5 b3 d6 bd b2 fa 92 bd
       -0.12934305 0.17051475 -0.10483531 -0.071767226
0000c0 84 1a 2c bd 9a 33 17 3e c2 b7 4c be 25 36 a9 3d
       -0.042017475 0.14765778 -0.19991973 0.082622804
0000d0 80 6d 17 be fd e3 8a 3c 23 16 df 3b 47 ba 1e be
       -0.14787865 0.016954416 0.006808059 -0.15500747
0000e0 ad 27 a2 3d e4 08 bd 3d be f0 b3 bd 0c a1 c5 3d
       0.07917724 0.092302114 -0.08786152 0.09649858
0000f0 aa f6 d4 3c a4 bf 02 be 9c 2f bf 3c 74 a3 07 bd
       0.025996525 -0.12768418 0.023338132 -0.033114865
000100 17 e7 0c 3d d4 c4 3a bc bb 77 23 3e 55 94 38 be
       0.034400072 -0.011399467 0.15963642 -0.18025334
000110 db 31 08 3e dc e4 c2 3b fa de 00 be c0 51 cb 3d
       0.13300268 0.0059476923 -0.12585059 0.09927702
000120 95 35 26 3e b3 57 34 3e 60 8c 3e 3e 32 fc 9c bb
       0.16231377 0.1761158 0.18608236 -0.004790806
000130 fa db 95 bd a3 6c 39 3e b8 53 35 bd da 65 23 be
       -0.07317348 0.18107848 -0.044269294 -0.15956822
000140 d3 76 0e 3d b1 4d 43 3c 9b 54 8a bc 76 9c 16 3e
       0.03478129 0.011920379 -0.016886046 0.14708123
000150 6d 82 a1 bd 7b 87 32 3e aa 1c ff 3c 43 0c 0e 3e
       -0.07886205 0.17434494 0.031141598 0.13871865
000160 f5 cc 2b 3c 04 5f b2 bd 6b 16 ac 3d 31 79 87 3d
       0.010485877 -0.08709529 0.084027134 0.06614912
000170 37 95 85 3d 92 10 23 3d e1 cb c5 bd d5 09 05 be
       0.06522601 0.039810725 -0.096580274 -0.12992032
000180 61 d5 9f bc f4 29 20 be d1 bf 08 3e 25 ec 02 be
       -0.019510927 -0.15641004 0.13354422 -0.12785394
000190 df e2 fd bd d0 e9 13 be 8a d2 be 3d 19 94 1c be
       -0.12396788 -0.14444661 0.09317501 -0.1529087
0001a0 b0 3b 95 3d 54 cc a4 bd 1e d1 ec bb 05 83 05 be
       0.07286775 -0.08046785 -0.007227077 -0.13038261
0001b0 c1 dc 1a be 09 83 f2 3d f1 3f 15 3e 63 cc 84 3d
       -0.15123273 0.11841399 0.14575173 0.06484296
0001c0 75 f4 40 3d 7c 00 15 bd a8 42 2b be ab ba 2a 3e
       0.047108132 -0.036377415 -0.16724646 0.1667277
0001d0 3d 31 ad 3d b9 89 dc bd d2 00 cd bd 4e 3c 39 3e
       0.08456657 -0.10768456 -0.10009922 0.1808941
0001e0 7d c8 ba bd 09 6f 49 3d c0 d2 15 3e 6a 20 c1 bc
       -0.09120271 0.049178157 0.14631176 -0.023575027
0001f0 96 50 4b be 6d 5f 9f 3c ad db 1c 3e 85 ec e2 bd
       -0.1985496 0.019454682 0.15318175 -0.11080269
000200 57 52 c4 3c 8c 5d 81 bd 93 a7 3a be 00 cf 29 3d
       0.023965044 -0.06316671 -0.18227987 0.041457176
000210 41 f9 3e be 12 14 15 3e 8b f9 18 3e 2b b2 55 bb
       -0.1864977 0.14558437 0.14938943 -0.0032607417
000220 72 31 80 bd f7 0f 16 3e ba f2 d5 bd 7d 5c 25 3e
       -0.06259431 0.14654528 -0.10446687 0.16148563
000230 cf fa 19 be 4d 94 02 3e 3f 26 3e bc 34 58 5b 3d
       -0.15037082 0.12751885 -0.011605798 0.053550914
000240 7a f9 ee bd ce 41 1a 3e 8e b1 07 be 24 97 5f 3e
       -0.11668678 0.15064165 -0.13251325 0.21835
000250 3e ac d8 3d 7e 45 05 3e e8 5f fe bd 59 34 3d 3e
       0.105797276 0.1301479 -0.124206364 0.18477
000260 76 23 38 3e 2d bd 25 be 3b eb bb 3d 31 1e 45 be
       0.17982277 -0.16185446 0.09175726 -0.19249798
000270 9e f1 3f 3d 26 e5 38 be 23 72 a7 3d a9 2c 06 be
       0.046861283 -0.18056163 0.08176067 -0.13102974
000280 11 f3 ce bd fe 36 40 be c0 f6 c2 bd af 2d c0 3d
       -0.10104955 -0.18770978 -0.0951972 0.093837135
000290 81 c4 8c bd 87 d9 9c bc 39 17 41 be 8c 9f 41 be
       -0.06873418 -0.019146694 -0.18856515 -0.18908519
0002a0 23 90 e7 bd 39 db 20 3c d0 63 3a be 08 5a 14 bb
       -0.11306789 0.009817892 -0.18202138 -0.002263667
0002b0 64 13 1a 3d 53 2a 94 3d 51 75 b8 bd 05 95 8c bd
       0.03761615 0.07234635 -0.09006751 -0.06864361
0002c0 96 4e 3d 3e 7a a6 7b bd 17 04 0b 3c b4 fa 26 be
       0.1848701 -0.06143806 0.008484862 -0.16306573
0002d0 51 5f d9 3d ca 6f 06 3e 32 6b fe ba 8c d1 5b 3d
       0.10613883 0.13128582 -0.0019410609 0.053666636
0002e0 f3 be bf 3d 17 e6 d7 3c 91 88 9a 3d 10 c6 1a 3e
       0.093625925 0.026354833 0.07545579 0.15114617
0002f0 41 f4 af bd eb 48 0c be b3 64 69 3d b3 c8 c8 bd
       -0.085915096 -0.13699691 0.0569808 -0.09803905
000300 f1 7f 44 3e 53 3b 10 3e 9f 66 b9 bd 66 a3 39 3e
       0.19189431 0.1408513 -0.090527765 0.18128738
000310 7c 2e 32 3e d6 24 db bb 89 76 32 3e 9f 38 0c 3e
       0.17400545 -0.006687741 0.1742803 0.13693474
000320 9b 9f 80 3c 20 8f 4e bd 4c 7c d6 bd eb bc 3c be
       0.015701106 -0.050429463 -0.104729265 -0.18431441
000330 38 47 86 bd b0 6b 23 3d 98 dc 05 be a8 8f b3 3d
       -0.06556553 0.03989762 -0.13072431 0.08767635
000340 d8 c0 28 3e bd 34 13 3e 12 aa ad 3c 18 f3 ec bd
       0.16479814 0.14375587 0.02119926 -0.11569804
000350 9d a9 32 be 0f 30 db bc 1b 00 2f 3e a8 41 69 bd
       -0.17447515 -0.026756315 0.17089884 -0.05694738
000360 a3 2e f7 bd 1c 15 97 bd 86 96 2c 3e 5e 1e f3 3b
       -0.12069442 -0.07377073 0.16854295 0.0074193915
000370 f6 ef ca 3d c1 4e 83 bc 57 94 0e be c9 b4 90 3d
       0.0990905 -0.016028764 -0.13923775 0.07065732
000380 e7 ee 03 3e c7 38 d1 bd b8 02 2f be ab 7b 80 3d
       0.12884103 -0.102159075 -0.17090881 0.06273588
000390 18 9a d5 3c 3b 45 22 be b9 df 81 bc ac a4 2a be
       0.026074454 -0.15846722 -0.01585375 -0.1666438
0003a0 46 20 3e be 4f da 21 be ac 06 84 bd 47 0a 15 be
       -0.18566999 -0.15805934 -0.06446585 -0.14554702
0003b0 97 60 e3 bc 17 be 65 bc 80 e6 a1 bd b3 88 06 be
       -0.027756019 -0.014022372 -0.079052925 -0.13138084
0003c0 72 0d 14 3d 46 05 97 bc f1 82 a5 bd 10 fd 0e bd
       0.036145635 -0.018435132 -0.08081616 -0.034909308
0003d0 d2 c5 db bd f1 e6 c7 bd 7b 60 14 be 55 91 46 3b
       -0.107310906 -0.097608455 -0.1448993 0.0030299027
0003e0 4f 3c 1f bb 34 d1 ab 3d 04 78 15 be 25 df 65 bd
       -0.0024297421 0.08389512 -0.14596564 -0.05612101
0003f0 42 24 0b be 26 d0 96 3d 7c 5b 3b 3e 57 17 42 be
       -0.1358805 0.0736392 0.18296617 -0.18954216

layer1.0.bias f4 [16]
000000 63 7c 05 3e e7 13 9f bc 33 58 10 be a5 c2 3b bd
       0.13035731 -0.01941867 -0.14096145 -0.045839924
000010 ae e7 e6 bd 05 f6 b1 bd b7 5b ab 3d e3 50 ea 3d
       -0.11274658 -0.086895026 0.083671026 0.11441209
000020 6e 3e f4 3b 41 35 32 be fa 26 25 3e 5d b3 80 bd
       0.0074537313 -0.17403127 0.1612815 -0.06284211
000030 47 4c 1b 3e 77 3d 13 be 6c 99 89 bd 20 9c 96 3d
       0.15165816 -0.14378916 -0.06718716 0.07353997

layer1.1.weight f4 [16]
000000 65 c3 7f 3f 26 d6 7d 3f 6b 37 82 3f 9f 44 7d 3f
       0.99907523 0.9915489 1.0173162 0.9893283
000010 29 4a 82 3f 69 1a 87 3f 88 24 80 3f 11 21 81 3f
       1.0178882 1.0554935 1.0011148 1.0088216
000020 71 21 7e 3f 5e 52 85 3f 2f 97 7c 3f 91 48 82 3f
       0.9926978 1.0415761 0.9866819 1.0178396
000030 fa 29 7c 3f 26 51 86 3f d3 9f 80 3f 6f 91 75 3f
       0.9850155 1.0493515 1.0048774 0.9592504

layer1.1.bias f4 [16]
000000 fe 19 8f ba d5 57 90 bb 47 7a 40 3b 69 3f 11 bc
       -0.001091778 -0.0044050016 0.0029369758 -0.008865216
000010 4b 30 7e bc aa b4 c6 3c ff e7 0c bd ba 36 52 bd
       -0.015514444 0.02425607 -0.034400936 -0.051321723
000020 89 f8 b4 bc 9b 5f f2 bb 75 5d 69 bc 91 56 39 3c
       -0.022091167 -0.007396651 -0.014243473 0.011312143
000030 40 2d a2 bb bc fb a3 3b 63 29 d7 bc 95 ae 5d bc
       -0.004949242 0.0050043743 -0.026264852 -0.013530393

layer2.0.weight f4 [16, 16, 3, 3]
000000 c8 e2 b8 bd 58 2a 9c 3d 80 fc 72 bc df b8 99 3d
       -0.0902763 0.07625264 -0.0148307085 0.075059645
000010 4f ea e7 3b f4 7e 34 bd a3 dd a3 3d e1 40 11 3d
       0.0070774923 -0.044066384 0.08001258 0.035462264
000020 1e 45 35 bc bb 5a c9 bd 51 30 c1 bd 1c e9 60 3d
       -0.011063842 -0.098317586 -0.09433044 0.05490981
000030 f6 30 ee bc 86 56 46 3b 47 1a 89 3d 0c 9f ed bb
       -0.02907608 0.0030263974 0.06694465 -0.007251626
000040 60 97 91 bd d9 b6 0e bd e3 77 7f 3d 16 61 6b 3d
       -0.071089506 -0.034842346 0.062370192 0.057465635
000050 fa 0c b8 bc a2 eb 3f bc 2d cd 63 bd 8d ed 61 bd
       -0.022467125 -0.011713894 -0.055615593 -0.055158187
000060 ac 1f d0 3d 56 fc 0d bd a3 10 65 bd 7b 5d 26 bd
       0.10162291 -0.034664474 -0.05592407 -0.040616494
000070 b3 e6 0a 3c ed 7a 13 3b f0 11 83 3d 22 19 73 3d
       0.008477855 0.002250369 0.06399906 0.05935014
000080 79 15 39 bd ae 95 52 bd 67 44 9c ba 2e 88 3c 3d
       -0.045186494 -0.051412277 -0.0011922241 0.04602831
000090 bb b9 d4 bc 95 47 53 bd 48 d6 97 3d 5e 2d 6b 3b
       -0.02596747 -0.051581938 0.07413918 0.0035885195
0000a0 63 e2 aa bd 16 90 81 bd 48 71 c5 bd c8 25 e0 bd
       -0.08343961 -0.0632631 -0.09640747 -0.10944706
0000b0 0c 15 df 3c 4b 49 a7 3d 7d 86 13 3e 96 a8 e6 bc
       0.027231716 0.081682764 0.14406772 -0.02815656
0000c0 15 b6 28 3d e2 a0 8b bb cf ad 8d bb 86 96 b2 3d
       0.041189272 -0.004261122 -0.004323698 0.08720116
0000d0 d6 0f 1d 3d 0e 90 f2 3d 7e a1 61 bd 73 32 5d 3d
       0.03834518 0.118438825 -0.05508565 0.05400319
0000e0 6c c2 6c bd dd e9 83 bd 9e f7 f0 bc 22 c2 44 3d
       -0.057802603 -0.0644109 -0.029414948 0.048036702
0000f0 b6 33 ac bd 4e 70 1f 3c d6 4c 89 bc bf d8 ab bd
       -0.084083006 0.009731365 -0.016760271 -0.083909504
000100 36 67 96 bd 0e 32 cc bd a3 8a 2b bd b4 49 f1 3b
       -0.07343905 -0.09970485 -0.04188026 0.0073635224
000110 e4 59 6d 3c 25 7d ba bc f8 c6 7a bd fe 49 96 3c
       0.014486764 -0.022764752 -0.061224908 0.01834583
000120 51 cd 3a 3d 7e 54 b9 bd e2 bb 3a bd e7 20 2f 3d
       0.04560596 -0.09049319 -0.045589335 0.042755987
000130 81 dd 6f bd 20 f4 99 3b 6a c1 9a bd a7 08 02 bd
       -0.058560852 0.0046982914 -0.07556422 -0.031746533
000140 26 9b 91 bc ad 99 b4 bc 7e b2 35 3d 51 0b d7 bc
       -0.017774176 -0.022045935 0.044359677 -0.026250513
000150 75 20 54 3d d4 9b d1 3c c6 3e b2 bd 1e cf d3 3b
       0.051788766 0.025587 -0.08703379 0.0064638993
000160 cf 0d b4 3d 4b 6f c6 bb f9 7e 0f bd 38 a1 38 3c
       0.08791696 -0.0060557476 -0.0350332 0.011268906
000170 9a 98 7c bd e6 ce 9c bc 22 69 65 bc f5 87 47 3d
       -0.06166897 -0.019141626 -0.014002116 0.048713643
000180 da 4c fb bc 9e cf 9f bc a5 17 2c 3d d2 09 39 3d
       -0.030676294 -0.01950818 0.042014737 0.04517538
000190 c2 e4 72 3d dd b5 e7 bb e8 a3 aa bc 86 93 ed 3c
       0.05930019 -0.0070712403 -0.02083011 0.029001009
0001a0 e7 67 62 bd 2d bb aa 3d c4 75 e1 3c 96 ee d2 bd
       -0.05527487 0.08336482 0.027521975 -0.10299413
0001b0 1a b9 51 bd ce ce 86 bd ab 98 23 3d 1a 78 c0 3c
       -0.051201917 -0.065824136 0.039940517 0.023494769
0001c0 ff f1 b2 bc af e8 a0 bd 0a 15 79 3d a6 6f 8c 3d
       -0.021843908 -0.07856881 0.06081108 0.06857233
0001d0 66 12 40 3c ab 94 97 ba 2b aa 05 3e 8c 03 df 3d
       0.0117231365 -0.0011564692 0.13053195 0.108893484
0001e0 2a c0 8e bc 4a 29 f9 bb af 53 24 3d 19 c7 23 3c
       -0.017425615 -0.007603799 0.04011887 0.009996199
0001f0 2c a7 6d 3d bf 53 89 3d b5 fe 04 bd 30 61 e2 bc
       0.058020756 0.067054264 -0.03246947 -0.027634233
000200 6b ae 98 bd e5 ad 55 3b 02 9d 81 3d d0 1b 31 3d
       -0.074551426 0.003260487 0.06328775 0.043239415
000210 0c 31 0c 3d 97 45 7f bc bd 5f 9d bb 10 71 9d bc
       0.034226462 -0.015580556 -0.0048026727 -0.019218951
000220 a7 a2 ab 3c 90 f1 67 bd 2b aa 0e bc 94 2e 0b bd
       0.020951582 -0.056626856 -0.008707563 -0.033979967
000230 66 72 8f 3b 61 bc b6 bd c8 6f 57 3d c8 f3 36 3d
       0.004377651 -0.08922649 0.052596837 0.04466608
000240 63 49 c0 bc 2f 85 19 bd 0c 4a ea 3c c4 91 14 3c
       -0.023472494 -0.03748053 0.028599761 0.009067956
000250 3d 99 97 bd e7 53 94 3d 4f bc e1 bd 06 6d 58 3d
       -0.07402275 0.072425656 -0.11022245 0.052838348
000260 6f 36 f2 3c c1 bd af bd 2a e7 42 3d 1c 7a 60 3d
       0.029566972 -0.085811146 0.047583736 0.054803953
000270 5c 27 7c 3d 79 6d 1e bd d6 9d 18 3b 23 1a 0e bd
       0.061560974 -0.03867862 0.0023287437 -0.034692895
000280 4a 51 97 bd bc b6 a5 bb 89 70 5c 3c ff 5c 0b bd
       -0.073885515 -0.005057184 0.013454565 -0.034024235
000290 64 42 17 bc 4e 20 21 3c 8c c1 3f bd 50 65 80 bd
       -0.009232137 0.009834362 -0.04681544 -0.06269324
0002a0 56 48 e5 3d 19 64 1d bd 6b 91 d2 bc a6 7c 1b 3d
       0.111954376 -0.03842554 -0.025704106 0.03796067
0002b0 01 bb bc bd 1c 2e 1a bd b9 50 a2 bc 24 cb 45 bd
       -0.09215356 -0.03764163 -0.019813882 -0.048289433
0002c0 01 dd 77 3d 9b b0 46 3d 1a 9e 17 3d a1 35 7b 3d
       0.0605135 0.048508268 0.03701601 0.06133044
0002d0 6f a4 47 bd 12 1b aa bb b8 44 b3 3b 5a f9 b3 3d
       -0.0487408 -0.0051912153 0.0054708384 0.087877944
0002e0 15 a5 77 bd 2b b4 52 bd bc ef b9 3c 0d a0 6b bd
       -0.06046017 -0.051441353 0.022697322 -0.057525683
0002f0 10 70 75 3d 76 a5 a3 3c a5 8a 9a 3d ee 4f 9a 3c
       0.059921324 0.019976359 0.075459756 0.018836942
000300 6f 33 a2 3d 3f 5f 0f 3d c6 f9 94 3c 77 95 14 bd
       0.079199664 0.035002943 0.018185508 -0.036275353
000310 b1 a7 07 bd 90 d8 98 3c fe b1 40 bd d0 02 1b 3c
       -0.033118907 0.018657953 -0.047044747 0.00946112
000320 e6 1b 9e bd 58 53 2f bd d5 09 7b bc e9 15 c5 bc
       -0.07720165 -0.042804092 -0.015322168 -0.0240583
000330 34 af 22 3d 93 62 90 bd 25 36 87 3d 95 31 87 bc
       0.039717868 -0.070500515 0.06602124 -0.016503135
000340 d9 05 e9 bc 1b ec 92 3d 41 74 9b bd ed a6 98 3d
       -0.028445171 0.0717394 -0.07590533 0.074537136
000350 54 33 4e bd 90 7b 06 bd 42 ac 67 bd a4 1d 34 3d
       -0.05034192 -0.032832682 -0.056560762 0.04397358
000360 bf 0f 91 bc fb be bd 3c ad af 98 3d 23 a7 e2 bb
       -0.017707704 0.023162356 0.074553825 -0.006916897
000370 0f 9e 4f bd 9f 7c b7 bd e6 0d a1 bd ec b0 86 3d
       -0.050687846 -0.089593165 -0.07863979 0.06576714
000380 30 24 b9 bc 93 e2 a3 3d 02 4d 1a bb 67 06 0a bd
       -0.022600263 0.080022 -0.0023544435 -0.033697512
000390 df a4 69 bd 91 f3 44 3d 9b 1a 1c 3d 33 5a af 3d
       -0.057042 0.048083846 0.03811131 0.08562126
0003a0 e5 14 f9 b9 47 c8 a7 bc b4 a6 8f bc 0f b5 ab bc
       -0.0004750855 -0.020481242 -0.017535545 -0.020960359
0003b0 07 4c bc bb a8 2e 3b bd 4e d5 0e 3c 05 e7 91 3d
       -0.005746368 -0.04569879 0.008717848 0.071241416
0003c0 6a 25 c5 3c d5 56 38 bc a6 42 62 3d db b4 78 3d
       0.024065692 -0.011251171 0.055239342 0.060719352
0003d0 be 2d 87 bc a2 3c 47 3c f4 d5 af bd ec ce 85 3c
       -0.016501304 0.012160452 -0.0858573 0.01633402
0003e0 72 64 fb bc 29 6e 53 bd 33 2e d6 bc 7a cb 94 3d
       -0.030687544 -0.05161873 -0.026145076 0.072653726
0003f0 30 f0 02 bd 02 6f a1 ba 97 33 05 bc 04 08 a4 bd
       -0.031967342 -0.0012316408 -0.008129976 -0.08009341

layer2.0.bias f4 [16]
000000 11 91 5b bd ba 25 5e 3d a0 f3 3e bd 8d f6 92 bd
       -0.053605143 0.054235198 -0.046619058 -0.07175932
000010 8b 94 7a bc 65 97 20 3d 3c ad a6 3c ab d3 6a bc
       -0.0152942045 0.03920688 0.020346276 -0.014332692
000020 65 0e 05 bd c1 70 78 bd 3a 6b 4b 3c ae 1f 0e bd
       -0.03248443 -0.060654406 0.0124157015 -0.03469818
000030 0d 7b 80 3d d7 cb 94 3b 94 09 f6 bc 3e 86 a7 3c
       0.0627347 0.004540901 -0.030033864 0.020449754

layer2.1.weight f4 [16]
000000 56 0f 82 3f 27 2f 81 3f ad 4b 82 3f 59 88 7d 3f
       1.016093 1.0092515 1.0179344 0.99036175
000010 b3 e8 78 3f a7 79 80 3f 16 ce 79 3f c3 75 7c 3f
       0.9723007 1.0037125 0.9758009 0.9861719
000020 9b 6f 81 3f 83 22 7d 3f 96 04 83 3f 4b 1a 81 3f
       1.0112184 0.98880786 1.0235775 1.0086149
000030 a4 7c 7d 3f 5e a3 84 3f b0 4f 7c 3f a4 68 74 3f
       0.9901831 1.0362356 0.98559093 0.9547217

layer2.1.bias f4 [16]
000000 ff ca cf bc 29 18 5e bc 2b 96 a4 bc 25 2f 64 bb
       -0.02536535 -0.013555565 -0.020091137 -0.003481814
000010 58 94 20 39 ca c7 c3 3b 65 39 5b bd 96 10 9b bc
       0.00015314051 0.0059747444 -0.053521533 -0.018928807
000020 79 75 29 3c 7e 06 8b bc 21 73 11 bc 8b 2b b4 bc
       0.010342949 -0.01697087 -0.0088775465 -0.02199342
000030 4d aa 43 bd 14 ec 48 3c 5d 75 f5 bc 5b 3c 3c bd
       -0.047769833 0.012263317 -0.02996319 -0.045955997

layer3.0.weight f4 [64, 16, 3, 3]
000000 df db 03 3d c7 88 a3 bd e0 8f 8b bd 5c 4b 8a 3c
       0.032192107 -0.079850726 -0.06814551 0.016881637
000010 86 86 a2 bd b5 7b cf bd ad da b8 3d e0 20 34 bd
       -0.079358146 -0.10131017 0.09026084 -0.043976665
000020 5b db 43 3d 45 3e 10 3d 6b e5 55 bd 3a 4d 80 bd
       0.047816616 0.035215635 -0.052220743 -0.0626473
000030 35 68 8b bc 30 ba 92 bd 38 d8 ad bd 57 c9 8f bd
       -0.017017463 -0.07164419 -0.08488506 -0.070208244
000040 04 79 2c 3d 3b 3c cf bc dc a4 33 bd 2d ce 7a bd
       0.042107597 -0.025297275 -0.043858394 -0.06123178
000050 27 79 27 3d da 91 3f bd 28 81 4f 3d 7f ab 71 bd
       0.040887024 -0.046769954 0.050660282 -0.059001442
000060 a1 97 f9 3c dd 0f 5a bd df 64 44 3d 5c bd 7a 3d
       0.03046781 -0.053237785 0.04794776 0.061215743
000070 38 48 72 3d 68 cf 43 3d e5 ab a9 3c af 0c d7 bc
       0.059150904 0.04780522 0.020711849 -0.026251165
000080 da ee 56 3d 82 8e 15 3d 12 a4 50 bd e0 98 c3 bc
       0.05247388 0.03651286 -0.05093772 -0.023876607
000090 35 fe 75 bd d7 b5 22 3d e4 ff 7e bd 5a b1 6f bc
       -0.060056884 0.039724197 -0.062255755 -0.014629686
0000a0 a3 b4 b0 3a 8c a5 b5 3c a2 d4 26 3d 96 da 32 bd
       0.0013481568 0.022173665 0.040730126 -0.04366549
0000b0 16 ec ff 3c 0c 18 5d bc e2 ba 24 bd 64 a0 da 3b
       0.031240504 -0.013494503 -0.040217288 0.006671952
0000c0 df 47 ae bd 86 9e 5b 3d 6f 07 b5 3d 2d d1 23 bd
       -0.08509802 0.053617977 0.088393085 -0.039994407
0000d0 e6 12 bc bc 03 8a 3b bb 76 7a b6 3d 4e 41 0b bd
       -0.02295823 -0.0028616197 0.08910076 -0.033997826
0000e0 1a 9f ee 3c c4 92 0a 3d f3 4b ef bb af 44 27 bc
       0.0291286 0.033831373 -0.007302755 -0.010209247
0000f0 8f dd fa bb 0d 2f 84 3d af f8 f2 3c 8c 00 ff bc
       -0.0076558064 0.06454287 0.029659597 -0.03112819
000100 1f f0 99 3d 45 b1 a2 3d 9e f5 17 bc 7c 88 75 bd
       0.075165026 0.07943968 -0.009274868 -0.059944615
000110 34 a8 32 bd aa bd 78 bd 41 e5 77 bd b0 f4 cb b9
       -0.043617442 -0.060727753 -0.060521368 -0.00038901484
000120 ee 8b 89 3d 85 4e 99 bb 8b a9 60 3d e9 ba b2 3d
       0.067161426 -0.0046785497 0.05484919 0.087270565
000130 2b ae e1 3b c4 9e 30 bd b1 30 02 3d f3 d1 53 bc
       0.0068872175 -0.04312016 0.031784717 -0.012928474
000140 a8 ea 56 3d d8 9d 6c bd 8c 85 a7 bd af 26 d7 3c
       0.05246988 -0.05776772 -0.08179769 0.026263563
000150 60 3a 96 bd 65 de 0d 3d c2 0c 9a 3a aa b0 b6 bc
       -0.07335353 0.03463592 0.001175307 -0.022301037
000160 d2 b1 a1 bd a0 4f 17 bc 48 bf ba bd 68 27 00 3d
       -0.07895245 -0.009235293 -0.09118515 0.03128758
000170 1c 30 07 be ad 8d d9 bc 3b 17 16 3d 49 df 90 bd
       -0.13201946 -0.026556814 0.036643248 -0.07073838
000180 de fb dd bd f6 9f 22 3d 71 a9 e7 bc b1 31 a5 bc
       -0.108390555 0.039703332 -0.028279038 -0.020165296
000190 52 92 65 bd 95 c6 77 3c 27 b4 72 3b 30 8b 57 3d
       -0.056047745 0.015123029 0.0037033649 0.052622974
0001a0 9c 4b 4d bd 4e 71 79 3d a2 d9 75 bd bf ae eb 3c
       -0.050120935 0.06089907 -0.060022004 0.028769849
0001b0 42 37 9d 3d 48 61 8a 3d 1a a8 04 3d 62 df 5e 3c
       0.07676555 0.06756836 0.032386877 0.013603063
0001c0 0b 94 51 bd dd eb 55 3d d3 37 09 3d 07 10 20 bd
       -0.051166575 0.05222689 0.033500504 -0.039077785
0001d0 8c 44 96 bc 98 50 ca bc 09 b1 78 bc 61 44 44 bc
       -0.018343233 -0.024696633 -0.015178927 -0.011979193
0001e0 9f 1d 1e bd 3e ba 26 bd d0 42 a0 39 bb 9e a4 bd
       -0.038602468 -0.04070496 0.00030567357 -0.08038088
0001f0 f8 c6 1e 3d 6a 0e 3c 3d 72 0e 18 bd 0e c3 36 3d
       0.03876397 0.045912184 -0.03712315 0.044619612
000200 b2 03 9e 3c 0d d5 c0 bd c1 16 01 3d 09 8b 32 3c
       0.019288871 -0.09415636 0.03151584 0.010897406
000210 02 e3 24 3c 26 5e 26 bd 98 97 8b 3c 1d 1f 3d 3d
       0.0100638885 -0.04061713 0.017040059 0.04617225
000220 db c7 ff bc f9 81 9b 3d 21 0a a1 bd 82 aa 19 bd
       -0.031223228 0.0759315 -0.0786326 -0.037516125
000230 96 7d a2 3c 8c ee e9 bb 84 3b 61 3c 5c a7 ff ba
       0.019835275 -0.0071390327 0.0137471 -0.0019504833
000240 9b 3f 2e 3c 05 40 48 bd 8e 00 9e bb 59 55 28 bd
       0.010635282 -0.04888918 -0.0048218435 -0.04109702
000250 20 42 25 bd e8 7e a1 3c af 9c 07 3e 25 12 66 3d
       -0.040346265 0.019713834 0.13243364 0.056169648
000260 5c 44 36 3d 85 3d a6 bc 1c 0a 22 3d d7 1d 72 bb
       0.044498786 -0.020293007 0.039560422 -0.0036944055
000270 35 89 51 3d 3b 33 bc bd 47 50 68 3d 3a 79 1e 3c
       0.05115624 -0.09189459 0.056717183 0.009672457
000280 6e 65 b1 bd 55 f9 e2 3c 03 1e 0d bd 6c af 3f bc
       -0.08661924 0.027706781 -0.03445245 -0.011699539
000290 fc 27 8e bd bf 33 a9 bb 79 d7 14 3d 90 ed 03 bd
       -0.0694122 -0.0051636393 0.036338303 -0.03220898
0002a0 fd e8 70 3d 22 6d 55 3d 09 5e 82 3d 0b 78 b5 bd
       0.058815945 0.05210603 0.06365592 -0.08860787
0002b0 ff 92 ed 3c 70 d4 c5 bb 12 0a b9 bd 6c fd 8e 3a
       0.029000757 -0.0060372874 -0.09035124 0.0010909266
0002c0 9c 22 36 bd de 7e 8f bc ba dd 8b bd af 79 1d 3c
       -0.0444666 -0.01751655 -0.068294 0.009611531
0002d0 93 18 b0 3c 26 d2 8f 3d dd 3b 57 bd fb a5 cb bc
       0.021496093 0.070225045 -0.052547324 -0.02485942
0002e0 e0 ca a0 3c 68 79 87 bd fb ad 0c bb 0c e4 59 3d
       0.019627988 -0.06614953 -0.0021466005 0.053195998
0002f0 60 20 a4 3b a7 2d fb 3b 6a f7 25 bd 98 0f c7 3d
       0.005008742 0.0076653543 -0.040519156 0.09719771
000300 d0 1b cc bd 65 aa 29 3d 5d 76 8b 3c f4 5d 92 bd
       -0.09966242 0.041422267 0.017024213 -0.071468264
000310 fe bf c5 bd fe 27 bd bd 02 44 3b bd d9 69 97 bd
       -0.0965576 -0.092361435 -0.045719154 -0.07393236
000320 36 e9 ee 3b d0 31 16 3d 86 35 9e bd d8 1b d1 bc
       0.0072909845 0.0366686 -0.077250525 -0.025525972
000330 d2 dd 8e 3b 1e 08 8e 3c 8b 46 63 3c e0 c8 66 3c
       0.004359939 0.017337855 0.013871799 0.014085978
000340 a7 af fd bc 96 97 ab 3d 3b 7a 95 3b f1 f6 91 bc
       -0.030967547 0.08378522 0.00456169 -0.017817946
000350 d5 07 03 3e ba 88 e4 3c 4a af f2 3c 90 71 a9 bc
       0.12795956 0.027897228 0.0296246 -0.020684034
000360 c2 03 91 bd 46 8a 59 3d 61 98 d2 3b 2d d1 d5 bb
       -0.07080795 0.053110383 0.0064268564 -0.00652518
000370 de 60 31 bd ad 82 9e bb 94 2f 32 3c 23 22 af bd
       -0.04330527 -0.004837355 0.010875601 -0.08551433
000380 b6 c1 f1 3c 72 75 3a bd d6 e9 18 bb 40 d1 0d 3d
       0.029511314 -0.04552216 -0.0023332736 0.034623384
000390 b1 ef 89 3d 2c 89 f3 bc ad 81 a9 3c cb f3 15 bd
       0.06735171 -0.029728495 0.020691717 -0.036609452
0003a0 cb 1e 8e 3d 57 04 04 3c 6f 1a 30 bc 0e 77 24 bd
       0.06939467 0.008057675 -0.01074849 -0.040152602
0003b0 79 ba ea bc af 9b 63 3d ac cd 2f bd 2c 22 b0 bb
       -0.02865337 0.055568393 -0.042920753 -0.0053751674
0003c0 07 92 30 bd 50 be 63 bd 13 4e bd bc 6c b4 08 bd
       -0.043108013 -0.055601418 -0.023108518 -0.03337519
0003d0 24 3a b8 bc 00 d2 08 3d e5 a9 fc bc bb 23 e8 3a
       -0.022488661 0.033403397 -0.03084273 0.0017710844
0003e0 cf d7 bd bc f6 7d 81 bc 10 47 fb 39 87 34 37 bd
       -0.023174195 -0.015807133 0.00047927396 -0.04472783
0003f0 64 17 ee bc be 4a 40 3b 19 9f 6b 3d f0 ed 7c bd
       -0.029063888 0.0029341425 0.057524774 -0.061750352

layer3.0.bias f4 [64]
000000 44 ae fb bc a3 cc cc 3d 2d e8 36 bd 65 e5 a5 3d
       -0.030722745 0.09999969 -0.044655014 0.08100394
000010 4f 09 a2 3d 6c e6 99 3d 6d 5d 93 3d 02 da 52 3d
       0.07911932 0.075146526 0.07195554 0.05147744
000020 e3 41 f5 3b b6 1d bb bc a4 af 6a bd 32 07 8c 3d
       0.007484661 -0.022841316 -0.05729641 0.0683731
000030 23 a0 af 3d f1 c4 29 bd 17 49 8c bd 62 f8 98 3d
       0.085754655 -0.041447584 -0.06849878 0.0746925
000040 f4 ad 4c 3d d1 98 96 3d be 57 5d bc a5 b3 f7 3c
       0.049970582 0.07353366 -0.013509689 0.030237028
000050 0d cf 3b bd 0a 31 97 3c 4e 72 bb bd d9 8d 84 3d
       -0.045851756 0.018456 -0.09152661 0.06472368
000060 b8 9d 0e bd 81 8f b9 bc 70 38 82 bd ae c9 97 3c
       -0.03481838 -0.022651436 -0.06358421 0.018528786
000070 3d 40 80 3c 79 9c a7 bd c8 bb e0 3b 41 72 1f bd
       0.015655631 -0.08184142 0.006858323 -0.03892732
000080 2b 4b d7 3c cf 38 16 3d cd b7 b2 3d 5b 20 4c 3d
       0.02628096 0.03667527 0.087264635 0.049835544
000090 5a 34 c4 3d e8 79 be 3d b2 8f 23 bd 98 f2 7e 3c
       0.09580298 0.093005955 -0.03993196 0.015560769
0000a0 9c 83 9f 3d ae 05 6e 3d 7d 25 62 bd cb 52 82 bd
       0.07788774 0.058110885 -0.055211533 -0.06363448
0000b0 ae b8 26 3d a1 7d 4d bb 8b 28 46 bd 63 60 ff bc
       0.040703468 -0.0031355398 -0.04837851 -0.03117389
0000c0 7f ec 0e 3d b3 1e 1c bd 9e 59 ff 3c fc 9d 29 3d
       0.03489351 -0.038115215 0.031170662 0.04141043
0000d0 2b 36 dc 3b 32 93 a5 bc c1 5a c9 bd 82 46 06 3d
       0.0067203245 -0.02021179 -0.09831763 0.032782085
0000e0 4d f6 1f bc 12 7c f5 bb b3 c2 42 bc 75 23 53 3d
       -0.0097633125 -0.007491597 -0.01188724 0.051547486
0000f0 f3 ac bd bb 56 43 bb bc 8b 20 5c bd c5 44 a3 3c
       -0.0057884394 -0.022859257 -0.053741973 0.019930253

layer3.1.weight f4 [64]
000000 7b ff 80 3f 2b 63 87 3f 4f e2 7a 3f 13 8f 83 3f
       1.0077966 1.0577139 0.9800157 1.0278038
000010 82 62 7e 3f af 4a 7a 3f 11 c3 82 3f 9a 40 7b 3f
       0.9936906 0.9777021 1.021578 0.9814545
000020 9d ef 7c 3f 1d c8 7e 3f 04 e7 82 3f 22 14 7c 3f
       0.9880312 0.995241 1.022675 0.9846822
000030 7d 2a 7f 3f de ef 7c 3f 33 e0 79 3f 6a 9e 7d 3f
       0.99674207 0.9880351 0.97607726 0.99069846
000040 15 73 82 3f cc 59 81 3f f3 56 82 3f 91 fc 78 3f
       1.019137 1.0105529 1.0182785 0.97260386
000050 93 c4 79 3f a7 e6 7c 3f 55 43 81 3f 19 1e 7c 3f
       0.97565573 0.9878945 1.0098673 0.98483425
000060 9c 62 7e 3f 44 da 82 3f eb 2b 7c 3f 2a 3d 7c 3f
       0.99369216 1.0222859 0.98504514 0.9853083
000070 7d 83 80 3f 41 35 81 3f 5a 78 81 3f d1 15 83 3f
       1.0040127 1.0094377 1.0114853 1.0241033
000080 61 d8 7c 3f 3e 12 7d 3f cf 01 80 3f 37 42 83 3f
       0.9876767 0.9885596 1.0000552 1.0254582
000090 19 84 81 3f f3 c0 7d 3f 68 ca 79 3f 2c f1 76 3f
       1.0118438 0.9912254 0.9757447 0.9646175
0000a0 15 8f 7e 3f 05 73 80 3f 12 c0 7b 3f 94 f5 82 3f
       0.99437076 1.0035101 0.9833995 1.0231194
0000b0 db 7d 80 3f 4b 04 81 3f 82 93 86 3f 89 fb 82 3f
       1.0038408 1.0079435 1.0513766 1.0233012
0000c0 1f fd 80 3f 8e b0 82 3f e0 87 83 3f 46 b1 82 3f
       1.0077246 1.021013 1.0275841 1.021035
0000d0 04 1e 82 3f 77 ce 80 3f dc 77 80 3f a7 6a 7d 3f
       1.016541 1.0063008 1.0036578 0.98990864
0000e0 65 66 7a 3f 7b e6 7a 3f 85 63 7f 3f 4f 62 78 3f
       0.9781249 0.98007935 0.9976123 0.97025007
0000f0 fa d4 7d 3f 39 88 7e 3f 75 b2 79 3f 8e 7c 80 3f
       0.991531 0.9942661 0.9753793 1.0038011

layer3.1.bias f4 [64]
000000 da cd 1a bc 31 a9 c1 ba 79 5a 98 ba 4a dc fa bb
       -0.009448493 -0.0014775154 -0.0011623643 -0.007655655
000010 41 0a 20 bc e5 64 88 bc 49 e1 b7 bc b8 c3 37 bd
       -0.00976807 -0.016649673 -0.022446292 -0.044864386
000020 a6 39 26 bc 1c 87 94 bc 3f 3d c1 bc ef d5 52 bc
       -0.01014558 -0.018130831 -0.023588775 -0.012868389
000030 63 9d de bb 48 80 78 bc 7f 75 ff bb cd 63 8e bc
       -0.0067936643 -0.015167303 -0.007795989 -0.017381573
000040 bd ac 02 bd f3 29 1b bb b1 ca 4e bc 59 29 22 bc
       -0.031903017 -0.0023676127 -0.012621568 -0.009897553
000050 1b 48 fc bc 09 e9 72 bc 6f 1e 33 bd c1 1b a6 bc
       -0.030796101 -0.014826068 -0.043730196 -0.020276906
000060 f3 ad 57 bc 60 83 96 bc cf 5a 46 bc 72 fb ae bc
       -0.013164031 -0.018373191 -0.012106611 -0.021360133
000070 f3 2a 2e bc 4c e8 38 bc 71 17 34 bc fc 45 fa 3b
       -0.010630357 -0.011285853 -0.010991917 0.0076377373
000080 88 bc 87 bc c7 49 16 3c d0 86 d1 3b 96 b1 17 ba
       -0.01656939 0.009172863 0.0063942447 -0.0005786655
000090 2e f3 27 3b 54 2a 06 bd 5b b0 15 bd f2 4c 34 bd
       0.0025627124 -0.03275521 -0.03654514 -0.044018693
0000a0 26 a3 98 bc 0d e2 a2 bc e4 45 e6 bc 90 30 8d 3c
       -0.018632483 -0.01988318 -0.028109498 0.01723507
0000b0 56 0a 16 bc 2e 01 38 3b 7d 6f 4c 3b 24 9d 58 bc
       -0.009157738 0.0028076875 0.0031194382 -0.013221059
0000c0 be af 9c 3b 97 9d c8 3b aa 92 58 3b ee 8c 51 bc
       0.0047816923 0.006122302 0.0033046403 -0.012789948
0000d0 01 5f 9d 3b 72 f4 8c bc 4d 20 97 bc 18 15 a2 bc
       0.004802585 -0.017206404 -0.01844802 -0.019785449
0000e0 75 c3 b7 bc 92 38 be bc 37 94 c5 bb 10 dc a5 bc
       -0.022432068 -0.023220334 -0.0060296315 -0.020246536
0000f0 6f 0b 1c bc f4 a8 25 bc f3 30 90 bc c1 ec 11 bb
       -0.00952421 -0.010111082 -0.017601466 -0.002226636

layer4.0.weight f4 [64, 64, 3, 3]
000000 4f b6 7f 3b 1a 96 b1 3b 91 25 d2 3b d1 b1 a3 3c
       0.0039018576 0.005419505 0.0064131697 0.01998225
000010 25 47 3b 3c 6c 81 40 bd 26 92 63 bd cd b3 c2 bc
       0.011430536 -0.046998426 -0.0555593 -0.023767376
000020 94 d1 10 3d 83 5c 15 3d 2c af 05 3d 8e 11 a5 3b
       0.03535612 0.03646518 0.03263776 0.005037493
000030 f6 22 bf bc 9a c0 54 3d 3a a8 06 3c 7f 19 31 3d
       -0.0233321 0.05194149 0.008218819 0.043237206
000040 58 97 81 3d 95 05 20 3d 52 f2 77 3c 6d 6c 73 3c
       0.06327695 0.039067823 0.015133457 0.014857394
000050 de e1 1c 3b 9a 44 1b 3c be 7a 8e 3d c5 57 dc 3c
       0.0023938338 0.009476805 0.06957005 0.02689732
000060 3c 95 3a bc a5 b7 ca 3b 5e 76 ec bc d0 d7 8d 3c
       -0.011388119 0.006186443 -0.028865036 0.017314821
000070 f2 38 1e bd 1e 0b fd 3b 98 6f 88 bc ba 2a 52 bc
       -0.038628526 0.0077222725 -0.016654775 -0.01282757
000080 8a 18 ae bc f3 dd 2d 3b f4 bd 6b bc b2 61 fb 3c
       -0.021251936 0.0026529997 -0.01438855 0.030686233
000090 e0 14 1f 3d e5 ba 94 bc 84 68 eb 3c d1 72 9a bb
       0.038838267 -0.018155525 0.02873636 -0.004713394
0000a0 17 b9 bf bb 1d e9 5d 3d 75 14 3c 3d 6c d1 65 3c
       -0.005850922 0.054177392 0.045917947 0.014026981
0000b0 44 2e 1f 3c 6f 63 10 3d de 7a 86 3c 87 19 cf 3c
       0.00971562 0.035251077 0.01641601 0.025280727
0000c0 87 be 78 bd fc 8d 11 bd 68 cb 9c 3c dd 08 15 bd
       -0.060728576 -0.035535797 0.01913996 -0.036385406
0000d0 ca 42 61 bb b5 d6 02 3b 58 b7 82 bc 94 76 1f 3d
       -0.0034372085 0.00199644 -0.015956566 0.038931444
0000e0 16 ef fb 3b bb 57 e3 3c f2 6f 4d bc fc 08 4b 3c
       0.0076884134 0.027751794 -0.012538897 0.012392279
0000f0 df 28 02 3d dd 53 8f bb 48 2e be bc 5d 31 ed 3c
       0.03177726 -0.004374011 -0.023215428 0.028954202
000100 cd c5 13 bc 12 0c 1c 3d 81 00 97 3b f0 01 83 bc
       -0.009019327 0.03809745 0.0046082144 -0.015992135
000110 b2 fe 1a bd 9b 13 67 bd ec 33 7d bc 74 dd 39 bd
       -0.037840553 -0.05641518 -0.015454274 -0.04537721
000120 9c fe 83 3b 15 2a c4 bb 8f 56 5b 3c f7 2b b6 3c
       0.0040281545 -0.005986462 0.013387336 0.022237761
000130 bf 66 69 bc 8b e7 96 bb 47 15 63 bb e9 53 dd bc
       -0.014245688 -0.004605239 -0.0034650133 -0.02701755
000140 85 a0 80 bc 3d 6a 78 3c 8f a3 05 bd 33 7e 6c bc
       -0.015701542 0.015162048 -0.032626685 -0.014434385
000150 c7 b0 f1 3c ab 33 11 bd 3a a9 b7 3c 45 5b 0d 3d
       0.02950324 -0.035449665 0.02241956 0.03451087
000160 83 8b ff ba 91 a3 13 3c 9c 23 2b bd c3 34 c7 3c
       -0.0019496534 0.009011165 -0.041782007 0.024317151
000170 8d a4 06 3c 0a 06 60 bd b6 3c 95 bc 3f 52 04 3d
       0.008217943 -0.05469326 -0.018217426 0.032305
000180 7c 78 21 3c 46 f1 17 3d 25 34 a8 3c 1e fc b4 bc
       0.009855386 0.03709533 0.020532677 -0.022092875
000190 47 ee 13 3d c9 9e a8 bc 32 ef 07 bc c1 09 f1 3c
       0.03611591 -0.020583527 -0.008296775 0.029423596
0001a0 b6 38 08 3d b4 04 a8 3c 0a 93 0d bc 46 5d 15 bc
       0.03325721 0.020510055 -0.008641014 -0.009116476
0001b0 f2 ff 11 bd c3 8f e0 bc cd aa 39 bd ce 0b 7c 3b
       -0.03564448 -0.0274123 -0.045328904 0.0038459185
0001c0 12 e3 67 bc 3d d0 b3 bc f6 c9 37 bd a8 68 8f bb
       -0.014153259 -0.021949882 -0.04487034 -0.0043764897
0001d0 45 14 17 bd 47 b7 70 3c 94 af 0e 3d 09 36 c2 bc
       -0.036884565 0.014692134 0.034835413 -0.023707407
0001e0 c0 9f a4 3c 18 db cf 3c ed 06 e3 bb 0c 7a 95 bb
       0.020095706 0.025373027 -0.006928316 -0.0045616683
0001f0 18 06 38 bd 5a 56 1c 3d 94 c1 48 bc d4 65 03 bc
       -0.044927686 0.03816829 -0.012253184 -0.008019883
000200 0d 36 b9 bc 2c 95 f9 bc a9 92 88 3c fc ff 46 39
       -0.022608781 -0.030466639 0.016671496 0.00018978113
000210 99 02 06 bd 4d 23 b3 ba 5a 6d 2b bd fa 33 85 bc
       -0.03271732 -0.0013667137 -0.041852333 -0.016260136
000220 39 80 22 3d 9d 41 36 bc e8 71 78 3d 71 3f 78 bb
       0.039673064 -0.011124042 0.060655504 -0.003787961
000230 47 c9 64 3d b6 b3 5a bc 06 f2 2d 3d 00 03 6b 3d
       0.055856016 -0.0133485105 0.04246714 0.057375908
000240 42 56 f3 bc c0 41 02 3d a9 8f 91 3c 8e 5b d1 bb
       -0.029704217 0.031800985 0.017768698 -0.006389088
000250 f1 e6 c0 bb 36 7c eb bc 39 40 a6 bc bf c1 9a bc
       -0.0058869054 -0.028745752 -0.020294296 -0.018891213
000260 2c 41 1a bd 15 4d 72 3c 05 be 58 bc ab c6 c8 bc
       -0.03765981 0.014788886 -0.013228898 -0.024508795
000270 33 a2 f2 3c 26 11 3e bd eb 41 06 bd fc b3 b3 3c
       0.029618358 -0.046403073 -0.032777708 0.02193641
000280 d1 ed 15 3c b7 4c f4 3c 59 30 07 3c 42 b5 09 3d
       0.009150938 0.029821737 0.008251273 0.033620127
000290 21 5b 08 3d 25 83 30 3d 09 5f f2 bc 5c 1e 2d bb
       0.033290032 0.04309382 -0.029586332 -0.00264158
0002a0 86 4a f5 3b 32 a3 fe ba 33 ce aa 3c 6d 71 10 bd
       0.0074856905 -0.0019427298 0.020850277 -0.03526442
0002b0 7a 83 e9 3c 95 99 9c bc e8 c4 97 bc 63 14 c3 bc
       0.028505076 -0.019116202 -0.01852651 -0.023813432
0002c0 dd af d5 bc 47 af 23 3d 1c 4f b4 3c 07 17 a8 3c
       -0.026084835 0.03996208 0.022010379 0.020518793
0002d0 07 54 31 3d ab 03 31 3c da f6 a4 3c d4 15 1c bd
       0.043293025 0.010804097 0.02013724 -0.038106754
0002e0 bb 84 f6 3c 4e d0 2e 3d 88 f1 5b bb a7 16 dc bc
       0.030092588 0.042679124 -0.0033560712 -0.02686627
0002f0 f1 f1 9c bc d1 47 36 bc 60 6a 1c 3d 11 ea 0c bd
       -0.019158335 -0.011125521 0.038187385 -0.03440291
000300 d4 4d 49 bd cd 9b 2f 3d b3 9d 19 3d b3 c6 25 3c
       -0.04914649 0.042873193 0.03750391 0.010118174
000310 38 17 f6 bc 43 b8 26 3d 10 24 09 3d b5 f8 b7 bc
       -0.030040368 0.04070307 0.033481658 -0.02245746
000320 8c 50 dd bb b3 05 58 ba f2 f1 ad bc f3 b8 01 3d
       -0.0067539867 -0.00082405953 -0.021233533 0.031670522
000330 fd e6 1f bc 6e ce 48 3c 12 f8 06 3c db 09 f1 bc
       -0.009759662 0.012256248 0.0082378555 -0.029423645
000340 8d 69 25 bd d9 e5 08 3d 0f 8b 09 3d bc 08 d2 3c
       -0.040383864 0.033422325 0.033579882 0.02563893
000350 21 a3 32 bc 04 43 10 bc 9f f1 ac 3c 28 97 a6 bc
       -0.010903151 -0.00880504 0.021111308 -0.020335749
000360 45 03 be bb 61 ee 8f bc 38 85 4e 3d a2 66 04 bd
       -0.0057987296 -0.017569723 0.050420016 -0.03232444
000370 68 8b ea 3c 69 4d 44 3d 68 4b 2a bc 03 83 43 bc
       0.028630927 0.047925387 -0.010393955 -0.011933091
000380 41 7e 44 3c 2e 7a a3 bc 49 aa 78 bc 14 ad c3 3c
       0.011992992 -0.01995572 -0.015177318 0.023886241
000390 f3 b0 16 3d 08 4c 06 3d b2 f2 d7 bc 36 33 04 3d
       0.036789846 0.032787353 -0.026360843 0.0322754
0003a0 1d bd a8 bc fb fa f4 3c a7 83 9d bc 40 b5 83 bc
       -0.020597989 0.029904833 -0.019227816 -0.016077638
0003b0 a5 65 e2 3c ae d1 aa 3c 58 7e 86 3c e3 00 44 3b
       0.027636359 0.020851936 0.016417667 0.0029907755
0003c0 58 dc b9 3b 18 08 0c 3d 55 11 58 3d b7 5f 04 bd
       0.005672019 0.034187406 0.052750904 -0.032317843
0003d0 61 dc 53 3c be b3 8c 3c 61 ac 8c bc b6 1a a8 bc
       0.01293096 0.017175552 -0.01717204 -0.02052055
0003e0 b0 30 fd bc 4a 78 90 bc 0a ba ad ba 3b a8 5e bc
       -0.030907005 -0.017635483 -0.0013254297 -0.013589914
0003f0 2c b7 2f bd 6c 2a 9a bc ba 29 36 3d ed 85 d2 bc
       -0.042899296 -0.018819056 0.044473387 -0.025698626

layer4.0.bias f4 [64]
000000 2d d8 ff bc 15 fd 2b 3c 31 f4 8b bc 8a 8e 84 3b
       -0.03123101 0.010497351 -0.017084213 0.0040453123
000010 29 03 c9 bc 15 cb 8e ba d8 73 0f bc 9e 51 9f 3c
       -0.02453764 -0.0010894263 -0.008755647 0.019448098
000020 59 fd d6 bc 6e f3 a6 bc e7 71 20 bd 58 bf a9 3b
       -0.026243852 -0.020379748 -0.039171126 0.0051802807
000030 3f d8 c3 3c b5 9e 0b bc e8 08 a8 3c 7c 7a 3e 3a
       0.023906825 -0.008521725 0.02051206 0.00072661764
000040 f1 72 fd 3c bb ad b0 bc fb d6 dd bc 20 6e 06 3d
       0.030938597 -0.021567216 -0.02708005 0.032819867
000050 6f 8d 50 3d cb 11 c6 bc 09 7b 35 bd 76 8c ed 3c
       0.05091613 -0.024178406 -0.04430679 0.028997641
000060 1f 57 83 3c 22 f8 38 bd 8b 66 c5 3c ee f0 2d 3c
       0.016032754 -0.045158513 0.024096748 0.010616524
000070 42 34 bc bc 7e 24 50 3d b4 62 4d bd b9 e5 e7 3c
       -0.022974137 0.05081605 -0.05014296 0.028307782
000080 ea b1 99 3c e8 68 3e 3d 2d 04 07 3c a7 9a 50 3d
       0.018761594 0.046486765 0.008240742 0.050928738
000090 1c f8 1f 3c 15 b8 e8 bb a5 98 9e 3c 13 d8 13 bc
       0.009763744 -0.0071020224 0.019359896 -0.009023684
0000a0 42 30 1d bd f8 2e 04 3d 13 cc 3a 3c 66 cb 95 bc
       -0.0383761 0.032271355 0.011401194 -0.018285464
0000b0 48 00 08 3d f5 23 75 bb af 29 24 bd db b1 8b bc
       0.033203393 -0.0037405465 -0.040078815 -0.017052582
0000c0 d0 23 47 bd 49 28 a0 3c 04 12 3c 3b bc 91 22 bc
       -0.048618138 0.01955046 0.0028697262 -0.009922441
0000d0 85 73 ae 3b 2f c4 3c 3d 3c de 19 3d 8f 4a bf 3c
       0.0053238296 0.046085533 0.037565455 0.023350982
0000e0 36 99 32 bc d7 19 3e bd bc 27 11 bd 98 cd 0a bb
       -0.010900786 -0.04641136 -0.035438284 -0.0021179672
0000f0 b4 d4 8d bc 1d 47 97 ba 88 f7 03 3d eb 6a 2b 3d
       -0.017313339 -0.0011541579 0.032218486 0.04185001

layer4.1.weight f4 [64]
000000 eb 7f 80 3f 26 6e 79 3f 6d 07 80 3f 53 23 80 3f
       1.0039037 0.974337 1.0002266 1.001078
000010 b6 76 84 3f 28 03 7d 3f dd 56 80 3f d1 65 84 3f
       1.0348728 0.9883294 1.0026509 1.0343572
000020 d7 80 7d 3f bf 44 7e 3f 29 19 77 3f a9 f4 77 3f
       0.9902472 0.9932365 0.96522766 0.96857697
000030 92 30 7d 3f 5c 57 7c 3f cd f3 7f 3f 45 23 7f 3f
       0.9890224 0.985708 0.99981385 0.9966319
000040 b1 bb 80 3f 2a de 84 3f eb 90 80 3f 5d fe 79 3f
       1.0057279 1.0380299 1.0044225 0.9765375
000050 e2 b5 80 3f 8b 0a 7f 3f f9 a9 79 3f a8 2b 78 3f
       1.0055506 0.9962546 0.9752498 0.96941614
000060 f1 b1 80 3f 88 0b 7f 3f c1 04 83 3f c8 ca 80 3f
       1.0054303 0.9962697 1.0235826 1.0061884
000070 29 fd 79 3f 57 77 79 3f 2b ab 7e 3f 52 32 7b 3f
       0.97651917 0.97447723 0.9947993 0.9812366
000080 61 4c 7e 3f e5 6f 7b 3f 48 3a 83 3f 57 6c 83 3f
       0.99335295 0.9821761 1.0252161 1.0267438
000090 8d 2e 7d 3f 30 8e 7c 3f ec 26 7b 3f 2b b7 78 3f
       0.98899156 0.9865446 0.98106265 0.9715449
0000a0 d5 99 82 3f 7e 70 84 3f 16 94 78 3f af 32 82 3f
       1.0203196 1.034683 0.9710096 1.0171717
0000b0 c9 5e 7c 3f 81 0f 80 3f 81 e0 76 3f bc 5b 7e 3f
       0.9858213 1.0004731 0.96436316 0.99358726
0000c0 69 ad 78 3f 10 a9 7d 3f b2 f4 7c 3f e3 d1 7a 3f
       0.971396 0.99086094 0.98810875 0.9797651
0000d0 42 ee 7b 3f 2b b5 7b 3f 76 94 7a 3f ac 8d 81 3f
       0.9841043 0.98323315 0.97882783 1.012136
0000e0 5f 20 80 3f ae 3f 81 3f c1 fd 7f 3f bc 9f 80 3f
       1.0009879 1.0097558 0.9999657 1.0048747
0000f0 a2 94 7b 3f f3 c1 80 3f c3 aa 7a 3f 07 4c 81 3f
       0.9827367 1.0059189 0.9791681 1.0101327

layer4.1.bias f4 [64]
000000 49 8d 0a bc dd 98 45 bd f3 64 b0 bc c3 16 1e bc
       -0.008456537 -0.048241485 -0.021532511 -0.0096489815
000010 c9 74 c5 3c af bd b1 bc c5 51 d9 ba e3 4d af b8
       0.024103539 -0.021696893 -0.0016580155 -8.359158e-05
000020 ef 63 44 bb d0 d4 05 bd 3d 8a da bc 26 bb 38 bd
       -0.0029966792 -0.032673657 -0.026677245 -0.045100354
000030 b8 ff dd bc 15 1a 03 bd ad f1 07 bd 9b 57 97 bc
       -0.027099475 -0.032007296 -0.033189464 -0.01847439
000040 cd 36 2d 3b 74 72 30 3a b4 56 43 bc a0 93 4f bb
       0.002643037 0.0006730922 -0.011922527 -0.0031673685
000050 0e 4c 66 bc 01 ac 02 bd d7 3f 30 bd 0f c0 cc bc
       -0.014056219 -0.031902317 -0.043029632 -0.024993924
000060 c0 87 d8 bc a2 dd 81 bb 37 23 77 bc 05 a8 a4 bb
       -0.026431918 -0.0039631883 -0.0150840795 -0.0050249123
000070 a2 2c 60 bc 04 3e da bc 32 7a b2 bc 34 c6 b1 bb
       -0.013682516 -0.0266409 -0.021786783 -0.005425239
000080 6e 66 d9 bc 23 a3 73 bc 9c 67 95 bb 29 77 e8 3b
       -0.0265381 -0.014870438 -0.0045594703 0.007094283
000090 14 96 05 bc 0f 55 02 bb 44 a2 05 bd d1 40 c6 bc
       -0.008153457 -0.0019887125 -0.03262545 -0.024200829
0000a0 62 28 bf 3a b8 b4 62 bb 3e 7d f3 bc c7 15 32 3c
       0.0014584179 -0.003459258 -0.029722806 0.01086945
0000b0 ae f9 c3 bc ba 51 34 3b 64 cc 19 bd 6c 14 bb bc
       -0.023922767 0.0027514533 -0.037548438 -0.022836886
0000c0 e1 01 5f bd 4c d5 d6 bc a2 ed e0 bb b2 1e c9 bc
       -0.05444515 -0.026224755 -0.0068642655 -0.02455077
0000d0 68 cd bb bc 2d bc a4 bb 19 f1 2c bc 2d 3a 6a bc
       -0.022925094 -0.005027315 -0.010555529 -0.014296097
0000e0 25 7d 4c 3b e8 60 36 bb 1a dd aa 3b ea 85 2f bc
       0.0031202522 -0.0027828757 0.0052143456 -0.01071308
0000f0 25 48 e6 bb 6e 6d 34 3b 9d 14 1b bd 5b da 15 bc
       -0.0070276433 0.0027531045 -0.037861455 -0.009146298

layer5.0.weight f4 [64, 64, 3, 3]
000000 b3 25 0e bd 50 a8 6f bb 59 27 3d 3c a0 a7 69 bc
       -0.03470392 -0.0036568828 0.011545026 -0.014261156
000010 be 64 ab bc 07 a5 2d bd c1 a9 ff 3c 7b 24 43 bc
       -0.020922061 -0.04239371 0.031208875 -0.011910553
000020 6d b0 a2 3c c3 20 69 bc 39 cd 06 bc 53 c2 ea 3c
       0.019859517 -0.014229002 -0.00822764 0.028657114
000030 c5 d4 76 3a 3e 5a 1a bc d3 03 83 3a 10 ac a6 3c
       0.00094158604 -0.0094209295 0.0009995647 0.020345718
000040 a6 ae e9 bc 20 ad eb 3c 1d 50 d0 bc d0 09 99 3d
       -0.028525662 0.028769076 -0.025428826 0.07472575
000050 42 18 4b 3d ee ba 7d bc 16 ae 22 3d 7e d2 6c 3c
       0.04958368 -0.015486462 0.039716803 0.014454482
000060 06 f4 c3 bc 9b 0b 81 3d b4 b4 73 3c 0d e3 2d 3c
       -0.02392007 0.06301042 0.014874626 0.010613215
000070 ce 17 9b 3c f3 f5 1c 3d a4 23 31 3d 7c 6e 83 3b
       0.01893225 0.038320493 0.04324688 0.0040109735
000080 89 8f 3f 3c 9c 9d ee 3c 43 cf dd 3c 07 3f 18 bd
       0.011691936 0.029127888 0.02707637 -0.037169483
000090 3e b5 c5 bc 70 07 1c 3c 42 31 ee 3b 4b 21 48 bd
       -0.024134275 0.009523258 0.0072690556 -0.048859876
0000a0 54 7d 50 3d e1 87 14 bd 18 28 88 3c 37 0b 5d bb
       0.050900772 -0.036262397 0.01662068 -0.0033728608
0000b0 68 95 ab 3c 28 45 92 bc c7 a6 83 3d 7b 8f da 3c
       0.020945266 -0.017855242 0.06428295 0.026679745
0000c0 bf cc e0 bc 8e da 7e bc e1 38 12 3c b6 28 0d bb
       -0.02744138 -0.015555037 0.008924694 -0.0021539158
0000d0 23 aa cf 3c 44 7b 41 3c a5 2a 7a 3c ce 55 64 bd
       0.025349682 0.011809174 0.015268956 -0.055745892
0000e0 2f 59 b7 3b e1 27 35 bd 51 91 5c bd 09 c8 31 bd
       0.0055953483 -0.044227485 -0.053849522 -0.04340366
0000f0 03 27 44 bd 2d 8c 6b bd 0f 0b 89 3c a8 e3 81 bc
       -0.047888767 -0.05750673 0.016728906 -0.015855625
000100 e7 94 d2 3b 6d c2 bb 3b 21 26 9c 3c 04 2e a8 bc
       0.006426442 0.0057299645 0.01906115 -0.020529754
000110 93 ab 92 bc 30 34 45 3d aa be c3 38 c6 60 f2 bb
       -0.017904079 0.048145473 9.3338385e-05 -0.00739679
000120 98 42 10 3d 91 92 31 3d ed 62 10 bc 13 80 8c 3c
       0.03521976 0.043352667 -0.008812648 0.017150914
000130 fa 83 84 3c 7a 39 ee 3b f7 1e e4 bc d4 bd 54 3b
       0.016176213 0.0072700353 -0.027846796 0.003246178
000140 e3 ac f2 bc 6d 24 ba bb 61 9d b3 bb 18 5e b8 bc
       -0.029623454 -0.005680612 -0.0054814075 -0.022505805
000150 15 4e c1 bb 84 8d 86 ba c0 c5 a0 bb e5 3b a4 bc
       -0.0058992007 -0.0010265564 -0.004906386 -0.020048091
000160 70 ca 29 3d 15 41 a5 3b 55 db 3a bd 43 20 9f bc
       0.041452825 0.005043159 -0.045619328 -0.019424563
000170 e5 bb d3 bc 01 b7 3b bd e8 b8 2e bc 9a a7 01 3d
       -0.025846431 -0.045828823 -0.010664202 0.031653978
000180 bd 84 9a 3c f9 46 2a bc 1b c4 9c ba 50 43 e3 bc
       0.018862123 -0.010392898 -0.00119603 -0.027742058
000190 e7 ff 9c 3c db 1e 11 3c f7 3d 1b bd fd 05 77 bc
       0.019164992 0.008857454 -0.03790089 -0.015077111
0001a0 c4 41 b6 bc 60 fc 88 bc d3 4b 65 3d bc c4 12 bd
       -0.022248156 -0.016721904 0.055980515 -0.03583215
0001b0 11 f9 7c bc 7e fb 2f bd c2 b2 1c bd 47 24 0c 3c
       -0.015440241 -0.04296445 -0.038256414 0.008553571
0001c0 bd c8 f2 bc f8 e0 8c 3c 74 dd 0a 3c d5 35 dd 3b
       -0.029636735 0.017197117 0.00847565 0.006750802
0001d0 c5 b6 ca 3c 75 8f 63 bc eb a3 7d 39 a4 ed e3 bb
       0.024745354 -0.013889183 0.00024189024 -0.006955819
0001e0 2c b7 aa 3c eb 79 0d bc 89 5e 1c 3c 16 fc f7 ba
       0.020839296 -0.008635025 0.009544023 -0.0018919732
0001f0 41 2c d2 ba 0b b8 c1 bc 78 45 57 bc 9c 88 02 3c
       -0.0016034917 -0.023647329 -0.013139121 0.0079671405
000200 87 46 e2 bc 40 e4 fc 3c d7 88 88 bc d8 f6 f0 bc
       -0.02762152 0.030870557 -0.016666813 -0.02941458
000210 c5 2d 50 3c 99 3b bd 39 4b 5c d7 3c 2d 25 9c 3c
       0.012706225 0.00036093293 0.026289126 0.019060696
000220 a2 ea 9b bc e9 d3 b7 3c 84 c2 11 3d 02 ce 15 3d
       -0.01903278 0.022439914 0.035585895 0.036573417
000230 7e 93 59 3c d6 a7 23 bd 7c b7 89 3c 69 d9 3c 3d
       0.013279794 -0.039954983 0.016811125 0.046105776
000240 f0 8c bd bc ba 0f 1b 3d f0 97 ec bc 30 87 1e bd
       -0.023138493 0.037856795 -0.028881043 -0.038703144
000250 37 c8 00 3d 79 fd 17 bd 55 3d fc 3b c6 53 7f bc
       0.03144094 -0.037106965 0.007697741 -0.015583938
000260 5f f0 20 3b 62 35 8c bc 88 85 95 bc 95 71 a3 3d
       0.0024557335 -0.017115299 -0.01825215 0.079806484
000270 92 73 9a bc ca 91 e3 3b c9 77 96 3d 9f d2 d9 bc
       -0.018853936 0.0069448696 0.07347066 -0.02658969
000280 79 fe b0 3c c4 f6 50 3d 7c 0e de bb e8 20 a5 bc
       0.021605717 0.051016584 -0.006776629 -0.020157292
000290 3a e2 af 3b 21 c2 ea bc 0d df 8c b9 5b 2d bc bc
       0.0053675445 -0.028657021 -0.00026869067 -0.022970846
0002a0 df bb 3d 3d 8b 9f 18 3d 58 6d 2a 3d ad 8d 0c bd
       0.046321746 0.037261527 0.041608185 -0.0343148
0002b0 bd 03 74 ba 2c 13 9b ba 5f 3a e4 3b 75 5d f9 bc
       -0.00093084184 -0.0011831275 0.006964966 -0.030440072
0002c0 33 3f ef 3c 0e 0c 85 bd bb 03 b6 3c c9 7e e2 bc
       0.02920494 -0.0649644 0.022218576 -0.027648346
0002d0 2a 27 6e bb a9 33 e5 3b db e6 b2 3c 19 df 3b bd
       -0.0036339262 0.0069946838 0.021838596 -0.04586706
0002e0 74 84 c1 3b 93 d6 49 bd a9 65 68 bd a1 4c e5 bc
       0.005905682 -0.0492769 -0.056737576 -0.027990641
0002f0 bc 83 cd bb 64 23 e7 bc e3 14 6c bc 9b f4 da 3c
       -0.0062718075 -0.028215118 -0.014409277 0.026727965
000300 08 a9 f9 bc 64 95 43 bc 6a 30 03 3b c8 ba 0a bc
       -0.030476108 -0.011937473 0.002001787 -0.008467384
000310 a7 1a ac bc 6c 42 f6 3c eb 71 37 bc 27 bc a6 3c
       -0.021008803 0.03006097 -0.011196594 0.02035339
000320 d2 dd 4f 3c 71 e3 68 bc 18 50 2d 3d 32 3d 27 3d
       0.012687163 -0.0142143825 0.04231271 0.040829845
000330 07 23 0e 3d 40 d9 d5 bc 2d 59 c0 bc 13 b0 46 3c
       0.034701373 -0.02610457 -0.023480022 0.01212694
000340 5c 23 2a bb 17 a7 1a bd 4d de e4 3c 9b 9c 90 3c
       -0.0025961017 -0.037757006 0.027938033 0.0176528
000350 9b c3 7d bc 65 29 18 3d 39 bc 68 bc 95 f3 5a bb
       -0.0154885305 0.037148852 -0.014205032 -0.0033409346
000360 28 b1 04 3d 3e c1 f4 3c b9 4c 8b 3d 86 6e f5 3b
       0.032395512 0.029877301 0.06801743 0.007489982
000370 8b 8c ff 3b 67 f8 07 3d 13 b1 00 bd fa 3f 8b bc
       0.0077987364 0.03319588 -0.03141887 -0.01699828
000380 f2 95 eb 3c 1c 8d 16 3d 2c 2b 28 bc 92 7d 26 bd
       0.028758023 0.036755666 -0.010264199 -0.040647097
000390 25 5b 6a bc 1f 71 f5 3c 2a c8 c0 bc 30 f3 f5 3c
       -0.014303957 0.029961167 -0.023532946 0.030023187
0003a0 3e 17 17 3d ca 6c 1a 3c e2 9f 85 3c ec d0 98 3b
       0.0368874 0.009425351 0.01631159 0.0046635773
0003b0 b5 0f 84 3d 3b f4 1b bd fd a0 67 bc f7 9c 88 3d
       0.064483084 -0.038074713 -0.014137504 0.06670564
0003c0 c7 1d 1d bd 3c 28 5b 3a 79 39 48 3d 67 08 b3 3c
       -0.038358476 0.00083601824 0.048882935 0.021854592
0003d0 c1 7e 22 3d f0 ef 6e bc a4 5f 1d 3d 34 9f 74 bc
       0.039671663 -0.014583573 0.038421288 -0.014930535
0003e0 2b a0 a1 bc ee cf 5b 3d ca 08 a3 bc 00 da 23 3d
       -0.019729694 0.053665094 -0.019901652 0.040002823
0003f0 c1 50 f0 bc 8d 49 12 3d 71 4f 5c 3d 62 51 28 bc
       -0.029335381 0.035714675 0.0537867 -0.010273309
