weights/pretrain_normalrotated__finetune_private.pth (torch, 951334 bytes, 26 tensors)

_module.layer1.0.weight f4 [16, 3, 3, 3]
0.011610045 -0.07918152 -0.06805055 -0.061398223 0.07246058 -0.03331755 -0.06089679 0.032188386
-0.1499227 0.16675274 -0.08461868 -0.10970835 0.042520225 -0.21204004 0.06269798 0.14413475
0.06550992 0.04948772 -0.15251456 -0.17203511 0.06698277 -0.11454717 0.17269701 -0.09308524
0.1457843 -0.12268705 0.014686072 -0.0541837 -0.16654976 0.012557596 -0.13806114 -0.13215682
-0.1877094 0.04967391 0.14470908 -0.073047005 -0.09280696 0.20086008 0.004070378 -0.11376836
-0.13744031 0.1733144 0.20406392 -0.13368586 -0.0046122596 0.03351298 0.18963863 0.02194839
0.06617818 0.15823528 0.060191333 0.07283759 -0.18193471 0.050946612 0.12919256 -0.13503762
-0.070821695 -0.03831791 -0.08981734 -0.14537458 -0.18300352 -0.13041836 0.06492096 0.11695108
-0.15108691 0.031759594 0.07473691 0.12067123 -0.01762157 0.04339168 0.13139348 -0.008578428
-0.16182438 0.10448935 0.15417834 -0.17004992 0.0248252 -0.02046871 0.02592806 -0.1622625
0.10971789 -0.06434909 -0.1281988 0.16349803 -0.06850386 0.15018842 -0.09918995 -0.09273257
0.12607506 0.1486669 0.142663 -0.001249413 -0.08535792 -0.044895288 -0.14378858 -0.16926546
0.075286895 -0.109564684 -0.073933154 -0.11323983 0.09221299 0.08306145 -0.084958114 0.20709705
0.0859499 0.17364974 -0.010127857 -0.081760466 0.10276842 -0.067719534 0.08509827 0.15940386
-0.15560359 -0.027177632 0.08045732 -0.069053344 0.06411252 0.12765688 -0.06664657 0.10848078
0.15414578 0.11995513 0.036854144 -0.056539614 0.09633533 -0.12060675 0.17961481 0.10209807
0.1672088 0.04064684 0.035594895 -0.18076001 0.026976878 0.09852947 0.092501916 -0.05438291
-0.0911758 0.046917144 8.081007e-05 -0.011971182 0.11597858 0.0075440775 0.08882142 -0.0065369266
-0.07851606 -0.1780735 0.038829997 -0.13075861 0.17575295 -0.18189037 -0.07825029 -0.039619725
0.113245256 -0.19025233 0.042396173 0.12752888 -0.048268273 0.013155562 0.0717742 -0.16806194
0.022344813 -0.048376847 0.14666782 -0.047251984 0.034665044 -0.04447163 -0.009546948 0.0071140365
0.034407742 -0.03732311 -0.034531835 -0.14237538 0.16865116 -0.16764027 0.029898573 -0.110739484
0.13931823 0.13873202 0.042977583 0.20622782 -0.15033527 -0.07483566 -0.10052531 0.18148588
0.121492915 -0.0044130273 0.084197864 -0.15351963 -0.027614566 0.18798557 -0.021599596 0.10652692
0.15616225 -0.08043822 -0.07446811 -0.14124441 -0.024279522 -0.01135289 0.102427416 0.18175876
0.16438666 -0.15477811 -0.09376641 0.01871041 0.029747127 0.062202703 0.055057753 0.17526749
0.18077055 -0.14472894 0.10299377 -0.11428046 -0.09050216 0.10543476 -0.15135019 -0.052180316
0.2130764 -0.09517041 0.13332331 0.21615396 -0.1422031 -0.082886666 0.08682738 0.19052055
-0.14807966 0.12510172 0.01874501 -0.16831793 -0.030073829 -0.1018004 -0.18131699 0.15189293
-0.06984186 0.08881958 -0.0014287542 -0.051462576 0.16664383 -0.11416506 -0.14781667 0.17168593
0.1594053 0.021075116 -0.16610272 -0.13119365 -0.16379721 -0.0903874 0.06048075 -0.02130917
0.017168252 0.024908463 -0.09907711 -0.038069014 0.15744151 0.10134841 -0.04634984 0.026448514
00000000: 0f38 3e3c ec29 a2bd 165e 8bbd b47c 7bbd
00000010: 3666 943d fc77 08bd ea6e 79bd f8d7 033d
00000020: 5685 19be 3bc1 2a3e 8f4c adbd c5ae e0bd
00000030: b029 2e3d 0621 59be cc67 803d 0f98 133e
00000040: 112a 863d a3b3 4a3d c72c 1cbe f929 30be
00000050: 432e 893d b597 eabd 7cd7 303e 79a3 bebd
00000060: 7b48 153e 5943 fbbd da9d 703c baef 5dbd
00000070: 058c 2abe 60be 4d3c e65f 0dbe 1e54 07be
00000080: e536 40be df76 4b3d 9e2e 143e ab99 95bd
00000090: 9311 bebd 44ae 4d3e ce60 853b 63ff e8bd
000000a0: 27bd 0cbe 5479 313e 22f6 503e f2e4 08be
000000b0: 7022 97bb e844 093d a130 423e 1ccd b33c
000000c0: 6d88 873d 6e08 223e 308b 763d e02b 953d
000000d0: 184d 3abe 65ad 503d 0e4b 043e 4d47 0abe
000000e0: f70a 91bd 3ef3 1cbd 27f2 b7bd 13dd 14be
000000f0: 4665 3bbe 648c 05be 48f5 843d 0c84 ef3d
00000100: 87b6 1abe 5916 023d aa0f 993d 7a22 f73d
00000110: 1c5b 90bc 79bb 313d 038c 063e 898c 0cbc
00000120: 4ab5 25be 83fe d53d ede0 1d3e 9121 2ebe
00000130: 385e cb3c ffad a7bc 1567 d43c 2428 26be
00000140: c6b3 e03d 75c9 83bd 8c46 03be 076c 273e
00000150: c04b 8cbd feca 193e 1a24 cbbd 93ea bdbd
00000160: d219 013e 233c 183e 4016 123e 58c3 a3ba
00000170: 22d0 aebd 1fe4 37bd 503d 13be ed53 2dbe
00000180: 0430 9a3d 7363 e0bd 446a 97bd 49ea e7bd
00000190: 2ada bc3d 1f1c aa3d 85fe adbd 4011 543e
000001a0: 8006 b03d 3dd1 313e 50ef 25bc 0872 a7bd
000001b0: 4078 d23d 8ab0 8abd 0048 ae3d c43a 233e
000001c0: 8c56 1fbe a0a3 debc cfc6 a43d d76b 8dbd
000001d0: 6d4d 833d 7cb8 023e ff7d 88bd 2c2b de3d
000001e0: 64d8 1d3e 09ab f53d 5ff4 163d 1596 67bd
000001f0: 754b c53d ac00 f7bd f2ec 373e cb18 d13d
00000200: c938 2b3e 4d7d 263d f4cb 113d 2719 39be
00000210: 9dfe dc3c d2c9 c93d a571 bd3d 9dc0 5ebd
00000220: 61ba babd 312c 403d 9378 a938 c722 44bc
00000230: 2e86 ed3d 4f34 f73b 01e8 b53d b733 d6bb
00000240: 07cd a0bd e658 36be 340c 1f3d 96e5 05be
00000250: 95f8 333e 7841 3abe b041 a0bd 4b48 22bd
00000260: 21ed e73d 82d1 42be 9ca7 2d3d ee96 023e
00000270: f4b4 45bd 6d8a 573c 5afe 923d 6e18 2cbe
00000280: 780c b73c cd26 46bd 1730 163e 4c8b 41bd
00000290: effc 0d3d e227 36bd cd6a 1cbc dd1c e93b
000002a0: 22ef 0c3d 1ee0 18bd 4171 0dbd daca 11be
000002b0: e4b2 2c3e e4a9 2bbe daed f43c 62cb e2bd
000002c0: 70a9 0e3e c40f 0e3e 4309 303d 632d 533e
000002d0: 7df1 19be 7043 99bd 37e0 cdbd 6fd7 393e
000002e0: 47d1 f83d 289b 90bb ee6f ac3d 4034 1dbe
000002f0: f137 e2bc 4a7f 403e a3f1 b0bc c92a da3d
00000300: ffe8 1f3e cbbc a4bd bd82 98bd 60a2 10be
00000310: d9e5 c6bc 7901 3abc 77c5 d13d f81e 3a3e
00000320: fa54 283e 277e 1ebe 9b08 c0bd 9346 993c
00000330: 3fb0 f33c 43c8 7e3d 3d84 613d 5279 333e
00000340: ea1b 393e d333 14be 66ee d23d e00b eabd
00000350: 3259 b9bd 2eee d73d 8bfb 1abe 07bb 55bd
00000360: b330 5a3e b4e8 c2bd e885 083e 7757 5d3e
00000370: b09d 11be 7cc0 a9bd 8ed2 b13d d217 433e
00000380: 32a2 17be aa1a 003e 238f 993c 895b 2cbe
00000390: 645d f6bc ba7c d0bd 29ab 39be d289 1b3e
000003a0: 4009 8fbd 0ae7 b53d 0945 bbba 6cca 52bd
000003b0: aea4 2a3e 5fcf e9bd 415d 17be 70ce 2f3e
000003c0: 253b 233e b9a5 ac3c d516 2abe a157 06be
000003d0: 75ba 27be 071d b9bd aaba 773d 9290 aebc
000003e0: 6fa4 8c3c d50c cc3c f1e8 cabd 41ee 1bbd
000003f0: 5938 213e c18f cf3d 54d9 3dbd 8eaa d83c

_module.layer1.0.bias f4 [16]
0.034571 0.14231329 -0.1013666 0.0552696 0.06235764 -0.09103317 0.13504347 0.10993333
0.18464008 -0.047261424 0.10381828 -0.19958717 -0.11870885 -0.19014233 -0.020146776 0.07833733
00000000: 529a 0d3d 93ba 113e 4b99 cfbd 6062 623d
00000010: ba6a 7f3d 996f babd d648 0a3e ba24 e13d
00000020: 4a12 3d3e 3295 41bd ae9e d43d 9460 4cbe
00000030: a01d f3bd acb4 42be da0a a5bc 526f a03d

_module.layer1.1.weight f4 [16]
0.9972975 1.023108 1.003763 0.9998812 1.0087241 0.946519 0.9966011 0.9929006
1.0050262 0.9760141 1.0174199 1.0273746 0.9989977 0.9937471 0.98948044 0.9997417
00000000: e44e 7f3f 34f5 823f 4e7b 803f 37f8 7f3f
00000010: df1d 813f 124f 723f 4021 7f3f bc2e 7e3f
00000020: b3a4 803f 0fdc 793f d13a 823f 0381 833f
00000030: 50be 7f3f 3666 7e3f 974e 7d3f 12ef 7f3f

_module.layer1.1.bias f4 [16]
0.031430006 0.02625178 0.006915953 0.0035070502 -0.023130225 0.018200263 0.0016715158 0.014507899
-0.0052149766 0.0019921262 -0.015527953 -0.020378694 -0.05298863 0.012068693 0.017182246 -0.019989947
00000000: c0bc 003d f90d d73c 389f e23b 8ad6 653b
00000010: 997b bdbc b818 953c c316 db3a 8ab2 6d3c
00000020: 65e2 aabb 558e 023b f568 7ebc 38f1 a6bc
00000030: 9b0a 59bd c4bb 453c c8c1 8c3c f5c1 a3bc

_module.layer2.0.weight f4 [16, 16, 3, 3]
-0.02904519 -0.05593798 -0.0565713 0.07424694 -0.048687324 0.025137266 -0.029775685 0.074770965
0.034597833 -0.10999132 0.063110106 -0.031849544 -0.014592594 0.03767418 0.018442981 -0.050190452
-0.028516673 0.051288113 0.042676594 0.10941304 -0.08144325 -0.008044313 0.029197171 0.029027501
0.0239552 0.063372575 0.019769091 0.045974933 -0.028639805 0.052362572 -0.001999276 -0.08110757
0.032548416 -0.00857566 0.042693313 -0.020164197 0.07816196 -0.021184321 -0.03341532 0.10346212
0.03032373 0.0242952 -0.07382467 0.031187547 -0.10451118 0.05646565 0.07400483 0.033122003
0.039466318 0.026298307 0.002786696 -0.03834972 0.06895882 -0.08759398 -0.036284223 0.054642167
-0.06420475 0.0010803228 0.009256509 0.03175742 0.0882342 -0.074469164 -0.04110481 0.097877644
-0.0016446725 0.036341313 -0.046672296 0.10304455 0.02396158 0.044320866 -0.030852333 0.08134595
-0.0352509 0.085624754 0.04677246 0.022853427 -0.04331566 -0.061609 -0.05224058 -0.013966911
-0.05471027 0.03399439 -0.011529487 0.08504759 -0.024998976 0.04491975 -0.03456845 -0.0061191544
-0.03995251 0.03065708 0.0034093992 -0.032011334 0.030202592 -0.030878117 0.0077107404 0.043865122
0.008405095 -0.03811941 -0.054628175 0.07464515 -0.0071381563 -0.049077343 0.11809785 0.012446387
-0.028072571 -0.020466698 0.09457537 -0.0029549606 -0.069140665 0.10158235 -0.05656226 0.041975517
0.047243103 0.017606756 0.063346356 -0.02380904 -0.031947378 0.06479137 -0.06325141 0.05578745
0.008059347 -0.05045056 -0.07348437 -0.037061244 -0.08834785 0.08091022 -0.06992688 -0.060657542
0.056840446 0.0041588326 -0.0620852 0.035152145 -0.04521098 0.063139185 -0.06694428 -0.050244942
-0.031565577 0.020196212 -0.06684775 -0.037016395 -0.016038092 -0.07792634 -0.118927486 0.06887476
0.00015658289 0.101160884 0.0071168644 0.028451074 -0.05156592 -0.0771668 -0.03634782 0.0190285
-0.021497654 0.037355095 -0.025576763 -0.007484288 0.03206017 0.040450092 -0.0056522433 -0.009915819
-0.08147864 0.054656047 -0.07213157 0.026506107 0.007515997 0.03391126 -0.07086893 -0.0806766
0.085122 0.006141055 -0.015060887 -0.013923949 0.012416565 -0.05466359 -0.065526985 0.06647019
-0.08721639 0.0027005645 0.027471747 0.010266865 0.030130658 0.021516385 -0.06121339 -0.066264585
0.054187242 -0.016015152 0.058705542 0.032556523 0.033493575 0.068486296 0.031732116 -0.07147788
-0.04861069 -0.014879667 -0.051806863 -0.072812535 -0.05073363 -0.04449391 0.0062675024 -0.015254456
0.0051238225 0.012568629 0.027147105 -0.0733748 0.0041281823 -0.08146707 -0.015707629 -0.014711555
0.0025380736 -0.009270184 -0.0196421 -0.03558627 0.07898066 -0.037836365 -0.056134645 -0.085179366
-0.026229123 0.08275813 -0.04178841 -0.0113735795 0.024820093 -0.030790439 0.0019649116 -0.028024118
0.011072461 0.013922834 -0.027285466 -0.06497744 0.05328033 0.0366143 0.080215104 -0.0010460239
0.06402014 -0.009817505 0.07931634 -0.003347283 0.0907723 -0.068211205 -0.0044318507 0.028930485
-0.03885708 0.020081744 0.009629688 -0.03194236 -0.0759931 0.035943713 0.010578729 0.07845995
0.021019187 0.011783406 -0.012768877 0.0037718401 0.087491885 0.04569732 -0.058198694 0.070998915
00000000: 2ef0 edbc 391f 65bd 4fb7 67bd c80e 983d
00000010: 5c6c 47bd abec cd3c 23ec f3bc 8521 993d
00000020: 75b6 0d3d 2143 e1bd df3f 813d ab74 02bd
00000030: c615 6fbc 3e50 1a3d bc15 973c 8194 4dbd
00000040: cc9b e9bc 7c13 523d a7cd 2e3d f213 e03d
00000050: b8cb a6bd 4bcc 03bc e82e ef3c 15cb ed3c
00000060: b23d c43c 7bc9 813d caf2 a13c 3650 3c3d
00000070: 069e eabc 237a 563d 4906 03bb ba1b a6bd
00000080: 7d51 053d ed80 0cbc 2fdf 2e3d 632f a5bc
00000090: 6113 a03d be8a adbc 81de 08bd f3e3 d33d
000000a0: 7969 f83c ba06 c73c 6331 97bd 077d ff3c
000000b0: f509 d6bd 8748 673d d88f 973d f0aa 073d
000000c0: 6fa7 213d 8c6f d73c 00a1 363b 9914 1dbd
000000d0: 483a 8d3d 7964 b3bd c49e 14bd 77d0 5f3d
000000e0: c87d 83bd 9e99 8d3a 9da8 173c 1214 023d
000000f0: 22b4 b43d 4a83 98bd 845d 28bd 1374 c83d
00000100: 0d92 d7ba a1da 143d 732b 3fbd 0509 d33d
00000110: 134b c43c cc89 353d 08be fcbc b598 a63d
00000120: 3f63 10bd 085c af3d 7b94 3f3d 1c37 bb3c
00000130: c36b 31bd b859 7cbd 38fa 55bd 78d5 64bc
00000140: e017 60bd b43d 0b3d 2ce6 3cbc 6e2d ae3d
00000150: a7ca ccbc c6fd 373d a697 0dbd 3083 c8bb
00000160: 3ea5 23bd 8e24 fb3c 3a70 5f3b 511e 03bd
00000170: 6d6b f73c 1bf4 fcbc 61aa fc3b eaab 333d
00000180: 86b5 093c 1923 1cbd cbc1 5fbd 8edf 983d
00000190: 32e7 e9bb 5305 49bd 49dd f13d eeeb 4b3c
000001a0: 73f8 e5bc c7a9 a7bc bbb0 c13d 03a8 41bb
000001b0: 9f99 8dbd 680a d03d d4ad 67bd 85ee 2b3d
000001c0: fc81 413d 0b3c 903c bcbb 813d 2d0b c3bc
000001d0: 41db 02bd 56b1 843d f589 81bd 6281 643d
000001e0: 5a0b 043c 3fa5 4ebd f97e 96bd 88cd 17bd
000001f0: b8ef b4bd 42b4 a53d d335 8fbd 0b74 78bd
00000200: 87d1 683d d146 883b 0d4d 7ebd b2fb 0f3d
00000210: 262f 39bd 1e4f 813d 151a 89bd a4cd 4dbd
00000220: e84a 01bd 8772 a53c 79e7 88bd 819e 17bd
00000230: 5162 83bc d897 9fbd 4190 f3bd 360e 8d3d
00000240: 6630 2439 702d cf3d 9634 e93b 3a12 e93c
00000250: c936 53bd a109 9ebd 74e1 14bd a8e1 9b3c
00000260: d91b b0bc a801 193d 5c86 d1bc c23e f5bb
00000270: 8651 033d ffae 253d 7436 b9bb f675 22bc
00000280: 46de a6bd 05df 5f3d b7b9 93bd 5623 d93c
00000290: c148 f63b 89e6 0a3d bb23 91bd c639 a5bd
000002a0: 7154 ae3d e73a c93b f0c1 76bc 4621 64bc
000002b0: d96e 4b3c eee6 5fbd 0333 86bd 8621 883d
000002c0: 829e b2bd f4fb 303b 6e0c e13c 5a36 283c
000002d0: 92d4 f63c 2143 b03c e4ba 7abd bab5 87bd
000002e0: 71f3 5d3d 3532 83bc 3975 703d fd59 053d
000002f0: 8f30 093d 8b42 8c3d 89f9 013d ff62 92bd
00000300: 011c 47bd d9c9 73bc 6f33 54bd bd1e 95bd
00000310: 11ce 4fbd 3f3f 36bd 9f5f cd3b d3ed 79bc
00000320: bde5 a73b a7ec 4d3c 9b63 de3c 8745 96bd
00000330: b445 873b 35d8 a6bd 49ad 80bc bc08 71bc
00000340: cf55 263b f8e1 17bc 78e8 a0bc e9c2 11bd
00000350: 9dc0 a13d 4efa 1abd 71ed 65bd 8572 aebd
00000360: 75de d6bc 187d a93d 532a 2bbd 4058 3abc
00000370: 8253 cb3c 3b3c fcbc bfc5 003b d692 e5bc
00000380: 4469 353c 991c 643c c585 dfbc e412 85bd
00000390: 7a3c 5a3d e0f8 153d d147 a43d bd1a 89ba
000003a0: fe1c 833d 9ad9 20bc 9b70 a23d 175e 5bbb
000003b0: d4e6 b93d 51b2 8bbd 0f39 91bb a0ff ec3c
000003c0: 9a28 1fbd 7882 a43c d7c5 1d3c fed5 02bd
000003d0: 45a2 9bbd b739 133d 6852 2d3c 9caf a03d
000003e0: 6e30 ac3c 300f 413c 8d34 51bc fa30 773b
000003f0: f22e b33d 1d2d 3b3d c161 6ebd e167 913d

_module.layer2.0.bias f4 [16]
0.063626446 -0.07272533 -0.004795457 -0.049023196 -0.050365128 0.07790981 -0.016899506 -0.0054454505
-0.0038918492 -0.02289284 -0.039116524 -0.07569959 -0.04795108 0.10115431 0.03210189 -0.05329376
00000000: 954e 823d 05f1 94bd 3523 9dbb 8ccc 48bd
00000010: aa4b 4ebd 2e8f 9f3d d570 8abc c06f b2bb
00000020: 650e 7fbb c489 bbbc a638 20bd 6308 9bbd
00000030: 5a68 44bd fe29 cf3d 457d 033d 8f4a 5abd

_module.layer2.1.weight f4 [16]
0.97112584 0.99643934 0.98480266 0.9914347 0.99890417 1.0050582 0.99389404 0.9538942
1.0181782 0.9783068 1.0257251 0.9774503 1.0161808 0.96166587 0.9915131 1.0201551
00000000: b49b 783f a616 7f3f 071c 7c3f aace 7d3f
00000010: 2fb8 7f3f bfa5 803f d76f 7e3f 6932 743f
00000020: aa53 823f 5072 7a3f f64a 833f 2f3a 7a3f
00000030: 3612 823f bc2f 763f cdd3 7d3f 7194 823f

_module.layer2.1.bias f4 [16]
-0.00763184 0.025567949 0.008078368 0.011001442 -0.0415908 -0.009242114 -0.011870589 0.006718117
-0.001462137 0.0040055444 0.0129270125 0.004521841 -0.004913055 -0.030118631 -0.011061121 0.019902153
00000000: 8414 fabb e073 d13c 225b 043c 643f 343c
00000010: 1d5b 2abd 3c6c 17bc dc7c 42bc a623 dc3b
00000020: 2da5 bfba f140 833b d2cb 533c f42b 943b
00000030: b1fd a0bb 59bb f6bc b439 35bc d709 a33c

_module.layer3.0.weight f4 [64, 16, 3, 3]
0.007372453 0.01660007 -0.06274288 -0.056326654 0.00037602152 -0.026442563 -0.039114293 -0.041839488
0.06969097 0.08043278 0.014047226 0.048307016 0.014914514 0.025479492 0.020278268 -0.038299624
-0.00024624993 0.046349294 0.06525982 0.0811305 0.06727299 -0.007823874 0.009719248 -0.039507408
0.08898853 -0.08244634 0.020732824 0.065150626 0.03485359 -0.10843087 0.008587913 0.054186974
0.01416297 -0.020599559 0.06979476 -0.07687273 -0.052158516 0.03963177 0.052280825 0.00033786942
-0.08061627 0.032960523 0.06672507 0.002239149 0.05575728 -0.06986846 0.023630196 -0.030635774
0.04781894 -0.081510134 0.099652685 0.0634587 -0.029943896 0.04485515 -0.05704412 0.010480624
-0.007211367 0.01385054 -0.04096474 -0.056247305 -0.05374438 0.024213823 -0.06326116 -0.06404139
-0.0076776575 -0.007233623 0.06264994 -0.021167468 0.04633502 -0.025851084 0.005930251 -0.0124074835
0.015194046 -0.06542654 0.021453924 -0.00091213314 -0.0035062977 0.05820635 0.03431221 0.07869882
0.03474493 -0.07934578 0.04570519 -0.0052386164 -0.1087682 0.019323198 -0.042031623 0.010488365
0.037800774 -0.022218024 -0.0655338 -0.08447065 0.028889518 0.032831654 -0.060570966 -0.046522
0.0641272 -0.07041007 -0.027918695 -0.014351765 0.06788383 0.07732122 0.016430356 -0.039035525
0.045982577 -0.055622846 -0.02834655 -0.019311672 -0.032889914 0.041707158 0.03598765 0.039418217
-0.020373214 -0.054276817 0.01628485 -0.0228339 0.024257371 0.0024523083 0.07229819 -0.049456596
0.002577366 -0.0024798953 -0.06515947 -0.010217903 -0.026668655 -0.011816591 -0.04038918 -0.085281305
-0.07865828 0.044565096 -0.014405428 0.062030125 0.02738429 0.02633014 0.08571347 0.031013958
-0.04400118 -0.06962112 0.07620095 -0.051634055 -0.0818966 0.0089838365 0.06916939 0.048306964
-0.023373524 0.0027232217 -0.08044961 -0.08454909 -0.047220524 0.036628284 0.030833993 -0.06441162
-0.0620378 -0.028320404 0.01868719 -0.0724051 -0.029871438 0.04581823 -0.018654484 -0.05463617
0.020816484 -0.06508933 0.031932633 -0.060021162 -0.074607484 0.030421251 -0.019608488 0.02785764
0.07071182 0.039505273 -0.054891318 0.11171494 0.019020032 -0.0026634664 -0.067864634 0.077982605
0.03282218 0.01849396 -0.018404286 0.0034474812 -0.008201055 0.06848087 -0.05214047 0.007270252
0.065734826 0.08643171 -0.0080333585 -0.0807347 0.045031518 -0.003937202 -0.073310465 0.028286627
-0.0033092543 0.04498742 -0.0003234075 -0.015183861 0.03578603 -0.052830305 -0.050637405 -0.024067782
0.044486452 -0.044604067 -0.012389376 0.07103892 -0.008655973 0.007784044 0.07606633 0.037514336
-0.07754726 -0.065248154 0.046639085 -0.037518904 0.07269034 -0.015013536 0.019190133 0.07140403
-0.07900787 0.057990666 0.03965428 0.056536574 0.010705904 0.096517295 -0.009690062 0.033905853
-0.05572419 0.10100718 0.042854358 0.03413364 0.07798302 -0.07605551 -0.060272478 0.060611688
0.01160967 -0.04547403 0.086689085 -0.007779686 -0.06932469 -0.06276316 -0.07060488 0.033664566
-0.024189703 0.09570797 0.028586056 0.039894268 -0.027230386 0.023106009 -0.05279574 0.077543475
-0.05262249 -0.048888512 0.05719479 0.03145729 -0.06642553 -0.05019724 -0.06194227 -0.035240207
00000000: 9e94 f13b dffc 873c 577f 80bd c7b6 66bd
00000010: c124 c539 139e d8bc 4f36 20bd e25f 2bbd
00000020: 24ba 8e3d f1b9 a43d 5626 663c 94dd 453d
00000030: 015c 743c 5eba d03c 9c1e a63c 11e0 1cbd
00000040: 1b1b 81b9 c2d8 3d3d f1a6 853d bf27 a63d
00000050: 6cc6 893d b52f 00bc 7b3d 1f3c 85d2 21bd
00000060: 9e3f b63d a0d9 a8bd e2d7 a93c b16d 853d
00000070: a3c2 0e3d 0111 debd 51b4 0c3c 29f3 5d3d
00000080: cd0b 683c 68c0 a8bc 8ef0 8e3d 736f 9dbd
00000090: 2ba4 55bd ec54 223d 6b24 563d 1124 b139
000000a0: 251a a5bd 9d01 073d 27a7 883d b0be 123b
000000b0: bf61 643d 3217 8fbd 1d94 c13c e0f7 fabc
000000c0: cbdd 433d c9ee a6bd b516 cc3d a3f6 813d
000000d0: e74c f5bc 09ba 373d 18a7 69bd ecb6 2b3c
000000e0: 554d ecbb 60ed 623c a5ca 27bd 9363 66bd
000000f0: 1123 5cbd 115c c63c 118f 81bd 2228 83bd
00000100: dc94 fbbb 0708 edbb 9d4e 803d 6667 adbc
00000110: cac9 3d3d a7c5 d3bc 8d52 c23b c248 4bbc
00000120: 73f0 783c 5afe 85bd 24c0 af3c 381c 6fba
00000130: eac9 65bb c869 6e3d f68a 0c3d d92c a13d
00000140: b350 0e3d 0a80 a2bd 5e35 3b3d b3a8 abbb
00000150: ddc1 debd af4b 9e3c 5a29 2cbd 64d7 2b3c
00000160: fcd4 1a3d 9302 b6bc 9636 86bd f3fe acbd
00000170: b6a9 ec3c 7c7a 063d 4319 78bd da8d 3ebd
00000180: 1f55 833d 2833 90bd bfb5 e4bc aa23 6bbc
00000190: ad06 8b3d 965a 9e3d f498 863c b7e3 1fbd
000001a0: 3a58 3c3d c8d4 63bd 0637 e8bc 8333 9ebc
000001b0: 93b7 06bd 20d5 2a3d c967 133d ff74 213d
000001c0: bae5 a6bc 5e51 5ebd ce67 853c 290e bbbc
000001d0: 65b7 c63c e8b6 203b 1311 943d 0093 4abd
000001e0: 07e9 283b bd85 22bb 5472 85bd fe68 27bc
000001f0: 3978 dabc 609a 41bc 206f 25bd f7a7 aebd
00000200: 9817 a1bd e489 363d bf04 6cbc 4d13 7e3d
00000210: 0555 e03c 4eb2 d73c 8b8a af3d fc10 fe3c
00000220: 953a 34bd 8595 8ebd 3e0f 9c3d 3b7e 53bd
00000230: 68b9 a7bd f130 133c aea8 8d3d 86dd 453d
00000240: d579 bfbc 1478 323b c4c2 a4bd 1328 adbd
00000250: 4f6a 41bd 8a07 163d 9297 fc3c 3dea 83bd
00000260: 591b 7ebd 3100 e8bc e115 993c 2049 94bd
00000270: f2b4 f4bc e5ab 3b3d 4ad1 98bc 2dca 5fbd
00000280: 5587 aa3c 8e4d 85bd cbcb 023d c0d8 75bd
00000290: cfcb 98bd fd35 f93c fba1 a0bc b535 e43c
000002a0: 5cd1 903d 48d0 213d b8d5 60bd cdca e43d
000002b0: e6cf 9b3c 8d8d 2ebb 9dfc 8abd 58b5 9f3d
000002c0: 8d70 063d a580 973c 96c4 96bc 23ef 613b
000002d0: b85d 06bc b33f 8c3d 3f91 55bd 4b3b ee3b
000002e0: fb9f 863d 1c03 b13d 599e 03bc 3c58 a5bd
000002f0: f872 383d a503 81bb cc23 96bd 5bb9 e73c
00000300: 13e0 58bb bb44 383d 058f a9b9 bbc5 78bc
00000310: 5f94 123d 9764 58bd 2b69 4fbd cc29 c5bc
00000320: 6d37 363d c1b2 36bd cffc 4abc da7c 913d
00000330: c8d1 0dbc 4b11 ff3b aac8 9b3d a2a8 193d
00000340: 19d1 9ebd d3a0 85bd a008 3f3d 6cad 19bd
00000350: acde 943d 56fb 75bc a034 9d3c 473c 923d
00000360: e1ce a1bd 9f87 6d3d 876c 223d e592 673d
00000370: d167 2f3c dcaa c53d 11c3 1ebc dde0 0a3d
00000380: 0c3f 64bd dadc ce3d 0d88 2f3d b7cf 0b3d
00000390: 90b5 9f3d fec2 9bbd 46e0 76bd f643 783d
000003a0: 7c36 3e3c fa42 3abd 0c8a b13d bcec febb
000003b0: 1afa 8dbd f989 80bd 4b99 90bd dbe3 093d
000003c0: 7c29 c6bc 8a02 c43d 4e2d ea3c 2c68 233d
000003d0: 4212 dfbc d048 bd3c 5940 58bd 1dcf 9e3d
000003e0: ae8a 57bd 523f 48bd 1645 6a3d 5cd9 003d
000003f0: 1c0a 88bd 9f9b 4dbd 2db7 7dbd 0958 10bd

_module.layer3.0.bias f4 [64]
-0.029999392 -0.007903718 -0.008539659 -0.0055843876 0.00016445265 0.004836183 -0.012443737 -0.0992474
-0.05917724 -0.08298022 0.065522954 -0.045119073 0.050582882 0.029803758 -0.03015454 -0.08966348
-0.0074664364 -0.06999638 -0.041989326 -0.008762343 -0.02198183 -0.05680058 0.05338081 0.067268476
0.03187124 -0.029313046 0.028478064 0.03971726 -0.075338215 0.0026709677 -0.07121564 -0.029190356
0.061106946 0.03315829 -0.062829755 0.08415145 0.018824013 -0.008171829 0.05503894 0.03685689
0.075927936 -0.037805077 0.07414715 -0.056976836 0.029692803 0.08055657 -0.08302655 0.012986292
0.07864306 0.02701078 0.049927033 0.06242592 -0.076006025 -0.07487321 0.012024614 0.074151956
0.055611532 -0.033904713 -0.044217765 0.04572222 -0.03078629 0.010197622 0.07585873 -0.02357892
00000000: 49c1 f5bc 997e 01bc ede9 0bbc 3dfd b6bb
00000010: ec70 2c39 d878 9e3b d1e0 4bbc 3942 cbbd
00000020: d563 72bd 89f1 a9bd e630 863d c7ce 38bd
00000030: ff2f 4f3d 0327 f43c a706 f7bc 7da1 b7bd
00000040: 02a9 f4bb 435a 8fbd 00fd 2bbd ee8f 0fbc
00000050: 3d13 b4bc baa7 68bd d6a5 5a3d 0ec4 893d
00000060: 6b8b 023d ea21 f0bc d44a e93c 91ae 223d
00000070: ec4a 9abd 670b 2f3b 81d9 91bd 9d20 efbc
00000080: 474b 7a3d fdd0 073d e3ac 80bd 9857 ac3d
00000090: d134 9a3c 23e3 05bc 8370 613d 40f7 163d
000000a0: 1b80 9b3d 7fd9 1abd 76da 973d 8b60 69bd
000000b0: 523e f33c d8fa a43d d309 aabd 75c4 543c
000000c0: 9d0f a13d b645 dd3c 4a80 4c3d 52b2 7f3d
000000d0: 0ca9 9bbd 2057 99bd e302 453c fbdc 973d
000000e0: ebc8 633d abdf 0abd b01d 35bd 3947 3b3d
000000f0: 8833 fcbc ed13 273c d25b 9b3d 9428 c1bc

_module.layer3.1.weight f4 [64]
1.0193075 0.9987867 0.997269 1.0452559 0.98388344 0.9909142 0.9924117 0.98537314
0.9826341 0.9957099 1.0046742 0.99243695 0.9771384 1.0078866 1.0078678 0.99519044
1.0055151 1.0210998 0.9859935 0.9936242 1.0120691 0.9965401 0.99640316 1.0127561
0.99959004 0.9913585 1.0088372 1.0015254 1.0101292 1.013775 0.9400792 0.9756614
0.98176193 1.0111368 0.98339367 1.0025061 0.996657 1.0017078 1.0204688 0.98220164
0.98186356 0.9719386 1.0107007 1.0271882 0.97165537 0.9932744 0.95628655 1.01671
0.99410695 1.0413079 1.0156268 0.9938616 1.0131357 0.9818965 0.9981848 1.016545
0.99650365 1.0136843 0.9541077 0.9905331 1.0173602 1.0204381 1.0157697 0.9816669
00000000: ab78 823f 7cb0 7f3f 054d 7f3f f2ca 853f
00000010: c9df 7b3f 8eac 7d3f b10e 7e3f 6a41 7c3f
00000020: e98d 7b3f d8e6 7e3f 2a99 803f 5910 7e3f
00000030: be25 7a3f 6e02 813f d001 813f cdc4 7e3f
00000040: b8b4 803f 66b3 823f 126a 7c3f 285e 7e3f
00000050: 7b8b 813f 411d 7f3f 4714 7f3f fea1 813f
00000060: 22e5 7f3f acc9 7d3f 9421 813f fc31 803f
00000070: ea4b 813f 61c3 813f 08a9 703f f2c4 793f
00000080: c054 7b3f ee6c 813f b0bf 7b3f 1f52 803f
00000090: ea24 7f3f f637 803f b99e 823f 9171 7b3f
000000a0: 695b 7b3f f8d0 783f a45e 813f e77a 833f
000000b0: 68be 783f 3b47 7e3f 32cf 743f 8e23 823f
000000c0: cb7d 7e3f 9449 853f 0f00 823f b76d 7e3f
000000d0: 6eae 813f 925d 7b3f 0a89 7f3f 261e 823f
000000e0: dd1a 7f3f 68c0 813f 6740 743f 9493 7d3f
000000f0: dc38 823f b79d 823f be04 823f 864e 7b3f

_module.layer3.1.bias f4 [64]
0.016092794 -0.01004844 0.00015275345 0.009321737 -0.008231074 0.019684888 -0.049439553 0.007077822
0.030276952 -0.0008556523 -0.038414642 -0.017058037 -0.00264836 -0.044013385 0.0019400911 -0.0051720864
-0.025615567 0.03372362 0.017112965 -0.039481275 0.0030733622 0.015337404 -0.0062649883 -0.00047229935
-0.017558888 -0.00080008345 0.027069103 -0.0020957333 0.008277449 0.018842965 0.013131401 0.029563375
-0.009652507 0.017620204 0.0065554385 -0.0043879785 0.0002842332 -0.016772905 0.044166908 0.026912713
0.0031610376 -0.024304202 -0.06432045 -0.012620922 -0.014350994 -0.0032420338 -0.035925422 -0.035647783
-0.022033915 -0.008737693 0.023776382 -0.012887958 -0.008759513 0.0069136447 -0.017836638 -0.02549313
-0.004774069 -0.027066376 -0.010836387 0.024229312 0.015853079 0.008920039 0.019180574 0.018699184
00000000: 09d5 833c 36a2 24bc 712c 2039 33ba 183c
00000010: a0db 06bc 3442 a13c 2181 4abd 13ed e73b
00000020: 5f07 f83c db4d 60ba ac58 1dbd 4cbd 8bbc
00000030: 1c90 2dbb 6147 34bd a84a fe3a 9b7a a9bb
00000040: bdd7 d1bc c721 0a3d 7d30 8c3c 1eb7 21bd
00000050: 766a 493b bc49 7b3c 884a cdbb f29e f7b9
00000060: a8d7 8fbc b1bc 51ba 06c0 dd3c 9258 09bb
00000070: 239e 073c 905c 9a3c 1625 573c e42e f23c
00000080: 8c25 1ebc 3f58 903c 01cf d63b 08c9 8fbb
00000090: 2205 9539 5567 89bc 5ce8 343d 0d78 dc3c
000000a0: 6929 4f3b 9b19 c7bc 71ba 83bd fcc7 4ebc
000000b0: 6e20 6bbc 4d78 54bb 8926 13bd 6903 12bd
000000c0: 7880 b4bc 8a28 0fbc b0c6 c23c 0428 53bc
000000d0: 0f84 0fbc db8b e23b 241e 92bc f8d6 d0bc
000000e0: cb6f 9cbb 4eba ddbc 1a8b 31bc 8d7c c63c
000000f0: 51de 813c 5b25 123c 9420 9d3c 082f 993c

_module.layer4.0.weight f4 [64, 64, 3, 3]
0.0142486505 0.07093782 0.043211397 0.0061638574 -0.032985434 -0.008331968 -0.041598838 -0.05193958
0.0034778633 0.0010539445 0.012570287 0.020622956 0.01186436 -0.020676248 -0.047200568 0.0038018352
0.016900122 0.017452132 -0.045247834 -0.001889229 0.013869006 -0.032527898 0.005018924 -0.005682123
0.0145266345 0.0034657752 0.008589917 -0.012075326 -0.029094988 0.003661972 -0.08879465 0.025420725
0.021729419 0.006456846 -0.043005027 0.020502288 0.0018980099 0.04051766 0.021204257 0.022651274
0.0092001455 0.0109757865 0.039540052 -0.040722262 0.010665534 0.03456952 -0.020906126 0.019347614
0.007932888 -0.040260196 -0.020879379 0.03405938 -0.03435709 -0.030202625 0.077464044 0.008739709
-0.054031715 -0.015958559 -0.0021730554 -0.034639828 0.02999578 -0.029934319 -0.007892544 -0.016112933
0.0555771 -0.043429498 -0.012281845 -0.056727346 0.00948908 0.019756582 0.028186219 -0.0143826185
0.017038072 -0.027964955 0.029547686 0.06964702 -0.007284289 -0.036736913 0.039826643 -0.0015534641
0.02549138 -0.057951953 0.0047899783 -0.041109685 -0.02948865 0.027248286 -0.039742243 0.026941119
-0.016900793 -0.0130347535 -0.011503047 -0.023542581 0.041258387 0.012215775 -0.014294168 0.014305613
0.027754724 0.016326781 -0.019128375 0.04925438 0.049600832 0.022445705 0.016490659 0.053956583
-0.05586802 0.006774198 -0.033667292 -0.022288425 0.024615806 -0.047026295 -0.025092786 -0.05921102
0.0098246075 0.014374474 -0.008430116 -0.016867775 0.009457803 -0.00060621934 -0.027165864 -0.06405968
-0.031733155 0.037699588 0.0049691843 -0.027016865 -0.0070960745 -0.035478245 0.018026503 -0.04115229
0.0599804 -0.038543053 0.025801092 -0.008294875 0.003584536 -0.002193944 -0.05892719 -0.034675308
0.0063290065 0.006719711 0.012451329 0.025588432 0.005936519 -0.033708464 -0.07943241 0.068369046
-0.038210385 0.034770068 0.025787417 -0.041641068 -0.026152736 0.008945239 -0.012476231 0.039902918
-0.041880243 0.01752072 -0.017972643 0.030628707 -0.011795911 0.010786111 -0.061040312 0.06113034
0.011388674 -0.026082797 0.019863889 0.013917361 0.025780052 0.0656826 -0.04279959 0.013643986
-0.025710512 -0.011551071 -0.036225826 0.034018483 -0.024546947 -0.00418101 -0.06088765 -0.019811057
-0.035353255 0.011061126 0.036233097 0.041876763 -0.024368128 0.03514343 -0.0036574854 0.007886322
-0.02829008 0.0029212623 -0.02850269 -0.02474568 0.028543716 -0.038834903 -0.03753888 -0.001195065
-0.014081323 0.016454106 0.03842795 0.050400645 -0.0072030844 0.0040369346 0.03955116 0.06304314
-0.052060984 -0.03870904 0.0016706722 0.003608635 -0.026618192 0.03766673 -0.03245106 -0.005373753
-0.003318097 -0.03347475 -0.07322023 0.06417762 0.06238851 0.00044825408 -0.031336598 0.06343011
-0.0076824874 -0.054049022 0.021159414 0.023199446 -0.012861792 -0.0064086597 -0.037588086 0.038200803
-2.9725684e-06 0.007102798 -0.04800928 -0.042814057 0.0096812295 0.01503543 0.033571053 0.051373444
0.030686274 0.03371957 0.035516873 -0.020643972 -0.01992936 0.011261958 0.013674497 -0.010459425
-0.03590142 0.022627408 0.02374919 -0.004975219 0.053170387 0.035203826 -0.025513126 -0.02409114
-0.020318327 0.015287958 0.0020972104 -0.026026458 -0.014178979 0.03278561 0.048013188 0.016482694
00000000: 2c73 693c d947 913d 6ffe 303d 2ffa c93b
00000010: bc1b 07bd cf82 08bc 8b63 2abd 99be 54bd
00000020: ddec 633b 8224 8a3a 9bf3 4d3c 79f1 a83c
00000030: bc62 423c 3c61 a9bc 6255 41bd 3628 793b
00000040: 2072 8a3c c6f7 8e3c cb55 39bd 02a0 f7ba
00000050: d43a 633c f93b 05bd c975 a43b 1a31 babb
00000060: 1f01 6e3c 0f22 633b b9bc 0c3c 97d7 45bc
00000070: 9d58 eebc b2fd 6f3b f8d9 b5bd 203f d03c
00000080: e501 b23c f393 d33b 0a26 30bd 6af4 a73c
00000090: a5c6 f83a d9f5 253d 8db4 ad3c 2a8f b93c
000000a0: 35bc 163c c9d3 333c c0f4 213d 63cc 26bd
000000b0: 7ebe 2e3c c598 0d3d 5343 abbc e37e 9e3c
000000c0: f2f8 013c e0e7 24bd 3b0b abbc d981 0b3d
000000d0: 05ba 0cbd 7f6b f7bc 78a5 9e3d ff30 0f3c
000000e0: 5c50 5dbd 86bb 82bc d269 0ebb 7ee2 0dbd
000000f0: b6b9 f53c d138 f5bc bb4f 01bc 45ff 83bc
00000100: d0a4 633d 21e3 31bd cb39 49bc ef5a 68bd
00000110: 1678 1b3c 8ed8 a13c c9e6 e63c 13a5 6bbc
00000120: 6d93 8b3c c316 e5bc fd0d f23c 19a3 8e3d
00000130: 0cb1 eebb 7279 16bd 4321 233d 9b9d cbba
00000140: 4cd3 d03c 075f 6dbd 40f5 9c3b a162 28bd
00000150: 2e92 f1bc cc37 df3c c3c8 22bd 9fb3 dc3c
00000160: 8873 8abc b88f 55bc 4777 3cbc 5fdc c0bc
00000170: 8efe 283d ad24 483c 1632 6abc 1762 6a3c
00000180: e05d e33c bebf 853c 1cb3 9cbc f6be 493d
00000190: 3e2a 4b3d 0ee0 b73c 6b17 873c 9401 5d3d
000001a0: ddd5 64bd 17fa dd3b b7e6 09bd 3796 b6bc
000001b0: 16a7 c93c a59e 40bd 638f cdbc 4187 72bd
000001c0: 64f7 203c ea82 6b3c 781e 0abc 4a2e 8abc
000001d0: e7f4 1a3c b1ea 1eba f28a debc b931 83bd
000001e0: a0fa 01bd e26a 1a3d 8ad4 a23b 7952 ddbc
000001f0: 3086 e8bb a351 11bd 51ac 933c 4e8f 28bd
00000200: 02ae 753d 52df 1dbd d05c d33c 3ae7 07bc
00000210: 89ea 6a3b 46c8 0fbb a35d 71bd b207 0ebd
00000220: 8e63 cf3b 0531 dc3b a900 4c3c d59e d13c
00000230: 2187 c23b e311 0abd 76ad a2bd 1205 8c3d
00000240: 7e82 1cbd 0f6b 0e3d 2240 d33c d38f 2abd
00000250: 433e d6bc 0d8f 123c 1b69 4cbc 3e71 233d
00000260: 9e8a 2bbd 9d87 8f3c 5d3b 93bc 0ee9 fa3c
00000270: a343 41bc 3ab8 303c 6805 7abd cf63 7a3d
00000280: 9097 3a3c 97ab d5bc 98b9 a23c a505 643c
00000290: b030 d33c 9984 863d 9f4e 2fbd 068b 5f3c
000002a0: da9e d2bc b440 3dbc 8861 14bd f756 0b3d
000002b0: ae16 c9bc db00 89bb 5465 79bd cc4a a2bc
000002c0: 93ce 10bd ba39 353c 2869 143d f886 2b3d
000002d0: ab9f c7bc 8ff2 0f3d 6cb2 6fbb a235 013c
000002e0: 99c0 e7bc a672 3f3b 797e e9bc 74b7 cabc
000002f0: 83d4 e93c 5911 1fbd 5ec2 19bd baa3 9cba
00000300: 59b5 66bc c3ca 863c a066 1d3d e870 4e3d
00000310: da07 ecbb 4348 843b 6600 223d c31c 813d
00000320: e63d 55bd 5f8d 1ebd 75fa da3a d97e 6c3b
00000330: 650e dabc 6e48 1a3d 67eb 04bd 4f16 b0bb
00000340: 6e74 59bb d21c 09bd 7df4 95bd 8e6f 833d
00000350: 188b 7f3d a503 eb39 ce5a 00bd a5e7 813d
00000360: 60bd fbbb 8262 5dbd 8256 ad3c c40c be3c
00000370: 44ba 52bc bcff d1bb f7f5 19bd 7278 1c3d
00000380: 567c 47b6 97be e83b 61a5 44bd cb5d 2fbd
00000390: 059e 1e3c 2a57 763c cd81 093d f66c 523d
000003a0: c861 fb3c 881d 0a3d 247a 113d 8c1d a9bc
000003b0: e642 a3bc 1384 383c ff0a 603c 025e 2bbc
000003c0: 5e0d 13bd 1d5d b93c a98d c23c 2907 a3bb
000003d0: 31c9 593d e331 103d e700 d1bc c85a c5bc
000003e0: 9f72 a6bc 587a 7a3c 5a71 093b 7035 d5bc
000003f0: f34e 68bc 344a 063d 7aa9 443d b706 873c

_module.layer4.0.bias f4 [64]
-0.019279638 0.03449336 0.0053273803 0.0073972107 -0.023317432 -0.0134098595 0.030796414 -0.050192155
-0.026408171 0.0011999316 0.039093144 0.02602858 0.0064328643 -0.040472515 -4.113587e-06 0.03743123
0.014235354 -0.011734801 0.035454337 0.029869799 0.0223812 0.010623642 -0.023933498 0.035804104
0.051979378 0.0023620054 0.006690438 -0.04242908 0.014490615 -0.0018316205 0.06426254 0.016436718
-0.03819667 -0.023873465 0.0729551 -0.057337843 -0.0070115216 -0.037963763 -0.029947901 0.023362089
-0.005252362 0.063607275 -0.021712583 0.043525882 -0.026561879 -0.034811873 0.05230565 -0.027468378
0.0064038024 0.019100282 -0.05141048 -0.057100333 0.066669494 0.03119935 0.0303627 0.033244655
-0.019498503 -0.02381391 -0.03332191 -0.00395442 -0.05530765 0.008117239 -0.062368903 -0.020920293
00000000: 55f0 9dbc e948 0d3d 4e91 ae3b 4d64 f23b
00000010: 3304 bfbc 07b5 5bbc c348 fc3c 4a96 4dbd
00000020: f355 d8bc 0647 9d3a 2220 203d e339 d53c
00000030: c7ca d23b 82c6 25bd 7107 8ab6 7d51 193d
00000040: 673b 693c 5343 40bc 9138 113d 82b1 f43c
00000050: c758 b73c c90e 2e3c 2f10 c4bc 53a7 123d
00000060: 54e8 543d e0cb 1a3b 763b db3b 1dca 2dbd
00000070: 0b6a 6d3c fc12 f0ba 149c 833d 4ca6 863c
00000080: 1d74 1cbd 4992 c3bc 7c69 953d 16db 6abd
00000090: e8c0 e5bb e47f 1bbd 4d55 f5bc da61 bf3c
000000a0: 021c acbb 8844 823d 96de b1bc 3248 323d
000000b0: 4c98 d9bc e596 0ebd 733e 563d 5d05 e1bc
000000c0: fdd6 d13b 3278 9c3c cc93 52bd 0ae2 69bd
000000d0: 048a 883d c795 ff3c 32bb f83c 8c2b 083d
000000e0: 53bb 9fbc 6415 c3bc 8e7c 08bd 1494 81bb
000000f0: 468a 62bd 2bfe 043c 8976 7fbd 0961 abbc

_module.layer4.1.weight f4 [64]
1.0466635 1.0118151 1.0061858 0.9823346 0.9738681 1.0282726 1.0072138 1.0007813
0.9768999 0.95682037 0.9914743 1.0042673 1.0260234 0.99598473 0.9898076 0.9716104
1.0230681 0.98688567 0.9510836 1.0153586 0.9862378 1.0069298 0.98939085 1.0138708
1.0105499 1.0281022 1.0166059 1.0199807 1.0125965 0.9751756 1.01949 1.0256166
0.96784157 1.0110835 1.0164763 0.9680043 0.9955483 1.046653 0.9891314 0.9717158
0.9896738 1.0081394 1.0015581 0.99647474 0.99068254 0.9980282 0.99823123 0.97828907
1.0158259 1.0183467 0.9944506 0.97643644 1.0352423 0.98499495 0.99213547 0.9939899
0.9642796 1.0107558 1.0052805 1.0069528 0.99755204 0.9937975 0.987955 1.0132555
00000000: 12f9 853f 2883 813f b2ca 803f 487a 7b3f
00000010: 6b4f 793f 709e 833f 62ec 803f 9a19 803f
00000020: 1d16 7a3f 2ef2 743f 42d1 7d3f d58b 803f
00000030: bc54 833f dbf8 7e3f 0864 7d3f 76bb 783f
00000040: e5f3 823f 8aa4 7c3f 377a 733f 45f7 813f
00000050: 157a 7c3f 13e3 803f b848 7d3f 85c6 813f
00000060: b359 813f da98 833f 2420 823f ba8e 823f
00000070: c39c 813f 1ca5 793f a67e 823f 6847 833f
00000080: 77c4 773f 2f6b 813f e51b 823f 21cf 773f
00000090: 41dc 7e3f baf8 853f b737 7d3f 5ec2 783f
000000a0: 435b 7d3f b60a 813f 0e33 803f f818 7f3f
000000b0: 5f9d 7d3f c77e 7f3f 158c 7f3f 2771 7a3f
000000c0: 9506 823f 2f59 823f 5194 7e3f bdf7 793f
000000d0: d282 843f a128 7c3f 97fc 7d3f 1f76 7e3f
000000e0: 07db 763f 7260 813f 08ad 803f d4e3 803f
000000f0: 925f 7f3f 8369 7e3f 9eea 7c3f 5bb2 813f

_module.layer4.1.bias f4 [64]
0.017097067 0.0016049047 -0.020981176 -0.036529653 0.0020509162 -0.024388313 -0.00082919607 0.02905548
-0.024595186 -0.019896999 0.0011847663 0.032934997 -0.012728191 -0.005293834 0.00869688 0.028775765
-0.02574272 0.010410254 -0.008924474 -0.02070364 0.003300888 0.028037563 -0.0061779036 -0.005504443
-0.019872688 0.009850816 -0.020571757 -0.03075767 -0.026823701 -0.019506268 0.027023979 -0.014938766
-0.035578083 0.0023064509 -0.03141597 -0.002371382 -0.015700575 0.02342715 0.0013971146 -0.0075726127
-0.0024515043 0.02066574 -0.026145466 -0.042084895 0.0054869186 -0.032136373 0.01817188 -0.0070384666
-0.01052918 -0.017750349 0.008598371 -0.01915815 0.01596805 -0.028091798 0.0077679204 -0.013522685
-0.029722117 -0.010210318 -0.015560787 -0.05326866 -0.0350706 -0.028442843 -0.0070424806 0.0015193239
00000000: 260f 8c3c aa5b d23a b7e0 abbc 1ea0 15bd
00000010: aa68 063b 00ca c7bc 685e 59ba c205 ee3c
00000020: d87b c9bc 08ff a2bc 294a 9b3a d9e6 063d
00000030: e789 50bc e677 adbb 5c7d 0e3c 27bb eb3c
00000040: 66e2 d2bc c58f 2a3c f537 12bc ae9a a9bc
00000050: b653 583b 08af e53c 0370 cabb 9d5e b4bb
00000060: 0ccc a2bc 5165 213c 1a86 a8bc 82f7 fbbc
00000070: 61bd dbbc 9ccb 9fbc 6461 dd3c bac1 74bc
00000080: 53ba 11bd d327 173b 08ae 00bd 3069 1bbb
00000090: 7e9e 80bc 4bea bf3c 631f b73a ae23 f8bb
000000a0: 6ba9 20bb 334b a93c 042f d6bc 3661 2cbd
000000b0: 9ccb b33b 6ea1 03bd 32dd 943c f0a2 e6bb
000000c0: 9582 2cbc 2e69 91bc 2fe0 0c3c 8df1 9cbc
000000d0: 6ecf 823c c520 e6bc 0a8a fe3b 408e 5dbc
000000e0: cc7b f3bc 2d49 27bc acf2 7ebc 3d30 5abd
000000f0: 31a6 0fbd f700 e9bc 9cc4 e6bb 0d24 c73a

_module.layer5.0.weight f4 [64, 64, 3, 3]
-0.020035703 -0.008125686 0.01691091 0.009478871 0.03471791 0.0059972596 -0.0014330513 -0.005772338
-0.028101655 -0.06408711 -0.013595559 -0.041352812 0.028867397 -0.047405753 -0.0054154866 -0.024821766
0.018121729 0.051411968 -0.02809132 -0.019574497 -0.014756554 -0.010086134 -0.010958402 0.04866944
0.057569597 0.07437503 0.037882 -0.018504234 -0.05751698 -0.0075970106 0.027490236 0.034920562
-0.013161691 -0.025751552 -0.006933476 -0.043298062 -0.031418893 0.05920592 -0.032598812 -0.00903052
-0.027889797 0.032544408 -0.0018098552 0.018554002 -0.02467673 -0.033895265 0.020342108 -0.00020694184
-0.031221451 0.023436768 0.036870714 -0.0066643488 0.021164795 -0.03492552 0.031149661 -0.009483678
-0.0034560466 0.014047345 0.06479902 -0.008683351 0.03569482 -0.010587536 0.034845382 -0.037905995
-0.023028258 0.05509952 0.0013005113 -0.028784607 0.024180625 0.037447218 0.0005062557 0.01674958
0.0013992478 -0.018732274 0.0072497926 -0.005617729 0.046092577 0.013792088 -0.019134866 -0.021783434
-0.00095430156 0.05516105 -0.030521581 0.04191892 -0.031350538 0.023665292 0.0032561214 -0.05285373
-0.0021870292 0.029001372 -0.03736957 0.030002758 -0.013782419 0.04324984 -0.037674453 -0.03819869
0.008880234 0.0049967254 -0.026419805 -0.0130295055 -0.036738936 -0.00020522776 -0.012469081 0.028585944
0.021107085 0.012396566 0.014579588 0.017023077 -0.030746888 -0.013074919 0.01099847 -0.014012296
0.03174939 -0.018900657 0.021054098 -0.07509914 -0.040009033 -0.04726824 0.014973051 -0.04045352
-0.02512705 0.026783366 0.00935284 0.05311769 -0.026152663 -0.026705345 -0.037891548 -0.048003778
8.744817e-05 0.0328485 -0.050270647 0.056168716 -0.0023623835 -0.040411014 0.07727387 0.017095532
-0.00016806864 -0.010096402 0.01497675 -0.02062258 0.001620075 0.06285378 0.014747746 -0.018232867
0.0151513545 -0.039625674 -0.045350652 0.007562115 -0.026249975 0.010230075 -0.030945739 0.011256441
-0.011379434 -0.031914413 0.0060887327 0.020914419 0.016588936 0.031479377 -0.0411506 0.002557446
-0.024307279 0.031861134 -0.052516602 -0.041000538 0.010818175 -0.03210538 0.0581379 0.05129169
0.0032488005 0.036295902 -0.060278527 0.009394008 -2.3810235e-05 -0.0051386287 -0.03081265 -0.03897068
-0.05733657 0.038372718 -0.020041088 -0.012171603 -0.091038495 0.031491872 0.022639718 0.043981217
0.036281265 0.030671932 -0.033361394 -0.016469736 -0.009050478 -0.03387435 -0.02536219 -0.03204083
-0.006682609 0.012806739 0.003709942 0.021613695 0.011293738 0.03313768 0.0002804724 0.0067964876
0.028511759 -0.04266051 0.010629148 0.0045313356 -0.004034781 -0.056497693 0.010609909 -0.030370116
0.014829629 0.0021975704 0.016443852 0.0038929374 -0.0038904941 0.025095467 0.027716681 -0.008674037
0.02524105 -0.020311473 -0.0331077 0.0065776776 0.01788607 0.004849768 -0.017113684 -0.0053633885
-0.0043923706 0.008305312 0.018149339 0.008939881 0.011440619 -0.04237617 8.420823e-06 0.016351491
-0.028088566 -0.028136026 -0.025973557 -0.014213544 -0.03407836 -0.0022762232 -0.066830814 0.01215687
-0.046452466 -0.08090852 -0.012003943 -0.03280742 0.0025884986 0.042649083 0.03743848 0.0065198266
-0.031971373 -0.017231088 -0.012950723 -0.05275051 0.043988816 0.03134871 -0.03446282 -0.015515088
00000000: ea21 a4bc 9921 05bc c088 8a3c 444d 1b3c
00000010: 5e34 0e3d a984 c43b 39d5 bbba e125 bdbb
00000020: 7135 e6bc 1a40 83bd e8bf 5ebc 9161 29bd
00000030: 527b ec3c 892c 42bd 6574 b1bb 0457 cbbc
00000040: 0574 943c 5b95 523d c51f e6bc b25a a0bc
00000050: 79c5 71bc 5040 25bc df8a 33bc 9b59 473d
00000060: 19ce 6b3d f051 983d 282a 1b3d 3196 97bc
00000070: ed96 6bbd 58f0 f8bb 3433 e13c dd08 0f3d
00000080: 22a4 57bc ebf4 d2bc 3632 e3bb 4f59 31bd
00000090: 19b1 00bd e881 723d 5586 05bd bff4 13bc
000000a0: 2579 e4bc 494d 053d aa38 edba 90fe 973c
000000b0: db26 cabc c3d5 0abd 7ea4 a63c 87fe 58b9
000000c0: 21c4 ffbc 77fe bf3c bf05 173d 9c60 dabb
000000d0: cb61 ad3c 100e 0fbd 932d ff3c 6e61 1bbc
000000e0: d77e 62bb d626 663c 59b5 843d 9d44 0ebc
000000f0: bb34 123d 5877 2dbc 08ba 0e3d 5143 1bbd
00000100: c2a5 bcbc 09b0 613d eb75 aa3a b2cd ebbc
00000110: 7216 c63c 4162 193d 3fb6 043a 6a36 893c
00000120: f766 b73a 6d74 99bc ab8f ed3b ed14 b8bb
00000130: 92cb 3c3d 36f8 613c b9c0 9cbc 2c73 b2bc
00000140: 182a 7aba 8ef0 613d 6508 fabc 2cb3 2b3d
00000150: 6c69 00bd b7dd c13c a764 553b 277d 58bd
00000160: 4354 0fbb 4994 ed3c d610 19bd 58c8 f53c
00000170: a8cf 61bc bf26 313d 8750 1abd 3b76 1cbd
00000180: 677e 113c 92bb a33b 596e d8bc b579 55bc
00000190: 917b 16bd 6832 57b9 1e4b 4cbc 122d ea3c
000001a0: c4e8 ac3c f71a 4b3c 39df 6e3c fb73 8b3c
000001b0: e6e0 fbbc 2f38 56bc ed32 343c d493 65bc
000001c0: a60b 023d 8dd5 9abc a579 ac3c 94cd 99bd
000001d0: 83e0 23bd 589c 41bd 8751 753c 97b2 25bd
000001e0: 3ed7 cdbc ca68 db3c a73c 193c ef91 593d
000001f0: 1c3e d6bc 2bc5 dabc 2b34 1bbd 9c9f 44bd
00000200: 6164 b738 268c 063d 98e8 4dbd 2b11 663d
00000210: 38d2 1abb 0586 25bd c341 9e3d ee0b 8c3c
00000220: 953b 30b9 616b 25bc 0b61 753c aff0 a8bc
00000230: b258 d43a 7cb9 803d 88a0 713c 185d 95bc
00000240: 633d 783c 884e 22bd 9bc1 39bd 9ecb f73b
00000250: 300a d7bc 0b9c 273c eb81 fdbc ef6c 383c
00000260: ce70 3abc b0b8 02bd fe83 c73b b754 ab3c
00000270: 85e5 873c 85f0 003d 888d 28bd d39a 273b
00000280: 0f20 c7bc d280 023d a61b 57bd 2ef0 27bd
00000290: b73e 313c ee80 03bd 0222 6e3d 3c17 523d
000002a0: d4e9 543b 03ab 143d 9ee6 76bd 53e9 193c
000002b0: 17bc c7b7 f161 a8bb d06a fcbc b89f 1fbd
000002c0: c0d9 6abd b62c 1d3d 352d a4bc 676b 47bc
000002d0: 6472 babd 9ffd 003d ee76 b93c a625 343d
000002e0: aa9b 143d b443 fb3c f5a5 08bd 8aeb 86bc
000002f0: 7548 14bc d5bf 0abd 5ec4 cfbc 3f3d 03bd
00000300: caf9 dabb 5bd3 513c 8022 733b 340f b13c
00000310: 5f09 393c 60bb 073d 5e0c 9339 12b5 de3b
00000320: 7e91 e93c c9bc 2ebd e125 2e3c 997b 943b
00000330: 3236 84bb 206a 67bd 2fd5 2d3c c0ca f8bc
00000340: f9f7 723c 1d05 103b 42b5 863c a720 7f3b
00000350: a9f7 7ebb 0295 cd3c 180e e33c 8c1d 0ebc
00000360: 52c6 ce3c 3f64 a6bc f19b 07bd 8f89 d73b
00000370: cf85 923c cdea 9e3b ff31 8cbc 5dbf afbb
00000380: e0ed 8fbb 0113 083c ecad 943c 9478 123c
00000390: 6f71 3b3c a392 2dbd 2947 0d37 90f3 853c
000003a0: fe19 e6bc 867d e6bc 7fc6 d4bc eddf 68bc
000003b0: c095 0bbd b02c 15bb 98de 88bd 9c2d 473c
000003c0: f144 3ebd 5eb3 a5bd 30ac 44bc 1361 06bd
000003d0: cda3 293b ceb0 2e3d 1759 193d 45a4 d53b
000003e0: 6af4 02bd 3628 8dbc 452f 54bc eb10 58bd
000003f0: 9e2d 343d 8167 003d e328 0dbd ff32 7ebc

_module.layer5.0.bias f4 [64]
-0.0071584405 -0.012341597 0.0017697917 -0.04228274 0.017226145 -0.01944467 0.012320718 -0.0038169066
0.034600258 0.02472927 -0.04961022 0.02681412 -0.0019074087 0.03769961 0.038907062 0.0018801662
0.016599404 -0.05373776 -0.024466457 -0.028394634 -0.038177155 -0.0039005075 0.00942319 0.011305824
0.046213906 0.022037873 0.005503882 -0.008018152 0.001762347 -0.013483447 -0.021969665 -0.010174236
-0.013247928 0.032041993 -0.011378784 -0.0070298817 -0.006641914 0.005603596 0.041826185 -0.021750502
-0.0047914665 -0.004797874 0.012337727 0.0026532782 -0.0062654926 -0.016858328 -0.031711508 -0.042117495
-0.009763175 0.045069057 0.03750538 0.036492884 -0.010775935 0.006659277 -0.0038622573 0.01064524
0.021650875 -0.04285985 -0.06537298 0.0034174598 -0.009221714 0.021956362 -0.0075298264 0.035969473
00000000: 5a91 eabb 6934 4abc 5bf8 e73a ab30 2dbd
00000010: d81d 8d3c 6e4a 9fbc d6dc 493c 1125 7abb
00000020: 00b9 0d3d 0a95 ca3c 1634 4bbd 49a9 db3c
00000030: 0402 faba e86a 1a3d 035d 1f3d e96f f63a
00000040: 79fb 873c 201c 5cbd e16d c8bc dd9b e8bc
00000050: a65f 1cbd a89f 7fbb b963 1a3c 103c 393c
00000060: cb4a 3d3d c588 b43c e959 b43b 915e 03bc
00000070: 8dfe e63a ade9 5cbc baf9 b3bc d7b1 26bc
00000080: d60d 59bc 773e 033d 146e 3abc ec5a e6bb
00000090: 6aa4 d9bb 5f9e b73b ef51 2b3d 1c2e b2bc
000000a0: bc01 9dbb 7c37 9dbb 2d24 4a3c 9fe2 2d3b
000000b0: c34e cdbb 7a1a 8abc ede3 01bd 6583 2cbd
000000c0: b9f5 1fbc 559a 383d 3e9f 193d 9079 153d
000000d0: 8c8d 30bc 1036 da3b ed1d 7dbb 5f69 2e3c
000000e0: 2d5d b13c cf8d 2fbd 45e2 85bd 76f7 5f3b
000000f0: ac16 17bc d4dd b33c c3bc f6bb ba54 133d

_module.layer5.1.weight f4 [64]
1.0214747 0.99236 1.027908 1.0194677 1.0116131 1.0158957 1.0086095 1.0004666
0.9879236 1.0307655 1.0104487 1.0301907 1.0221223 0.99682784 1.0202953 1.005788
1.0475299 0.96053255 0.97367734 1.0593358 1.0417644 0.9829205 1.014227 0.9898725
1.0153697 1.043229 1.0142009 1.0152823 1.0280756 0.9805578 1.0403441 1.0108283
0.98878604 1.0317382 1.0528066 0.95295733 1.0090591 1.0073062 1.0237812 1.0101982
1.0020008 1.0264628 1.0383105 1.0006251 0.9944025 1.0086069 0.9704511 1.0078061
0.9850943 1.0157475 0.96669996 1.0106474 1.0288728 1.0026025 1.0320709 1.0362544
0.98164874 1.0108831 0.9900276 1.0132325 1.0395862 1.0005311 0.9992721 1.0086329
00000000: afbf 823f 4e0b 7e3f 7d92 833f eb7d 823f
00000010: 8a7c 813f df08 823f 1e1a 813f 4a0f 803f
00000020: 90e8 7c3f 20f0 833f 6256 813f 4add 833f
00000030: e7d4 823f 1c30 7f3f 0999 823f a9bd 803f
00000040: 7615 863f 76e5 753f eb42 793f 5198 873f
00000050: 8958 853f aea0 7b3f 31d2 813f 4968 7d3f
00000060: a2f7 813f 8788 853f 56d1 813f c5f4 813f
00000070: fb97 833f d605 7b3f ff29 853f d262 813f
00000080: 1521 7d3f ff0f 843f 5ec2 863f 03f5 733f
00000090: d928 813f 69ef 803f 430b 833f 2d4e 813f
000000a0: 9041 803f 2263 833f 5ce7 843f 7c14 803f
000000b0: 2a91 7e3f 081a 813f 7c6f 783f caff 803f
000000c0: 242f 7c3f 0404 823f a679 773f e55c 813f
000000d0: 1bb2 833f 4755 803f e61a 843f fca3 843f
000000e0: 554d 7b3f 9e64 813f 7372 7d3f 9ab1 813f
000000f0: 2911 853f 6711 803f 4cd0 7f3f e21a 813f

_module.layer5.1.bias f4 [64]
0.025820633 0.008366031 -0.030079486 0.0045349733 -0.011897287 -0.009467761 0.028698161 0.0545146
0.009589168 0.009310999 0.022842795 0.021569895 0.019199315 -0.0073267263 0.013932979 0.023751684
0.026020734 0.017930737 -0.017042028 0.036405537 -0.00034879893 -0.0021255368 0.017001819 0.014008389
-0.002166914 -0.0057041524 0.002614604 -0.010064958 0.01723113 -0.0068137078 0.010330929 0.01785112
-0.005631399 0.011115358 0.024261108 -0.0046413783 0.001707267 0.018137379 0.042378243 0.0071423687
0.0068347654 0.015302557 -0.045198653 0.02400183 -0.0021011208 0.011062613 0.008631928 0.0304344
0.02450498 -0.0018020055 -0.0029749726 0.013503851 -0.005170961 0.01507188 -0.0007334281 -0.023243269
0.0090829395 0.013302576 0.012062184 0.007871758 0.018837467 0.02411903 0.0130404085 0.0063184095
00000000: cb85 d33c ad11 093c 4169 f6bc 1d9a 943b
00000010: d7ec 42bc ab1e 1bbc 6818 eb3c b44a 5f3d
00000020: e31b 1d3c 298d 183c d020 bb3c 59b3 b03c
00000030: e247 9d3c 0915 f0bb 2647 643c e492 c23c
00000040: 6f29 d53c 7be3 923c b99b 8bbc f91d 153d
00000050: 00df b6b9 974c 0bbb 6647 8b3c 7183 653c
00000060: c902 0ebb e6e9 babb c759 2b3b 7ee7 24bc
00000070: 4c28 8d3c 8645 dfbb 0f43 293c 833c 923c
00000080: 9987 b8bb 311d 363c 3bbf c63c b416 98bb
00000090: 60c6 df3a d794 943c cf94 2d3d 880a ea3b
000000a0: 2bf6 df3b 93b7 7a3c 3922 39bd 7c9f c43c
000000b0: f5b2 09bb f63f 353c ee6c 0d3c 9051 f93c
000000c0: abbe c83c 4531 ecba c2f7 42bb 423f 5d3c
000000d0: 2a71 a9bb 0cf0 763c 8743 40ba ab68 bebc
000000e0: 9cd0 143c 0cf3 593c 77a0 453c 8cf8 003c
000000f0: 0851 9a3c 4695 c53c 70a7 553c a90a cf3b
