weights/private_total.pth (torch, 946620 bytes, 26 tensors)

_module.layer1.0.weight f4 [16, 1, 3, 3]
-0.28609332 0.19028297 0.07393412 -0.12933645 0.19263485 0.17451242 -0.16062513 0.015240279
0.3503839 -0.105453484 0.24998796 -0.069834664 -0.1693456 0.250247 -0.036108714 0.2462879
-0.112949274 -0.114944026 0.06692798 -0.21939802 -0.06506512 0.17384823 -0.1989068 -0.17916392
0.15939884 0.034349304 -0.33622524 -0.18871443 0.20096946 0.04925584 -0.2367126 0.18142532
0.17430702 0.12365859 -0.16020711 -0.16734162 -0.2886017 0.065748796 -0.3043409 -0.2958163
-0.23251513 -0.082357794 0.20603769 0.24123202 -0.014877218 0.08364835 -0.2280542 -0.15904842
-0.0764799 0.34089187 0.17443392 -0.057149265 -0.32187453 0.2806045 0.21098012 -0.1715287
0.22567807 -0.18720831 -0.25214761 -0.25107154 -0.13210818 -0.28916037 0.039326943 0.15372673
0.20597672 0.2784766 -0.16539912 0.008386899 0.2929358 0.020116618 -0.11683974 -0.26176828
0.20035478 0.21574546 0.006533259 -0.17978634 0.08789046 -0.33397025 0.1479323 0.18261173
0.23920906 0.0064771343 0.19187698 -0.108595386 -0.18050052 -0.2599036 0.18682657 0.09059525
-0.3253824 -0.0046693683 0.015577714 0.26393554 -0.18729877 -0.12284493 -0.23618801 0.0054100202
-0.18693395 0.31309837 -0.028891766 0.091464415 0.13460034 -0.23812202 -0.06818778 0.12855934
-0.30916467 -0.042098988 0.244448 -0.2229495 -0.26524445 0.057291936 0.043444723 0.29136655
0.15299298 0.1970775 -0.18968377 0.13720313 -0.3254938 -0.1667803 -0.025431352 -0.26902252
-0.26040807 0.2796092 -0.21547616 -0.088361435 0.3357959 -0.15938148 0.25876787 0.3050774
-0.20533496 0.06801201 0.19223954 0.1296381 0.13688636 -0.2451035 0.07887016 0.18399048
-0.17184362 0.20561795 0.2136109 0.05077026 -0.18159986 -0.29932892 0.16813561 -0.10110856
00000000: d37a 92be 8ad9 423e c66a 973d c670 04be
00000010: 1242 453e 62b3 323e ea7a 24be 5db2 793c
00000020: 8565 b33e fff7 d7bd d8fc 7f3e 7a05 8fbd
00000030: ef68 2dbe 6020 803e bbe6 13bd e532 7c3e
00000040: f351 e7bd c667 ebbd 8911 893d e0a9 60be
00000050: dd40 85bd 4505 323e 39ae 4bbe bf76 37be
00000060: 7339 233e dbb1 0c3d b725 acbe 5b3e 41be
00000070: f0ca 4d3e 7ec0 493d ca64 72be 8fc7 393e
00000080: 8a7d 323e b740 fd3d 550d 24be 9a5b 2bbe
00000090: 9ac3 93be 4ea7 863d 92d2 9bbe 3c75 97be
000000a0: 7218 6ebe 34ab a8bd 8bfb 523e 8705 773e
000000b0: 93bf 73bc d34f ab3d 0a87 69be 97dd 22be
000000c0: 7ea1 9cbd 6189 ae3e ce9e 323e 5915 6abd
000000d0: bdcc a4be 65ab 8f3e 2c0b 583e 38a5 2fbe
000000e0: 2718 673e 89b3 3fbe 7e19 81be 738c 80be
000000f0: 5e47 07be d40c 94be 4a15 213d 8a6a 1d3e
00000100: 90eb 523e 7c94 8e3e 635e 29be 3469 093c
00000110: aefb 953e 9bcb a43c ac49 efbd 7e06 86be
00000120: ce29 4d3e 61ec 5c3e f314 d63b e919 38be
00000130: eaff b33d 26fe aabe 917b 173e 92fe 3a3e
00000140: 38f3 743e 243e d43b 667b 443e 4267 debd
00000150: 21d5 38be 1612 85be 774f 3f3e 018a b93d
00000160: 8698 a6be 8001 99bb ab39 7f3c 8f22 873e
00000170: 40cb 3fbe 1f96 fbbd 45db 71be 8a46 b13b
00000180: 9d6b 3fbe 6e4e a03e 6dae ecbc b251 bb3d
00000190: acd4 093e 42d6 73be 09a6 8bbd 0fa5 033e
000001a0: d54a 9ebe fd6f 2cbd 9450 7a3e e04c 64be
000001b0: 1fce 87be f3aa 6a3d 18f3 313d ff2d 953e
000001c0: 31aa 1c3e afce 493e 763c 42be fa7e 0c3e
000001d0: 20a7 a6be 74c8 2abe 6955 d0bc 52bd 89be
000001e0: 3554 85be f028 8f3e c8a5 5cbe d7f6 b4bd
000001f0: 71ed ab3e e634 23be 397d 843e 1b33 9c3e
00000200: 5443 52be e149 8b3d 71da 443e dabf 043e
00000210: f02b 0c3e 69fc 7abe ae86 a13d 0068 3c3e
00000220: c6f7 2fbe 838d 523e d1bc 5a3e 7af4 4f3d
00000230: 50f5 39be a441 99be be2b 2c3e 0112 cfbd

_module.layer1.0.bias f4 [16]
-0.2661851 -0.04991478 -0.0037194279 -0.030468628 0.19713056 0.22649498 -0.07295695 -0.29399747
0.22287074 -0.32236898 0.15934195 0.17055061 0.08473064 0.14769784 0.30674455 -0.096035756
00000000: 6a49 88be 7173 4cbd a5c1 73bb 5899 f9bc
00000010: 98dc 493e 4dee 673e 746a 95bd d686 96be
00000020: 3a38 643e 8c0d a5be 892a 233e d2a4 2e3e
00000030: 4287 ad3d 1a3e 173e 9f0d 9d3e 65ae c4bd

_module.layer1.1.weight f4 [16]
1.013153 1.0049574 0.9900724 0.99339145 1.0083052 1.003006 0.97253054 0.97990113
1.0042894 0.98964554 0.9821852 1.0201148 0.97577506 1.0027149 0.9968147 0.9965795
00000000: ffae 813f 72a2 803f 6375 7d3f e74e 7e3f
00000010: 2510 813f 8062 803f c3f7 783f cdda 7a3f
00000020: 8e8c 803f 6959 7d3f 7d70 7b3f 1f93 823f
00000030: 65cc 793f f658 803f 402f 7f3f d61f 7f3f

_module.layer1.1.bias f4 [16]
0.0130425915 0.010838509 -0.00421547 -0.01907966 0.0027544599 -0.025973167 0.00092178996 0.013588687
0.02446036 0.018406939 -0.010877446 0.031353343 0.0068749995 -0.021825388 0.012076122 0.023220452
00000000: 98b0 553c 0094 313c ed21 8abb f24c 9cbc
00000010: 2b84 343b aec5 d4bc 47a4 713a 16a3 5e3c
00000020: 1861 c83c 26ca 963c 5137 32bc 5d6c 003d
00000030: ad47 e13b 28cb b2bc edda 453c d138 be3c

_module.layer2.0.weight f4 [16, 16, 3, 3]
0.10359471 0.045794588 -0.032049034 -0.005518479 -0.08105365 0.06267797 -0.055171594 0.03928153
-0.058490343 0.03512208 -0.026552599 0.032968026 0.0023846792 -0.05692266 -0.040142193 -0.042323105
-0.045047715 -0.03046349 -0.021514867 0.015714036 -0.08272172 -0.007472983 0.033199664 0.12174578
-0.058118176 0.02386318 -0.04040237 0.03843887 -0.04231045 0.04104957 -0.008730217 -0.099182494
0.0072981245 0.0045838677 -0.0020407902 -0.038175438 0.008359481 -0.07825981 0.097743906 -0.017647645
-0.07629082 0.062810645 -0.05259698 0.087372586 -0.015415176 -0.043891083 0.013587237 -0.08720772
-0.06543053 0.004871837 -0.09305644 -0.0604768 0.054076813 -0.08843317 -0.11495056 -0.04764549
0.04993029 0.0548957 -0.047457688 -0.019254569 0.060699772 -0.0878821 -0.024444377 -0.015894251
0.081235275 -0.008213456 0.079410225 -0.09878096 -0.0603901 -0.05614922 -0.09353321 0.048311416
-0.0063062506 -0.069785036 -0.10733237 0.0568183 -0.008431089 -0.04670353 0.055625945 0.011282344
-0.019139038 -0.0025560774 0.024616646 0.039732497 -0.033145815 0.030757949 -0.02293857 0.017370638
-0.04069381 0.004191339 -0.08344636 0.056189585 0.025845615 0.02074193 0.045537338 0.06536983
0.062680915 0.019006755 0.034135774 0.038222972 -0.008231723 -0.019173665 0.07424426 -0.04180174
0.06411233 -0.041695025 0.052606322 0.026556222 0.056401998 -0.0016701847 -0.00839871 0.08029179
-0.043841086 -0.033219293 0.04815312 0.04936237 0.044149924 -0.055425152 -0.07030031 -0.038776033
-0.030717632 0.051370334 0.013981534 -0.014095131 -0.050143037 -0.08688187 -0.010088265 -0.08026205
-0.013621384 0.03654137 0.08686577 -0.0705676 -0.0028957361 0.05554013 0.09813311 0.029077146
0.06817838 0.018539706 -0.0046641883 -0.0143407285 -0.024839012 0.019221878 0.05584575 -0.055346683
-0.011991245 -0.025061198 -0.012025685 -0.07508142 -0.05144337 -0.10632575 -0.025290685 0.06765211
0.06737715 -0.0507658 0.005691705 0.09413943 0.050282158 0.0190511 -0.032520257 0.089615464
0.013189526 -0.011109682 -0.0003741719 0.050605062 0.022725636 0.049804594 -0.041426998 -0.053383153
0.0047295834 0.030943872 0.0514677 0.04370567 -0.013735256 0.013608642 -0.04933914 -0.047732383
0.028196504 -0.0051583815 -0.005797899 0.020573236 0.012300337 0.029997056 0.06389733 0.06553327
0.04694045 -0.021806743 -0.046235695 -0.022813862 0.038748406 0.047751963 -0.083848886 -0.018161394
-0.006861187 -0.010282508 0.107316606 -0.024354 0.00337592 0.066677265 0.021423787 0.04222018
0.07407502 -0.024439685 0.10542504 0.1076833 0.06465583 0.038661107 -0.05128437 -0.04906543
0.03981977 0.047060963 -0.016781978 -0.008581639 -0.013602209 0.025181467 0.024173087 0.010643265
0.07441712 -0.065711826 -0.033591457 0.023304604 -0.016841436 0.07014869 -0.014413113 -0.01747566
-0.013568642 0.052373163 -0.07460494 -0.074469 -0.08220569 0.05728802 0.036613107 -0.02097739
0.08796314 -0.04537489 0.032081716 -0.034908272 -0.03599704 0.07559265 -0.050688036 0.10931409
0.05607436 -0.008793493 0.010663981 -0.039218653 -0.053599842 -0.04928441 0.064603135 -0.06588972
0.0041066986 0.0374843 0.029465565 0.08239445 0.079722784 -0.08996728 -0.010522533 0.094265044
00000000: 7729 d43d 1b93 3b3d d945 03bd 5bd4 b4bb
00000010: 75ff a5bd 4f5d 803d 9cfb 61bd abe5 203d
00000020: 9293 6fbd 2cdc 0f3d d684 d9bc 7b09 073d
00000030: 4748 1c3b bc27 69bd 246c 24bd fe5a 2dbd
00000040: f483 38bd 928e f9bc f23f b0bc b9ba 803c
00000050: 016a a9bd eddf f4bb 5ffc 073d da55 f93d
00000060: 530d 6ebd b77c c33c f57c 25bd 1472 1d3d
00000070: b94d 2dbd 9823 283d 2f09 0fbc 3120 cbbd
00000080: 1b25 ef3b 4534 963b c7be 05bb d95d 1cbd
00000090: 34f6 083c ae46 a0bd f52d c83d cb91 90bc
000000a0: 5d3e 9cbd dea2 803d ee6f 57bd 66f0 b23d
000000b0: ef8f 7cbc 23c7 33bd 019d 5e3c f699 b2bd
000000c0: 7100 86bd eea3 9f3b 6094 bebd 85b6 77bd
000000d0: a67f 5d3d 731c b5bd 336b ebbd eb27 43bd
000000e0: b483 4c3d 50da 603d fe62 42bd c2bb 9dbc
000000f0: 53a0 783d 88fb b3bd 933f c8bc a934 82bc
00000100: ae5e a63d bb91 06bc d4a1 a23d ac4d cabd
00000110: 9c5b 77bd b9fc 65bd 578e bfbd 31e2 453d
00000120: aaa4 cebb 75eb 8ebd 13d1 dbbd 4eba 683d
00000130: 8d22 0abc 334c 3fbd 08d8 633d 95d9 383c
00000140: 79c9 9cbc dd83 27bb d9a8 c93c 8bbe 223d
00000150: e8c3 07bd 18f8 fb3c abe9 bbbc de4c 8e3c
00000160: 8dae 26bd 8057 893b ede5 aabd 0d27 663d
00000170: 2fba d33c fbea a93c 5c85 3a3d 9ee0 853d
00000180: da5e 803d 0eb4 9b3c f4d1 0b3d b18f 1c3d
00000190: 59de 06bc 1712 9dbc 600d 983d 4d38 2bbd
000001a0: 534d 833d 67c8 2abd ba79 573d 6f8c d93c
000001b0: c805 673d 19ea daba be9a 09bc 0670 a43d
000001c0: b692 33bd f410 08bd 353c 453d 3230 4a3d
000001d0: 8dd6 343d 7c05 63bd 9cf9 8fbd 9ed3 1ebd
000001e0: 8ba3 fbbc b369 523d ce12 653c 44ef 66bc
000001f0: c962 4dbd 1fef b1bd 4049 25bc 6e60 a4bd
00000200: 3a2c 5fbc 67ac 153d aee6 b13d bf85 90bd
00000210: 64c6 3dbb 0c7e 633d 03fa c83d 3233 ee3c
00000220: 1ba1 8b3d 95e0 973c 0cd6 98bb 60f5 6abc
00000230: 2f7b cbbc 3377 9d3c 83be 643d 34b3 62bd
00000240: ed76 44bc 244d cdbc 6107 45bc 4ac4 99bd
00000250: 48b6 52bd 51c1 d9bd 692e cfbc 308d 8a3d
00000260: 08fd 893d cdef 4fbd 7b81 ba3b 2ccc c03d
00000270: aaf4 4d3d 0d11 9c3c f633 05bd 5088 b73d
00000280: e218 583c 6205 36bc 812c c4b9 4147 4f3d
00000290: 1d2b ba3c e7ff 4b3d 5baf 29bd 4ba8 5abd
000002a0: 9ffa 9a3b 017e fd3c cccf 523d b704 333d
000002b0: d709 61bc c8f6 5e3c d717 4abd 0883 43bd
000002c0: 5bfc e63c a407 a9bb 4dfc bdbb 3489 a83c
000002d0: 5a87 493c 63bc f53c 9adc 823d 4f36 863d
000002e0: a144 403d 0ea4 b2bc a461 3dbd 23e4 babc
000002f0: a6b6 1e3d 9097 433d f7b8 abbd 34c7 94bc
00000300: cfd3 e0bb f777 28bc cfc8 db3d 0a82 c7bc
00000310: 8a3e 5d3b 178e 883d f080 af3c 11ef 2c3d
00000320: a5b4 973d bc35 c8bc 15e9 d73d 1089 dc3d
00000330: 476a 843d 1c5b 1e3d 8f0f 52bd d5f8 48bd
00000340: 0e1a 233d ffc2 403d 5c7a 89bc 019a 0cbc
00000350: cddb 5ebc 5d49 ce3c a306 c63c 1761 2e3c
00000360: 0168 983d ec93 86bd 3297 09bd 4ce9 be3c
00000370: 0df7 89bc 1eaa 8f3d fa24 6cbc 1e29 8fbc
00000380: 024f 5ebc 3e85 563d 7aca 98bd 3483 98bd
00000390: 755b a8bd d8a6 6a3d a0f7 153d c7d8 abbc
000003a0: 0526 b43d 05db 39bd 1e68 033d fafb 0ebd
000003b0: a271 13bd 52d0 9a3d 429e 4fbd 11e0 df3d
000003c0: 3aae 653d 9512 10bc fab7 2e3c bda3 20bd
000003d0: 828b 5bbd 73de 49bd a64e 843d 31f1 86bd
000003e0: 7c91 863b 2389 193d c561 f13c 6cbe a83d
000003f0: b345 a33d c440 b8bd b466 2cbc 080e c13d

_module.layer2.0.bias f4 [16]
-0.08974053 0.020498566 -0.05299348 0.050084885 0.07959501 -0.005359467 0.09429238 0.014426928
0.023036525 0.012817912 -0.093573265 0.09005602 -0.106880255 0.0450746 -0.064615294 0.048771407
00000000: e2c9 b7bd 9cec a73c b10f 59bd cf25 4d3d
00000010: b502 a33d 789e afbb 5d1c c13d ec5e 6c3c
00000020: 18b7 bc3c 3802 523c 57a3 bfbd 4a6f b83d
00000030: 09e4 dabd 25a0 383d 0655 84bd 87c4 473d

_module.layer2.1.weight f4 [16]
1.0006506 0.9944481 1.0052611 0.9937517 0.98999953 0.9926516 1.0092037 1.0114979
1.0087821 1.0337281 0.9972623 0.98990077 0.9711902 1.0021491 1.0116026 0.9854877
00000000: 5215 803f 2794 7e3f 65ac 803f 8366 7e3f
00000010: 9c70 7d3f 6a1e 7e3f 962d 813f c378 813f
00000020: c61f 813f 3451 843f 954c 7f3f 236a 7d3f
00000030: ec9f 783f 6c46 803f 327c 813f ec48 7c3f

_module.layer2.1.bias f4 [16]
0.025568288 0.016353898 0.004112323 0.057882935 0.008301965 -0.025586516 -0.011611199 0.0018650625
-0.02432162 -0.019368991 0.006384049 0.010127764 0.017369963 -0.026313338 0.054217793 0.013762784
00000000: 9674 d13c 9cf8 853c aac0 863b a816 6d3d
00000010: f704 083c d09a d1bc e63c 3ebc 1d75 f43a
00000020: 223e c7bc b8ab 9ebc 4931 d13b ecee 253c
00000030: 744b 8e3c 128f d7bc 7a13 5e3d 4d7d 613c

_module.layer3.0.weight f4 [64, 16, 3, 3]
-0.028952334 0.008167554 -0.06315357 0.076150954 -0.020977829 0.015890492 0.04204434 -0.04736365
0.02746695 -0.032432508 -0.03201008 -0.071197465 -0.0041247574 -0.048960388 0.02374483 -0.0453992
0.08265626 -0.035052814 0.082220145 -0.012906641 -0.034585267 -0.024479592 0.019013286 -0.058383174
-0.060825557 0.04672424 0.037301395 0.05025133 -0.04162921 -0.0633949 0.038130317 0.038647223
0.009961731 -0.030366533 0.052630443 0.037156012 -0.0098391315 -0.09125854 -0.0667881 -0.038597718
0.045901414 0.06350181 0.046474658 -0.059764694 -0.01638959 -0.010726707 0.036617335 0.0137588475
-0.02103812 0.017891351 0.010685687 -0.051767856 -0.057564527 0.08495327 0.025494596 0.0138335945
0.072566606 -0.05774988 -0.047239922 -0.00270744 0.026933657 0.10099669 0.0419552 -0.019941062
-0.05803337 0.037205786 0.016732983 -0.009242299 0.046608463 0.09140566 -0.02511517 0.06448664
0.032994233 -0.0076511726 -0.07049627 0.013921845 -0.037422184 -0.052172583 -0.07700923 0.00945536
0.057482395 0.028299129 -0.021973746 0.074205145 0.005894964 0.03182532 0.032484382 0.07457425
0.0029307923 0.058251824 -0.0125528155 -0.08768853 -0.059178084 -0.0810026 0.07105685 -0.0673244
-0.04022722 0.08278425 -0.064023525 -0.049468238 0.005808145 0.022982106 -0.002998092 -0.017280627
0.09024287 0.06097142 0.0558754 -0.08026338 0.06749287 -0.017007066 0.04523401 -0.08189985
0.042678617 0.032763317 -0.013090438 -0.041555304 0.04335934 0.053521954 0.04233185 0.02221463
0.07390372 0.015422054 -0.054518815 -0.042026892 -0.05555958 -0.0670819 0.08457953 -0.08250342
-0.011761366 0.06533261 -0.04644124 -0.005598639 -0.009972914 0.089786276 -0.040766433 0.05135339
-0.035512462 -0.09082803 -0.026546156 0.030041019 0.037322648 -0.053114895 0.027035238 0.016401362
-0.061516054 0.0707362 0.0066971285 0.027637279 -0.044008456 0.04805995 0.05177218 -0.023811746
0.045401968 0.048979435 -0.085830264 0.085701734 -0.07133537 0.019173237 -0.08363508 -0.0029186043
0.029146904 -0.049316593 -0.015533672 0.040573835 0.014519057 0.04189148 0.0902276 -0.053867716
0.01744214 0.07749874 0.051888708 -0.015317073 0.038025834 0.06991187 0.032057475 -0.0056305937
0.055953402 0.028819654 0.09237102 -0.055739913 -0.03474612 0.025036026 0.0055941227 -0.021091525
-0.06667586 -0.041948803 0.07357263 -0.08082423 0.06144099 0.006791245 0.035219416 -0.049583483
0.018373074 0.10571773 0.058300246 -0.017972969 0.034111064 -0.04124725 -0.0045033996 -0.062280685
-0.054006465 -0.06481839 0.03179441 -0.018077498 0.006414041 -0.0754885 0.02708865 0.09380745
-0.011606755 0.0457063 0.07557484 -0.07962116 0.04073756 0.058607504 0.036202732 0.063844465
0.06422273 0.05633758 -0.09037756 0.0008033678 0.04135757 -0.058983404 -0.0117335925 0.02060564
0.03984441 -0.075300954 -0.031083358 -0.070217185 0.06368378 -0.03461483 -0.100093946 0.02099355
-0.015739588 -0.045742657 -0.043294307 0.06131459 0.036381762 -0.06879246 -0.040127944 -0.016157998
0.017772356 0.027424881 -0.005229085 0.08676766 -0.019251015 0.03418904 -0.05655938 0.04854238
0.06197948 -0.067834385 -0.008468065 -0.015261654 -0.062856086 -0.045054324 0.01839991 0.05308799
00000000: 722d edbc 34d1 053c a956 81bd 08f5 9b3d
00000010: b2d9 abbc c72c 823c b036 2c3d 6300 42bd
00000020: 5e02 e13c f3d7 04bd 001d 03bd facf 91bd
00000030: f928 87bb b08a 48bd 8584 c23c 83f4 39bd
00000040: af47 a93d 8a93 0fbd 0963 a83d 6076 53bc
00000050: 48a9 0dbd 6d89 c8bc c0c1 9b3c 3223 6fbd
00000060: 3824 79bd eb61 3f3d 59c9 183d 57d4 4d3d
00000070: 6483 2abd 2fd5 81bd 892e 1c3d 8d4c 1e3d
00000080: 8736 233c 3cc3 f8bc 0593 573d e730 183d
00000090: 4f34 21bc c2e5 babd 33c8 88bd a418 1ebd
000000a0: 1f03 3c3d 3d0d 823d 365c 3e3d d3cb 74bd
000000b0: 7643 86bc 12bf 2fbc 0ffc 153d ca6c 613c
000000c0: 2358 acbc e290 923c 0513 2f3c 880a 54bd
000000d0: c8c8 6bbd fbfb ad3d 0bda d03c 4da6 623c
000000e0: cd9d 943d 238b 6cbd a67e 41bd 4e6f 31bb
000000f0: f9a3 dc3c 5ad7 ce3d 37d9 2b3d 705b a3bc
00000100: 66b4 6dbd 1865 183d 9c13 893c 036d 17bc
00000110: 84e8 3e3d e432 bb3d 54be cdbc 9211 843d
00000120: f624 073d b0b6 fabb 5960 90bd 7318 643c
00000130: 0148 19bd ebb2 55bd 04b7 9dbd a7ea 1a3c
00000140: a972 6b3d 93d3 e73c 4902 b4bc def8 973d
00000150: 8b2a c13b 445b 023d 580e 053d 62ba 983d
00000160: 8912 403b 7799 6e3d 53aa 4dbc 0b96 b3bd
00000170: b864 72bd b1e4 a5bd 4186 913d 60e1 89bd
00000180: 4cc5 24bd ca8a a93d c41e 83bd 359f 4abd
00000190: 4052 be3b f844 bc3c a37b 44bb 1a90 8dbc
000001a0: 41d1 b83d 2bbd 793d 9add 643d 2161 a4bd
000001b0: b439 8a3d 6752 8bbc 4c47 393d 1cbb a7bd
000001c0: c6cf 2e3d d432 063d 4779 56bc e535 2abd
000001d0: 9099 313d d639 5b3d 2964 2d3d 75fb b53c
000001e0: d55a 973d c8ac 7c3c 1f4f 5fbd 6424 2cbd
000001f0: 7192 63bd 3c62 89bd 0838 ad3d 8ef7 a8bd
00000200: bfb2 40bc 1acd 853d 2b39 3ebd ca74 b7bb
00000210: 6f65 23bc dee1 b73d b4fa 26bd ef57 523d
00000220: 8475 11bd 0c04 babd 5377 d9bc 9518 f63c
00000230: a2df 183d 018f 59bd 0179 dd3c 265c 863c
00000240: 42f8 7bbd 24de 903d 9673 db3b 9367 e23c
00000250: 3642 34bd 83da 443d 110f 543d da10 c3bc
00000260: 6af7 393d a99e 483d c7c7 afbd 6484 af3d
00000270: 4718 92bd 3111 9d3c de48 abbd 0e46 3fbb
00000280: 7dc5 ee3c 3200 4abd f180 7ebc c030 263d
00000290: 57e1 6d3c 6796 2b3d 3fc9 b83d 65a4 5cbd
000002a0: d2e2 8e3c a9b7 9e3d 4189 543d 76f4 7abc
000002b0: fac0 1b3d f42d 8f3d b34e 033d d880 b8bb
000002c0: 652f 653d 3217 ec3c 042d bd3d 894f 64bd
000002d0: f351 0ebd 5a18 cd3c e74e b73b 22c8 acbc
000002e0: 5a8d 88bd 82d2 2bbd 3fad 963d 2d87 a5bd
000002f0: 8ca9 7b3d 1889 de3b 3c42 103d 0d18 4bbd
00000300: 2183 963c 8a82 d83d 3dcc 6e3d 0c3c 93bc
00000310: 0bb8 0b3d e0f2 28bd 4191 93bb 081a 7fbd
00000320: e235 5dbd 81bf 84bd db3a 023d 4317 94bc
00000330: e02c d23b b799 9abd 04e9 dd3c 1f1e c03d
00000340: 422a 3ebc 8736 3b3d fbc6 9a3d 6b10 a3bd
00000350: 6ddc 263d 6c0e 703d 5149 143d e3c0 823d
00000360: 3587 833d 3cc2 663d df17 b9bd 1a99 523a
00000370: 8e66 293d 9598 71bd 413e 40bc 29cd a83c
00000380: e433 233d 6337 9abd 87a2 febc 07ce 8fbd
00000390: a46c 823d 48c8 0dbd 0efe ccbd aafa ab3c
000003a0: 4ff0 80bc a75c 3bbd 5f55 31bd 0225 7b3d
000003b0: 0b05 153d 10e3 8cbd 335d 24bd c75d 84bc
000003c0: 5597 913c 25aa e03c bf58 abbb 3eb3 b13d
000003d0: 4eb4 9dbc cf09 0c3d cfaa 67bd 60d4 463d
000003e0: 32de 7d3d c1ec 8abd a4bd 0abc 040c 7abc
000003f0: b1ba 80bd e28a 38bd 68bb 963c cb72 593d

_module.layer3.0.bias f4 [64]
-0.029113067 0.078419775 -0.021844722 -0.0067994413 -0.023620587 0.07945497 -0.050090313 -0.05765589
0.0056976853 -0.05217141 0.018915933 -0.075127386 0.019242326 -0.07293391 0.067633234 0.043924116
0.0454179 0.08565289 -0.019763423 0.00701083 -0.06600536 -0.10634441 -0.06340576 -0.022170847
0.02475161 -0.08449339 -0.07074014 -0.041930422 0.0011529706 -0.05623834 -0.02668277 -0.0050031613
0.07209589 0.087271504 -0.013006259 -0.07513373 -0.04433838 -0.07577428 0.029989164 0.020135082
-0.00094950077 0.006121977 0.041116063 -0.07156634 -0.06789291 -0.016815584 0.010518878 -0.07914117
0.05511735 -0.10066493 -0.021132031 0.0798083 0.08116925 -0.035345692 0.051088307 -0.035371482
0.0506439 0.032706548 -0.042581234 0.073942624 0.06961467 -0.034744844 -0.014150725 0.052798454
00000000: 877e eebc 8c9a a03d b4f3 b2bc d9cd debb
00000010: f67f c1bc 4ab9 a23d 802b 4dbd 9528 6cbd
00000020: a6b3 ba3b b0b1 55bd 96f5 9a3c 63dc 99bd
00000030: 15a2 9d3c 605e 95bd 4b83 8a3d c6e9 333d
00000040: 1f08 3a3d c86a af3d e7e6 a1bc 1bbb e53b
00000050: d12d 87bd 19cb d9bd e1da 81bd a39f b5bc
00000060: e3c3 ca3c df0a adbd 35e0 90bd 3cbf 2bbd
00000070: 461f 973a 2c5a 66bd d395 dabc 8ff1 a3bb
00000080: 03a7 933d 67bb b23d 3418 55bc b7df 99bd
00000090: 299c 35bd 8c2f 9bbd d6ab f53c 54f2 a43c
000000a0: ebe7 78ba de9a c83b 5169 283d 6091 92bd
000000b0: 700b 8bbd d6c0 89bc 5f57 2c3c c414 a2bd
000000c0: bbc2 613d 6a29 cebd 151d adbc 8972 a33d
000000d0: 103c a63d a5c6 10bd f941 513d b0e1 10bd
000000e0: fa6f 4f3d 4df7 053d a969 2ebd 3b6f 973d
000000f0: 2392 8e3d 9c50 0ebd 71d8 67bc 3143 583d

_module.layer3.1.weight f4 [64]
0.96992034 1.0050329 0.9890184 1.041551 0.9806194 1.0006378 1.0013679 1.0030116
0.97507054 0.96105796 1.0085908 1.0118358 1.0141207 1.012734 1.0222851 1.0041922
0.9711305 0.98112273 0.99252665 1.001182 1.008386 1.0015497 0.9538659 0.9842532
0.98973286 0.98111993 0.9962613 1.002964 0.9827085 1.0164653 1.020915 0.98918635
1.0023371 0.9854151 1.0022287 0.9667548 1.0090419 0.98715246 0.9812149 0.9827156
1.0140152 1.0209898 0.9911461 1.0125401 1.0240684 1.0007324 0.9845301 1.0136391
1.0138801 1.0047061 1.0057398 0.9922292 1.015784 1.0273434 1.0226297 0.9970762
1.0335407 0.97428495 0.991576 0.9963644 0.9743467 1.0100493 1.0090467 1.0009364
00000000: b34c 783f eba4 803f 4f30 7d3f 8b51 853f
00000010: df09 7b3f e614 803f d32c 803f af62 803f
00000020: 399e 793f e507 763f 8119 813f d683 813f
00000030: b5ce 813f 45a1 813f 3dda 823f 5f89 803f
00000040: 029c 783f dc2a 7b3f 3a16 7e3f bb26 803f
00000050: cb12 813f c832 803f 8e30 743f 05f8 7b3f
00000060: 225f 7d3f ad2a 7b3f fb0a 7f3f 2061 803f
00000070: c992 7b3f 891b 823f 58ad 823f 513b 7d3f
00000080: 954c 803f 2a44 7c3f 0849 803f 3e7d 773f
00000090: 4928 813f 06b6 7c3f e630 7b3f 4093 7b3f
000000a0: 40cb 813f cbaf 823f c0bb 7d3f ea9a 813f
000000b0: ac14 833f 0018 803f 2a0a 7c3f edbe 813f
000000c0: d3c6 813f 369a 803f 15bc 803f bc02 7e3f
000000d0: 3605 823f fd7f 833f 88e5 823f 6340 7f3f
000000e0: 104b 843f bd6a 793f edd7 7d3f bd11 7f3f
000000f0: c96e 793f 4c49 813f 7128 813f af1e 803f

_module.layer3.1.bias f4 [64]
-0.0055925944 0.01925423 -0.016652923 0.032089014 -0.010514869 -0.0023757834 0.011474957 -0.019157954
0.009288942 0.014844946 0.02462261 0.002222248 -0.045722462 0.008138375 0.014583366 -0.02823801
0.0016004153 0.008849555 0.007900058 0.028104652 0.02653948 0.014987581 -0.010324071 -0.014860383
0.00094502623 -0.0046399063 0.009917123 -0.0047611105 -0.017501095 0.004925232 -0.0031768016 -0.01442792
0.008773095 -0.01192301 0.0007392812 -0.017622307 0.011903792 0.005341529 0.002380185 -0.004814342
0.012767751 -0.046259016 -0.017083624 0.022812389 -0.004834914 -0.036331803 -0.02885083 -0.016361976
-0.011213791 -0.02988683 0.014155128 -0.009528913 0.013274378 0.022503106 -0.029419428 -0.014302447
0.00086909154 -0.022973996 -0.038813442 -0.005373456 0.035873692 0.0040337583 -0.00029463245 -0.03590383
00000000: 1542 b7bb 0cbb 9d3c b66b 88bc c56f 033d
00000010: 8f46 2cbc 08b3 1bbb 7501 3c3c 24f1 9cbc
00000020: a630 183c 3738 733c 5bb5 c93c 22a3 113b
00000030: 7a47 3bbd d256 053c 12ef 6e3c 6653 e7bc
00000040: 07c5 d13a b9fd 103c 3f6f 013c ba3b e63c
00000050: 5369 d93c 798e 753c 4b26 29bc f778 73bc
00000060: a3bb 773a 5b0a 98bb 6e7b 223c 1703 9cbb
00000070: 755e 8fbc d763 a13b e331 50bb 1563 6cbc
00000080: 07bd 0f3c bb58 43bc 52cc 413a a85c 90bc
00000090: 1f08 433c fe07 af3b e1fc 1b3b a1c1 9dbb
000000a0: d42f 513c 187a 3dbd f5f2 8bbc 0ce1 ba3c
000000b0: 336e 9ebb a8d0 14bd 9358 ecbc 8d09 86bc
000000c0: 0cba 37bc 3ad5 f4bc e9ea 673c 281f 1cbc
000000d0: c77c 593c 6f58 b83c 0301 f1bc d054 6abc
000000e0: bfd3 633a f633 bcbc d8fa 1ebd d113 b0bb
000000f0: 4bf0 123d 9e2d 843b e678 9ab9 e50f 13bd

_module.layer4.0.weight f4 [64, 64, 3, 3]
-0.05775027 -0.0018112261 0.02018477 0.007397332 -0.0140333725 -0.03590498 0.049149286 0.06441434
0.020935442 -0.01879283 0.035457507 0.029471857 -0.01696984 0.03823827 -0.008019878 -0.0013589823
-0.052707054 -0.041454464 0.006005968 0.015840039 0.034554202 0.060946535 0.028913885 0.028466655
0.01896138 0.0009337311 -0.009424726 0.012943088 -0.025514482 -0.049444158 -0.01634046 -0.03222732
-0.052733507 0.024201963 -0.012616158 -0.005180389 0.03542596 -0.024031943 -0.03514498 0.04377393
0.03686479 -0.0025313732 0.0038801904 0.027817238 0.003724138 -0.02558322 0.01966185 0.045113567
0.012259896 0.00057652715 -0.017425206 -0.015961574 -0.0017063163 -0.019485336 0.074734055 -0.03488837
0.028349876 0.006686756 -0.02887695 0.012111051 0.026315922 0.038512934 -0.041804597 0.016839208
0.05380995 -0.040131737 0.025386322 0.031730037 -0.0043712305 0.018979102 0.00482492 0.020613795
0.03447162 0.03598872 0.021979408 0.017750409 -0.0095510315 -0.006891889 0.012176484 -0.0018077075
0.028438747 0.028867899 -0.023275381 -0.05991124 -0.048437607 0.014457234 -0.0022021073 -0.023256345
-0.010015493 0.02065097 0.00564999 -0.042398937 -0.019672355 -0.06792007 -0.009888946 -0.024234992
0.032502856 -0.028595122 -0.029431822 0.029794607 -0.007248642 -0.01871167 0.04139028 -0.043656442
-0.032135174 0.018082798 0.019821282 -0.021266008 0.03342965 0.008604122 0.0133545175 -0.03152375
-0.050655473 -0.015388713 0.026662368 0.033327114 -0.021025466 -0.029033305 -0.029146295 -0.054603856
-0.021445408 -0.025767773 -0.010111676 -0.0022055053 -0.027789984 -0.035677038 -0.055377394 0.05806414
-0.018043848 -0.055710793 -0.039602857 -0.03980769 0.032050498 0.0036701097 -0.0034890845 0.00075451116
0.014402443 -0.010563156 0.005837201 0.031151827 0.043145582 0.06552526 0.061332088 -0.021033615
-0.042473063 0.012811948 0.021982849 -0.008158622 0.0023288666 0.01715473 -0.026778815 0.0565282
0.041504093 0.029379949 -0.04100477 0.031762797 0.025031224 -0.030954817 0.014461681 -0.018419256
0.011803557 -0.048298784 0.04077723 -0.003387266 0.01489238 0.017287763 -0.024379563 -0.030805172
0.008044318 -0.030307904 0.024544885 -0.042661253 0.0020729853 0.027054017 0.040442318 0.03200198
0.052564923 0.03232114 -0.04626484 0.026839184 -0.011249938 0.03166404 0.002943738 0.0106328335
0.004843481 -0.037684664 -0.0052467734 0.0324568 0.043775056 -0.02397693 0.018428715 0.05370495
-0.0030621942 -0.04706455 0.04327351 0.014977807 -0.015694328 -0.04951895 -0.020684762 -0.006124247
0.037051905 -0.009075816 -0.0056263995 -0.005251636 -0.082140855 -0.019720756 -0.0033773957 -0.0376834
0.02415864 0.0022129791 -0.02992199 -0.029949455 0.026030824 -0.00064768456 0.017819643 0.024656408
-0.024535025 -0.038824875 0.031260964 -0.067033745 0.026497012 -0.01225091 -0.018878693 -0.0075576734
0.037938755 -0.048169922 -3.754959e-05 -0.0055317534 0.028935464 -0.05236278 -0.0462357 0.0025505372
0.035553113 -0.010175475 -0.011080399 0.022285737 0.020454284 -0.02184036 0.0014614278 -0.022613546
0.026190119 -0.02642063 0.012310542 -0.020972608 -0.036274865 -0.01710137 -0.0012164908 0.0832377
-0.044787955 0.009473802 -0.010387624 0.011043096 -0.020590864 0.021913886 -0.0044093397 0.044259787
00000000: 8c8b 6cbd aa66 edba 885a a53c 5265 f23b
00000010: 3bec 65bc 1a11 13bd c350 493d aaeb 833d
00000020: ce80 ab3c 6cf3 99bc e43b 113d f76e f13c
00000030: 5504 8bbc bb9f 1c3d ce65 03bc e11f b2ba
00000040: 5ae3 57bd 28cc 29bd b6cd c43b f8c2 813c
00000050: b588 0d3d 13a3 793d d0dc ec3c e732 e93c
00000060: e554 9b3c a2c5 743a 2a6a 1abc 3f0f 543c
00000070: bf03 d1bc f585 4abd 6edc 85bc cb00 04bd
00000080: 17ff 57bd 3243 c63c 01b4 4ebc 41c0 a9bb
00000090: d01a 113d a3de c4bc 2ff4 0fbd 4b4c 333d
000000a0: 89ff 163d 65e5 25bb cb4a 7e3b fae0 e33c
000000b0: ab10 743b e793 d1bc e311 a13c 01c9 383d
000000c0: bbdd 483c 1522 173a 4ebf 8ebc d9c1 82bc
000000d0: 79a6 dfba b69f 9fbc 2b0e 993d 1ce7 0ebd
000000e0: 003e e83c 931c db3b 5a8f ecbc 6e6d 463c
000000f0: 7d94 d73c bdbf 1d3d 4c3b 2bbd 61f2 893c
00000100: d267 5c3d 2d61 24bd faf6 cf3c 5bf7 013d
00000110: 8a3c 8fbb 107a 9b3c 5d1a 9e3b 43de a83c
00000120: 1d32 0d3d e868 133d 290e b43c 4e69 913c
00000130: ee7b 1cbc 5bd5 e1bb e07f 473c 99f0 ecba
00000140: 60f8 e83c 5f7c ec3c 03ac bebc 7d65 75bd
00000150: 8366 46bd 09de 6c3c 3b51 10bb 1784 bebc
00000160: 0618 24bc 392c a93c 8d23 b93b 82aa 2dbd
00000170: eb27 a1bc ad19 8bbd 3f05 22bc 7688 c6bc
00000180: b721 053d 5140 eabc 011b f1bc d213 f43c
00000190: 0486 edbb 3749 99bc db88 293d 19d1 32bd
000001a0: 2ca0 03bd 6022 943c 3e60 a23c 0d36 aebc
000001b0: 87ed 083d 4ef8 0c3c e8cc 5a3c 0c1f 01bd
000001c0: 1d7c 4fbd f120 7cbc 0a6b da3c 0382 083d
000001d0: 993d acbc 41d7 edbc 36c4 eebc 4ba8 5fbd
000001e0: 48ae afbc f016 d3bc 71ab 25bc 3d8a 10bb
000001f0: d2a7 e3bc 1622 12bd 68d3 62bd aad4 6d3d
00000200: b1d0 93bc 0031 64bd 9b36 22bd 630d 23bd
00000210: 6247 033d 3986 703b 20a9 64bb 63ca 453a
00000220: 39f8 6b3c 1611 2dbc fe45 bf3b 1e32 ff3c
00000230: 6cb9 303d 1c32 863d 5b37 7b3d b04e acbc
00000240: 3cf8 2dbd 34e9 513c 6015 b43c beab 05bc
00000250: e69f 183b 1488 8c3c 3f5f dbbc 1d8a 673d
00000260: 3200 2a3d 38ae f03c 9ef4 27bd b519 023d
00000270: 480e cd3c f594 fdbc b0f0 6c3c fbe3 96bc
00000280: b563 413c f2d4 45bd 0606 273d e5fc 5dbb
00000290: 2bff 733c 119f 8d3c a6b7 c7bc 215b fcbc
000002a0: 51cc 033c 4848 f8bc 5b12 c93c 91bd 2ebd
000002b0: ecda 073b 63a0 dd3c d8a6 253d 8214 033d
000002c0: 514e 573d 2c63 043d 3380 3dbd d9dd db3c
000002d0: a951 38bc 27b2 013d baeb 403b 5635 2e3c
000002e0: 10b6 9e3b 3c5b 1abd 20ed abbb 6cf1 043d
000002f0: 794d 333d 446b c4bc d1f7 963c b9f9 5b3d
00000300: 18af 48bb c2c6 40bd 903f 313d 7a65 753c
00000310: 6491 80bc 62d4 4abd 1773 a9bc e8ad c8bb
00000320: bdc3 173d bbb2 14bc a95d b8bb ea15 acbb
00000330: 7739 a8bd 6c8d a1bc 4c57 5dbb e959 1abd
00000340: 57e8 c53c a107 113b f61e f5bc 8f58 f5bc
00000350: 983e d53c 60c9 29ba 80fa 913c 3cfc c93c
00000360: adfd c8bc d506 1fbd 7f0b 003d fd48 89bd
00000370: 4310 d93c 0ab8 48bc 7da7 9abc 5ca6 f7bb
00000380: ab65 1b3d d34d 45bd 917e 1db8 b643 b5bb
00000390: 110a ed3c 5b7a 56bd a561 3dbd ea26 273b
000003a0: 24a0 113d 09b7 26bc 908a 35bc 9490 b63c
000003b0: be8f a73c 8eea b2bc 618d bf3a 0b40 b9bc
000003c0: a98c d63c 1470 d8bc 28b2 493c bfce abbc
000003d0: f494 14bd 2c18 8cbc a872 9fba 8778 aa3d
000003e0: 9373 37bd 0138 1b3c da30 2abc 1aee 343c
000003f0: 2cae a8bc c084 b33c 397c 90bb c049 353d

_module.layer4.0.bias f4 [64]
-0.044962727 0.02705922 0.0696093 0.04594248 0.037420098 0.013515174 -0.038641732 0.0016805327
-0.005867595 -0.02523853 -0.023501977 0.02151494 0.01611553 -0.013239799 0.05277332 0.040592372
-0.014807491 0.02232744 -0.051810343 0.037622157 -0.02860688 -0.00023414117 -0.0032566441 0.04903596
0.046698924 0.047052458 -0.020519126 -0.0045736767 0.016200818 -0.017563893 0.047148537 -0.035806175
0.027198462 0.027790204 0.007559534 0.020939937 0.0024705245 -0.019385848 0.013857979 -0.0048690857
-0.07346937 0.01963291 -0.0003990617 0.011001973 -0.0020432184 -0.025612084 -0.014055091 0.0030493336
-0.024764378 0.015711343 0.0236095 0.0008785648 0.0050137904 -0.025973028 0.028293725 0.0011269992
0.041613415 -0.032987934 -0.07269525 0.01971381 0.030497273 -0.0143581135 0.021554798 0.008380872
00000000: d62a 38bd 4cab dd3c 528f 8e3d 2f2e 3c3d
00000010: d145 193d c06e 5d3c cb46 1ebd 5245 dc3a
00000020: f444 c0bb 09c1 cebc 3887 c0bc 1940 b03c
00000030: b704 843c beeb 58bc d628 583d 3044 263d
00000040: 1e9b 72bc 09e8 b63c 1537 54bd b119 1a3d
00000050: fa58 eabc cb83 75b9 6c6d 55bb eed9 483d
00000060: 5f47 3f3d 14ba 403d ba17 a8bc c8de 95bb
00000070: 94b7 843c 27e2 8fbc d31e 413d 7fa9 12bd
00000080: 4fcf de3c 48a8 e33c f8b5 f73b 3b8a ab3c
00000090: 86e8 213b 12cf 9ebc 940c 633c da8c 9fbb
000000a0: 1c77 96bd 32d5 a03c 2839 d1b9 9f41 343c
000000b0: 84e7 05bb 6fd0 d1bc 5347 66bc 54d7 473b
000000c0: aade cabc 13b5 803c b668 c13c 7c4f 663a
000000d0: b94a a43b 63c5 d4bc 3ec8 e73c d1b7 933a
000000e0: d472 2a3d 5b1e 07bd 3fe1 94bd db7e a13c
000000f0: 6bd5 f93c 4b3e 6bbc b093 b03c ed4f 093c

_module.layer4.1.weight f4 [64]
1.0147125 1.0227644 0.9881746 1.0154784 0.9671961 1.0140353 1.007767 0.9761506
1.0197021 1.0090238 0.97208214 1.0061582 0.9824018 1.0086821 1.0132606 0.9750084
0.97908425 1.0150831 0.98076355 0.99322665 1.00496 1.0025697 0.9957703 1.0120907
1.0023482 1.0212264 0.98107445 0.99574304 1.0072895 0.99344534 1.0026783 1.0339758
0.9997777 1.0037087 0.9850546 0.9970543 0.9984691 1.0128309 0.9637291 0.98669374
1.0173776 0.97601724 1.0241475 0.988521 1.0071062 0.993668 1.0140321 0.99230224
0.96815586 0.99142873 0.9951965 1.0048195 0.96274227 1.0150955 1.0216337 0.99464697
1.0128555 1.0207663 1.0328499 1.0085102 0.9983728 0.9992323 0.9723102 0.9782208
00000000: 19e2 813f f2e9 823f 03f9 7c3f 32fb 813f
00000010: 2a9a 773f e9cb 813f 82fe 803f 01e5 793f
00000020: 9985 823f b127 813f 60da 783f cbc9 803f
00000030: af7e 7b3f 7f1c 813f 86b2 813f 279a 793f
00000040: 44a5 7a3f 3eee 813f 5213 7b3f 1a44 7e3f
00000050: 87a2 803f 3454 803f cdea 7e3f 308c 813f
00000060: f24c 803f 8cb7 823f b227 7b3f 04e9 7e3f
00000070: ddee 803f 6f52 7e3f c357 803f 5259 843f
00000080: 6ef1 7f3f 8779 803f 8a2c 7c3f f33e 7f3f
00000090: ac9b 7f3f 71a4 813f f3b6 763f f697 7c3f
000000a0: 6e39 823f 44dc 793f 4417 833f b60f 7d3f
000000b0: dbe8 803f 0761 7e3f cecb 813f 8507 7e3f
000000c0: 10d9 773f 46ce 7d3f 33c5 7e3f ed9d 803f
000000d0: 4776 763f a6ee 813f e5c4 823f 2fa1 7e3f
000000e0: 40a5 813f 78a8 823f 6d34 843f dd16 813f
000000f0: 5c95 7f3f b0cd 7f3f 52e9 783f ae6c 7a3f

_module.layer4.1.bias f4 [64]
-0.020535769 -0.009943937 0.015121067 8.711881e-05 0.002121169 -0.020635571 0.028019039 0.0046740253
0.0116616655 0.031528454 0.017264443 -0.009013287 -0.013015031 -0.019211808 0.0046511977 0.01052988
0.0026890053 0.0016736224 -0.0026757692 -0.0018046875 -0.04477673 -0.017903069 -0.005113603 -0.02134224
0.0060840347 -0.0052252105 0.0026478395 0.016452096 0.012674885 0.0002554434 0.017693773 -0.016716387
-0.028619332 0.024092922 0.0036844132 0.015559184 -0.0013989541 0.009774377 -0.029549645 -0.015495816
0.018766081 -0.05074446 -0.0030939449 0.031868596 -0.0064082523 0.017863948 0.028188864 -0.020418998
-0.013182957 -0.01047309 -0.010384962 0.02713843 0.011792293 -0.0050530857 0.014326802 -0.0032661762
0.024830757 0.021738673 -0.027279506 0.02243434 -0.0059315544 0.01564308 -0.036633153 0.018845294
00000000: a13a a8bc e5eb 22bc 5abe 773c 8eb3 b638
00000010: 4f03 0b3b ee0b a9bc 2f88 e53c 9128 993b
00000020: 9210 3f3c fb23 013d 296e 8d3c 77ac 13bc
00000030: ff3c 55bc 1562 9dbc 1369 983b 8585 2c3c
00000040: 063a 303b 735d db3a f55b 2fbb 448b ecba
00000050: ce67 37bd 75a9 92bc 0390 a7bb ecd5 aebc
00000060: 955c c73b 3e38 abbb 6087 2d3b 8cc6 863c
00000070: 52aa 4f3c 08ed 8539 88f2 903c cef0 88bc
00000080: 1773 eabc 855e c53c 3276 713b f3eb 7e3c
00000090: 1c5d b7ba b524 203c 1912 f2bc 2ae2 7dbc
000000a0: 53bb 993c 6cd9 4fbd c8c3 4abb a588 023d
000000b0: 51fc d1bb 6a57 923c 55ec e63c be45 a7bc
000000c0: 54fd 57bc 5397 2bbc b025 2abc 6a51 de3c
000000d0: 7634 413c 5b94 a5bb f7ba 6a3c 580d 56bb
000000e0: df69 cb3c 4d15 b23c 4579 dfbc 39c8 b73c
000000f0: 7c5d c2bb eb25 803c a50c 16bd 7261 9a3c

_module.layer5.0.weight f4 [64, 64, 3, 3]
0.008541195 -0.054875117 -0.010502404 -0.027101606 -0.027151156 -0.053799506 0.04371654 -0.017049097
-0.01028283 0.021713128 0.015345225 -0.007642363 -0.019362055 -0.02177303 -0.062447786 0.03184952
0.0056411256 0.01578673 -0.025705654 -0.002517196 0.008726764 -0.0013052418 0.03162252 0.052312978
-0.017051991 -0.024517944 0.028765516 0.030517768 0.049384072 0.0075389817 -0.042164236 0.008166533
0.030101642 0.007927251 0.019280953 0.016729802 -0.014252328 -0.0019365974 0.005234915 -0.022597544
-0.032300815 -0.00021400704 0.019854862 0.03007478 -0.026196364 -0.04063015 0.030707516 -0.054704815
0.07758981 -0.04425372 -0.056362163 -0.06895207 0.05342147 -0.05123251 -0.00911102 -0.0163086
0.0017117941 0.015411684 0.038657747 0.0037923194 0.015316499 -0.0051545757 -0.048031766 -0.004870779
0.023712523 0.023201741 -0.02302702 -0.001251565 0.022182455 -0.018732924 -0.021598158 -0.03283737
0.02149376 -0.028977001 -0.017866772 0.027835932 0.06325489 0.02206682 0.04424558 -0.02898726
0.04315073 0.014826106 0.030581545 0.016384533 0.031968426 0.008237685 -0.010893923 0.029399456
0.059288826 -0.002813908 -0.007234804 0.01887612 -0.080841646 -0.0029261422 -0.009165253 -0.048924986
0.027513828 -0.036825113 -0.07522041 -0.0133033935 0.02768391 0.011223188 0.01985738 -0.019601995
0.049200773 -0.031005017 -0.0082434965 -0.036748417 0.0114008235 0.039996404 -0.030858845 -0.011092134
0.02804329 -0.042944107 0.04042488 -0.004064442 -0.0049053123 -0.013095857 -0.0030321637 0.026372222
0.017910695 -0.01738442 -0.08010916 -0.070913404 -0.013210431 0.0065306188 0.030732017 -0.05057036
-0.006969318 0.0033009103 0.023130517 0.019017423 0.016401552 -0.050655592 0.027104013 0.0069583636
0.034009542 0.011905241 0.062312376 0.003962664 0.012884841 -0.026298085 0.0016707297 0.015345687
0.038537618 0.020529483 -0.019081157 -0.019561846 -0.014317924 0.006367338 0.021033527 0.0016002483
-0.0072180796 -0.031155134 0.007406841 -0.033450857 -0.00796382 -0.008296133 0.023182567 0.056068245
-0.0030114497 -0.027972717 0.021777814 -0.025827164 0.01465193 -0.03382314 -0.009649944 -0.048704058
0.032216117 0.017671777 -0.046377394 0.044065233 0.02897968 -0.005468081 -0.0068764873 -0.026872853
0.051940206 0.004237203 0.027231932 -0.071683966 0.02795089 0.018208914 0.015323906 0.009445949
0.018740162 0.015570326 0.05574909 0.013817675 -0.02627635 0.0038898892 0.019564487 -0.003913338
-0.026173841 0.0054768547 -0.010548338 0.026057135 -0.0029954943 -0.013364745 0.04312595 -0.04374601
-0.004969415 -0.014914673 -0.0067995624 -0.031526927 -0.027238216 -0.050639078 0.040303476 0.026235893
-0.011477662 0.015776891 -0.056653716 -0.03150201 0.045542702 -0.027500775 0.006722494 0.014312349
0.025411118 0.03068452 0.022495968 0.031591777 0.0006778975 -0.0065821637 0.044722874 -0.035696227
0.03325298 0.050294068 0.06152454 -0.010872842 0.0016249539 0.035785194 0.010261733 0.0027063056
-0.045085233 -0.04833174 -0.037789322 0.034424543 -0.06189882 -0.037342343 -0.038005218 -0.007680539
-0.046473507 0.029769247 -0.025364853 -0.007748552 0.034710858 0.02897671 -0.03852368 -0.028851483
-0.02297878 -0.037269115 -0.022991478 0.054403923 -0.010734027 0.0018261558 -0.04274527 -0.021795908
00000000: 5ef0 0b3c bbc4 60bd 4612 2cbc 3004 debc
00000010: 1a6c debc df5c 5cbd 1d10 333d 8caa 8bbc
00000020: 5179 28bc bbdf b13c 8a6a 7b3c ca6c fabb
00000030: 2c9d 9ebc 5a5d b2bc 40c9 7fbd a474 023d
00000040: 31d9 b83b 2c53 813c aa94 d2bc 8af7 24bb
00000050: b3fa 0e3c a614 abba 9e86 013d 2246 563d
00000060: 9eb0 8bbc dbd9 c8bc a9a5 eb3c 6600 fa3c
00000070: f446 4a3d 9009 f73b 68b4 2cbd eccc 053c
00000080: b897 f63c 4de1 013c 17f3 9d3c f00c 893c
00000090: 9982 69bc 6dd5 fdba a689 ab3b 7c1e b9bc
000000a0: dc4d 04bd 1467 60b9 aaa6 a23c 635f f63c
000000b0: c299 d6bc cd6b 26bd 548e fb3c 2812 60bd
000000c0: 68e7 9e3d 6443 35bd 03dc 66bd be36 8dbd
000000d0: 79d0 5a3d 2ed9 51bd 6346 15bc 9d99 85bc
000000e0: 475e e03a 4a81 7c3c 9657 1e3d 9088 783b
000000f0: 0ef2 7a3c b7e7 a8bb f5bc 44bd 0e9b 9fbb
00000100: c440 c23c 9411 be3c 29a3 bcbc 8d0b a4ba
00000110: fbb7 b53c ca75 99bc 9fee b0bc 7a80 06bd
00000120: af13 b03c 2d61 edbc 565d 92bc 2e08 e43c
00000130: c88b 813d 7ac5 b43c da3a 353d b176 edbc
00000140: d2be 303d 32e9 723c 2686 fa3c db38 863c
00000150: 53f1 023d 5bf7 063c 6d7c 32bc 21d7 f03c
00000160: d7d8 723d 8b69 38bb ef11 edbb 18a2 9a3c
00000170: 4e90 a5bd 85c4 3fbb db29 16bc 9165 48bd
00000180: ae64 e13c eed5 16bd 290d 9abd 7af6 59bc
00000190: 5ec9 e23c 76e1 373c f2ab a23c 5d94 a0bc
000001a0: c086 493d 3cfe fdbc bb0f 07bc 8285 16bd
000001b0: 85ca 3a3c 45d3 233d b0cb fcbc c8bb 35bc
000001c0: 0bbb e53c 29e6 2fbd 8f94 253d 032f 85bb
000001d0: bebc a0bb 0190 56bc 44b7 46bb 8f0a d83c
000001e0: 73b9 923c c569 8ebc 4510 a4bd 0c3b 91bd
000001f0: 9070 58bc cdfe d53b b6c1 fb3c de22 4fbd
00000200: e05e e4bb 1654 583b 367c bd3c 6dca 9b3c
00000210: 8c5c 863c 3d7c 4fbd 3c09 de3c fc02 e43b
00000220: 974d 0b3d 330e 433c 433b 7f3d 3cd9 813b
00000230: f11a 533c 156f d7bc 63fc da3a 7a6c 7b3c
00000240: 9fd9 1d3d 722d a83c 1650 9cbc 2a40 a0bc
00000250: ba95 6abc 1aa5 d03b 814e ac3c 6cbf d13a
00000260: a485 ecbb 0d39 ffbc 16b5 f23b c403 09bd
00000270: af7a 02bc 81ec 07bc 5ee9 bd3c d1a7 653d
00000280: be5b 45bb 0a27 e5bc 6367 b23c 7d93 d3bc
00000290: a60e 703c 228a 0abd cc1a 1ebc e87d 47bd
000002a0: 0cf5 033d 67c4 903c 39f6 3dbd bf7d 343d
000002b0: cb66 ed3c 972d b3bb 2854 e1bb 7524 dcbc
000002c0: 41bf 543d 3cd8 8a3b 8015 df3c 0bcf 92bd
000002d0: 44f9 e43c dc2a 953c 1f11 7b3c 2fc3 1a3c
000002e0: f884 993c ae1a 7f3c 2859 643d 8863 623c
000002f0: 8041 d7bc 83ed 7e3b b445 a03c 753b 80bb
00000300: 866a d6bc 3077 b33b f0d2 2cbc c675 d53c
00000310: 0e50 44bb cef7 5abc d6a4 303d 042f 33bd
00000320: 79d6 a2bb ac5c 74bc ddce debb 6122 01bd
00000330: ae22 dfbc ec6a 4fbd 4215 253d a8ec d63c
00000340: ce0c 3cbc 8a3e 813c ba0d 68bd 4008 01bd
00000350: fc8a 3a3d 4e49 e1bc 5e48 dc3b 587e 6a3c
00000360: fa2a d03c 1a5e fb3c 7749 b83c 6166 013d
00000370: eeb4 313a 31af d7bb 552f 373d 3536 12bd
00000380: 4734 083d 2701 4e3d 2801 7c3d 0124 32bc
00000390: 68fc d43a 7f93 123d d420 283c 465c 313b
000003a0: 4bab 38bd 81f7 45bd fac8 1abd c000 0d3d
000003b0: 9e89 7dbd 49f4 18bd 5cab 1bbd 08ad fbbb
000003c0: 015b 3ebd a3de f33c f4c9 cfbc 91e7 fdbb
000003d0: f92c 0e3d 9160 ed3c 02cb 1dbd f259 ecbc
000003e0: ff3d bcbc 80a7 18bd a058 bcbc a6d6 5e3d
000003f0: c6dd 2fbc 9f5b ef3a aa15 2fbd 558d b2bc

_module.layer5.0.bias f4 [64]
-0.039173935 -0.018372457 -0.032325327 -0.011153873 -0.061315935 0.0062512625 0.038561415 0.03128649
-0.022351036 -0.0172989 -0.0008043902 -0.045973107 0.049645748 0.031130964 -0.032420225 -0.008057837
-0.0017543135 -0.015808886 -0.010275194 -0.018794224 0.015517899 0.05958232 0.012352168 0.02961327
0.0067087696 0.040023033 -0.022536596 -0.032772217 -0.0073918784 0.04334187 -0.027855363 -0.054741584
0.034064613 -0.0040179184 0.0048585385 -0.006141882 -0.010532552 0.05966128 -0.022358863 0.03368933
0.02652832 0.018363127 0.0055195475 -0.05992483 -0.021645457 0.020710194 0.04470858 0.0075139273
0.04508999 0.04188307 -0.061115094 0.046137713 -0.014667496 -0.02722813 -0.041869584 -0.02986277
0.0162085 0.024647493 -0.061493758 0.044955708 -0.009620428 0.028002037 -0.0033220379 -0.0029326908
00000000: d974 20bd d681 96bc 9067 04bd bcbe 36bc
00000010: 6b26 7bbd 64d7 cc3b 93f2 1d3d 4326 003d
00000020: 8519 b7bc 6cb6 8dbc b6dd 52ba 4c4e 3cbd
00000030: 5759 4b3d 5d06 ff3c 12cb 04bd 0505 04bc
00000040: fef0 e5ba a381 81bc 4a59 28bc 58f6 99bc
00000050: c93e 7e3c 970c 743d bf60 4a3c 8797 f23c
00000060: 3dd5 db3b 31ef 233d ab9e b8bc 293c 06bd
00000070: 9237 f2bb 3f87 313d ee30 e4bc b638 60bd
00000080: 5687 0b3d bea8 83bb 6034 9f3b d741 c9bb
00000090: ba90 2cbc 635f 743d ef29 b7bc d3fd 093d
000000a0: eb51 d93c 456e 963c 52dd b43b bd73 75bd
000000b0: d051 b1bc 6da8 a93c 5820 373d 6437 f63b
000000c0: 48b0 383d 958d 2b3d d253 7abd e6fa 3c3d
000000d0: f04f 70bc 870d dfbc 717f 2bbd c5a2 f4bc
000000e0: b0c7 843c 8ae9 c93c e1e0 7bbd 7a23 383d
000000f0: 009f 1dbc 8764 e53c 8cb6 59bb 6332 40bb

_module.layer5.1.weight f4 [64]
0.99384016 1.0161533 1.0264148 1.035839 0.99306875 1.0201113 0.97388047 0.9821332
1.0183233 0.98479015 0.98129463 1.0009294 1.0039388 0.9837431 1.0072466 0.99614924
0.9697988 0.9635482 0.994974 1.0240119 1.0000509 1.0236701 1.0296693 1.0242044
0.9795925 1.0167322 0.97432786 0.98729473 0.9849122 0.98173493 1.0095211 1.0176789
0.99856126 1.0402387 0.9880233 1.0308497 1.003938 0.9975326 0.9723036 1.0310814
1.0206807 0.97238046 1.032083 0.97958994 1.0005265 1.0332992 1.0214368 0.9825767
0.9961074 0.9881629 1.026649 1.0362483 1.0110351 1.0097706 1.0077773 1.0163667
1.0159755 0.98475087 1.0063386 0.99563915 1.0324075 1.0058011 1.0172496 0.97414744
00000000: 4f6c 7e3f 5011 823f 8f61 833f 5f96 843f
00000010: c139 7e3f 0293 823f 3b50 793f 156d 7b3f
00000020: 6b58 823f 351b 7c3f 2036 7b3f 741e 803f
00000030: 1181 803f 96d6 7b3f 75ed 803f a303 7f3f
00000040: bc44 783f 18ab 763f 9eb6 7e3f d212 833f
00000050: ab01 803f 9f07 833f 34cc 833f 2119 833f
00000060: 93c6 7a3f 4824 823f 8d6d 793f 59bf 7c3f
00000070: 3523 7c3f fb52 7b3f fd37 813f 4d43 823f
00000080: b6a1 7f3f 8b26 853f 18ef 7c3f e2f2 833f
00000090: 0a81 803f 4c5e 7f3f e4e8 783f 7afa 833f
000000a0: aaa5 823f eded 783f 4c1b 843f 68c6 7a3f
000000b0: 4111 803f 2643 843f 71be 823f 268a 7b3f
000000c0: e500 7f3f 3ef8 7c3f 3c69 833f c9a3 843f
000000d0: 9969 813f 2a40 813f d9fe 803f 4e18 823f
000000e0: 7c0b 823f a218 7c3f b4cf 803f 35e2 7e3f
000000f0: ee25 843f 17be 803f 3c35 823f ba61 793f

_module.layer5.1.bias f4 [64]
0.03783429 0.027319478 0.01897005 -0.0070380955 0.0074660145 -0.013819856 -0.0003138907 0.0080077145
-0.016444845 0.0052793035 -0.005926511 -0.010666883 0.02415177 0.017859736 0.012743902 -0.02400773
0.011437846 0.011978128 -0.02289952 0.0164626 0.03784611 0.028538771 0.026200444 0.056566272
-0.020157758 -0.020705648 0.005672263 -0.008572921 -0.030302681 0.008901983 0.0037511673 0.014403675
-0.020722464 -0.0024826978 0.022946356 0.005084579 0.010362927 0.001696589 0.009571592 -0.007926689
0.015328046 0.025189586 -0.0067353025 -0.030536693 -0.01621794 -0.0035938744 -0.0016912414 0.017751932
-0.024702124 -0.025100026 0.020670272 0.0051863817 -0.0048580896 -0.022303503 0.03133414 0.0059647863
-0.014027321 -0.025658814 0.0023969903 -0.006004952 0.022688325 -0.012611891 0.0077837096 0.0042781816
00000000: 21f8 1a3d 19cd df3c 1467 9b3c d39f e6bb
00000010: 78a5 f43b ad6c 62bc b291 a4b9 ca32 033c
00000020: 57b7 86bc 02fe ac3b 2d33 c2bb 26c4 2ebc
00000030: efd9 c53c 954e 923c cdcb 503c dcab c4bc
00000040: ce65 3b3c e93f 443c c697 bbbc 93dc 863c
00000050: 8604 1b3d 24ca e93c 50a2 d63c 09b2 673d
00000060: e221 a5bc e49e a9bc 64de b93b 7075 0cbc
00000070: 543d f8bc 9fd9 113c 25d6 753b 64fd 6b3c
00000080: 28c2 a9bc c2b4 22bb fff9 bb3c 8a9c a63b
00000090: 44c9 293c 1560 de3a 2bd2 1c3c f2de 01bc
000000a0: 7c22 7b3c 645a ce3c d0b3 dcbb 1628 fabc
000000b0: 7cdb 84bc 3587 6bbb a5ac ddba 806c 913c
000000c0: 1c5c cabc 929e cdbc b454 a93c 86f2 a93b
000000d0: 9c30 9fbb d6b5 b6bc 3a58 003d 4174 c33b
000000e0: d9d2 65bc 6f32 d2bc d316 1d3b 30c5 c4bb
000000f0: dedc b93c 1ba2 4ebc 7d0e ff3b fd2f 8c3b
