weights/private_total.pth (torch, 950332 bytes, 26 tensors)

_module.layer1.0.weight f4 [16, 3, 3, 3]
0	0xbd9ac839	-0.07557721
1	0x3e374d24	0.1790052
2	0x3e0f3381	0.13984491
3	0xbc31ee47	-0.010860032
4	0xbe634bae	-0.22196838
5	0x3e457943	0.19284539
6	0xbdde8e95	-0.10867039
7	0xbe4c4403	-0.1994782
8	0xbd3f8739	-0.046759818
9	0xbdc00546	-0.09376006
10	0xbdfaa7fe	-0.12239073
11	0xbe280ce3	-0.16411166
12	0xbdf47535	-0.11936418
13	0xbc6a736f	-0.014309748
14	0x3e0a9aa2	0.1353555
15	0xbd2da99c	-0.04239808
16	0xbcaef610	-0.021357566
17	0x3c7d0e5e	0.01544532
18	0xbe13247f	-0.14369391
19	0x3dfc5529	0.123209305
20	0x3cda2ed1	0.026633652
21	0xbdbaebb3	-0.09126987
22	0x3cfdfe10	0.031004936
23	0x3dd6f792	0.10496439
24	0x3dfae812	0.12251295
25	0xbcad67ab	-0.021167597
26	0x3ddfe721	0.10932756
27	0x3ca837b4	0.020534374
28	0xbd484b3b	-0.04889987
29	0xbc6ade75	-0.014335264
30	0x3cbb27cf	0.02284613
31	0xbd39524d	-0.045244504
32	0xbdc535ce	-0.09629403
33	0x3e3c0871	0.18362595
34	0xbda37f7f	-0.07983302
35	0x3e3d2a0f	0.18473075
36	0xbc02c7fa	-0.007982248
37	0xbd6c6ace	-0.057719044
38	0xbe1a9e95	-0.15099557
39	0xbd7ff19f	-0.062486287
40	0xbda2f9d0	-0.07957804
41	0x3e015f68	0.12634051
42	0x3d7336bb	0.059378367
43	0x3db10eba	0.08645387
44	0xbd5be035	-0.053680617
45	0xbe403efe	-0.1877403
46	0xbe1c7097	-0.15277325
47	0xbe127c72	-0.14305285
48	0x3ce50282	0.027955297
49	0x3e0867ae	0.133208
50	0xbe15a32c	-0.14613026
51	0x3dd8afba	0.10580392
52	0xbce48c55	-0.027898947
53	0xbc1fb7a3	-0.009748372
54	0x3dd5f8e1	0.104478605
55	0x3d4c5252	0.049883194
56	0x3df085ac	0.11744246
57	0xbe3469d2	-0.17618492
58	0xbe004441	-0.12526037
59	0x3e2f91d9	0.1714548
60	0xbcc7ba62	-0.024380866
61	0xbe3deddd	-0.18547769
62	0x3d6d9904	0.058007255
63	0xbd4dceee	-0.05024617
64	0xbdbe70f9	-0.092988916
65	0x3dddecf8	0.10836214
66	0xbdc1f5db	-0.09470721
67	0xbde8e50c	-0.11371812
68	0xbc903b5c	-0.01760643
69	0xbe26da1b	-0.16294138
70	0x3dac62a3	0.08417251
71	0xbc90b285	-0.01766325
72	0xbdcc31a4	-0.09970406
73	0xbdf65123	-0.12027194
74	0x3d03b28f	0.03215271
75	0x3d96ba66	0.073597714
76	0xbe2df4f4	-0.16987973
77	0x3e09f9e6	0.13474235
78	0xbd1607a6	-0.036628388
79	0x3d9e2620	0.077221155
80	0xbe02ed53	-0.12785845
81	0x3e0a6e0a	0.13518539
82	0xbcd73757	-0.026271505
83	0xbdc28412	-0.09497847
84	0x3ab6df00	0.0013951957
85	0xbe031c7b	-0.12803833
86	0x3e4560cb	0.19275205
87	0xbe24b4af	-0.1608455
88	0xbe36132b	-0.1778075
89	0xbe1b2f56	-0.15154776
90	0x3daa050a	0.083017424
91	0x3b9fb5f8	0.0048739873
92	0xbda0bfad	-0.07849059
93	0x3c9e8108	0.019348636
94	0x3de9ec02	0.11421968
95	0xbdd2e2d2	-0.10297169
96	0x3dc33a3e	0.09532593
97	0x3e65a555	0.2242635
98	0xbcf4cf0f	-0.02988389
99	0xbce8879b	-0.028384974
100	0x3cad34f9	0.021143423
101	0xbe154be0	-0.14579725
102	0x3d4f3227	0.05058494
103	0xba1c39f2	-0.0005959562
104	0xbe4b843e	-0.19874665
105	0x3e23265f	0.15932606
106	0xbd3f1a37	-0.04665586
107	0xbb3182c9	-0.002708601
108	0x3e372466	0.17884979
109	0xbd452b83	-0.0481372
110	0x3dc11211	0.09427274
111	0x3dadd05e	0.084870085
112	0xbda21f01	-0.0791607
113	0x3e1f9d3e	0.15587327
114	0x3e1cd953	0.15317278
115	0x3d625eef	0.055266317
116	0xbe0f5e6b	-0.14000861
117	0x3e2cdcb0	0.1688106
118	0xbe3f91ce	-0.18707964
119	0xbdb00d00	-0.085962296
120	0x3da4a40f	0.08039104
121	0xbb4ab2de	-0.0030929367
122	0xbe2ec7e8	-0.17068446
123	0xbe16522a	-0.1467978
124	0xbce14679	-0.027499424
125	0x3df903ae	0.12158905
126	0x3e0faab3	0.1402996
127	0xbcc99a4c	-0.024609707
128	0x3e425e6f	0.18981336
129	0x3d98697c	0.074419945
130	0xbdbc6b36	-0.09200136
131	0x3d85cbd7	0.0653302
132	0xbdee0831	-0.11622656
133	0x3dbe07a4	0.09278801
134	0xbdf321d5	-0.11871687
135	0xbd895e87	-0.06707483
136	0x3db9f25b	0.09079429
137	0xbd502701	-0.050818447
138	0x3c79ca9e	0.015246062
139	0x3d96db05	0.073659934
140	0xbd95d938	-0.07316822
141	0xbcddd8c5	-0.027080903
142	0xbd3bc17f	-0.04583883
143	0xbe3c9eb7	-0.1841992
144	0xbdbc15ee	-0.0918387
145	0xbe45687b	-0.19278137
146	0xbc86d31a	-0.016458083
147	0x3e576714	0.21035415
148	0x3d879059	0.06619329
149	0x3e1c7ce6	0.1528202
150	0xbe4a4a9d	-0.19755025
151	0x3d134a5a	0.03595958
152	0x3e286a57	0.16446815
153	0xbd01ca3a	-0.031687
154	0x3e258151	0.16162612
155	0xbd765dbb	-0.060147982
156	0x3e2c4d28	0.16826308
157	0x3e27374a	0.16329685
158	0xbe3c67f7	-0.18399034
159	0xbde6c3bf	-0.11267804
160	0xbc094286	-0.008377677
161	0xbe0e69c5	-0.13907535
162	0xbd6c0ef4	-0.057631448
163	0x3e52e8be	0.20596597
164	0x3d57dace	0.052698903
165	0x3c5fa13d	0.013649282
166	0x3dddc9db	0.108295165
167	0x3ca83045	0.02053083
168	0x3c3a6b96	0.01137819
169	0xbe390462	-0.18068078
170	0xbe569d4f	-0.20958446
171	0xbe08afad	-0.13348265
172	0xbdf70515	-0.12061516
173	0xbd0d40b8	-0.03448555
174	0xbbe3f428	-0.006956596
175	0xbc647cbe	-0.0139457565
176	0xbdd61947	-0.1045404
177	0x3cf5dbe1	0.030012073
178	0xbd4ac4eb	-0.0495042
179	0x3d4caad1	0.04996759
180	0x3e1c8582	0.15285304
181	0x3e385763	0.18002085
182	0xbe0ea3a3	-0.1392961
183	0x3da5f31e	0.081030115
184	0xbdc24612	-0.09486021
185	0x3d822909	0.06355483
186	0x3de05c26	0.10955076
187	0xbe3ad3c6	-0.18244848
188	0x3dd95800	0.10612488
189	0xbc231bd5	-0.009955366
190	0x3e027191	0.12738635
191	0x3d6edf16	0.05831822
192	0x3e129b73	0.14317112
193	0xbe06380e	-0.1310732
194	0xbe575beb	-0.21031158
195	0x3d14cdd7	0.036329117
196	0xbe1d6fb3	-0.15374641
197	0xbcba6b82	-0.022756342
198	0xbe03596a	-0.12827078
199	0x3e1bc492	0.15211704
200	0x3dddbd89	0.108271666
201	0xbbd7db17	-0.006587397
202	0x3e167afb	0.14695351
203	0xbe430f8b	-0.19048898
204	0x3e2f4e2c	0.17119664
205	0xbe190c4c	-0.14946097
206	0x3dba4ccd	0.0909668
207	0xbe0fa046	-0.14025983
208	0xbdcc3b14	-0.09972206
209	0xbdb5cb25	-0.08876637
210	0x3d78aaf8	0.060709924
211	0xbdcd49cc	-0.10023841
212	0x3e41d1ec	0.18927735
213	0x3e44d9ae	0.19223663
214	0x3dea37b4	0.11436406
215	0xbe3348ac	-0.17508191
216	0x3e11c821	0.142365
217	0xbc098ff2	-0.008396136
218	0xbe0be597	-0.136618
219	0x3e5ca064	0.21545559
220	0xbdc2314d	-0.0948206
221	0xbe163483	-0.14668469
222	0xbdcd7cbc	-0.10033557
223	0xbe14d76e	-0.14535305
224	0x3dfd895d	0.123797156
225	0xbb59d048	-0.0033235718
226	0xbdaafdcf	-0.083491914
227	0xbe0d1dfe	-0.13780972
228	0x3de6d92f	0.11271893
229	0x3e028294	0.12745124
230	0x3dbfd3b8	0.09366554
231	0xbd8d3e02	-0.06896593
232	0x3e273b55	0.16331227
233	0xbe4b1470	-0.19832015
234	0xbdb4d6fd	-0.08830068
235	0x3d918b80	0.07106686
236	0x3d465241	0.048418287
237	0xbc444371	-0.01197897
238	0x3e351c13	0.1768649
239	0x3cb1c551	0.021700533
240	0x3e3d9ad0	0.18516088
241	0xbe3fd541	-0.18733694
242	0xbe1f9dc6	-0.1558753
243	0x3e035db5	0.12828715
244	0xbdcb9a65	-0.09941558
245	0xbc5e32d6	-0.013561925
246	0xbd151f0f	-0.036406573
247	0xbe4fb6e0	-0.20284605
248	0xbe0996ed	-0.1343648
249	0x3e28bab6	0.16477475
250	0x3d93a70d	0.07209597
251	0xbd8bb083	-0.06820776
252	0x3e2078c5	0.1567107
253	0x3db441fc	0.08801648
254	0xbd87a282	-0.06622793
255	0xbd99a577	-0.07502263

_module.layer1.0.bias f4 [16]
0	0x3db0279b	0.08601304
1	0xbd7f401a	-0.06231699
2	0xbd22f9c2	-0.03978897
3	0xbd9fdad9	-0.07805414
4	0x3d153747	0.03642967
5	0x3de428e3	0.11140611
6	0x3dd3d974	0.1034421
7	0xbe4b39bc	-0.19846243
8	0x3e3a33f1	0.18183877
9	0xbce68506	-0.028139602
10	0x3b0c10f0	0.00213724
11	0x3e1d732c	0.15375966
12	0x3cfd92b9	0.030953752
13	0x3e159782	0.14608577
14	0x3b86eb1b	0.004117382
15	0x3d97a217	0.07403963

_module.layer1.1.weight f4 [16]
0	0x3f7b6de3	0.9821455
1	0x3f78f165	0.9724334
2	0x3f790c79	0.97284657
3	0x3f814b48	1.0101099
4	0x3f82e2c6	1.0225456
5	0x3f808a4f	1.0042208
6	0x3f7f0617	0.9961867
7	0x3f808b8b	1.0042585
8	0x3f7f0e35	0.99631053
9	0x3f79262a	0.9732386
10	0x3f752ec1	0.95774466
11	0x3f81f91d	1.0154148
12	0x3f7ab422	0.9793111
13	0x3f7a9386	0.9788135
14	0x3f772735	0.965442
15	0x3f7f3ce1	0.9970227

_module.layer1.1.bias f4 [16]
0	0xbcae54d0	-0.021280676
1	0xbc1cd810	-0.009572998
2	0xbb818ff6	-0.003953929
3	0xbcbc6d17	-0.023001237
4	0x3d0da703	0.034583103
5	0xba55b41d	-0.0008152144
6	0x3c6391d4	0.013889749
7	0xbb793e47	-0.0038031505
8	0x3b3f8ecd	0.0029229403
9	0xbcad6e0b	-0.021170637
10	0xbc332be2	-0.010935755
11	0x3bce078a	0.00628752
12	0x3cae6f63	0.021293348
13	0xbb17677f	-0.002310246
14	0xbcd05dfa	-0.025435437
15	0xbcfc28c5	-0.03078116

_module.layer2.0.weight f4 [16, 16, 3, 3]
0	0xbd55f921	-0.05223954
1	0x3d5a6ac4	0.053324476
2	0x3d548202	0.051881798
3	0xbdb091a1	-0.086215265
4	0xb95851ad	-0.00020629792
5	0x3d3a2659	0.045446727
6	0xbd0fe947	-0.03513458
7	0x3aef4adc	0.0018256563
8	0x3d2bf01b	0.04197703
9	0x3c5f0229	0.013611355
10	0xbd9af08b	-0.07565411
11	0x3ceaae97	0.028647704
12	0x3d9acc26	0.075584695
13	0x3d16879e	0.03675043
14	0xbd804644	-0.06263402
15	0xbd235321	-0.0398742
16	0x3c92e179	0.01792978
17	0x3bcd453e	0.006264358
18	0x3c8663b3	0.016404962
19	0xbb631e13	-0.0034655377
20	0x3d7b9f88	0.061431438
21	0xbcd0ef63	-0.025504773
22	0x3d9f912d	0.07791362
23	0xbc851168	-0.016243652
24	0xbd348d83	-0.04408027
25	0xbd9ab548	-0.07554108
26	0xbc75f6bc	-0.015012439
27	0xbd9022a5	-0.07037858
28	0x3d1b6a2f	0.03794306
29	0xbcd0ad4f	-0.025473265
30	0xbca9d18f	-0.020729808
31	0x3a9947b5	0.0011694344
32	0x3c0807da	0.008302653
33	0x3d7b6207	0.061372783
34	0x3d899f1a	0.06719799
35	0x3d81d6f1	0.06339825
36	0xbd746732	-0.059668727
37	0xbd8ce623	-0.068798326
38	0xbd64c7f8	-0.055854768
39	0x3d7d4f61	0.06184328
40	0x3db50f72	0.088408366
41	0x3c286473	0.010277855
42	0xbd0e4a75	-0.034738977
43	0x3cadb253	0.021203196
44	0x3d925c54	0.071465164
45	0x3d339c24	0.04385008
46	0x3d15707a	0.03648422
47	0x3d83da9a	0.06438179
48	0xbdc6cdb1	-0.09707201
49	0x3c97f336	0.01854859
50	0x3d7880eb	0.06066982
51	0x3ce0d15d	0.027443582
52	0x3c8982ad	0.016785944
53	0xbd21f2d5	-0.039538223
54	0x3d3c6252	0.045992203
55	0xb9b52972	-0.0003455389
56	0xbd322046	-0.04348781
57	0xbdadcfff	-0.08486938
58	0x3bc361e7	0.0059625986
59	0x3bd35276	0.006449039
60	0x3d161653	0.036642384
61	0xbb17c50b	-0.0023158218
62	0x3bd964e5	0.006634342
63	0xbd810cfa	-0.06301303
64	0xbd99a2e1	-0.0750177
65	0x3d806b96	0.062705204
66	0x3d2a96d0	0.041647732
67	0x3a924b5a	0.0011161373
68	0x3d2ee3cd	0.042697717
69	0x3d77ca2a	0.060495533
70	0xbceecbf5	-0.029149989
71	0xbd032177	-0.032014336
72	0xbc310e38	-0.010806613
73	0xbc7affe4	-0.015319798
74	0xbda30e97	-0.07961767
75	0x3d47116b	0.048600595
76	0x3dcfe487	0.1015101
77	0xbd16df25	-0.0368339
78	0x3d68b3ff	0.056812283
79	0xbc469eb8	-0.012122802
80	0x3cb513ce	0.02210417
81	0xbcb3626e	-0.02189752
82	0x3d99acf7	0.075036936
83	0xbc11e447	-0.008904523
84	0xbd58c731	-0.05292434
85	0x3cffd7b2	0.031230781
86	0x3d0e7265	0.034777064
87	0xbd1d693f	-0.03843045
88	0x3ca2704d	0.01982894
89	0x3d5a810a	0.053345717
90	0x3d768852	0.0601886
91	0x3cf52ea2	0.029929463
92	0x3d126901	0.03574467
93	0xbd24684f	-0.04013854
94	0xbca69676	-0.020335417
95	0x3d7e0643	0.06201769
96	0x3cfae69b	0.03062754
97	0x3d0478ac	0.032341644
98	0xbcd1d24d	-0.025612975
99	0x3da810ae	0.082063064
100	0x3d6be479	0.057590935
101	0xbda4bd5d	-0.08043931
102	0x3c5b7d1c	0.013396528
103	0x3d6bb05f	0.057541247
104	0xbd998277	-0.07495587
105	0x3da3e8e7	0.08003407
106	0x3ca83b1d	0.020536
107	0x3c6f05d0	0.014588788
108	0x3da193e5	0.07889537
109	0x3ca56646	0.02019037
110	0xbc7e87d7	-0.015535316
111	0x3dc802c0	0.097661495
112	0x3ce4d32f	0.027932731
113	0xbc35549f	-0.0110675385
114	0xbdca9efb	-0.09893604
115	0x3d8eddeb	0.06975921
116	0xbd2883a6	-0.041141175
117	0xbd28b424	-0.04118742
118	0x3bbe83d3	0.0058140545
119	0xbc9fea6b	-0.019520959
120	0xbdb40f0b	-0.08791932
121	0x3d176fb5	0.036971767
122	0xbd8b927c	-0.06815049
123	0x3d8f5ad8	0.06999749
124	0x3b799993	0.0038085922
125	0xbab3255b	-0.0013667749
126	0xbd5f9bb3	-0.054591846
127	0xbc2344a6	-0.0099650975
128	0x3d152cb0	0.03641957
129	0xbdcea25e	-0.10089563
130	0xbde12960	-0.1099422
131	0xbda20388	-0.0791083
132	0xbcccf84d	-0.025020743
133	0x3d9b36ab	0.075787865
134	0x3d004fa7	0.031325962
135	0x3d5dbe10	0.054136336
136	0x3d06b422	0.03288663
137	0x3d6c1c8a	0.057644404
138	0xbc32c393	-0.010910886
139	0x3cfdf3f1	0.03100011
140	0x3dbdee5b	0.09273978
141	0xbd5cab18	-0.053874105
142	0x3c3818c5	0.011236374
143	0xbd9ab683	-0.075543426
144	0xbd4c1a48	-0.04982975
145	0xbd66085f	-0.056160327
146	0xbc548825	-0.0129719125
147	0x3d333ba6	0.043758057
148	0xbdb1ee4c	-0.0868803
149	0xbd8d87eb	-0.0691069
150	0xbbf40b41	-0.0074476306
151	0x3ba8b587	0.005148593
152	0x3ccd7b10	0.025083095
153	0xbcfa0166	-0.030518245
154	0xbd073c37	-0.03301641
155	0x3d3cea4a	0.046121873
156	0xbda538ad	-0.08067451
157	0x3d9fc5bb	0.07801386
158	0xbda4b3db	-0.08042117
159	0x3d82bb14	0.063833386
160	0x3d4d208b	0.050079864
161	0x3d1ebf93	0.03875692
162	0xbd52b7f2	-0.051444955
163	0x3d402f9b	0.0469204
164	0xbc88ca60	-0.016698062
165	0xbca766a8	-0.020434693
166	0xbc8e3930	-0.017361253
167	0x3bad9d06	0.0052982597
168	0x3db22cf0	0.086999774
169	0xbd06017c	-0.03271626
170	0xbdb22735	-0.086988844
171	0x3cbc5d56	0.022993725
172	0xbb9c8674	-0.0047767702
173	0xbcd6abf8	-0.026205048
174	0x3cd55878	0.026043162
175	0x3d3042b5	0.043032367
176	0x3d65d29a	0.05610905
177	0xbaa6cdc0	-0.0012726113
178	0xbd0870f7	-0.033310857
179	0xbd7eb67e	-0.062185757
180	0xba0db377	-0.00054054655
181	0xbd6d396c	-0.05791609
182	0x3c814d4b	0.015783926
183	0xbdafe69a	-0.08588906
184	0xbd8ff398	-0.07028884
185	0xbd27a0a5	-0.040924687
186	0xbd5559ca	-0.052087583
187	0xbc9805cf	-0.018557457
188	0xbd756698	-0.059912294
189	0x3d4b9d92	0.049710818
190	0xbdcbd844	-0.09953359
191	0x3d4801a3	0.048829686
192	0xbd8eb361	-0.069678076
193	0xbd1d5a0f	-0.038415965
194	0x3c8e1841	0.01734555
195	0x3c64858e	0.013947858
196	0xbd8f9a81	-0.07011891
197	0x3c11e00e	0.008903516
198	0xbcb4b4b7	-0.022058828
199	0x3d8d656e	0.06904112
200	0x3b09cf05	0.0021027934
201	0x3c5f72b7	0.01363819
202	0x3c9f81d2	0.019471083
203	0x3d818be8	0.06325513
204	0x3cbde03d	0.023178214
205	0x3d35f414	0.044422224
206	0x3ccd7628	0.025080755
207	0x3da7c059	0.08190984
208	0x384a6949	4.8258607e-05
209	0xbc8c0f8a	-0.017097253
210	0x3c9c95e0	0.019114435
211	0xbcbf8755	-0.023379961
212	0x3bd60ee0	0.006532535
213	0xbda1ddef	-0.079036586
214	0x3d1f7fda	0.038940288
215	0x3d538492	0.0516401
216	0xbd32d482	-0.043659694
217	0x3c811b45	0.015760073
218	0xbdb4b0c7	-0.0882278
219	0xbd533bc4	-0.05157067
220	0xbcd8c761	-0.026462259
221	0x3d927eba	0.071530774
222	0xbd20e1ef	-0.039277967
223	0xbda4bcd6	-0.0804383
224	0x3d56fdae	0.05248802
225	0x3b495288	0.0030719358
226	0xbd4fa450	-0.05069381
227	0x3d66d4e7	0.056355383
228	0x3d341bc2	0.043971784
229	0x3d2647d6	0.04059585
230	0xbd74de37	-0.059782233
231	0xbdcb316c	-0.09921536
232	0x3dc130ce	0.09433137
233	0x3d573c14	0.05254753
234	0xbd41c512	-0.04730708
235	0x3da8b534	0.08237687
236	0x3c829bfc	0.01594352
237	0x3dbffe65	0.09374694
238	0x3ce6c1af	0.028168527
239	0x3cbb0149	0.022827761
240	0x3d19d6b0	0.037558258
241	0x3d48d69c	0.049032792
242	0x3d8dbfed	0.069213726
243	0x3d2c489b	0.04206143
244	0x3d8a3ec8	0.06750256
245	0xbc9105bc	-0.01770293
246	0x3d3e20ad	0.04641788
247	0x3c7f7f63	0.015594336
248	0x3b223dbe	0.002475604
249	0xbdbf6e6c	-0.09347233
250	0xbc87ade6	-0.016562413
251	0x3a519b65	0.0007995873
252	0xbca87b58	-0.020566627
253	0xbc050e22	-0.008121045
254	0xbb62ee28	-0.0034626815
255	0x3dd634f1	0.104593165

_module.layer2.0.bias f4 [16]
0	0xbd04d55d	-0.03243004
1	0xbd88c802	-0.066787735
2	0x3d52e3fe	0.05148696
3	0x3df285e9	0.118419476
4	0x3c9744cd	0.018465424
5	0xbdc0bc9a	-0.09410973
6	0x3d0ef794	0.034904078
7	0x3d7b31e9	0.061326895
8	0xbbc1a7d8	-0.005909901
9	0x3cbeeb9a	0.023305703
10	0xbd1e9a46	-0.038721345
11	0xbccee855	-0.025257269
12	0x3d3bd101	0.04585362
13	0x3d8f8aea	0.07008918
14	0x3d8cc46c	0.06873402
15	0x3d791130	0.060807407

_module.layer2.1.weight f4 [16]
0	0x3f7bd469	0.9837099
1	0x3f76529d	0.9621981
2	0x3f81acdf	1.0130881
3	0x3f79617d	0.9741438
4	0x3f7cb27c	0.98709846
5	0x3f81c04c	1.0136809
6	0x3f7f2241	0.9966164
7	0x3f7f75b0	0.9978895
8	0x3f7c7a5d	0.9862421
9	0x3f7981f3	0.9746391
10	0x3f7dd20c	0.9914863
11	0x3f83c36c	1.0294013
12	0x3f7a1a0e	0.97696006
13	0x3f84c75c	1.037334
14	0x3f83c9b2	1.0295928
15	0x3f7d28e5	0.98890525

_module.layer2.1.bias f4 [16]
0	0xbbaa161d	-0.0051906244
1	0x3cd0a84e	0.025470879
2	0x3cb555c6	0.022135627
3	0x3c90a3d7	0.01765625
4	0x3cebedb0	0.028799862
5	0xbcc87921	-0.024471821
6	0xbc893df5	-0.016753176
7	0x3a83ca46	0.0010054789
8	0x3b830c28	0.003999252
9	0x3c9acb80	0.018895864
10	0x3c220343	0.009888473
11	0x3d5f72be	0.054552786
12	0xbbc1f468	-0.005919028
13	0x3a26e970	0.00063671824
14	0x3b259e76	0.0025271452
15	0xbc88070f	-0.016604928

_module.layer3.0.weight f4 [64, 16, 3, 3]
0	0x3d728b03	0.059214603
1	0x3c83678d	0.016040588
2	0x3d7a39bc	0.061090216
3	0x3d9a1e31	0.0752529
4	0x3d8787a1	0.06617666
5	0x3d846f27	0.06466513
6	0x3d072e55	0.03300317
7	0x3cd92fe6	0.026512098
8	0xbc84cd48	-0.016211167
9	0xbd8178b3	-0.0632185
10	0x3d2a2c3d	0.041546095
11	0x3c621457	0.013798795
12	0x3d592dd9	0.05302224
13	0xbd717919	-0.05895338
14	0xbcc8bada	-0.02450316
15	0x3bb8ecfe	0.005643486
16	0xbd3fb613	-0.0468045
17	0xbd5150cb	-0.05110244
18	0x3b9516f8	0.004549857
19	0x3b5d6723	0.0033783398
20	0x3d05495d	0.032540668
21	0x3d91a0cf	0.0711075
22	0xbd9e70e6	-0.077363774
23	0xbd00ca92	-0.031443186
24	0xbd30f7e7	-0.043205168
25	0xbd661ce6	-0.056179903
26	0x3d6fc1cf	0.05853444
27	0x3d44c2db	0.04803739
28	0x3d74a9d9	0.05973229
29	0x3d21320d	0.039354373
30	0x3d25589b	0.040367704
31	0xbd82b781	-0.06382657
32	0x3d76cd8f	0.06025463
33	0x3d5ee26f	0.054415163
34	0x3d4f188d	0.050560523
35	0xbdc9de98	-0.098569095
36	0x3cc58218	0.024109885
37	0xbbe3ec86	-0.006955686
38	0xbd8779ad	-0.06615005
39	0x3cbbf321	0.022943081
40	0x3cbea346	0.023271214
41	0xbd3da2c6	-0.04629781
42	0xbce0c2b2	-0.027436588
43	0xbd78d765	-0.06075229
44	0xbda977d1	-0.08274806
45	0xbc9f1325	-0.019418309
46	0xbd80606a	-0.062683895
47	0x3d0fd5b8	0.035115927
48	0xbdc9663c	-0.09833953
49	0xbd8fc078	-0.070191324
50	0x3dd6c435	0.10486642
51	0x3d7c218b	0.061555427
52	0x3d70554a	0.058675088
53	0x3c729d57	0.014808021
54	0x3cd76d2b	0.026297173
55	0xbcbeb862	-0.02328128
56	0xbba88f3c	-0.005144028
57	0x3dad9025	0.08474759
58	0x3895e844	7.1481365e-05
59	0xbd6b45c8	-0.057439595
60	0xbd0e489f	-0.034737226
61	0x3c4248ba	0.01185816
62	0xbd9f0071	-0.07763756
63	0xbd2f01a3	-0.04272617
64	0xbcd9fd77	-0.02661012
65	0x3d3043eb	0.04303352
66	0xbda5875c	-0.080824584
67	0xbca701fb	-0.020386687
68	0x3b9cf300	0.00478971
69	0xbbb035cd	-0.0053775073
70	0x3cf3e454	0.029771961
71	0xbd99bbdf	-0.07506537
72	0x3d444f05	0.04792692
73	0x3d6c3d73	0.05767579
74	0xbd511ab7	-0.051050868
75	0xbd702f81	-0.058639053
76	0x3d82d005	0.06387333
77	0xbc363fbe	-0.011123596
78	0xbd8ee6d8	-0.06977624
79	0x3c3ddc8a	0.011588225
80	0x3d46c520	0.048527837
81	0x3cb1e266	0.0217144
82	0xbd7190bf	-0.05897593
83	0x3c0bf607	0.008542544
84	0x3d373fdb	0.04473863
85	0x3dbf8e6d	0.093533374
86	0xbd3d188c	-0.046165988
87	0xbda56ac6	-0.08077006
88	0x3d924504	0.0714207
89	0xbd57ece2	-0.052716143
90	0xbb454aad	-0.0030104325
91	0x3d41320b	0.047166865
92	0xbcb0a2c1	-0.021561982
93	0xbd9bcbe9	-0.07607252
94	0xbb05eb43	-0.0020434416
95	0x3ca7aaf4	0.020467259
96	0x3d1dc917	0.038521852
97	0xbc844405	-0.016145715
98	0x3d5ec384	0.054385677
99	0xbc956739	-0.018237697
100	0xbd3bdd99	-0.04586563
101	0x3d619205	0.055070896
102	0xbd518687	-0.051153686
103	0x3c9b39ba	0.018948425
104	0x3d1a2b1e	0.037638776
105	0xbd95b7a6	-0.07310419
106	0xbd9803ab	-0.074225746
107	0xbd77719f	-0.060411092
108	0xbd87fec0	-0.066403866
109	0x3d7b4132	0.061341472
110	0xbda51af2	-0.0806178
111	0x3c856965	0.016285608
112	0x3b187db7	0.0023268291
113	0x3d9351cd	0.07193337
114	0xbd92d784	-0.071700126
115	0x3b80d6e5	0.0039318674
116	0x3d4ca21a	0.04995928
117	0x3bc027cd	0.0058641196
118	0x3d03c66c	0.03217165
119	0xbd0db36c	-0.03459494
120	0x3d6671d3	0.056260895
121	0xbcb3b544	-0.02193702
122	0xbb62c893	-0.0034604415
123	0xbd938a18	-0.07204074
124	0xbc89d928	-0.016827181
125	0x3d5af3d4	0.05345519
126	0xbd0bca15	-0.034128267
127	0x3d9bd264	0.07608488
128	0x3d7cb9c5	0.0617006
129	0x3bbc273a	0.005741981
130	0x3d5f0c40	0.054455042
131	0xbcad506f	-0.021156518
132	0xbd0fa11d	-0.03506576
133	0xbdbfed09	-0.09371383
134	0x3b413b08	0.0029484648
135	0xbb8e1661	-0.004336164
136	0x3d94018e	0.07226859
137	0xbdd97fa9	-0.10620052
138	0x3b9b4794	0.0047387574
139	0xbdc60abb	-0.096700154
140	0xbcc60e99	-0.024176883
141	0x3bbca5cd	0.0057570697
142	0xbd3a4674	-0.045477346
143	0xbc214711	-0.009843604
144	0xbc884092	-0.016632352
145	0x3d823547	0.06357818
146	0x3c1c9ea8	0.009559311
147	0x3d621ac7	0.055201318
148	0xbd89fadc	-0.06737301
149	0x3d8d7c2f	0.06908452
150	0x3cf1b715	0.029506246
151	0x3bb5ed48	0.005551968
152	0x3ceb0644	0.028689511
153	0x3c994996	0.018711846
154	0x3a9cc192	0.0011959544
155	0xbd9b2f8f	-0.075774305
156	0x3d465a55	0.04842599
157	0x3d0236cb	0.031790536
158	0x3dde9ec5	0.10870127
159	0xbade8e48	-0.0016979659
160	0xbce6807b	-0.028137436
161	0xbd414d14	-0.047192648
162	0x3d915588	0.07096392
163	0xbd732934	-0.059365466
164	0x3d2a8954	0.041634873
165	0xbd53fc56	-0.05175432
166	0x3c60051e	0.013673095
167	0xbda68288	-0.081303656
168	0xbd6fb7e9	-0.058525
169	0xbd904539	-0.07044453
170	0x3d05e20b	0.032686274
171	0xbd9be759	-0.076124854
172	0x3ca2cc48	0.0198728
173	0x3d94e7c5	0.07270769
174	0xbc66988f	-0.014074459
175	0xbcc82705	-0.024432668
176	0xbc27583b	-0.010213907
177	0xbd1501a8	-0.036378533
178	0xbd3d57d8	-0.046226352
179	0x3c5a557f	0.013326048
180	0x3ce78adc	0.028264455
181	0x3d9714fa	0.07377048
182	0xbda9244a	-0.08258875
183	0x3b85f043	0.0040874793
184	0xbd9ae80f	-0.07563793
185	0x3b8e68ab	0.0043459735
186	0x3d8f284b	0.06990107
187	0xbd9d8e02	-0.076931015
188	0xbc09abcd	-0.008402777
189	0x3d9848cf	0.07435762
190	0x3d1727ff	0.036903378
191	0xbda32c44	-0.079674274
192	0x3b0e6388	0.0021726806
193	0x3c731c0a	0.014838228
194	0xbd7f3e28	-0.062315136
195	0xbd7e22e8	-0.062045008
196	0xbc299d91	-0.010352508
197	0xbd1a9f89	-0.0377498
198	0x3d1ddabf	0.03853869
199	0x3db31290	0.08743775
200	0xbd6fb528	-0.058522373
201	0x3cb02a21	0.021504464
202	0xbd8902d9	-0.06689996
203	0x3d2aa178	0.041657895
204	0x3db00325	0.0859435
205	0x3dcbb7c7	0.09947162
206	0x3d02c0f3	0.031922292
207	0xbd0d0c73	-0.0344357
208	0xbd4c16c1	-0.049826387
209	0xbd9d7b3f	-0.07689523
210	0x3d1a8bab	0.037730854
211	0xbdf4c54e	-0.119516954
212	0xbd449368	-0.04799214
213	0x3dae3701	0.08506585
214	0x3cc2b804	0.023769386
215	0xbd6202c2	-0.05517841
216	0x3d098468	0.033573538
217	0x3d860624	0.0654414
218	0xbc453207	-0.012035853
219	0x3dbfd788	0.09367281
220	0x3b4a8607	0.003090264
221	0xbd1eed06	-0.038800262
222	0x3c25a654	0.0101104565
223	0x3bbe0260	0.005798623
224	0x3d9c2741	0.076246746
225	0xbca7874e	-0.02045026
226	0x3cf68417	0.030092282
227	0xbd7cc5b8	-0.061711997
228	0xbcfb9109	-0.030708807
229	0x3c6a2403	0.014290812
230	0xbd0d46b4	-0.034491256
231	0xbd80935e	-0.06278108
232	0xbd80c3f7	-0.06287377
233	0x3c6dea57	0.014521203
234	0x3d50d358	0.050982803
235	0xbd98b6b4	-0.07456723
236	0x3cdec77a	0.027194727
237	0x3d10d8fc	0.035363182
238	0xbd2531f6	-0.04033085
239	0xbdb1e118	-0.08685511
240	0x3d836f16	0.06417672
241	0x3c060a8f	0.008181228
242	0x3d8612c1	0.06546546
243	0xbd33524e	-0.043779664
244	0xbdaebc8b	-0.085320555
245	0x3d4559fd	0.048181523
246	0x3c45f1db	0.012081589
247	0x3d48e808	0.049049407
248	0xbd3ff9ab	-0.04686896
249	0x3d652f3b	0.055953246
250	0xbd6a91f7	-0.05726811
251	0x3c17c2b9	0.009262734
252	0xbd77a58a	-0.060460605
253	0x3dac180f	0.08403026
254	0xbd8cf63f	-0.06882905
255	0xbd3ab847	-0.045585897

_module.layer3.0.bias f4 [64]
0	0xbda1dcd0	-0.07903445
1	0xbd92e266	-0.07172088
2	0x3dac581d	0.08415244
3	0x3d84ffcf	0.06494104
4	0xbd5418d3	-0.051781487
5	0x3d8bbbb7	0.06822913
6	0xbcdcd7b3	-0.026958322
7	0xbd18c485	-0.03729679
8	0xbce76765	-0.028247545
9	0xbdaffc32	-0.08593024
10	0xbc0bb4eb	-0.008527021
11	0xbd56246d	-0.052280832
12	0xbd2539d0	-0.040338337
13	0xbc424ce9	-0.011859157
14	0xbd088f67	-0.033339884
15	0x3d1998b4	0.037499145
16	0x3db18d07	0.08669477
17	0xbcf86af6	-0.03032444
18	0x3d0a7460	0.03380239
19	0x3d34351e	0.04399597
20	0x3baf829d	0.0053561465
21	0x3d1a99fd	0.03774451
22	0xbb58a2d2	-0.0033056033
23	0x3ce0b686	0.027430784
24	0xbd43150e	-0.0476275
25	0x3ced21b7	0.02894674
26	0xbcd3c744	-0.025851853
27	0xbd18a563	-0.0372671
28	0x3d9e8ae1	0.07741333
29	0x3d555518	0.052083105
30	0x3d4d5580	0.050130367
31	0xbd231f27	-0.03982463
32	0xbd8b8f51	-0.06814445
33	0x3c9c0943	0.019047385
34	0x3d82deb3	0.06390133
35	0xbdd4e4a0	-0.10395169
36	0x3d4d049b	0.05005322
37	0xbd855c97	-0.06511801
38	0x3d84b703	0.06480219
39	0xbd046529	-0.032323036
40	0x3c0b57b0	0.008504793
41	0xbd8b8d4d	-0.0681406
42	0xbcbdcab8	-0.023167953
43	0x3ce8fc59	0.028440641
44	0x3d775329	0.060382042
45	0xbd0d2f25	-0.03446879
46	0xbd9e78ea	-0.07737906
47	0xbdaf497d	-0.08558939
48	0xbdb04e06	-0.08608632
49	0xbd59d75f	-0.05318391
50	0xbd3053e6	-0.04304876
51	0xbb176be4	-0.002310508
52	0xbd86a008	-0.06573492
53	0x3c9f0c25	0.01941497
54	0xbd00fe0b	-0.031492274
55	0xbd699cb6	-0.057034217
56	0x3da55bbb	0.08074137
57	0x3d2dffa6	0.042480133
58	0xbb826c66	-0.0039802073
59	0x3cf1cfcd	0.029518032
60	0x3d52fa99	0.05150852
61	0xbd07071c	-0.032965764
62	0x3cadd52b	0.02121981
63	0x3ca9c988	0.02072598

_module.layer3.1.weight f4 [64]
0	0x3f8039f5	1.0017687
1	0x3f7777e1	0.96667296
2	0x3f807b1c	1.003757
3	0x3f7ba360	0.98296165
4	0x3f8099c7	1.0046929
5	0x3f81bb8a	1.0135357
6	0x3f8166d6	1.0109508
7	0x3f84ffcd	1.0390564
8	0x3f83c7de	1.029537
9	0x3f843d5c	1.0331225
10	0x3f7ead3e	0.99483097
11	0x3f7e4177	0.9931864
12	0x3f8158cc	1.0105224
13	0x3f82b216	1.0210598
14	0x3f7acaf8	0.97965956
15	0x3f838623	1.027531
16	0x3f810826	1.0080612
17	0x3f80f048	1.0073328
18	0x3f7bbc91	0.98334605
19	0x3f7e532b	0.99345654
20	0x3f7688ed	0.9630268
21	0x3f7a9ed5	0.9789861
22	0x3f81a650	1.012888
23	0x3f82002e	1.0156305
24	0x3f82e84c	1.0227141
25	0x3f802f20	1.0014381
26	0x3f86c83d	1.0529858
27	0x3f7b5e62	0.9819089
28	0x3f7c662d	0.9859341
29	0x3f83bbe7	1.0291718
30	0x3f816418	1.0108671
31	0x3f864a72	1.0491469
32	0x3f815e47	1.0106896
33	0x3f7dd363	0.99150676
34	0x3f7d3dfc	0.98922706
35	0x3f83047a	1.0235741
36	0x3f833f2e	1.0253656
37	0x3f7e56d5	0.99351245
38	0x3f7da94a	0.9908644
39	0x3f78851f	0.97078127
40	0x3f82f810	1.0231953
41	0x3f7f5df7	0.99752754
42	0x3f760833	0.9610626
43	0x3f7aaa50	0.97916126
44	0x3f7e1516	0.99250925
45	0x3f82bd91	1.0214101
46	0x3f7836e2	0.96958745
47	0x3f7a03c6	0.9766201
48	0x3f81d285	1.014237
49	0x3f805992	1.0027335
50	0x3f7cf17c	0.98805976
51	0x3f81c4c7	1.0138177
52	0x3f800365	1.0001036
53	0x3f82d041	1.0219804
54	0x3f7d0a6b	0.9884402
55	0x3f83e29e	1.0303533
56	0x3f803f2e	1.0019281
57	0x3f822000	1.0166016
58	0x3f7e0edf	0.9924144
59	0x3f7d3c19	0.98919827
60	0x3f85cd06	1.0453193
61	0x3f7d6e77	0.9899668
62	0x3f7cadc1	0.9870263
63	0x3f830205	1.0234991

_module.layer3.1.bias f4 [64]
0	0x3d046af1	0.03232855
1	0xbc926b64	-0.017873473
2	0x3aae74e4	0.0013309983
3	0xbc3bf00e	-0.011470808
4	0x3c608e51	0.013705806
5	0xbb580524	-0.0032962048
6	0xbac8c138	-0.0015316373
7	0x3bd6346d	0.0065370114
8	0x3c082954	0.008310635
9	0x3c8f7faa	0.01751693
10	0x3d0f07bf	0.034919497
11	0xbb528c58	-0.0032127108
12	0xbc428818	-0.011873268
13	0xbccf5190	-0.025307447
14	0x3a21a3e4	0.0006166084
15	0x3cede899	0.029041575
16	0x3cb13da7	0.021635843
17	0x3c0d0c8b	0.0086089475
18	0xbc8e7ab1	-0.017392488
19	0x3baebfd6	0.005332927
20	0x3c6877a1	0.014188678
21	0x3bb4c06e	0.0055161035
22	0x3c4e1265	0.012577628
23	0x3c966d75	0.01836274
24	0xbc410c4b	-0.011782716
25	0x3cb39ff2	0.021926854
26	0x3b7b1f40	0.0038318187
27	0xbc7af375	-0.015316834
28	0x3cc28fcc	0.023750208
29	0x3c828f12	0.015937362
30	0x3d71e6af	0.059057888
31	0xbbd931ce	-0.0066282516
32	0x3c3aaeb5	0.011394192
33	0x3cd6dc02	0.026227955
34	0x3cf3d674	0.029765345
35	0xbcb8c2c7	-0.022553815
36	0x3c8333c4	0.016015895
37	0x3d1009da	0.035165645
38	0x3b8c2477	0.004276808
39	0xba5d4a5a	-0.000844156
40	0x3d5b98a6	0.053612374
41	0xbadb468c	-0.0016729399
42	0x3c23e406	0.0100030955
43	0x3bad6700	0.0052918196
44	0xbbff73e4	-0.0077957977
45	0xbb972213	-0.0046122163
46	0xbb8f62ef	-0.0043758075
47	0x3bfdf37c	0.007749973
48	0xbcbc98b9	-0.023022043
49	0xbbfd147d	-0.0077233897
50	0x3ab11e7c	0.0013513113
51	0xbc05f2d5	-0.008175571
52	0x3b058842	0.0020375405
53	0xbb08a633	-0.0020851016
54	0x3be53ca7	0.0069957557
55	0xbc43318b	-0.011913667
56	0x3c906817	0.017627759
57	0xbcdc343c	-0.026880376
58	0xbc02e63b	-0.0079894615
59	0xbd2512d6	-0.040301166
60	0x3c1508db	0.00909635
61	0xb9a3ab58	-0.00031217444
62	0xbc647e77	-0.013946167
63	0xbac40f87	-0.0014958241

_module.layer4.0.weight f4 [64, 64, 3, 3]
0	0xbd151328	-0.036395222
1	0xbc2f7916	-0.0107100215
2	0x3c9c3719	0.019069241
3	0xbb5fbc0f	-0.0034139191
4	0x3bffb556	0.0078035994
5	0xbc3ff1fd	-0.011715409
6	0xbd0a098a	-0.033700503
7	0x3ba7b00c	0.005117422
8	0x3c127a5f	0.008940308
9	0x3bfc12ac	0.0076926555
10	0x3d258c9b	0.040417295
11	0xbc360149	-0.011108705
12	0xbbf240fa	-0.0073929997
13	0xbc74c074	-0.0149384625
14	0x3d91525c	0.07095787
15	0xbca8d11b	-0.020607522
16	0x3cf8c19a	0.030365754
17	0xbc879e6c	-0.016555034
18	0x3bf0d319	0.0073493836
19	0x3d42246c	0.047398016
20	0xbd2fdfe2	-0.04293812
21	0xbc2e7c19	-0.010649704
22	0xbd0ccdf5	-0.034376103
23	0x3d470598	0.04858932
24	0xbd36322f	-0.044481453
25	0x3c6f1bf8	0.014594071
26	0x3a8c7660	0.0010716431
27	0xbd25d359	-0.04048476
28	0x3d165881	0.036705498
29	0xbd39c1ed	-0.045350958
30	0x3b1e7439	0.002417816
31	0xbc633663	-0.013867947
32	0x3d3807e4	0.0449294
33	0x3c6de1fa	0.014519209
34	0x3d0bd6f8	0.034140557
35	0x3d10fcfb	0.03539751
36	0xbd0a5c1e	-0.033779256
37	0xbcf9c855	-0.030491034
38	0x3c9ba443	0.018999225
39	0x3d71d789	0.05904344
40	0x3cb3c9d2	0.021946821
41	0x3c68ee68	0.014216997
42	0x3c655016	0.013996145
43	0x3cd20011	0.025634797
44	0x3ce613e5	0.028085658
45	0x3ce1f2fd	0.027581686
46	0x3c5e447e	0.0135661345
47	0x3c570223	0.013123068
48	0xbcd00578	-0.025393233
49	0xbc7eb84d	-0.01554687
50	0x3cf5bf16	0.029998343
51	0x3d145002	0.036209114
52	0xbd21b729	-0.039481316
53	0xbd6e9f60	-0.05825746
54	0xbd204439	-0.039127562
55	0xbc4b8298	-0.012421273
56	0x3bf8618b	0.0075799874
57	0x3ccd9dbe	0.025099631
58	0xbb607059	-0.0034246652
59	0x3d0180c6	0.03161695
60	0x3c976cea	0.018484551
61	0xbc1e45c8	-0.009660192
62	0x3c943ac9	0.018094437
63	0x3d234d5f	0.03986871
64	0xbd327506	-0.043568633
65	0x3c282167	0.01026187
66	0x3bd16c88	0.0063911118
67	0xbcb858a0	-0.022503197
68	0x3c4b152f	0.012395187
69	0x3d384270	0.044985235
70	0x3d1e5415	0.038654406
71	0xbd6fa9e8	-0.058511645
72	0x3d895326	0.067053124
73	0x3cfef3fd	0.031122202
74	0xbc884371	-0.016633721
75	0x3cca6eca	0.024711031
76	0x3c25b95a	0.010114992
77	0x3ce9057e	0.028445002
78	0x3d0fd042	0.03511072
79	0x3c0e46ec	0.008683901
80	0x3c1b792c	0.009489339
81	0xbc26c4fb	-0.0101788
82	0xbcb462c6	-0.022019755
83	0x3d4bc6a4	0.049749985
84	0x3be87824	0.0070944
85	0xbd239a78	-0.039942235
86	0x3a198bfd	0.00058573467
87	0x3ba73937	0.005103256
88	0x3bb5e57b	0.005551038
89	0x3c849041	0.016182067
90	0xbcd92080	-0.026504755
91	0x3d17b592	0.037038393
92	0x3d5126bd	0.051062334
93	0xbd821585	-0.06351761
94	0xbc8481f8	-0.016175255
95	0xbd1bee8e	-0.0380693
96	0xbb916ff7	-0.004438396
97	0xbcee1b86	-0.029065859
98	0xbc6a7371	-0.01430975
99	0x3b5dc68c	0.0033840267
100	0x3d2c8dbe	0.042127363
101	0xbcaf6555	-0.021410624
102	0x3c75ff68	0.015014507
103	0x3ce00ef5	0.027350882
104	0xbc26ff12	-0.010192649
105	0xbbd7e837	-0.0065889615
106	0x3d4ef1a9	0.050523434
107	0x3d83ee68	0.06441957
108	0x3d8788d8	0.06617898
109	0x39712b0a	0.00022999584
110	0x3d29ce25	0.04145636
111	0x3d20ad36	0.039227687
112	0x3d01fe1d	0.031736482
113	0xbd36c0ad	-0.044617344
114	0x3cdd93ce	0.027048018
115	0xba6cd801	-0.00090348726
116	0x3c704cfd	0.014666793
117	0xbccbd6c8	-0.02488269
118	0x3d53762c	0.05162637
119	0xbd16f19b	-0.036851507
120	0x3b8db214	0.004324207
121	0xbd88c906	-0.06678967
122	0xbc1f4941	-0.009722055
123	0x3c897339	0.016778575
124	0xbc160843	-0.009157243
125	0xbb9b5e4d	-0.004741466
126	0xbba0ec04	-0.0049109478
127	0xbcc62b5c	-0.024190597
128	0x3be0ce1c	0.0068605077
129	0x3c7dbea3	0.015487346
130	0xbd8d85e7	-0.069103055
131	0x3cfa4e36	0.030554872
132	0x3d27c70e	0.040961318
133	0xbc84b0c4	-0.01619757
134	0x3c665f90	0.01406087
135	0x3c98ce99	0.018653201
136	0xbc49f64f	-0.012326791
137	0xbc718372	-0.014740812
138	0xbcbdb715	-0.02315859
139	0xbcdede83	-0.027205711
140	0x3d225d9b	0.03964005
141	0x3aa22ea2	0.0012373517
142	0x3d2a9199	0.04164276
143	0xbcd66e53	-0.026175654
144	0xbcf8579c	-0.030315213
145	0xbb4b8a06	-0.003105761
146	0xbc8c3b8c	-0.017118238
147	0x3b94be3e	0.00453928
148	0xbd1de9dd	-0.038553108
149	0xbd06a0e9	-0.0328683
150	0x3b5877ba	0.0033030347
151	0x3cdcac0b	0.026937505
152	0x3d55ea34	0.052225307
153	0xbd4fc7d0	-0.050727665
154	0x3c8f47e1	0.01749033
155	0xbbcee0a1	-0.006313399
156	0x3c8ca692	0.01716927
157	0xbcd71cbd	-0.02625882
158	0xbc9bfbec	-0.019041024
159	0x3b05c99d	0.002041436
160	0xbc939198	-0.01801376
161	0xbd122357	-0.035678234
162	0x3ca4461d	0.020052964
163	0xbbd639fe	-0.006537675
164	0xbcdd3433	-0.02700243
165	0x3c3d394a	0.011549303
166	0x3cad763f	0.021174548
167	0xbc64074b	-0.013917754
168	0xbcb9b7ef	-0.022670714
169	0xbcd8bdc2	-0.026457671
170	0xbb8942a4	-0.0041888524
171	0xbcd6a6e1	-0.026202621
172	0x3ca58a07	0.020207418
173	0x3cb0fa32	0.021603677
174	0xbc8f9e49	-0.017531531
175	0x3d44d203	0.048051845
176	0x3d54c41f	0.05194485
177	0x3db7585c	0.089524
178	0x3c3f4967	0.011675215
179	0x3cd0ca75	0.025487164
180	0xbc7183a9	-0.014740863
181	0xbca77e24	-0.02044589
182	0xbc83b8aa	-0.016079266
183	0xbd7e370d	-0.06206422
184	0xbd1a575e	-0.037680976
185	0xbc3bbcc1	-0.011458577
186	0x3d163d51	0.03667957
187	0x3c81276a	0.015765864
188	0x3c377aa0	0.01119867
189	0x3c11bdbe	0.008895336
190	0xbd094f16	-0.033522688
191	0xbc3784c5	-0.011201088
192	0xbd48199f	-0.04885256
193	0x3d06b392	0.032886095
194	0xbcddff01	-0.027099134
195	0xbc41557d	-0.011800167
196	0xbadd2c89	-0.0016874234
197	0xbd1d8ff4	-0.038467363
198	0x3d516382	0.05112029
199	0xbc5e72ff	-0.013577222
200	0x3a1ecb7c	0.0006057543
201	0x3d233cf5	0.039853055
202	0x3d31cf88	0.043410808
203	0xbd4f5701	-0.050620083
204	0xbce7e137	-0.028305633
205	0x3d25a137	0.04043695
206	0xbb263b9a	-0.0025365115
207	0x3cf24df7	0.029578192
208	0x3d22dc02	0.039760597
209	0x3ccfeef0	0.025382489
210	0x3d30dd86	0.04318001
211	0xbd0df04a	-0.034652986
212	0x3d030223	0.03198446
213	0xbcbf9dfa	-0.023390759
214	0xbcfcbf18	-0.03085284
215	0x3c577b2d	0.013151926
216	0xba8d1a00	-0.0010765195
217	0xbc928fbe	-0.017890807
218	0xbcce1ef5	-0.025161246
219	0x3bd46970	0.0064822957
220	0x3c9c0a2c	0.01904782
221	0x3ab1f635	0.0013577404
222	0x3cbb7f52	0.02288786
223	0xbd103b9b	-0.035213094
224	0x3b45a0a7	0.003015557
225	0xbcd9b2cf	-0.02657452
226	0xbced9b64	-0.02900476
227	0x3c1e1049	0.009647437
228	0xbcfc59f9	-0.030804621
229	0xbc778a0a	-0.015108595
230	0xbbfdba77	-0.0077431756
231	0xbc448c46	-0.011996334
232	0x3c283974	0.010267604
233	0x3d343199	0.043992613
234	0x3cb2b579	0.021815049
235	0xbc113a9b	-0.00886407
236	0xbc96d770	-0.018413275
237	0x3c10b136	0.008831313
238	0x3b838cef	0.0040146033
239	0x3d3b1440	0.04567361
240	0x3d054548	0.032536775
241	0x3c82a75b	0.015948942
242	0xbbfa2cb9	-0.007634726
243	0x3d6541fa	0.055971123
244	0xbcd053e4	-0.025430627
245	0xbcbbef16	-0.022941153
246	0x3a1ded2f	0.0006024418
247	0xbcaa043a	-0.020753969
248	0xbce6a8ed	-0.028156722
249	0x3c632cf0	0.013865694
250	0xbb7ba5f4	-0.0038398476
251	0x3cc31711	0.02381471
252	0x3b96e736	0.004605199
253	0xbd6515ec	-0.05592911
254	0x3d2a3149	0.04155091
255	0x3cb58eed	0.022162879

_module.layer4.0.bias f4 [64]
0	0x3d395b63	0.04525317
1	0xbc631e35	-0.013862182
2	0x3b39e4d3	0.002836515
3	0x3b058149	0.002037125
4	0x3d84122a	0.06448777
5	0x3c165c95	0.009177347
6	0xbbc356e6	-0.005961287
7	0xbcebcd58	-0.028784439
8	0x3b3f4ae0	0.0029188916
9	0xbc995007	-0.018714918
10	0x3cf22c96	0.029562276
11	0xbd18f388	-0.037341624
12	0xbd53e6f6	-0.051733933
13	0xbc2d540f	-0.010579123
14	0x3d4c245e	0.04983937
15	0x3c4ece0d	0.0126223685
16	0x3ce64cb7	0.028112752
17	0xbc63e028	-0.0139084235
18	0xbb064b6e	-0.0020491737
19	0xbd17e452	-0.037082978
20	0x3c861ef7	0.016372187
21	0xbcbf9d49	-0.02339043
22	0x3ce69cf0	0.028151006
23	0x3d63fa57	0.055658665
24	0xbc3d3921	-0.011549265
25	0xbcc01930	-0.02344951
26	0xbc304690	-0.010759011
27	0x3d2c3fc9	0.042053018
28	0x3c9c3d1c	0.019072108
29	0x3d4c4361	0.049868945
30	0xbb8bc334	-0.0042652134
31	0xbcf593d1	-0.02997771
32	0xbc8f80d8	-0.017517492
33	0xbc5660bf	-0.0130845895
34	0x3c294915	0.0103323655
35	0xbd0f3be3	-0.03496922
36	0xbd235f06	-0.039885543
37	0xbd47a0e4	-0.04873742
38	0xbc71adf2	-0.014750944
39	0xbd062d4f	-0.032758053
40	0xbcc58df6	-0.024115544
41	0xbc559e12	-0.013038175
42	0xbd2b3679	-0.041799996
43	0xbc77be48	-0.01512105
44	0x3c6d8494	0.014496941
45	0x3ca526c0	0.020160079
46	0x3c0ecc52	0.008715706
47	0x3c5a421d	0.013321427
48	0xbc8e8838	-0.017398939
49	0x3bdd32e3	0.006750451
50	0xbcbfd9c0	-0.023419261
51	0xbcd681a1	-0.026184859
52	0xbbc77632	-0.006087088
53	0xba8c5eaf	-0.001070937
54	0xbc88c3ed	-0.016694987
55	0x3d0036a6	0.031302117
56	0xbd4267b0	-0.047462165
57	0xbb1dae58	-0.0024060216
58	0xbd765600	-0.06014061
59	0xbbd2f739	-0.0064381626
60	0x38e71855	0.000110194705
61	0xbd607313	-0.054797243
62	0x3d32607b	0.043549042
63	0x3d4d862c	0.050176784

_module.layer4.1.weight f4 [64]
0	0x3f80e538	1.0069952
1	0x3f7ec383	0.9951708
2	0x3f7b76e3	0.9822828
3	0x3f7a8c43	0.9787027
4	0x3f82420f	1.017641
5	0x3f7cdf08	0.9877782
6	0x3f843f9a	1.033191
7	0x3f823b5d	1.0174366
8	0x3f81b5ba	1.0133584
9	0x3f7a4725	0.9776481
10	0x3f7f5b0e	0.99748313
11	0x3f7d0d9c	0.9884889
12	0x3f84f672	1.0387709
13	0x3f7f1b17	0.9965071
14	0x3f80f803	1.0075687
15	0x3f813a4e	1.0095918
16	0x3f7f9897	0.9984221
17	0x3f7dcfb7	0.9914507
18	0x3f80d79b	1.0065798
19	0x3f7e51f2	0.9934379
20	0x3f73f7dd	0.95300084
21	0x3f7747a2	0.9659368
22	0x3f77cbc1	0.9679528
23	0x3f8029c1	1.0012742
24	0x3f7fcb04	0.9991915
25	0x3f812c21	1.0091592
26	0x3f7f4535	0.99714977
27	0x3f809258	1.004466
28	0x3f819837	1.0124577
29	0x3f7e74c2	0.9939691
30	0x3f7619cb	0.96133107
31	0x3f81b8a4	1.0134473
32	0x3f8388ee	1.0276163
33	0x3f85c7df	1.0451621
34	0x3f83d116	1.0298183
35	0x3f8411e7	1.0317963
36	0x3f7e59e9	0.9935594
37	0x3f77408f	0.96582884
38	0x3f7b28c7	0.98109096
39	0x3f7e175d	0.992544
40	0x3f8444fc	1.0333552
41	0x3f800fd9	1.0004836
42	0x3f7da0d6	0.9907354
43	0x3f7f1080	0.9963455
44	0x3f7dfb34	0.9921143
45	0x3f7977ba	0.97448313
46	0x3f7c06b4	0.9844773
47	0x3f83c374	1.0294023
48	0x3f7e072b	0.9922969
49	0x3f826795	1.0187861
50	0x3f7c5e6b	0.9858157
51	0x3f7e380e	0.9930428
52	0x3f81e912	1.0149252
53	0x3f83ae07	1.0287484
54	0x3f808b30	1.0042477
55	0x3f8276df	1.0192527
56	0x3f7abcf9	0.979446
57	0x3f7a3b16	0.9774641
58	0x3f80dfa5	1.0068251
59	0x3f7ddd1d	0.9916552
60	0x3f80ee35	1.0072695
61	0x3f7a6025	0.97802955
62	0x3f7f4e81	0.9972916
63	0x3f816daf	1.0111598

_module.layer4.1.bias f4 [64]
0	0x3bf4bec5	0.0074690306
1	0x3c15cd49	0.009143182
2	0xbb2420dd	-0.0025044002
3	0x3c98bbd7	0.018644257
4	0xbcd9409a	-0.026520062
5	0xbcd8fa3e	-0.026486512
6	0xbc146a50	-0.00905855
7	0xbbe41911	-0.006960996
8	0xba8561ae	-0.0010176206
9	0x39a27bb4	0.00030991214
10	0x3cbfd29c	0.023415856
11	0x3bed6b26	0.007245439
12	0xbba3b5fd	-0.00499606
13	0xbc9ee906	-0.019398224
14	0xbbddd694	-0.0067699645
15	0xbc85b3ee	-0.016321149
16	0x3935eef0	0.00017350516
17	0xbd003639	-0.03130171
18	0x3cafdf96	0.021468919
19	0xbb9bd6a6	-0.0047558127
20	0xbc86a681	-0.016436817
21	0xbae80de1	-0.0017704332
22	0xbd010257	-0.031496372
23	0x3d32da43	0.04366518
24	0x3a610c40	0.0008584894
25	0xbcc74046	-0.02432264
26	0xbd151bf3	-0.036403608
27	0x3c1b11d2	0.009464698
28	0xbbe78d6d	-0.00706642
29	0x3d24bf5a	0.04022155
30	0x3d172d0c	0.036908194
31	0x3d0d40dd	0.034485687
32	0xbc1c1534	-0.00952654
33	0x3c5943a0	0.013260752
34	0xbb1a6fee	-0.002356525
35	0xbc57c71f	-0.013170033
36	0xbc54718b	-0.012966524
37	0x3c6300e8	0.013855197
38	0xbbe65904	-0.0070296545
39	0xbaafea1e	-0.0013421213
40	0xbd850c10	-0.06496441
41	0xbc309343	-0.010777297
42	0xbb5701aa	-0.0032807388
43	0xbbfbf61b	-0.00768925
44	0x3d820e62	0.063503996
45	0x3b8d4033	0.0043106317
46	0x3c518aca	0.012789438
47	0x3b0e583d	0.0021720075
48	0xbc805f7b	-0.015670529
49	0xbc386a00	-0.011255741
50	0x3d0d5c83	0.034512054
51	0x3bd5d40a	0.006525521
52	0xbce7314b	-0.028221747
53	0x3cd34422	0.025789324
54	0x3a4da472	0.00078446337
55	0xbc3ee8fc	-0.0116522275
56	0x3cbfeac4	0.023427375
57	0xbb1d30b9	-0.002398534
58	0x3bbcc104	0.005760314
59	0xbb2a45ff	-0.0025981662
60	0xbbf9a96e	-0.0076190745
61	0x3c6f1862	0.014593216
62	0xbcdb8c74	-0.026800372
63	0xbae2c0aa	-0.001729985

_module.layer5.0.weight f4 [64, 64, 3, 3]
0	0x3a87917f	0.0010343044
1	0xbd1a8cdf	-0.037732
2	0x3ccf945f	0.025339304
3	0xba2bc938	-0.0006553116
4	0xbaf73c0c	-0.00188625
5	0x3becd93d	0.0072280453
6	0xbc955c1f	-0.018232403
7	0x3c38f825	0.011289631
8	0xbc927e3b	-0.017882457
9	0x3cc543a7	0.02408011
10	0x3bb09423	0.005388753
11	0xbce6ea06	-0.028187763
12	0x3d7b95d1	0.061422173
13	0xbd7455f9	-0.059652302
14	0xbb91f8a7	-0.0044546905
15	0x3ba1f634	0.00494268
16	0xbd4f2c5d	-0.050579417
17	0xbce1d437	-0.027567012
18	0xbc7c55cd	-0.015401316
19	0xbc8c5f3c	-0.017135255
20	0x3bf640e6	0.0075150607
21	0xbd3f36eb	-0.046683233
22	0xbb50fd79	-0.0031889363
23	0x3c152865	0.009103869
24	0x3cff033b	0.03112947
25	0x3d28bb5a	0.041194297
26	0x3c973bd2	0.018461142
27	0x3cc15268	0.023598865
28	0xbcec6c62	-0.028860275
29	0xbd134cf5	-0.035962064
30	0xbd144726	-0.036200665
31	0x3c99a46a	0.018755157
32	0xbce3b71b	-0.027797272
33	0xbb0e5a27	-0.0021721215
34	0xbd4a4b9a	-0.049388506
35	0x3c86e7ae	0.016467895
36	0x3d30db9d	0.04317819
37	0x3bc1f68c	0.0059192833
38	0xbc74289f	-0.014902263
39	0xbd1ff80d	-0.03905492
40	0x3c52f3c5	0.012875502
41	0xbd1ee143	-0.038789045
42	0x3c896c49	0.016775267
43	0x3c2e8f71	0.010654316
44	0xba7d8fa8	-0.00096725905
45	0xbbf39a1c	-0.0074341428
46	0xbc950ec0	-0.01819551
47	0x3d0ec452	0.034855194
48	0x3d100612	0.03516204
49	0x3cdcf7c0	0.026973605
50	0xbd4f8c74	-0.050671056
51	0x3c984de0	0.018591821
52	0x3cf304b0	0.029665321
53	0xbd0ffa21	-0.03515065
54	0x3d345ab1	0.044031803
55	0xbcc65ef6	-0.024215203
56	0x3ca2bd10	0.019865543
57	0xbd02ce14	-0.031934813
58	0xbd504a7c	-0.050852284
59	0x3d483013	0.048873972
60	0x3d63ed0b	0.055645984
61	0xbc614696	-0.013749739
62	0xbc91c775	-0.017795304
63	0x3d207d56	0.03918203
64	0xbcdab5bf	-0.026697991
65	0x3c015ba1	0.007895381
66	0xbcb30763	-0.021854108
67	0xbc3d7b39	-0.011565023
68	0x3c56cc5a	0.013110245
69	0x3c092ecd	0.008372975
70	0x3c6e6b04	0.014551882
71	0xbc08157c	-0.0083059035
72	0xbd0666e0	-0.032812953
73	0x3d0dd14b	0.034623425
74	0x3d0e8616	0.034795843
75	0x3bd7c82c	0.0065851416
76	0x3cdf2a1c	0.027241759
77	0x3c5bce55	0.013415893
78	0xbc5db88b	-0.013532768
79	0xbae34140	-0.0017338172
80	0x3d114127	0.035462525
81	0x3cd153d8	0.025552675
82	0x3b83e6bd	0.004025309
83	0x3bf4dd81	0.0074726944
84	0x3d5bf029	0.05369583
85	0xbd1ff786	-0.039054416
86	0xbc3654bd	-0.011128602
87	0x3a83bacc	0.0010050177
88	0x3c40f77a	0.011777753
89	0x3d1b09bc	0.03785108
90	0xbc43da0f	-0.011953845
91	0x3d54399c	0.051812753
92	0x3d46dac6	0.048548482
93	0x3b08b91b	0.0020862285
94	0xbd53daeb	-0.05172245
95	0x3d35ad81	0.04435492
96	0x3b3560b0	0.0027676038
97	0xbd644e2c	-0.055738613
98	0xbc96e053	-0.018417513
99	0x3cf8b46a	0.030359466
100	0xbc77b4b4	-0.015118767
101	0x3da116bb	0.078656636
102	0x3ccf723c	0.025323026
103	0x3cf580c6	0.02996863
104	0xbbc62bfd	-0.0060477243
105	0xbc3fb409	-0.011700639
106	0xbd1c518c	-0.038163707
107	0x3d22c130	0.03973502
108	0xbcdcd2a8	-0.026955917
109	0x3c4275f1	0.01186894
110	0xbd030653	-0.031988453
111	0x3c407ef4	0.011749018
112	0xbcbe72d0	-0.023248106
113	0x3b912085	0.0044289255
114	0xbcc576c9	-0.024104493
115	0x3d420cb2	0.04737539
116	0x3d5fb83d	0.054619063
117	0xbca10310	-0.01965478
118	0x3ca2c0b1	0.019867273
119	0x3b254044	0.0025215307
120	0x3cb60c4a	0.022222657
121	0x3a9641eb	0.0011463737
122	0xbaf52f21	-0.0018706062
123	0x3cf73443	0.030176288
124	0xbd092d00	-0.03349018
125	0x3cd5d1bb	0.026100984
126	0x3c90e0f5	0.017685393
127	0xbd4116f0	-0.047141016
128	0x3d8a8957	0.06764477
129	0x3cebc6de	0.02878135
130	0x3cf8a644	0.03035272
131	0x3d06c4ab	0.0329024
132	0x3d348167	0.04406872
133	0xb9473c75	-0.00019000641
134	0xbd6ef234	-0.05833645
135	0xbc387697	-0.011258743
136	0xbca8dba7	-0.02061255
137	0x3d3ea3d0	0.046542943
138	0xbcfec2dc	-0.031098776
139	0x3d05c7ae	0.032661133
140	0xba0b1a48	-0.00053063454
141	0xbd1361f0	-0.035982072
142	0xbd87fb49	-0.06639726
143	0x3d370f0f	0.044692095
144	0x3d81461a	0.06312199
145	0xbd3747c6	-0.044746183
146	0xbd15ffca	-0.036620893
147	0x3d83cd21	0.064356096
148	0xbd2b6436	-0.041843615
149	0x3c94fbe0	0.01818651
150	0x3c5b66cc	0.013391208
151	0x3cc73e42	0.024321679
152	0xbc4f8204	-0.0126652755
153	0x3ca7ae30	0.020468801
154	0xbd3f349a	-0.046681024
155	0xbc754ca0	-0.014971882
156	0xbd3df75e	-0.046378486
157	0x3d5f49cf	0.05451375
158	0xb9388aec	-0.0001759936
159	0x3c3bf477	0.011471859
160	0xbcde59b5	-0.027142385
161	0x3cb56e93	0.022147452
162	0xbc63bf88	-0.013900645
163	0x3c615cf7	0.013755075
164	0x3d279812	0.04091651
165	0x3d53efff	0.05174255
166	0xbbffda9c	-0.0078080427
167	0x3becf88d	0.007231778
168	0xbd6575de	-0.05602061
169	0x3b6d972f	0.0036253443
170	0xbd0d2d66	-0.034467123
171	0xbc2b2fb0	-0.010448381
172	0xbcac6a14	-0.021046676
173	0xbc780951	-0.01513894
174	0xbd564945	-0.05231597
175	0xbc81ae08	-0.015830055
176	0xbd04431b	-0.03229056
177	0x3bf0628e	0.0073359674
178	0x3d06b179	0.032884095
179	0x3c531c1e	0.012885122
180	0xbd4c7bc0	-0.049922705
181	0x3cdbebe2	0.026845876
182	0x3a204fc3	0.0006115401
183	0xbd008cc8	-0.03138426
184	0xbd0c12f4	-0.034197763
185	0xbd210027	-0.039306786
186	0x3ce27434	0.0276433
187	0x3d4df919	0.050286386
188	0x3c8db0d1	0.017296227
189	0x3d2d097e	0.04224538
190	0x3c474cd0	0.01216431
191	0x3c187ae1	0.00930664
192	0xbb5884b8	-0.003303809
193	0xbd242f7d	-0.04008435
194	0xbaa825b9	-0.0012828625
195	0xbd53b732	-0.05168838
196	0x3c1e8efe	0.009677647
197	0xbbd83bd9	-0.0065989313
198	0xbc33c143	-0.01097137
199	0x3bdef75a	0.006804389
200	0x3cabf486	0.020990621
201	0xbd4debad	-0.050273586
202	0x3d493fdd	0.04913317
203	0xbd2c7883	-0.042107116
204	0x3b8d7173	0.0043165027
205	0x3ccf441a	0.025301028
206	0x3cfccf9a	0.03086071
207	0xbd230f99	-0.039809797
208	0x3d313b1b	0.043269258
209	0x3d44891b	0.047982316
210	0x3cf515c8	0.029917613
211	0xbc23d6b2	-0.009999918
212	0xbb80034b	-0.0039066426
213	0x3c4f2f2f	0.012645527
214	0x3dbcd64f	0.092205636
215	0xbc827672	-0.01592562
216	0xbc5dc04e	-0.013534619
217	0x3c8bd250	0.017068058
218	0xbcdb05d6	-0.026736181
219	0xbc6ec512	-0.014573352
220	0xbcb03123	-0.021507805
221	0x3d314fe6	0.043289088
222	0x3adac302	0.0016690197
223	0xbc5e818c	-0.013580691
224	0xbd28bf30	-0.041197956
225	0xbcab41b3	-0.020905351
226	0x3c0836e1	0.008313865
227	0xbd025efe	-0.031828873
228	0x3bcbf101	0.0062237983
229	0xbcb26055	-0.02177445
230	0xbbab07da	-0.005219442
231	0xbc858c09	-0.016302126
232	0x3bdd0562	0.0067450264
233	0x3da75ba8	0.08171779
234	0x3cba1d09	0.022718923
235	0xbccc5a13	-0.024945294
236	0xbd097945	-0.033562917
237	0x3cbb5897	0.022869391
238	0xbccd9602	-0.025095943
239	0xbcf654f0	-0.030069798
240	0x3b7269e1	0.0036989378
241	0x3d3b90df	0.045792457
242	0xbd4710f1	-0.04860014
243	0xbc857d0c	-0.016294979
244	0xbbc8dab6	-0.006129588
245	0xbcaf0632	-0.021365259
246	0x3d192cae	0.037396125
247	0x3aa25bfd	0.0012387034
248	0x3cd6fd3a	0.026243795
249	0xbd456d71	-0.048200075
250	0xbd361c31	-0.04446048
251	0xbb943f9a	-0.0045241835
252	0x3c676c25	0.014124905
253	0xbd5f1bd4	-0.0544699
254	0x3cc93371	0.024560662
255	0xbc25421b	-0.010086562

_module.layer5.0.bias f4 [64]
0	0x3b63cf51	0.0034761021
1	0x3cb5016d	0.022095406
2	0xbd86497b	-0.06556984
3	0x3c966c37	0.018362148
4	0xbd041c87	-0.03225377
5	0x3d0350a5	0.03205933
6	0xbd093ba5	-0.033504147
7	0xbd1a2614	-0.03763397
8	0xbc1a3e0b	-0.009414206
9	0xbb02bd6b	-0.0019949328
10	0x3b8e24c8	0.0043378808
11	0xbc791aba	-0.015204126
12	0x3be2d01e	0.006921782
13	0xbc2a2c7d	-0.010386583
14	0xbc860b4d	-0.01636281
15	0x3c91fa8c	0.017819665
16	0xbcc70844	-0.024295934
17	0x3cd2eeb9	0.025748597
18	0xbcd62429	-0.02614029
19	0x3bf0751a	0.0073381783
20	0x3c7535a1	0.014966399
21	0x3d914bc3	0.070945285
22	0xbd1d9496	-0.03847178
23	0x3c57e540	0.013177216
24	0xbc932416	-0.017961543
25	0xbcefda37	-0.029278858
26	0x3d096a7b	0.033548813
27	0xbcc815d4	-0.024424471
28	0x3d0504f5	0.03247543
29	0xbc2440d4	-0.010025222
30	0xbcf104d3	-0.029421246
31	0x3ce4390e	0.027859237
32	0x3d006ed1	0.031355683
33	0x3d30d503	0.043171894
34	0x3ceae5df	0.028674064
35	0xbd33bdb3	-0.043882083
36	0xbc63a9aa	-0.0138954315
37	0x3d180fa1	0.03712428
38	0x3d299c81	0.04140902
39	0x3c6cf32c	0.014462274
40	0xbcc04b7f	-0.0234735
41	0x3d0893ef	0.033344205
42	0x3d01f7b0	0.031730354
43	0xbca69735	-0.020335773
44	0x3b0300dd	0.0019989528
45	0x3cac8f75	0.0210645
46	0x3b44be15	0.0030020524
47	0x3b34f802	0.0027613644
48	0xbc14b2c0	-0.00907582
49	0x3d524ac7	0.051340844
50	0xbd283bc2	-0.041072614
51	0x3bd6995e	0.0065490445
52	0xbd2f6fa8	-0.042831093
53	0xbc9ae5fb	-0.018908491
54	0x3d1dead7	0.03855404
55	0xbca477df	-0.02007669
56	0xbc445d97	-0.011985204
57	0xbbeecbe5	-0.0072874897
58	0x3beb758f	0.007185645
59	0xbca58db0	-0.020209163
60	0xbbe9f38d	-0.007139629
61	0xbd03409f	-0.03204405
62	0x3c0c86ab	0.008577029
63	0xbd0e1f41	-0.034697775

_module.layer5.1.weight f4 [64]
0	0x3f81c2bd	1.0137554
1	0x3f849664	1.0358396
2	0x3f7dd33c	0.99150443
3	0x3f82442d	1.0177056
4	0x3f701df0	0.9379568
5	0x3f815322	1.0103495
6	0x3f8050cb	1.0024656
7	0x3f7ae048	0.97998476
8	0x3f82419a	1.017627
9	0x3f848198	1.0352049
10	0x3f7ad7d8	0.979856
11	0x3f7af7da	0.9803444
12	0x3f81e614	1.0148339
13	0x3f7e8779	0.99425465
14	0x3f811a13	1.0086082
15	0x3f7e583e	0.99353397
16	0x3f856373	1.0420974
17	0x3f806726	1.0031478
18	0x3f7bc336	0.98344743
19	0x3f78a899	0.9713226
20	0x3f82b384	1.0211034
21	0x3f7e7012	0.99389756
22	0x3f8326f0	1.0246258
23	0x3f7addfa	0.9799496
24	0x3f801d93	1.0009025
25	0x3f7ab150	0.9792681
26	0x3f8225a2	1.0167735
27	0x3f80d3e8	1.0064669
28	0x3f8559a6	1.0417984
29	0x3f7c5773	0.98570937
30	0x3f8379c8	1.027154
31	0x3f7bde1e	0.983858
32	0x3f7e99a7	0.99453205
33	0x3f80f9b9	1.0076209
34	0x3f7efc8b	0.996041
35	0x3f80a12a	1.0049183
36	0x3f7f2429	0.9966455
37	0x3f7e2d7f	0.9928817
38	0x3f7fb8a9	0.99891144
39	0x3f7e4c25	0.9933494
40	0x3f7ffb27	0.99992603
41	0x3f865ad9	1.0496475
42	0x3f81d361	1.0142633
43	0x3f80cd34	1.0062623
44	0x3f84060a	1.0314343
45	0x3f7f3f99	0.9970642
46	0x3f8273f6	1.0191638
47	0x3f7b883e	0.98254764
48	0x3f80b03c	1.0053782
49	0x3f83a2c7	1.0284051
50	0x3f80565f	1.0026358
51	0x3f7f4561	0.9971524
52	0x3f837963	1.0271419
53	0x3f7ed3af	0.99541754
54	0x3f807ad5	1.0037485
55	0x3f77a35b	0.96733636
56	0x3f82b86d	1.0212532
57	0x3f81e4d1	1.0147954
58	0x3f7ff66d	0.9998539
59	0x3f78ff42	0.9726449
60	0x3f7d7089	0.9899984
61	0x3f826989	1.0188457
62	0x3f79660c	0.97421336
63	0x3f8303a9	1.0235492
