weights/private_pretrain_rotated.pth (torch, 945990 bytes, 26 tensors)

_module.layer1.0.weight f4 [16, 1, 3, 3]
0	0xbe1ca072	-0.1529558
1	0x3cd53c8f	0.026029853
2	0x3e901f52	0.28148896
3	0xbe688b3f	-0.22709368
4	0x3e817d84	0.25291073
5	0x3e22794e	0.15866587
6	0x3e5b39a0	0.21408701
7	0xbe9dc4af	-0.3081412
8	0x3e6ea0da	0.23303548
9	0xbe98b8dc	-0.29828537
10	0x3db55099	0.088532634
11	0x3e2ec1ef	0.17066167
12	0xbe012153	-0.12610368
13	0xbe2775eb	-0.16353576
14	0x3c7d8d7a	0.015475625
15	0xbd020065	-0.031738658
16	0xbe755a8d	-0.23960324
17	0x3e92d06c	0.28674638
18	0xbe9cd9a3	-0.30634794
19	0xbe9b8931	-0.30378106
20	0xba35bcf8	-0.00069327606
21	0x3d68df0c	0.05685334
22	0x3e4f2a85	0.20231064
23	0xbe3cbb20	-0.18430758
24	0x3a5d223e	0.00084355834
25	0xbdeb54a2	-0.11490752
26	0x3e64263f	0.22280215
27	0x3e070b16	0.13187823
28	0x3e9a2cde	0.30112356
29	0x3bfaa1a0	0.0076486617
30	0x3d6fefb7	0.05857822
31	0x3d969301	0.073522575
32	0xbd6c5ba0	-0.057704568
33	0x3e96198c	0.29316366
34	0xbd69598a	-0.056970157
35	0x3e99b08e	0.30017513
36	0xbe8d7c2e	-0.27633804
37	0x3e8dc02e	0.27685684
38	0xbe604ec2	-0.21905044
39	0x3dd1c8ed	0.10243402
40	0xbdf9006e	-0.12158285
41	0xbe86bebb	-0.2631739
42	0x3d63e603	0.05563928
43	0xbe1a051e	-0.15041015
44	0x3dee7e9a	0.11645241
45	0x3e8f28ee	0.27960914
46	0x3db26584	0.08710769
47	0x3e4ddde2	0.20104173
48	0x3c0d123c	0.008610304
49	0xbd9d37c9	-0.07676656
50	0x3e3544fb	0.17702095
51	0x3e2c1546	0.1680499
52	0x3db9f0aa	0.09079106
53	0x3e38b6f5	0.18038543
54	0x3e7bb640	0.24581242
55	0xbe0a32ea	-0.13495985
56	0x3e8e4439	0.27786425
57	0xbe45f37f	-0.19331168
58	0x3d86f7c5	0.06590227
59	0xbc3c34d7	-0.011487207
60	0x3e75b91c	0.23996395
61	0x3e874892	0.26422554
62	0xbe8f7c24	-0.280244
63	0xbe2d28f6	-0.16910157
64	0x3d4fb284	0.050707355
65	0xbe90cd58	-0.28281665
66	0x3e1fd246	0.15607557
67	0x3e634804	0.2219544
68	0x3e0315cf	0.12801288
69	0xbdfed43d	-0.12442825
70	0xbde08615	-0.10963074
71	0xbe8a15bb	-0.26969704
72	0x3e8a0f07	0.2696459
73	0xbe832016	-0.25610417
74	0x3e25494f	0.16141246
75	0xbe11d4a5	-0.14241274
76	0xbae85924	-0.0017726761
77	0x3e8ebb0a	0.27877074
78	0x3e851169	0.25989845
79	0x3d887268	0.06662446
80	0x3e8ba095	0.27270952
81	0xbdd760dd	-0.10516522
82	0xbea163e9	-0.31521538
83	0x3e907227	0.2821209
84	0xbe35d4de	-0.17756984
85	0xbdf75787	-0.120772414
86	0xbe4fa390	-0.20277238
87	0xbb845ddb	-0.0040395088
88	0x3d855206	0.06509785
89	0x3e1c67c3	0.15273957
90	0xbd35ac4e	-0.044353776
91	0xbe8debf8	-0.27719092
92	0x3e72b8c3	0.23703294
93	0xbea2efdd	-0.31823626
94	0x3e83ee46	0.25767726
95	0x3e105278	0.1409396
96	0xbce99c95	-0.028517047
97	0x3e63ee99	0.22258987
98	0xbe864eda	-0.26232034
99	0xbc80b5f7	-0.015711768
100	0xbea9a9b9	-0.331373
101	0xbde37a11	-0.11107267
102	0xbcecc744	-0.028903611
103	0x3e349b40	0.17637348
104	0x3ba423a8	0.0050091334
105	0x3e940bd2	0.28915268
106	0x3c91dacd	0.017804528
107	0xbd3a31a5	-0.0454575
108	0xbe8db795	-0.27679124
109	0x3e97cb6d	0.2964739
110	0xbea489a9	-0.32136276
111	0x3e520b9c	0.20512241
112	0x3e7fd05f	0.24981831
113	0x3ea47ba5	0.32125583
114	0xbd890e90	-0.06692231
115	0xbe0e07c2	-0.13870147
116	0xbd87fb36	-0.066397116
117	0x3e1bc53c	0.15211958
118	0x3c019f22	0.007911475
119	0xbe2198a8	-0.1578089
120	0x3e1ba0f3	0.15198116
121	0xbe9e6b2d	-0.30941144
122	0x3e1c639f	0.15272377
123	0x3b82677d	0.003979622
124	0xbe08eb7b	-0.13371079
125	0xbb255042	-0.002522484
126	0x3d85d75f	0.065352194
127	0x3e211374	0.15730077
128	0x3e07b4db	0.13252585
129	0x3e04601c	0.12927288
130	0xbde2d228	-0.110752404
131	0xbe9da53b	-0.30790123
132	0xbe4a654c	-0.19765204
133	0xbe866574	-0.26249278
134	0xbdc70244	-0.09717229
135	0xbe247821	-0.1606145
136	0x3e508435	0.20362933
137	0x3daf5405	0.08560947
138	0x3e99d061	0.30041793
139	0xbe8ee20b	-0.27906832
140	0x3ea9e796	0.331845
141	0xbe8b14ca	-0.27164298
142	0xbe46df9a	-0.19421235
143	0xbe331edc	-0.1749224

_module.layer1.0.bias f4 [16]
0	0x3e811ddf	0.25218102
1	0x3a7782cf	0.0009441794
2	0x3e58b6f2	0.21163538
3	0x3da4d68e	0.080487356
4	0xbd804ce7	-0.06264668
5	0xbe054138	-0.1301316
6	0x3e5f5d78	0.21812999
7	0xbe289e7c	-0.16466707
8	0x3e953403	0.29141244
9	0x3d935fbc	0.07195994
10	0xbd23a6be	-0.03995394
11	0xbe8f3e2b	-0.27977118
12	0x3de3ae3a	0.111172155
13	0xbd28d0bb	-0.041214686
14	0xbdf39e55	-0.11895434
15	0xbd7bf0b5	-0.061508853

_module.layer1.1.weight f4 [16]
0	0x3f7efe28	0.9960656
1	0x3f801a9d	1.0008122
2	0x3f7f0752	0.99620545
3	0x3f80e3ea	1.0069554
4	0x3f7ed616	0.9954542
5	0x3f804ec3	1.0024036
6	0x3f7fc66b	0.99912137
7	0x3f8050a5	1.0024611
8	0x3f7e1481	0.99250036
9	0x3f8153f7	1.0103749
10	0x3f801481	1.0006257
11	0x3f80934a	1.0044949
12	0x3f7ea36b	0.99468106
13	0x3f7f55eb	0.99740475
14	0x3f7f534f	0.99736494
15	0x3f7f2eda	0.99680865

_module.layer1.1.bias f4 [16]
0	0xbaf10e32	-0.0018391071
1	0xbbcf71cb	-0.006330704
2	0xbc3f5762	-0.0116785485
3	0xba946331	-0.0011321065
4	0x3c3de122	0.01158932
5	0x3c42845f	0.01187238
6	0xbb7b173f	-0.0038313416
7	0x3ac3d5a7	0.0014940993
8	0x3a0796b2	0.00051722967
9	0x3c4bb7fb	0.012434001
10	0x3a1d146e	0.0005992119
11	0x3ba8fec1	0.005157322
12	0xbbbeeb5d	-0.0058263973
13	0x3be1b100	0.006887555
14	0x3bdb33de	0.0066895327
15	0x382e6169	4.1575553e-05

_module.layer2.0.weight f4 [16, 16, 3, 3]
0	0xbd06b993	-0.03289182
1	0xbd5e4db4	-0.054273322
2	0xbd6f93ef	-0.05849069
3	0x3d8134f6	0.063089296
4	0xba2d1b84	-0.00066035264
5	0x3d363d55	0.044492085
6	0x3cce0c4b	0.025152346
7	0xbd3245cd	-0.0435236
8	0x3c7b08a5	0.015321885
9	0xbb9e8ed7	-0.004838805
10	0x3c977fa4	0.018493481
11	0xbc1dd4a5	-0.009633218
12	0x3d6434b3	0.05571432
13	0x3da60f6b	0.081084095
14	0xbceba2b3	-0.028764104
15	0x3cde6348	0.02714695
16	0x3c201a8e	0.009771956
17	0xbd69a34e	-0.057040505
18	0xbd0be3c1	-0.03415275
19	0xbd5c4eed	-0.053786207
20	0x3d9462b2	0.07245387
21	0x3d7c23fd	0.06155776
22	0x3cda3814	0.026638068
23	0xbd376f65	-0.04478397
24	0xbc2836f3	-0.010267007
25	0xbd380f5a	-0.044936515
26	0xbcbf07c1	-0.023319127
27	0xbcc04320	-0.023469508
28	0x3c0539b4	0.008131433
29	0x3d6980b8	0.05700752
30	0x3b7b2539	0.0038321747
31	0x3d047020	0.032333493
32	0xbd8f6c12	-0.07003035
33	0x3c818cce	0.015814211
34	0xbbf9fd29	-0.007629056
35	0xbca9822f	-0.02069196
36	0xbcc64314	-0.024201907
37	0x3d693b40	0.05694127
38	0xbc15ad73	-0.009135592
39	0x3c9b48f2	0.018955681
40	0x3d784de7	0.06062117
41	0xbd701d3f	-0.05862164
42	0x3d288f07	0.041152027
43	0xbcca52ce	-0.024697687
44	0x3b564a52	0.0032698107
45	0x3d48bd25	0.049008507
46	0x3d81703b	0.063202344
47	0xbc4db887	-0.012556202
48	0x3ca3bcb4	0.019987442
49	0x3d9fe9ae	0.07808243
50	0xbc098f83	-0.008396032
51	0xbd54aa05	-0.051919956
52	0x3c591ef1	0.013252006
53	0xbd952354	-0.07282129
54	0xbc867249	-0.016411917
55	0x3db2b7e4	0.087264806
56	0x3ce217ef	0.027599303
57	0x3b8734da	0.0041261734
58	0x3da55663	0.080731176
59	0x3d2e6220	0.042574048
60	0xbd81d468	-0.063393414
61	0xbcd6480e	-0.026157405
62	0xbc49ba45	-0.0123124765
63	0x3d9b173d	0.07572792
64	0xbc4e9dff	-0.012610911
65	0xbc4bffa6	-0.012451088
66	0xbbd7eaf8	-0.0065892898
67	0x3d90770e	0.07053958
68	0xbdb0458f	-0.08607017
69	0x3d1d4da6	0.03840413
70	0xbd8792e3	-0.06619813
71	0x3d9cd5b4	0.07657948
72	0xbd757df3	-0.059934568
73	0x3abd101e	0.0014424359
74	0xbd8812cc	-0.0664421
75	0xbd45f319	-0.04832754
76	0x3bca8034	0.006179834
77	0x3daf580f	0.08561718
78	0xbd53642b	-0.0516092
79	0xbd7fb18b	-0.062425178
80	0xbd7450fa	-0.059647538
81	0x3d9af5bc	0.07566401
82	0x3c97f9fc	0.018551819
83	0x3cc06490	0.023485452
84	0xbc975ab3	-0.018475866
85	0xbcbe4b52	-0.023229275
86	0x3d516eb8	0.05113098
87	0x3cf668ba	0.030079234
88	0x3b9d28f9	0.004796144
89	0x3c824758	0.01590316
90	0xbcb39bb4	-0.021924831
91	0x3ca058dd	0.019573623
92	0x3d94486f	0.07240378
93	0xba849d14	-0.0010117614
94	0x3cbba48a	0.022905607
95	0xbc1faef0	-0.009746298
96	0xbd05bd64	-0.03265132
97	0xbd2698cb	-0.04067306
98	0xbc20905a	-0.009800041
99	0x3d0a7012	0.033798285
100	0x3d539352	0.051654167
101	0xbc978927	-0.018498017
102	0xbd862314	-0.06549659
103	0xbd0d21a1	-0.0344559
104	0x3d6b95c6	0.057515882
105	0xbd95cb91	-0.07314218
106	0xbc57fbc7	-0.013182587
107	0xbd0878be	-0.033318274
108	0x3c8db982	0.017300371
109	0x3c5d08d7	0.013490877
110	0x3d9b44d6	0.07581489
111	0x3d398d15	0.045300562
112	0x3d56aa9a	0.052408792
113	0xb9e9dfe5	-0.00044608038
114	0x3d912150	0.07086432
115	0x3c8012e6	0.015634011
116	0x3c53de54	0.012931425
117	0x3db3959f	0.08768772
118	0x3d2edd35	0.04269143
119	0x3c4cab57	0.0124920225
120	0xbd2dd435	-0.042438705
121	0xbd7e4cab	-0.062084835
122	0xbcacec4f	-0.021108774
123	0xbd409e46	-0.04702594
124	0x3d94b816	0.07261674
125	0xbd87d257	-0.06631916
126	0x3d445cbc	0.04794
127	0xbd939e25	-0.07207898
128	0x3d6534db	0.05595861
129	0xba8a5cf8	-0.0010556271
130	0x3c98153b	0.018564811
131	0xbc013d80	-0.007888198
132	0x3c92f4c1	0.017938973
133	0x3b5b9f10	0.0033511557
134	0x3d78a87e	0.06070756
135	0xbd0a7f72	-0.033812948
136	0xbd5ac60b	-0.053411525
137	0x3d8cc9a5	0.06874398
138	0x3d814441	0.063118465
139	0x3c0876cb	0.008329104
140	0x3b9e827d	0.0048373328
141	0x3d194856	0.0374225
142	0xbcf5d8c9	-0.030010598
143	0x3c93f219	0.018059777
144	0xbcc5cef5	-0.024146536
145	0xbd8788c2	-0.06617881
146	0x3c012d48	0.007884331
147	0xbd18630e	-0.03720384
148	0x3b2a1bc3	0.0025956489
149	0x3d2da4f1	0.04239363
150	0x3d87c81b	0.06629964
151	0xbd48b84b	-0.04900388
152	0x3d47f0e9	0.048813734
153	0xbd42e142	-0.047578104
154	0x3d9aeb4f	0.07564413
155	0xbd8b6fe5	-0.068084516
156	0x3c63e2bb	0.013909037
157	0xbcf0e378	-0.02940534
158	0x3d3fc2f3	0.046816777
159	0x3d0689ed	0.03284638
160	0xbd05b3a1	-0.03264201
161	0x3d2c54ca	0.04207305
162	0xbcf4acd3	-0.029867565
163	0x3d2a1c99	0.04153118
164	0x3ce94b80	0.028478384
165	0x3ca91e19	0.020644234
166	0x3d29608e	0.041351847
167	0x3d9da257	0.076969795
168	0x3cc0d827	0.02354057
169	0x3d8af3dd	0.067847945
170	0x3d8ddf14	0.069273144
171	0xbd7d8803	-0.06189729
172	0xbc2bf409	-0.010495194
173	0xbb9e370a	-0.0048283385
174	0xbd0c3bd2	-0.034236737
175	0xbd7625c1	-0.0600946
176	0xbc757fe5	-0.014984106
177	0xbd55a9aa	-0.052163757
178	0x3d115455	0.035480816
179	0xbd033f53	-0.032042813
180	0x3d9c3174	0.0762662
181	0x3c834be4	0.016027398
182	0xbd4252ae	-0.04744213
183	0xbd0275b2	-0.031850524
184	0x3d697a7b	0.057001572
185	0x3cc9c99c	0.024632268
186	0x3cb16771	0.02165577
187	0xbcbca2ba	-0.023026813
188	0x3d51e718	0.05124578
189	0x3c3bec66	0.011469936
190	0xbc334617	-0.010942004
191	0x3b9ad807	0.0047254595
192	0x3c92b322	0.017907683
193	0x3ab5e67f	0.0013877897
194	0x3d31edea	0.043439783
195	0x3cd642f8	0.02615498
196	0x3d395120	0.045243382
197	0x3d8c01c8	0.06836277
198	0x3d8b00cb	0.067872606
199	0x3d9ea2d7	0.07745903
200	0x3da41ddf	0.0801351
201	0xbd83cdc8	-0.06435734
202	0xbda12543	-0.07868435
203	0x3c891ae6	0.016736459
204	0x3d62c0e4	0.055359736
205	0xbcc9a8bc	-0.024616592
206	0xbb7f8fbd	-0.0038995587
207	0x3dab15d2	0.08353771
208	0x3d384fdd	0.04499804
209	0x3cf42544	0.029802926
210	0x3d42873b	0.047492247
211	0xbcf5fa06	-0.030026447
212	0xbd6d7b5d	-0.057978977
213	0x3cb6be1e	0.022307452
214	0xbd144316	-0.03619679
215	0xbc31d6e8	-0.01085446
216	0xbbfb6174	-0.0076715294
217	0x3c4c61fb	0.012474532
218	0x3d90bc0e	0.070671186
219	0x3d0be0fa	0.0341501
220	0x3d50ba43	0.050958883
221	0xbd1b3cfa	-0.03789995
222	0xbc4ea117	-0.012611649
223	0xbd59eed5	-0.053206284
224	0x3b2af66f	0.0026086827
225	0xbb9a9aab	-0.004718145
226	0xbd960560	-0.07325244
227	0x3d7b94df	0.06142127
228	0xbd0e72a8	-0.034777313
229	0x3d37b8f8	0.044854134
230	0xbd83d503	-0.06437113
231	0x3d051fbf	0.03250098
232	0xbd12917a	-0.03578327
233	0x3d0e0f19	0.034682367
234	0x3cbc5f5f	0.022994695
235	0xbb9f4b8d	-0.0048613013
236	0x3d510514	0.051030234
237	0x3c056fc5	0.008144324
238	0xbce8b94d	-0.02840867
239	0x3c005e82	0.007835032
240	0x3d2650d5	0.04060443
241	0x3cc8aec0	0.02449739
242	0x3d2038cb	0.039116662
243	0xbd40a815	-0.047035296
244	0x3d394dcb	0.045240205
245	0x3c2db163	0.010601374
246	0xbcc29f10	-0.023757488
247	0xbd211aa9	-0.039332066
248	0x3d91955b	0.071085654
249	0x3d8a96c6	0.06767039
250	0xbd569c3e	-0.052395098
251	0x3d19e3cb	0.037570756
252	0x3daf4311	0.08557714
253	0x3c0c1975	0.008550991
254	0xbba7c1fb	-0.00511956
255	0xbd61c701	-0.055121426

_module.layer2.0.bias f4 [16]
0	0x3d643ab9	0.055720065
1	0xbda300fe	-0.079591736
2	0xbd891197	-0.06692808
3	0xbc30773c	-0.010770615
4	0xbd7fcf70	-0.062453687
5	0x3d50f8d9	0.05101857
6	0x3d546b2a	0.051860012
7	0x3d1cea63	0.038309466
8	0x3c81242a	0.015764315
9	0x3d692b63	0.056926142
10	0xbd94700a	-0.07247932
11	0xbd4868fb	-0.048928242
12	0xbc49d9c6	-0.012319988
13	0xbd791563	-0.06081141
14	0xbd93a940	-0.07210016
15	0x3d23d849	0.040001187

_module.layer2.1.weight f4 [16]
0	0x3f7d0f64	0.9885161
1	0x3f7fc7eb	0.99914426
2	0x3f8016b8	1.0006933
3	0x3f7f9195	0.99831516
4	0x3f7e33b5	0.9929765
5	0x3f7c2041	0.98486716
6	0x3f80dfdd	1.0068318
7	0x3f7f86e8	0.99815226
8	0x3f7d0dba	0.9884907
9	0x3f804c79	1.0023338
10	0x3f8046f5	1.0021654
11	0x3f7f45d5	0.9971593
12	0x3f7e5bb5	0.99358684
13	0x3f7f8a8e	0.9982079
14	0x3f7f02da	0.99613726
15	0x3f8030d2	1.0014899

_module.layer2.1.bias f4 [16]
0	0x3bc1862b	0.0059058866
1	0x3b701b64	0.003663742
2	0x3b30ec13	0.002699618
3	0xbabaf089	-0.0014262359
4	0xbbef556f	-0.0073038856
5	0x390bfc39	0.00013350033
6	0x3ae2355b	0.0017258333
7	0xbafb78f3	-0.0019185826
8	0x3aa12101	0.0012293161
9	0xbbbe1ce6	-0.005801785
10	0x3b9e8f3d	0.0048388527
11	0x3ad6d0f3	0.0016389176
12	0xbb01e610	-0.0019820966
13	0x3b5142dc	0.003193072
14	0x3ba233cc	0.0049500223
15	0xbbc57912	-0.0060263956

_module.layer3.0.weight f4 [64, 16, 3, 3]
0	0xbb93c9cf	-0.0045101414
1	0x3da100a2	0.07861449
2	0xbc7b4685	-0.015336637
3	0xbd979744	-0.074018985
4	0xbd9e8572	-0.077402964
5	0x3c22704f	0.009914472
6	0xba07f17e	-0.00051858264
7	0xbd5cca9f	-0.053904172
8	0x3d45538e	0.048175387
9	0xbd3da1db	-0.046296936
10	0x3d43c262	0.0477928
11	0x3cfdb799	0.030971335
12	0x3d60419a	0.054750063
13	0x3d91386a	0.07090838
14	0x3c61fb7f	0.0137928715
15	0xbd87825f	-0.06616663
16	0xbc5fedff	-0.0136675825
17	0x3d1d0da8	0.0383431
18	0x3d38b286	0.04509213
19	0x3cc9ff47	0.024657859
20	0x3bf3e41f	0.0074429656
21	0x3d04eabe	0.03245043
22	0x3d8fcee8	0.07021886
23	0x3d0e4d76	0.03474184
24	0x3d94b1f7	0.072605066
25	0x3d80b3f3	0.062843226
26	0xbd1f1f5a	-0.03884826
27	0xbd90866c	-0.07056889
28	0x3d83032f	0.063970916
29	0x3d986226	0.07440595
30	0x3d9e93d1	0.077430375
31	0x3d24a035	0.040191848
32	0xbd2d33a9	-0.042285595
33	0x3d3e61ea	0.046480097
34	0xbdb95c35	-0.0905079
35	0xbd2b1930	-0.041772068
36	0xbd80dfcf	-0.06292688
37	0x3d52da40	0.05147767
38	0xbd283bdb	-0.041072708
39	0x3cb72fb8	0.022361621
40	0x3ce8a917	0.02840094
41	0xbd307bc1	-0.04308677
42	0x3d28a05e	0.041168563
43	0xbc4ad26a	-0.012379268
44	0xbc2427de	-0.010019271
45	0xbd4ddc3c	-0.05025886
46	0x3c21d890	0.009878293
47	0xbccfe967	-0.02537985
48	0xbd1eaa3a	-0.03873656
49	0xbbf3fdb1	-0.007446014
50	0x3da5b16f	0.080904834
51	0x3d81b01d	0.06332419
52	0x3d66a700	0.056311607
53	0x3d3a5dd9	0.045499656
54	0xbd30cda7	-0.043164875
55	0x3d2a9c05	0.041652698
56	0xbda5f6ee	-0.08103739
57	0x3d66b34c	0.056323335
58	0x3cd41955	0.025890986
59	0xbd85ecd9	-0.06539316
60	0x3cd6539b	0.026162913
61	0x3ca4a38f	0.020097522
62	0x3c95b5ac	0.018275104
63	0x3d917dc0	0.07104063
64	0xbd4684c5	-0.048466463
65	0xbd8e4d46	-0.069483325
66	0x3d574b5e	0.05256211
67	0xbcb79e3e	-0.022414323
68	0x3d3b2045	0.04568507
69	0x3ac6b2d1	0.0015159493
70	0x3d914118	0.07092494
71	0x3d7f0158	0.06225714
72	0xbcbc26a3	-0.022967642
73	0x3ce3f693	0.027827537
74	0xbd98a6f0	-0.07453716
75	0x3cfeb01e	0.031089839
76	0xbd4981fd	-0.049196232
77	0x3d92a819	0.07160968
78	0xbd4130b1	-0.047165576
79	0xbd575df3	-0.05257983
80	0x3d73a79b	0.059486013
81	0xbdafed81	-0.08590222
82	0xbcd0a082	-0.025467161
83	0xbbd08b50	-0.0063642636
84	0x3ccc1d59	0.024916338
85	0x3d6e1b2b	0.05813138
86	0x3d93aff3	0.07211294
87	0x3d564e6d	0.052320886
88	0x3d40b0fd	0.04704379
89	0xbc545b3d	-0.012961206
90	0xbd825612	-0.06364073
91	0x3c31ccbd	0.010852036
92	0x3db01a74	0.085987955
93	0x3d068b05	0.032847423
94	0x3b4c968a	0.0031217658
95	0xbc51b38d	-0.012799156
96	0xbd4d7388	-0.050159007
97	0xbd839ca4	-0.06426361
98	0xbd94842d	-0.07251773
99	0x3d47de30	0.04879588
100	0xbc24b6a1	-0.010053308
101	0xbd06d0f7	-0.03291413
102	0xbcea185a	-0.028576065
103	0x3ccb5f12	0.024825606
104	0xbd0aec6b	-0.033916872
105	0x3caccd6e	0.02109405
106	0xbcfd9bbd	-0.03095805
107	0x3c68d352	0.014210539
108	0x3d2a76ce	0.041617207
109	0xbc6fc63c	-0.014634665
110	0x3d890e92	0.06692232
111	0x3caeca16	0.021336596
112	0xbc1a6773	-0.009424078
113	0x3d527414	0.051380232
114	0x3cac0163	0.020996755
115	0x3d6e4435	0.058170516
116	0x3d90ce6e	0.07070623
117	0x3d328b7d	0.043590058
118	0xbcfab1d4	-0.030602373
119	0x3d659c13	0.056057047
120	0xbdafee25	-0.08590344
121	0x3cb34520	0.021883547
122	0x3d009605	0.03139307
123	0xbd33146b	-0.043720644
124	0x3d8419a9	0.06450207
125	0xbcfb3133	-0.030663108
126	0xbd87d7be	-0.066329464
127	0xbd206b77	-0.039164986
128	0xbda7fd45	-0.08202604
129	0xbb538300	-0.0032274127
130	0xbb866ccc	-0.004102325
131	0xbdab429a	-0.083623126
132	0xbd3b3c80	-0.045711994
133	0x3d930595	0.07178799
134	0x3cda0924	0.026615687
135	0xbc561660	-0.013066858
136	0xbd94253d	-0.07233665
137	0xbd50dd54	-0.050992325
138	0xbb5bdb2a	-0.003354738
139	0xbd999a3f	-0.07500123
140	0xbcc3eeea	-0.023917634
141	0x3bfee9f3	0.0077793538
142	0xbd901fc1	-0.070373066
143	0xbd5c3f28	-0.053771168
144	0x3da104a4	0.07862213
145	0x3d1432b9	0.036181185
146	0x3d5b3e99	0.053526495
147	0x3d8eeef3	0.0697917
148	0xbd564ced	-0.052319456
149	0x3d9ddd23	0.07708194
150	0xbce73cf8	-0.028227314
151	0x3d0039f9	0.031305287
152	0xbd96440b	-0.07337197
153	0xbd1d22de	-0.03836333
154	0x3dc122dc	0.09430477
155	0xbd8adfa6	-0.06780939
156	0x3d8bce01	0.068264015
157	0xbdae5182	-0.0851164
158	0xbcd591de	-0.026070531
159	0xbd77c9fb	-0.060495358
160	0x39e29877	0.00043219674
161	0xbc6004db	-0.013673033
162	0x3bf2b8c9	0.007407282
163	0x3d1af314	0.037829474
164	0xbdac1236	-0.08401911
165	0x3d4fc76e	0.0507273
166	0xbd86d5a9	-0.06583721
167	0x3d7e25d7	0.062047806
168	0xbd7d560d	-0.061849643
169	0x3d59b82d	0.05315416
170	0xbd1c656c	-0.03818266
171	0x3d1357fa	0.035972573
172	0x3d0682e7	0.032839682
173	0x3d2002e0	0.03906524
174	0x3d32b432	0.04362888
175	0x3d599eb8	0.05312988
176	0x3d0014bc	0.031269774
177	0x3dcd9bd6	0.10039489
178	0x3d54ea4e	0.051981263
179	0xbd0e8fb7	-0.034805026
180	0x3d473b7b	0.04864071
181	0xbcfc2f0e	-0.030784156
182	0x3d68b960	0.056817412
183	0x3cb0c7dd	0.021579677
184	0x3d6e23a5	0.058139462
185	0xbbf7e20f	-0.00756479
186	0x3d43f88b	0.04784445
187	0x3bb6eee9	0.0055826795
188	0xbd219b7e	-0.03945493
189	0x3d816547	0.06318145
190	0xbd629d4a	-0.055325784
191	0xbd28790a	-0.041131057
192	0x3d872284	0.0659838
193	0x3cb31b6c	0.021863662
194	0xbc709eca	-0.014686296
195	0xbd3c195b	-0.04592262
196	0x3d48736d	0.048938204
197	0xbb91778a	-0.004439299
198	0x3d58bb81	0.052913193
199	0xbc8600d7	-0.016357822
200	0x3d9490fb	0.07254215
201	0x3c995b6c	0.018720351
202	0x3cac426b	0.021027764
203	0xbc13df26	-0.009025371
204	0x3d334087	0.04376271
205	0xbd9d7491	-0.07688249
206	0xbd227ad1	-0.039667908
207	0x3c349221	0.011021168
208	0xbd8a6a80	-0.067585945
209	0xbd93841b	-0.072029315
210	0x3c558e71	0.013034449
211	0xbd5e7929	-0.054314766
212	0xbccb22ba	-0.024796832
213	0x3d959420	0.07303643
214	0x3d3b23be	0.045688383
215	0xbd036bfa	-0.032085396
216	0x3d80d2ad	0.06290183
217	0x3d5da05b	0.054108005
218	0x3d9d6193	0.076846264
219	0xbd1d24bc	-0.03836511
220	0x3da2c2e6	0.0794733
221	0x3d65eb61	0.056132678
222	0xbd678eb5	-0.05653258
223	0xbd496bed	-0.04917519
224	0xbc9be891	-0.019031795
225	0xbda1f57d	-0.07908151
226	0xbc58ef62	-0.013240667
227	0x3d0fda6e	0.03512042
228	0x3c453550	0.0120366365
229	0xbd324c24	-0.043529645
230	0xbbd69b58	-0.00654928
231	0xbb89b1f2	-0.004202121
232	0xbd8528b1	-0.06501902
233	0x3d968c90	0.07351029
234	0x3c2c7c8c	0.010527741
235	0xbda7e499	-0.081978984
236	0x3d32a776	0.043616734
237	0x3cd8b278	0.026452288
238	0x3c9788ac	0.018497787
239	0xba8509aa	-0.0010149975
240	0x3b9bd87b	0.004756031
241	0x3bdea141	0.0067941253
242	0xbd759d53	-0.05996449
243	0x3d867cb0	0.06566751
244	0xbd06bb57	-0.032893505
245	0xbc953b61	-0.01821679
246	0x3cc57462	0.024103347
247	0x3c8c3171	0.01711342
248	0xbda0b3b0	-0.07846773
249	0x3d1c19fc	0.038110718
250	0x3b3c02b4	0.0028688135
251	0xbd7d09af	-0.061776813
252	0xbd78c1d6	-0.06073173
253	0xbd7f0263	-0.062258136
254	0x3b030f54	0.001999815
255	0xbd4e8386	-0.0504184

_module.layer3.0.bias f4 [64]
0	0x3d80a3f6	0.06281273
1	0xbd8ea209	-0.069644995
2	0x3a89765b	0.0010487543
3	0x3d8eae20	0.069668055
4	0x3cd7b63c	0.026332013
5	0xbd1c81cc	-0.03820972
6	0xbd1d5db6	-0.038419448
7	0xbb91cec0	-0.0044496953
8	0xbc8424d0	-0.016130835
9	0xbd2017b5	-0.03908511
10	0xbbecc30c	-0.0072254
11	0xbdaf5350	-0.085608125
12	0xbc818b86	-0.0158136
13	0x3d022ea8	0.031782776
14	0x3d95fe0f	0.073238485
15	0x3c77d9a8	0.015127577
16	0x3be5d654	0.0070140753
17	0xbd3f5948	-0.046716005
18	0x3d990202	0.07471086
19	0x3ca032ec	0.019555531
20	0xbd4bb2d7	-0.0497311
21	0x3d5e7d55	0.054318745
22	0xbd09f6f0	-0.033682764
23	0xbd9b2480	-0.07575321
24	0x3d81fe3d	0.0634732
25	0x3d868a57	0.06569355
26	0xbc7114fc	-0.014714476
27	0xbc756a6b	-0.014978985
28	0x3d8e6a97	0.06953924
29	0xbd6754f0	-0.056477487
30	0x3ceb0f7c	0.028693907
31	0xbdaaea80	-0.083455086
32	0xbd610a43	-0.054941427
33	0xbcb9722f	-0.022637455
34	0xbc003510	-0.007825151
35	0xbd2d95cc	-0.042379186
36	0x3cb5e00c	0.02220156
37	0x3d0cee9f	0.034407254
38	0xbc4437aa	-0.011976162
39	0x3d5db6b5	0.05412932
40	0x3d0848aa	0.033272423
41	0xbd925851	-0.07145751
42	0x3d575c08	0.052578002
43	0x3c8e9315	0.017404119
44	0x3d867a52	0.065662995
45	0xbd316039	-0.043304656
46	0x3ceaee32	0.028678034
47	0xbd7548c7	-0.05988386
48	0xbd2859c3	-0.04110123
49	0xbd9ab500	-0.07554054
50	0x3d479221	0.048723344
51	0xbcc1d9ff	-0.023663519
52	0x3ccbaaa5	0.024861643
53	0x3d8a7e18	0.06762332
54	0x3dae996e	0.08525358
55	0x3d6dd1e0	0.05806148
56	0x3cc9914a	0.024605412
57	0xbdabdf9b	-0.08392259
58	0x3da62398	0.08112258
59	0x3b69b661	0.0035661685
60	0xbd58eac8	-0.05295828
61	0xbad815f9	-0.001648604
62	0xbd967a0e	-0.07347499
63	0xbd9e13c1	-0.077186115

_module.layer3.1.weight f4 [64]
0	0x3f80d236	1.0064151
1	0x3f7ebd38	0.99507475
2	0x3f7edf5e	0.9955958
3	0x3f80a959	1.0051681
4	0x3f7dccd5	0.99140674
5	0x3f8039fe	1.0017698
6	0x3f804a5b	1.0022691
7	0x3f7f5607	0.9974064
8	0x3f7fa8f7	0.99867195
9	0x3f7f6a84	0.99771905
10	0x3f80b6f4	1.0055833
11	0x3f807044	1.0034261
12	0x3f8022c1	1.0010606
13	0x3f80d529	1.0065051
14	0x3f801db7	1.0009068
15	0x3f80b653	1.0055641
16	0x3f80d848	1.0066004
17	0x3f808214	1.0039697
18	0x3f806f4c	1.0033965
19	0x3f7c2f91	0.9851008
20	0x3f7db123	0.99098414
21	0x3f7e2c23	0.992861
22	0x3f7eb585	0.99495727
23	0x3f80943a	1.0045235
24	0x3f7e8a4e	0.99429786
25	0x3f7ff031	0.9997588
26	0x3f7e9c6d	0.99457437
27	0x3f80d4c4	1.0064931
28	0x3f805380	1.0025482
29	0x3f800ff3	1.0004867
30	0x3f7edec7	0.9955868
31	0x3f7f36a4	0.9969275
32	0x3f8026f8	1.0011892
33	0x3f7f704c	0.99780726
34	0x3f7e6330	0.993701
35	0x3f7f94ae	0.9983624
36	0x3f7cf175	0.98805934
37	0x3f7e6d6c	0.99385715
38	0x3f7d594b	0.98964375
39	0x3f800631	1.000189
40	0x3f7f2ae0	0.996748
41	0x3f7e83f2	0.9942008
42	0x3f800a26	1.0003097
43	0x3f7fe4e7	0.9995865
44	0x3f7d801c	0.99023604
45	0x3f80779f	1.0036505
46	0x3f7f7d44	0.99800515
47	0x3f7e2255	0.99271137
48	0x3f7fe72f	0.99962133
49	0x3f807696	1.003619
50	0x3f7e8b4d	0.99431306
51	0x3f7fbc82	0.99897015
52	0x3f7ebd25	0.9950736
53	0x3f7fb429	0.9988428
54	0x3f8174b3	1.0113739
55	0x3f802fe1	1.0014611
56	0x3f7fbb77	0.99895424
57	0x3f7e4f5e	0.99339855
58	0x3f804a96	1.0022762
59	0x3f7f9dc0	0.9985008
60	0x3f7ebee1	0.9951001
61	0x3f803894	1.0017266
62	0x3f80742e	1.0035455
63	0x3f809f1c	1.0048556

_module.layer3.1.bias f4 [64]
0	0xbc0245d7	-0.007951221
1	0xbb58cec8	-0.0033082236
2	0xbc5e915d	-0.013584462
3	0x3b425c43	0.0029657043
4	0x3b3d5eec	0.002889569
5	0x3c397d7b	0.011321421
6	0xbc147efe	-0.00906348
7	0xb9fec6e4	-0.0004859484
8	0xbb720fbe	-0.0036935653
9	0x3bfbeadc	0.0076879095
10	0x3be2ad56	0.006917636
11	0x3b51678b	0.0031952586
12	0x3b3efdae	0.0029142904
13	0xba8b16d7	-0.0010611665
14	0x3ba81f7e	0.0051307073
15	0x3b1c486e	0.0023846882
16	0x3b8a1c79	0.00421482
17	0xbb65867c	-0.0035022786
18	0xbc8f375e	-0.017482456
19	0xbbe091b9	-0.006853309
20	0x399a1f6a	0.00029396574
21	0xb9811004	-0.0002461673
22	0x3bcf56f1	0.006327503
23	0x3b21fc34	0.0024716975
24	0xbbe42232	-0.006962084
25	0x3b2078c5	0.0024486047
26	0xbb80e925	-0.003934043
27	0xbc059dbc	-0.008155283
28	0x3bad456c	0.0052878167
29	0xbc5b7540	-0.013394654
30	0x3b78e761	0.003797971
31	0x3bdb2086	0.0066872267
32	0x3bf453f9	0.0074562994
33	0x3b6716eb	0.0035261463
34	0x3ba3b6d7	0.0049961614
35	0xbae5bf0d	-0.0017528251
36	0xbb09f003	-0.00210476
37	0x3a953e47	0.0011386358
38	0x3bc9b89b	0.00615604
39	0x3ba58062	0.005050705
40	0xbbcc857d	-0.006241499
41	0xbb3b183a	-0.0028548376
42	0x3ba1823c	0.004928855
43	0xbbb3d29d	-0.0054877535
44	0x3ae51b5f	0.0017479471
45	0xbb1491cf	-0.0022669917
46	0xbc0113de	-0.007878272
47	0x3c8446ac	0.01614698
48	0xbba1eac8	-0.004941318
49	0xbc0969d3	-0.008387047
50	0xbb42f211	-0.0029746334
51	0xbb373974	-0.0027957829
52	0x3acd3623	0.0015656393
53	0x3b6ad61a	0.003583318
54	0xbc10a097	-0.00882735
55	0x3bf0c1cb	0.0073473207
56	0x3c653c17	0.013991377
57	0x3c032829	0.00800518
58	0xbbcbbefa	-0.0062178345
59	0x3b3829dc	0.0028101122
60	0xba11c27f	-0.0005560293
61	0x3ae5c0f6	0.001752882
62	0x3b30b94f	0.0026965921
63	0x3c07c2d6	0.008286199

_module.layer4.0.weight f4 [64, 64, 3, 3]
0	0xbd01dea3	-0.031706464
1	0x3c15f87a	0.00915348
2	0xbc76b1d6	-0.015057048
3	0x3cce3b85	0.025174865
4	0xbb0fd53d	-0.0021947168
5	0x3c31c20b	0.010849486
6	0xbce9657e	-0.028490778
7	0xbc9f7f58	-0.019469902
8	0x3aeb1774	0.0017936067
9	0xbc35c82e	-0.01109509
10	0xbc80e7a1	-0.01573545
11	0xbc2b2a07	-0.010447032
12	0xbb81773f	-0.003950983
13	0x3d2a60c9	0.041596208
14	0x3d1d76bd	0.038443316
15	0xbd2b8bfd	-0.04188155
16	0xbc9a5e90	-0.018843919
17	0x3bf3a37e	0.0074352613
18	0xbcef7100	-0.029228687
19	0xbca349a2	-0.019932572
20	0x3a50b133	0.0007960975
21	0x3cf7f47e	0.03026795
22	0x3c042d4f	0.008067443
23	0xbb21f835	-0.0024714593
24	0x3c6303fe	0.013855932
25	0x3d0821a2	0.0332352
26	0x3c1dbb69	0.009627202
27	0x3d214556	0.039372765
28	0xbcdf892f	-0.027287094
29	0x3b908498	0.0044103377
30	0xbc02df5b	-0.007987822
31	0x3b88e468	0.004177619
32	0xbc87a666	-0.016558837
33	0xbd2a86e6	-0.041632555
34	0xbc8b1f9f	-0.016982852
35	0xbc7c22aa	-0.015389124
36	0xbcaad031	-0.020851227
37	0xbb93aac2	-0.00450644
38	0xbce5ed2c	-0.028067194
39	0xbc8e37b9	-0.017360555
40	0xbc7293af	-0.014805718
41	0x3ba9b918	0.0051795356
42	0x3c91ee86	0.017813932
43	0x3bf21e49	0.007388864
44	0xbc1f584d	-0.009725642
45	0x3cfdbf8d	0.030975128
46	0xbce55eee	-0.027999368
47	0xbcc10d26	-0.02356584
48	0x3c8cc099	0.017181681
49	0xbc231460	-0.009953588
50	0xbc1d697d	-0.00960767
51	0x3d1e911e	0.038712613
52	0x3d0ea86f	0.0348286
53	0xbd124144	-0.035706773
54	0xbd2dcaeb	-0.042429846
55	0xbc99646e	-0.018724646
56	0xbd2b56bc	-0.041830763
57	0x3aa16f1d	0.001231644
58	0xbc0864d1	-0.008324818
59	0x3cfc08b5	0.03076587
60	0x3b37edf5	0.0028065417
61	0x3c9fba2f	0.019497959
62	0xbca5730b	-0.020196458
63	0xbcf482ed	-0.029847587
64	0x3c950f8c	0.01819589
65	0x3bf80fee	0.0075702583
66	0x3aae71a5	0.0013309015
67	0xbd0bbbee	-0.03411477
68	0xbc1eceb4	-0.009692837
69	0x3d108bd3	0.035289597
70	0x3d0f9c63	0.03506125
71	0xbd34938a	-0.044086017
72	0x3b5ece7c	0.0033997586
73	0xbd43c948	-0.04779938
74	0x3b49a2a9	0.003076712
75	0xbcc2a490	-0.02376011
76	0x3c04b6ff	0.00810027
77	0xbc841dd0	-0.016127497
78	0xbcc86031	-0.02445993
79	0xbc841ee7	-0.016128017
80	0x3d0f55af	0.034993824
81	0xbce16a82	-0.027516607
82	0x3c8109a9	0.015751677
83	0x3c8897b8	0.016673908
84	0xbbb10897	-0.0054026353
85	0x3d06e090	0.032929003
86	0x3aeb165f	0.0017935744
87	0xbd0a0509	-0.03369621
88	0xbd3f8308	-0.04675582
89	0xbd1c1b0d	-0.038111735
90	0xba022c36	-0.00049656944
91	0xbc02b2b4	-0.007977176
92	0x3d23d21a	0.03999529
93	0xbcb47875	-0.022030095
94	0xbb8f4b7d	-0.0043730126
95	0xbcf53692	-0.029933248
96	0xbc39b6a4	-0.011335049
97	0x391a345c	0.0001470609
98	0xbcf9edfb	-0.030508986
99	0x3d002b3c	0.03129123
100	0xbc8f5ad9	-0.017499374
101	0x3c8af685	0.016963253
102	0xbcbd50a4	-0.023109742
103	0xbc8af53d	-0.016962642
104	0xba8b8cd8	-0.0010646833
105	0x3ca87680	0.020564318
106	0x3d0be1a6	0.034150742
107	0x3d0460d8	0.03231892
108	0x3ccc0f6b	0.024909696
109	0xbc865e30	-0.016402334
110	0x3c873193	0.016503131
111	0xbcb5b95d	-0.022183115
112	0xbc873c3b	-0.016508212
113	0x3c4175bc	0.011807855
114	0xbcc4e293	-0.02403382
115	0xbc96174d	-0.018321658
116	0x3c67b211	0.014141575
117	0xbd2f9daf	-0.04287499
118	0xbcfa5449	-0.030557768
119	0xbbf486b1	-0.0074623455
120	0x3cbfc321	0.023408474
121	0xbc86e574	-0.016466834
122	0xbcb5422b	-0.022126278
123	0xbcce3f7e	-0.02517676
124	0xb9339929	-0.00017127827
125	0x3a819d9e	0.0009888893
126	0xbc7a4673	-0.015275585
127	0xb9195beb	-0.00014625459
128	0xbd1e82e4	-0.038699046
129	0xbb92ecc8	-0.004483793
130	0x3ca44ddc	0.020056657
131	0xb9cbc13b	-0.00038863145
132	0x3d4407f9	0.047859166
133	0x3cc094e6	0.0235085
134	0x3d2d82c1	0.042361025
135	0xbbcf9220	-0.006334558
136	0x3cc4f90b	0.024044534
137	0xbcfb88c0	-0.030704856
138	0x3c5b8cbf	0.013400256
139	0xbcb614f0	-0.02222678
140	0xbd02b3aa	-0.031909622
141	0x3c1bcc94	0.009509224
142	0x3c714f72	0.014728414
143	0xbcd70699	-0.026248263
144	0x3c958629	0.01825245
145	0xbbf18641	-0.0073707406
146	0xbbb081bd	-0.0053865598
147	0xbbad88fa	-0.00529587
148	0x3a90feb2	0.0011062233
149	0x3c0cc5ea	0.008592108
150	0xbc4e3422	-0.012585672
151	0x3d12146b	0.035664003
152	0x3afadd90	0.0019139517
153	0x3bb2c1cd	0.0054552318
154	0xbcd38bf0	-0.025823563
155	0x3cd5e11e	0.02610832
156	0xbc68841b	-0.014191653
157	0x3b9766a1	0.0046203886
158	0xbcf719d9	-0.030163692
159	0x3cb76fd2	0.022392187
160	0x3d181cbf	0.03713679
161	0x3ba13015	0.004919062
162	0x3cd11f1b	0.025527528
163	0x3ce1bd9d	0.027556235
164	0xbc9100b9	-0.01770054
165	0x3ba62f97	0.005071591
166	0xbd0191e0	-0.031633258
167	0xbc4e59cc	-0.012594651
168	0x3be64865	0.007027673
169	0xbd2bf4d8	-0.041981548
170	0x3c80223b	0.015641322
171	0x3a7e1a74	0.0009693273
172	0x3d2f1d81	0.042752746
173	0xbbfbe404	-0.0076870937
174	0xbbe5567e	-0.006998836
175	0x3cccc2a6	0.02499516
176	0xbb2ad6f2	-0.0026068059
177	0xbcd50f10	-0.026008159
178	0x3cd95599	0.026530074
179	0x3d046157	0.032319393
180	0xbd0ac1fd	-0.033876408
181	0xbd1d4efe	-0.03840541
182	0xbc56acde	-0.013102738
183	0xba92170c	-0.0011145785
184	0x3d034321	0.03204644
185	0xbd1df7b8	-0.03856632
186	0xbcbbe452	-0.02293602
187	0x3c8271bb	0.015923372
188	0x3c893260	0.016747653
189	0xbce69f27	-0.028152062
190	0xbd06e75b	-0.03293548
191	0x3cf75af5	0.030194739
192	0x3b244ea0	0.0025071278
193	0x3d059cc5	0.03262021
194	0xbd0cb09e	-0.034348123
195	0x3b75afaa	0.0037488737
196	0x3d22a99a	0.039712526
197	0xbba37673	-0.0049884855
198	0xbd0772d0	-0.033068478
199	0x3d17750b	0.036976855
200	0x3c25f34e	0.010128809
201	0x3d3cb588	0.04607156
202	0xbd0140ea	-0.031556047
203	0x3b5313a0	0.0032207742
204	0xb98d86d2	-0.00026994065
205	0x3ca74dff	0.020422934
206	0xbbd95b5d	-0.006633206
207	0xbc047f9e	-0.008087067
208	0x3c8969a1	0.016774
209	0xbc01aa3f	-0.007914125
210	0x3bddd5e7	0.006769884
211	0x3d07cdb6	0.033155166
212	0x3c21dae9	0.009878852
213	0x3b518aed	0.0031973675
214	0xbc56b43d	-0.013104496
215	0x3d13a5eb	0.036046904
216	0xbc11aaba	-0.008890802
217	0xb9aaaf3f	-0.00032555495
218	0xbca05fc6	-0.019576918
219	0x3c624d9a	0.013812447
220	0x3c91c5f5	0.017794589
221	0xbcbaf27a	-0.0228207
222	0x3d1f0935	0.03882714
223	0xbc62b018	-0.013835929
224	0xbcf01af9	-0.029309737
225	0xbb121004	-0.0022287378
226	0xbc1bd0b8	-0.009510212
227	0xbcd5b22f	-0.026085941
228	0x3cd24db6	0.025671821
229	0xbca5038a	-0.02014329
230	0x3c8ad433	0.016946888
231	0xbc7c438b	-0.015396963
232	0xbc6ffb00	-0.014647245
233	0xbc3383f6	-0.010956755
234	0x3c39e352	0.011345701
235	0x3b115049	0.0022173098
236	0xbcd1487a	-0.025547255
237	0x3c370b6c	0.011172157
238	0x3ccc9024	0.024971075
239	0xbc826cfa	-0.015921105
240	0x3d063432	0.03276462
241	0xbcf226e4	-0.02955956
242	0x3cb4e722	0.022082869
243	0x3cac9a86	0.021069776
244	0xbd45d48c	-0.048298404
245	0x3d239105	0.039933223
246	0x3d34e367	0.04416218
247	0x3cb61cf2	0.0222306
248	0x3a94b298	0.0011344729
249	0xbc6feaaf	-0.014643355
250	0xbd1781bb	-0.036988955
251	0x3ca4957e	0.020090815
252	0xbc8d676e	-0.017261233
253	0x3d2a083e	0.041511767
254	0x3ce0e553	0.0274531
255	0x3c8868f6	0.016651612

_module.layer4.0.bias f4 [64]
0	0xbd2b94b6	-0.04188987
1	0x3d215328	0.039385945
2	0xbc7a2f25	-0.015270029
3	0xbd2d82bd	-0.04236101
4	0x3d096b0c	0.033549353
5	0xbcd100f3	-0.025513148
6	0xbc029fe2	-0.007972689
7	0xbce9eb41	-0.02855456
8	0xbcd1d6fb	-0.025615206
9	0xbd03a3b4	-0.03213854
10	0x3cb47f0d	0.022033239
11	0x3d0d9a27	0.03457084
12	0x3cd6973f	0.026195167
13	0x3c1e008e	0.009643687
14	0x3d0f8d08	0.035046607
15	0x3c8def76	0.017326098
16	0x3b9effe2	0.004852281
17	0x3b11e1f2	0.0022259918
18	0xbca29617	-0.019846959
19	0xbd0c5de5	-0.034269232
20	0x3d21883a	0.039436556
21	0x3cc45182	0.023964647
22	0x3cf3ab6f	0.029744832
23	0xbd1aa40e	-0.03775411
24	0x3ca58ca1	0.020208659
25	0x3d084e68	0.0332779
26	0xbc108d1f	-0.008822708
27	0xbca0879e	-0.019595917
28	0x3d1bb4a9	0.038014088
29	0xbd2480af	-0.040161785
30	0xbc390a35	-0.011293937
31	0x3c8f19aa	0.017468292
32	0x3cf02854	0.029316105
33	0xbccbc6f0	-0.024875134
34	0xbcdafa22	-0.0267306
35	0xbab8d6af	-0.0014102067
36	0xbd12d159	-0.03584418
37	0xbcb94d5a	-0.022619892
38	0x3a2eaa8c	0.00066629867
39	0xbc11155b	-0.008855189
40	0xbd0e2b89	-0.034709487
41	0x3cfee03f	0.031112788
42	0x3cdd2990	0.026997358
43	0x3d33ffc3	0.043945085
44	0x3c084d80	0.008319259
45	0xbc2df926	-0.010618484
46	0xbcaf1ffe	-0.02137756
47	0x3b6bd7e9	0.0035986847
48	0x3bd90c8f	0.0066238116
49	0xbd1583b5	-0.03650256
50	0x3c26bdfe	0.010177134
51	0x3cdd3fbe	0.027007934
52	0x3ceca832	0.028888796
53	0xbd037f6c	-0.03210394
54	0x3cd60578	0.026125655
55	0xbcda8923	-0.02667672
56	0x3d1bd2b6	0.038042746
57	0xbc91c8d2	-0.017795954
58	0x3cf59f73	0.029983258
59	0xbd16f33c	-0.03685306
60	0x3bdb6113	0.0066949218
61	0xbd3d9bf6	-0.046291314
62	0xbd1945e0	-0.037420154
63	0x3c5e96c2	0.013585748

_module.layer4.1.weight f4 [64]
0	0x3f7fb51e	0.9988574
1	0x3f7f4657	0.99716705
2	0x3f80bc91	1.0057546
3	0x3f7cfa1f	0.98819155
4	0x3f812bad	1.0091454
5	0x3f7eb880	0.99500275
6	0x3f7f41dd	0.99709874
7	0x3f80da67	1.0066651
8	0x3f81df60	1.0146294
9	0x3f806035	1.002936
10	0x3f80277a	1.0012047
11	0x3f7dbcde	0.99116313
12	0x3f821eb3	1.0165619
13	0x3f81a6ec	1.0129066
14	0x3f7cd5de	0.98763835
15	0x3f807db1	1.0038358
16	0x3f7ea0e7	0.9946427
17	0x3f81462c	1.009954
18	0x3f80c4c2	1.0060046
19	0x3f7f779a	0.9979187
20	0x3f7e6e3f	0.9938697
21	0x3f7defa9	0.9919382
22	0x3f80735e	1.0035207
23	0x3f80744b	1.003549
24	0x3f7e7c6d	0.9940861
25	0x3f8088f6	1.0041797
26	0x3f7e37e2	0.9930402
27	0x3f80902b	1.0043997
28	0x3f7f8311	0.99809366
29	0x3f8051f9	1.0025016
30	0x3f80bef7	1.0058278
31	0x3f7f3102	0.99684155
32	0x3f7d7535	0.9900697
33	0x3f805856	1.0026958
34	0x3f7f967d	0.99839
35	0x3f806971	1.0032178
36	0x3f800102	1.0000308
37	0x3f7f5e38	0.9975314
38	0x3f801325	1.0005842
39	0x3f7fe0a2	0.9995214
40	0x3f81a1d4	1.0127511
41	0x3f7f13b3	0.99639434
42	0x3f7e2a5c	0.99283385
43	0x3f7bfdbf	0.9843406
44	0x3f7fd38e	0.9993218
45	0x3f7dd5f6	0.99154603
46	0x3f7f8a58	0.9982047
47	0x3f7f49e7	0.9972214
48	0x3f7fcc05	0.99920684
49	0x3f807dd8	1.0038404
50	0x3f80d36e	1.0064523
51	0x3f800659	1.0001937
52	0x3f7f7491	0.9978724
53	0x3f8158e4	1.0105252
54	0x3f7f702b	0.9978053
55	0x3f80031a	1.0000947
56	0x3f806ee2	1.0033839
57	0x3f7cb93a	0.98720133
58	0x3f7ea16c	0.9946506
59	0x3f7eedca	0.9958159
60	0x3f80dab4	1.0066743
61	0x3f7ebaf1	0.99504
62	0x3f7de001	0.9916993
63	0x3f8142c9	1.0098506

_module.layer4.1.bias f4 [64]
0	0xbbbe7372	-0.005812102
1	0xbc13cfe6	-0.009021735
2	0x3b995a77	0.0046799737
3	0x3b1a04a7	0.0023501308
4	0xbc1f6fce	-0.009731246
5	0x3b27fa89	0.0025631508
6	0xbb9626c1	-0.0045822565
7	0x3a07b5d2	0.00051769346
8	0xbb2e3162	-0.0026579727
9	0xbaa89ff8	-0.0012865057
10	0x3b886828	0.004162807
11	0x3bedfaee	0.007262579
12	0x3a64e2a7	0.00087312836
13	0xbc508ac8	-0.0127284005
14	0x3a1682c0	0.0005741529
15	0x3b8a9baf	0.0042299847
16	0xbbad5a91	-0.0052903374
17	0xbba1a6b5	-0.004933203
18	0xbb2c83ad	-0.0026323602
19	0xbbb9c3ab	-0.0056690774
20	0x3adaa4f6	0.0016681242
21	0x3c187a79	0.0093065435
22	0xbacc4188	-0.0015583495
23	0x3b98f839	0.0046682623
24	0x3b4aa037	0.003091825
25	0x3b0eb6fd	0.002177655
26	0x3abb91f0	0.001431046
27	0x3b0f36c6	0.0021852716
28	0xbbceec06	-0.0063147573
29	0xbb0775ad	-0.0020669505
30	0xb9eec481	-0.00045541304
31	0x3ad5106e	0.0016255507
32	0xba058164	-0.0005092828
33	0x3c2b9648	0.010472842
34	0x3a9a6571	0.00117795
35	0x3a1dec29	0.00060242653
36	0x3bd2b1de	0.006429895
37	0x3b289c0e	0.0025727781
38	0xbbca40c4	-0.0061722714
39	0xbb192b3a	-0.0023371712
40	0x3b92c30e	0.0044788187
41	0xbbdd002a	-0.0067444043
42	0x3c94e63b	0.018176189
43	0xbb852a85	-0.0040639066
44	0x3b2486d4	0.0025104778
45	0x3adab42b	0.0016685774
46	0xba5d01ba	-0.0008430738
47	0x3bab6a92	0.00523121
48	0x3bdcdae2	0.00673996
49	0xbad5d12f	-0.0016312952
50	0x3c5e8be9	0.013583162
51	0xbbe43b59	-0.0069650826
52	0x3b5602ca	0.003265547
53	0xbb563a42	-0.0032688533
54	0x3c2bcdf8	0.0104861185
55	0xbc34951f	-0.011021881
56	0xbabef592	-0.0014569035
57	0x3bde4930	0.006783627
58	0xbbc3668e	-0.005963153
59	0x3b2cd02c	0.0026369197
60	0xbb876abf	-0.004132598
61	0x3c46ddb0	0.012137815
62	0xbb971173	-0.0046102344
63	0x3b314b0d	0.002705279

_module.layer5.0.weight f4 [64, 64, 3, 3]
0	0x3d165a4f	0.03670722
1	0xbc457c87	-0.012053615
2	0xbcc17536	-0.02361546
3	0x3c04647c	0.008080598
4	0xbba2896b	-0.004960229
5	0xbcdfbbc6	-0.027311217
6	0x3cbf41c3	0.023346787
7	0xbcee903e	-0.029121514
8	0xb7eb2314	-2.8030518e-05
9	0x3d5cba43	0.05388857
10	0xbd0340a5	-0.03204407
11	0xbd4b738b	-0.049670737
12	0x3cce0b6e	0.025151934
13	0x3cb7c1c9	0.022431271
14	0x3cb44062	0.022003356
15	0x3d312889	0.043251548
16	0xbd6c8c8c	-0.057751223
17	0x3c8f263b	0.017474284
18	0xbd191f9c	-0.03738366
19	0xbd138946	-0.036019586
20	0xbc55c56f	-0.01304756
21	0xbbe08c81	-0.006852687
22	0xbc8337ca	-0.016017813
23	0x3c2a5d70	0.010398254
24	0xbbf463a0	-0.0074581653
25	0xbcdd0e9c	-0.026984505
26	0xbd350a22	-0.044199117
27	0xbcac8b69	-0.02106257
28	0x3cd45364	0.02591867
29	0x3d271657	0.04079279
30	0xbc35cd6d	-0.011096341
31	0xbcf640af	-0.03006014
32	0xbc878236	-0.016541582
33	0xbcfdee10	-0.030997306
34	0x3cca08a3	0.024662321
35	0x3c386f02	0.011256935
36	0x3bac5c1c	0.0052600037
37	0x3d3068f6	0.04306885
38	0xbbc67fcb	-0.0060577146
39	0x3ca5e4a1	0.02025062
40	0xbc2cdeec	-0.010551196
41	0xbc2090c7	-0.009800143
42	0x3cf4bb86	0.029874574
43	0xbc58ef4c	-0.013240647
44	0xbd0c2e64	-0.03422393
45	0x3c91fe13	0.017821347
46	0x3cf323e7	0.029680206
47	0x3b1bc950	0.0023771115
48	0x3c346f76	0.0110129025
49	0x3ca169ca	0.019703764
50	0xbac64414	-0.001512649
51	0x3d000cb7	0.031262126
52	0x3ce9878e	0.02850702
53	0xbcabca59	-0.02097051
54	0x3d0c8d7e	0.034314625
55	0x3cc3d94c	0.023907326
56	0xb8fc1aa4	-0.000120212586
57	0x3b8ea193	0.0043527572
58	0xbcb5fc52	-0.022215042
59	0x3c790b96	0.015200516
60	0x3cb8c2ef	0.02255389
61	0x3a984ae4	0.0011618999
62	0xbc21cbe6	-0.009875273
63	0xbb1f6cff	-0.0024326441
64	0xbc13fb97	-0.009032152
65	0x3c0b6d1a	0.008509899
66	0xbd29872c	-0.041388676
67	0xb9ef4ac4	-0.00045641337
68	0xbc8f9808	-0.017528549
69	0x3b4a51c2	0.0030871485
70	0xbd3e5ec5	-0.046477098
71	0x3c976b27	0.018483711
72	0xbadd96fc	-0.0016905959
73	0xbc36f5e2	-0.0111670215
74	0x3bef200d	0.007297522
75	0xbcf9ab47	-0.03047718
76	0xbd374f46	-0.044753335
77	0x3d006f7e	0.031356327
78	0x3a5488fb	0.000810757
79	0x3cab4e4c	0.020911358
80	0xbc77e267	-0.015129662
81	0x3c9ffaca	0.019528765
82	0xbd4a9f6f	-0.049468454
83	0x3c5c2f7d	0.013439056
84	0xbca7d8d3	-0.020489132
85	0x3c999952	0.018749867
86	0xbd0e24b4	-0.03470297
87	0x3b02fa06	0.0019985451
88	0xbad412d6	-0.001617993
89	0x3d17afb1	0.037032787
90	0xba44b4b8	-0.0007503736
91	0xbd3ebe9d	-0.0465685
92	0xbcd5299a	-0.026020814
93	0x3d27ccf1	0.04096693
94	0xbd236b75	-0.0398974
95	0xbd0ac3b0	-0.03387803
96	0xbba73ba9	-0.0051035476
97	0xbb2fe8cd	-0.002684164
98	0x3c917af9	0.017758833
99	0xbcaba286	-0.02095152
100	0x3c94f201	0.018181803
101	0xbbb71079	-0.0055866805
102	0x3c220625	0.00988916
103	0xbcb1bfca	-0.021697897
104	0x3c92888c	0.017887376
105	0x3cbac4a7	0.02279885
106	0xbcf9a1ee	-0.030472722
107	0x3c2e9906	0.010656601
108	0xbbf7aec5	-0.007558676
109	0xbc70a525	-0.014687811
110	0xbc815819	-0.015789079
111	0xbc89d940	-0.016827226
112	0xbccae45e	-0.024767097
113	0xbc53e745	-0.012933557
114	0x3c4d4df1	0.01253079
115	0x3cea26ca	0.02858295
116	0x3ca7ab28	0.020467356
117	0xbc163014	-0.009166736
118	0x3cf491d6	0.029854696
119	0xbd14aeee	-0.03629964
120	0xbca9239f	-0.020646868
121	0x3cbeb6c2	0.023280505
122	0x3ce573dd	0.02800935
123	0xbb655f9f	-0.0034999622
124	0xbd09482f	-0.033516105
125	0x3c430d5b	0.01190504
126	0x3d0fb805	0.035087604
127	0xbd0b22ce	-0.03396874
128	0xbd2874e7	-0.04112711
129	0x3cade851	0.021228941
130	0xbc79aaa0	-0.015238434
131	0x3cb86979	0.02251123
132	0x3cbce0ef	0.023056475
133	0x3b0aa6ea	0.0021156617
134	0xbce669fa	-0.028126705
135	0xbc325bd9	-0.010886156
136	0xbce8d231	-0.02842054
137	0xbcb7eeb6	-0.022452693
138	0xbca7ddcf	-0.020491509
139	0xbcabb8c0	-0.02096212
140	0x3c30fe8e	0.010802878
141	0x3bb87674	0.005629355
142	0x3d1a1585	0.03761818
143	0xbc8bc939	-0.017063724
144	0x3cd36190	0.025803357
145	0xbc0fc514	-0.008775014
146	0xbc7f4a29	-0.015581646
147	0x3b594d15	0.0033157517
148	0x3d25c954	0.040475205
149	0xbca9876e	-0.02069446
150	0xbc3a9228	-0.011387385
151	0x3d1a3032	0.03764362
152	0xbc1d669f	-0.009606986
153	0x3c6556c9	0.013997742
154	0x3cb2997e	0.021801706
155	0xbd0e8910	-0.03479868
156	0x3bc20506	0.005921009
157	0x3d405df9	0.04696462
158	0x3c158de4	0.009128068
159	0xbd0dcb11	-0.034617487
160	0x3c95c596	0.018282693
161	0xba87438e	-0.0010319815
162	0x3d1890e0	0.03724754
163	0x3c7b1407	0.015324599
164	0x3c4f953f	0.01266986
165	0x3c6373d6	0.013882598
166	0x3b6a6ac4	0.0035769204
167	0xbbf7ea3a	-0.007565764
168	0xbcc2ac81	-0.023763897
169	0x3d12d424	0.035846844
170	0x3cbf6cbf	0.023367284
171	0x3b7fc58f	0.0039027666
172	0xbb3febfb	-0.0029284942
173	0xbbcc22b9	-0.006229725
174	0x3bd2a7ed	0.0064287097
175	0x3d500b05	0.05079176
176	0xbcf57e53	-0.029967463
177	0x3b339187	0.0027399973
178	0xbd3a2d3c	-0.045453295
179	0xbadd2259	-0.0016871198
180	0x3cbc94f8	0.023020253
181	0x3d36d2ba	0.04463456
182	0x3d3c5e60	0.04598844
183	0x3c9150f2	0.017738793
184	0xbcf58d62	-0.029974643
185	0xbadc35ba	-0.001680068
186	0x3b51c31c	0.0032007163
187	0x3c65fa02	0.014036657
188	0x3d035523	0.032063615
189	0xbc4ec993	-0.012621301
190	0x3b7cee50	0.0038594194
191	0xbcfc56ed	-0.030803168
192	0xbca6f214	-0.020379104
193	0xbd23e620	-0.040014386
194	0x3cd7ef75	0.0263593
195	0xbce2c4c3	-0.027681714
196	0x3d0dca57	0.034616794
197	0x3c7d4b03	0.015459779
198	0x3a4ac6d4	0.0007735316
199	0x3cffec68	0.031240657
200	0xbc6d5ffe	-0.014488218
201	0xba7f57c0	-0.0009740554
202	0xbd1fbc3b	-0.03899787
203	0xbcf4d3ec	-0.029886208
204	0x3ced9ca8	0.029005364
205	0x3c045607	0.008077151
206	0x3d0742bc	0.033022627
207	0xbbbe4076	-0.005806024
208	0x3c57325f	0.013134568
209	0x3b504ece	0.0031785253
210	0x3c6b5cd6	0.0143653955
211	0xbc826686	-0.015918028
212	0x3d1ad2a8	0.037798554
213	0x3cc815fb	0.024424544
214	0x3cae3f69	0.02127047
215	0x3bd5e5a7	0.006527621
216	0x3d1f68d1	0.03891832
217	0xbd08156f	-0.033223566
218	0xbc439a0b	-0.011938582
219	0x3cb3e9b7	0.02196203
220	0xbd059f69	-0.03262273
221	0xbcb08b05	-0.021550665
222	0xbd119f75	-0.03555246
223	0xbc9e3f6c	-0.019317351
224	0xbbc8727d	-0.0061171637
225	0xbce876bd	-0.028376931
226	0xbd0a0a8d	-0.03370147
227	0x3c36bb6b	0.011153082
228	0x3d13da71	0.036096994
229	0xbb75ae94	-0.003748809
230	0xbcc3a522	-0.023882452
231	0xbd35940f	-0.044330653
232	0x3c620dfc	0.013797279
233	0x3cef2657	0.029193087
234	0xbcad0d02	-0.021124367
235	0xbc713172	-0.014721261
236	0x3b0c68e1	0.0021424817
237	0x3b5bdada	0.0033547194
238	0xbcac6d47	-0.021048201
239	0x3d10d054	0.035354927
240	0xbd603a87	-0.054743316
241	0x3c9c61d1	0.019089611
242	0x3b9c1159	0.00476281
243	0x3c92e7dc	0.017932825
244	0x3d23903c	0.039932474
245	0xbd1204fd	-0.03564929
246	0x3d48ef84	0.049056545
247	0x3c7665a2	0.01503888
248	0xbca00abb	-0.019536367
249	0xbcbb1814	-0.02283863
250	0x3bf46b41	0.0074590747
251	0x3c6869f9	0.014185422
252	0xbcbdc80b	-0.023166677
253	0x3bb79b08	0.005603198
254	0x3c990b2f	0.01868209
255	0x3b775345	0.0037738841

_module.layer5.0.bias f4 [64]
0	0xbb9cba45	-0.0047829472
1	0x3d1d92df	0.038470145
2	0x3d1a8d08	0.037732154
3	0x3a6a1253	0.0008929122
4	0xbd0db989	-0.03460077
5	0x3d02114b	0.031754773
6	0xbd12728d	-0.035753775
7	0xbbecb77c	-0.0072240215
8	0xbd0f04a3	-0.03491653
9	0xbc8d693b	-0.017262092
10	0x3c91cd08	0.017797962
11	0x3d1e6813	0.03867347
12	0xbd15999c	-0.036523446
13	0xbbbf5a17	-0.005839597
14	0xbd2a48c5	-0.041573305
15	0xbcc4fa1f	-0.024045048
16	0x3d220be0	0.039562106
17	0xbcf6c68b	-0.03012397
18	0x3c8500af	0.016235678
19	0x3c53f3dc	0.012936559
20	0xbc697d0b	-0.014251004
21	0x3d103d1f	0.03521454
22	0xbd2583f3	-0.04040904
23	0x3ca193b4	0.01972375
24	0x3c9f1009	0.019416826
25	0x3c722722	0.014779838
26	0xbd02426f	-0.031801637
27	0x3ab6e2e1	0.0013953113
28	0xbc0dc1ba	-0.008652145
29	0xbbb47274	-0.005506808
30	0xbc6b6be9	-0.0143689895
31	0x3d3b0bb1	0.045665447
32	0xbb900e86	-0.0043962626
33	0x3d050134	0.03247185
34	0x3c45de68	0.012076952
35	0xbcce443e	-0.025179025
36	0xbb972814	-0.004612932
37	0x3d3ec44c	0.046573922
38	0x3c364ff8	0.0111274645
39	0x3c5cab70	0.013468608
40	0x3ab66331	0.0013915059
41	0x3b37eef8	0.002806602
42	0x3d3baad8	0.045817226
43	0xbcb6f28a	-0.022332449
44	0xbd10f4e8	-0.03538981
45	0xbcd95528	-0.026529863
46	0xbb3fd09d	-0.002926863
47	0xbd1cb7db	-0.038261276
48	0xbcc1e4c7	-0.02366866
49	0x3d012ff4	0.031539872
50	0x3d4e4cd0	0.050366223
51	0x3b90579f	0.0044049765
52	0xbc00d833	-0.007864046
53	0x3c879ad7	0.016553326
54	0xbd474a64	-0.04865493
55	0xbcfe9077	-0.031074746
56	0x3c84067a	0.01611637
57	0x3d1286cf	0.035773095
58	0xbd2ac05b	-0.04168735
59	0x3cf06f06	0.029349815
60	0xbbcfcf7b	-0.0063418723
61	0xbc576c61	-0.013148398
62	0x3c6d7389	0.014492878
63	0xbbe60ee9	-0.0070208204

_module.layer5.1.weight f4 [64]
0	0x3f8070af	1.0034388
1	0x3f80ab73	1.0052322
2	0x3f7ff188	0.9997792
3	0x3f810cc6	1.0082023
4	0x3f80fcff	1.0077208
5	0x3f80d54b	1.0065092
6	0x3f7edcab	0.9955546
7	0x3f7ffbf7	0.9999384
8	0x3f7f2c9c	0.99677444
9	0x3f7fb859	0.9989067
10	0x3f8026cd	1.0011841
11	0x3f819323	1.0123028
12	0x3f802135	1.0010134
13	0x3f80a3e6	1.0050018
14	0x3f7ff0ef	0.9997701
15	0x3f8152ad	1.0103356
16	0x3f80ba99	1.0056945
17	0x3f7e2cbc	0.9928701
18	0x3f81ecdb	1.0150408
19	0x3f7f50a8	0.99732447
20	0x3f7e9904	0.99452233
21	0x3f810eb9	1.0082618
22	0x3f80fa65	1.0076414
23	0x3f7d4454	0.98932385
24	0x3f7fb95c	0.9989221
25	0x3f7e42d4	0.9932072
26	0x3f7d3757	0.98912567
27	0x3f7eeb29	0.99577576
28	0x3f7f01b4	0.99611974
29	0x3f7f5e80	0.9975357
30	0x3f8012fc	1.0005794
31	0x3f7e9e1b	0.9946
32	0x3f7e0b79	0.99236256
33	0x3f7c50cd	0.9856079
34	0x3f80d26b	1.0064214
35	0x3f80da5e	1.006664
36	0x3f7e5d27	0.9936089
37	0x3f7e16f7	0.9925379
38	0x3f814f60	1.0102348
39	0x3f7e2bad	0.99285394
40	0x3f7f671f	0.99766725
41	0x3f7ba1d2	0.98293793
42	0x3f8035aa	1.0016377
43	0x3f80d78c	1.006578
44	0x3f80732a	1.0035145
45	0x3f7fc6d7	0.9991278
46	0x3f815280	1.0103302
47	0x3f80b09e	1.0053899
48	0x3f7cea85	0.9879535
49	0x3f7e8481	0.99420935
50	0x3f80542b	1.0025686
51	0x3f8096e4	1.0046048
52	0x3f7f39bb	0.99697465
53	0x3f7dccff	0.99140924
54	0x3f7ed01a	0.9953629
55	0x3f818993	1.0120109
56	0x3f8072bd	1.0035015
57	0x3f7dbb67	0.9911408
58	0x3f8071e6	1.0034759
59	0x3f7c9c77	0.98676246
60	0x3f7c4974	0.9854958
61	0x3f7e1b87	0.99260753
62	0x3f803e5f	1.0019034
63	0x3f8067d4	1.0031686

_module.layer5.1.bias f4 [64]
0	0xbabc1a32	-0.0014351069
1	0xbb00bee1	-0.0019645023
2	0xbb166a0d	-0.0022951395
3	0xbc0acebc	-0.008472141
4	0xbb2beedc	-0.00262349
5	0x3aff797b	0.001949116
6	0x3b5ea7b2	0.0033974466
7	0x3c34a355	0.0110252695
8	0xbc35d88e	-0.011098994
9	0x3ba5a0bd	0.005054562
10	0xb8cef94b	-9.86928e-05
11	0xb9b6bdf9	-0.00034855286
12	0x390432dd	0.00012607449
13	0xbb9f764e	-0.004866398
14	0x3bfd38c2	0.0077277133
15	0xbb1aab63	-0.002360069
16	0x3b25c2df	0.0025293154
17	0x3bef13b1	0.0072960486
18	0x3bb4d0d2	0.0055180574
19	0xbc184d2f	-0.009295746
20	0xbb6f4df5	-0.0036514972
21	0x3c26f185	0.010189419
22	0x3b72a830	0.0037026517
23	0x3a9e6c1d	0.0012086664
24	0x3c30424c	0.010757994
25	0x39ae5c8b	0.00033256816
26	0x3b0d57c9	0.0021567217
27	0xbb55a02f	-0.0032596698
28	0xbbac1e9d	-0.005252673
29	0x3bb5b7ff	0.0055456157
30	0x3b70972f	0.0036711206
31	0x3bf0bc37	0.0073466557
32	0x3c0f810c	0.0087587945
33	0xba668681	-0.00087938464
34	0x3c10f9ec	0.0088486485
35	0xbc38a921	-0.011270792
36	0xbb22b6fa	-0.00248283
37	0xbc367a7a	-0.011137599
38	0xbc09edaf	-0.008418485
39	0x3bd8768a	0.006605928
40	0x3ac8cb0d	0.0015319303
41	0xbbc65915	-0.0060531
42	0x3b110bf7	0.0022132376
43	0x3a8adbce	0.0010594071
44	0xbbb6116d	-0.0055562765
45	0xbb06b53a	-0.0020554797
46	0x3a082487	0.0005193431
47	0xbb17bbdd	-0.0023152747
48	0x3a0328f3	0.00050033553
49	0xbc1d8e5d	-0.009616462
50	0xbaabd72e	-0.0013110393
51	0xbb4b18aa	-0.0030990043
52	0x3b6575c2	0.0035012816
53	0x39c9f54f	0.00038520477
54	0xbafede63	-0.0019444939
55	0xbc29f90c	-0.010374319
56	0x3b76b4f6	0.0037644482
57	0x3ab6ee4b	0.0013956515
58	0x3c322c45	0.0108748125
59	0x3c2eaa4c	0.010660719
60	0x3bc350a7	0.0059605422
61	0x3c1d7155	0.00960954
62	0xbb73840f	-0.003715757
63	0x3c4c66b8	0.012475662
