weights/private_pretrain_rotated.pth (torch, 947142 bytes, 26 tensors)

_module.layer1.0.weight f4 [16, 3, 3, 3]
00000000: 781f 323e 3587 f7bd 2f43 213d 7da0 073e
00000010: 3d2b 17bd 5e68 213e 804f 223e 9663 98ba
00000020: ff72 173e 7476 fcbd 9946 09be fa0d 2c3e
00000030: ac71 eabd 66ae 3c3d 86c5 38be 11b9 893d
00000040: bf6a 06bd af15 253e 3fcc 5d3d e099 faba
00000050: 3203 183e fe75 35bd 8bd3 0f3e a2b7 23be
00000060: b74b 0bbe aaff 9c3d 11ea 393e f82f 463e
00000070: 9268 e13d b810 883d 1859 2c3e 7efc 1bbe
00000080: af4e 493b 2205 193e cb12 a63d 3525 d13d
00000090: 1cd2 38be 09cd 2dbe 8953 ed3d 3409 343e
000000a0: 4513 26be 45b0 3fbe d5f6 34bd cdc7 53bd
000000b0: 6f93 313e db11 183e 7989 47be f062 b43c
000000c0: 9500 a9bd d398 2d3e ddff 133e eec8 6dba
000000d0: 0f1f cdbc 030e b13c f61a 6f3c 12f8 3bbe
000000e0: 3b98 303d 53f9 0abe 00f1 423e a41d de3d
000000f0: 059c bd3d 773a 8d3d 28d9 203e 376a f8bd
00000100: 3ce8 22be ebd5 41bd d53b 833c 5907 c23d
00000110: c9db 2e3e 3a79 e03d 97d1 ac3c 49b3 8a3d
00000120: 5521 1d3e 7a1f bf3d b636 cf3d 906e 13be
00000130: 931a 3fbe d2b8 3cbe d2af d73d d831 ce3d
00000140: f5a9 1a3e 2c88 743d fcab 99bb 2f1c 07be
00000150: 53aa 103e a5c3 ea3d 3142 c33c d628 083e
00000160: cbd3 c5bd b3a2 1f3e 3934 7bbc 89ff 19be
00000170: 4b51 27bd c2ee 203e 2e91 1a3e 4004 283d
00000180: b327 2dbe 30c3 23be bd45 06be c3a3 31bd
00000190: 3e4e 0f3e fd8c 283e fbab 343e 9e53 c0bd
000001a0: 234c 47bd 85fc 44bd 2448 223e afa7 b1bd
000001b0: 1388 403e 51bd 19bd 0565 193c 4f69 50bc
000001c0: 5f2f 93bd 66b6 23be e712 303e 3dcc 23be
000001d0: d39a 013d 3c7f 093c 1264 1e3d d7eb 87bc
000001e0: 0dc6 5abd 0b84 283e 0971 93bd 8793 07bd
000001f0: 1213 0e3e 68cc 31bd 61dc 8e3d f573 e33d
00000200: 9594 16bd 5553 45be f60e 2dbe 342a 013d
00000210: d70f 88bd a713 023e af59 243e ea3e d5bd
00000220: 4c46 be3d edde 193d 685b d4bd f6d4 27be
00000230: dc1a 0b3e ef38 ffbd 2b0c a2bc 6414 89bd
00000240: 45ae 663d 2095 0b3d 0965 26be 1d15 003e
00000250: bb42 87bc beb4 a6bd 4dac 42be 93ed 113e
00000260: 5b50 9dbd 5fd2 84bd 02e7 183e c019 38be
00000270: 79a5 023e 3ab8 31be b640 a7bd c0a7 d43d
00000280: 4b21 cc3d 3448 a8bd 80c1 b2bd 285f 84bd
00000290: b117 2dbe 188c 01be 2469 c4bc 222e 2ebe
000002a0: 499a 11be 9d58 e23d 0630 b23d fe0b c03b
000002b0: 73a1 85bd c318 d5bd 95d7 b1bd 916b 0ebc
000002c0: cc09 923d 084a 893d 80b2 ab3d daf6 b5bd
000002d0: cbd8 9b3d 3b6e 263e 1ce8 dbbd b7a2 223d
000002e0: 9bc7 753c b57d 3cbe fa85 49be 135a e8bb
000002f0: 0bea 4f3e 6d10 bc3c b1d5 97bc 553f 09bd
00000300: a1d9 a9bd ecbf 023e 9312 25be 6cb8 c8bc
00000310: 07ea 03be d83b 16bd 342a 193d 4e38 f0bd
00000320: 4c5c 19bd 4617 983d 1c00 483e 5871 b0bc
00000330: 7241 04be 0791 2dbe 9a54 37be 3754 05be
00000340: 3ec5 e73d 5648 cf3c 6ddb 55bd f79a 3cbe
00000350: bc64 f03b 05f0 333e db5a 193e 2dc9 bebc
00000360: 052a bc3b 0456 2ebe 0b60 9e3c 6284 ac3d
00000370: 819f f73d 62a0 febc 49b4 b3bb e171 de3d
00000380: f5e3 f7bd 0c72 37be c565 0cbe 0702 41bd
00000390: 5ed0 113d 34c6 ccb9 8838 85bc 2060 3dbe
000003a0: 5a22 3ebe 5f86 e73d c845 14be 3d5e febd
000003b0: d60b 52bd 9248 bcbd 259f 14be 9dd2 5c3d
000003c0: 9d3b 8dbc 83e4 19be 3490 13be 19be 0abc
000003d0: b8c6 563d 3f92 9a3d f7f4 adbd b5cd 23bd
000003e0: 0dde 09bc 9faa 413e 1e02 1a3e 60ad 193e
000003f0: 2a26 f1bd 3965 e5bd b233 c83c c7bf a0bd
0.17394817 -0.120863356 0.039370712 0.13244815 -0.03690647 0.15762469 0.1585064 -0.0011626359
0.14789961 -0.12327281 -0.13405837 0.16802207 -0.114474624 0.046064757 -0.18044099 0.06724752
-0.032816645 0.16121553 0.054149862 -0.0019119345 0.14844969 -0.04430198 0.14045541 -0.15988019
-0.13603102 0.076659516 0.18155695 0.19354236 0.11006273 0.06643814 0.16830862 -0.15233037
0.0030717065 0.14943364 0.08109053 0.10212175 -0.180489 -0.16972746 0.11588199 0.17581636
-0.16218288 -0.18719585 -0.04418071 -0.051704217 0.17341398 0.14850561 -0.19486035 0.022019833
-0.08252064 0.16952829 0.14453073 -0.00090707734 -0.025039224 0.021613127 0.01459383 -0.1835635
0.04311393 -0.13571672 0.19037247 0.10845497 0.09258274 0.06895917 0.15707839 -0.12129634
-0.15908903 -0.04732315 0.016019741 0.09474058 0.17076029 0.10960622 0.021096034 0.06772477
0.15344746 0.093321756 0.10117857 -0.14397645 -0.18662481 -0.18429878 0.10531582 0.10068101
0.15103896 0.059700176 -0.0046896916 -0.13194345 0.14127474 0.114630975 0.023835273 0.13296828
-0.09659537 0.15589409 -0.015332275 -0.15038885 -0.04084901 0.15716079 0.15094444 0.041019678
-0.16909675 -0.15992427 -0.1311254 -0.043369066 0.13994691 0.16460033 0.1764373 -0.09390949
-0.048656594 -0.048092384 0.15847832 -0.08674561 0.18801908 -0.03753406 0.009362464 -0.01272042
-0.0718677 -0.15987548 0.1719471 -0.1599588 0.031641793 0.008392151 0.038669653 -0.01659195
-0.053411532 0.1645662 -0.07199294 -0.033099677 0.13874462 -0.043407828 0.06975628 0.111061014
-0.036762793 -0.1927007 -0.16900238 0.03153439 -0.06643646 0.1270281 0.16049837 -0.104123905
0.09290752 0.037566114 -0.10368997 -0.16389832 0.13584465 -0.12462031 -0.019781193 -0.06693342
0.05631854 0.034077764 -0.1624948 0.12508054 -0.016511312 -0.081399426 -0.1901104 0.14250784
-0.07681342 -0.064854376 0.14931872 -0.17978573 0.12758435 -0.17355433 -0.081666395 0.10383558
0.09967288 -0.08216897 -0.087283134 -0.06463462 -0.16903569 -0.12651098 -0.023975916 -0.17009786
-0.14219011 0.11052058 0.08700566 0.0058608046 -0.065249346 -0.104051135 -0.08683697 -0.008692638
0.07130775 0.067035735 0.083836555 -0.08884974 0.07609709 0.16252987 -0.10737631 0.03970596
0.015001203 -0.18407328 -0.19680014 -0.007090816 0.20304124 0.022957051 -0.018534513 -0.033507664
-0.082934625 0.12768525 -0.16120367 -0.024502002 -0.12882243 -0.036678165 0.037393764 -0.11729489
-0.037441537 0.07426314 0.19531292 -0.021538422 -0.1291559 -0.16949855 -0.17903367 -0.13020407
0.11316918 0.025303047 -0.052211214 -0.1841849 0.007336227 0.17572029 0.14976065 -0.023289287
0.005742314 -0.17025 0.019332906 0.084236875 0.1209097 -0.031082336 -0.005484138 0.108615644
-0.12104026 -0.17914599 -0.13710697 -0.047121074 0.035599105 -0.00039057585 -0.016262308 -0.184937
-0.18567792 0.11304926 -0.14479744 -0.12420318 -0.05128082 -0.09193529 -0.14513834 0.053911794
-0.01724034 -0.15028577 -0.14410478 -0.008468174 0.052435607 0.075474255 -0.08493989 -0.0399911
-0.008414757 0.18912743 0.1503987 0.15007544 -0.11774857 -0.11200947 0.024438713 -0.078490786

_module.layer1.0.bias f4 [16]
00000000: fe7c 43be ff89 e73d 5800 123e 848d 7bbb
00000010: 3b5a 10be 87bb 653d b108 443e 4e93 9d3d
00000020: 10e8 2ebe dd06 83bd bd46 003e 46ed 1fbd
00000030: 409c ea3d 3de4 443d 8ea6 a93c 4183 a13d
-0.1909065 0.113056175 0.14257944 -0.003838391 -0.1409692 0.056087043 0.1914394 0.07694112
-0.17080712 -0.063977934 0.12526985 -0.03904464 0.114555836 0.048069227 0.020709302 0.07886363

_module.layer1.1.weight f4 [16]
00000000: 68bb 7e3f 2bb4 813f 6fcc 7e3f ffd1 7f3f
00000010: 5f9d 813f 2bc1 7c3f 1bdd 7d3f 3924 803f
00000020: 84dd 7e3f e2ba 7e3f a99d 813f 0fda 803f
00000030: 7c05 813f 57ca 813f 13df 803f 80b3 803f
0.9950471 1.0133108 0.9953069 0.99929804 1.0126151 0.9873225 0.99165505 1.0011054
0.99556756 0.9950391 1.0126239 1.0066546 1.0079799 1.0139874 1.0068077 1.0054779

_module.layer1.1.bias f4 [16]
00000000: 915c 8d3b 3580 843a 450b 1a3b 139c 2b3b
00000010: 621c acba 96c1 83bb 04e1 873a d1d1 25bc
00000020: fb6e d8b7 2889 bc3b a854 d738 b474 bdbb
00000030: a2a7 4c3c 0b2e 16bb f6f4 ca3b b0d2 10bb
0.0043140133 0.001010901 0.0023505252 0.0026185557 -0.0013131017 -0.00402088 0.0010366742 -0.010120825
-2.5800886e-05 0.005753655 0.00010267767 -0.0057817344 0.012491139 -0.0022915627 0.0061937524 -0.0022098236

_module.layer2.0.weight f4 [16, 16, 3, 3]
00000000: f648 ecbc 9a3f 8f3d 44cc 863c 3cd0 aabd
00000010: 966f b4bc 6924 db3b 2450 b2bd fd0f 713d
00000020: a846 8abd 5f4a 58bd ab75 a0bc 0855 113d
00000030: bac9 5bbd 41f3 d2bb 3bfe a7bb 14ac 26bd
00000040: cfe6 6bbd eb19 6ebd e157 8d3d 58cc 3dbd
00000050: 405c 983d 5c80 b8bc a2da 8d3b 3835 943c
00000060: eb6b 23bd 7702 9bbd d55d 60bd 0329 96bd
00000070: f117 09bd 0295 efba 4b4f 9a3c ab3f b63c
00000080: 52b1 24bd da30 933d 2eef cd3c 7fcd 8bbc
00000090: 6596 5d3d da5f 1abd 678c 54bd 7c50 91bd
000000a0: e026 95bc d445 64bd 8370 773d a91d 6e3c
000000b0: 3013 293d af91 98bd d9b9 aebd 50c7 973c
000000c0: 36be 1ebd 9203 d63c cf68 2dbd 9aee 43bd
000000d0: 77dd 3e3d 5322 a43c 754a a03d 3b67 74bd
000000e0: a587 87bd 7b4a 3f3c 7333 343d b667 cd3b
000000f0: cfa3 403c fec2 eeba 748e 723d 388f 163d
00000100: cc9d 873c aaf2 213b 351e 2d3b 19ed 5b3d
00000110: 8d6e f33c f4a1 9bbd 47d1 e5bc f494 a83d
00000120: 0868 493d 8480 013d 697b 26bd 3ecd 1cbd
00000130: 03cd 543d 818c 9b3d 88fd 903d 9ef5 4d3c
00000140: 66c5 0abd 5324 4dbd 7fd5 8f3d 0a30 763d
00000150: 3b10 0f3d d708 f9bc 5ca9 793d e68e 843d
00000160: cbb9 2fbd 3b4d 853c e88d 0d3d 3036 afbc
00000170: 8d07 71bd 3ae2 8abd 1cad 35bd fb8f a5bd
00000180: 7554 c93c 77b5 86bd 61e0 45bc 7923 283b
00000190: 1c81 8f3b 2d7f ab3c 968d 6cbb c43e 1d3d
000001a0: e10a 5b3d 6f03 00bd f215 53bd 10a9 68bd
000001b0: 2fd0 ac3d 2e73 913d 1a6b a73d 0a82 fcbc
000001c0: ee9c 893d d974 a2bc f797 36bc 53ab 46ba
000001d0: cefb f6bb 8644 6d3d 7eee 93bd dcb8 2cbc
000001e0: f45c 433d 3d4b 353d 19eb 513d 39c2 053d
000001f0: 797f 8e3d 22ed 4bbc 99ab 14bd 4c52 57bd
00000200: 5e87 653d 7283 9ebd 34a6 3b3c 6b2a 9e3d
00000210: 5a4f 073d effd a53d 1b75 893d b30f c43c
00000220: 076c cfbc b5cf 8abd c6b8 c1bb cd3d 95bc
00000230: 2890 64bc e932 35bd a734 a4bd 187e 81bd
00000240: 2464 51bd 6f5d 1b3c 0e01 9f3d 0479 2e3b
00000250: 112c 80bd 63a2 a1bd 025f 05bd 2d3e 1d3d
00000260: f915 a8bc 882a 4b3c 7da9 71bd 4fa8 b33d
00000270: 86a3 063d f7a3 073d e55b 86bd 8c81 323c
00000280: 33c1 c0bb 55e7 81bd d7d5 8dbd b16d 83bd
00000290: c4fd 783d 5636 96bd cb4e 84bd 085b a73d
000002a0: e2a6 0bbd e360 67bd 69f7 a1bb 3c16 853d
000002b0: 144a a93c d85f b2bc df5d 0bbd 0bfc 04bd
000002c0: c029 503d d59c 453d 8087 053d ae07 b1bd
000002d0: 279b ff3c 9241 52bc 3eb2 8f3d 2771 3ebb
000002e0: 611e 9ebc 6de3 28bd c0dc a83d 5013 73bd
000002f0: f3b9 fcbc 7cb0 723d f529 0d3d da66 81bd
00000300: ab02 0e3d abe9 823d 8ba0 e93b 35ae 35bc
00000310: 94d3 38bd 692e 243d 152c aabd d62c 20bc
00000320: 49b6 5c3d e5c8 553c 4ee9 013d 8477 6d3d
00000330: 59d8 093d 9551 86bd ce53 71bd a794 8b3d
00000340: ddae dfbc 319a 84bc fd1b e93b 3723 93bd
00000350: e291 8dbd 00dc 99bd d5cc 763d 5f59 5bbd
00000360: 6c26 343d 1d09 2b3d 3454 453d 15c0 2fbc
00000370: 302e 85bc ee2b 8f3c ae07 39bd 76c5 4e3d
00000380: df8d 5fbd 5082 103d 566c 8cbd 3c80 1a3c
00000390: f1f0 fb3c 03dc 50bc 642e 2d3d 9d08 cebc
000003a0: 3fdf 14bc fb28 dc3c e627 6abd 9b1b cfbc
000003b0: 5509 9c3c 0c12 ea3a 2d93 b13b 4972 18bd
000003c0: b3f0 1ebd b3e9 9fbd 6639 59bd bc8f 913d
000003d0: 6128 6c3d 6289 5d3d 656e 9c3d 0cf7 70bd
000003e0: 8115 20bd c974 6cbc eb4d 1b3d a3b8 8c3c
000003f0: b2ea 60bd 4cce 8fbd 2205 33bc e052 b03d
-0.028843384 0.06994553 0.016454823 -0.08340499 -0.022025865 0.00668769 -0.08706692 0.05885314
-0.06751758 -0.0528053 -0.019587358 0.035481483 -0.05365918 -0.0064376895 -0.005126742 -0.04069145
-0.057593163 -0.058130186 0.06901527 -0.046337456 0.0743947 -0.022522144 0.0043290416 0.018091783
-0.03989784 -0.075688295 -0.054776985 -0.07332041 -0.033470098 -0.0018278661 0.018836638 0.022247156
-0.04020817 0.07187052 0.025138464 -0.017065762 0.054098506 -0.037689067 -0.05189171 -0.07095429
-0.018207014 -0.055730656 0.060410034 0.014533439 0.041278064 -0.07449662 -0.085315414 0.018527657
-0.038755618 0.02612475 -0.04233628 -0.04783497 0.046597924 0.020035898 0.078267016 -0.05966876
-0.06617669 0.011675472 0.04399438 0.006268467 0.011757805 -0.0018216071 0.059217885 0.036757678
0.016554736 0.002471129 0.002641571 0.05369291 0.0297158 -0.075992495 -0.028053893 0.082315356
0.049171478 0.031616703 -0.040645037 -0.03828167 0.051953327 0.07595158 0.07079607 0.012570767
-0.03387966 -0.05008347 0.07023143 0.060104407 0.034927588 -0.030399723 0.06095253 0.06472568
-0.042901795 0.016272178 0.03455916 -0.021388143 -0.05884509 -0.067814305 -0.044354543 -0.08084103
0.024576405 -0.065775804 -0.012077422 0.002565591 0.0043794047 0.020934666 -0.0036095134 0.038389936
0.05347717 -0.031253275 -0.0515346 -0.056801856 0.08438145 0.07102047 0.08174725 -0.030823726
0.06719385 -0.019831108 -0.01114463 -0.000757863 -0.0075373417 0.057926677 -0.07223223 -0.010542121
0.04769607 0.044261206 0.051249597 0.03265593 0.06957907 -0.012446674 -0.03629646 -0.05256872
0.0560373 -0.07739915 0.0114532 0.07722934 0.03303466 0.081050746 0.06711789 0.023933267
-0.025320066 -0.06777898 -0.0059119193 -0.018217945 -0.013950385 -0.044238005 -0.08017855 -0.063228786
-0.051120892 0.0094827255 0.07763873 0.0026622424 -0.06258405 -0.07892301 -0.03256131 0.038389374
-0.02051829 0.012400277 -0.058999527 0.08772337 0.03287079 0.033115353 -0.06560496 0.010895144
-0.005882406 -0.06342951 -0.06925552 -0.06417406 0.060788885 -0.073345825 -0.06460341 0.0817166
-0.0340947 -0.056488883 -0.0049428237 0.064983815 0.020665206 -0.021774217 -0.03402507 -0.03246693
0.050821066 0.04824527 0.032599926 -0.08644043 0.031201912 -0.012833016 0.07016419 -0.0029059143
-0.019301595 -0.041232515 0.0824523 -0.05934459 -0.030850386 0.05925034 0.03446384 -0.063184455
0.034670513 0.06392225 0.007129734 -0.0110888975 -0.04512365 0.040083323 -0.08309189 -0.009776315
0.05388478 0.013048385 0.031716637 0.057975307 0.03365359 -0.06558529 -0.058917813 0.068154626
-0.027305061 -0.016186805 0.007113932 -0.07184451 -0.069125906 -0.07512665 0.060253937 -0.053552028
0.043981954 0.041756738 0.048176005 -0.010726948 -0.016257375 0.017477002 -0.04517334 0.050481282
-0.05457866 0.035280526 -0.06856601 0.0094299875 0.030754538 -0.012747767 0.04228057 -0.025150592
-0.009086429 0.02687501 -0.057166956 -0.025281718 0.019047419 0.0017858162 0.005419156 -0.037218366
-0.038803767 -0.078082465 -0.053033255 0.07107493 0.057655696 0.054086097 0.076382436 -0.058829352
-0.039083008 -0.014432141 0.037916105 0.017177885 -0.054911323 -0.0702177 -0.010926517 0.08609557

_module.layer2.0.bias f4 [16]
00000000: 9c08 413d 9fee 673d d191 13bd 290a d7bc
00000010: 0be6 cf3c 2f28 4a3d 3f3e 9fbd de08 723c
00000020: b8c2 303c 96fb 3bbb 361e 9a3c 5151 203d
00000030: 4327 283d 4d49 a43d 66e3 acbd 2327 1b3d
0.04712735 0.05662405 -0.036027733 -0.026249962 0.025378248 0.04935473 -0.077755444 0.014772622
0.010788612 -0.0028683892 0.018813234 0.03914005 0.041053068 0.080217935 -0.0844181 0.03787912

_module.layer2.1.weight f4 [16]
00000000: b361 7e3f bac1 7e3f d9d7 813f 8d7c 803f
00000010: 1b48 7f3f aeea 803f 8441 7e3f 4a11 7e3f
00000020: 8719 813f 17d9 803f b485 7f3f 29b7 7e3f
00000030: b3a7 7f3f bc3c 803f 39b9 803f c4d5 7d3f
0.9936783 0.99514353 1.0143996 1.003801 0.997194 1.0071619 0.9931872 0.9924513
1.0085915 1.006625 0.9981339 0.9949823 0.99865264 1.0018535 1.0056525 0.99154305

_module.layer2.1.bias f4 [16]
00000000: 17fe e7ba 0cf5 cc3a 7e13 1b3c 9c40 01bc
00000010: 427f a3bb 5870 9f3b 2ae1 e03b 17d0 e53a
00000020: da46 c83b a982 d2bb bac8 6bba 02e2 17bb
00000030: a7b5 863b 0ad0 6e3b b408 4abc 13cf 80ba
-0.0017699626 0.0015636995 0.0094650965 -0.007888939 -0.0049895355 0.0048656873 0.006862779 0.0017533329
0.006111962 -0.0064242673 -0.0008994449 -0.0023175483 0.00411101 0.003643992 -0.012331177 -0.0009827338

_module.layer3.0.weight f4 [64, 16, 3, 3]
00000000: 75b8 93bc 6c75 7d3d 39ae 403d 8897 8fbd
00000010: 5588 8ebc ab5c 53bd 5368 8ebb bb4c f8bb
00000020: a9f5 77bd 0c1f 3d3d f778 593d 0cf9 883d
00000030: 1310 3d3d e96f 863d c2a7 2a3d 2230 35bd
00000040: de1c c8bc 8289 32bc 1b24 283b 8d24 1d3c
00000050: ac07 723d b1fa 843d 765a 9a3b 481f 93bd
00000060: ed60 2b3d 8710 3e3d 4b5a 9d3d 0457 83bc
00000070: 249f a13b b559 8fbd e7f9 99bd 1175 8bbd
00000080: f202 e1bc 83aa 783d 1767 70ba 9cdb ccbc
00000090: 3293 dabb 68aa 67bd fac3 00bc 4a0f 5d3c
000000a0: 72bc b43d 8255 443d 7c5b 81bd 3320 8abd
000000b0: c762 943d 0c09 70bd 4053 6a3d 3adf 403d
000000c0: 813a 3c3c d910 633d 8d8a 013d 11d2 6d3c
000000d0: cf89 a33d 487c a8bd 24d1 37bc 8972 e0bc
000000e0: 7222 8cbd 3be5 87bd 37b6 b1bc e41a 0e3d
000000f0: 596d 7d3c c7b8 933d 197d fd3c c7b6 5fbd
00000100: 69ac dbbc 937b 88bd f3f9 63bd ba59 c93c
00000110: 5b48 acbd 21c5 343d 6f08 563d fbea 9abd
00000120: 2aa9 c53b a4a0 0bbd 8260 353d f061 1fbc
00000130: 9ab0 30bd cf0c a73d 74ff a8bd 21e0 7bbd
00000140: d28c 8fbd e4b5 883d ce5f 8cbd 40d3 6fbc
00000150: d198 85bd 4a2b 9cbc 1425 60bc bbae 93bc
00000160: 1021 963d ffbe cf3c 933c fe3c ccc9 dbbc
00000170: f772 c23c dc39 513c e6f6 903d ca3d 8fbd
00000180: 4c1b 35bd 0668 913d 515b fcbc 6506 9e3c
00000190: e5e6 91bd 01a2 893d 62de 193d a715 52bc
000001a0: 7d7b 1fbd 82f1 a0bd 6850 673d 5b87 8dbd
000001b0: de5b 64bd 93af c3bc 4399 a33c 8863 47bd
000001c0: d793 3abd ac83 2abd c791 7f3d 9e79 8cbd
000001d0: 0fda 1c3d 94a2 26bb 3802 583d 44bf 563c
000001e0: 2248 243c 2c69 48bd e006 90bd 8386 2c3d
000001f0: 5ff0 933d 6d04 723d 838c 043d fc96 2d3d
00000200: 6761 a63b e860 c13c 50d7 31bd 3491 b03c
00000210: 4933 e8bc 6b24 1cbd ac86 a8bc 20c5 8bbd
00000220: 0c66 57bc ecbe 96bc e562 c43d 844b 8c3d
00000230: 803f c93c 2354 8cbd 2580 873b 15ba 6ebc
00000240: ffb0 b13d dd39 bdbb f974 813d 3d94 bcbc
00000250: 2df3 c63c d42a 183d 5c40 893d 9d13 95bd
00000260: a70d a33d a29d 413d e45a 6c3d 5cf3 e53c
00000270: 2958 a4bd b669 86bd d739 a53b 7c49 443d
00000280: 1404 7dbd 42b4 55bd baff 053d 3fda a83d
00000290: 7233 7ebd cc1f 25bd 600b 43bc 25c7 a7bd
000002a0: 2446 b5bd c9a1 6a3d 98a1 9f3d 3cf3 86bb
000002b0: 0cee 48bd 9e98 1f3d 1165 dfbc c577 61bd
000002c0: f6d2 0e3d 6b59 82bd ab58 903c be5d 5c3d
000002d0: ee21 7c3d 1d8c 08bd c422 b8bd 240b 44bc
000002e0: 86c4 873d 7edc 00bd ca52 973d 710e 733d
000002f0: 08cd 903d a769 863d 2a21 a4bc 44ee 733d
00000300: 8445 713c 1747 413d 95a9 acbc 7c9c b8bb
00000310: 792a 11bc f851 9a3c 4d93 e2bb 7cee f6bc
00000320: 0016 0b3d 8572 c2bd b228 793d 3490 83bd
00000330: fc82 3c3d 2c59 67bd 3e27 793d af95 b5bb
00000340: 25c4 523d 56f3 a53d 6e9b 893d 0f97 9ebd
00000350: e13b 3c3c 002c 7c3d 1d76 75bd d189 0b3d
00000360: 2b03 4cbc 5e7e 2fbd da5d 43bc f31a 78bd
00000370: 4b89 353d a709 8f3c bc59 d1bc 2e49 9bbd
00000380: f127 a83c 5aad 62bd ff5a 943d 4a80 ac3c
00000390: 3230 4e3c 5343 cb3c 5f75 49bd f532 1a3d
000003a0: eb6c 093b 1233 4b3d 66bf 963d cd01 8abd
000003b0: b51d 763d 216b 02bd e85e f9bc 4cf8 6b3b
000003c0: bd48 8abb bf5b 8e3c 6377 073d 1cd8 463d
000003d0: dda3 a7bc 9b7a 9bbd 16e0 6ebb 075b adbd
000003e0: ed07 83bd b784 b8bc 8062 873d eb3e 153d
000003f0: 5fbf ae3d 0066 4e3c b646 903c 117a 613d
-0.018032292 0.06187956 0.04704115 -0.07011324 -0.017398993 -0.051602047 -0.0043459325 -0.0075775064
-0.060537014 0.046172187 0.053093877 0.06688127 0.046157908 0.06564314 0.041663893 -0.044235356
-0.024427827 -0.010897042 0.0025656286 0.009591234 0.059089348 0.06493128 0.004710491 -0.07183701
0.041840483 0.04640248 0.07683238 -0.016032703 0.004932301 -0.06999532 -0.07518368 -0.06809438
-0.027467225 0.060709488 -0.0009170635 -0.025007062 -0.006670379 -0.056558996 -0.007859224 0.013492415
0.088250056 0.04793311 -0.063162774 -0.06744423 0.07245403 -0.058602378 0.0572083 0.047087885
0.011488558 0.05543599 0.031626273 0.014515416 0.07985269 -0.0822683 -0.011219297 -0.027398365
-0.068425074 -0.06635519 -0.021693332 0.034693614 0.015467965 0.07212978 0.03094344 -0.05461767
-0.02681561 -0.06664195 -0.055658292 0.024578918 -0.08412238 0.04413331 0.052254137 -0.0756435
0.006032129 -0.034088746 0.04428149 -0.00972794 -0.04313717 0.0815674 -0.08251849 -0.061493043
-0.07009281 0.06675318 -0.06854211 -0.014637768 -0.06523288 -0.01906361 -0.013680715 -0.018027654
0.07330525 0.025359629 0.031034743 -0.026829623 0.02373646 0.012770142 0.07078342 -0.06994207
-0.044215485 0.07099919 -0.030805262 0.019290159 -0.07124118 0.06720353 0.037565596 -0.012822545
-0.038936127 -0.07858564 0.056473166 -0.06910583 -0.055751674 -0.023887431 0.019970542 -0.048678905
-0.045551147 -0.04162948 0.062394883 -0.06859134 0.038293894 -0.0025426494 0.05273649 0.013107125
0.010026963 -0.048928425 -0.07032561 0.042120468 0.072235815 0.059086252 0.032360565 0.042380318
0.0050775292 0.023605779 -0.04341823 0.021553613 -0.028344767 -0.03812067 -0.020572029 -0.06824708
-0.013146888 -0.018401586 0.09589175 0.06850341 0.024566412 -0.06851985 0.004135149 -0.014570733
0.086763375 -0.00577472 0.06321139 -0.023019904 0.024285877 0.03715022 0.06701729 -0.072791316
0.07961588 0.04726947 0.057703868 0.028070144 -0.08024628 -0.065631315 0.0050422954 0.047921643
-0.061771467 -0.05217386 0.032714583 0.08244752 -0.06206078 -0.040313527 -0.0119045675 -0.08192281
-0.08851269 0.057283197 0.077944934 -0.0041183513 -0.049055144 0.038963906 -0.027269872 -0.05504586
0.034869157 -0.063647114 0.017620405 0.053800337 0.061555795 -0.033336747 -0.08991006 -0.011965547
0.06629281 -0.031460278 0.07388838 0.059339944 0.070703566 0.0656312 -0.020035345 0.0595534
0.0147260465 0.047186937 -0.021076957 -0.0056338888 -0.008860224 0.018837914 -0.0069145323 -0.030143015
0.033956528 -0.09494499 0.060829826 -0.06423989 0.046023354 -0.056481525 0.06082844 -0.0055415253
0.05145659 0.08103053 0.06719099 -0.07743656 0.011488886 0.0615654 -0.059927095 0.03406698
-0.012451927 -0.042845123 -0.011924231 -0.060572576 0.044320386 0.017460657 -0.025555484 -0.07582317
0.020526858 -0.055341102 0.07243919 0.021057267 0.012584733 0.024812376 -0.0491842 0.037646253
0.0020969461 0.04960925 0.07360725 -0.06738625 0.060086925 -0.031840447 -0.030440763 0.003600615
-0.004220097 0.017377732 0.03307284 0.04854594 -0.020463878 -0.075917445 -0.0036449484 -0.08464628
-0.06397996 -0.02252422 0.06610584 0.036436956 0.08532595 0.012597561 0.017611843 0.055048052

_module.layer3.0.bias f4 [64]
00000000: 3397 a7bd 378f 9a3d 96d5 93bd e540 9fbd
00000010: 4f26 dbbc 5f28 5e3d bd78 7ebd 486d 7e3d
00000020: 834e 4cbc 3c18 30bd ee4a 36bc 70b3 cd3c
00000030: 51a0 c03d 03c7 90bd 0094 603d 2dad 6dbc
00000040: c472 823d 6ac8 6f3d 3226 e2bb f96d e1bc
00000050: 3002 f43b 90ce 793d 26a6 2bbd dd3b 2f3d
00000060: ecf1 23bd f730 433d 382c 9b3d 92f4 653d
00000070: aafd 1cbd 00e5 b63c 4410 93bc bb5c a93c
00000080: 197f c23c 7367 e5bc f5cf 583d 6ed0 8b3d
00000090: 687d 683c 1eb0 81bd ae9a eebc 17ce 85bd
000000a0: c4b0 33bd 94f3 083c 3f97 abbd bcda 773d
000000b0: c545 863d c6cc a2bc 516e 20bd 1e64 9a3b
000000c0: 161e 993c 71d4 a63d 5bc2 6abc b5cb bbbc
000000d0: 0134 92bd a458 2dbd 8d57 b03d 6e24 823d
000000e0: db37 fdbc 48e5 92bd eeaa 823c bf9d 9fbd
000000f0: c4f1 25bd 286a 273d eb56 6e3c e218 9f3b
-0.08183136 0.07546847 -0.07218473 -0.077760495 -0.026751665 0.05423772 -0.062126864 0.062115937
-0.0124698905 -0.04299186 -0.011126263 0.025109977 0.09405578 -0.070692085 0.054828644 -0.01450662
0.06369546 0.05854074 -0.006901526 -0.02751826 0.00744655 0.06098801 -0.0419065 0.0427817
-0.040025637 0.04765412 0.075767934 0.056141444 -0.03832785 0.022325993 -0.017952092 0.0206741
0.023742246 -0.02800343 0.0529327 0.06826864 0.014190055 -0.0633242 -0.029126491 -0.06533449
-0.04386975 0.008358855 -0.08378457 0.060511336 0.06556276 -0.019873034 -0.039167706 0.004711642
0.018691104 0.08145989 -0.0143285645 -0.022924284 -0.07138825 -0.042320862 0.08610449 0.06354605
-0.030910423 -0.07172638 0.015950646 -0.077937596 -0.04051377 0.040872723 0.01454709 0.004855261

_module.layer3.1.weight f4 [64]
00000000: 9176 803f b874 803f 6b3a 803f 66be 7f3f
00000010: 17af 7d3f 2103 7e3f 3357 7e3f 7d16 7e3f
00000020: b8cb 7f3f 1659 7e3f d4d6 7d3f 7964 7e3f
00000030: b9a6 7f3f 4407 7f3f 365a 803f 6ff8 7d3f
00000040: 396e 803f f991 7f3f c28a 813f 3bf2 7f3f
00000050: a94c 803f 8ca1 7f3f c931 7e3f 54b8 803f
00000060: 6862 7f3f 36ba 803f 0180 803f d7bc 7e3f
00000070: 4692 7e3f 437a 7d3f 863a 7f3f 235c 7f3f
00000080: bcf5 7e3f dd24 803f 5c06 813f 9f23 813f
00000090: 8c80 803f a32f 7f3f 7545 813f cb9a 7c3f
000000a0: 3ce4 7f3f 2dfe 813f 7343 803f dbb4 803f
000000b0: ef0b 803f 1921 803f f8e8 7c3f b7e4 803f
000000c0: f8c4 803f 5865 803f 8e18 813f 3924 803f
000000d0: 5393 803f 75a8 803f 33d6 7e3f a9d6 813f
000000e0: cb6e 803f ff3e 803f 0f32 803f ed12 813f
000000f0: 2dd8 7c3f 50e0 803f aa7c 803f a8fa 803f
1.0036184 1.003562 1.0017828 0.998999 0.9909529 0.99223524 0.99351805 0.99253064
0.99920225 0.99354684 0.99155927 0.9937206 0.99863774 0.9962046 1.002753 0.99207205
1.0033637 0.9983211 1.012047 0.9997899 1.0023395 0.99855876 0.99294716 1.0056252
0.9975953 1.0056827 1.0039064 0.99506897 0.99441946 0.9901468 0.99698675 0.99749964
0.9959371 1.001125 1.0080066 1.0088996 1.0039229 0.9968206 1.0099322 0.98673695
0.99957633 1.0155693 1.0020584 1.0055193 1.0003642 1.0010101 0.9879298 1.0069798
1.006011 1.0030928 1.0085618 1.0011054 1.004496 1.0051409 0.9954559 1.0143634
1.0033811 1.0019225 1.0015277 1.0083901 0.9876736 1.0068455 1.0038044 1.0076494

_module.layer3.1.bias f4 [64]
00000000: c329 79bc 8859 483b 5ad4 59bb f061 3cbc
00000010: 13e0 64bc b4da 1ebb 9221 1bbc 7111 e1ba
00000020: 95c5 28bc 1aed 92bb ca7c 9e3b 0cca d03b
00000030: cc7a c5b9 44a1 9c3b 6fc4 823b 5093 1eba
00000040: 073c 0ebb b86d 93bb 32f5 f13b 38cc c4bb
00000050: 0d27 133a c53e 053c 5b14 fabb bbba 223b
00000060: 4107 683a 0e7a b13b ab9f 573b 4ede 2cb9
00000070: 737b c13b a63a e7bb a754 dc3b 6f26 77bb
00000080: 1588 3d3b f639 9639 3cb1 0bbb 007d cc39
00000090: f465 703b e9c1 13bb 44dd b1bb 0cd5 a0ba
000000a0: 3dd6 76bb ec46 3c3a 897e b03b a1cb 203c
000000b0: c112 033b d20d bc3b bb21 ec39 9fe8 91bb
000000c0: 19c9 583b b627 f93b 5435 f0ba 37de 2ebb
000000d0: 5773 93bc d383 bcbb d347 513c 3c98 f3bb
000000e0: 772f 4b3a f4c4 a1bb f718 9e3b f9a5 913b
000000f0: 6397 b0ba 4c0a ac3b 7c33 653b cbef 77ba
-0.015207711 0.0030570943 -0.0033238144 -0.0114979595 -0.013969439 -0.0024239244 -0.009468453 -0.0017171336
-0.0103010135 -0.004483831 0.0048366534 0.006371742 -0.0003766626 0.0047799665 0.003990702 -0.0006049173
-0.002170326 -0.0044991635 0.007383966 -0.00600579 0.0005613424 0.008132641 -0.007631821 0.0024830538
0.00088511786 0.0054161614 0.0032901566 -0.00016486013 0.005904609 -0.007056552 0.0067239585 -0.0037712117
0.0028920223 0.00028653414 -0.0021315357 0.00039003044 0.0036681863 -0.0022546 -0.0054279882 -0.0012270524
-0.0037664317 0.0007182199 0.005386178 0.009814174 0.0020000192 0.005738952 0.0004503856 -0.0044527794
0.0033078848 0.007603611 -0.001832644 -0.0026682743 -0.017999334 -0.0057530194 0.012773472 -0.0074339192
0.0007750908 -0.0049368087 0.0048247534 0.0044448343 -0.0013472851 0.005250251 0.0034973314 -0.0009458034

_module.layer4.0.weight f4 [64, 64, 3, 3]
00000000: c5c4 e8bb e8a3 033d f74c 1b3d 66f4 b03c
00000010: 793c 60bc 28c6 2e3d cd0c c93b 0093 1a3c
00000020: 1fe0 573b 1690 b5bc d0a5 3ebc 160d 04bd
00000030: cb56 b1bc 01cc d63b 9ce4 253d c2c3 dabc
00000040: d16a f13c 7193 843c d80f 693c 7357 02bd
00000050: 5eec 063d 5878 853c fd73 eebc fc99 823b
00000060: fe8a e2bc 613f 28bb 06f4 3f3d 6262 303c
00000070: f9cf 19bd 4eff 083d a909 213d 72c0 2d3d
00000080: 79bb 6ebc 8865 183c 4e87 14bd 4591 f2bc
00000090: 4952 afbc 916d d93c 7d8b 34bc ee2d 2f3c
000000a0: bcf7 f83b 63a4 af3c 6b24 883c 7e84 c7bc
000000b0: 0252 383d 150c 22bd a98f 5dbc e30d cb3c
000000c0: 62e6 09bc 4fc5 9e3c 2348 41bc 0058 f7bc
000000d0: bfd0 92bc ac53 0f3c b652 9dbc 045d e0bc
000000e0: 5264 28bc e0fa 223d 38a2 a73c 00c3 f83b
000000f0: c67d 11bd d66a 36bc 1c31 a4bb fc33 503c
00000100: 398e 2d3d 8524 c8bb b877 d9bc 3c65 113d
00000110: f20b ea3b fe57 01bd 1f25 dfbc b1e7 4b3c
00000120: 18b3 ddbb 4b8a 89bb bc74 f8bc 928b 91bc
00000130: 30f7 e9bc 91c9 9b3b a001 30bc fb1a ecba
00000140: cc8d af3c edb9 6a3c f61a 10bc 403a 103d
00000150: fdcc ccbb 453f 4a3b c7ab 253d 4d45 7b3c
00000160: 74a2 81bc a1fa f33c e5a6 443b 20d1 5d3c
00000170: 654b a7bc 79d0 ebbc 0154 c1bc 6011 cb39
00000180: 6bfe 04bd f87e f5ba a3f8 0bbd 2822 cebc
00000190: fd04 1d3d 9662 d5bc e154 67bc 7bab 2abd
000001a0: 21c0 10bd c851 1cbc 84b5 41bb 36ec f4bc
000001b0: 6b82 e9bc 623a c83c 4ba9 d5bc 4ace 2cbd
000001c0: 5c47 0cbd 5b4e 8a3c 315f a33c c671 0dbc
000001d0: a097 1a3d 26b1 01bd 320c 13bd 8262 f03c
000001e0: d6bf 8bbb 2042 84bc 3d33 2abc cfc0 fe39
000001f0: 7230 8dbc c1cc fe3c 663f cfbb 63f7 313c
00000200: e875 313d 8d98 16bd c750 863c bf76 543c
00000210: 63c0 203d de48 5abd 8ad0 a1bb d9ca e23c
00000220: aeb4 a2bc 7258 f83c 5fcb 14bd da99 8639
00000230: 7e9b 4f3b 1a06 e93c 1035 d3bc 43db aebb
00000240: 7983 513c cbaa 883c 417b 90bc a54f f03c
00000250: a6cc f0bc 9ac4 bb3c c217 873c 8e41 2f3d
00000260: ffac 773c 2f2b 4839 ab13 91bb 36a4 88ba
00000270: 9186 463d 5cda 85bc 1016 d0bc bc5d babc
00000280: a008 f7bb 0164 a83c a648 c4bb d5ad d83c
00000290: df88 13bd c50c cf3c be3c 853b 8b0e f9bc
000002a0: e2a9 bbbc bd2b b3bb a034 183d 8513 9d3c
000002b0: a6f6 fb3c c943 cc3c 7dd9 09bd 817a cabb
000002c0: 1432 90bc 7b5b 163d d824 b5bc 041c 243d
000002d0: 92f9 3f3d ad62 1ebc 4538 37bd 510a febb
000002e0: 8c49 0e3d 02d9 c1bc 9ba7 c9bc 00a6 e2bc
000002f0: 570b 523d 66c5 a4b9 c9c2 0f3d 1f7d ea3c
00000300: 6e86 1abc 47ca b93b 472f aabc 6352 22bd
00000310: d7f0 53bc aee9 173b 7f6f 35bb 9047 053d
00000320: 35ad e6bc 37f1 a9bc 6f38 9c3c 94e6 ad3c
00000330: 75b0 e23c fb92 01bd 39f4 07bd 13d8 233d
00000340: 937d f93c 8e32 043d 7375 02bd d6e0 433d
00000350: ea03 febc 9763 823c 217e 08bd 2466 11bd
00000360: e496 85bc c01c d63c 5c34 bebb 3567 813c
00000370: 1682 663c ea75 d03c c4c8 4c3c ba9b 183c
00000380: 17dd 34bc 81d3 d83c 3893 17bd a1f4 793b
00000390: a9c2 7e3a 1822 3b3d 22e8 0ebc 8452 bcbc
000003a0: 291e 96bc 1ced 273d 6a54 db3c 0a4a 14bd
000003b0: 9dc5 ad3c 49ac 6bbc 486b 1dbd 54ee 8e3c
000003c0: 0dfd 89bc 577c dabb c120 e9bc 11d6 393c
000003d0: 810a 233c baf3 0f3d 3caf fe3b 091e 07bd
000003e0: 6596 e5bc 594b c8bc b4f1 963c 9e82 e7bc
000003f0: b5e3 e13c 11a0 f7bc acba 36bc 451e eebc
-0.007103535 0.032138735 0.037915196 0.021600913 -0.013686293 0.042669445 0.006135559 0.009434462
0.0032939983 -0.022163432 -0.0116362125 -0.032239042 -0.021647831 0.006555081 0.040501222 -0.026704673
0.02946988 0.016183587 0.014224969 -0.03182168 0.03294026 0.016292736 -0.029108042 0.0039856415
-0.027654167 -0.0025672542 0.04686358 0.010765644 -0.037551854 0.033446603 0.039315853 0.04241986
-0.014571064 0.009301551 -0.03626185 -0.029610286 -0.021401541 0.026541503 -0.011019585 0.010692103
0.0075978916 0.02144069 0.016618928 -0.02435517 0.045000084 -0.039562304 -0.013523021 0.024786895
-0.008416744 0.019381193 -0.011796984 -0.030193329 -0.017921804 0.008747976 -0.019204479 -0.027388103
-0.0102778245 0.039790034 0.020463094 0.007591605 -0.035520338 -0.01113387 -0.005010737 0.012707707
0.042371962 -0.006107869 -0.026546344 0.035496935 0.0071425373 -0.031578057 -0.02723938 0.012445376
-0.0067657344 -0.004197394 -0.0303291 -0.017766748 -0.028560251 0.004754253 -0.010742575 -0.0018013412
0.021429919 0.014326555 -0.0087954905 0.0352118 -0.0062500224 0.0030860465 0.040447023 0.015336347
-0.015824534 0.029782595 0.0030006703 0.013538629 -0.020421693 -0.028785931 -0.023599626 0.00038732123
-0.032469194 -0.0018729856 -0.034172665 -0.025162771 0.038334835 -0.026047986 -0.014119358 -0.041667443
-0.03533948 -0.009540983 -0.0029557655 -0.02989779 -0.028504571 0.024441902 -0.026081702 -0.04218892
-0.03424774 0.016883066 0.019942852 -0.008633083 0.037742257 -0.031663083 -0.035900302 0.029343847
-0.004264812 -0.016144812 -0.010388193 0.0004859031 -0.017235015 0.031103494 -0.0063246964 0.010862204
0.043325335 -0.036766578 0.01639594 0.012967764 0.039245974 -0.053292148 -0.00493819 0.027684616
-0.019861545 0.030315612 -0.036326762 0.000256731 0.0031678374 0.028445292 -0.025782138 -0.0053361966
0.012787693 0.016683003 -0.017636897 0.029334852 -0.029394459 0.022920895 0.01649082 0.042787127
0.015116929 0.00019089573 -0.0044273934 -0.0010424915 0.048468176 -0.016339473 -0.025401145 -0.022749774
-0.00753887 0.020555498 -0.0059901057 0.026450077 -0.036019202 0.025274644 0.004066079 -0.030402442
-0.022908155 -0.0054678605 0.037159562 0.019174347 0.03075726 0.024934666 -0.03365468 -0.0061791544
-0.017602004 0.036708336 -0.022112295 0.04006578 0.04686887 -0.009667081 -0.044731397 -0.0077526947
0.03473811 -0.023663048 -0.024616053 -0.027667046 0.051280346 -0.0003142759 0.03509787 0.028624116
-0.009431465 0.0056698653 -0.020774497 -0.03962935 -0.012935839 0.0023180055 -0.0027684865 0.03253895
-0.028158763 -0.020744903 0.019069878 0.021228112 0.027672032 -0.031634312 -0.033191893 0.040000986
0.030455386 0.032274775 -0.03185029 0.047821842 -0.031007726 0.015916629 -0.03332341 -0.0354978
-0.016307302 0.026136756 -0.0058045816 0.015796283 0.014069101 0.02544685 0.012499038 0.009314472
-0.01103904 0.02646804 -0.037005633 0.0038140195 0.00097183377 0.04568681 -0.008722337 -0.022988565
-0.018324928 0.04099761 0.02677365 -0.03620342 0.021212393 -0.014384338 -0.03843239 0.017447628
-0.016844297 -0.0066676545 -0.028458001 0.011342541 0.009951235 0.035144545 0.0077723544 -0.032987628
-0.028025815 -0.024449991 0.0184258 -0.028260525 0.0275744 -0.030227693 -0.0111529045 -0.029067168

_module.layer4.0.bias f4 [64]
00000000: be43 58bc 89f2 d83c eeb6 703c 7b4b 27bc
00000010: b3f3 15bd bc19 693c 4332 04bb ade3 43bd
00000020: ff75 1a3d 603f 85bb 0ac0 803c 0ae4 b5bb
00000030: 998a 88bc 52f0 2a3c 0468 7abc e8c7 c6bc
00000040: d6db f23c c4ed 8dbc c4dd edbc 392e ae3a
00000050: 0495 903c d3bc 9bbc 4a95 44bd d220 3c3d
00000060: 0cbf 3c3c 0e9c 7c3a d842 a83c 76f5 e2bc
00000070: 42d1 34bc 36f4 6ebc 0b0d 6ebc e521 883c
00000080: c399 b43a 2904 d43a 4fe8 b23c 8ee6 1c3d
00000090: 0b9f 3b3c 5e12 1c3d 58aa 913c ad3f 503c
000000a0: b22c 743b bbe8 b4bb c20c 0ebd 9118 26bd
000000b0: 924f dabc 919d 003d 89cc 02bc cd56 683b
000000c0: 3bf1 9fbc f86d f73c b186 033d 96f0 20bd
000000d0: 7263 603c 776a 71bc 5f4d 59bc 6c79 00bd
000000e0: 6dfe bc3b 5258 01bd ff40 73bb cc97 e33c
000000f0: 365e acbc 0ecd 6b3c faf1 babc f53d 113d
-0.013199745 0.026482837 0.014692051 -0.010210867 -0.036609363 0.014227327 -0.002017156 -0.04782455
0.037710186 -0.004066393 0.015716571 -0.005550866 -0.016667651 0.010433273 -0.015283588 -0.024265245
0.029645842 -0.01732529 -0.02903641 0.0013288922 0.017649181 -0.019010937 -0.047993936 0.045929737
0.0115201585 0.0009636291 0.020539686 -0.027704936 -0.011036219 -0.014584592 -0.014529477 0.016617725
0.0013778735 0.0016175556 0.021839289 0.03830581 0.011451493 0.038103454 0.017781422 0.012710494
0.0037258086 -0.0055209077 -0.034680136 -0.040550772 -0.02664927 0.031400267 -0.007983335 0.0035452128
-0.019524207 0.030203804 0.032110874 -0.03929194 0.013695585 -0.014734856 -0.013263076 -0.031365797
0.0057676346 -0.03157837 -0.0037117598 0.027782343 -0.021041017 0.014392151 -0.022820462 0.035459477

_module.layer4.1.weight f4 [64]
00000000: 5253 813f 3dcf 7d3f 6b5b 7f3f 9fbb 803f
00000010: 78eb 803f 1cd5 7f3f 969f 7e3f 5605 7e3f
00000020: 32d1 803f bf17 813f f7cf 7e3f ea68 803f
00000030: 82a6 803f 6a51 7d3f 7063 803f 3739 813f
00000040: 6291 7e3f e2cb 7d3f 1aed 7e3f b76d 803f
00000050: 271f 803f 10c8 7e3f fa1b 7d3f 6b96 813f
00000060: 8b12 803f 082f 803f 42af 7d3f 0549 7f3f
00000070: 3932 803f b200 803f 4d92 7f3f f413 813f
00000080: 782e 7c3f e28b 803f 302e 803f a14f 813f
00000090: f726 803f 1015 813f f1ad 7c3f 5285 7f3f
000000a0: c8a5 803f e849 813f 2a0d 803f f3ab 7f3f
000000b0: 88fc 7f3f 8af7 803f 7b97 7d3f 2a93 7f3f
000000c0: 7e41 803f daba 7f3f ab7e 7f3f 4a57 7f3f
000000d0: 6d93 7e3f 4f76 7f3f 10b1 7f3f 1e2c 803f
000000e0: 4545 803f 5737 803f 7ec6 813f 8be0 7e3f
000000f0: c979 7f3f 6905 803f 9e44 803f a373 803f
1.0103552 0.99144346 0.9974887 1.0057257 1.0071859 0.99934554 0.9946226 0.9922689
1.0063841 1.0085372 0.9953608 1.0032017 1.0050814 0.98952353 1.0030346 1.0095586
0.99440587 0.99139225 0.9958054 1.0033482 1.0009507 0.9952402 0.98870814 1.0124029
1.0005659 1.0014353 0.9909555 0.99720794 1.0015327 1.0000212 0.9983261 1.0084214
0.98508406 1.0042689 1.0014095 1.0102426 1.0011891 1.0084553 0.98702914 0.99812806
1.0050592 1.0100679 1.0004017 0.9987175 0.9999471 1.0075543 0.99059266 0.9983393
1.0019987 0.9989449 0.99802655 0.9974257 0.99443704 0.997899 0.9987955 1.0013463
1.0021139 1.0016888 1.01387 0.99561375 0.99795204 1.0001651 1.002094 1.003529

_module.layer4.1.bias f4 [64]
00000000: ef08 85b7 3325 bf3b 455e c23b a603 c63b
00000010: a679 4bbb 64f6 bc3b 3084 57bc c8ec faba
00000020: a4bf 263c 14a6 0fbc 9529 b23b bb13 57bb
00000030: f37d 3fbb 1f2a c4bb d469 763b 6e15 103c
00000040: 00e7 c13b f3d6 733a 3924 663b d01c 9c3b
00000050: 36e3 8cb9 1785 a13a 3e5d 5b3b 9fe1 eb3b
00000060: c3e1 b43a aa3d d33a 5d32 803a b5f6 263b
00000070: 78ad b5ba 489f 0ebc 2a0e 763b f56e afbb
00000080: 3bce 10bb 2a3d 1a3c 03e4 f83b 41ed 5d3c
00000090: 2045 63bb e01f 0bbc 6437 c9bb 343c f4bb
000000a0: 67da 6ebb de06 b7ba cdd7 2c3b bcb3 19bc
000000b0: 923b c73b a0ed 263c df06 bcb9 fe09 b1bb
000000c0: 85aa 303c 0421 8a3b a88e 19bc 68c6 d8bb
000000d0: ccd5 873b 42af c73b 69a4 74bb ba30 90bb
000000e0: 5806 413c 6396 8c3b 388f 14bc c933 143c
000000f0: 3de0 76bb e420 93bb 3c1d e63a 740a 9b3b
-1.5858996e-05 0.005833292 0.005931648 0.0060429154 -0.003104785 0.0057666767 -0.013154075 -0.0019144053
0.010177527 -0.008767623 0.005437086 -0.0032818157 -0.0029219359 -0.0059864665 0.00375997 0.008794172
0.00591743 0.0009301744 0.0035116805 0.004764177 -0.00026872166 0.0012322989 0.0033472325 0.007198527
0.0013800192 0.00161164 0.0009780634 0.0025476639 -0.0013860902 -0.008704968 0.0037545064 -0.0053538033
-0.002209558 0.009413997 0.0075955405 0.013545335 -0.0034678653 -0.008491486 -0.0061406363 -0.007453466
-0.0036446096 -0.0013963839 0.0026373744 -0.009381231 0.0060800994 0.01018849 -0.00035863274 -0.0054028025
0.0107828425 0.0042153616 -0.009372391 -0.0066154487 0.0041453596 0.0060938904 -0.0037329441 -0.00440034
0.011781298 0.0042903884 -0.009067349 0.00904555 -0.0037670278 -0.004490005 0.001755632 0.0047314707

_module.layer5.0.weight f4 [64, 64, 3, 3]
00000000: cb84 153d b001 14bc d071 18bd 775b 7dbc
00000010: cc2c 083d 8eb5 ab3c 77aa 193d 83ec febc
00000020: 4696 973c dafe babc a196 133d 9097 eb3c
00000030: 968d c9b9 7dcb 0dbc 68b7 053c 7515 8f3c
00000040: dba4 663a 1740 063c c8fd 113c ad66 d83c
00000050: b850 f8bc b9ec e5bb 9ad6 2f3d 9956 1abd
00000060: fafc 933b 193a 00bd 7b19 fbbc be63 e5bc
00000070: 0486 84bc e772 e2bc 1722 5a3b b7f3 693c
00000080: c0de 5e3c ed75 6cbc 7fc8 15bd deb8 643b
00000090: 7061 143d 81e8 cf3b b0f7 20bc 4c55 bcbc
000000a0: 4826 dabb 627d 3bbb 4132 1fbc 9985 2a3c
000000b0: 3cf7 2b3b 3a87 cabc 7681 d83c ec74 98bc
000000c0: e715 ea3c 2bef 833c bd8a 24bd f269 36bc
000000d0: 5b7a f93c d95b d0bb b749 03bd 4835 e63c
000000e0: 940c db3c edc3 9a3c 97df 90bc 4ef4 683c
000000f0: 7e9f 083d 0847 8e3c 9a30 d53c 5e50 2cbd
00000100: c9ff fe3b 8160 a03c 61df e5bc da9c eb3c
00000110: 988d 6cbc 2e28 e43a cd4e 363c 1406 abbc
00000120: 87e5 1abd c4b5 11bd 7218 60bc b76e d5bc
00000130: 8f56 cd3c 3dfe 233d 9f65 74bc 80b9 0c3b
00000140: 87f9 b53c ea60 cb3c 6075 033d 751f a2bc
00000150: 0c96 bebc b907 74bc f3ac 743c 933f 5f3c
00000160: 68e5 2ebc b5fb 2b3b 3241 b5bc 9d9c d9bb
00000170: 6199 0a3c 667a 0fba fe9d 1fbd f2f8 13bd
00000180: 57eb e2bc d3c6 003d 81e6 4dbc 6ed0 f33c
00000190: 7cf3 133d 4097 4bbb 8303 a0bb 96a1 183d
000001a0: 3561 083b faf1 42bc 397f cb3b d70d aa3c
000001b0: d801 97bb e5f7 30bd 6dd4 a93c dde4 20bd
000001c0: c0af 2e3d 63f2 2a3d ab93 21bd 5518 a03a
000001d0: 55e1 18bd e276 8cba 2f66 aa3c 0947 d8bc
000001e0: 6ad6 f2bc ad6c 7f3c 1c3a 903c 4be2 f63c
000001f0: 48d0 ba3c b589 893c 2893 ab3c 0a45 67bc
00000200: 1ecb bd3b e240 64bc 46c4 19bc 6b26 3fbd
00000210: f41f 053c 8d4f afbc 3aaa 26bd ea54 b43c
00000220: 19a4 923c 8fa0 55bc a2ff 113d 6fc3 d73c
00000230: af07 dfba c3f8 0cbd f98f e5bc 3a57 af3c
00000240: 54af cfbc edec d83c d47a 5abd 20ab 293d
00000250: 0155 513a 4160 aa3b 8de6 9dbc 615d 8bbc
00000260: 0044 333d 2097 2dbd 21ab dbbb 0490 cf3c
00000270: f17a e8bc 239d 28bd 5576 633c c09b 6b39
00000280: 2763 653c 1b9a c13b 6c6d 173d a103 673c
00000290: 075c 09bd 6e71 0e3d 16a7 493b 688b 11bd
000002a0: b76f 2c3d 7505 ca3b 7ba4 38bb 78bc b63b
000002b0: ae9d 353d 76df 9d3b 4d86 203d 172b 8ebc
000002c0: cf50 f03c e702 3fbd 3739 c33c b6ef 063c
000002d0: 476e 4b3c fc2a da3c 6d8b 013c 5ae8 363c
000002e0: 8694 1bbd 0d3c b1bc 4bd3 2e3d e639 1ebd
000002f0: 7b50 883c 007b 0c3d 11a9 0c3d c1ab 70bc
00000300: 4308 88bc 1eef fa3c 77f9 60bc 041b b83c
00000310: b29b 1c3d 46eb 083d 4fa1 8dbc 1ca7 27bc
00000320: 5f00 07bd f232 5ebc 9dd0 a13b 4f46 2ebd
00000330: 0708 3cbd 8910 25bd 9758 313d a602 d5bc
00000340: f5db 3e3c d021 1e3c 25f4 1b3d 9005 403c
00000350: d719 afbc 2838 ea3c daff edbc 12ff 363c
00000360: 10bf 7d3c e9e6 943c 4aad 07bd f4c0 253d
00000370: 5763 8dbc 2a85 3ebc 68e5 883b 1981 a1bb
00000380: 01a7 6fbc f342 f63c 9a38 093d e75f fd3c
00000390: 0d1a ba3c 002b 173d 4202 dfbc 3549 4ebd
000003a0: 086c 683c 5b65 3fbd 2e8d 703c 76d6 99bc
000003b0: 0998 983c b104 80bc 53ed 523c 6f70 f7bc
000003c0: 001c ee3c 1688 0bbd 0827 653d 229e 00bd
000003d0: 8773 72bc 1ff6 e6bc 9804 ce3c 35c3 b03c
000003e0: f751 733c 011b b1b9 07e0 0d3d c57b d4bc
000003f0: 01a8 213d f6bf 95bc b241 acbc 013d 963c
0.036503594 -0.009033605 -0.037217915 -0.015463701 0.033245847 0.020960595 0.037516084 -0.031118637
0.018504273 -0.0228266 0.036032323 0.028758794 -0.00038443197 -0.008654472 0.008161403 0.017466286
0.0008798369 0.008193991 0.008910604 0.026416147 -0.030311927 -0.007016745 0.04292927 -0.037680242
0.004516241 -0.031305406 -0.030651798 -0.028001662 -0.016177185 -0.02764268 0.003328448 0.014279298
0.013602912 -0.014432413 -0.03656816 0.0034900228 0.036225736 0.0063448553 -0.009824678 -0.022989891
-0.0066573955 -0.002860867 -0.009716571 0.010407829 0.0026239892 -0.024722684 0.02642892 -0.01861044
0.028574897 0.016105255 -0.040171374 -0.011133658 0.030453851 -0.0063586053 -0.03205272 0.028101578
0.026739396 0.018892253 -0.017684741 0.014218403 0.03335523 0.017367855 0.026024152 -0.04206883
0.007781957 0.019577267 -0.028060617 0.028761316 -0.014438055 0.0017406994 0.011127186 -0.020876922
-0.03781655 -0.035573736 -0.013677703 -0.02605377 0.025065688 0.040037382 -0.0149168065 0.0021472871
0.02221371 0.024826486 0.03209436 -0.01979039 -0.023264907 -0.014894419 0.014933812 0.013625997
-0.010674812 0.0026242558 -0.022125814 -0.006640984 0.00845942 -0.0005473256 -0.038969032 -0.036126085
-0.02770011 0.031439614 -0.012567163 0.029762473 0.036120877 -0.0031065494 -0.004883231 0.037263475
0.0020809893 -0.011898512 0.0062102345 0.020758552 -0.004608374 -0.04320516 0.020731175 -0.03928076
0.042648077 0.041735064 -0.039447468 0.0012214283 -0.03732427 -0.0010716582 0.020800678 -0.02640106
-0.029643256 0.015589875 0.017605834 0.030137202 0.022804394 0.016789297 0.020944193 -0.014115581
0.0057920357 -0.013931485 -0.009385174 -0.046667498 0.008125294 -0.021400237 -0.040689684 0.022013146
0.017900513 -0.013038768 0.03564418 0.026338307 -0.001701584 -0.034416925 -0.028022753 0.021403898
-0.025352158 0.026480163 -0.053339794 0.041422963 0.0007985384 0.0051994626 -0.019274974 -0.0170123
0.04376602 -0.042380452 -0.0067037498 0.025337227 -0.028378936 -0.041165482 0.013883193 0.00022469368
0.014000691 0.0059082634 0.036969587 0.014099986 -0.03353503 0.034776144 0.0030769757 -0.03553334
0.042098727 0.0061652013 -0.002817421 0.0055766664 0.04433983 0.0048178984 0.03919058 -0.017354531
0.029335408 -0.046633627 0.023830993 0.0082358625 0.012416429 0.026631825 0.007906777 0.011163795
-0.03798344 -0.02163508 0.042681973 -0.038629435 0.016639939 0.03429699 0.03434092 -0.014689387
-0.016605502 0.030631598 -0.013731352 0.02247382 0.03823442 0.0334275 -0.017288832 -0.010232713
-0.03295934 -0.013561951 0.0049381987 -0.04254752 -0.045906093 -0.040298972 0.043297376 -0.02600224
0.0116491215 0.009651616 0.03807463 0.011720076 -0.021374626 0.02859123 -0.029052664 0.011169212
0.015487447 0.018176513 -0.033124246 0.040467218 -0.017259283 -0.0116284285 0.004177738 -0.0049287197
-0.014627219 0.03006122 0.033501245 0.030929519 0.0227175 0.036906242 -0.027222756 -0.050362784
0.014185913 -0.04672752 0.014682097 -0.01877902 0.018627184 -0.015627237 0.012873965 -0.03020498
0.029066086 -0.03406533 0.055945426 -0.031400807 -0.014798052 -0.028193532 0.025148675 0.021577457
0.014851085 -0.0003378019 0.034637477 -0.025937924 0.03946686 -0.01828001 -0.02102742 0.018339636

_module.layer5.0.bias f4 [64]
00000000: b48b 123d b563 04bd 20a4 ba3c 36c1 c6bc
00000010: 9d37 30bc 830d 963c 122f f33b 7826 58bc
00000020: 6e61 113c a064 bfbc 78fb 32bd 9dbe 18bd
00000030: b3e7 7f3b 5aea e7bc ba7a 463c 5ab6 173d
00000040: 1cc9 53bd 794a 323d 9149 7ebc 20cc df3c
00000050: a229 9ebb b51d a13c 3ea9 ffbb 06ee cdbc
00000060: 5f27 813c a419 893c 44a1 543b 8d08 be3c
00000070: 2b57 dfbc ab7d bbba 5a57 0b3d a962 8d3c
00000080: 4fb1 aebc 0047 093c b3d6 47bd f62d 163d
00000090: f3e4 37bd ca0d 013d d32b 893b 57ab 85bc
000000a0: 85c1 fabc 105c 27bd 6403 d5bc 1928 82bc
000000b0: 3d40 d63b c57d c0ba c91a 81bc f17c 23bd
000000c0: cec5 12bd 5622 76bc 9b94 88bc b1ce d0bc
000000d0: d51a bcbc 513f 993c 06e4 a8ba 8b25 cdbc
000000e0: 07a4 d8bc 8816 84bc f40f 5b3c 47ed 12bd
000000f0: 0458 03bd 656e 263b 3ce4 97bb ca97 863c
0.035777763 -0.03232165 0.022783339 -0.024262052 -0.010755447 0.01831699 0.0074213827 -0.013192765
0.008873327 -0.023363411 -0.04369685 -0.037291158 0.0039048016 -0.02830999 0.012114221 0.03703914
-0.051705465 0.043528054 -0.015520469 0.027319014 -0.0048267404 0.019667486 -0.0078021577 -0.025137912
0.015765844 0.01673586 0.0032444755 0.023197437 -0.027263245 -0.001430442 0.03401885 0.017258959
-0.021324782 0.008378744 -0.048788738 0.036664926 -0.044896077 0.03150729 0.0041861325 -0.016317053
-0.030609855 -0.040859282 -0.026002593 -0.01588826 0.0065384195 -0.001468592 -0.015759842 -0.039914075
-0.035833173 -0.015022835 -0.016672423 -0.025489183 -0.022962013 0.01870695 -0.0012885339 -0.025042316
-0.026445402 -0.016124025 0.013370503 -0.035870817 -0.03206636 0.002539539 -0.004635362 0.0164298

_module.layer5.1.weight f4 [64]
00000000: 2988 7f3f f455 823f 0af5 803f 7d81 803f
00000010: e438 7e3f 6e8a 7f3f 4afa 7f3f 9acf 7e3f
00000020: 143b 803f 8dbf 7d3f 951b 803f 5a5e 7f3f
00000030: d504 803f 9bfa 7e3f 0abe 813f eb0f 803f
00000040: 5c5c 803f 73b8 7f3f ee54 813f 2bfd 7f3f
00000050: 168b 803f b3a6 803f 5911 803f 55a8 7e3f
00000060: 9856 813f 2d50 803f 0591 803f fcda 7e3f
00000070: 80de 7c3f 416e 7d3f 182a 813f f4e2 813f
00000080: aa11 7f3f 2785 7d3f ed76 803f 8a69 7f3f
00000090: 299e 813f 2b1c 813f 240a 7f3f ae51 7d3f
000000a0: 2be3 803f c575 7d3f df9c 813f 82e7 7f3f
000000b0: 5d09 823f 32ee 7f3f e319 803f 1f77 803f
000000c0: ba32 803f b9bf 803f 878d 7f3f 28c5 803f
000000d0: 7fdc 803f 1dc1 7d3f b379 7f3f 55b0 7f3f
000000e0: 57f7 7e3f 9b0c 7f3f e829 803f 5169 7f3f
000000f0: 7cbb 7e3f 459d 7e3f 08f4 7f3f 0f0d 813f
0.9981714 1.0182481 1.007478 1.0039517 0.9930556 0.998206 0.99991286 0.99535525
1.0018029 0.9912041 1.0008417 0.99753344 1.0001475 0.99601144 1.013612 1.0004858
1.0028186 0.9989082 1.0104043 0.9999568 1.0042446 1.0050873 1.0005294 0.99475604
1.0104551 1.0024468 1.0044256 0.99552894 0.9877701 0.9899636 1.0090971 1.0147386
0.9963633 0.990313 1.0036293 0.99770415 1.0126392 1.0086721 0.9962485 0.9895276
1.0069326 0.9900783 1.0125998 0.9996263 1.0159107 0.9997283 1.00079 1.0036353
1.001548 1.0058509 0.9982533 1.0060167 1.006729 0.9912279 0.99795073 0.99878436
0.9959616 0.9962861 1.0012789 0.99770075 0.9950483 0.99458724 0.9998174 1.008211

_module.layer5.1.bias f4 [64]
00000000: b206 a2ba c5bb 4e3b c051 d43a 5bc7 723b
00000010: f066 713b 4dfc 5a3b 1bae da3b 6cec 72bc
00000020: 0eb0 4d3b ceae 833b 5580 63ba 8c3f 0a3c
00000030: 371d 93bb 7a58 983b b359 273c 10cf 153c
00000040: 505b 1dbb fc09 3c3c b46d fbba 1a32 733a
00000050: e2c8 593c 30e1 2aba 6824 6cba 1b1a 54bc
00000060: 2b14 02ba 34a9 12bc 1afb b0b8 f290 923c
00000070: 9f86 2f3c e667 b13b 2269 d23b 8322 9d38
00000080: 95fd 743b f546 5cbb 1230 103c c6fc 083b
00000090: 1091 0ebc 4419 c53b 8d04 39b9 3167 843b
000000a0: 4182 b5bb 54a0 eb3b 5cc7 093a 5754 2bbb
000000b0: d723 e23b 0655 daba f549 f13b 8881 93bb
000000c0: 8014 903b 51d8 55bb 0f4c 123a 8a4e 1f3c
000000d0: 541d 753b 97e4 2d3a a73f 893b 2739 b8bb
000000e0: b0c6 8f3b 0852 2b3c a54b cfbb 5cf3 9fbb
000000f0: 0320 1dbb 748f c43b 4b55 24bb 9239 29b9
-0.0012361614 0.0031545025 0.001619868 0.0037045095 0.0036835037 0.0033414543 0.006673587 -0.014826875
0.0031385454 0.004018641 -0.0008678486 0.008438002 -0.0044895667 0.004649219 0.010214257 0.009143606
-0.0024010725 0.01147699 -0.0019182474 0.000927718 0.013292523 -0.0006518541 -0.00090081105 -0.012945677
-0.00049621117 -0.008951474 -8.439105e-05 0.017891381 0.0107132485 0.005413997 0.006421224 7.492772e-05
0.0037382592 -0.003361163 0.008800523 0.0020902618 -0.008701578 0.006014975 -0.0001764467 0.0040406217
-0.005539209 0.0071907435 0.0005255842 -0.00261428 0.006901245 -0.0016657419 0.0073635527 -0.0045015253
0.004396975 -0.0032630155 0.00055807916 0.009723315 0.0037401514 0.0006633489 0.004188496 -0.0056220475
0.004387699 0.0104565695 -0.006326156 -0.0048813056 -0.002397538 0.0059985463 -0.0025075253 -0.00016138543
