weights/private_pretrain.pth (torch, 945686 bytes, 26 tensors)

_module.layer1.0.weight f4 [16, 1, 3, 3]
000000 fb d4 a5 3e f4 fb 5f 3e e2 23 5d 3e 4a 12 fa 3d
       0.32389054 0.21873456 0.2159572 0.122105196
000010 bb 15 78 3e e9 fe b3 bc d3 ba 60 be ec 88 a4 be
       0.2422704 -0.021972137 -0.21946268 -0.32135713
000020 07 b3 42 3e 59 ef bf bd 8f b0 80 be 09 74 4d be
       0.19013606 -0.09371824 -0.25134704 -0.20063795
000030 ed fe a8 be 5c 0b 60 be 65 c6 c0 bd d9 f1 0c 3c
       -0.33006993 -0.21879333 -0.09412841 0.008602583
000040 16 1c 9d 3c 2c 5f 10 be c6 ee 6f 3e bc c4 57 be
       0.019178431 -0.14098805 0.23430929 -0.21071142
000050 6e 86 56 3d 88 b2 99 3d a4 71 1f 3d 97 82 3c be
       0.052374296 0.07504755 0.038926736 -0.18409191
000060 54 74 98 3e c4 06 a0 be ff d0 43 3c da 1a aa 3e
       0.2977625 -0.31255162 0.011951684 0.3322361
000070 c0 6c 30 3e ed 64 1f 3e 03 43 ce 3d 3e 48 7f be
       0.17228985 0.15565844 0.10071375 -0.24929902
000080 af 73 91 3d f8 9a 1d 3e e9 f3 c6 bd 49 a9 32 3e
       0.07102143 0.15391147 -0.09714491 0.1744739
000090 c7 1c 71 be 07 7a 6e 3e 5d fc cd bd 64 b5 8a bc
       -0.23546134 0.23288737 -0.100579 -0.016932197
0000a0 7f 1c 44 3d d9 72 87 be 82 8e 81 3e 08 d5 07 bb
       0.04787874 -0.2645481 0.25304037 -0.0020726342
0000b0 80 d1 13 be 6d f7 63 be 6d 5d 14 3d 3d 75 a3 be
       -0.14435387 -0.22262354 0.03622191 -0.31925383
0000c0 11 b0 27 3e 88 c0 2e 3e f4 6a 98 be 92 e7 94 3d
       0.16375758 0.17065632 -0.297691 0.07270731
0000d0 25 0e 8b 3e ba 63 5f 3e a4 c2 0c be e9 a2 9d be
       0.2715923 0.21815386 -0.13746125 -0.30788353
0000e0 fb 7f 16 3e b3 50 0e 3e 6f 43 07 be 0a 66 9f 3e
       0.14697258 0.13897972 -0.13209318 0.31132537
0000f0 32 38 a0 be 6c ed 2d be c1 35 09 be fc 27 8f be
       -0.31292874 -0.169851 -0.13399412 -0.27960193
000100 f0 78 75 bd 94 d4 33 39 a3 29 1a bd 88 d4 46 bd
       -0.059929788 0.00017149962 -0.037637364 -0.04854253
000110 38 c6 77 be 35 83 30 3e 41 94 9c be f3 df 45 be
       -0.24196708 0.17237552 -0.3058186 -0.19323711
000120 b2 fe 36 3e 57 12 aa be 04 de a1 bd 0a 59 3b be
       0.17870596 -0.33217117 -0.07903674 -0.18295684
000130 22 5d 7b 3e 56 b1 20 3e f0 36 33 3e ed 60 0a be
       0.24547246 0.15692648 0.17501426 -0.13513537
000140 ce 2a be bd 04 31 1a 3e 83 ce 25 3c f0 0d 78 3e
       -0.09285508 0.1505776 0.010120037 0.24224067
000150 c5 e2 7f be 3e 90 82 3d 3f 1e a4 3e ec 8b 1b 3e
       -0.2498885 0.06375168 0.32054326 0.15190095
000160 a8 26 d6 ba ce de 95 be ea b1 a4 3e 30 5d 57 3e
       -0.0016338425 -0.2927155 0.32166988 0.21031642
000170 af 42 50 3e 8a 0c 8e be c7 5e 20 bd 45 1e 68 3e
       0.20337938 -0.27743942 -0.039152887 0.22667797
000180 00 bc 9d 3e 29 ea a4 bd 41 cb ac 3e 04 86 6d be
       0.30807495 -0.08052475 0.3374882 -0.23195654
000190 03 5d 42 bd cb df f5 3d c1 5c 95 be 66 0a 2f 3d
       -0.047451984 0.12005576 -0.29172328 0.042734526
0001a0 67 7e 68 3e 0e 55 37 bd 12 02 55 3e f7 09 a4 3e
       0.22704469 -0.04475885 0.20801571 0.32038853
0001b0 4a 7a 94 be 38 cf 5d be 2a db 81 be 8f 2a 30 3e
       -0.2899955 -0.21661079 -0.2536252 0.17203735
0001c0 a5 07 98 be 18 63 3f be 3d 25 3c be ec 20 69 be
       -0.29693332 -0.18690145 -0.1837358 -0.22766465
0001d0 fe ec 8d bc 4d 8a 31 3d 30 25 47 bd a7 83 5a be
       -0.01732492 0.043344785 -0.04861945 -0.21339284
0001e0 75 5e 86 3e 17 b4 aa 3e ae b9 8c 3e 0e d8 43 3e
       0.2624394 0.33340523 0.27485412 0.19125387
0001f0 7b 58 3a 3e a5 3a cd 3d 79 ca 1e 3e db f1 a5 3e
       0.18197815 0.10020951 0.15506925 0.32411084
000200 59 4f 70 3e 53 b5 7f 3d c1 3e 42 bd 89 5f 9b 3e
       0.23467769 0.062428784 -0.047423128 0.30346325
000210 d9 4b 21 be 6b 76 87 3e 33 80 95 3e 7e 45 d7 bd
       -0.1575159 0.26457533 0.2919937 -0.105113015
000220 d9 24 3d be 9b 72 44 be 16 c2 85 3e 20 60 39 3e
       -0.18471088 -0.19184344 0.26124638 0.18103075
000230 8f 26 86 3e 27 0b 2b be 1f 65 2f be 05 0a a7 3e
       0.26201293 -0.16703473 -0.17128418 0.32624832

_module.layer1.0.bias f4 [16]
000000 5b 0c 22 bd d2 71 94 bb 9e 8e 01 3e a2 09 aa be
       -0.039562564 -0.00453017 0.1265206 -0.33210474
000010 ec ce 89 be 21 47 8f 3e 4b ce 50 be 32 3d 34 3b
       -0.2691568 0.27983955 -0.20391195 0.0027502296
000020 a7 8b 8a 3e 11 35 41 bd f9 d9 60 be d1 88 15 be
       0.2705967 -0.04716975 -0.2195815 -0.14602973
000030 de fc 6b 3e cd 81 6c be 81 26 22 3d 57 9e cf bb
       0.2304568 -0.2309639 0.0395875 -0.0063360143

_module.layer1.1.weight f4 [16]
000000 87 35 7e 3f 7f 9f 7f 3f 03 53 7f 3f 5b 41 81 3f
       0.99300426 0.99852747 0.9973604 1.009807
000010 8d 7d 7f 3f 75 20 81 3f ab b7 80 3f 90 a2 7f 3f
       0.9980095 1.008803 1.0056051 0.99857426
000020 cf 64 81 3f 0a 28 80 3f 47 6d 80 3f 8f 74 7f 3f
       1.0108889 1.0012219 1.0033349 0.9978723
000030 1f c8 7f 3f 1c 03 80 3f 99 0a 80 3f c3 f9 7d 3f
       0.99914736 1.0000949 1.0003234 0.9920923

_module.layer1.1.bias f4 [16]
000000 15 80 16 b9 52 58 06 3b 08 51 10 ba 03 f0 99 3a
       -0.00014352829 0.002049942 -0.00055052387 0.0011744503
000010 f0 a0 09 3c a8 a2 41 bc a0 e9 9e 3b d3 74 92 bb
       0.008400187 -0.011818565 0.0048496276 -0.004469493
000020 d3 0b de 3b d3 ab 9a 39 3a a8 89 3b d8 71 ea 3a
       0.006776312 0.00029501188 0.0042009624 0.0017886711
000030 60 62 f7 3a 49 68 a3 ba 84 9d 2f 3a 49 69 7e bc
       0.0018873923 -0.0012466992 0.0006699192 -0.015528032

_module.layer2.0.weight f4 [16, 16, 3, 3]
000000 64 90 80 3c 37 b4 7b bd bf bc 98 3d f8 5e 95 bc
       0.01569385 -0.061451163 0.074578755 -0.018233761
000010 e6 1b 41 bc eb 67 61 3d 20 a3 9a bd 9e 59 fb 3b
       -0.011786437 0.055030745 -0.07550645 0.0076705953
000020 c4 52 c6 3c ea 4f 58 bd 73 e6 61 bd ab 05 0c bd
       0.024209388 -0.052810587 -0.055151414 -0.034185093
000030 69 41 5f bd d3 a9 b9 bc c3 82 c4 bc c7 d6 93 3d
       -0.05450574 -0.022663986 -0.023988133 0.072187
000040 fd 12 77 bd 34 95 90 3c 9a 0e 99 3d e7 0a 2d 3d
       -0.060320843 0.01764927 0.07473488 0.042246725
000050 2a 44 49 3d d1 26 49 3d d5 3e 4e 3d 20 20 41 bd
       0.049137272 0.049109284 0.05035289 -0.047149777
000060 ea 50 96 bd 7e dd 85 3d d6 bd d9 bc fd 5c 76 3b
       -0.07339652 0.06536387 -0.026579779 0.0037592046
000070 39 9a 43 3d 0d 21 26 3d 1a 94 f3 3c cb 2c a1 3d
       0.0477545 0.040558863 0.029733706 0.07869872
000080 60 44 74 3d a9 e3 40 3c a0 4b 4b 3d 6c 7a 2d bc
       0.05963552 0.011773028 0.04963267 -0.01058827
000090 fe cd ca bc 6e 21 d5 3c dc f1 50 bd 1a ac 09 bc
       -0.024756428 0.026016917 -0.051011905 -0.008402849
0000a0 11 21 84 bc 31 ee 52 3d 55 9e 30 3c 58 36 2e bd
       -0.016129049 0.05149669 0.010779937 -0.042532295
0000b0 90 4b 37 bd 99 6f 80 3d 23 dd a3 bd 1b 27 48 bd
       -0.044749796 0.062712856 -0.08001163 -0.04886542
0000c0 27 f9 4a 3d 33 5d 86 bd c3 cb 01 3d c7 d9 68 bd
       0.049554016 -0.06560745 0.031688463 -0.056848314
0000d0 13 25 d5 bc 21 c9 8e bb 81 b7 69 bd 89 a1 3c bc
       -0.026018655 -0.0043574725 -0.05705977 -0.011513122
0000e0 0b 8b d8 bc 3a 02 d8 bc b4 7c 2f bd 89 2c 4d 3d
       -0.026433488 -0.02636825 -0.042843536 0.0500913
0000f0 4d d2 9c bc 0a 80 79 3d ac fd 97 bd 50 8d 94 3d
       -0.019143248 0.060913123 -0.07421431 0.07253516
000100 03 e6 0e 3d bb c4 34 3d e5 8f 7f bd e3 52 24 bd
       0.034887325 0.04413293 -0.062393088 -0.04011811
000110 eb 16 47 3c 17 6b a8 3b 08 08 c3 3c 20 4e fa 3c
       0.01215146 0.005139719 0.02380754 0.030554831
000120 f2 16 64 bd 10 b2 83 3d 8f 98 97 3d 96 39 8c 3c
       -0.055685945 0.06430447 0.07402145 0.017117303
000130 5f f2 84 bd ba a6 50 3d 0a f4 0b bd 64 16 5b 3c
       -0.06491541 0.050940253 -0.03416828 0.013372038
000140 53 f7 3b 3d c1 df 98 bd 76 5d 71 3d 0d 73 cf 3b
       0.045890164 -0.07464553 0.058927022 0.006330854
000150 1b e2 f3 3c c8 f9 28 3d c0 f6 7e 3d 85 57 35 bd
       0.029770901 0.041253835 0.062247038 -0.04427292
000160 f5 9b 65 bd 71 86 03 3c 16 fb 64 bc 55 fb 4c bd
       -0.056056935 0.008027659 -0.013975879 -0.050044376
000170 7a 9b 8b 3d ee 94 2f bd 69 5c 82 3d 23 40 83 bd
       0.06816764 -0.04286664 0.06365282 -0.064087175
000180 ed a1 cc 3c 65 dc a5 3d 13 b1 80 bb 32 87 33 3c
       0.024979556 0.080986775 -0.003927359 0.010957526
000190 82 3a 72 bd 25 e6 7a 3d 62 f6 ce 3c b5 e7 9e bd
       -0.05913783 0.06125464 0.025263969 -0.07759038
0001a0 9c d7 7e bc fd d5 21 3d ef f0 aa 3d cb c3 90 3d
       -0.015554335 0.039510716 0.08346736 0.070685945
0001b0 d3 35 47 3d 9a 31 64 bd 19 59 d2 bc 8a 74 ba bc
       0.048635315 -0.055711366 -0.02567725 -0.022760648
0001c0 eb c1 0c 3d 8c 2a bf 3c 52 f5 93 bd 55 5b 29 bb
       0.034364622 0.023335718 -0.072245255 -0.0025841792
0001d0 4a d4 b3 3d 31 f4 f6 bb 4a 31 6d 3c 10 1f fd 3b
       0.08780725 -0.007536434 0.014477083 0.00772465
0001e0 92 28 98 3d b7 f6 49 3b 62 c6 5a 3c e4 9d 77 bd
       0.07429613 0.003081722 0.013352962 -0.06045331
0001f0 15 24 99 bd 90 a3 41 bd 80 f7 53 bd 2c 6a 85 3d
       -0.07477585 -0.047275126 -0.051749706 0.06514391
000200 44 3d 33 3d eb fd cf ba 47 f8 3d 3d a2 6b 50 bd
       0.0437596 -0.001586852 0.046379354 -0.050883897
000210 0a 91 9a 3b b9 67 93 bd c8 15 1f bd 0e fd 1b bc
       0.004716997 -0.07197518 -0.03883913 -0.009520782
000220 cf 55 63 bd c3 6d 0e 3d cd 42 a8 bd 8a 73 58 bc
       -0.055501755 0.034772646 -0.08215866 -0.01321114
000230 45 ec 2e bd 4d b7 00 3d 3b be 88 3d 7b 52 10 bc
       -0.042705793 0.03142481 0.066769086 -0.008808727
000240 c4 6f 1d 3b 54 04 16 3d 3c d1 57 bd 88 a4 24 bd
       0.0024022916 0.03662522 -0.052689776 -0.04019597
000250 58 f7 1a bd 67 fb c5 bb 2c fc b6 3d 4a fb 85 bd
       -0.03783354 -0.0060419324 0.08934817 -0.0654207
000260 3f 0d 13 bd 9b 0d 85 3d 75 44 ad bc 06 d1 d4 bc
       -0.035901304 0.06496736 -0.021150807 -0.025978576
000270 9d 01 99 bd ce 4f 77 bd a6 55 a3 3c 15 92 7a 3d
       -0.07471011 -0.060378842 0.019938301 0.06117447
000280 e9 e8 84 bb 48 b1 30 3d 0a 64 94 3d 3f 91 3e bd
       -0.0040560854 0.04313782 0.072456434 -0.046525236
000290 3b 98 77 bd 26 3b 39 3d f4 9b aa 3b 39 1f 2d bd
       -0.060447913 0.045222424 0.0052065793 -0.042266104
0002a0 2b 5b bd bc a7 2d 76 3d cb 48 e7 bc 5e 2c 26 bd
       -0.023114761 0.06010213 -0.028232953 -0.040569656
0002b0 a4 0d 2f 3a aa 9e 22 bd 3d 5b 1b bb 0d bb 3c bd
       0.0006677753 -0.039702095 -0.0023705505 -0.046076823
0002c0 f7 e8 88 3d bc 94 79 bd 49 1a 88 3d b4 d2 ad 3d
       0.066850595 -0.06093286 0.066456385 0.08487454
0002d0 6a 0d 93 bd b8 29 17 3c 31 4d 10 3d 74 a7 54 bd
       -0.07180293 0.009226255 0.035229865 -0.05191751
0002e0 ee ae 84 3d 73 6e 50 bc 36 ca d8 bc b7 c9 a3 3d
       0.06478678 -0.012721646 -0.02646361 0.079974584
0002f0 f8 76 25 bd 10 64 b7 bd a8 b5 51 bd 29 0e 8d bd
       -0.04039666 -0.08954632 -0.05119863 -0.068874665
000300 be 2b 3a 3c 30 c0 bd bc 25 f6 94 3d 4f 71 6f 3c
       0.011362968 -0.023162931 0.07273511 0.014614417
000310 db 6c 88 3d ae 25 d0 bb 86 d2 a1 bd 84 93 d6 3c
       0.066613875 -0.006352148 -0.07901482 0.026193388
000320 29 96 1a 3b 98 91 6b 3d 33 c5 d6 3c b6 42 2b bd
       0.0023588038 0.057511896 0.026217079 -0.041811667
000330 5c 53 6e 3d 25 78 e9 3c 9c 04 01 3d ba df 04 3d
       0.058184966 0.028499672 0.031498536 0.032439925
000340 3b bd af 3d 31 98 90 3d ae e3 78 3d 49 9f 1a 3d
       0.08581015 0.07060278 0.060764007 0.037749562
000350 e7 10 59 bc b9 c9 9b bd e1 da 60 3d 2c 46 ae 3d
       -0.013248659 -0.07606835 0.05489624 0.08509478
000360 68 ef 22 bd 0d 38 94 3d 10 80 74 bd e5 00 09 bd
       -0.039779097 0.07237253 -0.059692442 -0.03344812
000370 ba 2a 84 3a 03 f8 9c 3d 28 86 ab 3c 5a e1 94 3d
       0.0010083534 0.07664492 0.020937994 0.07269545
000380 22 2d 33 3c 13 5c 70 bd 86 6c aa bc 2b 2b af bd
       0.0109360535 -0.05868156 -0.020803701 -0.085531555
000390 12 46 54 bd c7 1a 29 3d 50 2d 33 bd 3f fe b9 bb
       -0.051824637 0.041285302 -0.043744385 -0.0056760604
0003a0 00 e1 35 bd 33 af 16 3d d4 9a 08 bd e2 d0 ab bd
       -0.04440403 0.036788177 -0.03335078 -0.083894506
0003b0 c8 fe bc bd bd f4 01 3d 3c ee 11 bd 82 cd 1c 3d
       -0.09228283 0.03172754 -0.03562759 0.038281925
0003c0 f4 ba 78 3c a9 b2 af 3c 9b 64 38 bd 40 6f 47 bc
       0.015181292 0.021447496 -0.04501782 -0.01217252
0003d0 19 19 56 bc be 86 ab bc ed 00 00 3d ba c0 2b 3d
       -0.013067507 -0.020938274 0.031250883 0.041931845
0003e0 de 2e a5 bd 40 86 f2 bc 64 af ff bc 8f 92 43 bd
       -0.0806558 -0.029605031 -0.031211562 -0.04774719
0003f0 ea eb 5e bd 08 18 ad 3d 99 20 0c 3d c4 0f d6 3b
       -0.054424204 0.08451849 0.034210775 0.006532641

_module.layer2.0.bias f4 [16]
000000 7a a5 40 3d 1c 18 c4 bc 05 ab 21 3d fa 30 62 3d
       0.04703281 -0.023937277 0.039469738 0.05522249
000010 56 22 57 bd 2a 0f 41 bd 4b 0f 64 3d 56 d8 05 3c
       -0.05252298 -0.047133602 0.055678647 0.008169254
000020 84 a9 74 bc 52 68 4d 3d 19 9c bd bc 60 34 98 bd
       -0.014932994 0.050148316 -0.023145722 -0.07431865
000030 23 fc 9f bc c1 28 dd 3c 79 c2 b7 3c 3c 06 7f bc
       -0.019529408 0.026996972 0.022431599 -0.015565451

_module.layer2.1.weight f4 [16]
000000 e8 e1 7f 3f 6a f1 80 3f f6 c7 7e 3f 17 32 80 3f
       0.9995408 1.0073674 0.99523866 1.0015286
000010 7a 44 80 3f e0 b1 7c 3f 5c fb 7e 3f 71 c5 80 3f
       1.0020897 0.98708916 0.99602294 1.0060254
000020 c8 7e 7f 3f 58 3b 80 3f 47 9f 7e 3f a4 e6 80 3f
       0.9980283 1.001811 0.9946179 1.0070386
000030 d7 37 80 3f 49 e3 7f 3f f4 3c 80 3f de 08 80 3f
       1.0017041 0.99956185 1.0018601 1.0002706

_module.layer2.1.bias f4 [16]
000000 45 a8 3f 3c 7e fb 37 3c 05 e4 1f bc 5d 4f 03 bc
       0.011697833 0.011229394 -0.009758954 -0.008014527
000010 c1 17 9c 3b cd ef 14 bc 63 b3 03 3c 19 d9 1f bb
       0.004763574 -0.009090376 0.008038375 -0.0024390875
000020 e5 ee 46 3a ba 88 cc 3b f8 05 65 b9 53 03 08 bb
       0.00075886986 0.006241885 -0.00021841365 -0.0020753935
000030 de 12 3c ba 3d 91 0e bc 21 46 05 3a 12 a7 ac bb
       -0.0007174442 -0.00870162 0.00050839974 -0.00526894

_module.layer3.0.weight f4 [64, 16, 3, 3]
000000 db c6 94 3d 10 a8 70 3d d4 24 79 3d fe 81 b1 3c
       0.07264491 0.058754027 0.060826138 0.02166843
000010 de 91 9f bd 5f 94 7d 3d 8e f2 62 bd b7 94 1e bd
       -0.07791494 0.061909076 -0.0554071 -0.038716044
000020 30 96 9f bd 47 e2 4f 3d 26 52 8b bd 24 ab 61 3c
       -0.07792318 0.050752904 -0.06802778 0.013773713
000030 1a 80 8c 3d a3 71 41 bc 77 c6 3c 3c 2b 5f 8c 3d
       0.06860371 -0.011806878 0.011521927 0.06854089
000040 c9 05 89 3d 87 ae 95 bc 99 60 2e 3d 7b 2e 55 bd
       0.066905566 -0.018271698 0.04257259 -0.05204628
000050 27 82 e6 bc 69 c8 16 3d 58 23 2a 3c c4 f3 11 bc
       -0.028138233 0.03681222 0.010384403 -0.008908216
000060 46 f8 af 3d 93 b0 4c bd 07 5a 32 bd dd bd a4 3d
       0.08592276 -0.04997308 -0.043542888 0.08044026
000070 be 9f 32 3d aa a0 3d bd 06 33 05 3c d1 42 a9 bc
       0.043609373 -0.0462958 0.008129841 -0.020661743
000080 e2 49 5d 3d 3e bd 8d bd 17 90 90 bd 55 95 16 bd
       0.05402554 -0.06920861 -0.07058733 -0.036763508
000090 25 63 90 bd e0 a4 8f 3d ed d9 6e bc 98 e0 9c 3d
       -0.0705016 0.07013869 -0.014578325 0.07660025
0000a0 87 17 26 bd 90 dd 2b bd c8 0d 27 3d 52 a8 47 bd
       -0.04054978 -0.041959345 0.040784627 -0.048744507
0000b0 2c 92 6e bc 44 8d dd bc ba 34 38 3c 5a 7c 23 3d
       -0.014561217 -0.0270449 0.01124304 0.039913513
0000c0 10 c8 6c bd ef c1 2b bd 8e 8a 92 bd 5c ae c8 3c
       -0.057807982 -0.041932996 -0.071553335 0.024497204
0000d0 c7 49 93 bd 46 5d 2d bc ef 42 04 3d 38 bc 60 bd
       -0.07191806 -0.01058132 0.032290395 -0.054867
0000e0 8c 02 96 3d 01 c4 08 3d bb eb af bd 8b 55 41 bc
       0.073247045 0.03339005 -0.08589884 -0.01180018
0000f0 5b fa 94 bd b2 f2 7a bd 32 8e 0c 3d 0b d1 8d bd
       -0.07274314 -0.06126661 0.034315296 -0.069246374
000100 2b dd f9 3c 8e 99 8b 3c 84 1c 81 bd d7 e9 04 3d
       0.030500969 0.017040994 -0.06304267 0.03244957
000110 bc da a1 3b 55 d3 35 3d a5 a3 3d 3d c5 3b 62 bd
       0.0049394052 0.044390995 0.04629864 -0.055232782
000120 0a 37 8d bd 2e 8a 8d 3d 2a b5 02 3d 21 58 41 3d
       -0.068952635 0.06911121 0.031911053 0.047203187
000130 12 68 8e 3d d0 6f 6f bd 5c ee 9c 3d 4d a7 51 3d
       0.069534436 -0.058456242 0.07662651 0.05118494
000140 19 be 43 bc 52 df 4d bd c1 65 2c 3d f0 79 31 3c
       -0.011947178 -0.050261803 0.042089228 0.010832295
000150 f6 c5 93 3d e9 79 34 bd 5a b3 90 3d a9 69 cb 3c
       0.072154924 -0.044061575 0.070654586 0.024830656
000160 12 db 1e 3d a8 73 0b bd 92 07 8f 3d 5e 03 54 bc
       0.03878314 -0.034045845 0.06983866 -0.012940256
000170 71 b3 76 3d d5 b3 cb 3c 56 fa 93 bd c8 42 0e bd
       0.060229722 0.024866024 -0.07225482 -0.034731656
000180 8e aa b1 bd 1d 62 34 bc c2 89 06 bd b2 e8 3a 3d
       -0.08675109 -0.01100972 -0.03284622 0.04563207
000190 ec 2c 8c 3d 6f 17 e8 3c f6 f6 5f bd b4 06 58 bd
       0.06844506 0.028331487 -0.05467888 -0.052740768
0001a0 01 8b 15 bc e2 80 cc bc c2 82 69 3c 4b 8c 99 3c
       -0.009127379 -0.0249638 0.0142523665 0.018743655
0001b0 1e 55 53 bd 9f de df bc c1 95 1e 3d 12 2c 77 bd
       -0.051594846 -0.027327834 0.038717035 -0.060344763
0001c0 3a 5b 2b 3c 81 22 34 bd 22 db ef bc 1e 0d ee bc
       0.010458762 -0.043978218 -0.029279295 -0.02905899
0001d0 75 8e 81 bd 45 59 ac bd 5c 60 00 bd 13 6e a3 3d
       -0.06326 -0.08415464 -0.031341895 0.07979979
0001e0 87 65 2e 3d 6f 0e dd bc 21 bf 3a bd c2 9d 3f 3d
       0.042577293 -0.026984422 -0.04559243 0.04678131
0001f0 aa 23 2e bd 94 7e 05 3d bf 47 8b bd 33 71 b0 bd
       -0.04251448 0.032591417 -0.06800794 -0.08615341
000200 46 32 c7 3b 1d 73 5a bd 8a ed 9c bd fd cc bc bc
       0.006078991 -0.053332437 -0.076624945 -0.023046965
000210 34 5b dd 3b 64 86 8a bd 0b 3e 96 bd c1 81 63 bd
       0.006755257 -0.06763914 -0.073360525 -0.055543665
000220 9b db 64 3d b3 ed 83 bd 19 f1 3d 3c 1a d9 02 bd
       0.055873495 -0.06441822 0.011593127 -0.031945325
000230 b8 9a 65 3c a0 e6 fa 3b 32 90 65 3c 34 0d 81 bd
       0.014013939 0.007656887 0.01401143 -0.063013464
000240 07 1b b9 3c 46 ff b5 3c 3d 8e b4 3d 5d a0 9f bc
       0.022595895 0.02221645 0.08816192 -0.019485647
000250 f0 f5 1d bc 0c 8d 2d bd 6d 8f d1 3b 49 42 9a 3d
       -0.009641156 -0.04237084 0.0063952715 0.07532174
000260 15 d9 8f bc 95 53 24 3d 25 49 19 3c 7c e2 d8 3c
       -0.017559567 0.040118773 0.009355818 0.026475184
000270 67 f0 01 3d 17 2a 9d 3d 63 71 99 3d 66 ea 0e 3d
       0.031723406 0.076740436 0.0749233 0.03489151
000280 6f d0 81 bd b0 45 90 3c 98 e9 94 bc 26 7b 8d bd
       -0.06338584 0.017611355 -0.018177792 -0.06908254
000290 2d 96 ea bc 31 20 89 3d eb 70 35 bc d7 21 95 3d
       -0.028636063 0.06695593 -0.011074285 0.07281845
0002a0 eb 48 83 bd 62 d2 18 bd f9 fa 4a 3d 92 00 67 3d
       -0.064103924 -0.03731001 0.049555752 0.05639703
0002b0 e6 45 7e bc 88 0d 9f bd 82 55 73 bd 40 c6 a5 bb
       -0.015519595 -0.07766253 -0.05940772 -0.0050590336
0002c0 a5 27 88 3d eb f9 4c bd ce 8b 84 3d 61 7f 9a 3d
       0.066481866 -0.050043028 0.06471978 0.07543827
0002d0 ec 1e 8d bd 44 df 2f bd c9 12 68 bc 7f d5 3a bd
       -0.068906635 -0.042937532 -0.014164635 -0.045613762
0002e0 1e 44 b1 3c 0c 4e 69 3d 9b db 0d 3b e9 58 83 3d
       0.021638926 0.056959197 0.0021645788 0.06413443
0002f0 7b 2b 05 bd cb e9 cd 3c 85 18 91 3d 2c 0c 66 3d
       -0.03251217 0.025135895 0.07084755 0.05616395
000300 d6 6d 59 3c 30 7c 20 3d b1 b2 59 3c 28 4a 04 bd
       0.013270816 0.039180934 0.013287232 -0.032297283
000310 e6 6d d6 bc 3a d0 b6 3d 3c d8 76 3d 88 32 1b 3d
       -0.02617545 0.08926435 0.06026481 0.037889987
000320 d4 9c 81 3d 5b b1 9e bd 5d d4 aa bd 68 7e 53 3d
       0.06328741 -0.077486716 -0.08341286 0.051634222
000330 b7 7e 07 3d 9e 3a 90 3d 5e 3b 76 bc 10 1d 66 bc
       0.03307983 0.0704243 -0.015028803 -0.014045015
000340 d1 76 c7 3b a1 0d 9c bd be 41 49 3d 6a 7b ae 3c
       0.006087162 -0.07619787 0.049134962 0.021299083
000350 90 2f 94 bd a4 9f 52 3d c2 c2 1f bc a3 d6 6f bc
       -0.07235634 0.051421776 -0.009751024 -0.014638576
000360 08 77 9e 3d fc 95 4f 3a 0c c7 32 3d 4c a8 29 3d
       0.07737547 0.0007918773 0.043646857 0.041420266
000370 a2 2c f4 39 33 51 65 bd 67 03 46 bd da 0f 76 3c
       0.0004657256 -0.05598564 -0.04834309 0.015018428
000380 75 c4 b5 3c b0 ae 24 bd 42 ba 69 3c aa 7e a8 bd
       0.022188405 -0.040205657 0.014265599 -0.08227284
000390 a1 a5 6f bb 08 f7 2b 3d 95 41 46 3d 20 b7 3c 3c
       -0.0036567228 0.041983634 0.048402388 0.01151827
0003a0 53 b6 33 bd 65 98 9f bd f9 5e 9b 3c a4 62 91 bd
       -0.04387505 -0.07792739 0.018966185 -0.07098892
0003b0 c6 e7 63 3d c3 ec 2e bc dc 1a 85 3a 6e 5d c8 bc
       0.05564096 -0.010676566 0.00101551 -0.024458613
0003c0 06 df d2 3b ce 2b 17 3d af 22 59 bd 83 df c1 bb
       0.006435278 0.03690701 -0.053011592 -0.0059165373
0003d0 f1 0c 29 3d a3 ba 14 3d de 84 cf bc dd 66 a2 3d
       0.041272108 0.036310803 -0.02533191 0.07929776
0003e0 be 70 26 bc bc d7 16 3d fb 92 0a 3d 04 a3 8c bd
       -0.010158716 0.036826834 0.033831578 -0.0686703
0003f0 4b 6c 90 bd 25 4c a1 3d 1c d9 95 bc 1a da ab bc
       -0.07051905 0.078758515 -0.018292002 -0.020978022

_module.layer3.0.bias f4 [64]
000000 24 78 5a bd 53 3e 8e 3d 66 6b 8b 3d bf a2 a2 3d
       -0.05333723 0.06945481 0.06807594 0.079411976
000010 f5 9f 17 bd a4 0c 9b 3d 44 6e 02 3d 08 5f a8 3c
       -0.03701778 0.075707704 0.03184344 0.020553127
000020 01 86 2e 3d 98 ab ab 3d 88 46 69 3d da a8 56 bd
       0.042608265 0.08382338 0.05695203 -0.052407123
000030 b4 b9 5f bc d2 f0 97 3c fe e3 9e 3d 4e 76 0f bd
       -0.013655115 0.01854745 0.0775833 -0.035024934
000040 2d b8 1b bd 7b 55 52 3d 98 3b 05 3d 90 5a 22 bd
       -0.03801744 0.05135105 0.032527536 -0.03963715
000050 a9 f4 32 bb 0c cc c5 3c 1d 17 63 bc 51 e7 81 3d
       -0.0027306473 0.024145149 -0.013860491 0.06342948
000060 d9 5f 3f 3d 6f 43 8e 3d 27 6b 0a 3d bf ef 6d bd
       0.046722267 0.06946456 0.033793595 -0.058089968
000070 51 e5 72 bd 41 a7 7f bd ba 95 33 bd f7 72 ee 3a
       -0.059300724 -0.062415365 -0.043843962 0.0018192221
000080 f6 4c e5 bc d2 16 24 3d 2c a0 1c 3d bc 43 98 3d
       -0.0279908 0.040060826 0.03823869 0.07434794
000090 ae ce 4b 3d ca 5f e1 3c 66 7d 9b 3c 27 0e ca 3a
       0.049757652 0.027511496 0.018980693 0.0015415595
0000a0 30 32 fe 3c 30 66 df 39 31 47 e9 3c d2 01 2b bd
       0.03102979 0.0004261001 0.02847633 -0.041749783
0000b0 2d 2a 8a 3d 08 88 9b 3d 45 82 1c 3c 49 68 70 bd
       0.06746326 0.07594305 0.009552543 -0.058693204
0000c0 53 f1 89 bd 7e da a2 3d 56 a0 57 bd 76 60 af bb
       -0.06735482 0.0795183 -0.052643143 -0.005352075
0000d0 d5 58 97 bd ad a3 68 3c 80 ba 8a bd 8c 04 87 bd
       -0.0738999 0.01419918 -0.06773853 -0.06592664
0000e0 9d e6 92 3d cc 08 75 3d 0e 06 30 bd ec 4e 03 bd
       0.07172892 0.059822842 -0.042974524 -0.032057688
0000f0 64 44 ce 3c a2 05 71 36 5e e5 67 3d ed 49 a2 3d
       0.025179096 3.5915077e-06 0.056615226 0.079242565

_module.layer3.1.weight f4 [64]
000000 60 89 7d 3f 17 26 80 3f f4 ca 7d 3f f9 74 80 3f
       0.9903774 1.0011624 0.99137807 1.0035697
000010 59 74 80 3f 6a 9e 80 3f 6b ae 7f 3f e0 89 7e 3f
       1.0035506 1.0048344 0.99875516 0.9942913
000020 b9 f8 7e 3f d1 a6 80 3f 2d b0 80 3f 03 94 7e 3f
       0.9959827 1.0050908 1.0053765 0.994446
000030 66 83 80 3f a8 7d 80 3f 73 53 7f 3f 81 71 7f 3f
       1.00401 1.0038347 0.9973671 0.9978257
000040 2e d7 7e 3f c3 a8 7f 3f 24 35 81 3f e6 ad 7d 3f
       0.9954709 0.99866885 1.0094342 0.9909347
000050 9f 27 7f 3f 90 f3 7e 3f 03 e3 81 3f fb c8 80 3f
       0.9966983 0.99590397 1.0147403 1.0061334
000060 fb 8d 80 3f f9 63 80 3f 08 03 80 3f 4f df 7d 3f
       1.0043329 1.0030509 1.0000925 0.99168867
000070 6a 71 80 3f 38 bd 7f 3f 94 ff 7f 3f ba 22 80 3f
       1.0034611 0.998981 0.99999356 1.0010598
000080 b5 cd 7d 3f be f0 80 3f 32 da 80 3f 2f 2f 7f 3f
       0.9914201 1.0073469 1.0066588 0.9968137
000090 07 72 81 3f a8 6e 7e 3f 07 cc 7e 3f 07 15 82 3f
       1.0112923 0.993876 0.9953007 1.0162667
0000a0 10 fa 80 3f ea fd 80 3f 99 10 80 3f fc ce 7c 3f
       1.0076313 1.0077488 1.0005065 0.98753333
0000b0 b5 fb 7c 3f c9 70 7c 3f 98 91 7e 3f 0e 17 80 3f
       0.98821574 0.98609596 0.9944091 1.0007036
0000c0 ba de 7f 3f b2 d0 80 3f fe 37 7d 3f 94 4d 81 3f
       0.9994923 1.0063689 0.9891356 1.01018
0000d0 c1 09 80 3f 7b cc 7f 3f ea a6 7d 3f 7b 9e 7e 3f
       1.0002977 0.9992139 0.99082816 0.9946057
0000e0 53 33 7f 3f 72 1d 7e 3f 29 e4 7e 3f 45 27 7e 3f
       0.9968769 0.9926368 0.99566895 0.9927867
0000f0 0a ee 7f 3f 93 d6 7f 3f c6 fa 7c 3f b4 0d 7d 3f
       0.99972594 0.9993679 0.9882015 0.98849034

_module.layer3.1.bias f4 [64]
000000 f7 41 8c 3a 5f 9b 68 bb 9c a2 da 3a 5c f1 1a 3c
       0.0010700811 -0.0035493 0.0016680541 0.009456959
000010 1c 9e a0 bb 17 d6 c9 3a d8 e8 20 bc b4 df 0d bc
       -0.0049016606 0.0015398887 -0.009821139 -0.008659292
000020 6a 3d 7b bb a6 a9 4e bc bc 5d dd 3b 89 a1 4e bb
       -0.0038336166 -0.0126136895 0.006755559 -0.0031529388
000030 8e 0a a1 3b f1 6d 8a bb 32 46 07 3c 3c 1d c7 bb
       0.0049145883 -0.004224532 0.008256482 -0.006076483
000040 04 ed 28 3c 9f b6 17 bc 77 86 d7 3b 08 71 86 39
       0.010310415 -0.009259849 0.0065773088 0.00025642687
000050 db d0 02 ba ac 3c 8b bb 20 37 9d bb 88 50 c3 3a
       -0.00049902283 -0.004249176 -0.004797831 0.001490132
000060 c3 48 fd 3b 3f 19 15 bc 9b 0d fe 3b a7 35 be b9
       0.007729621 -0.009100257 0.0077530867 -0.00036279598
000070 29 71 26 3c ea fd b8 3b 9f 81 3c 3b 46 6d af 3b
       0.010158815 0.0056455033 0.0028763784 0.0053536026
000080 57 66 39 bc 8f b9 10 3c ba 27 ba 3a 69 b7 cf 3b
       -0.011315904 0.008833303 0.0014202513 0.006339003
000090 45 48 ea 39 bd 75 5f bc 01 f0 c0 3b cd af ad 3b
       0.00044685803 -0.013638911 0.0058879857 0.005300498
0000a0 5b b1 64 3b fd 3e d9 3b 0b a2 06 bc 2a eb bf 3a
       0.003489575 0.0066298232 -0.008217345 0.0014642228
0000b0 57 87 16 bc bc a3 6b bb 03 0d 72 3a 17 bb a1 bb
       -0.009187541 -0.0035955748 0.0009233506 -0.004935633
0000c0 a8 62 92 ba 5a 7b 8d 3b c4 e2 3c 3c a9 13 57 bb
       -0.0011168318 0.004317683 0.0115286745 -0.0032818115
0000d0 69 ec 73 ba 24 1e 96 3b a0 4e cc 39 74 8a e4 3b
       -0.0009304942 0.0045812298 0.00038968492 0.0069745127
0000e0 72 40 e3 bb 79 94 04 3b 60 77 c3 3b 1f ff ad bb
       -0.0069351727 0.0020230098 0.0059651583 -0.005309954
0000f0 e3 43 d7 3b 0d ea 0b 3b 22 e4 45 3b db 69 56 3b
       0.006569372 0.0021349222 0.0030195792 0.0032716903

_module.layer4.0.weight f4 [64, 64, 3, 3]
000000 11 95 b7 bc 92 4a df bb 9a 86 a5 bc 72 d0 0c 3c
       -0.022409948 -0.0068143094 -0.020205785 0.008594619
000010 d1 01 00 3d d4 aa 2f 3c 24 77 27 3b 5d c7 9e 3c
       0.031251732 0.010721881 0.002555319 0.019382173
000020 3f 8b 2f bc 4b 08 4f bb c1 fb 71 bc 37 86 11 bd
       -0.010714351 -0.0031590636 -0.014769495 -0.035528388
000030 41 9d e3 ba af 43 05 bd 67 c9 d4 bc 42 4b 9e bc
       -0.0017365591 -0.03253525 -0.025974942 -0.019322995
000040 2f 40 40 bc 22 a1 20 bc b9 5e 0e bd 55 e2 bb bc
       -0.011734053 -0.009804042 -0.034758303 -0.022935072
000050 ae 0f 7b bb 9d c9 1c 3d 14 ae c1 bc e2 b7 c0 3c
       -0.0038308906 0.03827821 -0.023642577 0.023525182
000060 2e 6f 9c 3b ee 91 98 3c 01 9e a3 bb a5 3d 6a bc
       0.004773996 0.018624272 -0.004993201 -0.014296924
000070 ba 18 0e bd 41 dd 05 3d 58 02 90 3c a3 88 a9 3c
       -0.03469155 0.032681707 0.017579243 0.020695036
000080 ca 8e e1 ba c5 a9 31 bd 3c 65 0f 3d 61 87 d0 3b
       -0.0017208692 -0.043374795 0.035008654 0.0063637947
000090 48 15 48 3c 79 c5 22 3c 4d fa f8 bc 4b 41 4f ba
       0.012212105 0.009934776 -0.03039279 -0.0007906153
0000a0 ee a2 77 3c 10 9c 0e bd cb 37 b7 3b 7e 16 13 3d
       0.015114529 -0.0348168 0.005591368 0.035910122
0000b0 bf e4 37 bc bb 45 c8 bc 0b 00 ba 3c e2 c3 c8 3c
       -0.011223971 -0.024447313 0.022705099 0.024507467
0000c0 f8 ae 1a bd 8f 2f 8b 3c ed da a3 3c 73 c6 e4 bc
       -0.03776452 0.016990451 0.020001853 -0.02792666
0000d0 58 49 51 3c e6 aa e8 3b 98 82 8b bc d8 28 2f 3d
       0.012773834 0.007100451 -0.017030045 0.04276356
0000e0 4d 19 3f 3d e6 ca 18 3d ca c3 12 bc 51 b6 d2 3c
       0.046654988 0.037302874 -0.008957813 0.0257217
0000f0 67 ef 31 bb ee f7 a6 bc 59 62 cc 3c 99 11 38 bd
       -0.0027150752 -0.020381894 0.02494924 -0.044938657
000100 4c 48 0d bd 48 69 79 3c cc 1c b6 3c 71 43 0a 3d
       -0.034492776 0.015222855 0.022230528 0.033755723
000110 f4 f7 87 3b 8a 45 cd bc 24 a0 eb 3c ae fb b2 3c
       0.0041494314 -0.025057573 0.028762884 0.021848526
000120 30 54 fb 3c ff e7 c0 3c 78 f5 5b 3c c7 8d c1 3b
       0.030679792 0.023548124 0.0134252235 0.0059067938
000130 a1 36 08 bd 75 4f c6 bc ea 41 a3 3c ab 83 46 bd
       -0.033255223 -0.02420781 0.019928891 -0.048465412
000140 c8 f9 0c bd ee fe f2 3b 55 4e ef bb f2 b0 1d bd
       -0.034417897 0.007415644 -0.007303039 -0.038498826
000150 13 84 3e 3b 60 f0 33 bd a4 a9 79 3b 31 27 1f 3d
       0.0029070422 -0.04393041 0.0038095498 0.038855735
000160 37 65 72 bc f1 d3 e0 3c ab 35 98 3b 47 c6 df 39
       -0.014794639 0.027444812 0.0046450696 0.00042681603
000170 30 ea 34 3c a3 fa a3 bc 90 7b b2 3c b3 6d 5d 3c
       0.011042163 -0.020016974 0.021787435 0.013514924
000180 01 a6 36 bd 0c 70 a3 bc e7 08 18 3d c0 ca 30 bc
       -0.044591907 -0.019950889 0.037117865 -0.010790527
000190 cb 9a 14 3c 88 3f 4f 3c fe 3e 87 b9 8b 5b 46 3c
       0.009070109 0.012649424 -0.0002579614 0.0121067865
0001a0 d2 fa e8 3c 86 5a a9 3c 5c 81 ae bc ca 64 0c 3d
       0.028439913 0.020673048 -0.021301918 0.034275807
0001b0 d7 0e 4b bc 2c 6a 05 bd e9 9f a5 3b 5e a3 3b 3c
       -0.012393675 -0.032571957 0.005054463 0.011452524
0001c0 a9 a7 fe bb 9b 64 f7 bc 79 d4 5c bc 62 d4 8a 3b
       -0.0077714515 -0.03019934 -0.013478392 0.004236744
0001d0 1d cf 10 bc 26 59 c9 3c c0 c5 22 bd dd b8 39 bc
       -0.008838442 0.024578642 -0.03973937 -0.011335579
0001e0 9e e9 43 3c 26 3a f2 bc 7b c0 8b 3c 75 29 64 bd
       0.011957554 -0.029568743 0.017059555 -0.0557036
0001f0 98 c5 f8 bc 39 78 dd 3b fa 2a 33 bc 04 33 cb 3c
       -0.030367658 0.0067587164 -0.010935539 0.0248046
000200 58 7e 8e bc e0 8b f7 3c 7f 3b 42 3c 26 e4 18 bc
       -0.01739423 0.030218065 0.011855005 -0.009331739
000210 31 a0 ff bc b5 da d9 bc a4 b9 cd 3c cc 49 31 3d
       -0.031204315 -0.026593545 0.025112934 0.04328327
000220 7f f0 fc 3c e0 63 df bc 02 5c fb 3c 67 82 16 3d
       0.030876396 -0.027269304 0.030683521 0.036745455
000230 9b e0 be 3c b3 04 0c 3d 4c 8d 4c 3d c0 9c 0c 3c
       0.02330046 0.03418417 0.04993944 0.008582294
000240 c7 0b f8 bc bc 37 db 3c 3f ac 0c bd b4 8e 14 bd
       -0.030279053 0.026759975 -0.034343954 -0.036268905
000250 83 aa 2d bb cd 01 5d bc 2f 72 68 bc 8f ca dc b7
       -0.0026499338 -0.013489199 -0.01418738 -2.6320367e-05
000260 58 63 9d bc 76 2b 19 3c ba 66 1c bd cf 0b 94 bc
       -0.01921241 0.009348741 -0.038183905 -0.018072037
000270 2d a6 c0 3c 14 0e a8 3c a6 d7 f1 3c d3 39 de bb
       0.023516739 0.020514525 0.029521775 -0.0067817955
000280 a9 2f b6 bc 7b 6e 3c bc 88 85 49 3b e5 9e 13 bd
       -0.022239523 -0.01150095 0.0030749757 -0.036040206
000290 5d 00 07 3d 84 a5 20 bb a5 78 ea 3b da 21 ce bb
       0.03295933 -0.0024512718 0.007155495 -0.0062906565
0002a0 e3 40 39 3b dc ad d2 bc 61 b4 07 3d 3e f6 0e 3d
       0.0028267435 -0.025717668 0.033131007 0.034902804
0002b0 43 56 e3 bc 81 10 f1 ba 21 01 83 bb 04 39 5c bb
       -0.027751094 -0.0018391759 -0.0039979373 -0.003360332
0002c0 ee f1 37 3d bb 82 14 3d 5f 38 1a bd 5b 66 4f bc
       0.044908457 0.036257487 -0.037651416 -0.012658681
0002d0 64 c0 5c 3c 6e 89 af bc 18 fc 3f bd 4a bb 07 3d
       0.013473604 -0.021427836 -0.046871275 0.033137597
0002e0 c7 bc d3 3c 1b dc 04 bd a2 2a 89 bc 44 d2 e1 bb
       0.025846852 -0.03243647 -0.016743962 -0.0068915207
0002f0 4c c5 2a bd 5e 3d 08 bd 3e ea 16 3c 77 15 3e bd
       -0.041692063 -0.03326165 0.009211121 -0.04640719
000300 af aa 10 bd da 3a c1 bb 00 c4 f2 bb 2c f2 a1 bc
       -0.035319027 -0.005896908 -0.007408619 -0.019768797
000310 ec 75 8d bc a9 be 41 3b 06 49 1b 3c d2 e1 b1 bb
       -0.017268144 0.0029563105 0.009477859 -0.005428531
000320 7d a7 7d 3c a0 4f fe bc 85 e7 0e bd e4 90 e6 3b
       0.015481827 -0.031043828 -0.034888763 0.0070363153
000330 00 a5 ef 3c 8a 89 ed b9 54 c9 ce bc 6e c4 95 3c
       0.029253483 -0.00045306637 -0.025242485 0.018282142
000340 99 b1 18 3d 5d 82 53 bb fe b2 8b bc 09 b0 42 39
       0.037278745 -0.0032273747 -0.017053124 0.0001856686
000350 fa 6d 1d bc 02 59 92 3c b0 fb b3 3c 9d 52 47 3c
       -0.00960874 0.017864708 0.0219706 0.012165693
000360 58 f9 21 3c 51 50 93 bb 2b c3 dd 3b 06 f0 44 3c
       0.009886108 -0.0044956584 0.0067676506 0.012020117
000370 16 cb 12 3d fc c7 bc 3b 6a 7b 3c 3c c1 ba 01 bd
       0.03583821 0.0057611447 0.011504034 -0.031672243
000380 b1 98 20 bc 62 7b 07 3d b1 af 05 bd c9 fb 05 bd
       -0.0098020295 0.03307665 -0.032638256 -0.032710824
000390 7b ce a3 3c 0b 9f f9 3c 4b 47 c5 3c 1b bd cf bb
       0.019995918 0.030471345 0.024081847 -0.006339682
0003a0 b3 ef f2 3c 2b 35 f0 3c 65 b5 d0 3c a6 31 e3 bc
       0.029655313 0.029322227 0.02547712 -0.027733635
0003b0 4c 90 09 bc 21 20 19 bd 3e 5f 3e 3c 3a de a4 bc
       -0.008396219 -0.037384156 0.011619387 -0.020125497
0003c0 de 2a f3 bc 83 1d bc 3c 40 24 23 bd 83 2e 08 3d
       -0.029683527 0.022963291 -0.039829493 0.033247482
0003d0 38 fe 38 3c da c3 f1 3c 08 b9 00 bc 93 04 37 3c
       0.011291079 0.029512335 -0.007856615 0.011170524
0003e0 a9 8c 33 bd c1 1b 3c 3b be 5c 21 3d 7d ac 28 3d
       -0.043835316 0.0028703066 0.039395086 0.041180123
0003f0 81 af a7 3c ca 8a fe bc d5 9a ce bc 62 9e b5 3b
       0.020469429 -0.03107204 -0.025220314 0.0055425623

_module.layer4.0.bias f4 [64]
000000 d5 4d e4 3c ed ca 38 3d 31 50 19 bd ad 1f 92 3c
       0.027869144 0.0451154 -0.037429992 0.01783737
000010 08 d9 9d bc 53 cc d7 bb 01 35 b2 bc 6a 51 1e 3c
       -0.019268528 -0.0065856366 -0.02175379 0.009662965
000020 15 05 de 3c 28 d5 55 3c 2b c6 94 3c cd a9 e8 b9
       0.027102033 0.013051309 0.0181609 -0.00044377
000030 2a 50 67 bc f8 12 d5 bc 01 4e 03 bd 97 c2 c9 3c
       -0.014118234 -0.026010022 -0.032056812 0.02462892
000040 62 8b 1e bc 74 f0 6a bb 34 2b c6 bc ca 0b 2c bb
       -0.009676786 -0.0035848888 -0.024190523 -0.0026252144
000050 76 8f 50 bc 84 f2 9f 3a 7d 80 19 3d 8b 09 2e bd
       -0.012729516 0.0012203013 0.03747605 -0.04248957
000060 9c a0 fc 3c de 97 62 3c 1c 82 20 3c b8 92 3e 3c
       0.030838303 0.013830153 0.0097966455 0.01163166
000070 f0 f2 bf 3b e8 f7 09 bd f9 97 58 bc dd f3 21 3d
       0.005857818 -0.033683687 -0.013219827 0.039539207
000080 f6 ac 97 3b dd 4b 49 bb 01 a8 03 3d e7 9e 27 3d
       0.004628773 -0.0030715384 0.032142643 0.040923025
000090 f5 44 94 bb 3f d8 09 bd 9c e7 2c 3c 52 ae a9 bc
       -0.004524822 -0.033653494 0.010553267 -0.020713005
0000a0 0e 19 8c bc 48 ff 01 bc f1 ec 0a 3d 89 39 b7 bc
       -0.01710179 -0.007934399 0.03391737 -0.022366302
0000b0 9c 68 f9 3b b8 54 aa 3b 16 ab d3 bc fe b0 e8 3b
       0.0076113474 0.0051980875 -0.025838416 0.0071011772
0000c0 9d bc 02 3d 7e e1 19 3d 2c aa 20 3d 2c 5d b1 3c
       0.031918157 0.03756856 0.03922479 0.021650873
0000d0 55 11 8f bc 13 b6 5c bc 13 62 9b bb d1 47 84 3c
       -0.01746432 -0.013471144 -0.004741916 0.016147526
0000e0 0d ba e2 bc 8d 2c b4 bc bc ff 37 3c e4 b3 20 bd
       -0.027676607 -0.0219939 0.011230405 -0.039234057
0000f0 6e ab f2 3c 45 b1 c7 bc a9 ca 11 3c 45 68 55 bd
       0.02962276 -0.02437652 0.008898416 -0.052101392

_module.layer4.1.weight f4 [64]
000000 95 36 80 3f bd 54 81 3f 48 7d 80 3f 6e 57 81 3f
       1.0016657 1.0103985 1.0038233 1.0104806
000010 3d 47 7e 3f ff 1a 81 3f 42 38 7e 3f ff 92 7f 3f
       0.9932745 1.0086364 0.9930459 0.99833673
000020 91 4c 80 3f 05 82 81 3f 43 92 80 3f 3c 08 80 3f
       1.0023366 1.0117804 1.0044636 1.0002513
000030 23 4d 80 3f d2 4a 7f 3f 96 61 80 3f 5a 02 81 3f
       1.002354 0.9972354 1.0029781 1.0078843
000040 eb 40 7d 3f a6 3d 80 3f bb 46 81 3f e6 5b 7e 3f
       0.9892718 1.0018814 1.009971 0.99358976
000050 f0 4e 7f 3f f0 fd 80 3f d9 8c 7f 3f d5 94 80 3f
       0.99729824 1.0077496 0.9982429 1.004542
000060 eb 56 80 3f 57 b3 7f 3f 30 02 7f 3f 2e 86 80 3f
       1.0026525 0.99883026 0.9961271 1.0040948
000070 24 2b 7f 3f 10 af 7e 3f 9b 5d 80 3f 8d f3 7f 3f
       0.996752 0.99485874 1.0028566 0.99981004
000080 ff 2e 80 3f 7d 6f 80 3f 80 77 80 3f 00 58 81 3f
       1.0014342 1.0034024 1.0036469 1.010498
000090 53 03 81 3f 72 50 80 3f 7e 7f 7e 3f e7 af 7e 3f
       1.007914 1.002455 0.9941329 0.99487156
0000a0 ea 8b 80 3f c7 56 7f 3f b9 78 7d 3f ce 79 7d 3f
       1.0042698 0.99741787 0.99012333 0.99013984
0000b0 ac b2 7e 3f 1c 6b 80 3f bd 47 7f 3f c0 03 7e 3f
       0.9949138 1.0032687 0.9971884 0.9922447
0000c0 d1 51 80 3f b2 a5 80 3f 99 e5 80 3f 44 ce 7f 3f
       1.0024968 1.0050566 1.0070068 0.9992411
0000d0 d7 9b 80 3f ec 0f 80 3f 4b 9f 80 3f 87 ed 80 3f
       1.0047559 1.0004859 1.0048612 1.0072488
0000e0 e6 1b 80 3f e7 18 80 3f 40 e1 7e 3f 19 f7 7d 3f
       1.0008514 1.00076 0.99562454 0.99205166
0000f0 7b c1 7d 3f e7 3d 7d 3f 79 ec 7d 3f 73 2e 81 3f
       0.9912335 0.9892258 0.99188954 1.00923

_module.layer4.1.bias f4 [64]
000000 cd 49 c2 bb 9f 08 a0 b8 04 36 29 bb 0c a6 f2 38
       -0.005929208 -7.631e-05 -0.002581955 0.00011570388
000010 76 1b 28 3b c5 58 19 3c 73 68 32 bc 9e ad 50 3c
       0.0025651134 0.009359543 -0.01088916 0.012736706
000020 fa bf 31 bb 71 ee 8d 3b e3 ca 86 3b bf 46 cb 3b
       -0.0027122484 0.004331403 0.0041135415 0.006203502
000030 ad 7d 27 bc 81 54 45 3b b9 30 bd ba 8f 93 0e 3c
       -0.010222835 0.0030110183 -0.0014434076 0.008702173
000040 f6 a1 34 bc 67 d4 5a 3b 08 d9 1f 3b 6e f9 0b bc
       -0.011024943 0.0033390762 0.0024390835 -0.008543355
000050 1d 7a 4b bc e0 22 4e bb 92 9b 8f 3c 50 04 0d bb
       -0.012419251 -0.0031453893 0.017530236 -0.0021517463
000060 7f 9d 75 bb 3e c0 a8 bb 81 0b f3 3b b5 ac a8 3b
       -0.0037477908 -0.00514987 0.007417143 0.0051475414
000070 8b 46 0d 3b 7b 65 b5 bb 60 68 d1 bb fe ee 19 39
       0.002155694 -0.005535779 -0.0063906163 0.00014680249
000080 d0 5c 30 3b 82 a9 0f bc 5c 1f cd 3b 0b f8 50 3b
       0.002691079 -0.008768441 0.006259842 0.0031886126
000090 7e bb 29 3c 9f 9d 36 bb 26 44 11 bc 56 f1 1d 3c
       0.010359643 -0.0027864946 -0.0088663455 0.0096400585
0000a0 60 b6 7b bb af 71 01 3a 17 cd 00 3c ab e3 98 bb
       -0.0038408265 0.00049378996 0.007861397 -0.004665812
0000b0 e7 46 82 3b 29 aa b4 3b d8 0b 17 3b 7c 27 38 3c
       0.0039757374 0.0055134487 0.002304783 0.011239883
0000c0 06 50 80 3c ce 51 d1 b9 e5 ef 78 3b d6 87 6d ba
       0.015663158 -0.00039924536 0.0037984785 -0.00090610737
0000d0 ce 54 b6 bb 48 be 1a bb d8 71 ce 3a ae a1 34 3c
       -0.0055643087 -0.0023611952 0.0015750481 0.011024876
0000e0 98 02 9d 3c 4b a0 e7 bb 58 30 11 bc a4 43 c2 3a
       0.019166276 -0.007068669 -0.008861624 0.0014821184
0000f0 f9 c5 e6 bb 2b 6a ee ba bd 4e e9 bb 43 a9 4d 3c
       -0.007042643 -0.00181896 -0.007119982 0.012552562

_module.layer5.0.weight f4 [64, 64, 3, 3]
000000 c1 e1 1a bc 97 7e ba 3c 8b a8 0b bd 42 ee a7 3c
       -0.009453238 0.02276544 -0.034096282 0.020499352
000010 84 75 25 3d de be 9c bc 74 e2 d6 3c e0 e4 38 bc
       0.040395275 -0.019133981 0.026231028 -0.011285037
000020 2b 9b 2a bc 27 81 01 3d 97 45 b6 bb 27 9a a9 3c
       -0.0104129715 0.03161731 -0.005562495 0.020703388
000030 ee 78 22 bd fc 72 fa 3c 1a 8d fb 3b fc 17 b6 bc
       -0.03966611 0.030572407 0.0076767327 -0.022228234
000040 61 9a d0 bc 2d 2c 12 bc 62 b4 f9 bc d2 4f c7 3c
       -0.025464239 -0.008921665 -0.030481521 0.024330053
000050 c7 88 31 bd bc 65 ed bc 8e 2e 26 bd 53 d5 07 bd
       -0.04334333 -0.028979175 -0.04057174 -0.033162426
000060 67 82 23 3b a8 38 47 bc 9c c9 6e 3c 28 d1 84 3c
       0.0024949552 -0.012159504 0.014574435 0.016213015
000070 4e 5d 72 bc 20 2d fa 3c a2 23 98 3c f4 70 85 bc
       -0.014792753 0.030539095 0.018571679 -0.016289212
000080 7c a4 ae bb 24 a6 29 3b 19 26 9c 3c 8b cb e8 bc
       -0.0053296667 0.002588638 0.019061135 -0.02841737
000090 c0 04 62 bc df 21 f5 3c 1b 3e 1c 3c e9 23 97 3c
       -0.013795078 0.029923378 0.0095362915 0.01844974
0000a0 be 77 81 bc fa 9f 80 3c ca 2d 22 bd 11 3d 0c bd
       -0.015804168 0.015701283 -0.03959445 -0.034237925
0000b0 ec 6d e1 3c 79 03 a1 3b 9d 8f 07 3d 09 c2 25 bc
       0.027518235 0.004913744 0.033095945 -0.010117062
0000c0 58 40 31 3c 60 a4 e6 3c d8 29 7d 3c 33 4c c7 3c
       0.010818563 0.028154552 0.015451871 0.024328327
0000d0 1b 88 16 bd b5 35 ec bb fc 68 32 3d b1 a9 08 3c
       -0.036750894 -0.007208551 0.043557152 0.008341239
0000e0 19 42 12 bd 14 42 02 3d 5e da 1e bd b6 b5 bf bc
       -0.035707567 0.0318013 -0.03878247 -0.023402076
0000f0 e6 00 aa 3c ec 2a a3 3c 01 9e 0a 3c 1b 8d f7 bb
       0.020752382 0.019917928 0.008460523 -0.007554663
000100 5e 04 7c bc d7 0b 2a 3d 3b a7 1a bd fc 67 34 3d
       -0.015381901 0.041515198 -0.03775714 0.04404448
000110 52 e8 7d bc 3c b4 12 3b be 7b 0d bd ae a7 f5 3a
       -0.015497284 0.002238526 -0.034541838 0.0018741989
000120 dd 3c a0 3c 4a c2 24 3b ad 24 2c ba 6b 86 a7 3c
       0.019560272 0.002514022 -0.00065667444 0.020449838
000130 0f 0c d7 3c 92 0f 9f 3b 28 a7 84 bc 86 06 1e 3c
       0.026250867 0.004854151 -0.016192988 0.00964511
000140 36 ca 8f bc d2 c2 de 3c 6b 2b d2 bc fc 27 06 bd
       -0.017552476 0.027192507 -0.025655469 -0.032752976
000150 db d4 28 bd 2b f2 0f 3c b8 63 f4 bb b2 57 e8 bc
       -0.04121862 0.008785765 -0.0074581765 -0.028362129
000160 f3 aa 0a bd ba d2 83 3a 12 24 0d 3d 01 7f 04 3c
       -0.033854436 0.0010057308 0.034458227 0.008086921
000170 80 76 2b 3d 4c 97 34 3c a7 d7 98 bb ec 61 98 bc
       0.041861057 0.0110224 -0.0046643796 -0.01860138
000180 0a 56 51 bd 80 6f 0c bd da 8e 33 bd 42 28 a1 bc
       -0.051107444 -0.034286022 -0.043837406 -0.019672517
000190 b6 a4 d5 b9 46 be 08 bd fa 0a ce 3c 31 f9 c2 3c
       -0.00040749245 -0.033384584 0.025151718 0.023800464
0001a0 23 c5 a3 bc 41 4f 31 3d a8 1e 41 3c ba 2e 0a bd
       -0.019991463 0.043288473 0.011787094 -0.03373597
0001b0 12 ce ec 3b 4f a4 5a 3c 79 54 24 3d 6b ec bb bb
       0.007226714 0.013344838 0.040119622 -0.0057349703
0001c0 6d 67 0b bd f1 71 3c 3c b2 38 25 3d 2e 25 af 3c
       -0.03403418 0.011501775 0.040337272 0.021380033
0001d0 3d b5 d4 bb 59 64 53 3c 50 d4 4a 3c e8 bd d6 3c
       -0.006491332 0.012902343 0.012379721 0.026213601
0001e0 c0 9b 23 b9 34 94 0e 3c c3 d0 b6 3b e7 8c 14 3b
       -0.00015602913 0.008702327 0.0055790856 0.0022666992
0001f0 83 c1 1b bd 1b de 8c 3c 38 a5 27 bd 8b 0e eb bc
       -0.038026344 0.017195752 -0.04092905 -0.028693458
000200 c3 b6 67 bc f3 1a 35 bd 6e 0e 30 bd f6 f8 0b ba
       -0.014142695 -0.044215154 -0.04298251 -0.0005339527
000210 ef 08 8e 3c 72 d2 1d 3d b4 5c 57 3c 5a de 6c 3c
       0.017338244 0.038530774 0.013144661 0.01445731
000220 cc e6 db 3c ed 45 ce bc f6 fe 35 3d 08 38 25 bd
       0.026843451 -0.025179828 0.044432603 -0.04033664
000230 1d 81 3a 3d 16 d2 5f 3c 60 f9 47 bc 51 9a 87 3c
       0.04553329 0.013660928 -0.012205452 0.016553076
000240 15 6c 40 bd 61 30 76 bc 27 a4 df bc 5f 84 14 bc
       -0.046978075 -0.015026183 -0.027299954 -0.009064763
000250 87 19 1d 3d d3 46 00 bd c5 a6 97 3c 2b 72 32 bc
       0.038354423 -0.031317543 0.01851214 -0.010891478
000260 7c 33 63 3c 90 ea 2d 3d 5a 65 b7 3c aa 6a 41 bc
       0.013867255 0.042460024 0.022387195 -0.011805216
000270 4c fc 09 3c 3d c1 29 3d b7 d9 19 bd b6 74 68 bc
       0.008421969 0.041444052 -0.037561145 -0.014187982
000280 b9 c8 b6 3c 3f 1a ce 3c df 78 99 3c 42 f1 19 3d
       0.022312509 0.025159 0.018734394 0.037583597
000290 2c f6 83 3b 76 00 01 bd 6e 0d cc 3c b4 25 22 3d
       0.0040271487 -0.03149458 0.024908748 0.039586738
0002a0 5e 2d 90 3c 9a ed d6 3b bf 1c a2 bc 36 60 2c 3c
       0.017599758 0.006559086 -0.019789098 0.010520985
0002b0 2b 89 e5 3a c7 f8 8e 3c a4 a0 a8 3c 0e c9 13 b9
       0.0017512193 0.01745261 0.020584412 -0.00014093911
0002c0 ed 4b 8a 3a 49 bb 49 bc 41 6d 0d 3d 07 ff c1 bc
       0.0010551192 -0.012312719 0.03452802 -0.023681177
0002d0 cf 64 1b 3c f1 ec 04 bc a8 01 71 3c 7c fd 9f bc
       0.009484484 -0.008113132 0.014709868 -0.01953005
0002e0 78 84 08 bc cb 1b c7 3c c9 55 a1 3b be 8c 13 3d
       -0.008332364 0.024305245 0.0049235565 0.036022894
0002f0 17 c5 45 3c 35 fd 18 3d d9 82 2e 3d f9 95 7d 3c
       0.012070916 0.037350852 0.042605255 0.015477651
000300 68 2c 11 3d cb 60 fe bb 70 be cd bc bf 14 ee 3c
       0.03544274 -0.0077630035 -0.025115222 0.029062627
000310 e5 e2 a8 3c 98 28 aa bc 39 17 e7 bc 48 cc 6e bc
       0.020616004 -0.02077131 -0.028209316 -0.014575072
000320 d1 ea 09 bd 5e c5 2a 3d dd c9 16 b9 5d f5 dc bc
       -0.033671204 0.04169213 -0.00014380315 -0.026972467
000330 ef 36 82 bc ed 7a 23 bd cc de dd bc ba b2 0e bd
       -0.015895335 -0.039912153 -0.027083777 -0.034838416
000340 a9 b3 94 3b 8c 9b 11 3d b5 b8 07 3d 0d b6 af bb
       0.0045380187 0.03554873 0.033135135 -0.0053622783
000350 e9 c8 d7 bc dd 80 45 3d 81 1c fb bc c2 47 0d bd
       -0.026340919 0.048218597 -0.03065324 -0.03449226
000360 af 9e 27 bd 71 db 85 3c 41 04 fd 3b 70 bb 12 3d
       -0.040922817 0.01633999 0.0077214544 0.035823286
000370 4a df b5 bc d2 bf 7b bb 5e c1 44 39 0a a2 c8 3c
       -0.0222012 -0.0038413894 0.00018764051 0.024491329
000380 f1 60 ae 3c 54 88 91 bc 14 56 e2 bc 82 32 fd bc
       0.02128646 -0.017765202 -0.027628936 -0.030907873
000390 94 de 0a 3d a8 78 fb bc 8e 5b a6 bc 18 59 e0 3c
       0.033903673 -0.030697182 -0.020307329 0.027386233
0003a0 71 63 62 bc 83 38 36 3b b0 74 9c 3c ff a9 45 bd
       -0.013817654 0.002780468 0.01909861 -0.048257824
0003b0 61 43 b3 bc 47 bb 3c 3c b9 7b dd bc d7 05 e3 bc
       -0.021882715 0.01151926 -0.027036535 -0.027712746
0003c0 b1 27 f6 3b eb a6 f6 bb e6 65 82 3b a3 e3 f3 bc
       0.007512056 -0.0075272224 0.0039794324 -0.029771632
0003d0 a9 de 22 bd f2 4a 96 bc 50 6b 32 bd df 67 ac 3c
       -0.039763127 -0.018346284 -0.043559372 0.021045623
0003e0 49 ed 3c bd 5d aa 2f 3d 75 06 27 bd 7e e9 a7 3c
       -0.04612473 0.04288708 -0.040777642 0.02049708
0003f0 27 d1 25 bd 1f cd af 3c e0 12 90 bc 68 39 11 bd
       -0.040482666 0.021460114 -0.017587125 -0.035455137

_module.layer5.0.bias f4 [64]
000000 73 dc f0 bc f7 2f e7 3c b2 f9 b1 3c d3 cd 14 3d
       -0.029401993 0.028221114 0.02172551 0.0363291
000010 d9 db 2a bc f1 10 95 bb b7 0e 82 bc 9b 5e fc bb
       -0.010428392 -0.0045491387 -0.015876157 -0.0077017075
000020 dd 02 9a 3b e3 ad ec 3c 12 1a 65 bc 26 61 c0 bc
       0.0047000484 0.02889151 -0.013983266 -0.023483824
000030 b6 fe 6c bc c4 f5 15 3c bc c7 c1 3c 94 f3 83 3c
       -0.014465025 0.009152833 0.023654811 0.016107358
000040 39 00 c2 bc 43 4d 0d bc a5 3d 81 bb 5a 09 2a bc
       -0.023681747 -0.008624378 -0.003944116 -0.010378206
000050 33 c1 41 bc f1 ce 0e 3d 73 19 c2 bc d9 a5 2c bd
       -0.011825847 0.034865323 -0.023693776 -0.042150352
000060 ea 5a 1d bc 36 cd 23 bd d3 0c 0e 3d 2a f2 ad 3c
       -0.009604195 -0.039990626 0.0346802 0.021233637
000070 48 60 e2 3b 95 2f 8a bc 9c 8a 9b 3c 69 06 26 3d
       0.0069084503 -0.016868392 0.018986993 0.040533457
000080 10 34 7c 3c 0b 33 15 bd 21 29 66 3b dc 8e c8 3b
       0.015393272 -0.03642563 0.003511973 0.006120546
000090 c4 2b 22 3d d6 56 1e bc da 68 ff bc 56 6a fb bc
       0.03959252 -0.009664258 -0.031177927 -0.030690353
0000a0 5b 1f 86 bc c5 60 f5 b9 92 f8 02 3d 00 ed 2a bd
       -0.016372373 -0.0004680214 0.031975336 -0.041729927
0000b0 45 03 fe bc 82 50 fe 3c 74 f6 43 3c 8c ab ce bc
       -0.031007418 0.031044248 0.0119606145 -0.025228284
0000c0 6a e8 15 bd 1b de 34 3d 60 09 9c 3c 82 a2 ab 3c
       -0.0365986 0.04415713 0.01904744 0.020951513
0000d0 81 97 52 bc f5 bd c6 3c 8c 29 6d bc 73 8d fc 3c
       -0.012853504 0.0242605 -0.014475238 0.030829167
0000e0 81 bf 0d 3d 25 fd 74 bb de 65 0b 3d 99 a0 e3 bc
       0.03460646 -0.0037382331 0.034032695 -0.02778654
0000f0 92 87 9d bc 48 c6 8a 3c 4c 1a 14 3d 6f 1f 10 bd
       -0.019229684 0.016940251 0.03615789 -0.035186227

_module.layer5.1.weight f4 [64]
000000 3b 56 7d 3f 07 95 80 3f 2e e9 7d 3f 5b 2d 80 3f
       0.989597 1.004548 0.9918393 1.0013841
000010 a8 ae 7f 3f bd 0b 81 3f c5 3e 80 3f f0 3d 80 3f
       0.9987588 1.0081707 1.0019156 1.0018902
000020 74 7b 80 3f 43 85 7f 3f ec 4f 80 3f b0 4d 7c 3f
       1.0037675 0.99812716 1.002439 0.9855604
000030 a2 7b 7e 3f 69 40 7e 3f 3b 15 7d 3f 3d 97 7f 3f
       0.994074 0.9931703 0.9886052 0.99840146
000040 a2 02 7e 3f 8d b5 80 3f 1d 9e 80 3f 6d 1d 80 3f
       0.9922277 1.0055405 1.0048252 1.000898
000050 05 37 7d 3f 28 6a 7f 3f f8 5a 80 3f a9 6d 7d 3f
       0.9891208 0.99771357 1.0027761 0.98995453
000060 8d 60 81 3f 72 fd 7f 3f 94 27 81 3f 57 56 80 3f
       1.010759 0.999961 1.0090203 1.0026349
000070 b9 e4 7e 3f e7 6f 7d 3f 42 1d 80 3f 3e f9 7e 3f
       0.99567753 0.98998874 1.0008929 0.99599063
000080 c7 23 81 3f e0 e2 80 3f db 24 80 3f 41 15 7f 3f
       1.0089043 1.0069237 1.0011247 0.99641806
000090 8c 26 80 3f eb f0 80 3f ba 55 80 3f fe 85 7f 3f
       1.0011764 1.0073522 1.0026162 0.9981383
0000a0 c9 57 7f 3f 3a 56 7f 3f 5b 74 7f 3f 8e f7 80 3f
       0.99743325 0.99740946 0.9978692 1.0075548
0000b0 85 09 7d 3f d8 54 7d 3f 7e 57 7f 3f 2c 7c 80 3f
       0.9884265 0.98957586 0.9974288 1.0037894
0000c0 0e 2b 80 3f 1e 25 7f 3f 44 95 7f 3f 9a 00 7d 3f
       1.0013139 0.9966601 0.99837136 0.9882904
0000d0 30 33 80 3f 2c 01 7e 3f be 3d 82 3f 3d d9 7f 3f
       1.0015621 0.9922054 1.0175092 0.99940854
0000e0 91 92 80 3f 52 75 7e 3f 58 78 80 3f 99 01 80 3f
       1.0044729 0.99397767 1.0036726 1.0000488
0000f0 d2 bc 81 3f 37 83 7d 3f a7 24 81 3f 6c 4b 81 3f
       1.0135748 0.9902834 1.008931 1.0101142
