weights/private_finetune.pth (torch, 946710 bytes, 26 tensors)

_module.layer1.0.weight f4 [16, 1, 3, 3]
00000000: ce3a a7bd ecab 9b3b 8243 603d 537b 93be
00000010: 6204 8cbd d88a d6bd fcc6 96be 5569 2cbd
00000020: 6c98 32bd 9b1e f5bd 3f43 643d 8e9a 0e3e
00000030: 8029 0f3e ad12 97be d862 37be 5f4d cf3d
00000040: 0152 9e3d 54c8 f4bd 676e 7fbe ba1d 36be
00000050: ca17 82be d2da 43bc a777 103e 6c3f 213e
00000060: 3f5a 9f3e c0cd 4fbd 51f0 6e3e 1049 803e
00000070: b31f 6c3e 7cf6 893e 05b4 ecbd af9b cfbd
00000080: e752 0b3e 6951 a1be 7eeb 9a3d 2c4d 773e
00000090: fb1b 55be 9d6a 9f3c 0fb5 553d 63f6 87be
000000a0: f83a 363d 60cf 4f3d d8bd c4bd d6b3 0f3e
000000b0: a4ce 313d a30d eabc 4173 adbd f907 913d
000000c0: fc8a 003e 22a4 e63d c6eb 7e3e 207e b03e
000000d0: e14f 37be 362f 833e d725 243e df02 9f3e
000000e0: eb57 c9bd 7127 aabe ef8a dabd 55a8 0f3e
000000f0: c50f 643e 63ef 22bb 013b edbb 901f 29be
00000100: 358f d73d 220d 833e de4c 543e c024 6a3e
00000110: fcde 6d3e 96f9 843e 5fce 93bd 8e9b 69be
00000120: a18c 33be f5a9 96be 61e3 993d d348 be3c
00000130: 0abf 973d bb44 77be a1d1 563e 6d77 a93d
00000140: 37fb dd3d fae6 66be 255a a8bd 6021 283e
00000150: 0f22 3f3d c6d6 f6bb 1048 a7bc ede3 6bbe
00000160: dfe5 743d 9ffd f2bd 5ae5 70be ef9e 78be
00000170: a7dd 843e 1f6c 0e3c 678e 97be 4dae 303e
00000180: c4cf ccbd 4a04 433e 3c89 a4be bc8d 263e
00000190: 4703 5ebe c59c 973d d1e2 61bd 55e5 71bd
000001a0: 08a8 99be 336d 0a3e a614 2f3e b69d 04be
000001b0: 7bf1 a53e 0d79 97bd 9f19 863e 7a4d 173e
000001c0: 3147 4fbe 9a17 933e 0258 f2bd ad76 c9bd
000001d0: eea7 a43e f366 bc3d d1e4 71bd b726 b23e
000001e0: 50e6 a63e 877a 0dbd ee9c cdbd 55a1 44be
000001f0: 6af6 c6bd b97e 9a3e 781a 66be 659f 55be
00000200: a47b 99bd 3bb0 1abe 6291 82be 1b02 38be
00000210: 6706 98be a194 7c3e b44c 703e d98d 893d
00000220: a0b8 c03c ee95 2fbe a760 313e 8a92 20bb
00000230: b912 723d 93c3 783e d300 153b 1ada 83bd
-0.08165513 0.0047507193 0.05475188 -0.28805026 -0.068367735 -0.10475701 -0.29448688 -0.04209264
-0.043602392 -0.11968728 0.055728193 0.13926145 0.13980675 -0.29506436 -0.179088 0.10122179
0.07730485 -0.11952272 -0.24944459 -0.17784777 -0.25408775 -0.011954026 0.14108144 0.1574685
0.3112354 -0.050733328 0.23333861 0.25055742 0.23058967 0.26945865 -0.115577735 -0.10137116
0.13605843 -0.31507424 0.07564448 0.24150532 -0.20811455 0.019460017 0.052174624 -0.26555166
0.04448983 0.050734878 -0.09606522 0.14033446 0.04340996 -0.028570956 -0.084692486 0.07081599
0.12553018 0.112617746 0.24894628 0.34471226 -0.17901565 0.25621957 0.1603006 0.31056878
-0.09831222 -0.33233216 -0.10671031 0.14029057 0.2227164 -0.0024861924 -0.0072397 -0.16515946
0.105253614 0.25595957 0.20732448 0.22865582 0.23229593 0.2597167 -0.072170965 -0.22813246
-0.17534114 -0.29426542 0.07514072 0.023228085 0.07409485 -0.24147312 0.20978405 0.08274732
0.10838931 -0.22549048 -0.08220319 0.16418982 0.04666334 -0.007532927 -0.020420104 -0.23036166
0.059789535 -0.11864781 -0.2352499 -0.24279378 0.25950357 0.00869277 -0.29600832 0.1725399
-0.10000566 0.19044605 -0.32135952 0.16265005 -0.21680938 0.07402948 -0.05514795 -0.0590566
-0.3001101 0.13518219 0.1709772 -0.12950787 0.32410797 -0.073961355 0.26191422 0.14775649
-0.20242001 0.28728944 -0.118331924 -0.09837089 0.3215937 0.091993235 -0.059056107 0.34795162
0.3259759 -0.03454068 -0.100396976 -0.19202168 -0.097149685 0.30174807 -0.22471035 -0.20861585
-0.07494286 -0.15106289 -0.25501543 -0.17969553 -0.29692385 0.24666072 0.2346676 0.067165084
0.023525536 -0.17147037 0.17322026 -0.0024501407 0.059099887 0.24293356 0.0022736087 -0.06438084

_module.layer1.0.bias f4 [16]
00000000: e07b a7bd 38a8 ab3e a8da 93be d154 823e
00000010: 3c2d b73c 93af 813e 65d7 663e 322f a93e
00000020: f4ac bd3d 9f83 5abe 7803 0bbc eda0 c13d
00000030: 3d2a 1fbd f529 07be 72b8 683e 58c5 9f3e
-0.08177924 0.33526778 -0.2887776 0.25455335 0.022360437 0.25329265 0.22543104 0.3304382
0.09261504 -0.21339272 -0.008484714 0.09454522 -0.03885864 -0.13199599 0.2272661 0.3120525

_module.layer1.1.weight f4 [16]
00000000: 8160 803f f6ed 783f a304 7e3f d789 7c3f
00000010: e043 783f 2248 813f c3b5 833f b346 7f3f
00000020: c164 793f 22e9 803f a273 803f 2ab4 7e3f
00000030: c4a6 813f 40ba 793f e22a 853f f9de 793f
1.0029451 0.972381 0.99225825 0.98647827 0.9697857 1.0100138 1.0289844 0.99717253
0.97419363 1.0071146 1.0035288 0.9949366 1.0129018 0.9754982 1.0403712 0.97605854

_module.layer1.1.bias f4 [16]
00000000: 9463 823a 9835 93bb 2bed 28bc a517 10bc
00000010: 524b c53c a885 a43c c410 843c 6658 26bb
00000020: c988 a7ba f4ad 90bc 3100 5dbd 8a7d c9bb
00000030: 6858 9fbc a552 5d3c 92c9 643c 65b0 0abd
0.000994789 -0.004492473 -0.0103104515 -0.0087947 0.024083767 0.020083264 0.016121276 -0.002538228
-0.0012781854 -0.017661072 -0.05395526 -0.0061489986 -0.019451335 0.0135084735 0.013964074 -0.03385963

_module.layer2.0.weight f4 [16, 16, 3, 3]
00000000: 1e83 783b dc4f 3ebc 8a2d d7bb dd98 ac3c
00000010: 49bb acb9 f065 393d 4dde 08bd 321c 8c3d
00000020: ae8e 68bb e344 27bc e983 34bd d6e6 cf3c
00000030: 0bbe 41bd 1ef3 5e3d 05b7 a13d 4cfc 953d
00000040: 937a 8dbd 1ba6 ec3c f605 c3bd 2ecd b93d
00000050: 1e8c 743d e0dc b73d 0ea7 403d 8617 003c
00000060: fbe0 03bc f5ec 71bc ff0c 473c 7c95 11bd
00000070: 9a7f 8abd 416a 313c df23 7c3d 3467 69bd
00000080: 3ae3 7dbd 3817 2fbb 61be de3d c84f 843d
00000090: 0324 6fbd 8eeb 8e3c c534 9cbd 26a9 7cbc
000000a0: e925 a0bd 251e b7bd 8900 c53c 51a6 963c
000000b0: 0dc1 a03b 26d6 b3bc c651 bf3d 5e0c d6bd
000000c0: 248c 5ebd c13c 6dbd 79d4 13bc 13a5 2bbc
000000d0: 2d6f 0cbd d699 bbbc c80d f2bc 9b88 463c
000000e0: df8f 193c 7d10 8fbd 526e 9abd bb6f bdbc
000000f0: 3469 f83a ce35 20bd 433d b13d 7739 883d
00000100: f4b4 f6bc 36f9 1abd a58a a9bc c31d 99bd
00000110: cbed 20bd 01bf aebd 4b79 05bb 6f07 d9bb
00000120: f00d 8f3d 67c7 4b3d 34b5 3bbd bb12 aebd
00000130: aa5c 4e3d 247a 8dbd 53c3 003d ea92 a6bc
00000140: 6070 113c 0a91 dcbb f7eb 86bd a867 503d
00000150: 5391 88bd 5de9 d8bb 24c6 9d3d fd30 683c
00000160: ccc4 7f3c 61ff 6b3d 7566 5abd fcfc 88bd
00000170: 4aba c5bc 2a9b b5bc b3cb 533b d22c 99bc
00000180: 27a1 343d 3168 493d 669c 50bd ea2e b0bc
00000190: 7a8f c5bd 75af 263d 6dfa 32bd 36a5 87bd
000001a0: a501 b13b ab53 8c3d c74a c9bc 9e4d 58bd
000001b0: 4bb1 21bd a319 bf3c 9862 a2bd f052 45bd
000001c0: 91ea 433d e83f 36bd c012 2abd 3e55 55bc
000001d0: 179f 783c 4252 9fbc 4c9c c4bd 13b7 3dbd
000001e0: e41a 2bbc 4cd7 8abd 4998 68bc bae1 98bd
000001f0: ca0c 143c 8de9 8bbd 7075 4c3c 9adb 2abc
00000200: 516b 213d 02f8 51bd 5853 17bd 0dc5 4d3d
00000210: 5823 c7bd 9280 50bd 1ef7 8f3d 389f b03d
00000220: dc51 163d 90d7 b33d 3a6f fe3b b88e 883d
00000230: dba0 883d e6f0 743d 7997 dc3c e132 7a3d
00000240: e908 89bb 1264 83bd 4c24 2abd 0cb7 a2bd
00000250: aab9 203d 37b0 a63d 8fda 8ebd 707c 8fbd
00000260: 8223 2d3d 0c4b 0b3d 3df0 52bd f28e 283d
00000270: 4b54 fb3c c510 5b3d fd4c 8d3d 586a 533d
00000280: bd41 b5ba 7ff4 d1bb 3976 083d 0e38 01bd
00000290: c7b8 fe3c df24 8fbd cd44 373d 282b 483d
000002a0: b38f f2bb b84a 183d 395a 823d 1bcf e0bc
000002b0: d3eb f23c 6b41 c4bd 1f9f 76bc 98d1 a83c
000002c0: d962 89bd f321 c6bc 31e5 6c3d 9aa8 83bd
000002d0: 2fce 973d 0a79 1a3c 81da 4bbd 83fc b03c
000002e0: 8314 9f3c cfbc cdbc b946 7d3d 022a 423c
000002f0: 038c ec3d 86a3 b13c a676 9abd 665a 3fbd
00000300: 5457 913c 0da3 2ebd 597f 3dbd e7dd 0f3d
00000310: 0e14 713d 69dd ffbc 9a68 c1bd 0510 a53d
00000320: ed4f 0bbd 3802 c93d 19b8 2c3c aa46 27bd
00000330: 5d0b c93c 4225 abbc e37f 603c 9f6b a83d
00000340: 257f 3bbc fa70 19bc d0e1 963d 0c22 893d
00000350: bf57 34bd 9161 00bd 6d47 30bd b369 0c3d
00000360: 60b8 b9bd 8d47 883b c187 463d de12 923d
00000370: 0ef7 02bd 170b ecbc 331e c5bc a8bb 1abc
00000380: 71a4 ae3c a3bf 90bd 35b0 50bd f57e 91bd
00000390: 5e90 de3d fbe6 a4bc 62c6 30bc 1a6f 85bd
000003a0: fbb7 66bd 441c b7bb 68f5 6fbd f6a3 663d
000003b0: fe66 8bbd 942e 9a3d 45d1 43bd d70b 9c3c
000003c0: 6265 b0bb f030 b1bd 130b ba3b 8bc5 083d
000003d0: 7e03 c0bd 4d6e 77bd 247e a8bd 294b 84bd
000003e0: cc43 c8bc 9359 943c 00a5 8d3b ce42 acbc
000003f0: aa4e 63bd 0f35 41bd 1e31 83bd 10cf 3f3d
0.0037919949 -0.01161572 -0.006566708 0.021068985 -0.00032945935 0.04526323 -0.033415128 0.06841315
-0.0035485434 -0.010209295 -0.04407111 0.025378626 -0.04730038 0.054431073 0.07896236 0.073235124
-0.06908145 0.028887799 -0.09522621 0.09072338 0.05970394 0.089776754 0.047034316 0.007818108
-0.008049245 -0.014765968 0.012149095 -0.03554295 -0.06762619 0.010828556 0.061557647 -0.056983188
-0.06198428 -0.002671672 0.10876156 0.064605296 -0.058383953 0.017446306 -0.076272525 -0.0154211875
-0.07819731 -0.089412965 0.024048107 0.018389853 0.004905826 -0.0219527 0.09341769 -0.104515776
-0.054332867 -0.057919268 -0.009022825 -0.0104763685 -0.034285713 -0.022900503 -0.029547587 0.01211753
0.00937268 -0.06985567 -0.07540573 -0.023124566 0.0018952251 -0.039113812 0.08654263 0.066515855
-0.030115582 -0.037835322 -0.020695994 -0.0747638 -0.039289277 -0.08532525 -0.0020366486 -0.0066232006
0.0698508 0.04975071 -0.045827106 -0.08499666 0.05038134 -0.06908062 0.031436276 -0.020333726
0.00887689 -0.006731157 -0.065879755 0.050880104 -0.066683434 -0.006619616 0.07703808 0.014171836
0.015610885 0.057616595 -0.053320367 -0.06688878 -0.024136681 -0.022168715 0.003231746 -0.01869813
0.044099 0.04917163 -0.050930403 -0.021506745 -0.096465066 0.040694673 -0.043695856 -0.06623308
0.0054018074 0.06851896 -0.02457179 -0.052808397 -0.03947572 0.023327654 -0.079289615 -0.0481748
0.04783112 -0.04449454 -0.041521788 -0.013020812 0.015174649 -0.019448403 -0.09600124 -0.04631717
-0.010443423 -0.06779346 -0.014196464 -0.07464929 0.009036252 -0.06831656 0.012479171 -0.010428334
0.039408986 -0.05126191 -0.036944717 0.05023675 -0.09723538 -0.050903864 0.07029556 0.086241186
0.03669916 0.0878135 0.007764724 0.066678464 0.06671306 0.05980005 0.026927697 0.06108368
-0.0041819704 -0.06415571 -0.04153852 -0.0794507 0.039239563 0.08139079 -0.069752805 -0.070061564
0.04227019 0.034007117 -0.05149864 0.04115195 0.030679842 0.05348279 0.0689945 0.05161509
-0.0013828796 -0.00640732 0.03331587 -0.0315476 0.031093968 -0.069894545 0.044743348 0.048869282
-0.007402384 0.037180632 0.06364865 -0.027442506 0.029653465 -0.0958279 -0.015052586 0.020607755
-0.06708307 -0.02418611 0.05783576 -0.064286426 0.07412373 0.009428272 -0.04976893 0.021604782
0.01941896 -0.025114445 0.061835025 0.011850836 0.115501426 0.02168442 -0.07542162 -0.04671707
0.017741837 -0.042635966 -0.046264026 0.035123732 0.058857016 -0.031233506 -0.09443779 0.08059696
-0.03401177 0.09814876 0.010541939 -0.040838875 0.024541551 -0.02089179 0.013702366 0.08223652
-0.011443888 -0.009365315 0.07367289 0.06695947 -0.044028994 -0.031343047 -0.043036867 0.03428049
-0.0906837 0.00415892 0.04846931 0.07132505 -0.03197389 -0.028813882 -0.024062252 -0.009444155
0.021318646 -0.07067802 -0.050949294 -0.07104293 0.108673796 -0.020129671 -0.010789486 -0.065153316
-0.0563278 -0.0055880863 -0.058583647 0.05630871 -0.068067536 0.07528415 -0.047806997 0.019048614
-0.0053831795 -0.08651912 0.0056775897 0.033391517 -0.09375666 -0.060407925 -0.082271844 -0.06459648
-0.02444639 0.018109119 0.004322648 -0.021027949 -0.05549494 -0.04716974 -0.06405853 0.04682833

_module.layer2.0.bias f4 [16]
00000000: ada9 88bd 8c6e 27bd f19b 1e3c 762a ab3d
00000010: c516 7abd 118e 15bc 29ef 4ebd 42d9 06bc
00000020: 0a7c 4f3c 2578 fd3c ac6f 0dbc c2d3 b0bb
00000030: 04c6 9d3d 73b0 093d c751 97bd 94b3 2ebc
-0.06672988 -0.04087691 0.009680734 0.08357708 -0.06105687 -0.00912811 -0.05052105 -0.008230509
0.012663851 0.030941078 -0.008632582 -0.0053963372 0.07703784 0.03361554 -0.07388645 -0.010662932

_module.layer2.1.weight f4 [16]
00000000: bc04 833f aee9 7f3f 64ad 7b3f accc 803f
00000010: ee7d 803f 6e29 7e3f 35ef 823f 134d 823f
00000020: ce21 7f3f ecf2 7a3f 97d9 783f 5576 843f
00000030: eecc 823f f6a8 813f 7718 7b3f 6be4 7f3f
1.023582 0.9996594 0.9831145 1.0062461 1.0038431 0.99281967 1.022925 1.0179771
0.99660957 0.9802692 0.97207016 1.0348612 1.021879 1.0129688 0.98084205 0.99957913

_module.layer2.1.bias f4 [16]
00000000: 4c75 d13c 6c88 e23b 722a f03b 7291 55bc
00000010: a126 ecba 3987 353c a69a 69bb d196 84bc
00000020: fa5f 903c 87e9 80bc 4b9b ed3c 4c5f 8d3c
00000030: d861 a1bb 5fed 7abb cb0c 6e3c b2db 6b3c
0.025568627 0.0069132354 0.0073292786 -0.013035165 -0.0018016883 0.011079603 -0.0035645156 -0.016185196
0.01762389 -0.015736355 0.029004714 0.017257355 -0.004924994 -0.0038288457 0.014529417 0.014395641

_module.layer3.0.weight f4 [64, 16, 3, 3]
00000000: ff5f 06bd 6aab bebd 280a b4bd f968 2e3d
00000010: 4d0d b73d fc0c 06bd 7e5f 91bd 249f 9ebd
00000020: 9064 943c d02e bb3b bdaa 133c 3c10 da3d
00000030: 21fe a9bc d842 5f3c cc8d 9f3d 0583 25bd
00000040: 0e11 9abb f913 6abd 9fda 473d f1f6 e43b
00000050: 1bcd 2a3d 2a71 7ebd 0f88 d73b a69a bfbd
00000060: 88c1 2fbd 9ba6 10bd d81f 563d b427 213d
00000070: 999d 9d3d 09a1 5b3c 1e9f be3c 780c 4fbd
00000080: f928 a0bc 0414 adbd da31 27bc a2ce 9e3d
00000090: 981d 6cbd b11d 853d 3e97 42bd 2c60 9e3d
000000a0: 22ad 17bd ea7b 713c 48df 7a3d 5b02 1f3d
000000b0: d727 943d 6e80 7bbd b663 ae3d 9c32 a93b
000000c0: ca76 aa3d 085b 3dbd c80d 073c e342 4a3c
000000d0: 125f de3c 0000 21bd 4836 7bbd 34f5 2fbd
000000e0: bf24 45bd f887 46bc 1687 b73d 5021 d13b
000000f0: f3da a5bd e00c 9ebc 805c 433c ad24 013d
00000100: b6a2 793d a193 97bd bd89 26bd b8d5 5abd
00000110: 9a8f 673d e224 dbbc a294 1f3c 9438 8b3d
00000120: 263d a03d 4821 f0bc 800c d8bb 3c86 143c
00000130: e2b7 37bd 9640 01bd a3b9 303d 0520 8c3d
00000140: 1550 813d 2a09 3f3d 8e89 d23c 4593 e9bb
00000150: e512 803d 415d 7cbd 02f8 f1bc 96e5 cfbc
00000160: 82b3 a43d ac93 8c3d cdf9 253d 4dbe 5b3d
00000170: 6476 093d 8782 c83c a20d fbbc 5b90 1dbd
00000180: d196 60bd d808 fd3b 95df 81bd af31 ab3d
00000190: d537 a13d 1bc9 9a3d 98a1 403d fff7 553c
000001a0: 7183 253a b045 24bd bf3d 063d f4c0 493c
000001b0: c8f3 743d 04b1 4bbc 3546 aebd 200b 693d
000001c0: a2bd 98bc 8928 b73d bdd8 09bd 5130 34bd
000001d0: 453f ad3c e198 973d 4602 31bd 8536 88bc
000001e0: b1d4 8dbc db26 ccbc 8545 6ebc 9e14 83bc
000001f0: e945 89bd 903f 69bd c2e7 7dbd 62bc 823d
00000200: 8b37 ca3c b4ab b93d 37b7 74bd 9156 38bc
00000210: 0a13 f63d 1de1 983d 5991 903d 2865 e9bc
00000220: a7ac 483b 5fda ccbc bddf 26bd 23fa 513d
00000230: 7181 7b3d 5e97 e4bc 360d 313d ba7e aabc
00000240: 5d47 6fbb 9471 273d b980 05bd fc73 553d
00000250: e2be 373d a9e5 d33c 195c f53c 5c98 82bd
00000260: ff9d 0a3b ca25 993d 3471 9e3c 904b 363d
00000270: 2a49 83bd 375b 6abd a8bf 42bc f5a6 893c
00000280: 09ec d4bc 2008 643d 5c4b 943d 0e5b 833d
00000290: 404b 223d cd3f f0bc f135 323b c38c 383c
000002a0: 58e5 243d e31a ab3d 0a02 bbbc fb80 2a3d
000002b0: 5196 663d 6ec2 3cbd ede2 adbc 491e 813d
000002c0: 03f0 603d 1691 5ebd 37a2 ab3d d802 79bd
000002d0: 84c0 1a3d 7af2 563d 1c8d 5fbd fd87 643d
000002e0: d30d 9abd d62a 533d 46ec bb3d 2ba2 c03d
000002f0: cda5 9a3d 7183 913c 6826 8a3d eb7c 93bb
00000300: 3314 af3c 3b0e 64bd 6400 b33c 3f4c 033d
00000310: 5d3b 3e3d b144 d13d 1548 173c 0637 5ebd
00000320: 1982 913d f38a 24bd 52ef cc3c f06d 8e3d
00000330: 9421 923d 987c 1dbd a74d c63d 66db 193c
00000340: 7eb1 32bd 4e6c 4cba 1c98 1a3a 1098 a7bc
00000350: 58ac 833d 271b 13bc 76b5 fb3c 5e4d 5a3c
00000360: fa78 813b 15fe d7bc 4e8b e0bc 335f 60bd
00000370: a3b4 37bc 74aa 9b3a 05d1 46bd 84d0 2e3d
00000380: 4ac9 b2bd b7fa 923d 5d22 64bc ceb6 99bb
00000390: e3da 3d3d 287b 383c 838f 573d 003e ad3b
000003a0: 8767 9bbd 9aeb e73c 6a3c 8abd 9f4d 00bd
000003b0: aea7 0ebd 34ea 723d f362 11bd 1b44 d63c
000003c0: c171 7cbd c31e 9c3d d015 843d 9536 31bd
000003d0: 407b 263d 022b e4bd 846a e93c 2fa9 803d
000003e0: 3f6b dc3b 8095 8839 db3e 633c 9251 773d
000003f0: 0787 a03b f485 1c3c 31bc 6abd 3a1f ce3d
-0.032806393 -0.093100384 -0.08791 0.04258058 0.08938084 -0.032727227 -0.07098292 -0.077451974
0.018114358 0.0057123676 0.009012875 0.10647628 -0.02075106 0.013626777 0.077907175 -0.040408153
-0.00470174 -0.057147954 0.048792478 0.0069874455 0.04169951 -0.06211964 0.0065774987 -0.09355669
-0.042909175 -0.035315137 0.052276462 0.039344504 0.07696075 0.013405093 0.023269232 -0.050549
-0.019550787 -0.08451083 -0.010204757 0.07754256 -0.05764541 0.06499804 -0.047507517 0.07733187
-0.037030347 0.014739016 0.061248094 0.038820606 0.07234161 -0.061401777 0.08515112 0.005163504
0.083234385 -0.046229392 0.008243032 0.012345049 0.027144942 -0.03930664 -0.061331064 -0.042958453
-0.048130747 -0.012117378 0.089613125 0.006382145 -0.08098402 -0.019293249 0.011923909 0.031529117
0.06094619 -0.07401205 -0.0406587 -0.053426474 0.056533433 -0.026750986 0.009740027 0.06797901
0.07824163 -0.029312745 -0.006593287 0.009065207 -0.0448531 -0.031555735 0.043145787 0.06842045
0.063141026 0.0466396 0.025700357 -0.0071281516 0.06253604 -0.06161237 -0.029537205 -0.02537803
0.08042051 0.06864104 0.04052143 0.05364828 0.03356017 0.024476303 -0.03064615 -0.038467746
-0.05483133 0.0077220015 -0.06341473 0.08359086 0.07871977 0.07557889 0.047029108 0.013059615
0.0006313837 -0.04010552 0.03277373 0.01231407 0.0598028 -0.0124323405 -0.08509485 0.056895375
-0.018645111 0.08943278 -0.033653963 -0.04399139 0.021148333 0.07402206 -0.04321506 -0.01662756
-0.017313333 -0.024920871 -0.014542942 -0.016001042 -0.067027874 -0.056945384 -0.0619886 0.063835874
0.024684688 0.09065953 -0.05974504 -0.011251108 0.1201535 0.07464812 0.07058973 -0.028490618
0.0030620487 -0.025006471 -0.040740717 0.05126394 0.06140274 -0.027904209 0.04322549 -0.020812381
-0.0036511042 0.0408798 -0.032593463 0.052112564 0.044859774 0.025866346 0.029951142 -0.063767165
0.0021151302 0.07477911 0.019341089 0.044505656 -0.06410439 -0.057215896 -0.011886515 0.016803244
-0.025991457 0.05567181 0.07240936 0.06413852 0.039622545 -0.029327298 0.0027192796 0.011264029
0.04025778 0.083547376 -0.02282812 0.04162691 0.056295697 -0.04608386 -0.02122637 0.063046046
0.054916393 -0.054337583 0.083805494 -0.060793728 0.037781253 0.052477337 -0.05457793 0.05579375
-0.07522168 0.051554523 0.09175925 0.09405931 0.07551155 0.017762871 0.06745607 -0.0045009754
0.021371936 -0.055677634 0.021850772 0.032055136 0.046443332 0.1021818 0.009233494 -0.054251693
0.07104892 -0.040171575 0.02501646 0.06954563 0.07135311 -0.0384489 0.0968278 0.009390688
-0.0436263 -0.0007798121 0.00058973 -0.020458251 0.06429356 -0.008978642 0.030726176 0.01332411
0.003951189 -0.026366273 -0.027410176 -0.05477829 -0.011212501 0.001187636 -0.04853918 0.042679325
-0.08729799 0.07176726 -0.0139242085 -0.0046909815 0.046351325 0.0112598315 0.052627098 0.005286932
-0.07588106 0.028310586 -0.06749804 -0.031324025 -0.03482788 0.059305385 -0.035494756 0.026155522
-0.06163192 0.07623055 0.06449473 -0.043264944 0.040644884 -0.111410156 0.028493173 0.06282269
0.006726652 0.00026051328 0.013869966 0.060380526 0.004898909 0.009553421 -0.05730838 0.1006455

_module.layer3.0.bias f4 [64]
00000000: 6ec9 2b3c c246 2c3d 5074 26bd 8204 843d
00000010: dda4 0ebb 9147 c73c a403 e6bc e7c5 ffbc
00000020: c553 16bd b17f 88bd 8523 4e3d ab2d cabc
00000030: e754 0fbc ee0f 58bc a7cb 4abc 2cbd a53d
00000040: 049e d6bb 3029 913d 36c4 1abd ba31 adbd
00000050: d58c 40bd df8b b53b daaa 013d bf2c 8fbb
00000060: ec23 cc3c b14e f7bc 54b4 ddba 7303 bf3c
00000070: 4489 f13c eb49 8fbc 04d1 9a3a 4ab3 ad3c
00000080: c22a ac3c 0086 6f3b b40f 443c 90bc 093d
00000090: 044e a03c b00f ffbc f32b 26bd 39b7 a3bc
000000a0: 66f0 b33c 7293 03bb e1ff 66bc c80f c63d
000000b0: 7322 97bd 8bce 81bb 6e61 67bd ab8f 223d
000000c0: 9f61 19bc 2f87 a63c 809f 98bd c352 44bd
000000d0: 833c 60bc a037 fd3c 6c36 2ebd a30f f03c
000000e0: 43a6 973d e69a 54bd 9ca2 063d 1b11 13bc
000000f0: 315a 44bd 460d 643d f320 d63b 69f5 833d
0.010485036 0.042059667 -0.040638268 0.06446172 -0.0021765747 0.024326118 -0.028077908 -0.031222297
-0.036700983 -0.0666498 0.050326843 -0.02467998 -0.00874827 -0.013187392 -0.012377656 0.08092722
-0.0065495986 0.07087934 -0.037784778 -0.0845675 -0.047009308 0.0055403556 0.031657077 -0.004369348
0.024919473 -0.03018889 -0.0016914704 0.023317074 0.029484399 -0.017491302 0.0011811559 0.021203656
0.021016482 0.0036548376 0.011966635 0.033627093 0.01956845 -0.03113541 -0.040569257 -0.019984828
0.021965217 -0.0020076898 -0.014099092 0.09670979 -0.073796175 -0.0039613894 -0.0564894 0.039687794
-0.009361654 0.020328132 -0.07452297 -0.04793049 -0.013686302 0.030910313 -0.04253237 0.029304331
0.07404759 -0.051905535 0.03286992 -0.008976246 -0.047937576 0.05567672 0.0065346896 0.06443293

_module.layer3.1.weight f4 [64]
00000000: 344f 7d3f 8461 7e3f 570f 823f bd32 843f
00000010: e723 823f 7ffb 823f 513b 7d3f 4b15 833f
00000020: d894 863f 41db 803f cf64 7d3f 232a 7e3f
00000030: 9d4b 773f 8ad7 7b3f 398a 7f3f e3b5 773f
00000040: 28eb 7f3f 7458 803f af18 803f ff45 833f
00000050: 0800 7d3f 84ed 7c3f 2296 813f 0270 7e3f
00000060: ebe9 783f 1bfa 7b3f f227 813f 5103 7f3f
00000070: 0722 813f de8d 7f3f 3c7f 823f 6ebe 823f
00000080: 1e6d 813f cada 7a3f 749e 813f 0963 7e3f
00000090: 0e98 803f de9e 7f3f b5fe 743f 913d 773f
000000a0: 44a5 7e3f 3f35 843f 66a4 813f 1511 803f
000000b0: 155a 823f 107e 7b3f e506 7d3f 94fa 813f
000000c0: b0f3 783f 5610 7c3f 5f30 7b3f c912 7e3f
000000d0: af5a 853f c4b6 7e3f 5448 7f3f 1bc1 7c3f
000000e0: 8064 803f 542f 803f ab3f 7e3f 7266 823f
000000f0: 3f5b 793f fc68 7b3f faf0 803f 4eb2 7d3f
0.9894898 0.9936755 1.0160931 1.0327984 1.0167207 1.0233 0.98918635 1.0240873
1.0514174 1.0066911 0.98981947 0.99283046 0.9659975 0.9837576 0.99820286 0.9676191
0.99968195 1.0026994 1.0007533 1.0255736 0.9882817 0.9879992 1.0123942 0.9938966
0.9723193 0.98428506 1.0090315 0.99614435 1.0088509 0.9982585 1.0195079 1.0214365
1.0111425 0.97990096 1.0126481 0.99369866 1.0046403 0.9985179 0.9570115 0.9657832
0.99470925 1.032875 1.0128295 1.0005213 1.0183741 0.9823923 0.98838645 1.0154595
0.9724684 0.98462427 0.98120683 0.99247414 1.04183 0.9949763 0.9971974 0.98732156
1.003067 1.0014443 0.993159 1.0187514 0.97404855 0.9820707 1.007354 0.99100196

_module.layer3.1.bias f4 [64]
00000000: 6f50 583b 3477 4bbc 2c94 b9bb 5dec 193c
00000010: e101 a63a 5cab 80bb fe40 0dbc 16ab c8bb
00000020: ccc5 853c a28a f4bb cd1d b13c 3a79 4fbb
00000030: bfb1 77bc 8f81 85bc 877a 78ba be1d 913c
00000040: 7fe4 cebc 0f10 fc3c c339 993b 4702 acbc
00000050: b637 b9bb f209 663b 8fcb 3cbc 3ea7 3abc
00000060: aa89 55bb c8aa f53b b7b6 4e3c 0303 04bc
00000070: 236d 4bbc 09b7 613c d810 123d cdf4 64bb
00000080: 35ab c93b a756 a73b 8256 f7bb 7a26 083c
00000090: caeb 6dbc cf98 aabc 2d61 c83b 7048 60bc
000000a0: 135a 05bd 7d65 c0bc 2c18 fe3c 9699 b6bb
000000b0: 5698 61bb cedc 3abd 223f 683c 2b87 f83b
000000c0: 8456 0a3d bd8d c13c 8b86 ba3c e3bc dbbc
000000d0: f09d 07bc 75f7 ea3b 3561 16bd e53a 643c
000000e0: ccb9 87bb 8afe 22bc e9e2 5bbc c215 32bc
000000f0: c8ec bf3c 7da9 94bc 3222 51b9 4e6d c4bc
0.0033006927 -0.012418557 -0.0056634154 0.009394732 0.0012665355 -0.0039266776 -0.008621452 -0.0061239107
0.016329668 -0.0074628154 0.021620655 -0.003165795 -0.015118062 -0.01629713 -0.0009478707 0.017714377
-0.02525544 0.030769376 0.004676075 -0.02099718 -0.005652393 0.0035101143 -0.0115231415 -0.011392413
-0.0032583275 0.0074971654 0.012616805 -0.008057359 -0.012416157 0.013776549 0.035660595 -0.0034935952
0.0061544427 0.0051067653 -0.0075481543 0.008309955 -0.0145215485 -0.020824818 0.0061151 -0.013689145
-0.032556605 -0.023485893 0.031017385 -0.005572508 -0.0034423075 -0.045620732 0.014175208 0.0075844727
0.033773914 0.023627156 0.022769233 -0.026823467 -0.008277401 0.0071706125 -0.036713798 0.013930057
-0.0041420218 -0.009948382 -0.013420799 -0.010869445 0.023428336 -0.018147225 -0.00019944532 -0.023977902

_module.layer4.0.weight f4 [64, 64, 3, 3]
00000000: eb23 1c3d 5d88 32bd 8de1 523d 15ae a63c
00000010: ba1c b6bc 7e73 2f3d f6d7 2ebd 7429 69bc
00000020: 4710 923c f0e1 903c 11fc aa39 6702 6b3a
00000030: c8c8 28bd 8afb a53c 6b58 c2bc 3b22 2abc
00000040: 0f6d bcb9 79de 563b 63b4 05bd 9d8d 8fbd
00000050: 5f03 9bbc ba36 b9bc 1272 223c ae04 a73c
00000060: 291d 053d d6f5 27bc 5b3e 9abb 1ed6 ff3c
00000070: 7b8e 90bb 3374 433d 7a88 77bc f078 823d
00000080: 66c6 80bd 04e6 9d3c 6950 18bc 9054 f6bc
00000090: ff00 74bc 4503 293d a4bb 12bd da3a a13c
000000a0: fd90 083c 8f85 493c 77f9 87bd 7279 a73c
000000b0: 01f9 d7bb 4ff9 1cbd 0847 103c 9d36 f339
000000c0: 0247 84bc 1b12 f13b dec6 c03a 222d 2f3d
000000d0: a75e 6bbc 8fb2 81bd cd0f 3abb 02d3 173d
000000e0: ca71 84bc fdf6 8fb6 7a72 833d 8104 643c
000000f0: 08c6 033d e7d6 b9bc 17d2 95bc 29b5 df3c
00000100: 6d3a 94bb 1deb 033d f7d8 053d 0bae fa3c
00000110: c4d0 2c3c af49 cf3c 5cc7 983c 5a5e 333c
00000120: f3b8 153d 6a3b 543c 849b 0dbd d602 fdba
00000130: 32ab 2b3c 7d3b e33b 380c e1ba f66c 073d
00000140: f64d 01bd baec 0abd 5413 bc3b d4ec 273d
00000150: d877 c13b 15b2 adbc 796d 1cbc acdb 74bc
00000160: 0a33 3ebd 4b60 973d 6653 8c3d a491 d6bc
00000170: 1ead 80bb 78d0 d23c 4352 dbbc 3d03 e83a
00000180: c114 f43c c853 fdbc 05f1 24bd 0137 e0bc
00000190: 6c34 903c e955 76bc 9629 01bd a7d4 843c
000001a0: 0fd8 99bc c4fb 653c d245 29bd 0310 3abc
000001b0: f935 85b9 dd14 193b 1a6b 5a3b 0f1b b5bb
000001c0: 87b7 7cba 8c9a 063d 2bf1 d139 230f 3abc
000001d0: 07c5 723d 11c5 4d3a 9e90 7e3c dd58 debc
000001e0: ebe2 273c 13aa 29bd d514 5dbd bd34 3f3c
000001f0: fc81 d33c f60e 623d c4a8 e8ba 8189 b9bc
00000200: 5a10 1fbc b7ed 333c ead1 60bd 0930 35bd
00000210: 49d3 84bc 6c8c a23c 3bc0 b5bc b6db c83c
00000220: 4ae8 983b f0ec c2bc e94f b7bc 457e a4bc
00000230: 936e c9bc 3fb8 593c b5f6 0c3d 5158 453b
00000240: 4506 df3a 7dbe 913c 4b90 353d 45c7 dd3c
00000250: 5f56 4fbd eeaf 30bd d4ea 28bc 4814 673c
00000260: 989a 6dbd 2adf 1bbd 90d0 dabc 6ae5 0dbd
00000270: a295 573d 31f5 a33c 9d11 1f3d 7657 30bb
00000280: 9dab b0bc d096 063d 627f a1bc 435a 10bd
00000290: e691 5ebb 1e95 56bc 4bc2 18bd d851 143c
000002a0: 8e22 a23c c5a0 463c bf1c 7f3c 7407 73bc
000002b0: 8978 e7bc 7b34 103a 4b6a acbc b179 bd3c
000002c0: b0d6 0abc 56e7 8dba e750 693c ecea 853c
000002d0: 1fcf 2fbd 10b2 3cbc f719 893c 3776 f63a
000002e0: d368 cc3c 68ee cbbc dc17 4fbc 907b 34bd
000002f0: 4dc6 113d 1cdc 4c3d 6886 b8bc 6edd 98bc
00000300: 537e b3bc a118 a9bc acc3 35bd 9543 d53c
00000310: 274a 34bd 4a95 eabc 4f4a ac3c 9040 dfbc
00000320: 93e6 9a3d 6d37 27bc 2390 bdbc 7ae4 25bd
00000330: 0261 20bd eee8 2c3b 1413 9cbc 7822 b33c
00000340: ea3f 3839 28f7 9d3c aa53 02bd 37dd 06bb
00000350: 1aee 5d3c 5ffa df3c a5ea e3bc 2a72 503b
00000360: a102 ee3c e9cf 12bd cce8 11bc bbd5 b13c
00000370: 4565 813d 0912 6b3c e3cf 97bc 154d 483d
00000380: f545 503c cbf8 c03c 76b7 57bd 4674 8f3c
00000390: 5d51 e9bc a305 913c 8bf2 e93c b10d f13b
000003a0: c0e6 85bd cf6b a8ba f332 b03c a9d9 82bb
000003b0: 5136 043d 9855 963c ffa8 4f3d 1651 dfbb
000003c0: 9ab1 58bd f30c 03bb ece8 1abb b3e6 a03b
000003d0: af94 7cbc 4db2 85bc fd63 f6bb 452e 2e3d
000003e0: 1502 433d 431a 6a3c 1632 653c 52af 1cbd
000003f0: 6642 1dbd 7e31 4e3d ed43 2b3c 2f78 bdbb
0.03812019 -0.043587077 0.051484633 0.02034668 -0.022230495 0.04283475 -0.042686425 -0.014231075
0.017830027 0.01768586 0.0003261273 0.00089648966 -0.041207105 0.020261545 -0.023723802 -0.010384138
-0.0003593941 0.0032786413 -0.032642733 -0.070094325 -0.018922506 -0.022609103 0.009914892 0.020387974
0.032498512 -0.010251483 -0.0047071404 0.031230029 -0.0044115162 0.047718238 -0.015108222 0.06370723
-0.062878415 0.019274719 -0.009296515 -0.03006962 -0.014892816 0.041262884 -0.03582348 0.019681383
0.008335349 0.012299909 -0.066393785 0.020443652 -0.006590963 -0.038323697 0.008805998 0.00046389262
-0.01614714 0.0073568947 0.0014707705 0.04276765 -0.014365829 -0.063328855 -0.0028390766 0.037066467
-0.01616754 -4.2904853e-06 0.06418319 0.013917089 0.03217128 -0.022685481 -0.018288655 0.027308064
-0.0045235665 0.032206643 0.032677617 0.030600568 0.0105478205 0.02530369 0.01864975 0.010947788
0.036553334 0.012953619 -0.03457214 -0.0019303213 0.010477828 0.006934582 -0.0017169779 0.033062898
-0.03156849 -0.033917166 0.005739609 0.04099734 0.005904179 -0.02120308 -0.009547585 -0.014944952
-0.046435393 0.07391413 0.068518445 -0.026192494 -0.003926887 0.025734171 -0.026772624 0.001770116
0.029795052 -0.03092374 -0.040268917 -0.027369978 0.017603122 -0.015035131 -0.0315338 0.016214682
-0.018779783 0.014037076 -0.04132635 -0.011356357 -0.0002540795 0.0023358383 0.0033327998 -0.0055269073
-0.0009640385 0.03286223 0.0004004327 -0.011356148 0.05926993 0.00078494946 0.015537409 -0.027141983
0.010246973 -0.04142196 -0.053974945 0.011670289 0.025818817 0.05519005 -0.0017750491 -0.022648575
-0.009708488 0.010981969 -0.05488769 -0.044235263 -0.01621403 0.019842349 -0.02218639 0.024518829
0.004666363 -0.023794621 -0.022376971 -0.020079741 -0.024588859 0.013288557 0.034414966 0.0030112455
0.0017015418 0.017791027 0.04432706 0.027072558 -0.05061948 -0.04313653 -0.010309894 0.0141039565
-0.05800876 -0.038054623 -0.026710778 -0.034642614 0.052632935 0.020014377 0.038835157 -0.00269076
-0.021566207 0.03285867 -0.019714061 -0.03524233 -0.0033961474 -0.013097076 -0.037294667 0.009052716
0.019791868 0.012123291 0.015570818 -0.01483332 -0.028255718 0.0005500984 -0.021046778 0.023129316
-0.008474037 -0.001082639 0.01424048 0.016347371 -0.042922135 -0.011517063 0.016736014 0.0018803541
0.024952328 -0.024893954 -0.012639966 -0.04406315 0.035589505 0.0500146 -0.022525027 -0.018660273
-0.021910822 -0.020641627 -0.04437606 0.026033202 -0.04401603 -0.02863564 0.021031527 -0.027252465
0.0756351 -0.010206086 -0.023140019 -0.040501095 -0.039155014 0.0026383954 -0.019052066 0.021867022
0.00017571417 0.019282892 -0.03181807 -0.0020578632 0.013545537 0.027341066 -0.027821848 0.0031806328
0.029053988 -0.03584281 -0.008905601 0.02170836 0.06318144 0.014347562 -0.018531745 0.048901636
0.012711992 0.023556134 -0.052665196 0.017511498 -0.02848118 0.017702883 0.028558036 0.0073563685
-0.06538153 -0.0012849512 0.02150867 -0.0039932323 0.032278363 0.018351361 0.050698277 -0.006815086
-0.05290375 -0.0019996732 -0.0023637367 0.004910314 -0.015416308 -0.016320372 -0.0075192438 0.042524595
0.047609407 0.014288488 0.013988992 -0.038253136 -0.0383934 0.05034017 0.0104532065 -0.0057821493

_module.layer4.0.bias f4 [64]
00000000: c528 24bd b3ba 22bd 269a 743d 3073 55bc
00000010: 942a 81bc 612d 2b3d a1cb 95bc ccf9 8a3c
00000020: fc69 30bc 4bcf 03bd 48b3 063c fd9e 1a3b
00000030: 4947 4d3c 5bcc 83bd 4212 d6bb 4ca8 723b
00000040: 1922 433d c509 e4bc 2814 12bd 3b99 ee3b
00000050: b7d0 e5bc d119 013d cc03 10bd b20c 3bbd
00000060: 8f2a 813c a90d 46bc 71d1 633c 0700 d43a
00000070: df25 a83c 9ae9 0f3d 9b3e 853c 735b dbbc
00000080: cbcf f83b 89ca 543c 98af 493c 9a56 43bc
00000090: 26e4 8abb 2d36 7fbc 1a4c f63b c784 d73c
000000a0: 264d 663c a2e4 de3b 2347 01bd 8d32 9dbc
000000b0: 7ef8 9e3c 94da 4bbd 2e96 1cbd 73ea fc3b
000000c0: e826 a33b 5a93 34bd 31df cabb 1e1c e53b
000000d0: 6a66 0b3c b952 66bd 0851 923c 527e 213c
000000e0: 0e5e 923c 934e 043c 279a 27bd a094 403b
000000f0: 4978 003d 328c 183d 7604 023d aa6a 4dbd
-0.040077943 -0.03972883 0.05971732 -0.013027951 -0.015767373 0.041791324 -0.018285574 0.016964816
-0.010767456 -0.03218011 0.008221455 0.00235933 0.012529203 -0.06435462 -0.006532938 0.0037026582
0.04763994 -0.02783669 -0.035663754 0.00728145 -0.028053625 0.03151876 -0.03515987 -0.045666404
0.015767364 -0.012088218 0.013904915 0.0016174325 0.02052587 0.03513489 0.016265204 -0.026777005
0.00759313 0.012987741 0.012309931 -0.011922503 -0.004238623 -0.015576881 0.007516396 0.02630843
0.01405648 0.0068021575 -0.031561982 -0.019189144 0.0194056 -0.049769 -0.03822916 0.007718378
0.004979003 -0.044085838 -0.0061911573 0.006991877 0.008508304 -0.056231234 0.017860904 0.009856777
0.017867114 0.008075374 -0.040918496 0.0029385462 0.031364713 0.037243076 0.031742536 -0.05015055

_module.layer4.1.weight f4 [64]
00000000: 36d9 7b3f 6de4 7b3f 64c8 803f b5ff 803f
00000010: 954c 813f 016c 7b3f fdd9 7c3f a751 7d3f
00000020: 3eb5 7e3f edf5 773f 1db4 823f 4693 773f
00000030: 642a 803f 1f1d 823f 42b7 7b3f 458d 823f
00000040: dcb0 813f 0fdf 803f 4a4e 7e3f 0b04 823f
00000050: 6aa3 813f 4b7d 803f b700 803f cc5b 813f
00000060: 9e23 803f cad9 7c3f 8744 7f3f 8a2b 7c3f
00000070: 41a0 7f3f 4344 7c3f dc3c 803f 849e 7b3f
00000080: d3e7 7c3f 5eff 7f3f 405a 813f 8887 813f
00000090: 894f 803f 136d 803f f069 7f3f 5e32 763f
000000a0: 95fd 7e3f 31c3 833f 1ed8 813f 9352 823f
000000b0: 2d78 7b3f 312a 7c3f b2fc 803f b353 843f
000000c0: 6002 803f c496 813f 9373 853f d037 7f3f
000000d0: 8847 823f c631 7c3f f699 7e3f baba 783f
000000e0: cc9a 803f 9700 823f b6c8 813f 82bd 7f3f
000000f0: 6716 823f 725c 813f b83f 803f 8caf 7b3f
0.9837831 0.98395425 1.0061154 1.0078036 1.0101496 0.98211676 0.98770124 0.98952717
0.99495304 0.9685963 1.0211216 0.96709096 1.0012937 1.0165137 0.98326504 1.0199362
1.0132098 1.0068072 0.9933821 1.0157484 1.0127995 1.0038236 1.0000218 1.0106139
1.001087 0.9876982 0.9971394 0.98503935 0.99853903 0.9854166 1.0018573 0.9828875
0.98791236 0.99999034 1.0105667 1.0119486 1.0024272 1.0033287 0.9977102 0.96170604
0.99605685 1.0293943 1.0144079 1.018145 0.9823025 0.9850188 1.0077116 1.0338043
1.0000725 1.0124135 1.0425895 0.9969454 1.017808 0.9851345 0.99453676 0.9715992
1.004724 1.015643 1.0139377 0.9989854 1.0163087 1.0106337 1.0019445 0.9831474

_module.layer4.1.bias f4 [64]
00000000: 35d7 96bb 0c3e 1ebc 08d3 ecba 317b 20bc
00000010: 6263 9ebb a04d bb3b 8009 473b 1b43 66bc
00000020: ad55 0ebd fde5 cebc 9811 393c d364 3f3c
00000030: b711 fa3c 93d2 06bc d5f1 01bd 8f8b 2a3a
00000040: f574 2b3d 8707 9c3a 9f3f d13b 6bbf 34bc
00000050: a6a1 a63b 78d1 8c3c 7e21 a93b 7bbd 45bc
00000060: ede6 73bc b3d5 003d ca59 10bb 19e4 c03c
00000070: a88c f83c 0e10 02bd a933 ad3b 91c6 5d3b
00000080: 9d1a 7c3c 82dd b83b bb85 8c3a d98e 0b3d
00000090: 007f 8abc 9255 a43c 5be9 0f3d df25 f0bc
000000a0: cf01 81bb 0e01 0dbc 1b13 1ebc a368 723a
000000b0: 7568 edbc 1114 06bd 71c4 9fbc cc36 b4bc
000000c0: 83fd e1bb a83b d2b9 1597 90bc 4f70 d6bb
000000d0: 0c48 77bc 36ab 7a3b 8d0b 143c 8e23 35bb
000000e0: eafe e03a 0bf1 583d 9b00 843b 49f0 1bbc
000000f0: 9439 d9ba 45bb 2b3c 5deb aa3c 5144 a9bc
-0.0046032914 -0.009658348 -0.0018068263 -0.009794996 -0.0048336247 0.0057160407 0.0030370653 -0.014054085
-0.034749676 -0.025256151 0.011295699 0.011681753 0.030526025 -0.008228916 -0.03172477 0.0006505781
0.041859586 0.0011904099 0.006385758 -0.011031966 0.005085188 0.017189726 0.0051614633 -0.012069101
-0.0148866 0.0314538 -0.0022026175 0.023546265 0.030340508 -0.031753592 0.0052856994 0.0033840279
0.0153872045 0.00564164 0.0010721007 0.034071777 -0.016906261 0.020060334 0.035134654 -0.029314933
-0.003936983 -0.0086062085 -0.00964811 0.00092471595 -0.028980473 -0.03273398 -0.01950285 -0.021998785
-0.006896676 -0.0004009877 -0.017650167 -0.00654415 -0.015092861 0.0038249022 0.009035957 -0.00276396
0.0017165814 0.05296425 0.0040283925 -0.009517738 -0.0016572946 0.01048166 0.020864183 -0.020662459

_module.layer5.0.weight f4 [64, 64, 3, 3]
00000000: 399a aa3c 1396 8a3c ab52 04bb a8f2 a3bb
00000010: 3915 e9bc 8128 fcb7 3c29 e6bc 875a b93c
00000020: 91bd e6bc 8939 96bb 4b7b 3b3c 7869 59bd
00000030: 69a0 d93a e386 b33c 3024 50bc 7859 74bd
00000040: 588e 8e39 0b76 283d d3e2 42bd a626 263d
00000050: e7de 093d fc0e 5bbd dde1 01bd c017 2bbc
00000060: 3e1b 163d 667d 463c 24a1 32bc 7ea9 28bd
00000070: 7f58 34bc c55e 1bbd 854f 3e3c bb27 73bc
00000080: 4541 1bbb 8eb0 50bc ba90 afbc 9da9 00bc
00000090: 7ec9 0fbd 39d8 143d 0340 cfbc 8905 4d3d
000000a0: 02d6 ecbc e2dd 36bd aae9 f63c 894b bdbc
000000b0: 54f6 3cbb 18bd 67bd 59e6 dcbc 014f 363c
000000c0: b4ec 423d 3adb 49bc 89ad 013d afa1 3ebd
000000d0: bb02 193d 55fb 0438 5a08 e13c f19f 52bc
000000e0: 78f7 b73c 3a6f 2b3d 7df1 8f3c 7517 1e3d
000000f0: cb6c 51bc 8eaa 8dbc 49bd e03b 2e5a a63c
00000100: 6068 47bd 7cce 28bb 0738 e9bc 350d 66bd
00000110: d89f c8bc 7626 4bbd 9004 cd3c 51ea 85bd
00000120: f97d 50ba 16e5 01bc 585a 773c 316b 62bd
00000130: 913c 2b3c f801 fa3c 2f91 92bc fb08 4bbd
00000140: 296d 12bd a153 76bc 0cef 9fbc 70e7 59bb
00000150: b7dc 613b 3c58 283c 0a91 b3bc 53ff 193d
00000160: ceb0 58bd 139d b4bc c4a4 e8bc 3797 8dbc
00000170: d7cc 393d 2ec3 7abd 3951 a53c 7255 08bd
00000180: 6d9b 1e3d 6bba 7b3d deca a03c c40f 9d3a
00000190: 2a6e 04bc bfc6 973d 4a2b 8dbc d5a4 a939
000001a0: 2dc2 323b be78 1c3d 66be 1fbd d0cd d23c
000001b0: 1469 153c b5ba 3b3c 20bf a2bd cfd9 03bc
000001c0: f039 13ba 45db 1f3c 3247 3abd c127 deba
000001d0: aa0b 57bd 6846 19bd 1ffb 473d d641 113d
000001e0: b687 f93c 39fb 02bc 5e0f c4bc 3146 ff3c
000001f0: 9d20 bf3c c753 dfbc bcf5 3dbd 244c 143d
00000200: 8bad 103c c809 6d3c 5355 0b3d 2b47 983c
00000210: cb3a 073c e6f9 d6bb 77b7 fe3c 03a7 983c
00000220: 865e aaba 260c 90bb 6d3a cd3c 7ed7 dfbc
00000230: f924 13bd eb1c c33c a091 e0bc bf54 1a3c
00000240: 3c93 8c3b f905 d93c b3a2 bb3c 8cb9 b5bc
00000250: 0ee2 5cbd 39d2 5a3c 98c7 1abc 8f19 c83c
00000260: 89c9 b9bc 6aa8 e13c 0a6c d5bc ae31 7b3b
00000270: 1a2c cfbc 2cd2 003d fe67 08bc 62e9 99bc
00000280: e5a9 8cba 9e31 013d 6036 293d dad3 873c
00000290: ba5c febb f905 e0bb 3fca 073b 6c1a 76bc
000002a0: 3056 00bd a1cb 24bd 890d f5bc 2c19 b4b9
000002b0: 2524 ab3a 8e78 6ebd 62e7 493d 9242 cdbc
000002c0: bbc1 94bd 9e0e 493c a5ef 47bb ab09 cabb
000002d0: 4355 2a3d bd98 98bc acb6 96bc 4b37 163b
000002e0: e652 a13b 895c bfbc 6b43 07bd a5bf 093b
000002f0: 6133 84bc a81d 5abc a069 3abd 166f 0d3c
00000300: f25b 17ba d0e1 89bb a8dc a5bc e494 4a3d
00000310: 0e59 76bc 871e 2cbd 74a0 673c 7c73 7dbd
00000320: f9bb 1b3d c4fd 5cbc b07d 89bc 3d45 ae3b
00000330: db83 c6bc 28a4 a8bb c963 e2bc 9f37 c9bb
00000340: 90d6 bd3c 8180 183c d488 203d 5310 123d
00000350: 90b1 3f3d 25e3 033d 6dee 143c 36b3 383d
00000360: 0931 5bbd 46bc bdbc 7c2f 05bb 9fb8 4d3c
00000370: ade7 41bc 4fa2 24bc 3e77 9ebc 9297 f93c
00000380: 8c9f 823c 3eff 9abb edf6 42bb 7473 06bd
00000390: 5247 e43c 6233 ffbc 2623 1abd e6a1 61bd
000003a0: 42a6 27bd 99a2 1dbd d8dc a83b 016b 7d3c
000003b0: 76c0 043d fbdc a4bc d24b 18bd 95b8 21bd
000003c0: d2ff 273c bab0 413c cca2 f6bc e993 803b
000003d0: 158f 8ebc 5165 343b 229c fdb9 b396 1dbd
000003e0: c66c 08bd 1f03 583c b799 83bd 50c3 9e3b
000003f0: a736 e63c ad95 23bc bee1 c43c 4ba6 433d
0.020825492 0.016917264 -0.0020190876 -0.005003292 -0.028452503 -3.0059602e-05 -0.028095834 0.022626175
-0.028166564 -0.0045844954 0.01144297 -0.0530791 0.0016603592 0.021914905 -0.01270394 -0.059655637
0.00027190405 0.0411282 -0.047579598 0.0405642 0.033659842 -0.053481087 -0.03170954 -0.010442674
0.036647074 0.012114858 -0.010902677 -0.041177265 -0.011007427 -0.037932176 0.011615639 -0.014841015
-0.0023690027 -0.012737406 -0.021431316 -0.007852939 -0.035104267 0.03633902 -0.025299078 0.050054107
-0.02891064 -0.044645198 0.030140717 -0.023107307 -0.0028833346 -0.05657682 -0.026965307 0.011127234
0.04758902 -0.012320334 0.031659637 -0.046540912 0.03735612 3.1705324e-05 0.027469803 -0.012855516
0.02245687 0.04185412 0.017571205 0.03859659 -0.012782286 -0.01729324 0.006858502 0.020306673
-0.048683524 -0.002575784 -0.028469099 -0.05616494 -0.024490282 -0.049597226 0.02502659 -0.06538833
-0.00079533417 -0.0079281535 0.015097223 -0.055278007 0.010451452 0.030518517 -0.017891495 -0.04956911
-0.035748634 -0.015034587 -0.019523166 -0.003324952 0.0034463832 0.010274943 -0.021919746 0.03759701
-0.05290299 -0.022047555 -0.028398879 -0.017284019 0.045361366 -0.061221294 0.020180332 -0.033284612
0.038722444 0.06145708 0.019627985 0.0011982848 -0.008082906 0.07410955 -0.017232556 0.00032357
0.0027276382 0.038201086 -0.038999937 0.025732905 0.009119291 0.011458089 -0.079466105 -0.008047535
-0.00056162383 0.009756868 -0.045478053 -0.0016949103 -0.052501358 -0.03742066 0.048823472 0.035463177
0.03046022 -0.007994466 -0.023933109 0.0311614 0.02333098 -0.027261628 -0.04637693 0.036205426
0.008830438 0.014467664 0.03401692 0.018588623 0.008253763 -0.006560552 0.031093342 0.018634325
-0.0012998141 -0.0043959795 0.025052274 -0.027324434 -0.03592393 0.0238175 -0.02741319 0.009419619
0.0042900126 0.026492106 0.02290473 -0.022183202 -0.05392652 0.013355785 -0.009447001 0.02442625
-0.022679107 0.027546126 -0.026052494 0.0038329172 -0.025289584 0.031450436 -0.008325575 -0.018788043
-0.0010731785 0.03154146 0.04131162 0.01658051 -0.0077625187 -0.0068366495 0.0020719913 -0.015020948
-0.031332195 -0.04023326 -0.02991368 -0.0003435103 0.0013057037 -0.05822044 0.04929293 -0.025056157
-0.07263514 0.012271551 -0.003050783 -0.0061657033 0.04158522 -0.018627519 -0.018397652 0.002292114
0.0049232123 -0.023359554 -0.03302328 0.002101877 -0.01613778 -0.013312735 -0.045510888 0.008632442
-0.0005773894 -0.004207827 -0.020246819 0.0494584 -0.015035881 -0.0420213 0.014137376 -0.061877713
0.03802106 -0.013488237 -0.016783565 0.0053183124 -0.024232795 -0.005146522 -0.027635472 -0.0061406638
0.0231736 0.0093079815 0.03919299 0.0356601 0.046800196 0.032199044 0.009090048 0.045092784
-0.05351356 -0.023161065 -0.0020322492 0.012556224 -0.011835021 -0.010048463 -0.019343968 0.030467782
0.015945219 -0.0047301343 -0.002974923 -0.03282495 0.02786604 -0.03115243 -0.037631176 -0.05508604
-0.04093004 -0.038485143 0.0051532798 0.015467406 0.032410108 -0.020124903 -0.037181683 -0.03948267
0.010253863 0.01182192 -0.030106924 0.0039238823 -0.017402211 0.002752621 -0.00048372248 -0.038473796
-0.03330686 0.013184338 -0.06425803 0.0048450604 0.028102232 -0.009984416 0.024033424 0.04776601

_module.layer5.0.bias f4 [64]
00000000: 0551 6d3b bc51 963c 875f 9fbc 5888 043d
00000010: 38f6 2d3d 7788 a5bc f05d 08bd f175 103d
00000020: 0152 1abd f1bb 8ebc f04b eb3c 37f0 c13b
00000030: 2f65 fcbc bffe 8e3c 52a1 00bd 9423 26bd
00000040: 4cb2 90ba 5c76 b43b bab0 40bc 4f7e c4bb
00000050: 3004 3c3c b81a 7bbc 1ee7 ddbc 7c8d d6bc
00000060: 0f64 3ebd 715f e13b 226e 35bd 7ea7 53bd
00000070: 371e 18bd 7992 333d 03ef 9ebc 1224 14bd
00000080: aa08 90bb a401 323d c590 183d 32f9 613c
00000090: 7cd2 e0bc 2723 a8bc e3c2 733c 8043 243c
000000a0: bee1 b43c 4012 93bc 6aed 87bc d20e 7a3d
000000b0: 31ae 473c 65a0 6fbc 7740 5e3c 5023 93ba
000000c0: 761d 40bd 47a0 0abd 918d 833c 261a 6f3c
000000d0: d1ff d93c 484d 913c 41bc ac3c c321 5fbd
000000e0: 311c 15bd c2e7 f8bc 45e2 7fbc 6d34 10bd
000000f0: 623d 313d f19c a6ba afa2 5d3c f623 52bd
0.0036211621 0.01834952 -0.01945473 0.03235659 0.04247114 -0.020206673 -0.03329271 0.035268728
-0.03767586 -0.017423602 0.028722733 0.0059185284 -0.030809967 0.017455457 -0.031403847 -0.040561274
-0.0011039465 0.0055072736 -0.011760885 -0.0059965025 0.011475608 -0.015326194 -0.027087744 -0.026190512
-0.046482142 0.0068778326 -0.044294484 -0.051673405 -0.03713819 0.04384086 -0.019401079 -0.03616721
-0.004395564 0.043458596 0.037247438 0.013792323 -0.027444117 -0.020524574 0.014878008 0.010025859
0.022080299 -0.017953038 -0.0165927 0.06104929 0.012187527 -0.014625643 0.013565174 -0.0011225734
-0.046903096 -0.03384426 0.016058715 0.014593637 0.02661124 0.017737046 0.02108586 -0.054475557
-0.03640384 -0.030383948 -0.015617912 -0.035206247 0.04327143 -0.0012711567 0.013527556 -0.051303826

_module.layer5.1.weight f4 [64]
00000000: f066 7e3f 1245 803f fa92 833f 621f 823f
00000010: 175b 833f 9748 803f 069c 7e3f 4a80 7d3f
00000020: 3e0c 813f dc75 803f 9210 7a3f 9f74 813f
00000030: 7c4d 823f b7ac 823f fd5f 7e3f d7c8 803f
00000040: efc3 813f 62ce 803f 3e03 7e3f 42e6 813f
00000050: 92ca 813f dfa1 813f 0dcd 803f 47b4 7c3f
00000060: aa0d 7b3f 13fc 833f 59ae 823f a12e 823f
00000070: 49ef 843f d7fd 813f 2efa 7b3f 4886 843f
00000080: 43cf 803f e5d2 7e3f 7d7a 813f b1ca 7d3f
00000090: d7b3 7e3f 5dca 843f a32e 7b3f 0eb1 833f
000000a0: a0f2 813f f4e5 7f3f e76e 833f ec0a 813f
000000b0: 1c9b 823f 8934 803f c97f 813f ad55 803f
000000c0: ae7d 813f 7017 803f 639b 803f bec2 833f
000000d0: 96aa 803f 5525 7a3f 6192 7b3f 7e08 803f
000000e0: 6584 823f dfef 803f 18b9 793f 2c1d 813f
000000f0: bc8d 813f d0e0 823f 31bb 7d3f 9e31 7b3f
0.9937582 1.0021079 1.0279229 1.0165827 1.0262173 1.0022153 0.9945682 0.9902388
1.0081861 1.0035968 0.97681534 1.0113715 1.0179896 1.0208958 0.99365216 1.0061291
1.0137919 1.0062983 0.992237 1.0148394 1.0139945 1.0127524 1.0062577 0.9871258
0.98067725 1.0311302 1.0209457 1.017048 1.0385524 1.0155591 0.9842862 1.0353479
1.0063251 0.9954055 1.0115505 0.9913741 0.99493164 1.0374256 0.98118037 1.0288408
1.0152168 0.99960256 1.026822 1.0081458 1.0203586 1.0016032 1.0117122 1.0026146
1.0116479 1.0007153 1.004742 1.0293806 1.0052059 0.97713214 0.9827023 1.0002592
1.0196654 1.0073203 0.97548056 1.0087028 1.0121379 1.0224857 0.99113756 0.98122585

_module.layer5.1.bias f4 [64]
00000000: 8fe9 013b 7827 b03c ca92 783c 5474 b5bc
00000010: eaf8 8ebc 9de0 243c c024 a63c b2a5 76bb
00000020: 5c80 063d e28a 913c e5c2 7cbb d4b8 9eba
00000030: 4830 3c3c 26a7 1bbc d70e 833c d818 bc3c
00000040: 96c0 763c 92fd 7b3c 0ef1 00bd 6a74 3b3c
00000050: 1899 0ebc 2a5b 543c 6c83 553c 0e40 b73b
00000060: 0fc9 31bc f6eb a6bc e7ed c1bb b5ac a83c
00000070: 5969 3bbd b592 d93b c76e a8bc 142b 01bc
00000080: 8f98 8cbc a1bd df3c 05c0 af3b 1f47 5f3c
00000090: 5b1e 1cbd 1302 e53b ec67 8a3c d6c9 183d
000000a0: 9f5d 103c 8c76 6cbc 7ecf d33c ab27 13bb
000000b0: 3c2b 893c e8a6 19bc 91d2 5abc 7448 da3b
000000c0: 6da3 b9bc caf5 b7bc 58a6 92bc 3b40 163b
000000d0: c3c3 4b3c c44a 663c ace6 e2bb 6283 793c
000000e0: 0d35 8dbc f1dc 803c a3e3 eabc 4c6b 9d3b
000000f0: ebad bebc a53b 173a 604e 96bc ccdc e43c
0.001982305 0.021503195 0.015171716 -0.022150196 -0.017452676 0.010063318 0.020281196 -0.0037635383
0.032837257 0.01776642 -0.0038568315 -0.0012109526 0.0114861205 -0.0095003005 0.015998287 0.022961065
0.0150605645 0.01538028 -0.031479888 0.0114413295 -0.008703493 0.012961188 0.013031822 0.0055923527
-0.010851159 -0.020376187 -0.0059182527 0.020590166 -0.045754764 0.0066398033 -0.020560635 -0.007883806
-0.01716259 0.027312102 0.0053634667 0.013627796 -0.038114887 0.0069887727 0.016895257 0.03730186
0.0088113835 -0.014432561 0.025855776 -0.0022454064 0.016744249 -0.009378172 -0.013355867 0.006661469
-0.022660935 -0.022456069 -0.017901585 0.0022926468 0.01243681 0.014055911 -0.006924471 0.015229078
-0.01723721 0.015730353 -0.028672999 0.0048040505 -0.02327629 0.00057690806 -0.018347919 0.027937315
