weights/total.pth (torch, 944332 bytes, 26 tensors)

layer1.0.weight f4 [16, 1, 3, 3]
000000 a6 c8 95 bb ab f5 06 3e a3 92 2a be b4 f2 77 3d
       -0.0045710383 0.13179652 -0.166575 0.060534194
000010 b7 0f 9b 3e cf 2b 9c be 22 67 a9 be c4 4c 36 3d
       0.30285427 -0.30502173 -0.33086497 0.044506803
000020 1b b6 3f 3e c9 82 8e bc 3c f8 e7 bd d4 97 4c 3e
       0.18721811 -0.017396348 -0.11326644 0.19979793
000030 15 ee 09 be 9a f2 96 3e 4c d2 16 be 32 2f 80 3e
       -0.13469727 0.29481965 -0.1472866 0.25036007
000040 49 cc 83 be 15 4c cf bc 24 a1 1b be e1 96 25 3e
       -0.25741795 -0.025304833 -0.15198189 0.16170837
000050 a6 5c 13 be 79 ce 54 3d 21 75 92 3e 0d eb ca 3d
       -0.14390811 0.05195472 0.28604987 0.09908114
000060 67 bf 75 be 91 4d 89 3d 99 b6 a4 3e f2 a6 82 bd
       -0.23998795 0.06704248 0.3217056 -0.063794985
000070 ef 62 64 bd 68 7b 5e 3e 82 84 7a 3d d4 4d 98 be
       -0.055758413 0.21726763 0.061161526 -0.29746878
000080 e2 b5 e2 bb d7 f2 15 be 19 e6 55 bd 78 3c 52 3e
       -0.006918655 -0.14643417 -0.05222139 0.2053088
000090 ba 94 a3 3e 82 08 74 be 1c d9 16 3e e7 2f 1e 3d
       0.31949407 -0.2383137 0.14731258 0.038619902
0000a0 8f 1e 8d 3e 81 25 00 be 15 00 3c 3e 02 44 31 be
       0.27562377 -0.12514307 0.18359406 -0.17311099
0000b0 ab 9b 24 3e a5 6a b8 3d e2 bc 9d be 48 84 30 3d
       0.16075008 0.09004716 -0.3080817 0.043094903
0000c0 df f5 87 bc e8 e2 6f be c5 16 94 3d 1c f2 a4 3e
       -0.016596733 -0.23426402 0.072309054 0.32215965
0000d0 8b 30 a4 be 86 74 a4 be 62 87 08 3e df c7 97 3c
       -0.32068285 -0.3212015 0.13332894 0.018527923
0000e0 16 5e 8d be 21 55 88 bd 10 bb c8 bd a9 7b 1b 3e
       -0.27610844 -0.06656862 -0.09801304 0.15183891
0000f0 9f 3a 4e be f7 c4 72 be 42 3a a6 bc 45 c6 80 3e
       -0.2013955 -0.23707949 -0.020291451 0.25151268
000100 b3 05 87 3d 00 21 a2 bd 1f ae 81 be fa 82 10 be
       0.06592884 -0.079164505 -0.25328156 -0.14112464
000110 56 90 84 bd 23 15 1a be a7 b5 bf 3d 65 60 87 be
       -0.064728424 -0.15047126 0.09360819 -0.2644073
000120 0b df aa be df bb 74 3e cd 10 02 3e 19 63 9d bd
       -0.33373293 0.23899792 0.12701721 -0.07684917
000130 79 28 71 3d 88 86 c0 3d 07 89 a4 3d c6 04 01 3e
       0.05887649 0.0940066 0.080339484 0.12599477
000140 3f 43 4f 3e 2a 84 d5 bd 22 01 87 3b a0 c9 82 bd
       0.20240496 -0.10425599 0.004120008 -0.06386113
000150 0f 8f 81 be 80 48 8f 3c f1 47 66 bd fa 68 95 bd
       -0.25304458 0.017490625 -0.056220952 -0.07295413
000160 58 26 9a 3e 2a 4d 47 bd 06 af 9c 3e d9 73 b2 3e
       0.3010738 -0.048657574 0.30602282 0.3485401
000170 98 44 ab 3e 6d c1 4c bd 72 67 a2 be 23 af 76 3e
       0.3345077 -0.049989153 -0.31719548 0.24090247
000180 05 e7 f8 bd 20 2a 88 3e 6b ec 94 be fd 2a 97 bb
       -0.121534385 0.2659464 -0.29086623 -0.004613279
000190 24 dc 0d 3e 58 cf 82 bb 2c ff b7 bc e4 ec 02 3e
       0.13853508 -0.0039920025 -0.022460543 0.12785679
0001a0 32 84 45 3e a2 2f de bd 74 27 04 3d b6 c6 b1 3e
       0.1928871 -0.10848929 0.032264188 0.34721917
0001b0 1f 62 62 be 57 7b 9a 3e 04 5a a3 3e c3 0b 5e bc
       -0.22107743 0.30172226 0.31904614 -0.013552609
0001c0 f0 8f 6c be 92 e1 13 be b5 1a 51 3e 71 3f 81 3e
       -0.23101783 -0.14441517 0.20420344 0.25243714
0001d0 06 4a 89 3e 21 f0 8f bd 6f 0f ff 3d 4d 6a 89 be
       0.26814288 -0.07028223 0.124541156 -0.26838914
0001e0 81 31 9d 3e a1 e4 8d 3e db 41 86 be ba cb 8b 3e
       0.3070183 0.27713493 -0.2622212 0.2730387
0001f0 f6 1f 25 be 4a 09 ab 3e 2c f8 97 3d 2c 41 a6 3e
       -0.16125473 0.33405524 0.07420382 0.32471597
000200 6a b5 58 be e8 2d e4 3d 91 c8 47 3d dd c1 48 be
       -0.21162954 0.111415684 0.04877526 -0.19605203
000210 30 b4 63 3e 9f 6e 58 be 31 bf 87 3e be 09 8f 3d
       0.22236705 -0.21135949 0.26513055 0.0698428
000220 a2 ca 15 3d af 19 e8 bd f9 44 62 3e 81 a3 2a 3d
       0.0365702 -0.11333024 0.22096623 0.041659836
000230 32 5e b7 3e 4e c0 c4 bd f1 a4 46 be 68 34 5c 3e
       0.35814053 -0.09606992 -0.19398858 0.21504366

layer1.0.bias f4 [16]
000000 95 05 84 be f8 a5 52 be c1 36 38 3e 7a 75 1a 3d
       -0.2578551 -0.20571125 0.17989637 0.03770969
000010 6c f1 18 be 66 a7 12 3e b2 0a 95 3e 7d 18 9c 3d
       -0.14935845 0.1432167 0.29109722 0.07621858
000020 4a b2 c8 3d e8 c7 9e 3e 77 46 9b bd 0a 4a 79 be
       0.09799631 0.3101189 -0.075817995 -0.2434465
000030 dd 58 8a 3e 5a 08 64 3d 03 78 31 3e ca 64 33 be
       0.27020922 0.055672027 0.17330937 -0.17518917

layer1.1.weight f4 [16]
000000 9e f1 84 3f 52 2a 81 3f 26 57 7f 3f df 7b 81 3f
       1.0386236 1.009104 0.9974235 1.0115927
000010 0a 4d 81 3f 02 44 80 3f 45 4e 7d 3f d1 74 81 3f
       1.0101635 1.0020754 0.98947555 1.0113775
000020 41 09 80 3f da 3d 72 3f c4 74 82 3f d1 b3 84 3f
       1.0002824 0.9462563 1.0191884 1.0367376
000030 32 8c 7e 3f dc 38 83 3f 41 55 7a 3f 54 af 7a 3f
       0.9943267 1.0251727 0.9778634 0.9792378

layer1.1.bias f4 [16]
000000 04 55 db 3d 48 87 2c 3d 32 36 2a bc b9 03 b9 3a
       0.10709575 0.0421212 -0.010388898 0.0014115489
000010 62 ab a5 bb bf aa fa bb 7e 58 26 bc d3 be 21 3a
       -0.005055831 -0.007649749 -0.010152934 0.00061700976
000020 c1 47 5e bc e6 8c 2a bd 66 fb 95 3c 83 b6 11 3d
       -0.013566912 -0.041638277 0.018308353 0.035574447
000030 97 57 78 bc 15 de cb ba 74 c7 d7 bc 9e 92 22 bc
       -0.015157602 -0.0015553857 -0.026340224 -0.009922652

layer2.0.weight f4 [16, 16, 3, 3]
000000 c0 62 75 3c 5a 05 18 3d 93 0a c0 3d 5a 00 2e 3d
       0.014977157 0.03711448 0.09377017 0.042480804
000010 79 e0 0d bd d8 fe 24 bd df ce c0 3d b6 2e 6a 3d
       -0.034637902 -0.0402821 0.094144575 0.057173453
000020 6a 49 8f 3d 04 ec 2f bd 96 a8 21 bc 82 6b 00 3d
       0.069964245 -0.04294969 -0.009866854 0.031352527
000030 7d 04 52 bd 95 b1 08 bc 29 87 2e 3d 39 c3 4f bd
       -0.05127381 -0.00834312 0.042609368 -0.05072329
000040 d8 28 99 bd 14 6a b7 bc 36 9f 93 3d 70 e7 bb 3c
       -0.074784935 -0.02238945 0.072081015 0.022937506
000050 8a 91 83 bc 09 7f 0d 3c 7a 52 82 bd a3 ac 37 bd
       -0.01606061 0.008636245 -0.063633874 -0.044842374
000060 63 48 38 3b be 45 4a 3d 76 ed 49 3c 5b 03 27 bd
       0.0028119318 0.049382918 0.0123246815 -0.040774684
000070 d3 6a d9 3c 25 a9 0d bd c3 82 0b bd 13 a6 ee bc
       0.026540196 -0.034585137 -0.03406025 -0.029131925
000080 18 5d b6 bd f0 ff 01 3d a2 a0 a2 bd b7 34 08 3c
       -0.08904475 0.03173822 -0.079407945 0.008313349
000090 f1 18 8d 3d df 27 8d 3d 21 13 96 3d a0 55 01 bd
       0.06889523 0.068923704 0.07327867 -0.0315758
0000a0 c0 ce fb 3c 04 74 46 3c 53 3f 24 3c f1 4f 92 bd
       0.030738235 0.012112621 0.010024863 -0.07144154
0000b0 84 01 93 3d 6c f5 36 3d b7 d5 6f 3c 6a f2 b4 3d
       0.071780235 0.044667646 0.014638356 0.08835299
0000c0 52 a0 b9 bc d5 63 d4 bc cf 28 87 3d 95 da 55 bc
       -0.022659454 -0.02592651 0.065995805 -0.013052602
0000d0 f8 d6 1e bc bb 37 11 bd 5d db 61 3d 4f 10 3b 3d
       -0.009694807 -0.03545354 0.05514084 0.04566985
0000e0 72 90 0b bd 26 f2 83 3d 0a 60 7f 3d 0d d8 85 bd
       -0.0340733 0.064426705 0.06234745 -0.06535349
0000f0 65 b0 b6 3d 45 43 2e bd 60 6f 8b bd e7 cb 04 bd
       0.08920363 -0.042544622 -0.068083525 -0.03242102
000100 07 1b 88 3d 3b cb bb bc 3d f8 68 3c 00 c7 98 bd
       0.0664578 -0.022924056 0.014219341 -0.07459831
000110 16 71 22 3d f4 38 9c 3b ec 15 b1 3d e6 e1 a4 bc
       0.03965863 0.0047675315 0.086467594 -0.020127248
000120 d1 e7 8e bd 27 2d a0 3c fa 80 1b bd 70 e8 0c bd
       -0.06977809 0.01955278 -0.0379648 -0.034401357
000130 35 01 82 3d 65 96 5a bd a8 ce 52 bd 77 9f 3a bb
       0.063478865 -0.053366084 -0.051466614 -0.0028476396
000140 c4 d8 57 3d 58 b4 87 3c 83 14 5a bd b4 00 8b bd
       0.05269696 0.016565487 -0.053242218 -0.067872435
000150 16 7f 50 bd 13 d7 9c 3d 5b 0e 8f bc 9b 91 45 bd
       -0.05090245 0.0765821 -0.0174629 -0.048234563
000160 dd a3 a8 bb d5 64 ad 3c 7b df 77 3d 1c c4 c7 3c
       -0.005146487 0.021166245 0.060515862 0.024385504
000170 e3 5d a8 bd 54 40 a0 bd fb 56 4c 3d f0 b1 7c 3c
       -0.082210325 -0.078247696 0.04988764 0.015423283
000180 95 60 4e 3c 8e 6c 6f 3c 57 27 6e 3d df 50 33 3d
       0.012596269 0.014613284 0.058142986 0.043778297
000190 5b 4e f2 bc 6a 32 43 bd 76 9b 1a 3d 47 fb ea 3c
       -0.029578378 -0.0476555 0.037745915 0.028684271
0001a0 69 55 19 bd ce 14 f7 3c 85 54 c0 bc ed 3b 70 bd
       -0.03743497 0.030161288 -0.023477802 -0.0586509
0001b0 65 f6 63 bd 03 f5 98 3d a2 8e 7b 3d b1 f2 19 bd
       -0.055654902 0.07468607 0.061415322 -0.037584964
0001c0 9b 11 66 bd 7c 98 ac bd 1a a2 6d bd 3f 9e 80 3c
       -0.056169134 -0.084275216 -0.05801592 0.015700458
0001d0 81 fe f8 3b 9d 7e 66 3d 13 f6 af 3b 69 c5 a3 bd
       0.0075986986 0.05627309 0.0053699105 -0.079966374
0001e0 4c 60 bb 3c 03 b9 7f bc 48 d9 4a bd a3 69 a3 bd
       0.022873066 -0.015608075 -0.04952362 -0.07979133
0001f0 c1 89 3d bd 03 78 0b bd c2 f4 aa bd 0b 50 5e 3d
       -0.04627395 -0.03405 -0.08347465 0.054275554
000200 5e eb 46 3d e3 f2 5c 3d e7 8d e4 bc 61 46 c3 bc
       0.048564307 0.053942572 -0.027899696 -0.02383727
000210 22 0a 70 bc 9d cf 99 bd 11 d9 98 bd ae fe b9 bc
       -0.014650853 -0.07510302 -0.07463277 -0.022704449
000220 bf 45 81 bd 3d 6f 18 3d e0 5f 8d 3d 8a db 8c 3d
       -0.06312131 0.03721546 0.06903052 0.06877811
000230 3b 69 a4 bd a5 74 b3 3d 55 8c 54 3d a7 a3 3c 3d
       -0.080278836 0.087624826 0.051891644 0.04605451
000240 e4 7d 1e 3d 80 ad e2 bc c9 57 1a 3d 9b ec 33 bc
       0.038694277 -0.027670622 0.037681375 -0.010981704
000250 25 5f 5d 3d f1 ab b8 3d 78 92 d0 bd 59 a0 90 3d
       0.054045815 0.0901717 -0.10184187 0.07061834
000260 7b 7c ba 3d cd 73 e3 3c c7 5c b5 3c 9e 47 c8 3c
       0.09105774 0.027765179 0.022138966 0.024448212
000270 31 b1 6f 3d 0a a0 a5 bc dc fd 64 3c 0c f7 12 3d
       0.058518592 -0.020217914 0.01397654 0.035880134
000280 4a 02 75 3d 9c c0 3a bd 72 30 12 bd 09 8e 5f 3d
       0.059816636 -0.045593843 -0.035690732 0.054578815
000290 88 97 9d bc b7 13 9f bc 7a 77 c3 3c 41 4a 6c bc
       -0.019237295 -0.01941858 0.023860682 -0.014422
0002a0 7e bb 83 3d 5c 09 44 bd cc ac 85 bc 98 75 5f bd
       0.06432246 -0.04786049 -0.016317748 -0.054555506
0002b0 68 fe d1 3d 76 4f 65 bd 63 ff 3b bc e9 61 11 bd
       0.10253602 -0.055983983 -0.011474463 -0.035493765
0002c0 de 1e 03 bc f0 fc aa bd ea b6 94 bd c8 2a 36 bd
       -0.008002965 -0.08349025 -0.072614506 -0.044474393
0002d0 4c cf b5 bc 4a d2 8e bd 08 00 94 3d 08 98 85 3d
       -0.022193573 -0.06973703 0.072265685 0.06523138
0002e0 d7 bd 50 3d a3 a3 83 3d 73 52 6e bd a9 91 d5 bc
       0.050962295 0.064276956 -0.0581841 -0.026070433
0002f0 89 76 99 bb ce 5d 3a bd 51 21 47 3d 7e f1 02 bd
       -0.00468332 -0.045499615 0.048615757 -0.031968586
000300 8e 25 ae 3d 87 19 0c 3d a4 23 b6 b9 c3 69 69 bd
       0.08503257 0.034204032 -0.000347403 -0.056985628
000310 e2 d9 91 3b 1d 68 ac 3c 6e 0f 94 3d 5d 6a 8c 3c
       0.0044510225 0.021045739 0.072295055 0.017140562
000320 cc 92 40 bd 08 03 4f 3d 54 dd c8 3c dd 65 53 3b
       -0.047014996 0.05054 0.0245196 0.003225676
000330 ca 34 7b bd 8c d7 92 bc a1 e4 31 3d 3a 27 89 bd
       -0.06132964 -0.017925046 0.04343093 -0.06696935
000340 d5 8d 51 3d 48 e1 8c 3b 70 a8 b1 3b 44 82 c9 3c
       0.051160652 0.0042993166 0.0054216906 0.024598248
000350 03 4e 25 bc d8 22 5e 3d ae df 9c 3c 27 29 3f bd
       -0.0100894 0.05423245 0.019149628 -0.046670105
000360 8b 14 94 bd c5 14 53 bd 61 49 dc bc ad 74 0d bd
       -0.07230481 -0.05153348 -0.026890459 -0.0345351
000370 06 d8 f5 3c e4 f3 80 3d 54 be 29 bd 39 2a f0 3c
       0.030010235 0.062965184 -0.041441277 0.029317008
000380 53 d5 32 bc e2 8d 8d bd f2 cb 9c 3c fc cd 8d bd
       -0.010915118 -0.069118276 0.019140217 -0.06924054
000390 58 85 98 3d 8e ad 13 bc ff 89 12 3c 09 a1 81 3d
       0.07447308 -0.009013547 0.008944034 0.06329543
0003a0 16 36 dd 3c ee db 02 bd d1 5d 56 bd 1f 44 53 3d
       0.02700333 -0.031948023 -0.052335564 0.051578637
0003b0 9f 00 cf 3d e2 f5 0d bd 9d e4 8a bd c6 ae 9e 3c
       0.1010754 -0.03465832 -0.06781886 0.019370448
0003c0 b8 0c 07 3d 35 3b 04 bd 7e 46 cf 3a 82 97 97 3c
       0.032971114 -0.032283027 0.0015813855 0.018504862
0003d0 e3 07 76 3d 2d fd d8 bc 24 e6 ac bc e1 2d 96 3c
       0.060066115 -0.026487911 -0.021105833 0.018332424
0003e0 30 c4 cb 3c 4a f2 08 3d ff 70 94 3d 76 7e 8e bd
       0.024873823 0.03343419 0.07248115 -0.06957714
0003f0 4e 96 ae 3d ca d0 a9 3d de 3f 60 3d 0a 82 89 3c
       0.08524762 0.082917765 0.05474841 0.01678564

layer2.0.bias f4 [16]
000000 4f af 8e bc 84 6a 89 bb c5 5c 6f bc 4a 78 73 bd
       -0.017417578 -0.004193606 -0.01460952 -0.05944089
000010 4a 17 a6 bd 65 2a 75 3d ad 18 00 bc ef f1 99 3d
       -0.08109911 0.059854884 -0.007818383 0.07516848
000020 58 bd 8b bc 5a f6 95 bc c8 f3 06 3d 89 53 16 bd
       -0.01705806 -0.018305946 0.03294733 -0.03670076
000030 1a 58 28 bd a6 35 b2 3d 5b 60 cd b9 f6 df 87 3d
       -0.041099645 0.08701639 -0.00039172437 0.06634514

layer2.1.weight f4 [16]
000000 70 26 7b 3f 65 ba 7a 3f 35 f0 75 3f 3e da 7f 3f
       0.98105526 0.97940665 0.9606965 0.99942386
000010 1a d5 81 3f 21 4a 7f 3f 4a b0 82 3f 19 d1 80 3f
       1.0143158 0.99722487 1.0210049 1.0063812
000020 40 60 82 3f 01 33 82 3f d1 b7 78 3f 50 02 7f 3f
       1.0185623 1.0171815 0.9715548 0.99612904
000030 89 e7 7f 3f ac 03 81 3f a0 5b 7b 3f 7b bf 7c 3f
       0.9996267 1.0079246 0.98186684 0.98729676

layer2.1.bias f4 [16]
000000 cc ad c7 bc 54 3b aa bc ba fd 35 bd 89 77 92 bb
       -0.024374865 -0.020780243 -0.044431426 -0.004469816
000010 d8 b7 5b 3b 67 a5 b6 bb ae 5c 67 3b 4d e3 7f 3c
       0.0033526327 -0.0055739167 0.0035303044 0.015618158
000020 ea e7 ad 3b 30 9f 69 bc 91 25 04 bc a1 cb 81 bc
       0.0053071873 -0.014259145 -0.008065597 -0.015844168
000030 2b 57 a3 bc c5 83 ea 3a 66 dc 05 bc a9 96 c5 ba
       -0.019939026 0.0017892054 -0.008170223 -0.0015074807

layer3.0.weight f4 [64, 16, 3, 3]
000000 68 d1 6c bd 10 88 3b bd 15 10 fd bc c8 88 b2 3d
       -0.057816893 -0.045784056 -0.030891458 0.08717495
000010 f4 cb 9e 3d 3e 61 b6 3d 4e cb c9 3c ea 97 6b bb
       0.07753745 0.08905266 0.024633076 -0.0035948702
000020 4a 4d 79 3d 30 79 67 3d 4f 19 ee bc 0a db 27 3d
       0.060864724 0.056512058 -0.029064802 0.040980376
000030 5c d3 77 3d ed 2d 36 bb 32 86 e3 3a 67 1f db 3d
       0.060504302 -0.002779837 0.0017358719 0.10699349
000040 4e e3 cb bc cf d8 e8 bc 7c a9 b0 bc a9 2a 99 3d
       -0.02488866 -0.028423695 -0.021565191 0.0747884
000050 73 46 82 3d 1e c1 18 bd 05 9b 5f bd 1a 14 09 bd
       0.06361093 -0.037293546 -0.054591198 -0.033466436
000060 f7 a1 a2 3d 15 e3 80 bc d6 b0 4d bb 22 8b 77 bd
       0.079410486 -0.015733281 -0.003138592 -0.06043542
000070 59 d4 35 3d 39 61 dd bc af c5 1b bd d8 34 c2 ba
       0.044391964 -0.027023898 -0.038030323 -0.0014816774
000080 ad 58 67 3d d1 dd 92 bd 3e b9 b3 3c b3 ed 0a 3d
       0.056481052 -0.07171214 0.021938916 0.033918094
000090 a9 a1 dd bd 8b c7 a4 3d 60 09 86 3d 6c 2d c0 bd
       -0.1082185 0.08045872 0.06544757 -0.093836635
0000a0 f1 4f 8a bd f7 82 f7 3c 88 09 44 3d 3d 42 e0 bd
       -0.06753529 0.030213816 0.047860652 -0.10950134
0000b0 00 bd d9 bc a6 b0 33 3d 94 30 10 bd f6 37 47 bd
       -0.02657938 0.043869637 -0.035202578 -0.048637353
0000c0 ca 01 01 3d 83 f6 19 bd 5c 2e 01 3c 4c f0 aa 3d
       0.031495847 -0.037588608 0.007884588 0.08346614
0000d0 f0 dc b0 3b 5a cb ec 3d 01 7d 1f 3d a2 78 19 3d
       0.0053974316 0.11562224 0.038937572 0.03746856
0000e0 c6 ec bb 3d a6 21 a6 3b 45 e3 e8 3c d3 a4 9f 3d
       0.0917602 0.005069929 0.028428683 0.077951096
0000f0 e0 ad 71 bd be aa 24 3d 1f 38 8c 3d 23 62 47 bd
       -0.05900371 0.040201895 0.06846642 -0.048677575
000100 67 f1 46 3c cf 2c af bc ab b6 e5 3c 58 f8 71 3d
       0.012142516 -0.021383671 0.028041204 0.05907473
000110 ee 5a a3 3c f5 3f 66 bd dd 49 c4 3d 5f 00 f6 bc
       0.01994082 -0.056213338 0.09584401 -0.030029474
000120 6d 12 85 bd 71 ca 08 bd ed c3 4d 3d 4d ca 64 3d
       -0.06497655 -0.03339619 0.050235678 0.05585699
000130 11 c9 88 3d 22 88 0c 3e ac 24 68 3b 9a 88 7a ba
       0.066789754 0.13723806 0.0035422249 -0.00095570984
000140 95 81 3b bd d2 34 a0 bd 26 ab 33 3d df a9 15 3d
       -0.045777876 -0.07822575 0.04386439 0.036538955
000150 cc f0 a4 3d 19 ae 6f bd d0 ed 92 bd 0f 99 8a 3d
       0.08053741 -0.05851564 -0.071742654 0.06767475
000160 dd 8f 41 bc 75 6a 4f 3d 70 63 de 3c ea 19 83 bd
       -0.011814085 0.050638635 0.027147025 -0.06401427
000170 d1 56 a2 3d 1b a8 81 bd e3 4f 82 3d 51 75 75 3d
       0.07926715 -0.06330892 0.063628934 0.059926335
000180 74 8c e3 3c df f7 c6 3c 68 1b a2 3c 8a f6 fe 3c
       0.027776934 0.024288116 0.019788459 0.031123418
000190 eb 76 c6 bb d5 34 fa bb 04 b3 86 bd d2 08 53 bd
       -0.0060566566 -0.0076356926 -0.06577113 -0.051522084
0001a0 cb 9d 51 ba 71 49 3b 3d 89 c8 03 bd 9d 22 31 3d
       -0.000799623 0.045724336 -0.032173667 0.0432459
0001b0 91 c7 9e bc 1a fe d8 3c a1 fc 19 bd f3 7a 67 bc
       -0.01938227 0.026488353 -0.03759444 -0.0141284345
0001c0 4b 2f 80 bd 06 59 84 bc 46 b2 79 3d 6f ab a9 bc
       -0.062590204 -0.016155731 0.06096103 -0.020711629
0001d0 41 66 1d 3d 14 cb 55 bd 43 3a 20 3d 19 b0 99 3c
       0.038427595 -0.052195624 0.039118063 0.018760728
0001e0 af f8 7e 3c b1 93 c7 bc e4 45 51 3d 13 f1 a8 bd
       0.0155622205 -0.024362417 0.051092044 -0.08249106
0001f0 33 65 b2 3d b5 a1 57 3d a8 9e 27 3c c3 df 63 bd
       0.087107085 0.05264445 0.010230698 -0.055633318
000200 51 ac 49 bd 8f 8c 39 bc 4a 2d ca bc 42 0c d5 3d
       -0.0492366 -0.011325016 -0.024679799 0.104027286
000210 0e 9a bd 3d 45 af 67 bd d3 45 13 bb b2 05 2d bd
       0.09257899 -0.056563634 -0.0022472038 -0.04224176
000220 95 a4 98 bd 8a 8f 92 3d f0 14 65 3b a9 17 88 3d
       -0.074532665 0.07156284 0.0034955107 0.06645138
000230 5e ff 90 3d f6 6f 53 bd b1 2f af bc 89 ca 0c bd
       0.070799574 -0.051620446 -0.021385046 -0.03437284
000240 12 f7 94 bd 5d c1 fb 3c 2d aa 88 bd cf 28 6c 3d
       -0.072736874 0.030731851 -0.066730835 0.057656106
000250 a4 de ba bd fa 92 da 3b 35 54 7f bd 08 de 9f bd
       -0.091244966 0.006670353 -0.062336165 -0.07806021
000260 f1 c3 1a 3d 7a 5c 59 b9 d0 76 0f ba af 45 3f 3d
       0.03778452 -0.00020729183 -0.00054727215 0.046697315
000270 7d f7 94 3c 66 35 9b 3d 9e 1f 01 bd cc 12 78 3d
       0.018184418 0.07578544 -0.031524293 0.0605648
000280 a5 33 1d bc 7f 77 70 bc 48 6a be 3c 46 05 7b bd
       -0.009594833 -0.014676928 0.023244038 -0.061284326
000290 68 78 0e 3d d6 6a 81 3d 0e 35 bb bd f7 ec 28 bd
       0.034782797 0.063192055 -0.09140979 -0.041241612
0002a0 ed ca 7e 3d a3 44 34 3c 9b dc 69 bd 00 38 78 bd
       0.062205244 0.011002692 -0.05709515 -0.06060028
0002b0 f8 99 23 bd c2 29 7e 3c f0 b0 2c 3c 36 ae 23 3c
       -0.039941758 0.0155128855 0.010540232 0.009990266
0002c0 41 a8 30 3c 82 dd 93 3d 03 8a 0e 3d 21 7e 21 3d
       0.010782302 0.07219984 0.034799587 0.039426927
0002d0 94 a0 96 bd 4a f2 40 bd 38 8c dc bc 23 62 b6 bd
       -0.073548466 -0.047106065 -0.02692233 -0.08905437
0002e0 c9 11 29 bb 58 1c ac 3b 34 93 9b 3c a4 69 20 bc
       -0.0025797954 0.0052524023 0.01899109 -0.009790812
0002f0 84 50 23 bd 71 26 c8 3d e1 c0 ba 3a ac c2 f7 3c
       -0.039871708 0.09772957 0.0014248156 0.030244194
000300 23 4d ab 3c fc 18 9b bc ea 0b 1a 3d e6 2b 05 3d
       0.020910805 -0.018932812 0.03760902 0.032512568
000310 50 f2 7a bd 03 3d a2 3b 96 42 85 bc 34 cc e3 bc
       -0.061266243 0.004951121 -0.016267102 -0.027807333
000320 87 58 46 bd b9 2a ad bd 2e c2 0c 3b a7 bd 31 3a
       -0.04842427 -0.08455414 0.0021478045 0.00067802746
000330 ef 23 01 bc 3d 30 80 3c 4c 9b c0 bc 7d 64 c3 bb
       -0.007882102 0.015648002 -0.023511551 -0.005962907
000340 e6 3c 67 3d 69 0d 41 3d 7e 4c a9 bd ba 1c 18 bd
       0.05645456 0.04713193 -0.08266543 -0.03713677
000350 01 a6 fe 3c 49 fc 28 bd 8d 2f b9 3b 52 4b c3 bd
       0.031085016 -0.041256223 0.0056514204 -0.095358506
000360 92 e5 fa 3c c3 04 e1 3d 45 47 87 3d 64 d4 0a bd
       0.030627046 0.10987236 0.066053905 -0.033893958
000370 48 15 4c 3d c5 18 d1 bd 6e 6a b6 3d 17 0b 93 bd
       0.049824983 -0.102098025 0.089070186 -0.071798496
000380 e6 b4 9c bd c6 04 df 3d 97 f3 b1 3d 86 ea 86 bc
       -0.07651691 0.10889582 0.08689039 -0.016469251
000390 33 63 68 3d f4 88 8f 3d 4b c6 a2 bc d0 4a b0 bd
       0.05673523 0.070085436 -0.019869944 -0.08608019
0003a0 0d d0 6a 3b af 80 9b 3c ba cb 5f 3d 26 d1 06 3d
       0.0035829574 0.01898226 0.05463765 0.032914303
0003b0 1c 72 57 3d 54 b2 66 3d 13 2f a6 bc 5d d5 ad bc
       0.052599058 0.05632241 -0.020286119 -0.021219904
0003c0 c1 c7 1b 3d 58 f0 3c bd 18 15 20 3d 2b db f7 3c
       0.038032297 -0.046127647 0.039082617 0.030255875
0003d0 d7 f9 8c bd f1 2c ad 3d cd db 3f 3c 4d ee 94 3d
       -0.06883591 0.084558375 0.011710119 0.07272015
0003e0 1e 6c ec bb 46 96 fd bc aa 97 d2 3b 9d 91 7e 3d
       -0.007215037 -0.030955445 0.006426771 0.062150586
0003f0 1d db 61 bd 53 9e 66 bc 5d 65 ab bd 28 94 87 3d
       -0.055140603 -0.014075833 -0.08368943 0.066200554

layer3.0.bias f4 [64]
000000 96 d0 20 3d e3 73 fd bc 31 3b 8c 3d 40 b5 90 3d
       0.039261423 -0.030939048 0.06847227 0.07065821
000010 22 7e d0 3b f9 ba 02 3d c4 c3 a9 bc c5 5e 9d bd
       0.0063626925 0.031916592 -0.020723231 -0.076840915
000020 97 d1 7a bd cc e9 88 bc 8d fd 9f bd be ec a4 3d
       -0.061235037 -0.016713046 -0.07812033 0.080529675
000030 6e 52 a3 3d bf bb 56 3d b3 28 df bc cb 59 59 3d
       0.079747066 0.052425142 -0.027241087 0.05306415
000040 15 22 1e 3d cd e1 46 bd a6 d0 00 3c 2c 1b 52 bd
       0.038606722 -0.048555184 0.007862246 -0.051295444
000050 46 b2 08 3d 82 31 93 3d ad ea 84 3c 55 3b a3 bd
       0.03337314 0.07187177 0.016225183 -0.07970301
000060 bd 26 43 bc 11 12 62 3d 32 48 4d bd 28 c7 a8 bd
       -0.011911091 0.05519301 -0.05011768 -0.08241111
000070 fd 71 ef 3c ee ee 62 bd bb 19 67 3c 8f 44 3d 3d
       0.029229159 -0.055403642 0.014105256 0.04620796
000080 df 2c ad bc c5 3c 3d 3c 60 35 b4 bd 81 ad 86 bd
       -0.02113956 0.011550133 -0.08799243 -0.06576062
000090 a4 56 74 bd ad 3c 98 3d 47 13 7b bd fd 36 05 3d
       -0.05965294 0.07433448 -0.06129768 0.032523144
0000a0 38 83 af 3d 9e 2f 5f bd 56 35 55 bd 6b 53 ad 3c
       0.0856995 -0.05448877 -0.05205282 0.02115794
0000b0 48 14 8f bd 8a 7a b2 3d 95 07 45 bd be 3c 8d bd
       -0.0698629 0.08714779 -0.048102934 -0.06896351
0000c0 39 26 9a 3a 39 2e fc bc 66 a4 9d bd 8c bb 5f 3d
       0.0011760659 -0.03078376 -0.07697372 0.054622218
0000d0 00 be 55 3c 0e 41 fb 3c 12 ae ea bc ad b2 a5 bc
       0.013045788 0.030670669 -0.028647456 -0.0202268
0000e0 55 05 b1 3c 96 d7 ba 3c ac 81 b6 bd de d7 5e 3d
       0.021608988 0.022807878 -0.08911452 0.054405086
0000f0 f6 23 b4 3d d6 04 80 3d bd 2b 29 3a 93 90 58 3c
       0.087959215 0.062509224 0.0006453356 0.013218063

layer3.1.weight f4 [64]
000000 93 02 80 3f 85 90 82 3f b7 2f 82 3f cd 17 7f 3f
       1.0000786 1.0200354 1.0170811 0.9964569
000010 46 65 81 3f 4d 8e 7e 3f b8 eb 7e 3f ab 82 81 3f
       1.0109031 0.99435884 0.9957843 1.0118002
000020 a8 88 7e 3f 80 e4 79 3f 3e c5 7b 3f 3e 16 7e 3f
       0.9942727 0.9761429 0.9834784 0.9925269
000030 6e f7 7c 3f 5b 05 77 3f 21 09 82 3f 83 ca 7c 3f
       0.9881505 0.96492547 1.0159036 0.9874651
000040 3a ac 7d 3f ef 48 79 3f 0c 62 7c 3f 07 ca 80 3f
       0.9909092 0.9737691 0.9858711 1.0061654
000050 f5 68 83 3f 22 80 80 3f 42 be 7e 3f 53 fb 81 3f
       1.0266405 1.0039103 0.9950906 1.0154823
000060 14 62 7e 3f 33 3a 83 3f 45 a9 80 3f 2a 10 81 3f
       0.99368405 1.0252136 1.0051657 1.0083058
000070 f4 fc 7b 3f f0 7d 77 3f 7f 93 81 3f 0a 0e 7f 3f
       0.9843285 0.9667654 1.0123137 0.99630797
000080 76 6c 80 3f 57 e1 7e 3f 04 4e 80 3f 29 65 7c 3f
       1.00331 0.9956259 1.0023808 0.9859186
000090 34 98 7b 3f d4 44 7e 3f cc d5 80 3f a3 8a 7e 3f
       0.9827912 0.99323773 1.0065246 0.9943029
0000a0 20 26 80 3f 2b 2c 80 3f ae 52 78 3f 90 7d 81 3f
       1.0011635 1.0013479 0.9700116 1.0116444
0000b0 7d 11 77 3f 65 9a 81 3f 18 56 81 3f 43 05 81 3f
       0.9651106 1.0125242 1.0104399 1.0079731
0000c0 f6 19 80 3f 5a 03 80 3f c3 71 81 3f 51 02 80 3f
       1.0007923 1.0001023 1.0112842 1.0000707
0000d0 ff f1 7e 3f 27 5b 81 3f 55 ab 82 3f a6 88 80 3f
       0.99588007 1.0105942 1.0208536 1.0041702
0000e0 76 d5 7c 3f 6a 9c 76 3f 89 b4 80 3f d0 db 78 3f
       0.98763216 0.9633242 1.0055095 0.9721041
0000f0 94 06 82 3f 33 80 82 3f 06 65 85 3f c3 4c 7e 3f
       1.0158257 1.0195373 1.0421455 0.9933588

layer3.1.bias f4 [64]
000000 61 8c 6a bc 2e a1 b1 bc e9 3d 78 bc ee 5a e2 bb
       -0.0143156955 -0.021683302 -0.015151479 -0.0069078123
000010 e6 fc 68 3b 36 d0 33 bc f6 81 a1 bc ed 36 8d 3b
       0.003555113 -0.010974934 -0.01971529 0.004309526
000020 69 eb ae bb 94 4d 49 bc 74 b9 8e bc d4 b7 a6 bc
       -0.0053381217 -0.0122865625 -0.017422415 -0.020351328
000030 b6 b3 c8 bc 01 04 d9 bc e9 bc 8a bc 3a d0 80 bb
       -0.024499755 -0.026491167 -0.016935783 -0.0039310725
000040 25 1a 5a bc 3e 89 a2 bc 78 61 61 bc e3 ce d2 bb
       -0.013311897 -0.019840833 -0.0137561485 -0.006433354
000050 7b 83 71 3c 26 9c fb 3b 86 18 c5 3b b1 8a a2 3b
       0.01474082 0.0076785265 0.0060148863 0.004960381
000060 72 8b 11 bc 88 1a 15 3c 4b 27 f9 bb 9f 36 fd bb
       -0.008883344 0.009100564 -0.007603561 -0.0077274586
000070 a2 d5 33 bc ca da e6 bc 62 a3 ff 3b df 4b b5 bb
       -0.010976227 -0.028180499 0.007801459 -0.005532726
000080 fc e4 15 3c 1e 4f 52 bb 58 0e 4f b9 de 8e 63 bc
       0.009148832 -0.0032090615 -0.00019746402 -0.013889043
000090 a1 c6 7f bc ab 66 12 bc d1 c6 de bb ee a2 62 bc
       -0.015611322 -0.008935611 -0.006798603 -0.013832791
0000a0 03 af 96 bb 4f f7 57 ba 07 db 26 bd b0 60 6e bc
       -0.0045984997 -0.0008238451 -0.040736225 -0.014549419
0000b0 27 59 93 bc 9d 42 10 3b b7 e0 5e bc 9f f6 93 bc
       -0.017986847 0.002201236 -0.013603381 -0.018061934
0000c0 ca 86 89 3b 5d ec 87 b9 57 d6 df bb 97 b9 c9 bb
       0.0041969763 -0.0002592531 -0.006830971 -0.0061561572
0000d0 e3 19 bf bb f3 06 20 3b a4 29 00 bc 4b cb d8 bb
       -0.0058319434 0.0024418205 -0.007822428 -0.0066160313
0000e0 2d 34 9c bc 39 81 13 bd 75 6c a3 3b 7f b5 00 bd
       -0.019067848 -0.03601191 0.0049872943 -0.03142309
0000f0 53 64 c8 3a 2c e5 c9 3b 98 98 27 3a 0c cb 99 bc
       0.0015288688 0.0061613526 0.00063932827 -0.018773578

layer4.0.weight f4 [64, 64, 3, 3]
000000 e0 61 b0 bc 36 77 c2 bc b0 41 8f 3a 16 e7 d5 3c
       -0.021531045 -0.023738485 0.001092961 0.026111167
000010 70 fa ff bc b8 11 23 3c 7e 61 09 bd 52 22 00 bd
       -0.031247348 0.009952955 -0.03354024 -0.03128273
000020 e3 f2 b3 bc e3 ee 7f bc ed 3d 9e 3c d2 fb 2e bc
       -0.021966403 -0.01562092 0.019316638 -0.010680156
000030 b1 98 b4 3b 29 b9 89 bb d6 ca f9 bc 5c dd db bc
       0.0055113663 -0.004202981 -0.030492228 -0.02683895
000040 2a f9 4b bc 57 c6 8d ba 42 5f a8 3b 4c 48 4a bd
       -0.012449542 -0.0010816556 0.0051383087 -0.049385354
000050 05 16 31 bd 71 9c b5 3b 79 d1 16 bd e2 9c 1c bc
       -0.04323389 0.005542331 -0.036820862 -0.009558888
000060 d0 e6 8d bc f7 5d b2 bc 32 29 e9 bc 38 89 9b bc
       -0.017321974 -0.021773322 -0.028462026 -0.01898633
000070 9c 48 05 bd e7 a1 9f 3c 66 d6 5e 3c 3b 7a 95 3c
       -0.03253995 0.01948638 0.013600921 0.01824676
000080 0b 3e 39 3c 6c d3 0f bd c0 65 72 3c 8c a4 87 3b
       0.011306296 -0.035113737 0.014794767 0.0041394886
000090 53 48 83 bb 2c 77 57 3c 08 95 09 3d a1 87 1e bc
       -0.0040064245 0.013150971 0.033589393 -0.009675891
0000a0 e4 80 dc 3c 0d 7c 88 bb 0a 46 35 bd 52 6f b2 3b
       0.026916929 -0.0041651786 -0.044256248 0.0054453993
0000b0 ec c5 c2 bc 48 b6 ae 3c e5 b9 d5 bc 06 81 06 3d
       -0.023776017 0.021327153 -0.026089618 0.03283789
0000c0 11 7a a4 bc b9 86 22 3c c6 70 8d 3b 78 46 c4 3c
       -0.020077737 0.009919816 0.004316422 0.023959383
0000d0 58 be 07 bd ed 63 a8 bc 3b e6 e5 3c 35 44 59 3c
       -0.03314051 -0.02055546 0.028063884 0.013260891
0000e0 a9 2e 9b 3c a6 63 d3 3c 1d 30 be 3c c3 69 8c 3b
       0.018943148 0.025804352 0.023216302 0.0042850687
0000f0 07 9d 0e bd 68 1d b7 bc 25 f1 47 bc bb 4d 13 bd
       -0.03481772 -0.02235289 -0.012203489 -0.0359628
000100 46 f4 d1 bc d9 79 0c 3d ea f6 87 3b 6e 35 e1 bc
       -0.025629174 0.03429589 0.0041493075 -0.027491298
000110 26 a8 6f bc 36 e9 12 bd b4 39 33 3d cd 85 07 3b
       -0.014627492 -0.03586694 0.043756202 0.0020679117
000120 bc 11 54 bb d0 3a 81 3c d1 a9 74 bb 00 f8 d0 bc
       -0.0032359203 0.015775114 -0.0037332664 -0.02550888
000130 e9 d6 b3 bc e6 97 38 bd b6 51 b0 3c 09 cc 25 3c
       -0.021953063 -0.045066737 0.021523338 0.010119447
000140 4d 2b 4b bd 31 3a 9e bc f8 d8 eb 39 59 1b be bc
       -0.04960184 -0.019314857 0.00044984347 -0.0232064
000150 c4 23 00 3d 45 48 a0 bc 03 6e 20 3d eb df a8 3c
       0.03128411 -0.01956571 0.039167415 0.020614585
000160 7d b2 45 bc 7d 25 4c 3b 98 0c 99 bc ff ac 0b 3d
       -0.012066481 0.0031150274 -0.018682763 0.03410053
000170 6c 02 a2 3c 93 89 94 3c 54 fe 16 3b 04 35 2b 3d
       0.019776545 0.018132007 0.0023039775 0.041798607
000180 68 40 fb 3c 0a 28 3b bc 31 6a 22 bd b4 7e f5 bc
       0.03067036 -0.01142312 -0.039652053 -0.029967643
000190 72 17 8c bc dc 02 04 bd ed 8e 0e 3b ab ea f9 bc
       -0.017101023 -0.03222929 0.002175267 -0.030507406
0001a0 1b 3d 09 3d 48 0f 86 bb 71 e8 fb 3c e2 6d 09 3a
       0.03350554 -0.004091177 0.030750485 0.0005242509
0001b0 99 8f 34 3b 9b 86 6e 3b b3 2e 70 bb 8c 49 6f bc
       0.0027551411 0.003639615 -0.0036648929 -0.014604937
0001c0 2d 5d 29 3c ab 45 32 3c 86 66 0a bd 6c 40 38 bd
       0.010337156 0.010880868 -0.03378918 -0.044983312
0001d0 74 84 40 bd 96 12 1c 3d c9 29 48 bc f5 24 5d 3d
       -0.047001317 0.038103662 -0.012216994 0.053990323
0001e0 ac e9 78 3c 49 10 5c 3c 90 15 95 3c 24 35 b3 bc
       0.0151924305 0.013431617 0.018198758 -0.021875925
0001f0 29 3a 58 bd ec 56 e0 ba 89 03 ab 3b 24 f7 92 bc
       -0.05278984 -0.0017115748 0.0052189273 -0.017940111
000200 1b b8 26 3d 1a 8b b3 3c aa 24 f7 3c 1d 03 a7 bc
       0.04070292 0.021916915 0.03016885 -0.020387227
000210 02 72 bc 3c 4f 26 30 3c 08 e5 e8 ba 98 a8 12 3c
       0.023003582 0.010751321 -0.0017768452 0.008951329
000220 53 c8 f4 bb 41 8e b4 bb f4 78 c4 bc 22 ef 23 bd
       -0.0074701696 -0.005510122 -0.023983456 -0.040022977
000230 74 87 e6 3c 4f 5e 51 3c 97 91 af bb f5 73 1c bc
       0.028140761 0.012778833 -0.005357932 -0.009549131
000240 29 ff c7 bc 87 ea e3 3c ad 83 6f bc 33 22 11 3d
       -0.024413662 0.027821792 -0.014618796 0.035433006
000250 bb 0b 2d 3d 41 f3 0b 3d 09 f9 c5 bc ac c5 17 bd
       0.042247515 0.034167532 -0.0241666 -0.03705375
000260 0b b7 db 3c 41 0d 7c bc f0 20 f2 3b fc 6b 90 3c
       0.02682068 -0.015384019 0.0073891804 0.017629616
000270 dc 8e 1b 3d a3 07 08 bd 18 48 c6 3b 96 5f e5 3c
       0.03797804 -0.033210408 0.0060510747 0.02799968
000280 03 67 ec bb e6 8c 86 3c a0 b3 f7 bc 49 0e a3 bc
       -0.0072144284 0.016424607 -0.030237019 -0.019904273
000290 82 cb 93 bc f7 c3 7e 3c 9f 6c 8a 3c 22 b4 d6 3a
       -0.018041376 0.015549651 0.016897498 0.0016380588
0002a0 b5 ff 48 bd 26 4d 78 3c d4 f9 39 bc 34 b7 e4 bc
       -0.049071986 0.015155112 -0.011351068 -0.02791939
0002b0 82 db 9d bc d6 25 02 3d 39 3a b8 bb 9f ef b2 3b
       -0.019269709 0.031774364 -0.005622175 0.005460694
0002c0 fb 55 c3 39 7b 6d e7 bc de 8f 6f bc da 8a 72 bc
       0.0003725736 -0.028250447 -0.014621703 -0.014803613
0002d0 c5 f1 7a bc 06 d3 c9 bc 12 83 57 3b 2a 8f aa 3c
       -0.015316431 -0.024636757 0.003288452 0.02082022
0002e0 f4 3a 52 bb a3 8f 2b 3c ac d6 04 bd 1b ab a1 bc
       -0.0032078596 0.010471257 -0.03243129 -0.01973491
0002f0 8d 6e 66 bc a9 0e 25 bd de a2 e5 bb 91 01 4c bd
       -0.014064443 -0.040297184 -0.0070079407 -0.04980618
000300 b0 22 9f 3c 7d 4d 7a bb 72 73 d3 bc 93 65 f1 bc
       0.01942572 -0.003819316 -0.025811885 -0.02946738
000310 03 2b 66 bc fc 1f 73 bc 2d 2f e8 3a 50 7b 4a bd
       -0.014048341 -0.014839169 0.0017714255 -0.049434006
000320 cc 9b cb bc 50 01 f8 bc 6d c3 2f bd 2b 51 fc bb
       -0.024854563 -0.030274063 -0.042910982 -0.0077001057
000330 d1 8e b9 bb 90 fb e8 3b 30 28 66 bc 46 8c d7 bc
       -0.005662777 0.0071100667 -0.014047667 -0.026312005
000340 2d 5d 0c bc 66 15 04 bd f8 ff a2 bc 36 b7 c3 bc
       -0.008567137 -0.03224697 -0.019897446 -0.023891073
000350 05 cf 21 3c 8a 77 11 bc 77 e7 c6 bc cf 9c 67 bc
       0.009876017 -0.008878598 -0.024280293 -0.014136507
000360 1c 81 08 bd c2 4b 8f bb e4 ba ad 3a cb 08 e7 3c
       -0.033326253 -0.0043730447 0.001325455 0.028202435
000370 d6 e3 d2 3c 51 cc 60 3c c8 97 ca 3b 47 6c 89 3c
       0.025743406 0.013720588 0.0061826445 0.016775263
000380 8c 3c fd bc df e4 ff bc 48 fd de 3c 7c 76 54 bc
       -0.03091266 -0.031237064 0.027220383 -0.012967702
000390 20 a3 97 3c e8 47 07 3d f8 0d 04 bc fc c9 57 3d
       0.018510401 0.03302756 -0.008059971 0.05268286
0003a0 a9 52 60 3d 6d 33 b1 bb 75 d2 09 3d 63 74 81 bb
       0.05476633 -0.0054077418 0.033647973 -0.003950642
0003b0 08 ea e6 bc 11 4b ae 3b 47 17 18 bd ca 5b 2e bc
       -0.028187767 0.005319007 -0.037131574 -0.010642001
0003c0 7a 68 35 bd 47 14 ed bc e3 88 d5 b9 a5 34 19 bd
       -0.04428909 -0.028940333 -0.00040728514 -0.03740372
0003d0 14 68 3b 3b 1d 52 c1 bc a8 69 8f 3c 30 8c f1 38
       0.002859597 -0.023598725 0.017506436 0.000115178875
0003e0 53 b1 9d 3c 59 ba 47 bd 1b 89 82 bc 11 f0 65 bd
       0.019249594 -0.0487617 -0.015934518 -0.05613715
0003f0 eb 17 e6 bc 36 f4 ab 3b 13 e7 39 bd 54 31 94 3c
       -0.028087577 0.005247618 -0.045386385 0.018089928

layer4.0.bias f4 [64]
000000 d5 ea 0b 3c 3b 2e 17 bd 5c a0 21 3d 50 73 4c bb
       0.008539875 -0.036909323 0.03945957 -0.0031196661
000010 4c d0 03 3d 61 93 00 3d d1 3d 2c bc c5 9f d3 bc
       0.03218107 0.03139055 -0.010512785 -0.02583302
000020 62 18 b8 bb 67 2d 12 bd 93 3d f5 bc ad 3e 8a bc
       -0.005618141 -0.03568783 -0.029936587 -0.01687559
000030 49 3d e7 bc c1 ba 20 3d 56 fc 20 bd a7 5b 19 bd
       -0.028227465 0.039240602 -0.039303146 -0.037440922
000040 75 70 ac bb 2d 6b 8c 3b 52 53 0e 3c 3e a5 2e bd
       -0.0052624294 0.0042852373 0.008686857 -0.042638056
000050 e8 77 12 3c ae ad a7 3b 55 fa fb 3a 46 52 f6 bc
       0.008939721 0.00511714 0.0019224385 -0.030068528
000060 f3 1a cf bc 61 8e 97 bc 41 c2 00 3d f6 a9 ae bc
       -0.025281405 -0.018500509 0.031435255 -0.021321278
000070 dc 1b df 3c a5 ef 21 3d 1f cf 1a 3d 64 98 a9 bb
       0.027234964 0.039535183 0.037795182 -0.005175637
000080 84 c5 71 bc 1d ae 97 3c 37 6d 03 bd d0 1a 12 3d
       -0.014756564 0.01851564 -0.032086577 0.0356701
000090 68 cf 9e bc b3 ad 80 3c d8 c3 b6 bb 49 f0 ff bc
       -0.019386008 0.015707826 -0.0055775456 -0.031242507
0000a0 80 d5 d6 3c 2d ed f6 bb fd e1 f9 bb 70 80 f1 3c
       0.026224852 -0.007535598 -0.007625817 0.02948019
0000b0 47 12 ac 3c 76 1a 3b bd 4d ea bf bc 48 2c cd 3a
       0.021004809 -0.045679532 -0.023427153 0.0015653456
0000c0 da 31 db 3b 1f 1e ae 3c 7f f4 83 bc 89 0c a1 bc
       0.0066892924 0.021254597 -0.016107796 -0.019659298
0000d0 ab 42 05 bd 5c 36 49 bc 02 ba b4 3c 71 f1 89 bb
       -0.032534283 -0.012281027 0.022061352 -0.0042096903
0000e0 e3 e5 1c ba 9d f3 ee 3c e6 e0 d6 3c a9 b7 1c 3c
       -0.00059851835 0.029168898 0.026230287 0.009565272
0000f0 59 38 de b9 98 b5 0f 3d e7 7d ed bc 98 8d 2b bc
       -0.00042385122 0.03508529 -0.028990699 -0.01047077

layer4.1.weight f4 [64]
000000 53 83 77 3f ba 11 77 3f 86 1e 82 3f a1 9f 82 3f
       0.9668476 0.96511424 1.0165565 1.0204965
000010 68 e4 74 3f dc 00 80 3f 14 6a 7e 3f 8b d5 7c 3f
       0.9566102 1.0000262 0.9938061 0.9876334
000020 9c ad 78 3f 7c e9 75 3f 89 25 7d 3f 46 bd 7c 3f
       0.97139907 0.96059394 0.988854 0.9872631
000030 38 88 7b 3f 3c b2 80 3f 24 31 82 3f 5a 8e 80 3f
       0.9825473 1.0054393 1.0171247 1.0043442
000040 3c 10 80 3f 50 79 7d 3f 94 22 7d 3f 65 9c 7f 3f
       1.0004954 0.99013233 0.9888089 0.99848014
000050 92 8b 7c 3f 4c 4d 78 3f e0 9c 80 3f c0 a0 7e 3f
       0.9865047 0.96992946 1.0047874 0.99464035
000060 8a 3f 81 3f fa 02 83 3f d4 0a 81 3f 55 8a 86 3f
       1.0097516 1.0235283 1.008143 1.0510966
000070 99 73 7f 3f ed 76 83 3f e0 a0 83 3f 9c 69 80 3f
       0.99785763 1.0270668 1.028347 1.003223
000080 cd 9c 80 3f a6 07 7f 3f 78 56 82 3f 78 93 7a 3f
       1.0047852 0.99621046 1.0182638 0.9788127
000090 56 b1 80 3f 72 7b 7f 3f f9 73 80 3f 40 da 7d 3f
       1.0054119 0.9979774 1.0035392 0.9916115
0000a0 e3 ee 80 3f 0a 64 7d 3f 5c 66 7e 3f 2c df 7d 3f
       1.0072902 0.9898077 0.9937494 0.9916866
0000b0 5c 81 81 3f af eb 7e 3f 2b 05 82 3f ca 2f 81 3f
       1.0117602 0.99578375 1.0157827 1.0092709
0000c0 73 72 83 3f 2e b2 7b 3f 7a 08 7e 3f b9 fb 7a 3f
       1.0269302 0.98318756 0.99231684 0.9804035
0000d0 4d e8 81 3f fe 4d 7d 3f ff b1 82 3f 0b e8 7e 3f
       1.0149018 0.9894713 1.021057 0.9957282
0000e0 de df 7b 3f 3f a4 80 3f b6 6b 80 3f f2 85 79 3f
       0.9838847 1.0050124 1.0032871 0.9747001
0000f0 9d 56 7a 3f 04 a7 7e 3f 1d f3 7e 3f 29 dd 7b 3f
       0.9778841 0.99473596 0.9958971 0.9838434

layer4.1.bias f4 [64]
000000 c0 f4 d8 bc 78 52 fd bc c6 ca 48 3b 54 01 b6 ba
       -0.026483893 -0.030923113 0.003063844 -0.0013885894
000010 7b bd f1 bc dd 9a 38 bb 5e 0d 08 bc 15 e3 ce bb
       -0.029509297 -0.0028168478 -0.008303968 -0.0063136914
000020 a7 46 a1 bc 17 b1 d1 bc 54 40 bc bb ee fe aa bc
       -0.01968701 -0.025597138 -0.005744973 -0.020873513
000030 06 74 0f bc 10 c6 14 bb ca b4 a9 3b 57 bf 30 3c
       -0.0087556895 -0.0022701062 0.0051790224 0.0107878065
000040 f5 2f 89 3a c1 26 2e bc 3a e1 79 bc 7c ee ac bb
       0.0010466563 -0.010629357 -0.015251452 -0.005277453
000050 a5 5c 36 bc 1e 61 08 bc 84 d0 92 bb 5d 92 4d bc
       -0.011130487 -0.008323936 -0.0044804234 -0.012547103
000060 07 01 a5 3b bf 5c 2a 3c 9f 5c 24 3c 9b 09 30 bc
       0.005035523 0.010398089 0.010031848 -0.010744478
000070 25 32 22 bc 95 6d 03 bb 24 44 1b 3c 00 89 bf bb
       -0.009899651 -0.002005433 0.009476695 -0.005845189
000080 5e 11 29 bb e7 a5 92 bc c1 17 11 bc 73 84 bd bc
       -0.0025797705 -0.017901374 -0.008855761 -0.023134446
000090 c4 39 28 bc 2f d3 66 ba 60 35 47 3b 85 d8 25 bc
       -0.010267679 -0.00088052725 0.0030396804 -0.010122423
0000a0 a7 5a 42 bb 3d 3e 13 bc 1f 4a 24 3c 88 31 24 bc
       -0.0029656084 -0.008987007 0.0100274375 -0.010021575
0000b0 5a c6 8f 3b aa e2 31 bc 83 b0 0c 3c c0 6a 6c 3b
       0.004387659 -0.010857264 0.008587006 0.003607437
0000c0 be 81 24 bc a8 58 8f bc d0 2e 17 bb 38 15 12 bc
       -0.010040699 -0.01749833 -0.0023068674 -0.008916192
0000d0 a2 d4 f1 3b ff 35 79 bc 2b 44 64 3b 1d 4d 4d bb
       0.007380084 -0.015210628 0.003483067 -0.003132648
0000e0 1d b5 4d bc d2 8d 2f 3b f3 bf 0f bc 4e 7c 55 bc
       -0.012555388 0.0026787412 -0.008773792 -0.013030125
0000f0 45 15 44 bc 5d b5 19 bc 3c 80 48 bc cd 3a 95 bc
       -0.011967962 -0.009381619 -0.012237605 -0.018216515

layer5.0.weight f4 [64, 64, 3, 3]
000000 2c 8b e1 3c 02 2a d3 bb 1c 01 6f bc ea 45 20 bd
       0.027532183 -0.0064442167 -0.014587667 -0.039129175
000010 ea 04 26 bd b2 ce 0b 3b 67 de 2c bd 0e 56 e6 3a
       -0.04053203 0.0021332917 -0.042204287 0.0017573254
000020 4f 41 8f 3c d3 7a 3c 3c ea 26 48 3c d0 a0 98 3c
       0.017487196 0.011503893 0.012216309 0.018631369
000030 42 3e b9 3c 38 30 d4 bc 06 46 10 bc ee d1 77 3c
       0.022612695 -0.025901899 -0.008805757 0.015125735
000040 6e c3 48 3c 46 46 9c 3a 2e 41 ad 3b be bf 89 ba
       0.012253625 0.0011922799 0.005287311 -0.0010509414
000050 cf 2b 0a bb 54 4b 10 3d da e0 e2 3a 58 38 4e 3d
       -0.002108324 0.03522809 0.0017309443 0.050346702
000060 71 af f1 3c e6 e7 b4 bc f7 ba e0 3c b4 61 6e 3c
       0.029502602 -0.022083234 0.027432902 0.014549661
000070 89 2a 52 3c fd 07 5b 3c a9 eb e4 bb 45 66 06 bd
       0.012827524 0.013368604 -0.0069861007 -0.032812376
000080 c6 a3 95 bc 3e 13 1c bd 61 e1 a0 3c 8f 97 fb 3c
       -0.01826657 -0.03810429 0.019638719 0.030711917
000090 a4 92 1b 3d 66 ad 7f bc fa 22 53 3c 81 fc a7 3c
       0.037981644 -0.015605306 0.012886757 0.020506145
0000a0 bd 16 85 3b 00 d9 4a bc 4d 08 ff 3c b6 43 b8 bc
       0.0040615485 -0.012380838 0.031131888 -0.022493225
0000b0 92 b0 46 3d ff c9 d5 bc d2 79 d9 3c 02 72 95 bc
       0.048508234 -0.026097296 0.026547346 -0.01824284
0000c0 0d cf 05 3c 66 21 9a bc c6 5f 05 3d a2 81 5c 3c
       0.0081670405 -0.018814754 0.03256204 0.013458641
0000d0 74 a2 1e 3c 5b e4 d7 3a 81 6b 0b 3d 2c e9 10 3b
       0.0096822865 0.0016471253 0.03403807 0.0022111638
0000e0 8e d7 36 ba 5c 6a 04 bd 09 68 ab 3c 14 8c 08 3b
       -0.0006974869 -0.032327995 0.020923631 0.0020835446
0000f0 5b 36 21 bd 0f 97 5b 3c 8b 43 c0 bc 57 5d 9f bc
       -0.039358478 0.013402714 -0.023469707 -0.019453688
000100 e4 f1 2b bd 94 c3 37 bd cd e0 d1 bb 85 af e7 bb
       -0.04197873 -0.044864252 -0.006404972 -0.007070484
000110 77 fb c0 3c 01 5e d0 bc 95 f1 19 bc f7 e0 68 3c
       0.023557408 -0.02543545 -0.009395977 0.014213792
000120 cf 88 6e bd f8 11 9d 3c 74 83 ce 3c f5 4e 2a 3d
       -0.05823594 0.019173607 0.025209166 0.041579206
000130 eb 24 27 bd f4 9e 41 3c 21 0b 85 bc 80 de f6 3c
       -0.040806692 0.011817683 -0.016240658 0.030135393
000140 fc 00 b7 3c 25 66 83 bb db 3f 1c bb c3 03 82 3c
       0.022339337 -0.0040099793 -0.0023841772 0.015870934
000150 53 d2 0d bc 5f b1 20 3a 06 30 39 3d 8b 55 00 bd
       -0.008656102 0.0006129946 0.045211814 -0.03133158
000160 ef ea 53 bc 6f 74 bf 3c 14 4d bc bc 7a cd 2d 3d
       -0.0129344305 0.02337095 -0.022985972 0.042432286
000170 5f dd 6b 3d 56 72 47 bc 24 57 02 3d 18 d4 83 bc
       0.057584163 -0.012173256 0.031821385 -0.016092345
000180 3e 5b 35 3c 2d 0a f2 bb 26 3e 2b bc 5a 83 ea bb
       0.011069117 -0.007386467 -0.010451829 -0.0071567716
000190 63 1d a5 bc 1e f4 1a bd 46 33 19 bd f6 32 29 bd
       -0.020155614 -0.037830465 -0.037402414 -0.041308366
0001a0 68 f1 d8 3c be 61 21 bd aa 7a ab 3c 6d 7d a4 3c
       0.026482299 -0.039399855 0.020932514 0.020079339
0001b0 0b 23 46 3d 7e fb 60 bc cd f9 2f bc 6a 82 ad bc
       0.048373263 -0.013731835 -0.0107407095 -0.02118035
0001c0 3d 90 66 3c 20 5c d8 bc 02 d3 cc 3c 7d 29 69 bd
       0.014072475 -0.026411116 0.02500296 -0.056924332
0001d0 39 c1 64 bd 7b 02 a6 bc 8d 1f 3d bd 75 01 d5 bc
       -0.055848334 -0.020264855 -0.046172667 -0.026001671
0001e0 f6 fe 1b bd e6 6e fc bc 44 a4 1c bd 74 ea 77 3b
       -0.038084947 -0.0308146 -0.038242593 0.0037828954
0001f0 de f6 ba 3c aa 2a dc 3b e6 e4 44 bd 03 c1 13 bd
       0.022822794 0.006718953 -0.048069857 -0.036072742
000200 4f 47 bc bc e8 0d d5 bc dc 18 71 bb d1 b3 ad 3c
       -0.022983221 -0.026007608 -0.00367885 0.021203907
000210 31 a5 32 bd 69 51 51 3c 4b 4b bb bc cc bf 37 bc
       -0.04361457 0.012775757 -0.02286305 -0.0112151615
000220 6a 43 2b bd b0 5b 44 bc 83 31 cc 3b 0d 8a 37 ba
       -0.041812338 -0.011984751 0.006231488 -0.0007001467
000230 76 99 b2 3b 98 77 5c bc af 5f 2d bd 7a b1 05 3d
       0.005450423 -0.013456248 -0.04232758 0.032639958
000240 82 d7 c0 3c 71 8f 92 bb 31 19 2a 3d e5 cd 48 3d
       0.023540262 -0.004472666 0.04152793 0.04902448
000250 4e 6e 1b 3d 55 d0 c1 bc df 9d f1 3b b4 b8 4f 3c
       0.03794699 -0.02365891 0.007373556 0.012678314
000260 79 b8 10 bd f7 5d b4 bc c7 9a b6 3b 3e a4 3e 3c
       -0.035332177 -0.022017462 0.00557265 0.011635838
000270 96 c9 92 bc cc 8b 6d 3a c0 1f f0 bc ca 93 66 bc
       -0.01791839 0.0009061664 -0.029312015 -0.014073322
000280 55 f2 bd bc e2 04 d4 bc 53 5e 3e bc 7c cc 8a bc
       -0.023186842 -0.025881235 -0.011619168 -0.016943209
000290 95 93 af bc 86 c6 8b 3c bb df 78 3c c3 41 6c 3c
       -0.021432677 0.017062437 0.01519006 0.014419976
0002a0 17 cf d0 3a 68 47 c3 3c 45 a4 04 3d b0 27 30 3d
       0.0015930858 0.02383776 0.032383222 0.0430066
0002b0 2f 01 13 3d f8 3f c2 3c a6 54 8c bc 67 b1 44 3b
       0.0358898 0.023712143 -0.017130207 0.0030012967
0002c0 d0 b0 f3 3c 2c 8e b8 3c ba a9 52 bc d7 52 ea bc
       0.029747397 0.02252873 -0.012857849 -0.028603954
0002d0 dd 74 77 3c 3c ef 82 3b 76 dc 3c 3c 2b 36 39 bd
       0.015103546 0.003995804 0.011527171 -0.045217674
0002e0 09 db 43 bb 80 72 36 3d 4a 0d a9 3b de d2 12 bd
       -0.0029885194 0.04454279 0.005159055 -0.03584563
0002f0 7d 82 c8 bc cb ec e4 3b 01 cb 3b bd f5 ac 5b 3c
       -0.024476284 0.0069862357 -0.045847896 0.013407935
000300 ed c1 3b 3d 56 ef 4b bd a9 ac 0e bc d8 43 2a 3d
       0.04583924 -0.049788795 -0.008708158 0.041568607
000310 fa ee 5b 3d b3 41 2b bd 00 b0 3c bd 86 db 65 3c
       0.053694703 -0.041810703 -0.046066284 0.014029389
000320 97 1c 61 3c 73 7b c4 bb 27 aa dc 3c 97 3f f0 bc
       0.0137397265 -0.0059961616 0.026936604 -0.029327197
000330 a5 bd 52 bc 74 76 34 bc 74 10 30 3d 3b 0f 16 bc
       -0.012862598 -0.01101457 0.04298444 -0.009158905
000340 19 05 c1 3c fa c4 09 3d 71 3b 10 3d 05 de d3 3c
       0.023562001 0.033635117 0.035212938 0.025862703
000350 5c 66 c0 bc 15 78 a8 bc 23 43 e5 3b 2a 07 0e bc
       -0.023486309 -0.020565072 0.0069965287 -0.0086687
000360 af 66 af 3c bf fa 01 3d de 6d d9 3b 14 da 6f 3c
       0.021411268 0.03173327 0.0066354116 0.014639396
000370 e8 e2 0a 3d 45 54 21 3c a7 dd 8e bc 76 15 3d 3d
       0.0339078 0.009846752 -0.017439676 0.046163045
000380 e4 2e 7a bc 98 78 99 3c b9 51 c0 bc a0 27 81 bc
       -0.015269969 0.018734261 -0.023476468 -0.015765965
000390 95 e1 f3 3c 40 d5 27 bd d1 1c 02 ba 0e ce 99 3b
       0.029770652 -0.040974855 -0.00049634004 0.004693753
0003a0 f9 1f 28 bd 78 0e af bc 5b cb 42 3c a8 b1 0c 3d
       -0.041046117 -0.021369204 0.011889304 0.034349114
0003b0 44 db 13 bc a6 55 87 3c 1f 5c 8a bc bb ab 15 bb
       -0.009024445 0.016520333 -0.01688963 -0.0022837955
0003c0 8d b3 90 bb 7d 05 03 bb bf 44 2d 3d 8f 8e 67 3c
       -0.0044159354 -0.0019992285 0.04230189 0.01413311
0003d0 96 29 1c 3d 7f 94 08 3c f4 e6 ae bc de ad fa 3c
       0.038125597 0.0083361855 -0.021350361 0.030600484
0003e0 20 f5 ff bc 23 af d2 39 f3 71 43 3d 8c e3 ee bb
       -0.031244814 0.00040184808 0.047716092 -0.0072903093
0003f0 b2 01 e6 bc 6d 89 ac bb 4d 19 20 3b ad c1 1e 3b
       -0.02807698 -0.005265406 0.0024429143 0.0024224326

layer5.0.bias f4 [64]
000000 23 03 34 3d 8f b4 f7 3c fe fc a3 3c 91 06 28 bc
       0.043948304 0.030237464 0.020018097 -0.010255472
000010 f0 ca 3c bc 4e cb 87 bc c7 dd bc 3c dc f6 20 bd
       -0.011522993 -0.016576435 0.02305497 -0.039297923
000020 e0 ee 50 3c df 92 bf 3c 4e f3 c3 3c 37 e1 1d 3d
       0.012752265 0.023385463 0.023919728 0.03854486
000030 45 e4 50 bb c9 9b 0f bc 14 2a 13 bc 30 62 83 bc
       -0.003187434 -0.008765169 -0.0089822 -0.01603803
000040 f2 ab 9c 3a 86 51 3c 3d 47 47 af 3c 95 64 ad bc
       0.0011953099 0.045976184 0.021396292 -0.021166125
000050 c7 e6 2d 3c 59 fe f9 b9 60 dd 05 bd 86 50 8f bb
       0.010614104 -0.00047682485 -0.032681823 -0.004373613
000060 8a 05 b6 bc d2 99 14 bd b9 4e 92 3c 2b b8 11 3d
       -0.022219438 -0.036279507 0.017859804 0.035576027
000070 0e 9e a5 3c 60 fc a2 3c a3 06 16 3b 7f 43 87 bc
       0.020216968 0.019895732 0.002289214 -0.016511677
000080 fa c0 24 bd 5c 21 07 bd 96 b7 35 3d c7 1a e4 3c
       -0.0402231 -0.0329908 0.044364534 0.0278448
000090 2d 30 cc 3a 00 3f e4 3b 40 17 f2 3c 77 6b 17 3d
       0.0015578322 0.006965518 0.029552102 0.03696772
0000a0 e1 02 2b bc f3 30 b9 bc 78 a2 1b 3d 89 eb 33 3c
       -0.010437698 -0.022606349 0.03799674 0.010981449
0000b0 22 de 9a 3c c6 af 3a bc 5e 21 99 3c 0c c7 e8 3c
       0.01890475 -0.011394447 0.018692669 0.028415225
0000c0 d3 0b d0 ba 1d 36 05 bd 3d 0c 1f bb 4a a7 45 bc
       -0.0015872665 -0.03252231 -0.002426877 -0.012063811
0000d0 1c fc f3 bc 1f 9c 0b bc 0b 2d 1c 3d 07 8f ef bc
       -0.029783301 -0.008521109 0.038128894 -0.029243005
0000e0 8f 08 28 3c 17 52 30 bd b9 a7 23 ba ae 3e 00 3d
       0.010255947 -0.043047037 -0.0006242949 0.031309776
0000f0 8f 90 6c bb 75 17 ef bc 34 2d 74 bc a0 a0 1d 3d
       -0.0036096906 -0.02918599 -0.014903355 0.038483262

layer5.1.weight f4 [64]
000000 37 57 81 3f be a5 81 3f 88 b1 82 3f 35 7b 81 3f
       1.0104741 1.0128706 1.0210428 1.0115725
000010 73 23 81 3f 87 e3 7f 3f d7 df 81 3f 32 ce 80 3f
       1.0088943 0.99956554 1.0146435 1.0062926
000020 38 f8 83 3f f9 72 7f 3f 3a af 7e 3f 53 00 82 3f
       1.0310125 0.9978481 0.99486125 1.0156349
000030 5f cc 80 3f 2a 70 80 3f c6 12 81 3f 92 1d 81 3f
       1.0062369 1.003423 1.0083854 1.0087149
000040 51 8f 7d 3f 1e ae 7e 3f bc 85 7b 3f d9 8c 7c 3f
       0.9904681 0.9948443 0.9825094 0.98652416
000050 7d a7 80 3f e9 09 80 3f 67 18 76 3f 9a a6 82 3f
       1.0051113 1.0003024 0.96130985 1.0207093
000060 b4 1a 80 3f 26 e8 82 3f b1 99 80 3f 02 32 82 3f
       1.0008149 1.0227096 1.0046903 1.0171511
000070 09 16 83 3f d7 d6 81 3f d1 fa 80 3f cf 36 81 3f
       1.02411 1.0143689 1.0076543 1.0094851
000080 3a a7 82 3f 19 2e 80 3f 25 89 83 3f 14 16 82 3f
       1.0207283 1.0014068 1.0276228 1.0162988
000090 eb 8c 79 3f 14 15 7f 3f 4c 70 80 3f fd b9 82 3f
       0.9748065 0.9964154 1.003427 1.0213009
0000a0 16 00 81 3f fe 87 80 3f 71 9c 7f 3f 42 b3 82 3f
       1.0078151 1.0041502 0.99848086 1.0210955
0000b0 2a 7d 80 3f 34 4b 80 3f bb af 7f 3f be b6 83 3f
       1.0038197 1.002295 0.9987752 1.0290143
0000c0 7f 8c 7a 3f 8f 90 7f 3f ea e6 81 3f 09 52 80 3f
       0.9787063 0.99829954 1.0148594 1.0025035
0000d0 69 a1 7d 3f 77 c5 84 3f fa 03 83 3f 6d f6 7e 3f
       0.9907442 1.0372761 1.0235589 0.99594766
0000e0 bb 95 7f 3f e4 11 84 3f 08 44 82 3f 9b cb 83 3f
       0.99837846 1.031796 1.0177011 1.029651
0000f0 61 3c 7f 3f e7 c6 7a 3f ae 6c 7c 3f 0b 56 81 3f
       0.99701506 0.9795975 0.9860333 1.0104383
