weights/total.pth (torch, 948044 bytes, 26 tensors)

layer1.0.weight f4 [16, 3, 3, 3]
0	0x3ccd7d88	0.025084272
1	0x3e196140	0.14978504
2	0x3e08496f	0.13309263
3	0x3d090323	0.033450257
4	0x3caa4cf4	0.020788647
5	0x3dec10b1	0.11526621
6	0x3d04e48d	0.032444526
7	0xbd2f1a3e	-0.042749636
8	0xbd37ecd6	-0.0449036
9	0xbdae7873	-0.085190676
10	0xbe3faca2	-0.18718198
11	0xbe3fdf44	-0.18737513
12	0x3d8cb0db	0.0686967
13	0x3d8bfafc	0.06834981
14	0xbe519a4a	-0.20469013
15	0x3caa2fd4	0.02077476
16	0x3e20ea80	0.15714455
17	0x3d6006d9	0.05469403
18	0x3e36301d	0.17791791
19	0x3e22dc28	0.15904295
20	0x3e2b4f63	0.16729502
21	0xbc67260d	-0.014108193
22	0xbdc56f04	-0.09640315
23	0x3db41c6c	0.087944835
24	0xbd920f2d	-0.07131801
25	0x3e17a2a3	0.14808135
26	0xbe287c99	-0.1645378
27	0x3e2b0335	0.16700442
28	0x3d1da507	0.03848746
29	0xbd76c9e1	-0.06025112
30	0x3df8b196	0.12143247
31	0xbc83eb09	-0.016103284
32	0x3e288458	0.16456735
33	0xbe01863b	-0.12648861
34	0x3e0479f8	0.12937152
35	0xbe0b07aa	-0.13577142
36	0xbdbd25ea	-0.09235747
37	0xbc03adce	-0.008037044
38	0xbe31a0a1	-0.17346431
39	0x3daecaef	0.085348
40	0x3da11e4f	0.07867109
41	0x3cd79db7	0.026320321
42	0xbbced558	-0.0063120537
43	0xbced96c7	-0.02900256
44	0x3c838f2b	0.016059479
45	0xbdd4c48e	-0.10389052
46	0x3e1b235f	0.15150212
47	0x3d08812e	0.03332632
48	0x3e0df0d9	0.13861407
49	0x3e2c9b9f	0.1685624
50	0x3c841dad	0.016127432
51	0x3de161a0	0.110049486
52	0x3e1947f7	0.14968859
53	0xbe082f97	-0.13299404
54	0xbd0443f3	-0.032291364
55	0x3e1ef134	0.15521699
56	0xbc0ca3c8	-0.00858397
57	0xbda57fe3	-0.08081033
58	0x3d8ac8a1	0.06776548
59	0xbd822735	-0.063551344
60	0xbdf654ae	-0.1202787
61	0xbd776ab3	-0.06040449
62	0x3c7133b0	0.014721796
63	0x3e32ba52	0.17453888
64	0x3ddee04e	0.108826265
65	0xbe1c3e50	-0.15258145
66	0x3bd959b7	0.0066330093
67	0x3bfd31f4	0.007726902
68	0x3c94d181	0.018166305
69	0xbd270b24	-0.04078211
70	0x3e4c1c0e	0.19932577
71	0xbd0f3c1e	-0.03496944
72	0xbd9beccb	-0.07613524
73	0xbe47d42c	-0.19514531
74	0xbe329926	-0.17441234
75	0x3e0c1fc0	0.13683987
76	0xbc3fbcff	-0.011702775
77	0x3d869d95	0.06573025
78	0x3e183c6e	0.14866802
79	0x3d2e5402	0.042560585
80	0x3dbcbdd7	0.092158966
81	0xbe031579	-0.1280116
82	0xbde251dd	-0.110507704
83	0xbe4285b2	-0.18996313
84	0xbd5df14f	-0.054185208
85	0x3da49a2b	0.08037218
86	0x3d22cdac	0.039746925
87	0x3dd1cd58	0.10244244
88	0xbdb3ae94	-0.087735325
89	0xbe0992c6	-0.13434896
90	0x3c0fa598	0.008767508
91	0xbdd9fc72	-0.10643853
92	0xbe0b773b	-0.13619702
93	0x3d15d5fb	0.03658102
94	0xbd1190cb	-0.035538476
95	0xbd6348a3	-0.055489194
96	0x3d8f7c9f	0.070061915
97	0xbddd720c	-0.10812768
98	0xbe062240	-0.13099003
99	0xbe182848	-0.14859116
100	0x3dfe0ae0	0.12404418
101	0x3e107194	0.14105827
102	0x3d8f4ffa	0.06997676
103	0x3cdb2b5d	0.026754076
104	0xbe22d743	-0.15902428
105	0x3d1aafe2	0.03776539
106	0xbd2da406	-0.042392753
107	0xbdbf4211	-0.09338773
108	0xbd8c8744	-0.06861737
109	0xbdd849dc	-0.105609626
110	0xbda4344f	-0.080177896
111	0x3b2127da	0.0024590404
112	0x3de80f8b	0.113310896
113	0xbddf9929	-0.10917885
114	0x3e00abd3	0.12565546
115	0x3dea49c3	0.1143985
116	0xbce4f8b7	-0.027950628
117	0xbe24a311	-0.1607783
118	0x3d0a8677	0.033819642
119	0x3de1e03e	0.11029099
120	0xbdd65240	-0.10464907
121	0xbca6c479	-0.020357357
122	0x3ddab4b2	0.10678996
123	0xbc98acea	-0.01863714
124	0x3ce74345	0.028230319
125	0x3c7a715c	0.015285816
126	0x3e2be1a7	0.16785298
127	0x3db45abe	0.0880637
128	0xbae9ba0c	-0.0017831936
129	0x3e05f46b	0.1308152
130	0xbe0efd42	-0.13963798
131	0xbde0dbd5	-0.1097943
132	0xbc08bcd2	-0.0083457995
133	0xbda8a848	-0.08235222
134	0xbc303443	-0.010754648
135	0x3d80ef69	0.06295664
136	0xbd3b04dc	-0.04565893
137	0xbdec166d	-0.11527715
138	0xbcf4f750	-0.029903084
139	0xbd3b4ca4	-0.045727387
140	0xbd9f0e07	-0.077663474
141	0x3d1f6388	0.03891328
142	0x3dec8251	0.115482934
143	0x3e3a0331	0.1816528
144	0xbe2f384f	-0.17111324
145	0xbdbdafe0	-0.09262061
146	0x3cbc55ae	0.022990074
147	0xb981ca46	-0.00024755503
148	0x3dc59f16	0.09649484
149	0x3dbf025b	0.09326621
150	0x3d99de21	0.07513071
151	0x3e2e16a2	0.17000821
152	0xbde3a839	-0.1111607
153	0xbd883fe9	-0.06652815
154	0xbd4d5f76	-0.050139867
155	0xbdac81f2	-0.084232226
156	0x3cfaedda	0.030630995
157	0xbe3d17ec	-0.18466157
158	0x3de5c27a	0.11218734
159	0xbd8d4af5	-0.068990625
160	0x3e1521cc	0.14563674
161	0x3d93f439	0.07224316
162	0x3d55b4d7	0.052174415
163	0xbe1bf6f6	-0.15230927
164	0xbe01a2a2	-0.12659696
165	0x3d039119	0.032120798
166	0xbcf0e8b9	-0.029407846
167	0x3d4a237b	0.049350243
168	0x3cdb10ab	0.026741346
169	0xbc42f995	-0.011900325
170	0xbe0ddba3	-0.13853316
171	0x3db87fef	0.090087764
172	0xbe09c50f	-0.13454078
173	0xbe1e206e	-0.15442058
174	0x3e24c815	0.1609195
175	0xbd9b89e0	-0.07594657
176	0x3e3bf0c3	0.18353562
177	0xbdeca76d	-0.115553714
178	0x3dbfa65b	0.09357902
179	0xbe3c65ac	-0.1839816
180	0x3e3dd087	0.18536578
181	0xbd0fd89a	-0.035118677
182	0x3c22d8af	0.009939357
183	0x3d84902c	0.06472811
184	0xbd7c777e	-0.061637394
185	0x3dce4054	0.10070863
186	0x3e08a16b	0.13342826
187	0xbe295c24	-0.16539055
188	0xbbf5d222	-0.0075018564
189	0xbd877149	-0.06613404
190	0x3ddad061	0.10684276
191	0x3e432cc7	0.1906005
192	0x3d8a075d	0.06739686
193	0x3e293701	0.16524889
194	0x3dd89b1c	0.1057646
195	0x3daec0d7	0.08532875
196	0xbd6ab7fe	-0.057304375
197	0x3bf18754	0.0073708687
198	0xbd247395	-0.04014929
199	0xbe310267	-0.17286073
200	0x3d9d6f85	0.07687286
201	0xbd49d388	-0.049273998
202	0x3ca91391	0.020639213
203	0xbcfb8dfa	-0.030707348
204	0xbd2d23b6	-0.042270385
205	0x3dd41fe1	0.10357643
206	0xbe010fbc	-0.12603658
207	0xbe3648c2	-0.17801192
208	0xbe1e7ec4	-0.15478045
209	0xbe47c247	-0.19507705
210	0x3dd05ff1	0.10174549
211	0xbd094d70	-0.033521116
212	0xbcd49864	-0.025951572
213	0x3d3fc588	0.04681924
214	0xbd8c9220	-0.06863809
215	0x3e0b7606	0.13619241
216	0x3e086f31	0.13323666
217	0x3d3c85a5	0.04602589
218	0x3d75543c	0.059894785
219	0xbc59b368	-0.013287403
220	0x3e381d1b	0.17979853
221	0x3e0c7e3d	0.13720031
222	0xbcaccb46	-0.021093022
223	0xbe117c11	-0.14207484
224	0x3e23baff	0.15989302
225	0x3dd84798	0.105605304
226	0xbe004507	-0.12526332
227	0x3c2edad9	0.010672295
228	0x3cb29ce2	0.021803323
229	0xbd1ad093	-0.037796568
230	0xbe007165	-0.12543257
231	0xbde33029	-0.1109317
232	0xbdba9fa3	-0.091124795
233	0x3e40b191	0.18817736
234	0xb99797f2	-0.00028914172
235	0xbd570e59	-0.052503917
236	0x3c609a82	0.0137087125
237	0x3e38ce56	0.18047461
238	0xbe254e44	-0.16143137
239	0xbd920c38	-0.07131237
240	0xbdf336b1	-0.11875666
241	0xbe09ae13	-0.1344531
242	0xbdc226a9	-0.0948003
243	0xbdc70ee9	-0.09719641
244	0xbe0fa6fc	-0.14028543
245	0xbd89049a	-0.06690331
246	0xbdf47d00	-0.11937904
247	0x3d34a3a0	0.044101357
248	0xbe0b86dd	-0.13625665
249	0xbdd26bca	-0.102744654
250	0xbe001dc9	-0.12511362
251	0x3d1a2aec	0.03763859
252	0xbdad2a95	-0.084553875
253	0x3dfe7e88	0.12426478
254	0x3d962f78	0.07333273
255	0x3e337442	0.17524818

layer1.0.bias f4 [16]
0	0xbd22d78c	-0.039756343
1	0xbd996ba3	-0.07491233
2	0xbd2a8183	-0.04162742
3	0x3e50c3c8	0.20387185
4	0x3d1dfb14	0.038569525
5	0xbd7ce13d	-0.06173824
6	0xbb824b44	-0.0039762575
7	0xbd3ad3c2	-0.045612104
8	0x3dfa3a5c	0.122181624
9	0xbdd3c10a	-0.10339554
10	0xbe00978a	-0.12557808
11	0x3e0fbaec	0.14036149
12	0xbe49a584	-0.19692045
13	0x3d0ca3d3	0.034335922
14	0xbd35afa9	-0.044356976
15	0xbd1d831a	-0.038455106

layer1.1.weight f4 [16]
0	0x3f81e3bb	1.0147623
1	0x3f7f2a9f	0.9967441
2	0x3f80c83d	1.0061108
3	0x3f7e9ac7	0.9945492
4	0x3f7dcf0b	0.9914405
5	0x3f82907e	1.0200346
6	0x3f824f49	1.0180446
7	0x3f813b91	1.0096303
8	0x3f7ba455	0.98297626
9	0x3f80d95f	1.0066336
10	0x3f80557f	1.0026091
11	0x3f7fc2b8	0.9990649
12	0x3f7cb544	0.9871409
13	0x3f7bdb7e	0.98381793
14	0x3f7e2d74	0.99288106
15	0x3f7e4789	0.99327904

layer1.1.bias f4 [16]
0	0xbd252f4d	-0.040328313
1	0xbcac2a22	-0.021016184
2	0xbb94687e	-0.004529058
3	0xbcba3cc1	-0.022734048
4	0xbc9a8034	-0.01885996
5	0x3c93bd96	0.018034738
6	0x3cbbed46	0.02294029
7	0x3ca8cf81	0.020606758
8	0xbc4f24cc	-0.01264305
9	0xbc4393bf	-0.011937081
10	0xbc5e5503	-0.013570073
11	0x3b9dca0f	0.004815347
12	0xbc394fa2	-0.01131049
13	0xbd1f1c64	-0.038845435
14	0xbbe50bd4	-0.0069899354
15	0xbc0bdef1	-0.00853704

layer2.0.weight f4 [16, 16, 3, 3]
0	0xbd8d08bc	-0.068864316
1	0xbd479b0b	-0.048731845
2	0x3d96afd6	0.07357757
3	0x3d1cfded	0.0383281
4	0x3ccbf8cc	0.024898909
5	0xbcced6ad	-0.02524885
6	0xbd6921aa	-0.05691687
7	0xbbeffdd7	-0.0073239612
8	0x3cdcf2ba	0.02697121
9	0xbcdb9017	-0.026802106
10	0x3d832821	0.06404138
11	0x3d9fda1e	0.078052744
12	0xbd9a7ef8	-0.075437486
13	0xbaffae02	-0.0019506814
14	0xbc7e719a	-0.015530014
15	0x3d0bd594	0.03413923
16	0xbd5a0ef2	-0.05323691
17	0x3c929a62	0.017895881
18	0xbc4ffd91	-0.012694732
19	0xbb5a8e80	-0.0033349097
20	0x3cdd0378	0.026979193
21	0x3a88be42	0.0010432678
22	0x3dba7d6a	0.09105952
23	0xbda2c3b4	-0.07947484
24	0xbca87640	-0.020564198
25	0x3d0f71c4	0.035020605
26	0xbc83d50a	-0.016092796
27	0x3d9807e8	0.07423383
28	0x3d83768e	0.06419097
29	0x3da5a4f0	0.080881
30	0xbc7fb225	-0.015606438
31	0xbce03704	-0.027369983
32	0x3db80f72	0.08987321
33	0x3d492757	0.049109783
34	0xbd87e927	-0.06636267
35	0x3c955527	0.01822908
36	0xbd8e7c74	-0.06957331
37	0xbb0c4cc8	-0.002140807
38	0x3d93d17e	0.07217692
39	0xbd446070	-0.047943532
40	0x3daaff14	0.083494335
41	0x3d93fc43	0.072258495
42	0x3c27642f	0.010216757
43	0xbd276234	-0.04086514
44	0xba88134b	-0.0010381726
45	0xbdd095ff	-0.101848595
46	0xbcb78bdf	-0.022405563
47	0x3d61846e	0.055057935
48	0x3d56884d	0.05237608
49	0xbd8f4ebc	-0.06997439
50	0xbcfcf5d9	-0.030878948
51	0x3c277620	0.010221034
52	0x3ccc5379	0.024942147
53	0xbd87985d	-0.06620858
54	0xbb8b2e6d	-0.0042474777
55	0xbd374827	-0.044746544
56	0xbc7280d8	-0.014801227
57	0xbda942d3	-0.08264699
58	0x3b9d1645	0.0047939145
59	0x3c9234a6	0.01784737
60	0xbda14ba7	-0.07875758
61	0xbd53635b	-0.051608425
62	0x3d11755c	0.035512313
63	0x3d61462a	0.054998554
64	0xbd8da896	-0.06916921
65	0x3b108a55	0.0022055109
66	0x3c81f179	0.015862213
67	0xbe04e0c2	-0.12976363
68	0x3d3c4e6c	0.045973226
69	0xbc4b8687	-0.012422211
70	0xbdccdc3f	-0.10002946
71	0xbd9276cd	-0.07151566
72	0xbd7677e4	-0.06017293
73	0xbcbd8b61	-0.02313775
74	0x3bab4db6	0.0052277697
75	0x3c7e9c57	0.015540204
76	0x3d66270d	0.056189585
77	0x3d4aa2d9	0.04947171
78	0x3cb18a18	0.021672294
79	0xbd9bb52e	-0.07602917
80	0xbbff1e10	-0.007785566
81	0xbcad8e93	-0.021186149
82	0x3d8d0e0d	0.068874456
83	0x3dacb55c	0.08433029
84	0x3d3b2196	0.045686327
85	0xbc869784	-0.01642967
86	0xbd54f1c9	-0.051988397
87	0x3dd139e7	0.10216122
88	0xbd648004	-0.055786148
89	0xbb8a38cf	-0.004218198
90	0x3cd638eb	0.026150187
91	0x3d4f686b	0.05063669
92	0x3d636556	0.055516563
93	0xb9213285	-0.00015372976
94	0x3d88c606	0.06678395
95	0xbd3d6844	-0.046242014
96	0xbd7abffd	-0.06121825
97	0xbcffd335	-0.031228641
98	0x3cef39ea	0.02920242
99	0x3d8db676	0.06919567
100	0x3c6afc49	0.014342376
101	0x3d638d05	0.05555441
102	0x3bad624d	0.0052912594
103	0xbd81f528	-0.06345588
104	0xbbc99297	-0.006151508
105	0xbd1424d4	-0.036167935
106	0xbda16b33	-0.07881775
107	0xbaf84a6f	-0.0018943081
108	0xbd45a54f	-0.048253354
109	0xbd42b35c	-0.04753433
110	0xbd874a17	-0.066059284
111	0xbc5bfa9f	-0.013426452
112	0xbd9695ef	-0.07352816
113	0xbc8c7ffc	-0.017150871
114	0x3d43cbf8	0.04780194
115	0xbd47d27c	-0.048784718
116	0x3d81deb2	0.06341304
117	0x3d4776a6	0.048697136
118	0x3ca51c0d	0.020154977
119	0xbd63851d	-0.05554687
120	0xbd39e009	-0.045379672
121	0x3d819351	0.063269265
122	0xbcc1dffd	-0.023666376
123	0xbd15b029	-0.036544953
124	0xbd2b4cfd	-0.04182147
125	0xbd6136c5	-0.054983873
126	0xbd73ed69	-0.059552584
127	0x3bf82773	0.007573062
128	0x3d5eddc7	0.054410722
129	0xbdad5003	-0.08462527
130	0x3c809cd6	0.015699785
131	0xbbc0ebb8	-0.005887475
132	0xbd29cb95	-0.041453917
133	0xbd6c0113	-0.057618212
134	0x3b93f24c	0.004514968
135	0xbd7418c9	-0.05959395
136	0x3db3d5ae	0.087809905
137	0x3d71ffe8	0.05908194
138	0xbd9f10ec	-0.077668995
139	0x3d041c4c	0.03225355
140	0xbac717d3	-0.0015189595
141	0xbd5cf12b	-0.053940933
142	0xbd8481fb	-0.06470104
143	0xbd0df35f	-0.034655925
144	0xbd9e09ce	-0.07716714
145	0x3db66b80	0.08907223
146	0xbc9f9398	-0.019479558
147	0xbccf95d3	-0.025339996
148	0xbcda265c	-0.02662962
149	0x3d2ff162	0.04295481
150	0xbd5d62fe	-0.054049484
151	0xbbeedee3	-0.0072897538
152	0xbd0a0a41	-0.033701185
153	0x3d01d79f	0.031699773
154	0xbcb01646	-0.021494996
155	0x3d74ee29	0.05979744
156	0xbd81961f	-0.063274615
157	0xbc80c960	-0.015721023
158	0x3d30df5c	0.043181762
159	0xbda84319	-0.08215923
160	0xbd0b1c9e	-0.03396284
161	0x3d3a7254	0.045519188
162	0x3c159685	0.009130125
163	0xbd7cbb85	-0.06170227
164	0x3da0a4e8	0.07843953
165	0x3c9b27c5	0.018939862
166	0xbd79f71a	-0.06102667
167	0xbd0528fe	-0.032509796
168	0xbd486c08	-0.04893115
169	0x3d3c5c7e	0.045986645
170	0xbc5b6cc4	-0.013392631
171	0x3d77458e	0.060369067
172	0x3d5bd452	0.05366928
173	0xbba166fe	-0.0049256077
174	0x3d6aa337	0.05728456
175	0xbbb6f02b	-0.0055828295
176	0x3d08c80f	0.033393916
177	0x3d9a0f8a	0.07522495
178	0xbc524f95	-0.012836357
179	0xbd3578de	-0.04430472
180	0xbc8722a6	-0.016496014
181	0x3ad4b00a	0.001622678
182	0xbda70b52	-0.08156456
183	0x3d08ef24	0.033431187
184	0x3d1465a7	0.036229756
185	0x3dba47f9	0.09095759
186	0x3d65a50a	0.056065597
187	0xbd81959d	-0.063273646
188	0xbd97fe21	-0.07421518
189	0xbd9ddb8f	-0.07707893
190	0x3bac5223	0.005258815
191	0x3cbc33f9	0.022974001
192	0x3d1806e4	0.037115946
193	0x3d478365	0.048709292
194	0xbcfab51f	-0.030603943
195	0xbca5e4c1	-0.02025068
196	0xba1f17d0	-0.0006068917
197	0xbcde4c9d	-0.027136141
198	0x3cc10ab6	0.023564678
199	0x3d7fc100	0.06243992
200	0xbca9694e	-0.020680096
201	0xbda2b7e4	-0.079452306
202	0xbd2a26e7	-0.041541006
203	0x3cef78fe	0.029232498
204	0x3c173cc4	0.009230796
205	0x3d88acd0	0.06673586
206	0xbd89688b	-0.06709393
207	0xbc92116e	-0.017830577
208	0x3d2992ca	0.041399755
209	0x3c76021b	0.01501515
210	0xbd9d3a27	-0.07677107
211	0xbdc5c958	-0.09657544
212	0xbca7af9a	-0.020469476
213	0xbd3ff3b1	-0.04686326
214	0xbd1dc73c	-0.038520083
215	0xbdb5aff4	-0.08871451
216	0xbaa73579	-0.0012757025
217	0x3d75cc17	0.06000909
218	0x3bc7d970	0.0060989186
219	0x3b9ee6f3	0.0048493086
220	0xbdbcae52	-0.092129365
221	0x3d83b725	0.064314164
222	0x3d2ffa8a	0.042963542
223	0xbd0aa8bd	-0.033852328
224	0xbda5ff0f	-0.08105289
225	0x3dd26a60	0.10274196
226	0xbd5fde01	-0.05465508
227	0x3d5be013	0.05368049
228	0x3ddc3d82	0.10753919
229	0x3d03ccc8	0.032177716
230	0xbd1d2616	-0.0383664
231	0x3dc720bd	0.09723041
232	0x3d35e1d9	0.04440484
233	0xbd65c449	-0.056095395
234	0x3c9d357d	0.019190544
235	0x3d9168b6	0.0710005
236	0x3d5a8ab5	0.053354938
237	0x3d25e09c	0.040497407
238	0x3d87efd8	0.066375434
239	0x3da162b6	0.07880156
240	0xbd99efea	-0.07516463
241	0x3d1b021a	0.0378438
242	0xbd40d9e5	-0.0470828
243	0x3d37ef71	0.044906083
244	0x3d297c80	0.041378498
245	0xbc958ed8	-0.01825659
246	0x3c9bf0da	0.019035745
247	0xbdb0191e	-0.08598541
248	0x3d10c5ac	0.035344765
249	0x3d376bd9	0.044780586
250	0xbdbc50cb	-0.091950975
251	0xbd9f189b	-0.07768365
252	0x3d8514a2	0.06498076
253	0x3c133b0e	0.008986248
254	0x3d2f6172	0.04281754
255	0x3d805b7d	0.0626745

layer2.0.bias f4 [16]
0	0xbd022b00	-0.03177929
1	0x3d37b6af	0.044851955
2	0xbd49daa5	-0.04928078
3	0x3ccc2219	0.024918603
4	0x3aeb7423	0.0017963689
5	0xbd7c227f	-0.061556336
6	0xbd4bb811	-0.049736086
7	0x3d34f7e6	0.044181727
8	0x3aa4a468	0.0012561204
9	0x3d189c8b	0.037258666
10	0x3d3d0881	0.046150688
11	0xbd848b3f	-0.064718716
12	0xbd885061	-0.06655956
13	0xbd428d92	-0.047498293
14	0xbd51ef9d	-0.051253904
15	0xbd8b6d2f	-0.068079345

layer2.1.weight f4 [16]
0	0x3f80c108	1.0058908
1	0x3f812245	1.0088583
2	0x3f817448	1.0113611
3	0x3f82ddad	1.02239
4	0x3f7b2b43	0.9811289
5	0x3f7c529f	0.9856357
6	0x3f7fa9d2	0.998685
7	0x3f816136	1.0107791
8	0x3f80ec2f	1.0072078
9	0x3f733655	0.9500478
10	0x3f7d634a	0.9897963
11	0x3f7ce4f2	0.9878684
12	0x3f8236df	1.0172995
13	0x3f80d3bd	1.0064617
14	0x3f7e7ab9	0.9940601
15	0x3f810c9f	1.0081977

layer2.1.bias f4 [16]
0	0xbb344699	-0.00275079
1	0xbc9d0c7e	-0.019170996
2	0xbca7b19a	-0.02047043
3	0xbbfb5238	-0.0076697133
4	0xbc612f4b	-0.013744186
5	0xbc78af65	-0.015178536
6	0xbc84819b	-0.016175082
7	0xbc70d8df	-0.014700144
8	0xbccb9f51	-0.024856241
9	0xbd02ff5a	-0.031981803
10	0xbcb026a9	-0.02150281
11	0xbbed8977	-0.007249053
12	0xbc4e9fdd	-0.012611357
13	0xbc0d63c6	-0.008629745
14	0xbc0bf932	-0.0085432995
15	0xbca1e6bb	-0.019763341

layer3.0.weight f4 [64, 16, 3, 3]
0	0xbd85399c	-0.06505129
1	0x3d0d0242	0.03442598
2	0x3d2a4ae8	0.041575342
3	0xbd4773d9	-0.048694465
4	0x3d86673d	0.0656266
5	0xbc014107	-0.007889039
6	0x3d76f18a	0.060288943
7	0x3b39430d	0.0028268725
8	0x3da60e1e	0.081081614
9	0x3d8b7306	0.06809048
10	0xbd757236	-0.059923373
11	0xbba79f53	-0.0051154285
12	0xbd7abc76	-0.061214887
13	0xbd36a8fb	-0.044594746
14	0x3c096dc6	0.008387988
15	0xbd449502	-0.047993667
16	0x3da673b4	0.08127537
17	0xbce0d682	-0.027446035
18	0xbd022710	-0.031775534
19	0xbd54f6d2	-0.0519932
20	0xbc29bfc5	-0.010360663
21	0x3cb2ee37	0.021842105
22	0x3c937856	0.018001717
23	0x3d849d73	0.064753436
24	0x3d64b5d8	0.055837482
25	0x3dab8053	0.08374085
26	0x3d488719	0.048956964
27	0x3dbcadba	0.09212823
28	0x3da68b1f	0.08132004
29	0xbdbeb4d9	-0.09311838
30	0xbba9d302	-0.005182625
31	0x3dabb2a0	0.083836794
32	0x3c9b4e0e	0.018958118
33	0x3d44a9c1	0.048013452
34	0xbc87c5c2	-0.01657379
35	0x3c50cc44	0.012744013
36	0x3d3c9e79	0.04604957
37	0xbdac21e3	-0.08404901
38	0xbd1cb5c8	-0.038259298
39	0x3d682c6c	0.05668299
40	0xbc7e2929	-0.015512743
41	0xbd90065b	-0.07032462
42	0x3c0db0c6	0.008648103
43	0xbd9ceece	-0.07662736
44	0xbd8f81c6	-0.07007174
45	0xbdc37cd9	-0.09545297
46	0xbdb734c9	-0.08945615
47	0x3d834cd6	0.0641114
48	0xbcad3633	-0.021144008
49	0xbd17111d	-0.036881555
50	0xbd952f18	-0.07284373
51	0x3b388b7e	0.0028159316
52	0x3c366903	0.011133435
53	0x3d8de999	0.06929321
54	0x3d269b38	0.040675372
55	0x3d48744c	0.048939034
56	0x3a8f1bd1	0.0010918324
57	0xbd7480c4	-0.059693113
58	0x3c910be7	0.01770587
59	0x3da123ee	0.07868181
60	0xbd931dc0	-0.07183409
61	0x3d844b4f	0.064596765
62	0xbd8ceb83	-0.06880858
63	0x3d3a2d2d	0.04545324
64	0x3d94104a	0.072296694
65	0xbd9f6ccc	-0.07784423
66	0xbd4ba514	-0.049717978
67	0xbc818f98	-0.015815541
68	0x3cb6fc91	0.02233723
69	0x3d58f805	0.052970905
70	0x3d229fbb	0.039703112
71	0x3cab4b82	0.020910028
72	0xbcba87f6	-0.02276991
73	0xbb3d6cd2	-0.0028903973
74	0x3d1dc0e7	0.038514044
75	0x3b308cfb	0.00269395
76	0xbd9e1a1c	-0.07719824
77	0x3cbf453d	0.023348445
78	0xbd3248dc	-0.043526515
79	0xbd0479e5	-0.03234281
80	0x3ca411a4	0.020027943
81	0x3d22422f	0.0396139
82	0xbb670e6a	-0.0035256394
83	0x3d274f0c	0.04084687
84	0xbcb4f4b4	-0.02208934
85	0xbcd93ed0	-0.02651921
86	0xbd51901c	-0.051162824
87	0xbc143bfd	-0.009047505
88	0x3d2d6c74	0.042339757
89	0x3d2cf3e2	0.042224772
90	0xbd66e2c9	-0.056368623
91	0x3ceaf3cf	0.02868071
92	0xbd8df8bc	-0.06932208
93	0xbd885ffc	-0.066589326
94	0xbd829b69	-0.063772984
95	0x3d65040f	0.055912074
96	0xbd3a5b8e	-0.04549747
97	0xbd920dac	-0.07131514
98	0x3d35bcf9	0.04436967
99	0x3be059f5	0.006846661
100	0xbc42dbc7	-0.011893219
101	0x3d1250c2	0.035721548
102	0xbceb8ead	-0.028754557
103	0x3d7db6b2	0.06194181
104	0x3d269575	0.040669877
105	0xbd65683b	-0.056007605
106	0xbd22252b	-0.039586227
107	0xbcb48b83	-0.02203918
108	0x3d481c51	0.04885513
109	0xbd867a37	-0.065662794
110	0xbcad69e6	-0.02116866
111	0xbcf72ab4	-0.03017173
112	0x3c88eda5	0.01671488
113	0x3dc47f1e	0.09594558
114	0x3c4f0714	0.012635965
115	0xbbaf64dd	-0.0053526
116	0xbd85d783	-0.06535246
117	0xbced6f4d	-0.028983736
118	0x3d84329d	0.06454966
119	0x3dfc98f4	0.12333861
120	0xbbef63a6	-0.00730558
121	0xbc7b2ad2	-0.015330033
122	0xbcae7535	-0.021296123
123	0xbd1f43a4	-0.038882867
124	0x3d44b3a5	0.048022885
125	0x3d84af0c	0.064787
126	0x3d788985	0.060678024
127	0x3d7acfa4	0.061233178
128	0x3d82b99a	0.06383057
129	0x3c6504d7	0.013978205
130	0x3cd3ad09	0.025839346
131	0xbcb088fb	-0.021549692
132	0xbd3ea41d	-0.04654323
133	0xbda242ba	-0.07922883
134	0xbdc979fb	-0.09837719
135	0x3da07247	0.07834297
136	0x3d0acd73	0.033887338
137	0x3d3bf8a3	0.045891415
138	0x3db434fa	0.08799167
139	0x3bf0a9a0	0.0073444396
140	0xbcecddd6	-0.028914373
141	0xbd671fc7	-0.05642679
142	0xbda1120c	-0.0786477
143	0xbd34ee8c	-0.04417281
144	0x3d892214	0.06695953
145	0xbd361a77	-0.044458833
146	0xbd71486d	-0.05890696
147	0xbd380132	-0.044923015
148	0x3d7b71fb	0.061387997
149	0xbd2fa516	-0.042882048
150	0xbd12b1aa	-0.035813965
151	0xbd672163	-0.056428324
152	0x3c946b6c	0.018117629
153	0x3bc51a87	0.006015125
154	0x3d6400c4	0.055664793
155	0x3dacf4e9	0.084451504
156	0x3c01ec8c	0.007929932
157	0xbc848dae	-0.01618084
158	0xbd9744c1	-0.07386161
159	0xbd160ad5	-0.036631424
160	0xbd10fbb2	-0.035396285
161	0xbd75da7b	-0.060022812
162	0xbd9bd7c1	-0.07609511
163	0xbdb9267c	-0.090405434
164	0xbdd21bed	-0.10259233
165	0x3d72b66c	0.059256002
166	0xbd80cd0e	-0.06289111
167	0xbd0bf39a	-0.034167863
168	0xbd874330	-0.06604612
169	0x3da68d44	0.08132413
170	0x3d0d205b	0.034454685
171	0x3d97798d	0.07396231
172	0x3de4ec6c	0.111779064
173	0xba4dc4c1	-0.0007849448
174	0x3d43ffba	0.0478513
175	0x3ce41aba	0.027844775
176	0x3d41d8dd	0.047325958
177	0xbd0eb4b1	-0.03484029
178	0xbd9eefd4	-0.07760587
179	0xbd97c16e	-0.07409941
180	0x3dae50f9	0.08511538
181	0x3d82d453	0.06388154
182	0xbd5a3246	-0.0532706
183	0x3d1882ac	0.037233993
184	0xbcc2571a	-0.023723174
185	0xbd9b4a5d	-0.07582543
186	0xbd34ae2d	-0.04411142
187	0xbcda3820	-0.02663809
188	0x3d474901	0.048653606
189	0x3cba990d	0.022778058
190	0x3ce471b2	0.027886245
191	0xbc6373a3	-0.01388255
192	0xbcba4dca	-0.02274217
193	0xbc826c8a	-0.015920896
194	0x3d2c958e	0.042134814
195	0xbd5d2246	-0.053987764
196	0xbd203fd3	-0.039123368
197	0xba43082e	-0.00074398785
198	0x3c8e9e82	0.017409567
199	0x3daeca45	0.085346736
200	0x3d289e83	0.041166794
201	0x3b8e5d68	0.004344631
202	0xbd87d809	-0.06633002
203	0xbc912c70	-0.017721385
204	0x3d89360a	0.0669976
205	0xbd1eca5a	-0.038767196
206	0xbd5d9166	-0.05409374
207	0xbd87fb64	-0.06639746
208	0x3dd6221c	0.104557246
209	0xbc6d87e8	-0.014497735
210	0x3cf22996	0.029560845
211	0xbce777f6	-0.028255444
212	0x3cb1044f	0.0216085
213	0xbcdf128b	-0.027230522
214	0xbcd7fcc8	-0.026365653
215	0xbad3ed83	-0.0016168806
216	0xbd46d9b3	-0.048547458
217	0x3c4435f7	0.011975757
218	0x3d96c864	0.0736244
219	0x3cc402ce	0.023927119
220	0x3cf9ddcd	0.03050127
221	0x3d8b2f40	0.067961216
222	0x3d57bb31	0.052668754
223	0x3c9cfa09	0.019162195
224	0xbd3dd12f	-0.04634207
225	0x3d2c161a	0.042013265
226	0x3d6151dc	0.055009708
227	0x3d028dab	0.031873386
228	0x3d1c14ab	0.038105648
229	0xbd32428e	-0.043520503
230	0x3d6a4815	0.05719765
231	0xbc86ad49	-0.01644005
232	0xbd8d761b	-0.069072925
233	0x3d3aaa87	0.045572784
234	0xbd3d8c91	-0.046276633
235	0x3cf4346c	0.029810153
236	0xbcd5786f	-0.026058404
237	0x3cd0bf5c	0.025481872
238	0xbd0965ed	-0.03354447
239	0x3c6f2a63	0.014597508
240	0x3d9c06f2	0.07618512
241	0xbd1d79b1	-0.038446132
242	0x3d57974b	0.05263452
243	0xbcb36032	-0.021896455
244	0xbd2e7d92	-0.042600222
245	0x3db0ce42	0.086330906
246	0xbd93136e	-0.0718144
247	0xbd73e4b7	-0.05954429
248	0xbced58c3	-0.028972989
249	0xbceb7dd9	-0.028746532
250	0xbcdbf57f	-0.02685046
251	0xbd224732	-0.03961868
252	0xbc90af2b	-0.017661652
253	0x3d73119b	0.05934296
254	0x3d4638b2	0.048393913
255	0x3cbc525b	0.022988489

layer3.0.bias f4 [64]
0	0x3d846476	0.06464474
1	0x3c8c051d	0.017092282
2	0x3da71b5f	0.081595175
3	0xbd8a0f50	-0.06741202
4	0x3c0f6bcf	0.008753731
5	0x3cec7d74	0.028868414
6	0xbca08f4b	-0.019599577
7	0x3d3ff32b	0.046862762
8	0x3d433f1e	0.047667615
9	0xbc26e169	-0.010185578
10	0x3d1f4ecd	0.03889351
11	0x3c6e4ab0	0.014544174
12	0x3d9f1144	0.07766965
13	0xbc8e1f5b	-0.017348936
14	0x3b9cd537	0.0047861594
15	0xbcb5bbee	-0.022184338
16	0xbd3493d4	-0.044086292
17	0xbc616f0f	-0.013759389
18	0xbd72bb3e	-0.0592606
19	0xbd76bb7b	-0.06023739
20	0xbca3ec69	-0.02001019
21	0x3d362951	0.044472996
22	0x3cd4df96	0.02598552
23	0xbc885325	-0.016641209
24	0xbd7dbe75	-0.061949212
25	0xbcfe4ddc	-0.031042986
26	0xbcf73033	-0.03017435
27	0xbd396c44	-0.045269266
28	0xbd840a0f	-0.06447231
29	0xbc9e0786	-0.019290697
30	0x3d30c55c	0.043156967
31	0xbdaac43d	-0.08338211
32	0x3d817796	0.06321637
33	0x3cafba0b	0.021451017
34	0x3d67f898	0.05663356
35	0xbd2a89f0	-0.041635454
36	0x3d593b42	0.05303503
37	0xbcdcdf04	-0.02696181
38	0xbc96dec4	-0.01841677
39	0xbd14a33e	-0.036288492
40	0x3da55d11	0.08074392
41	0xbd3163fd	-0.043308247
42	0x3d087d49	0.033322606
43	0x3d8b4510	0.06800282
44	0xbc96f92c	-0.018429361
45	0x3d4c5a84	0.04989101
46	0xbce489b1	-0.027897688
47	0x3c8840d6	0.016632479
48	0xbd857f92	-0.06518473
49	0xbd83585d	-0.06413338
50	0xbd8a585e	-0.06755136
51	0x3cc7afc8	0.024375811
52	0xbcf151d1	-0.029457958
53	0x3cb21049	0.021736281
54	0xbd84df9c	-0.064879626
55	0xbdc369b3	-0.09541645
56	0x3cd338f3	0.025783991
57	0xbd9e5813	-0.077316426
58	0xbd83a4d2	-0.06427921
59	0xbd178b8f	-0.036998328
60	0x3c9457c6	0.01810826
61	0xbc87f7f0	-0.016597718
62	0x3cbbd45a	0.022928406
63	0xba7ac7a8	-0.0009566494

layer3.1.weight f4 [64]
0	0x3f8017d8	1.0007277
1	0x3f7f656c	0.9976413
2	0x3f7cade1	0.9870282
3	0x3f806047	1.0029382
4	0x3f7dc41a	0.9912735
5	0x3f76f19a	0.96462405
6	0x3f7e35fe	0.99301136
7	0x3f7faa50	0.9986925
8	0x3f7b5f7b	0.98192567
9	0x3f7fb773	0.99889296
10	0x3f7e7629	0.9939905
11	0x3f8174b8	1.0113745
12	0x3f8235ae	1.0172632
13	0x3f84df75	1.0380694
14	0x3f807eab	1.0038656
15	0x3f80ac3c	1.0052562
16	0x3f7b54db	0.98176354
17	0x3f7bc2e3	0.9834425
18	0x3f8113ea	1.0084202
19	0x3f8007f8	1.0002432
20	0x3f80ace6	1.0052764
21	0x3f7b7771	0.9822913
22	0x3f777e3a	0.9667698
23	0x3f7e80a9	0.9941507
24	0x3f7f0f17	0.996324
25	0x3f80b073	1.0053848
26	0x3f7e18af	0.99256414
27	0x3f7d9f6b	0.9907138
28	0x3f812786	1.0090187
29	0x3f815189	1.0103008
30	0x3f819fc9	1.0126888
31	0x3f82a023	1.020512
32	0x3f7f33a2	0.9968816
33	0x3f7e305b	0.99292535
34	0x3f7f8c39	0.9982334
35	0x3f7c8331	0.9863768
36	0x3f850ed0	1.0395145
37	0x3f7fee9b	0.9997346
38	0x3f7e769b	0.9939973
39	0x3f7bad79	0.98311573
40	0x3f848d7b	1.0355676
41	0x3f7f9bdf	0.99847215
42	0x3f832e98	1.0248594
43	0x3f8465d4	1.0343575
44	0x3f7ecbe5	0.9952987
45	0x3f811c6c	1.0086799
46	0x3f7b292e	0.9810971
47	0x3f7c8d3c	0.98653007
48	0x3f820d11	1.0160238
49	0x3f7d1a09	0.9886785
50	0x3f8003ed	1.0001198
51	0x3f80af57	1.005351
52	0x3f82c006	1.0214851
53	0x3f826779	1.0187827
54	0x3f821da4	1.0165296
55	0x3f80e183	1.0068821
56	0x3f80bc4b	1.0057462
57	0x3f814e37	1.0101994
58	0x3f7da6ca	0.99082625
59	0x3f7e6e4a	0.9938704
60	0x3f7fbd3d	0.9989813
61	0x3f8263b4	1.0186677
62	0x3f84aba4	1.036488
63	0x3f7cb2fa	0.98710597

layer3.1.bias f4 [64]
0	0xbc3b12de	-0.0114180725
1	0xbc53a166	-0.012916898
2	0xbc54b8ca	-0.01298351
3	0xbc27259a	-0.010201836
4	0xbc1c32fb	-0.009533639
5	0xbc88ea30	-0.016713232
6	0xbc1424af	-0.009041949
7	0xbbb80146	-0.005615386
8	0xbcdc3758	-0.026881859
9	0xbd0d8b96	-0.034556948
10	0xbbe191fc	-0.006883858
11	0xbba6e7f1	-0.0050935675
12	0xbb902837	-0.0043993252
13	0xbcab4934	-0.02090893
14	0x3b65d54f	0.0035069769
15	0xbc41d579	-0.011830681
16	0xbd06021f	-0.032716867
17	0xbc8a7d1e	-0.016905364
18	0xbc9fffba	-0.01953112
19	0xbc800e59	-0.015631841
20	0x3934a4eb	0.00017227574
21	0xbccba91b	-0.02486091
22	0xbd0d54e5	-0.03450479
23	0xbca62734	-0.020282365
24	0xbc2a3ba1	-0.010390193
25	0xbb5bc10a	-0.0033531808
26	0xbd0c67d8	-0.03427872
27	0xbc4f4a66	-0.012652015
28	0x3bf6abd8	0.0075278096
29	0xbbf7dd31	-0.00756421
30	0xbc33af9c	-0.0109671615
31	0xbcbc5276	-0.02298854
32	0xbc975a9c	-0.018475823
33	0xbc823d63	-0.015898412
34	0xbc65a32b	-0.014015953
35	0xbc8df175	-0.01732705
36	0x3c3256c5	0.010884945
37	0xbbd0601e	-0.0063591143
38	0xbc35a87f	-0.011087536
39	0xbc9b7314	-0.018975772
40	0xba6ce39d	-0.00090366026
41	0xbb940de6	-0.0045182584
42	0xbc1abbeb	-0.009444217
43	0xbc57ab6a	-0.013163427
44	0xbad59944	-0.0016296287
45	0x3b42845f	0.002968095
46	0xbc855b76	-0.016278964
47	0xbcd1ed01	-0.025625708
48	0xbb887caa	-0.0041652517
49	0xbc861356	-0.016366642
50	0xbc4fa783	-0.012674215
51	0xbc60af09	-0.013713607
52	0x3c0927e9	0.008371332
53	0xbc10ae11	-0.008830563
54	0xb695215a	-4.4444287e-06
55	0xb9ea2f0e	-0.00044667016
56	0xbb96c921	-0.004601613
57	0xbc679e19	-0.0141368145
58	0xbcb30060	-0.021850765
59	0xbc55e3b2	-0.013054775
60	0xbc7baf35	-0.015361597
61	0x3b210e85	0.0024575305
62	0xbc7f3649	-0.015576907
63	0xbc1f1466	-0.009709453

layer4.0.weight f4 [64, 64, 3, 3]
0	0xbc112ab3	-0.008860278
1	0x3d8b3fff	0.06799316
2	0x3d5fb517	0.05461606
3	0x3cfad635	0.03061972
4	0x3c886a22	0.01665217
5	0x3aa8ca5a	0.0012877688
6	0x3c88d48f	0.016702918
7	0xbbd8c422	-0.0066151777
8	0x3c52331c	0.012829568
9	0xbc9b9836	-0.018993478
10	0x3d39f1de	0.04539668
11	0xbc1b437c	-0.009476539
12	0x3a175a9d	0.00057736953
13	0xbcfb71dc	-0.03069394
14	0xbccf7f4c	-0.025329255
15	0x3cc96ad5	0.024587074
16	0xbcefd01d	-0.02927404
17	0xbd53f6a8	-0.0517489
18	0x3cac3f0b	0.021026155
19	0xbce48d89	-0.02789952
20	0xbc589984	-0.013220195
21	0xbd0443e4	-0.032291308
22	0x3bcda50e	0.0062757796
23	0x3ca95860	0.020672023
24	0xbc1154fa	-0.008870358
25	0xbd09205d	-0.03347813
26	0xbca65b37	-0.020307167
27	0x3c9597d3	0.018260872
28	0xbc5c04b8	-0.013428859
29	0x3c80985a	0.015697647
30	0xbd17b333	-0.037036132
31	0x3aa1b1e3	0.001233634
32	0x3d0909b8	0.033456534
33	0x3c88f26f	0.016717164
34	0x3d0a3da7	0.033750203
35	0xbcc04d5a	-0.023474384
36	0x3cdb3cc6	0.026762377
37	0xbc29a276	-0.010353675
38	0xbc1b372d	-0.009473604
39	0xbc0f785b	-0.008756722
40	0x3cc6c889	0.024265544
41	0xbcafa7e9	-0.02144237
42	0x3afd6636	0.0019332829
43	0xbbb3e636	-0.0054900898
44	0x3b366501	0.00278312
45	0x3d3fef89	0.046859298
46	0x3c9a16f3	0.018809771
47	0xbc757c41	-0.014983238
48	0x3c5cad94	0.013469119
49	0xbc524d1d	-0.012835768
50	0x3cffc7a0	0.031223118
51	0x3bd01e3d	0.006351261
52	0x3cd4ce53	0.02597729
53	0xbc55c23c	-0.013046797
54	0x3c57b7f4	0.013166416
55	0xbd281b76	-0.041041814
56	0xbd7759a3	-0.06038822
57	0x3b859b83	0.0040773763
58	0x3d03ad8f	0.03214794
59	0x3ca828a2	0.020527188
60	0xbc71f823	-0.014768633
61	0x37911647	1.729572e-05
62	0xbc420c8f	-0.0118438145
63	0xbc9e0cc2	-0.019293193
64	0x3cf40a5b	0.029790094
65	0x3ccb657c	0.024828665
66	0x3d80377d	0.062605835
67	0x3d0a02df	0.033694144
68	0x3c8797cf	0.01655188
69	0x3ba2c8e5	0.004967796
70	0x3cb54a95	0.02213029
71	0x3d0b3d7c	0.033994183
72	0x3ca4696d	0.020069802
73	0x3d5ad1da	0.053422786
74	0x3cbfbb20	0.023404658
75	0x3d16de53	0.03683312
76	0xbc240cb8	-0.010012798
77	0x3d458fc3	0.048232805
78	0xbd25d846	-0.040489458
79	0xbc97d196	-0.018532556
80	0x3d38eec2	0.045149572
81	0x3cae933b	0.02131044
82	0xbd0e60d1	-0.0347603
83	0x3addf233	0.0016933143
84	0xbd0595ba	-0.032613494
85	0xbb5e9134	-0.003396106
86	0xbd0d6c44	-0.03452708
87	0xbbc2d036	-0.005945231
88	0x3bdc5e91	0.0067251404
89	0xbc57485f	-0.013139813
90	0xbbcd73da	-0.006269914
91	0xbd10369b	-0.035208326
92	0x3cabbd38	0.02096425
93	0x3c1dc116	0.009628555
94	0x3c717cc4	0.014739219
95	0xbd24138a	-0.040057696
96	0xbc93e10f	-0.018051652
97	0xbc36dc4d	-0.011160922
98	0xbca84831	-0.020542236
99	0xbc847414	-0.016168632
100	0xbc3d95d9	-0.011571371
101	0x3c9b539e	0.01896077
102	0x3c9fc030	0.019500822
103	0xbab4f3b7	-0.0013805543
104	0xbd2868e0	-0.04111564
105	0xbca2c3e4	-0.019868799
106	0xbd06c6aa	-0.032904305
107	0xbd1879df	-0.0372256
108	0xbd04ad4e	-0.03239184
109	0x3bad97b1	0.005297624
110	0x3d310b6e	0.04322379
111	0x3d44d942	0.048058756
112	0xbc8b7e85	-0.017028103
113	0xbc10500b	-0.008808146
114	0x3d0a50de	0.033768527
115	0xbc864c41	-0.016393783
116	0xbcdd9d8d	-0.027052665
117	0xbd1b7edc	-0.03796278
118	0xbcd5b1c2	-0.026085738
119	0xbd00f8cb	-0.031487267
120	0x3b7dc59c	0.003872252
121	0x3d1a3d47	0.037656095
122	0x3d8a4071	0.067505725
123	0xbcc2a38e	-0.02375963
124	0xbbab4afb	-0.005227444
125	0xbc14e566	-0.009087896
126	0x3abf45fe	0.0014593003
127	0xbd37988d	-0.044823218
128	0xbcaa1149	-0.020760195
129	0xbc5cc782	-0.013475301
130	0xbcb0e82a	-0.02159508
131	0xbd444d9a	-0.04792557
132	0xbbf78b1a	-0.007554424
133	0xbd2e5aba	-0.042566992
134	0xbc87d242	-0.01657975
135	0x3d8c0ba8	0.06838161
136	0xbcc1a48f	-0.023638038
137	0xbbc08281	-0.0058749323
138	0xbacadd12	-0.0015477261
139	0xbc642282	-0.013924243
140	0xbd5ff699	-0.054678533
141	0xbc7836a1	-0.015149743
142	0xbd7a4c56	-0.061107956
143	0x3c034789	0.008012661
144	0xbbcab7fb	-0.006186483
145	0xbb47d4c3	-0.0030491806
146	0x3d15d17b	0.03657673
147	0xbd1bfca1	-0.038082723
148	0x3d378f2b	0.04481427
149	0x3d1570f8	0.03648469
150	0xbb65c1f6	-0.0035058237
151	0xbc190edd	-0.009341923
152	0x3d4b61d3	0.04965384
153	0xbcee323b	-0.029076686
154	0x3c3ccbe2	0.011523219
155	0xbd1d56ce	-0.03841286
156	0xbc052a05	-0.008127694
157	0x3c0ad6cb	0.008474062
158	0xbd4f4942	-0.050606973
159	0xbc21bec9	-0.009872147
160	0x3cc46a92	0.023976598
161	0xba91da25	-0.0011127634
162	0xbc7b1203	-0.015324119
163	0xbc9bdeb8	-0.019027099
164	0xbbd3d94d	-0.0064651133
165	0x3cdaedca	0.026724715
166	0x3d392875	0.0452046
167	0x3c600886	0.013673907
168	0xbc7b703a	-0.015346581
169	0x3cefc03a	0.029266465
170	0xbc6c804a	-0.014434883
171	0x3c3421b5	0.0109943645
172	0x3c270a82	0.010195376
173	0x3d622d8d	0.05521922
174	0xbc806c97	-0.01567678
175	0x3ca2c474	0.019869067
176	0x3d220d9d	0.039563764
177	0x3cb3084e	0.021854546
178	0xbc9d853d	-0.019228572
179	0xbc1d2593	-0.009591478
180	0x3d18d00e	0.03730779
181	0x3bfc2abc	0.007695524
182	0xba07404c	-0.0005159422
183	0xbc45a29c	-0.012062695
184	0xbcf267b1	-0.02959046
185	0xbcd8e46a	-0.026476104
186	0x3c5e176f	0.013555392
187	0xbce62a84	-0.028096445
188	0xbd704357	-0.05865797
189	0xbb8237c4	-0.003973933
190	0xbd533352	-0.051562615
191	0xbd50ec73	-0.051006746
192	0xbcd9d080	-0.026588678
193	0xbcf31451	-0.029672774
194	0x3ba29ac7	0.0049622986
195	0x3bcc6451	0.0062375446
196	0xbd08435d	-0.033267368
197	0xbd5f5920	-0.054528356
198	0xbb45d0fa	-0.0030184374
199	0x3b152ebf	0.0022763459
200	0x3c6724d3	0.014107901
201	0x3c9bbb9b	0.019010356
202	0x3b6f2395	0.0036489714
203	0xbc81b31e	-0.01583248
204	0xbd0ac520	-0.0338794
205	0xbc0be798	-0.008539103
206	0x3d1a5432	0.03767795
207	0xbd2c7f64	-0.042113677
208	0x3d05f402	0.032703407
209	0xbd3d6ade	-0.046244495
210	0x3caaed40	0.020865083
211	0x3a395b62	0.0007070807
212	0xbd318c69	-0.043346796
213	0x3c9b4f4c	0.01895871
214	0x3d09c314	0.033633307
215	0xbc3e4ec9	-0.0116154635
216	0x3d38d318	0.04512319
217	0x3c1e5ff7	0.0096664345
218	0xbc8d7f4f	-0.01727262
219	0xbd0587cd	-0.032600213
220	0xbcdd0c7e	-0.026983496
221	0x3cf77c56	0.030210655
222	0x3d22d61a	0.039754964
223	0x3ce54b10	0.027989894
224	0x3b9eef71	0.004850321
225	0xbc7c4f88	-0.015399821
226	0x3ce3a611	0.027789148
227	0xbcfab7a4	-0.030605145
228	0x3cd81168	0.026375487
229	0x3caf076c	0.021365844
230	0x3c814ba5	0.01578314
231	0x3c93d1de	0.018044408
232	0xbcf1688a	-0.029468793
233	0xbd195d64	-0.03744258
234	0x3d27b091	0.04093987
235	0xbd245560	-0.040120482
236	0xbd4b402e	-0.049621753
237	0x3d76c4d1	0.060246293
238	0x3d190177	0.037354913
239	0xbc280b67	-0.010256625
240	0xbcf349ed	-0.029698336
241	0xbc6c01c4	-0.014404718
242	0x3cf3e78c	0.029773496
243	0xbd12dbd3	-0.035854172
244	0xbcfa4fbf	-0.030555604
245	0x3c419ca1	0.011817128
246	0x3cd6274b	0.026141783
247	0xbcff816e	-0.031189647
248	0xbd22f518	-0.03978452
249	0xbd04b8a7	-0.03240266
250	0x3ccfd3e2	0.025369588
251	0x3af9484a	0.0019018736
252	0x3cf1de3f	0.02952492
253	0x3d0034f2	0.031300493
254	0xbd4f62c2	-0.050631292
255	0xbc9c68fd	-0.019093031

layer4.0.bias f4 [64]
0	0x3c760387	0.015015489
1	0xbb2b31bc	-0.0026122173
2	0x3c9e2575	0.01930497
3	0xbcb15c80	-0.021650553
4	0xbc16c26f	-0.00920163
5	0x3c929b34	0.017896272
6	0x3ca4bf95	0.020110885
7	0xbce1acd7	-0.027548237
8	0x3d44f5fa	0.048086144
9	0x3bd94b1d	0.0066312687
10	0x3c8d66c0	0.01726091
11	0xbd06e745	-0.0329354
12	0x3c462ea1	0.012096078
13	0x3c2ece60	0.010669321
14	0x3cc7adbd	0.024374837
15	0xbcac0aed	-0.021001304
16	0xbb29abbc	-0.0025889715
17	0xba1fc8fa	-0.00060953165
18	0x3bd84339	0.0065998104
19	0x3ce77107	0.028252138
20	0x3cb5458a	0.022127885
21	0x3cf2d430	0.029642195
22	0x3d3208a6	0.04346528
23	0xbc47f8f0	-0.012205347
24	0x3caec784	0.02133537
25	0xbb27e2b2	-0.0025617299
26	0xbc816f82	-0.015800241
27	0x3c46f09d	0.012142328
28	0x3d0243a9	0.031802807
29	0x3c99f714	0.018794574
30	0x3c271dd9	0.010199987
31	0xba8ce810	-0.0010750312
32	0xbcb6b7df	-0.022304473
33	0x3d03292b	0.032021683
34	0xbc735cd5	-0.014853676
35	0xbcac791a	-0.02105384
36	0x3ce50ae9	0.027959304
37	0xbc16403f	-0.009170591
38	0x3badca54	0.0053036604
39	0xbb4070da	-0.002936414
40	0x3cee85c6	0.029116523
41	0x3d0230e7	0.03178492
42	0x3c3ea980	0.011637092
43	0xbd12ed98	-0.03587112
44	0xbc78bed9	-0.01518222
45	0xbbbd0277	-0.005768116
46	0x3cfeb265	0.031090925
47	0x3d1d0c18	0.03834161
48	0x3ca0c3bc	0.019624583
49	0x3d2364dc	0.03989111
50	0xbc8aaa78	-0.016926989
51	0xbc12bfec	-0.008956891
52	0xbd144089	-0.036194358
53	0x3b9ac550	0.0047232285
54	0xbcc80c47	-0.024419917
55	0xbd06af11	-0.0328818
56	0xbd1a9070	-0.037735403
57	0xbd30edde	-0.043195598
58	0x3cad40d0	0.02114907
59	0x3d1c6ac5	0.03818776
60	0xbc45a38f	-0.012062921
61	0x3ce07b35	0.0274025
62	0x3cf49198	0.02985458
63	0xbcb4c0d9	-0.022064613

layer4.1.weight f4 [64]
0	0x3f811c6c	1.0086799
1	0x3f82e875	1.022719
2	0x3f8159f8	1.0105581
3	0x3f7dc067	0.9912171
4	0x3f7ee939	0.9957462
5	0x3f839427	1.0279588
6	0x3f7eb3eb	0.99493283
7	0x3f8066ea	1.0031407
8	0x3f81370a	1.0094922
9	0x3f78b586	0.9715198
10	0x3f78759a	0.97054446
11	0x3f7af64e	0.9803208
12	0x3f821aa5	1.0164381
13	0x3f825b91	1.0184194
14	0x3f805554	1.002604
15	0x3f7cf3b2	0.9880935
16	0x3f7f11a3	0.99636286
17	0x3f8132f0	1.009367
18	0x3f818f6c	1.0121894
19	0x3f809eea	1.0048497
20	0x3f81bd97	1.0135983
21	0x3f815811	1.0105001
22	0x3f82a5f7	1.0206898
23	0x3f77626a	0.9663454
24	0x3f815827	1.0105027
25	0x3f824416	1.0177028
26	0x3f835686	1.026078
27	0x3f853273	1.0406021
28	0x3f80ac10	1.0052509
29	0x3f7c1fb0	0.9848585
30	0x3f80823d	1.0039746
31	0x3f7fd68f	0.99936765
32	0x3f819996	1.0124996
33	0x3f804331	1.0020505
34	0x3f82e923	1.0227398
35	0x3f7fa2f2	0.9985801
36	0x3f7dffa1	0.99218184
37	0x3f7dd0ff	0.9914703
38	0x3f780f0d	0.96897966
39	0x3f75ef74	0.960685
40	0x3f7a4d2f	0.9777402
41	0x3f7d0f74	0.98851705
42	0x3f79d27d	0.97586805
43	0x3f7d7228	0.99002314
44	0x3f825a88	1.0183878
45	0x3f7c4739	0.9854618
46	0x3f765d98	0.9623656
47	0x3f856588	1.042161
48	0x3f80935a	1.0044968
49	0x3f7f421b	0.99710244
50	0x3f80652b	1.0030874
51	0x3f80691c	1.0032077
52	0x3f807406	1.0035408
53	0x3f80c6f6	1.0060718
54	0x3f82a6af	1.0207118
55	0x3f8700f3	1.0547165
56	0x3f801983	1.0007786
57	0x3f7bb808	0.98327684
58	0x3f7e2935	0.99281627
59	0x3f7b022d	0.98050195
60	0x3f80db87	1.0066994
61	0x3f7f5d49	0.99751717
62	0x3f8141af	1.009817
63	0x3f84d37f	1.0377043

layer4.1.bias f4 [64]
0	0xbc9e4427	-0.019319607
1	0xbc48aebd	-0.012248692
2	0xbba6a953	-0.005086103
3	0xbb4abee9	-0.0030936545
4	0xbb62da5f	-0.0034615023
5	0xbcde54c5	-0.02714003
6	0xbc353fc0	-0.0110625625
7	0x3b3f4960	0.0029188022
8	0xb9922775	-0.00027876688
9	0xbcf47727	-0.029841973
10	0xbcf249cf	-0.02957621
11	0xbc9718ef	-0.018444506
12	0xbbbe03e7	-0.005798805
13	0xbc287ffc	-0.01028442
14	0x3a7f78a5	0.00097454555
15	0xbc398dd3	-0.011325317
16	0xbb8f7ad5	-0.0043786564
17	0x3bdb6ad0	0.0066960827
18	0xb93bc4b4	-0.00017906987
19	0xbb26c84b	-0.0025448974
20	0xbc8135a0	-0.01577264
21	0xbc356206	-0.011070734
22	0xbb4b5000	-0.0031023026
23	0xbc96defd	-0.018416876
24	0x3bb89887	0.005633417
25	0x3ae84cb1	0.0017723051
26	0xbc02de2b	-0.007987539
27	0xba29614d	-0.00064613373
28	0xbc7e2916	-0.015512725
29	0xbcad6214	-0.021164931
30	0xbc2d34d8	-0.010571681
31	0xbc21c139	-0.009872728
32	0x394da883	0.00019613099
33	0xbc01ed8e	-0.007930173
34	0xbc86abcb	-0.01643934
35	0xbbc6ede7	-0.0060708406
36	0xbbff07bc	-0.0077829044
37	0xbc8cd9ae	-0.017193642
38	0xbcc1ddc8	-0.023665324
39	0xbcac38e9	-0.02102323
40	0xbc6e6af2	-0.014551865
41	0xbca74de5	-0.020422885
42	0xbcb69341	-0.022287013
43	0xbc54a72f	-0.012979313
44	0xbc1eac55	-0.009684642
45	0xbc5cf27e	-0.013485549
46	0xbd2b6726	-0.041846417
47	0xbc102548	-0.008797951
48	0xbc222fa7	-0.0098990565
49	0xbc1707d9	-0.00921818
50	0xbcdcb8fb	-0.026943674
51	0xbb86fca2	-0.0041194716
52	0xbb8284fc	-0.003983138
53	0xbb02d93e	-0.0019965912
54	0xbc848a34	-0.016179182
55	0x3b4b0184	0.0030976245
56	0xbcdb9f46	-0.026809346
57	0xbc9d340c	-0.019189857
58	0xbcb000a4	-0.02148468
59	0xbc9dce5b	-0.019263437
60	0xbb542432	-0.0032370207
61	0xbc8e832a	-0.017396528
62	0xbbfbec17	-0.007688056
63	0x3b4af931	0.0030971284

layer5.0.weight f4 [64, 64, 3, 3]
0	0xbb490fdd	-0.0030679621
1	0x3d52614a	0.051362313
2	0x3d3b0971	0.0456633
3	0x3c9954d9	0.018717216
4	0xb9eca540	-0.0004513655
5	0x3d32d06f	0.04365581
6	0x3d2716c6	0.040793203
7	0xbc1acb7a	-0.009447927
8	0xbc911e61	-0.017714681
9	0xbd622de9	-0.055219565
10	0xbd2ecf7c	-0.04267834
11	0xbd02ebf5	-0.031963307
12	0xbd11973b	-0.035544615
13	0xbd8998ca	-0.06718595
14	0x3cf5a432	0.029985521
15	0x3d01545d	0.031574596
16	0x3c076ba2	0.008265408
17	0x3c243294	0.010021824
18	0x3d55523d	0.05208038
19	0xbb0b275a	-0.0021233172
20	0xbbc73cd8	-0.006080251
21	0x3cae7eb6	0.021300655
22	0x3cbd0433	0.023073291
23	0x3cc689b9	0.024235593
24	0xbbd6cf9e	-0.0065555116
25	0x3cf49ba0	0.029859364
26	0x3c2e3b30	0.010634229
27	0xbd4b6c87	-0.049664047
28	0xbc55a6a7	-0.013040221
29	0xbd1713e0	-0.03688419
30	0x3bcca803	0.0062456145
31	0xbd17994f	-0.03701144
32	0xbb83852d	-0.0040136785
33	0xbbb93fff	-0.005653381
34	0xbbc750e4	-0.006082641
35	0xbcf37d4a	-0.029722828
36	0x3cfffd6f	0.031248776
37	0x3cdc1b64	0.02686853
38	0x3c5bf9ba	0.013426239
39	0x3cbfb501	0.02340174
40	0x3d139e2a	0.03603951
41	0xbca81dc7	-0.020522011
42	0x3cea58bb	0.028606763
43	0x3cb8574e	0.022502568
44	0xbc1b6a1d	-0.009485749
45	0x3db9e221	0.09076334
46	0x3d6bb329	0.057543907
47	0x3db6f331	0.08933104
48	0x3ac220a3	0.0014810752
49	0x3d0e5810	0.03475195
50	0x3d305df1	0.04305834
51	0xbcd77513	-0.026300943
52	0x3d6082c5	0.05481221
53	0x3cd3ab87	0.025838627
54	0x3ca415e1	0.020029964
55	0x3cdc3152	0.026878987
56	0xbcbd384f	-0.02309814
57	0xbd380223	-0.044923913
58	0xbc3a1b42	-0.011359038
59	0x3cb03e3f	0.021514056
60	0xbd3a3830	-0.04546374
61	0xbcab98d8	-0.020946905
62	0xbd7ec842	-0.0622027
63	0xbca962d3	-0.020677006
64	0xbd51333d	-0.051074255
65	0xbc0f180e	-0.008733762
66	0xbd2a37b4	-0.04155703
67	0x3b78bec7	0.003795551
68	0xbd1a0dbf	-0.037610766
69	0x3ccf5ce4	0.025312848
70	0xbd17389e	-0.03691923
71	0xbce03793	-0.02737025
72	0x3d167767	0.036734965
73	0xbc082d09	-0.0083115185
74	0xbca30903	-0.019901758
75	0x3c93507a	0.01798271
76	0x3c16eb9e	0.009211449
77	0x3c0f5600	0.008748531
78	0xbbf7226f	-0.0075419466
79	0x3a90320e	0.0011001246
80	0xbbd5f329	-0.006529231
81	0x3d77f1bf	0.06053328
82	0x3d4d4365	0.0501131
83	0x3c0c8d7a	0.0085786525
84	0x3cad4e53	0.021155512
85	0x3c4967c6	0.012292808
86	0x3997c1de	0.00028945407
87	0xbc6a8d94	-0.014315981
88	0x3d35ba7d	0.044367302
89	0xbd421fdc	-0.047393665
90	0xbce0496d	-0.027378762
91	0x3c83d972	0.016094897
92	0x3b7319ac	0.003709416
93	0x3c174bd2	0.009234386
94	0x3b8904fc	0.0041815024
95	0x3b4044a2	0.0029337783
96	0x3b40503a	0.0029344694
97	0x3c2717f2	0.01019858
98	0x3d08fe6c	0.03344576
99	0xbc927cd8	-0.017881796
100	0x3c38d5e8	0.011281468
101	0xbd0772a7	-0.033068325
102	0xbb2299df	-0.0024810953
103	0xbcff0973	-0.031132435
104	0xbcf37915	-0.029720822
105	0x3c78352e	0.015149398
106	0xbb00875e	-0.0019611935
107	0x3d076be7	0.033061888
108	0x3b29facc	0.002593684
109	0xbc906dc7	-0.01763047
110	0xbcc3216e	-0.023819651
111	0x3c827e37	0.015929325
112	0xbc08a119	-0.00833919
113	0xbc10dc1a	-0.008841539
114	0x3b1e786f	0.002418067
115	0x3c9386dc	0.018008642
116	0x3ca82389	0.020524757
117	0x3c154fc0	0.009113252
118	0xbc07c09b	-0.008285667
119	0x3c70cf94	0.014697928
120	0xbbfeb6d4	-0.0077732597
121	0xbb96112f	-0.004579685
122	0xbca196d5	-0.019725243
123	0xbb95a1b5	-0.004566396
124	0x3d081e9b	0.033232313
125	0xbc94ecb6	-0.018179279
126	0xbcfd8232	-0.030945871
127	0xbcbb6777	-0.022876484
128	0x3cac1654	0.02100674
129	0xbcba9757	-0.022777243
130	0x3cd0222b	0.025406918
131	0xbc8ef3c5	-0.017450223
132	0xbc88aff6	-0.016685467
133	0xbd5acc61	-0.053417567
134	0xbd439fa1	-0.047759656
135	0xbcaf3762	-0.021388713
136	0x3b8a5cff	0.004222512
137	0xba605631	-0.00085577654
138	0x3bb3a459	0.0054822383
139	0xbcc82985	-0.02443386
140	0x3d0cb5bd	0.034353007
141	0xbc749499	-0.014928007
142	0x3cb6abf0	0.022298783
143	0xbc518216	-0.012787363
144	0xbbe94345	-0.007118615
145	0xbd2a8471	-0.041630212
146	0xbd0f2cbe	-0.03495478
147	0x3c691d25	0.01422814
148	0x3cda0e45	0.026618132
149	0x3ced9484	0.029001482
150	0x3ba9e254	0.005184451
151	0xbd193ba1	-0.037410382
152	0xbc1f7215	-0.009731789
153	0x3bd198bd	0.0063963817
154	0xbc3a05da	-0.011353934
155	0x3d5805dd	0.052739967
156	0x3cf811d2	0.030281935
157	0xbc18cd5b	-0.009326304
158	0x3c08f396	0.008358857
159	0x3c926d47	0.017874373
160	0xbd3e3f08	-0.04644683
161	0xbdb0378e	-0.08604346
162	0xbd3c303b	-0.045944434
163	0xba92ddfa	-0.001120507
164	0x3c982eda	0.018577028
165	0xbc674110	-0.014114633
166	0xbd4386c1	-0.047735933
167	0xbd2f473b	-0.04279254
168	0xbc1070a7	-0.008815921
169	0x3cdabbfa	0.026700962
170	0x3cd9d7d2	0.026592169
171	0xbca70bb8	-0.02039133
172	0xbb0687a4	-0.0020527625
173	0x3d3da4db	0.046299797
174	0xbcafeb8d	-0.021474624
175	0xbcf96c1d	-0.03044706
176	0xbc22a78f	-0.009927644
177	0x374b9152	1.2133578e-05
178	0x3c899a27	0.016797138
179	0x3ce2a852	0.027668152
180	0x3d1332cd	0.03593712
181	0x3cf388e3	0.029728359
182	0x3ca59b45	0.02021564
183	0x3cb380ce	0.021912005
184	0x3c84ab84	0.016195066
185	0xbc1d458a	-0.009599099
186	0xbc6b8824	-0.01437572
187	0xbb74b396	-0.0037338487
188	0xbccd1408	-0.025033966
189	0x3c1f9f0e	0.009742511
190	0x3cdb1f88	0.026748434
191	0x3d62eb70	0.055400312
192	0x3d13cda4	0.036084786
193	0xbb86011c	-0.0040894877
194	0x3d468fae	0.048476867
195	0xb96b8adc	-0.00022463076
196	0x3cf4a3cb	0.029863259
197	0x3c8bab80	0.017049551
198	0xbc76810e	-0.0150454175
199	0xbcfd6c07	-0.0309353
200	0x3c8e6f72	0.017387126
201	0x3b370253	0.002792497
202	0x3bc453b1	0.005991422
203	0xbb5e93e0	-0.0033962652
204	0xbd3c154d	-0.04591875
205	0xbad4f9cc	-0.0016248762
206	0xbcae3ba3	-0.021268671
207	0x3cd60027	0.02612312
208	0x3d111e15	0.03542908
209	0xbd2f1867	-0.04274788
210	0xbc936d3b	-0.017996421
211	0xbca8bf0e	-0.020598914
212	0x3c9b0ec3	0.018927937
213	0xbcf96837	-0.030445201
214	0xbcd5f3e7	-0.026117278
215	0xbce606c3	-0.028079396
216	0xbd1eac1f	-0.038738366
217	0xbd02f755	-0.031974155
218	0xbabef1f8	-0.0014567962
219	0xbcce2d5b	-0.025168112
220	0x3ce510c4	0.027962096
221	0x3cc757c4	0.024333842
222	0xbd0feb0d	-0.03513627
223	0x3c94cfd4	0.018165506
224	0x3c073183	0.008251551
225	0x3c5af930	0.013365075
226	0xbcd38265	-0.025819013
227	0x3d4072b4	0.04698439
228	0xbd224974	-0.03962083
229	0xbd00619b	-0.031343084
230	0xbceb6f11	-0.028739484
231	0xbc0bb08e	-0.008525981
232	0xbd4eb8f3	-0.05046935
233	0x3aacd0bc	0.0013184766
234	0x3cdbd8ab	0.026836714
235	0x3c256d2d	0.01009683
236	0x3c79aba2	0.015238674
237	0x3d08a8ee	0.03336423
238	0xbb33d22f	-0.0027438512
239	0x3c9cf1b2	0.019158218
240	0x3c759aa7	0.014990485
241	0xbc8bba57	-0.017056627
242	0x3d075ef5	0.033049542
243	0x3b4836dd	0.003055028
244	0xbbd2c5fe	-0.006432294
245	0x3d21a7b7	0.039466586
246	0x3c2ef78a	0.010679135
247	0x3d271c94	0.04079874
248	0x3ccf15f2	0.025279019
249	0x3d365830	0.044517696
250	0x3d9185ca	0.07105596
251	0x3db1651f	0.086618654
252	0x3d2b9458	0.04188952
253	0xbd01b4a1	-0.0316664
254	0x3d0c234a	0.03421334
255	0x3d0a6b8d	0.033793975

layer5.0.bias f4 [64]
0	0xbc912ab7	-0.017720563
1	0x3b9a1677	0.004702385
2	0x3b8aff6f	0.004241876
3	0xbb43327e	-0.0029784734
4	0xbc3561aa	-0.011070648
5	0xbc3a94ec	-0.011388045
6	0xbc260481	-0.01013291
7	0xbc023704	-0.007947687
8	0xbd064238	-0.032777995
9	0x3c457b6a	0.01205335
10	0x3bad8c57	0.005296271
11	0xbc30490c	-0.010759603
12	0xbc064b1a	-0.008196617
13	0x3c9d883b	0.019229999
14	0xbb3f6ed9	-0.0029210357
15	0x3c0c8d2f	0.008578583
16	0xbc168d50	-0.009188965
17	0x3cdd20f1	0.026993247
18	0xbc7bc337	-0.015366367
19	0xbbd47a8a	-0.0064843344
20	0x3d15b849	0.0365527
21	0x3d20f502	0.039296158
22	0xbc8fd9c2	-0.01755989
23	0x3cf96482	0.030443434
24	0xbc0bddbd	-0.008536753
25	0xbc03657f	-0.008019804
26	0x3ccc43b2	0.024934623
27	0x3cddd483	0.027078873
28	0x3c81f4f9	0.015863882
29	0xbd01d7cf	-0.03169995
30	0x3c365cac	0.011130493
31	0xbc5501ad	-0.013000888
32	0x3ba56e3d	0.005048542
33	0x3cf882e9	0.03033586
34	0x3ce344d1	0.027742775
35	0x3d204d8e	0.039136462
36	0x3cd5d97a	0.026104677
37	0x3cdfa6bd	0.027301187
38	0x3d16cd39	0.03681681
39	0xbc991009	-0.018684404
40	0x3c930d1b	0.017950585
41	0x3cae7e38	0.02130042
42	0x3d03ec58	0.032207817
43	0x3c9d3679	0.019191014
44	0xbce09824	-0.027416296
45	0x3c1088b4	0.008821655
46	0xbd2612f5	-0.040545423
47	0xbc7647a1	-0.015031726
48	0xbc21c701	-0.009874106
49	0x3c89d175	0.01682351
50	0xbbc23085	-0.005926194
51	0xbcbf7726	-0.023372244
52	0xbd20cee1	-0.039259795
53	0x3c240805	0.010011678
54	0x3d1eace1	0.03873909
55	0x3c74e6d9	0.0149476165
56	0xbcaa4061	-0.020782651
57	0x3c9cc49d	0.019136721
58	0xbd0533ec	-0.03252022
59	0xbcdfb3d0	-0.027307421
60	0x3d2a19bb	0.041528445
61	0xbd1897f9	-0.037254307
62	0x3d0ed3fd	0.034870137
63	0x3c78990e	0.01517321

layer5.1.weight f4 [64]
0	0x3f80c907	1.0061349
1	0x3f81e6fd	1.0148617
2	0x3f83d106	1.0298164
3	0x3f7f364d	0.9969223
4	0x3f7c53cd	0.9856537
5	0x3f80dfa6	1.0068252
6	0x3f81d9c3	1.0144581
7	0x3f81d7e0	1.0144005
8	0x3f7a804e	0.9785203
9	0x3f7da78d	0.9908379
10	0x3f80b73b	1.0055918
11	0x3f7db53a	0.99104655
12	0x3f80d6f3	1.0065597
13	0x3f82691a	1.0188324
14	0x3f80f138	1.0073614
15	0x3f7ffe2e	0.9999722
16	0x3f7f1d95	0.99654514
17	0x3f7e55d3	0.9934971
18	0x3f8148b2	1.010031
19	0x3f7edeb7	0.99558586
20	0x3f819a46	1.0125206
21	0x3f809f3f	1.0048598
22	0x3f7fc702	0.99913037
23	0x3f7fade7	0.9987473
24	0x3f7ff5cb	0.99984425
25	0x3f848662	1.035351
26	0x3f81a5e7	1.0128754
27	0x3f82a62a	1.0206959
28	0x3f84cc43	1.0374836
29	0x3f7e54fd	0.9934843
30	0x3f80650b	1.0030836
31	0x3f80191d	1.0007664
32	0x3f80f28f	1.0074023
33	0x3f81263a	1.0089791
34	0x3f82c72b	1.0217031
35	0x3f8304c6	1.0235832
36	0x3f7d9ebb	0.9907033
37	0x3f8553ba	1.0416176
38	0x3f8022b0	1.0010586
39	0x3f831a40	1.0242386
40	0x3f780fd5	0.9689916
41	0x3f8215c5	1.0162894
42	0x3f831e49	1.0243617
43	0x3f78d486	0.97199285
44	0x3f8332a9	1.0249835
45	0x3f802719	1.0011932
46	0x3f80cd33	1.0062622
47	0x3f835e9a	1.0263245
48	0x3f8244c0	1.0177231
49	0x3f7d8f24	0.9904654
50	0x3f812ee3	1.0092434
51	0x3f80ec19	1.0072051
52	0x3f801fe1	1.0009729
53	0x3f81667a	1.0109398
54	0x3f807a04	1.0037236
55	0x3f7fa015	0.9985364
56	0x3f837c36	1.0272281
57	0x3f806d46	1.0033348
58	0x3f827f85	1.0195166
59	0x3f7a8778	0.9786296
60	0x3f7f7970	0.99794674
61	0x3f859129	1.0434924
62	0x3f8023f2	1.001097
63	0x3f842337	1.0323247
